Output/swift-iid-8W-pattern1-third-ring-2sgd-200epochs/r0-epoch_145-parameters.pt (torch, 731756 bytes, 92 tensors)

conv1.weight f4 [16, 3, 3, 3]
0	0x3ef3edd8	0.47642398
1	0x3eaba17e	0.33521646
2	0x3f169bf5	0.5883172
3	0xbe3e6911	-0.18594767
4	0xbeb55579	-0.35416773
5	0xbe200d7a	-0.15630141
6	0xbe99ae03	-0.30015573
7	0xbf5dc876	-0.86634004
8	0xbedc45d9	-0.4302204
9	0xbe844a4b	-0.2583793
10	0xbeeb1a50	-0.45918512
11	0xbe5138d4	-0.20431834
12	0xbe618140	-0.22021961
13	0xbdf38fde	-0.11892675
14	0xbe85e5b0	-0.261518
15	0xbcf853fc	-0.030313484
16	0xbe394786	-0.1809369
17	0xbe062196	-0.1309875
18	0xbebfe816	-0.37481755
19	0xbeaedfd7	-0.3415515
20	0xbed3e29a	-0.4138382
21	0x3e71460c	0.23561877
22	0x3f29ebd2	0.6637546
23	0x3dd96377	0.106146745
24	0x3f0c3941	0.5477486
25	0x3f2c9afe	0.67424
26	0x3ed479a7	0.41499063
27	0xbdc26840	-0.0949254
28	0x3f2d74d8	0.67756414
29	0xbe0577ca	-0.13033977
30	0xbefac2bf	-0.48976704
31	0xbe7e1844	-0.24813944
32	0xbecfbb3f	-0.40572545
33	0x3e99216e	0.29908317
34	0x3e599778	0.21249187
35	0x3e33440f	0.17506431
36	0xbcc3d004	-0.0239029
37	0x3f732546	0.9497875
38	0xbc5c32be	-0.013439832
39	0xbf32c54c	-0.698323
40	0xbf0e2b19	-0.5553451
41	0xbf3cc0b4	-0.7373154
42	0x3e803549	0.25040653
43	0x3dcd5c93	0.10027423
44	0x3dd64235	0.10461847
45	0x3e11cce1	0.14238311
46	0x3f438e59	0.7638908
47	0x3ea23472	0.31680638
48	0xbed02f47	-0.4066107
49	0xbd3dd54e	-0.046346
50	0xbe77befc	-0.24193949
51	0xbde35f7f	-0.11102199
52	0x3e598f74	0.2124613
53	0x3c9d38b1	0.019192072
54	0x3ea6ccc5	0.32578102
55	0xbeb4d982	-0.35322195
56	0x3ec1f9f8	0.37886024
57	0x3e6e3be6	0.23265037
58	0x3f32b346	0.698048
59	0xbec5546c	-0.3854097
60	0xbe071e7f	-0.13195227
61	0x3e755755	0.23959096
62	0xbda38ed5	-0.079862274
63	0xbe94680d	-0.28985634
64	0xbf6df283	-0.9294817
65	0xbebb59e3	-0.36592016
66	0x3e09eb0b	0.13468568
67	0x3f5d47d8	0.8643775
68	0xbf2a4a9d	-0.665201
69	0xbe348c0f	-0.17631553
70	0x3ec7f2fc	0.3905257
71	0xbe82bf95	-0.2553679
72	0xbf0c5034	-0.5480988
73	0xbf5784c3	-0.84186953
74	0xbe0382a9	-0.12842812
75	0x3e47719b	0.19476931
76	0x3f855959	1.0417892
77	0x3d9fc81a	0.07801838
78	0x3d94364d	0.072369196
79	0x3f3c87cd	0.73644716
80	0x3e0a1fb1	0.13488652
81	0x3e80d0ea	0.2515939
82	0x3d066c2d	0.03281801
83	0x3e99dcf3	0.30051383
84	0xbe7d1e72	-0.24718645
85	0xbede46ae	-0.434133
86	0xbde75e8e	-0.11297332
87	0xbea744a8	-0.32669568
88	0xbf2938cd	-0.66102296
89	0xbd93a0c9	-0.07208402
90	0xbe7ce209	-0.246956
91	0xbe8458a8	-0.2584889
92	0xbe1f1002	-0.1553345
93	0xbe1f07b9	-0.1553029
94	0x3b6798c3	0.0035338856
95	0xbe485e15	-0.1956714
96	0xbdbc6f76	-0.09200947
97	0xbd9f93b4	-0.07791844
98	0xbe1e3fcc	-0.15454024
99	0xbe2abfee	-0.16674778
100	0x3e303c70	0.17210555
101	0xbdca6434	-0.098823935
102	0x3f0a3075	0.5398019
103	0x3f91d75d	1.1393849
104	0x3ed4f136	0.4159028
105	0x3f20d0ce	0.6281861
106	0x3f8692e2	1.0513575
107	0x3ec40276	0.38283128
108	0x3e1060fe	0.140995
109	0xbd1edbdc	-0.038783893
110	0xbdb27c5d	-0.08715127
111	0xbe0d8559	-0.138204
112	0xbed02dfa	-0.40660077
113	0xbee82a13	-0.453446
114	0x3da29495	0.07938496
115	0xbd1636d7	-0.036673393
116	0xbe3db77d	-0.18527026
117	0x3e8a7f6b	0.27050337
118	0x3de2d7ae	0.11076294
119	0x3d4df6e0	0.050284266
120	0x3cb32726	0.021869253
121	0xbdc07abf	-0.09398412
122	0xbe25fcff	-0.16209792
123	0x3e9da238	0.30787826
124	0x3eb9c3b8	0.36282134
125	0x3e974835	0.29547277
126	0x3e5aa634	0.21352464
127	0x3d885170	0.06656158
128	0xbd94fece	-0.07275163
129	0xbe5b198d	-0.21396466
130	0xbed42185	-0.41431823
131	0xbf04b3c9	-0.5183683
132	0xbdb40717	-0.08790415
133	0xbe2c3776	-0.16818032
134	0xbe8866e9	-0.26641014
135	0x3e5d030e	0.21583197
136	0x3f079aa9	0.5297037
137	0x3e3fb49a	0.18721238
138	0x3f6515e5	0.89486533
139	0x3fa2a83c	1.2707591
140	0xbe13d8e7	-0.1443821
141	0xbc8c5207	-0.017128957
142	0x3db3e654	0.08784166
143	0xbe9f0b18	-0.3106315
144	0xbc89b235	-0.016808609
145	0xbed0335a	-0.40664178
146	0xbeea0f3b	-0.45714745
147	0x3e8d5204	0.27601635
148	0xbe41d223	-0.18927817
149	0xbf9bf823	-1.21851
150	0xbeadc875	-0.33942
151	0xbf27957f	-0.6546249
152	0xbef4385e	-0.47699255
153	0x3e960a18	0.29304576
154	0x3df4a855	0.11946169
155	0x3d8b1165	0.06790427
156	0x3f0255ee	0.5091237
157	0x3ea64949	0.32477787
158	0xbeff7b0b	-0.49898562
159	0x3e6f8d82	0.23393825
160	0x3e1c39d0	0.15256429
161	0x3ddd5ec4	0.10809091
162	0xbe34b7af	-0.17648195
163	0xbec26393	-0.37966594
164	0xbe98a9af	-0.29816958
165	0xbef2f384	-0.47451413
166	0xbf2e60fb	-0.6811673
167	0xbf174b89	-0.5909963
168	0xbeaf8bcc	-0.34286344
169	0xbf517045	-0.81811935
170	0xbf154fdf	-0.58325
171	0x3ec2af88	0.38024545
172	0x3f0fb561	0.5613614
173	0x3ec2db5a	0.38057977
174	0x3e7c2070	0.24621749
175	0x3ec5775f	0.38567635
176	0x3e5f1bd2	0.21787956
177	0x3e0891a3	0.13336806
178	0xbcc34b32	-0.023839567
179	0x3da6378a	0.08116062
180	0x3da5ed79	0.08101935
181	0x3eadf658	0.33977008
182	0x3e272aa1	0.16324855
183	0x3e07d01b	0.1326298
184	0x3ee446ca	0.44585258
185	0x3e080d94	0.1328643
186	0x3dd9e50d	0.10639391
187	0x3e33b383	0.17548947
188	0x3db89e43	0.09014561
189	0x3e515779	0.20443524
190	0x3f46548c	0.7747276
191	0x3ee32f52	0.4437204
192	0xbe62298d	-0.22086163
193	0x3f945730	1.1589108
194	0xbe2ff098	-0.17181623
195	0xbf19e4e2	-0.6011487
196	0xbfc65481	-1.5494539
197	0xbe8dbb63	-0.27682027
198	0xbcd78ca3	-0.026312178
199	0x3e6d041d	0.231461
200	0x3d61e303	0.055148136
201	0x3e5c644a	0.21522632
202	0x3f9aea54	1.2102761
203	0xbde702ee	-0.11279856
204	0x3edb7302	0.42861181
205	0xbf4f15d5	-0.8089269
206	0x3e7eb2b7	0.24872862
207	0xbef8f210	-0.4862218
208	0xbf7a8d8d	-0.9787224
209	0xbe6dd9a6	-0.23227558
210	0xbee4fc4c	-0.44723737
211	0x3e6f4a62	0.23368219
212	0xbf1109c3	-0.5665552
213	0x3f43c987	0.7647938
214	0x3e9b4570	0.30326414
215	0x3f1f0e27	0.6213097
216	0x3b80a286	0.0039256243
217	0x3e95e1f8	0.29273963
218	0x3ddb8e69	0.10720522
219	0x3ea18086	0.31543368
220	0xbae6b281	-0.0017600806
221	0x3d95ec92	0.07320513
222	0x3e4feee3	0.20305972
223	0xbc73bf41	-0.014877141
224	0x3df7b17d	0.120944
225	0xbdd5d230	-0.10440481
226	0xbed6bfae	-0.41943115
227	0xbe53adcd	-0.20671768
228	0xbe55365f	-0.20821522
229	0xbf9d5a55	-1.2293192
230	0xbf54808a	-0.83008635
231	0xbd1de3aa	-0.038547195
232	0xbf2b2be4	-0.66863847
233	0xbe68ac62	-0.22722009
234	0x3c89d0c3	0.016823178
235	0x3ea6e689	0.3259776
236	0x3eaf2810	0.34210253
237	0x3dc7eae8	0.09761602
238	0xbdf7a09f	-0.12091183
239	0x3dcc3e29	0.099727936
240	0x3d9d446b	0.07679065
241	0x3d713612	0.058889456
242	0x3e80bce9	0.25144127
243	0xbd854709	-0.065076895
244	0x3dde31b8	0.10849327
245	0x3cb541ec	0.02212616
246	0xbb9f448a	-0.0048604654
247	0x3eb5bf03	0.35497293
248	0x3e35be15	0.17748292
249	0xbe0862df	-0.13318966
250	0xbe5d1b57	-0.2159246
251	0x3e2e4e49	0.17022051
252	0x3cc1051c	0.023562007
253	0x3ea5ec8b	0.3240703
254	0x3da1fa6b	0.079090916
255	0xbda6b472	-0.08139886

conv1.bias f4 [16]
0	0xbc7b8047	-0.015350408
1	0xbc1f8be1	-0.00973794
2	0xbc31b0b9	-0.010845357
3	0x3ca4e506	0.020128738
4	0x3c9829f6	0.018574696
5	0xbcb09149	-0.021553652
6	0xba87b606	-0.001035393
7	0x3ba948da	0.0051661553
8	0xbc8695fa	-0.016428936
9	0xbcb29471	-0.021799298
10	0xbbc766e8	-0.0060852654
11	0xbc234ad5	-0.009966572
12	0xbc05a726	-0.008157527
13	0x3c85bd5b	0.016325643
14	0x3b8934dd	0.00418721
15	0xbc749b63	-0.014929625

bn1.weight f4 [16]
0	0x3f5c2e5c	0.8600824
1	0x3f59d40e	0.85089195
2	0x3f59b0bf	0.8503532
3	0x3f343417	0.7039198
4	0x3f89cc2a	1.0765431
5	0x3f3df050	0.7419481
6	0x3f25a53f	0.6470527
7	0x3f41ed7d	0.75753003
8	0x3f855cea	1.041898
9	0x3f0dbe81	0.5536881
10	0x3f472c9c	0.77802444
11	0x3f3ec15d	0.745138
12	0x3f8bb36e	1.0914133
13	0x3f506cf7	0.8141627
14	0x3f6c813e	0.9238471
15	0x3f95e5d8	1.1710768

bn1.bias f4 [16]
0	0x3d85b074	0.065277964
1	0x3f5b741d	0.8572405
2	0x3f0f9064	0.560797
3	0x3f3ae0eb	0.7299945
4	0xbf193ba6	-0.5985664
5	0x3f611ff0	0.8793936
6	0x3ee4d964	0.44697106
7	0x3fb2e3eb	1.3975805
8	0x3e5f04be	0.21779153
9	0x3d8582cf	0.065190904
10	0x3ef3983f	0.47577092
11	0x3f19b917	0.6004805
12	0xbed3d1c2	-0.4137097
13	0x3f5e93e0	0.8694439
14	0x3e200452	0.15626648
15	0x3e1b4405	0.15162666

bn1.running_mean f4 [16]
0	0x3ed6e1ac	0.4196905
1	0x3d8562f9	0.06513018
2	0xbe819926	-0.25312155
3	0xbea68acd	-0.32527772
4	0x3f0139b3	0.5047867
5	0xbe8724b9	-0.26395205
6	0x3e5a0a68	0.21293032
7	0xbe559e35	-0.20861132
8	0x3f18521f	0.59500307
9	0xbe56875f	-0.20950077
10	0x3e0de49d	0.1385674
11	0x3e41d95b	0.18930571
12	0x3efde260	0.49586773
13	0xbe94778e	-0.28997463
14	0xbeed68d1	-0.4636903
15	0x3e419595	0.18904717

bn1.running_var f4 [16]
0	0x40624c81	3.5359194
1	0x409c9c29	4.8940625
2	0x40ca58c2	6.3233347
3	0x410211cf	8.129348
4	0x40a2ef3a	5.0917025
5	0x4101833f	8.0945425
6	0x40c742c1	6.2268987
7	0x400cd7d9	2.2006743
8	0x40dab44d	6.8345094
9	0x408630e9	4.1934705
10	0x413314af	11.19255
11	0x40ba4cde	5.821883
12	0x40eec39f	7.4613795
13	0x40c0e5e0	6.028061
14	0x40987761	4.7645726
15	0x4190aafc	18.083488

layer1.0.conv1.weight f4 [16, 16, 3, 3]
0	0x3db286ee	0.08717142
1	0x3dcf7663	0.10130002
2	0x3d2b0de5	0.041761298
3	0xbd877c18	-0.06615466
4	0x3d2d8f28	0.042372853
5	0xbd37bfa6	-0.044860505
6	0xbcbaa0a0	-0.02278167
7	0x3b89ae4a	0.004201685
8	0xbdb1b770	-0.08677566
9	0x3de041c0	0.10950041
10	0x3de64e91	0.11245454
11	0x3acf30bb	0.001580737
12	0xbea737c6	-0.3265974
13	0xbee0939b	-0.43862614
14	0xbec030cc	-0.3753723
15	0x3dd324bc	0.10309741
16	0x3e8a8041	0.27050975
17	0x3de60515	0.11231438
18	0xbd07efdf	-0.033187743
19	0x3e98b9c0	0.29829216
20	0xbccc3604	-0.0249281
21	0xbe3bf066	-0.18353423
22	0x3e8f0c97	0.27939293
23	0x3d449f76	0.048003636
24	0xbe9b1cbf	-0.3029537
25	0xbebb6afb	-0.36605057
26	0xbe9224f1	-0.2854381
27	0xbbc21c79	-0.0059238044
28	0x3dcf7b90	0.101309896
29	0x3d06ec3d	0.032940138
30	0x3bef74c1	0.0073076193
31	0x3df2daa6	0.1185811
32	0xbd462a32	-0.048380084
33	0xbc206ffd	-0.009792325
34	0x3cee1f00	0.029067516
35	0xbe012a1d	-0.12613721
36	0x3dd56d68	0.10421258
37	0x3d9849f4	0.074359804
38	0xbdcf962e	-0.101360664
39	0x3cb0893e	0.021549817
40	0xbc93bce6	-0.01803441
41	0xbe0257bd	-0.12728782
42	0xbd55a697	-0.052160826
43	0xbd2c3066	-0.042038344
44	0x3c9982dc	0.018739156
45	0xbdd6a22a	-0.10480149
46	0xbe8aa308	-0.27077508
47	0xbe1c5e69	-0.1527039
48	0xbeab3907	-0.33441946
49	0xbdeb211d	-0.11480925
50	0x3eaec658	0.341357
51	0xbeae35b5	-0.3402535
52	0xbe1ffaf6	-0.15623078
53	0x3e5f984f	0.21835445
54	0xbc533bff	-0.012892722
55	0xbdf574ae	-0.119851455
56	0xbde8e5ec	-0.11371979
57	0x3d2156df	0.039389487
58	0x3b935e16	0.0044973
59	0xbd4eaf7f	-0.050460335
60	0x3db474f9	0.08811373
61	0x3e203ed7	0.15648971
62	0xbc2047af	-0.009782716
63	0xbcdae138	-0.02671872
64	0xbe157dc6	-0.1459876
65	0xbd1558ab	-0.036461513
66	0xbd9d7c06	-0.07689671
67	0x3e3f6235	0.18689807
68	0x3db51300	0.088415146
69	0xbd945f5d	-0.072447516
70	0x3e294d5c	0.16533417
71	0xbc108875	-0.008821596
72	0x3e3baff8	0.18328846
73	0x3d8d7216	0.06906526
74	0x3c7b3a00	0.0153336525
75	0x3e15dbea	0.14634672
76	0x3d2b56ea	0.041830935
77	0x3c43178a	0.011907468
78	0x3c59a518	0.01328399
79	0xbd1480e0	-0.036255717
80	0xbdb3514e	-0.08755742
81	0xbe41d8bf	-0.18930338
82	0xbe6ef9ea	-0.23337522
83	0xbe278566	-0.16359481
84	0xbda113fe	-0.07865141
85	0x3d2e73ab	0.04259078
86	0xbd48e7ca	-0.049049176
87	0xbd85dd03	-0.06536295
88	0x3e0f8390	0.14015031
89	0xbd524386	-0.051333927
90	0x3d450939	0.0481045
91	0xbdf48576	-0.11939518
92	0xbe38e4b8	-0.18056
93	0xbd8f828b	-0.07007321
94	0xbea77647	-0.32707426
95	0xbec31880	-0.3810463
96	0x3e1f5a89	0.1556188
97	0xbde3565a	-0.11100455
98	0xbe5a92f9	-0.21345128
99	0x3e2e167a	0.17000762
100	0xbe263b91	-0.1623366
101	0x3dedd38c	0.11612615
102	0x3d093ab4	0.03350325
103	0xbede3f79	-0.434078
104	0x3db814ea	0.08988364
105	0xbd9d1437	-0.07669871
106	0xbe8a59f6	-0.2702176
107	0x3d20986f	0.039207872
108	0x3d8b9811	0.06816114
109	0x3d6d4eb3	0.05793638
110	0x3d6d2e25	0.057905335
111	0x3e08cdbf	0.13359736
112	0x3cffe37a	0.031236399
113	0xbc57290e	-0.013132347
114	0x3de9b17c	0.114108056
115	0x3c9dfd25	0.019285748
116	0xbd25e988	-0.040505916
117	0x3e436a16	0.19083437
118	0x3dac2794	0.084059864
119	0x3e3272eb	0.1742665
120	0x3e6a866e	0.22902843
121	0x3dd2645a	0.10273047
122	0xbe1ce0d4	-0.1532014
123	0x3dc40aea	0.09572394
124	0x3d2c5c5f	0.04208028
125	0xbd2d2a24	-0.042276517
126	0x3d86cab3	0.065816306
127	0x3e0c5f52	0.13708237
128	0x3c94116c	0.018074714
129	0x3db27086	0.087128684
130	0x3e6ebbf9	0.23313893
131	0xbdfa38b6	-0.12217848
132	0xbd518684	-0.051153675
133	0xbe0b79d9	-0.136207
134	0xbe4cdd2a	-0.20006242
135	0xbdda9619	-0.1067316
136	0xbe9f4c76	-0.31113023
137	0xbd95d28c	-0.07315549
138	0xbd004d06	-0.031323455
139	0xbe638eab	-0.22222392
140	0xbe58ba5f	-0.21164845
141	0xbc8c60b9	-0.017135965
142	0xbe084672	-0.13308123
143	0xbda8cf4d	-0.082426645
144	0x3c09f65e	0.008420555
145	0x3d0c095f	0.034188624
146	0xbc62d9b9	-0.013845854
147	0xbcb24da1	-0.021765532
148	0x3dc5acae	0.09652077
149	0x3dac3839	0.08409161
150	0xbe22fb63	-0.15916209
151	0xbc1e1f30	-0.00965099
152	0x3b9d33b1	0.004797422
153	0xbdb8f8d0	-0.09031832
154	0xbdd18a51	-0.1023146
155	0xbca7990f	-0.020458726
156	0x3e00b340	0.12568378
157	0x3d301ba0	0.042995095
158	0x3d9eace2	0.077478185
159	0xbd739d41	-0.05947614
160	0xbe156032	-0.14587477
161	0xbe19101e	-0.14947554
162	0xbd4425fc	-0.047887787
163	0xbd81ceee	-0.06338297
164	0xbe21cceb	-0.15800826
165	0xbc2bcd3d	-0.010485944
166	0xbd748541	-0.059697393
167	0xbdd9c2e9	-0.10632879
168	0xbe253311	-0.16132762
169	0xbdd13378	-0.10214895
170	0xbe48294e	-0.19547006
171	0x3c884f0c	0.016639255
172	0x3bc1f6cf	0.0059193145
173	0x3b968152	0.004593053
174	0x3ce82538	0.02833806
175	0x3d0c1d76	0.034207784
176	0x3d876d6b	0.06612667
177	0xbd46887d	-0.04847001
178	0xbcd21816	-0.02564625
179	0x3cfd42dc	0.03091567
180	0xbcb21500	-0.02173853
181	0xbda266c0	-0.07929754
182	0xbd9f9575	-0.077921785
183	0x3c0824ea	0.008309582
184	0xbcef1746	-0.029185902
185	0xbb0ec8fd	-0.0021787279
186	0xbd25673d	-0.04038166
187	0xbc4a5a1e	-0.012350587
188	0x3cf42f9b	0.029807856
189	0x3dd874f8	0.10569185
190	0x3e2684f3	0.16261654
191	0x3d6f42e1	0.05841339
192	0x3dd450a2	0.10366942
193	0x3e174396	0.14771876
194	0xbd7d48fc	-0.06183718
195	0x3d9ece41	0.077541836
196	0x3e08443d	0.13307281
197	0xbd5d2e90	-0.053999484
198	0xbd5de7a1	-0.054175977
199	0xbd811aa2	-0.06303908
200	0xbc2d7810	-0.010587707
201	0xbdcbf5e0	-0.09959006
202	0xbd635db6	-0.05550929
203	0xbb3b7941	-0.0028606209
204	0xbdc7018a	-0.097170904
205	0xbd860b0e	-0.06545077
206	0xbc705a8f	-0.014670028
207	0xbdb8a85c	-0.09016487
208	0x3e61ba15	0.22043641
209	0x3dea9ce9	0.114557095
210	0xbd1715ba	-0.036885954
211	0x3dc533d7	0.09629028
212	0x3d6c3a99	0.05767307
213	0xbad44bdd	-0.0016196925
214	0xbb855648	-0.0040691234
215	0xbd8d4fad	-0.068999626
216	0xbcfabaa3	-0.030606573
217	0x3cd2408b	0.025665542
218	0xbd771c2b	-0.060329597
219	0x3ce373b0	0.027765125
220	0x3e34a0e6	0.17639503
221	0x3da994a9	0.08280308
222	0xbd449880	-0.047996998
223	0x3b850742	0.004059703
224	0x3cb19c21	0.021680893
225	0x3bf49e67	0.007465172
226	0x3cc6e987	0.024281276
227	0x3cc00a82	0.02344251
228	0xbd046aea	-0.032328524
229	0xbd315f5b	-0.04330383
230	0xbcc81c73	-0.024427628
231	0x3cca47fe	0.024692532
232	0x3d3c727e	0.046007626
233	0x3d9b7868	0.07591325
234	0xbc1b521a	-0.009480024
235	0x3e333631	0.17501141
236	0x3e11b656	0.14229712
237	0xbcc3c0a4	-0.02389557
238	0x3db88303	0.090093635
239	0x3e0b9e71	0.1363466
240	0xbd445cd0	-0.047940075
241	0xbd39f340	-0.045397997
242	0xbd8fee26	-0.07027845
243	0x3e292674	0.16518575
244	0x3e21f13a	0.15814677
245	0x3c8ab38b	0.016931316
246	0x3d68af50	0.056807816
247	0x3ea70321	0.32619575
248	0x3e57d381	0.21076776
249	0x3d6ee621	0.058324937
250	0x3eaba2be	0.335226
251	0x3e8f3583	0.27970514
252	0x3cb7f76f	0.022456853
253	0x3d85b1bd	0.065280415
254	0x3c9af7ab	0.018916925
255	0x3d4f3d70	0.0505957

layer1.0.conv1.bias f4 [16]
0	0x3ab6c8b7	0.0013945316
1	0xbbd187b2	-0.00639435
2	0xbb2f2902	-0.0026727323
3	0x3acc43b1	0.0015584138
4	0xbc03aabb	-0.008036311
5	0xbbe8b68d	-0.00710184
6	0x3aa0a19a	0.0012255192
7	0xbb2ec010	-0.002666477
8	0x3b6bc40b	0.0035975005
9	0xbb268369	-0.0025407916
10	0x3b8f51cc	0.0043737646
11	0x3ade2118	0.0016947119
12	0xbc181a6c	-0.009283643
13	0x3af70680	0.0018846542
14	0x3beb461f	0.00717999
15	0xbb854d53	-0.0040680557

layer1.0.bn1.weight f4 [16]
0	0x3f56722b	0.83767956
1	0x3f122a77	0.57096046
2	0x3f02b908	0.51063585
3	0x3f02458e	0.5088738
4	0x3f258677	0.646583
5	0x3f2aaaab	0.6666667
6	0x3f194018	0.59863424
7	0x3f395235	0.7239106
8	0x3f1f3309	0.6218725
9	0x3ef9773f	0.4872379
10	0x3f64d457	0.89386505
11	0x3f43bc4f	0.7645921
12	0x3f2fd335	0.6868165
13	0x3ed018ba	0.40643865
14	0x3f4f31fc	0.80935645
15	0x3f33a977	0.7018046

layer1.0.bn1.bias f4 [16]
0	0xbd7f13c4	-0.06227471
1	0xbde6f4cc	-0.1127716
2	0xbc70a8aa	-0.01468865
3	0x3e8a3163	0.26990804
4	0x3e1472c5	0.14496906
5	0xbee260a0	-0.44214344
6	0x3c86d87d	0.016460652
7	0xbe82c74c	-0.25542676
8	0xbd90cf58	-0.07070798
9	0x3f1fbd67	0.6239838
10	0xbf2009bf	-0.6251487
11	0x3f8bfd15	1.093661
12	0xbe9b6851	-0.30353025
13	0x3e0ba982	0.13638881
14	0xbe5af34d	-0.21381874
15	0xbf18e260	-0.5972042

layer1.0.bn1.running_mean f4 [16]
0	0xc00c0cee	-2.1882892
1	0x3fd0fc50	1.6327
2	0xbeedd1b9	-0.46449068
3	0xbfb93e2e	-1.4472101
4	0xc027289a	-2.6118531
5	0x4004b8bb	2.073775
6	0x3f2325f5	0.6372979
7	0xc0831574	-4.096369
8	0xc01ec928	-2.4810276
9	0xbfd9e77a	-1.7023766
10	0x3fe9194f	1.8210849
11	0xc0076f07	-2.1161516
12	0x4012697b	2.287688
13	0xbf394a46	-0.7237896
14	0xbec7b6be	-0.3900661
15	0x3fef0a4b	1.8675016

layer1.0.bn1.running_var f4 [16]
0	0x40a738a3	5.2256637
1	0x3fbc884f	1.4729098
2	0x3fe4b279	1.7866966
3	0x4005c6a7	2.0902498
4	0x40932969	4.598805
5	0x401292a9	2.2902014
6	0x4052e077	3.2949502
7	0x404201e7	3.031366
8	0x4018ce21	2.387581
9	0x3fc1c2fa	1.5137627
10	0x40365c9a	2.849402
11	0x4056da0a	3.357058
12	0x403ccc11	2.9499552
13	0x4023dfc7	2.5605333
14	0x407069d1	3.7564585
15	0x3fc761cf	1.5576724

layer1.0.conv2.weight f4 [16, 16, 3, 3]
0	0xbd824c79	-0.06362242
1	0x3ca24296	0.019807141
2	0x3daf2a82	0.085530296
3	0xbdca8cd7	-0.09890144
4	0xbd1959be	-0.0374391
5	0x3c188793	0.009309667
6	0xbce2a3df	-0.02766603
7	0x3ca37a0a	0.019955654
8	0x3d0e0748	0.034674913
9	0x3bea0922	0.007142202
10	0x3da56adb	0.08077022
11	0xbc01ea71	-0.00792943
12	0x3db347ba	0.08753915
13	0x3e36bd85	0.17845733
14	0x3cd7e56f	0.02635452
15	0x3cd95191	0.026528152
16	0x3d48fa74	0.049066976
17	0xbd28b71f	-0.041190263
18	0xbe218caf	-0.15776323
19	0xbdbed158	-0.09317273
20	0xbd19f789	-0.037589584
21	0xbd80c460	-0.062874556
22	0x3cc8f35c	0.024530105
23	0x3d7ea508	0.062169105
24	0xbd27aabd	-0.040934313
25	0x3da1113f	0.078646176
26	0x3dec2dbf	0.11532163
27	0x3dfe59a3	0.124194406
28	0xbdfa2706	-0.122144744
29	0xbe86ec6d	-0.26352254
30	0x3e78fdcd	0.24315567
31	0x3d2cbcf4	0.042172387
32	0xbe434572	-0.1906946
33	0x3dff75bd	0.12473629
34	0x3d7b84bb	0.06140588
35	0xbdb53e8a	-0.08849819
36	0xbd69bd23	-0.05706514
37	0xbd43abdf	-0.04777133
38	0x3d884e6f	0.06655585
39	0xbe433d41	-0.19066335
40	0xbdd147bc	-0.1021876
41	0xbc14c455	-0.009080012
42	0xbe727e42	-0.23680976
43	0xbdced5c2	-0.10099365
44	0xbb406db0	-0.0029362254
45	0xbb43fde2	-0.0029905965
46	0xbaef9ccd	-0.0018280983
47	0xbdac5bee	-0.08415972
48	0xbd0d7385	-0.034533996
49	0xbe0003c6	-0.1250144
50	0xbe2ad920	-0.16684389
51	0xbd134062	-0.035950072
52	0xbe3837a4	-0.17989975
53	0xbde84874	-0.11341944
54	0xbdf40df2	-0.11916722
55	0xbd263622	-0.04057897
56	0xbdb30bed	-0.08742509
57	0x3d02d3bc	0.031940207
58	0x3dc61f65	0.09673957
59	0x3d504a0b	0.050851863
60	0x3d7a02b1	0.061037723
61	0x3d15f9a7	0.03661504
62	0xbcd9d98b	-0.02659299
63	0xbd2b4634	-0.041814998
64	0xbd9be2ba	-0.07611604
65	0xbd09d2e0	-0.03364837
66	0xbe395105	-0.18097313
67	0xbe641942	-0.2227526
68	0xbe3effe1	-0.18652298
69	0xbe69230b	-0.22767274
70	0xbe63651a	-0.22206536
71	0xbe23553a	-0.1595048
72	0xbc5b25f8	-0.013375752
73	0xbd870732	-0.06593169
74	0x3d0a5121	0.033768777
75	0xbdb4895a	-0.0881526
76	0xbdedfb65	-0.11620215
77	0xbd22387d	-0.039604653
78	0xbdc27657	-0.09495228
79	0xbd43edfc	-0.04783438
80	0xbc321a93	-0.010870594
81	0xbdfb5d8d	-0.12273703
82	0x3d09ba09	0.033624683
83	0x3e8723ab	0.263944
84	0xbe7c28b0	-0.24624896
85	0xbe4d4196	-0.2004455
86	0x3df66e15	0.12032715
87	0xbdde058e	-0.10840903
88	0x3d7a4a4a	0.061106004
89	0x3e85fb24	0.26168168
90	0xbe09f269	-0.13471378
91	0xbe7d1624	-0.24715477
92	0xbe3f3e0e	-0.18676016
93	0x3d1337e8	0.03594199
94	0xbdf96c4d	-0.1217886
95	0xbd2027c7	-0.039100435
96	0xbcc6d109	-0.024269598
97	0xbdf6dfc7	-0.12054401
98	0xbc418015	-0.011810322
99	0xbd84284f	-0.06453001
100	0xbe7cc57a	-0.24684706
101	0xbe9dd6e0	-0.30828
102	0x3d6a16af	0.05715054
103	0x3b6dc852	0.003628273
104	0xbdf1f968	-0.118151486
105	0x3e93df89	0.2888148
106	0x3ea912ed	0.33022252
107	0x3e078343	0.13233666
108	0xbdf43950	-0.11924994
109	0x3cceae3a	0.025229562
110	0x3d7a5274	0.06111379
111	0xbdb74d3a	-0.08950277
112	0xbdb1b391	-0.08676828
113	0x3d037cd4	0.032101467
114	0xbe652fd3	-0.22381525
115	0xbe6ace70	-0.22930312
116	0xbe3bb09d	-0.18329091
117	0xbe44bb18	-0.19211996
118	0xbdc7edd0	-0.09762156
119	0xbd7b2dfd	-0.061323155
120	0xbde161e8	-0.11005002
121	0xbde2186e	-0.11039816
122	0xbe062b94	-0.13102561
123	0x3d68d97a	0.056848027
124	0x3ce7e963	0.02830953
125	0xbcaeacee	-0.021322694
126	0x3e3b497a	0.18289748
127	0x3e7f286e	0.24917766
128	0x3d3211ab	0.04347388
129	0x3ee159a1	0.44013694
130	0x3f080357	0.53130096
131	0x3e07f19d	0.13275762
132	0x3ee008e1	0.43756774
133	0x3eda31f9	0.4261625
134	0xbd885f54	-0.066588074
135	0x3da53354	0.08066431
136	0x3dd58cb8	0.104272306
137	0x3dae0315	0.084966816
138	0xbc5571b5	-0.013027598
139	0xbd437bbf	-0.047725435
140	0xbd31a29d	-0.04336797
141	0x3c9f37d7	0.019435806
142	0xbcd9bb34	-0.026578523
143	0x3ac3b76e	0.0014931986
144	0x3e128889	0.14309897
145	0x3ed036fc	0.4066695
146	0x3e031eb4	0.12804681
147	0xbe2cd3db	-0.16877691
148	0xbe1609ec	-0.14652222
149	0xbde357e1	-0.11100746
150	0x3daba7e6	0.083816335
151	0x3c5b40e9	0.013382175
152	0xbd31210f	-0.043244418
153	0x3d152b8e	0.03641849
154	0x3e2105ee	0.15724918
155	0xbc79155e	-0.015202848
156	0x3c95140b	0.018198034
157	0x3ce44622	0.027865473
158	0x3c2d8a9e	0.010592131
159	0x3d7fe4bc	0.062473997
160	0x3e022c14	0.12712127
161	0x3dc89748	0.097944796
162	0xbcd22247	-0.02565111
163	0x3dc3972a	0.09550317
164	0xbcb3bdee	-0.021941151
165	0xbe087eee	-0.1332967
166	0xbd22ae48	-0.03971699
167	0xbd8fb2b2	-0.07016505
168	0xbc1e21eb	-0.009651641
169	0xbde65df4	-0.11248389
170	0xbd789332	-0.06068725
171	0x3e553c66	0.20823821
172	0x3e4d0b16	0.2002376
173	0x3dae6555	0.08515421
174	0xbcd200ea	-0.025635201
175	0xbca9d9db	-0.020733764
176	0xbc3b10ba	-0.011417562
177	0xbdd6595f	-0.10466265
178	0xbe6dbc08	-0.2321626
179	0x3ba15a78	0.004924115
180	0xbd9b8751	-0.07594169
181	0x3d809626	0.062786385
182	0x3d9489c4	0.07252839
183	0x3c1f4e14	0.009723205
184	0xbd79283a	-0.06082938
185	0x3c6b4dde	0.014361827
186	0x3e009a9f	0.12558983
187	0x3c96c4b4	0.018404342
188	0x3db5d3da	0.08878298
189	0xbd4305aa	-0.047612824
190	0x3d1a2a5c	0.037638053
191	0x3c59b11c	0.013286855
192	0xbdcbc4db	-0.099496566
193	0x3c516423	0.012780222
194	0xbc3b9360	-0.011448711
195	0xbe4c1196	-0.19928584
196	0xbdda5e8a	-0.10662563
197	0xbe4682c8	-0.19385827
198	0x3d6b3f66	0.05743351
199	0xbde2f97e	-0.11082743
200	0xbd29f6bc	-0.04149507
201	0x3db64be0	0.08901191
202	0xbd82f49f	-0.06394314
203	0x3c8c663d	0.017138595
204	0xbdc9dc7c	-0.09856507
205	0xbdc96b71	-0.09834946
206	0xbb94d139	-0.004541543
207	0x3c5661ae	0.013084812
208	0x3dd058d4	0.101731926
209	0x3da8573c	0.08219764
210	0x3e0ad3e7	0.13557397
211	0x3dded7fc	0.108810395
212	0x3ddc035a	0.10742827
213	0x3e1d55c0	0.15364742
214	0x3e332459	0.17494334
215	0x3db45ec0	0.08807135
216	0x3d1bdb40	0.03805089
217	0x3e704814	0.23464996
218	0x3e24f8d7	0.1611055
219	0xbe2fc365	-0.17164381
220	0xbde2a28a	-0.11066158
221	0xbd95b4a5	-0.07309846
222	0x3dd8d7a9	0.10588009
223	0x3d97b667	0.07407837
224	0xbbfa3aa9	-0.0076363874
225	0xbdd823af	-0.10553681
226	0x3e6a7f1b	0.2290005
227	0x3e8b52de	0.2721166
228	0x3d8839cc	0.06651649
229	0x3d6b7c4a	0.05749158
230	0xbe00014d	-0.12500496
231	0x3e28ce17	0.16484867
232	0x3d19ba20	0.03753102
233	0x3d20e4f0	0.03928083
234	0xbceee018	-0.02915959
235	0x3dc78b9f	0.097434275
236	0xbcb76739	-0.022388088
237	0xba186fb5	-0.00058149855
238	0x3d0f1ecc	0.03494148
239	0xbd1a1720	-0.03761971
240	0x3ba19e1b	0.0049321777
241	0x3cf7a020	0.03022772
242	0xbd95726e	-0.07297216
243	0xbc93e1ab	-0.018051943
244	0x3ed717ac	0.42010248
245	0x3cdbd782	0.02683616
246	0xbe6bae21	-0.23015644
247	0xbeaeb950	-0.34125757
248	0x3d9175f2	0.071025744
249	0x3f0e4bd1	0.55584437
250	0xba9696e5	-0.0011489062
251	0x3e077987	0.13229953
252	0xbded4ee1	-0.115873106
253	0xbe00d02e	-0.12579414
254	0xbdaff492	-0.0859157
255	0xbd6b53a9	-0.05745283

layer1.0.conv2.bias f4 [16]
0	0xbb7f60ed	-0.0038967684
1	0x3c5d5150	0.013508156
2	0xbb97e04c	-0.0046348926
3	0x3accd271	0.0015626681
4	0x3bcf4df7	0.006326433
5	0x3b88a9ff	0.0041706557
6	0xbb28ee32	-0.002577674
7	0xbbbebdc9	-0.005820964
8	0x3be8cd2e	0.0071045374
9	0xbbb3d8b9	-0.005488482
10	0xbc009eb2	-0.007850336
11	0x3c1ccb44	0.009569947
12	0xbbe59fa4	-0.007007556
13	0x3b746572	0.0037291911
14	0xb9cdfde4	-0.0003928981
15	0x3a882446	0.0010386787

layer1.0.bn2.weight f4 [16]
0	0x3f3d670e	0.73985374
1	0x3f3befda	0.7341286
2	0x3ec86566	0.3913986
3	0x3ebdb6fc	0.37053668
4	0x3f643aca	0.89152205
5	0x3eec6b3e	0.4617557
6	0x3eae5242	0.34047133
7	0x3f2ab49e	0.6668185
8	0x3e94e26d	0.29079
9	0x3f58ee38	0.8473849
10	0x3f30aeb5	0.6901658
11	0x3f33906e	0.7014226
12	0x3f792091	0.9731532
13	0x3ebc0952	0.3672586
14	0x3ee66c0a	0.45004302
15	0x3f384d99	0.71993405

layer1.0.bn2.bias f4 [16]
0	0xbdc0744c	-0.09397182
1	0xbc461ddf	-0.012092083
2	0x3e85cc4a	0.26132423
3	0xbe96a2d3	-0.294211
4	0xbea1f696	-0.31633443
5	0xbe9fe502	-0.31229407
6	0x3eaf9831	0.342958
7	0x3ef521d0	0.4787736
8	0xbd33ba79	-0.043879006
9	0x3d89d0a8	0.06729251
10	0xbd8ab88d	-0.067734815
11	0xbe80adf8	-0.25132728
12	0x3e948d79	0.29014185
13	0x3ecc0b50	0.3985238
14	0x3d5d479f	0.05402338
15	0x3d9560cd	0.07293854

layer1.0.bn2.running_mean f4 [16]
0	0xbec2a349	-0.38015202
1	0x3f908d3c	1.1293101
2	0x3f03f54f	0.51546186
3	0xbf891a03	-1.0711063
4	0x3fe0123d	1.7505566
5	0x3e3c82a7	0.18409215
6	0xbec29b63	-0.38009176
7	0xbf2c6537	-0.6734194
8	0xbf0bc2bc	-0.54594016
9	0x3ea204c7	0.3164427
10	0xbf8edefc	-1.11618
11	0x3d400454	0.046879128
12	0xbe8b0616	-0.2715308
13	0xbf7ae3f9	-0.9800411
14	0xbe5b3743	-0.214078
15	0xbf371d17	-0.7152876

layer1.0.bn2.running_var f4 [16]
0	0x3f521fc0	0.82079697
1	0x3f50a2d2	0.81498444
2	0x3f401b66	0.75041807
3	0x3f3577bf	0.70885843
4	0x3f59941f	0.8499164
5	0x3f341385	0.70342284
6	0x3f101a9d	0.5629061
7	0x3f42d7a4	0.7611029
8	0x3f2985d8	0.66219854
9	0x3fa3af37	1.2787846
10	0x3f5a978d	0.853875
11	0x3fa1d1de	1.2642171
12	0x3f71b409	0.94415337
13	0x3f32f901	0.699112
14	0x3f05c958	0.5226035
15	0x3f9027c7	1.1262139

layer1.1.conv1.weight f4 [16, 16, 3, 3]
0	0xbe554d71	-0.20830323
1	0xbe3057d5	-0.17221005
2	0xbdebf644	-0.11521581
3	0xbda72fb7	-0.08163398
4	0xbdc416e1	-0.09574676
5	0xbe560abf	-0.20902537
6	0x3dd2521f	0.102695696
7	0x3ddec6aa	0.10877736
8	0xbde048b0	-0.10951364
9	0xbe14aba3	-0.14518599
10	0xbd2e1d96	-0.042508684
11	0x3d5ffa72	0.054682203
12	0x3d4f546a	0.050617613
13	0x3e412e5f	0.18865345
14	0xbd694bab	-0.05695693
15	0xbe243719	-0.16036643
16	0x3cbe6e36	0.023245912
17	0x3da72e12	0.08163084
18	0xbce16893	-0.027515685
19	0x3e05d257	0.1306852
20	0x3d8f045b	0.069832526
21	0xbe26ed52	-0.16301468
22	0xbe7cf66b	-0.24703376
23	0xbde8738e	-0.11350165
24	0xbd70235a	-0.058627464
25	0xbd883149	-0.066500254
26	0xbdbde7b7	-0.09272712
27	0xbc87c32c	-0.016572557
28	0x3d076ede	0.033064716
29	0x3d2c6d68	0.042096525
30	0xbc9654cb	-0.01835098
31	0xbc4b1164	-0.012394283
32	0xbc195795	-0.00935926
33	0xbc9051ae	-0.017617073
34	0x3c794043	0.015213075
35	0xbc7a200a	-0.015266428
36	0xbcec34be	-0.028833743
37	0xbcd3091b	-0.025761178
38	0xbd7bceb9	-0.061476443
39	0xbd4736d3	-0.04863627
40	0xbdac24ba	-0.084054425
41	0xbe0d3f93	-0.13793783
42	0x3e25cad1	0.1619065
43	0x3e047311	0.1293452
44	0x3c39e7a4	0.011346731
45	0x3d583c99	0.052792165
46	0x3e369778	0.17831218
47	0x3d359b48	0.04433754
48	0x3de9ee95	0.11422459
49	0xbd671357	-0.05641493
50	0xbdb97296	-0.09055059
51	0x3d2d7bb5	0.042354304
52	0xbd91d193	-0.07120051
53	0xbe211fd2	-0.15734795
54	0xbdc3decb	-0.09563979
55	0xbb93de99	-0.0045126197
56	0xbd0516f5	-0.032492597
57	0xbd4db55e	-0.050221793
58	0x3d5b3901	0.05352116
59	0x3cf6708d	0.030082965
60	0xbd969658	-0.073528945
61	0xbd95024a	-0.07275827
62	0xbd851d90	-0.06499779
63	0x3e74c393	0.2390273
64	0x3ecffbcf	0.40621802
65	0xbe3d8a94	-0.18509895
66	0x3db5be50	0.0887419
67	0x3e2b905d	0.16754289
68	0x3c91a5a3	0.017779177
69	0xbe8b8f97	-0.27257988
70	0xbdf18f0f	-0.117948644
71	0x3d6c011b	0.05761824
72	0xbc601455	-0.0136767225
73	0xbc1de742	-0.009637656
74	0x394cfa73	0.00019548256
75	0x3ddbea29	0.10738022
76	0x3d0d51bc	0.034501776
77	0xbda510d7	-0.080598526
78	0x3d9e75b4	0.07737294
79	0x3d6d3636	0.057913028
80	0x3ccd9130	0.025093645
81	0xbe0ed3a5	-0.13947923
82	0xbd1952d6	-0.037432514
83	0xbe70f625	-0.23531397
84	0xbea280af	-0.31738803
85	0xbe8329d6	-0.25617856
86	0xbe99972e	-0.29998153
87	0xbe25e393	-0.16200094
88	0xbded456b	-0.11585506
89	0xbe3af694	-0.18258125
90	0x3dc09f2b	0.09405359
91	0xbdad8d18	-0.08474177
92	0xbd3827d3	-0.044959854
93	0x3dd058d5	0.10173193
94	0x3e9778e6	0.29584426
95	0x3e03cf14	0.12871963
96	0xbd67b831	-0.056572143
97	0x3dcd0485	0.10010628
98	0x3d4c4a9a	0.049875833
99	0x3d9e8dcc	0.07741889
100	0xbdc53642	-0.096294895
101	0x3d947450	0.07248747
102	0x3d4c3adc	0.04986082
103	0x3e06edf2	0.13176706
104	0x3d61bc8c	0.055111453
105	0x3e4c93f5	0.19978316
106	0x3ea9166b	0.33024916
107	0x3e281d57	0.16417442
108	0xbd0c9bc3	-0.034328233
109	0xbdbf0ae1	-0.09328247
110	0x3ce98f00	0.02851057
111	0x3d00e192	0.03146512
112	0xbd3b916f	-0.045792993
113	0xbe6ef5f8	-0.23336017
114	0x3d11bc30	0.03557986
115	0x3e05d571	0.13069703
116	0x3c924404	0.017854698
117	0x3ebfa9d4	0.37434256
118	0x3e30849f	0.17238091
119	0x3b819dfe	0.0039556017
120	0xbd50d76d	-0.050986696
121	0xbdb0c06b	-0.08630451
122	0x3c014a4c	0.007891249
123	0xbdd8a625	-0.105785646
124	0xbe8c9123	-0.2745448
125	0xbe087850	-0.13327146
126	0x3cae9d43	0.021315223
127	0x3dde1026	0.10842924
128	0xbc546328	-0.012963094
129	0xbe251392	-0.16120747
130	0xbde3b2f0	-0.11118114
131	0xbd2ed333	-0.042681884
132	0xbdeac307	-0.1146298
133	0xbcd64343	-0.02615512
134	0xbbf03118	-0.007330071
135	0xbaf45fd8	-0.0018644286
136	0xbe78c7ab	-0.24294917
137	0xbe8a780a	-0.27044708
138	0xbe32176b	-0.17391746
139	0x3d5b9d7c	0.053616986
140	0xbd74c47c	-0.059757695
141	0xbe105f24	-0.14098793
142	0x3d75ffeb	0.060058516
143	0x3d4479bc	0.047967657
144	0x3dfa58d1	0.12223972
145	0x3d873f65	0.066038884
146	0x3dada8df	0.08479475
147	0x3b8162aa	0.0039485293
148	0x3cb59d12	0.022169624
149	0x3e1845ab	0.14870326
150	0xbe3a7f79	-0.1821269
151	0xbe4c4585	-0.19948395
152	0xbbdfdaaa	-0.0068314867
153	0xbc8d8cda	-0.017279077
154	0xbd594fb9	-0.053054545
155	0x3e254284	0.16138655
156	0x3e095cb1	0.13414265
157	0xbdc67ba2	-0.0969155
158	0x3d317ffe	0.043334953
159	0xbeafc9f6	-0.3433377
160	0xbe4da244	-0.2008143
161	0xbebe6307	-0.37184927
162	0xbd7d1c85	-0.061794776
163	0xbe87ab06	-0.26497668
164	0xbe681dca	-0.22667614
165	0xbbc9e0bf	-0.006160825
166	0xbe137bf0	-0.14402747
167	0xbba5d438	-0.005060699
168	0xbd4cf204	-0.05003549
169	0x3da996b4	0.082806975
170	0xbd36e5a5	-0.0446526
171	0x3d092b0b	0.033488315
172	0xbd950149	-0.07275636
173	0x3d5642b3	0.052309703
174	0x3d43ff13	0.04785068
175	0xbd6dbd37	-0.058041777
176	0x3e121b23	0.14268164
177	0x3dede3ba	0.11615701
178	0x3d149bcc	0.036281392
179	0x3e33e0e1	0.17566253
180	0x3d53f5c7	0.051748063
181	0xbcece108	-0.028915897
182	0x3cce45bf	0.025179742
183	0xbdbc7287	-0.09201532
184	0xbe431bd3	-0.19053583
185	0xbe5b2455	-0.21400578
186	0xbe081268	-0.13288271
187	0xbe34b522	-0.17647222
188	0xbdcc60a5	-0.09979371
189	0x3e5c248f	0.21498321
190	0xbe156bf2	-0.14591959
191	0xbe4b58ec	-0.1985814
192	0x3e247dcf	0.16063617
193	0xbe837ee5	-0.2568275
194	0xbe11ed24	-0.14250618
195	0x3d37fb4c	0.04491739
196	0xbb204e1e	-0.0024460624
197	0xbced30b5	-0.02895389
198	0x3d24e8b1	0.040260974
199	0xbcf91244	-0.030404218
200	0xbcf18800	-0.029483795
201	0xbd547c1c	-0.051876172
202	0xbdedb5c9	-0.116069384
203	0x3b3975fd	0.0028299086
204	0xbdf1d711	-0.11808599
205	0xbe0002b6	-0.12501034
206	0xbc955982	-0.018231157
207	0xbd1aac8b	-0.037762206
208	0xbe0a8420	-0.13526964
209	0xbe39860b	-0.1811754
210	0xbd5a512b	-0.053300064
211	0xbe31675c	-0.17324585
212	0x3e41c3ff	0.18922423
213	0x3e98c5fc	0.2983855
214	0x3e655285	0.2239476
215	0xbc0e46be	-0.008683858
216	0x3e1052ad	0.14094038
217	0x3dd268f3	0.10273924
218	0xbd422b63	-0.047404658
219	0x3e4b93d5	0.19880612
220	0x3e16cb5e	0.14726016
221	0xbcd462e8	-0.025926068
222	0xbe167457	-0.14692818
223	0xbe36b918	-0.17844045
224	0xbda76cda	-0.08175059
225	0xbb37117f	-0.0027934012
226	0xbe455640	-0.19271183
227	0xbc81220c	-0.015763305
228	0xbe5a7bf1	-0.21336342
229	0xbe8ed3ad	-0.2789587
230	0xbe92d96c	-0.28681505
231	0xbd1388ed	-0.036019254
232	0xbe46668e	-0.19375059
233	0xbe5b79d8	-0.21433198
234	0xbe7c0edb	-0.24615042
235	0x3d359545	0.044331808
236	0x3e0dee78	0.138605
237	0xbdb8f367	-0.090308
238	0x3e8c545d	0.27408114
239	0x3da8e96b	0.08247646
240	0xbe5ecb44	-0.21757227
241	0xbe9daa55	-0.30794016
242	0xbe61578e	-0.22006056
243	0xbddae760	-0.106886625
244	0xbd28da3d	-0.041223753
245	0xbe584b7e	-0.21122548
246	0xbdf620e7	-0.120179944
247	0x3da5afac	0.080901474
248	0xbe7f5595	-0.2493499
249	0xbca30e62	-0.01990432
250	0xbe5ab714	-0.21358901
251	0xbe620a60	-0.2207427
252	0xbe544207	-0.20728312
253	0x3c2a1291	0.010380403
254	0xbe0c0431	-0.13673474
255	0xbd802ca9	-0.06258518

layer1.1.conv1.bias f4 [16]
0	0xba9d3ebb	-0.0011996845
1	0xbbffb3ee	-0.0078034317
2	0x3bb7fe77	0.0056150514
3	0x3a0c2dd1	0.00053474033
4	0xbbc8d2f9	-0.0061286655
5	0x3bf454c5	0.0074563944
6	0xbbfd2966	-0.0077258823
7	0xbc0685c2	-0.008210601
8	0xbc08a41a	-0.008339906
9	0xbb857252	-0.004072466
10	0x3be1cab6	0.00689062
11	0xbac6ec69	-0.0015176657
12	0x3c1de87d	0.009637949
13	0xba83d8e1	-0.0010059142
14	0xbc0299f1	-0.007971273
15	0x39e6c264	0.0004401385

layer1.1.bn1.weight f4 [16]
0	0x3f168105	0.5879062
1	0x3f48a071	0.78369814
2	0x3f39c7bb	0.7257039
3	0x3f457e38	0.7714572
4	0x3f4645d5	0.77450305
5	0x3f17409a	0.5908295
6	0x3f3f4c51	0.74725825
7	0x3f048e4f	0.51779646
8	0x3f1490bf	0.58033365
9	0x3f2e680d	0.6812752
10	0x3f424811	0.75891215
11	0x3f326724	0.6968863
12	0x3f2c93ef	0.6741323
13	0x3f3c9931	0.7367125
14	0x3f18fcdc	0.5976083
15	0x3f3e6238	0.7436862

layer1.1.bn1.bias f4 [16]
0	0x3d5ca64f	0.05386954
1	0x3df304ca	0.11866148
2	0xbeb5887c	-0.35455692
3	0xbdc68961	-0.09694172
4	0xbdd330be	-0.10312031
5	0xbe90c08a	-0.28271896
6	0xbef53b9d	-0.47897044
7	0xbeb454dd	-0.35220996
8	0x3e399aeb	0.18125503
9	0xbe476e3c	-0.19475645
10	0xbe58fa76	-0.21189293
11	0xbea0eb9c	-0.31429756
12	0xbe49a7ca	-0.19692913
13	0xbf1f7712	-0.6229106
14	0x3e5ef2bd	0.21772285
15	0x3e149b50	0.14512372

layer1.1.bn1.running_mean f4 [16]
0	0xbf8cbed0	-1.0995731
1	0xc08b0387	-4.3441806
2	0xc01a5088	-2.4111652
3	0xc0381b00	-2.876648
4	0xbf2ac679	-0.66709095
5	0xbf665f4c	-0.8998916
6	0xbe73ac45	-0.23796184
7	0x3f777a28	0.9667077
8	0xbf4adfe6	-0.7924789
9	0xbffe372b	-1.9860586
10	0xc03b47a8	-2.9262486
11	0x3eb560a2	0.35425287
12	0xbeb66fcd	-0.35632172
13	0x400a32b9	2.1593459
14	0xc037ca41	-2.8717196
15	0xc073cf9f	-3.8095472

layer1.1.bn1.running_var f4 [16]
0	0x40799c19	3.9001524
1	0x40e8e61d	7.27809
2	0x40645312	3.5675702
3	0x40b16826	5.5439634
4	0x4107eb22	8.494905
5	0x400542ea	2.082209
6	0x408fd09f	4.4942164
7	0x3fe1393c	1.7595592
8	0x40694c4a	3.6452813
9	0x40796547	3.8968065
10	0x4099b01e	4.8027487
11	0x406a5381	3.6613467
12	0x403066aa	2.756266
13	0x3ffa8433	1.9571594
14	0x407a0a93	3.9068954
15	0x40e712b1	7.2210317

layer1.1.conv2.weight f4 [16, 16, 3, 3]
0	0xbda71b3d	-0.08159492
1	0xbd88255a	-0.06647749
2	0x3c1fcc02	0.009753229
3	0xbe3ebe1f	-0.18627213
4	0xbdc0f271	-0.09421242
5	0x3cf91dfc	0.030409805
6	0xbb9b44e5	-0.0047384375
7	0xbd8261d5	-0.06366316
8	0xbd6b37ab	-0.057426136
9	0x3e3c08ba	0.18362704
10	0x3e4428b6	0.19156155
11	0x3e003f28	0.12524092
12	0x3d31d5f3	0.04341693
13	0xbd8cb3f2	-0.06870259
14	0xbd596bb7	-0.05308124
15	0xbd4e5fe9	-0.050384436
16	0xbd00f085	-0.031479377
17	0xbd120700	-0.035651207
18	0xbd26154a	-0.040547647
19	0xbd97b857	-0.07408207
20	0xbd769918	-0.060204595
21	0xbb2d7a1d	-0.002647049
22	0xbcebf3ad	-0.028802717
23	0xbd0ce42c	-0.03439729
24	0x3df010a8	0.11721927
25	0x3da2029d	0.07910655
26	0x3d54aa46	0.051920198
27	0x3db7f7b6	0.08982794
28	0xbd2db562	-0.04240931
29	0xbde82edf	-0.11337065
30	0x3e04cb57	0.12968193
31	0x3d67cbc8	0.056590825
32	0x3d36708e	0.044540934
33	0xbd7078aa	-0.058708824
34	0xbc883086	-0.0166247
35	0x3dc42b12	0.095785275
36	0xbdf70b93	-0.120627545
37	0x3d35aedc	0.044356212
38	0x3db802d4	0.089849144
39	0xbcbf00a0	-0.023315728
40	0x3d415feb	0.047210615
41	0x3deaf5c6	0.11472659
42	0x3d4670f8	0.04844758
43	0x3d4cf496	0.050037943
44	0x3d220015	0.03955086
45	0xbc4d4c7b	-0.012530441
46	0xbce37c2e	-0.027769174
47	0xbd565810	-0.052330077
48	0xbd3b16d6	-0.045676075
49	0xbc85eaf2	-0.016347382
50	0xbdc0cea3	-0.09414413
51	0xbd264f12	-0.04060275
52	0x3d444738	0.047919482
53	0x3dbc542d	0.09195743
54	0xbc08962c	-0.008336585
55	0xbd62955e	-0.05531823
56	0xbe0766f7	-0.13222872
57	0xbe4061f9	-0.18787374
58	0xbe6f5c25	-0.23374994
59	0xbea16a4d	-0.31526414
60	0xbe82c6af	-0.2554221
61	0xbe80e9cf	-0.25178382
62	0xbe9d3045	-0.3070089
63	0xbd502019	-0.05081186
64	0x3beafd3b	0.0071713007
65	0xbcc05c39	-0.023481475
66	0xbcd112b5	-0.025521616
67	0x3bc8547c	0.006113587
68	0xbcac1949	-0.02100815
69	0xbd016726	-0.03159251
70	0xbd0f1915	-0.03493603
71	0xbcaf1976	-0.021374445
72	0xbe1e307f	-0.15448187
73	0xbda317fa	-0.079635575
74	0x3d230864	0.039802924
75	0xbe152f5c	-0.14568847
76	0xbd95ebb5	-0.07320348
77	0x3bd21617	0.0064113247
78	0x3dbc1c5b	0.09185096
79	0x3d52c95b	0.05146156
80	0x3dc45b7a	0.0958776
81	0x3cd89f82	0.026443247
82	0x3db77b27	0.08959036
83	0x3d5dc97c	0.05414723
84	0x3be0b957	0.0068580317
85	0x3d3555c9	0.044271264
86	0xbcbf3cf7	-0.0233445
87	0xbd133a58	-0.035944313
88	0x3afced8f	0.0019296872
89	0x3cc3c754	0.023898758
90	0x3b79b0d8	0.0038099792
91	0x3bc8aa5d	0.0061238245
92	0xbccc5d06	-0.0249467
93	0x3e123e0e	0.14281484
94	0x3d83735d	0.06418488
95	0x3ceac5c2	0.028658751
96	0x3e20062e	0.15627357
97	0x3c2c2aee	0.010508282
98	0x3d950ffe	0.07278441
99	0x3dcf10e7	0.10110646
100	0x3de51847	0.11186271
101	0xbd516805	-0.05112459
102	0x3d37cd47	0.044873502
103	0x3e54b3eb	0.20771758
104	0x3e5d1c4e	0.21592829
105	0xbddfab58	-0.10921353
106	0x3d0b27c9	0.03397349
107	0x3df9cce7	0.12197285
108	0xbd0c4c02	-0.034252174
109	0xbdf2b9b3	-0.118518256
110	0xbdab78a4	-0.0837262
111	0x3bac2e20	0.005254522
112	0xbd711e60	-0.05886686
113	0xbd865c91	-0.065606244
114	0x3e04b0b2	0.12958029
115	0x3e194d63	0.14970927
116	0x3e210400	0.15724182
117	0xbd517d53	-0.05114491
118	0xbdb68e42	-0.08913852
119	0x3c5de364	0.013542984
120	0xbe2768e6	-0.1634861
121	0xbe3203bb	-0.17384236
122	0xbdefb90b	-0.11705216
123	0xbd86a90e	-0.065752134
124	0xbda53210	-0.08066189
125	0xbd09e84a	-0.033668794
126	0xbde0c76a	-0.10975535
127	0xbc8f92e1	-0.017526092
128	0xbdb975b5	-0.09055654
129	0xbd6ec384	-0.058291927
130	0xbd8e0363	-0.0693424
131	0xbd57183a	-0.05251334
132	0x3dabcb66	0.083884045
133	0x3d432c88	0.04764989
134	0x3d59ea52	0.05320198
135	0x3d615b9a	0.055019
136	0x3cbe01fa	0.023194302
137	0xbd201897	-0.03908595
138	0x3d0f6beb	0.035015028
139	0xbd9e3035	-0.077240385
140	0xbe0504a1	-0.12990047
141	0x3d4b170e	0.049582534
142	0xbd43c66f	-0.047796663
143	0xbdbf40a5	-0.09338502
144	0xbccc2822	-0.02492148
145	0xbdce4a29	-0.10072739
146	0xbe4c3995	-0.19943841
147	0xbd825c48	-0.063652575
148	0xbdefad26	-0.11702947
149	0xbe06a836	-0.13150105
150	0xbcc05cc2	-0.02348173
151	0xbd01e239	-0.031709883
152	0x3d41cde3	0.04731549
153	0x362b2fc0	2.550878e-06
154	0xbe2a4ffa	-0.16632071
155	0xbb3adfb8	-0.0028514694
156	0xbd4aae51	-0.049482647
157	0xbdc1930b	-0.09451874
158	0xbdb9a2c4	-0.09064248
159	0xbb58e823	-0.0033097349
160	0x3daa25b2	0.08307971
161	0xbc802239	-0.015641319
162	0x3e1309a4	0.14359146
163	0x3dc70a33	0.09718742
164	0xbd23d92f	-0.040002044
165	0x3d93b53e	0.072123036
166	0x3d133b41	0.03594518
167	0xbd8bfebc	-0.06835696
168	0xbe01e188	-0.1268369
169	0xbd778a07	-0.060434368
170	0xbcb46dce	-0.022025015
171	0x3e3b51ae	0.18292877
172	0x3dfdfcc7	0.12401729
173	0x3e08fde5	0.13378103
174	0x3e3bc625	0.18337305
175	0x3bf6c494	0.007530758
176	0xbdc74dfb	-0.097316705
177	0xbd853164	-0.06503561
178	0xbe2ee5fa	-0.17079917
179	0xbe8dfbd3	-0.2773119
180	0x3d1fd96a	0.0390257
181	0xbdfee1d6	-0.124454185
182	0xbdab89d1	-0.08375896
183	0x3bbd0010	0.0057678297
184	0xbe176eeb	-0.14788406
185	0xbe0c518a	-0.1370298
186	0xbceca30c	-0.02888634
187	0xbdc1d2ee	-0.0946406
188	0xbe292f67	-0.16521989
189	0xbe1fc3bf	-0.15602015
190	0x3df2d289	0.11856563
191	0x3e28b096	0.16473612
192	0x3cee79a3	0.029110735
193	0x3d48a8ad	0.048988987
194	0x3e0ac398	0.13551176
195	0x3e0221f9	0.12708272
196	0x3c97c375	0.018525818
197	0xbd05d00b	-0.03266911
198	0xbb92c018	-0.0044784658
199	0xbbc71c41	-0.006076366
200	0xbd311b2c	-0.043238804
201	0xbdc1c196	-0.09460752
202	0xbdc025d7	-0.093822174
203	0xbdf3271f	-0.11872696
204	0x3d610747	0.05493858
205	0xbc504fc0	-0.012714326
206	0xbd533720	-0.051566243
207	0xbd88662d	-0.066601135
208	0xbdfb60d6	-0.12274329
209	0xbe1081f6	-0.14112076
210	0xbdfe4d2c	-0.12417063
211	0xbdb288ce	-0.087175
212	0xbdabdcfa	-0.08391757
213	0xbdf64c8a	-0.120263174
214	0xbdee1229	-0.116245575
215	0xbd5c0375	-0.053714234
216	0xbe0d617d	-0.1380672
217	0xbdd0f3d1	-0.10202754
218	0xbe0171ec	-0.12641114
219	0xbe00e986	-0.12589082
220	0x3be15201	0.0068762307
221	0x3d8592b2	0.065221205
222	0x3d88b594	0.06675258
223	0x3dd929fd	0.10603712
224	0x3d2e3b18	0.042536825
225	0x3e04542f	0.12922738
226	0x3e390a3c	0.1807031
227	0xbd5330e9	-0.051560316
228	0xbc808eb8	-0.015693054
229	0xbdde5e20	-0.10857797
230	0xbd958e97	-0.073025875
231	0x3b3635f0	0.0027803145
232	0xbd0880ca	-0.033325948
233	0x3d86c7ca	0.065810755
234	0xbe5d608f	-0.21618865
235	0xbde3020d	-0.110843755
236	0x3e7a862d	0.24465246
237	0xbeb66372	-0.35622746
238	0x3cdcc6af	0.026950208
239	0x3dbd1e8f	0.09234344
240	0x3dbad3cb	0.091224276
241	0x3e068b19	0.13138999
242	0x3d3b9318	0.045794576
243	0xbd72408c	-0.059143588
244	0x3e0e2601	0.13881685
245	0x3c2ad4d7	0.010426722
246	0xbe7542ce	-0.23951265
247	0xbe33b08f	-0.1754782
248	0xbd1a9a5e	-0.037744872
249	0xbe175932	-0.14780119
250	0xbdfc872e	-0.12330471
251	0xbda4b69b	-0.08042642
252	0xbe61f28f	-0.22065185
253	0x3d30ffc6	0.043212675
254	0x3d3b385a	0.045708038
255	0xbd718ce3	-0.05897225

layer1.1.conv2.bias f4 [16]
0	0x3be2b79e	0.0069188615
1	0xbacadce4	-0.0015477207
2	0x3b117e7e	0.002220064
3	0x3b9aa6bf	0.0047195847
4	0xbbc233d2	-0.0059265876
5	0xbb7e5fd1	-0.0038814435
6	0xbc1d3e34	-0.00959735
7	0xbb1a488a	-0.0023541772
8	0xbaf91a88	-0.0019005099
9	0x3c11a7cd	0.0088901045
10	0x3b50c932	0.0031858203
11	0x3ac4422b	0.0014973333
12	0xbb5b950f	-0.0033505594
13	0xbb38ce4c	-0.0028199134
14	0x394ae6b1	0.0001935016
15	0x3bf70233	0.007538104

layer1.1.bn2.weight f4 [16]
0	0x3eb88b85	0.36043945
1	0x3f2f6f9f	0.68529695
2	0x3f1d7df0	0.6152029
3	0x3ead63d9	0.3386524
4	0x3f132d32	0.5749084
5	0x3e8df81c	0.27728355
6	0x3e92f2df	0.2870092
7	0x3f8e183d	1.1101147
8	0x3ee7e6c6	0.45293254
9	0x3f6bb0c2	0.92066586
10	0x3f77623e	0.9663428
11	0x3f93978b	1.1530622
12	0x3f87c345	1.0606467
13	0x3eadb9f2	0.33930928
14	0x3ec84aaf	0.3911948
15	0x3efdcf3e	0.49572176

layer1.1.bn2.bias f4 [16]
0	0xbe1d637d	-0.15369983
1	0x3e390761	0.18069221
2	0x3e5cf279	0.21576871
3	0x3d701d65	0.058621783
4	0x3e938cc4	0.28818333
5	0x3e4159f7	0.18881975
6	0x3ead7e4c	0.3388542
7	0x3e43e73b	0.19131176
8	0x3db02615	0.086010136
9	0xbe237b38	-0.15964973
10	0xbeb55a00	-0.35420227
11	0xbf28c334	-0.65922856
12	0x3ecd6637	0.40117046
13	0x3eb19cd7	0.34689972
14	0xbce804f6	-0.028322678
15	0x3dc7d68a	0.09757717

layer1.1.bn2.running_mean f4 [16]
0	0xbe73811d	-0.23779722
1	0xbe607482	-0.21919444
2	0x3e2da368	0.16956866
3	0xbe922f36	-0.28551644
4	0x3e5a1e0f	0.21300529
5	0xbe2e5739	-0.1702546
6	0xbde74a34	-0.1129345
7	0xbcd57d97	-0.026060862
8	0x3f7b9e0f	0.98288053
9	0xbedff341	-0.43740276
10	0xbdc34ff1	-0.09536732
11	0xbe54e91c	-0.20792049
12	0xbf1f6281	-0.6225968
13	0x3ea4d748	0.32195497
14	0x3eaa8a1c	0.33308494
15	0xbe990687	-0.29887792

layer1.1.bn2.running_var f4 [16]
0	0x3ec37e1c	0.3818215
1	0x3ebf615a	0.3737896
2	0x3f0430c4	0.5163691
3	0x3f240f14	0.6408551
4	0x3e90ffe8	0.2832024
5	0x3eaeeb7a	0.3416403
6	0x3e8008f4	0.2500683
7	0x3f630740	0.8868294
8	0x3f14a76b	0.5806796
9	0x3f785c48	0.9701581
10	0x3f3506c6	0.7071346
11	0x3f94043f	1.1563796
12	0x3f124fb4	0.5715287
13	0x3ed9f36e	0.42568535
14	0x3ebbc0a7	0.3667042
15	0x3ec7300d	0.38903847
