Output/swift-iid-8W-pattern1-third-ring-2sgd-200epochs/r2-epoch_114-parameters.pt (torch, 731756 bytes, 92 tensors)

conv1.weight f4 [16, 3, 3, 3]
000000 98 a0 f1 3e 4d 36 ac 3e 4e e8 16 3f f3 ca 3b be
       0.47192836 0.33635178 0.5894822 -0.18339138
000010 49 d4 b3 be 97 ea 20 be 88 68 98 be de d6 5d bf
       -0.35122898 -0.15714489 -0.2976725 -0.86655986
000020 1c 11 e1 be 5a 0c 8c be 80 ab f0 be ba 8b 59 be
       -0.43958366 -0.27353173 -0.47005844 -0.21244708
000030 44 12 5e be 9e f0 e9 bd 46 cc 85 be bf a6 ae bc
       -0.21686655 -0.11422847 -0.2613241 -0.021319745
000040 d2 d4 30 be 2e f2 0a be a4 86 c7 be b4 10 b3 be
       -0.17268685 -0.13568947 -0.3896991 -0.3497368
000050 3a e7 d6 be b7 68 77 3e 95 a2 2c 3f c5 ad e2 3d
       -0.41973287 0.2416104 0.6743558 0.110683
000060 01 81 0f 3f b8 0c 31 3f 73 1a d7 3e ee 37 c6 bd
       0.5605622 0.6916003 0.42012367 -0.096786365
000070 ec 4d 30 3f e4 1f 08 be 34 1a 00 bf 11 82 81 be
       0.688689 -0.13293415 -0.5003998 -0.25294545
000080 74 b9 d6 be 05 e0 98 3e 01 1d 59 3e 36 53 33 3e
       -0.41938365 0.29858413 0.2120247 0.17512211
000090 9c 3b e1 bc 68 c3 74 3f c7 74 b0 bc 33 d7 34 bf
       -0.027494244 0.95610666 -0.021540059 -0.7064087
0000a0 85 67 0f bf fb 41 40 bf a4 56 7f 3e f0 b2 c3 3d
       -0.56017333 -0.7510068 0.24935395 0.09555614
0000b0 1f 47 cb 3d 8e 42 13 3e 4e 32 45 3f 79 cb 9f 3e
       0.09925675 0.14380857 0.77029884 0.31209925
0000c0 4d 82 d3 be ae ce 48 bd 2a 12 82 be ae 08 e9 bd
       -0.4131035 -0.04902523 -0.25404483 -0.11378609
0000d0 22 85 53 3e 09 b5 21 3c 03 84 aa 3e 65 ff b3 be
       0.20656255 0.009869822 0.33303842 -0.35155788
0000e0 ba 7d c4 3e 32 4f 77 3e fa 8f 36 3f e7 13 c4 be
       0.38377172 0.24151304 0.7131344 -0.38296434
0000f0 87 7e 02 be 02 ec 81 3e 77 38 99 bd 64 72 94 be
       -0.12743579 0.25375372 -0.07481473 -0.28993523
000100 ee 2a 6f bf ea c6 bc be c4 1d 11 3e aa 35 60 3f
       -0.9342488 -0.3687051 0.14171511 0.87581885
000110 a9 bc 2b bf 8a 9c 35 be 34 04 cc 3e 18 25 85 be
       -0.6708475 -0.17735496 0.39846957 -0.26004863
000120 2b 4c 0f bf 76 09 5a bf 64 b6 06 be 68 f4 47 3e
       -0.559756 -0.85170686 -0.13155514 0.19526827
000130 11 71 86 3f b9 1f 97 3d fb e2 8c 3d 1c 67 3f 3f
       1.0503255 0.073790975 0.068792306 0.7476671
000140 de a3 06 3e f1 7e 83 3e 9e 2a 13 3d 6b d6 9a 3e
       0.13148448 0.25682786 0.035929315 0.30241713
000150 17 97 7c be 98 b5 df be f9 bf ef bd 1e ca aa be
       -0.24667011 -0.43693233 -0.11706538 -0.33357328
000160 27 18 2c bf 6d 3c a5 bd 1a 7a 7b be ce ba 82 be
       -0.67224354 -0.08068166 -0.24558297 -0.25533146
000170 97 1b 20 be 71 c7 1b be 7f fd f4 3b 8e 22 4b be
       -0.15635525 -0.152128 0.007476508 -0.198374
000180 57 04 c5 bd 3c be a7 bd 4c b8 25 be b0 f8 2c be
       -0.096199684 -0.08190581 -0.16183585 -0.16891742
000190 5e a1 37 3e a9 5c c3 bd 36 5d 0c 3f 82 ca 93 3f
       0.1793265 -0.09539158 0.5482973 1.1546175
0001a0 d0 95 d7 3e 5c 2c 22 3f 48 d5 87 3f 22 89 c4 3e
       0.42106485 0.6334894 1.0611963 0.38385874
0001b0 f2 96 19 3e 77 a6 03 bd 07 82 b1 bd 21 ed 0a be
       0.14998987 -0.032141175 -0.08667379 -0.1356702
0001c0 5b f4 cd be 19 73 e9 be 85 65 b0 3d 3e 04 08 bd
       -0.4022549 -0.45595625 0.08613113 -0.03320717
0001d0 d1 60 3f be c3 cd 90 3e 69 9c f2 3d 2e 77 46 3d
       -0.18689276 0.28281984 0.11846239 0.048453502
0001e0 37 48 dd 3c ef 13 b4 bd 4d 83 29 be cc 0f a2 3e
       0.027011974 -0.087928645 -0.16553994 0.31652677
0001f0 cc 29 bc 3e 4f 8d 96 3e 7e aa 64 3e e8 95 96 3d
       0.36750638 0.29404685 0.22330663 0.07352811
000200 15 6a 9b bd 5d 6a 5d be b4 be d3 be 03 e5 06 bf
       -0.07588593 -0.21622606 -0.41356432 -0.52693194
000210 6d 69 b1 bd e4 fa 2b be 5d e7 8a be b6 e7 63 3e
       -0.086626865 -0.16794926 -0.2712964 0.2225636
000220 bb 27 0a 3f c8 64 4c 3e 78 0b 68 3f 05 37 a4 3f
       0.53966874 0.1996032 0.906425 1.2829291
000230 da b6 13 be 06 ee a8 bc 58 ed b4 3d 06 73 a0 be
       -0.14425221 -0.02062131 0.08834332 -0.31337756
000240 34 15 99 bc bd bc d1 be 85 dc e9 be e0 6b 8d 3e
       -0.018686868 -0.40964308 -0.45676056 0.27621365
000250 1f 81 47 be 79 ce 9d bf ca 6a b3 be af c6 29 bf
       -0.1948285 -1.2328635 -0.3504241 -0.6631879
000260 72 c3 f7 be 04 21 98 3e ac a9 02 3e ef 5b a2 3d
       -0.483913 0.2971269 0.12760037 0.07927691
000270 fe 43 03 3f 42 95 a8 3e 6e 30 00 bf 1b 5b 6c 3e
       0.5127562 0.32926375 -0.500739 0.23081629
000280 23 a2 1e 3e 12 d2 e7 3d b9 6c 32 be 61 10 c4 be
       0.15491538 0.113193646 -0.17424287 -0.38293746
000290 a6 03 9c be 86 dd f5 be cc cd 30 bf 46 ce 18 bf
       -0.30471534 -0.4802057 -0.6906402 -0.5968975
0002a0 c1 a9 b0 be a4 5c 53 bf 2a 94 16 bf 25 af c6 3e
       -0.34504512 -0.82563233 -0.5881983 0.388055
0002b0 fb 1c 11 3f a7 52 c2 3e 4f c7 7c 3e c7 b4 c4 3e
       0.56684846 0.37953684 0.24685405 0.38419172
0002c0 94 1a 60 3e 4e 51 08 3e 69 b3 d1 bc 9a ca a9 3d
       0.21885139 0.13312265 -0.025598245 0.08290596
0002d0 a5 11 b8 3d 82 a0 b3 3e 33 f5 2b 3e 18 d9 0d 3e
       0.089877404 0.35083395 0.16792755 0.13852346
0002e0 2b 62 e8 3e 1a 9d 0e 3e 98 52 e4 3d 0e 92 39 3e
       0.45387396 0.13927117 0.11148566 0.18122122
0002f0 e3 66 c2 3d 24 c4 52 3e 87 a4 48 3f 85 f4 e6 3e
       0.0949228 0.20582634 0.7837605 0.4510843
000300 1f 23 6b be 51 36 95 3f e1 5a 31 be ba 21 1e bf
       -0.22962616 1.1657201 -0.17319824 -0.6177021
000310 95 b6 c9 bf 1a 22 93 be 20 43 db bc 3b 4b 73 3e
       -1.5758845 -0.28736955 -0.026765406 0.23759167
000320 e1 05 51 3d f8 6f 59 3e 14 84 9b 3f 57 a9 f7 bd
       0.051030997 0.21234119 1.2149682 -0.12092846
000330 c9 25 d9 3e b7 07 52 bf 93 a0 80 3e e1 b9 fd be
       0.4241164 -0.8204302 0.25122508 -0.49555877
000340 bf 84 7b bf 15 09 70 be 2c 8b e8 be ee 2b 76 3e
       -0.9824943 -0.23440965 -0.4541868 0.24040195
000350 87 2e 13 bf 33 3c 45 3f d9 9a 9e 3e 1a 10 22 3f
       -0.5749287 0.7704498 0.30977514 0.6330582
000360 08 d7 ed bb e5 e9 94 3e 63 00 eb 3d 87 1a a2 3e
       -0.0072582997 0.29084697 0.11474683 0.31660864
000370 22 03 22 bb 1c 88 90 3d f0 ca 4d 3e 3f 90 b1 bc
       -0.0024721106 0.07057211 0.20096946 -0.021675227
000380 2d 6e e0 3d ab 31 de bd 32 fd d7 be e1 7a 48 be
       0.10958514 -0.10849317 -0.4218536 -0.19578125
000390 77 4b 55 be 62 98 9e bf 44 b3 55 bf 13 f3 2c bd
       -0.20829569 -1.2390254 -0.8347666 -0.042224
0003a0 65 e2 2e bf 11 d1 73 be cd 63 9d 3c 99 0e ac 3e
       -0.683142 -0.23810221 0.019212628 0.33604887
0003b0 47 37 bb 3e ba 53 d7 3d b0 01 f4 bd 4d 8b df 3d
       0.3656561 0.105140164 -0.11914384 0.109152414
0003c0 bf 9a a9 3d a3 e0 69 3d 32 6a 82 3e 78 59 7a bd
       0.082814686 0.057098996 0.25471646 -0.06112048
0003d0 e6 a9 e0 3d 0c 44 9a 3c e1 a5 d9 ba 8b 71 b6 3e
       0.109699056 0.018831275 -0.0016605222 0.356335
0003e0 e9 38 32 3e 9b a8 0f be ef 5b 66 be 7b 8d 27 3e
       0.17404522 -0.14029162 -0.22496007 0.16362564
0003f0 78 93 e4 3c 8f 2a a6 3e 03 a7 96 3d f6 26 a5 bd
       0.02790235 0.32454345 0.07356074 -0.08064072

conv1.bias f4 [16]
000000 c8 97 7e bc 5a 7d 21 bc b3 e1 33 bc e1 eb a6 3c
       -0.015539117 -0.009856546 -0.010979104 0.020376148
000010 1e 07 9a 3c 55 bf b2 bc 25 60 89 ba 99 5a ab 3b
       0.018802222 -0.02181975 -0.0010480924 0.005229306
000020 82 3d 88 bc 5c c7 b4 bc 4c d8 c9 bb bc 4d 25 bc
       -0.016630892 -0.022067718 -0.006159818 -0.010089334
000030 ff 4b 07 bc 7a 62 87 3c b3 e2 8a 3b b8 9b 77 bc
       -0.008257865 0.01652645 0.0042384504 -0.01511281

bn1.weight f4 [16]
000000 47 d9 62 3f 40 bd 5b 3f bf 91 5b 3f a1 10 34 3f
       0.8861279 0.8583565 0.85769266 0.70337874
000010 26 e5 8b 3f aa 1c 42 3f 0a 5d 2b 3f ab fa 46 3f
       1.0929306 0.7582499 0.6693884 0.7772624
000020 44 fd 87 3f 25 52 11 3f 6b c0 49 3f 94 23 3f 3f
       1.0624166 0.5676597 0.7880923 0.7466366
000030 8e 31 8c 3f 3f 3c 55 3f 6d 5e 71 3f 3a 85 98 3f
       1.0952623 0.83295053 0.9428471 1.1915658

bn1.bias f4 [16]
000000 f4 5b b1 3d a4 02 5c 3f c9 ea 11 3f cf d0 3b 3f
       0.08660117 0.8594153 0.5699888 0.7336549
000010 80 19 18 bf c9 b5 64 3f 7f f8 e5 3e b8 5c b5 3f
       -0.5941391 0.8933988 0.4491615 1.416892
000020 44 d4 62 3e a0 e8 95 3d cd 9c f6 3e a0 e8 1b 3f
       0.22151285 0.0731976 0.48166505 0.6090183
000030 ce 84 d1 be 14 72 61 3f 99 89 31 3e 5c 1f 1c 3e
       -0.40921634 0.88064694 0.17337646 0.15246338

bn1.running_mean f4 [16]
000000 62 0d b2 3e 4e 20 b4 3d 57 43 6f be cf 31 a8 be
       0.34775835 0.08795224 -0.23365532 -0.328505
000010 82 31 ce 3e 1d f1 45 be 6a 46 9a 3d 2a 1f 40 be
       0.40272146 -0.19330259 0.07532962 -0.18761888
000020 08 4b 12 3f 94 9d 23 be 77 b2 36 3e 55 1f 54 3e
       0.5714574 -0.1597808 0.17841516 0.20715077
000030 00 b6 ef 3e cc 01 09 be 37 1a da be 83 97 57 3e
       0.46818542 -0.13379592 -0.42598125 0.21053891

bn1.running_var f4 [16]
000000 4a 83 5e 40 08 aa 9e 40 a9 8e cf 40 c4 e4 f8 40
       3.4767632 4.958256 6.4861646 7.7779255
000010 d8 c4 9a 40 00 28 06 41 21 ac c9 40 b3 c9 08 40
       4.836529 8.384766 6.302262 2.1373107
000020 4c fb db 40 52 88 85 40 34 0d 37 41 65 c3 c1 40
       6.874426 4.1728907 11.440723 6.055102
000030 fb 52 e3 40 72 b3 c5 40 db b2 94 40 5a 42 96 41
       7.1038795 6.178155 4.646833 18.782398

layer1.0.conv1.weight f4 [16, 16, 3, 3]
000000 1f 4b b9 3d d5 5a d6 3d 4f 99 3c 3d eb aa 82 bd
       0.09047531 0.104665436 0.046044644 -0.06380256
000010 8f 3b 3b 3d 2b 9e 20 bd 67 7c af bc d6 fa 0f 3b
       0.045711096 -0.03921334 -0.021421624 0.0021969578
000020 b1 43 af bd 0f 04 d0 3d b1 1c df 3d 06 25 ae ba
       -0.08557833 0.10157024 0.10894144 -0.001328618
000030 2f 14 aa be f8 00 e3 be d9 85 c2 be 11 d2 cd 3d
       -0.33218524 -0.44336677 -0.37992743 0.100498326
000040 8e dc 8c 3e 2e dd ef 3d 8b fc 0d bd 51 e0 97 3e
       0.2751202 0.117121086 -0.034664672 0.29663327
000050 a7 78 02 bd 14 36 49 be 98 1e 8d 3e 2b 0c 38 3d
       -0.031853344 -0.19649535 0.27562404 0.04493348
000060 ee 2f a5 be 22 4f c1 be 81 34 96 be 31 e6 c1 bb
       -0.3226313 -0.37755686 -0.29336932 -0.0059173335
000070 47 d3 cf 3d 24 ee 09 3d 8b 95 01 3c 0c ec f6 3d
       0.1014772 0.033674374 0.007909189 0.12056741
000080 37 b7 3d bd cb 38 21 bc 0f cf fe 3c 59 8e fa bd
       -0.046317305 -0.009840201 0.031104593 -0.12234182
000090 62 24 d6 3d 73 4f 9b 3d 22 70 cc bd a4 61 be 3c
       0.10456158 0.07583513 -0.09982325 0.023239918
0000a0 55 85 70 bc 47 e2 fe bd 12 bd 58 bd ef bc 35 bd
       -0.014680226 -0.12445503 -0.052914687 -0.044369634
0000b0 09 03 85 3c cf 4b de bd 64 c1 8d be 5d 7c 22 be
       0.016236799 -0.10854303 -0.27686608 -0.15867753
0000c0 f8 60 ac be a8 8d ed bd 45 c0 b0 3e 8e db ac be
       -0.3366773 -0.115992844 0.3452169 -0.33761257
0000d0 13 11 21 be 90 6d 64 3e 2e b9 43 bc ae 76 f7 bd
       -0.1572917 0.2230742 -0.011946006 -0.12083183
0000e0 eb 53 e9 bd 0c 24 3b 3d 48 f7 1c 3c 38 1e 38 bd
       -0.11392959 0.045688674 0.009580441 -0.044950694
0000f0 b7 91 c8 3d b0 28 29 3e 53 95 be ba f6 a7 5b bc
       0.09793418 0.16519427 -0.0014540352 -0.013406744
000100 62 36 12 be fe 56 1b bd 8a 2e 95 bd 1a 42 45 3e
       -0.14278558 -0.03792476 -0.07284267 0.19263497
000110 87 f4 c3 3d b1 e0 8c bd 31 95 28 3e e2 25 c9 bb
       0.09568124 -0.06878794 0.16463162 -0.006138549
000120 dd 62 3b 3e 85 3c 89 3d 40 75 77 3c 4e 6e 17 3e
       0.18299432 0.06700996 0.015103638 0.14788172
000130 1c 6c 2e 3d 24 8b 36 3c 89 14 9f 3c 11 e5 04 bd
       0.04258357 0.011141572 0.019418972 -0.032445017
000140 24 ef ab bd 12 71 46 be 86 13 73 be d0 2f 2a be
       -0.08395222 -0.1937907 -0.23737916 -0.16619802
000150 00 38 a3 bd b4 7a 2b 3d 66 f6 48 bd 4c 9c 7c bd
       -0.079696655 0.041865066 -0.04906311 -0.061672494
000160 f4 f0 13 3e 42 3f 52 bd 1f 8e 4a 3d aa b6 f1 bd
       0.14447385 -0.05132986 0.049451943 -0.118024185
000170 65 26 38 be d0 22 89 bd 72 e1 a4 be 46 93 c0 be
       -0.17983396 -0.06696093 -0.3220325 -0.3761236
000180 5a 24 2b 3e e8 53 cd bd 43 26 56 be 53 e5 2b 3e
       0.16713086 -0.100257695 -0.20913033 0.16786699
000190 82 3d 29 be 58 d3 ec 3d 41 2d 14 3d 46 2b e1 be
       -0.1652737 0.11563748 0.03617597 -0.43978328
0001a0 a8 50 b6 3d a8 4b 91 bd 37 64 8c be b2 cd 24 3d
       0.08902103 -0.070945084 -0.27420208 0.04023523
0001b0 f2 00 92 3d 7f 27 80 3d cb 05 80 3d 6a 57 0b 3e
       0.071290866 0.06257533 0.06251105 0.13607565
0001c0 01 d3 12 3d 83 b3 04 bc 29 6a f6 3d 1b 9a e2 3c
       0.03584576 -0.00809944 0.12031967 0.027661374
0001d0 68 fe 0c bd 6e 69 44 3e fd ae a6 3d fb 7e 2b 3e
       -0.03442231 0.19180843 0.08138845 0.16747658
0001e0 b7 27 70 3e ab b9 d5 3d 0e 10 23 be c9 fa d6 3d
       0.2345265 0.10435804 -0.15924093 0.10497052
0001f0 e4 0e 44 3d ad 96 35 bd a1 ba 94 3d d7 39 12 3e
       0.047865763 -0.04433315 0.07262159 0.14279877
000200 7a b3 c6 3c ba 11 c0 3d dc c1 75 3e d5 53 f0 bd
       0.024255503 0.09378381 0.23999733 -0.1173474
000210 e7 fa 4e bd 1a 3a 08 be 0d ca 4a be 9b 25 d9 bd
       -0.050532248 -0.13303414 -0.19803639 -0.10602876
000220 65 88 a1 be 38 65 98 bd 89 1e 0d bd 1e b8 68 be
       -0.31549373 -0.07441181 -0.03445295 -0.22726485
000230 f2 9b 5b be e2 40 8c bc b5 13 06 be 95 5c aa bd
       -0.21446207 -0.017120782 -0.13093455 -0.0831844
000240 b6 a4 1d 3c b4 f7 10 3d b8 8e 60 bc 47 65 94 bc
       0.00962179 0.035392478 -0.013705902 -0.018114699
000250 9b 50 cd 3d 8a 97 b3 3d 64 33 20 be 0d 04 b8 bb
       0.1002514 0.08769138 -0.15644604 -0.0056157173
000260 c8 5c 31 3c 96 ba bd bd e5 af cc bd 70 a0 89 bc
       0.010825343 -0.09264104 -0.09994487 -0.016800135
000270 28 8f f7 3d 8a b3 32 3d a2 76 9b 3d a1 32 6d bd
       0.12087852 0.043628253 0.07590987 -0.05790961
000280 c6 5a 16 be 7b d7 20 be b6 17 4a bd 14 2a 84 bd
       -0.14683065 -0.157072 -0.04933902 -0.06453338
000290 2f 59 26 be 08 22 0c bc ae 38 7d bd 4a 41 df bd
       -0.16244958 -0.008553036 -0.061821632 -0.10901125
0002a0 19 3c 23 be 90 bb c9 bd 62 67 46 be 51 d0 a1 3c
       -0.15940894 -0.09850228 -0.19375375 0.019752653
0002b0 55 61 28 3c 05 13 fb 3b 00 01 05 3d 23 9f 1e 3d
       0.010277112 0.0076621794 0.032471657 0.038725983
0002c0 39 46 90 3d 97 dc 34 bd e6 29 a3 bc c5 4e 18 3d
       0.07044644 -0.044155683 -0.01991744 0.037184495
0002d0 f5 c3 b2 bc 5c 3d a7 bd 3d 22 a3 bd 54 eb 2c 3c
       -0.021821955 -0.08166 -0.07965515 0.0105541535
0002e0 35 f5 e7 bc 7b 61 02 bb 62 3c 1a bd 1a 43 30 bc
       -0.028315166 -0.0019894529 -0.03765524 -0.010758186
0002f0 ed fc fe 3c ff dd de 3d 78 68 27 3e d7 9d 7a 3d
       0.031126464 0.10882186 0.16348445 0.061185684
000300 e4 7d e0 3d 57 ba 19 3e 52 ee 85 bd 88 39 a3 3d
       0.10961512 0.1501249 -0.065395966 0.079699576
000310 7c b1 09 3e 1a f3 6e bd 67 fd 4f bd 3b 5c 76 bd
       0.13446611 -0.05833731 -0.050778773 -0.06014655
000320 63 13 0d bc ae 09 c4 bd b3 53 57 bd e7 57 4e bb
       -0.008610579 -0.09572159 -0.052570056 -0.00314855
000330 48 af bd bd 8d c1 7f bd 76 39 74 bc 37 4d c2 bd
       -0.09261948 -0.062440444 -0.014906278 -0.09487384
000340 ed b3 66 3e 3c 28 f3 3d f5 1d 15 bd a0 ee c7 3d
       0.22529574 0.118729085 -0.036405522 0.09762311
000350 c2 96 64 3d 21 13 ea b9 1e 37 71 bb 33 2e 8a bd
       0.055807836 -0.0004464621 -0.0036806534 -0.06747093
000360 72 d5 05 bd 91 7a be 3c 69 1d 71 bd 30 39 d4 3c
       -0.03267426 0.023251804 -0.05886594 0.025906175
000370 a7 8d 33 3e 3a 3c ae 3d 30 da 4c bd 14 f9 2f 3b
       0.17534505 0.08507581 -0.050012767 0.0026851343
000380 c1 c5 ad 3c fc cf b9 3b 71 6d cf 3c e2 f3 c9 3c
       0.02121246 0.0056705456 0.02532074 0.024652425
000390 e8 68 0a bd a4 08 38 bd 40 87 e3 bc d9 c7 ba 3c
       -0.033791453 -0.044930115 -0.027774453 0.022800373
0003a0 8b 9c 33 3d ae e1 94 3d 17 f0 20 bc 0f 67 35 3e
       0.043850463 0.072696075 -0.009822867 0.17715095
0003b0 f3 12 16 3e 68 64 c9 bc de ef ba 3d c4 75 0c 3e
       0.14655666 -0.02458401 0.09127782 0.13716799
0003c0 c9 39 48 bd b9 32 37 bd 42 9d 8e bd 0a ea 31 3e
       -0.048883233 -0.044726107 -0.06963588 0.17374435
0003d0 6c 57 22 3e f6 1d 99 3c eb 66 7e 3d a5 f3 a7 3e
       0.15853661 0.018691044 0.06210987 0.32803074
0003e0 c5 ed 5d 3e d0 f6 7b 3d ec 30 ad 3e 0c d4 93 3e
       0.21672733 0.061514676 0.33826387 0.28872716
0003f0 7c 90 a0 3c ae a5 80 3d 45 de 88 3c 26 f0 48 3d
       0.019600146 0.06281601 0.016707549 0.04905715

layer1.0.conv1.bias f4 [16]
000000 34 06 b9 3a bf 1c d4 bb ff 4d 31 bb fc c2 ce 3a
       0.0014116229 -0.0064731534 -0.0027054546 0.0015774663
000010 fb 4a 05 bc fa 8e eb bb 04 9b a2 3a 11 e1 30 bb
       -0.0081355525 -0.007188675 0.0012405817 -0.0026989619
000020 95 a6 6e 3b 79 8e 28 bb d6 0e 91 3b b5 db e0 3a
       0.0036415209 -0.0025719686 0.0044268174 0.0017155322
000030 64 f7 19 bc b2 0c fa 3a 26 25 ee 3b 6d f1 86 bb
       -0.009397361 0.001907727 0.007267612 -0.0041181357

layer1.0.bn1.weight f4 [16]
000000 fa 4c 5a 3f 1c d7 0f 3f 09 5d 03 3f 4c a9 01 3f
       0.85273707 0.56187606 0.51313835 0.5064895
000010 f7 b2 23 3f b6 d7 2f 3f 85 aa 15 3f 2e e9 38 3f
       0.63944954 0.68688524 0.5846332 0.72230804
000020 0f 80 23 3f 3c c2 fe 3e 85 04 69 3f 98 b4 46 3f
       0.63867277 0.49757564 0.9102252 0.77619314
000030 6a b4 30 3f f6 19 d3 3e d4 fa 55 3f 2f 88 37 3f
       0.6902529 0.41230744 0.8358586 0.71692175

layer1.0.bn1.bias f4 [16]
000000 0f 87 77 bd f6 cf dd bd 73 fd a5 bc 68 6f 86 3e
       -0.060431536 -0.10830681 -0.020262456 0.2625687
000010 42 b7 1a 3e 6f b0 df be 74 31 ed bb 02 79 7f be
       0.1510897 -0.43689296 -0.0072385613 -0.24948505
000020 3d e5 9a bd e7 e7 24 3f b8 cd 1e bf e5 a3 8e 3f
       -0.07563255 0.64416355 -0.6203265 1.1143767
000030 fe d1 9d be dd 88 0b 3e a6 5e 52 be 04 80 1a bf
       -0.30824274 0.13626428 -0.20543918 -0.60351586

layer1.0.bn1.running_mean f4 [16]
000000 85 a4 08 c0 d1 53 e0 3f d0 fc d6 be 72 1d c5 bf
       -2.1350415 1.7525579 -0.41989756 -1.5399611
000010 02 17 2e c0 92 e9 12 40 61 85 21 3f 30 6e 89 c0
       -2.7201543 2.295506 0.63094145 -4.2947006
000020 8e 74 25 c0 81 cf d6 bf 3c 2a f3 3f 1c 7f 09 c0
       -2.585239 -1.6782075 1.8997264 -2.1483831
000030 52 ae 18 40 5a 84 40 bf 7d 23 fe be 3a 76 01 40
       2.3856397 -0.7520195 -0.4963645 2.022841

layer1.0.bn1.running_var f4 [16]
000000 ba cc b0 40 37 cc c8 3f 65 eb f6 3f 08 7e 08 40
       5.524991 1.5687321 1.9290587 2.1326923
000010 36 2d 9d 40 6c 90 2b 40 12 d1 5d 40 3a 53 4b 40
       4.911769 2.6806898 3.4658856 3.1769547
000020 fb 46 28 40 1c ca d2 3f ea 35 4b 40 75 d1 61 40
       2.6293323 1.6467929 3.1751657 3.5284092
000030 39 6c 46 40 40 a3 32 40 8e a2 82 40 bd c0 e4 3f
       3.1003554 2.791214 4.082343 1.7871319

layer1.0.conv2.weight f4 [16, 16, 3, 3]
000000 82 89 82 bd 27 57 8d 3c c0 16 ac 3d 0b 87 c7 bd
       -0.06373884 0.017253472 0.08402777 -0.09742554
000010 16 00 12 bd e7 c8 88 3b 9f 7a b3 bc 45 a6 a7 3c
       -0.035644613 0.00417434 -0.021909056 0.020465026
000020 01 e5 04 3d 68 82 cf 3b 87 8b 9e 3d 77 fb 57 bc
       0.032444958 0.0063326843 0.077414565 -0.0131825125
000030 a5 bf b7 3d 5d 9e 36 3e 63 a8 cb 3c dd 3c c7 3c
       0.089721 0.17833848 0.024860566 0.024321014
000040 fb ad 3d 3d dc 0b 31 bd a6 68 27 be e4 e6 c2 bd
       0.0463085 -0.0432242 -0.16348514 -0.09516695
000050 05 cf 1b bd 84 3b 8a bd 74 83 c9 3c 73 af 77 3d
       -0.038039226 -0.06749633 0.024598815 0.060470056
000060 a6 d6 2e bd 96 ac a0 3d d5 96 e8 3d a3 10 fd 3d
       -0.042685173 0.07845418 0.11356894 0.12356689
000070 e0 d0 fc bd 37 5d 88 be ee a1 78 3e 15 2c 1f 3d
       -0.12344527 -0.26633617 0.24280521 0.0388604
000080 e2 68 4b be 6b 9a fd 3d 67 11 7a 3d f7 92 cb bd
       -0.19864228 0.123829685 0.061051752 -0.09940141
000090 4e f2 6b bd f9 8e 3b bd ea 76 99 3d 4b 7d 42 be
       -0.057604127 -0.045790646 0.07493384 -0.18993108
0000a0 6a f2 c9 bd ac f7 ab bb ab 7a 6c be 63 ee c1 bd
       -0.0986069 -0.0052480306 -0.23093669 -0.09469297
0000b0 cb bf 37 3b b0 22 0e bb 15 64 c6 ba f5 05 b3 bd
       0.0028037902 -0.0021688156 -0.0015136028 -0.087413706
0000c0 ce a1 1d bd 11 65 04 be 0f 40 34 be da 4d 3b bd
       -0.038484387 -0.12929179 -0.17602561 -0.045728542
0000d0 f2 41 43 be ad 0d 01 be f5 49 f0 bd 81 7e 1c bd
       -0.19068125 -0.12602873 -0.11732856 -0.03820658
0000e0 72 7d b6 bd e9 b1 16 3d c9 12 d5 3d b4 3b 61 3d
       -0.089106455 0.036790762 0.104039736 0.054988578
0000f0 72 f1 7c 3d b2 1a 19 3d e4 e2 e2 bc a8 a6 1c bd
       0.061753698 0.037378974 -0.02769608 -0.038244873
000100 a8 02 9e bd 4f dd 0d bd 29 10 37 be e3 44 66 be
       -0.077153504 -0.034634884 -0.17877258 -0.22487216
000110 92 5d 41 be a7 d4 65 be dd 4e 64 be f6 de 23 be
       -0.1888335 -0.22444402 -0.22295709 -0.16003022
000120 03 30 66 bc e2 ca 93 bd 5d 7c d0 3c dd c6 ba bd
       -0.014049533 -0.07216431 0.025449926 -0.091199614
000130 03 7f f7 bd 88 50 38 bd cf 27 c7 bd c7 33 57 bd
       -0.120847724 -0.044998676 -0.0972439 -0.052539613
000140 eb a3 4c bc 4a cb ff bd 13 e7 f7 3c 37 c3 89 3e
       -0.012490253 -0.12489946 0.030261552 0.2690675
000150 48 15 7e be 3c e9 4d be 55 8d 00 3e 52 bb da bd
       -0.24812806 -0.20108503 0.12553914 -0.1068026
000160 cd 44 84 3d 9a 58 86 3e 0a ce 03 be a8 99 7a be
       0.06458435 0.26239473 -0.12871566 -0.24472678
000170 cc c7 3b be ab c0 24 3d 7f da fb bd 3d ad 19 bd
       -0.18337935 0.040222805 -0.12297534 -0.03751873
000180 d0 b1 b7 bc 20 dd ff bd 38 db 2e bc 37 9d 8d bd
       -0.022423655 -0.12493348 -0.010672383 -0.06914752
000190 f6 3d 7c be a5 ad 9e be ae b3 56 3d 08 6b e5 3b
       -0.24633011 -0.30991855 0.05241745 0.0070012845
0001a0 ea a2 fa bd 55 01 99 3e 24 26 ae 3e f7 a8 04 3e
       -0.12238105 0.2988383 0.34013474 0.1295508
0001b0 30 cf f0 bd 09 52 f5 3c 05 fb 80 3d ee 1f b3 bd
       -0.11758268 0.029946344 0.06297878 -0.087463245
0001c0 a0 87 a1 bd 8f d1 02 3d 79 58 66 be 62 41 66 be
       -0.078871965 0.031938132 -0.22494687 -0.22485879
0001d0 56 8b 3a be 3b da 44 be b6 d1 c5 bd 95 26 7c bd
       -0.18217215 -0.19223873 -0.0965914 -0.061560232
0001e0 e7 f1 de bd 9e b3 dc bd 84 af 04 be a1 57 6e 3d
       -0.10885983 -0.10776447 -0.12957579 0.05818904
0001f0 72 6f f3 3c 4f 78 b2 bc f2 e2 3c 3e 18 64 80 3e
       0.029716227 -0.021785883 0.18445948 0.25076365
000200 3f ff 28 3d 89 37 e6 3e 9d 1f 0a 3f b9 73 08 3e
       0.041259047 0.44964245 0.5395449 0.13325395
000210 a7 5e e4 3e d1 f2 dd 3e ec 06 99 bd f0 a8 a9 3d
       0.44603464 0.43349317 -0.07472023 0.082841754
000220 28 5e db 3d d9 8b ab 3d 40 93 36 bc 09 f7 3f bd
       0.10711318 0.08376283 -0.011143506 -0.04686645
000230 04 f1 3a bd 00 a9 b2 3c 81 f0 d7 bc d5 66 f6 ba
       -0.045640007 0.021809101 -0.026359798 -0.0018798957
000240 57 32 15 3e ae 55 d5 3e 88 cf 03 3e e8 74 2e be
       0.14569984 0.4166693 0.12872136 -0.17036784
000250 78 59 16 be e8 63 e6 bd a5 df b9 3d c5 77 84 3c
       -0.14682567 -0.11249524 0.0907586 0.016170392
000260 f4 19 2b bd d1 7a 20 3d f3 36 24 3e c5 a9 5b bc
       -0.041772798 0.039179627 0.16036586 -0.013407175
000270 6e 17 bb 3c fa 11 0b 3d b0 7c 88 3c c4 cc 8c 3d
       0.02283832 0.03395269 0.016661018 0.068749934
000280 46 ee 09 3e d1 2b d5 3d a2 f2 c6 bc b1 64 cb 3d
       0.134698 0.10408748 -0.024285618 0.09931315
000290 44 53 b4 bc 76 5d 05 be f7 b6 18 bd 66 50 8e bd
       -0.02201236 -0.13023934 -0.037283864 -0.069489285
0002a0 d1 27 52 bc 74 4f f4 bd 59 db 87 bd ad 56 51 3e
       -0.012826876 -0.11929217 -0.06633634 0.2044322
0002b0 ab cc 4d 3e ed c9 b1 3d 19 7a d4 bc c3 5c 90 bc
       0.20097606 0.086810924 -0.025937127 -0.017622357
0002c0 18 79 07 bc c2 28 d6 bd 33 2e 73 be 16 12 7c 3a
       -0.008268617 -0.10456993 -0.23748092 0.0009615732
0002d0 60 cf 9a bd ce 31 80 3d ec b5 9c 3d 7f d6 28 3c
       -0.07559085 0.062594995 0.07651886 0.010305046
0002e0 f8 b1 79 bd ad c0 87 3c 9c 39 05 3e 2d 4f a2 3c
       -0.06096074 0.016571367 0.13010257 0.019813145
0002f0 f0 45 b7 3d 1d 02 3d bd 50 fb 24 3d d6 98 37 3c
       0.089488864 -0.046144594 0.040278733 0.0112058725
000300 5e 75 ce bd 9f 7e 2a 3c 0f 9e 6e bc ea 8f 52 be
       -0.1008098 0.010406165 -0.014564051 -0.20562711
000310 a3 b0 e7 bd 85 64 4c be 53 3a 7e 3d 09 40 d9 bd
       -0.11312988 -0.1996022 0.06206734 -0.10607917
000320 22 34 0f bd fd af c4 3d de 54 77 bd fe ae ad 3c
       -0.034961827 0.096038796 -0.06038367 0.021201607
000330 b1 d7 c2 bd f9 62 c2 bd de 31 92 bb 45 9c 79 3c
       -0.09513796 -0.09491534 -0.004461511 0.0152350115
000340 5b 0e d8 3d c5 98 af 3d 85 ad 0c 3e d3 60 e1 3d
       0.10549613 0.0857406 0.13738067 0.11004796
000350 98 7e e1 3d fc 29 20 3e 68 71 32 3e 53 4d c3 3d
       0.11010474 0.15641016 0.17426074 0.09536233
000360 3e b2 2c 3d e6 f0 74 3e 4f fe 24 3e ef fa 27 be
       0.042162172 0.2392002 0.16112636 -0.16404317
000370 c6 d0 d4 bd e4 00 92 bd e9 8d db 3d d2 d7 9d 3d
       -0.10391383 -0.07129076 0.107204266 0.0770718
000380 0d 7b a8 bb 8f ee da bd 7e 59 6e 3e 07 d9 8c 3e
       -0.005141622 -0.10690033 0.23276326 0.2750933
000390 1a 29 96 3d 42 95 7e 3d 85 41 00 be 19 b9 2f 3e
       0.07332058 0.062154062 -0.12524994 0.17160453
0003a0 d3 c2 0d 3d 72 2f 03 3d e0 66 b9 bc eb 1c d2 3d
       0.034609627 0.03202767 -0.022632062 0.10259422
0003b0 12 d4 af bc b1 13 d9 39 9f 5f 0a 3d bf aa 21 bd
       -0.021463428 0.00041404137 0.033782598 -0.039469477
0003c0 89 2b ca 3b 8c ce e6 3c d2 fe 98 bd fd 7a 8d bc
       0.0061697406 0.028174661 -0.07470478 -0.01727056
0003d0 e8 dc db 3e 3c ce f9 3c 57 c6 6b be 8b 19 b0 be
       0.42941976 0.030493848 -0.2302488 -0.34394488
0003e0 f5 ca 8d 3d 4b fa 10 3f 88 16 d3 bb 86 7c 05 3e
       0.069234766 0.56631917 -0.006441895 0.13035783
0003f0 92 f0 e2 bd 98 a8 ff bd 94 d7 b3 bd 12 81 6a bd
       -0.110810414 -0.124833286 -0.08781353 -0.057251997

layer1.0.conv2.bias f4 [16]
000000 37 42 81 bb 50 0c 60 3c af bc 99 bb 94 53 cf 3a
       -0.003944661 0.0136748105 -0.0046916823 0.0015817755
000010 16 dd d1 3b 5d 56 8a 3b 3b ff 2a bb 78 15 c1 bb
       0.0064045293 0.004221721 -0.002609207 -0.005892452
000020 c4 a5 eb 3b e5 0e b6 bb 30 2d 02 bc e4 b3 1e 3c
       0.0071913917 -0.005555975 -0.007945344 0.009686444
000030 54 70 e8 bb 52 65 77 3b fe 84 d0 b9 aa cf 89 3a
       -0.0070934687 0.00377496 -0.00039771938 0.0010514159

layer1.0.bn2.weight f4 [16]
000000 b9 d2 3c 3f 0c f9 3c 3f 44 fd d0 3e 77 f0 b8 3e
       0.7375904 0.73817515 0.40818226 0.3612096
000010 e8 d6 61 3f 13 11 ee 3e 47 99 aa 3e af 3d 2a 3f
       0.88218546 0.46497402 0.33320066 0.6650037
000020 6e 57 a0 3e 59 84 5a 3f f8 d2 30 3f e6 e0 34 3f
       0.31316704 0.85358196 0.6907191 0.7065567
000030 86 b6 7a 3f 20 21 b7 3e e1 5c ea 3e 50 93 38 3f
       0.9793476 0.3576746 0.45773986 0.7209978

layer1.0.bn2.bias f4 [16]
000000 64 73 ae bd 62 68 ff bc 27 b0 8c 3e 1b f7 9a be
       -0.08518103 -0.031177703 0.27478144 -0.30266652
000010 5c b0 a4 be 7b ca 9f be 86 cd ad 3e bf 77 fe 3e
       -0.32165802 -0.31209168 0.33945864 0.49700734
000020 9a 30 02 bd fe 7a 7a 3d ca 15 a0 bd cf 06 85 be
       -0.03178463 0.06115245 -0.07816656 -0.25981757
000030 0c 05 98 3e c7 41 ca 3e b3 9a 3e 3d 43 4d 8f 3d
       0.2969135 0.3950331 0.04653425 0.069971584

layer1.0.bn2.running_mean f4 [16]
000000 95 f2 b5 be 12 e3 96 3f e8 2f 0a 3f 9a 62 8d bf
       -0.35536638 1.1788046 0.5397935 -1.1045716
000010 56 9e e7 3f 57 2a 36 3e f1 e1 9a be b2 20 38 bf
       1.8095195 0.17789589 -0.30250505 -0.7192489
000020 41 fd 0e bf 5c 21 cc 3e 08 21 94 bf 14 4f b3 3d
       -0.55855185 0.398692 -1.157258 0.08755317
000030 f1 13 82 be 45 44 81 bf 78 6e f0 bd 59 f3 42 bf
       -0.2540584 -1.0098959 -0.1173982 -0.7615257

layer1.0.bn2.running_var f4 [16]
000000 c6 1e 70 3f 67 07 5d 3f 1f 6a 4c 3f d3 35 4e 3f
       0.93796957 0.8633942 0.7984943 0.8055088
000010 bb 46 6a 3f 38 cf 3a 3f 3f 00 1c 3f dc 0b 50 3f
       0.91514176 0.7297244 0.60937876 0.81268096
000020 87 7d 3b 3f 99 51 af 3f 62 d0 69 3f 5d c9 ae 3f
       0.73238415 1.3696777 0.9133359 1.3655201
000030 e7 eb 81 3f a5 f3 45 3f d9 07 12 3f eb 53 9a 3f
       1.0150117 0.773249 0.57043225 1.205686

layer1.1.conv1.weight f4 [16, 16, 3, 3]
000000 62 eb 56 be 69 18 2f be 2d bd e6 bd e4 45 ac bd
       -0.20988229 -0.17099155 -0.11266551 -0.08411768
000010 de 43 c7 bd 0f 47 56 be 9a 92 d1 3d 34 2c e1 3d
       -0.097297415 -0.20925544 0.1023304 0.10994759
000020 7e b8 d9 bd f1 ff 10 be 8a c3 3b bd 51 78 5b 3d
       -0.10630892 -0.14160134 -0.045840777 0.05358154
000030 cf 12 76 3d 9e 0a 47 3e 8c 2c 5d bd f4 64 24 be
       0.06007653 0.19437644 -0.05399756 -0.16054136
000040 cb 9e bf 3c 07 53 a6 3d a0 7d c0 bc 19 f8 08 3e
       0.023391148 0.08121305 -0.023497403 0.13375892
000050 08 63 92 3d ad 25 2c be 98 d1 80 be a8 eb ed bd
       0.07147795 -0.16811247 -0.25159907 -0.116172135
000060 a3 f2 6e bd f0 eb 88 bd ed 6a c0 bd c2 dd 47 bc
       -0.058336865 -0.066856265 -0.093953945 -0.012198867
000070 88 9b 0e 3d 2e 2f 23 3d db ca 84 bc 06 e9 3a bc
       0.034816295 0.039839916 -0.01621001 -0.011408096
000080 4b 1c 36 bc 9f fe 8f bc 86 5b 65 3c cc 76 92 bc
       -0.011115144 -0.017577467 0.013998872 -0.017878912
000090 df 0a ee bc 2b 4f eb bc 88 86 88 bd ad 2e 4e bd
       -0.029057918 -0.028724274 -0.06666285 -0.050337482
0000a0 c7 57 b2 bd 1a c6 11 be a6 ba 26 3e 06 d1 02 3e
       -0.087081484 -0.14235726 0.16282138 0.12775049
0000b0 84 3a ef 3b 2c 91 75 3d 2b 1c 3d 3e e6 55 39 3d
       0.007300677 0.0599529 0.18467776 0.045247935
0000c0 9a f9 f1 3d 0f 2c 66 bd bf cb b8 bd 98 fb 1e 3d
       0.11815186 -0.05619436 -0.090232365 0.038814157
0000d0 64 46 a1 bd 75 51 28 be 94 26 bc bd 49 2b 7f ba
       -0.07874754 -0.16437323 -0.09187046 -0.0009733928
0000e0 e4 79 fa bc 2f 2e 49 bd d5 a3 61 3d a7 b0 f6 3c
       -0.0305757 -0.04911631 0.055087883 0.030113531
0000f0 fb 1f 96 bd a6 ec 92 bd 73 9b 81 bd 80 d7 7d 3e
       -0.073303185 -0.07174043 -0.06328478 0.24789238
000100 91 af cf 3e 0c ef 42 be fc 19 b7 3d a5 90 2c 3e
       0.40563634 -0.19036502 0.08940503 0.16852053
000110 70 58 90 3c 17 32 8b be 3b 7b e9 bd 41 70 83 3d
       0.017620295 -0.27186653 -0.114004575 0.06417895
000120 5a 31 76 bc cf 61 bc bb 38 30 13 3b f1 54 e3 3d
       -0.015026415 -0.0057489644 0.002245916 0.11100186
000130 a1 f0 1f 3d 63 af a5 bd 84 66 a3 3d 50 0d 74 3d
       0.03904784 -0.08090093 0.07978538 0.05958301
000140 18 c0 b3 3c c6 0a 0a be ab d8 28 bd cb d6 78 be
       0.021942183 -0.13480672 -0.041222256 -0.24300687
000150 2d 6b a3 be 8c 03 84 be 2b f4 9b be ec c0 2d be
       -0.31917706 -0.25783956 -0.30459723 -0.16968125
000160 80 df fb bd 0a ba 3f be 85 8b b4 3d 4c 0f b2 bd
       -0.122984886 -0.18723312 0.08815674 -0.08694324
000170 dd f2 33 bd c2 11 d0 3d be d2 98 3e 34 e2 03 3e
       -0.043932784 0.10159637 0.29848284 0.12879258
000180 57 3b 6f bd 3c d4 cf 3d f4 19 5d 3d 1c 25 9c 3d
       -0.0584062 0.10147902 0.05397983 0.076242656
000190 1f cd c1 bd 3d 29 9b 3d 24 bc 59 3d 30 b7 07 3e
       -0.09462952 0.07576225 0.05315794 0.13253474
0001a0 af f8 4c 3d a9 0e 51 3e 3d 6d ab 3e 9b a0 26 3e
       0.05004185 0.20415749 0.3348178 0.16272204
0001b0 13 08 19 bd dd df c1 bd 95 d5 c6 3c 39 c0 0a 3d
       -0.037361216 -0.09466527 0.024271766 0.033874724
0001c0 70 80 41 bd 2d 48 71 be 43 3c 2c 3d f8 7c 07 3e
       -0.04724163 -0.23562689 0.042049658 0.13231266
0001d0 7e 22 7d 3c 37 a2 c2 3e 59 11 35 3e c6 3e 0e 3c
       0.015450118 0.38014385 0.17682399 0.008681959
0001e0 5a 97 49 bd 25 6c a5 bd 80 f4 46 3c 7c 19 d5 bd
       -0.049216606 -0.080772676 0.012143254 -0.104052514
0001f0 29 33 8c be 69 ce 07 be 6c d5 b1 3c fb 7f de 3d
       -0.27382782 -0.13262333 0.021708213 0.10864254
000200 05 13 6c bc 51 a2 25 be e3 5f da bd 17 7e 28 bd
       -0.0144088315 -0.161752 -0.1066282 -0.041135874
000210 b0 75 f0 bd 04 ea b9 bc 15 0d b1 bb 2a 76 00 bc
       -0.11741197 -0.022694595 -0.005403171 -0.0078406725
000220 29 0e 7b be 96 6d 8c be ff 31 36 be a3 48 6c 3d
       -0.2451712 -0.27427357 -0.1779251 0.05768646
000230 9e a6 6a bd df 99 12 be 04 f3 80 3d 45 c1 69 3d
       -0.057287805 -0.1431651 0.062963516 0.05706908
000240 bb c9 fa 3d 42 37 86 3d 6e b9 af 3d b3 29 fc 3a
       0.12245508 0.06553508 0.0858029 0.0019238502
000250 25 cd af 3c 19 e5 1c 3e e5 d2 39 be ef 67 49 be
       0.021460125 0.15321769 -0.18146856 -0.19668554
000260 85 d9 f1 ba a3 26 ea bc 03 4e 49 bd a6 b4 25 3e
       -0.0018451667 -0.028582877 -0.049146663 0.16182193
000270 38 b1 08 3e 1c ec be bd e4 a0 49 3d 16 7f b4 be
       0.13348854 -0.09322378 0.049225703 -0.3525321
000280 95 3b 54 be b3 b5 c2 be 62 0b 6d bd ea 11 85 be
       -0.20725854 -0.3802925 -0.057872184 -0.2599023
000290 cb ac 63 be 87 23 9b bb 0b e9 14 be 5a 4f bb bb
       -0.22233884 -0.00473446 -0.14542024 -0.0057162466
0002a0 b0 37 4c bd 3c ef b6 3d 62 cb 1a bd 4b b3 f6 3c
       -0.049857795 0.08932349 -0.037791617 0.03011479
0002b0 7c 90 9c bd bc 0f 51 3d 08 0f 39 3d 5e 8a 77 bd
       -0.07644746 0.051040396 0.04518035 -0.06043469
0002c0 bd f9 12 3e 54 54 eb 3d e5 f8 10 3d 6d 57 37 3e
       0.1435308 0.11490694 0.035393614 0.17904444
0002d0 21 43 46 3d 53 a5 0a bd a4 77 d3 3c d5 b2 c2 bd
       0.048403863 -0.03384907 0.025813885 -0.09506766
0002e0 32 71 48 be b4 86 5c be c1 85 08 be 31 5e 34 be
       -0.1957443 -0.2153576 -0.13332273 -0.17614056
0002f0 fb 06 c8 bd f6 fa 5c 3e ee 03 15 be ae 32 4e be
       -0.097669564 0.21580109 -0.1455228 -0.2013652
000300 f9 f0 28 3e 08 05 84 be 2e 60 14 be 11 9d 3c 3d
       0.16498174 -0.2578509 -0.14489815 0.046048228
000310 4b 9f 82 ba 8d 88 e2 bc 09 e8 1c 3d 0d e3 e4 bc
       -0.0009965686 -0.027653003 0.038307223 -0.027940297
000320 f2 0e c8 bc 47 94 5e bd da 1f eb bd ba 7a f7 3b
       -0.024421189 -0.054340627 -0.114806846 0.007552472
000330 d8 94 f3 bd cc 50 fc bd 1c c3 4f bc 69 3a 32 bd
       -0.11893624 -0.12320098 -0.012680795 -0.043512736
000340 2f 71 04 be ed 2f 37 be 14 be 6b bd 49 5c 35 be
       -0.12933801 -0.17889376 -0.05755432 -0.17710985
000350 2c 74 42 3e 46 14 98 3e 3a 4e 67 3e d9 9d 21 bb
       0.18989629 0.29702967 0.22588435 -0.0024660735
000360 d1 8d 12 3e d3 25 d2 3d 70 0a 3f bd 92 4b 4d 3e
       0.14311911 0.10261121 -0.046640813 0.20048359
000370 51 87 16 3e 65 32 d5 bc 22 9f 18 be 4f ea 3b be
       0.14700057 -0.026025007 -0.14904454 -0.183511
000380 53 bc ae bd 4c 73 0d bb 0d 27 49 be 13 79 a1 bc
       -0.08532014 -0.0021583615 -0.19643803 -0.019711053
000390 70 13 5d be c1 ed 91 be 86 26 95 be 81 f6 34 bd
       -0.21589446 -0.28501704 -0.29130954 -0.044180397
0003a0 ef 6e 4c be 4d 2b 5b be 6b 53 81 be 1d 54 20 3d
       -0.19964193 -0.21403237 -0.25258955 0.039142717
0003b0 03 86 0f 3e db a1 b6 bd 40 3f 8f 3e 34 ca b1 3d
       0.14015965 -0.0891759 0.27977943 0.08681145
0003c0 f6 8a 5f be 02 7b 9e be 17 b4 65 be d0 a1 d2 bd
       -0.21830353 -0.30953223 -0.2243198 -0.102847695
0003d0 22 fb 4f bd db da 5e be 26 5e ef bd 79 c2 a5 3d
       -0.05077661 -0.21763174 -0.11687879 0.08093733
0003e0 74 b6 82 be 9e 70 8a bc 71 74 5f be fe f3 63 be
       -0.25529826 -0.016899403 -0.21821763 -0.22261044
0003f0 19 4e 54 be db 8f bc bb 55 91 14 be dc 63 80 bd
       -0.20732917 -0.0057544536 -0.14508565 -0.06269047

layer1.1.conv1.bias f4 [16]
000000 87 28 9f ba 15 69 01 bc fe 3e ba 3b 01 e3 0d 3a
       -0.0012142815 -0.007898589 0.005683779 0.00054125494
000010 ef 47 cb bb 99 54 f7 3b 99 24 00 bc 23 2d 08 bc
       -0.0062036435 0.0075479266 -0.007821226 -0.008311543
000020 58 50 0a bc ab 16 87 bb 43 92 e4 3b ad 5c c9 ba
       -0.008442007 -0.0041225753 0.0069754436 -0.0015362703
000030 de d3 1f 3c 47 79 85 ba 38 37 04 bc 7f 97 e9 39
       0.009755103 -0.0010183238 -0.008069806 0.00044554097

layer1.1.bn1.weight f4 [16]
000000 b1 bf 18 3f 45 7f 4b 3f b9 86 37 3f d3 f1 47 3f
       0.596675 0.7949107 0.71689945 0.7810337
000010 16 3c 48 3f 6a e2 17 3f b4 36 42 3f 83 39 06 3f
       0.78216684 0.59329855 0.7586472 0.52431506
000020 bd 50 17 3f 84 57 31 3f f7 d9 44 3f 11 ec 35 3f
       0.5910757 0.69274163 0.7689509 0.71063334
000030 6e 8f 2d 3f a3 ca 37 3f 63 8d 1c 3f 7b 92 43 3f
       0.6779698 0.71793574 0.6115324 0.76395386

layer1.1.bn1.bias f4 [16]
000000 a8 22 67 3d 57 52 f2 3d ee 2d bc be eb 18 cf bd
       0.056429535 0.11832111 -0.36753792 -0.101121746
000010 ee 75 a7 bd 93 4e 8d be 2d 7f f9 be 25 5a b1 be
       -0.0817679 -0.2759901 -0.4872984 -0.34639087
000020 c4 80 44 3e 62 5b 37 be 9d 94 58 be b5 47 af be
       0.19189745 -0.17905954 -0.21150441 -0.34234396
000030 42 f5 53 be 45 ca 24 bf cd 2c 5a 3e df c0 0b 3e
       -0.20699027 -0.6437114 0.21306153 0.13647793

layer1.1.bn1.running_mean f4 [16]
000000 33 1d 87 bf 6b 77 8d c0 72 fd 1c c0 b2 2b 3e c0
       -1.0555786 -4.4208274 -2.452969 -2.971417
000010 8e ab 01 bf c3 3d 5a bf 2b 89 62 be 6e f7 80 3f
       -0.50652397 -0.8525049 -0.22122638 1.007551
000020 6d 0a 46 bf 4c 1f ef bf 2b 00 44 c0 02 24 a9 3e
       -0.7735966 -1.8681426 -3.0625103 0.33035284
000030 58 18 8c be bf 72 11 40 df a9 41 c0 c4 48 78 c0
       -0.27362323 2.2726285 -3.025993 -3.8794413

layer1.1.bn1.running_var f4 [16]
000000 d6 30 85 40 57 5a f7 40 9d c4 77 40 f4 6f b6 40
       4.1622114 7.729778 3.8713753 5.701166
000010 59 e5 0f 41 c5 c9 0b 40 71 cc 9c 40 88 fd f4 3f
       8.993493 2.18419 4.899956 1.9139872
000020 ba 7d 7c 40 3a 03 81 40 c0 8c aa 40 80 b3 7e 40
       3.9451737 4.031644 5.3296814 3.9797058
000030 af 3b 3b 40 0e aa 03 40 e2 2d 86 40 d1 30 f2 40
       2.9255178 2.0572543 4.193101 7.568459

layer1.1.conv2.weight f4 [16, 16, 3, 3]
000000 09 65 a9 bd 5a 4f 8b bd 6e 6e 55 3c 18 20 43 be
       -0.08271224 -0.068022445 0.013026817 -0.19055212
000010 b7 19 cc bd a9 4c 02 3d de a1 9e bb 36 4e 86 bd
       -0.09965842 0.03181139 -0.0048410734 -0.06557886
000020 a5 79 65 bd 54 85 3a 3e 99 89 42 3e 21 50 01 3e
       -0.056024212 0.18214923 0.18997802 0.12628223
000030 57 7b 32 3d d7 b8 8d bd a2 bc 41 bd 5b 2e 62 bd
       0.043574657 -0.06920021 -0.047299035 -0.05521999
000040 2f cc 01 bd 34 df 03 bd ef 94 20 bd bb 77 97 bd
       -0.031688865 -0.032195285 -0.039204534 -0.07395884
000050 94 59 6c bd 02 f0 87 ba e7 81 ee bc 3d a4 02 bd
       -0.057702616 -0.001037121 -0.029114677 -0.03189491
000060 8d 49 f2 3d ac 73 aa 3d 43 8d 63 3d f6 1d b2 3d
       0.11830435 0.08322844 0.05555464 0.08697121
000070 bf f3 2d bd 8b b2 eb bd 86 15 02 3e e4 65 59 3d
       -0.042468783 -0.11508664 0.12703523 0.053075686
000080 7b c1 37 3d aa 3f 70 bd c6 67 95 bc 89 17 bf 3d
       0.04486225 -0.058654465 -0.01823796 0.09330661
000090 14 dd fc bd 21 ca 2f 3d 90 65 af 3d 13 77 a7 bc
       -0.12346855 0.042917375 0.085642934 -0.020442521
0000a0 a6 8e 4d 3d 0b c0 ee 3d 0e ce 40 3d 16 e5 53 3d
       0.05018487 0.11657723 0.04707151 0.051732145
0000b0 5b c1 1d 3d 16 7e 7d bc 76 1a ed bc fa 9d 54 bd
       0.038514476 -0.015471956 -0.028943282 -0.05190847
0000c0 db a3 49 bd 43 5f 8c bc 1d d4 c7 bd dd 19 2e bd
       -0.04922853 -0.017135268 -0.09757254 -0.042505134
0000d0 9b 5d 48 3d c8 c3 b9 3d 25 19 48 bc 5e dd 79 bd
       0.048917394 0.090705454 -0.012213026 -0.061002128
0000e0 14 0f 0e be fd d3 43 be c6 0f 72 be e2 a7 a3 be
       -0.1387294 -0.19123836 -0.2363883 -0.31964022
0000f0 3b ed 84 be 6a ba 82 be e6 72 9f be 7b 7e 48 bd
       -0.25962242 -0.25532848 -0.31142348 -0.048948746
000100 c0 d9 18 3c 4e dd ad bc eb 33 c1 bc 75 48 f2 3b
       0.009329259 -0.02122369 -0.023584327 0.0073938915
000110 50 19 a5 bc 00 53 fb bc a6 27 0b bd d4 9d b2 bc
       -0.020153672 -0.030679226 -0.03397336 -0.021803774
000120 35 1a 20 be fb 98 a9 bd 97 db 1c 3d be a9 16 be
       -0.15634997 -0.08281132 0.038295355 -0.14713189
000130 ca b4 89 bd 3a 2a 27 ba d2 fc d2 3d a5 09 69 3d
       -0.06723936 -0.00063768367 0.10302128 0.056893963
000140 49 60 c8 3d ff 67 d7 3c 11 c4 b0 3d 23 85 61 3d
       0.0978399 0.026294706 0.08631147 0.05505861
000150 21 51 fe 3b 39 59 3d 3d 18 04 c4 bc 4b c7 13 bd
       0.007761136 0.046227667 -0.023927733 -0.036078732
000160 08 2f 1a 3b 79 fa ce 3c 74 d1 0c 3c 97 c3 3f 3c
       0.0023526568 0.025265919 0.008594859 0.011704347
000170 ea 4c c3 bc 04 b3 16 3e c7 f4 91 3d b5 26 e9 3c
       -0.023840386 0.14716727 0.07126766 0.02846084
000180 54 c2 21 3e a5 b5 64 3c 7b bd 91 3d 05 d3 c2 3d
       0.15796787 0.013959323 0.07116219 0.09512905
000190 5b 72 e4 3d 05 da 5a bd 25 64 1e 3d a6 8f 52 3e
       0.11154624 -0.053430576 0.038669724 0.2056261
0001a0 ac ba 5d 3e 57 f2 e3 bd 2d 09 03 3d fc 38 fc 3d
       0.21653241 -0.11130207 0.031991173 0.123155564
0001b0 66 23 06 bd 29 c4 f5 bd b8 c2 ae bd 6d 3c fa 39
       -0.032748602 -0.12000305 -0.085332334 0.00047728737
0001c0 d8 b6 77 bd 8e 5e 83 bd 35 05 01 3e b8 63 1f 3e
       -0.060477108 -0.06414519 0.12599643 0.15565383
0001d0 b2 ed 26 3e 67 1d 54 bd d7 55 b6 bd 66 11 66 3c
       0.16301611 -0.051785853 -0.089030914 0.014042234
0001e0 76 51 29 be 6f ed 30 be 17 08 f1 bd 4a 5a 84 bd
       -0.16534981 -0.17278074 -0.11769121 -0.06462534
0001f0 3b 8f ab bd 15 3a 1a bd 4b 58 e2 bd dd 36 7c bc
       -0.083769284 -0.037653048 -0.11051997 -0.01539394
000200 80 14 b2 bd 59 54 7e bd b6 0b 8b bd 2c 3a 3b bd
       -0.08695316 -0.06209216 -0.06789343 -0.045709774
000210 81 e0 ad 3d 39 b1 4b 3d fa 25 80 3d 30 95 67 3d
       0.08490086 0.04972956 0.062572435 0.05653876
000220 74 e1 af 3c d8 96 1b bd e9 72 19 3d 29 d2 9e bd
       0.02146981 -0.037985653 0.037463102 -0.077549286
000230 14 58 10 be 27 09 63 3d 2d 31 3d bd 16 a0 c6 bd
       -0.14096099 0.05542865 -0.046189476 -0.09698503
000240 d1 45 b4 bc 34 7f cf bd 91 8f 4c be 93 28 7f bd
       -0.022005947 -0.10131684 -0.19976641 -0.062294554
000250 42 88 e5 bd 3a 6e 02 be 48 ba a7 bc 9e b5 db bc
       -0.1120763 -0.1273736 -0.020474568 -0.02682
000260 c6 b3 54 3d a6 42 ad 3b f9 d2 27 be 1f 69 21 bb
       0.051929258 0.005287486 -0.16389073 -0.0024629307
000270 01 a4 49 bd 53 e7 ce bd 58 51 c4 bd 44 fa 14 bb
       -0.049228672 -0.10102715 -0.095858276 -0.0022732178
000280 8f 49 a4 3d b5 50 87 bc c9 b7 0f 3e 78 0d bd 3d
       0.08021843 -0.016517976 0.14034952 0.092310846
000290 e0 ac 33 bd 29 8a 8e 3d 83 06 06 3d c2 e4 8e bd
       -0.04386604 0.06959946 0.032721054 -0.06977226
0002a0 6b ed 05 be 6b d5 72 bd 60 e3 a2 bc 66 78 3f 3e
       -0.13078849 -0.059285562 -0.019883811 0.18698272
0002b0 be b4 fa 3d 79 10 06 3e 2a 2f 44 3e 84 c4 dc 3b
       0.12241505 0.13092221 0.19158617 0.0067372937
0002c0 4c a9 cf bd 26 95 82 bd 98 a0 33 be 29 8a 92 be
       -0.10139713 -0.06376104 -0.1754173 -0.28621033
0002d0 75 52 26 3d 34 a2 fa bd 15 80 ac bd 10 ee 1d 3c
       0.04060598 -0.12237969 -0.08422867 0.009639278
0002e0 ba 3a 1a be 59 cb 0e be 2d 54 bd bc c0 9b bc bd
       -0.15061465 -0.13944758 -0.023111427 -0.092093945
0002f0 07 a1 23 be 28 75 1d be 3a d5 04 3e cc c4 30 3e
       -0.15979396 -0.15376723 0.12971964 0.17262572
000300 46 41 0d 3d 54 96 67 3d dd 56 0b 3e 72 b3 0e 3e
       0.034486078 0.05653985 0.13607354 0.1393564
000310 36 4d ad 3c a7 8c 05 bd e9 5a c6 3a bf 5b 86 bb
       0.021154981 -0.03260484 0.0015133295 -0.0041002925
000320 40 49 3d bd 68 b0 bb bd 9a fd c1 bd 96 a2 f9 bd
       -0.046212435 -0.09164506 -0.09472199 -0.12189214
000330 a2 3d 5f 3d cf bd 86 bc f4 70 62 bd 14 02 86 bd
       0.054502137 -0.01644793 -0.0552835 -0.06543365
000340 bc 7f f7 bd ba 20 0e be c2 1e 00 be e0 5a b2 bd
       -0.1208491 -0.13879672 -0.12511733 -0.08708739
000350 d4 2c aa bd c7 d7 f9 bd c3 a5 ed bd 58 ab 54 bd
       -0.083093315 -0.121993594 -0.11603882 -0.05192122
000360 34 92 17 be de 7a be bd f0 48 02 be 57 ff 06 be
       -0.14801866 -0.09300779 -0.12723136 -0.13183342
000370 3c 9d 33 3c 8b 04 83 3d f1 98 8c 3d 48 c9 d8 3d
       0.010962781 0.06397351 0.06865109 0.10585266
000380 c0 b2 27 3d fb 2e 03 3e 2a 0e 36 3e af 4a 52 bd
       0.040941954 0.1281089 0.1777884 -0.051340755
000390 6c 6c 9d bc bf f2 e8 bd 37 eb 92 bd 37 d1 07 bb
       -0.019216739 -0.11374425 -0.0717377 -0.0020724067
0003a0 88 6f 0e bd 95 43 8f 3d ea 2e 62 be 0b 79 e7 bd
       -0.034774333 0.06995312 -0.22088209 -0.11302384
0003b0 02 c7 78 3e 25 f0 b8 be 45 59 d9 3c c8 09 c8 3d
       0.24294665 -0.36120716 0.026531825 0.097674906
0003c0 0b 63 c0 3d 6a 7e 05 3e 18 22 5b 3d fa 90 61 bd
       0.09393891 0.13036504 0.05349931 -0.0550699
0003d0 09 b4 15 3e 16 04 9c 3c ef 01 72 be d7 03 36 be
       0.14619459 0.019044917 -0.2363355 -0.17774902
0003e0 bd c9 1e bd 9b 98 18 be 45 41 01 be 62 32 ba bd
       -0.03876661 -0.14901964 -0.12622555 -0.09091641
0003f0 41 34 63 be 17 32 1f 3d 2d 08 45 3d e5 9d 5a bd
       -0.22187902 0.03886613 0.0481035 -0.053373236

layer1.1.conv2.bias f4 [16]
000000 30 81 e5 3b c1 57 cd ba 0a 49 13 3b 0c 8a 9c 3b
       0.0070039257 -0.0015666411 0.0022473955 0.0047771987
000010 6c 98 c4 bb d2 c0 80 bb ea 27 1f bc af 2a 1c bb
       -0.0059996154 -0.003929236 -0.009714106 -0.0023829152
000020 77 26 fc ba b7 74 13 3c 5b 5c 53 3b c5 ab c6 3a
       -0.0019237538 0.008999995 0.0032251093 0.0015157392
000030 1a 44 5e bb c9 10 3b bb 2d 64 4d 39 94 08 fa 3b
       -0.0033915103 -0.002854394 0.00019587642 0.007630417

layer1.1.bn2.weight f4 [16]
000000 30 51 b6 3e 79 72 2d 3f 1b 2a 1d 3f 81 7e a2 3e
       0.35608816 0.67752796 0.6139237 0.3173714
000010 0c e7 13 3f 63 7f 8f 3e a0 44 a3 3e 20 76 91 3f
       0.57774425 0.28026876 0.31888294 1.1364174
000020 e4 37 ea 3e 08 fc 6d 3f fb be 7b 3f f5 d4 94 3f
       0.45745766 0.92962694 0.9833829 1.1627489
000030 7f 58 8a 3f 66 28 ad 3e 25 6c cb 3e 33 b6 fe 3e
       1.0808257 0.33819884 0.39730945 0.49748382

layer1.1.bn2.bias f4 [16]
000000 52 9b 16 be 38 93 2a 3e 8f fc 60 3e 26 fb 74 3d
       -0.14707687 0.16657722 0.21971343 0.059809826
000010 cd 55 93 3e 41 5e 4f 3e 92 da ac 3e 4b ff 4f 3e
       0.28776398 0.20250799 0.33760506 0.2031223
000020 f6 e5 ae 3d f1 ab 31 be d7 47 b7 be 4c 81 2a bf
       0.08539955 -0.17350747 -0.35796997 -0.6660354
000030 b5 47 d7 3e fb 26 b2 3e 6f 5e fa bc 37 41 cd 3d
       0.42046896 0.34795365 -0.030562608 0.10022204

layer1.1.bn2.running_mean f4 [16]
000000 86 33 67 be c8 d3 68 be 56 3c 39 3e a0 64 a7 be
       -0.22578248 -0.22737038 0.18089423 -0.32693958
000010 10 e1 51 3e 81 49 35 be 88 bd 1a be 72 93 43 bd
       0.20496011 -0.17703821 -0.15111363 -0.047748037
000020 5d 1a 7e 3f 79 37 da be f6 77 b8 bd 31 ad 56 be
       0.9925898 -0.42620447 -0.09007256 -0.20964505
000030 ce 0d 20 bf a9 8c ac 3e 41 41 ab 3e 52 85 85 be
       -0.62521064 0.33701065 0.33448222 -0.26078278

layer1.1.bn2.running_var f4 [16]
000000 62 06 c7 3e a8 af d2 3e f9 d3 0e 3f 0e 37 2a 3f
       0.38872057 0.4114964 0.55792195 0.66490257
000010 b4 69 a3 3e db bc bd 3e a3 e9 8a 3e 94 b4 74 3f
       0.31916583 0.37058148 0.27131376 0.9558804
000020 9e 24 18 3f bd 4d 87 3f 11 0f 4a 3f c6 85 a1 3f
       0.59430873 1.0570599 0.7892924 1.261895
000030 32 ab 1d 3f 7f f0 ea 3e be 0e bb 3e df bc df 3e
       0.6158935 0.4588661 0.36534685 0.43698785
