Output/swift-iid-8W-pattern1-third-ring-2sgd-200epochs/r3-epoch_113-parameters.pt (torch, 731756 bytes, 92 tensors)

conv1.weight f4 [16, 3, 3, 3]
0	0x3ef25027	0.47326776
1	0x3eacedf2	0.33775288
2	0x3f16cb08	0.5890355
3	0xbe3c25cf	-0.18373798
4	0xbeb4770a	-0.3524707
5	0xbe237aab	-0.15964763
6	0xbe981400	-0.2970276
7	0xbf5de6f6	-0.86680543
8	0xbee13314	-0.43984282
9	0xbe8ace11	-0.2711034
10	0xbeef5fbc	-0.46752727
11	0xbe58fb80	-0.2118969
12	0xbe5cf4a6	-0.21577701
13	0xbde8ae60	-0.113613844
14	0xbe864423	-0.2622386
15	0xbc9a63be	-0.018846389
16	0xbe2f2664	-0.17104489
17	0xbe0a01c2	-0.13477233
18	0xbec4c8d6	-0.38434476
19	0xbeb08b9a	-0.34481508
20	0xbed5fc9c	-0.41794288
21	0x3e7bd39d	0.24592443
22	0x3f2d73f5	0.6775506
23	0x3de43d7d	0.111445405
24	0x3f10d431	0.5657378
25	0x3f3218d6	0.69569147
26	0x3ed83cf4	0.42234004
27	0xbdbf37d8	-0.09336823
28	0x3f31c97a	0.69448054
29	0xbe06e53f	-0.13173388
30	0xbeff6b7d	-0.49886695
31	0xbe7f5338	-0.24934089
32	0xbed6e82c	-0.41974008
33	0x3e9a04b9	0.30081728
34	0x3e5b5629	0.21419586
35	0x3e3331cc	0.17499465
36	0xbcb94a4e	-0.022618439
37	0x3f768452	0.96295655
38	0xbc9bc704	-0.019015796
39	0xbf33baa6	-0.7020668
40	0xbf0d90f4	-0.55299306
41	0xbf3f7a0c	-0.74795604
42	0x3e81582e	0.25262588
43	0x3dccb569	0.09995539
44	0x3dd12e05	0.10213856
45	0x3e183ba1	0.14866497
46	0x3f46a82a	0.7760035
47	0x3ea00716	0.31255406
48	0xbed170dd	-0.4090642
49	0xbd2b142b	-0.04176728
50	0xbe80a838	-0.2512834
51	0xbde39168	-0.111117184
52	0x3e580c64	0.21098477
53	0x3c4f7b9b	0.012663747
54	0x3ea7d047	0.3277609
55	0xbeb5fd50	-0.35544825
56	0x3ec2ac35	0.3802201
57	0x3e73b4d0	0.23799443
58	0x3f364139	0.7119327
59	0xbec4b1cf	-0.38416907
60	0xbe00d4e9	-0.12581219
61	0x3e836558	0.25663257
62	0xbd90b184	-0.070651084
63	0xbe962bcf	-0.29330298
64	0xbf6f7a0b	-0.935456
65	0xbebdd461	-0.37076095
66	0x3e0eda49	0.13950457
67	0x3f605373	0.87627333
68	0xbf2bda8c	-0.6713035
69	0xbe342b9c	-0.1759476
70	0x3ecdc402	0.40188605
71	0xbe835df6	-0.25657624
72	0xbf0fe9fd	-0.5621641
73	0xbf599266	-0.8498901
74	0xbe0701fc	-0.1318435
75	0x3e4640bb	0.1936063
76	0x3f86becf	1.052698
77	0x3d9993fb	0.07498928
78	0x3d8fa4fa	0.07013889
79	0x3f40a770	0.7525549
80	0x3e0b13f3	0.13581829
81	0x3e8427f6	0.25811738
82	0x3d2061a1	0.039155606
83	0x3e9d60ec	0.30738008
84	0xbe7b66ff	-0.24551009
85	0xbeddb9d4	-0.43305838
86	0xbde2c97b	-0.110735856
87	0xbea8b877	-0.32953236
88	0xbf2aa54d	-0.6665848
89	0xbd974fb3	-0.07388248
90	0xbe7a7d93	-0.24461965
91	0xbe80a068	-0.2512238
92	0xbe1ac906	-0.15115747
93	0xbe1ae738	-0.15127265
94	0x3c43a8da	0.011942113
95	0xbe44ee2c	-0.1923148
96	0xbdbe7b44	-0.09300855
97	0xbd9d2eab	-0.07674917
98	0xbe203400	-0.15644836
99	0xbe2d444d	-0.16920586
100	0x3e3ae589	0.18251623
101	0xbdbed47e	-0.093178734
102	0x3f0c9079	0.5490795
103	0x3f945265	1.1587645
104	0x3ed99d97	0.42503044
105	0x3f232694	0.6373074
106	0x3f887ea4	1.0663648
107	0x3ec63e4b	0.387194
108	0x3e18fca5	0.14940126
109	0xbd032e02	-0.0320263
110	0xbdb2fd6c	-0.08739743
111	0xbe0d18a2	-0.13778928
112	0xbece54fc	-0.40299213
113	0xbeea0ce7	-0.4571297
114	0x3dad0582	0.08448316
115	0xbd0ef171	-0.034898225
116	0xbe41eccb	-0.18937986
117	0x3e90d24d	0.28285447
118	0x3df34f82	0.11880399
119	0x3d4448a9	0.047920857
120	0x3ccde513	0.025133645
121	0xbdb5698c	-0.08858022
122	0xbe2adfc1	-0.16686918
123	0x3ea1606e	0.31518883
124	0x3ebb65e8	0.36601186
125	0x3e953dca	0.29148704
126	0x3e64957e	0.22322652
127	0x3d98fe34	0.074703604
128	0xbd9a0cc9	-0.0752197
129	0xbe5f77d1	-0.2182305
130	0xbed3d043	-0.4136983
131	0xbf06f933	-0.52724
132	0xbdb5e396	-0.08881299
133	0xbe2dd452	-0.16975525
134	0xbe8bf383	-0.27334222
135	0x3e6555a6	0.22395954
136	0x3f0a6558	0.5406089
137	0x3e4a70cf	0.19769596
138	0x3f684ce4	0.90742326
139	0x3fa4607a	1.2841942
140	0xbe155670	-0.14583755
141	0xbcba9a9d	-0.022778803
142	0x3db01661	0.085980184
143	0xbea211ca	-0.31654197
144	0xbc877050	-0.016533047
145	0xbed19770	-0.4093585
146	0xbeeb0c1a	-0.4590767
147	0x3e8e4ffb	0.27795395
148	0xbe463fce	-0.19360277
149	0xbf9de1c4	-1.2334523
150	0xbeb37620	-0.3505106
151	0xbf29d8c2	-0.6634637
152	0xbef841f4	-0.48487818
153	0x3e98b449	0.29825047
154	0x3e00d3db	0.12580816
155	0x3d9587ea	0.07301314
156	0x3f036e61	0.513403
157	0x3ea877b4	0.32903826
158	0xbf00fbdb	-0.503843
159	0x3e6b1527	0.22957288
160	0x3e1d9061	0.15387107
161	0x3de1b321	0.11020494
162	0xbe32338e	-0.17402479
163	0xbec374dc	-0.38175094
164	0xbe9a775f	-0.30169198
165	0xbef64393	-0.4809843
166	0xbf30d0ff	-0.690689
167	0xbf186c74	-0.59540486
168	0xbeb00404	-0.34378064
169	0xbf532dd8	-0.82491827
170	0xbf1659fd	-0.5873106
171	0x3ec6d960	0.3883772
172	0x3f11c77a	0.56945
173	0x3ec4769a	0.38371736
174	0x3e7c7366	0.24653396
175	0x3ec55260	0.3853941
176	0x3e628f7c	0.22125047
177	0x3e0a382e	0.13497993
178	0xbcc3deb3	-0.023909902
179	0x3dad6594	0.0846664
180	0x3db7fd3a	0.08983846
181	0x3eb53039	0.35388353
182	0x3e3067cb	0.17227094
183	0x3e0d2e2c	0.13787144
184	0x3ee90809	0.45513943
185	0x3e10d1e4	0.14142567
186	0x3de66b31	0.11250914
187	0x3e3ae462	0.18251184
188	0x3dc4390e	0.09581195
189	0x3e526978	0.20548046
190	0x3f486da4	0.782923
191	0x3ee84b1b	0.453698
192	0xbe68f362	-0.22749093
193	0x3f96445e	1.1739614
194	0xbe2c255f	-0.16811131
195	0xbf1e1402	-0.6174928
196	0xbfc962b2	-1.5733244
197	0xbe8efb28	-0.27925992
198	0xbcfd13a0	-0.030893147
199	0x3e6dfccb	0.23240964
200	0x3d4b1c8f	0.049587782
201	0x3e577226	0.21039638
202	0x3f9be729	1.217992
203	0xbdf4cdda	-0.119533256
204	0x3ed795b3	0.421064
205	0xbf522c48	-0.8209882
206	0x3e82d628	0.25554013
207	0xbf003fd7	-0.5009741
208	0xbf7c801b	-0.98632973
209	0xbe704f35	-0.23467715
210	0xbee9d125	-0.45667377
211	0x3e799f7b	0.24377243
212	0xbf123673	-0.5711433
213	0x3f445059	0.766851
214	0x3e9f5306	0.3111803
215	0x3f234373	0.63774794
216	0xbbc504fd	-0.0060125575
217	0x3e954229	0.2915204
218	0x3debe7dd	0.11518834
219	0x3ea4a5c3	0.32157716
220	0x39384cd3	0.00017576227
221	0x3d94cf54	0.07266107
222	0x3e520b29	0.2051207
223	0xbc8adf0c	-0.01695206
224	0x3dea99c8	0.11455113
225	0xbddd4e60	-0.108059645
226	0xbed92eb4	-0.42418444
227	0xbe4bfe22	-0.19921163
228	0xbe5214db	-0.20515768
229	0xbf9ec3d4	-1.2403512
230	0xbf561d89	-0.8363882
231	0xbd25fe6a	-0.04052583
232	0xbf2e9598	-0.6819701
233	0xbe70ebe4	-0.23527485
234	0x3ca0558c	0.019572042
235	0x3eaa1a86	0.3322336
236	0x3eb8f463	0.36123952
237	0x3ddfbd36	0.10924761
238	0xbdf72479	-0.120675035
239	0x3ddb2f09	0.107023306
240	0x3dad24b8	0.08454269
241	0x3d6b131f	0.057391282
242	0x3e835ce7	0.25656816
243	0xbd6e5b6d	-0.05819266
244	0x3de8ce71	0.113675006
245	0x3cc018f0	0.023449391
246	0x3a55bb78	0.000815324
247	0x3eb89589	0.36051586
248	0x3e359f59	0.17736568
249	0xbe0cc7ac	-0.13748044
250	0xbe62fcfc	-0.22166818
251	0x3e2aded5	0.16686566
252	0x3cfe1fb4	0.031020977
253	0x3ea894a9	0.3292592
254	0x3da1e362	0.07904698
255	0xbd9fa7f2	-0.07795705

conv1.bias f4 [16]
0	0xbc7ee315	-0.01555707
1	0xbc21ad14	-0.009867925
2	0xbc3416dd	-0.010991779
3	0x3ca71d17	0.020399613
4	0x3c9a349d	0.018823916
5	0xbcb2f40b	-0.021844884
6	0xba8988c7	-0.0010493033
7	0x3bab8d40	0.005235344
8	0xbc886597	-0.016650004
9	0xbcb4fce8	-0.022093251
10	0xbbca13f0	-0.0061669275
11	0xbc257e92	-0.0101009775
12	0xbc077412	-0.008267419
13	0x3c878a8c	0.016545556
14	0x3b8b0bb0	0.0042433366
15	0xbc77e4cf	-0.015130236

bn1.weight f4 [16]
0	0x3f60c855	0.8780568
1	0x3f5c50f6	0.86061037
2	0x3f5cec35	0.86297923
3	0x3f3697ed	0.7132557
4	0x3f8c0005	1.0937506
5	0x3f448eb1	0.7678023
6	0x3f2941f1	0.66116244
7	0x3f460ae7	0.77360386
8	0x3f88289b	1.0637392
9	0x3f10f4f6	0.5662378
10	0x3f4bc23b	0.7959325
11	0x3f40b144	0.75270486
12	0x3f8dcd29	1.1078235
13	0x3f505be9	0.81390244
14	0x3f6f9a2e	0.93594635
15	0x3f986c64	1.1908078

bn1.bias f4 [16]
0	0x3da907e8	0.08253461
1	0x3f5db3cc	0.86602473
2	0x3f11ba54	0.5692494
3	0x3f3d57ac	0.739619
4	0xbf180852	-0.59387696
5	0x3f649a0c	0.89297557
6	0x3ee941fb	0.45558152
7	0x3fb626f7	1.4230641
8	0x3e6d6389	0.23182501
9	0x3d790f65	0.060805697
10	0x3ef99c62	0.48752123
11	0x3f1dd9a9	0.6166025
12	0xbece2a09	-0.40266445
13	0x3f614526	0.8799614
14	0x3e3154c9	0.17317499
15	0x3e183ba6	0.14866504

bn1.running_mean f4 [16]
0	0x3eafffeb	0.34374937
1	0x3d50fc1a	0.051021673
2	0xbe709e3d	-0.23497863
3	0xbee8d920	-0.45478153
4	0x3ee7bc83	0.4526101
5	0xbe1f3915	-0.15549119
6	0xbc835739	-0.016032802
7	0xbe548c7f	-0.2075672
8	0x3f1f7bc6	0.6229824
9	0xbe494b5c	-0.19657654
10	0x3e4a2f85	0.1974469
11	0x3e3f3bf7	0.18675219
12	0x3f1264ea	0.5718523
13	0xbdf1de5e	-0.11809991
14	0xbef0dfba	-0.4704569
15	0x3e4871ca	0.19574657

bn1.running_var f4 [16]
0	0x405709e6	3.3599792
1	0x40a06c24	5.0132008
2	0x40d24abd	6.5716233
3	0x40fe94f5	7.955683
4	0x40a5be40	5.179474
5	0x4109e8f6	8.619375
6	0x40bc30e3	5.8809676
7	0x4008998a	2.1343713
8	0x40db39cb	6.850805
9	0x408930e3	4.2872176
10	0x41379750	11.474442
11	0x40c4070b	6.1258597
12	0x40e2c627	7.0866885
13	0x40cffcdf	6.499618
14	0x409cd195	4.9005837
15	0x419856ec	19.042442

layer1.0.conv1.weight f4 [16, 16, 3, 3]
0	0x3db77255	0.08957354
1	0x3dd4317b	0.10361
2	0x3d391738	0.04518816
3	0xbd843409	-0.064552374
4	0x3d379644	0.04482104
5	0xbd2240d6	-0.039612614
6	0xbcaf9f70	-0.02143833
7	0x3aa665f1	0.0012695176
8	0xbdb02090	-0.08599961
9	0x3dd1f249	0.1025129
10	0x3de47991	0.111559995
11	0x3b2595c3	0.0025266267
12	0xbea9d124	-0.33167374
13	0xbee1e5de	-0.44120687
14	0xbec1e7cb	-0.37872157
15	0x3dcd3833	0.10020485
16	0x3e8d4052	0.27588135
17	0x3deff28f	0.11716186
18	0xbd10085a	-0.035164215
19	0x3e97b9a1	0.2963381
20	0xbd0ba597	-0.034093466
21	0xbe480ee0	-0.19536924
22	0x3e8e0f98	0.27746272
23	0x3d3f1f58	0.04666075
24	0xbea431f8	-0.32069373
25	0xbec058f8	-0.37567878
26	0xbe953e28	-0.29148984
27	0xbb8a738e	-0.004225201
28	0x3dd3c608	0.10340506
29	0x3d10baa0	0.03533423
30	0x3c229f46	0.009925669
31	0x3dfbe876	0.12300198
32	0xbd33f1b9	-0.043931697
33	0xbbedf934	-0.0072623733
34	0x3d0a1ecf	0.033720788
35	0xbdf54d84	-0.119776756
36	0x3dd223b8	0.10260719
37	0x3d97c3dd	0.07410405
38	0xbdcea20f	-0.10089504
39	0x3cb25795	0.021770278
40	0xbc84018b	-0.016114017
41	0xbdffd269	-0.124913044
42	0xbd5d1e31	-0.05398387
43	0xbd3b8ad3	-0.04578669
44	0x3c75f86c	0.015012842
45	0xbde20136	-0.11035387
46	0xbe8e2dd1	-0.2776933
47	0xbe2103b7	-0.15724073
48	0xbeac6bc8	-0.3367598
49	0xbdec06f7	-0.11524766
50	0x3eb1f843	0.3475972
51	0xbeab5e60	-0.3347044
52	0xbe1e0a19	-0.1543354
53	0x3e688336	0.22706303
54	0xbc5edd31	-0.013602541
55	0xbdfac2a3	-0.12244155
56	0xbdea7442	-0.11447956
57	0x3d327a67	0.043573763
58	0x3c019915	0.007910033
59	0xbd3b756d	-0.045766283
60	0x3dc4c2c4	0.09607461
61	0x3e280f6c	0.16412133
62	0xba7e124c	-0.00096920575
63	0xbca2d535	-0.019877056
64	0xbe1895e3	-0.14900927
65	0xbd32b365	-0.043628115
66	0xbda29e3e	-0.079403386
67	0x3e413474	0.18867666
68	0x3dbd390d	0.09239397
69	0xbd927cd6	-0.07152717
70	0x3e2740b9	0.16333283
71	0xbb9bb6a1	-0.0047519957
72	0x3e3c36f0	0.18380332
73	0x3d893071	0.066986926
74	0x3c7d5135	0.015461256
75	0x3e17bf33	0.1481903
76	0x3d2db35f	0.04240739
77	0x3c3563dd	0.011071173
78	0x3ca20367	0.019777013
79	0xbd03fbeb	-0.03222267
80	0xbdae6a9f	-0.0851643
81	0xbe4617fb	-0.19345085
82	0xbe713546	-0.23555478
83	0xbe288562	-0.16457132
84	0xbda381ce	-0.07983743
85	0x3d2bc8c3	0.04193951
86	0xbd4ad6b1	-0.049521152
87	0xbd7695c6	-0.06020143
88	0x3e14e9c5	0.14542301
89	0xbd4f4278	-0.0506005
90	0x3d4aa612	0.049474783
91	0xbdf33fc4	-0.11877397
92	0xbe39da0e	-0.18149588
93	0xbd8b7043	-0.068085216
94	0xbea58c17	-0.32333443
95	0xbec1a742	-0.3782292
96	0x3e2bc2c4	0.16773516
97	0xbdce8a33	-0.10084953
98	0xbe570b1e	-0.21000335
99	0x3e2b9f01	0.16759874
100	0xbe2b8e18	-0.16753423
101	0x3de93a4a	0.11388071
102	0x3d123442	0.03569437
103	0xbee2315d	-0.44178286
104	0x3db3aed7	0.087735824
105	0xbd9326e9	-0.07185156
106	0xbe8cddb1	-0.27512887
107	0x3d232678	0.03983161
108	0x3d8f7bc9	0.07006032
109	0x3d77fcf6	0.060543977
110	0x3d7701bd	0.060304392
111	0x3e09f523	0.13472418
112	0x3d0c8ad6	0.03431209
113	0xbc1a75f8	-0.00942754
114	0x3df57446	0.11985068
115	0x3cdf081c	0.027225547
116	0xbd0f99ef	-0.035058912
117	0x3e47c512	0.1950877
118	0x3dae38c3	0.0850692
119	0x3e2e8ca9	0.17045845
120	0x3e75a1a4	0.23987442
121	0x3de1897e	0.11012553
122	0xbe1e7360	-0.154737
123	0x3de49561	0.11161304
124	0x3d5c1a59	0.053736065
125	0xbd22ae7a	-0.039717175
126	0x3d91f16d	0.071261264
127	0x3e10f3be	0.1415548
128	0x3cbc3196	0.022972863
129	0x3dbf8420	0.09351373
130	0x3e761230	0.24030375
131	0xbdef8ba4	-0.11696556
132	0xbd4ff474	-0.050770238
133	0xbe0714b2	-0.13191488
134	0xbe49fafc	-0.19724649
135	0xbdd4add9	-0.10384721
136	0xbea1a0c6	-0.31567973
137	0xbd9dc5cc	-0.077037424
138	0xbd045ad5	-0.032313187
139	0xbe684cd9	-0.22685565
140	0xbe5cfbd2	-0.21580437
141	0xbc78cb43	-0.01518518
142	0xbe06d7c2	-0.13168243
143	0xbdab684f	-0.08369505
144	0x3c12853f	0.008942901
145	0x3d0e42dc	0.03473173
146	0xbc70cf99	-0.014697933
147	0xbc994a2c	-0.018712126
148	0x3dcd0ed6	0.10012595
149	0x3db3397a	0.08751197
150	0xbe20be49	-0.15697588
151	0xbbc3d0df	-0.005975827
152	0x3c31658a	0.010827431
153	0xbdc03b33	-0.09386291
154	0xbdcff65e	-0.10154413
155	0xbc9cca9c	-0.01913958
156	0x3df8068b	0.12110623
157	0x3d30e240	0.04318452
158	0x3d97e826	0.07417326
159	0xbd7435b7	-0.05962154
160	0xbe18cc3a	-0.14921656
161	0xbe24209a	-0.16028062
162	0xbd46e679	-0.04855964
163	0xbd83b376	-0.06430714
164	0xbe27057e	-0.16310689
165	0xbc084a8f	-0.008318557
166	0xbd7b5ef8	-0.061369866
167	0xbde01fd3	-0.1094357
168	0xbe2310d3	-0.15924387
169	0xbdc97304	-0.098363906
170	0xbe46a2a0	-0.19397974
171	0x3c8dc3ba	0.017305244
172	0x3be918f4	0.0071135703
173	0x3b806936	0.003918792
174	0x3cfb0b92	0.030645166
175	0x3d152d14	0.036419943
176	0x3d8a8bc6	0.06764941
177	0xbd3c70bc	-0.04600595
178	0xbcb3c4c6	-0.021944415
179	0x3d0e801a	0.034790136
180	0xbcae52ab	-0.021279654
181	0xbda65c91	-0.081231244
182	0xbda37d00	-0.07982826
183	0x3c3bb7cf	0.011457398
184	0xbcdfde95	-0.027327815
185	0xbae11408	-0.0017172107
186	0xbd1a71a8	-0.037706047
187	0xbc2cf6a6	-0.010556852
188	0x3cff1bd6	0.031141203
189	0x3de0688c	0.10957441
190	0x3e28c9dc	0.16483253
191	0x3d775242	0.06038118
192	0x3ddf02c8	0.10889202
193	0x3e1a4296	0.15064463
194	0xbd86734a	-0.065649584
195	0x3da20ddb	0.07912799
196	0x3e09c4bb	0.13453953
197	0xbd6f6c66	-0.058452986
198	0xbd52ed9b	-0.05149613
199	0xbd7ad5a8	-0.061238915
200	0xbc2417d5	-0.010015448
201	0xbdc62562	-0.09675099
202	0xbd5d310a	-0.054001845
203	0xbba9344f	-0.0051637064
204	0xbdbf05de	-0.09327291
205	0xbd818a35	-0.06325189
206	0xbc85ca4b	-0.016331812
207	0xbdbffa5c	-0.09373924
208	0x3e67c45b	0.22633497
209	0x3df00194	0.11719051
210	0xbd10e113	-0.035370898
211	0x3dcac3fd	0.09900663
212	0x3d6284a4	0.055302277
213	0x3abad0fb	0.0014252955
214	0xbb10b72b	-0.0022081833
215	0xbd8bc3f6	-0.06824486
216	0xbd09201f	-0.0334779
217	0x3cbf2d7e	0.023337122
218	0xbd6e10b3	-0.058121394
219	0x3cccec88	0.02501513
220	0x3e33983e	0.17538545
221	0x3daf95f3	0.085735224
222	0xbd5052cf	-0.050860222
223	0x3b11088a	0.0022130334
224	0x3caa7a05	0.020810137
225	0x3ba6a8f3	0.0050860583
226	0x3cc655dd	0.024210865
227	0x3cbd06e5	0.023074577
228	0xbd0ebc6b	-0.034847658
229	0xbd3e8f3d	-0.04652332
230	0xbcf83dc6	-0.030302893
231	0x3cb80831	0.022464843
232	0x3d3205aa	0.043462433
233	0x3d923506	0.0713902
234	0xbc1786e9	-0.009248474
235	0x3e34a3cf	0.17640613
236	0x3e1683a6	0.14698657
237	0xbcc85709	-0.024455564
238	0x3db9cc09	0.0907212
239	0x3e0c1de4	0.13683277
240	0xbd4704e9	-0.048588667
241	0xbd352c31	-0.044231597
242	0xbd8fe922	-0.070268884
243	0x3e31870c	0.17336673
244	0x3e221a65	0.15830381
245	0x3ca81c82	0.020521406
246	0x3d7d21bd	0.061799753
247	0x3ea7ed23	0.32798108
248	0x3e5ef1fd	0.21771999
249	0x3d79954a	0.06093339
250	0x3ead4816	0.3384406
251	0x3e93beb6	0.28856438
252	0x3cb3ada9	0.021933394
253	0x3d857ea4	0.065182954
254	0x3c99b069	0.018760877
255	0x3d523da2	0.05132831

layer1.0.conv1.bias f4 [16]
0	0x3ab93cd9	0.0014132514
1	0xbbd45b68	-0.006480623
2	0xbb31825b	-0.0027085755
3	0x3acf002e	0.00157929
4	0xbc05723b	-0.00814491
5	0xbbebd499	-0.0071969745
6	0x3aa2cb13	0.001242014
7	0xbb311552	-0.0027020765
8	0x3b6eed27	0.0036457272
9	0xbb28c043	-0.0025749363
10	0x3b9139a0	0.0044319183
11	0x3ae11e53	0.0017175175
12	0xbc1a24e3	-0.009408209
13	0x3afa56a3	0.0019099306
14	0x3bee6b80	0.0072759986
15	0xbb871947	-0.0041228863

layer1.0.bn1.weight f4 [16]
0	0x3f5b050f	0.85554594
1	0x3f0fec57	0.5622
2	0x3f031e52	0.5121814
3	0x3f020b2e	0.5079831
4	0x3f254aac	0.64567065
5	0x3f311de3	0.6918623
6	0x3f158879	0.58411366
7	0x3f39cfd3	0.7258274
8	0x3f23b64f	0.63950056
9	0x3ef750a8	0.48303723
10	0x3f66b533	0.9012024
11	0x3f47fdaa	0.78121436
12	0x3f31b19d	0.6941164
13	0x3ed1ce43	0.40977678
14	0x3f53e59c	0.8277223
15	0x3f37e453	0.7183277

layer1.0.bn1.bias f4 [16]
0	0xbd6256fe	-0.055258743
1	0xbdd43962	-0.103625074
2	0xbca2243c	-0.019792669
3	0x3e85b14a	0.26111823
4	0x3e202544	0.15639216
5	0xbeddc743	-0.43316087
6	0xbbeee68f	-0.0072906683
7	0xbe7b2954	-0.24527484
8	0xbd9d9d04	-0.07695964
9	0x3f2624c8	0.64899874
10	0xbf206608	-0.6265569
11	0x3f8f30fb	1.1186823
12	0xbe9db4a4	-0.3080188
13	0x3e0f5943	0.13998894
14	0xbe61448c	-0.21998805
15	0xbf1ae624	-0.60507417

layer1.0.bn1.running_mean f4 [16]
0	0xc0085d7f	-2.1307065
1	0x3fdc337a	1.7203209
2	0xbee24397	-0.44192192
3	0xbfc84d50	-1.5648594
4	0xc0307867	-2.7573488
5	0x40118d0a	2.2742333
6	0x3f22047f	0.6328811
7	0xc08b4ae5	-4.3528924
8	0xc027c45b	-2.6213596
9	0xbfd33c3a	-1.6502755
10	0x3ff0a505	1.880036
11	0xc0062f19	-2.0966246
12	0x401e4cf0	2.473446
13	0xbf49da9a	-0.78849185
14	0xbee7ebe0	-0.45297146
15	0x4001b643	2.0267494

layer1.0.bn1.running_var f4 [16]
0	0x40b0f471	5.529839
1	0x3fc6dea6	1.5536697
2	0x3ff60d86	1.9222877
3	0x400c11c7	2.188585
4	0x409fba1f	4.99147
5	0x402a7942	2.663651
6	0x405c2784	3.4399118
7	0x405aef5d	3.4208596
8	0x401b98c7	2.4311998
9	0x3fcc1b9d	1.5945927
10	0x4047a664	3.1195307
11	0x40625a7f	3.5367734
12	0x4041d239	3.028456
13	0x40319a86	2.7750564
14	0x40773aea	3.8629708
15	0x3fe4524f	1.7837619

layer1.0.conv2.weight f4 [16, 16, 3, 3]
0	0xbd7ed8ba	-0.062218405
1	0x3c989234	0.018624403
2	0x3da79f3b	0.08184668
3	0xbdc46aaa	-0.09590657
4	0xbd0bb686	-0.034109615
5	0x3af8d0be	0.0018983108
6	0xbc8f07c4	-0.017459758
7	0x3cc448c9	0.023960488
8	0x3d0d07c8	0.03443125
9	0x3bcd919b	0.006273461
10	0x3da0074e	0.07813893
11	0xbc3e3b23	-0.011610779
12	0x3db846fb	0.089979135
13	0x3e37b73b	0.1794099
14	0x3cd20255	0.025635878
15	0x3cc5bd6c	0.024138175
16	0x3d3b468e	0.045721583
17	0xbd330ccc	-0.043713376
18	0xbe25c6c6	-0.16189107
19	0xbdbf81a8	-0.09350902
20	0xbd19155f	-0.037373897
21	0xbd871862	-0.065964475
22	0x3cdbc3c4	0.026826747
23	0x3d787829	0.06066147
24	0xbd22c513	-0.039738726
25	0x3da565fd	0.08076093
26	0x3de8c228	0.11365157
27	0x3dfd4bd6	0.1236798
28	0xbdfcab42	-0.12337352
29	0xbe892567	-0.26786348
30	0x3e79aa63	0.24381404
31	0x3d21fbb7	0.039546695
32	0xbe4deab9	-0.20109071
33	0x3e018c8a	0.12651268
34	0x3d7a9cdc	0.06118475
35	0xbdcf8f66	-0.10134773
36	0xbd740a5b	-0.05958019
37	0xbd39d818	-0.0453721
38	0x3d985e57	0.07439869
39	0xbe432626	-0.19057521
40	0xbdc7d236	-0.097568914
41	0xbb9cfe0a	-0.004791026
42	0xbe6cb6ad	-0.2311656
43	0xbdbe7a97	-0.09300726
44	0x3b4c2ef6	0.003115592
45	0x3951f40c	0.00020022708
46	0xb8b10258	-8.440454e-05
47	0xbdb0e03c	-0.08636519
48	0xbd15c955	-0.03656896
49	0xbe02f700	-0.12789536
50	0xbe33812d	-0.17529745
51	0xbd3596e8	-0.04433337
52	0xbe429410	-0.19001794
53	0xbe006209	-0.12537397
54	0xbdf3305d	-0.11874459
55	0xbd1dca32	-0.038522907
56	0xbdb579ee	-0.08861147
57	0x3d10cd29	0.035351906
58	0x3dd45c31	0.103691466
59	0x3d66ab86	0.05631592
60	0x3d7c4e96	0.061598383
61	0x3d197247	0.0374625
62	0xbcd5731a	-0.026055861
63	0xbd1aa93e	-0.03775906
64	0xbd9da8eb	-0.07698234
65	0xbd105a30	-0.03524226
66	0xbe382b7c	-0.17985338
67	0xbe67539e	-0.22590491
68	0xbe423264	-0.18964535
69	0xbe671c5a	-0.22569409
70	0xbe662e1d	-0.22478528
71	0xbe244a27	-0.16043912
72	0xbc73f6a0	-0.014890343
73	0xbd93c6c0	-0.07215643
74	0x3cca27f1	0.024677249
75	0xbdbb747e	-0.091530785
76	0xbdf728d4	-0.12068334
77	0xbd3787f3	-0.044807386
78	0xbdc3eebc	-0.09567019
79	0xbd53839c	-0.051639184
80	0xbc21deb9	-0.009879761
81	0xbe001382	-0.12507442
82	0x3d046d3e	0.032330744
83	0x3e895cb1	0.2682853
84	0xbe7dc706	-0.24782953
85	0xbe4ba007	-0.19885264
86	0x3e00089b	0.12503283
87	0xbdd7e9f0	-0.10542667
88	0x3d8ce788	0.068800986
89	0x3e86e76c	0.26348436
90	0xbe01c8f0	-0.12674308
91	0xbe7928c2	-0.24331954
92	0xbe3ab10a	-0.18231598
93	0x3d297151	0.041367833
94	0xbdf93249	-0.12167794
95	0xbd14a99a	-0.036294557
96	0xbcb7e583	-0.022448307
97	0xbe000591	-0.12502123
98	0xbc26a41f	-0.010170965
99	0xbd88ae6f	-0.066738956
100	0xbe78933a	-0.24274912
101	0xbea216a0	-0.31657887
102	0x3d594bcf	0.053050812
103	0x3bc9f586	0.006163302
104	0xbe028b3d	-0.12748428
105	0x3e9b6027	0.30346796
106	0x3eaea582	0.34110647
107	0x3e02aab8	0.12760437
108	0xbdf04db2	-0.11733569
109	0x3cffc145	0.031220088
110	0x3d7e833b	0.06213687
111	0xbdb576a8	-0.088605225
112	0xbda0f27f	-0.078587525
113	0x3d006da6	0.03135457
114	0xbe672e2c	-0.22576207
115	0xbe662c66	-0.22477874
116	0xbe3a732a	-0.18207994
117	0xbe42f09b	-0.19037096
118	0xbdc0ae38	-0.094082296
119	0xbd75625c	-0.059908256
120	0xbddccf1c	-0.107816905
121	0xbdd91c8b	-0.10601147
122	0xbe02d8b3	-0.12777977
123	0x3d6a8875	0.05725904
124	0x3cf66c53	0.03008095
125	0xbca8b2b0	-0.020593017
126	0x3e3b2290	0.18274903
127	0x3e7f3e17	0.24926029
128	0x3d20cdff	0.039258953
129	0x3ee72f61	0.45153335
130	0x3f0a920d	0.54129106
131	0x3e0807b2	0.13284186
132	0x3ee47024	0.44616807
133	0x3edd13c8	0.43179154
134	0xbd9f3e03	-0.077755
135	0x3daecf33	0.08535614
136	0x3ddd3a4c	0.10802135
137	0x3dad9d48	0.08477265
138	0xbc122079	-0.008918875
139	0xbd3b2151	-0.04568607
140	0xbd386fc9	-0.04502848
141	0x3cb8d34c	0.022561692
142	0xbcc8fb3f	-0.024533866
143	0xb9d6f976	-0.00041003124
144	0x3e157132	0.14593962
145	0x3ed6f7b5	0.4198586
146	0x3e05dbfd	0.130722
147	0xbe2f7eb5	-0.17138179
148	0xbe1577ab	-0.14596431
149	0xbde7a2b6	-0.113103315
150	0x3db97dac	0.09057173
151	0x3c67ca08	0.014147289
152	0xbd30c6d1	-0.043158356
153	0x3d2a11bd	0.041520823
154	0x3e24f713	0.16109876
155	0xbc3a36ad	-0.011365575
156	0x3cd1fa2d	0.025631988
157	0x3d1221e8	0.035676867
158	0x3c9e5066	0.019325446
159	0x3d8f6273	0.070011996
160	0x3e0a7f2a	0.13525072
161	0x3dd89e01	0.10577012
162	0xbcbb1028	-0.022834852
163	0x3dd18056	0.10229556
164	0xbca793ba	-0.020456184
165	0xbe045e97	-0.12926708
166	0xbd11bc5f	-0.035580035
167	0xbd8bbdaa	-0.06823285
168	0xbc432015	-0.011909504
169	0xbdf43b51	-0.11925376
170	0xbd862058	-0.06549138
171	0x3e51e1fa	0.2049636
172	0x3e507503	0.20357136
173	0x3db29608	0.087200224
174	0xbcd27e98	-0.02569513
175	0xbc877100	-0.016533375
176	0xbc05b042	-0.008159699
177	0xbdd685c3	-0.10474732
178	0xbe750718	-0.23928487
179	0xba80bc39	-0.000982172
180	0xbd9eaa17	-0.07747286
181	0x3d7ea33a	0.062167384
182	0x3da1e20e	0.07904445
183	0x3c1f2178	0.009712569
184	0xbd78ded0	-0.060759366
185	0x3c967541	0.018366458
186	0x3e05bd36	0.1306046
187	0x3ca50b1a	0.020146895
188	0x3db78f29	0.089628525
189	0xbd3eccc7	-0.04658201
190	0x3d24f831	0.040275756
191	0x3c1fd8aa	0.009756247
192	0xbdcf75ee	-0.10129915
193	0x3c24180a	0.010015497
194	0xbc862e02	-0.01637936
195	0xbe53b929	-0.20676102
196	0xbde94203	-0.11389544
197	0xbe4e584f	-0.20150875
198	0x3d822ccc	0.063562006
199	0xbdd52942	-0.1040826
200	0xbd03b306	-0.032153152
201	0x3dc4b027	0.09603911
202	0xbd77b134	-0.06047173
203	0x3cba3110	0.022728473
204	0xbdc23ab0	-0.0948385
205	0xbdc50302	-0.09619714
206	0xbba5fd1f	-0.005065575
207	0x3c4b01f0	0.012390599
208	0x3dd190ce	0.102326974
209	0x3daa352d	0.08310924
210	0x3e0bb00f	0.1364138
211	0x3ddeb584	0.10874465
212	0x3ddda820	0.10823083
213	0x3e1ed8ea	0.15512434
214	0x3e317b6e	0.17332241
215	0x3dc1adc4	0.09456971
216	0x3d2be75b	0.041968685
217	0x3e76ae47	0.24089919
218	0x3e270cc0	0.16313457
219	0xbe280b79	-0.16410626
220	0xbdd0d30e	-0.101965055
221	0xbd9057dc	-0.07048008
222	0x3ddad5bc	0.10685298
223	0x3d9f0b98	0.07765883
224	0xbbaf311a	-0.0053464295
225	0xbddc93e8	-0.107703984
226	0x3e6f11de	0.2334666
227	0x3e8c4c38	0.274019
228	0x3d965497	0.07340353
229	0x3d7a4973	0.061105203
230	0xbe0182cb	-0.1264755
231	0x3e307ffa	0.17236319
232	0x3d0869dd	0.033304084
233	0x3cf4184c	0.029796742
234	0xbcbd69e8	-0.02312179
235	0x3dcedd29	0.10100777
236	0xbcb5673c	-0.022143953
237	0x3a9fccf8	0.0012191823
238	0x3d0847cb	0.033271592
239	0xbd231466	-0.039814375
240	0x3bb2abc9	0.0054526073
241	0x3cddacc5	0.027059922
242	0xbd99b6d2	-0.07505573
243	0xbc8afc72	-0.016966078
244	0x3edc9bbd	0.4308757
245	0x3ce806f0	0.02832362
246	0xbe6cb40c	-0.23115557
247	0xbeb1139a	-0.34585267
248	0x3d8c4876	0.06849758
249	0x3f108fbb	0.56469315
250	0xbc30b255	-0.010784705
251	0x3e035f49	0.12829317
252	0xbde43ce0	-0.111444235
253	0xbe00651f	-0.12538575
254	0xbdb6cdc0	-0.089259624
255	0xbd65b8a5	-0.056084294

layer1.0.conv2.bias f4 [16]
0	0xbb816872	-0.0039492184
1	0x3c604e91	0.013690607
2	0xbb99ea1e	-0.0046970984
3	0x3acf90e3	0.0015836026
4	0x3bd21b42	0.006411941
5	0x3b8a7f41	0.0042265956
6	0xbb2b31be	-0.0026122178
7	0xbbc14e8c	-0.005899256
8	0x3bebeb79	0.0071997014
9	0xbbb644a1	-0.0055623804
10	0xbc02538f	-0.007954492
11	0x3c1ee2bf	0.009697615
12	0xbbe8b513	-0.007101664
13	0x3b77ae86	0.0037793233
14	0xb9d0c296	-0.0003981783
15	0x3a89f86e	0.0010526308

layer1.0.bn2.weight f4 [16]
0	0x3f3e62f2	0.7436973
1	0x3f3a2119	0.72706753
2	0x3ed1729d	0.40907755
3	0x3ebd34db	0.36954388
4	0x3f617d4e	0.88081825
5	0x3eed44ce	0.46341556
6	0x3ea9ff85	0.33202758
7	0x3f2d752e	0.67756927
8	0x3e9d3a57	0.30708572
9	0x3f585bca	0.8451506
10	0x3f3165a0	0.6929569
11	0x3f36355b	0.71175164
12	0x3f7afbc7	0.9804043
13	0x3eb8f76a	0.36126262
14	0x3ee6e7c5	0.450987
15	0x3f369082	0.7131425

layer1.0.bn2.bias f4 [16]
0	0xbdaab231	-0.083347686
1	0xbcf4235a	-0.029802013
2	0x3e8e0fef	0.2774653
3	0xbe9a7ec5	-0.30174842
4	0xbea5a24b	-0.32350382
5	0xbe9f1791	-0.31072667
6	0x3eae315c	0.34022033
7	0x3efe5c7a	0.4967993
8	0xbcc58eda	-0.024115968
9	0x3d5c98ba	0.05385659
10	0xbda3c479	-0.079964586
11	0xbe811dcc	-0.25218046
12	0x3e9cf0ed	0.30652562
13	0x3eca4c94	0.3951155
14	0x3d274a5f	0.04084241
15	0x3d86b5dc	0.06577656

layer1.0.bn2.running_mean f4 [16]
0	0xbeb87316	-0.36025304
1	0x3f994287	1.1973428
2	0x3f091819	0.53552395
3	0xbf914f24	-1.1352277
4	0x3fe84709	1.8146678
5	0x3e3e521a	0.18586007
6	0xbe9b66de	-0.3035192
7	0xbf2c3aa5	-0.67276984
8	0xbf0b4610	-0.5440378
9	0x3ebdcfc0	0.37072563
10	0xbf96e413	-1.1788353
11	0x3df3d481	0.11905766
12	0xbe89c5fa	-0.26908857
13	0xbf7c4f05	-0.98558074
14	0xbe0c2069	-0.13684238
15	0xbf4e1c22	-0.8051168

layer1.0.bn2.running_var f4 [16]
0	0x3f666bcc	0.90008235
1	0x3f5bc88e	0.858529
2	0x3f4a16f6	0.78941286
3	0x3f46676f	0.7750158
4	0x3f656f59	0.8962303
5	0x3f3dc576	0.74129426
6	0x3f1be508	0.6089635
7	0x3f468b07	0.7755589
8	0x3f3a6eae	0.72825134
9	0x3fadd6f3	1.3581222
10	0x3f6d3ac0	0.9266777
11	0x3faf8f45	1.3715597
12	0x3f80c81b	1.0061067
13	0x3f3dec05	0.7418826
14	0x3f10e9ca	0.56606734
15	0x3f98c284	1.1934361

layer1.1.conv1.weight f4 [16, 16, 3, 3]
0	0xbe55b9fe	-0.20871732
1	0xbe2d2f01	-0.16912462
2	0xbde10eec	-0.10989174
3	0xbdaaf274	-0.083470255
4	0xbdc66b42	-0.096884266
5	0xbe54c514	-0.20778304
6	0x3dd1bd8f	0.102412336
7	0x3ddfc622	0.10926463
8	0xbdd9f7b0	-0.10642946
9	0xbe12dc5b	-0.14341871
10	0xbd4c1d50	-0.049832642
11	0x3d4c4dab	0.049878757
12	0x3d764ea6	0.0601336
13	0x3e472432	0.19447401
14	0xbd67000c	-0.05639653
15	0xbe2439d3	-0.16037683
16	0x3cc984a2	0.024599377
17	0x3da7a51c	0.08185789
18	0xbcb8b940	-0.022549272
19	0x3e09345f	0.13398884
20	0x3d907d81	0.07055188
21	0xbe2c549f	-0.16829155
22	0xbe813b16	-0.25240391
23	0xbdeef786	-0.11668305
24	0xbd6b6423	-0.057468545
25	0xbd8aa851	-0.06770385
26	0xbdc3b6c4	-0.09556344
27	0xbc5e266e	-0.013558967
28	0x3d0789a7	0.03309026
29	0x3d1d9cf2	0.038479753
30	0xbc8d8a2b	-0.017277798
31	0xbc53e14d	-0.012932134
32	0xbc469280	-0.012119889
33	0xbc9799e7	-0.018506004
34	0x3c4d9156	0.012546858
35	0xbc9bec65	-0.01903362
36	0xbcea24ae	-0.028581943
37	0xbce46eed	-0.027884925
38	0xbd85dffa	-0.06536861
39	0xbd4a6ade	-0.049418323
40	0xbdaf79ca	-0.08568151
41	0xbe0f8ff3	-0.14019756
42	0x3e284503	0.16432576
43	0x3e05ad1c	0.13054317
44	0x3c2dc787	0.010606653
45	0x3d7605b2	0.060064025
46	0x3e3d357b	0.18477432
47	0x3d2c526f	0.042070802
48	0x3df17d8c	0.11791524
49	0xbd675c77	-0.056484666
50	0xbdbbb714	-0.09165779
51	0x3d1bdc5f	0.03805196
52	0xbda2c5e0	-0.07947898
53	0xbe29dcf8	-0.16588199
54	0xbdbc92c7	-0.09207683
55	0xbac083cd	-0.0014687717
56	0xbcfc5b04	-0.030805118
57	0xbd4b90d2	-0.04969866
58	0x3d60afa3	0.054855
59	0x3cf6de12	0.030135188
60	0xbd97c3f8	-0.07410425
61	0xbd944d7f	-0.07241344
62	0xbd81986e	-0.06327902
63	0x3e7eacc0	0.24870586
64	0x3eceffe8	0.40429616
65	0xbe46f67d	-0.19429965
66	0x3db300a6	0.08740358
67	0x3e2cc782	0.16872981
68	0x3c767b66	0.015044069
69	0xbe8b5270	-0.27211332
70	0xbdee7af2	-0.11644544
71	0x3d82fa86	0.0639544
72	0xbc6ca9d4	-0.014444787
73	0xbb8f8b17	-0.0043805945
74	0x3b878a1a	0.004136336
75	0x3de781c2	0.11304046
76	0x3d27cd61	0.04096735
77	0xbda0f59f	-0.078593485
78	0x3da847c9	0.08216817
79	0x3d7e6a50	0.062113106
80	0x3cd156d5	0.0255541
81	0xbe098507	-0.13429652
82	0xbd2b47e6	-0.041816615
83	0xbe79824c	-0.2436611
84	0xbea33c4c	-0.3188194
85	0xbe83d146	-0.257456
86	0xbe9bf0ac	-0.30457056
87	0xbe2dc944	-0.16971308
88	0xbdfcd2d1	-0.123448975
89	0xbe3f51c5	-0.18683536
90	0x3db052f6	0.086095735
91	0xbdb7453a	-0.08948751
92	0xbd336861	-0.043800715
93	0x3dcf150a	0.10111435
94	0x3e985ea9	0.2975972
95	0x3e03edd2	0.1288369
96	0xbd7423de	-0.059604518
97	0x3dcdd8e6	0.10051136
98	0x3d585b5c	0.052821502
99	0x3d9a8383	0.07544615
100	0xbdc283c1	-0.09497786
101	0x3d9fd271	0.078038104
102	0x3d5821f4	0.052766755
103	0x3e08d877	0.13363825
104	0x3d4ef66b	0.05052797
105	0x3e4e7dce	0.20165178
106	0x3eac254d	0.33622208
107	0x3e26fb00	0.16306686
108	0xbd1aef6d	-0.03782599
109	0xbdc07e0f	-0.09399044
110	0x3cd01d5c	0.025404625
111	0x3d09db94	0.03365667
112	0xbd45495d	-0.048165668
113	0xbe7206d7	-0.23635422
114	0x3d20d9a8	0.039270073
115	0x3e0692c3	0.13141923
116	0x3c50291d	0.012705115
117	0x3ec19cd9	0.37814978
118	0x3e32241b	0.17396586
119	0x3baf9e05	0.0053594136
120	0xbd571749	-0.05251244
121	0xbdac08e5	-0.08400134
122	0x3bfcb240	0.0077116787
123	0xbddc1a92	-0.107472554
124	0xbe8ea3bb	-0.2785929
125	0xbe0d4b9f	-0.13798378
126	0x3ca47541	0.020075442
127	0x3dda6576	0.106638834
128	0xbc83d027	-0.016090466
129	0xbe272ce8	-0.16325724
130	0xbddd66f4	-0.108106524
131	0xbd2fa5bf	-0.042882677
132	0xbdf4bcc1	-0.119500645
133	0xbcc54657	-0.024081392
134	0xbbd8cb0f	-0.0066160033
135	0xbc0b3ba1	-0.008498103
136	0xbe7ac7f8	-0.24490345
137	0xbe8b9afa	-0.27266675
138	0xbe36cc18	-0.17851293
139	0x3d72e9ec	0.059305117
140	0xbd634004	-0.055480972
141	0xbe12dc31	-0.14341809
142	0x3d80f283	0.062962554
143	0x3d6cacf3	0.057782125
144	0x3df9f0fd	0.12204168
145	0x3d8785b6	0.066173
146	0x3db2d20d	0.0873147
147	0x3acf10b0	0.001579782
148	0x3cbb2897	0.022846503
149	0x3e1ed1a5	0.1550966
150	0xbe38faab	-0.18064372
151	0xbe4734e7	-0.19453774
152	0x39712c8d	0.00023000147
153	0xbcd057e8	-0.025432542
154	0xbd4697f4	-0.048484758
155	0x3e282281	0.16419412
156	0x3e09fe9c	0.13476032
157	0xbdbe39cc	-0.09288368
158	0x3d4cca79	0.04999778
159	0xbeb32402	-0.3498841
160	0xbe537a8b	-0.20652215
161	0xbec290eb	-0.3800119
162	0xbd6c3b54	-0.057673767
163	0xbe85d72e	-0.26140732
164	0xbe667a2c	-0.22507542
165	0xbb8d965d	-0.004320903
166	0xbe167b5d	-0.14695497
167	0xbbf4f4ee	-0.007475487
168	0xbd4f4d85	-0.050611038
169	0x3db40edb	0.08791896
170	0xbd1c238e	-0.038119845
171	0x3cef0bb8	0.029180393
172	0xbd9f00a6	-0.077637956
173	0x3d4dd723	0.050254
174	0x3d35f36b	0.044421595
175	0xbd7b60c2	-0.061371572
176	0x3e125d28	0.14293349
177	0x3de7e334	0.113226324
178	0x3d0a4568	0.033757597
179	0x3e3651a1	0.17804576
180	0x3d491991	0.049096648
181	0xbd0496e6	-0.03237047
182	0x3cd811a9	0.026375609
183	0xbdc5cf77	-0.096587114
184	0xbe49974b	-0.1968662
185	0xbe5e67d6	-0.21719298
186	0xbe0a7567	-0.13521348
187	0xbe354109	-0.1770059
188	0xbdcaea18	-0.09907931
189	0x3e60324c	0.21894187
190	0xbe128c59	-0.14311351
191	0xbe4e4266	-0.20142516
192	0x3e2c8fbe	0.16851708
193	0xbe826c33	-0.25473174
194	0xbe13ba31	-0.14426495
195	0x3d437739	0.04772112
196	0xb908372f	-0.00012990528
197	0xbced2005	-0.028945932
198	0x3d1894c6	0.037251256
199	0xbcef6e2f	-0.029227344
200	0xbcce5136	-0.025185209
201	0xbd680edd	-0.0566548
202	0xbdef7c81	-0.11693669
203	0x3bc296ad	0.005938372
204	0xbdf87dbc	-0.12133357
205	0xbe000582	-0.12502101
206	0xbc680476	-0.01416122
207	0xbd2f1af6	-0.04275032
208	0xbe0291f2	-0.12750986
209	0xbe353372	-0.17695406
210	0xbd7277b0	-0.059196174
211	0xbe364a45	-0.17801769
212	0x3e43eafb	0.19132607
213	0x3e966ca1	0.29379752
214	0x3e63f1a6	0.2226015
215	0xbbd38757	-0.0064553428
216	0x3e14e2c0	0.14539623
217	0x3dd75a2d	0.105152465
218	0xbd353489	-0.044239555
219	0x3e4e93b4	0.20173532
220	0x3e185836	0.148774
221	0xbcc3a474	-0.023882128
222	0xbe18b47d	-0.14912601
223	0xbe3b003a	-0.18261805
224	0xbdab7916	-0.08372705
225	0xbabf7baa	-0.0014608998
226	0xbe4814c8	-0.19539177
227	0xbc8ea128	-0.01741083
228	0xbe5b49d9	-0.2141489
229	0xbe9170d2	-0.28406388
230	0xbe94c134	-0.29053652
231	0xbd34c179	-0.044129822
232	0xbe4dc506	-0.2009469
233	0xbe5d002b	-0.21582095
234	0xbe819a18	-0.25312877
235	0x3d289b70	0.04116386
236	0x3e158eaf	0.1460521
237	0xbdb960ee	-0.09051691
238	0x3e8f1072	0.27942234
239	0x3db58c0a	0.08864601
240	0xbe5e4b15	-0.21708329
241	0xbe9de6f1	-0.30840257
242	0xbe63d689	-0.22249807
243	0xbdd12b4d	-0.10213337
244	0xbd45f162	-0.048325904
245	0xbe5ea62f	-0.21743082
246	0xbdf299d2	-0.11845745
247	0x3daa342a	0.08310731
248	0xbe83b6ae	-0.2572531
249	0xbc987789	-0.018611686
250	0xbe5d8005	-0.21630867
251	0xbe64bc1c	-0.22337383
252	0xbe560f60	-0.20904303
253	0xbbc836f0	-0.0061100647
254	0xbe1624c5	-0.14662464
255	0xbd8652d4	-0.06558767

layer1.1.conv1.bias f4 [16]
0	0xba9f578c	-0.0012156828
1	0xbc018f5c	-0.007907715
2	0x3bba75f8	0.0056903325
3	0x3a0e0ce8	0.00054187933
4	0xbbcb83ea	-0.0062107937
5	0x3bf79da5	0.0075566345
6	0xbc004a6f	-0.007830246
7	0xbc085539	-0.0083211
8	0xbc0a7955	-0.008451779
9	0xbb873ea8	-0.0041273423
10	0x3be4d5e3	0.006983505
11	0xbac99829	-0.001538043
12	0x3c20032c	0.009766381
13	0xba85a0b2	-0.0010194986
14	0xbc045e65	-0.008079146
15	0x39e9dc7e	0.00044605503

layer1.1.bn1.weight f4 [16]
0	0x3f1903f8	0.5977168
1	0x3f4b7062	0.7946836
2	0x3f37a655	0.7173818
3	0x3f48e87a	0.7847973
4	0x3f47e468	0.78082895
5	0x3f196c77	0.5993113
6	0x3f421947	0.7581982
7	0x3f065a85	0.5248187
8	0x3f1774d0	0.59162617
9	0x3f31fe2b	0.69528455
10	0x3f4434e9	0.76643234
11	0x3f361cf3	0.71137923
12	0x3f2e3f98	0.68065786
13	0x3f396e2b	0.7243373
14	0x3f1c2af6	0.61003053
15	0x3f43ad75	0.7643655

layer1.1.bn1.bias f4 [16]
0	0x3d6b55e2	0.05745495
1	0x3dfcd5e8	0.12345487
2	0xbebbcefd	-0.36681357
3	0xbdc65792	-0.096846715
4	0xbdb7b76b	-0.08970531
5	0xbe8d73e0	-0.27627468
6	0xbef9908c	-0.48743093
7	0xbeaf3a34	-0.34224093
8	0x3e4b2618	0.1983875
9	0xbe337fec	-0.17529267
10	0xbe585fc8	-0.21130288
11	0xbeb17171	-0.3465686
12	0xbe4e467c	-0.20144075
13	0xbf23fec2	-0.64060605
14	0x3e57d3b5	0.21076854
15	0x3e06f628	0.13179839

layer1.1.bn1.running_mean f4 [16]
0	0xbf8b2b53	-1.0872597
1	0xc08d8f56	-4.423747
2	0xc01be09f	-2.4355848
3	0xc03e1091	-2.9697611
4	0xbf02974d	-0.51012117
5	0xbf466f7b	-0.77513856
6	0xbe54092c	-0.20706624
7	0x3f827899	1.0193053
8	0xbf52941e	-0.8225726
9	0xbfe8ae1f	-1.8178138
10	0xc0467a77	-3.1012247
11	0x3ea0d443	0.31411943
12	0xbe891227	-0.26771662
13	0x4016394d	2.3472474
14	0xc0440591	-3.0628397
15	0xc07649eb	-3.8482616

layer1.1.bn1.running_var f4 [16]
0	0x40840af7	4.1263385
1	0x40f70cf6	7.720332
2	0x407e56a5	3.9740384
3	0x40b9a2b6	5.801112
4	0x410df0bd	8.871274
5	0x40110c2a	2.2663674
6	0x40966844	4.7002277
7	0x3fe77a10	1.8084126
8	0x407ec50c	3.9807768
9	0x4080426f	4.0081096
10	0x40aaff67	5.343677
11	0x4075cacb	3.8405025
12	0x403e2dbf	2.9715421
13	0x3ffa7378	1.9566488
14	0x408315d1	4.096413
15	0x40f1b7cb	7.5536857

layer1.1.conv2.weight f4 [16, 16, 3, 3]
0	0xbda9709d	-0.082734324
1	0xbd8b7a78	-0.068104684
2	0x3c8530e7	0.01625867
3	0xbe43fc06	-0.19139108
4	0xbdcdb70e	-0.100446805
5	0x3d03dd44	0.032193437
6	0xbb811006	-0.0039386777
7	0xbd837554	-0.06418863
8	0xbd6817f6	-0.056663476
9	0x3e3c9deb	0.18419616
10	0x3e4304e3	0.19044833
11	0x3e00d1af	0.12579988
12	0x3d341a0c	0.043970153
13	0xbd8a5fe1	-0.06756569
14	0xbd40e5b6	-0.04709407
15	0xbd6a6f0b	-0.057234805
16	0xbd06f2c7	-0.032946374
17	0xbd0517d0	-0.032493412
18	0xbd23f66c	-0.040029928
19	0xbd961c45	-0.07329611
20	0xbd6a7b5e	-0.05724656
21	0xbb0a24d2	-0.0021079076
22	0xbced5f20	-0.028976023
23	0xbd01b97b	-0.03167103
24	0x3df1f2b5	0.11813871
25	0x3daaa981	0.083331116
26	0x3d63fcc2	0.05566097
27	0x3db35ae8	0.08757573
28	0xbd2feaa5	-0.042948384
29	0xbdeba691	-0.115063794
30	0x3e025209	0.12726606
31	0x3d5a5f91	0.053313795
32	0x3d3d9d0f	0.04629236
33	0xbd730103	-0.059327137
34	0xbca014a7	-0.019541098
35	0x3dbdde4e	0.09270917
36	0xbdf9f63c	-0.122051686
37	0x3d352174	0.044221357
38	0x3daf5e4c	0.085629076
39	0xbc9a814b	-0.01886048
40	0x3d53aead	0.051680256
41	0x3df42980	0.11921978
42	0x3d391ce1	0.045193557
43	0x3d4fb87d	0.05071305
44	0x3d202c5f	0.039104816
45	0xbc853cd9	-0.016264366
46	0xbce3d218	-0.027810141
47	0xbd5713c0	-0.05250907
48	0xbd48224b	-0.04886083
49	0xbc88e1ab	-0.01670917
50	0xbdca3cec	-0.09874901
51	0xbd2ea811	-0.04264075
52	0x3d49c287	0.04925778
53	0x3dbae238	0.09125179
54	0xbc58f774	-0.013242591
55	0xbd7dbfa4	-0.06195034
56	0xbe0ed9f0	-0.13950324
57	0xbe43c3ed	-0.19117709
58	0xbe71c6ad	-0.23610945
59	0xbea3959d	-0.31950083
60	0xbe84d844	-0.25946248
61	0xbe82738b	-0.25478777
62	0xbe9f4694	-0.31108534
63	0xbd45d3b3	-0.048297595
64	0x3c168e26	0.009189164
65	0xbcb148af	-0.021641104
66	0xbcc38273	-0.023865914
67	0x3bd6ed0a	0.006559019
68	0xbcae0e69	-0.021247106
69	0xbcf5fb75	-0.03002713
70	0xbd0cc4f5	-0.03436752
71	0xbcb7c893	-0.022434508
72	0xbe1f1b4e	-0.1553776
73	0xbda591c9	-0.08084447
74	0x3d1779e6	0.036981486
75	0xbe14cb5e	-0.14530703
76	0xbd86e4f0	-0.06586635
77	0x38abba6b	8.1886385e-05
78	0x3dd544a2	0.10413481
79	0x3d71e478	0.059055775
80	0x3dc9e211	0.09857572
81	0x3ccad995	0.024761954
82	0x3db18221	0.08667398
83	0x3d652ed3	0.05595286
84	0x3bef5133	0.007303381
85	0x3d3d8a42	0.04627443
86	0xbcc89b5c	-0.024488144
87	0xbd13c6f0	-0.036078393
88	0x3b4bf564	0.0031121606
89	0x3cccb846	0.024990212
90	0x3c0c4d9f	0.008563428
91	0x3c458443	0.012055459
92	0xbccb5876	-0.024822455
93	0x3e17b6f6	0.14815888
94	0x3d92a81d	0.07160971
95	0x3cebdb84	0.028791197
96	0x3e22227d	0.15833469
97	0x3c6661ce	0.014061404
98	0x3d90e630	0.07075155
99	0x3dc3a615	0.09553162
100	0x3de78628	0.11304885
101	0xbd4fb86a	-0.05071298
102	0x3d1d0814	0.038337782
103	0x3e523cf2	0.20531061
104	0x3e5e864e	0.2173092
105	0xbde04dd7	-0.10952347
106	0x3d043454	0.032276466
107	0x3dfa9ee1	0.12237335
108	0xbd05fec5	-0.03271367
109	0xbdf52dc3	-0.11971619
110	0xbdaddcdf	-0.084893934
111	0x3a837d57	0.0010031861
112	0xbd752cb6	-0.059857093
113	0xbd82f4dd	-0.0639436
114	0x3e01cd52	0.1267598
115	0x3e2070ec	0.15668076
116	0x3e26b9f0	0.16281867
117	0xbd5a2dc0	-0.053266287
118	0xbdb6f0e2	-0.089326635
119	0x3c5b8bbd	0.013400015
120	0xbe28fabf	-0.16501902
121	0xbe3053cd	-0.17219467
122	0xbdf17fb6	-0.11791937
123	0xbd835bf0	-0.0641402
124	0xbdac1121	-0.084017046
125	0xbd1e0ae8	-0.03858462
126	0xbde3065e	-0.11085199
127	0xbc8b3fdf	-0.01699823
128	0xbdb1babd	-0.086781956
129	0xbd8331ef	-0.064060085
130	0xbd8cde9b	-0.06878396
131	0xbd3c084b	-0.045906346
132	0x3dada352	0.084784165
133	0x3d47940b	0.04872517
134	0x3d8362aa	0.06415303
135	0x3d63f5e0	0.055654407
136	0x3cbbf7d0	0.022945315
137	0xbd20f625	-0.03929724
138	0x3d20152a	0.039082684
139	0xbd9ea917	-0.07747095
140	0xbe120c63	-0.14262538
141	0x3d71fde0	0.059080005
142	0xbd36e996	-0.04465636
143	0xbdc56bb0	-0.096396804
144	0xbcbb8487	-0.022890342
145	0xbdce8969	-0.10084803
146	0xbe4b2f87	-0.19842349
147	0xbd815fc9	-0.06317098
148	0xbde63f52	-0.11242546
149	0xbe03ebc6	-0.12882909
150	0xbcb1e53f	-0.021715758
151	0xbcd92345	-0.026506076
152	0x3d589619	0.05287752
153	0x3b7280f7	0.0037003139
154	0xbe27a468	-0.1637131
155	0xbb1fa3ce	-0.002435911
156	0xbd530d1f	-0.051526185
157	0xbdce57d4	-0.10075346
158	0xbdc93def	-0.09826266
159	0xbb7df288	-0.0038749296
160	0x3da8e734	0.082472235
161	0xbc847bd2	-0.016172323
162	0x3e0d27e1	0.13784744
163	0x3db99793	0.090621136
164	0xbd3eb76e	-0.04656165
165	0x3d8ad782	0.06779386
166	0x3d0221ae	0.0317704
167	0xbd920c1c	-0.07131216
168	0xbe083377	-0.13300882
169	0xbd741323	-0.059588563
170	0xbca828ee	-0.02052733
171	0x3e42033c	0.18946546
172	0x3dfcbbc6	0.123405024
173	0x3e06a6d3	0.13149576
174	0x3e464485	0.19362076
175	0x3bc23111	0.0059262593
176	0xbdd36dab	-0.10323652
177	0xbd8835dc	-0.06650898
178	0xbe362de1	-0.17790939
179	0xbe93ae2e	-0.28843826
180	0x3d27f02e	0.041000538
181	0xbdf6d6ce	-0.120526895
182	0xbdad7586	-0.084696814
183	0x3c166603	0.009179595
184	0xbe1ad293	-0.1511939
185	0xbe10be6a	-0.14135137
186	0xbcbe9769	-0.023265557
187	0xbdbc5cdb	-0.09197398
188	0xbe26107f	-0.1621723
189	0xbe1b64e2	-0.15175202
190	0x3e049579	0.12947644
191	0x3e31952c	0.17342061
192	0x3d18c814	0.037300184
193	0x3d635349	0.05549935
194	0x3e0cb08b	0.13739221
195	0x3e0fbb0f	0.14036201
196	0x3c9cc70b	0.01913788
197	0xbd02a48d	-0.03189521
198	0x3aefc6eb	0.0018293535
199	0xbb8ed46e	-0.0043588197
200	0xbd3dbe96	-0.046324335
201	0xbdb70c26	-0.08937864
202	0xbdbe7464	-0.092995435
203	0xbdf60d9e	-0.12014316
204	0x3d699404	0.057025924
205	0xbc69a041	-0.014259399
206	0xbd58469c	-0.052801713
207	0xbd86a154	-0.0657374
208	0xbdf7e176	-0.1210355
209	0xbe0fbe33	-0.14037399
210	0xbe0064fb	-0.12538521
211	0xbdb255ae	-0.08707748
212	0xbdac98ad	-0.08427558
213	0xbdfa6203	-0.122257255
214	0xbdee1f92	-0.11627115
215	0xbd590f33	-0.05299301
216	0xbe12b1e1	-0.14325668
217	0xbdbd80a7	-0.09253054
218	0xbe009388	-0.12556279
219	0xbe051a68	-0.12998354
220	0x3c106c65	0.008814906
221	0x3d876d38	0.06612629
222	0x3d95d5ac	0.07316145
223	0x3dd38c9c	0.103295535
224	0x3d2ed16a	0.04268018
225	0x3e01b1a1	0.12665416
226	0x3e3772b5	0.17914851
227	0xbd4b75d1	-0.049672905
228	0xbcb4d811	-0.022075685
229	0xbdec1a1f	-0.1152842
230	0xbd907dba	-0.070552304
231	0xbb7c8876	-0.0038533485
232	0xbd07d172	-0.033158727
233	0x3d915537	0.070963316
234	0xbe62d102	-0.22150043
235	0xbde6866f	-0.1125611
236	0x3e771ab0	0.24131274
237	0xbeb8c097	-0.36084434
238	0x3cdcd6b2	0.026957843
239	0x3dc65719	0.09684581
240	0x3dbf93af	0.0935434
241	0x3e0567d1	0.13027884
242	0x3d53af59	0.051680896
243	0xbd5593f1	-0.05214304
244	0x3e188f9a	0.1489853
245	0x3ca16d1c	0.019705348
246	0xbe707152	-0.23480728
247	0xbe35048d	-0.17677517
248	0xbd1fc1d3	-0.039003205
249	0xbe1874af	-0.14888261
250	0xbe0133ee	-0.12617466
251	0xbdbaece4	-0.091272146
252	0xbe6371a4	-0.22211319
253	0x3d2bda49	0.04195622
254	0x3d4a88f6	0.049447022
255	0xbd5d79be	-0.05407118

layer1.1.conv2.bias f4 [16]
0	0x3be5c508	0.0070120133
1	0xbacd947a	-0.0015684508
2	0x3b137487	0.0022499876
3	0x3b9cb857	0.004782717
4	0xbbc4d28f	-0.006006546
5	0xbb80e6cd	-0.0039337636
6	0xbc1f56d0	-0.009725288
7	0xbb1c58cd	-0.002385664
8	0xbafc7113	-0.0019259773
9	0x3c13a061	0.009010405
10	0x3b539ad8	0.003228834
11	0x3ac6e683	0.0015174899
12	0xbb5e85d8	-0.0033954289
13	0xbb3b480a	-0.0028576874
14	0x394da0b6	0.00019610193
15	0x3bfa5286	0.007639232

layer1.1.bn2.weight f4 [16]
0	0x3eb41c00	0.35177612
1	0x3f2c966c	0.67417026
2	0x3f1e9e99	0.6196075
3	0x3ea71efa	0.3264082
4	0x3f1554e2	0.58332646
5	0x3e926e9d	0.28600016
6	0x3ea36a5d	0.31917086
7	0x3f929b1a	1.1453583
8	0x3ee6e61a	0.4509743
9	0x3f6cb35f	0.924612
10	0x3f79816e	0.9746312
11	0x3f955432	1.1666319
12	0x3f89c94e	1.0764558
13	0x3eac6563	0.33671102
14	0x3ecbaf99	0.39782408
15	0x3f011d7b	0.5043561

layer1.1.bn2.bias f4 [16]
0	0xbe159ccc	-0.14610595
1	0x3e2a128b	0.16608636
2	0x3e608875	0.21927054
3	0x3d880d01	0.06643105
4	0x3e94f42d	0.2909254
5	0x3e4f0615	0.20217164
6	0x3ead4693	0.33842906
7	0x3e50b70d	0.20382328
8	0x3db6d9b1	0.0892824
9	0xbe38179c	-0.17977756
10	0xbeb8e030	-0.3610854
11	0xbf2a2938	-0.66469145
12	0x3ed8c47e	0.42337412
13	0x3eb205e3	0.34770116
14	0xbcd2e72a	-0.025744993
15	0x3dc71ca0	0.09722257

layer1.1.bn2.running_mean f4 [16]
0	0xbe65cc0c	-0.22441119
1	0xbe669b8d	-0.22520275
2	0x3e2c01fd	0.16797633
3	0xbea94711	-0.33062032
4	0x3e54941a	0.20759621
5	0xbe33ae34	-0.17546922
6	0xbe144b95	-0.14481957
7	0xbd3185fa	-0.04334066
8	0x3f7e6016	0.99365366
9	0xbee1a014	-0.44067442
10	0xbdc740ee	-0.09729181
11	0xbe572e91	-0.21013857
12	0xbf22f25f	-0.6365108
13	0x3eaa9926	0.33319968
14	0x3eab429d	0.3344926
15	0xbe819ec4	-0.2531644

layer1.1.bn2.running_var f4 [16]
0	0x3ecbbe06	0.39793414
1	0x3ecd4551	0.40091947
2	0x3f0c4541	0.54793173
3	0x3f2aeef2	0.6677085
4	0x3e9f6b37	0.31136486
5	0x3ebcaf31	0.3685241
6	0x3e86da76	0.26338547
7	0x3f6caac6	0.9244808
8	0x3f1c6c65	0.61102897
9	0x3f84577c	1.0339198
10	0x3f455165	0.77077323
11	0x3fa19a00	1.2625122
12	0x3f1bacea	0.6081072
13	0x3ee50855	0.4473292
14	0x3ec149ff	0.37751767
15	0x3ee09905	0.43866745
