Output/swift-iid-8W-pattern1-third-ring-2sgd-200epochs/r5-epoch_104-parameters.pt (torch, 731756 bytes, 92 tensors)

conv1.weight f4 [16, 3, 3, 3]
0.4842104 0.34408253 0.5989573 -0.18467811 -0.35212305 -0.15418935 -0.30855647 -0.8740952
-0.44612357 -0.27320507 -0.4756287 -0.21580297 -0.21910758 -0.11426364 -0.25944105 -0.024945602
-0.17060407 -0.13450356 -0.3922869 -0.3535088 -0.42130452 0.24215797 0.6802827 0.11876663
0.5611026 0.7014355 0.43241826 -0.095821634 0.7050678 -0.12738037 -0.5068829 -0.2472704
-0.4206503 0.31185725 0.22182114 0.18126754 -0.030794004 0.9720215 -0.01464321 -0.7142701
-0.55462533 -0.7499452 0.26002523 0.10445062 0.1069784 0.1371142 0.77707577 0.31204894
-0.42285237 -0.051001396 -0.25797328 -0.10977724 0.20730045 0.016129853 0.33149123 -0.3627044
0.37635127 0.243014 0.71620524 -0.39456087 -0.12554048 0.2613908 -0.07787161 -0.28442198
-0.93666416 -0.37309042 0.14974101 0.8863561 -0.68199426 -0.17621353 0.40516117 -0.26585287
-0.5585177 -0.8526738 -0.13388526 0.20698039 1.0693053 0.07326823 0.08109413 0.76722574
0.13879755 0.25844258 0.030213714 0.30234554 -0.24818496 -0.4354238 -0.11164994 -0.34281015
-0.6733319 -0.07353924 -0.24813375 -0.26269165 -0.16290684 -0.15543349 0.009561239 -0.19796702
-0.1080816 -0.083322644 -0.16043963 -0.17108901 0.1763193 -0.10036741 0.5547711 1.1684766
0.4299888 0.6366516 1.0757695 0.39828753 0.15208729 -0.03331516 -0.09011221 -0.13573885
-0.40309274 -0.45877284 0.09559323 -0.031052276 -0.1869791 0.2830241 0.114913754 0.043187406
0.0271026 -0.088696495 -0.16945365 0.3257921 0.368452 0.29239658 0.21809368 0.06814881
-0.08387747 -0.22510456 -0.42013717 -0.535598 -0.088960655 -0.17431358 -0.27781016 0.22473659
0.5446103 0.20045133 0.917273 1.2951292 -0.14970727 -0.023857884 0.08858678 -0.32111162
-0.021351246 -0.415931 -0.46236345 0.27853915 -0.19327468 -1.244402 -0.35636047 -0.6648624
-0.49179932 0.30146623 0.13194844 0.08029895 0.52463293 0.3416384 -0.50240415 0.23489973
0.16284849 0.11595227 -0.17034732 -0.38261297 -0.30758038 -0.48651558 -0.69788694 -0.60647887
-0.35226166 -0.83346653 -0.590747 0.39391032 0.57511926 0.38520256 0.24602853 0.38628286
0.21858047 0.13074437 -0.025064606 0.08949282 0.09100974 0.35985908 0.1733413 0.13911994
0.46064085 0.14044738 0.111801706 0.18542656 0.102489345 0.19896428 0.7979854 0.4812209
-0.2183916 1.1905615 -0.15863529 -0.61652404 -1.5846393 -0.28727865 -0.04227263 0.23103917
0.05858747 0.21546458 1.225738 -0.12308232 0.43056828 -0.8295035 0.24582118 -0.51292026
-0.99245185 -0.23419 -0.4465662 0.25110257 -0.58490115 0.78857327 0.3104162 0.62962383
-0.0070657874 0.287907 0.11356029 0.3183209 -0.0057866364 0.071176976 0.21022928 -0.01530372
0.11489456 -0.1115957 -0.43488285 -0.20681107 -0.21307816 -1.2552344 -0.8462393 -0.04035761
-0.68630016 -0.23862846 0.018168768 0.32652077 0.3568622 0.10630488 -0.12983626 0.1056142
0.08513246 0.05875843 0.2634941 -0.05505729 0.12089024 0.021819247 0.002236339 0.36613464
0.17017934 -0.1427078 -0.22582364 0.1581844 0.030731907 0.33225688 0.073275626 -0.0808564
00000000: 6dea f73e 962b b03e 4455 193f 421c 3dbe
00000010: 7949 b4be d0e3 1dbe 1dfb 9dbe b4c4 5fbf
00000020: 4f6a e4be 89e1 8bbe 9b85 f3be 74fb 5cbe
00000030: bd5d 60be 0e03 eabd 75d5 84be b85a ccbc
00000040: d5b2 2ebe 4dbb 09be d4d9 c8be 1bff b4be
00000050: 3ab5 d7be 42f8 773e 0227 2e3f eb3b f33d
00000060: 6ca4 0f3f 4791 333f ed65 dd3e 223e c4bd
00000070: 537f 343f 0070 02be 14c3 01bf 7434 7dbe
00000080: 7a5f d7be c1ab 9f3e 1525 633e 339e 393e
00000090: b543 fcbc 67d6 783f 13ea 6fbc 68da 36bf
000000a0: edfb 0dbf 69fc 3fbf 0722 853e 35ea d53d
000000b0: 7e17 db3d aa67 0c3e 70ee 463f e1c4 9f3e
000000c0: 1b80 d8be d7e6 50bd 1315 84be e4d2 e0bd
000000d0: 9246 543e c122 843c 38b9 a93e 64b4 b9be
000000e0: 1db1 c03e a9d8 783e 3a59 373f e203 cabe
000000f0: af8d 00be 04d5 853e 277b 9fbd c29f 91be
00000100: 39c9 6fbf b505 bfbe b555 193e 3ce8 623f
00000110: 2d97 2ebf 5271 34be 4971 cf3e de1d 88be
00000120: 04fb 0ebf d548 5abf 3819 09be abf2 533e
00000130: ffde 883f a70d 963d ae14 a63d e868 443f
00000140: f220 0e3e 9652 843e c082 f73c 09cd 9a3e
00000150: 3324 7ebe deef debe b9a8 e4bd d084 afbe
00000160: 7b5f 2cbf be9b 96bd c616 7ebe 857f 86be
00000170: 0dd1 26be f529 1fbe bea6 1c3c deb7 4abe
00000180: e359 ddbd 10a5 aabd 494a 24be f531 2fbe
00000190: 0c8d 343e 6e8d cdbd 7b05 0e3f a490 953f
000001a0: 7e27 dc3e 99fb 223f d1b2 893f 58ec cb3e
000001b0: c5bc 1b3e 7a75 08bd c08c b8bd 20ff 0abe
000001c0: 2c62 cebe 46e4 eabe 62c6 c33d 5861 febc
000001d0: 7377 3fbe 89e8 903e e757 eb3d 47e5 303d
000001e0: 4606 de3c 82a6 b5bd 4285 2dbe 39ce a63e
000001f0: bea5 bc3e 01b5 953e f353 5f3e 9a91 8b3d
00000200: f3c7 abbd cf81 66be 381c d7be f31c 09bf
00000210: 0131 b6bd 427f 32be 223d 8ebe 5921 663e
00000220: 956b 0b3f 1d43 4d3e 67d2 6a3f cbc6 a53f
00000230: dd4c 19be 9c71 c3bc fc6c b53d be68 a4be
00000240: cfe8 aebc e8f4 d4be e7ba ecbe af9c 8e3e
00000250: cce9 45be 9148 9fbf e174 b6be 6c34 2abf
00000260: 1fcd fbbe c859 9a3e 7e1d 073e c773 a43d
00000270: 584e 063f 3aeb ae3e 8f9d 00bf 8e89 703e
00000280: c1c1 263e 6278 ed3d 876f 2ebe d9e5 c3be
00000290: 2d7b 9dbe 9218 f9be b8a8 32bf 3342 1bbf
000002a0: a45b b4be 105e 55bf 323b 17bf 9dae c93e
000002b0: 043b 133f 4539 c53e e7ee 7b3e dec6 c53e
000002c0: 8fd3 5f3e dae1 053e 4a54 cdbc 0348 b73d
000002d0: 5163 ba3d 733f b83e 6280 313e 7575 0e3e
000002e0: 1ed9 eb3e 70d1 0f3e 4bf8 e43d 76e0 3d3e
000002f0: efe5 d13d 4bbd 4b3e c548 4c3f 9662 f63e
00000300: 0ca2 5fbe 5264 983f 4a71 22be 85d4 1dbf
00000310: 76d5 cabf 3016 93be 1126 2dbd 8895 6c3e
00000320: 6af9 6f3d bfa2 5c3e fce4 9c3f 9512 fcbd
00000330: 7273 dc3e 575a 54bf 8cb8 7b3e be4e 03bf
00000340: 5311 7ebf 81cf 6fbe 53a4 e4be 8490 803e
00000350: 15bc 15bf f0df 493f dfee 9e3e 072f 213f
00000360: 1f88 e7bb 8c68 933e 4c92 e83d f5fa a23e
00000370: d39d bdbb 3cc5 913d 5846 573e 74bc 7abc
00000380: d74d eb3d 498c e4bd f7a8 debe 48c6 53be
00000390: 2931 5abe 85ab a0bf 24a3 58bf 054e 25bd
000003a0: 5eb1 2fbf 055b 74be abd6 943c bb2d a73e
000003b0: a4b6 b63e 5fb6 d93d ccf3 04be 424c d83d
000003c0: ed59 ae3d aeac 703d b3e8 863e c183 61bd
000003d0: 4d95 f73d 47be b23c 8b8f 123b 0076 bb3e
000003e0: 7e43 2e3e fe21 12be 503e 67be 17fb 213e
000003f0: 7bc1 fb3c 931d aa3e 8811 963d 0a98 a5bd

conv1.bias f4 [16]
-0.015724258 -0.009974063 -0.011110048 0.020619176 0.019026406 -0.022079837 -0.0010605837 0.0052917036
-0.016829088 -0.02233109 -0.006233325 -0.010209664 -0.008356326 0.01672349 0.0042889696 -0.015293184
00000000: 29d0 80bc 416a 23bc eb06 36bc 8ce9 a83c
00000010: 44dd 9b3c c6e0 b4bc 4903 8bba 0766 ad3b
00000020: 28dd 89bc b1ef b6bc ec40 ccbb 6f46 27bc
00000030: f9e8 08bc b3ff 883c 7c8a 8c3b 4390 7abc

bn1.weight f4 [16]
0.8850157 0.87408054 0.8705286 0.7172209 1.1016723 0.7940117 0.6453289 0.7825331
1.0730928 0.57286936 0.7927877 0.7647465 1.1086295 0.8184518 0.9606581 1.2027682
00000000: 6490 623f bec3 5f3f f6da 5e3f ca9b 373f
00000010: 9903 8d3f 5a44 4b3f 4634 253f 1754 483f
00000020: 1b5b 893f 91a7 123f 22f4 4a3f 6dc6 433f
00000030: 92e7 8d3f 0f86 513f b0ed 753f 4ff4 993f

bn1.bias f4 [16]
0.06506033 0.8720944 0.5651027 0.7415832 -0.59266037 0.89169806 0.46770903 1.4420933
0.23484103 0.081270896 0.49909663 0.64442056 -0.42267025 0.87875736 0.15053035 0.1679343
00000000: 5a3e 853d 9441 5f3f 92aa 103f 66d8 3d3f
00000010: 97b8 17bf 5346 643f 8f77 ef3e 8396 b83f
00000020: 2b7a 703e 5b71 a63d 9889 ff3e bff8 243f
00000030: 3c68 d8be 3ef6 603f a124 1a3e f8f6 2b3e

bn1.running_mean f4 [16]
0.35240147 0.06565521 -0.23534647 -0.34175813 0.41315132 -0.13428414 0.0006171937 -0.21945007
0.6519499 -0.16295257 0.16500431 0.16964361 0.52276963 -0.05618101 -0.44996125 0.1865491
00000000: f76d b43e 3d76 863d aafe 70be ecfa aebe
00000010: 9288 d33e c881 09be 2bcb 213a 85b7 60be
00000020: 30e6 263f 0add 26be e4f6 283e 0eb7 2d3e
00000030: 3bd4 053f 0f1e 66bd 5261 e6be ba06 3f3e

bn1.running_var f4 [16]
3.5030098 4.942045 6.7282166 8.330697 5.1902122 8.570239 6.7297406 2.2222457
7.4369955 4.2380347 11.432831 6.0596447 7.770113 6.3754597 4.560294 18.8014
00000000: 5031 6040 3c25 9e40 8d4d d740 894a 0541
00000010: 3816 a640 b31f 0941 095a d740 4639 0e40
00000020: defb ed40 fb9d 8740 e0ec 3641 9ce8 c140
00000030: c4a4 f840 c403 cc40 eeed 9140 4469 9641

layer1.0.conv1.weight f4 [16, 16, 3, 3]
0.09573165 0.10911956 0.049559724 -0.061865896 0.049307894 -0.03401744 -0.017607955 0.0036873308
-0.07987972 0.101458766 0.11265299 0.00499374 -0.33420736 -0.44090325 -0.38009384 0.106081046
0.2849631 0.12058623 -0.035806913 0.29887402 -0.03797749 -0.20358376 0.27901638 0.04833441
-0.32623988 -0.3766753 -0.2865854 0.0005040978 0.1071683 0.038465418 0.011884135 0.12611395
-0.04037449 -0.0036000332 0.039915383 -0.110599004 0.09983847 0.073861815 -0.098809384 0.019152898
-0.017054398 -0.12495709 -0.0560253 -0.048867017 0.01147237 -0.11792075 -0.27892578 -0.15574184
-0.34095305 -0.112650424 0.35515383 -0.33621243 -0.15372214 0.23637104 -0.013809026 -0.1251019
-0.11742394 0.04387708 0.0060312278 -0.048174974 0.095808536 0.16388555 -0.00020042769 -0.020446429
-0.15388519 -0.046842966 -0.090750314 0.18452612 0.08680252 -0.07937921 0.16241714 0.0060231057
0.18136804 0.06967796 0.01900654 0.14648688 0.044768848 0.012135471 0.021970425 -0.03013968
-0.08488618 -0.19598596 -0.23613696 -0.16347763 -0.07943176 0.04342489 -0.048276324 -0.06259833
0.14441839 -0.05226555 0.046151143 -0.122364506 -0.18001994 -0.070709236 -0.32598692 -0.37694287
0.1708773 -0.100448325 -0.20770463 0.16558461 -0.16918199 0.11471639 0.037911143 -0.44811663
0.088125415 -0.067278326 -0.2786183 0.03797034 0.07195279 0.06404772 0.065354034 0.13370392
0.03661958 -0.0045793154 0.12433967 0.031351123 -0.032680422 0.19776824 0.08704529 0.17632596
0.2446054 0.116717376 -0.15472022 0.11940594 0.06460339 -0.036611084 0.07297189 0.14275385
0.021837112 0.095468216 0.24446414 -0.117746085 -0.052059688 -0.12895954 -0.19894423 -0.102259226
-0.31939754 -0.078413144 -0.031776287 -0.23523952 -0.21968308 -0.013209112 -0.1382884 -0.08247992
0.013842766 0.038954075 -0.011989475 -0.0146939615 0.10407387 0.09242038 -0.15354577 -0.0031877654
0.01644669 -0.09576551 -0.09973317 -0.016913233 0.12292849 0.04538245 0.07307287 -0.062104084
-0.1501511 -0.16225278 -0.055448867 -0.06689837 -0.16351156 -0.013681123 -0.06328407 -0.10773733
-0.15959592 -0.0967631 -0.1890295 0.013739375 0.006987215 0.0054693483 0.02723866 0.036754034
0.071950294 -0.049314555 -0.02231931 0.039042097 -0.022193864 -0.08268983 -0.08070316 0.013195127
-0.02535166 -0.0015017902 -0.0363068 -0.009067572 0.033395853 0.10903852 0.16822995 0.06284777
0.10239575 0.14864413 -0.06774311 0.06701246 0.12854883 -0.063851684 -0.0528532 -0.06293636
-0.012596982 -0.09781872 -0.054323167 -0.007111435 -0.095773585 -0.06454057 -0.017781913 -0.091249615
0.23114033 0.118203044 -0.03902904 0.10062603 0.056731466 -0.003579549 -0.005283821 -0.069847725
-0.031978283 0.024536861 -0.05607118 0.026010064 0.1745111 0.08489015 -0.051893655 -0.0007253701
0.017559867 0.0071797557 0.025800794 0.022115055 -0.035513777 -0.047778673 -0.033025336 0.017541876
0.039840903 0.06840682 -0.0023028192 0.18231486 0.15094213 -0.01977961 0.09606265 0.1372264
-0.04857523 -0.04235108 -0.073389195 0.17750861 0.15851574 0.020528987 0.06605767 0.32884768
0.21656972 0.06282996 0.33969957 0.28692237 0.02268323 0.063620165 0.016223809 0.053706378
00000000: f50e c43d 137a df3d 23ff 4a3d 1867 7dbd
00000010: 13f7 493d df55 0bbd 8f3e 90bc 25a7 713b
00000020: fb97 a3bd 9dc9 cf3d 9cb6 e63d 87a2 a33b
00000030: 3a1d abbe 12be e1be a99b c2be 0541 d93d
00000040: afe6 913e eaf5 f63d 45aa 12bd 0406 993e
00000050: 498e 1bbd 4378 50be 3cdb 8e3e 4dfa 453d
00000060: ea08 a7be 96db c0be 52bb 92be 6e25 043a
00000070: 0e7b db3d ea8d 1d3d adb5 423c 0424 013e
00000080: b95f 25bd 89ee 6bbb 507e 233d bb81 e2bd
00000090: 1d78 cc3d dd44 973d 935c cabd 8ae6 9c3c
000000a0: aab5 8bbc 81e9 ffbd c97a 65bd c828 48bd
000000b0: 9bf6 3b3c 6f80 f1bd 5ccf 8ebe ca7a 1fbe
000000c0: 6691 aebe 44b5 e6bd b9d6 b53e 0924 acbe
000000d0: 5669 1dbe 400b 723e 413f 62bc b61a 00be
000000e0: f67b f0bd 74b8 333d 9ba1 c53b 1f53 45bd
000000f0: 4437 c43d 9dd1 273e e629 52b9 457f a7bc
00000100: 1494 1dbe 69de 3fbd 4ddb b9bd 6af4 3c3e
00000110: 85c5 b13d 9191 a2bd ae50 263e 795d c53b
00000120: 8bb8 393e 51b3 8e3d 9ab3 9b3c a800 163e
00000130: 8a5f 373d dbd3 463c 52fb b33c 7de7 f6bc
00000140: ced8 adbd 8bb0 48be e3cd 71be ae66 27be
00000150: 1ead a2bd 4cde 313d 65bd 45bd 8e33 80bd
00000160: 6ae2 133e 6714 56bd fb08 3d3d 3e9a fabd
00000170: 2657 38be 01d0 90bd c2e7 a6be a8fe c0be
00000180: 75fa 2e3e dab7 cdbd 86b0 54be 038f 293e
00000190: 0b3e 2dbe 6df0 ea3d b748 1b3d 8b6f e5be
000001a0: 197b b43d 38c9 89bd 0fa7 8ebe ca86 1b3d
000001b0: fc5b 933d 732b 833d 56d8 853d aee9 083e
000001c0: 6afe 153d 150e 96bb cca5 fe3d 096a 003d
000001d0: e8db 05bd c283 4a3e cd44 b23d cb8e 343e
000001e0: d779 7a3e 8509 ef3d fa6e 1ebe 1a8b f43d
000001f0: c84e 843d 81f5 15bd 4972 953d 112e 123e
00000200: bee3 b23c d784 c33d cf54 7a3e dc24 f1bd
00000210: 8a3c 55bd f80d 04be 09b8 4bbe 496d d1bd
00000220: 1388 a3be 1297 a0bd da27 02bd a1e2 70be
00000230: 9af4 60be 086b 58bc 799b 0dbe 3beb a8bd
00000240: c5cc 623c 4f8e 1f3d 816f 44bc f1be 70bc
00000250: ae24 d53d e546 bd3d 1a3b 1dbe d4e9 50bb
00000260: 35bb 863c b520 c4bd e740 ccbd 9f8d 8abc
00000270: efc1 fb3d f3e2 393d 3ba7 953d da60 7ebd
00000280: 36c1 19be 9825 26be 5a1e 63bd 0302 89bd
00000290: 936f 27be ca26 60bc 149b 81bd 64a5 dcbd
000002a0: 1d6d 23be bb2b c6bd f390 41be 1e1b 613c
000002b0: 02f5 e43b 3838 b33b 9c23 df3c 668b 163d
000002c0: ad5a 933d 0ffe 49bd fcd6 b6bc 9bea 1f3d
000002d0: e8cf b5bc 4959 a9bd b347 a5bd 6030 583c
000002e0: 49ae cfbc b8d7 c4ba 70b6 14bd 2790 14bc
000002f0: 17ca 083d 964f df3d 7944 2c3e 55b6 803d
00000300: ddb4 d13d 2b36 183e e6bc 8abd d43d 893d
00000310: 4ea2 033e acc4 82bd 997c 58bd c7e4 80bd
00000320: 9263 4ebc 2e55 c8bd f881 5ebd 0a07 e9bb
00000330: f124 c4bd d92d 84bd 60ab 91bc 14e1 babd
00000340: 0db0 6c3e 7014 f23d eadc 1fbd 0515 ce3d
00000350: 415f 683d de96 6abb e723 adbb 530c 8fbd
00000360: a9fb 02bd 8701 c93c e5aa 65bd 0f13 d53c
00000370: 0ab3 323e e3da ad3d 718e 54bd c326 3eba
00000380: b6d9 8f3c 2844 eb3b 305c d33c a22a b53c
00000390: e576 11bd 92b3 43bd 9345 07bd fbb3 8f3c
000003a0: 3730 233d e018 8c3d e5ea 16bb bfb0 3a3e
000003b0: 9390 1a3e d908 a2bc 7fbc c43d 1485 0c3e
000003c0: d2f6 46bd 5378 2dbd 134d 96bd d1c4 353e
000003d0: f351 223e 682c a83c 3e49 873d b95e a83e
000003e0: 74c4 5d3e feac 803d 1aed ad3e 7de7 923e
000003f0: 2ed2 b93c 4a4b 823d cbe7 843c 38fb 5b3d

layer1.0.conv1.bias f4 [16]
0.0014284618 -0.0065503814 -0.0027377168 0.0015962906 -0.008232525 -0.007274477 0.0012553736 -0.0027311451
0.003684979 -0.0026026424 0.0044795913 0.0017359846 -0.009509417 0.0019304969 0.0073543424 -0.004167226
00000000: 393b bb3a 95a4 d6bb 446b 33bb a03a d13a
00000010: b6e1 06bc bc5e eebb 598b a43a 03fd 32bb
00000020: b07f 713b 1891 2abb 89c9 923b fa89 e33a
00000030: 63cd 1bbc ba08 fd3a b2fc f03b 3a8d 88bb

layer1.0.bn1.weight f4 [16]
0.85658264 0.5625655 0.5245894 0.50864726 0.63674515 0.7019117 0.5854046 0.72862315
0.6337279 0.5287477 0.9160076 0.81189996 0.70994586 0.39460662 0.8438459 0.70451397
00000000: 0049 5b3f 4b04 103f 7e4b 063f b536 023f
00000010: bb01 233f 7cb0 333f 13dd 153f 0c87 3a3f
00000020: fe3b 223f 025c 073f 797f 6a3f add8 4f3f
00000030: 03bf 353f e109 ca3e 4906 583f 075b 343f

layer1.0.bn1.bias f4 [16]
-0.06512166 -0.092696786 -0.017345406 0.26764163 0.13700762 -0.4541636 0.02675685 -0.24475376
-0.07421527 0.6416381 -0.62271196 1.1324005 -0.30295444 0.13178459 -0.23662174 -0.617736
00000000: 815e 85bd d0d7 bdbd f417 8ebc 5308 893e
00000010: ba4b 0c3e 2288 e8be 2e31 db3c bba0 7abe
00000020: 2dfe 97bd 6542 243f 0d6a 1fbf 80f2 903f
00000030: d81c 9bbe 8af2 063e f84c 72be f223 1ebf

layer1.0.bn1.running_mean f4 [16]
-2.153825 1.8153056 -0.5225295 -1.6129154 -2.8272219 2.3886917 0.6742635 -4.3715444
-2.681783 -1.5226051 2.0122519 -2.05286 2.4247537 -0.8479052 -0.42840993 2.1495767
00000000: 45d8 09c0 ef5b e83f 7ec4 05bf 0374 cebf
00000010: 34f1 34c0 53e0 1840 889c 2c3f b1e3 8bc0
00000020: 55a2 2bc0 b9e4 c2bf bcc8 0040 0f62 03c0
00000030: 2a2f 1b40 5110 59bf 8c58 dbbe aa92 0940

layer1.0.bn1.running_var f4 [16]
5.6909094 1.6757417 2.0653775 2.2888389 5.13229 2.7314613 3.5957978 3.471201
2.5185902 1.7377502 3.1422784 3.6607497 3.1159344 2.8608453 4.125455 1.8926827
00000000: ee1b b640 b47e d63f 252f 0440 567c 1240
00000010: b83b a440 43d0 2e40 8d21 6640 2828 5e40
00000020: 9530 2140 996e de3f 171b 4940 b949 6a40
00000030: 786b 4740 1718 3740 ba03 8440 6d43 f23f

layer1.0.conv2.weight f4 [16, 16, 3, 3]
-0.058267333 0.024629535 0.08452199 -0.101120256 -0.037848644 -0.002531539 -0.02198966 0.020000672
0.040148687 0.009356021 0.07882192 -0.014831274 0.0944994 0.18285738 0.024429 0.021136045
0.04348385 -0.049766943 -0.16563702 -0.097424276 -0.03993093 -0.073048264 0.021377724 0.05790214
-0.04800537 0.07580397 0.112944394 0.12973873 -0.121713266 -0.26880985 0.24115866 0.03842755
-0.20256814 0.12758774 0.06212013 -0.101096846 -0.055733487 -0.039515223 0.0768755 -0.19122382
-0.0967548 -0.004602935 -0.23162988 -0.094747104 -0.0011845398 -0.00040585126 0.0012182023 -0.08750402
-0.03985971 -0.13038582 -0.1796753 -0.0523585 -0.19706076 -0.13051957 -0.1140553 -0.036186382
-0.08279629 0.04201362 0.1097123 0.06051995 0.06459846 0.03930384 -0.027605982 -0.03828349
-0.077655785 -0.037955742 -0.17952013 -0.23056343 -0.19290708 -0.2274692 -0.22919266 -0.16328102
-0.010566568 -0.06776938 0.027712243 -0.094370626 -0.121910915 -0.04450484 -0.09549339 -0.049320273
-0.0012891638 -0.13483869 0.03066532 0.2703514 -0.25978228 -0.2085216 0.12049397 -0.10403328
0.06730817 0.25737116 -0.12598988 -0.23911136 -0.18329199 0.041527107 -0.12135279 -0.038965028
-0.023537977 -0.124918826 -0.011688741 -0.07420234 -0.23732993 -0.32539642 0.042419665 0.010979077
-0.13062124 0.31128475 0.34645733 0.12957215 -0.11119742 0.036871605 0.06446085 -0.08464139
-0.07497286 0.032412276 -0.2261823 -0.22334377 -0.1842877 -0.19277737 -0.09234475 -0.05632466
-0.103947796 -0.10047013 -0.11906711 0.06015829 0.034841582 -0.01384782 0.19928539 0.2591481
0.03912221 0.4591895 0.54412943 0.1322117 0.4447389 0.4341366 -0.081254795 0.086355045
0.109629504 0.08239473 -0.013083162 -0.046120696 -0.04954789 0.0174633 -0.02417815 -0.0032082794
0.13680878 0.4218032 0.13785844 -0.18003167 -0.1476011 -0.11063778 0.094034925 0.016738817
-0.040466875 0.036227833 0.15888058 -0.011904197 0.027895361 0.041488845 0.023518972 0.07047844
0.13936396 0.107665785 -0.019115033 0.10726998 -0.017302621 -0.12215185 -0.028297156 -0.06372007
-0.0067099477 -0.11642286 -0.06727509 0.20366174 0.20476961 0.09620953 -0.02685213 -0.012048333
0.0040694443 -0.09655988 -0.23249786 0.00696454 -0.074076734 0.05890038 0.08300182 0.010677533
-0.064714305 0.02182918 0.13689776 0.020904846 0.09615982 -0.04511614 0.045620307 0.01401789
-0.10190736 0.012896424 -0.015402238 -0.20700379 -0.11286756 -0.20295517 0.06889432 -0.102042735
-0.03123173 0.10330172 -0.056352936 0.025777048 -0.0883794 -0.09395844 -0.008158265 0.0081349965
0.10715745 0.08798576 0.13574135 0.1114007 0.10831218 0.1556826 0.17405826 0.094491296
0.04492328 0.24329346 0.16142482 -0.16112906 -0.10002221 -0.07543006 0.10831709 0.0756766
-0.010998741 -0.11056795 0.23583564 0.2841204 0.074051976 0.05940293 -0.124786 0.17429924
0.030003548 0.030866228 -0.022964643 0.107889116 -0.017300125 0.0016445123 0.038177192 -0.037361823
0.0048212153 0.028875751 -0.074381396 -0.01749775 0.43989617 0.0501298 -0.23771447 -0.35135162
0.07799358 0.5770283 -0.011549318 0.13567515 -0.1097552 -0.12759216 -0.089788735 -0.052576944
00000000: baa9 6ebd e1c3 c93c dd19 ad3d 2318 cfbd
00000010: 2e07 1bbd 2de8 25bb a923 b4bc 73d8 a33c
00000020: f372 243d ff49 193c 636d a13d dffe 72bc
00000030: e788 c13d f73e 3b3e 541f c83c 8025 ad3c
00000040: 1f1c 323d 6cd8 4bbd c09c 29be 6186 c7bd
00000050: 9d8e 23bd 549a 95bd 5620 af3c cb2a 6d3d
00000060: 47a1 44bd 1d3f 9b3d 644f e73d 3bda 043e
00000070: ce44 f9bd 72a1 89be 4cf2 763e 3566 1d3d
00000080: 066e 4fbe 5ca6 023e ad71 7e3d dd0b cfbd
00000090: cc48 64bd b7da 21bd e770 9d3d 2dd0 43be
000000a0: 6127 c6bd 38d4 96bb 6230 6dbe c50a c2bd
000000b0: 8f42 9bba 6fc8 d4b9 16ac 9f3a 4f35 b3bd
000000c0: ef43 23bd dc83 05be cdfc 37be de75 56bd
000000d0: 4cca 49be eca6 05be d395 e9bd 2c38 14bd
000000e0: 1a91 a9bd 7916 2c3d d8b0 e03d c4e3 773d
000000f0: 334c 843d 10fd 203d f125 e2bc 26cf 1cbd
00000100: ff09 9fbd 7b77 1bbd 20d4 37be d218 6cbe
00000110: 6f89 45be b0ed 68be 7bb1 6abe 2433 27be
00000120: 661f 2dbc acca 8abd c904 e33c 6345 c1bd
00000130: 6eac f9bd b54a 36bd 0a92 c3bd 0e04 4abd
00000140: 29f9 a8ba 2713 0abe d635 fb3c 806b 8a3e
00000150: 2f02 85be b086 55be 8bc5 f63d 660f d5bd
00000160: ded8 893d 27c6 833e 7e03 01be 9cd9 74be
00000170: e5b0 3bbe 5418 2a3d d087 f8bd cb99 1fbd
00000180: b7d2 c0bc 71d5 ffbd 2282 3fbc 65f7 97bd
00000190: 9e06 73be 5c9a a6be 3ec0 2d3d 96e1 333c
000001a0: 93c1 05be b760 9f3e db62 b13e 90ae 043e
000001b0: 79bb e3bd ae06 173d 0d04 843d 7758 adbd
000001c0: 5f8b 99bd bcc2 043d 559c 67be 3bb4 64be
000001d0: eab5 3cbe 6e67 45be 3f1f bdbd b0b4 66bd
000001e0: 95e2 d4bd 49c3 cdbd 75d9 f3bd 8a68 763d
000001f0: 0cb6 0e3d f8e1 62bc 7811 4c3e 0faf 843e
00000200: 9c3e 203d e31a eb3e 114c 0b3f 8162 073e
00000210: d1b4 e33e 2747 de3e ea68 a6bd eada b03d
00000220: 6f85 e03d 91be a83d c25a 56bc 0ee9 3cbd
00000230: baf2 4abd 320f 8f3c 4111 c6bc ff41 52bb
00000240: 9a17 0c3e 97f6 d73e c32a 0d3e 395a 38be
00000250: be24 17be 0f96 e2bd 6295 c03d d81f 893c
00000260: 98c0 25bd a363 143d 97b1 223e d209 43bc
00000270: d084 e43c 35f0 293d dcaa c03c 0057 903d
00000280: 6db5 0e3e e17f dc3d 2197 9cbc 5db0 db3d
00000290: 3abe 8dbc c02a fabd 70cf e7bc ab7f 82bd
000002a0: 1fdf dbbb 1c6f eebd 86c7 89bd b48c 503e
000002b0: 20af 513e 8109 c53d 00f9 dbbc 5f66 45bc
000002c0: f958 853b 30c1 c5bd eb13 6ebe cc36 e43b
000002d0: 8bb5 97bd 8641 713d dcfc a93d d2f0 2e3c
000002e0: ef88 84bd 1cd3 b23c ed2e 0c3e a440 ab3c
000002f0: 71ef c43d b4cb 38bd 5cdc 3a3d 4bab 653c
00000300: ceb4 d0bd 864b 533c ab59 7cbc cdf8 53be
00000310: 1b27 e7bd 7bd3 4fbe 7718 8d3d c8fb d0bd
00000320: afd9 ffbc da8f d33d 56d2 66bd 632a d33c
00000330: 4200 b5bd 486d c0bd 3eaa 05bc a648 053c
00000340: 5d75 db3d e131 b43d c8ff 0a3e 0d26 e43d
00000350: c7d2 dd3d 426b 1f3e 543c 323e a784 c13d
00000360: 7901 383d ec21 793e 8c4c 253e 04ff 24be
00000370: 72d8 ccbd 137b 9abd 5ad5 dd3d 55fc 9a3d
00000380: 1034 34bc 7371 e2bd e67e 713e 3b78 913e
00000390: 90a8 973d 7d50 733d cd8f ffbd 807b 323e
000003a0: 00ca f53c 2cdb fc3c 5920 bcbc f8f4 dc3d
000003b0: feb8 8dbc ad8c d73a b05f 1c3d b608 19bd
000003c0: 49fb 9d3b d78c ec3c 4655 98bd 7157 8fbc
000003d0: 123a e13e e854 4d3d 6c6b 73be 5ce4 b3be
000003e0: 19bb 9f3d 20b8 133f 5a39 3dbc 6dee 0a3e
000003f0: 56c7 e0bd 85a7 02be 28e3 b7bd ec5a 57bd

layer1.0.conv2.bias f4 [16]
-0.0039916798 0.0138379885 -0.0047476334 0.0016006522 0.0064809755 0.00427205 -0.0026403212 -0.0059627737
0.0072772247 -0.005622246 -0.008040037 0.009801926 -0.007178137 0.0038200303 -0.00040247032 0.0010639481
00000000: a3cc 82bb bbb8 623c 0992 9bbb facc d13a
00000010: 5d5e d43b 8efc 8b3b 3d09 2dbb 5f63 c3bb
00000020: c975 ee3b d13a b8bb 5cba 03bc 4298 203c
00000030: 9436 ebbb 7959 7a3b a702 d3b9 2d74 8b3a

layer1.0.bn2.weight f4 [16]
0.75175184 0.73309594 0.40940127 0.36062023 0.89771706 0.4638732 0.33779457 0.66896135
0.29595035 0.8670564 0.69885474 0.71467125 1.0000513 0.37648544 0.4574489 0.7280906
00000000: cf72 403f 2dac 3b3f 0b9d d13e 37a3 b83e
00000010: c9d0 653f ca80 ed3e 69f3 ac3e 0d41 2b3f
00000020: ce86 973e 69f7 5d3f 25e8 323f b2f4 363f
00000030: ae01 803f b3c2 c03e be36 ea3e 2564 3a3f

layer1.0.bn2.bias f4 [16]
-0.08203739 -0.031338498 0.28393188 -0.31253806 -0.33069253 -0.31138313 0.3463984 0.51018465
-0.03710733 0.074560754 -0.085456505 -0.26578912 0.31522626 0.39357358 0.042331025 0.055015396
00000000: 3803 a8bd cc5c 00bd 855f 913e fd04 a0be
00000010: 8850 a9be 9c6d 9fbe 225b b13e 769b 023f
00000020: dbfd 17bd 4fb3 983d d203 afbd 8315 88be
00000030: 5665 a13e 7a82 c93e 4c63 2d3d d357 613d

layer1.0.bn2.running_mean f4 [16]
-0.37046868 1.29731 0.52639896 -1.0827916 1.8661655 0.19018333 -0.28512406 -0.71876943
-0.6712552 0.44294363 -1.0736103 0.10237866 -0.2760548 -0.9274724 -0.179095 -0.81424934
00000000: 12ae bdbe 410e a63f 15c2 063f ea98 8abf
00000010: 83de ee3f 6bbf 423e c8fb 91be 4601 38bf
00000020: 61d7 2bbf 82c9 e23e 106c 89bf e7ab d13d
00000030: 0e57 8dbe d56e 6dbf ae64 37be a572 50bf

layer1.0.bn2.running_var f4 [16]
0.9513075 0.8928022 0.8139453 0.7583051 1.000578 0.7792271 0.6210637 0.8423222
0.7742338 1.3809395 1.0080017 1.5086386 1.052324 0.80863243 0.5790586 1.2723688
00000000: e388 733f af8e 643f b85e 503f 4820 423f
00000010: f112 803f 6d7b 473f 08fe 1e3f 6da2 573f
00000020: 3034 463f a0c2 b03f 3306 813f 121b c13f
00000030: 8eb2 863f 8902 4f3f 2f3d 143f fbdc a23f

layer1.1.conv1.weight f4 [16, 16, 3, 3]
-0.20810768 -0.16878296 -0.11031568 -0.086679436 -0.10215927 -0.21496503 0.09950896 0.105599135
-0.109799005 -0.1453033 -0.053950917 0.044488285 0.064655736 0.1976175 -0.052735392 -0.16306663
0.021722192 0.08077517 -0.018104134 0.13825333 0.07134143 -0.16946897 -0.25554234 -0.12558112
-0.061059505 -0.07144692 -0.10183414 -0.0062815365 0.038625453 0.04280403 -0.013108391 -0.009960121
-0.008965298 -0.019191254 0.011662224 -0.017377844 -0.032532055 -0.031400573 -0.06775575 -0.052875597
-0.088126555 -0.1426579 0.16274121 0.12941845 0.008981709 0.064382024 0.18946794 0.04312044
0.121943034 -0.055224158 -0.092256024 0.039738614 -0.08299527 -0.171423 -0.09037216 0.0025358994
-0.026845211 -0.049761236 0.0561449 0.029754171 -0.076387905 -0.07442555 -0.06592239 0.25242612
0.40657577 -0.1927656 0.09054003 0.17074434 0.019170552 -0.27332395 -0.11601971 0.06003701
-0.016985089 -0.006066111 0.002953605 0.11584554 0.04240995 -0.077785105 0.085078396 0.064001404
0.0258107 -0.12790708 -0.037466742 -0.2417242 -0.3175524 -0.2563611 -0.30353987 -0.1734049
-0.13019925 -0.19918662 0.08203783 -0.09208161 -0.044980425 0.10246078 0.29992175 0.13162494
-0.05962526 0.099409975 0.051988874 0.079871655 -0.09387306 0.07834659 0.059180234 0.13621256
0.04842178 0.20846894 0.33870107 0.16073775 -0.036759302 -0.10008972 0.021436267 0.034328572
-0.05385863 -0.23977982 0.04229496 0.13238373 0.016213447 0.38745064 0.17742468 0.0074271997
-0.044560295 -0.07998054 0.011771788 -0.10171919 -0.27351665 -0.13218749 0.017772537 0.107255265
-0.013473043 -0.16626155 -0.10733934 -0.04189006 -0.12423202 -0.026167203 -0.0076317326 -0.010549457
-0.2455171 -0.274677 -0.18513304 0.05609836 -0.05904948 -0.14900999 0.057735268 0.05454679
0.12843096 0.0697974 0.09087845 0.0004950372 0.0216199 0.15298818 -0.18558212 -0.19675624
-0.0040003257 -0.016185354 -0.047312353 0.16222249 0.14252241 -0.090785496 0.0545708 -0.35567722
-0.21175279 -0.38192266 -0.058819633 -0.2636865 -0.22685505 0.0028432559 -0.14358628 -0.0063013462
-0.049320303 0.09310519 -0.03836813 0.026442572 -0.0829627 0.045245145 0.04039311 -0.06651
0.13779706 0.111052 0.02974732 0.1741541 0.052875508 -0.027447628 0.026940877 -0.095709935
-0.19723172 -0.22115284 -0.13326561 -0.17379865 -0.09927166 0.21631096 -0.1403904 -0.20167887
0.16821675 -0.25363278 -0.14324394 0.047372296 0.0061558094 -0.024050767 0.037967063 -0.031256657
-0.026864579 -0.057559785 -0.12056053 0.0044878162 -0.12659813 -0.13282351 -0.019126486 -0.040410426
-0.12667657 -0.174815 -0.055841904 -0.18670148 0.19787166 0.29634044 0.2233663 -0.012524309
0.1533553 0.111014456 -0.041237306 0.20610218 0.15490244 -0.021421649 -0.15076444 -0.18129897
-0.08443097 0.0012097015 -0.19207384 -0.018962469 -0.22094685 -0.2918957 -0.29780525 -0.045080826
-0.20074284 -0.21855718 -0.24728996 0.042952567 0.15031366 -0.08870757 0.28325132 0.09178313
-0.2168526 -0.31679562 -0.2283536 -0.105050534 -0.049296625 -0.22173364 -0.120490484 0.08317262
-0.25707722 -0.021618845 -0.2273328 -0.21838276 -0.21711186 -0.010389505 -0.14914867 -0.06340014
00000000: 2e1a 55be 71d5 2cbe 30ed e1bd fd84 b1bd
00000010: e138 d1bd cb1f 5cbe 5bcb cb3d 5c44 d83d
00000020: 4dde e0bd 63ca 14be a3fb 5cbd 5939 363d
00000030: 3a6a 843d 3e5c 4a3e 1101 58bd f0fa 26be
00000040: bdf2 b13c 746d a53d 1f4f 94bc 4892 0d3e
00000050: 751b 923d 4689 2dbe 72d6 82be 5698 00be
00000060: 8819 7abd c352 92bd 6b8e d0bd 59d5 cdbb
00000070: b935 1e3d 4753 2f3d 94c4 56bc c62f 23bc
00000080: 2fe3 12bc fa36 9dbc ea12 3f3c fb5b 8ebc
00000090: 5540 05bd e39d 00bd 87c3 8abd 1594 58bd
000000a0: b27b b4bd ea14 12be a2a5 263e 4586 043e
000000b0: 0528 133c b9da 833d e203 423e 0f9f 303d
000000c0: 45bd f93d ba32 62bd baf0 bcbd f5c4 223d
000000d0: 6df9 a9bd 8389 2fbe 0a15 b9bd 5531 263b
000000e0: 7dea dbbc 70d2 4bbd 32f8 653d 05bf f33c
000000f0: 4371 9cbd 6c6c 98bd 5102 87bd ff3d 813e
00000100: b32a d03e 5864 45be 0d6d b93d 9bd7 2e3e
00000110: 900b 9d3c 1ef1 8bbe be9b edbd 5ee9 753d
00000120: 5024 8bbc 3ac6 c6bb 4591 413b 6d40 ed3d
00000130: 0eb6 2d3d cc4d 9fbd 953d ae3d 2b13 833d
00000140: f670 d33c 13fa 02be ba76 19bd 8c86 77be
00000150: 3a96 a2be c341 83be 9469 9bbe 0e91 31be
00000160: f452 05be 94f7 4bbe 7303 a83d 4895 bcbd
00000170: 653d 38bd f5d6 d13d 588f 993e b0c8 063e
00000180: 9e39 74bd 7597 cb3d 49f2 543d c093 a33d
00000190: 8540 c0bd 2d74 a03d f966 723d 4e7b 0b3e
000001a0: eb55 463d e278 553e 3a6a ad3e 7098 243e
000001b0: ec90 16bd d7fb ccbd 1c9b af3c 1e9c 0c3d
000001c0: de9a 5cbd d788 75be 7b3d 2d3d 9a8f 073e
000001d0: 10d2 843c ee5f c63e d1ae 353e de5f f33b
000001e0: db84 36bd d6cc a3bd 75de 403c 2752 d0bd
000001f0: 600a 8cbe 285c 07be b697 913c a6a8 db3d
00000200: 0abe 5cbc 7840 2abe bad4 dbbd e994 2bbd
00000210: 5b6d febd 9a5c d6bc 9d13 fabb a1d7 2cbc
00000220: d668 7bbe 77a2 8cbe 8493 3dbe 65c7 653d
00000230: dedd 71bd 1396 18be d17b 6c3d 746c 5f3d
00000240: 6883 033e f0f1 8e3d 7b1e ba3d 62c5 013a
00000250: 371c b13c efa8 1c3e 3d09 3ebe 787a 49be
00000260: 2a15 83bb 2697 84bc 99ca 41bd a71d 263e
00000270: 65f1 113e bfed b9bd a285 5f3d 531b b6be
00000280: b9d5 58be 5e8b c3be dbec 70bd eb01 87be
00000290: b14c 68be eb55 3a3b 4808 13be 867b cebb
000002a0: 1604 4abd efad be3d e627 1dbd 189e d83c
000002b0: 59e8 a9bd f952 393d 3f73 253d 6536 88bd
000002c0: ac1a 0d3e 3b6f e33d a7b0 f33c 7455 323e
000002d0: fd93 583d d9d9 e0bc 1db3 dc3c 9203 c4bd
000002e0: 1df7 49be e475 62be c876 08be 46f8 31be
000002f0: f14e cbbd 9f80 5d3e 80c2 0fbe e884 4ebe
00000300: 0341 2c3e 28dc 81be 8aae 12be 7409 423d
00000310: acb6 c93b 1d06 c5bc 5a83 1b3d fb06 00bd
00000320: 1b13 dcbc cfc3 6bbd 70e8 f6bd 880e 933b
00000330: f1a2 01be e302 08be 26af 9cbc 6785 25bd
00000340: 81b7 01be b402 33be 7bba 64bd ac2e 3fbe
00000350: de9e 4a3e efb9 973e 23ba 643e c232 4dbc
00000360: 2c09 1d3e 8c5b e33d 73e8 28bd 730c 533e
00000370: bf9e 1e3e 747c afbc fe61 1abe 70a6 39be
00000380: 25ea acbd d98e 9e3a 01af 44be 2e57 9bbc
00000390: e43f 62be 5a73 95be ee79 98be aca6 38bd
000003a0: 888f 4dbe 74cd 5fbe 9439 7dbe 08ef 2f3d
000003b0: d3eb 193e 51ac b5bd 5106 913e cbf8 bb3d
000003c0: 9c0e 5ebe 0933 a2be 87d5 69be bc24 d7bd
000003d0: 42eb 49bd 250e 63be b7c3 f6bd 6856 aa3d
000003e0: a09f 83be 011a b1bc eec9 68be bb9f 5fbe
000003f0: 9252 5ebe be38 2abc 6eba 18be efd7 81bd

layer1.1.conv1.bias f4 [16]
-0.001228759 -0.007992735 0.0057515376 0.0005477079 -0.006277673 0.00763801 -0.007914452 -0.00841061
-0.0085426755 -0.004171726 0.0070586656 -0.0015546031 0.009871452 -0.0010304617 -0.0081660105 0.00045084913
00000000: 4f0e a1ba f6f3 02bc 6577 bc3b 0e94 0f3a
00000010: f0b4 cdbb 4648 fa3b 9eab 01bc a8cc 09bc
00000020: 94f6 0bbc f9b2 88bb 614c e73b d3c3 cbba
00000030: dfbb 213c 8f10 87ba bbca 05bc f25f ec39

layer1.1.bn1.weight f4 [16]
0.5972348 0.80440646 0.7216991 0.80126506 0.784588 0.6060902 0.7791152 0.53108263
0.607006 0.6823533 0.7565132 0.7268438 0.6982766 0.7369004 0.61450833 0.77070004
00000000: 61e4 183f 95ed 4d3f 46c1 383f b51f 4d3f
00000010: c2da 483f ba28 1b3f 1874 473f 08f5 073f
00000020: bf64 1b3f b5ae 2e3f d9aa 413f 6f12 3a3f
00000030: 41c2 323f 81a5 3c3f 6b50 1d3f 994c 453f

layer1.1.bn1.bias f4 [16]
0.039481062 0.12758371 -0.37216306 -0.110805094 -0.08692087 -0.27509376 -0.4859384 -0.3308093
0.20622091 -0.1934033 -0.22907627 -0.33911493 -0.18866125 -0.64478576 0.21974336 0.15065266
00000000: e5b6 213d 4ea5 023e 288c bebe c8ed e2bd
00000010: 9203 b2bd 17d9 8cbe ebcc f8be d65f a9be
00000020: 932b 533e 840b 46be f892 6abe 79a0 adbe
00000030: 6a30 41be ae10 25bf 6704 613e b144 1a3e

layer1.1.bn1.running_mean f4 [16]
-1.0710502 -4.426396 -2.521374 -3.015673 -0.60882974 -0.8119018 -0.04635252 1.1226574
-0.8019661 -1.921382 -3.1017814 0.26079795 -0.18458082 2.412517 -3.03302 -3.9317844
00000000: 2c18 89bf 09a5 8dc0 315e 21c0 c900 41c0
00000010: 44dc 1bbf ccd8 4fbf 24dc 3dbd 3db3 8f3f
00000020: a64d 4dbf d8ef f5bf 9683 46c0 4f87 853e
00000030: c102 3dbe ae66 1a40 001d 42c0 5ba2 7bc0

layer1.1.bn1.running_var f4 [16]
4.359053 8.222099 4.0743446 6.0100484 9.266334 2.4813998 5.24329 1.9721727
4.2265964 4.298538 5.6824794 4.0843687 3.1140494 2.1963606 4.330632 7.83505
00000000: 5d7d 8b40 b88d 0341 0861 8240 5152 c040
00000010: e742 1441 41cf 1e40 08c9 a740 2870 fc3f
00000020: 4740 8740 a08d 8940 dfd6 b540 26b3 8240
00000030: 964c 4740 2c91 0c40 8a94 8a40 bbb8 fa40

layer1.1.conv2.weight f4 [16, 16, 3, 3]
-0.07818602 -0.064186856 0.017203907 -0.1938315 -0.09899472 0.031767454 -0.007303196 -0.063380726
-0.061497997 0.17829913 0.1866856 0.11926969 0.043922015 -0.06495896 -0.048266806 -0.059075534
-0.035016716 -0.034533516 -0.039801642 -0.071769126 -0.058533657 -0.0026010652 -0.028451907 -0.030752918
0.117002316 0.08576168 0.056012142 0.08891992 -0.042406946 -0.11250053 0.12914413 0.060261536
0.052785665 -0.063312344 -0.018532358 0.09678089 -0.12550066 0.038898274 0.07470741 -0.019342035
0.048968118 0.11562708 0.045899954 0.048605736 0.031881806 -0.015346467 -0.026394539 -0.048654955
-0.04812177 -0.01596715 -0.097085096 -0.0407772 0.048415594 0.09404313 -0.01623923 -0.06593549
-0.14426221 -0.19366373 -0.23828661 -0.32258195 -0.26159364 -0.25660026 -0.31345245 -0.04612777
0.012997581 -0.018051181 -0.022573717 0.008651484 -0.019546157 -0.029216852 -0.03245969 -0.020903463
-0.15723683 -0.08661454 0.036097772 -0.14810526 -0.06807829 0.0007156239 0.11154295 0.06138472
0.103352115 0.024120238 0.08882182 0.056905415 0.0098257195 0.047853578 -0.02259618 -0.035809487
0.007326482 0.028326975 0.008565978 0.011282368 -0.024205655 0.14728436 0.07392181 0.029701222
0.16157296 0.010689239 0.06637238 0.096838914 0.11374499 -0.049727682 0.04231043 0.2108512
0.2224646 -0.115934044 0.03131541 0.12492343 -0.034355935 -0.12168909 -0.08930511 -0.0002948854
-0.06187255 -0.066464454 0.13442148 0.16381738 0.16874418 -0.055221405 -0.089502215 0.012220613
-0.16585171 -0.17062174 -0.11897076 -0.063548945 -0.08738384 -0.043707415 -0.110751666 -0.015850563
-0.08884785 -0.064435214 -0.06874383 -0.04708616 0.08641271 0.053725928 0.06595469 0.050526466
0.022583766 -0.04137978 0.040273663 -0.0808682 -0.14403456 0.064593814 -0.044074405 -0.0909004
-0.015535773 -0.092799366 -0.19893633 -0.058213282 -0.10652331 -0.12452995 -0.027280474 -0.025681209
0.056940008 0.0011248615 -0.16641077 -0.009639895 -0.05137546 -0.10014736 -0.10832066 -0.0001690424
0.087278105 -0.020664703 0.142347 0.09051902 -0.047812905 0.06835933 0.030825468 -0.07575114
-0.13551958 -0.059576303 -0.019735437 0.1862396 0.12553917 0.13036871 0.19604896 0.0067799403
-0.10564078 -0.0630517 -0.1805001 -0.29140922 0.03299139 -0.13039002 -0.0897532 0.009399096
-0.15701324 -0.14513022 -0.02305087 -0.0932086 -0.16412145 -0.15849158 0.13004681 0.17505236
0.036210023 0.058868248 0.13914236 0.1404987 0.016870609 -0.03391102 0.0025828439 -0.0074005285
-0.051810976 -0.08761552 -0.09559527 -0.12454156 0.05295752 -0.020765183 -0.060301524 -0.07000107
-0.12335459 -0.14324896 -0.13152598 -0.090587065 -0.0862057 -0.12955803 -0.122359484 -0.055867355
-0.15106104 -0.09402586 -0.12383994 -0.13754605 0.0049956576 0.06463464 0.07068382 0.09667051
0.046830572 0.1282058 0.18296498 -0.055827707 -0.022856161 -0.11986261 -0.0772088 -0.01025089
-0.032905817 0.07215203 -0.2264837 -0.113768555 0.2397661 -0.3619254 0.02168676 0.10119799
0.09951605 0.1353273 0.05768331 -0.050281737 0.15351169 0.020581797 -0.22867106 -0.17286128
-0.037983123 -0.14783582 -0.12022995 -0.089238144 -0.22734296 0.04405041 0.049212202 -0.05504388
00000000: fe1f a0bd 6674 83bd 35ef 8c3c c47b 46be
00000010: bebd cabd 971e 023d a64f efbb c1cd 81bd
00000020: 53e5 7bbd 0c94 363e 832a 3f3e ab43 f43d
00000030: 92e7 333d 3409 85bd 6ab3 45bd 30f9 71bd
00000040: b06d 0fbd 0473 0dbd 0c07 23bd b1fb 92bd
00000050: fdc0 6fbd a276 2abb f913 e9bc 8bed fbbc
00000060: e99e ef3d d2a3 af3d fd6c 653d a61b b63d
00000070: e8b2 2dbd ae66 e6bd 5c3e 043e cdd4 763d
00000080: c835 583d e7a9 81bd 2cd1 97bc 0f35 c63d
00000090: 3f83 00be cc53 1f3d 3300 993d 3073 9ebc
000000a0: cb92 483d e4cd ec3d 9701 3c3d cf16 473d
000000b0: 7f96 023d bf6f 7bbc 5c39 d8bc 6b4a 47bd
000000c0: 551b 45bd 8acd 82bc 8dd4 c6bd fe05 27bd
000000d0: 6e4f 463d af99 c03d 2208 85bc 3009 87bd
000000e0: 79b9 13be c94f 46be 6801 74be 7629 a5be
000000f0: 9aef 85be 1c61 83be d77c a0be 79f0 3cbd
00000100: cef3 543c 12e0 93bc 84ec b8bc f4be 0d3c
00000110: 431f a0bc 2e58 efbc 74f4 04bd bd3d abbc
00000120: b102 21be f762 b1bd 42db 133d e8a8 17be
00000130: a16c 8bbd b598 3b3a a170 e43d 8b6e 7b3d
00000140: 46aa d33d ce97 c53c 37e8 b53d a715 693d
00000150: 0efc 203c 1d02 443d a01b b9bc f8ac 12bd
00000160: fc12 f03b f90d e83c 5158 0c3c aed9 383c
00000170: f04a c6bc b6d1 163e 5164 973d fa4f f33c
00000180: 6273 253e eb21 2f3c 3eee 873d 7b53 c63d
00000190: 22f3 e83d 41af 4bbd b44d 2d3d 61e9 573e
000001a0: c3cd 633e d46e edbd 9644 003d dbd7 ff3d
000001b0: cfb8 0cbd 2138 f9bd 99e5 b6bd d99a 9ab9
000001c0: 126e 7dbd 841e 88bd c9a5 093e bebf 273e
000001d0: 46cb 2c3e d72f 62bd f04c b7bd f738 483c
000001e0: 08d5 29be 77b7 2ebe f1a6 f3bd f325 82bd
000001f0: 4cf6 b2bd 8c06 33bd c5d1 e2bd 0ad9 81bc
00000200: ddf5 b5bd 9cf6 83bd 91c9 8cbd 6bdd 40bd
00000210: 26f9 b03d b80f 5c3d 4113 873d d7f4 4e3d
00000220: 9701 b93c d87d 29bd fff5 243d 3a9e a5bd
00000230: cc7d 13be c349 843d 5d87 34bd fd29 babd
00000240: c189 7ebc 980d bebd f7b5 4bbe 0d71 6ebd
00000250: e528 dabd 8f09 ffbd 4d7b dfbc 6661 d2bc
00000260: ed39 693d 1770 933a 9667 2abe a6f0 1dbc
00000270: 136f 52bd 0f1a cdbd 39d7 ddbd f940 31b9
00000280: ddbe b23d 0649 a9bc 69c3 113e 0962 b93d
00000290: 77d7 43bd faff 8b3d b185 fc3c 6a23 9bbd
000002a0: a5c5 0abe 4806 74bd 36ac a1bc 98b5 3e3e
000002b0: 578d 003e 607f 053e 0fc1 483e 432a de3b
000002c0: 315a d8bd 4021 81bd 05d5 38be 9733 95be
000002d0: fb21 073d f684 05be 87d0 b7bd aafe 193c
000002e0: 14c8 20be 049d 14be 2ed5 bcbc 27e4 bebd
000002f0: 740f 28be 9e4b 22be fe2a 053e ed40 333e
00000300: f650 143d d51f 713d 567b 0e3e e4de 0f3e
00000310: 3b34 8a3c 48e6 0abd ee44 293b 2280 f2bb
00000320: bf37 54bd c46f b3bd 74c7 c3bd a50f ffbd
00000330: fce9 583d bf1b aabc bbfe 76bd b95c 8fbd
00000340: 55a1 fcbd dbaf 12be bfae 06be b685 b9bd
00000350: 9d8c b0bd dcaa 04be 9c97 fabd 2bd5 64bd
00000360: bfaf 1abe a190 c0bd cb9f fdbd dfd8 0cbe
00000370: 9db2 a33b 2b5f 843d aec2 903d 30fb c53d
00000380: 6ad1 3f3d 6248 033e 2c5b 3b3e 98ab 64bd
00000390: d83c bbbc 877a f5bd a61f 9ebd 59f3 27bc
000003a0: 40c8 06bd 72c4 933d 58eb 67be 7dff e8bd
000003b0: 3f85 753e 494e b9be 6fa8 b13c e440 cf3d
000003c0: 12cf cb3d 3d93 0a3e 5645 6c3d 39f4 4dbd
000003d0: 2b32 1d3e 289b a83c bf28 6abe 8c02 31be
000003e0: 3194 1bbd 4662 17be 1f3b f6bd 7dc2 b6bd
000003f0: 98cc 68be 346e 343d bc92 493d b175 61bd

layer1.1.conv2.bias f4 [16]
0.0070875203 -0.0015853364 0.002274192 0.0048341774 -0.006071193 -0.0039760754 -0.009829903 -0.0024113334
-0.0019467124 0.009107345 0.0032636013 0.0015338256 -0.0034319859 -0.0028884418 0.00019820922 0.007721481
00000000: 6e3e e83b 10cb cfba 9c0a 153b 0568 9e3b
00000010: dcf0 c6bb bd49 82bb 9a0d 21bc 7607 1ebb
00000020: d428 ffba f936 153c 25e2 553b a60a c93a
00000030: 2beb 60bb 034c 3dbb 62d6 4f39 7a04 fd3b

layer1.1.bn2.weight f4 [16]
0.34286714 0.6644478 0.6164661 0.31137997 0.57019985 0.28851038 0.31871483 1.170971
0.4641635 0.93120164 0.99274075 1.1824594 1.0898435 0.3375055 0.41030136 0.49546033
00000000: 488c af3e 4019 2a3f b9d0 1d3f 326d 9f3e
00000010: 9ef8 113f a2b7 933e 972e a33e 61e2 953f
00000020: d7a6 ed3e 3b63 6e3f 4224 7e3f d45a 973f
00000030: fe7f 8b3f 85cd ac3e 0513 d23e faac fd3e

layer1.1.bn2.bias f4 [16]
-0.141369 0.1607469 0.21813372 0.051136177 0.2906292 0.19607735 0.34404457 0.20810974
0.07438309 -0.16469786 -0.36384118 -0.6770008 0.43245766 0.350749 -0.02992774 0.09318177
00000000: 09c3 10be d69a 243e 725e 5f3e 2b74 513d
00000010: 5acd 943e 80c8 483e 9c26 b03e b81a 553e
00000020: 2956 983d 8ea6 28be 6449 babe ed4f 2dbf
00000030: 176b dd3e 5f95 b33e 052b f5bc 15d6 be3d

layer1.1.bn2.running_mean f4 [16]
-0.24504223 -0.25245723 0.17855923 -0.33610272 0.20542958 -0.16185364 -0.11536226 -0.058753636
1.0043147 -0.44373402 -0.09934203 -0.20780094 -0.6763764 0.3871443 0.32691893 -0.28224468
00000000: 5aec 7abe 1342 81be 3bd8 363e a815 acbe
00000010: 225c 523e f6bc 25be 0c43 ecbd a7a7 70bd
00000020: 628d 803f 1b31 e3be d673 cbbd c5c9 54be
00000030: 0127 2dbf c737 c63e eb61 a73e 6082 90be

layer1.1.bn2.running_var f4 [16]
0.42828825 0.4317724 0.5701043 0.7348192 0.31958196 0.3931134 0.28792417 0.93864703
0.64411956 1.0765204 0.80447215 1.3700483 0.6359662 0.47979346 0.3971709 0.4300009
00000000: 9948 db3e 4611 dd3e 5bf2 113f 1c1d 3c3f
00000010: 3fa0 a33e 2946 c93e cc6a 933e 2c4b 703f
00000020: 05e5 243f 6ccb 893f e3f1 4d3f be5d af3f
00000030: aece 223f 7da7 f53e fc59 cb3e 1429 dc3e

layer2.0.conv1.weight f4 [32, 16, 3, 3]
-0.08679649 -0.05121034 -0.04103941 -0.053976815 0.026090162 -0.059418973 -0.10577566 0.029067125
-0.118872546 -0.012245075 0.055801805 -0.14002512 0.030601008 0.13762334 -0.084485814 0.103928186
0.012513736 -0.17207743 -0.03358234 0.121827066 0.05169597 0.10903292 0.14903057 -0.2077209
0.15540366 -0.10790786 -0.3474021 0.023739712 0.016322045 -0.039151546 0.033269 -0.049419172
-0.061583254 0.017301064 -0.087509654 -0.107451126 0.05478346 0.05885692 -0.0965395 0.058485426
-0.052734062 -0.11029122 0.083742976 -0.06748028 -0.07016891 0.004981224 0.053153835 0.06756372
-0.13511057 0.15452881 -0.12255361 -0.023434738 0.17718102 -0.31117195 0.11945072 0.120271295
0.025120476 0.036724247 0.08980373 -0.01983651 -0.029967237 -0.037091345 -0.2219629 -0.11820029
0.06451316 -0.03699204 -0.19973536 0.3853863 -0.043543115 -0.04792577 0.41184276 -0.21126744
-0.040561672 -0.054597642 0.0044984603 -0.035122767 0.012937918 0.033983354 -0.0006487347 0.045566846
0.011584908 0.0097268075 0.05499297 -0.15803769 -0.0023615633 0.106454514 -0.18066664 0.0039749527
0.05315921 -0.09924762 -0.017569393 -0.14384502 -0.124716744 0.0381211 -0.3788938 0.10301609
-0.0048887357 -0.20165718 0.22120005 0.12034345 -0.14516039 -0.11543854 0.15371767 -0.06998992
0.3315911 0.036116734 0.3004975 0.29549336 0.102301866 -0.32214043 0.21978065 -0.080373324
-0.39410728 0.476533 -0.08941824 -0.18314649 0.3651608 -0.04910191 -0.14789975 0.07232069
-0.052862603 -0.16129005 0.13364401 -0.07235631 -0.10018087 0.2141567 0.022224294 -0.051715344
-0.15795022 -0.005489928 -0.03607305 -0.104376465 -0.08948509 -0.16953763 -0.09579398 -0.07515425
-0.19544207 0.14025225 0.026479479 -0.28846303 0.38081992 -0.08757601 -0.038329862 0.3703428
0.036085963 0.028661266 -0.04999812 0.020506082 0.0055673486 -7.104095e-06 -0.06899389 -0.025854686
-0.021121673 0.21893525 0.20312634 -0.28346103 -0.29059824 0.35816008 -0.061166037 -0.14895976
-0.047446933 0.09445924 0.005760694 -0.08477236 -0.008063368 0.44695935 -0.4182828 0.12808946
0.30624807 0.15306911 -0.24595419 0.007734698 0.050372723 -0.02859064 0.00012323573 -0.008451364
-0.01525478 0.01182542 -0.030396879 -0.010184153 -0.14652361 -0.14303344 -0.00067810534 -0.19175099
-0.13863605 -0.028638838 -0.051767025 -0.083570495 0.016265871 -0.18960233 -0.104821116 0.06044483
0.23691343 -0.24365795 -0.13096343 0.23949493 0.13066761 -0.17973153 -0.105916694 0.12436721
0.044836704 -0.10425585 0.0010357816 0.13153009 -0.034275495 -0.09097447 0.12406397 0.027040599
0.07944845 -0.15940161 -0.4425561 0.42519903 -0.014572666 -0.270939 -0.28978536 0.23884164
0.08451269 -0.16358858 -0.0570768 0.0975647 0.0029915841 -0.10011755 -0.09480294 0.055794466
0.014947566 -0.10191403 0.096847795 0.034010455 -0.18155964 0.042070877 0.15546931 0.15013823
-0.09460267 0.14432643 0.1781589 0.14657952 -0.24650012 -0.16429745 0.37981474 -0.041984413
-0.072621986 0.25888202 0.06258837 0.16691396 -0.19611461 0.06741383 0.16922858 -0.022299498
-0.16498998 -0.22294216 0.14287932 0.032046713 0.19356775 -0.2855541 -0.053531907 0.23675172
00000000: 5cc2 b1bd efc1 51bd f118 28bd cb16 5dbd
00000010: 09bb d53c 4f61 73bd e9a0 d8bd 2e1e ee3c
00000020: 7373 f3bd 919f 48bc 6f90 643d bf62 0fbe
00000030: f7ae fa3c 22ed 0c3e e606 adbd 4dd8 d43d
00000040: 6a06 4d3c 1135 30be a38d 09bd 7880 f93d
00000050: 27bf 533d a74c df3d 789b 183e cab4 54be
00000060: 2322 1f3e ccfe dcbd b0de b1be c979 c23c
00000070: cfb5 853c 5f5d 20bd 1345 083d c26b 4abd
00000080: b93e 7cbd f6ba 8d3c 4338 b3bd 560f dcbd
00000090: 9f64 603d f413 713d 80b6 c5bd 6a8e 6f3d
000000a0: acff 57bd 5de0 e1bd 7081 ab3d 1a33 8abd
000000b0: b8b4 8fbd 8939 a33b d6b7 593d d95e 8a3d
000000c0: 6d5a 0abe cd3c 1e3e 63fd fabd 35fa bfbc
000000d0: f16e 353e ee51 9fbe 94a2 f43d cc50 f63d
000000e0: 75c9 cd3c 2a6c 163d 05eb b73d 2d80 a2bc
000000f0: da7d f5bc 18ed 17bd 3e4a 63be fe12 f2bd
00000100: 7a1f 843d f784 17bd 6d87 4cbe 5a51 c53e
00000110: 445a 32bd d04d 44bd 0edd d23e 7e56 58be
00000120: ff23 26bd c7a1 5fbd d267 933b e4dc 0fbd
00000130: 90f9 533c 2132 0b3d d90f 2aba 4da4 3a3d
00000140: a0ce 3d3c 305d 1f3c 4f40 613d a2d4 21be
00000150: 75c4 1abb d304 da3d ad00 39be 5240 823b
00000160: 79bd 593d 5642 cbbd b0ed 8fbc 1c4c 13be
00000170: 7e6b ffbd df24 1c3d 5efe c1be 1afa d23d
00000180: b031 a0bb 387f 4ebe 4482 623e a076 f63d
00000190: eda4 14be 0b6b ecbd 2a68 1d3e e056 8fbd
000001a0: 4fc6 a93e 24ef 133d cfda 993e e84a 973e
000001b0: a483 d13d 97ef a4be 2e0e 613e c59a a4bd
000001c0: 6ec8 c9be 22fc f33e e920 b7bd c18a 3bbe
000001d0: 5bf6 ba3e 161f 49bd 0873 17be df1c 943d
000001e0: 7586 58bd 3829 25be fad9 083e 8c2f 94bd
000001f0: a12b cdbd e54b 5b3e b90f b63c 78d3 53bd
00000200: b4bd 21be dbe4 b3bb 56c1 13bd 54c3 d5bd
00000210: f543 b7bd 469b 2dbe a22f c4bd 79ea 99bd
00000220: f721 48be 499e 0f3e 7eeb d83c 6db1 93be
00000230: d4fa c23e 0d5b b3bd c6ff 1cbd 929d bd3e
00000240: e0ce 133d 08cb ea3c d4ca 4cbd 5ffc a73c
00000250: 4e6e b63b b65f eeb6 ab4c 8dbd 35cd d3bc
00000260: 5c07 adbc 9030 603e 5a00 503e ce21 91be
00000270: 4bc9 94be c260 b73e 3d89 7abd e888 18be
00000280: b757 42bd d973 c13d 34c4 bc3b 229d adbd
00000290: 371c 04bc dbd7 e43e 2a29 d6be e229 033e
000002a0: 8ccc 9c3e 26be 1c3e 6adb 7bbe 5973 fd3b
000002b0: a153 4e3d eb36 eabc d738 0139 9777 0abc
000002c0: 2fef 79bc 68bf 413c e002 f9bc 6fdb 26bc
000002d0: 490a 16be 5c77 12be e1c2 31ba 5f5a 44be
000002e0: 9cf6 0dbe ff9b eabc a909 54bd 0227 abbd
000002f0: 0140 853c 1d27 42be 74ac d6bd 0095 773d
00000300: 6f99 723e 7881 79be 471b 06be 293e 753e
00000310: bbcd 053e 8b0b 38be daea d8bd 3cb4 fe3d
00000320: b1a6 373d 1784 d5bd 10c3 873a d3af 063e
00000330: 7664 0cbd d350 babd 4015 fe3d 3f84 dd3c
00000340: deb5 a23d 2d3a 23be b796 e2be b0b3 d93e
00000350: 31c2 6ebc 84b8 8abe bf5e 94be e792 743e
00000360: fd14 ad3d c483 27be 5dc9 69bd 00d0 c73d
00000370: 740e 443b 6e0a cdbd 0b28 c2bd bd88 643d
00000380: a3e6 743c 4eb8 d0bd 2358 c63d 8c4e 0b3d
00000390: c5ea 39be 8352 2c3d 5933 1f3e d6bd 193e
000003a0: 0bbf c1bd 4fca 133e 496f 363e f118 163e
000003b0: 876a 7cbe 973d 28be 1477 c23e d9f7 2bbd
000003c0: d6ba 94bd 2f8c 843e 552e 803d 7eeb 2a3e
000003d0: 45d2 48be 4310 8a3d 424a 2d3e 70ad b6bc
000003e0: 22f3 28be f34a 64be f54e 123e 6a43 033d
000003f0: a036 463e 2634 92be 4644 5bbd 0b6f 723e

layer2.0.conv1.bias f4 [32]
0.0049984585 -0.005498504 0.008695037 0.0013907168 0.004055153 -0.0065919487 -0.0013838141 0.0013831147
-0.00035579328 -0.0020971117 0.001414555 0.0071011004 0.0005797891 -0.010510707 -0.0071818116 -0.0058868187
-0.007702253 0.0059970594 0.0015294165 -0.004130454 -0.0059902756 0.011862532 0.003525753 -0.007126049
-0.0016403347 0.00086046173 -0.0017109278 0.0016013185 0.0030246906 -0.005868478 0.00039435175 -0.0058078584
00000000: 1cca a33b cb2c b4bb a175 0e3c b648 b63a
00000010: 17e1 843b 4601 d8bb 1961 b5ba a149 b53a
00000020: c489 bab9 b26f 09bb 9768 b93a 59b0 e83b
00000030: fdfc 173a 1a35 2cbc 6755 ebbb 37e6 c0bb
00000040: 2e63 fcbb fb82 c43b b476 c83a c258 87bb
00000050: 134a c4bb 115b 423c 5210 673b a281 e9bb
00000060: 8000 d7ba 9c90 613a 3641 e0ba 55e3 d13a
00000070: e339 463b 5d4c c0bb ffc0 ce39 d94f bebb

layer2.0.bn1.weight f4 [32]
0.8276418 0.8207606 0.6277927 0.5815733 0.8350468 0.91213197 0.8602702 0.8603736
0.55073285 0.6787584 0.7615251 0.61010545 0.8853954 0.7521119 0.9220975 0.53426355
0.84944797 0.7972585 0.72532105 0.8932744 0.73507386 0.67925763 0.7151938 0.7532968
0.67324233 0.9159728 0.59188265 0.56570536 0.81892955 0.76743 0.7464344 0.77619654
00000000: 55e0 533f 5e1d 523f 06b7 203f fde1 143f
00000010: a1c5 553f 7b81 693f ab3a 5c3f 7241 5c3f
00000020: d4fc 0c3f 1cc3 2d3f 4ff3 423f df2f 1c3f
00000030: 46a9 623f 688a 403f 950e 6c3f 7fc5 083f
00000040: 6c75 593f 2219 4c3f a4ae 393f a2ad 643f
00000050: cd2d 3c3f d4e3 2d3f f116 373f 0fd8 403f
00000060: 9c59 2c3f 327d 6a3f 9f85 173f 11d2 103f
00000070: 5ea5 513f 4b76 443f 5316 3f3f d1b4 463f

layer2.0.bn1.bias f4 [32]
-0.043199655 -0.16131371 -0.15181449 0.282749 -0.16143051 -0.16991948 -0.14934735 -0.1415288
0.34824082 -0.0049937866 -0.09805146 -0.11166369 -0.14185098 -0.078491546 -0.106210284 0.395938
-0.07962308 -0.06265642 0.02070627 -0.050403774 -0.047457136 0.0059447894 -0.1274979 -0.15817942
0.011649934 -0.14971022 0.14424387 0.04262518 -0.12700705 -0.14964066 0.0127915675 -0.24476376
00000000: 1ff2 30bd 6c2f 25be 4275 1bbe 7ac4 903e
00000010: 0a4e 25be 5fff 2dbe 83ee 18be edec 10be
00000020: 9f4c b23e eba2 a3bb 34cf c8bd efaf e4bd
00000030: 6241 11be 2dc0 a0bd c784 d9bd 63b8 ca3e
00000040: 6d11 a3bd 0252 80bd 32a0 a93c 3074 4ebd
00000050: 6a62 42bd 82cc c23b cf8e 02be c9f9 21be
00000060: 5ddf 3e3c a34d 19be aab4 133e be97 2e3d
00000070: 230e 02be 673b 19be b993 513c 5aa3 7abe

layer2.0.bn1.running_mean f4 [32]
-0.40097317 -0.8748721 4.637675 -5.0112247 -1.1485265 -1.411691 -2.5388079 0.36129966
-5.061024 -3.6718435 0.79088444 1.6418387 0.72323745 -3.6162846 0.12996337 -6.8494306
0.84032744 1.2122729 -2.204949 0.70030314 -1.3773905 -0.386938 0.2697475 0.1798748
1.0597066 -0.107463725 -5.174461 -0.20741071 -1.8636823 0.5375634 -1.1538936 1.6862952
00000000: 5b4c cdbe 9ef7 5fbf d567 9440 f45b a0c0
00000010: eb02 93bf 4ab2 b4bf d47b 22c0 45fc b83e
00000020: e9f3 a1c0 7cff 6ac0 6777 4a3f c527 d23f
00000030: 1726 393f 3571 67c0 1e15 053e 892e dbc0
00000040: b31f 573f c22b 9b3f e21d 0dc0 1147 333f
00000050: 554e b0bf bd1c c6be 581c 8a3e 1931 383e
00000060: 77a4 873f f115 dcbd 2f95 a5c0 7963 54be
00000070: 248d eebf c19d 093f c9b2 93bf 85d8 d73f
