Output/DBA-ring-dsgd-iid-DBA-dataset-ring20-all-test-210/r18-epoch_199-parameters.pt (torch, 729819 bytes, 92 tensors)

conv1.weight f4 [16, 3, 3, 3]
00000000: 87f6 19bf 367d 9abf f7c1 12bf 0587 cbbd
00000010: 3bbb 86be 403f 3ebc 1ba9 203f f993 a33f
00000020: 0018 403f 02ba 0c3d 6cbe 12bf 1f7e e8bd
00000030: c86a e4bd e5b4 b2be d9c0 42be ad74 143e
00000040: 144e 243f c312 b13d 69ba f63e 195f 383b
00000050: 7453 d93e f67a b7bd 3e76 acbe 606a 06be
00000060: 2212 04be 4552 0e3e c55f 54be 5a80 61bd
00000070: ef07 3c3f 9b87 103f 57c1 0040 3194 debe
00000080: 25e1 2fbf 2682 a4be 9ce5 9dbf 5007 a4bd
00000090: 010c 63be bc07 05bf 999e 3fbe 1488 0840
000000a0: 3afa b0bf 2358 a7bf d677 133f cf68 46bf
000000b0: 27fb fd3e 2420 20bf f825 29be d008 33bd
000000c0: b5b8 d73f c295 25bf a8e5 5abf 07cc 2c3f
000000d0: af10 f9bd 3e89 0d3f d65c 943e d2c2 a23e
000000e0: 791a 983e 5f83 b83e fb3d 1b3f f1ad 0e3f
000000f0: ecaf 3fbe 1f1d d1ba e7ce 89bc c225 383d
00000100: 6977 1cbe 37b5 473d ebc6 2dbd 2bd1 67be
00000110: 5dfc 94bc 0253 813d d3a9 e6bd f9f0 64bd
00000120: af8b 5abe 18a4 13bf e45b 6cbe bec9 74be
00000130: 3ac9 2abf 0dcd d6be f54d b03e 0c96 5a3d
00000140: 01dc 963b 84f0 823e d451 993d a6c8 c63e
00000150: ecd3 87bf 902f ebbc 57ac 983f 33f3 e7be
00000160: 6880 413b 59a3 c23e b9a5 19bf 6d83 33bf
00000170: 893b aa3e dfd7 dcbf 995d 0fbf 8026 a73f
00000180: 0c4a 12bf 09f4 8ebd 5c91 473f d59d e3bd
00000190: 47ad 7bbe 8747 9a3e 24c0 9fbf 4ed5 b5bd
000001a0: 87f0 a63f 275c c6be 8198 6f3e b7e6 6a3f
000001b0: 0a5b 56bc 03f9 b23e 04d3 e23d 0936 ca3d
000001c0: f364 873e b106 2f3e dbef 84be c063 a5bf
000001d0: 32fb 94be ff77 933d f4e0 443f 5876 c43e
000001e0: 80a9 8a3e f137 513f a920 283f d54b 71be
000001f0: b613 7bbf 16a1 68bd 639a eabe fb8f 9b3c
00000200: 4f51 c8be c2da 853d 208e 103f de1b 583e
00000210: 4e44 63bd 5d36 1dbf ae43 5bbd 55a6 313d
00000220: 5e85 23bf 0733 25be c020 4bbf b493 b5bf
00000230: 4d34 8ebf b34f 1dbf 8752 aebf e5bc 6fbf
00000240: 4e9d 803e 96fa 393e 963d 123e a49a b43e
00000250: a708 d63e b319 513e bc69 803d d949 8bbd
00000260: dba9 98bd 0e0d 2cbe 293b e73e 415e 753c
00000270: 8374 733f 8c82 e43f ddd4 973f 5257 e33e
00000280: d6f3 873f 25ca 243f 1885 113f 6363 1a40
00000290: 7f29 bc3e 144f 87be 7596 513e cd7c cbbd
000002a0: 2a84 02bd 33f2 96be 09e3 55bd 4518 0dbf
000002b0: 1846 453f 4f45 f2be 3f54 b2bf 48fe d3bf
000002c0: 988c 81bf 797f 483e 6bbe 30bf a317 1f3d
000002d0: 2019 30be 2225 943f 107e 28be d329 80be
000002e0: cbfe d53d 02fe ec3d 5e99 083f 750a cb3e
000002f0: d171 d53e 37a1 2abe 1d39 24be c26b 0cbe
00000300: 595b 90be d98b 6dbe 849d 5bbe 3dbc eebc
00000310: 9f34 85bd ecd5 0dbc c4bc 29be f6d6 cebd
00000320: 72ed 6cbe 1fbf 423e 7c16 b33e a88b 0b3e
00000330: e490 063f f0a5 2d3f 47e7 043f de3e e1be
00000340: ea7e 07bf 1fdb 22bf ed96 9d3d d986 853d
00000350: 0c25 55be 8565 bc3e 873b d13e 942d 4d3e
00000360: 4bea 1fbe c2fb 483e bebc 97be f96a eb3e
00000370: 8017 6e3f 4051 ad3e d8a5 403f 4732 733f
00000380: 008c 303f 78ce 3abf 8b63 27bf e3ba 6cbf
00000390: 3478 11bf 2633 c7be b387 1cbf 9d41 b7be
000003a0: 4666 ffbe 02ef d7be 3464 e13e 2423 603f
000003b0: cc41 9e3e e482 0c3f 2500 8f3f 0092 223f
000003c0: f9c6 4ebe a8ca e2bd 2bbc a2be cada 1c3f
000003d0: 75a2 0c3f f82a 153f fcce 8f3e 803d 7b3d
000003e0: 9592 11bd be42 c83d bce7 3f3e bf7c b23d
000003f0: 688d cfbe c907 69bf f58e 06bf 4970 26bf
-0.60141796 -1.2069461 -0.57327217 -0.09937862 -0.2631472 -0.01161176 0.62758034 1.2779533
0.7503662 0.03435708 -0.5732181 -0.11352181 -0.111531794 -0.34903637 -0.19018878 0.14497633
0.6418164 0.08646157 0.48189095 0.0028132854 0.42446482 -0.08959 -0.33683962 -0.13126516
-0.12897542 0.13898571 -0.20739658 -0.055054046 0.73449606 0.5645692 2.0118005 -0.43472436
-0.6870292 -0.32130545 -1.2335696 -0.08009207 -0.22172548 -0.51964927 -0.18712844 2.1333055
-1.3826363 -1.3073772 0.5760473 -0.77503675 0.49605677 -0.6254904 -0.1651839 -0.043709576
1.6853243 -0.6468164 -0.8550668 0.6749882 -0.12161385 0.5528754 0.28977078 0.3178926
0.29707697 0.36037728 0.6064145 0.55734164 -0.18719453 -0.0015954113 -0.016822292 0.044957884
-0.15279926 0.048756804 -0.04242603 -0.22638385 -0.018186742 0.063146606 -0.1126286 -0.055893872
-0.21342348 -0.5767226 -0.23081928 -0.23905084 -0.667133 -0.41953316 0.34434476 0.053365752
0.004603863 0.25574124 0.074863106 0.38824958 -1.0611548 -0.028709203 1.1927594 -0.45302734
0.0029526 0.3801525 -0.600185 -0.70122415 0.33248547 -1.7253379 -0.56002194 1.3058624
-0.57144237 -0.0698014 0.77956176 -0.111140884 -0.24577819 0.30132696 -1.2480512 -0.08878575
1.3042153 -0.38742182 0.2339802 0.9175829 -0.013083229 0.34955606 0.11075404 0.09873588
0.26444206 0.17092396 -0.25964245 -1.2921066 -0.29097897 0.07200622 0.7690575 0.3837154
0.27082443 0.81725985 0.65674835 -0.23564084 -0.9807695 -0.05679425 -0.45820913 0.018989554
-0.39124534 0.06535865 0.56466866 0.2110438 -0.055485062 -0.61411077 -0.05353134 0.043371517
-0.6387538 -0.16132747 -0.7934685 -1.41857 -1.1109711 -0.61449736 -1.3618935 -0.93647605
0.25120014 0.18161997 0.14281306 0.3527423 0.41803476 0.2041996 0.06270167 -0.06801195
-0.07454272 -0.16801855 0.45162323 0.014976085 0.9509966 1.785234 1.1861836 0.44402558
1.0621288 0.6437095 0.5684371 2.412316 0.3675041 -0.2642752 0.20467551 -0.09935913
-0.031864323 -0.29481658 -0.05221847 -0.5511516 0.7706008 -0.47318503 -1.393196 -1.6561975
-1.0121031 0.19579877 -0.69040555 0.0388409 -0.17197084 1.1573832 -0.16454339 -0.2503191
0.104489885 0.11571886 0.5335902 0.39656416 0.41688398 -0.16663061 -0.16037412 -0.13712981
-0.28194693 -0.23197879 -0.21446806 -0.029142493 -0.06504177 -0.00865696 -0.16575915 -0.10099594
-0.23137453 0.1901822 0.34978092 0.13627493 0.52564836 0.67831326 0.519154 -0.43993276
-0.5292803 -0.636156 0.076948024 0.06519861 -0.20814914 0.36796203 0.40865728 0.20036918
-0.1561672 0.19627288 -0.29636186 0.4598005 0.9300461 0.3385105 0.7525306 0.9499859
0.68963623 -0.72971296 -0.65386266 -0.92472667 -0.5682404 -0.3890621 -0.6114456 -0.35792246
-0.49882716 -0.42174536 0.4402176 0.8755362 0.30909574 0.54887223 1.1171919 0.6350403
-0.2019309 -0.1107381 -0.31784186 0.61271346 0.5493539 0.5826869 0.28087604 0.061337948
-0.035540182 0.09778355 0.18740743 0.087152 -0.40537572 -0.91027504 -0.52561885 -0.65015084

conv1.bias f4 [16]
00000000: 7905 09bb e2db 3abb 74d4 6ebc b669 90bb
00000010: 5ff7 ee39 7c68 6abb f30e 893b 2f75 d8bb
00000020: 5a9d a23a c8fd 9fbb 0cb2 6c3b f8e7 943b
00000030: 4afa ec3b ac18 c7bb 7ab9 0e3b 44b0 1fbb
-0.0020907803 -0.0028512408 -0.01457702 -0.004407133 0.00045579203 -0.0035767844 0.0041826903 -0.0066057662
0.0012406514 -0.004882548 0.0036116866 0.0045442544 0.007231985 -0.006075939 0.0021778033 -0.0024366537

bn1.weight f4 [16]
00000000: 3170 743f 99f7 c93f 6540 3e3f eada cc3f
00000010: 2e74 7c3f 6315 663f 9abf 8f3f 3a6c 4f3f
00000020: f129 493f 318e 613f b634 b93f e0a6 073d
00000030: a7c6 fe3e 1c10 943f e300 533d 4e6a 0040
0.9548369 1.5778686 0.7431701 1.6004307 0.98614776 0.89876384 1.1230347 0.81024516
0.7857962 0.8810759 1.4469211 0.03311813 0.49760935 1.1567416 0.051514518 2.0064883

bn1.bias f4 [16]
00000000: 8440 5b3e 5cb5 bd3f 6bb3 bdbe 7c6f 363f
00000010: a51f 3d3f e1b4 5c3f 03b0 e83f 49d2 9b3e
00000020: 4eaa 7b3f 1e95 2f3f bf26 0140 c8b1 f6bd
00000030: e673 c23e df80 003e 7bd0 21be 3be6 80bf
0.2141133 1.4820971 -0.37050948 0.7126386 0.7387641 0.862135 1.8178715 0.30433872
0.9830674 0.6858691 2.0179899 -0.12045628 0.37979048 0.1254916 -0.15802185 -1.0070261

bn1.running_mean f4 [16]
00000000: 9a6f 173e 06a8 4c3e 5af0 223c b001 4e3e
00000010: b1b0 04be 8f4f 14be cc4b eb3d 700f 6abd
00000020: 9107 14bf f2b0 173f b516 053e 3e0c 05bf
00000030: 16d7 3d3e 84ec 5b3c 4d1d b2bd f8f0 833f
0.14788666 0.19985971 0.009945 0.20117831 -0.12958027 -0.14483474 0.114890665 -0.05714363
-0.57824045 0.5925437 0.12996943 -0.51971805 0.1853908 0.013423089 -0.08696995 1.0307913

bn1.running_var f4 [16]
00000000: d677 1241 13cd 9941 c22f 2940 99d1 1242
00000010: f238 1241 7130 d041 61f4 4141 1ada df40
00000020: c655 3c41 ef75 0741 2d81 a040 4f5c 9f40
00000030: ccc4 9d40 196d cb41 2a97 6f3e 6e6c 9941
9.154257 19.225134 2.64354 36.704685 9.138903 26.023653 12.122163 6.9953737
11.770941 8.466292 5.0157685 4.980018 4.930273 25.42827 0.23397508 19.177944

layer1.0.conv1.weight f4 [16, 16, 3, 3]
00000000: 7a2f bb3d 6af2 87bb d9c2 7dbd 9323 40bd
00000010: 6a40 8cbd d158 82bc 71ee 98bc 952d b83c
00000020: fddc 743e be64 27bf 1080 f53e 6912 6e3d
00000030: d47e 9dbf d42f 7c3f bb14 cbbd 1920 31be
00000040: 296a fa3c 36e0 063e 82f1 e23d b32f 593c
00000050: 1351 073e 5862 2ebd d933 0dbe ff34 763c
00000060: b78f c8bd f12b 02be 3fac 80bc 0203 80be
00000070: 8cb4 9ebe 7185 8fbc 29f1 873e 645c f8be
00000080: 9104 95bd 574d 9dbc 0aa1 46be 6988 54be
00000090: bd87 fabd 4fc4 04be d830 6d3d 17b0 493b
000000a0: c50a 87be 9fda 93bb b1de 84bc 405d 88bd
000000b0: 4322 1a3c 7a12 81bb 050c 8dbd 38e2 7bbc
000000c0: 0484 883c 20a3 33bd e63f 98bd fdc8 e83c
000000d0: 9237 c93b 05d4 9cbd 5999 ebbb 7efb 34bd
000000e0: 1ae5 fa3d f7e1 fd3e 241c 9ebe 29de 9cbd
000000f0: 97c1 053f 1d4b 11bd 1d6a afbe c5a4 55bd
00000100: 3407 81bd 5a33 6bbd 6279 0ebd fc31 96bd
00000110: f6e9 b8bd 9625 8d3c 8962 9cbc 5285 293d
00000120: 839c 903d 52d4 2abd 0c39 0fbd 4b6a 8d3d
00000130: d6be 0cbe b88b 58be 2afe 713d 6332 c3bc
00000140: 5209 14be 61dc c53d 664d 4f3d 57f9 36bc
00000150: bdba dfbc b798 26bc b2ff cabc 28c7 f83c
00000160: fec3 54bd 7340 3abc 45dd 24be bd3b ebbd
00000170: 7f12 a13e 70b3 193e 0786 58bf 448f 1d3f
00000180: 790c 693e 9acb 83be 667c a3bd c65f c63c
00000190: 2a89 763c e6e6 2f3c 4dfe 973c 2e93 7b3c
000001a0: 15d1 813b 388a b23b 91a6 7c3c 21e9 a03b
000001b0: e70b aebd fd59 dfbc adca a93d b3bc d53c
000001c0: cd22 62be fab0 e83d e3e9 073e 62cb 17be
000001d0: e884 e0bb d434 6d3d ce1b 093d 813d 013e
000001e0: cef4 d13c 67dc 99bd b56f 9a3c acef c8bd
000001f0: eea1 89bd 1234 493d 4e28 e0bb e536 57bc
00000200: f534 90bc f41a 3f3b 67f9 04bc a5cb dbbb
00000210: 3187 b53a e59f 55bb bcd8 aabb c556 4e3d
00000220: 90a6 4dbc f558 4e3c b162 eabd 090f cebd
00000230: 2250 1dbd 2f91 a3bd afa1 21be 4aff c7bd
00000240: ce8c 853d a8d8 033e 8cb8 153e 56de 1fbc
00000250: 15cd 69bc 1b0e d03b 37c2 e0bd 46ee d3bd
00000260: 827a 26bd 136d da3d 948d 3bbb c9a9 403e
00000270: fcdf 5ebd 1c8c bdbd 8294 f7bc a366 a2bc
00000280: 14db 19be 501c 8bbe d454 88be a6f8 77be
00000290: 2053 80be c775 55be 491d 27be f3bf 25be
000002a0: 252f 6abd d4a7 90ba 716e 613c 14dc 153d
000002b0: bac7 d3bc 8a8f a1bd 3433 debd 2017 45be
000002c0: 20dc cbbd 5560 aabd 3786 ebbd 1de4 993d
000002d0: 0e5b b23d 765a 183d e377 413c 2b18 ff3d
000002e0: 0e6f 123e 1d62 da3c f478 ef3c 954e ffbc
000002f0: 9210 abbd 9474 6e3d c4fe d33c b245 83bc
00000300: da79 97bd 34bd dabd d399 e2bd 13d1 1ebe
00000310: bb22 30be e41f 01be f77e a33d f1d6 c6bd
00000320: 624a c83b f1bf bb3d cc8b cd3d 18fc 853d
00000330: 5cfd 403d 4e3d 663d 3f29 bb3d 7200 df3c
00000340: bc1e 9e3d d62b b83d 59d7 71bd 7f70 56bd
00000350: f91c 36bd d9a0 83bd fc6a 53bd a34c 45bd
00000360: f397 9c3d 3e9f 6c3d ec01 353d 7e90 28bd
00000370: a7d3 93bc 7471 3fbc 9264 1dbe 9566 14be
00000380: 0ee2 c9bd e859 bf3c 949a b13c 487d 343d
00000390: dbf8 c53c caad fbbc 9ac9 04bc 0321 873d
000003a0: 572d cd3b abd5 183d 7c7c 7b3e 7ce7 913d
000003b0: 9a6f efbc afde 313c 6976 00be 53a9 74bd
000003c0: 5ef9 8ebe a0e1 da3c ae03 393e 7b8c 8d3c
000003d0: cd63 8e3c 814f a93c ac42 06bb 7f6e e93a
000003e0: e129 ed3b e7ee 62bc eabd 12bc c93b edbb
000003f0: 429f bbbd 6ebd ecbd 0429 9fbd 28e9 093d
0.09139915 -0.004148771 -0.0619534 -0.046908926 -0.068482235 -0.015911492 -0.018668385 0.022482673
0.23912425 -0.65388095 0.47949266 0.058123026 -1.230433 0.9851048 -0.099160634 -0.172974
0.0305682 0.13171467 0.1108122 0.013256001 0.13214521 -0.042574257 -0.1378931 0.015027284
-0.097930364 -0.12712075 -0.015707133 -0.25002295 -0.3099712 -0.017519685 0.26551178 -0.48507988
-0.072762616 -0.019201918 -0.19397369 -0.20755161 -0.12232921 -0.12965511 0.05790791 0.0030775124
-0.26375404 -0.0045121456 -0.016219469 -0.06658411 0.009407583 -0.00393897 -0.06887058 -0.015373759
0.016664512 -0.04385674 -0.07434063 0.028416151 0.0061406577 -0.07657627 -0.0071899113 -0.044185154
0.12250729 0.4958646 -0.30880845 -0.07659561 0.5224852 -0.035472024 -0.34260646 -0.05215909
-0.06300202 -0.05742202 -0.03478373 -0.073337525 -0.090289995 0.017229836 -0.019089954 0.04138691
0.07061102 -0.04170639 -0.034966514 0.069050394 -0.13744673 -0.21147048 0.05908028 -0.023827737
-0.1445668 0.096611746 0.050610922 -0.011167846 -0.027310723 -0.010168246 -0.024780128 0.030368403
-0.051944725 -0.011367905 -0.16100033 -0.114860035 0.31459424 0.15009856 -0.8457951 0.6154673
0.22758664 -0.25741273 -0.079827115 0.02421559 0.015047351 0.010736203 0.018553877 0.015354915
0.003961692 0.005448606 0.015420572 0.0049106036 -0.08498364 -0.02726459 0.082906105 0.026090955
-0.22083588 0.113618806 0.13272814 -0.14823678 -0.006851781 0.05791171 0.033473782 0.12621118
0.025629427 -0.075127415 0.018852094 -0.09811339 -0.06720339 0.049121924 -0.006840742 -0.0131356465
-0.017603377 0.0029160352 -0.008116103 -0.006707626 0.0013849494 -0.0032596525 -0.005213825 0.05037572
-0.012551919 0.012594451 -0.11444605 -0.100614615 -0.0384065 -0.07986676 -0.15784334 -0.097654894
0.06520997 0.12875617 0.1462118 -0.009757599 -0.014270087 0.0063493378 -0.109745435 -0.103481814
-0.040644176 0.106653355 -0.0028618323 0.18814768 -0.054412827 -0.09255239 -0.030222181 -0.019824332
-0.15024978 -0.27170038 -0.2662722 -0.24215946 -0.2506342 -0.2084571 -0.16319765 -0.16186504
-0.057173867 -0.0011036345 0.013759241 0.036586836 -0.025852073 -0.07888706 -0.1084961 -0.19247103
-0.09954095 -0.08319155 -0.11500209 0.07514212 0.087087736 0.037195645 0.011808368 0.124557815
0.14300177 0.026658112 0.02923248 -0.0311654 -0.0835277 0.058216646 0.025878318 -0.016024444
-0.07396288 -0.10680619 -0.11064496 -0.15509443 -0.17200749 -0.12609822 0.07983201 -0.097089656
0.0061123827 0.09167469 0.1003643 0.06542224 0.047116622 0.05621081 0.091387264 0.027221892
0.07720706 0.08992736 -0.059043262 -0.05235338 -0.044461224 -0.06427164 -0.0516157 -0.04816879
0.076461695 0.057769053 0.044191286 -0.041153423 -0.01804526 -0.011684764 -0.15370396 -0.14492257
-0.0985757 0.0233583 0.021680154 0.04406479 0.024166515 -0.030722518 -0.008104706 0.06598093
0.0062615084 0.037313145 0.24559206 0.0712423 -0.02922802 0.010856315 -0.1254517 -0.059731793
-0.27924627 0.026718915 0.1806781 0.0172789 0.017381573 0.020667793 -0.0020486517 0.001780942
0.0072376584 -0.013850904 -0.008956412 -0.007239793 -0.091612354 -0.11559568 -0.07771495 0.03366962

layer1.0.conv1.bias f4 [16]
00000000: d442 283b 3aa2 15ba efa3 473a 8f12 dfb9
00000010: 50a7 103b 9bb1 41bb 8fa3 39bb 24a2 aaba
00000020: 4bc3 4b3a e636 9dbb 8c48 a7b9 8a2f d63a
00000030: 758a b73a 0824 663b 1e33 9c3a af93 0fbb
0.0025674598 -0.00057080726 0.00076156756 -0.00042547702 0.0022072382 -0.0029555324 -0.0028326248 -0.0013018292
0.00077729364 -0.004797804 -0.00031906774 0.0016341072 0.0014003055 0.003511669 0.001191709 -0.0021908095

layer1.0.bn1.weight f4 [16]
00000000: 328e 973f 8c8d 373f 977b 3a3f 139d 3f3f
00000010: 51d3 7b3f 46f8 893f 0e57 573f 793a 943f
00000020: 1daf 473f 4f3d 7e3f e5db 213f 951b 333f
00000030: bd6d 693f a0e2 943f 7e6a 513f c6d2 333f
1.184027 0.7170036 0.72844833 0.7484905 0.9836932 1.0778892 0.8411721 1.1580344
0.78001577 0.993123 0.6322616 0.6996396 0.9118307 1.163166 0.8180312 0.7024349

layer1.0.bn1.bias f4 [16]
00000000: 1d45 67be 40bc c4be 77d4 ac3e 4fed 7abe
00000010: f573 063f d20e 4dbf ec99 2fbe b056 6ebf
00000020: 98c0 a7be 1e7a 97be 4193 c3be 8a27 27bf
00000030: 3c0c 93be 0863 1e3f b655 afbc d4e8 7c3e
-0.22584958 -0.38424873 0.33755848 -0.24504589 0.52520686 -0.8010074 -0.1714856 -0.93101025
-0.32764125 -0.29585356 -0.38198283 -0.65294707 -0.28720272 0.6186986 -0.021403175 0.24698192

layer1.0.bn1.running_mean f4 [16]
00000000: e8fa 48c0 9a7f 83bf 1678 a0bf f89b 6540
00000010: d5fb e8bf 6cc2 0f40 eff3 3dc0 fb16 0940
00000020: 605b edbf 2925 fdbf 3557 d440 5642 5740
00000030: 39c5 6dc0 aa23 71bf 0243 6bc0 b9e3 4bc0
-3.140314 -1.0273316 -1.2536647 3.5876446 -1.8201853 2.2462416 -2.9680135 2.1420276
-1.854351 -1.9776965 6.6356454 3.3634238 -3.7151625 -0.94195044 -3.6759648 -3.185774

layer1.0.bn1.running_var f4 [16]
00000000: 7e32 b541 6ef3 ed3f 6c20 5541 f1dd 7840
00000010: 93ff 5441 b2fb 0c41 ffed 0d41 1ffa f740
00000020: 8e2c 3b40 1b16 3f41 5162 5f40 53a8 0140
00000030: e96d 2940 a402 fe41 8edb e140 64ea 2f40
22.649654 1.8589914 13.3204155 3.8885462 13.312396 8.811449 8.8706045 7.7492824
2.9245944 11.942897 3.4903758 2.0258987 2.6473334 31.75129 7.058051 2.748681

layer1.0.conv2.weight f4 [16, 16, 3, 3]
00000000: 39bb a13d fcf0 f3bc 66bc eebd 8365 c8bd
00000010: d87a 31bd 4a94 afbe 254d 85be e604 82bd
00000020: 524f 803d 932c 2f3e 479f 533e ba04 b2bc
00000030: 9317 123e 4e48 a23d aa02 923c 8da7 ddbd
00000040: dd85 973c 321c 09be d3e7 f1bd c060 8fbd
00000050: d1f3 aabd e75a 883e aac9 743e f8d0 1e3d
00000060: 05b5 2dbe d273 85be ec67 a5be b7c0 cb3d
00000070: b609 1a3e 9825 2d3e 4d78 db3c a7d9 773d
00000080: 1b90 be3d b186 9cbd c67c febd a2d7 3bbe
00000090: a836 423e ea04 f7bd f543 62bc 386b f03c
000000a0: e449 e7be b21b d3bd 9cf4 443e 41cf 683f
000000b0: 9dc5 d23d c65f babd 745a e1bd b331 c3bc
000000c0: 4b97 fbbc cc72 103d 924a 133e 91de f0bc
000000d0: 82f3 98bd 183d 2a3e 5ba3 673e 677b e5bc
000000e0: c5fe 60be 066e 8a3d 070b b5b9 71a5 3bbe
000000f0: f5c3 54be 12aa 1abd e0eb 0cbd 525a 0cbd
00000100: 04a9 49bd 0f8e eebc 597d 4fbe 6428 96be
00000110: 8e82 4bbe 237c c03d 145a d0bd 70f3 d3bc
00000120: a334 923d c26c 62bd cbfc 9e3d 5c2a a23d
00000130: e5bd 19bd 236f 233e ff1b 21bd 6074 263e
00000140: c4ee c23c eda7 d33d 26c9 70bd 872c 01be
00000150: e0df c5bd 6f6e 18be 6aec b9bd 3370 78be
00000160: 1adc 803e 2bdc 01be 37ff d1bd 8818 a6bd
00000170: 91b3 0abe e32e 65be c5b9 4dbe 2ce1 21be
00000180: 1fd4 57be 1190 37be 80b5 5ebc fead b83d
00000190: 44f9 03bc 2fec 223d 322a 3d3d 46ab 75bd
000001a0: 8dce 1a3d 633a 933d 418f 183d c684 9d3c
000001b0: 59c1 25bd 4784 733e 0d21 183e 9e58 b03d
000001c0: 028f b03e f069 3d3e 76e1 69be ee82 80bd
000001d0: e199 92bd 01ff a4bd ba4e e83e 0950 b1bb
000001e0: 23ee 21be c528 7c3e 157f 7bbe bc4b 983d
000001f0: b09e 4ebf c25d 103c d077 55ba 6dfb a33d
00000200: da50 913d 876f 0bbe 86fd af3c a1f5 70bb
00000210: bfe9 153e 4832 513e 6a0b b63e adb7 753d
00000220: 7006 913d f28a 953d d549 63bd 818f 2e3d
00000230: 2005 583d 17e0 39be 59eb 4c3d cc9b fb3d
00000240: b6d9 743e 680f b0be 2603 4f3e 7595 3ebe
00000250: ebc9 c43e ade1 1dbd 368e 2d3d 685c 333e
00000260: 4034 aa3d a677 b1bd adab ca3c f051 a53d
00000270: 1cc1 b7bc a742 1b3b 52ac af3d 9162 efbc
00000280: e880 bbbd acee 953d 1ae8 a83d 79d6 ecbd
00000290: 1ef0 603d 32dc 80be a7d3 6fbc 74bf 553e
000002a0: aa6f 1c3e 1049 413d 4890 a6bc 4cd0 d6bb
000002b0: 545e 8dbd 42db 733d 15a3 26be 8fcc 33be
000002c0: 93d3 4d3e daaa b4bd a600 ccbe 628f fb3d
000002d0: 3760 3bbe 5434 1cbe d1be bc3c aeb9 293f
000002e0: c525 25be 333a bcbe bb42 c3bd 1cd5 d7bc
000002f0: b6bd 0c3e 3cc5 41be a84a dabe ef4d c5be
00000300: d3e3 91bd 6989 f8be afff 8cbe dda8 49bd
00000310: cf0f f8be f34b d3bd ef45 373d f820 763e
00000320: ed7e 013e daaa 703e d854 8b3e 9ab9 3e3e
00000330: 1022 4b3e 8438 0d3e 908f 643d 458c 11be
00000340: 67b3 d2bd 0f03 823c 330f c8be 08fb 78bd
00000350: 9e0f de3d 47c6 e2bd 14a2 90bd 9e5e e5bd
00000360: 95b5 ae3d eedc 123d aa3e a7bd 185a 443e
00000370: ac8f 383d 52e0 7d3c 9433 a3bc 455d 103d
00000380: 57ce 263e 9926 85be 1607 5a3c 7cee cc3d
00000390: 0b19 073e e080 86be 7646 c73d 49fc 15be
000003a0: 7961 38be 3612 183e edaa d7bc 798c 563a
000003b0: 047a 143e 6816 82bc f031 e3bc fd39 38be
000003c0: 320b efbd f66c adbc 9395 19be 0dbf c43d
000003d0: 154a 283d 7f51 32bc 273a 0b3e 91d8 863d
000003e0: 6a75 1f3e f1d4 fa3d 5baf 583d 813e 583e
000003f0: 70ba 1d3e e8b2 8cbd f44f 7d3d 229d ca3d
0.07897038 -0.029777996 -0.11657028 -0.09784987 -0.043330044 -0.34292823 -0.2603542 -0.063485906
0.06265129 0.17106847 0.20666228 -0.02173077 0.14266805 0.07923947 0.017823536 -0.108229734
0.018496448 -0.13389662 -0.11811795 -0.070008755 -0.083472855 0.26631853 0.23905054 0.038773507
-0.16963585 -0.26064926 -0.3230585 0.09948867 0.15042767 0.16908872 0.026790762 0.060510304
0.0930483 -0.07642878 -0.124261424 -0.18343976 0.18966162 -0.12061484 -0.0138101475 0.029348
-0.45173562 -0.10308017 0.19233936 0.90941244 0.10291598 -0.091002986 -0.11003581 -0.02382741
-0.03071179 0.03526573 0.14383915 -0.029403003 -0.074683204 0.16624868 0.22620909 -0.028012944
-0.21972187 0.067592666 -0.00034531226 -0.1832483 -0.20777877 -0.037759848 -0.034404635 -0.034265824
-0.04923345 -0.029120473 -0.2026266 -0.2932769 -0.19874021 0.09398677 -0.10173431 -0.025872916
0.07138946 -0.0552795 0.0776306 0.07918236 -0.037534613 0.15960364 -0.03933334 0.16255331
0.023795493 0.10334764 -0.05878558 -0.12614642 -0.096618414 -0.14885877 -0.090782955 -0.2426155
0.25167924 -0.12681644 -0.102537565 -0.08110148 -0.13545062 -0.22381167 -0.20090397 -0.15808553
-0.21077012 -0.1792605 -0.013593078 0.090175614 -0.008055035 0.039776023 0.04618282 -0.059977792
0.03779464 0.07188871 0.037245993 0.01922835 -0.040467594 0.23780929 0.14856358 0.086106524
0.34484106 0.18497443 -0.22839913 -0.06274973 -0.07158256 -0.08056451 0.45372564 -0.0054111523
-0.15813498 0.24624927 -0.24560197 0.0743632 -0.8071089 0.008811416 -0.00081431586 0.0800694
0.07095499 -0.13616763 0.021483194 -0.00367675 0.14639948 0.20429337 0.35555583 0.05998962
0.07081306 0.07301892 -0.055490334 0.042617325 0.052739263 -0.1815189 0.050029133 0.12285575
0.23911175 -0.34386754 0.20216045 -0.18611701 0.384353 -0.0385453 0.04237195 0.17515719
0.08310747 -0.08665399 0.024740065 0.08072269 -0.022430949 0.002369085 0.08577789 -0.029221805
-0.09155446 0.07320914 0.08247395 -0.11564345 0.054916494 -0.25167996 -0.014637864 0.20873815
0.15276971 0.04718882 -0.02033247 -0.0065555926 -0.06902757 0.059535272 -0.16273148 -0.17558502
0.2010024 -0.0882165 -0.39844245 0.122832075 -0.18298422 -0.15254337 0.023040207 0.6629895
-0.16127689 -0.36763152 -0.09534212 -0.026346736 0.13744244 -0.18922895 -0.42635083 -0.3853602
-0.07123532 -0.48542336 -0.2753882 -0.049233306 -0.4844956 -0.103172205 0.04474443 0.24036014
0.12646075 0.23502675 0.27213168 0.18625489 0.19837213 0.1379109 0.055800974 -0.14213665
-0.102881245 0.0158706 -0.39074096 -0.060786277 0.108428225 -0.11072975 -0.07062164 -0.111996874
0.08530728 0.035855226 -0.08166249 0.19174993 0.04505889 0.015495377 -0.019922055 0.0352452
0.1628965 -0.2600601 0.0133073535 0.10006425 0.13193147 -0.262702 0.09730236 -0.1464702
-0.18005933 0.14850697 -0.026326621 0.0008184384 0.1449967 -0.015879825 -0.027733773 -0.17990871
-0.11672057 -0.02117012 -0.14998464 0.096067525 0.041086275 -0.010883688 0.13596402 0.065842755
0.15572134 0.122476466 0.052901607 0.21117593 0.15403152 -0.06870061 0.061843827 0.09893252

layer1.0.conv2.bias f4 [16]
00000000: 8edd 87b9 3cd0 42bb 583e a13a 0aa3 40b8
00000010: 8b7b e1b9 5c30 00bb 8908 e53b 526c 8bbb
00000020: 14f0 55ba 2cc5 4bb9 db93 8d3a d0c8 983a
00000030: b5c2 dd3a ae2a 033b 84c4 6bbb 25d6 c1ba
-0.00025914278 -0.0029726168 0.0012301905 -4.592821e-05 -0.0004300739 -0.0019560074 0.006989543 -0.004254856
-0.00081610796 -0.00019433041 0.0010801511 0.0011656526 0.0016918989 0.0020014453 -0.0035975287 -0.0014788551

layer1.0.bn2.weight f4 [16]
00000000: e930 973f 101a 973f 4f83 e43e c7ff 3e3f
00000010: effd 573f fc6a 423e b7d9 523f a769 253f
00000020: 5567 983e 995d 8a3e 8e5f ea3f e3f7 973f
00000030: 3399 aa3f 26ed 7a3f 277a 723f 7670 023f
1.1811801 1.1804829 0.4463143 0.74609035 0.84371847 0.18986124 0.82363456 0.6461434
0.29766336 0.27024534 1.8310411 1.1872524 1.3328003 0.9801811 0.9471764 0.5095285

layer1.0.bn2.bias f4 [16]
00000000: 7f32 943e dfc4 c7bd d41f a13e 3ef1 debc
00000010: 3d27 3a3d 93e4 4c3e be73 453d 8028 c23e
00000020: d27f 743e 39ae bb3e ceb2 773e 44fc 8b3e
00000030: 3a72 7e3c e564 12be bccf d83e ff4f 10bf
0.28944775 -0.09754347 0.31469595 -0.027214643 0.045447577 0.20009069 0.048206083 0.37921524
0.23876885 0.3665636 0.24189302 0.273409 0.015530163 -0.142963 0.4234599 -0.56372064

layer1.0.bn2.running_mean f4 [16]
00000000: 31e7 0ebe c59c 4d3e 377d 60bf 27c2 743e
00000010: ed38 38be ce45 1d3f 9ddf 97bf aa11 22be
00000020: 9b08 a9be c609 c83e 0748 99be 6236 e7bf
00000030: cac7 29bf cbf5 edbe dcdf bfbf bb48 db3f
-0.1395538 0.20079334 -0.8769106 0.23902188 -0.17990465 0.6143464 -1.1865116 -0.15827051
-0.33014378 0.39069957 -0.29937765 -1.8063471 -0.6632048 -0.46476588 -1.4990191 1.713157

layer1.0.bn2.running_var f4 [16]
00000000: fa39 2e40 c54a 6f40 ca33 433f b087 2a40
00000010: 1079 e93f 23ee c53f 8f3a 2740 2f95 9b3f
00000020: a344 a53f 82e1 a23f e260 2740 3d2d 1740
00000030: 8b76 0940 1d4b 2340 537f 0840 ba78 f53f
2.7222886 3.7389386 0.762509 2.6645317 1.824007 1.5463299 2.6129491 1.2154902
1.2911571 1.272507 2.6152883 2.3621361 2.1478603 2.5514596 2.1327713 1.9177468

layer1.1.conv1.weight f4 [16, 16, 3, 3]
00000000: 122b 183d 72c6 a0bc 761a 41bd addf 0b3d
00000010: 0b9b bd3c 3272 ca3d 25b7 60bd 2e9d ca3c
00000020: a538 8e3d ac65 6bbd d38f 04bd 7edc c3bc
00000030: 61b3 87be f78f a2bd 799d b83c 0efb 8dbd
00000040: c0ac b5bb bd33 3dbd 8f75 9abc 3dc9 b4bc
00000050: 248a 68bd 6498 1dbd f448 0fbd 7e39 80bd
00000060: 92c9 c6bc e191 74bc 2660 04bc 5fc1 22bc
00000070: 8c0a 28bd 5ff6 16be 04a6 2a3d 3012 92bc
00000080: b826 68bd 1dc4 b0bd 7ab2 553d bf38 ad3d
00000090: 8c81 073e a7b2 df3d bef6 263e 73c8 523d
000000a0: 6d79 883c 2196 ac3b 2ccf 3b3c 5c9f 3fbd
000000b0: 7239 77bd f7de f23d bde0 cc3d cd88 8b3d
000000c0: 49a9 1d3e bd66 f83d 2312 8a3d 6855 013e
000000d0: ba62 993d b6b9 c73c 55d0 96bc 35a9 043c
000000e0: 89ae 463d 385f ed3d a4fd ae3d b0c9 003e
000000f0: a6d0 893d 38bc 9b3d 9e1d 873b 860a 1d3e
00000100: b048 203e 504e 3d3e f046 9a3e 2530 823e
00000110: 51ee 8d3e 4658 c93c 01c4 85bc 1820 8cbc
00000120: 62da 42bd ef03 87bd d9c5 b5bd 12a8 5a3d
00000130: 366b d73c e23d 8d3b 9bb0 243d 35e9 c93b
00000140: fce9 cc3c 22f9 ce3d e4f3 e13d 7ae1 ef3d
00000150: 875a 85ba 5981 a33c e219 ee3c 2188 edbd
00000160: a656 d0bd 9880 9cbd b396 b13c 2220 43bc
00000170: 0bdf 34bd 406d b53d 9783 dabc 5e97 2ebd
00000180: 9e51 55bd 1cbe 353d 9ff6 f63d 7ff3 8cbb
00000190: b4f0 603c 2f20 0a3d a548 24bc 315c c0bc
000001a0: 8b16 93bc 0f1e d33c a508 1a3c edc1 0cba
000001b0: df27 09bd a8f1 2cbc 7389 69bd 9e60 8d3b
000001c0: 05bf 0ebc 5673 83bc 4500 5ebc ec83 8abd
000001d0: c9f4 a8bd e31b e3bc 2276 353d 93c2 ad3d
000001e0: afd3 40bd df7c b2bb 5fe4 91bd c5e8 9abd
000001f0: 2df7 4abd 21fe b6bd b87f 85bc db1d b8bc
00000200: 267a 5bbd 459f 37bc 7c59 cfbc 8d4d 30bd
00000210: 2271 fd3d 2d21 c63d 5a9d ab3d 495c 063e
00000220: 096d 263e f037 413e dc9c 9d3e e371 a93e
00000230: e0de be3e 524a 9bbd d660 6ebd 62a5 e1bc
00000240: c042 b13d b232 f83d ba9f 4e3e 4007 a63c
00000250: e7ce 7b3d 8b0c 0f3e 6954 923b c1f8 063d
00000260: f14b 5b3d d3a3 86be 2bcf 34be 3302 c6bd
00000270: b9eb 90bb cf1c da3c 2f9b 923d 4819 9b3c
00000280: 46c8 c53c 3d2a bd3c 6c42 d1bd e52d 85bd
00000290: a23d bbbd 14dd edbc 2dee 6b3b 4649 2bbb
000002a0: 197f 6dbc 1003 863b 3ec9 a7bb d656 b7bd
000002b0: 31af e9bd 4d1c 19be 590b d0bd 9fad 73bd
000002c0: f05f 87bc be81 123d 7c53 213d 0950 c03d
000002d0: 7613 fc3c 6e7c d4bc 2eaa 5cbc 14c4 6cbc
000002e0: 9441 50bd 79e3 b4bd dd07 863c e4a3 18bc
000002f0: 22d7 1abd 1e4b cf3c ab84 833c 5e33 d9bc
00000300: 2202 0d3d dd9f 563c 12df 2fbd b126 f9bc
00000310: 1bed 4abd 6915 9fbd cc6e 63bd 2c69 a9bd
00000320: 1d89 a7bd c3e6 b9bd cf6f 9abc 5b63 203d
00000330: 52e3 443d d1e0 db3c 744e 60bc b1ef a4bc
00000340: 67ec f737 e379 dd3c 36a4 7b3d d46e 2c3d
00000350: a09f 553d 003f 23bd 2eab 97bd 0612 c2bd
00000360: 755b 74bd e948 80bd 0f3e d7bd fd2e 8f3d
00000370: 7996 573d ef75 123c b224 6e3d 021c 683d
00000380: f61a ae3c 8bbb bb3c aa31 873d 0c18 8c3d
00000390: 637d 413c 6c5e 233d 450d 333d 4d77 0abc
000003a0: fa0e c33c c357 0c3d 8a48 0a3e a82f 61bc
000003b0: b150 23be 53fd d6bb 61e0 9b3c f4c5 543d
000003c0: e16b a03d 3b3b 5b3d 50e3 86bb d8f4 ddbc
000003d0: 207a 693a 5533 ed3c 9972 8c3d 38cf c03d
000003e0: 52b3 fd3d a131 7f3d cdcc 9d3d 8de5 a53d
000003f0: 6331 59bd b589 e4bc 7cf8 26bd 59c6 fbbd
0.03715045 -0.019625876 -0.047144376 0.03414886 0.02314522 0.09885062 -0.05486216 0.024733152
0.06944398 -0.05747001 -0.032363724 -0.02390885 -0.26504043 -0.07937615 0.022536026 -0.069326505
-0.005544275 -0.04619192 -0.018854884 -0.022068614 -0.056772366 -0.03847541 -0.034981683 -0.06260966
-0.024266038 -0.014927358 -0.008079564 -0.009933799 -0.041025683 -0.1474242 0.04166223 -0.017830938
-0.05667755 -0.08631156 0.05217216 0.08458089 0.13233012 0.10922747 0.16305062 0.051460695
0.016659463 0.00526692 0.011462968 -0.046782836 -0.06035752 0.118589334 0.10003803 0.06813202
0.15396608 0.12128971 0.067417406 0.12630236 0.07489534 0.024380546 -0.018409887 0.008096983
0.048506293 0.11590427 0.08544472 0.12576938 0.0672925 0.07604259 0.0041234037 0.15336046
0.15652728 0.18486905 0.30132246 0.25427356 0.27720883 0.024578225 -0.016328814 -0.017105147
-0.047571547 -0.06592547 -0.08875627 0.05338294 0.02629624 0.0043103555 0.040207487 0.0061618336
0.025013916 0.10106112 0.110328466 0.11712928 -0.0010174074 0.019959139 0.029065076 -0.1159823
-0.10172777 -0.07641715 0.021678304 -0.0119095165 -0.044158023 0.088587284 -0.026674075 -0.042624824
-0.05207979 0.044370756 0.12058758 -0.004301488 0.013729263 0.0337221 -0.010027085 -0.02348146
-0.017955085 0.025771169 0.009401475 -0.00053694734 -0.03348529 -0.010555662 -0.057015847 0.004314496
-0.008712535 -0.016046207 -0.013549869 -0.06763443 -0.08249814 -0.027723258 0.044302113 0.08484378
-0.047076877 -0.0054470147 -0.071236365 -0.075639285 -0.04955213 -0.0893519 -0.016296253 -0.022475174
-0.053583287 -0.011207406 -0.025311224 -0.04304271 0.12375094 0.096742965 0.08379622 0.13121141
0.16252531 0.18868995 0.30783737 0.330947 0.37279415 -0.07582535 -0.05819782 -0.027544681
0.0865531 0.12119044 0.20178118 0.020267129 0.061476614 0.13969629 0.004465629 0.032952074
0.05353922 -0.26296863 -0.17657153 -0.09668388 -0.0044226316 0.026625065 0.07158505 0.018932953
0.02414335 0.02309143 -0.10217747 -0.06502894 -0.09142615 -0.029036082 0.0036000118 -0.0026136204
-0.0144956345 0.0040897205 -0.0051204255 -0.089521095 -0.11410368 -0.14952202 -0.101584144 -0.05949175
-0.016525239 0.035768263 0.039386258 0.093902655 0.030770998 -0.025938239 -0.013468308 -0.014451046
-0.05084379 -0.088324495 0.016361171 -0.009316418 -0.037802823 0.025304373 0.016054472 -0.026513752
0.034425862 0.013099638 -0.042937346 -0.030413957 -0.049542528 -0.077677555 -0.055525586 -0.08272013
-0.08180449 -0.090772174 -0.018852143 0.039157253 0.048068352 0.0268406 -0.01369058 -0.020133825
2.9554778e-05 0.02703566 0.0614359 0.04209788 0.052154183 -0.039855003 -0.07405697 -0.09476094
-0.059657533 -0.062639065 -0.105098836 0.06991384 0.052633736 0.00893925 0.058140464 0.056667335
0.02125309 0.022916576 0.066012695 0.06840524 0.01180968 0.03988497 0.043713827 -0.008451295
0.023810852 0.034263384 0.13504234 -0.013744272 -0.1594875 -0.0065609603 0.01902789 0.051946595
0.07833076 0.053523283 -0.004116453 -0.02709429 0.00089064427 0.028955141 0.06857795 0.09414524
0.12387718 0.06230319 0.07705078 0.08100424 -0.053025614 -0.027897695 -0.040764317 -0.12293691

layer1.1.conv1.bias f4 [16]
00000000: 3a37 0f3a f5a7 293b 4062 3e3b af5b 84bb
00000010: de33 7e3b 377d d33a a55c 1c3b 68f5 743b
00000020: 8a35 46bb b4c2 143b 4fc2 04bb 2319 e3b9
00000030: ee77 4cba e4f4 8e3b cdd7 34bb 1499 5c39
0.00054632465 0.0025887464 0.002905026 -0.00403925 0.003878824 0.0016135339 0.0023858931 0.003737772
-0.0030244314 0.002269906 -0.0020257419 -0.00043315542 -0.00077998533 0.0043626893 -0.0027594448 0.00021037861

layer1.1.bn1.weight f4 [16]
00000000: 88ca 6f3f c283 133f 6606 733f 3728 613f
00000010: 0d82 613f d8fe b83f 8722 8f3f f4ba ad3f
00000020: 8d58 3f3f ef0b 543f 3194 353f 1e19 743f
00000030: 63e3 6e3f f074 2f3f b147 1f3f d17d 8e3f
0.93668413 0.5762292 0.9493164 0.8795199 0.88089067 1.4452772 1.1182412 1.3572679
0.7474449 0.8283071 0.7092925 0.95350826 0.93315715 0.6853781 0.6221877 1.1132146

layer1.1.bn1.bias f4 [16]
00000000: 5074 08bf 478b 93be 2513 d4be e230 57be
00000010: fe53 fdbe 9b30 cfbe 6078 92be 8efa bdbe
00000020: 6c49 c5be 707c 1abf 5000 d4be 0379 26be
00000030: c740 30be dbef d1be 8148 e5be 1aa3 c3be
-0.5330248 -0.28817198 -0.41420856 -0.21014741 -0.49478143 -0.4046677 -0.28607464 -0.3710522
-0.3853258 -0.60346127 -0.41406488 -0.162571 -0.1721221 -0.41003308 -0.4478188 -0.38210374

layer1.1.bn1.running_mean f4 [16]
00000000: 70ab 3140 1bdc bbbe b176 8abe b7a2 6bc0
00000010: cd52 be3f 20b5 f5be 9f45 99c0 d243 29bf
00000020: 526f 1840 ea77 97c0 73fe 03c0 35f0 91c0
00000030: 7c3b 85bf 9353 4040 232b 0dbe 0982 b2c0
2.7760887 -0.36691365 -0.2704368 -3.6818063 1.4869019 -0.4798975 -4.7897487 -0.6611911
2.3817945 -4.733388 -2.0624053 -4.560572 -1.0408778 3.005101 -0.13785987 -5.5783734

layer1.1.bn1.running_var f4 [16]
00000000: 13ab 8140 a98a ac3f a931 1641 cd65 4d41
00000010: 5190 cb40 699d cd42 8037 2e42 1a10 ee42
00000020: 949d ad40 96de 9940 dde8 0640 da84 6741
00000030: dbc7 1142 27e0 7240 34da 4240 dab3 d541
4.052133 1.3479816 9.387124 12.837354 6.3613667 102.80744 43.5542 119.03145
5.4254856 4.808421 2.1079628 14.469934 36.44517 3.7949312 3.044568 26.712818

layer1.1.conv2.weight f4 [16, 16, 3, 3]
00000000: 2725 1ebe 143a 12be 3928 3fbe 5730 29be
00000010: 99df 45be 95d4 82be c1cd d0bc e20b 67bd
00000020: c4f8 cdbd 7676 6fbc 03e1 843d 4503 11bb
00000030: 7fae d2bd 7fa2 01be 291a 1fbe f2e5 06be
00000040: 879c d1bd cef4 6fbe 5cf8 113e c218 2f3e
00000050: 15fa 553e b4af 673d a266 04bd f21f d03b
00000060: 8024 77be 13a0 c6be 1eb6 17be 6188 2d3d
00000070: ce38 63bd 6732 223e 6634 d9be 8f67 03be
00000080: b2a1 643e f332 023d 5490 883e 5e0f 463c
00000090: 9a5c efbd ab04 a93d 4666 1a3d 5263 33be
000000a0: 3e5f 15be 9f53 52bd f6e0 27bb e401 48be
000000b0: 2300 5cbe edf3 5fbd 8d03 7a3d 68e5 b4be
000000c0: b308 4bbd 55fd 653e 4038 ce3d dd34 58be
000000d0: 4e2d 75bd 4fd6 4dbe c0fc 5b3e eeca 5f3e
000000e0: fb7e 8a3e d6ea bb3e 051a 953e 7459 983e
000000f0: 6603 6a3e 46e0 723e 770a b5bd 4c0b 17be
00000100: 34a5 63be e1e0 1abd 26f5 82be 0f63 02bf
00000110: 1516 d3bd 737b 38be 94fd cc3c e264 39be
00000120: 66da b1bc fe44 e5bd 06cc 00be e708 69ba
00000130: f5bc 0dbe f568 d7bd 29f0 093e 37dd a83d
00000140: cacd aebd b371 073e d41a ef3d d8d6 e2bc
00000150: 6a96 02be 42a1 a43c 03ef 933d a44f 34be
00000160: e60b dfbd acc6 17be d3a7 9e3c a47f f93d
00000170: 9094 293d cee9 0e3d c484 2b3d f918 cd3d
00000180: 4d9b 323e 4a0f 073e 60b7 ff3d d09e 9abe
00000190: cdd6 3ebe 408d 65bd a207 4c3d cf6e 19be
000001a0: 9730 48bc 40b9 653e 0a44 5a3e 8d9f 5d3d
000001b0: 1745 82bd 61ca 493d fba0 57bc 013d 2cbe
000001c0: 112d c3bd f8dc 0bbe 14ab cdbd 66bf 60be
000001d0: 9382 aebd c9e0 ab3d 2bee 93bc 9186 a2bd
000001e0: 369d 873c 5a95 ac3b 211c 29be 287a 29be
000001f0: 12b2 a2bd 4247 fdbc b722 de3c ffe4 ccbd
00000200: f2c2 01be 85a8 00be 1ed0 74be dda7 3dbe
00000210: 5b85 01bb 8c96 25be eff1 83be d8e8 a23d
00000220: 4d91 243c 5cf5 123e ac62 98bd a4a4 ee3d
00000230: 7b4b 313e 4d81 0e3e 9093 5cbd 05fd 8abe
00000240: 70e6 a63d 0235 333d 0dd8 143d 3da1 c93d
00000250: f7c0 fcbb a590 183d 5a11 dbbd 9189 f2bd
00000260: 84ad b3bc b9d8 b73b 3b1f 27bd 064f f5bd
00000270: cb8c 003e 34da 863d b364 92bd 437e cebb
00000280: 769e 66bc ce64 a5bc 1ac8 bf3e b0da 6dbe
00000290: 9f25 47bf 299e 9e3e 7ea4 b1bd e075 aebe
000002a0: 4d60 583e c73f c3bd 40b5 9bbc ba72 4fbd
000002b0: 392a d63e e42d 0bbe 94a5 133f f67c da3e
000002c0: f7bd aebe 636f 563e 6a4d 8a3e 23d0 3bbe
000002d0: d81d afbd fec4 7a3e e516 5cbd 70d2 6bbe
000002e0: 86b6 3b3e 9f85 ec3d 9816 01be 52e4 c6bd
000002f0: 5fb3 b73c d9ff f7bd 0c26 893d 2308 573d
00000300: 1845 663d 11f8 56be 964e 68bd f118 143e
00000310: ee56 62be a56e 1d3e 7c3e 2fbd 273b 62bd
00000320: 2fce 8d3d 9539 433e a8e1 ddbd 5cbc e2bc
00000330: 3631 393e 40b6 533e 9881 5f3c ef41 5dbe
00000340: 42e1 47bd b01e f0bd 9096 013d 1172 4b3e
00000350: 7fbd b8bd 4398 aebe fcea 0e3e 357a 8dbe
00000360: d0c2 f43d bce8 5b3e 1555 e93c edc0 8a3c
00000370: 2ef8 993c 4fc0 b3bd a2ec f53d cd9d 9f3d
00000380: c29b c13d 481a dbbd 4a17 253d 5bb2 dc3d
00000390: 108c 2b3e fe91 7d3d 6879 ea3d 3bb2 e5bd
000003a0: 22ea 37be 4763 a53c 3e46 043e d80f 2c3e
000003b0: adb4 83bc e609 243e 5fb5 cc3b a172 f8bd
000003c0: d189 0a3e 25ac 62be 0f8d 2cbe 026a b03e
000003d0: 9ab4 a5bd bfbe 85be b826 273e 8b11 40be
000003e0: bead 22bf e530 983e 0aa5 37be 2395 b9be
000003f0: c564 41be c248 3c3e 0ecd f93d 4475 74be
-0.1544386 -0.14279968 -0.18667687 -0.16522346 -0.19323577 -0.25552812 -0.025488736 -0.056407817
-0.10057214 -0.014615646 0.0648823 -0.0022127193 -0.10287189 -0.12659644 -0.15537323 -0.13173655
-0.10234933 -0.2343323 0.14254898 0.17099288 0.2089618 0.056564048 -0.03232444 0.0063514644
-0.24135017 -0.38794002 -0.14815566 0.04236639 -0.055474095 0.1583954 -0.4242279 -0.12832473
0.22327307 0.03178687 0.26672614 0.012088625 -0.11687584 0.082528435 0.03769519 -0.17518356
-0.14587113 -0.05134928 -0.0025616265 -0.19531971 -0.21484427 -0.054675985 0.061038543 -0.35331273
-0.049568843 0.2245992 0.100693226 -0.21113916 -0.05985766 -0.20101283 0.21483135 0.21854755
0.27050003 0.36702603 0.29121414 0.29755747 0.22852859 0.23718366 -0.08839887 -0.14750403
-0.22230989 -0.037812117 -0.25577658 -0.509324 -0.10306946 -0.18015842 0.02502326 -0.1810489
-0.021710586 -0.111948 -0.12577829 -0.0008889571 -0.13841613 -0.10518066 0.1347052 0.082453184
-0.08535345 0.13226967 0.11675039 -0.027690336 -0.12752691 0.020096425 0.07223322 -0.17608505
-0.10890941 -0.14821881 0.019367134 0.12182549 0.041401446 0.034890942 0.041874662 0.10014529
0.17442055 0.13189426 0.12486148 -0.3019929 -0.18636627 -0.05604291 0.049811967 -0.14983676
-0.012218616 0.22433949 0.21315017 0.054107238 -0.06360834 0.04926527 -0.013160939 -0.16820146
-0.0953008 -0.13658512 -0.10042396 -0.21948013 -0.08520999 0.08392484 -0.018057903 -0.07935823
0.016554456 0.0052668275 -0.16514637 -0.16550505 -0.079441205 -0.030917767 0.027116163 -0.10004615
-0.12672022 -0.12564285 -0.23907515 -0.18521066 -0.0019763324 -0.1617071 -0.25770518 0.07954568
0.010044408 0.1435141 -0.07440695 0.116524965 0.1731395 0.13916512 -0.053851664 -0.27146164
0.08149421 0.043751724 0.036338855 0.09845207 -0.007713433 0.03724732 -0.10696669 -0.11842645
-0.021933325 0.005610552 -0.040801268 -0.11977963 0.12553708 0.06584588 -0.07148113 -0.0063016727
-0.014075866 -0.020189669 0.37457353 -0.23227954 -0.7779178 0.30980042 -0.086739525 -0.34074306
0.21130486 -0.09533649 -0.019007325 -0.05064652 0.41829088 -0.13591725 0.5767453 0.42673463
-0.34129307 0.20940928 0.27012187 -0.18341117 -0.08550614 0.24489209 -0.05373277 -0.23029494
0.18331346 0.11548924 -0.12606275 -0.097115174 0.022424398 -0.12109346 0.0669671 0.052497994
0.056218237 -0.20993067 -0.05671557 0.1446264 -0.22103474 0.15374239 -0.0427842 -0.055232193
0.06924092 0.19064935 -0.10834056 -0.027677707 0.18085179 0.20674992 0.013641737 -0.21607183
-0.048798807 -0.11724603 0.03163773 0.19867732 -0.090205185 -0.3410054 0.13956827 -0.276323
0.1195122 0.214755 0.028482953 0.016937697 0.0187951 -0.08776914 0.12008025 0.0779377
0.094535366 -0.10698372 0.040305413 0.10776206 0.16752648 0.061906807 0.11448938 -0.112156354
-0.17960408 0.02018894 0.1291742 0.16802919 -0.016077364 0.16019401 0.006247207 -0.12131239
0.13529135 -0.2213598 -0.16850685 0.34455878 -0.08091088 -0.2612209 0.16323364 -0.18756692
-0.6354636 0.29724804 -0.17934051 -0.36246595 -0.18886097 0.1838713 0.12197314 -0.23872858

layer1.1.conv2.bias f4 [16]
00000000: 4f35 b63a a078 5d3b 2184 6cbb b050 ad39
00000010: e035 31b8 94ce fb3a f998 6b3b a6e9 1fbb
00000020: 2716 c1ba 550c 5aba 28c7 4437 5e02 d13a
00000030: 76cd 033a db11 833a 5a60 21bb f729 1f3a
0.0013901385 0.0033793822 -0.0036089497 0.00033057248 -4.2250264e-05 0.0019211345 0.0035949333 -0.002440074
-0.0014731333 -0.00083178777 1.172888e-05 0.001594614 0.00050278695 0.0009999828 -0.002462408 0.0006071622

layer1.1.bn2.weight f4 [16]
00000000: 724d 583f b728 353f a6bc 2c3f f222 ee3e
00000010: 8c5c 4e3f 5e1f 543d cb24 87be 0a6d 423f
00000020: 2aae 993d a231 c03d 1687 873f cec1 8e3f
00000030: 5904 833f 6f4a 083f 751e 8b3f 33e2 803e
0.8449317 0.7076525 0.67475355 0.46511036 0.80609965 0.051787727 -0.26395258 0.7594763
0.07503922 0.09384467 1.05881 1.1152894 1.0235702 0.53238577 1.086867 0.25172576

layer1.1.bn2.bias f4 [16]
00000000: fd95 13bd 5de1 afbf f09c 143e ca8e c43d
00000010: c028 db3d f28c ff3d 646e 25bf 3bbe 903e
00000020: d06e 6b3d 558d 083e 5d5c 0bbf 5cb7 0d3d
00000030: de14 38bf 46b2 413f 4d18 5b3e 7b6a 4a3e
-0.03603171 -1.374065 0.14512992 0.09597547 0.10701132 0.12478055 -0.6462157 0.28270134
0.057478726 0.13335164 -0.5443781 0.034598693 -0.7190684 0.7566265 0.21395989 0.19767182

layer1.1.bn2.running_mean f4 [16]
00000000: ca05 4fbf b06b d53c c4ba 20bf be91 2b3f
00000010: 1ec7 84be 89e0 aabe 804e 0d3d 205c c63e
00000020: 2bf9 293e 0fd7 3cbe 624c 30be 5971 ddbf
00000030: fbd9 98be 2ef0 86be 83cc fcbf ac8a 173e
-0.8086821 0.026052326 -0.6278498 0.6701926 -0.25933164 -0.33374432 0.03449869 0.3874216
0.16598956 -0.18441413 -0.17216638 -1.7300216 -0.29853806 -0.26355118 -1.9749912 0.14798993

layer1.1.bn2.running_var f4 [16]
00000000: f71d a83f 8b7c a73f 1c9f 153f 72e1 823f
00000010: 0400 b93f 9e24 3e3f 1d25 0a3f e71b ed3f
00000020: b352 dd3e 405d d63e 0b4b c63f e033 0e40
00000030: 3881 a93f 15a6 a03f eeaa 3d40 64b5 eb3e
1.3134145 1.3084882 0.58445907 1.022505 1.445313 0.74274623 0.5396288 1.852414
0.43227157 0.4186802 1.5491651 2.2219162 1.324256 1.2550684 2.9635577 0.46036828

layer2.0.conv1.weight f4 [32, 16, 3, 3]
00000000: f8f0 973c 3893 223d a307 9b3d d72b 8c3e
00000010: 14c3 883e cb5a b43e 57da fdbd a955 81bd
00000020: b03a 1abd 5723 6f3d 221d 393e b626 c13d
00000030: cfd7 62be ca1c aebe 5139 a9be 4ce8 4ebe
00000040: 6be1 6dbe c334 1bbe fa58 c63d bc27 5f3b
00000050: a986 a6bc 08ae 223e a372 913d 376d 3a3d
00000060: 4462 5b3e 6e05 363e 4bdd 253e cadb 5a3d
00000070: 3b07 8c3e 05d3 893e 7889 7cbe 6e07 cdbd
00000080: e6e1 9cbd f179 7abe 3c4c 84be b1b5 58be
00000090: b4a7 423c 4d4b 4b3d 7daa d63d f914 81be
000000a0: 7fc8 5fbe b530 40be d808 1bbe 3155 0cbe
000000b0: 4bca 12be 67f7 05be 3626 65bd e9cb 72bd
000000c0: 7350 4b3c fe47 a23d 984f 843d 5860 493e
000000d0: fb5c 823e 33d7 693e bc5f 253e 05b7 7e3e
000000e0: a1b6 7b3e 4f5e cb3c 126a 143d 874e 9b3d
000000f0: 9f54 bebd 60d3 aebd 50ff 8bbd 8de9 15be
00000100: 3e33 04be 7c1e febd a3cd b33d 2624 a93d
00000110: 606a 1a3e e243 203e b998 a03d 0bd3 9f3d
00000120: b6bc 9abd 1032 b8bc 59e2 45bd 4497 183d
00000130: 981c 593d 33ff 1b3d f4a0 213e fb27 383e
00000140: 819c 223e db87 93bd d858 c53a 1918 893c
00000150: 77e5 733c 4fd3 873d 5ea5 953d 0765 aabd
00000160: bd26 d7bc bbf2 e9bc 93a0 80bb 91b2 9b3d
00000170: 17af be3d 4507 48be 9229 f1bd a9c9 f33c
00000180: 5ebc d6bc c34e bfbd 009a c6bd 3963 fbbd
00000190: dc0a 30be 15f0 26be f3bb 9a3d 5ff5 1e3d
000001a0: 8fc4 1b3e aad2 b53e 4d79 d73e 4fea fb3e
000001b0: 9149 363e 1ab1 a63d af10 0a3b 240c 5dbd
000001c0: d38d 273d d9f5 9bbc 2daf bcbd b081 c1bd
000001d0: 5e2e 8dbd 8527 a9bd 4063 90bc 0483 5f3b
000001e0: 1206 0a3d 02d2 c13c 09a1 063e 1240 0e3e
000001f0: a13c f13d e955 053e 292f b6bc 7d70 1ebd
00000200: 5dab 83bd 6538 4bbd 0562 6bbc 2ffb d6bc
00000210: dff6 4e3d 4804 ef3d 97ff 163e 67a0 713d
00000220: 99ce e93d 3b75 ae3d 78be c23c 6195 6b3d
00000230: 1186 393d e8d0 d3bc a2fa 46bb 9287 89bc
00000240: 553a 5cbd fc2d 343d acce 643a f981 b83c
00000250: 09ec ef3d b56e 933d 2bdd 163e 79d7 ec3c
00000260: da9b e63d 0b94 c6bd 26a5 233e 8fb4 a33c
00000270: 76e2 f1bd ccc3 443c 2968 cf3d 35cf 72bd
00000280: 7073 6a3d 3d80 b53d 38a1 9e3b 7766 b13d
00000290: db75 d33d 4377 20bd 8443 27bb 4c65 093d
000002a0: 9028 273d 5ae3 36bc f91c 3c3c a4b0 f03d
000002b0: 5e9c 8ebd 05cd b3bd 8fb2 8c3d c4f8 b0bd
000002c0: 79e7 ddbb efa0 443d 120d 303c d147 ea3d
000002d0: 783a 453e 8954 6d3e 8ddd a33e e853 3c3e
000002e0: 33ad e33d 45f1 bb3e 05d1 b93c 90fe de3d
000002f0: 736a 463e 7ce9 a33d 2c79 673d 2442 37bd
00000300: 112a e33d 44e4 d03d 1a2f acbc a25a 9f3d
00000310: 0183 723d 60e6 47bd dc5c 87bd aaaf 10be
00000320: 7b7d d4bd f49b 163c 1a16 e7bd ac05 57bc
00000330: 31f2 35bd b827 03be d68e c8bd 4880 b3bc
00000340: adfa 8a3c d6f5 a9bd 6a4a 0cbb 99ff 063d
00000350: 2973 18bc d14e 5abd 7496 323c 97bc cabc
00000360: 3779 f13d 5571 713d f3b6 0e3d 1791 063e
00000370: 98ff cb3d 412b 823d 6d48 1e3e 4718 223e
00000380: fd18 f33d 0da9 9a3c 8df1 67bb 442f 4cbc
00000390: e151 173d e239 313b f572 b0bc e46c 8dbb
000003a0: 834d 12bd 6ea8 7dbd c1f5 1d3e c5a1 883e
000003b0: f97a a4bd 2de1 153e 0c9c d13c 2ab5 f23c
000003c0: 0173 893d 05b0 75bc 5168 3c3d 61c7 12bc
000003d0: f4e8 02bd 0a02 5abd be06 8e3d 159c 0a3d
000003e0: e59c c1bc 7d1d b23d 4d45 7f3c bb31 77bd
000003f0: 4375 febb 73bb fb3d 6c69 463e 5d91 873c
0.01854752 0.03969118 0.07569816 0.27377197 0.26711333 0.3522552 -0.12395161 -0.063151665
-0.037653625 0.058383312 0.1807752 0.09431212 -0.22152637 -0.3400634 -0.3305154 -0.20205802
-0.23230521 -0.15156846 0.0968494 0.0034050783 -0.020327883 0.158867 0.07101943 0.04551431
0.21424204 0.17775509 0.16197698 0.053432263 0.27349266 0.26918808 -0.24661815 -0.10011183
-0.07660274 -0.2446058 -0.25839412 -0.2116306 0.011880804 0.04963236 0.10481737 -0.25211313
-0.21853827 -0.1876858 -0.15140092 -0.13704373 -0.14334981 -0.13082658 -0.055944644 -0.059276495
0.012409317 0.07923888 0.06460494 0.19665658 0.25461563 0.22835998 0.16149801 0.24874504
0.24581386 0.024825243 0.03623397 0.07583337 -0.09293484 -0.0853641 -0.06835806 -0.14639874
-0.12910172 -0.12408158 0.087794565 0.08258848 0.15079641 0.15650895 0.078416295 0.07803925
-0.07555525 -0.02248481 -0.048311565 0.037253633 0.053005785 0.038085174 0.15784055 0.17984001
0.15880014 -0.07203647 0.0015056385 0.016735123 0.014886252 0.06632101 0.07306932 -0.08320051
-0.026263589 -0.028558126 -0.003925392 0.07602418 0.093107395 -0.19534023 -0.11775507 0.029759245
-0.026212867 -0.093411945 -0.09697342 -0.122747846 -0.17191643 -0.16302522 0.0755538 0.038808223
0.152117 0.35512286 0.42084733 0.492022 0.17801501 0.08139248 0.0021067073 -0.053966656
0.04090674 -0.019038128 -0.092131 -0.09448564 -0.068936095 -0.08259491 -0.017625451 0.003410519
0.033697195 0.02365971 0.13147368 0.13891628 0.11779142 0.13021053 -0.022239285 -0.038681496
-0.06429169 -0.04961433 -0.014366631 -0.02624282 0.050528403 0.116707385 0.14745937 0.058990862
0.114163585 0.08518454 0.023772463 0.057515506 0.04529387 -0.02585645 -0.003036179 -0.016788278
-0.053766567 0.043989167 0.0008728306 0.022522913 0.11714942 0.0719885 0.14732806 0.02891134
0.11260195 -0.09696206 0.15980968 0.019983558 -0.11810772 0.012009572 0.10127289 -0.05927964
0.057238996 0.0886235 0.004840996 0.08662122 0.103252135 -0.039176237 -0.002552242 0.03354387
0.040810168 -0.011162603 0.011481517 0.117524415 -0.069634184 -0.08779339 0.06869995 -0.08641198
-0.0067719785 0.04800504 0.010745304 0.11439479 0.19260585 0.23176779 0.32004967 0.18391383
0.111170195 0.36707512 0.022682676 0.10888398 0.19376545 0.08003518 0.056512043 -0.04474081
0.11092008 0.10199788 -0.021018554 0.07780959 0.059206966 -0.048803687 -0.066095084 -0.1412951
-0.10375496 0.009192456 -0.112835124 -0.013123911 -0.044420425 -0.1280812 -0.09792869 -0.021911755
0.016965235 -0.082988426 -0.002140666 0.0329586 -0.0093048 -0.05329782 0.010900129 -0.02474813
0.11790698 0.058945972 0.034842443 0.13141285 0.0996086 0.06355906 0.15457316 0.15829574
0.118700005 0.018879438 -0.0035391778 -0.012462441 0.03694332 0.0027042557 -0.02153919 -0.0043159593
-0.035718452 -0.061928205 0.15425779 0.2668592 -0.08031268 0.14636679 0.025587104 0.029627401
0.067113884 -0.01499558 0.04599792 -0.008958668 -0.031960443 -0.0532246 0.0693488 0.033840258
-0.023634383 0.08697031 0.015580487 -0.06035016 -0.0077654435 0.122916125 0.19376153 0.016548807

layer2.0.conv1.bias f4 [32]
00000000: 9a4d 1b3a 944b 823a b925 cb3a 2f3c 4f3b
00000010: 54d1 80ba 7c49 41ba 3e00 68bb e282 96ba
00000020: 7932 363b 6b30 fcba 38b6 8dba 8049 343b
00000030: bef1 733a 0d37 763b 7b52 88bb 5b50 1b3a
00000040: e195 39b9 7346 04bb aae3 21bb d458 663b
00000050: 0cff 3cbb 0ae0 093a 0b1d 3ebb ecb7 053b
00000060: fcb5 d9ba e5b9 9eb9 f06c 4c3a 363f 483a
00000070: 1059 a5b9 6326 ed3a 167a 22bb c80d 87ba
0.00059243443 0.0009940737 0.0015498913 0.0031621566 -0.000982801 -0.0007373316 -0.0035400535 -0.0011483098
0.002780108 -0.0019240504 -0.0010811752 0.002750963 0.0009305737 0.0037569434 -0.004160223 0.00059247547
-0.00017698809 -0.0020183593 -0.0024702349 0.003514816 -0.0028838543 0.00052595197 -0.002900901 0.0020403815
-0.0016610022 -0.0003027461 0.00077982154 0.00076388137 -0.0003153761 0.0018093105 -0.0024792007 -0.001030379

layer2.0.bn1.weight f4 [32]
00000000: c360 643f 7c7c 2f3f f899 803f c8ee 793f
00000010: bac1 473f e188 5f3f 626c 533f 8c21 523f
00000020: 983d 3c3f 41ba 9a3f 49b1 483f 175b 7a3f
00000030: ddd4 553f c756 7c3f e058 803f da69 473f
00000040: 8543 a03f 72fe 433f ed25 5d3f acd7 6a3f
00000050: 3c52 6c3f 9a19 833f d438 893f 6ab2 763f
00000060: 954c 743f fc40 643f 45a3 603f 4207 a53f
00000070: df00 4a3f 7f99 4d3f 4e5a 513f 638e 403f
0.89210147 0.68549323 1.0046988 0.97629976 0.7802998 0.87318236 0.82587254 0.8208244
0.73531485 1.208809 0.78395516 0.9779524 0.8352793 0.9856991 1.0027122 0.7789589
1.2520605 0.7656013 0.86385995 0.9173534 0.9231298 1.0242188 1.0720468 0.9636599
0.95429355 0.8916166 0.8774913 1.289284 0.7890758 0.8031234 0.8177842 0.75217265

layer2.0.bn1.bias f4 [32]
00000000: a55b 20be 525e 26be e45f 85be f991 48be
00000010: 813f 923d c254 b6be 66dc 3abe 4543 5abe
00000020: de7a 1ebd 1b60 53be 3b7e 8ebe c4a0 063e
00000030: 3442 79bd 34b8 71be 294a 57be a25a c93d
00000040: 5bfb aabe 87a7 f6bd 20dc 81bd 06d3 8fbd
00000050: b00d 8fbe 1934 c2bd 7548 d0bd 4035 15be
00000060: 2a85 96be b1ec 50be a20e 18bc c956 ccbe
00000070: f75b cbbd 8e9b 8a3c 67b0 a63d fd51 133e
-0.1565996 -0.16246918 -0.2604972 -0.19586934 0.07141019 -0.3561154 -0.18248138 -0.21314724
-0.038691394 -0.2064213 -0.2783068 0.13147265 -0.06085415 -0.23605424 -0.21024384 0.0983174
-0.33394894 -0.12043672 -0.06340814 -0.070226714 -0.2794013 -0.09482593 -0.1017007 -0.14571095
-0.2939847 -0.2040279 -0.0092808325 -0.39909962 -0.0992965 0.016919877 0.08139115 0.14386745

layer2.0.bn1.running_mean f4 [32]
00000000: 1b22 1f40 d18e 9540 fa06 0240 c39f e93f
00000010: d422 90bf 0bca 473e 27e4 7cbc b81c 2040
00000020: ec04 07c1 9e0a 17be 9537 0940 c053 23c1
00000030: 281d 16c0 1e50 2a40 bb72 5540 0630 90c0
00000040: 6a1a 6d3e e6f4 97c0 acf7 afbe 5616 2bc1
00000050: 094f 4b40 602d b8c0 b87c 63c0 e6c4 0040
00000060: 6c57 e5c0 9cd0 8740 5199 0d40 7d3b a8bf
00000070: 1c66 48c0 df14 9ec0 9e03 37bf 2adc 2ec0
2.4864566 4.6736836 2.0316758 1.825188 -1.1260629 0.19510667 -0.015435255 2.5017529
-8.438702 -0.14750144 2.1440175 -10.207947 -2.3455296 2.66114 3.3351276 -4.505862
0.23154607 -4.748645 -0.34368646 -10.692953 3.176699 -5.755539 -3.5544872 2.0120177
-7.1669216 4.244215 2.2124827 -1.3143154 -3.1312323 -4.9400477 -0.71489894 -2.7321877
