Output/swift-iid-8W-linear-nothing-linear-2sgd-200epochs/r1-epoch_165-parameters.pt (torch, 731500 bytes, 92 tensors)

conv1.weight f4 [16, 3, 3, 3]
0.07422345 -0.36593682 0.19707848 -0.802563 1.7818145 0.24053136 -0.30443943 -0.6117885
0.18511267 0.0048698997 -0.5473188 0.22486737 -0.5010941 1.6959045 -0.18258826 -0.070844166
-0.85561717 -0.28676003 0.5441995 -0.92398274 -0.07993991 0.14894791 0.80681705 -0.45252627
0.60804766 -0.34117427 -0.26429707 0.10604954 -0.34573194 0.193517 -0.42485163 -1.133868
-0.30379927 0.10508015 -0.45305446 0.023094714 0.13900864 -0.14422266 0.1880885 -0.23087394
-0.62074685 -0.063601404 -0.053416185 -0.2945216 -0.025794312 0.050571453 0.07704841 0.07035223
0.14948213 0.11396098 0.15564108 0.32712805 0.41508585 0.26884794 0.10760473 -0.34746686
-0.27201688 0.10888208 -0.055608444 -0.040746223 0.025632968 -0.14573961 -0.04223628 -0.17771797
-0.3576649 -0.40251076 -0.023884304 0.23164517 0.06426787 -0.23737994 0.027506532 -0.025968863
-0.35019338 -0.14513342 -0.28187093 0.22863926 0.9179727 0.6696399 0.102192275 0.72931075
0.5254544 0.13123177 -0.26401466 0.053289812 -0.21382554 -0.8334552 -0.34845012 0.2329358
0.07052001 0.3524858 0.37528145 -0.037556604 0.30544424 0.07389353 -0.49326673 -0.057267457
0.18154618 0.08724329 0.26059538 -0.020486057 -0.385893 -0.043063596 -0.22856417 -0.73526704
-0.2824123 -0.15735748 -0.27554858 0.045500487 0.27658212 -0.10080404 0.1308341 0.7769315
-0.5607675 -0.34159058 0.07606715 -0.1342599 0.10881487 0.4437727 -0.5635509 -0.43095496
1.0716597 -0.73324883 -0.57498777 0.512862 0.07893814 0.28880987 0.27462277 -0.46357802
-0.6498002 1.0328968 -0.53573817 -0.74484766 0.60225916 0.17408408 0.19285075 0.0786915
0.4692421 -0.01883104 0.5091059 0.6626797 0.47543642 0.036578104 -0.08493004 -0.02677646
-0.14610642 -0.35111374 -0.2017652 -0.1995411 -0.81733245 -0.31875283 0.13028015 -0.5013176
-0.06800546 -0.04050809 -0.017929627 0.12006245 -0.263129 -0.71807367 -0.1462176 0.12694082
-0.4484211 0.07413367 0.3250029 0.9593721 0.6356528 -0.15632261 -0.2826633 0.20316723
-0.32627 -0.8052068 0.043006945 0.6321778 1.0648031 0.62307787 -0.09482814 -0.58224237
-0.22525424 -0.21124068 -0.9799553 -0.36333802 0.30256262 0.52652544 0.21053243 -0.040931843
-0.51683223 -0.3416511 0.17419551 -0.6198459 -0.21494651 0.07809075 -0.48227873 -0.07540065
-0.63597435 -0.89412403 -0.7513867 -0.19930549 -0.9388301 -0.25423685 0.34983957 0.36263078
0.20420548 0.106396094 0.6048798 0.0011089405 0.11959745 -0.045003105 0.0051675662 -0.07604209
0.30313954 -0.06378794 0.22123916 1.16781 0.1954523 0.27689308 0.6389847 0.11584373
0.23790133 0.45384377 0.064041264 0.5706373 0.5054404 -1.1812412 -0.100099474 0.23698321
-0.55801517 0.55682045 0.30814448 -0.5041337 0.76948476 0.44565862 -1.674011 0.14534241
0.37996334 -0.7508591 -0.11193547 0.18895333 -0.022403944 0.34279105 0.46379545 -0.9955467
0.07220314 0.47400814 -0.41169682 0.42361122 0.03702314 0.5869942 -0.31166136 0.42156106
-0.39223835 -0.28731722 -0.12100174 -0.4752481 -0.15687042 -0.2860301 0.039828576 -0.278619
00000000: 7702 983d 125c bbbe f1ce 493e c574 4dbf
00000010: 7f12 e43f da4d 763e 7cdf 9bbe 2c9e 1cbf
00000020: 2d8e 3d3e ae93 9f3b 161d 0cbf a243 663e
00000030: b447 00bf 6613 d93f 6bf8 3abe bf16 91bd
00000040: ba09 5bbf 36d2 92be a950 0b3f 228a 6cbf
00000050: 89b7 a3bd cd85 183e 908b 4e3f 86b1 e7be
00000060: 03a9 1b3f 65ae aebe f251 87be 8030 d93d
00000070: c703 b1be 5229 463e 2786 d9be 9622 91bf
00000080: 948b 9bbe 4334 d73d c1f6 e7be 2031 bd3c
00000090: 4858 0e3e 1baf 13be 469a 403e 386a 6cbe
000000a0: 44e9 1ebf 7441 82bd eeca 5abd 89cb 96be
000000b0: 984e d3bc 0324 4f3d 8fcb 9d3d d414 903d
000000c0: d811 193e 6064 e93d 6060 1f3e 547d a73e
000000d0: 2286 d43e 70a6 893e de5f dc3d 2de7 b1be
000000e0: cc45 8bbe 91fd de3d aec5 63bd 83e5 26bd
000000f0: 3bfc d13c c43c 15be f3ff 2cbd b3fb 35be
00000100: db1f b7be e415 cebe 04a9 c3bc 6434 6d3e
00000110: df9e 833d ba13 73be 6155 e13c a7bc d4bc
00000120: 8c4c b3be db9d 14be 6351 90be 6920 6a3e
00000130: 4200 6b3f 856d 2b3f 2f4a d13d 1cb4 3a3f
00000140: 2e84 063f 9f61 063e ee2c 87be 6b46 5a3d
00000150: 15f5 5abe 525d 55bf 0e68 b2be b986 6e3e
00000160: cc6c 903d 0579 b43e e424 c03e f4d4 19bd
00000170: 3063 9c3e 7e55 973d 758d fcbe 4891 6abd
00000180: 3ee7 393e 9cac b23d c26c 853e 60d2 a7bc
00000190: c493 c5be 7463 30bd ba0c 6abe 763a 3cbf
000001a0: 5898 90be 5222 21be b414 8dbe b85e 3a3d
000001b0: 2c9c 8d3e 5972 cebd 60f9 053e fce4 463f
000001c0: 758e 0fbf f6e4 aebe 18c9 9b3d 6d7b 09be
000001d0: 55da de3d 2d36 e33e df44 10bf 21a6 dcbe
000001e0: 252c 893f 32b6 3bbf 6632 13bf ed4a 033f
000001f0: 52aa a13d e3de 933e 5b9b 8c3e 195a edbe
00000200: 4e59 26bf f635 843f 2326 09bf 56ae 3ebf
00000210: a82d 1a3f 1943 323e ab7a 453e 0229 a13d
00000220: 8040 f03e 8e43 9abc c454 023f 60a5 293f
00000230: 676c f33e ecd2 153d cdef adbd 4f5a dbbc
00000240: ec9c 15be 2ec5 b3be 899b 4ebe 8154 4cbe
00000250: b33c 51bf 9233 a3be 2968 053e 5a56 00bf
00000260: 7246 8bbd d0eb 25bd 27e1 92bc 4de3 f53d
00000270: d8b8 86be add3 37bf 11ba 15be c6fc 013e
00000280: 7397 e5be 65d3 973d c866 a63e 6999 753f
00000290: 24ba 223f 0913 20be 3eb9 90be 120b 503e
000002a0: dd0c a7be 0822 4ebf 0d28 303d 68d6 213f
000002b0: 784b 883f 0882 1f3f 4235 c2bd d60d 15bf
000002c0: 0ca9 66be 7a4f 58be 5ade 7abf 7107 babe
000002d0: 7de9 9a3e 5fca 063f d095 573e 26a8 27bd
000002e0: 1e4f 04bf e5ec aebe 4f60 323e 39ae 1ebf
000002f0: f01a 5cbe 0bee 9f3d 3ded f6be a86b 9abd
00000300: 37cf 22bf 50e5 64bf e15a 40bf bd16 4cbe
00000310: 2b57 70bf 552b 82be 2c1e b33e beaa b93e
00000320: 3e1b 513e 32e6 d93d 67d9 1a3f de59 913a
00000330: 82ef f43d 2d55 38bd b054 a93b f5bb 9bbd
00000340: 1b35 9b3e 40a3 82bd 858c 623e cc7a 953f
00000350: a624 483e eec4 8d3e 8094 233f 7a3f ed3d
00000360: 689c 733e 365e e83e 1128 833d 4915 123f
00000370: 8b64 013f e932 97bf f400 cdbd baab 723e
00000380: 15da 0ebf c98b 0e3f 1dc5 9d3e e80e 01bf
00000390: f4fc 443f 5e2d e43e fe45 d6bf a4d4 143e
000003a0: 8e8a c23e 4d38 40bf 6c3e e5bd fb7c 413e
000003b0: 7a88 b7bc 4f82 af3e 9976 ed3e 26dc 7ebf
000003c0: 3ddf 933d 32b1 f23e edc9 d2be 92e3 d83e
000003d0: 93a5 173d 4045 163f 1492 9fbe dad6 d73e
000003e0: 77d3 c8be 3e1b 93be c3cf f7bd b853 f3be
000003f0: a4a2 20be 8a72 92be 4a23 233d 26a7 8ebe

conv1.bias f4 [16]
-0.013690249 -0.008687621 -0.009676386 0.017951664 0.01656703 -0.019230329 -0.0009236442 0.0046085385
-0.014652342 -0.01944952 -0.005427025 -0.008888333 -0.0072752074 0.014559775 0.0037345893 -0.013318091
00000000: 114d 60bc 8656 0ebc b489 1ebc 5e0f 933c
00000010: 95b7 873c ec88 9dbc b720 72ba 3903 973b
00000020: 6010 70bc 9a54 9fbc 2fd5 b1bb 5fa0 11bc
00000030: dd64 eebb 1f8c 6e3c 03c0 743b 1f34 5abc

bn1.weight f4 [16]
1.057383 0.9662035 0.79990405 1.3359464 0.7784112 0.6950608 0.84551334 0.66344446
0.9737763 0.88852316 0.8674976 0.9335901 0.6100662 0.7315749 0.7951528 0.68585956
00000000: 5358 873f 1d59 773f 83c6 4c3f 4b00 ab3f
00000010: f545 473f 81ef 313f 9073 583f 7fd7 293f
00000020: 6749 793f 4176 633f 5314 5e3f c3ff 6e3f
00000030: 4c2d 1c3f 7e48 3b3f 228f 4b3f 7e94 2f3f

bn1.bias f4 [16]
1.5810797 0.10595927 -0.067900226 -0.54328966 0.55349565 0.22220542 0.60314095 0.44452393
0.53408355 0.68795925 -0.124042645 0.021812124 -0.34471488 0.6427557 0.6418987 -0.09623586
00000000: d260 ca3f 2c01 d93d 460f 8bbd 0815 0bbf
00000010: e4b1 0d3f d189 633e 7267 1a3f a498 e33e
00000020: b3b9 083f 191e 303f 120a febd 57af b23c
00000030: 787e b0be a38b 243f 7953 243f 4e17 c5bd

bn1.running_mean f4 [16]
-0.1076081 0.72871166 -0.28257138 0.82398486 0.056966614 0.56278175 0.11383447 -0.060984064
-0.086905465 -0.22523136 0.39962193 0.111091085 0.33879602 -0.1381824 -0.15636314 -0.6054489
00000000: a361 dcbd d98c 3a3f 32ad 90be acf0 523f
00000010: d355 693d 7712 103f 0c22 e93d 6dca 79bd
00000020: 7efb b1bd 0da3 66be 3f9b cc3e b983 e33d
00000030: ac76 ad3e b07f 0dbe a91d 20be b3fe 1abf

bn1.running_var f4 [16]
2.8085687 8.431208 5.9577947 11.18578 13.937219 6.8821235 18.944168 6.919063
17.985935 4.577603 3.0429113 15.961956 3.211145 5.043346 6.3157754 5.8219223
00000000: 97bf 3340 3ae6 0641 41a6 be40 f4f8 3241
00000010: d9fe 5e41 5b3a dc40 a88d 9741 f768 dd40
00000020: 32e3 8f41 b97b 9240 0fbf 4240 2c64 7f41
00000030: 6683 4d40 1763 a140 d51a ca40 304d ba40

layer1.0.conv1.weight f4 [16, 16, 3, 3]
-0.30210483 0.06639877 -0.027104812 -0.42626867 0.7058129 -0.43138248 0.044749275 -0.5780314
0.113780305 -0.05377519 0.0657015 0.23722512 0.09291768 0.19447675 0.3192357 -0.2641639
-0.07665023 0.014798339 -0.021292863 0.15931612 0.04567288 -0.04398575 0.11865408 -0.07412635
-0.13295287 -0.21449587 -0.14928694 -0.13355173 -0.08211388 -0.25208548 -0.07797077 -0.24206825
-0.33722386 0.061297238 0.06840005 -0.022079 0.004738934 -0.16615428 0.13743488 -0.45794237
-0.54515934 0.17365637 -0.07742926 -0.0039197723 0.04567378 0.22537844 0.07314916 0.048259486
0.1863798 0.09080329 -0.015021096 -0.08944685 -0.034866713 -0.21386856 0.03750709 -0.43814486
0.12712303 0.050347876 -0.18158875 0.28226537 -0.0011395239 0.14904267 0.15170547 -0.2610313
0.15465225 0.14949451 -0.29484895 0.37013862 0.26682425 -0.30584705 0.034695085 0.30779412
-0.4324678 0.10372616 -0.08756387 -0.7233451 0.05283212 0.13228406 -0.079600245 0.047842517
0.23143104 -0.3151079 0.7214155 -0.26254117 -0.22165775 0.46699226 -0.23267214 0.07080883
-0.5452168 -0.14103565 0.15652917 0.074908614 0.14657255 0.14695221 -0.005548377 0.09321693
-0.15659495 -0.067769624 0.13324647 0.04699693 -0.417102 -0.27976283 -0.047945775 -0.26733437
0.00010507526 0.11669284 -0.028860074 0.20108157 0.008596401 -0.13019526 -0.13840152 0.056862112
-0.123762555 -0.1184942 0.09032748 0.007714823 -0.017823799 -0.02978336 0.39482948 -0.013501953
-0.08381446 0.29569206 -0.060581423 0.072537795 -0.27197897 -0.021847885 -0.048394937 0.018942138
-0.027193991 0.22194108 -0.03445962 0.1518658 0.19873954 -0.22168072 0.13285103 0.24056783
0.18775973 0.061850253 0.21164474 0.14051811 -0.012391866 0.06441302 -0.102454424 -0.11514287
-0.14627925 0.2794363 0.45228273 0.11918745 -0.3116211 -0.44588086 -0.015438018 0.038956072
0.2803222 0.025371421 -0.179009 -0.088638544 -0.22140482 -0.15389901 -0.10403388 -0.075715445
-0.00072893756 0.1043885 -0.08651955 0.043535855 0.1287193 -0.079199925 -0.056004204 0.10726353
-0.140176 -0.12169993 -0.06378635 0.18204258 -0.23807992 -0.20429146 0.2195916 0.06629827
0.05362021 0.21774769 0.1619691 0.03459973 -0.30415812 -0.16583458 -0.16340657 -0.14168067
-0.011315497 -0.2555713 0.17597315 0.1856455 -0.33744434 -0.042092938 -0.09671544 -0.05845806
0.12951332 0.12620567 0.0072913254 0.27205756 0.2516792 0.10059028 0.04451679 -0.09662066
-0.20328476 -0.014611795 0.16720413 -0.04013544 0.104693905 -0.1627358 -0.35195896 0.054768514
0.27057946 0.3284749 -0.16025746 -0.012512691 0.25766537 -0.19370946 -0.12078401 0.15323746
-0.18849397 -0.10743498 -0.13187401 0.113815166 -0.08922459 -0.20457876 0.23665492 -0.08256119
-0.16646872 -0.110443324 0.040987317 0.22533967 -0.07905713 -0.41063458 -0.18583903 0.07907067
-0.13654977 0.12251067 -0.0021018337 -0.22194295 -0.097472884 -0.13107513 -0.10838686 -0.038377024
0.026446354 0.052378062 0.004353125 -0.102033935 -0.3049666 0.09644308 0.01670474 -0.20466685
0.12824377 0.2164235 -0.0469422 0.008955723 0.054662142 -0.07964522 -0.11546046 0.10989078
00000000: 7cad 9abe 14fc 873d e90a debc e33f dabe
00000010: 27b0 343f 2ade dcbe 044b 373d def9 13bf
00000020: a605 e93d 6043 5cbd 828e 863d 24eb 723e
00000030: a04b be3d ea24 473e dd72 a33e 7e40 87be
00000040: ccfa 9cbd bc74 723c 5f6e aebc c423 233e
00000050: 7c13 3b3d 672a 34bd e900 f33d 8ecf 97bd
00000060: cc24 08be cea4 5bbe adde 18be c9c1 08be
00000070: 522b a8bd 5911 81be 24af 9fbd bde0 77be
00000080: 9ba8 acbe d012 7b3d 5315 8c3d 05df b4bc
00000090: 0f49 9b3b 5924 2abe bbbb 0c3e 6c77 eabe
000000a0: 908f 0bbf fad2 313e 3b93 9ebd 6f71 80bb
000000b0: 6e14 3b3d 9bc9 663e 3acf 953d bdab 453d
000000c0: 59da 3e3e 13f7 b93d 0b1b 76bc e92f b7bd
000000d0: 66d0 0ebd 5c00 5bbe 09a1 193d 8654 e0be
000000e0: 8a2c 023e 9339 4e3d 67f2 39be 1685 903e
000000f0: 145c 95ba a49e 183e ae58 1b3e e5a5 85be
00000100: 295d 1e3e 1715 193e 71f6 96be cf82 bd3e
00000110: 309d 883e fc97 9cbe 6f1c 0e3d 3197 9d3e
00000120: 6b6c ddbe 626e d43d b054 b3bd 252d 39bf
00000130: 7e66 583d 7975 073e 7405 a3bd 84f6 433d
00000140: 42fc 6c3e d355 a1be b0ae 383f cc6b 86be
00000150: 40fa 62be 9c19 ef3e 9b41 6ebe 3804 913d
00000160: 5493 0bbf a66b 10be 2f49 203e b069 993d
00000170: 1d17 163e a47a 163e 29cf b5bb 85e8 be3d
00000180: 6d5a 20be cdca 8abd c371 083e da7f 403d
00000190: 658e d5be 133d 8fbe ca62 44bd 0de0 88be
000001a0: da5b dc38 a8fc ee3d f66b ecbc 54e8 4d3e
000001b0: ebd7 0c3c e851 05be 21b9 0dbe 3fe8 683d
000001c0: 3977 fdbd 16ad f2bd 9dfd b83d a0cc fc3b
000001d0: 3703 92bc 3cfc f3bc 1727 ca3e 4c37 5dbc
000001e0: eaa6 abbd f364 973e 3a24 78bd b28e 943d
000001f0: d440 8bbe 56fa b2bc c539 46bd 8b2c 9b3c
00000200: efc5 debc 8644 633e 8825 0dbd b582 1b3e
00000210: 6182 4b3e 4500 63be 1a0a 083e 6a57 763e
00000220: 1644 403e b156 7d3d 66b9 583e fbe3 0f3e
00000230: 4107 4bbc f9ea 833d a0d3 d1bd 06d0 ebbd
00000240: 3aca 15be 4612 8f3e 9a91 e73e 8d18 f43d
00000250: cd8c 9fbe 7f4a e4be beef 7cbc 6790 1f3d
00000260: 6486 8f3e bad7 cf3c 234e 37be 2088 b5bd
00000270: f2b7 62be b497 1dbe b70f d5bd b310 9bbd
00000280: 2c16 3fba a3c9 d53d 2931 b1bd a752 323d
00000290: fece 033e 9233 a2bd aa64 65bd fbac db3d
000002a0: 4c8a 0fbe d03d f9bd 6ba2 82bd 5f69 3a3e
000002b0: 39cb 73be c831 51be 9fdc 603e 63c7 873d
000002c0: dea0 5b3d 40f9 5e3e 3adb 253e 72b8 0d3d
000002d0: 9dba 9bbe 8ad0 29be 0d54 27be bd14 11be
000002e0: a264 39bc 3eda 82be 4e32 343e db19 3e3e
000002f0: 81c5 acbe a569 2cbd bf12 c6bd b871 6fbd
00000300: 249f 043e 0f3c 013e 12ec ee3b 214b 8b3e
00000310: 19dc 803e 4702 ce3d 3d57 363d 0de1 c5bd
00000320: e129 50be 4f66 6fbc 8f37 2b3e 0f65 24bd
00000330: c269 d63d 37a4 26be f733 b4be f354 603d
00000340: 6489 8a3e dd2d a83e 881a 24be 0802 4dbc
00000350: b7ec 833e c65b 46be 9b5d f7bd 48ea 1c3e
00000360: 9004 41be df06 dcbd fb09 07be ed17 e93d
00000370: 62bb b6bd 187d 51be ab55 723e d715 a9bd
00000380: c776 2abe 1c30 e2bd 51e2 273d 71bf 663e
00000390: b4e8 a1bd b23e d2be 964c 3ebe ceef a13d
000003a0: b4d3 0bbe e0e6 fa3d ebbe 09bb 0345 63be
000003b0: dd9f c7bd 8f38 06be eef9 ddbd 3a31 1dbd
000003c0: 06a6 d83c 618a 563d a9a4 8e3b 2bf7 d0bd
000003d0: 9524 9cbe f383 c53d 61d8 883c 3094 51be
000003e0: 5652 033e 1f9e 5d3e 7746 40bd 06bb 123c
000003f0: 69e5 5f3d 081d a3bd 8976 ecbd 6b0e e13d

layer1.0.conv1.bias f4 [16]
0.001243533 -0.0057046167 -0.0023842542 0.001389768 -0.007169247 -0.0063332715 0.0010933249 -0.0023786223
0.0032085055 -0.00226611 0.0039015163 0.0015113945 -0.008280364 0.0016810226 0.0064033065 -0.003628026
00000000: 0bfe a23a cbed babb 2641 1cbb e028 b63a
00000010: 01ec eabb 5587 cfbb e54d 8f3a a9e2 1bbb
00000020: ca45 523b 0483 14bb 95b0 7f3b fc19 c63a
00000030: 5daa 07bc c255 dc3a d4d2 d13b 2dc4 6dbb

layer1.0.bn1.weight f4 [16]
0.9693288 0.82419586 0.713907 1.3806595 0.69382167 0.8009619 0.64776415 0.6997735
0.8124427 0.7734536 0.6487861 0.9114995 0.70720273 1.0033677 0.7407519 0.95018405
00000000: ef25 783f 80fe 523f 9cc2 363f 73b9 b03f
00000010: 4c9e 313f d70b 4d3f dfd3 253f 5b24 333f
00000020: 3ffc 4f3f 0e01 463f d916 263f 0858 693f
00000030: 3d0b 353f 5a6e 803f eba1 3d3f 433f 733f

layer1.0.bn1.bias f4 [16]
0.466858 0.41197985 -0.42087284 -0.09736508 -0.23275918 0.2404925 -0.006813941 -0.22268268
0.2200222 0.120572664 0.303116 -0.2070861 -0.7759435 0.8079987 -0.23561242 -0.66291094
00000000: 0308 ef3e 06ef d23e a57c d7be 5867 c7bd
00000010: 6c58 6ebe aa43 763e 7b47 dfbb ee06 64be
00000020: 804d 613e cdee f63d 0532 9b3e 610e 54be
00000030: 3ca4 46bf 01d9 4e3f 6244 71be 88b4 29bf

layer1.0.bn1.running_mean f4 [16]
-1.8833866 -1.2243645 -0.70232296 -2.0143538 1.4071451 -1.6352949 -0.20789768 -1.1743723
-3.461719 -3.7644484 -4.272333 -1.8261275 1.0019972 -1.7662343 -0.049518757 2.060413
00000000: d012 f1bf fab7 9cbf 70cb 33bf 2ceb 00c0
00000010: 551d b43f 5851 d1bf 21e3 54be d551 96bf
00000020: ce8c 5dc0 b9ec 70c0 f4b6 88c0 8cbe e9bf
00000030: 7241 803f f713 e2bf 2ed4 4abd cedd 0340

layer1.0.bn1.running_var f4 [16]
5.617909 3.0233462 1.3994756 22.719484 1.8667611 3.9080641 5.564695 3.0631719
3.0438921 1.6998249 3.2607744 3.1231508 0.7196102 6.7397733 1.3128023 3.0365357
00000000: e9c5 b340 817e 4140 0422 b33f 81c1 b541
00000010: 07f2 ee3f b91d 7a40 fb11 b240 020b 4440
00000020: 21cf 4240 dd93 d93f 87b0 5040 b4e1 4740
00000030: 6038 383f 39ac d740 e809 a83f 9a56 4240

layer1.0.conv2.weight f4 [16, 16, 3, 3]
0.17455646 -0.2611337 0.23476923 -0.13107243 0.37404186 0.14263505 0.042103123 -0.036094375
-0.04877922 0.25160494 0.0021268348 -0.178908 -0.4246185 -0.3333413 -0.060342524 0.008168383
-0.00460592 -0.024160586 -0.02387075 -0.06458689 -0.083593294 -0.014603659 0.045751758 0.082634024
-0.054110393 -0.047910042 0.055760432 -0.05435797 0.12387732 -0.07314754 -0.18867677 -0.096051514
-0.09677248 -0.07564835 -0.13282833 -0.08822064 -0.15335952 -0.07777482 -0.024386184 0.03821872
-0.023916136 0.09198364 0.00860373 -0.0558361 0.018570721 0.056406226 -0.11786659 -0.0041195466
0.024535345 -0.11587878 -0.2397691 -0.17382309 -0.3681601 -0.0926765 -0.081144065 -0.109935686
-0.12923491 -0.15616131 -0.3137872 -0.28213543 -0.12550053 -0.221792 -0.06649858 -0.071140364
0.0034689007 0.03131326 -0.07593887 0.04819551 0.03753996 -0.16646668 -0.03158061 -0.00153597
0.113515824 0.3434957 0.21460746 0.24945611 0.112016216 -0.23300901 -0.028026694 0.07195281
-0.051942986 0.050035004 -0.18718353 -0.01904164 -0.1777778 0.22935677 -0.024116483 -0.05400223
-0.049066655 0.1158831 -0.016781928 -0.09368495 -0.009143534 0.04333836 0.06489456 -0.102056116
0.22906595 0.07712988 -0.110004246 -0.040625617 0.19923894 0.19091433 -0.039629083 -0.12580504
0.13783911 -0.08038205 -0.029786533 0.06747619 -0.024564343 -0.010947664 -0.066325955 0.050731886
-0.006359502 -0.04644582 0.13600285 0.009458582 -0.009640943 -0.13116406 0.6017817 -0.110668786
0.3292448 -0.50953686 -0.03504997 -0.17288187 0.14426084 -0.015482805 0.17606053 1.3780916e-05
0.14569168 0.0079371305 -0.0950432 -0.09451764 0.022759737 -0.16622949 -0.1763577 -0.10822927
0.27257475 -0.01690153 0.08008429 0.13285966 0.019707665 -0.13664411 -0.058149382 -0.11487096
0.03489084 0.048599374 -0.12904254 0.19263211 -0.0843296 -0.21315332 0.15479313 0.007640036
-0.1787776 0.14417551 -0.057121832 -0.046995074 0.16762099 -0.06217894 -0.18123427 0.20960222
0.094743215 -0.06425933 -0.08014732 -0.09112857 -0.0870529 -0.09513725 -0.09649969 -0.059321977
-0.19347647 -0.19814914 -0.16944925 0.047997575 -0.068358056 -0.11988866 0.07802514 -0.029634459
-0.025301596 0.19419076 0.18699893 0.07627541 0.02106929 0.035441026 0.09357029 -0.054656204
-0.08218739 -0.06260476 -0.06143365 -0.05860309 -0.11054347 0.045014333 -0.15909876 -0.054584634
0.16645278 -0.08153247 -0.09853566 0.21458316 0.11420666 -0.1615727 -0.040900603 0.05274654
-0.10324843 -0.020045679 0.12449379 0.049736667 -0.18577424 -0.15671054 -0.09617349 -0.04131327
-0.14688656 -0.18772447 0.07575562 -0.08334895 -0.2008561 0.19474755 0.05239901 -0.13351731
0.1129214 0.05952328 -0.11848812 0.42415243 0.16441669 -0.0955669 0.25820258 0.07813695
-0.0010045213 0.14281875 0.07709351 -0.04344632 0.1305548 0.064073496 -0.05893637 0.1633411
0.06271305 -0.12759246 -0.06607 0.043206844 0.13631937 -0.082031004 -0.0894031 0.08988553
-0.11459567 -0.15235674 -0.010460062 -0.09580226 -0.0039558834 0.16128835 -0.023803448 0.08442545
0.16124032 -0.116457194 0.039900772 0.056942247 0.008214729 0.042611275 0.059446853 0.008576192
00000000: eebe 323e 51b3 85be 5867 703e da37 06be
00000010: 6a82 bf3e ec0e 123e 5374 2c3d b2d7 13bd
00000020: b8cc 47bd 5dd2 803e 5e62 0b3b a933 37be
00000030: 9967 d9be b6ab aabe b929 77bd aed4 053c
00000040: 42ed 96bb 6cec c5bc 978c c3bc 2246 84bd
00000050: f632 abbd 2f44 6fbc 3266 3b3d 073c a93d
00000060: dca2 5dbd 523d 44bd 0d65 643d 76a6 5ebd
00000070: 64b3 fd3d 61ce 95bd 7c34 41be a8b6 c4bd
00000080: a630 c6bd 86ed 9abd 2604 08be 06ad b4bd
00000090: 470a 1dbe 6848 9fbd 89c5 c7bc 3c8b 1c3d
000000a0: c6eb c3bc eb61 bc3d a9f6 0c3c 65b4 64bd
000000b0: a021 983c 370a 673d 0a64 f1bd 43fd 86bb
000000c0: 59fe c83c db51 edbd 0886 75be aefe 31be
000000d0: 7b7f bcbe 2dcd bdbd dc2e a6bd f625 e1bd
000000e0: 2856 04be c0e8 1fbe b7a8 a0be 0e74 90be
000000f0: 3683 00be 711d 63be 6830 88bd 0ab2 91bd
00000100: 7f56 633b 5542 003d d785 9bbd a868 453d
00000110: 80c3 193d 3e76 2abe ab5a 01bd 9a52 c9ba
00000120: fc7a e83d abde af3e 0fc2 5b3e 6c71 7f3e
00000130: c268 e53d ea99 6ebe 3d98 e5bc ff5b 933d
00000140: 2bc2 54bd 81f1 4c3d 0aad 3fbe 37fd 9bbc
00000150: 620b 36be 80dc 6a3e ee8f c5bc 7131 5dbd
00000160: 1efa 48bd 1e54 ed3d 417a 89bc e5dd bfbd
00000170: c3ce 15bc 9083 313d 70e7 843d cc02 d1bd
00000180: 4490 6a3e 45f6 9d3d e849 e1bd 0c67 26bd
00000190: 4b05 4c3e 0c7f 433e 1b52 22bd 09d3 00be
000001a0: b225 0d3e 589f a4bd e302 f4bc f530 8a3d
000001b0: 293b c9bc d55d 33bc e7d5 87bd 3dcc 4f3d
000001c0: 5f63 d0bb f93d 3ebd 5544 0b3e 2bf8 1a3c
000001d0: 0cf5 1dbc df4f 06be 5e0e 1a3f 51a6 e2bd
000001e0: c692 a83e 0271 02bf 8f90 0fbd f207 31be
000001f0: 1db9 133e 97ab 7dbc 3649 343e 9534 6737
00000200: 3330 153e bd0a 023c 02a6 c2bd 7792 c1bd
00000210: a172 ba3c 1038 2abe 1d97 34be 4fa7 ddbd
00000220: eb8e 8b3e 1475 8abc 3b03 a43d 5d0c 083e
00000230: f871 a13c 6fec 0bbe 0c2e 6ebd 7741 ebbd
00000240: b3e9 0e3d 2310 473d ba23 04be 5a41 453e
00000250: ffb4 acbd dd44 5abe 1782 1e3e 4459 fa3b
00000260: 7a11 37be bfa2 133e 95f8 69bd e87d 40bd
00000270: d6a4 2b3e 58af 7ebd 7a95 39be f7a1 563e
00000280: bb08 c23d 659a 83bd 4724 a4bd 9ea1 babd
00000290: ca48 b2bd 52d7 c2bd a1a1 c5bd 9afb 72bd
000002a0: b21e 46be 9ce7 4abe 1b84 2dbe 1b99 443d
000002b0: 4fff 8bbd 3088 f5bd a5cb 9f3d f7c3 f2bc
000002c0: 4b45 cfbc f1d9 463e a67c 3f3e 4836 9c3d
000002d0: 8199 ac3c 9c2a 113d c8a1 bf3d 2fdf 5fbd
000002e0: dd51 a8bd ed36 80bd daa1 7bbd cb09 70bd
000002f0: 9d64 e2bd f360 383d c9ea 22be 2394 5fbd
00000300: 9972 2a3e 7ffa a6bd 10cd c9bd b0bb 5b3e
00000310: 2ee5 e93d 5073 25be 6487 27bd c20c 583d
00000320: ea73 d3bd d636 a4bc 9af6 fe3d adb8 4b3d
00000330: 9a3b 3ebe ba78 20be 9bf6 c4bd 1a38 29bd
00000340: 6e69 16be d83a 40be c325 9b3d dbb2 aabd
00000350: 39ad 4dbe e76b 473e 58a0 563d c3b8 08be
00000360: 5643 e73d afce 733d e6a9 f2bd 822a d93e
00000370: d95c 283e 94b8 c3bd 2133 843e 4406 a03d
00000380: 24aa 83ba 143f 123e 34e3 9d3d c5f4 31bd
00000390: 28b0 053e f738 833d 4367 71bd e442 273e
000003a0: b36f 803d 99a7 02be b54f 87bd a9f9 303d
000003b0: 4e97 0b3e dfff a7bd f918 b7bd e815 b83d
000003c0: 22b1 eabd 6803 1cbe ae60 2bbc fa33 c4bd
000003d0: 5ba0 81bb c628 253e 73ff c2bc 40e7 ac3d
000003e0: 2f1c 253e 1c81 eebd fe6e 233d 463c 693d
000003f0: 1297 063c 2989 2e3d 8b7e 733d 2883 0c3c

layer1.0.conv2.bias f4 [16]
-0.0034754737 0.012049372 -0.00413394 0.0013939139 0.005643707 0.0037198155 -0.0022991116 -0.005192993
0.0063358685 -0.0048948056 -0.007000729 0.008536537 -0.006251105 0.003326774 -0.00035042982 0.00092658313
00000000: c6c4 63bb bb6a 453c 0176 87bb fdb3 b63a
00000010: d8ee b83b 26c8 733b b1ac 16bb fc29 aabb
00000020: 1e9d cf3b 9b64 a0bb 5f66 e5bb d5dc 0b3c
00000030: 12d6 ccbb 0206 5a3b e5b9 b7b9 f1e5 723a

layer1.0.bn2.weight f4 [16]
1.3003275 0.5443068 0.44625184 0.6006253 1.1166819 0.8670833 1.3774296 1.3390986
0.96598566 0.8959273 0.5673106 1.2445724 1.178442 0.58205885 0.5155241 0.73936063
00000000: 2271 a63f b157 0b3f 1f7b e43e 94c2 193f
00000010: 6fef 8e3f 2cf9 5d3f 9d4f b03f 9567 ab3f
00000020: d64a 773f 7e5b 653f 443b 113f 264e 9f3f
00000030: 30d7 963f cf01 153f 63f9 033f bd46 3d3f

layer1.0.bn2.bias f4 [16]
-0.6267899 0.120636344 0.103833765 -0.32340407 0.4094099 -0.06187503 -0.069035485 0.7438933
-0.42024696 -0.41771442 0.1599359 -0.0014747683 0.68499887 0.13632475 -0.043433245 0.3281774
00000000: 4e75 20bf 3010 f73d cca6 d43d 3895 a5be
00000010: 2d9e d13e ac70 7dbd 7a62 8dbd cb6f 3e3f
00000020: 9c2a d7be aade d5be 3dc6 233e 034d c1ba
00000030: 165c 2f3f b798 0b3e 0fe7 31bd de06 a83e

layer1.0.bn2.running_mean f4 [16]
-0.7485265 0.91023123 0.51103306 0.8343966 0.33688825 -0.0010568985 0.32768843 -0.51987886
-1.5110421 -1.0461268 0.086770624 1.5136875 -2.118037 -0.86766726 -0.16449076 -0.79431456
00000000: 6f9f 3fbf ea04 693f 10d3 023f 049b 553f
00000010: 9e7c ac3e a187 8aba c7c6 a73e c816 05bf
00000020: d469 c1bf 7ce7 85bf ccb4 b13d 83c0 c13f
00000030: eb8d 07c0 711f 5ebf 4470 28be 3358 4bbf

layer1.0.bn2.running_var f4 [16]
1.9812099 1.5487779 1.1716474 1.141737 3.891487 2.3026538 5.7193127 3.1199415
3.4694426 1.9103248 1.1230078 5.1808586 6.0539002 1.4145566 1.2577314 2.2870488
00000000: 4998 fd3f 5b3e c63f 8bf8 953f 7024 923f
00000010: 1f0e 7940 ae5e 1340 9c04 b740 1fad 4740
00000020: 590b 5e40 8685 f43f b8be 8f3f 98c9 a540
00000030: 8db9 c140 3110 b53f 58fd a03f 025f 1240

layer1.1.conv1.weight f4 [16, 16, 3, 3]
0.13518815 0.02331734 0.061323836 0.5025611 0.29113033 0.030221675 -0.19925386 -0.31016666
-0.12021882 -0.08124359 -0.074132934 -0.08012184 -0.0072597666 0.033384513 0.011217375 0.048072036
0.2974554 0.22262926 -0.025468938 -0.008791105 0.019272765 -0.11486776 -0.09126133 -0.021170843
-0.06943283 -0.047081497 0.025464853 -0.037820578 -0.038998727 -0.017086763 0.12316155 0.11861458
0.08389698 -0.017743664 0.009087136 -0.020196132 0.038232103 -0.06803603 0.026541797 0.1221565
0.025753157 -0.05932999 0.10471533 0.06293428 -0.19225684 0.17731954 0.11804395 0.12530127
-0.01757821 -0.015466551 0.04588968 -0.24778563 -0.29395062 -0.21279623 0.02937016 0.16601026
0.12527442 -0.17545246 -0.13192417 -0.115400955 0.19481696 0.14692177 -0.06739168 -0.12031249
-0.20132661 -0.20110187 -0.048149142 -0.17925996 -0.089530095 0.13563536 0.07342206 0.15933906
-0.124968804 0.006597779 -0.00463262 0.032546055 -0.005195878 0.12928645 0.08727566 -0.029298777
-0.29085955 -0.2370983 -0.18549603 -0.17350551 0.10866117 0.054155763 0.0051600006 0.05473179
0.13024226 0.10959669 0.14957996 0.06807016 0.08505032 -0.044528596 -0.04475963 0.015831526
-0.27824455 -0.23034714 -0.13641123 0.18763503 -0.06580265 -0.121858925 0.040953882 -0.28765544
-0.27184132 0.008650383 -0.13393097 -0.16706668 0.23682976 0.18339834 0.16097741 0.19916278
0.20608826 0.25924316 0.12541662 0.07937168 0.12827659 0.19217528 0.16436362 0.13838296
-0.0121125225 -0.13426073 -0.008549088 -0.19365598 -0.33998933 -0.24962465 0.0029179377 0.13968812
0.025427239 -0.14763352 -0.038592227 -0.05015925 -0.06088344 -0.055706177 -0.10999016 0.10032429
0.1154964 0.105665855 0.17130311 0.13664833 0.11219056 -0.055737425 -0.11528448 0.015138083
-0.037878033 0.0610614 -0.010873789 -0.04742235 0.02565588 0.059205532 0.07335369 0.09323835
0.023461169 -0.01433387 0.0938528 0.03187941 -0.0081730215 0.04028688 -0.07364262 -0.12645932
-0.046950605 -0.15061553 -0.018289313 0.031075692 0.07271975 -0.012148506 0.0024030164 0.07124256
0.016480878 0.034879487 0.06525218 -0.030968346 0.13647422 -0.03297789 0.29306972 0.35297328
0.26865 0.021708237 0.10357591 -0.056742687 -0.05979763 0.14224814 0.14062911 -0.087336786
0.117825136 0.099760436 -0.12033925 0.08825125 -0.005834843 0.108711034 0.092956886 -0.058184292
0.20038709 0.27572966 0.15426584 0.10127257 0.20668595 0.06878844 -0.076515555 -0.06900914
-0.13711827 0.08727201 0.12858178 0.09223991 0.028059829 0.043516416 0.0018445465 -0.021531615
0.096755214 0.17236994 -0.07927686 -0.09311338 -0.06501165 0.0056017083 0.011168511 -0.09007496
-0.093217455 -0.03920672 -0.058332097 -0.09286034 -0.04759748 -0.036287647 -0.09740399 -0.08768356
-0.026396269 -0.0020252904 -0.022708902 -0.06387977 0.052350566 -0.0046039256 -0.014336215 0.13347523
0.13054451 0.09412899 -0.029013937 -0.042720504 -0.23867215 0.1229373 0.22132513 -0.058860984
0.026337205 0.1857784 0.0051163277 0.011374612 0.1552189 0.035671256 -0.07851923 -0.02850275
-0.1878165 -0.1758345 -0.13156042 -0.1590263 -0.018400086 0.06072141 0.016698243 -0.0873848
00000000: c36e 0a3e 0204 bf3c b42e 7b3d d8a7 003f
00000010: 090f 953e 7293 f73c 3409 4cbe 2ace 9ebe
00000020: 4935 f6bd 0a63 a6bd 02d3 97bd eb16 a4bd
00000030: 56e3 edbb 33be 083d 15c9 373c 2fe7 443d
00000040: 134c 983e edf8 633e 3ca4 d0bc 9108 10bc
00000050: ebe1 9d3c ca3f ebbd 38e7 babd 7a6e adbc
00000060: cd32 8ebd 87d8 40bd ab9b d03c c0e9 1abd
00000070: 21bd 1fbd 8af9 8bbc 1f3c fc3d 33ec f23d
00000080: 2ed2 ab3d 295b 91bc 36e2 143c 5c72 a5bc
00000090: 4499 1c3d 7956 8bbd 2f6e d93c 302d fa3d
000000a0: 49f8 d23c 0104 73bd fe74 d63d b0e3 803d
000000b0: fade 44be 4193 353e 07c1 f13d fa4e 003e
000000c0: 2e00 90bc 6b67 7dbc d1f6 3b3d 84bb 7dbe
000000d0: b280 96be 41e7 59be b199 f03c 98fe 293e
000000e0: f047 003e cfa9 33be 2117 07be 5657 ecbd
000000f0: 197e 473e a972 163e a604 8abd 6566 f6bd
00000100: 9028 4ebe a6ed 4dbe 0938 45bd ec8f 37be
00000110: 8e5b b7bd ffe3 0a3e 4e5e 963d c729 233e
00000120: a5ef ffbd 2f32 d83b 3ccd 97bb 034f 053d
00000130: 2f42 aabb ab63 043e 95bd b23d fd03 f0bc
00000140: 8beb 94be e6c9 72be acf2 3dbe 6eab 31be
00000150: bf89 de3d 6fd2 5d3d 3915 a93b 712e 603d
00000160: 3a5e 053e 3b74 e03d 7d2b 193e 5e68 8b3d
00000170: dd2e ae3d 9e63 36bd e055 37bd 1eb1 813c
00000180: 1276 8ebe 1fe0 6bbe 63af 0bbe 6623 403e
00000190: 8ac3 86bd 2c91 f9bd 42bf 273d 9347 93be
000001a0: c92e 8bbe 56ba 0d3c 3325 09be 8713 2bbe
000001b0: 8083 723e c6cc 3b3e 43d7 243e 54f1 4b3e
000001c0: cd08 533e 85bb 843e 376d 003e 9f8d a23d
000001d0: f05a 033e 99c9 443e f04e 283e 43b4 0d3e
000001e0: 9a73 46bc a57b 09be 7911 0cbc c14d 46be
000001f0: 1513 aebe 9b9d 7fbe df3a 3f3b 670a 0f3e
00000200: c94c d03c 3e2d 17be e212 1ebd c973 4dbd
00000210: ea60 79bd 292c 64bd 8542 e1bd d276 cd3d
00000220: 6089 ec3d 5767 d83d 156a 2f3e 8aed 0b3e
00000230: 2ac4 e53d ed4c 64bd 451a ecbd b905 783c
00000240: ff25 1bbd 851b 7a3d fa27 32bc f03d 42bd
00000250: 482c d23c 8081 723d 763a 963d bff3 be3d
00000260: a331 c03c 9cd8 6abc e635 c03d fc93 023d
00000270: 23e8 05bc db03 253d f1d1 96bd 8d7e 01be
00000280: 474f 40bd f53a 1abe 78d3 95bc 7392 fe3c
00000290: 18ee 943d 870a 47bc ed7b 1d3b 9fe7 913d
000002a0: e802 873c cbdd 0e3d efa2 853d 54b1 fdbc
000002b0: e6bf 0b3e d313 07bd 3c0d 963e eab8 b43e
000002c0: 7e8c 893e 79d5 b13c 9b1f d43d 056b 68bd
000002d0: 5cee 74bd 7fa9 113e 1401 103e a1dd b2bd
000002e0: 4e4e f13d 334f cc3d 6d74 f6bd 12bd b43d
000002f0: 3632 bfbb e4a3 de3d 2e60 be3d a752 6ebd
00000300: 4632 4d3e 702c 8d3e ddf7 1d3e fe67 cf3d
00000310: 7ba5 533e f4e0 8c3d 30b4 9cbd aa54 8dbd
00000320: bb68 0cbe abbb b23d f1aa 033e 47e8 bc3d
00000330: badd e53c 453e 323d b6c4 f13a 1263 b0bc
00000340: 9927 c63d bf81 303e e85b a2bd 3ab2 bebd
00000350: d424 85bd 898e b73b 21fc 363c 3879 b8bd
00000360: cbe8 bebd 3a97 20bd a3ed 6ebd 902d bebd
00000370: 93f5 42bd 5ba2 14bd be7b c7bd 7093 b3bd
00000380: fd3c d8bc bcba 04bb 0508 babc 66d3 82bd
00000390: 8c6d 563d 87dc 96bb 72e2 6abc bbad 083e
000003a0: 76ad 053e b3c6 c03d a3ae edbc b2fb 2ebd
000003b0: 7966 74be 8dc6 fb3d 0ea3 623e 3718 71bd
000003c0: 1fc1 d73c b13c 3e3e dea6 a73b 955c 3a3c
000003d0: b4f1 1e3e 061c 123d b1ce a0bd 997e e9bc
000003e0: f852 40be f60d 34be c6b7 06be cad7 22be
000003f0: c7bb 96bc 03b7 783d c1ca 883c cdf6 b2bd

layer1.1.conv1.bias f4 [16]
-0.0010702055 -0.006959349 0.0050078845 0.0004769994 -0.0054658093 0.0066514527 -0.006890841 -0.00732267
-0.007438505 -0.0036319285 0.006146929 -0.0013536057 0.00859732 -0.0008973104 -0.0071110697 0.0003926388
00000000: 2346 8cba 400b e4bb 2e19 a43b c715 fa39
00000010: 881a b3bb 6ef4 d93b 90cc e1bb 02f3 efbb
00000020: b4be f3bb a605 6ebb 2e6c c93b 786b b1ba
00000030: c6db 0c3c 7b39 6bba fa03 e9bb 16db cd39

layer1.1.bn1.weight f4 [16]
0.7561881 0.74726766 0.9678459 0.77654654 0.64989424 0.71340424 0.69491005 0.8653325
0.94119936 0.95204663 0.8117566 0.8209164 0.76502836 0.8355418 0.73043853 0.8702504
00000000: 8b95 413f ef4c 3f3f c0c4 773f c1cb 463f
00000010: 785f 263f a9a1 363f a0e5 313f 6e86 5d3f
00000020: 71f2 703f 54b9 733f 48cf 4f3f 9427 523f
00000030: e6d8 433f 11e6 553f 05fe 3a3f bbc8 5e3f

layer1.1.bn1.bias f4 [16]
-0.38447875 -0.80296576 -0.23895767 -0.08448781 -0.24589948 -0.46960184 -0.32021138 -0.72737134
-0.24943975 -0.33089525 -0.13650723 -0.72019416 -0.56231725 -0.29157862 -0.17358918 -0.35399753
00000000: 66da c4be 2a8f 4dbf 52b1 74be f207 adbd
00000010: 13cd 7bbe a76f f0be bff2 a3be 0235 3abf
00000020: 226d 7fbe 1a6b a9be 8dc8 0bbe a55e 38bf
00000030: 06f4 0fbf cb49 95be 5dc1 31be 2a3f b5be

layer1.1.bn1.running_mean f4 [16]
0.35752642 1.7015152 -0.34598076 -6.1694202 -2.687784 1.5512258 4.1092453 0.32801774
0.3614407 -2.4119887 -3.0183585 1.1057758 3.4175272 -2.3503652 -1.1568208 -0.97416234
00000000: b40d b73e 40cb d93f 6424 b1be e46b c5c0
00000010: a704 2cc0 918e c63f f07e 8340 f1f1 a73e
00000020: c10e b93e 065e 1ac0 c92c 41c0 108a 8d3f
00000030: c4b8 5a40 626c 16c0 b412 94bf b462 79bf

layer1.1.bn1.running_var f4 [16]
5.821689 4.5298476 44.332638 9.643987 3.8009648 3.6381698 5.769253 3.1022098
20.397743 7.7452893 18.515333 3.1604908 6.177234 8.7517605 6.904903 5.9730954
00000000: 474b ba40 83f4 9040 9f54 3142 c54d 1a41
00000010: 0243 7340 c6d7 6840 b89d b840 9b8a 4640
00000020: 942e a341 69d9 f740 671f 9441 7b45 4a40
00000030: e7ab c540 3607 0c41 f7f4 dc40 9923 bf40

layer1.1.conv2.weight f4 [16, 16, 3, 3]
-0.04264068 -0.01892299 0.16698833 -0.1950569 -0.021067083 -0.033354897 -0.036070418 -0.09586089
-0.04433874 -0.014349481 -0.079068795 -0.011567367 -0.18412597 -0.115575105 0.015696477 -0.058931082
0.024568181 0.15840542 -0.04941844 -0.019632712 0.0331697 0.06098642 0.015234546 -0.05777759
0.14612386 -0.018724749 -0.007977422 -0.105838336 0.28248048 0.32086298 0.23119904 0.11414232
-0.010569281 -0.03087319 -0.06910413 0.039449975 -0.19456667 -0.039689373 -0.0014638136 -0.19794148
-0.1248094 0.03711279 -0.22072962 -0.23887418 0.054042213 -0.13418198 0.03465187 0.019044021
-0.10583682 0.014128097 -0.079690374 0.026897114 -0.14351696 0.08509405 -0.04200597 -0.1239337
-0.06160486 -0.22915642 -0.07692851 0.12583789 -0.034736678 -0.020050973 0.003839125 -0.037786826
0.13353619 0.13541731 -0.11260987 0.08143707 0.13444634 -0.10802256 0.0748864 0.18005016
-0.04000506 -0.04895482 -0.18278079 -0.32187396 -0.17858298 -0.058724493 -0.4866889 -0.3446442
-0.10561983 -0.10820657 -0.049130395 0.22385077 -0.21044028 0.001004252 -0.11794809 -0.17264579
0.007306195 0.10934264 0.13746405 0.31107062 0.09991429 0.54251647 0.45095655 0.065376244
0.4731291 0.076825194 0.2026478 -0.037605423 0.05869867 0.06337675 0.014028935 0.09796987
0.12393789 0.0045004394 0.11106789 0.15387872 -0.14629108 0.011275527 0.09600307 0.045437984
0.092710406 0.09972482 -0.03809667 -0.09579713 -0.15020122 -0.09469957 -0.019976424 -0.20306213
-0.04174437 -0.08758025 -0.03346065 -0.1291128 0.06777112 0.035396 -0.26114434 -0.1328414
-0.15613042 -0.17889766 0.016422318 0.16732629 -0.13614821 -0.079221174 0.07597314 0.16350703
0.03134357 0.05881775 -0.05989579 0.20797789 0.007875911 0.06338375 0.13293844 0.11926538
-0.024699345 0.02115122 -0.011544516 -0.008841174 -0.03375124 -0.02924879 -0.040942848 -0.066685006
-0.08377636 0.19586638 0.14930299 0.055001285 0.18264544 0.10326108 0.007628795 0.060440805
-0.06092825 -0.15726937 0.12653631 0.006436655 -0.060946766 -0.005269269 0.042166308 0.007230423
0.032723807 0.01941006 -0.026695002 -0.035360906 -0.019886067 -0.0413128 -0.060350243 -0.0022149025
-0.006057816 -0.003964091 -0.031218978 -0.050059248 -0.0566616 0.032703295 0.14010611 -0.063747734
-0.029788863 0.15468258 0.040654372 0.0047803796 -0.043916725 -0.016168468 -0.035505336 -0.058281254
0.028832009 0.027868686 -0.014619524 0.04615368 -0.00092495634 -0.035244424 0.0249675 0.07459362
0.074011944 -0.006470099 0.04803654 0.0141317975 -0.13161092 -0.02241813 -0.010670353 0.08199026
0.03794085 -0.01568454 0.030662598 0.0058812983 -0.102744244 -0.058440674 -0.08103096 -0.17888182
0.14047328 0.03488642 0.04656792 0.023316445 0.03693891 -0.012294614 -0.19183758 -0.2278265
-0.22198975 -0.03256606 -0.022538604 -0.038963433 -0.095358655 -0.114094354 -0.13584144 0.03961474
-0.05684612 -0.16045864 0.038059793 -0.049700107 -0.06280507 -0.009970684 0.092022486 -0.032427702
-0.010196672 -0.04615236 0.10107238 0.035768777 0.10573193 0.0582012 0.083553575 0.10327294
0.054872107 0.049785092 0.06956105 0.024433492 -0.08824497 0.018183852 -0.051994365 -0.10702757
00000000: fea7 2ebd 6304 9bbc fdfe 2a3e ffbc 47be
00000010: e094 acbc 259f 08bd 93be 13bd b752 c4bd
00000020: 8a9c 35bd 161a 6bbc d2ee a1bd 0e85 3dbc
00000030: 858b 3cbe a4b2 ecbd e695 803c b861 71bd
00000040: 3643 c93c 0835 223e fd6a 4abd c8d4 a0bc
00000050: f4dc 073d e5cc 793d 519a 793c 32a8 6cbd
00000060: 7ea1 153e a564 99bc bcb3 02bc c5c1 d8bd
00000070: 48a1 903e 2748 a43e 71bf 6c3e 73c3 e93d
00000080: c72a 2dbc c6e9 fcbc 7786 8dbd 4c96 213d
00000090: 7c3c 47be 5391 22bd 6fdd bfba 2cb1 4abe
000000a0: 129c ffbd 9503 183d f206 62be 6f9b 74be
000000b0: 5e5b 5d3d 0067 09be 1fef 0d3d 3502 9c3c
000000c0: fac0 d8bd 8979 673c b534 a3bd 5657 dc3c
000000d0: 1cf6 12be ca45 ae3d 740e 2cbd f4d0 fdbd
000000e0: 6155 7cbd fba7 6abe b28c 9dbd a6db 003e
000000f0: 0c48 0ebd f041 a4bc d499 7b3b 5cc6 1abd
00000100: b6bd 083e d6aa 0a3e 01a0 e6bd 7bc8 a63d
00000110: 4dac 093e ef3a ddbd 0a5e 993d 125f 383e
00000120: 59dc 23bd d984 48bd e32a 3bbe aacc a4be
00000130: 75de 36be 1889 70bd 4a2f f9be 3475 b0be
00000140: 364f d8bd 689b ddbd f43c 49bd 2339 653e
00000150: a87d 57be 1ba1 833a c58e f1bd 0fca 30be
00000160: ce68 ef3b 09ef df3d 60c3 0c3e a644 9f3e
00000170: dd9f cc3d 5ce2 0a3f c7e3 e63e fbe3 853d
00000180: fa3d f23e 8756 9d3d e882 4f3e 2508 1abd
00000190: 046e 703d abcb 813d 9ed9 653c 6da4 c83d
000001a0: 26d3 fd3d 6c78 933b 9077 e33d 6292 1d3e
000001b0: 54cd 15be fdbc 383c 429d c43d 2e1d 3a3d
000001c0: f4de bd3d 873c cc3d 410b 1cbd 4931 c4bd
000001d0: 59ce 19be d9f1 c1bd 99a5 a3bc 85ef 4fbe
000001e0: 25fc 2abd 465d b3bd 090e 09bd 2536 04be
000001f0: 96cb 8a3d 65fb 103d b6b4 85be 9307 08be
00000200: a7e0 1fbe f330 37be 1988 863c 9557 2b3e
00000210: 706a 0bbe b63e a2bd ce97 9b3d 636e 273e
00000220: 1e62 003d e2ea 703d 4a55 75bd 28f8 543e
00000230: f709 013c 57cf 813d 0421 083e 6841 f43d
00000240: 4856 cabc 5345 ad3c 3625 3dbc 92da 10bc
00000250: bd3e 0abd 299b efbc b0b3 27bd 2692 88bd
00000260: f192 abbd 3291 483e e2e2 183e 0749 613d
00000270: 6807 3b3e 8c7a d33d f9fa f93b c790 773d
00000280: e78f 79bd 390b 21be bc92 013e 93ea d23b
00000290: 51a3 79bd d5a9 acbb 94b6 2c3d 2fed ec3b
000002a0: 6609 063d d901 9f3c 7aaf dabc 99d6 10bd
000002b0: 1be8 a2bc 9c37 29bd d131 77bd e627 11bb
000002c0: a580 c6bb 35e5 81bb f1be ffbc ed0a 4dbd
000002d0: fe15 68bd e4f3 053d fa77 0f3e 2c8e 82bd
000002e0: c607 f4bc 1c65 1e3e 3385 263d bba4 9c3b
000002f0: 06e2 33bd bc73 84bc 0b6e 11bd 53b8 6ebd
00000300: 1b31 ec3c df4c e43c ba86 6fbc a40b 3d3d
00000310: c578 72ba 755c 10bd a488 cc3c 8ac4 983d
00000320: 9393 973d 2003 d4bb f7c1 443d 0e89 673c
00000330: 03c5 06be 3aa6 b7bc b4d2 2ebc 82ea a73d
00000340: dd67 1b3d dd7c 80bc 2130 fb3c e8b7 c03b
00000350: 936b d2bd 7d5f 6fbd 8ff3 a5bd cc2c 37be
00000360: 3ad8 0f3e 10e5 0e3d 01be 3e3d 2102 bf3c
00000370: 414d 173d 596f 49bc 1271 44be 5a4b 69be
00000380: 4851 63be fd63 05bd e1a2 b8bc 1f98 1fbd
00000390: 664b c3bd 4daa e9bd 051a 0bbe 1143 223d
000003a0: 7ad7 68bd 454f 24be 96e4 1b3d 5792 4bbd
000003b0: f29f 80bd 145c 23bc 4976 bc3d e9d2 04bd
000003c0: f10f 27bc 420a 3dbd 09ff ce3d 4882 123d
000003d0: fb89 d83d 6264 6e3d 231e ab3d c380 d33d
000003e0: 93c1 603d 74eb 4b3d 0676 8e3d bf28 c83c
000003f0: c7b9 b4bd 4df6 943c 0bf8 54bd 4531 dbbd

layer1.1.conv2.bias f4 [16]
0.006172241 -0.0013803223 0.001980177 0.0042098872 -0.0052876333 -0.0034620445 -0.008561043 -0.0020996784
-0.0016949897 0.007928386 0.0028418254 0.001335561 -0.0029882472 -0.002514926 0.00017259222 0.006723839
00000000: 8340 ca3b eeeb b4ba dbc5 013b 18f3 893b
00000010: e243 adbb 78e3 62bb 9e43 0cbc c29a 09bb
00000020: 6b2a deba 10e6 013c eb3d 3a3b fe0d af3a
00000030: 78d6 43bb 75d1 24bb dff9 3439 a653 dc3b

layer1.1.bn2.weight f4 [16]
0.88415956 0.22439516 0.6016333 1.2077277 0.5834411 0.55404127 0.91049147 0.86288536
0.94895226 0.5850134 0.28830686 0.9877056 0.55316913 0.59936744 0.45154378 0.5808701
00000000: 4858 623f d8c7 653e a404 1a3f d296 9a3f
00000010: 655c 153f a6d5 0d3f f815 693f 0ee6 5c3f
00000020: 89ee 723f 70c3 153f f59c 933e 46da 7c3f
00000030: 7e9c 0d3f 2570 193f bf30 e73e e7b3 143f

layer1.1.bn2.bias f4 [16]
-0.7486474 -0.054675452 0.16906105 0.06833124 0.16915587 0.09694502 -0.6420123 -0.20942588
-0.15978523 0.08974099 0.075477414 -0.46058992 0.18611124 0.087437965 0.08174258 0.032813635
00000000: 5ba7 3fbf 5ef3 5fbd 571e 2d3e 40f1 8b3d
00000010: 3237 2d3e 1c8b c63d eb5a 24bf bd73 56be
00000020: bd9e 23be 20ca b73d e793 9a3d 71d2 ebbe
00000030: f293 3e3e ad12 b33d a768 a73d 9767 063d

layer1.1.bn2.running_mean f4 [16]
0.0731002 0.03495012 0.62015224 -1.361507 -0.12508565 0.0028924365 -0.3116094 0.07327845
-0.93554 -0.92741364 -0.08027702 -0.5169935 -0.63811487 -0.40134597 -0.13715626 -1.2319732
00000000: 8fb5 953d db27 0f3d 4cc2 1e3f dd45 aebf
00000010: 7416 00be 088f 3d3b 448b 9fbe 0313 963d
00000020: 8d7f 6fbf fb6a 6dbf 4768 a4bd b059 04bf
00000030: 7f5b 23bf 387d cdbe b172 0cbe 4cb1 9dbf

layer1.1.bn2.running_var f4 [16]
0.46746734 0.30329007 0.69981796 1.3134664 0.6468452 0.66336817 1.0271914 0.5623155
0.8717959 0.58956075 0.2825008 1.3249686 1.106325 0.7452764 0.49725193 0.65172905
00000000: e157 ef3e d648 9b3e 4527 333f ab1f a83f
00000010: a697 253f 7fd2 293f 027b 833f e9f3 0f3f
00000020: 042e 5f3f 74ed 163f f2a3 903e 9298 a93f
00000030: 0f9c 8d3f 6fca 3e3f ce97 fe3e b7d7 263f

layer2.0.conv1.weight f4 [32, 16, 3, 3]
-0.0050247167 -0.12894905 -0.13622646 0.16460523 0.055490118 -0.041522782 0.16807142 0.054417413
-0.022545226 0.10272164 0.11675212 0.17735207 -0.0022176537 -0.041963805 0.04741809 -0.019567695
-0.063878216 0.010455553 -0.031049663 -0.09205626 -0.07352947 -0.14182867 -0.13059236 -0.11573984
-0.09045838 -0.12475386 -0.042218156 0.09386599 0.04234897 0.014757305 -0.021656895 0.030813886
-0.071364574 -0.17620456 -0.2077282 -0.23036708 -0.056772836 0.002227977 -0.057381913 0.051892307
0.13140719 0.16694541 0.27553472 0.2793444 0.26601392 0.08524372 0.25411004 0.37656742
0.061397646 0.14491007 0.20393226 -0.0017845168 0.15086724 0.15521078 0.16016428 0.12985253
0.15300687 0.23962618 0.2742769 0.074630864 0.044858065 -0.24766073 -0.22163416 -0.11293856
-0.14830378 -0.03346938 -0.117562704 -0.19191243 -0.037641436 -0.077284575 -0.053659964 0.10299718
-0.10958521 -0.108723134 -0.08608715 -0.0663658 -0.08242569 0.018973446 0.08957316 -0.006250372
0.07516372 -0.1295321 -0.18736741 -0.1505504 -0.03142282 -0.069060035 -0.047810964 -0.03872179
-0.17385794 -0.12181017 0.06477498 0.066580474 0.06618546 0.023979299 0.07221683 0.11114298
0.06392045 0.06495411 0.0434376 -0.2467219 -0.20141324 -0.13439524 -0.0283644 0.07221245
0.047442473 0.21133824 0.42314035 0.2988447 -0.20628092 -0.22585556 -0.20380445 -0.18642476
-0.11792358 -0.021615848 -0.011196018 0.027668271 0.13438882 -0.14838703 -0.03320869 -0.069224
-0.11352774 0.08302379 0.037629936 -0.09267438 -0.08071726 -0.09302971 0.14596729 0.06043649
-0.01740447 0.095154166 0.10838381 -0.026974399 -0.062894806 -0.07321661 -0.17277823 -0.13047
-0.06782101 -0.020946417 -0.05446284 -0.05373937 -0.038566332 -0.18152551 -0.08619346 -0.09045575
-0.032282922 -0.050979 -0.1240661 0.026115723 0.112464264 0.09664205 0.20887446 0.09424796
0.04461154 -0.08921725 0.062296692 0.06782819 -0.102779076 -0.019249193 0.08237558 -0.28068608
-0.20754792 -0.13276282 0.11549417 0.16597965 0.20809685 0.22323585 0.29426247 0.32953835
0.17457762 0.2330622 0.25835323 -0.07692668 -0.06611881 -0.12837775 0.06173136 0.067481816
0.05007498 0.06572781 0.009401193 -0.015820453 0.101847254 0.24838099 0.13748696 0.03091828
0.20782986 0.1610304 -0.19187722 -0.14548214 0.108234935 0.13997532 0.17470932 0.13522048
0.07292955 0.075227 0.03243523 0.042060852 -0.018807419 -0.012522119 0.09542374 0.056007165
-0.027512424 0.013452047 0.17994766 0.18991637 0.0071351686 0.17757773 0.3253174 -0.02585042
0.016312884 0.053729136 -0.039875302 -0.10027791 -0.049158346 0.01695803 -0.052476972 0.03301631
0.07670316 0.09704984 0.07230547 0.12743196 0.20652695 0.11653905 -0.109295525 -0.12294127
-0.0059991605 -0.018836042 0.15620312 0.25829303 -0.042798776 0.20124996 0.23461588 -0.14357522
0.071395494 0.121620335 -0.022970265 -0.043238442 -0.08507283 0.04403168 0.08494625 0.052907825
0.08775187 0.122377716 0.09534913 -0.077877656 0.0074713468 0.0005812728 0.121110804 0.27600306
0.19069788 0.23226812 0.27810308 0.21538141 -0.0786883 -0.16415067 -0.18098913 -0.05293866
00000000: 61a6 a4bb 380b 04be f37e 0bbe 468e 283e
00000010: 9b49 633d cb13 2abd ea1a 2c3e cbe4 5e3d
00000020: c4b0 b8bc b95f d23d bc1b ef3d c89b 353e
00000030: 0e56 11bb 3de2 2bbd 7939 423d 6e4c a0bc
00000040: 95d2 82bd c54d 2b3c dd5b febc fe87 bcbd
00000050: 9e96 96bd 893b 11be 01ba 05be 0209 edbd
00000060: 3e42 b9bd f47e ffbd f2ec 2cbd d03c c03d
00000070: 1d76 2d3d a0c8 713c cd69 b1bc 676d fc3c
00000080: 9727 92bd f86e 34be b4b6 54be 59e5 6bbe
00000090: a28a 68bd 4003 123b 4c09 6bbd 078d 543d
000000a0: 9b8f 063e bdf3 2a3e e312 8d3e 3b06 8f3e
000000b0: fa32 883e 4294 ae3d b61a 823e 72cd c03e
000000c0: 197c 7b3d 4e63 143e 9ed3 503e 73e6 e9ba
000000d0: f17c 1a3e 93ef 1e3e 1b02 243e 10f8 043e
000000e0: d5ad 1c3e 9160 753e 066e 8c3e 11d8 983d
000000f0: 17bd 373d c69a 7dbe 11f4 62be 554c e7bd
00000100: f2dc 17be 3017 09bd b7c4 f0bd b184 44be
00000110: e82d 1abd 6047 9ebd 8dca 5bbd 2ff0 d23d
00000120: 366e e0bd 3caa debd 764e b0bd cbea 87bd
00000130: cdce a8bd 336e 9b3c 2272 b73d eccf ccbb
00000140: 70ef 993d 10a4 04be 3edd 3fbe e229 1abe
00000150: 37b5 00bd 596f 8dbd 6ed5 43bd bd9a 1ebd
00000160: d107 32be 9c77 f9bd bfa8 843d 585b 883d
00000170: 3e8c 873d 3c70 c43c 6be6 933d ee9e e33d
00000180: bae8 823d a906 853d a0eb 313d aaa4 7cbe
00000190: 463f 4ebe e89e 09be 755c e8bc 1fe4 933d
000001a0: 0a53 423d 0d69 583e daa5 d83e 2c02 993e
000001b0: 4e3b 53be ae46 67be 1db2 50be 22e6 3ebe
000001c0: eb81 f1bd b813 b1bc 816f 37bc 92a8 e23c
000001d0: 399d 093e c5f2 17be d605 08bd 50c5 8dbd
000001e0: 3b81 e8bd 6008 aa3d d921 1a3d 11cc bdbd
000001f0: 174f a5bd 5c86 bebd 7378 153e 418c 773d
00000200: d293 8ebc 30e0 c23d 55f8 dd3d 6af9 dcbc
00000210: fece 80bd 97f2 95bd c7ec 30be ed99 05be
00000220: bee5 8abd d297 abbc 6d14 5fbd d01d 5cbd
00000230: bbf7 1dbd d3e1 39be 3286 b0bd dd40 b9bd
00000240: 193b 04bd 5bcf 50bd 5e16 febd a4f0 d53c
00000250: aa53 e63d 44ec c53d 30e3 553e 1305 c13d
00000260: 97ba 363d 89b7 b6bd d12a 7f3d 82e9 8a3d
00000270: d67d d2bd 7cb0 9dbc 87b4 a83d 16b6 8fbe
00000280: 7187 54be faf2 07be 3588 ec3d 92f6 293e
00000290: 5717 553e f097 643e 92a9 963e 40b9 a83e
000002a0: 7ac4 323e dba7 6e3e e046 843e bc8b 9dbd
000002b0: 4c69 87bd 7575 03be 06da 7c3d e833 8a3d
000002c0: 6c1b 4d3d 4d9c 863d 7607 1a3c e599 81bc
000002d0: 4b95 d03d 9657 7e3e 62c9 0c3e 5548 fd3c
000002e0: 5ad1 543e 27e5 243e 767b 44be 45f9 14be
000002f0: 47aa dd3d b155 0f3e 00e7 323e 3d77 0a3e
00000300: 175c 953d 9d10 9a3d ceda 043d 0048 2c3d
00000310: 0412 9abc 9329 4dbc 866d c33d c567 653d
00000320: bc61 e1bc f965 5c3c 3344 383e 7079 423e
00000330: 22ce e93b f0d6 353e 0190 a63e 43c4 d3bc
00000340: 99a2 853c 1513 5c3d 4954 23bd 815e cdbd
00000350: 435a 49bd 91eb 8a3c 18f2 56bd 1c3c 073d
00000360: 8c16 9d3d 11c2 c63d e414 943d 867d 023e
00000370: cd7b 533e 07ac ee3d 55d6 dfbd a2c8 fbbd
00000380: 9b94 c4bb 0b4e 9abc b6f3 1f3e fc3e 843e
00000390: c54d 2fbd 7814 4e3e 253f 703e 6205 13be
000003a0: cd37 923d 1514 f93d 232c bcbc cb1a 31bd
000003b0: aa3a aebd 905a 343d 4df8 ad3d e0b5 583d
000003c0: 41b7 b33d 2ba1 fa3d 6846 c33d 527e 9fbd
000003d0: 33d2 f43b 8f60 183a f108 f83d 4650 8d3e
000003e0: 4e46 433e b2d7 6d3e 8763 8e3e f28c 5c3e
000003f0: 5527 a1bd 1d17 28be 3755 39be 35d6 58bd

layer2.0.conv1.bias f4 [32]
0.0043536327 -0.0047887843 0.0075718374 0.0012112822 0.003531115 -0.005740994 -0.001205271 0.0012045987
-0.00030978592 -0.0018257962 0.001231491 0.0061840974 0.0005048409 -0.009151894 -0.0062546087 -0.0051262174
-0.006707634 0.005222767 0.0013319416 -0.0035966488 -0.005216813 0.0103302635 0.0030703256 -0.0062059057
-0.0014285074 0.00074917247 -0.0014897161 0.0013943902 0.0026343109 -0.005110141 0.00034336757 -0.005057061
00000000: eba8 8e3b 3ceb 9cbb 2d1d f83b e3c3 9e3a
00000010: 476a 673b f31e bcbb 2ffa 9dba a0e3 9d3a
00000020: c36a a2b9 8e4f efba fb69 a13a f8a3 ca3b
00000030: 4d57 043a d3f1 15bc 76f3 ccbb d4f9 a7bb
00000040: b6cb dbbb bf23 ab3b 8b94 ae3a c1b5 6bbb
00000050: cdf1 aabb 4440 293c 8437 493b e95a cbbb
00000060: c13c bbba 1d64 443a 9442 c3ba f9c3 b63a
00000070: 67a4 2c3b f872 a7bb 0406 b439 b4b5 a5bb

layer2.0.bn1.weight f4 [32]
0.7082034 0.7837101 0.6653318 0.7433804 0.948114 0.7933288 0.8820516 0.82670814
0.7028706 0.83193856 0.7930049 0.5654991 0.7830366 0.7374642 0.87127215 0.50003433
0.6397747 0.7098778 0.6769729 0.7100116 1.1453375 0.649638 0.6425471 0.6621612
0.7090807 0.9305555 0.9559173 0.65702635 0.7434681 0.7164079 0.94129807 0.8321489
00000000: d14c 353f 3aa1 483f 2f53 2a3f 2e4e 3e3f
00000010: 99b7 723f 9917 4b3f 22ce 613f 25a3 533f
00000020: 54ef 333f edf9 543f 5e02 4b3f 8dc4 103f
00000030: 1675 483f 74ca 3c3f b10b 5f3f 4002 003f
00000040: 46c8 233f 8dba 353f 194e 2d3f 52c3 353f
00000050: 6b9a 923f ad4e 263f f77d 243f 6583 293f
00000060: 5086 353f e338 6e3f ffb6 743f e132 283f
00000070: ed53 3e3f 8266 373f e9f8 703f b607 553f

layer2.0.bn1.bias f4 [32]
0.09138121 -0.38234696 0.16061163 -0.02097763 -0.12497345 -0.13603438 -0.14185308 0.009473901
-0.00021841259 -0.061846428 -0.35692862 0.15688652 -0.040669132 -0.054874033 -0.10822556 0.4619517
-0.051623113 -0.20950478 0.05260857 -0.14043075 -0.25475246 0.051193446 0.04946592 0.13606882
-0.08900942 -0.06378609 0.05582209 -0.014041389 0.035601422 -0.081161685 -0.12756717 -0.19188975
00000000: 1226 bb3d fbc2 c3be 6077 243e 47d9 abbc
00000010: 15f2 ffbd 994c 0bbe ef41 11be 6c38 1b3c
00000020: af05 65b9 ae52 7dbd 59bf b6be dca6 203e
00000030: ad94 26bd 98c3 60bd 5da5 ddbd ef84 ec3e
00000040: c272 53bd 6c88 56be 157c 573d 14cd 0fbe
00000050: ea6e 82be 38b0 513d c79c 4a3d a055 0b3e
00000060: 924a b6bd 48a2 82bd b4a5 643d db0d 66bc
00000070: ccd2 113d 1938 a6bd f8a0 02be bf7e 44be

layer2.0.bn1.running_mean f4 [32]
-0.91433406 5.4521327 1.5410906 -0.8243077 -5.556872 1.8080597 0.117718026 -3.1801107
-2.2431712 -1.7934834 3.0923603 -1.249301 -3.3826256 0.24540494 -0.54556423 -6.1065316
1.71862 1.4945855 0.063494086 2.7482922 -5.2414846 -0.97433186 -1.1491958 -3.416144
0.27138323 -1.7370412 -4.7367487 2.1452503 -1.8126041 -1.4908679 -0.9362666 -0.69858867
00000000: cc11 6abf df77 ae40 7542 c53f d405 53bf
00000010: e5d1 b1c0 806e e73f 2616 f13d ef86 4bc0
00000020: 1e90 0fc0 dd90 e5bf 3be9 4540 18e9 9fbf
00000030: f07c 58c0 6f4b 7b3e 19aa 0bbf b568 c3c0
00000040: bdfb db3f 944e bf3f 3009 823d 05e4 2f40
00000050: 3eba a7c0 d06d 79bf d918 93bf 1aa2 5ac0
00000060: bef2 8a3e 5e57 debf 7293 97c0 c84b 0940
00000070: 6903 e8bf c2d4 bebf 2baf 6fbf b5d6 32bf
