Output/swift-iid-8W-linear-nothing-linear-2sgd-200epochs/r2-epoch_21-parameters.pt (torch, 731450 bytes, 92 tensors)

conv1.weight f4 [16, 3, 3, 3]
000000 7b e7 9b 3e a4 ef d8 be 8c 67 05 3e d9 21 b7 be
       0.30450043 -0.4237033 0.13027781 -0.3576801
000010 e8 21 ac 3f 74 99 27 3d b6 e2 e8 bd 90 f8 10 bf
       1.3447847 0.04091783 -0.11371367 -0.56629276
000020 72 bb 62 bd f7 93 a5 bc f3 c5 18 bf 9f df ed 3c
       -0.055354543 -0.020212157 -0.59677047 0.029037295
000030 bd a9 d7 be 84 da b0 3f f1 9c b5 bd 0c c6 0a be
       -0.42121688 1.3816686 -0.08867825 -0.13552111
000040 a0 98 d6 be 45 48 b7 bd a7 76 6a 3e e5 7b 3d bf
       -0.4191332 -0.08949331 0.22896825 -0.74017173
000050 62 41 5e be 9c ab 16 be 4a e4 9a 3f 0c 4d 18 be
       -0.21704629 -0.14713901 1.2100918 -0.14873141
000060 6b b1 ac 3d c0 4b 74 be e8 1f 85 3c 6d 4a ac bd
       0.08432277 -0.23857021 0.016250566 -0.08412633
000070 3b 85 9b be 3c e7 c6 3d c4 65 06 bf 7d 00 6e bf
       -0.30375084 0.09712073 -0.5249903 -0.92969495
000080 dc fb d1 be 0f 2b 86 bd 6c 11 e8 be ad 5d fb bd
       -0.41012466 -0.065511815 -0.45325792 -0.122737266
000090 8a f7 3d 3e ab 42 c5 bc f7 6d 99 3e b7 de 39 be
       0.1855146 -0.024079641 0.2996671 -0.18151365
0000a0 dc 08 c4 be 11 3a 9f bc e3 5c 85 3d 37 b1 44 be
       -0.3828801 -0.019436868 0.06511857 -0.19208227
0000b0 c0 83 04 3b e5 cd 01 3e 8c a9 8e 3d de 78 91 3e
       0.002022013 0.12676199 0.06965932 0.28412527
0000c0 c8 92 09 3e 87 cc 03 3e 3d d1 70 3e 20 c6 85 3e
       0.13434899 0.1287099 0.23517318 0.2612772
0000d0 16 51 4a 3e 20 59 7a 3e 6c 88 fa 3c 43 23 be be
       0.19757494 0.24448061 0.03058263 -0.37136278
0000e0 44 9b 9c be 5e b4 db 3c d7 ff 55 3d 0a 4f 0b be
       -0.30587208 0.026819404 0.05224594 -0.1360437
0000f0 c2 12 b7 bc d0 65 07 bd 1b 44 0d be 9d 27 88 be
       -0.022347812 -0.03305608 -0.13795511 -0.26592723
000100 49 51 d8 be 19 64 ce be 57 96 14 bd 35 a6 43 3e
       -0.42249516 -0.40310743 -0.036276188 0.19106372
000110 6a 6d 14 bd 4f f9 53 be 5e ad ba 3d 5f 57 c5 bd
       -0.036237158 -0.20700572 0.091150984 -0.09635805
000120 55 0c 61 be 6e 12 58 be 65 d8 86 be e2 56 96 3e
       -0.2197736 -0.2110078 -0.2633697 0.2936316
000130 66 e3 45 3f ba d1 1e 3f 4b c0 8e 3e a6 da 43 3f
       0.7730011 0.6203877 0.27881083 0.76505506
000140 35 6e 0b 3f c6 46 3f 3d a2 9a ac be 31 f1 11 3e
       0.5446504 0.046698354 -0.33711725 0.14252163
000150 e2 84 ac be b1 06 5c bf 8b 06 a7 be 4d 30 93 3e
       -0.33695132 -0.8594771 -0.3262218 0.28747788
000160 90 f9 4f bd 78 cc 87 3e 32 3f c1 3e 29 02 2e bd
       -0.05077511 0.26523185 0.37743527 -0.04248253
000170 e9 55 da 3e d7 e8 11 bd c7 24 18 bf b0 d6 73 bd
       0.4264367 -0.035622444 -0.5943112 -0.059530914
000180 51 76 bf 3e 4c e3 33 3d 76 b7 9f 3e 3a 21 c4 3c
       0.37394956 0.04391794 0.31194657 0.023941625
000190 74 a1 8d be 88 ab c5 3d 75 fb 98 be e6 56 40 bf
       -0.2766224 0.096518576 -0.29879346 -0.75132596
0001a0 1c 80 76 be 40 14 f3 3d 1f e9 93 be 30 89 fb 3d
       -0.24072307 0.11869097 -0.28888795 0.12282026
0001b0 0b 56 9e 3e 91 a1 23 be 56 c0 b8 3d 49 41 6b 3f
       0.3092502 -0.15979601 0.0902106 0.9189649
0001c0 23 09 12 bf 95 ec b4 be 6e 64 a6 bd e6 ca 4a be
       -0.5704519 -0.35336748 -0.08124624 -0.19803962
0001d0 30 3f 80 3e 10 20 fa 3e 73 d4 03 bf a7 dc fd be
       0.25048208 0.48852587 -0.51496047 -0.49582407
0001e0 48 0f 9b 3f 27 f1 20 bf 96 f8 1d bf 2c 90 b7 3e
       1.2114038 -0.6286797 -0.6170744 0.35852182
0001f0 67 ff b9 bd 41 40 95 3e ff 45 c3 3e a3 8b 9e be
       -0.09081917 0.29150584 0.3813934 -0.3096591
000200 51 1f 35 bf 49 5c 9d 3f 2f 1b d2 be 8e b5 47 bf
       -0.7075091 1.2293788 -0.41036364 -0.78011405
000210 ff 9c e2 3e 9d 77 b3 3d 6c 88 2c 3e e1 05 7e 3e
       0.44260404 0.08763049 0.16848916 0.2480693
000220 42 24 f4 3e 48 a5 9f 3e fb 00 e4 3e e3 d6 df 3e
       0.47683913 0.31180787 0.44531998 0.43718633
000230 df 7d 01 3f 8d 85 06 3e 11 94 c2 bd de 4f ba 3d
       0.5058269 0.13136883 -0.09500898 0.09097265
000240 1a de 33 be 1a 27 ea be e1 d9 b7 be af 12 58 be
       -0.17565194 -0.45732957 -0.35908416 -0.21100877
000250 6b f2 42 bf 4e 4c 01 bf 95 6e d1 bd 00 9b 0a bf
       -0.7615115 -0.50507057 -0.1022617 -0.5414276
000260 89 d2 7a be 7b 3c 88 3d fe 73 2b 3c 7c c7 74 3c
       -0.24494375 0.06652161 0.010464666 0.014940139
000270 ad 56 38 be 06 85 0c bf 4b fc 92 be 2a 90 1e 3e
       -0.18001814 -0.5489048 -0.2870811 0.15484682
000280 ce e1 77 be ae ac 81 3d 1c c2 c7 3e 6e ab 95 3f
       -0.24207231 0.06331764 0.3901528 1.1692941
000290 ef a7 1d 3f 55 08 40 be 35 e8 81 be 4f 33 22 be
       0.6158437 -0.18753178 -0.25372472 -0.15839885
0002a0 87 c7 2d be 04 8f 68 bf 0d 44 89 be f4 dc 09 3f
       -0.16970645 -0.90843225 -0.2680973 0.5385277
0002b0 4f 41 a2 3f 41 a6 18 3f 7f a8 2a bd e3 37 aa be
       1.2676181 0.59628683 -0.041664597 -0.33245763
0002c0 a9 bb 94 be 36 3a e0 bd 5a b5 7c bf bb 2c d7 be
       -0.29049423 -0.10948603 -0.9871422 -0.42026314
0002d0 37 1a 4e bd 63 bb 00 3f ee 21 da 3d f9 d1 14 be
       -0.05031797 0.5028593 0.10651003 -0.14533223
0002e0 c1 12 d0 be 27 7b c2 be bf 6f 8b 3e b1 cd 07 bf
       -0.40639308 -0.37984583 0.27233693 -0.53048235
0002f0 a1 45 4b bd 15 48 24 be 3e 0c 6e be f9 7f 17 be
       -0.04962695 -0.16043122 -0.23246858 -0.14794911
000300 50 eb 1f bf 86 87 c0 be 81 3e 24 bf a6 5e 00 bf
       -0.62468433 -0.37603396 -0.64157873 -0.5014442
000310 d0 0c 2e bf aa ce e9 be 98 d9 92 3d 9d 5e 54 3e
       -0.679883 -0.45665485 0.07170409 0.20739217
000320 7a 66 11 3b 0b 7a a1 3d 80 75 0f 3f a4 a5 9d bd
       0.0022186325 0.07884606 0.56038666 -0.07697609
000330 79 db 0f bc f2 e9 07 3c a7 50 41 be 4c f3 0d 3e
       -0.008780354 0.008295523 -0.18878423 0.13862342
000340 54 38 ab 3e 47 c2 98 3d 5d 50 f3 3e 0c fa 98 3f
       0.33441412 0.074589305 0.4752225 1.1951308
000350 77 1c d0 3e 85 b4 99 3e 3d 29 1e 3f 0c aa 78 3e
       0.40646717 0.30020538 0.61781675 0.24283618
000360 88 fe 7b bd ba f0 b6 3e f3 2f 75 3e 68 08 e6 3e
       -0.061522037 0.35730535 0.23944072 0.44928288
000370 6c 8b f0 3e 6d 42 71 bf ad 34 1e be 0b 85 94 3e
       0.4698137 -0.9424198 -0.15449782 0.29007754
000380 1f c1 d3 be ac d9 d2 3e 14 f2 10 3e e9 d2 09 bf
       -0.41358277 0.41181695 0.14154845 -0.5383745
000390 2d d0 65 3f 69 81 90 3e b7 33 d0 bf 8b 6d 9e 3e
       0.89770776 0.28223732 -1.6265782 0.3094295
0003a0 e8 9c 88 3e 4a 00 31 bf 11 ab fd 3c 05 85 19 3e
       0.2668221 -0.69141066 0.03096536 0.14992149
0003b0 96 ff c7 bd 45 54 1a 3f b5 df 49 3e 5d 5c 9a bf
       -0.09765546 0.60284835 0.19714244 -1.2059437
0003c0 67 ee 8c 3e 54 dc 8a 3e a7 3e 06 bf 2c a1 5e 3e
       0.27525637 0.27121222 -0.5243935 0.2174117
0003d0 2b 6f 8b be 5c 1f 30 3e b5 8a 2e be 80 ab 3c 3f
       -0.27233252 0.17199463 -0.170451 0.7369919
0003e0 5d 1c 1c be 09 89 1f be 44 86 67 3e 91 3c cc be
       -0.15245195 -0.15579619 0.22609812 -0.39889959
0003f0 28 4e 49 be 47 fe ed be af f4 03 be c3 f9 6a be
       -0.1965872 -0.4648306 -0.12886308 -0.22946839

conv1.bias f4 [16]
000000 ff 33 fb bc 91 5a 9f bc 8d 7e b1 bc c3 b4 24 3d
       -0.030664442 -0.019452365 -0.02166679 0.04021145
000010 5f fb 17 3d c9 5f 30 bd da 8d 07 bb e4 1a 29 3c
       0.03710496 -0.043060098 -0.0020683915 0.010321353
000020 5e 6e 06 bd 93 61 32 bd 41 2b 47 bc fa 1b a3 bc
       -0.032820098 -0.043550085 -0.012156309 -0.019910801
000030 1b 80 85 bc a5 95 05 3d 1c 09 09 3c df 53 f4 bc
       -0.016296437 0.032613415 0.008363988 -0.02982515

bn1.weight f4 [16]
000000 99 b2 b3 3f 08 8b 5b 3f 9a a6 4d 3f 26 0f b6 3f
       1.4038879 0.8575902 0.8033234 1.4223373
000010 3b 52 8d 3f bc 2a 3c 3f 55 b1 7b 3f 2e 67 3a 3f
       1.104072 0.7350271 0.9831746 0.7281369
000020 ef 29 92 3f 48 da 87 3f a4 f8 6d 3f 59 89 9b 3f
       1.1419047 1.0613489 0.9295752 1.215129
000030 10 48 2a 3f 3e d2 44 3f 4e e8 4d 3f 9e d9 1a 3f
       0.6651621 0.76883304 0.80432594 0.6048831

bn1.bias f4 [16]
000000 27 d7 a4 3f 7f de fb 3d 68 1b ac bb fd 5b 31 bf
       1.2878159 0.12298297 -0.0052522905 -0.6928099
000010 ea e9 c6 3e c9 f5 84 3e 60 d6 37 3f e9 c6 d5 3e
       0.38850337 0.2596877 0.71811485 0.4175332
000020 0d 9f 37 3f a5 e5 ed 3e 2b 55 2f be 56 bd 9a bd
       0.7172707 0.46464267 -0.17122333 -0.07555644
000030 2b 8c 0f bf 35 ba e4 3e af d7 e5 3e be 29 86 3d
       -0.56073254 0.44673315 0.44891116 0.065509304

bn1.running_mean f4 [16]
000000 d8 b5 5c be 63 6f f3 3e d4 2b a0 bd b0 08 28 3f
       -0.21553743 0.4754592 -0.078208596 0.65638256
000010 f7 9f 05 3d 88 1d c7 3e ad de 06 3e 3a b4 b9 bd
       0.032623257 0.38889718 0.13170882 -0.090675786
000020 4e c5 3c bd 66 a3 84 be 43 55 c8 3e ac 65 0c 3d
       -0.046086602 -0.25905913 0.3912755 0.03427665
000030 85 e5 a8 3e 04 5a 5c be d3 f8 29 be 5f 05 c8 be
       0.3298761 -0.21518713 -0.16598825 -0.39066598

bn1.running_var f4 [16]
000000 34 3a 43 40 44 fc df 40 41 ea b7 40 3d 7c 31 41
       3.0504274 6.999544 5.7473454 11.092832
000010 7d ba 75 41 05 09 e5 40 e9 78 99 41 bc 03 09 41
       15.358029 7.157351 19.184038 8.563412
000020 fc 1c 93 41 8c 82 9b 40 af a5 88 40 91 1c be 41
       18.389153 4.859686 4.270225 23.763948
000030 62 74 6d 40 46 37 a0 40 0b 22 ca 40 0f fe b2 40
       3.7102284 5.0067472 6.3166556 5.593513

layer1.0.conv1.weight f4 [16, 16, 3, 3]
000000 28 05 00 be a6 dd 30 bd 1c 73 a1 bc 3c e1 a2 be
       -0.12501967 -0.04318013 -0.019708209 -0.31812465
000010 27 45 58 3f 1b ec 00 bf 76 c5 a3 3d 11 1e 16 bf
       0.8448052 -0.5036027 0.07996647 -0.5863963
000020 9d 90 0e bd b3 9e a4 bd 3b ee 8d 3d 11 83 20 3e
       -0.034805883 -0.08038082 0.069302045 0.15674998
000030 5d 4e 4b 3d 71 63 27 3e 84 f5 8b 3e f7 a7 ee bd
       0.04963528 0.16346528 0.2733575 -0.116531305
000040 ab fb 98 3c 25 c9 0d 3e 1a 06 3d bd b5 eb 44 3e
       0.018674692 0.13846262 -0.046148397 0.1923054
000050 7f a6 93 3a 7d 99 04 bb c1 b9 28 3e ba f9 fe bc
       0.001126483 -0.0020233088 0.1647711 -0.031124938
000060 bc 9c a9 bd b4 f8 b1 bd 0a e7 81 bd 85 57 5c 3c
       -0.08281848 -0.086900145 -0.06342895 0.013448601
000070 2b 04 1e bd 92 1f 41 bd 02 7e 93 bd 1d d8 58 be
       -0.038578194 -0.04714925 -0.072017685 -0.2117619
000080 b4 8a 20 be 99 a6 81 bc d4 59 7e 3c 55 dd 6d 3b
       -0.15677911 -0.01582651 0.015524346 0.0036295254
000090 78 af bb 3d 37 35 4a be a4 e1 1a be f4 02 95 be
       0.091643274 -0.19746862 -0.15125138 -0.29103816
0000a0 ea 55 ed be 73 a8 4e 3e 30 bf 84 bd c9 a5 c3 bd
       -0.4635461 0.20181446 -0.064817786 -0.095531054
0000b0 65 e4 d8 bd aa 90 5f 3e df 8b c2 3d 15 2e e1 3d
       -0.10590438 0.21832529 0.094993345 0.109951176
0000c0 ba 88 ac 3d 65 1c 0c 3c 1e 3e fe 3c 84 a5 05 bc
       0.08424516 0.008551692 0.03103548 -0.008157138
0000d0 c3 49 bb bc 53 e0 07 bd b0 9b 8d bc 45 21 b4 be
       -0.02286232 -0.033172917 -0.017286152 -0.35181633
0000e0 f7 55 26 3e 20 cd af bd 65 e7 40 be 6c b7 0f 3e
       0.1624373 -0.08584046 -0.1883827 0.14034814
0000f0 fc 18 05 bd be f3 46 3e 32 4c 1c 3e e5 90 15 be
       -0.03249453 0.19428918 0.15263441 -0.14606054
000100 a9 2a 0d 3e 3a e2 ae 3d bf ab 1d be b3 f8 f7 3e
       0.13785805 0.08539243 -0.15397547 0.4843193
000110 6e 7d 63 3e c9 9d 69 be 9d bb 3b 3d db bf a1 3d
       0.22215816 -0.22814097 0.04583322 0.07897922
000120 13 aa 7d be b1 73 e9 3b 60 ef 44 be 5c 39 18 bf
       -0.2477191 0.007124387 -0.1923194 -0.59462523
000130 e7 f0 88 bb 38 5d 49 3e 7b 41 e7 bd 5b e7 19 3e
       -0.0041791084 0.19664466 -0.11291786 0.15029661
000140 89 74 c6 3d 67 a7 69 be 28 03 05 3f de 27 16 be
       0.09690196 -0.22817765 0.5195794 -0.14663646
000150 4b 69 61 be d9 c0 c4 3e 8e 4f 8a be 57 f8 4d bd
       -0.22012822 0.3842838 -0.2701382 -0.050285663
000160 05 dc dd be 0a a3 fa bc 86 79 d0 3d 59 d5 1f bc
       -0.43331924 -0.030595321 0.10179429 -0.009755456
000170 2f 75 66 bc fa f7 a7 bb 92 13 02 be 0b 47 38 bd
       -0.014066025 -0.0051259967 -0.12702778 -0.044989627
000180 d5 9d 3d bc d0 ba b4 3c b5 b6 93 3d b9 73 a8 bd
       -0.011573275 0.022061735 0.07212583 -0.08225197
000190 53 44 39 be 1a 4e 10 be db f6 bd 3d 7d a9 7e be
       -0.1809247 -0.14092293 0.092755996 -0.24869342
0001a0 94 06 67 be e7 3c 21 bc 34 c1 06 be 62 a2 98 3c
       -0.22561103 -0.00984118 -0.13159639 0.018632118
0001b0 d7 46 17 3c 15 5f 96 bd 75 eb b0 bd 6a a8 a2 bc
       0.009233198 -0.07342354 -0.0863866 -0.019855697
0001c0 49 6c d6 bd 40 d7 c9 bd e5 2e 9a bc 2a 9c cd bc
       -0.104698725 -0.09855509 -0.01882119 -0.025098879
0001d0 95 d5 00 bd 94 dc 01 be a1 61 a8 3e 93 81 9c 3a
       -0.031453688 -0.126818 0.32886985 0.0011940472
0001e0 90 8c 87 be 5a 96 44 3e fe 1e d1 3d d0 c9 a1 3d
       -0.26474428 0.1919798 0.102109894 0.07899821
0001f0 37 03 0b be 0d d4 a6 bd 9f 08 7a 3d 4c 7c de 3d
       -0.13575445 -0.08145914 0.061043378 0.108635515
000200 04 34 8d bd 58 34 0c 3e 11 41 9d bd d1 49 92 3d
       -0.06894687 0.13691843 -0.07678426 0.071429856
000210 4e de 51 3e 4f 8d 41 be 3d b2 81 3e 58 cd 81 3e
       0.20494959 -0.18901561 0.25331298 0.25351977
000220 19 a3 e1 3d 9d e0 10 3d de 74 40 3e e0 99 ea 3d
       0.110174365 0.035370458 0.18794581 0.114551306
000230 23 ab 3d 3d 2a 0f 90 3d 93 1b a8 bd bb 0c 2c bc
       0.046305787 0.07034142 -0.08208384 -0.010501082
000240 70 13 9a bd 6e 59 05 3f dc 57 8d 3e 5e b8 f4 3d
       -0.07523239 0.52089584 0.27606094 0.11949228
000250 fb 78 63 be 94 1d 61 be b4 2b 3c bb b8 ea 2c be
       -0.22214119 -0.2198394 -0.0028712573 -0.16886413
000260 be f2 31 3e 8a 92 ef 3b b7 10 e6 bc 14 4b e3 3c
       0.17377755 0.00731117 -0.028084142 0.027745761
000270 b9 ae 0b be e3 67 c3 bd 36 1d d8 bc a8 7b d7 bd
       -0.1364087 -0.09541299 -0.026381116 -0.105216324
000280 b2 37 b8 bd a1 48 26 bd d8 bb a0 bc 94 76 5b 3d
       -0.08994998 -0.040596608 -0.01962082 0.05357988
000290 f3 ae e7 bb cd b1 71 bd 19 5a c7 bd 35 0c 35 bd
       -0.007070416 -0.059007455 -0.09733982 -0.044201095
0002a0 76 a2 71 bd ea fd 16 bd da 68 0c bd 7f b1 c7 3d
       -0.058992825 -0.036863245 -0.03427968 0.097506516
0002b0 aa a8 cb bd 21 ee 05 be 47 65 d2 3d 66 a8 10 3d
       -0.099442795 -0.1307912 0.10273223 0.035316847
0002c0 e0 d7 78 3c b2 81 2e bd d5 69 01 3c 4f 9c cb 3a
       0.015188187 -0.042604156 0.0078987675 0.0015534254
0002d0 bf 06 cc bd a1 83 55 be d1 9e bc bd 61 a8 6e 3c
       -0.09962224 -0.20850994 -0.09209979 0.014566512
0002e0 49 ad 58 bd 89 c3 ed bd 8a 78 e1 3d 3a 2d 02 3e
       -0.052899633 -0.11609561 0.11009319 0.12712565
0002f0 0b a4 95 be 2f ac 07 bd 3a 52 c6 bd 5b 60 6f bd
       -0.29226717 -0.03312319 -0.09683652 -0.0584415
000300 3c dc 89 3c 8d 11 2a 3d 08 13 99 3b 25 2d 16 3e
       0.016828649 0.041520644 0.004671458 0.14665659
000310 29 e7 15 3e f9 6f b0 3d a8 f1 61 bd fd 7c 95 be
       0.14638962 0.08615107 -0.055162102 -0.2919692
000320 63 d4 01 be 7c 1e 60 3c 69 cf 80 3e bc 0b 1d 3e
       -0.12678675 0.013679143 0.2515824 0.15336508
000330 28 4e 55 3e b5 76 19 be f0 ef f2 bd 3b dc 9a 3c
       0.20830595 -0.1498669 -0.11862171 0.018903842
000340 69 a1 3c 3e 70 58 76 3e 3f 55 5c bd c7 dd 4a bc
       0.18420948 0.24057174 -0.053792235 -0.012381977
000350 d5 e3 1d 3e d9 75 bc bd 6a 14 49 be b9 9a 69 bb
       0.15418942 -0.09202165 -0.19636694 -0.00356452
000360 89 d7 2f be 86 6d 4c be 54 c4 4d 3d 17 72 4b 3e
       -0.17172064 -0.19963655 0.05023606 0.1986774
000370 b6 ab fe bd f3 a5 44 bd 08 cd 49 3e ee b7 ad bd
       -0.12435095 -0.048009824 0.1970712 -0.084823474
000380 c6 b5 d5 bc a1 9e fd bc bc 12 59 3e 07 c0 1b 3e
       -0.026087653 -0.03095943 0.21198553 0.15209971
000390 57 47 32 3d 5c c1 b3 be eb 04 19 be eb ad 39 39
       0.043525066 -0.3510846 -0.14943282 0.00017707764
0003a0 4a 94 12 bd e0 c5 1c 3e 85 c2 b2 bb 15 4d e4 bd
       -0.03578595 0.15309858 -0.0054553174 -0.11147515
0003b0 76 8b ce bd c3 08 08 bd 9d ed e8 3a 27 6b 1b b8
       -0.10085194 -0.03321148 0.001777101 -3.7054673e-05
0003c0 45 dc d2 3b 1a 92 4b 3d 1d 3d 0e 3d db 68 74 be
       0.0064349496 0.04969988 0.03472625 -0.23868124
0003d0 03 1c a1 bd 77 c7 e0 3d 3e 97 19 be bc ae 43 be
       -0.07866671 0.10975545 -0.149991 -0.19109625
0003e0 a5 0c 28 be 13 89 00 3e 21 f0 15 be 1c 0a 7b be
       -0.16411074 0.1255229 -0.14642383 -0.24515575
0003f0 14 f0 a2 ba 55 4e 74 bd 36 e8 8b bd 89 c6 15 3d
       -0.0012431168 -0.059645016 -0.068314 0.03656629

layer1.0.conv1.bias f4 [16]
000000 99 8f 36 3b 4b 4e 51 bc e9 f2 ae bb ed 00 4c 3b
       0.0027856587 -0.012775014 -0.0053390157 0.0031128481
000010 72 85 83 bc a6 6f 68 bc 5d 6f 20 3b 5b 89 ae bb
       -0.016054843 -0.014186775 0.002448044 -0.0053264326
000020 f1 7c eb 3b 53 52 a6 bb 4b 21 0f 3c fa d6 5d 3b
       0.007186525 -0.005075732 0.008735965 0.003385006
000030 16 ec 97 bc ee bb 76 3b 55 fd 6a 3c ae 26 05 bc
       -0.018545192 0.0037648636 0.014342626 -0.008126898

layer1.0.bn1.weight f4 [16]
000000 68 a7 83 3f 0c 04 49 3f aa ec 2a 3f c1 74 c8 3f
       1.0285463 0.785218 0.6676737 1.566063
000010 32 e5 2f 3f 73 37 6b 3f 25 b2 1d 3f bb cc 38 3f
       0.687091 0.91881484 0.6159995 0.72187394
000020 91 1c 86 3f b7 52 47 3f 97 69 15 3f 9f 23 8c 3f
       1.0477468 0.7786059 0.5836424 1.0948371
000030 23 ea 05 3f bb b7 9a 3f 66 84 52 3f af f4 80 3f
       0.5231039 1.208732 0.82233274 1.0074672

layer1.0.bn1.bias f4 [16]
000000 3f 0d 18 3f f2 e0 37 3e fa 74 d5 be a7 4e 58 be
       0.5939521 0.17956904 -0.4169081 -0.21123753
000010 8d 30 b3 be 62 ad 2e 3c e0 48 cd bd d0 9b af be
       -0.3499798 0.010661455 -0.100236654 -0.34298563
000020 93 40 b9 bd 36 65 18 be fd 3e ff 3d cf 5e 9d be
       -0.0904552 -0.14882359 0.12463186 -0.30736396
000030 1f b1 10 bf 5d 5f 65 3f 44 44 a1 be 3c 14 3f bf
       -0.56520265 0.8959864 -0.31497395 -0.7464025

layer1.0.bn1.running_mean f4 [16]
000000 f4 f5 c3 bf 85 d6 32 bf d6 4e 50 bf 75 e1 e0 bf
       -1.5309434 -0.6985858 -0.81370294 -1.7568804
000010 25 4f 01 40 39 6b 64 bf 63 15 36 3f fa ab 8e bf
       2.0204556 -0.8922611 0.71126384 -1.1146233
000020 a7 9d a9 c0 b9 68 6f c0 8a d8 5c c0 f2 79 95 bf
       -5.3004947 -3.7407668 -3.4507165 -1.167784
000030 6f 00 a2 3f 98 f5 c4 bf 47 30 ec bf f6 9a e2 3f
       1.2656382 -1.5387449 -1.8452233 1.770354

layer1.0.bn1.running_var f4 [16]
000000 98 a1 c1 40 fe 1e 53 40 da 23 ef 3f 85 08 e7 41
       6.050976 3.2987666 1.8682816 28.87916
000010 45 e8 f9 3f d9 f4 a0 40 85 59 d4 40 9c 37 42 40
       1.9524008 5.0298886 6.6359277 3.0346441
000020 26 8b d9 40 43 4f 19 40 62 03 85 40 54 ce ef 40
       6.798236 2.3954628 4.156663 7.4939365
000030 6e 5f c7 3f 7d 28 f1 40 0b 9b 04 40 6f 6a 9d 40
       1.5575998 7.5361924 2.071963 4.9192424

layer1.0.conv2.weight f4 [16, 16, 3, 3]
000000 d3 bb e0 3d f5 58 1b be 78 ca 6c 3e 30 c2 1e be
       0.109733246 -0.15170653 0.2312411 -0.15503764
000010 b6 7c 7f 3e 08 dd a1 3d 01 e1 eb bb fc e4 37 3e
       0.24949917 0.079034865 -0.0071984534 0.17958444
000020 95 79 6d 3d 17 15 c5 bb 32 8e 1b be 05 48 82 bd
       0.057977278 -0.006014477 -0.15190962 -0.06361393
000030 53 57 51 bd 8a 21 37 be 35 cd 07 3d 50 c6 09 be
       -0.05110867 -0.17883888 0.033154685 -0.13454556
000040 1f e8 06 be 5c 29 bd bd 31 79 f7 bd df d4 6f bd
       -0.13174485 -0.09236404 -0.12083662 -0.05855262
000050 58 e8 87 bd 55 2b ba bd 33 66 2b 3d 77 7f a2 3c
       -0.06636113 -0.09090296 0.04184551 0.01983617
000060 84 bd b5 bd a7 6d 84 3c 00 39 4d 3b f3 36 f3 bd
       -0.08874038 0.016165568 0.0031314492 -0.11875715
000070 a1 e9 c4 bd d9 56 d8 bd 63 d2 0d be 69 13 21 be
       -0.09614874 -0.1056344 -0.13849787 -0.1573006
000080 c5 34 0f be 51 23 0c be c4 1f 49 be ee c6 66 be
       -0.13984974 -0.13685347 -0.19641024 -0.22536823
000090 a9 2f 8b bd f2 0e 07 be 69 2b 35 3c 2f 0a ab ba
       -0.067962 -0.13189295 0.011057713 -0.00130493
0000a0 e6 69 3e bd 01 4a d6 3c 10 16 40 3d 24 e2 02 3c
       -0.04648771 0.026158335 0.04689604 0.007988486
0000b0 31 b5 6e 3d 62 41 21 bd 60 47 ed bd 41 5b 75 3d
       0.058278266 -0.039368995 -0.11585879 0.05990148
0000c0 4e 85 45 be f5 73 0d be bf 81 21 be b8 53 18 be
       -0.19289133 -0.13813765 -0.1577215 -0.14875686
0000d0 36 c2 1f be ca f2 06 be 0f 99 50 3d 58 98 d7 3c
       -0.1560143 -0.13178554 0.050927218 0.02631776
0000e0 f0 2f 60 bd 60 31 47 bd 84 af c6 bd 34 de 21 be
       -0.054733217 -0.048631072 -0.09701446 -0.1580742
0000f0 58 19 00 be e0 ab 18 be f5 f2 28 be a0 61 4e bd
       -0.12509668 -0.14909315 -0.16498931 -0.05038607
000100 5f 19 1f 3d f6 75 be 3c 1a 19 65 bd bf f6 a7 3d
       0.038842555 0.023249608 -0.05593214 0.0820136
000110 a9 71 0f 3d e7 e9 05 be ba 5a ba bb 54 63 27 bd
       0.035020504 -0.13077508 -0.005687085 -0.04086621
000120 c1 ab 37 3e 85 a0 a1 3e eb 0e 22 3e 28 f4 ad 3e
       0.17936613 0.3156778 0.15826003 0.3397534
000130 82 70 56 3e 25 3e a0 bd ff 7d 4e 3e 02 b0 e3 3d
       0.20941356 -0.07824353 0.20165251 0.11117555
000140 d4 21 8b bd d0 b3 ab bc 0b ea 30 3d 9a 7e b8 bc
       -0.067935616 -0.020959765 0.04319195 -0.022521306
000150 a1 06 d7 bd b5 d1 0e 3e ea 5f 83 bc d9 c3 ac bc
       -0.10499311 0.13947184 -0.016036946 -0.021089481
000160 c3 b4 e3 3d 7d 5e bd 3d 0e bb 4c bd a9 0a d1 bc
       0.11118462 0.09246538 -0.049983077 -0.025517778
000170 94 82 e7 bb 80 b1 c6 bc 33 85 f7 3c 86 39 0f bd
       -0.0070651267 -0.02425456 0.030214882 -0.034966968
000180 76 18 ef 3c 6c 07 6c 3d 6c bb 3a ba 13 25 0a be
       0.029186469 0.057624266 -0.0007123265 -0.13490705
000190 b5 d9 40 3d 44 fd e6 3d 31 34 32 be 6f f0 32 bd
       0.04708262 0.11278775 -0.17402722 -0.043686327
0001a0 c1 25 34 3d 0e 70 98 bd 27 87 9a 3d d5 fc 4b 3d
       0.043981317 -0.07443248 0.075453095 0.049801666
0001b0 75 23 d4 3b 53 08 ff 3c c2 e5 2a 3d 4a 27 ef 3b
       0.0064739534 0.031131899 0.04172302 0.007298385
0001c0 74 3c 48 bc d8 c8 13 3c fd 37 2d 3d 81 7a 82 3c
       -0.012221444 0.009020053 0.042289723 0.015927555
0001d0 7e 06 b9 3c 36 09 dc bc 57 35 a1 3e 5f 59 0e be
       0.022586104 -0.02685986 0.31486008 -0.1390128
0001e0 2a cb a5 3e 20 80 88 be 4d f5 db 3d 45 4a 6e 3d
       0.32381564 -0.26660252 0.10740147 0.058176298
0001f0 8f 7c 88 3c f8 2b 76 bd 6a 7b ad bd 2c 7f d5 3c
       0.016660957 -0.060100526 -0.08470805 0.026061617
000200 4a eb 88 3c 6c 5c 7a bd 1c 5b 41 3d 70 04 88 3a
       0.016713757 -0.061123297 0.04720603 0.0010377299
000210 6a 9d 6d bd 4b 56 01 3d 0d fe c4 bd ad c5 ec 3a
       -0.05801145 0.031576436 -0.09618769 0.0018064283
000220 00 dd 65 3e db a5 88 3d f8 cf 18 bc 88 af 3e 3e
       0.22447586 0.066722594 -0.009326927 0.18621647
000230 73 cd 7b 3d 22 b9 2c bd 9b 49 23 3e e0 d0 13 3d
       0.06147523 -0.042168744 0.15946047 0.03608787
000240 2c 6d 22 3d ca 1a 0d bd 6f 4c 37 be 97 1f 87 3d
       0.039654896 -0.034449376 -0.17900251 0.06597822
000250 ee 27 88 bd dc fa 5a be 3e db 2b 3e bf 8c 38 bd
       -0.06648241 -0.21384758 0.16782853 -0.0450561
000260 83 cd 59 be 72 3e fc bc 27 e2 1c be 38 48 44 be
       -0.21269803 -0.030791495 -0.15320645 -0.19168174
000270 69 f4 3d 3e 31 f4 68 b9 fc a7 4e be 25 b1 e6 3d
       0.18550266 -0.00022216213 -0.20181268 0.112642564
000280 ec 03 8a 3d 43 72 d0 3c 31 58 bf bd 17 92 ae bd
       0.06739029 0.02544511 -0.09342993 -0.08523958
000290 54 c2 11 be 24 e1 8f bd ad 72 a7 bd a3 cb b4 bd
       -0.14234287 -0.07025364 -0.081761695 -0.08827903
0002a0 21 7d 41 be 03 6b 65 be cb b5 61 be 09 12 5d bd
       -0.18895389 -0.22404103 -0.22042005 -0.053972278
0002b0 a5 1f 14 be 0d ad 1b be b0 ad 3c 3e a6 3f 4f 3d
       -0.14465196 -0.15202732 0.18425632 0.05059781
0002c0 0c 2c 3e bc 8e b6 b3 3d 67 e2 8e 3d 0d 21 72 bc
       -0.011607181 0.08775054 0.069767766 -0.014778388
0002d0 c1 ed fe bb ce 8c b4 bc a8 8f b1 bc 5e ac 04 3c
       -0.0077798073 -0.022039797 -0.021674946 0.008097736
0002e0 4c 38 d4 bc 86 21 50 bd 3c af 6d bc 8c d8 aa bc
       -0.02590575 -0.05081322 -0.014507111 -0.02085521
0002f0 15 f8 9e bd aa d8 e7 3d 1b 01 41 bd 77 29 df bd
       -0.07762162 0.11320622 -0.047120195 -0.10896581
000300 f8 6a 2b 3d 49 5c 99 bd 78 1d c6 bd 7e 37 1d 3d
       0.04185006 -0.07488305 -0.096735895 0.038383
000310 ab 3e e2 ba 6b 2c b0 bd c0 bc 86 bd 3d 0a 94 bd
       -0.0017261108 -0.08602222 -0.0657897 -0.07228515
000320 f0 08 46 be ce 87 6f 3d 60 10 88 3d 3a 95 52 bc
       -0.19339347 0.058479123 0.06643748 -0.012852961
000330 9b 5e 8a bd 8c ce c0 bd 57 24 8f bd 0b 4d 89 bc
       -0.06756326 -0.09414396 -0.06989353 -0.01676037
000340 12 b1 40 bd cf 05 70 bd a0 c7 f0 bc 09 b5 69 bd
       -0.047043867 -0.05859929 -0.029392064 -0.057057414
000350 41 62 cb bd 95 be 02 bd 58 70 a0 bd 61 58 29 be
       -0.0993085 -0.031920034 -0.07833928 -0.1653762
000360 ff 9d 4c 3b 32 39 b5 3d 16 b3 38 bd db 1b 22 3d
       0.0031222103 0.088488 -0.045092665 0.039577346
000370 2d fe 08 3e da b0 84 3d df a3 a2 bd 7b fb 5d 3d
       0.1337821 0.06479044 -0.07941412 0.05419491
000380 0b 7d 55 3e 73 63 07 3d 4c 1c 69 3d 23 7a 3f bc
       0.20848481 0.033053827 0.05691175 -0.0116868345
000390 d0 8b 3e bc e5 80 76 bb dc 75 91 bd fa 7c 7b bd
       -0.011630014 -0.0037613448 -0.07102558 -0.061398484
0003a0 52 76 1c be 98 41 62 be 1e 9c c3 bc 1d f4 30 3c
       -0.1527951 -0.22095335 -0.023878153 0.010800389
0003b0 f9 76 3d 3d 16 1b b3 bc 49 53 00 bd f1 c6 cf 3c
       0.04625604 -0.021863502 -0.031329427 0.025363417
0003c0 ed 27 98 3c 29 08 26 bd 66 28 5b bd ab 75 69 3d
       0.018573726 -0.040535126 -0.053505324 0.056996983
0003d0 1a da 1f 3d 89 70 75 3d 37 97 84 3d f8 4c f1 3d
       0.039026357 0.059921775 0.064741544 0.11782259
0003e0 6d 7d 6e 3d dc 03 9a bb 07 4f 78 3d b7 88 7c 3d
       0.058225084 -0.004700167 0.06062224 0.06165382
0003f0 3d 3f 6d 3d 4f bb 88 3d 6c 7b fd 3d 03 5c ed 3d
       0.057921637 0.06676351 0.123770565 0.115898155

layer1.0.conv2.bias f4 [16]
000000 ae 14 ff bb 66 14 dd 3c dc b1 17 bc b3 97 4c 3b
       -0.0077844476 0.026987266 -0.009258714 0.003121835
000010 49 15 4f 3c 59 7f 08 3c 72 ba a8 bb 05 87 3e bc
       0.012639352 0.008331143 -0.005149179 -0.011628871
000020 48 87 68 3c f3 a4 33 bc 56 72 80 bc 14 98 9c 3c
       0.01419241 -0.01096462 -0.01567952 0.019115485
000030 3d 59 65 bc b6 20 f4 3b b3 c0 4d ba 18 03 08 3b
       -0.013998327 0.0074501885 -0.0007848844 0.0020753797

layer1.0.bn2.weight f4 [16]
000000 86 a2 86 3f 22 1b 0e 3f d8 f1 34 3f cc 80 3f 3f
       1.0518348 0.5551015 0.70681524 0.74805903
000010 3a ed 9e 3f e7 45 59 3f df 2f b8 3f cf ee b6 3f
       1.2416146 0.8487229 1.4389609 1.4291629
000020 43 4d 9a 3f a9 3c 56 3f bb 3c f2 3e 60 09 b6 3f
       1.2054828 0.8368631 0.4731196 1.4221611
000030 06 1b a0 3f 5d 89 33 3f 55 b8 e2 3e 06 9f 22 3f
       1.2508247 0.70131475 0.4428126 0.635239

layer1.0.bn2.bias f4 [16]
000000 aa 06 ef be 06 47 aa b8 e5 a3 5c 3d c3 c3 c5 be
       -0.46684772 -8.119461e-05 0.05386724 -0.38625917
000010 cc 41 bf 3e c8 c3 2a 3d 57 10 28 bf 79 15 39 3f
       0.37354887 0.041690618 -0.6564993 0.7229839
000020 3b b8 9d be 77 73 d3 be 5f 71 79 3c 51 59 c4 bd
       -0.3080462 -0.4129903 0.015224784 -0.09587348
000030 24 11 19 3f 2d c9 12 3d a6 bd dd bb d7 7a 83 3e
       0.5979178 0.035836387 -0.0067669926 0.25679657

layer1.0.bn2.running_mean f4 [16]
000000 74 5f c9 3d 8c a5 98 3e 1e 26 5f 3e 02 03 b6 3f
       0.09832659 0.29813802 0.21791884 1.4219668
000010 fb 88 c1 3e aa ed 8b 3e e2 ff 7c 3e a0 5a 5b bf
       0.3779982 0.2732976 0.24706987 -0.8568516
000020 a0 07 a8 bf 20 4b 9a be 4c d7 e4 be cc c5 a6 3f
       -1.3127327 -0.3013544 -0.44695508 1.3029113
000030 ce 0e 18 c0 90 14 77 bf 2c b5 96 be e8 38 54 bf
       -2.3759036 -0.9651575 -0.29435098 -0.8289933

layer1.0.bn2.running_var f4 [16]
000000 d0 3a ce 3f 1e 8a b9 3f 4b a5 0a 40 79 63 d5 3f
       1.6111698 1.4495275 2.1663387 1.6670982
000010 a2 39 3f 40 9b d9 17 40 a8 83 a3 40 11 f1 2e 40
       2.9878926 2.3726566 5.1098213 2.7334635
000020 bf 14 60 40 4d 74 9a 3f c2 43 a6 3f cf b0 ae 40
       3.5012662 1.2066742 1.2989428 5.459083
000030 a2 3d b1 40 83 55 c2 3f ae 88 b9 3f d7 2f e7 3f
       5.5387735 1.5182346 1.4494836 1.8061475

layer1.1.conv1.weight f4 [16, 16, 3, 3]
000000 e0 95 27 3e ad e0 cf 3d 2b b8 be 3c 60 cd 8a 3e
       0.16365767 0.101502754 0.023281178 0.27109814
000010 a5 65 30 3e 2e ff 95 3d e9 97 10 3d 6f 19 59 3b
       0.17226274 0.07324062 0.035301123 0.0033126732
000020 74 c2 28 bd 14 fa f0 3c 11 8a 3a bc d6 fa d5 39
       -0.04120107 0.029416122 -0.011385457 0.00040813413
000030 90 48 e4 3b 6f 6f 9b bc 4a a4 93 bd 4f 79 20 bd
       0.006966658 -0.018974034 -0.0720907 -0.03917819
000040 73 28 82 3c 44 56 e3 bc d8 a8 bc bd 28 4d a6 3c
       0.015888428 -0.027751096 -0.09211892 0.020300463
000050 47 fb 9c 3d b7 74 41 bd f9 4a a0 3c 06 f7 5f 3d
       0.07665115 -0.04723045 0.019567 0.05467894
000060 e7 dc 04 be 6c 73 f5 bd 57 e7 15 bd 11 fc d3 bd
       -0.12974893 -0.119849056 -0.036597576 -0.10350812
000070 92 a2 42 bd 1e fa 42 bd 71 2d fc 3c 47 9f 60 3d
       -0.04751832 -0.04760181 0.030783387 0.0548394
000080 e6 3e c5 3b 9f b5 2b bd 84 de 7f 3b 07 d3 41 3b
       0.006019461 -0.041921254 0.0039042542 0.0029575245
000090 51 21 81 bd df 4b a5 bd ee be 3f be ae fb 73 3d
       -0.06305183 -0.08071112 -0.18725178 0.059566192
0000a0 ec 13 2c bd 5b 7c 2e be c3 e7 3b 3e ad bc 94 3d
       -0.042011186 -0.17039625 0.18350129 0.072625495
0000b0 f8 4c 15 be b8 57 0f 3e e1 35 1b 3e d5 79 13 3e
       -0.14580142 0.13998306 0.15157272 0.14401944
0000c0 f0 bc 18 3d 09 6d 9b 3d 00 d8 49 3d 99 5b 29 be
       0.03728956 0.07589156 0.04927826 -0.16538848
0000d0 a3 cb 01 be 67 43 1b be 77 51 1d 3e d9 0f 16 3e
       -0.12675337 -0.1516243 0.15363108 0.14654483
0000e0 62 0b 81 3e 52 98 28 bd 44 10 b3 3d b4 1a bb 3d
       0.25203997 -0.04116089 0.08743337 0.091359526
0000f0 46 1f 4e 3d 2d 86 cc 3d ec 05 2e 3c f1 43 e7 3c
       0.050322793 0.099865295 0.010621529 0.02823064
000100 07 41 98 bd 83 a9 06 bd dc e7 69 3d 41 aa 75 bc
       -0.07434278 -0.032876503 0.057105884 -0.014994205
000110 2c 05 5b bd ff 5a 8a 3d 26 21 73 3d af 00 17 3d
       -0.05347173 0.067556374 0.059357785 0.036865886
000120 2b ad ad 3a d1 e8 b6 bd 93 7a 0e be 96 56 93 3d
       0.0013250461 -0.08931125 -0.13913946 0.07194249
000130 23 d7 da 3b e7 4d 79 bd c1 6b ea 3d f6 14 6b bc
       0.0066784783 -0.06086531 0.11446334 -0.014348259
000140 aa fe 15 be 75 14 8a bd e3 07 31 bd 45 61 c2 bc
       -0.14647928 -0.06742183 -0.043220412 -0.023728022
000150 3c 58 dd 3d bc 22 a8 3d 25 07 a9 3d 08 18 cb bc
       0.10807845 0.0820975 0.08253316 -0.024791732
000160 43 d9 79 3b e2 8b 01 3d c9 7d 03 3e 7d cf a3 3d
       0.0038123883 0.031627543 0.12840952 0.079985596
000170 d0 a2 03 3d 21 48 ab bc 5e 92 03 bc 61 53 ec bc
       0.032137692 -0.020908417 -0.008030502 -0.028848352
000180 47 27 bb bd 78 e4 7b bd 25 d6 86 bd 25 c6 af 3d
       -0.09138351 -0.06149718 -0.065838136 0.08582715
000190 cd e1 58 be 98 5b 9d be 13 68 e7 3c de 1e 83 be
       -0.21179886 -0.30733943 0.028247869 -0.25609487
0001a0 19 e0 b6 be 51 4c a2 3c 27 f1 5e be fd 0f 90 be
       -0.35717848 0.019811781 -0.2177168 -0.28137198
0001b0 b3 58 39 3e b1 e6 4c 3e 79 4b 0e 3e 8f 0b 26 3e
       0.18100242 0.20009877 0.13895978 0.16215347
0001c0 f1 c8 31 3e b8 15 37 3e 00 c3 b5 3c 95 f7 ba 3b
       0.1736181 0.17879379 0.02218771 0.0057057836
0001d0 0f 37 6d 3d bc 1e eb 3d 66 89 e6 3d b5 61 d5 3d
       0.057913836 0.114804715 0.112566754 0.10419027
0001e0 22 28 31 3c d0 5c 52 3d 40 ca 88 3d 83 cd c6 bd
       0.010812791 0.051358044 0.06679201 -0.09707167
0001f0 3b 1b 0b be ef 8c ef bd 89 55 83 3d 71 6c 1d 3e
       -0.13584606 -0.11696803 0.06412799 0.15373398
000200 7a 05 fd 3d a3 e3 70 bd 9f ff 12 bc cc e7 d0 bc
       0.1235456 -0.05881084 -0.008972078 -0.025501154
000210 b8 dc aa bd 9a 92 75 bd 8a 66 57 bd 8e 0d 04 3e
       -0.0834288 -0.059954263 -0.052588023 0.12895796
000220 e3 bc 12 3e 24 30 fc 3d 18 cf 9c 3d 94 f7 ec 3d
       0.14329867 0.123138696 0.076566875 0.11570659
000230 22 c7 09 3e 60 b9 1a 3c f2 0f b4 3d 3b 33 f7 3d
       0.1345487 0.009443611 0.08792104 0.12070318
000240 90 83 8e 3a 93 28 24 3d eb 65 08 bd 97 6f b3 38
       0.0010872949 0.040077757 -0.03330032 8.55617e-05
000250 62 9f 53 3d 41 39 49 3b fc 09 5d 3d 98 04 a0 3d
       0.05166567 0.0030704292 0.0539646 0.07813376
000260 68 3b 64 3d aa c0 0c 3d f0 09 80 3d 3b 20 1d 3d
       0.055720717 0.034363426 0.062518954 0.038360815
000270 f2 a3 3c bd 09 a0 b6 bb c1 e0 4f bd 9d 64 f7 bd
       -0.046054788 -0.005573277 -0.05075145 -0.12079737
000280 09 f7 75 bd fe d1 c7 bd 33 f6 32 bd d6 4b f7 3a
       -0.060050044 -0.0975685 -0.043691825 0.0018867205
000290 bf 28 e5 bc 99 2a 40 bb a6 a7 20 bb da 09 b0 3b
       -0.02797353 -0.0029322265 -0.0024513989 0.005372268
0002a0 98 d7 04 3d 4e e4 fa 3c 37 ac 29 3d cd 70 86 bd
       0.03243217 0.030626442 0.041424002 -0.06564484
0002b0 6e d1 c7 3d 6d d2 0d bd 16 48 81 3e 4a be a1 3e
       0.097567424 -0.034624506 0.2525031 0.31590492
0002c0 43 00 3d 3e 39 3c c8 3c 11 f4 c8 3d 0b 4c e1 3b
       0.18457131 0.024442779 0.09812177 0.00687552
0002d0 d8 01 d5 bc 98 b9 bd 3d 95 86 82 3c 03 a3 d7 bd
       -0.026001856 0.09263915 0.015933314 -0.10529139
0002e0 b9 aa 15 3d e9 9b db bc 41 11 37 bd 10 5a cf 3d
       0.036539767 -0.026807742 -0.04469419 0.101246
0002f0 94 a1 aa bd d2 20 40 3e 9d ed 3f 3e 82 44 f9 3d
       -0.083316 0.1876252 0.18742986 0.1217127
000300 57 9c 7b 3e 71 f1 a6 3e ce c6 7d 3e fa 17 21 3d
       0.24571358 0.3260608 0.24782869 0.039329506
000310 fc d1 40 3e ba dd da 3d 48 b2 91 bc cc 29 bb bc
       0.18830103 0.10686822 -0.017785206 -0.022847079
000320 4c df a4 3b 79 65 45 3d 77 cb aa 3d 7f 31 48 3d
       0.005031502 0.048192475 0.08339589 0.04887533
000330 35 ea 89 bd a9 76 11 bd af 52 c0 bd 39 af 15 bd
       -0.067341246 -0.035513554 -0.09390771 -0.03654406
000340 cb f3 76 3c 05 fe 63 3d f0 49 cd bd 54 b9 cb bd
       0.015072773 0.055662174 -0.10023868 -0.09947458
000350 f3 03 7b bd d0 4d f0 bb f8 a4 4f bd ff 64 e6 bc
       -0.061283063 -0.0073334947 -0.050694436 -0.02812433
000360 b9 ce c5 bd b0 d1 2d bd 3c 58 05 39 4d d3 58 bd
       -0.0965857 -0.0424363 0.00012716738 -0.052935887
000370 ad 9d 2e 3c 03 0e b6 3d 45 a6 85 3c 14 df 88 3d
       0.01065771 0.08889391 0.016314635 0.06683174
000380 1e a3 60 3d b9 3b 5b 3c e5 0f d1 3c ea ed c6 3b
       0.05484306 0.013380938 0.025520274 0.006070842
000390 fc db de 3b 4c b0 18 3c 5a 9c 7d 3c 06 02 96 3d
       0.0068011265 0.009319376 0.015479172 0.07324605
0003a0 5b 85 93 3d 54 31 36 3d bb ec b2 3c e4 83 1b 3d
       0.0720317 0.044480637 0.021841398 0.037967578
0003b0 db 65 43 bd 7c fc 42 3d 6e 25 e2 3d 83 f5 7c bc
       -0.04770456 0.04760407 0.110422954 -0.015439394
0003c0 7d 10 4c bd ce 0c 00 3d ac f8 5a bd 84 ce 29 bd
       -0.049820412 0.03126221 -0.05345981 -0.041456714
0003d0 34 28 1c 3e 52 09 4e 3d c4 36 46 bd b2 0f 63 3d
       0.15249711 0.050301857 -0.048392072 0.05543489
0003e0 8b 16 f0 bc 6d 98 ee bd 84 07 9b 3c b0 e9 6b bd
       -0.029307624 -0.11650167 0.018924482 -0.05759591
0003f0 7b a3 26 3d ad a8 52 3d 10 1b cb 3c f8 c5 21 bd
       0.04068325 0.051430393 0.024793178 -0.03949544

layer1.1.conv1.bias f4 [16]
000000 01 0d 1d bb 85 61 7f bc 86 c6 37 3c 04 02 8c 3a
       -0.002396405 -0.015587215 0.011216765 0.0010681753
000010 1e 96 48 bc 0b 0d 74 3c 1a e1 7c bc ce 5d 86 bc
       -0.012242822 0.014895688 -0.015434528 -0.016402151
000020 51 7a 88 bc 7f 4b 05 bc b8 8a 61 3c 63 b5 46 bb
       -0.016659888 -0.008135675 0.013765983 -0.0030320517
000030 8c b4 9d 3c 58 b3 03 bb b6 75 82 bc 75 89 66 3a
       0.01925113 -0.002009591 -0.01592527 0.00087942864

layer1.1.bn1.weight f4 [16]
000000 33 75 30 3f 8b 3a 39 3f df 6f 94 3f 50 29 3a 3f
       0.6892883 0.72354954 1.159664 0.7271929
000010 ba 00 32 3f 51 91 28 3f d4 ab 58 3f c5 9b 2f 3f
       0.6953236 0.65846735 0.8463719 0.6859706
000020 e3 bf 56 3f 9b b8 56 3f d6 43 73 3f 64 fe 45 3f
       0.83886546 0.83875436 0.95025384 0.77341294
000030 78 fa 3a 3f e2 8e 55 3f 45 e6 2c 3f b8 40 59 3f
       0.73038435 0.83421147 0.67538863 0.8486438

layer1.1.bn1.bias f4 [16]
000000 5f 72 99 be ae de 0d bf 90 0b a6 be 9e 3b f2 bd
       -0.2997007 -0.5541791 -0.32430696 -0.11827777
000010 6b 25 34 be c3 60 c9 be dd 5a 97 be 68 60 e1 be
       -0.17592399 -0.39331636 -0.2956151 -0.44018865
000020 cf 82 82 be 3d 67 a6 be 3b db 9c be da 99 12 bf
       -0.25490424 -0.3250064 -0.3063601 -0.5726601
000030 af a5 f7 be e9 96 48 be 0f 32 86 be 32 36 c1 be
       -0.48368594 -0.19588818 -0.26210067 -0.3773666

layer1.1.bn1.running_mean f4 [16]
000000 cb d1 b3 3f b4 a0 e9 3f dd bb 0b bf 25 e6 3d c0
       1.4048399 1.8252168 -0.5458353 -2.967172
000010 ce d9 2c c0 e6 14 05 40 1f e9 25 40 57 67 d6 3f
       -2.7007937 2.0794005 2.5923536 1.6750287
000020 3a 78 e3 3e 7b b8 0e c0 22 6f ac bf c0 06 d2 3f
       0.44427663 -2.2300098 -1.3471415 1.640831
000030 a5 69 92 40 df 35 b8 bf 61 c7 04 bf fe 1f 57 bf
       4.575396 -1.439144 -0.5186673 -0.8403319

layer1.1.bn1.running_var f4 [16]
000000 a9 38 80 40 3e b9 9f 40 8b 82 29 42 4c 7c e9 40
       4.0069165 4.9913626 42.377483 7.296423
000010 19 d8 ba 40 5f f3 34 40 53 f6 cc 40 85 3c 38 40
       5.838879 2.8273542 6.405069 2.8786938
000020 3f 3e f7 40 ad 8c e1 40 38 2c 0f 41 97 37 54 40
       7.7263484 7.0484223 8.948296 3.315893
000030 ed 82 a0 40 41 d8 d3 40 b0 c1 8c 40 f1 e5 9d 40
       5.015982 6.620148 4.3986435 4.934319

layer1.1.conv2.weight f4 [16, 16, 3, 3]
000000 f9 70 ee bc 81 06 a5 bd c7 45 75 bd a6 c4 35 bd
       -0.029106604 -0.08057881 -0.059880998 -0.04437699
000010 6b 10 9e bd fa 57 f1 bd 86 fa b2 bd 97 31 86 bd
       -0.07717975 -0.11784358 -0.0873919 -0.06552427
000020 51 60 08 be 2a 3a 9a bd 4b 2a 72 bd 60 2b b2 bd
       -0.13317992 -0.07530625 -0.059122365 -0.086996794
000030 df b6 12 be 93 86 11 bd 08 dd 7b bd d3 be c4 bd
       -0.14327572 -0.03552873 -0.06149009 -0.09606709
000040 7e 3d c2 bc e4 75 0c bd a0 1f 17 bd d4 2f 94 3d
       -0.023710962 -0.034292117 -0.036895394 0.07235685
000050 2e 04 95 bd ec 5c a8 3d 7e 02 9b bd 6a c7 d0 bb
       -0.07276188 0.082208484 -0.07568835 -0.0063714283
000060 ef 9d ab 3c af 37 18 3c 7f 97 3b 3b 0a d4 b3 3c
       0.020949332 0.00929062 0.0028624234 0.021951694
000070 a8 1c 6f 3d 13 84 44 3d 97 6f 99 3d 2f 84 0d 3d
       0.058376938 0.04797752 0.07491987 0.03454989
000080 39 8d df 3c 23 78 47 3e 32 81 b5 3d fb 20 b0 3c
       0.02728902 0.19479422 0.08862533 0.021500101
000090 7d c0 5e bd 1a 1c 3b 3a 01 4f bc 3c 67 7f 0f be
       -0.05438279 0.00071376713 0.02298689 -0.14013444
0000a0 66 e5 e7 bd f5 31 a3 3d 49 43 70 bd 51 bc 22 bd
       -0.11323051 0.07968513 -0.058657918 -0.039730374
0000b0 cf a9 e1 3d 5d 8e d3 bd db af 7a ba 3c f3 62 bd
       0.110187165 -0.10329888 -0.00095629477 -0.055407748
0000c0 46 10 a3 bd 52 e2 a0 bd 59 62 c2 bd ec 34 d4 bd
       -0.07962088 -0.07855667 -0.094914146 -0.103616565
0000d0 7d 1f 88 bd 98 12 b7 bd af 08 33 be 87 c0 86 bd
       -0.06646631 -0.08939093 -0.17483781 -0.065796904
0000e0 cf 3c 1a bd 56 b9 11 be ff 20 4d bd e7 dd 0d bc
       -0.037655648 -0.14230856 -0.050080296 -0.008658863
0000f0 74 43 bd bd 09 91 cc bb a7 28 3e bd fe b8 ae bc
       -0.09241381 -0.0062428755 -0.046425488 -0.021328446
000100 8a ec b9 3d f1 19 b3 3d 93 66 24 bd 56 79 eb 3d
       0.09078319 0.08745182 -0.040136885 0.11497752
000110 13 66 89 3d 66 c3 78 3d 1f 63 b7 3d 6d 62 53 3d
       0.06708922 0.06073322 0.08954453 0.051607538
000120 50 a6 1f be 31 71 2b be 65 61 c4 bd 56 70 66 be
       -0.15590787 -0.16742398 -0.09588889 -0.2250379
000130 c5 e5 3c be 09 b9 06 be a8 d0 93 be c8 c4 a2 be
       -0.18447025 -0.13156523 -0.2887013 -0.31790757
000140 4c d6 82 be bc 0b 40 bd b4 70 94 3c 71 ca b7 3c
       -0.2555412 -0.04688619 0.018120147 0.022435399
000150 ff 64 b0 bc 3c 58 0f 3d 3a f2 47 bd 35 f8 ee bc
       -0.021532534 0.034996256 -0.04881499 -0.029171089
000160 d4 d9 78 3d e6 33 7d bc cd be 83 3e 24 f6 16 3b
       0.060754612 -0.015454268 0.25731507 0.0023034895
000170 a8 db 33 3d fc 8b b8 3e 0f d8 d3 3d 7b 4c 19 3d
       0.043910652 0.360443 0.10343944 0.037426453
000180 1f 49 40 3e f0 f5 7a 3d 6a 4b 3d bd 24 b3 8c bd
       0.18777893 0.0612697 -0.0462145 -0.06870106
000190 58 4c 8e 3d 2f c2 0e 3d a4 12 03 bd eb 6b 8e 3d
       0.06948155 0.034853157 -0.0320002 0.069541775
0001a0 b2 65 f4 3c 5a 38 90 bd f8 b2 4f 3d cf 41 13 3d
       0.029833648 -0.07041998 0.050707787 0.03595143
0001b0 96 61 2b be c4 85 53 bd 8b c9 3f 3d b6 bc 26 bd
       -0.16736445 -0.05164124 0.046823066 -0.040707313
0001c0 61 3d bd 3d e3 56 f8 3d ec 9d c0 bc 62 9d 9c 3d
       0.09240223 0.12125947 -0.023512803 0.07647206
0001d0 87 af 3f 3d 8c 6e 94 bd 13 99 e9 3d c5 86 b7 bd
       0.046798255 -0.07247648 0.1140615 -0.08961252
0001e0 fc 2e 51 bc 6c 83 09 bc 12 32 01 bd f7 3e 46 3c
       -0.01276755 -0.00839315 -0.03154189 0.012099973
0001f0 89 39 af 3d 42 6d 0d 3d 1c de 84 bd a5 2f 0d 3d
       0.08555896 0.034528024 -0.064876765 0.034469265
000200 83 f4 c1 bd cb 0d 9b bd 00 e0 1c be 3d a3 ad 3b
       -0.09470465 -0.0757099 -0.15319824 0.0052990005
000210 a1 a1 5e bd 9a b2 b2 bd c0 bd 89 3d fd 5d b2 bd
       -0.05435336 -0.08725472 0.06725645 -0.08709333
000220 d9 4c ad 3b d8 a6 84 3c d8 01 d5 bd e3 25 ae 3d
       0.005288702 0.016192839 -0.10400742 0.0850332
000230 fe 3c a7 3d 38 8f 32 bd d0 58 28 3e 6c 94 19 3e
       0.0816593 -0.043593615 0.1644013 0.14998025
000240 61 0f 27 3d c4 63 05 3d 0e 31 2c bc a3 1c 13 39
       0.04078615 0.032565847 -0.010509742 0.0001402968
000250 4a ff fb bb 42 60 78 bd c9 ff 26 bd 36 36 a5 bd
       -0.007690345 -0.060638674 -0.04077128 -0.080669805
000260 3b 49 be bd 03 45 11 3e 21 59 eb 3d 1e 08 56 3d
       -0.09291311 0.14186482 0.11491609 0.052253835
000270 a4 ce 19 3e c6 fd 04 3e dd 97 6e 3d 6d f1 ce 3d
       0.15020233 0.12987432 0.058250297 0.10104642
000280 06 1c 81 3d 14 0f 51 3c 0f cb 35 bc d2 1b 9b bc
       0.06304173 0.012759943 -0.011095776 -0.018934164
000290 7f 22 42 bd 83 f2 ba bb 03 eb 76 bb 62 2a f7 bb
       -0.04739618 -0.005705179 -0.00376767 -0.007542894
0002a0 e3 4c 27 bd 0f be 26 bd 5b 24 66 bd 96 f7 f4 bb
       -0.04084481 -0.040708598 -0.056187015 -0.0074758036
0002b0 d7 45 61 3d 61 21 1d bd b9 7b 8a bd ff 2c 1c 3b
       0.054998245 -0.03836191 -0.067618795 0.002383053
0002c0 12 ba 6c bd b9 1b 5e bd 0f 8d e7 bd fa 55 ca bd
       -0.057794638 -0.054225657 -0.11306202 -0.0987968
0002d0 7a 38 8a 3d 74 a3 02 3d 19 76 1a 3e 19 52 0d 3e
       0.06749053 0.031894162 0.15084113 0.13800849
0002e0 44 9e 6c 3d 58 df 0f 3e d7 27 8b 3d c2 94 48 3d
       0.05776812 0.14050043 0.06794708 0.04896999
0002f0 69 8a 9b 3d fe c1 26 3d 95 d6 63 3d 9b 9e 96 3c
       0.07594759 0.04071235 0.055624563 0.018386176
000300 49 a7 0d 3d a6 47 8f 3d 27 7e ac 3c dc 05 d3 3b
       0.034583364 0.06996088 0.021056248 0.0064399075
000310 7e 1c 14 3c 5d 93 dc bc 2e 5e ac bb 36 ec 37 3d
       0.009039996 -0.026925737 -0.0052602505 0.044903003
000320 7e 42 48 bc b1 76 5c 3b 7f 6d b1 3d 54 8b 3c 3b
       -0.012222884 0.0033640082 0.08663463 0.002876957
000330 4c 04 4a bd 00 54 31 3c 03 c6 c2 3b 73 c6 b4 3d
       -0.049320504 0.01082325 0.005944015 0.08826914
000340 31 4d 2b 3d cb 1c 9e b7 ca f8 ae 3c 15 24 16 3c
       0.041821662 -1.8848476e-05 0.021358866 0.009163876
000350 62 85 55 bd ab 43 3c bd 3f ce a5 bd 37 25 d8 bd
       -0.052129157 -0.04596297 -0.08095979 -0.10553973
000360 08 f5 98 3d 64 ec 3b 3d 87 bd 24 bc 5f 15 f1 bb
       0.07468611 0.045879737 -0.010054952 -0.007357284
000370 cb 46 6b bd 7f dc c7 bd f0 e0 d7 bd 45 bd 1f be
       -0.05744056 -0.09758853 -0.1054095 -0.15599544
000380 30 01 21 be 9a 0c 89 bd cf 75 34 bd 34 b4 91 bd
       -0.15723109 -0.06691857 -0.044057664 -0.07114449
000390 7b a3 bd bd dd 4d da bd d0 82 08 be 37 e1 d1 bd
       -0.09259697 -0.106593825 -0.13331151 -0.102480344
0003a0 26 16 ff bd 78 e2 4d be d4 6c bf 3c 5f a4 a7 bd
       -0.12455396 -0.20105922 0.023367323 -0.08185648
0003b0 df 50 aa bd 3d 8c 40 bb 50 5e d2 b7 7f 49 10 bc
       -0.08316206 -0.0029380464 -2.5077868e-05 -0.008806585
0003c0 a4 19 2e bd b7 fe 4b bd 0e 88 1a 3d a2 ca 95 3d
       -0.04250492 -0.049803462 0.037727408 0.0731404
0003d0 85 e6 b9 3d d6 8d 30 3d 96 08 13 3e b0 a1 d9 3d
       0.09077171 0.043104015 0.14358744 0.106265426
0003e0 2d 90 80 3d 1c 0a 62 3d d9 b3 2b 3d 2a 61 7e 3c
       0.06277499 0.055185422 0.041919563 0.015526095
0003f0 af 5c 3a bc 8b 26 25 3d c1 76 a4 3c f3 47 46 bb
       -0.011374637 0.04031996 0.020076158 -0.0030255287

layer1.1.conv2.bias f4 [16]
000000 b1 76 62 3c 01 9d 4a bb 69 55 91 3b 92 76 1a 3c
       0.013822244 -0.0030916336 0.0044352305 0.009427683
000010 3d fd 41 bc 3a 18 fe bb 3d 0b 9d bc 59 17 9a bb
       -0.011840162 -0.007754353 -0.019170398 -0.0047024903
000020 40 d0 78 bb 65 7f 91 3c be 8b d0 3b 89 06 44 3b
       -0.0037965924 0.017760942 0.006364315 0.0029911122
000030 f0 51 db bb fe 93 b8 bb a6 96 ca 39 51 b7 76 3c
       -0.0066931173 -0.0056328764 0.00038640684 0.0150583545

layer1.1.bn2.weight f4 [16]
000000 a4 60 4f 3f e7 e6 97 3e 78 25 31 3f 9b c5 88 3f
       0.81006837 0.29668352 0.691978 1.0685304
000010 8e ff 02 3f 05 01 1b 3f 82 a3 41 3f 12 80 2e 3f
       0.51171196 0.6054843 0.7564012 0.6816417
000020 d7 87 72 3f 41 50 28 3f c5 09 d3 3e b7 61 95 3f
       0.94738525 0.6574746 0.4121839 1.1670445
000030 32 76 f6 3e c9 01 20 3f 0a 86 01 3f 88 c5 1d 3f
       0.4813705 0.62502724 0.5059515 0.61629534

layer1.1.bn2.bias f4 [16]
000000 b8 b1 c9 be 36 33 d7 3c 96 73 2f bd ec b7 86 3c
       -0.393934 0.026269536 -0.04283484 0.016445123
000010 24 70 14 be 6e 5d e9 3d 3b 3e 8d be 95 cc 3a be
       -0.14495903 0.113947734 -0.2758654 -0.18242104
000020 6f 9d a6 bd a3 8e d1 3d a3 52 9f 3d 43 00 da be
       -0.08135497 0.10232284 0.077794336 -0.42578325
000030 da b9 5a 3a 1a 22 91 bd 2a 90 05 be 2f 71 65 3d
       0.0008343734 -0.070865825 -0.13043275 0.056016143

layer1.1.bn2.running_mean f4 [16]
000000 92 3c 4f be b5 bb 37 3e d1 c7 51 3f 7e c4 6b bf
       -0.2023795 0.17942698 0.8194552 -0.920967
000010 ed 3c 08 bf 82 32 6a be 06 bf f6 be 77 b4 fd be
       -0.53217965 -0.2287083 -0.48192614 -0.49551746
000020 d7 3a 76 bf 0d 9f 75 bf d5 95 d2 3e 80 8c 3c be
       -0.9618353 -0.9594582 0.41129938 -0.18412971
000030 a4 12 27 bf fc f2 15 bf a7 64 0a bf 10 48 92 bf
       -0.6526282 -0.5857389 -0.54059833 -1.1428242

layer1.1.bn2.running_var f4 [16]
000000 22 cb 04 3f 7b be c9 3e e7 1f 5e 3f ac aa 96 3f
       0.51872456 0.39403138 0.8676743 1.1770835
000010 d2 39 0e 3f 26 c8 c9 3f 46 1f 79 3f 0d 88 15 3f
       0.55556977 1.5764205 0.97313344 0.5841072
000020 16 8c 80 3f 3e 48 79 3f 0b 93 16 3f d3 d7 f5 3f
       1.0042751 0.9737586 0.5881812 1.9206489
000030 fc 40 90 3f f6 91 84 3f 9a 6e 75 3f f0 32 6b 3f
       1.1269832 1.0357044 0.9587189 0.918746
