Output/swift-iid-8W-linear-nothing-linear-2sgd-200epochs/r6-epoch_122-parameters.pt (torch, 731500 bytes, 92 tensors)

conv1.weight f4 [16, 3, 3, 3]
0.068465434 -0.37501696 0.19517086 -0.81395286 1.7887388 0.24184987 -0.30776957 -0.6154364
0.1908402 -0.0010704218 -0.5570853 0.22477908 -0.50897896 1.7028052 -0.18691498 -0.067001276
-0.8566926 -0.2855407 0.5424623 -0.9320361 -0.07851462 0.14271669 0.8153284 -0.45722806
0.6137395 -0.34048906 -0.26477697 0.10664469 -0.34681875 0.19739532 -0.426659 -1.1404401
-0.30496123 0.10891604 -0.45607004 0.023053793 0.13746521 -0.14770001 0.18936105 -0.23152123
-0.62519395 -0.06374248 -0.05008614 -0.29635832 -0.025760513 0.051803224 0.074944094 0.07023255
0.1524744 0.112595916 0.15641983 0.3322156 0.41537693 0.26954913 0.10637699 -0.35137329
-0.27634606 0.10939614 -0.055954475 -0.04304608 0.026222628 -0.14619176 -0.042846873 -0.1788996
-0.3609461 -0.4073262 -0.022437895 0.23296922 0.06251345 -0.23698817 0.027892401 -0.026703397
-0.3549594 -0.14920494 -0.28646034 0.22868182 0.9210127 0.67142093 0.10270144 0.73295754
0.52907574 0.13146287 -0.2682611 0.055091247 -0.21476232 -0.838703 -0.34758654 0.23053353
0.06613076 0.3541687 0.37557885 -0.04040528 0.3086732 0.073962584 -0.4963962 -0.05358145
0.18020047 0.08487413 0.2650156 -0.021488437 -0.3901016 -0.042744696 -0.22950068 -0.73962003
-0.28153145 -0.16167338 -0.28220078 0.044882637 0.27926287 -0.10184433 0.1322973 0.7815932
-0.5641972 -0.34230945 0.07564174 -0.13558242 0.10889603 0.4472341 -0.5663513 -0.4327328
1.0789684 -0.7357621 -0.5758074 0.51716113 0.080172546 0.29066616 0.27622607 -0.46694294
-0.6552353 1.0386217 -0.53919595 -0.7497674 0.60677457 0.17544924 0.19214435 0.08180996
0.4725913 -0.01632116 0.51402915 0.6654878 0.47717142 0.04104983 -0.0847961 -0.026342206
-0.1453192 -0.352459 -0.20217974 -0.19955304 -0.82240933 -0.32201096 0.13227671 -0.5057463
-0.06955909 -0.037630975 -0.016367627 0.1227944 -0.26199263 -0.7212232 -0.14698201 0.13058499
-0.4512709 0.07484563 0.32923433 0.9674426 0.64232516 -0.15414304 -0.28272834 0.2044613
-0.3280767 -0.81115085 0.040189672 0.6367538 1.0710025 0.6265562 -0.09136887 -0.5828306
-0.22547975 -0.21202786 -0.985627 -0.3664182 0.30371007 0.52987045 0.21266553 -0.038818426
-0.5176634 -0.34127542 0.17485648 -0.6228813 -0.21453892 0.07462708 -0.48624152 -0.07209067
-0.6430057 -0.89983 -0.7529064 -0.20512514 -0.9474345 -0.260374 0.3497461 0.36187205
0.20703427 0.10651107 0.60684556 0.0028341557 0.11797863 -0.04771386 0.00091247197 -0.07799237
0.30206454 -0.059078828 0.221884 1.1736652 0.20252226 0.27612585 0.64180475 0.11816465
0.24315265 0.45987535 0.06544006 0.5776147 0.511788 -1.185606 -0.098990805 0.23947817
-0.5617122 0.5645985 0.31498948 -0.5044608 0.7773968 0.45247263 -1.6783807 0.14775518
0.38392293 -0.7523649 -0.10652835 0.19591703 -0.019522645 0.34844834 0.47022882 -0.99803716
0.07448033 0.47937754 -0.41174114 0.41968662 0.030814735 0.5842631 -0.32043767 0.42018571
-0.39840508 -0.29743677 -0.12790124 -0.4846911 -0.16152908 -0.29227453 0.03610408 -0.2849106
00000000: 9b37 8c3d 3902 c0be dfda 473e 375f 50bf
00000010: 65f5 e43f 7ea7 773e f993 9dbe 3d8d 1dbf
00000020: 9d6b 433e 654d 8cba 249d 0ebf 7d2c 663e
00000030: 724c 02bf 85f5 d93f a466 3fbe f737 89bd
00000040: 3550 5bbf 6432 92be cfde 0a3f eb99 6ebf
00000050: 46cc a0bd 5324 123e 5db9 503f cc19 eabe
00000060: 081e 1d3f 9554 aebe d990 87be 8868 da3d
00000070: 3a92 b1be 0022 4a3e 0c73 dabe f1f9 91bf
00000080: e123 9cbe 5f0f df3d 0382 e9be 4fdb bc3c
00000090: aec3 0c3e ac3e 17be dde7 413e e713 6dbe
000000a0: b60c 20bf 6b8b 82bd 2027 4dbd 47bc 97be
000000b0: b607 d3bc 9e2f 543d 4a7c 993d 15d6 8f3d
000000c0: 4022 1c3e b098 e63d 852c 203e 2a18 aa3e
000000d0: 49ac d43e 5802 8a3e 2edc d93d 33e7 b3be
000000e0: 3b7d 8dbe 150b e03d 8530 65bd 1651 30bd
000000f0: d6d0 d63c 4bb3 15be 3480 2fbd 7531 37be
00000100: edcd b8be 0f8d d0be adcf b7bc 7c8f 6e3e
00000110: 0d07 803d 07ad 72be 9b7e e43c 15c1 dabc
00000120: 3dbd b5be 2ec9 18be eeaa 92be 912b 6a3e
00000130: 7dc7 6b3f 3ee2 2b3f 2255 d23d 1ba3 3b3f
00000140: 8271 073f 349e 063e 8559 89be 5ca7 613d
00000150: a7ea 5bbe 3db5 56bf ddf6 b1be fb10 6c3e
00000160: 906f 873d 9a55 b53e df4b c03e 0280 25bd
00000170: 6a0a 9e3e b279 973d a527 febe 3978 5bbd
00000180: 7986 383e 7dd2 ad3d 20b0 873e 8508 b0bc
00000190: 66bb c7be 1015 2fbd 3a02 6bbe bd57 3dbf
000001a0: e424 90be b58d 25be 9f7c 90be dbd6 373d
000001b0: 8bfb 8e3e c393 d0bd f278 073e 7e16 483f
000001c0: 3a6f 10bf 2f43 afbe 0eea 9a3d 1ed6 0abe
000001d0: e204 df3d defb e43e 66fc 10bf 278f ddbe
000001e0: a31b 8a3f e85a 3cbf 1d68 13bf ac64 043f
000001f0: 8131 a43d 32d2 943e 816d 8d3e 2513 efbe
00000200: 80bd 27bf 8ef1 843f bf08 0abf c2f0 3fbf
00000210: 9455 1b3f f7a8 333e 7dc1 443e fb8b a73d
00000220: 7df7 f13e f4b3 85bc 6a97 033f 695d 2a3f
00000230: d04f f43e de23 283d 94a9 adbd 9ccb d7bc
00000240: 8ece 14be 8275 b4be 3508 4fbe a257 4cbe
00000250: 6b89 52bf 9fde a4be 8c73 073e 9778 01bf
00000260: ff74 8ebd f022 1abd 6715 86bc a17b fb3d
00000270: e623 86be 15a2 38bf 7482 16be 12b8 053e
00000280: fb0c e7be aa48 993d 6791 a83e 51aa 773f
00000290: 6c6f 243f acd7 1dbe c5c1 90be 4e5e 513e
000002a0: abf9 a7be 95a7 4fbf ed9d 243d 4c02 233f
000002b0: 9c16 893f fd65 203f 9a1f bbbd 6334 15bf
000002c0: 2ae4 66be d51d 59be 0d52 7cbf 2b9b bbbe
000002d0: e37f 9b3e 97a5 073f fec4 593e 1200 1fbd
000002e0: 9785 04bf a7bb aebe 940d 333e 2675 1fbf
000002f0: 17b0 5bbe 15d6 983d a6f4 f8be 46a4 93bd
00000300: 069c 24bf 425b 66bf 79be 40bf 530c 52be
00000310: 118b 72bf be4f 85be ec11 b33e 4b47 b93e
00000320: cb00 543e 7a22 da3d 3b5a 1b3f 3ebd 393b
00000330: c89e f13d 9c6f 43bd f532 6f3a 77ba 9fbd
00000340: 34a8 9a3e a4fc 71bd 8f35 633e a93a 963f
00000350: ff61 4f3e 5e60 8d3e 514d 243f 4f00 f23d
00000360: 02fd 783e c874 eb3e 7005 863d 8fde 133f
00000370: 8a04 033f f0c1 97bf b1bb cabd c439 753e
00000380: 5fcc 0fbf 8789 103f 4d46 a13e 5824 01bf
00000390: 7a03 473f 7eaa e73e 2ed5 d6bf 224d 173e
000003a0: 8c91 c43e fc9a 40bf 892b dabd 799e 483e
000003b0: f4ed 9fbc d267 b23e d5c1 f03e 5d7f 7fbf
000003c0: 2589 983d f970 f53e bccf d2be 2ae1 d63e
000003d0: 2f6f fc3c 4492 153f 6810 a4be 9522 d73e
000003e0: c0fb cbbe a249 98be 8bf8 02be 6f29 f8be
000003f0: e167 25be 02a5 95be dfe1 133d cddf 91be

conv1.bias f4 [16]
-0.013774285 -0.008738018 -0.009732453 0.018062815 0.01666716 -0.019342434 -0.0009292553 0.004636414
-0.014742068 -0.019562414 -0.005460482 -0.008943842 -0.007320034 0.01464943 0.003757078 -0.01339686
00000000: 8aad 61bc e729 0fbc de74 1fbc 78f8 933c
00000010: 9189 883c 0674 9ebc 4499 73ba 0fed 973b
00000020: b788 71bc 5b41 a0bc d8ed b2bb 3189 12bc
00000030: e5dc efbb 2a04 703c 4f39 763b 817e 5bbc

bn1.weight f4 [16]
1.0751064 0.9704476 0.8096035 1.3461751 0.7846069 0.7086549 0.85584927 0.66217124
0.98104733 0.9124743 0.8587317 0.934628 0.60475576 0.7363595 0.7889643 0.67752004
00000000: 169d 893f 416f 783f 2d42 4f3f 774f ac3f
00000010: ffdb 483f 686a 353f f018 5b3f 0e84 293f
00000020: eb25 7b3f ea97 693f d7d5 5b3f c843 6f3f
00000030: 46d1 1a3f 0e82 3c3f 90f9 493f f471 2d3f

bn1.bias f4 [16]
1.597726 0.11766621 -0.07503206 -0.5415051 0.5484724 0.22148201 0.60101837 0.44153872
0.53172225 0.6954188 -0.13028641 0.010177996 -0.35999155 0.63684654 0.6453406 -0.106963
00000000: 4982 cc3f fbfa f03d 69aa 99bd 14a0 0abf
00000010: b068 0c3f 2ecc 623e 57dc 193f 5d11 e23e
00000020: f31e 083f f706 323f cd69 05be 9cc1 263c
00000030: d050 b8be 6008 233f 0b35 253f 6b0f dbbd

bn1.running_mean f4 [16]
-0.09953354 0.59544903 -0.30161425 0.7906459 0.082186155 0.51970726 0.101546414 -0.12651195
-0.10888756 -0.19822614 0.3241368 0.11112361 0.37091282 -0.13137358 -0.038575333 -0.4974706
00000000: 3ed8 cbbd 596f 183f 2f6d 9abe c567 4a3f
00000010: 3751 a83d 890b 053f 91f7 cf3d 598c 01be
00000020: 7100 dfbd cbfb 4abe 42f5 a53e c694 e33d
00000030: 49e8 bd3e cc86 06be 2b01 1ebd 77b4 febe

bn1.running_var f4 [16]
2.8280315 8.904763 6.0820355 11.50989 14.355685 6.8396797 19.649485 7.30711
18.768993 4.663609 3.0009887 16.631563 3.470896 5.1241975 6.729568 5.9681196
00000000: 78fe 3440 e979 0e41 09a0 c240 8228 3841
00000010: e3b0 6541 a8de da40 2532 9d41 d8d3 e940
00000020: e626 9641 493c 9540 3310 4040 710d 8541
00000030: 2923 5e40 6df9 a340 9f58 d740 d6fa be40

layer1.0.conv1.weight f4 [16, 16, 3, 3]
-0.31035218 0.062040366 -0.02819977 -0.4268446 0.712942 -0.43324345 0.045341026 -0.5808187
0.12348487 -0.054683007 0.06768316 0.23804523 0.08920583 0.19371748 0.3181512 -0.2710388
-0.08095532 0.011876743 -0.018542878 0.16409916 0.050594892 -0.039208923 0.124525346 -0.06899134
-0.1322766 -0.21247198 -0.14755808 -0.13235629 -0.082149826 -0.25208867 -0.07852601 -0.24436967
-0.3386365 0.059268225 0.06697637 -0.023141967 0.008600017 -0.16752358 0.14068514 -0.45745364
-0.54727703 0.17980379 -0.07845134 -0.005128767 0.047870275 0.22858058 0.075309075 0.05230493
0.18926422 0.092781544 -0.01266232 -0.08782776 -0.03323554 -0.21247384 0.038118206 -0.4394822
0.1291629 0.0467446 -0.18612303 0.28083822 -0.0006578219 0.15081526 0.15440431 -0.2625937
0.15449105 0.14811133 -0.29648358 0.37161005 0.26621395 -0.30812278 0.03397047 0.30805755
-0.4344143 0.10696298 -0.093301915 -0.72784835 0.05341122 0.12932718 -0.08123579 0.04809981
0.2295588 -0.3175254 0.72687644 -0.26383075 -0.2181485 0.4764469 -0.23188807 0.07195549
-0.54609865 -0.14099139 0.15962861 0.07662707 0.15057003 0.1479174 -0.005679466 0.09551875
-0.15666445 -0.06837869 0.13472505 0.044491112 -0.41698015 -0.27813935 -0.048353527 -0.26792446
0.0022211128 0.117977895 -0.028859276 0.20177479 0.009958454 -0.12925646 -0.1376013 0.05814901
-0.12257666 -0.11709663 0.090822354 0.00891529 -0.01678613 -0.03153789 0.39932343 -0.012635865
-0.08096399 0.3041941 -0.05528089 0.0765585 -0.26939392 -0.019639246 -0.048237853 0.017899279
-0.029871518 0.22922559 -0.031961136 0.15533382 0.20018175 -0.22502708 0.13070457 0.24099873
0.18691713 0.061018996 0.21169579 0.1405653 -0.013304891 0.06372756 -0.10372819 -0.11597493
-0.14774908 0.28661448 0.46020234 0.12432219 -0.31359947 -0.44481477 -0.013223622 0.040710595
0.28654203 0.025469735 -0.17846066 -0.086464934 -0.22104457 -0.15268755 -0.100569464 -0.07627846
-0.00029451353 0.107676275 -0.08608392 0.04502534 0.1300378 -0.080647275 -0.057394598 0.10788486
-0.14139532 -0.12182217 -0.063145 0.18037264 -0.24137187 -0.20682417 0.21869613 0.064883575
0.051792428 0.21618944 0.1608783 0.033422716 -0.2991058 -0.16385137 -0.16182758 -0.13743302
-0.010521953 -0.2584676 0.17919895 0.18599162 -0.3415451 -0.04199523 -0.096912615 -0.0588286
0.13086739 0.12728943 0.007336454 0.27500317 0.25431377 0.102538876 0.045024894 -0.09890526
-0.20696104 -0.012197921 0.17035796 -0.03841135 0.10692496 -0.16140397 -0.35051107 0.053771164
0.27262306 0.33109465 -0.16115354 -0.0116857765 0.25999814 -0.19535229 -0.12165345 0.15411015
-0.18620329 -0.10786554 -0.13156448 0.1179388 -0.090459205 -0.20612799 0.24126731 -0.08372572
-0.16732305 -0.10796709 0.044070482 0.23102544 -0.07992313 -0.4141831 -0.18432379 0.078100614
-0.13568087 0.12690479 -0.002783149 -0.2243352 -0.09860793 -0.13156822 -0.1095111 -0.039837714
0.02723938 0.05294226 0.004613478 -0.100845106 -0.3051552 0.09711034 0.015636377 -0.20509289
0.12826853 0.21778572 -0.046694797 0.010072867 0.054612648 -0.08018567 -0.115519464 0.10959067
00000000: 7be6 9ebe 0a1e 7e3d 3403 e7bc 608b dabe
00000010: 5e83 363f 16d2 ddbe 83b7 393d 89b0 14bf
00000020: a3e5 fc3d 4afb 5fbd 789d 8a3d 21c2 733e
00000030: 8cb1 b63d e05d 463e b7e4 a23e 99c5 8abe
00000040: e7cb a5bd ac96 423c 3ce7 97bc 9c09 283e
00000050: 973c 4f3d 8999 20bd 2507 ff3d 554b 8dbd
00000060: 8473 07be 4192 59be 7719 17be 6888 07be
00000070: 2b3e a8bd c411 81be 3fd2 a0bd 0b3c 7abe
00000080: c361 adbe 3dc3 723d e82a 893d 3994 bdbc
00000090: 16e7 0c3c 4d8b 2bbe c40f 103e 5d37 eabe
000000a0: 591a 0cbf 7c1e 383e 19ab a0bd 370f a8bb
000000b0: 9f13 443d 0711 6a3e a53b 9a3d b23d 563d
000000c0: 7bce 413e 4004 be3d 9f75 4fbc 0adf b3bd
000000d0: fd21 08bd be92 59be d621 1c3d d003 e1be
000000e0: 4743 043e 4477 3f3d 0997 3ebe 07ca 8f3e
000000f0: ae71 2cba 516f 1a3e 2a1c 1e3e ae72 86be
00000100: e732 1e3e 7faa 173e b2cc 97be ac43 be3e
00000110: 324d 883e 45c2 9dbe 9f24 0b3d b8b9 9d3e
00000120: 8d6b debe 680f db3d 1315 bfbd 4554 3abf
00000130: b9c5 5a3d 586e 043e f35e a6bd 4e04 453d
00000140: 7611 6b3e b092 a2be 9314 3a3f d314 87be
00000150: 5262 5fbe d9f0 f33e 1174 6dbe 665d 933d
00000160: 1fcd 0bbf 0c60 10be af75 233e a7ee 9c3d
00000170: 082f 1a3e a977 173e d01a babb 569f c33d
00000180: a56c 20be 200a 8cbd 5df5 093e 503c 363d
00000190: 6c7e d5be 4868 8ebe 590e 46bd 652d 89be
000001a0: 1790 113b 659e f13d 4a6a ecbc 0d9e 4e3e
000001b0: c928 233c ce5b 04be 5be7 0cbe a82d 6e3d
000001c0: 7909 fbbd 5cd0 efbd 1201 ba3d 7011 123c
000001d0: 1183 89bc e02d 01bd 1f74 cc3e a906 4fbc
000001e0: 73d0 a5bd 54bf 9b3e 376e 62bd b4ca 9c3d
000001f0: 00ee 89be 7ce2 a0bc 0e95 45bd 82a1 923c
00000200: 1db5 f4bc 1dba 6a3e aee9 02bd d40f 1f3e
00000210: 72fc 4c3e 806d 66be 6bd7 053e 5fc8 763e
00000220: 3467 3f3e 0eef 793d c8c6 583e 5af0 0f3e
00000230: c2fc 59bc 9883 823d 726f d4bd 4484 edbd
00000240: 894b 17be 22bf 923e a49f eb3e a29c fe3d
00000250: 1c90 a0be c3be e3be e4a7 58bc 27c0 263d
00000260: a3b5 923e e8a5 d03c 64be 36be 8714 b1bd
00000270: 8259 62be 205a 1cbe 5df7 cdbd e237 9cbd
00000280: f068 9ab9 6185 dc3d c44c b0bd 7e6c 383d
00000290: a128 053e 662a a5bd 9916 6bbd bdf2 dc3d
000002a0: efc9 10be e77d f9bd 2a52 81bd 9bb3 383e
000002b0: 302a 77be b7c9 53be e1f1 5f3e aee1 843d
000002c0: 4c24 543d c460 5d3e 48bd 243e 42e6 083d
000002d0: 6524 99be a7c8 27be 21b6 25be 3ebb 0cbe
000002e0: 4564 2cbc de55 84be ee7f 373e 9674 3e3e
000002f0: 00df aebe 3103 2cbd 1f7a c6bd 42f6 70bd
00000300: 1a02 063e 2958 023e a366 f03b 37cd 8c3e
00000310: 6a35 823e e7ff d13d 066c 383d d78e cabd
00000320: 98ed 53be cad9 47bc 5172 2e3e 3855 1dbd
00000330: 79fb da3d 1547 25be 3076 b3be 273f 5c3d
00000340: 4095 8b3e 3d85 a93e 6f05 25be b375 3fbc
00000350: 7a1e 853e 6e0a 48be 7225 f9bd 0dcf 1d3e
00000360: 13ac 3ebe 9ce8 dcbd d7b8 06be e689 f13d
00000370: ad42 b9bd 3713 53be c70e 773e 6478 abbd
00000380: bc56 2bbe da1d ddbd 4083 343d ef91 6c3e
00000390: bdae a3bd cf0f d4be 60bf 3cbe 37f3 9f3d
000003a0: edef 0abe 54f3 013e 7e65 36bb 20b8 65be
000003b0: f4f2 c9bd d2b9 06be 5b47 e0bd df2c 23bd
000003c0: 1f25 df3c fcd9 583d a92c 973b e187 cebd
000003d0: 4d3d 9cbe c9e1 c63d dc17 803c df03 52be
000003e0: d358 033e 3803 5f3e 0b43 3fbd ab08 253c
000003f0: 83b1 5f3d 6238 a4bd 7895 ecbd 1371 e03d

layer1.0.conv1.bias f4 [16]
0.0012511464 -0.005738278 -0.0023982506 0.001398156 -0.0072115115 -0.0063724145 0.0010996367 -0.0023926168
0.003228103 -0.0022800171 0.0039242078 0.0015205059 -0.0083304215 0.0016911636 0.0064424877 -0.0036504383
00000000: 82fd a33a 2a08 bcbb f82b 1dbb 5542 b73a
00000010: 8b4e ecbb b0cf d0bb af21 903a 73cd 1cbb
00000020: 958e 533b 576c 15bb a496 803b b64b c73a
00000030: 527c 08bc 09aa dd3a 811b d33b 313c 6fbb

layer1.0.bn1.weight f4 [16]
0.9917147 0.8234754 0.71689695 1.3938253 0.6982782 0.7971101 0.6474933 0.68884176
0.81137764 0.7747741 0.6405228 0.9226697 0.6987644 1.0201812 0.7491096 0.93967944
00000000: 04e1 7d3f 49cf 523f 8f86 373f de68 b23f
00000010: 5cc2 323f 680f 4c3f 1fc2 253f ef57 303f
00000020: 72b6 4f3f 9857 463f 4df9 233f 1534 6c3f
00000030: 39e2 323f 4c95 823f a6c5 3f3f d58e 703f

layer1.0.bn1.bias f4 [16]
0.47892952 0.41140237 -0.4255343 -0.10499046 -0.23875181 0.24752963 -0.0044247666 -0.23280478
0.2275362 0.11648616 0.3106645 -0.2094493 -0.78216594 0.8206986 -0.23582445 -0.6717199
00000000: 4036 f53e 55a3 d23e a2df d9be 3d05 d7bd
00000010: 5b7b 74be 6878 7d3e a2fd 90bb 6064 6ebe
00000020: 40ff 683e 4c90 ee3d 6b0f 9f3e e179 56be
00000030: 073c 48bf 4e19 523f f77b 71be d6f5 2bbf

layer1.0.bn1.running_mean f4 [16]
-1.8690727 -1.1666075 -0.71798116 -2.0220673 1.4152199 -1.6402375 -0.17656204 -1.1994172
-3.5040236 -3.822685 -4.3111134 -1.8272396 1.0223106 -1.6790967 -0.027555121 2.0551114
00000000: c63d efbf 6553 95bf 9dcd 37bf 8d69 01c0
00000010: ed25 b53f 4df3 d1bf aecc 34be 8186 99bf
00000020: ec41 60c0 dfa6 74c0 a4f4 89c0 fde2 e9bf
00000030: 13db 823f a4ec d6bf 47bb e1bc f286 0340

layer1.0.bn1.running_var f4 [16]
5.8133783 3.163329 1.4794092 23.908964 1.9785404 4.1105876 5.728832 3.1022031
3.2797487 1.780772 3.383752 3.2273643 0.7579189 6.8651266 1.360171 3.1565557
00000000: 3207 ba40 fb73 4a40 485d bd3f 8f45 bf41
00000010: d040 fd3f ef89 8340 9752 b740 7f8a 4640
00000020: 67e7 5140 56f0 e33f 658f 5840 238d 4e40
00000030: f906 423f 1eaf db40 151a ae3f 0205 4a40

layer1.0.conv2.weight f4 [16, 16, 3, 3]
0.1731574 -0.26026294 0.2366019 -0.13510981 0.38286948 0.1467096 0.03837686 -0.026556266
-0.04772137 0.25812545 0.00043298458 -0.18141463 -0.42586547 -0.339097 -0.06358387 0.010278635
-0.007920701 -0.029407557 -0.023903146 -0.06532833 -0.08530059 -0.015615806 0.04529407 0.08091151
-0.056074753 -0.048243146 0.05537397 -0.050732333 0.12700695 -0.07082221 -0.18952487 -0.09690349
-0.09996454 -0.07669272 -0.1311755 -0.085302085 -0.15120968 -0.07694507 -0.022489784 0.040182356
-0.021802118 0.09485091 0.010195895 -0.053835448 0.021207416 0.054696966 -0.11959444 -0.0027328485
0.025509428 -0.11345317 -0.23584352 -0.17061688 -0.36634085 -0.0879242 -0.081007995 -0.10905362
-0.12923841 -0.15977399 -0.31556278 -0.28427833 -0.12535857 -0.22168264 -0.06781774 -0.0713292
0.0047155027 0.03272087 -0.07474796 0.051133182 0.04020181 -0.16440979 -0.029668627 -0.0010249979
0.11439503 0.34443805 0.2147413 0.25140688 0.110727906 -0.23671195 -0.02783591 0.06986108
-0.05242957 0.052185666 -0.18783253 -0.017960735 -0.1785384 0.23470695 -0.023625396 -0.052852962
-0.04654034 0.114997536 -0.018277854 -0.09225857 -0.011956182 0.043151174 0.06632344 -0.104255244
0.22981232 0.07981626 -0.111436695 -0.0397953 0.19609283 0.1945868 -0.039446402 -0.12932011
0.13996871 -0.079804525 -0.031846162 0.0700603 -0.023335725 -0.009086644 -0.06618748 0.049968872
-0.0054702824 -0.046099003 0.13427171 0.009309441 -0.009075232 -0.13014187 0.60370773 -0.10990971
0.3388676 -0.51530737 -0.03049244 -0.17017725 0.14214413 -0.011808812 0.17931256 0.0012411381
0.14702788 0.0071287374 -0.09544899 -0.09595873 0.019312533 -0.16670574 -0.17972869 -0.110341325
0.2726321 -0.016283752 0.07571416 0.12967639 0.019320143 -0.14027922 -0.05970621 -0.114264205
0.033663034 0.044223167 -0.13476455 0.18934757 -0.087217174 -0.21662748 0.155515 0.004392151
-0.18307535 0.13898754 -0.06049066 -0.049540315 0.16381878 -0.066359565 -0.18654294 0.20289709
0.091727726 -0.06422714 -0.08394703 -0.094478756 -0.09002808 -0.09813265 -0.09867808 -0.061093207
-0.19668515 -0.20127028 -0.17255776 0.04396771 -0.07155854 -0.12443882 0.08126653 -0.030418376
-0.03174757 0.19059609 0.18345587 0.07184344 0.019833585 0.03457254 0.09148313 -0.054638878
-0.08205496 -0.06303415 -0.061104815 -0.058462158 -0.11108043 0.041410383 -0.16502649 -0.06236566
0.16268876 -0.08753157 -0.1028025 0.21325034 0.1107231 -0.16516574 -0.038192008 0.055492096
-0.102194175 -0.02087461 0.124506965 0.05002697 -0.18708758 -0.15765198 -0.096149474 -0.04184779
-0.14799733 -0.19027062 0.074763514 -0.08555091 -0.2044962 0.1933092 0.0493309 -0.13905272
0.10983171 0.0578858 -0.117567375 0.42446813 0.1653159 -0.09518289 0.2566784 0.0755876
-0.0030741564 0.14710107 0.08279205 -0.039027836 0.1334915 0.06757844 -0.056304887 0.16927123
0.06584888 -0.1271293 -0.068184756 0.04339567 0.13945022 -0.08557843 -0.090509035 0.09131795
-0.11643644 -0.1536107 -0.009449705 -0.092586435 0.0021413343 0.16622181 -0.01992324 0.09117668
0.16649497 -0.115842566 0.04504053 0.06137768 0.0104657775 0.04521497 0.060060136 0.0126357535
00000000: 2c50 313e 2f41 85be c547 723e 3a5a 0abe
00000010: 7807 c43e 0b3b 163e 0e31 1d3d 878c d9bc
00000020: 7c77 43bd 0529 843e 3502 e339 c2c4 39be
00000030: 0a0b dabe 1f9e adbe 4338 82bd b867 283c
00000040: d4c5 01bc 1ee8 f0bc 88d0 c3bc dcca 85bd
00000050: 13b2 aebd 70d9 7fbc 4686 393d efb4 a53d
00000060: a4ae 65bd 9b9a 45bd d1cf 623d b5cc 4fbd
00000070: 1c0e 023e 3c0b 91bd cf12 42be 5675 c6bd
00000080: 35ba ccbd 1311 9dbd df52 06be dcb2 aebd
00000090: b6d6 1abe 6095 9dbd 7f3c b8bc 4196 243d
000000a0: 5b9a b2bc 3241 c23d af0c 273c 8f82 5cbd
000000b0: 2dbb ad3c ed09 603d eeed f4bd 9719 33bb
000000c0: 26f9 d03c 235a e8bd f780 71be 31b6 2ebe
000000d0: 0791 bbbe 9a11 b4bd 85e7 a5bd 8157 dfbd
000000e0: 1357 04be cb9b 23be 7291 a1be ee8c 91be
000000f0: ff5d 00be c600 63be 07e4 8abd 0b15 92bd
00000100: 8184 9a3b 5206 063d 7515 99bd 0771 513d
00000110: a7aa 243d 0a5b 28be 9f0b f3bc 3959 86ba
00000120: f147 ea3d 2f5a b03e 25e5 5b3e 67b8 803e
00000130: 50c5 e23d 9e64 72be 2208 e4bc 5313 8f3d
00000140: 64c0 56bd a3c0 553d 2c57 40be 6422 93bc
00000150: c5d2 36be 0557 703e 0c8a c1bc 597c 58bd
00000160: 15a1 3ebd d483 eb3d 70bb 95bc 10f2 bcbd
00000170: dde3 43bc 49bf 303d 95d4 873d c683 d5bd
00000180: ec53 6b3e b576 a33d ec38 e4bd 6600 23bd
00000190: 8fcc 483e c341 473e 8d92 21bd 7e6c 04be
000001a0: f553 0f3e 8e70 a3bd 1f71 02bd c67b 8f3d
000001b0: 902a bfbc 26e0 14bc 4d8d 87bd 29ac 4c3d
000001c0: 0e40 b3bb 4fd2 3cbd 867e 093e a086 183c
000001d0: 48b0 14bc e943 05be 978c 1a3f 5818 e1bd
000001e0: 0e80 ad3e 2feb 03bf 48cb f9bc f242 2ebe
000001f0: 3b8e 113e bf79 41bc b69d 373e afad a23a
00000200: 7a8e 163e 2f98 e93b c37a c3bd 0386 c4bd
00000210: 5135 9e3c e9b4 2abe cc0a 38be a2fa e1bd
00000220: 6f96 8b3e 8165 85bc 0710 9b3d e3c9 043e
00000230: 4745 9e3c 5ba5 0fbe 808e 74bd 5a03 eabd
00000240: 40e2 093d 5a23 353d b8ff 09be 54e4 413e
00000250: eb9e b2bd 98d3 5dbe 533f 1f3e 08ec 8f3b
00000260: 1b78 3bbe c052 0e3e 0ec5 77bd c9ea 4abd
00000270: 1cc0 273e 86e7 87bd 1d05 3fbe 41c4 4f3e
00000280: bfdb bb3d 8589 83bd 6cec abbd 147e c1bd
00000290: a460 b8bd c5f9 c8bd bc17 cabd df3c 7abd
000002a0: d567 49be cc19 4ebe fbb2 30be 7c17 343d
000002b0: 498d 92bd c8d9 febd 116f a63d f52f f9bc
000002c0: bd09 02bd 9f2b 433e dbdb 3b3e a722 933d
000002d0: 0b7a a23c f09b 0d3d 825b bb3d 04cd 5fbd
000002e0: 6e0c a8bd 0c18 81bd 0b49 7abd 0476 6fbd
000002f0: 237e e3bd ef9d 293d b4fc 28be 2273 7fbd
00000300: e297 263e c043 b3bd 1e8a d2bd 4c5e 5a3e
00000310: cbc2 e23d 3521 29be 396f 1cbd ae4b 633d
00000320: 2e4b d1bd 3b01 abbc 82fd fe3d 15e9 4c3d
00000330: e393 3fbe 856f 21be 04ea c4bd 9768 2bbd
00000340: 9d8c 17be 4dd6 42be 9d1d 993d 5135 afbd
00000350: 7467 51be d9f2 453e 330f 4a3d d663 0ebe
00000360: 73ef e03d a919 6d3d 2ac7 f0bd e353 d93e
00000370: 9248 293e 3fef c2bd 5a6b 833e accd 9a3d
00000380: c977 49bb aaa1 163e e18e a93d a7db 1fbd
00000390: ffb1 083e 9166 8a3d f49f 66bd 7055 2d3e
000003a0: c7db 863d 2f2e 02be 73a4 8bbd a8bf 313d
000003b0: 0acc 0e3e be43 afbd cd5c b9bd e804 bb3d
000003c0: 3a76 eebd 204c 1dbe efd2 1abc f59d bdbd
000003d0: a155 0c3b 0d36 2a3e 1036 a3bc d7ba ba3d
000003e0: a87d 2a3e de3e edbd 6b7c 383d 2a67 7b3d
000003f0: a778 2b3c 5533 393d 9e01 763d 3106 4f3c

layer1.0.conv2.bias f4 [16]
-0.003496522 0.012122228 -0.0041589695 0.0014023064 0.0056773303 0.0037422911 -0.0023130474 -0.0052237846
0.0063750125 -0.0049252547 -0.0070428527 0.008586798 -0.006287896 0.0033464616 -0.00035253624 0.0009321994
00000000: e825 65bb 4f9c 463c f747 88bb 98cd b73a
00000010: e608 ba3b 3a41 753b 7f96 17bb 482c abbb
00000020: 7be5 d03b 0864 a1bb bbc7 e6bb a4af 0c3c
00000030: b20a cebb 4f50 5b3b 9dd4 b8b9 d85e 743a

layer1.0.bn2.weight f4 [16]
1.3068466 0.5463123 0.44935852 0.6034595 1.1215718 0.87298816 1.3847253 1.3498546
0.973247 0.9059961 0.5631838 1.2533971 1.1843879 0.5859316 0.52367485 0.739071
00000000: c046 a73f 1fdb 0b3f 5212 e63e 527c 1a3f
00000010: aa8f 8f3f 277c 5f3f ae3e b13f 09c8 ac3f
00000020: b726 793f 5cef 673f d02c 103f 516f a03f
00000030: 069a 973f 9dff 153f 8e0f 063f c233 3d3f

layer1.0.bn2.bias f4 [16]
-0.63183755 0.123167925 0.103462696 -0.32276914 0.41630587 -0.057767045 -0.074405625 0.7500075
-0.4325152 -0.42438123 0.1550652 -0.010534397 0.6856004 0.13733934 -0.04608487 0.32249126
00000000: 1bc0 21bf 773f fc3d 40e4 d33d ff41 a5be
00000010: 0b26 d53e 239d 6cbd fa61 98bd 7e00 403f
00000020: a272 ddbe 7f48 d9be 69c9 1e3e 7798 2cbc
00000030: 8283 2f3f afa2 0c3e 7dc3 3cbd 931d a53e

layer1.0.bn2.running_mean f4 [16]
-0.7081903 0.87919515 0.48218414 0.8171458 0.36191446 -0.01992463 0.32681435 -0.50534165
-1.4943936 -1.10369 0.065293066 1.575409 -2.0794318 -0.867261 -0.18087284 -0.7755631
00000000: f64b 35bf ef12 613f d7e0 f63e 7830 513f
00000010: da4c b93e fa38 a3bc 3654 a73e 125e 01bf
00000020: 4a48 bfbf b745 8dbf 5fb8 853d 01a7 c93f
00000030: 6915 05c0 d104 5ebf bb36 39be 4e8b 46bf

layer1.0.bn2.running_var f4 [16]
2.0311427 1.5772192 1.1826278 1.1758665 4.087172 2.3600614 5.8536367 3.3247097
3.565787 1.9269035 1.1613041 5.421533 6.2645073 1.473665 1.2798202 2.338031
00000000: 3efe 0140 52e2 c93f 5960 973f cb82 963f
00000010: 1dca 8240 3f0b 1740 fe50 bb40 0bc8 5440
00000020: db35 6440 c6a4 f63f 9da5 943f 337d ad40
00000030: d876 c840 0ea1 bc3f 26d1 a33f 4da2 1540

layer1.1.conv1.weight f4 [16, 16, 3, 3]
0.13476278 0.020685911 0.05570309 0.5057341 0.29446056 0.030790294 -0.20139566 -0.3130056
-0.11869461 -0.08110044 -0.073235996 -0.07862239 -0.0065319175 0.034547128 0.012117695 0.049270634
0.30035323 0.22480121 -0.02993732 -0.013714393 0.0147598935 -0.11788356 -0.09525741 -0.024471575
-0.071866445 -0.050455444 0.021924816 -0.035786007 -0.03591996 -0.013483899 0.1244467 0.1212102
0.08688414 -0.018022526 0.0098668765 -0.019354105 0.03628924 -0.060763117 0.028536042 0.121909134
0.028521037 -0.056348667 0.10613591 0.06665274 -0.19445804 0.17845285 0.12185501 0.13056676
-0.016926955 -0.012320683 0.04700558 -0.24915178 -0.29339275 -0.21382198 0.031406805 0.16998966
0.13158424 -0.17630337 -0.13327959 -0.11760384 0.20117512 0.15257002 -0.0697949 -0.11863201
-0.20669572 -0.2051066 -0.046469815 -0.18061031 -0.091631465 0.13887952 0.07155495 0.16048925
-0.12110102 0.008805267 -0.0045142737 0.03489878 -0.0027747336 0.12636605 0.091612004 -0.03073074
-0.29569882 -0.23804219 -0.185884 -0.17410353 0.10928208 0.05476893 0.005837159 0.052880123
0.12830687 0.106146984 0.15464564 0.07395718 0.09117871 -0.041162357 -0.041088704 0.019914022
-0.27653894 -0.22796954 -0.13247308 0.18862933 -0.06819271 -0.12157412 0.040298797 -0.28998947
-0.27274588 0.008993805 -0.13482074 -0.16408259 0.23544373 0.18202104 0.16184683 0.1979637
0.20542221 0.2611274 0.12508477 0.079086915 0.12937568 0.19230942 0.16377908 0.13967462
-0.012184296 -0.13319834 -0.0058242166 -0.19387446 -0.3416996 -0.24993876 0.0058918963 0.14296252
0.028582232 -0.1452253 -0.035366304 -0.04688581 -0.0594236 -0.05318424 -0.10748182 0.10133304
0.118205436 0.10862308 0.17274015 0.13886647 0.113466315 -0.054093868 -0.113508284 0.018029002
-0.032682974 0.064545356 -0.007448332 -0.04679141 0.025352968 0.06167535 0.07680342 0.09654923
0.023434293 -0.011783383 0.09516531 0.031833947 -0.005729795 0.041601133 -0.07364352 -0.12588522
-0.047090854 -0.15130274 -0.018214794 0.030815773 0.07157644 -0.012165249 0.0019335725 0.06943712
0.017143508 0.034282807 0.06325292 -0.031305496 0.13644837 -0.033584043 0.29371357 0.35394588
0.26903346 0.022592675 0.104728825 -0.056164738 -0.058398962 0.14277525 0.14169203 -0.086109094
0.11808278 0.099103756 -0.119337514 0.08861757 -0.0064966786 0.109895475 0.09520018 -0.05599636
0.20265485 0.28108996 0.15923822 0.10141876 0.21121873 0.07311281 -0.080064304 -0.07115126
-0.14057197 0.091213495 0.13209361 0.094445005 0.025495082 0.041190956 0.0012724366 -0.018733582
0.09821132 0.17341104 -0.078185655 -0.09513264 -0.06528817 0.0053108013 0.00803881 -0.09368114
-0.09200028 -0.037873603 -0.05670386 -0.091899954 -0.048396014 -0.036843758 -0.09641433 -0.08711416
-0.027025076 0.0012450754 -0.020155096 -0.06206728 0.052812353 -0.0056010736 -0.015785974 0.13555546
0.13109432 0.09372393 -0.026199386 -0.039777555 -0.2364434 0.124304764 0.22401588 -0.0569877
0.026774993 0.1878766 0.0062581436 0.011508381 0.15775307 0.03619107 -0.07909931 -0.025316333
-0.18807374 -0.17694575 -0.13133797 -0.15916018 -0.019025333 0.060243815 0.016502438 -0.086937696
00000000: 41ff 093e 8075 a93c ec28 643d ca77 013f
00000010: 89c3 963e ed3b fc3c aa3a 4ebe 4542 a0be
00000020: 2916 f3bd fd17 a6bd c1fc 95bd c704 a1bd
00000030: b209 d6bb 4a81 0d3d 4c89 463c 01d0 493d
00000040: e6c7 993e 4a32 663e 1c3f f5bc 55b2 60bc
00000050: 7bd3 713c f06c f1bd 5116 c3bd 9d78 c8bc
00000060: b72e 93bd 5eaa 4ebd ac9b b33c 5994 12bd
00000070: cf20 13bd 92eb 5cbc e9dd fe3d 0e3d f83d
00000080: 50f0 b13d faa3 93bc aea8 213c 808c 9ebc
00000090: 07a4 143d bfe2 78bd 6bc4 e93c 7fab f93d
000000a0: f3a4 e93c dccd 66bd c95d d93d 3b81 883d
000000b0: 0220 47be 58bc 363e 1f8f f93d 4bb3 053e
000000c0: 66aa 8abc b1dc 49bc ec88 403d a521 7fbe
000000d0: 9337 96be 26f4 5abe 6ca4 003d c511 2e3e
000000e0: 05be 063e df88 34be 727a 08be 48da f0bd
000000f0: da00 4e3e 513b 1c3e a1f0 8ebd 57f5 f2bd
00000100: 0ba8 53be 7707 52be 2257 3ebd e9f1 38be
00000110: 47a9 bbbd 6f36 0e3e 678b 923d 4b57 243e
00000120: d003 f8bd f743 103c 79ec 93bb 06f2 0e3d
00000130: 4ed8 35bb 1a66 013e 139f bb3d 08bf fbbc
00000140: d665 97be 55c1 73be 6058 3ebe 3248 32be
00000150: 48cf df3d 6355 603d a445 bf3b d498 583d
00000160: e062 033e 9763 d93d 6d5b 1e3e dd76 973d
00000170: e7bb ba3d dc99 28bd a14c 28bd bb22 a33c
00000180: 8396 8dbe d970 69be 06a7 07be 0c28 413e
00000190: 9fa8 8bbd dafb f8bd 5a10 253d 8079 94be
000001a0: 59a5 8bbe c15a 133c 730e 0abe 4405 28be
000001b0: 2918 713e b963 3a3e 2dbb 253e ffb6 4a3e
000001c0: 335a 523e 7eb2 853e 3916 003e 52f8 a13d
000001d0: 0f7b 043e c3ec 443e b4b5 273e dd06 0f3e
000001e0: a4a0 47bc 2565 08be 12d9 bebb 0787 46be
000001f0: 40f3 aebe f2ef 7fbe cf10 c13b c464 123e
00000200: 4925 ea3c f1b5 14be 42dc 10bd 560b 40bd
00000210: 2966 73bd b8d7 59bd 6e1f dcbd b287 cf3d
00000220: b115 f23d c775 de3d cbe2 303e 0333 0e3e
00000230: 0761 e83d 8891 5dbd 0877 e8bd 8fb1 933c
00000240: 95de 05bd 5b30 843d 2311 f4bb 59a8 3fbd
00000250: 07b1 cf3c 4b9f 7c3d 1d4b 9d3d 9abb c53d
00000260: 46f9 bf3c 170f 41bc 08e6 c23d 5064 023d
00000270: 01c1 bbbb f365 2a3d 6ad2 96bd 0ee8 00be
00000280: 57e2 40bd 1bef 1abe 3137 95bc 5c71 fc3c
00000290: ab96 923d c150 47bc ed6f fd3a 0c35 8e3d
000002a0: 8b70 8c3c 216c 0c3d bf8a 813d 313a 00bd
000002b0: 1fb9 0b3e 6c8f 09bd a061 963e 6538 b53e
000002c0: c1be 893e 4614 b93c 117c d63d ff0c 66bd
000002d0: c033 6fbd ad33 123e b717 113e f759 b0bd
000002e0: 62d5 f13d e9f6 ca3d 3a67 f4bd 217d b53d
000002f0: 17e2 d4bb e110 e13d 50f8 c23d 705c 65bd
00000300: c184 4f3e 06eb 8f3e 580f 233e a4b4 cf3d
00000310: b949 583e 2bbc 953d c1f8 a3bd c0b7 91bd
00000320: 19f2 0fbe 24ce ba3d 8c43 073e 626c c13d
00000330: 10db d03c d9b7 283d e3c7 a63a 2b77 99bc
00000340: 0423 c93d aa92 313e cd1f a0bd e7d4 c2bd
00000350: ceb5 85bd 3b06 ae3b 37b5 033c e6db bfbd
00000360: a56a bcbd 5a21 1bbd 4f42 68bd 0b36 bcbd
00000370: e63a 46bd 7be9 16bd e074 c5bd e968 b2bd
00000380: b163 ddbc cc31 a33a 4d1c a5bc 433a 7ebd
00000390: c451 583d 3689 b7bb 9651 81bc 0dcf 0a3e
000003a0: 973d 063e 55f2 bf3d 18a0 d6bc caed 22bd
000003b0: 381e 72be 7f93 fe3d 6b64 653e ef6b 69bd
000003c0: 3b57 db3c b962 403e 1d11 cd3b a68d 3c3c
000003d0: 058a 213e 163d 143d d2fe a1bd 3364 cfbc
000003e0: 6796 40be 4431 35be 767d 06be e3fa 22be
000003f0: 04db 9bbc 38c2 763d 1f30 873c 640c b2bd

layer1.1.conv1.bias f4 [16]
-0.0010764919 -0.007001438 0.005038539 0.00047986975 -0.0054992978 0.0066908374 -0.0069328975 -0.0073675313
-0.0074834637 -0.003654341 0.0061834585 -0.0013619696 0.008647648 -0.0009026783 -0.0071532847 0.00039501613
00000000: 1319 8dba 526c e5bb 541a a53b 0797 fb39
00000010: 7433 b4bb d03e db3b 5c2d e3bb 556b f1bb
00000020: d837 f5bb ab7d 6fbb 9c9e ca3b 1e84 b2ba
00000030: ddae 0d3c b7a1 6cba 1a66 eabb 2b1a cf39

layer1.1.bn1.weight f4 [16]
0.74578965 0.737468 0.988361 0.78226346 0.6505313 0.71127266 0.6992486 0.86822724
0.9605651 0.9629875 0.81183374 0.8263347 0.77499825 0.84354585 0.7277288 0.867899
00000000: 12ec 3e3f b4ca 3c3f 3a05 7d3f 6b42 483f
00000010: 3889 263f f715 363f f501 333f 2444 5e3f
00000020: 98e7 753f 5986 763f 56d4 4f3f ac8a 533f
00000030: 4966 463f 9ff2 573f 6f4c 3a3f a12e 5e3f

layer1.1.bn1.bias f4 [16]
-0.40014043 -0.8155558 -0.22645819 -0.087957196 -0.2554902 -0.475577 -0.3218248 -0.7291352
-0.24635011 -0.32876956 -0.14305535 -0.7240335 -0.56156814 -0.29045495 -0.17318174 -0.35750797
00000000: 35df ccbe 44c8 50bf a8e4 67be e722 b4bd
00000010: 9dcf 82be d47e f3be 38c6 a4be 9ba8 3abf
00000020: 3443 7cbe 7c54 a8be 1a7d 12be 425a 39bf
00000030: eec2 0fbf 83b6 94be 8e56 31be 490b b7be

layer1.1.bn1.running_mean f4 [16]
0.41445264 1.7596973 -0.3316143 -6.2221847 -2.7008097 1.5381947 4.179493 0.36648998
0.44517198 -2.3537908 -3.0658984 1.1552297 3.442734 -2.3627062 -1.2329841 -1.0029947
00000000: 2333 d43e c33d e13f 59c9 a9be 231c c7c0
00000010: 11da 2cc0 90e3 c43f 68be 8540 93a4 bb3e
00000020: 95ed e33e 82a4 16c0 ae37 44c0 91de 933f
00000030: c155 5c40 9436 17c0 6cd2 9dbf 2162 80bf

layer1.1.bn1.running_var f4 [16]
5.9565134 4.8622174 47.011696 9.949153 3.9656563 3.7552533 5.8846116 3.2378883
20.524862 8.027453 18.660486 3.2520223 6.365532 9.058925 7.1108756 6.155012
00000000: c29b be40 4997 9b40 fa0b 3c42 bb2f 1f41
00000010: 50cd 7d40 1256 7040 bd4e bc40 9039 4f40
00000020: eb32 a441 7370 0041 ad48 9541 2221 5040
00000030: 70b2 cb40 5bf1 1041 4b8c e340 dcf5 c440

layer1.1.conv2.weight f4 [16, 16, 3, 3]
-0.04390237 -0.019495854 0.1646156 -0.19702874 -0.022861985 -0.035927694 -0.036037922 -0.09645962
-0.04650818 -0.013680921 -0.07805333 -0.01066832 -0.18298304 -0.11420432 0.016896032 -0.056702066
0.0266503 0.16033763 -0.053171888 -0.022930251 0.031362593 0.06390503 0.010335834 -0.058924094
0.15197736 -0.025611736 -0.009553487 -0.10664855 0.2831209 0.32194608 0.22940871 0.11506879
-0.009468077 -0.02977514 -0.06567946 0.042212825 -0.1956345 -0.043002296 -0.00277668 -0.19605972
-0.12721483 0.03833966 -0.21434428 -0.23952636 0.05771385 -0.13394968 0.034122728 0.014864748
-0.105541356 0.012983328 -0.08191105 0.026570782 -0.14451745 0.0849715 -0.041374136 -0.12498576
-0.06311413 -0.2299072 -0.07741466 0.12622786 -0.034405448 -0.021931978 0.00446276 -0.037622754
0.13599928 0.1399654 -0.111601695 0.08324912 0.13493861 -0.10720735 0.07495312 0.1808529
-0.043951694 -0.05138304 -0.18666564 -0.3225612 -0.18125619 -0.0614747 -0.49100807 -0.34693068
-0.108927734 -0.110345475 -0.046830088 0.2286343 -0.21482797 0.0012530854 -0.116889894 -0.17675853
0.0073338845 0.11117346 0.14239275 0.31409317 0.097137295 0.5498333 0.4520857 0.06796952
0.47243518 0.08015881 0.1973211 -0.037928037 0.058154732 0.06400709 0.014007146 0.097569905
0.12466447 0.0059725787 0.11202904 0.15593357 -0.14427118 0.011377498 0.09466067 0.0462423
0.091369994 0.09620348 -0.039922737 -0.09639499 -0.15234622 -0.09884072 -0.016970553 -0.20222236
-0.043851867 -0.088369556 -0.028999096 -0.13037549 0.06827925 0.04088961 -0.26419276 -0.13579692
-0.15356334 -0.18117195 0.014253235 0.16834722 -0.13706334 -0.08317857 0.08064358 0.16157514
0.031178333 0.060133625 -0.06315526 0.20617403 0.008220778 0.059793934 0.1352587 0.121306784
-0.024758281 0.021630926 -0.010836071 -0.009633507 -0.034208514 -0.029409688 -0.04141299 -0.06657474
-0.0847044 0.19586316 0.14852755 0.054377954 0.18200627 0.101580925 0.0059033837 0.059794262
-0.062230352 -0.15877466 0.12694912 0.007923435 -0.0592106 -0.004666301 0.045060962 0.009315371
0.031419214 0.022040104 -0.025875593 -0.035512004 -0.020673541 -0.042296033 -0.061122395 -0.0027776754
-0.0062942845 -0.004566298 -0.03374775 -0.051233243 -0.05644054 0.03264034 0.14107437 -0.063554615
-0.030499246 0.15660603 0.0397688 0.005795278 -0.04363594 -0.017155733 -0.03665959 -0.058514576
0.027530203 0.026547976 -0.014950625 0.04618482 -0.0018038534 -0.037074085 0.023736518 0.073796175
0.07226023 -0.006039728 0.049159933 0.0126219485 -0.13153757 -0.022854326 -0.012378813 0.082039036
0.038230836 -0.016710121 0.03150554 0.00677584 -0.10315812 -0.058468916 -0.08068689 -0.17957015
0.14214987 0.035625283 0.046762563 0.020241369 0.03492655 -0.015428632 -0.19629577 -0.23225498
-0.22548886 -0.0322584 -0.022563692 -0.040573735 -0.096633285 -0.11506054 -0.137839 0.038078345
-0.05937802 -0.16353591 0.037819684 -0.049296252 -0.06305329 -0.010898178 0.09299656 -0.03395334
-0.011523494 -0.047344826 0.1019501 0.035714187 0.10569504 0.058695026 0.08276052 0.102453105
0.054330286 0.048005726 0.06790127 0.023207653 -0.08763955 0.018758181 -0.05118873 -0.10591607
00000000: f9d2 33bd c5b5 9fbc fe90 283e e7c1 49be
00000010: 0f49 bbbc eb28 13bd 809c 13bd 9f8c c5bd
00000020: 5d7f 3ebd f125 60bc 6dda 9fbd 2dca 2ebc
00000030: e85f 3bbe f4e3 e9bd 8c69 8a3c 6d40 68bd
00000040: bb51 da3c 8c2f 243e c4ca 59bd 39d8 bbbc
00000050: 1076 003d a4e0 823d a157 293c 645a 71bd
00000060: f49f 1b3e b4cf d1bc 3b86 1cbc 8e6a dabd
00000070: 39f5 903e 1ed6 a43e 1eea 6a3e 30a9 eb3d
00000080: fe1f 1bbc ffea f3bc f482 86bd 5be7 2c3d
00000090: 6954 48be 2d23 30bd f6f8 35bb e1c3 48be
000000a0: 9b44 02be 0c0a 1d3d 117d 5bbe 6646 75be
000000b0: 5c65 6c3d 1b2a 09be 46c4 0b3d 468b 733c
000000c0: 1126 d8bd 06b8 543c fbc0 a7bd f8aa d93c
000000d0: 62fc 13be 8a05 ae3d ed77 29bd 89f8 ffbd
000000e0: fb41 81bd cb6c 6bbe 948b 9ebd e041 013e
000000f0: baec 0cbd b1aa b3bc 583c 923b 511a 1abd
00000100: 6543 0b3e 1753 0f3e 6e8f e4bd 847e aa3d
00000110: 592d 0a3e 878f dbbd 0581 993d 8131 393e
00000120: b106 34bd 0677 52bd 4725 3fbe be26 a5be
00000130: 399b 39be e5cc 7bbd 6965 fbbe e6a0 b1be
00000140: 8115 dfbd cffc e1bd e8d0 3fbd 1c1f 6a3e
00000150: ddfb 5bbe 923e a43a f863 efbd 3000 35be
00000160: 1551 f03b e9ae e33d 68cf 113e d2d0 a03e
00000170: ebef c63d e0c1 0c3f c777 e73e 9b33 8b3d
00000180: 06e3 f13e 4d2a a43d 8b0e 4a3e 6e5a 1bbd
00000190: a833 6e3d 2616 833d 3a7e 653c bbd2 c73d
000001a0: 1650 ff3d 9fb5 c33b 7b6f e53d 0dad 1f3e
000001b0: d3bb 13be af68 3a3c 74dd c13d 9168 3d3d
000001c0: 3120 bb3d 5506 c53d 0686 23bd bd6a c5bd
000001d0: a600 1cbe 016d cabd d405 8bbc 6113 4fbe
000001e0: 049e 33bd 19fb b4bd 838f edbc 2781 05be
000001f0: fed5 8b3d dd7b 273d 4644 87be 590e 0bbe
00000200: b53f 1dbe 2485 39be 6786 693c 3763 2c3e
00000210: 555a 0cbe 8759 aabd 7628 a53d f473 253e
00000220: b469 ff3c ad4e 763d 8c57 81bd 491f 533e
00000230: 71b0 063c 7cea 743d 4281 0a3e b16f f83d
00000240: e1d1 cabc 5733 b13c c789 31bc dbd5 1dbc
00000250: 3a1e 0cbd 96ec f0bc aba0 29bd 5658 88bd
00000260: 8079 adbd 5a90 483e 9b17 183e 6bbb 5e3d
00000270: da5f 3a3e a909 d03d 2c71 c13b d4ea 743d
00000280: 41e5 7ebd d395 22be f3fe 013e 4cd1 013c
00000290: d086 72bd c5e7 98bb d891 383d 7f9f 183c
000002a0: 6fb1 003d 738d b43c 0df9 d3bc 0975 11bd
000002b0: 8f5b a9bc 9b3e 2dbd 7a5b 7abd a909 36bb
000002c0: 4940 cebb e2a0 95bb 153b 0abd f3d9 51bd
000002d0: 322e 67bd e1b1 053d cd75 103e ec28 82bd
000002e0: 8ed9 f9bc 555d 203e 9ce4 223d 51e6 bd3b
000002f0: 99bb 32bd 2e8a 8cbc 5e28 16bd fbac 6fbd
00000300: 0587 e13c 247b d93c 77f3 74bc 4b2c 3d3d
00000310: 476f ecba ffda 17bd 1673 c23c 7322 973d
00000320: 2cfd 933d e9e8 c5bb ed5b 493d 4acc 4e3c
00000330: c9b1 06be ff38 bbbc 81d0 4abc 1504 a83d
00000340: f097 1c3d aae3 88bc f40b 013d de07 de3b
00000350: 9044 d3bd 1a7d 6fbd 2b3f a5bd 3de1 37be
00000360: bc8f 113e d1eb 113d 1a8a 3f3d 3ad1 a53c
00000370: 240f 0f3d 5fc8 7cbc c201 49be 40d4 6dbe
00000380: 8de6 66be 6221 04bd 7ed7 b8bc a530 26bd
00000390: ace7 c5bd dca4 ebbd ab25 0dbe 0af8 1b3d
000003a0: 5e36 73bd f575 27be d0e8 1a3d deea 49bd
000003b0: 1522 81bd 468e 32bc fb74 be3d a812 0bbd
000003c0: 09cd 3cbc a6ec 41bd 37cb d03d 0a49 123d
000003d0: a476 d83d 326a 703d 597e a93d efd2 d13d
000003e0: 6f89 5e3d a7a1 443d d20f 8b3d fa1d be3c
000003f0: 5d7c b3bd c2aa 993c 46ab 51bd 86ea d8bd

layer1.1.conv2.bias f4 [16]
0.0062087774 -0.0013887057 0.001992297 0.0042349794 -0.0053184954 -0.0034830803 -0.008611325 -0.0021122235
-0.0017053151 0.007978134 0.0028586502 0.0013436065 -0.0030064445 -0.0025302633 0.00017363581 0.006763875
00000000: 0073 cb3b 3b05 b6ba 3291 023b 95c5 8a3b
00000010: c646 aebb 6444 64bb 8416 0dbc 3b6d 0abb
00000020: e184 dfba b8b6 023c 3158 3b3b f41b b03a
00000030: c507 45bb c6d2 25bb 0212 3639 7fa3 dd3b

layer1.1.bn2.weight f4 [16]
0.8951524 0.22802354 0.6036451 1.215501 0.57949287 0.55364174 0.91235775 0.8585358
0.94628096 0.5840788 0.2888679 0.9946112 0.5583072 0.60261846 0.45903412 0.58740515
00000000: b528 653f 017f 693e 7c88 1a3f 8995 9b3f
00000010: a559 143f 77bb 0d3f 4790 693f 01c9 5b3f
00000020: 783f 723f 3086 153f 7ee6 933e d79e 7e3f
00000030: 38ed 0e3f 3445 1a3f 8506 eb3e 2f60 163f

layer1.1.bn2.bias f4 [16]
-0.7556342 -0.055963174 0.16648707 0.07295526 0.17002878 0.100435205 -0.65378284 -0.21283999
-0.16743498 0.09543415 0.07850242 -0.4659682 0.17713551 0.08863285 0.083048955 0.03293245
00000000: 3e71 41bf a439 65bd 967b 2a3e 9169 953d
00000010: 061c 2e3e f9b0 cd3d 505e 27bf baf2 59be
00000020: 1374 2bbe fb72 c33d e0c5 a03d 6293 eebe
00000030: 0363 353e 2485 b53d 9215 aa3d 2de4 063d

layer1.1.bn2.running_mean f4 [16]
0.05741224 0.02798037 0.60465527 -1.4164442 -0.09773036 -0.010055442 -0.3065558 0.055693697
-0.9630023 -0.95064 -0.08335674 -0.5144516 -0.668703 -0.41465765 -0.15922745 -1.2402664
00000000: 1929 6b3d 1737 e53c b0ca 1a3f 0b4e b5bf
00000010: db26 c8bd 95bf 24bc e2f4 9cbe 131f 643d
00000020: 5287 76bf 255d 73bf f0b6 aabd 1ab3 03bf
00000030: 1f30 2bbf 024e d4be 850c 23be 0dc1 9ebf

layer1.1.bn2.running_var f4 [16]
0.48709017 0.30553526 0.7294757 1.4174331 0.6781166 0.6707613 1.037876 0.58054805
0.924778 0.6260705 0.29510546 1.362806 1.1536545 0.7813827 0.515009 0.6771272
00000000: e263 f93e 1e6f 9c3e ebbe 3a3f 736e b53f
00000010: 0d99 2d3f 03b7 2b3f 1fd9 843f cc9e 143f
00000020: 40be 6c3f 2846 203f 1018 973e 6d70 ae3f
00000030: f3aa 933f b208 483f a1d7 033f 3558 2d3f

layer2.0.conv1.weight f4 [32, 16, 3, 3]
-0.010879416 -0.12852684 -0.13793142 0.16854808 0.05571377 -0.03995198 0.1669517 0.05463939
-0.021317454 0.101142064 0.11700328 0.17825033 -0.004403955 -0.041963685 0.046998966 -0.022052983
-0.06390414 0.010361938 -0.028811004 -0.09090617 -0.072575435 -0.14223668 -0.13104437 -0.116904445
-0.09257033 -0.12639335 -0.043272253 0.09274289 0.040664252 0.014849307 -0.020970486 0.030715391
-0.07008024 -0.17667659 -0.20919344 -0.23108622 -0.057675213 0.0020576157 -0.056998327 0.053119443
0.13247976 0.17009985 0.27937487 0.28011563 0.2670113 0.08271637 0.25140354 0.37536192
0.06144297 0.14571737 0.20450594 -0.001752 0.15193972 0.15630886 0.16619699 0.13435826
0.15746222 0.24135788 0.2779515 0.076123714 0.048569497 -0.2453745 -0.22191605 -0.116419934
-0.14843678 -0.03378716 -0.115869634 -0.19353002 -0.036449347 -0.07943425 -0.05433519 0.10400215
-0.11195074 -0.10968516 -0.08566144 -0.06657916 -0.078701906 0.018399099 0.09093702 -0.008094112
0.074960314 -0.12982051 -0.18874925 -0.1542652 -0.03258922 -0.069764934 -0.052013278 -0.04111447
-0.17653339 -0.12605293 0.064930305 0.06715998 0.06651178 0.023715489 0.07191426 0.11125929
0.06366637 0.066238195 0.04403115 -0.24835727 -0.2054322 -0.13819443 -0.02835698 0.07190865
0.044079337 0.21198405 0.42457086 0.2991955 -0.20892164 -0.22734691 -0.20388108 -0.18854174
-0.11817534 -0.02082512 -0.011942545 0.02698497 0.13518123 -0.15207438 -0.037063602 -0.074415274
-0.11389148 0.0841643 0.035767548 -0.092065424 -0.08018304 -0.09367279 0.13934243 0.053619508
-0.021908995 0.093088225 0.1062203 -0.02816645 -0.06573539 -0.077210724 -0.17534705 -0.13225195
-0.06913897 -0.023300357 -0.055812832 -0.055953454 -0.041976094 -0.18215051 -0.086570926 -0.09213901
-0.035121217 -0.053049933 -0.12516268 0.022935083 0.11257452 0.10128251 0.20958972 0.09444722
0.04526986 -0.08915193 0.061038807 0.06550581 -0.10377619 -0.021966765 0.0799626 -0.28184962
-0.20829606 -0.13356091 0.11743932 0.16818728 0.21065775 0.22659394 0.29853672 0.33364186
0.17706402 0.23673977 0.2610035 -0.07763459 -0.0671257 -0.13063176 0.0641337 0.06894649
0.049692694 0.06831175 0.01028509 -0.014627129 0.09991068 0.24866883 0.13436154 0.034553554
0.2090704 0.16112117 -0.19252817 -0.14737801 0.10563929 0.13806988 0.17314383 0.13506027
0.06901159 0.07237735 0.031513374 0.03940309 -0.019740721 -0.012284808 0.09463373 0.056901976
-0.027683288 0.013239741 0.17728096 0.18903938 0.00524527 0.17758068 0.32446384 -0.027649367
0.0149574885 0.053317707 -0.040603705 -0.10460454 -0.04926012 0.016984684 -0.05722279 0.03701791
0.076502025 0.09817849 0.07136155 0.13237005 0.2094927 0.11935852 -0.11199858 -0.12619568
-0.0015150334 -0.01758486 0.15808211 0.25961214 -0.040277746 0.20466293 0.23913653 -0.14210686
0.074414685 0.12624937 -0.024611827 -0.04467118 -0.08666916 0.04225487 0.08443379 0.053385865
0.085484326 0.12220899 0.09447874 -0.08277913 0.008563617 5.654615e-05 0.11903908 0.28225276
0.18895887 0.22839496 0.2812237 0.21219896 -0.07913269 -0.16415001 -0.18093857 -0.05320853
00000000: 943f 32bc 8a9c 03be e53d 0dbe de97 2c3e
00000010: 1f34 643d b0a4 23bd 63f5 2a3e 8ecd 5f3d
00000020: f1a1 aebc 9223 cf3d 6a9f ef3d 4187 363e
00000030: 0d4f 90bb 1de2 2bbd fd81 403d 75a8 b4bc
00000040: 2ce0 82bd 1ec5 293c 0e05 ecbc 042d babd
00000050: 6ea2 94bd 7ea6 11be 7f30 06be 996b efbd
00000060: 8395 bdbd 426d 01be 3f3e 31bd fcef bd3d
00000070: 8f8f 263d 824a 733c 4cca abbc d89e fb3c
00000080: 3b86 8fbd b5ea 34be ce36 56be dea1 6cbe
00000090: d83c 6cbd 10d9 063b 1477 69bd c693 593d
000000a0: c6a8 073e a82e 2e3e 390a 8f3e 516b 8f3e
000000b0: b5b5 883e 3367 a93d f7b7 803e 702f c03e
000000c0: a0ab 7b3d ef36 153e 016a 513e 5da3 e5ba
000000d0: 1696 1b3e 6e0f 203e 8b2f 2a3e 3695 093e
000000e0: c73d 213e 8526 773e a94f 8e3e c0e6 9b3d
000000f0: cff0 463d 7443 7bbe f63d 63be 936d eebd
00000100: d0ff 17be 6864 0abd 0f4d edbd bc2c 46be
00000110: e94b 15bd 6dae a2bd 948e 5ebd 14ff d43d
00000120: 6e46 e5bd 9da2 e0bd 446f afbd a85a 88bd
00000130: 772e a1bd b5b9 963c 303d ba3d 2b9d 04bc
00000140: cb84 993d abef 04be 7c47 41be b2f7 1dbe
00000150: 467c 05bd ebe0 8ebd e00b 55bd a667 28bd
00000160: 2bc5 34be 0514 01be 2efa 843d 2c8b 893d
00000170: 5437 883d fc46 c23c c947 933d e9db e33d
00000180: 8463 823d e4a7 873d 025a 343d 5e51 7ebe
00000190: d25c 52be d782 0dbe e64c e8bc d844 933d
000001a0: 898c 343d 5912 593e 5a61 d93e 2730 993e
000001b0: 8eef 55be a1cd 68be 34c6 50be 1611 41be
000001c0: ea05 f2bd 7199 aabc aaaa 43bc 950f dd3c
000001d0: f36c 0a3e 63b9 1bbe 01d0 17bd 0967 98bd
000001e0: f03f e9bd 555e ac3d fe80 123d cc8c bcbd
000001f0: 0137 a4bd 85d7 bfbd c8af 0e3e 21a0 5b3d
00000200: 7e7a b3bc 0aa5 be3d 078a d93d 54bd e6bc
00000210: 47a0 86bd a820 9ebd 2d8e 33be 0e6d 07be
00000220: bb98 8dbd 64e0 bebc ff9b 64bd 732f 65bd
00000230: 20ef 2bbd aa85 3abe 194c b1bd 61b3 bcbd
00000240: 44db 0fbd e34a 59bd a52a 00be 5be2 bb3c
00000250: 788d e63d 346d cf3d b09e 563e 8b6d c13d
00000260: e46c 393d 4995 b6bd d403 7a3d e927 863d
00000270: 9c88 d4bd a5f3 b3bc 6ec3 a33d 984e 90be
00000280: 904b 55be 31c4 08be 0784 f03d 4939 2c3e
00000290: aab6 573e 3e08 683e ced9 983e 1bd3 aa3e
000002a0: 4550 353e e96b 723e 40a2 853e e2fe 9ebd
000002b0: 3379 89bd 55c4 05be 8858 833d d133 8d3d
000002c0: 918a 4b3d 08e7 8b3d cb82 283c a0a6 6fbc
000002d0: f89d cc3d 0ba3 7e3e 1296 093e 0788 0d3d
000002e0: 8d16 563e f3fc 243e 1b26 45be 43ea 16be
000002f0: 6959 d83d 3162 0d3e 9e4c 313e 3d4d 0a3e
00000300: f355 8d3d 933a 943d 2b14 013d 2265 213d
00000310: 4bb7 a1bc 3846 49bc 54cf c13d 0c12 693d
00000320: 10c8 e2bc 80eb 583c 2489 353e 8a93 413e
00000330: 84e0 ab3b b6d7 353e 2020 a63e ed80 e2bc
00000340: 4110 753c ab63 5a3d 1250 26bd e83a d6bd
00000350: fbc4 49bd 7723 8b3c 7262 6abd 18a0 173d
00000360: 18ad 9c3d ce11 c93d 0126 923d 048c 073e
00000370: 4185 563e 3d72 f43d 835f e5bd 7139 01be
00000380: 1694 c6ba 200e 90bc 47e0 213e e2eb 843e
00000390: 47fa 24bd 2993 513e 35e0 743e 7684 11be
000003a0: ba66 983d 8447 013e be9e c9bc 21f9 36bd
000003b0: 9a7f b1bd 7113 2d3d 9feb ac3d 23ab 5a3d
000003c0: 6812 af3d b548 fa3d 127e c13d 1b88 a9bd
000003d0: 6a4e 0c3c f72b 6d38 c3ca f33d 6f83 903e
000003e0: 6f7e 413e 5ee0 693e 8efc 8f3e af4a 593e
000003f0: 5210 a2bd f116 28be f647 39be 30f1 59bd

layer2.0.conv1.bias f4 [32]
0.004378831 -0.004816781 0.0076168873 0.0012182987 0.003552202 -0.0057746856 -0.0012122781 0.0012116062
-0.00031169216 -0.0018370104 0.0012391399 0.0062206527 0.00050796085 -0.009207608 -0.006291307 -0.0051569734
-0.006747052 0.005253591 0.0013397764 -0.0036182094 -0.005247637 0.010391835 0.0030885872 -0.0062424685
-0.0014369242 0.0007537239 -0.0014988129 0.0014027832 0.002649739 -0.0051408634 0.00034546125 -0.0050877496
00000000: 4c7c 8f3b 16d6 9dbb 1597 f93b 52af 9f3a
00000010: 0fcc 683b 9339 bdbb 4ee5 9eba c2ce 9e3a
00000020: 9d6a a3b9 d7c7 f0ba a36a a23a 9ed6 cb3b
00000030: ad28 053a 82db 16bc 4f27 cebb d4fb a8bb
00000040: 6016 ddbb 5126 ac3b 709b af3a 7b1f 6dbb
00000050: 5ff4 abbb 8442 2a3c e569 4a3b 9f8d ccbb
00000060: 2d57 bcba 8e95 453a d173 c4ba 98dd b73a
00000070: 3ea7 2d3b b074 a8bb 061f b539 23b7 a6bb

layer2.0.bn1.weight f4 [32]
0.7062163 0.78021896 0.66146487 0.74449646 0.9585126 0.79696846 0.88637155 0.8257811
0.6974991 0.83979434 0.8007382 0.5733346 0.7919345 0.73546153 0.8886223 0.48665214
0.64287585 0.7143656 0.6801361 0.71851087 1.1520491 0.6547933 0.6533589 0.6677417
0.71909326 0.9417795 0.96045995 0.65757114 0.7551819 0.7046821 0.9496321 0.8420233
00000000: 97ca 343f 6ebc 473f c355 293f 5297 3e3f
00000010: 1561 753f 2006 4c3f 3fe9 623f 6466 533f
00000020: 4d8f 323f c3fc 563f 2efd 4c3f 0ec6 123f
00000030: 38bc 4a3f 3547 3c3f c07c 633f 782a f93e
00000040: 8393 243f aae0 363f 661d 2e3f 54f0 373f
00000050: 5876 933f 89a0 273f 8742 273f 1ff1 2a3f
00000060: 7f16 383f 7618 713f b4e0 753f 9556 283f
00000070: 9a53 413f 0c66 343f 171b 733f d78e 573f

layer2.0.bn1.bias f4 [32]
0.09035063 -0.3868613 0.15596466 -0.023438709 -0.12973247 -0.13403976 -0.14644636 0.0059156925
-0.0064211907 -0.070980564 -0.3544632 0.1581082 -0.044693522 -0.056309026 -0.11904842 0.46335664
-0.05273228 -0.21539956 0.05617133 -0.14150281 -0.2576998 0.04865568 0.037035443 0.13224228
-0.09090053 -0.073426895 0.054867275 -0.019794147 0.02769996 -0.09501835 -0.12628204 -0.19820628
00000000: c009 b93d af12 c6be 33b5 1f3e 8902 c0bc
00000010: 97d8 04be b841 09be 09f6 15be 6dd8 c13b
00000020: da68 d2bb 425e 91bd 337c b5be 1ee7 213e
00000030: 8e10 37bd 4ba4 66bd a8cf f3bd 153d ed3e
00000040: cefd 57bd b491 5cbe e913 663d 1de6 10be
00000050: 3af1 83be 2e4b 473d 7ab2 173d 856a 073e
00000060: 0f2a babd d760 96bd 82bc 603d 5627 a2bc
00000070: 07eb e23c fb98 c2bd 1450 01be 96f6 4abe

layer2.0.bn1.running_mean f4 [32]
-0.9712618 5.454984 1.5631726 -0.8810103 -5.586297 1.8780042 0.0352573 -3.2235005
-2.2112317 -1.6699778 3.1366987 -1.233982 -3.3190522 0.20641127 -0.5313816 -6.046113
1.6989541 1.4915277 -0.0073452187 2.7714148 -5.20518 -1.0985272 -1.153101 -3.4652083
0.42448157 -1.6981405 -4.717106 2.1388848 -1.8010551 -1.4860226 -0.99728495 -0.7624446
00000000: 9da4 78bf 3b8f ae40 0a16 c83f e489 61bf
00000010: f2c2 b2c0 7162 f03f f569 103d d54d 4ec0
00000020: d284 0dc0 d5c1 d5bf acbf 4840 1ff3 9dbf
00000030: 5a6b 54c0 7a5d 533e a008 08bf c279 c1c0
00000040: 5477 d93f 61ea be3f 29b0 f0bb dc5e 3140
00000050: d690 a6c0 8a9c 8cbf d098 93bf f9c5 5dc0
00000060: a655 d93e ab5c d9bf 88f2 96c0 7de3 0840
00000070: f988 e6bf fd35 bebf 114e 7fbf 922f 43bf
