Output/swift-iid-8W-linear-nothing-linear-2sgd-200epochs/r7-epoch_84-parameters.pt (torch, 731450 bytes, 92 tensors)

conv1.weight f4 [16, 3, 3, 3]
000000 b2 af 53 3d 2a fb cc be 66 04 40 3e 22 1e 54 bf
       0.051681228 -0.40035373 0.18751678 -0.8285848
000010 96 14 ee 3f 47 d8 92 3e ca 8a b6 be 94 5b 31 bf
       1.8600032 0.28680632 -0.35652763 -0.6928036
000020 22 eb 31 3e 0b 4e 24 bc 63 9f 17 bf b0 4b 68 3e
       0.17374852 -0.0100283725 -0.5922758 0.22685122
000030 c8 9f 01 bf 5c 83 e1 3f 6d 1d 24 be 2f 13 66 bd
       -0.5063443 1.7618213 -0.1602685 -0.05617064
000040 3e f6 64 bf 91 25 a2 be d7 cf 13 3f a6 6c 7b bf
       -0.89438236 -0.31669286 0.57739013 -0.9821266
000050 43 d2 ad bd c9 73 31 3e e7 9c 5d 3f 9c 32 ed be
       -0.0848737 0.17329325 0.8656754 -0.46327674
000060 73 a4 2a 3f 46 f0 ae be b2 e3 97 be ba 71 e8 3d
       0.6665718 -0.3416769 -0.29665905 0.113498166
000070 a1 cc ba be b2 ff 56 3e 3b 5b e4 be e9 8b 98 bf
       -0.36484244 0.20995978 -0.44600853 -1.1917697
000080 fe 13 a7 be ea 3d df 3d 97 00 fc be c8 70 57 3c
       -0.3263244 0.10900481 -0.492192 0.013149448
000090 88 7a 12 3e 8d 09 22 be 14 63 55 3e 99 e2 75 be
       0.14304554 -0.15823956 0.20838577 -0.24012221
0000a0 3d 91 25 bf 44 e4 79 bd 61 3b 5f bd a2 30 a2 be
       -0.6467474 -0.061008707 -0.054499988 -0.3167773
0000b0 f2 dd ce bc d8 be 94 3d e3 1d a9 3d 19 7b bd 3d
       -0.025252316 0.07262963 0.082576536 0.09251995
0000c0 ef d5 26 3e 74 8f e7 3d 2e 0f 2d 3e c9 59 ac 3e
       0.16292547 0.113066584 0.16900322 0.3366225
0000d0 8c 2d d2 3e fd 72 8f 3e ee 8f b3 3d 43 c7 bd be
       0.41050375 0.28017417 0.08767687 -0.37066087
0000e0 02 16 9b be aa 8a bc 3d 06 c6 84 bd 71 a1 60 bd
       -0.30290228 0.092061356 -0.064830825 -0.054841463
0000f0 66 c9 80 3c 2a 4a 1f be 95 72 43 bd 45 5a 48 be
       0.015721034 -0.15555635 -0.047716696 -0.19565685
000100 19 e5 bc be e6 42 d9 be 4f 70 04 bd fa a0 74 3e
       -0.36893538 -0.42433852 -0.03233367 0.23889533
000110 90 8c 81 3d f9 e7 7a be d3 65 03 3d b9 b0 b9 bc
       0.06325638 -0.24502553 0.03207953 -0.022667276
000120 58 2a bd be c6 a6 16 be c8 64 94 be b4 e3 6f 3e
       -0.36946368 -0.14712057 -0.2898314 0.23426706
000130 50 11 74 3f c1 91 34 3f 22 cb eb 3d 63 ac 45 3f
       0.95338917 0.705349 0.11513354 0.77216166
000140 8b fe 11 3f 4c 8a fe 3d 75 a6 92 be 04 1c 76 3d
       0.57029027 0.12428722 -0.28642622 0.06008531
000150 d1 3e 79 be 48 83 60 bf 22 a3 bb be fb a7 69 3e
       -0.24340369 -0.8770032 -0.36647898 0.22817986
000160 09 d8 90 3d ea 02 be 3e 0e 89 b9 3e f6 88 77 bd
       0.070724554 0.37111598 0.36237377 -0.06043335
000170 89 48 9d 3e 16 89 4d 3d f5 64 06 bf 5f 91 7c bd
       0.30719402 0.050179563 -0.524978 -0.061662074
000180 a8 33 3e 3e b5 ac d1 3d 35 34 99 3e 8e 1b 12 bd
       0.18574393 0.102380194 0.29922643 -0.03567081
000190 aa ce d1 be 8a 6e 38 bd 57 7d 82 be 73 39 45 bf
       -0.40977985 -0.045027293 -0.25486252 -0.77040786
0001a0 87 e9 94 be 5c 3b 38 be c1 da 96 be b0 6f 67 3d
       -0.29084417 -0.17991394 -0.2946377 0.056502998
0001b0 58 37 9a 3e fb f1 e4 bd 26 23 1d 3e 0d 4d 52 3f
       0.3012035 -0.111789666 0.1534544 0.8214882
0001c0 0b ce 17 bf e5 bc b1 be 98 c0 a8 3d 6a d4 08 be
       -0.5929877 -0.34714428 0.08239859 -0.1336228
0001d0 70 02 fd 3d 02 95 eb 3e 56 28 19 bf 5d 95 e5 be
       0.123539805 0.4601212 -0.5982717 -0.44840518
0001e0 4e 46 8f 3f b2 ad 45 bf 04 d4 18 bf c0 25 09 3f
       1.119333 -0.77218163 -0.5969851 0.53573227
0001f0 b3 dd a2 3d 0d 34 9c 3e 34 c4 8d 3e 97 db fd be
       0.07952442 0.30508462 0.27688754 -0.49581596
000200 ce dd 32 bf 25 41 89 3f 53 f7 12 bf 85 74 4c bf
       -0.698697 1.0723006 -0.57408637 -0.79865295
000210 75 cb 22 3f da b0 39 3e f6 63 3b 3e 44 23 a5 3d
       0.635917 0.1813387 0.18299851 0.08063367
000220 1c e4 02 3f 16 45 48 3c 57 66 04 3f 62 d7 33 3f
       0.5112932 0.012223503 0.5171866 0.70250523
000230 43 8b 03 3f 70 bd 24 3d 82 a9 ab bd ef c4 b5 bc
       0.5138437 0.040219724 -0.083819404 -0.022188632
000240 d1 e0 28 be 3e ac b7 be 9a 56 51 be f0 23 6a be
       -0.1649201 -0.35873598 -0.20443192 -0.22865272
000250 ec 02 58 bf c9 29 a7 be ef 1d 00 3e c3 c2 07 bf
       -0.8437946 -0.32649067 0.12511419 -0.5303156
000260 65 0b 9c bd 49 78 70 bd 0f a8 cb bc 07 3f 01 3e
       -0.07619361 -0.058708463 -0.02486041 0.126217
000270 2a fe 95 be 5b bd 3f bf 9a cf 18 be d0 bf 01 3e
       -0.29295474 -0.7489831 -0.14922944 0.12670827
000280 d0 54 f7 be de cd 89 3d f2 46 ba 3e d6 cf 82 3f
       -0.48306894 0.06728719 0.36382252 1.0219676
000290 b0 6e 2e 3f 98 f4 29 be e3 b3 9e be 68 57 41 3e
       0.68137646 -0.16597211 -0.30996618 0.18880999
0002a0 16 12 ad be 9b 0f 59 bf c8 2b 0d 3d 44 bc 2d 3f
       -0.3380286 -0.8478944 0.03446558 0.67865396
0002b0 b1 7f 8f 3f 63 57 25 3f 27 71 b0 bd 63 88 1a bf
       1.1210843 0.64586467 -0.08615332 -0.6036436
0002c0 6c a7 7e be 1a 91 55 be d9 e5 81 bf f1 5f bf be
       -0.24868554 -0.20856133 -1.0148269 -0.37377885
0002d0 f0 19 a7 3e 25 c5 0f 3f 19 4d 5c 3e 83 dc 18 bd
       0.32636976 0.56160194 0.21513785 -0.03731967
0002e0 1e a4 08 bf 68 d6 bb be f6 89 3d 3e c2 ab 23 bf
       -0.5337542 -0.36687016 0.18509659 -0.63933957
0002f0 e1 96 5c be 53 5d 60 3d 64 6d 02 bf 1a 81 7c bd
       -0.2154193 0.0547765 -0.50948167 -0.06164656
000300 dd 3c 2d bf a9 fc 6f bf ee ca 45 bf 0d e7 60 be
       -0.67670995 -0.93744904 -0.7726277 -0.21963139
000310 44 64 7f bf e3 3e 97 be 52 fe b9 3e fb b3 c5 3e
       -0.9976237 -0.29540166 0.36326844 0.38613877
000320 b6 8f 80 3e 03 c9 00 3e 64 52 22 3f 30 8f be 3c
       0.25109643 0.1257668 0.6340697 0.023261636
000330 f5 83 0a 3e 14 99 52 bd a3 66 89 bc 9b 54 c7 bd
       0.135269 -0.051415518 -0.016772574 -0.09732934
000340 f4 74 9d 3e f3 1d 82 bc b2 d6 68 3e 8c 60 9b 3f
       0.3075329 -0.015883422 0.2273815 1.2138839
000350 cc 78 7f 3e 82 f0 8f 3e d8 52 29 3f 0e c3 09 3e
       0.24948424 0.2811318 0.66142035 0.13453314
000360 9f 28 77 3e de d4 f4 3e d7 e1 46 3d 95 87 1a 3f
       0.2413659 0.47818655 0.04855522 0.6036313
000370 19 85 07 3f 96 7d 9f bf b4 61 c8 bd 7f 18 78 3e
       0.52937466 -1.2460201 -0.097842604 0.24228095
000380 eb a9 18 bf d7 b7 0f 3f 21 09 a5 3e ad 78 0d bf
       -0.59634274 0.5613989 0.32233527 -0.5526226
000390 21 b0 4b 3f 71 cc e8 3e a5 ad e1 bf cc 29 1a 3e
       0.79565626 0.45468476 -1.7631117 0.15055007
0003a0 bd 22 c1 3e ae 0d 4d bf 57 0c fd bd 89 e2 57 3e
       0.37721816 -0.80099 -0.12355869 0.2108251
0003b0 e8 16 03 bd cb 6f b9 3e ef 56 f2 3e 7f 46 87 bf
       -0.032004267 0.36218104 0.4733195 -1.0568389
0003c0 ad 66 c2 3d 3d 5d f7 3e 8e 10 e6 be d1 6d e2 3e
       0.0949224 0.48313323 -0.44934505 0.44224408
0003d0 07 92 06 3d e3 4a 14 3f 23 98 a0 be 9c 5f f0 3e
       0.032854106 0.5792677 -0.3136607 0.46947944
0003e0 d8 c4 d7 be 6c 76 b2 be 1a 77 21 be 81 73 0d bf
       -0.42142367 -0.34855974 -0.1576809 -0.5525437
0003f0 62 1c 28 be 9e 2b 9c be 3c 0b 00 3d b1 78 91 be
       -0.16417077 -0.30502027 0.031260714 -0.28412393

conv1.bias f4 [16]
000000 b7 91 6c bc 1f 11 16 bc d0 25 27 bc 1d 1b 9b 3c
       -0.014439038 -0.009159355 -0.010201886 0.018933827
000010 82 1f 8f 3c 8f 18 a6 bc 07 5c 7f ba fc 40 9f 3b
       0.017471079 -0.020275382 -0.0009741191 0.0048600417
000020 41 31 7d bc 5e fc a7 bc bb 8f bb bb 28 9a 19 bc
       -0.015453638 -0.02050608 -0.005723921 -0.009375133
000030 ab 70 fb bb ee 99 7b 3c 9b 0d 81 3b 3c 16 66 bc
       -0.007673343 0.015356524 0.0039383895 -0.014043387

bn1.weight f4 [16]
000000 0d f8 95 3f 64 56 7b 3f 9a 10 54 3f b2 3f ae 3f
       1.1716324 0.98178697 0.8283783 1.3613188
000010 c3 d7 5e 3f ce 4d 3e 3f 95 22 67 3f a5 0a 31 3f
       0.87047976 0.7433747 0.90287143 0.6915687
000020 02 85 80 3f 1a 3a 64 3f 3e 36 5b 3f 54 c2 7f 3f
       1.0040591 0.89151156 0.8562964 0.99905896
000030 24 8e 1a 3f 5c 1f 4e 3f 82 45 52 3f e1 59 34 3f
       0.6037314 0.805166 0.8213731 0.70449644

bn1.bias f4 [16]
000000 32 b4 d2 3f d6 b1 96 3d b7 9b 90 bd 08 cd 1c bf
       1.6461241 0.07358138 -0.0706095 -0.6125035
000010 e4 b0 0d 3f 43 63 5d 3e 07 47 29 3f 44 2a f8 3e
       0.5534804 0.21619897 0.66124004 0.48469746
000020 b3 f1 1b 3f 5f db 3f 3f e3 77 15 be 79 09 3c 3d
       0.6091568 0.7494411 -0.14596514 0.04590747
000030 54 b2 c3 be 5e 83 2d 3f 49 ab 2e 3f 64 80 48 bd
       -0.3822199 0.67778575 0.6823011 -0.048950568

bn1.running_mean f4 [16]
000000 22 46 cd bd 58 a8 27 3f 9c 5d c8 be a3 89 7b 3f
       -0.100231424 0.6549125 -0.39133918 0.9825689
000010 0e 58 ad 3d 10 18 1f 3f 56 f2 1b 3e 44 42 46 be
       0.08464061 0.6214609 0.15229163 -0.19361216
000020 47 63 c6 bc 36 a3 66 be 98 cd d1 3e 34 08 d5 3c
       -0.024217261 -0.22523198 0.40977168 0.026004888
000030 3c 23 03 3f 9e 59 9a be a3 a6 0f 3d 0d 26 09 bf
       0.5122564 -0.30146497 0.035071027 -0.53573686

bn1.running_var f4 [16]
000000 93 69 50 40 60 40 1f 41 eb 5f d3 40 ac 4a 59 41
       3.2564437 9.953217 6.6054587 13.58073
000010 c5 ff 7d 41 e7 4c f6 40 f9 81 a5 41 fb 68 03 41
       15.874944 7.6968875 20.688463 8.21313
000020 c7 dd a7 41 74 de 9c 40 81 44 81 40 08 36 94 41
       20.98329 4.902155 4.0396123 18.526382
000030 f4 dd 8e 40 38 b2 ba 40 0c d9 f9 40 95 dd c1 40
       4.464594 5.834255 7.807745 6.0582986

layer1.0.conv1.weight f4 [16, 16, 3, 3]
000000 32 59 a1 be ea ce 88 3d 64 b5 0a bd 93 38 d2 be
       -0.31513363 0.06680091 -0.033864394 -0.41058788
000010 c8 c0 3c 3f 8b 9d f0 be 9f b3 2d 3d 3d c5 20 bf
       0.7373166 -0.46995196 0.04240763 -0.6280096
000020 f0 82 0d 3e 5b fb 8d bd 6e 6e 96 3d c4 c1 7d 3e
       0.1381948 -0.06932708 0.073452815 0.24780947
000030 32 dc a8 3d f3 ff 48 3e 30 77 a8 3e 14 c3 93 be
       0.08245124 0.19628887 0.32903433 -0.2885977
000040 2b b7 b8 bd 1e c0 8e 3c 23 a7 ac bc 7d 91 2e 3e
       -0.090193115 0.017425593 -0.02107579 0.17047687
000050 14 94 72 3d 3e 41 49 bd 7e 69 ed 3d de 50 98 bd
       0.05922325 -0.049134485 0.11592387 -0.07437299
000060 11 fb 29 be 56 96 79 be 90 a1 25 be 79 64 04 be
       -0.1659968 -0.24373755 -0.16174912 -0.12928952
000070 db 88 9f bd 69 df 78 be a6 48 94 bd 1f a3 83 be
       -0.07789775 -0.24303974 -0.07240419 -0.2571039
000080 85 bc a8 be cc e9 86 3d fa ea 76 3d 34 0d c7 bc
       -0.3295633 0.06587562 0.060282685 -0.024298288
000090 f9 e1 ee 3c 8e 30 3c be 5c 5f 1f 3e 53 eb f8 be
       0.029160487 -0.18377897 0.1556372 -0.48617038
0000a0 7b cf 15 bf b3 ca 50 3e 6d 69 e5 bd ae b3 25 bd
       -0.58519715 0.20389824 -0.11201749 -0.04045456
0000b0 e0 12 4a 3d 67 6b 7a 3e 02 6c ad 3d 79 c5 82 3d
       0.049334407 0.24455033 0.084678665 0.06385321
0000c0 d9 0a 56 3e a3 23 c9 3d 67 7f 5a bc 7c fb 93 bd
       0.20902576 0.0982125 -0.013336039 -0.07225701
0000d0 d0 09 0a bd fd 2d 62 be df da 64 3d 03 dc e5 be
       -0.033700764 -0.22087856 0.055872794 -0.44894418
0000e0 8f 61 0b 3e f2 99 7f 3d 8d cc 41 be 14 d8 90 3e
       0.13611434 0.062402673 -0.18925686 0.28289855
0000f0 e9 d9 7f 3c 93 94 24 3e ec 39 18 3e d4 00 8f be
       0.015615919 0.16072302 0.14865845 -0.2793032
000100 d5 ec 1e 3e 44 dc 25 3e 1c 6a 9d be 15 dc c5 3e
       0.15520032 0.16197306 -0.30745018 0.38644472
000110 14 e1 93 3e 5a fc a7 be 5a 52 d6 3c 5d 3f a4 3e
       0.28882658 -0.32809716 0.026162315 0.32079592
000120 90 af d9 be 0b 18 02 3e ba 97 c8 bd 45 ec 3f bf
       -0.42516756 0.12704484 -0.097945645 -0.74969894
000130 a3 16 70 3d 00 88 15 3e 04 4f df bd 3f fe e5 3c
       0.058615338 0.14602661 -0.10903743 0.028075336
000140 50 2b 69 3e cf cc 9d be eb 70 44 3f 8b 12 8e be
       0.22770429 -0.3082032 0.767348 -0.27748522
000150 7c 8c 55 be 70 d6 00 3f 1f 77 83 be d5 e3 5b 3d
       -0.20854372 0.50327206 -0.2567682 0.053684074
000160 ba 3a 13 bf 5e ac 24 be b0 11 2b 3e 7a 4c a4 3d
       -0.57511485 -0.16081378 0.16705966 0.08022399
000170 11 17 26 3e ac fd 1e 3e 18 8b 87 bc e5 00 cc 3d
       0.16219737 0.15526456 -0.016545817 0.09961108
000180 5e 5a 1e be 70 f1 9d bd 9f 4b 01 3e 9d 3d 36 3d
       -0.1546416 -0.07712066 0.12626503 0.044492353
000190 b8 86 e3 be 97 53 95 be 82 12 61 bd 3a ec 9d be
       -0.4443872 -0.29165336 -0.05494929 -0.3084429
0001a0 12 5c 70 bc 83 33 f5 3d ce b6 4a bd 0a 20 44 3e
       -0.014670389 0.11972716 -0.049490742 0.19152847
0001b0 e2 f1 67 3c ba c9 02 be b6 48 07 be 32 1e 85 3d
       0.01415679 -0.12772265 -0.13211331 0.064999
0001c0 46 d8 f8 bd 78 d5 e5 bd ce d3 c1 3d 1b 4a 1c 3c
       -0.12150626 -0.112223566 0.09464227 0.0095391525
0001d0 64 f2 90 bc de e7 42 bd 1d c2 d4 3e cd 51 fd bc
       -0.017693706 -0.047584407 0.41554347 -0.030922795
0001e0 59 c4 c2 bd e0 a1 a1 3e ba cb 8a bd 9e 34 89 3d
       -0.095101066 0.31568813 -0.06777139 0.06699489
0001f0 f1 64 8e be 95 5b ed bc 7e 27 1a bd 93 ba 80 3a
       -0.27811387 -0.028974334 -0.03763532 0.0009821228
000200 94 da 51 bd 53 8c 7c 3e 46 3d 60 bd 40 4f 11 3e
       -0.051233843 0.24662904 -0.054745935 0.14190388
000210 46 ca 55 3e 18 e6 79 be 21 58 fa 3d 1d 3e 83 3e
       0.20877942 -0.2440418 0.122238405 0.25633326
000220 14 fe 4e 3e f7 9f 6d 3d 43 d7 5d 3e 60 a9 12 3e
       0.2021411 0.058013882 0.21664147 0.14322424
000230 6e ed fe bc 11 b8 7a 3d bc 8f ea bd 6c e9 0c be
       -0.031119075 0.061210696 -0.114531964 -0.13760918
000240 5d be 3b be 72 21 a4 3e d0 0f fa 3e fb 45 0f 3e
       -0.18334337 0.32056767 0.4884019 0.13991539
000250 a2 23 a9 be c1 83 ec be 9a 47 c5 3b f8 b4 5a 3d
       -0.33034998 -0.4619427 0.0060204985 0.05339524
000260 5b 42 a1 3e aa 85 fb 3c 72 ec 36 be d4 9c 97 bd
       0.31495938 0.030703384 -0.17863634 -0.074029595
000270 22 51 62 be 50 4f 1c be e8 66 a9 bd b9 21 b0 bd
       -0.22101262 -0.1526463 -0.08271581 -0.08600182
000280 a1 5e 05 b8 28 78 06 3e ca 10 c1 bd 3e c8 2c 3d
       -3.17978e-05 0.13131773 -0.094270304 0.042183153
000290 ed db 05 3e f9 ae b8 bd c8 59 8c bd d2 bb d8 3d
       0.13072176 -0.090177484 -0.06853062 0.10582699
0002a0 84 c4 13 be c1 62 ff bd e1 54 82 bd 8d 57 32 3e
       -0.14430434 -0.12470008 -0.063638456 0.1741621
0002b0 4f 3c 87 be 3a d9 69 be 85 4b 57 3e 58 95 55 3d
       -0.264132 -0.22836772 0.21024902 0.05214438
0002c0 af 12 0a 3d ab ef 4f 3e b1 6c 21 3e 5e 78 c1 3c
       0.033709224 0.2030627 0.15764119 0.023616966
0002d0 8b c1 9f be 62 ca 2b be 38 59 24 be 5b cb 0d be
       -0.3120235 -0.16776422 -0.16049659 -0.13847105
0002e0 af 74 15 bc c9 ba 89 be 57 66 43 3e c0 e8 37 3e
       -0.009122058 -0.26900318 0.19082008 0.17959881
0002f0 5e cd c0 be e5 4d 48 bd 92 1b e3 bd dc a6 91 bd
       -0.37656683 -0.04890241 -0.11089243 -0.07111904
000300 f5 fb 03 3e a8 62 f8 3d 2f ea 51 bb e8 d6 92 3e
       0.12889083 0.12128192 -0.0032030453 0.28679585
000310 44 42 87 3e b5 c1 d8 3d 01 1d 17 3d 26 50 f0 bd
       0.26417744 0.10583822 0.036892895 -0.11734037
000320 53 7a 6b be 09 92 f8 bb 43 a4 45 3e 20 97 cf bc
       -0.22995882 -0.007585768 0.19300942 -0.025340617
000330 82 38 f4 3d e6 71 14 be 00 d5 a7 be fc 2e 51 3d
       0.119248405 -0.14496574 -0.32779694 0.0510702
000340 6d 2c 93 3e ef c7 b0 3e 98 12 27 be 03 dc 37 3a
       0.28744832 0.34527537 -0.16315687 0.00070136803
000350 b6 a8 90 3e 0b b4 54 be 3a 14 f7 bd 56 e4 31 3e
       0.28253716 -0.20771806 -0.12064405 0.1737226
000360 4b 33 49 be c5 3a eb bd c7 90 00 be d2 d3 f6 3d
       -0.19648473 -0.11485819 -0.12555228 0.1205212
000370 0f ba cd bd fb 03 52 be 6f 92 82 3e c6 da c8 bd
       -0.100452535 -0.20509331 0.25502345 -0.09807353
000380 72 fd 33 be a8 59 be bd 03 d1 8a 3d 38 26 81 3e
       -0.1757715 -0.09294444 0.06778147 0.2522447
000390 d4 20 96 bd af f3 da be 77 1f 3d be 13 58 a1 3d
       -0.0733048 -0.4276404 -0.18469034 0.07878127
0003a0 7d f3 0e be 34 cd 03 3e 73 0e 4a bc aa 67 74 be
       -0.13960071 0.12871248 -0.0123325465 -0.2386767
0003b0 22 56 d0 bd 18 20 11 be 95 03 f9 bd 74 a5 51 bd
       -0.101726785 -0.14172399 -0.12158886 -0.05118318
0003c0 77 45 b3 3c 8f dc 4c 3d 1a 58 35 3b 14 67 6a bd
       0.02188371 0.05001503 0.002767092 -0.05722721
0003d0 22 21 9b be 88 07 cf 3d 79 ed 3c 3d a8 14 48 be
       -0.30298716 0.10108858 0.04612491 -0.1953913
0003e0 e7 76 0a 3e d7 3a 7e 3e 56 2c 5d bd 30 3b 5f 3c
       0.1352192 0.24827133 -0.05399736 0.013624951
0003f0 66 21 5d 3d d5 0e ae bd 16 3f f6 bd db 8e d9 3d
       0.05398693 -0.08498923 -0.120237514 0.10622951

layer1.0.conv1.bias f4 [16]
000000 69 e7 ab 3a db 1a c5 bb c2 c0 24 bb f7 19 c0 3a
       0.001311523 -0.0060151643 -0.0025139307 0.0014656176
000010 41 b6 f7 bb 5e e3 da bb fb 14 97 3a 61 5d 24 bb
       -0.007559568 -0.0066799363 0.0011526638 -0.0025080072
000020 23 c4 5d 3b 59 a1 1c bb bd c9 86 3b 91 e9 d0 3a
       0.003383883 -0.0023899882 0.0041134045 0.0015938749
000030 72 11 0f bc f2 5b e8 3a d1 4b dd 3b 32 c8 7a bb
       -0.008732187 0.0017727597 0.006753423 -0.0038266298

layer1.0.bn1.weight f4 [16]
000000 3b 7e 85 3f ef 9f 5e 3f 52 6a 38 3f f5 a8 bf 3f
       1.0429147 0.8696279 0.7203723 1.4973437
000010 4b 42 3c 3f a9 1a 59 3f d1 82 25 3f f3 29 32 3f
       0.73538655 0.84806305 0.64652735 0.6959526
000020 a1 74 5f 3f 3c 1c 47 3f 86 e3 24 3f 4f be 70 3f
       0.87287337 0.7777746 0.64409673 0.9404039
000030 4e ff 29 3f 36 a2 8c 3f ee f2 43 3f 55 a4 79 3f
       0.6640519 1.0987003 0.76542556 0.97516376

layer1.0.bn1.bias f4 [16]
000000 08 58 03 3f 80 5e d4 3e 2e 49 e9 be 5e 9a 0b be
       0.513062 0.41478348 -0.45563644 -0.13633105
000010 02 d2 8d be 46 b8 88 3e b4 1d 2a bc 06 0f 9f be
       -0.27699286 0.2670309 -0.010383058 -0.3106615
000020 c8 c4 5d 3e 8a 71 fa 3d 9d 60 ab 3e fb b3 44 be
       0.21657097 0.12228687 0.33472148 -0.19209282
000030 2b dc 56 bf 23 60 63 3f c4 e9 85 be cb 52 2a bf
       -0.839297 0.8881857 -0.26154912 -0.6653258

layer1.0.bn1.running_mean f4 [16]
000000 7e ff 0b c0 ca 5d 84 bf 70 76 36 bf d6 0a 1b c0
       -2.187469 -1.0341122 -0.7127447 -2.4225364
000010 7f 67 be 3f 63 53 dd bf ea 90 ac be a7 1f 84 bf
       1.4875335 -1.7291073 -0.3370431 -1.032216
000020 eb e3 84 c0 16 e9 90 c0 a2 75 9c c0 61 14 11 c0
       -4.152822 -4.528453 -4.8893595 -2.2668688
000030 6e 7b a8 3f b3 1c e6 bf 1e a4 f8 bc bf ca 08 40
       1.3162668 -1.7977508 -0.030351695 2.1373746

layer1.0.bn1.running_var f4 [16]
000000 02 79 e6 40 02 8b 71 40 f8 d2 ef 3f 8a 44 f8 41
       7.2022715 3.7741094 1.8736258 31.033466
000010 77 a9 1b 40 10 0d 9b 40 6a 44 d5 40 6b c1 88 40
       2.4322183 4.8453445 6.6646013 4.2736106
000020 56 ae 80 40 f0 6b 12 40 a2 89 84 40 a7 2b 80 40
       4.0212812 2.287838 4.141801 4.0053287
000030 50 40 6e 3f aa 0d 0b 41 d7 55 cd 3f 30 7c 62 40
       0.93066883 8.690836 1.6041821 3.5388298

layer1.0.conv2.weight f4 [16, 16, 3, 3]
000000 d0 b8 0d 3e 95 c2 95 be 66 ab 79 3e d9 de 20 be
       0.13840032 -0.29250017 0.2438179 -0.1571001
000010 eb d7 d0 3e c3 2e 23 3e 1c 8d 04 3d e2 51 d0 3c
       0.40789732 0.15935807 0.032361135 0.02542967
000020 9f 9d 59 bd 60 06 86 3e 1a 33 8d bc 6b 6b 42 be
       -0.053128835 0.2617674 -0.017236281 -0.18986289
000030 b8 36 e1 be 0f 89 c1 be 37 64 6a bd e2 62 91 3c
       -0.4398706 -0.3779988 -0.05722448 0.017747346
000040 05 11 a9 bc 28 d8 5e bd c5 03 10 bd 08 b5 8c bd
       -0.020637998 -0.05440536 -0.035159845 -0.068704665
000050 d9 b1 b6 bd a1 70 b7 bc b2 1a 4b 3d ae f4 b4 3d
       -0.089206405 -0.022392573 0.049586006 0.088357314
000060 ef de 68 bd ae a8 2f bd 50 a8 80 3d 06 2f 92 bd
       -0.05685323 -0.042885475 0.06282103 -0.07137875
000070 48 19 e1 3d a7 f7 97 bd 7c 81 4d be 68 ef c9 bd
       0.1099115 -0.07420283 -0.20068926 -0.09860116
000080 b1 45 d3 bd 98 4e 03 be a4 15 17 be 5a bf 95 bd
       -0.10316027 -0.1282295 -0.14754349 -0.07311888
000090 94 c7 0e be fc 18 b2 bd 52 75 a8 bc 9e 00 44 3d
       -0.1394332 -0.08696172 -0.020563755 0.04785215
0000a0 cc 56 e1 bc aa ff ce 3d 55 56 0c 3c f6 9a 5e bd
       -0.027507208 0.10107358 0.008565505 -0.054347
0000b0 81 49 09 3d 88 38 82 3d 0b a2 12 be fe 6d c7 bb
       0.033517364 0.06358439 -0.14319627 -0.00608611
0000c0 a1 38 0e 3d e9 c1 d8 bd c5 20 72 be 38 a9 24 be
       0.034721974 -0.105838604 -0.23645313 -0.16080177
0000d0 74 81 bb be 00 60 80 bd d6 41 9f bd a9 45 e1 bd
       -0.36622202 -0.062683105 -0.07776229 -0.10999615
0000e0 d1 89 08 be a0 90 32 be 9c da aa be ec e9 97 be
       -0.13333823 -0.17437983 -0.3336991 -0.29670656
0000f0 b5 61 f0 bd 13 62 62 be 5f 8d ac bd ef da 64 bd
       -0.11737386 -0.22107725 -0.08425402 -0.055872854
000100 1f 9d eb 3c 46 ce 7e 3d e2 e5 5a bd e3 ba b1 3d
       0.028761445 0.062208436 -0.05344189 0.08678224
000110 be db 9a 3d f5 8a 19 be fd 4e 30 bc e5 0b 38 3c
       0.07561444 -0.14994414 -0.01076102 0.011233305
000120 0e eb 0a 3e 8a 36 bc 3e 82 2a 85 3e ba b8 8c 3e
       0.13566229 0.3676036 0.26008993 0.27484685
000130 67 ca d1 3d 05 d0 73 be 80 65 ed bc 6a 57 5f 3d
       0.10243683 -0.23809822 -0.028979063 0.054526724
000140 d5 69 3a bd d9 57 90 3d d9 bf 3b be f7 72 7b ba
       -0.045511086 0.070480056 -0.18334903 -0.0009592021
000150 58 b9 28 be 7a c5 89 3e e7 71 c6 bb d0 a0 24 bd
       -0.16476953 0.26908475 -0.0060560587 -0.040192425
000160 a7 2c d0 bc 20 7e 03 3e e0 7e f7 bc 01 0b d0 bd
       -0.025411917 0.12841082 -0.030211866 -0.10158349
000170 60 62 8d bc 67 d1 72 3d fe 8f 90 3d d3 39 e4 bd
       -0.017258823 0.059281733 0.07058714 -0.111438416
000180 69 b0 78 3e 66 ec ce 3d 9e d3 e5 bd e8 fc 84 bd
       0.24286045 0.10103683 -0.112220034 -0.064935505
000190 15 2f 30 3e 27 a0 59 3e 42 a7 5d bd 08 d6 11 be
       0.1720546 0.212525 -0.054114588 -0.14241803
0001a0 88 a9 1a 3e 9e b0 8c bd c4 7a 17 bd 70 96 b2 3d
       0.15103734 -0.068696246 -0.036982313 0.087201
0001b0 03 45 7a bc 14 02 de 3b 9e 86 8a bd f3 e6 56 3d
       -0.015275243 0.00677515 -0.067639574 0.052466344
0001c0 38 45 9a 3b 1e 9b 61 bd 5f 86 02 3e 4d 91 d0 3b
       0.0047079585 -0.055079572 0.12746571 0.0063649775
0001d0 d6 b6 91 bc 67 ef 22 be 8c b1 1a 3f 6c 32 e7 bd
       -0.017787378 -0.15911637 0.60427165 -0.11288914
0001e0 6f 08 b7 3e 06 07 0c bf 65 7b dc 3a 61 10 2f be
       0.35748622 -0.54698217 0.0016821442 -0.17096092
0001f0 e4 10 fc 3d cf 66 a1 3b 25 6e 1d 3e 1e 1b 0b bd
       0.12307909 0.004925586 0.15374048 -0.033961408
000200 8c 96 16 3e fa 76 a8 bc ee 55 f2 bd ce 07 de bd
       0.14705867 -0.020564545 -0.11832796 -0.108413324
000210 2c 28 a9 3a b1 fa 3d be 3c eb 50 be ef 9b 00 be
       0.0012905649 -0.18552662 -0.20402235 -0.12559484
000220 a3 6d 8e 3e 2e 55 89 bc 8e 46 6d 3d 7d 21 ff 3d
       0.2781802 -0.01676425 0.057928614 0.12457559
000230 ac 6e 69 3c 6e 40 22 be 1c 63 7b bd 54 05 fc bd
       0.014247578 -0.1584489 -0.061373815 -0.12305704
000240 f9 f4 8a 3d eb 35 36 3d 41 d3 18 be b8 1d 40 3e
       0.06785006 0.044485014 -0.14924337 0.18761337
000250 04 34 a3 bd de 39 73 be b1 45 35 3e 3e 47 83 3c
       -0.079689056 -0.23752543 0.17702366 0.016025182
000260 d4 f2 47 be 97 f1 18 3e 2e 40 29 bd 77 a8 06 bd
       -0.19526225 0.14935909 -0.041320972 -0.032875504
000270 be 92 29 3e 66 3c 92 bd da 57 43 be d9 85 46 3e
       0.16559884 -0.07140426 -0.19076481 0.19386996
000280 d4 e7 c0 3d d5 fc 6a bd 5e 88 cf bd f8 61 dc bd
       0.09419218 -0.057370026 -0.10133432 -0.107608736
000290 a6 43 dc bd df a8 e3 bd c5 69 dc bd 1f 40 95 bd
       -0.107550904 -0.11116194 -0.107623614 -0.07287621
0002a0 eb f1 5b be 62 f4 5d be 0f 8a 42 be 14 ab 11 3d
       -0.21479003 -0.21675256 -0.18997978 0.035563543
0002b0 75 2d 84 bd b6 82 f6 bd 71 fc cf 3d 51 dd f2 bc
       -0.06453983 -0.1203665 0.10155571 -0.029646548
0002c0 2b 65 50 bd d5 32 35 3e 1b b8 2f 3e 6b aa 58 3d
       -0.05087773 0.17695172 0.17160074 0.0528969
0002d0 00 73 62 3c 66 19 0c 3d 4b 17 a1 3d 5c d6 79 bd
       0.013821363 0.03420391 0.07865771 -0.060995445
0002e0 b9 f3 ad bd d1 7c 95 bd e8 d5 88 bd 56 3c 7f bd
       -0.08493752 -0.072991975 -0.066814244 -0.0623134
0002f0 54 4a 01 be b7 2d 39 3d 88 db 42 be 72 2f b4 bd
       -0.1262601 0.045209613 -0.19029057 -0.08798112
000300 ef 85 1f 3e b2 10 c0 bd 43 91 f4 bd 9b 6c 74 3e
       0.15578435 -0.093781844 -0.11941769 0.23869555
000310 8d 5e ee 3d 75 95 2f be 0d 5a 9a bc fc dc 9d 3d
       0.11639128 -0.17146857 -0.018841768 0.07708165
000320 8f 91 c2 bd c7 30 e3 bc 3a 7a f3 3d 4f 0c 34 3d
       -0.09500419 -0.02773322 0.11888547 0.04395705
000330 c7 9f 51 be e9 ca 2e be 77 ad da bd 08 0f 1b bd
       -0.20471106 -0.17069592 -0.10677617 -0.03785613
000340 71 a7 1a be e1 79 4f be 32 a3 99 3d ce ae b2 bd
       -0.15102936 -0.20261337 0.0750183 -0.087247476
000350 e6 ad 59 be b6 c6 40 3e 21 16 1f 3d 4c 90 20 be
       -0.21257743 0.18825802 0.038839463 -0.15680045
000360 68 c9 d8 3d 56 f3 80 3d 40 8e e6 bd be 21 e2 3e
       0.1058529 0.06296413 -0.11257601 0.44166368
000370 1d 1b 35 3e ab 87 cf bd d0 7f 8a 3e a4 aa a1 3d
       0.17686124 -0.101332985 0.27050638 0.07893875
000380 19 27 61 bc a0 22 18 3e 49 41 b4 3d 61 77 11 bd
       -0.013742232 0.14856958 0.08801515 -0.03551424
000390 12 7d de 3d ed 00 87 3d f2 de 94 bd 1b 3c 36 3e
       0.10863699 0.065919735 -0.07269086 0.17796366
0003a0 b1 2d 8b 3d 84 54 12 be 03 46 92 bd 6d 95 57 3d
       0.06795824 -0.14290053 -0.0714226 0.052632738
0003b0 49 80 20 3e 1d 50 e1 bd a8 6c c8 bd 5e e0 b7 3d
       0.15673937 -0.110016085 -0.097863495 0.089783415
0003c0 b9 1c 07 be 8c 59 2a be a5 b4 c5 bc 21 06 be bd
       -0.1319455 -0.16635722 -0.02413399 -0.09278513
0003d0 83 03 db 3c 8b 41 44 3e 38 5a da bb 14 ca e7 3d
       0.026735073 0.19165628 -0.006663587 0.1131784
0003e0 2d 9d 3e 3e b8 16 f7 bd e6 91 46 3d b2 be 95 3d
       0.18614645 -0.1206488 0.048478983 0.07311763
0003f0 80 d7 10 ba d9 57 38 3d 54 91 81 3d 07 df 78 3c
       -0.0005525276 0.045005653 0.06326547 0.015189893

layer1.0.conv2.bias f4 [16]
000000 74 35 70 bb 80 31 50 3c 57 da 8e bb a9 ab c0 3a
       -0.0036652954 0.012707114 -0.004359524 0.0014699596
000010 bb 02 c3 3b 91 8b 80 3b 32 e6 1e bb 06 6e b3 bb
       0.005951253 0.0039228876 -0.0024246094 -0.0054757623
000020 25 fa da 3b 08 2d a9 bb 3b eb f1 bb 39 78 13 3c
       0.0066826516 -0.005162839 -0.007382778 0.009000831
000030 ea fb d7 bb e8 e5 65 3b 35 be c1 b9 14 15 80 3a
       -0.00659131 0.0035079662 -0.00036953544 0.0009771907

layer1.0.bn2.weight f4 [16]
000000 a8 5b b1 3f 0f 4c 19 3f 1d 49 03 3f 25 5d 27 3f
       1.3856096 0.5988168 0.51283437 0.653765
000010 d1 e0 9f 3f 61 2b 66 3f 43 6a bf 3f 84 5b b9 3f
       1.2490484 0.8990994 1.4954304 1.4481053
000020 dd d8 85 3f b2 5a 66 3f 35 d0 0b 3f 7f 51 a3 3f
       1.0456806 0.8998214 0.54614574 1.2759246
000030 3c 3b 99 3f de 96 17 3f e4 bd 0a 3f 63 98 43 3f
       1.1971202 0.5921458 0.54196 0.764044

layer1.0.bn2.bias f4 [16]
000000 1d 10 2a bf c5 8b ea 3d 5a c7 b4 3d 8f 7b a4 be
       -0.66430837 0.1145244 0.08827086 -0.32125518
000010 7d 26 dd 3e c6 45 60 bc 80 26 84 bd bf 19 4a 3f
       0.43193427 -0.01368851 -0.06452656 0.78945535
000020 dd db e5 be 9f 27 fc be 97 76 12 3e a1 59 65 bd
       -0.44894305 -0.49248978 0.14303051 -0.05599368
000030 58 b3 33 3f c5 5f 1f 3e 76 fe 45 bd f2 c5 b2 3e
       0.7019553 0.15563877 -0.048338376 0.34916645

layer1.0.bn2.running_mean f4 [16]
000000 24 7e 3d bf ab e9 87 3f 6b f5 be 3e 96 51 75 3f
       -0.740206 1.0618185 0.37296614 0.95827615
000010 2a 84 2e 3f 0f 06 78 bd 39 16 ae 3e 77 cc e3 be
       0.68170416 -0.060552653 0.3400133 -0.44491932
000020 39 f1 b7 bf 34 f4 93 bf 7f cb 6e be e2 dd db 3f
       -1.437049 -1.15589 -0.23319815 1.7177088
000030 20 47 0d c0 7c a8 57 bf 40 c9 d0 bd 17 3c 62 bf
       -2.2074661 -0.8424146 -0.101946354 -0.8837294

layer1.0.bn2.running_var f4 [16]
000000 80 74 21 40 76 2e f5 3f d6 a0 c6 3f 0b 15 c0 3f
       2.5227356 1.9154804 1.5517833 1.5006422
000010 81 28 9e 40 f1 1a 2a 40 ab c8 f0 40 b5 b0 82 40
       4.9424443 2.6578944 7.5244956 4.0840707
000020 84 00 8f 40 b6 18 15 40 c6 ee ac 3f 1a 42 d9 40
       4.468813 2.3296332 1.3510368 6.789319
000030 8e 77 f7 40 24 6a f2 3f a8 79 c6 3f 24 96 31 40
       7.733344 1.8938642 1.5505877 2.7747889

layer1.1.conv1.weight f4 [16, 16, 3, 3]
000000 f2 93 03 3e 5a b2 7f 3c 5b 2a 51 3d db f2 0a 3f
       0.12849405 0.015606487 0.051065784 0.5427682
000010 e0 84 a4 3e a1 15 68 3d 1e cb 65 be 77 c2 ac be
       0.32132626 0.056661252 -0.22440764 -0.33742115
000020 1a 5b 09 be 43 56 9a bd 55 82 97 bd b0 96 a5 bd
       -0.13413659 -0.07535984 -0.07397906 -0.08085382
000030 44 a4 41 bb 84 8a e3 3c 2e b3 02 bb 1b 09 46 3d
       -0.0029547373 0.02777601 -0.0019943225 0.048348527
000040 bd 4a 99 3e 27 fc 5e 3e 8c 20 49 bd 11 78 ea bc
       0.29939833 0.21775876 -0.049103305 -0.028621705
000050 60 3e 57 3c 4c ce ff bd a9 9b d1 bd 2f 93 f8 bc
       0.01313743 -0.1249052 -0.10234768 -0.03034362
000060 dd 19 99 bd f0 bf 74 bd 26 5b 0b 3c db 5f 41 bd
       -0.07475636 -0.05975336 0.008505618 -0.047210556
000070 81 ff 38 bd c1 9b 90 bc 8d e1 f8 3d bb ef f3 3d
       -0.045165543 -0.017652394 0.121523954 0.11910959
000080 9e ef ab 3d 43 36 04 bd fb 09 d7 bb e4 53 08 bd
       0.08395313 -0.03227831 -0.006562469 -0.03328313
000090 b7 65 da 3c bf de 60 bd 49 ef 83 3c 24 52 f3 3d
       0.02665983 -0.054899927 0.016105311 0.118809015
0000a0 e7 e0 96 3c 96 d8 a0 bd 32 74 f6 3d b6 bd 39 3d
       0.018417789 -0.078538105 0.12033881 0.045346938
0000b0 e3 f2 5e be 2e 87 4b 3e 0a c7 0d 3e d3 49 17 3e
       -0.21772341 0.19875786 0.13845459 0.14774255
0000c0 27 c4 f1 3a b1 85 df b6 b7 ae 4b 3d a8 1e 81 be
       0.0018445299 -6.6614816e-06 0.049727168 -0.252187
0000d0 bd 23 97 be 2f ba 61 be 13 a7 6d 3d 07 b3 40 3e
       -0.29519454 -0.2204368 0.058020663 0.18818294
0000e0 48 be 18 3e ea a0 4e be 0c 6c 1c be 44 58 0c be
       0.14916337 -0.20178571 -0.15275592 -0.13705546
0000f0 90 d6 68 3e 16 a1 29 3e 4a b3 8c bd 72 97 f6 bd
       0.22738099 0.16565356 -0.06870134 -0.12040605
000100 40 fb 5b be 8f a2 4c be 3c e9 0f bd 9f 3b 31 be
       -0.21482563 -0.19983886 -0.03513454 -0.173079
000110 b2 a3 78 bd 46 03 17 3e 8a a7 b8 3d bb fe 33 3e
       -0.060702987 0.14747342 0.090163305 0.1757764
000120 36 84 f8 bd 2c b9 47 3b ac 63 ff bc 8a 2b fa 3c
       -0.12134592 0.0030475361 -0.031175457 0.03053834
000130 84 ce 06 bc b0 3b f2 3d ce d4 a4 3d 32 02 1a bd
       -0.008227948 0.11827791 0.08048402 -0.03759975
000140 70 e4 96 be b4 8b 6e be cb e3 30 be 0a 6f 22 be
       -0.2947116 -0.2329548 -0.17274396 -0.1586267
000150 7d 0d 09 3e 63 58 9b 3d c5 c3 96 3c a2 7f 6b 3d
       0.13384052 0.07585218 0.018403897 0.057494767
000160 49 f4 08 3e 5c 3c cd 3d 83 02 34 3e 39 ac b8 3d
       0.13374437 0.10021278 0.17579083 0.09017224
000170 df 94 e0 3d 4b 38 22 bd 12 a0 0e bd 99 2b f5 3c
       0.10965895 -0.039604466 -0.034820624 0.029928016
000180 b7 0b 91 be 9d 0e 6c be 55 9a 08 be b4 26 56 3e
       -0.2832925 -0.2305245 -0.13340123 0.20913202
000190 32 b9 54 bd fb 07 cc bd bd 42 25 3d 09 2b 94 be
       -0.05193443 -0.0996246 0.04034685 -0.28939083
0001a0 e9 c1 95 be b7 aa 8d 3c b1 96 0d be d0 56 29 be
       -0.29249504 0.017293317 -0.13827015 -0.16537023
0001b0 fc a2 79 3e d3 b5 43 3e a5 86 38 3e b8 33 4d 3e
       0.2437858 0.19112329 0.18020113 0.2003926
0001c0 ad 71 55 3e 8f b0 8c 3e 7a 5b 01 3e a3 bd 9d 3d
       0.20844145 0.27478454 0.12632552 0.07702186
0001d0 6c 78 0c 3e d0 81 53 3e 7e 15 32 3e 4f 2f 1d 3e
       0.13717812 0.20654988 0.17391011 0.15350078
0001e0 48 fa aa bb 0d af 00 be 6a 36 87 3b 9a 80 45 be
       -0.005217824 -0.12566777 0.0041263597 -0.19287339
0001f0 5a 00 b4 be 51 7a 86 be 30 2e 2d 3c c2 d9 19 3e
       -0.35156518 -0.26265195 0.010570094 0.15024474
000200 cb a1 ff 3c 15 ae 16 be b7 ff 0a bd 83 59 4f bd
       0.031205079 -0.14714845 -0.033935275 -0.050622474
000210 06 67 59 bd 8b 81 1d bd 55 c5 cf bd 56 99 dc 3d
       -0.053076766 -0.03845362 -0.1014506 0.10771434
000220 86 3d 0b 3e 24 ed 06 3e 60 9e 34 3e 7a 83 12 3e
       0.13597688 0.131764 0.1763854 0.14307967
000230 d8 cc f9 3d ba 39 79 bd f2 f4 fd bd b1 45 98 3c
       0.12197274 -0.060846068 -0.12400235 0.018587919
000240 c8 2e f8 bc f2 a2 8d 3d 44 61 ef 3b 20 89 04 bd
       -0.030295745 0.06915845 0.007305296 -0.032357335
000250 46 18 15 3d 39 ad 78 3d eb 16 b0 3d c2 6a ce 3d
       0.036400102 0.060712073 0.08598121 0.10078956
000260 8f 71 f0 3c f7 81 31 bc e1 a5 b9 3d 90 c9 e4 3c
       0.029351024 -0.010834209 0.09064842 0.027928144
000270 12 10 83 39 90 7a 3e 3d f0 f6 90 bd 12 ad 00 be
       0.0002499824 0.046503603 -0.070783496 -0.12566021
000280 73 3f 48 bd 9b 0f 20 be 7c 63 8e bc dd 3b e2 3c
       -0.048888635 -0.15630953 -0.017381422 0.027616436
000290 61 62 85 3d 50 c7 1a bc 6e b8 a2 ba b6 00 7e 3d
       0.06512905 -0.009446934 -0.0012414583 0.062012397
0002a0 9c b3 a2 3c a3 fb f3 3c bc 42 5d 3d bd 4d 21 bd
       0.019861035 0.029783076 0.05401872 -0.039380778
0002b0 73 f1 08 3e 54 11 2e bd e6 e3 9a 3e 55 3c bb 3e
       0.13373356 -0.042496994 0.30251998 0.36569467
0002c0 e8 33 8c 3e ad bc c5 3c 71 e0 dd 3d c1 ac 70 bd
       0.2738335 0.02413782 0.108338244 -0.0587585
0002d0 d7 b6 65 bd 0e 79 1f 3e 64 06 08 3e 03 08 d0 bd
       -0.056082573 0.15573522 0.13283688 -0.10157778
0002e0 db a9 02 3e be 11 d5 3d aa 99 0b be a6 a7 d7 3d
       0.12760107 0.10403775 -0.13632837 0.10530023
0002f0 74 9e bb 3a 7b ce d1 3d 58 fe e2 3d 23 17 2f bd
       0.001431419 0.10244461 0.110836685 -0.042746674
000300 e7 4d 56 3e ab 05 9c 3e a5 60 38 3e b1 0e da 3d
       0.20928155 0.30473074 0.18005617 0.106473334
000310 90 cf 6a 3e b5 fc ad 3d 4b b8 a9 bd fb 8b 92 bd
       0.22930741 0.08495466 -0.08287104 -0.071556054
000320 72 bc 13 be e7 a8 e8 3d c8 fa 13 3e 94 d5 e2 3d
       -0.14427355 0.113603406 0.14451134 0.11075893
000330 89 0a da 3c 73 e4 36 3d 20 d5 2e bc 32 4f ed bb
       0.026616352 0.04465146 -0.01067093 -0.007242107
000340 ce 64 c1 3d f1 2b 38 3e f7 0e 8f bd 75 20 c8 bd
       0.09443055 0.17985512 -0.06985276 -0.09771816
000350 58 54 82 bd ac 56 9b bb 50 88 35 bc d5 17 de bd
       -0.063637435 -0.0047405567 -0.011079863 -0.10844389
000360 9a ac b5 bd ee 3a 22 bd 23 88 78 bd df df d0 bd
       -0.08870812 -0.03960698 -0.060676705 -0.1019895
000370 0b 9d 2d bd 86 89 f8 bc 7e b3 cd bd fd e8 aa bd
       -0.042386096 -0.030339014 -0.10044001 -0.0834522
000380 82 6f ff bc d1 a8 7c 3c fa c5 cd bb 5b f0 3e bd
       -0.0311811 0.015421108 -0.006279704 -0.04661594
000390 73 47 57 3d 89 07 c2 bb ad 21 9f bc db ad 0d 3e
       0.052558374 -0.0059213084 -0.019425238 0.13835852
0003a0 dd 3d 03 3e f5 ec a7 3d bf e9 2a bc 2d ea 5c bc
       0.12816568 0.08199493 -0.010431706 -0.013483566
0003b0 e3 1f 60 be 0e 4e 10 3e 3d 85 7d 3e d0 a1 19 bd
       -0.21887164 0.14092276 0.24757858 -0.037507832
0003c0 30 ad fa 3c 12 7b 46 3e bd e2 4a 3c 17 0e c1 bb
       0.03060016 0.19382885 0.01238316 -0.005891572
0003d0 33 e9 24 3e 4c f7 13 3d 9a 7d b2 bd 63 25 cb bc
       0.16104583 0.036124513 -0.08715363 -0.0247981
0003e0 90 8b 49 be d2 7f 44 be f8 00 09 be ca 6f 2b be
       -0.19682145 -0.19189385 -0.13379276 -0.16741863
0003f0 e1 a4 3a bc 99 7c 7e 3d a7 ae 9d 3c bd 0b a4 bd
       -0.011391849 0.062130544 0.01924832 -0.080100514

layer1.1.conv1.bias f4 [16]
000000 17 e7 93 ba fd 7e f0 bb e1 10 ad 3b ba dc 03 3a
       -0.001128408 -0.007339357 0.005281553 0.0005030144
000010 e3 e4 bc bb 8b d3 e5 3b 40 24 ee bb 6c 12 fd bb
       -0.00576459 0.0070137433 -0.007267505 -0.0077231433
000020 b1 86 00 bc d6 0c 7b bb ce 65 d4 3b 94 20 bb ba
       -0.007844613 -0.0038307211 0.0064818626 -0.0014276677
000030 c1 83 14 3c 74 0d 78 ba 8a b6 f5 bb 5e 18 d9 39
       0.009064616 -0.0009462454 -0.007498567 0.0004140762

layer1.1.bn1.weight f4 [16]
000000 07 1f 40 3f 7e ff 3b 3f 24 c6 8f 3f aa cd 55 3f
       0.75047344 0.73436725 1.1232343 0.83516943
000010 f5 57 2b 3f f8 bd 36 3f 00 4e 31 3f d4 58 5c 3f
       0.66931087 0.7138362 0.69259644 0.8607304
000020 b4 59 82 3f f5 e3 76 3f 6a fd 65 3f 1b 76 60 3f
       1.0183625 0.96441585 0.89839804 0.87680215
000030 d5 2d 45 3f 00 25 5d 3f 17 44 3a 3f e8 3e 71 3f
       0.7702306 0.8638458 0.72760147 0.9423661

layer1.1.bn1.bias f4 [16]
000000 1c c6 db be bf b3 5f bf 57 13 6f be d1 39 4c bd
       -0.42924583 -0.87383646 -0.23347221 -0.049859826
000010 1a 31 93 be b8 c2 00 bf cf cd c0 be f0 17 43 bf
       -0.287484 -0.5029712 -0.3765702 -0.762084
000020 7d 3e a0 be d5 38 b8 be 7f 37 20 be 46 d2 3c bf
       -0.31297675 -0.3598086 -0.1564617 -0.7375835
000030 11 30 24 bf 30 6d 93 be d0 51 1c be 65 68 94 be
       -0.64135844 -0.2879424 -0.15265584 -0.28985897

layer1.1.bn1.running_mean f4 [16]
000000 29 92 2f 3f 2f 30 10 40 cd de 09 bf 8a c3 c7 c0
       0.685824 2.252941 -0.5385559 -6.2426195
000010 76 e6 32 c0 6e 23 b6 3f 84 c9 96 40 e7 9d 0d 3f
       -2.7953162 1.4229562 4.712099 0.55319065
000020 68 1c 47 3f 3f 74 2b c0 28 d2 68 c0 2e 35 9a 3f
       0.7777772 -2.67897 -3.637827 1.2047479
000030 69 bb 85 40 2e 02 2f c0 68 56 d6 bf b1 2c 96 bf
       4.179127 -2.734508 -1.6745119 -1.1732389

layer1.1.bn1.running_var f4 [16]
000000 8c 37 e9 40 15 87 c3 40 7f b2 7b 42 db 78 48 41
       7.2880306 6.1102395 62.924313 12.529506
000010 1b 48 ac 40 fe ce 8b 40 af 23 e9 40 37 99 8e 40
       5.383802 4.3690176 7.285606 4.456203
000020 0c 28 d4 41 8a 40 2f 41 da c9 bb 41 ea e7 7f 40
       26.519554 10.953257 23.47356 3.99853
000030 ef b9 01 41 25 76 40 41 3a 0c 1e 41 ca 9b 04 41
       8.107894 12.028844 9.877985 8.288034

layer1.1.conv2.weight f4 [16, 16, 3, 3]
000000 eb 07 d2 bc 07 52 84 bc fb 88 15 3e f7 94 41 be
       -0.025638541 -0.016152395 0.14603035 -0.18904482
000010 5c 5b fb bc c5 6e 47 bd b1 a9 39 bd 9d f1 f7 bd
       -0.030683212 -0.048689622 -0.045327846 -0.12106631
000020 5d 2e 91 bd d0 53 15 bd 4b 7e c8 bd f4 ac d5 bc
       -0.07088921 -0.036456883 -0.097897135 -0.026083447
000030 1b 31 50 be fd de 07 be d5 34 0e 3a e5 1a a3 bd
       -0.20331232 -0.13268657 0.00054247427 -0.07964114
000040 18 68 a4 3b 10 47 0e 3e fa ed 71 bd 47 03 b1 bc
       0.0050172918 0.13894296 -0.059064843 -0.021608008
000050 a6 af 2b 3d 5c 10 90 3d 0e 01 09 3d 93 ea 3d bd
       0.04191556 0.0703437 0.03344827 -0.046366286
000060 da 2c 20 3e 6c e8 5d bc c1 70 97 3b 24 49 f9 bd
       0.1564211 -0.013544183 0.0046215956 -0.121721536
000070 81 7c 8e 3e dd 8d a3 3e cf c9 53 3e 70 ae d6 3d
       0.27829364 0.3194417 0.20682453 0.1048249
000080 fd 03 a7 bc 4b 18 14 bd 70 f4 87 bd 2a 00 56 3d
       -0.020387644 -0.03615598 -0.0663842 0.05224625
000090 76 57 54 be 51 b4 14 bd d4 d5 10 bc 8a 48 53 be
       -0.20736489 -0.036304776 -0.008840043 -0.2063314
0000a0 da 3e 16 be 3c 25 5a 3d c1 43 67 be 84 98 74 be
       -0.14672413 0.053258166 -0.2258444 -0.23886305
0000b0 d1 f6 99 3d 01 2e 0c be a1 29 13 3d 7b c2 45 3c
       0.075177796 -0.13689424 0.035928372 0.012070294
0000c0 cc 2e bb bd 72 03 58 3c 1f 9e a1 bd 20 69 10 3d
       -0.09139785 0.013184415 -0.07891487 0.035256505
0000d0 ca 98 13 be 3f e3 aa 3d d4 9c 36 bd 3e f7 00 be
       -0.14413753 0.08344125 -0.044583157 -0.12594315
0000e0 9a 20 85 bd fa fe 6f be 11 bc 82 bd 84 2a 0b 3e
       -0.06500359 -0.2343711 -0.06383527 0.13590437
0000f0 ea d5 11 bd 1d 5b 97 bc d5 23 6d 3c 9c ac 42 bd
       -0.035604395 -0.018476063 0.014473875 -0.047527894
000100 5f 49 f7 3d 48 43 10 3e 86 c2 dd bd 73 8c a2 3d
       0.12074541 0.14088166 -0.10828118 0.07936945
000110 37 a6 0f 3e 61 82 ef bd ed 62 89 3d fb f3 21 3e
       0.1402825 -0.1169479 0.06708322 0.15815727
000120 a6 dd 9a bd 31 68 a2 bd 42 fb 48 be 6f 61 9d be
       -0.07561807 -0.07930029 -0.19627097 -0.30738398
000130 2d 85 49 be 36 c5 99 bd ec 7e 00 bf 56 29 c4 be
       -0.19679709 -0.07508318 -0.5019367 -0.38312787
000140 95 87 16 be a1 72 01 be 80 ac 59 bd 26 e0 79 3e
       -0.14700158 -0.12641384 -0.053143024 0.24401912
000150 ab d2 67 be 09 07 8d bb 13 77 e2 bd da 4c 4c be
       -0.22638957 -0.004303817 -0.11057868 -0.19951192
000160 92 4d 1c 3c e0 f1 f5 3d 1b 2f 3a 3e 07 11 af 3e
       0.009539979 0.120090246 0.18182032 0.34192678
000170 85 e7 f4 3d f4 49 18 3f 5e e9 fe 3e 69 2a cb 3d
       0.11958221 0.59487844 0.4978742 0.099201985
000180 5f 66 f8 3e 2b 67 dd 3d 2a de 3c 3e c2 96 12 bd
       0.48515603 0.10810693 0.18444124 -0.035788305
000190 85 84 87 3d d4 21 95 3d ea 8f 85 3c fb c9 d1 3d
       0.06617073 0.07281843 0.016303975 0.10243603
0001a0 df 6f 05 3e fa 84 81 3c 5c b7 fc 3d ba c3 2f 3e
       0.13030957 0.015810478 0.123396605 0.17164508
0001b0 f5 eb 09 be 43 86 d0 3c 2d 30 c1 3d 24 53 56 3d
       -0.13468917 0.025454646 0.09433017 0.052325383
0001c0 d9 97 c3 3d 23 c2 ba 3d e6 4a 01 bd 7d ff b3 bd
       0.09550447 0.0911906 -0.03156557 -0.08788965
0001d0 9e 81 1e be 44 31 de bd a9 33 1b b9 7c 12 53 be
       -0.15479133 -0.108492404 -0.00014801197 -0.2061252
0001e0 d5 3e 18 bd 48 83 ac bd 14 1a b2 bc 0f 78 ef bd
       -0.037169296 -0.084234774 -0.02174095 -0.11692821
0001f0 77 78 90 3d 2d 9c 75 3d 8d b4 99 be 36 7f 02 be
       0.07054227 0.059963394 -0.30020562 -0.1274384
000200 cd 1b 16 be 34 be 3e be 35 28 cb 3b 12 02 3d 3e
       -0.14659043 -0.18627244 0.0061998614 0.18457821
000210 8f 08 1c be 58 1b 73 bd fa 46 c3 3d 27 ae 0d 3e
       -0.1523764 -0.05935225 0.09535022 0.13835965
000220 98 c5 a1 bb 91 a4 00 3d b3 b7 d5 bd 19 4d 40 3e
       -0.004936885 0.031406943 -0.104354285 0.1877941
000230 ed 93 4c bc 53 b1 07 3d 28 8d 0b 3e 04 97 0d 3e
       -0.01248644 0.033128094 0.13628066 0.13827139
000240 ec 9d 8d bc 52 d8 01 3d 34 58 72 bb 0a 5f fa bb
       -0.017287217 0.03170044 -0.0036978843 -0.007640724
000250 4f 77 24 bd 68 28 0d bd 66 b2 48 bd 61 59 92 bd
       -0.040152844 -0.034462363 -0.04899826 -0.07145954
000260 76 77 bd bd 1d 6d 57 3e 10 c2 20 3e cd ef 6e 3d
       -0.09251301 0.21037717 0.15699029 0.05833416
000270 6c aa 41 3e f3 f5 d3 3d 6f af 85 3b 27 a8 71 3d
       0.18912667 0.103496455 0.004079751 0.058998253
000280 53 e3 86 bd d9 16 28 be 36 de 15 3e e0 af 78 3c
       -0.065863274 -0.16414966 0.14635548 0.015178651
000290 53 9b 3e bd 60 40 cd 3b bb 53 52 3d 48 23 56 3c
       -0.046534847 0.0062637776 0.051349383 0.013069935
0002a0 57 c2 b8 3c 3a d1 91 3c ca 52 1f bd 49 db 15 bd
       0.022553606 0.017799962 -0.038897313 -0.03658608
0002b0 91 6e bd bc 91 a3 50 bd 7e ab 94 bd 3b 46 0a bc
       -0.023124011 -0.05093724 -0.07259272 -0.008439596
0002c0 07 a5 4c bc 8a 7e 51 bc 92 c3 29 bd f6 cb 6b bd
       -0.012490517 -0.012786517 -0.041446276 -0.05756756
0002d0 74 f8 53 bd 0c 9c fc 3c 5e 42 19 3e ce a1 88 bd
       -0.051750615 0.030836128 0.14966723 -0.06671487
0002e0 8a 33 0d bd e4 0e 2b 3e b1 16 23 3d 8c 68 ca 3b
       -0.03447298 0.16704899 0.039816562 0.0061770137
0002f0 b9 dd 23 bd 92 ff 52 bc 92 7e f5 bc 01 d9 64 bd
       -0.040006373 -0.0128783155 -0.02996758 -0.055871014
000300 6e 45 09 3d 14 5d f8 3c 08 fe 1f bc 80 ca 44 3d
       0.03351348 0.03031782 -0.009765156 0.04804468
000310 84 6c 41 bb bc 8a 0e bd 73 56 b2 3c cc 5b 9e 3d
       -0.0029514143 -0.034800276 0.021769738 0.077323526
000320 e3 f3 9a 3d 49 76 41 bb 5c 71 81 3d 2c 70 b9 3c
       0.07566049 -0.0029519966 0.0632045 0.022636496
000330 9a 08 05 be 6e c0 87 bc 3c e5 10 bc 66 ca aa 3d
       -0.12991562 -0.01657125 -0.008843716 0.08339386
000340 86 72 34 3d f0 63 83 bc 5c 04 2d 3d 7f fb b0 3c
       0.04405453 -0.016038865 0.042240486 0.021604298
000350 63 f0 c0 bd 62 2f 6f bd 10 25 9f bd d0 e0 35 be
       -0.0942085 -0.058394797 -0.07770741 -0.1776154
000360 9d 5e 14 3e 70 14 2a 3d 90 70 42 3d 7b dd 29 3c
       0.14489217 0.041523397 0.04747063 0.010367746
000370 af 72 fb 3c 28 e0 d0 bc ea ee 5c be 44 ff 80 be
       0.030694334 -0.025497511 -0.21575513 -0.25194752
000380 c7 ee 77 be 78 89 ce bc 65 c5 99 bc 1e 91 44 bd
       -0.2421218 -0.025212035 -0.018770883 -0.047989957
000390 67 82 c6 bd 42 51 ed bd 3c e8 16 be 91 f7 14 3d
       -0.09692841 -0.11587764 -0.14737028 0.03636891
0003a0 bb eb 8a bd d4 7a 36 be 39 4b f5 3c 01 10 20 bd
       -0.06783243 -0.17820293 0.029943096 -0.039077763
0003b0 29 0a 75 bd 97 99 e6 bb 4f 66 c7 3d 47 24 05 bd
       -0.059824143 -0.0070373523 0.09736311 -0.0325053
0003c0 c4 9a db bc 94 31 39 bd 01 30 d2 3d 90 dd 22 3d
       -0.026807196 -0.045213297 0.10263062 0.03976208
0003d0 cc 1a e3 3d 0a 9c 83 3d 72 c7 b5 3d d3 99 de 3d
       0.110890955 0.064262465 0.08875932 0.108691834
0003e0 05 37 77 3d 53 ef 3d 3d 31 0e 8b 3d 94 09 c1 3c
       0.060355205 0.046370815 0.06789816 0.023564138
0003f0 eb d4 ad bd 4e a7 e2 3c 20 35 3a bd fb de ce bd
       -0.084878765 0.027667668 -0.04546082 -0.10101124

layer1.1.conv2.bias f4 [16]
000000 4f 44 d5 3b 8f cd be ba c8 dc 08 3b 9d 76 91 3b
       0.006508387 -0.0014557111 0.002088355 0.0044391886
000010 df ae b6 bb 95 48 6f bb 98 e4 13 bc 37 1a 11 bb
       -0.0055750455 -0.0036511768 -0.009026669 -0.002214087
000020 b4 4f ea ba 7b 04 09 3c 0d 62 44 3b da 9a b8 3a
       -0.0017876537 0.008362885 0.002996567 0.0014084235
000030 b2 89 4e bb b9 d2 2d bb 06 db 3e 39 11 56 e8 3b
       -0.0031515178 -0.0026523306 0.00018201405 0.007090338

layer1.1.bn2.weight f4 [16]
000000 97 1e 70 3f 0c 8c 76 3e ea 07 1c 3f fd 14 a5 3f
       0.93796676 0.24076861 0.60949576 1.289703
000010 e7 8d 12 3f 8b 92 10 3f ef 84 64 3f 3e 8d 5f 3f
       0.57247776 0.56473607 0.8926534 0.87324893
000020 39 c6 82 3f 1f e2 09 3f 77 ee a3 3e 90 5d 87 3f
       1.0216743 0.5386066 0.32017872 1.0575428
000030 ea ee 12 3f b1 57 16 3f 51 10 e3 3e ce 79 1c 3f
       0.57395804 0.58727556 0.44348386 0.6112336

layer1.1.bn2.bias f4 [16]
000000 26 ce 48 bf 4c 8c e2 bd ca 0d 10 3e 6b 15 0a 3e
       -0.7843956 -0.11061916 0.1406776 0.13484733
000010 8e e0 2a 3e 66 58 df 3d e7 29 39 bf d2 aa 67 be
       0.16687223 0.109055325 -0.7232956 -0.22623757
000020 32 05 0b be a7 36 a2 3d f3 b4 a0 3d 61 f1 04 bf
       -0.135762 0.0792058 0.07847013 -0.51930815
000030 de bf 03 3e 68 fe cf 3d 17 69 a9 3d cd 7c 09 3d
       0.1286616 0.10155946 0.082719974 0.033566285

layer1.1.bn2.running_mean f4 [16]
000000 5e 9a 51 3e 60 76 9a 3d fe 40 25 3f c2 ae dd bf
       0.20469043 0.075421095 0.64552295 -1.7318957
000010 fe ea 23 bd b4 bd 21 3d 16 45 af be e2 27 85 bd
       -0.040019028 0.039487556 -0.34232396 -0.06501748
000020 51 23 8c bf 6b bc 86 bf a3 f5 0c be 52 32 01 bf
       -1.0948278 -1.0526251 -0.13765578 -0.5046741
000030 6a e8 3b bf f2 1f 1a bf 9a 12 48 be 41 05 b0 bf
       -0.7340151 -0.60204995 -0.19538346 -1.3751603

layer1.1.bn2.running_var f4 [16]
000000 16 4d 1e 3f e3 c8 d6 3e 98 a3 60 3f db 15 06 40
       0.61836374 0.4195014 0.87749624 2.095084
000010 c0 07 6f 3f 73 10 46 3f 68 55 9e 3f b5 dc 46 3f
       0.933712 0.7736885 1.2369814 0.7768052
000020 93 88 93 3f b1 7c 38 3f bf 1f ac 3e b6 30 c3 3f
       1.1526054 0.72065264 0.3361797 1.524924
000030 f3 2f b7 3f 8c 4b 80 3f d3 5c 2b 3f e3 f0 4d 3f
       1.4311508 1.0023055 0.66938514 0.8044569
