Output/swift-iid-8W-linear-shark-ring-2sgd-100epochs/r0-epoch_44-parameters.pt (torch, 731450 bytes, 92 tensors)

conv1.weight f4 [16, 3, 3, 3]
0.5514452 0.15133767 0.46878046 -0.2850867 1.2667321 -0.74881995 -0.2665912 -0.7023038
-0.58515865 0.034574233 -0.18119183 -0.028708037 -0.30358115 1.636535 -0.68865126 -0.08359933
-0.10798138 -0.13066746 -0.3464516 -0.80573684 -0.08959472 -0.2216534 1.2395202 -0.1792418
0.024238143 0.28216732 0.15316394 -0.043957993 -0.13522294 0.22528256 -0.15271866 -0.60573566
-0.051894363 0.12089047 -0.18772942 0.09492017 -0.04684975 -0.22396824 0.16346283 -0.34620655
-0.6847403 -0.1562742 -0.0763727 -0.30225745 -0.015953476 0.27658835 0.1340513 0.29011956
0.05214656 -0.19820316 -0.017396975 0.11494837 -0.0366129 0.036972374 -0.08921804 0.010621048
-0.06835459 -0.09793194 -0.028585993 -0.09926221 -0.07775624 -0.1808995 -0.09972854 -0.254337
0.1029705 -0.15022291 -0.017853213 0.2773433 0.04798027 -0.17329197 -0.021443106 -0.08828089
-0.120873064 0.31778964 -0.11114882 0.3650536 0.80562985 0.5389922 0.13151255 0.39305577
0.21887112 0.37604356 -0.26752123 0.0031304392 0.03235229 -0.9252945 -0.33540496 -0.12107401
-0.25224918 -0.078747496 0.13150083 -0.27452597 0.18984812 0.0617525 -0.6493419 0.05698544
0.28308165 0.31614548 0.46022692 -0.06334367 -0.28541705 -0.07857703 -0.0077518304 -0.5399474
-0.10102174 0.16241002 0.094661824 0.20326635 0.0091250595 -0.18503155 -0.22549011 0.09510294
-0.07746268 -0.078258045 0.2436706 0.18234728 0.0148762185 0.07810879 -0.20662218 -0.30350307
0.17565647 0.024086537 -0.059103377 0.392386 0.23977816 0.048991386 -0.103094496 -0.15596682
-0.2133397 -0.16009091 -0.32543996 -0.33900937 -0.09748387 -0.29465023 -0.4097142 -0.24996553
-0.03619189 0.030683247 1.1588174 0.3274945 -0.77889186 0.44299406 0.13319033 -0.18500696
0.4003318 -0.28190598 -0.45456895 1.3778921 -0.31517017 -1.5593101 0.4533099 -0.2672251
-0.5468003 0.46560055 0.103995815 -0.05592728 1.1576104 -0.027203193 -1.039617 0.46820053
-0.12469933 -0.36299583 0.74331546 0.9625412 0.59632826 0.15465389 -0.49204016 -0.24860322
-0.10457692 -0.9507433 -0.46068144 0.4836933 0.810344 0.55477345 0.01779905 -0.5366006
-0.15452942 -0.043642517 -0.676958 -0.11906205 0.11795366 0.42114994 0.23573865 -0.102729395
-0.54030985 -0.19940287 -0.0038690602 -0.4669427 0.16990481 0.14197795 0.26324308 0.0567486
0.57342213 0.7593202 0.526096 -0.4365791 -0.83476657 -0.60255873 0.24923746 0.41275784
0.3774086 0.2730506 0.4202811 0.4277943 -0.69553983 -0.9917536 -0.5535684 0.13309287
0.04396275 0.072743885 0.32489273 0.45503616 0.31995314 -0.44718474 -0.5754077 -0.39481065
-0.047594715 0.008614672 -0.17179847 0.31672108 0.71723133 0.38582236 0.31884715 0.66963965
0.28733435 -0.18646552 -0.13843442 -0.38135406 -0.08461287 0.13299328 -0.117527135 -0.15655774
0.052449267 -0.022814948 0.3575105 0.43821988 0.10324448 0.07633509 0.029291527 -0.13087043
-0.198592 -0.2667494 -0.27483824 -0.08859711 -0.35192722 0.011937236 -0.4625345 -0.7867541
-0.6643602 -0.34561878 -0.8166124 -0.5504329 0.014854204 0.05282894 0.16385603 0.11257548
00000000: 832b 0d3f 43f8 1a3e fe03 f03e e2f6 91be
00000010: 4724 a23f aab2 3fbf a47e 88be 2fca 33bf
00000020: f5cc 15bf b69d 0d3d 5a8a 39be 1e2d ebbc
00000030: fd6e 9bbe fb79 d13f 734b 30bf 2036 abbd
00000040: 5725 ddbd b1cd 05be 1b62 b1be c544 4ebf
00000050: 707d b7bd 1cf9 62be 99a8 9e3f 2a8b 37be
00000060: 128f c63c 3c78 903e 02d7 1c3e 4c0d 34bd
00000070: e277 0abe 79b0 663e 4862 1cbe 7e11 1bbf
00000080: 2f8f 54bd 6c95 f73d 243c 40be 8265 c23d
00000090: 86e5 3fbd ee57 65be cd62 273e fc41 b1be
000000a0: 244b 2fbf 5806 20be 4a69 9cbd 7dc1 9abe
000000b0: ddb0 82bc fd9c 8d3e be44 093e 8d8a 943e
000000c0: a297 553d c5f5 4abe 1a84 8ebc 0d6a eb3d
000000d0: 69f7 15bd 5870 173d f3b7 b6bd e703 2e3c
000000e0: 7efd 8bbd 8a90 c8bd 2c2d eabc fc49 cbbd
000000f0: aa3e 9fbd b83d 39be 7a3e ccbd 7638 82be
00000100: 33e2 d23d 09d4 19be e740 92bc f1ff 8d3e
00000110: f686 443d 7373 31be 74a9 afbc 9ccc b4bd
00000120: 4c8c f7bd 53b5 a23e fea1 e3bd 4ee8 ba3e
00000130: c23d 4e3f 65fb 093f 3aab 063e 9b3e c93e
00000140: c01f 603e c888 c03e 8bf8 88be 0e28 4d3b
00000150: d683 043d 1ae0 6cbf 33ba abbe a7f5 f7bd
00000160: ce26 81be 5e46 a1bd 27a8 063e ab8e 8cbe
00000170: 8c67 423e 30f0 7c3d 453b 26bf 9169 693d
00000180: 14f0 903e d2dd a13e dda2 eb3e 53ba 81bd
00000190: 2f22 92be feec a0bd 1103 febb fe39 0abf
000001a0: 7ce4 cebd d04e 263e 0fde c13d 0e25 503e
000001b0: 4681 153c e978 3dbe e1e6 66be 55c5 c23d
000001c0: c1a4 9ebd c145 a0bd c984 793e 3fb9 3a3e
000001d0: 62bb 733c 80f7 9f3d c494 53be c164 9bbe
000001e0: 4adf 333e 2151 c53c 6216 72bd d1e6 c83e
000001f0: 6888 753e 31ab 483d 3523 d3bd c4b5 1fbe
00000200: b975 5abe dfee 23be 11a0 a6be a392 adbe
00000210: a0a5 c7bd 65dc 96be 0fc6 d1be f7f6 7fbe
00000220: f23d 14bd 6f5b fb3c 2154 943f 5cad a73e
00000230: 7565 47bf 1ed0 e23e 0c63 083e 7772 3dbe
00000240: 4af8 cc3e fb55 90be 43bd e8be c55e b03f
00000250: fc5d a1be 7997 c7bf 3c18 e83e bad1 88be
00000260: 1bfb 0bbf 3263 ee3e c2fb d43d 0114 65bd
00000270: 942c 943f 3bd9 debc 2b12 85bf fbb7 ef3e
00000280: 5d62 ffbd 97da b9be ec49 3e3f 1a69 763f
00000290: f8a8 183f 975d 1e3e b0ec fbbe d891 7ebe
000002a0: 6d2c d6bd ea63 73bf 70de ebbe a6a6 f73e
000002b0: b472 4f3f a205 0e3f 50cf 913c a85e 09bf
000002c0: f63c 1ebe 7fc2 32bd 1f4d 2dbf ced6 f3bd
000002d0: b091 f13d f7a0 d73e 7965 713e ca63 d2bd
000002e0: bf51 0abf 4430 4cbe 0f90 7dbb 1d13 efbe
000002f0: 87fb 2d3e ab62 113e ccc7 863e 3871 683d
00000300: cbcb 123f cf62 423f 3aae 063f 4c87 dfbe
00000310: 43b3 55bf 4a41 1abf 1b38 7f3e ff54 d33e
00000320: b33b c13e 4acd 8b3e 162f d73e db07 db3e
00000330: e60e 32bf 90e3 7dbf a9b6 0dbf 7f49 083e
00000340: 4912 343d bffa 943d 5758 a63e 80fa e83e
00000350: e6d0 a33e 66f5 e4be eb4d 13bf 9f24 cabe
00000360: adf2 42bd 8e24 0d3c f0eb 2fbe 4429 a23e
00000370: 799c 373f 828a c53e ef3f a33e 816d 2b3f
00000380: 7d1d 933e d1f0 3ebe c1c1 0dbe d740 c3be
00000390: 8349 adbd 642f 083e 11b2 f0bd ac50 20be
000003a0: 0bd5 563d 6ae6 babc 9e0b b73e 5b5e e03e
000003b0: d871 d33d 9255 9c3d c9f4 ef3c e602 06be
000003c0: b45b 4bbe 6193 88be 99b7 8cbe 6772 b5bd
000003d0: ce2f b4be 6694 433c 52d1 ecbe b768 49bf
000003e0: 8313 2abf f2f4 b0be 830d 51bf 2ce9 0cbf
000003f0: 0c5f 733c 2963 583d e0c9 273e f98d e63d

conv1.bias f4 [16]
-0.02370849 -0.015039834 -0.016751945 0.031090235 0.0286882 -0.033292558 -0.0015992558 0.007980205
-0.025375096 -0.03367151 -0.00939893 -0.015394366 -0.012599628 0.025215233 0.006466599 -0.023059634
00000000: 4f38 c2bc a369 76bc 603b 89bc f3b0 fe3c
00000010: 8403 eb3c c75d 08bd 1f9e d1ba 68bf 023c
00000020: 6fdf cfbc 23eb 09bd f8fd 19bc a738 7cbc
00000030: ac6e 4ebc 2d90 ce3c c4e5 d33b 8fe7 bcbc

bn1.weight f4 [16]
0.9628963 1.1767963 0.6598743 1.1694275 0.6593821 1.021403 1.1218677 0.87387043
0.8680275 0.62924206 0.8668648 0.70355433 0.7057844 0.7546601 0.92370534 0.7193431
00000000: 5f80 763f 43a1 963f 86ed 283f cdaf 953f
00000010: 44cd 283f 55bd 823f 5c99 8f3f f9b5 5f3f
00000020: 0d37 5e3f 0216 213f daea 5d3f 231c 343f
00000030: 49ae 343f 6831 413f f477 6c3f df26 383f

bn1.bias f4 [16]
1.2606238 -0.52125704 0.025983067 -0.22477904 -0.18986666 0.60929734 0.1382338 0.7970275
-0.067090504 0.49510002 -0.035118967 0.4741207 0.25599355 0.46199045 0.08674727 0.49930668
00000000: 1f5c a13f 1a71 05bf 71da d43c 7a2c 66be
00000010: 686c 42be e9fa 1b3f 298d 0d3e ff09 4c3f
00000020: bf66 89bd c07d fd3e e8d8 0fbd f3bf f23e
00000030: 9611 833e 038a ec3e 8da8 b13d 20a5 ff3e

bn1.running_mean f4 [16]
-0.1399964 0.73304945 -0.008506398 0.8168036 0.18361126 -0.14140464 0.032584913 -0.27867988
-1.1032773 1.4619375 0.014499392 -0.012697946 -0.87554127 -0.15154219 0.7274293 -0.31414098
00000000: 375b 0fbe 21a9 3b3f 6b5e 0bbc 0a1a 513f
00000010: 9704 3c3e 61cc 10be c277 053d 21af 8ebe
00000020: 3138 8dbf c520 bb3f dc8e 6d3c 0c0b 50bc
00000030: 7923 60bf e02d 1bbe ce38 3a3f 16d7 a0be

bn1.running_var f4 [16]
3.3239124 6.224889 8.596933 6.1797037 6.416666 21.637688 13.4433155 13.821326
7.0979576 19.622385 8.119527 7.897187 9.564594 4.909305 6.9765534 4.169815
00000000: fbba 5440 4a32 c740 0a8d 0941 22c0 c540
00000010: 5455 cd40 fc19 ad41 d217 5741 2724 5d41
00000020: 7822 e340 a5fa 9c41 95e9 0141 c2b5 fc40
00000030: 9408 1941 0719 9d40 ed3f df40 206f 8540

layer1.0.conv1.weight f4 [16, 16, 3, 3]
0.13692644 0.24618036 -0.07853239 -0.29871786 0.478226 -0.27332366 -0.22159095 -0.0011391694
-0.2651798 -0.06702446 0.10071968 0.036146507 -0.05898837 -0.016501393 0.020628339 -0.07307446
0.008975777 0.106550805 0.014494989 0.05447668 -0.091046706 0.013212678 0.06269226 -0.09532502
-0.09142574 -0.08081931 -0.09962464 -0.008336598 -0.002731891 -0.07408607 -0.09690381 -0.15169752
-0.2148994 0.012202541 0.0326253 0.029052725 -0.16655678 -0.18844897 -0.1257151 -0.060937647
-0.097823836 -0.13438842 -0.011981339 0.017018382 0.019966228 -0.42311513 -0.18448664 0.045354083
-0.36869794 -0.18313326 0.26379445 0.10334181 -0.10932834 0.013157324 0.0076407567 -0.23155315
-0.16625082 -0.124635026 -0.36090913 -0.14704163 -0.0040054275 -0.26877668 -0.041187003 0.08478998
-0.25705296 -0.055116028 0.28705445 0.16537356 0.19634855 0.42511886 0.08066027 0.10257034
-0.17054985 0.064396665 0.032223884 -0.020501638 0.20154828 0.15024295 -0.07016068 0.08234346
0.08706968 0.1586246 0.20084232 0.096554175 0.06833616 0.078090034 -0.08079296 0.016082982
-0.06566073 -0.13751355 0.033141397 0.160535 0.11035541 0.009566351 0.08102408 0.09599428
-0.0018636619 0.056877855 0.058340587 0.018659454 -0.31774494 -0.20618038 0.19151783 -0.23919941
-0.37752306 -0.0010798873 -0.2719424 -0.18114482 -0.04531502 -0.19494997 -0.07219227 0.12772633
0.10816435 0.030073792 0.11099667 0.1905401 0.09682284 0.009848088 0.5226745 -0.1698825
-0.07283241 0.36757568 -0.23272932 -0.29327333 -0.32667333 -0.4178504 0.0069709457 0.0524606
0.035881512 -0.091120794 -0.12348919 -0.107796095 0.03257526 -0.07011406 -0.021175245 0.1965758
-0.27221394 -0.15206029 0.25291047 -0.06320038 -0.30166852 -0.012409422 -0.33234996 -0.27533168
0.100164786 0.028065303 -0.036068004 -0.0026007728 -0.13901804 -0.15637657 0.12891108 -0.020901551
-0.04450203 0.12696388 0.17970964 0.04526671 0.25393906 0.31529686 0.19140181 -0.0061244383
0.08256136 -0.0773623 0.057691947 0.016734721 0.0021839275 0.059111554 0.022735495 0.03231304
0.1228601 0.09092144 0.0678082 0.0942502 0.16150163 0.06062228 0.4163311 0.40188968
0.30081558 0.036030296 0.039794456 -0.063397825 0.027346926 0.026988287 0.032750655 0.21239458
0.21340646 0.21408288 0.18969293 0.1846427 0.18024665 -0.09673278 -0.10290773 -0.085189104
-0.020902554 -0.0479757 -0.053275503 -0.009771597 -0.025414985 -0.12281122 0.07765991 0.06201692
-0.05014311 0.056220897 0.08816964 0.043108795 0.070585415 0.08314769 -0.008043834 -0.0027755513
-0.04867294 -0.09645554 -0.015973052 -0.029257655 -0.051126715 0.078457884 0.05900026 0.034566943
-0.07714293 -0.032892864 0.004351974 0.038139302 0.09088479 0.07374134 0.12103928 0.12068915
0.11699175 0.066376135 0.014982163 -0.019256545 0.01618871 -0.059518266 -0.08449542 0.07964275
0.02257962 -0.012342304 0.082384184 0.17196868 0.073864795 0.25064626 0.35416558 0.3098523
0.018147701 0.13125296 0.097815596 0.007777091 0.056252398 -0.04449418 0.016493147 0.13937537
0.021732122 0.021884298 0.091739506 -0.006331728 -0.17207561 -0.1501853 -0.10273077 -0.004979621
00000000: 7236 0c3e b416 7c3e 97d5 a0bd 8cf1 98be
00000010: 0ada f43e 14f1 8bbe bde8 62be 2f50 95ba
00000020: a6c5 87be 1f44 89bd 1f46 ce3d 5c0e 143d
00000030: ca9d 71bd ee2d 87bc c3fc a83c 10a8 95bd
00000040: 230f 133c 4f37 da3d 647c 6d3c f022 5f3d
00000050: b276 babd fd79 583c cd64 803d c439 c3bd
00000060: 6b3d bbbd 9884 a5bd 0108 ccbd 3a96 08bc
00000070: 8709 33bb 70ba 97bd 8175 c6bd 9856 1bbe
00000080: 970e 5cbe 2bed 473c 1ba2 053d fbff ed3c
00000090: dc8d 2abe c4f8 40be 76bb 00be c199 79bd
000000a0: dd57 c8bd 1e9d 09be 614d 44bc 226a 8b3c
000000b0: 3790 a33c 8ca2 d8be 11ea 3cbe 34c5 393d
000000c0: fac5 bcbe 4987 3bbe 1110 873e dfa4 d33d
000000d0: 89e7 dfbd d191 573c 505f fa3b 451c 6dbe
000000e0: a83d 2abe a640 ffbd 15c9 b8be 1592 16be
000000f0: f63f 83bb 199d 89be b4b3 28bd 5ea6 ad3d
00000100: 729c 83be 58c1 61bd cdf8 923e b057 293e
00000110: 980f 493e 2ea9 d93e 3631 a53d 6610 d23d
00000120: 9fa4 2ebe 66e2 833d 31fd 033d 0df3 a7bc
00000130: ac62 4e3e 4ad9 193e 67b0 8fbd b0a3 a83d
00000140: 9751 b23d 7d6e 223e 9ca9 4d3e 32be c53d
00000150: d4f3 8b3d abed 9f3d c876 a5bd 75c0 833c
00000160: 2279 86bd 5ad0 0cbe 46bf 073d 4963 243e
00000170: 0402 e23d 2fbc 1c3c f4ef a53d a698 c43d
00000180: 1e46 f4ba c1f8 683d 8af6 6e3d b6db 983c
00000190: 77af a2be f320 53be 401d 443e b1f0 74be
000001a0: b44a c1be 018b 8dba 093c 8bbe 077e 39be
000001b0: 3e9c 39bd f7a0 47be 8ad9 93bd b1ca 023e
000001c0: 4585 dd3d 505d f63c 3952 e33d f21c 433e
000001d0: 0e4b c63d e059 213c ffcd 053f aef5 2dbe
000001e0: 2929 95bd e132 bc3e 9850 6ebe ec27 96be
000001f0: ba41 a7be 7df0 d5be 886c e43b ede0 563d
00000200: 7ef8 123d 8a9d babd e7e7 fcbd 33c4 dcbd
00000210: a36d 053d f697 8fbd b577 adbc 2b4b 493e
00000220: a05f 8bbe b1b5 1bbe 7b7d 813e 336f 81bd
00000230: 4c74 9abe e350 4bbc c629 aabe 46f8 8cbe
00000240: 3223 cd3d 35e9 e53c 0bbc 13bd ba71 2abb
00000250: bf5a 0ebe 2e21 20be 4401 043e bb39 abbc
00000260: c347 36bd d202 023e ce05 383e 9669 393d
00000270: 4d04 823e 976e a13e d6fe 433e 83af c8bb
00000280: ee15 a93d 2070 9ebd 644e 6c3d 4117 893c
00000290: 3920 0f3b f51e 723d ca3f ba3c ae5a 043d
000002a0: 139e fb3d 0535 ba3d 07df 8a3d 4006 c13d
000002b0: af60 253e 114f 783d 5a29 d53e 7cc4 cd3e
000002c0: 8004 9a3e 8194 133d 83ff 223d b8d6 81bd
000002d0: a906 e03c 8a16 dd3c 8d25 063d f77d 593e
000002e0: 3987 5a3e 8b38 5b3e dd3e 423e fa12 3d3e
000002f0: 9492 383e d61b c6bd 4ac1 d2bd a077 aebd
00000300: d53b abbc 2b82 44bd 6a37 5abd 0c19 20bc
00000310: 1633 d0bc 7384 fbbd 290c 9f3d 7405 7e3d
00000320: dd62 4dbd e247 663d 4992 b43d d992 303d
00000330: 168f 903d 5649 aa3d 49ca 03bc 06e6 35bb
00000340: 475d 47bd 7b8a c5bd ebd9 82bc c0ad efbc
00000350: 3f6a 51bd 87ae a03d 42aa 713d 1196 0d3d
00000360: 1dfd 9dbd abba 06bd 019b 8e3b f537 1c3d
00000370: ce21 ba3d b305 973d 71e3 f73d e02b f73d
00000380: 5f99 ef3d 36f0 873d bf77 753c e7bf 9dbc
00000390: 309e 843c 6dc9 73bd ef0b adbd bd1b a33d
000003a0: e5f8 b83c 6037 4abc 0ab9 a83d 8f18 303e
000003b0: 6d46 973d b554 803e 3155 b53e f6a4 9e3e
000003c0: 7daa 943c 2d67 063e 8b53 c83d f8d6 fe3b
000003d0: ea68 663d 873f 36bd a31c 873c 6bb8 0e3e
000003e0: 9007 b23c b346 b33c ece1 bb3d 627a cfbb
000003f0: 9734 30be 2dca 19be 8364 d2bd 172c a3bb

layer1.0.conv1.bias f4 [16]
0.0021536264 -0.009876895 -0.0041279346 0.0024068395 -0.012412855 -0.010968549 0.0018927075 -0.0041180397
0.005556404 -0.0039244294 0.0067543425 0.0026171631 -0.014338383 0.0029106776 0.01108898 -0.0062833377
00000000: db23 0d3b b3d2 21bc a043 87bb 11bc 1d3b
00000010: 4a5f 4bbc 6eb5 33bc ba14 f83a 9ff0 86bb
00000020: 7f12 b63b 8098 80bb 8853 dd3b b684 2b3b
00000030: 8aeb 6abc 11c1 3e3b 8eae 353c 75e4 cdbb

layer1.0.bn1.weight f4 [16]
0.8936454 0.97757673 0.93013287 0.7887028 0.9589346 0.6127246 0.5353211 1.0485917
0.6483806 0.7893269 0.8217546 0.7023684 1.0067986 0.8215643 0.5920604 0.63547677
00000000: f2c5 643f 7842 7a3f 301d 6e3f 6de8 493f
00000010: bd7c 753f 85db 1c3f ce0a 093f 4138 863f
00000020: 45fc 253f 5411 4a3f 825e 523f 6ace 333f
00000030: c7de 803f 0a52 523f 4591 173f 9bae 223f

layer1.0.bn1.bias f4 [16]
0.4731861 -0.39437905 -0.54540163 0.29418424 -0.26561385 -0.117742084 0.07376929 1.1255734
-0.31116048 -0.5452533 -0.04016446 0.27571112 0.61722106 0.11996774 -0.085400164 -0.40298313
00000000: 7345 f23e 0dec c9be 719f 0bbf 519f 963e
00000010: 8afe 87be c322 f1bd 5a14 973d ca12 903f
00000020: 6d50 9fbe b895 0bbf 7d83 24bd 022a 8d3e
00000030: 3302 1e3f a5b1 f53d 48e6 aebd ce53 cebe

layer1.0.bn1.running_mean f4 [16]
-2.1721926 2.0981555 0.010509515 -1.1000078 -0.022908406 -2.9109247 2.0535607 -1.4719442
-2.587454 -2.1376765 -3.9343932 -1.7187735 -2.7708187 -1.5284549 -0.56756043 0.5157051
00000000: 3405 0bc0 2e48 0640 1a30 2c3c 0ecd 8cbf
00000010: 69aa bbbc 974c 3ac0 8a6d 0340 ab68 bcbf
00000020: d998 25c0 b1cf 08c0 19cd 7bc0 c500 dcbf
00000030: 1855 31c0 69a4 c3bf a44b 11bf 4005 043f

layer1.0.bn1.running_var f4 [16]
4.469157 3.8278663 2.452094 3.997166 5.6971016 2.1922143 3.4271047 2.419374
2.7041628 1.7484589 6.980359 2.7966673 6.2503657 3.556057 1.2887713 1.566244
00000000: 5603 8f40 c3fb 7440 1cef 1c40 91d1 7f40
00000010: a84e b640 3d4d 0c40 af55 5b40 06d7 1a40
00000020: 0111 2d40 80cd df3f 1a5f df40 99fc 3240
00000030: ff02 c840 7096 6340 75f6 a43f af7a c83f

layer1.0.conv2.weight f4 [16, 16, 3, 3]
-0.10190804 -0.100443676 -0.039413735 -0.15186939 0.13320577 0.011071267 -0.13558877 -0.1350751
0.12657622 0.04662676 -0.079051755 -0.21328339 0.22503823 0.09782391 0.022269592 0.037738964
0.00534714 -0.11234488 -0.13549794 0.0050613172 -0.12194532 -0.119398214 -0.043902013 0.05465087
-0.29461077 -0.0711424 -0.09185224 0.22419815 0.15697816 0.1769695 0.03769645 0.029862314
-0.0256328 0.023196716 -0.03237128 -0.16169472 -0.17509635 -0.21042888 -0.0074542733 -0.0445965
-0.102404684 -0.051325027 -0.13486306 0.10545227 0.016214376 -0.041973516 0.15177001 0.10711161
-0.016745167 0.034214955 0.038869236 0.12913805 -0.0071116476 -0.06978132 -0.01826157 -0.014803854
-0.09575343 -0.09731216 -0.08456311 -0.05313056 0.12111784 0.031848423 0.21333 -0.18804483
-0.5358499 0.49881518 -0.3454195 0.7271981 0.0068055214 -0.031823456 -0.58774465 -0.018397246
0.063629255 -0.031423148 -0.12528236 0.03465308 -0.089948826 -0.010449874 0.032664068 -0.044545546
-0.031134803 -0.18415567 0.06769912 0.0076846294 -0.178878 0.12520376 0.053227287 -0.11848954
0.06446511 0.17429653 0.0682357 0.045963455 -0.008592046 0.046760727 0.029984087 -0.07052437
0.1380542 -0.016016392 0.0152862435 -0.102505386 -0.20950122 -0.005456445 0.14830032 0.19151829
0.051478833 -0.08329398 -0.21579649 -0.20426485 0.13244793 0.18785936 0.05561962 -0.06353855
-0.20400417 0.07316517 -0.0019063547 0.14531146 0.16424073 0.10337783 0.060471848 0.17950067
-0.13561611 0.082203485 0.22299133 0.19289368 0.4693219 0.15890417 0.11884152 0.20923722
0.08669467 0.023772793 0.076793246 -0.14036423 -0.084683076 -0.116918676 -0.18297155 -0.09216797
-0.22197944 -0.11382956 0.011214096 -0.04684629 0.0069713537 -0.0787871 -0.24286547 -0.13591781
0.025353096 0.13174528 0.04203989 -0.012248999 0.14294624 0.09112332 -0.11658361 -0.00928817
-0.04754113 -0.42459258 -0.2521262 -0.21834356 0.08171646 0.14479096 0.20286968 -0.0035199707
0.15877108 0.27558976 -0.12254783 -0.18381986 -0.20479286 -0.10549206 -0.054369763 0.039373644
-0.32235682 -0.26452175 -0.12028325 -0.086671904 -0.0637908 0.044875193 -0.11869659 -0.1685699
-0.001146919 -0.26958853 -0.31917325 -0.19574037 -0.16900817 -0.036762662 -0.07717107 0.10164176
0.21033865 0.16843863 0.11211663 0.24265274 0.13668923 0.07438607 -0.025946658 -0.058571026
-0.104300775 -0.13662466 -0.10504939 -0.07215364 -0.09157545 -0.07338138 -0.16618417 -0.036044337
0.07019651 -0.10118837 0.023304293 0.10878277 -0.11589833 -0.059614073 -0.0015574232 -0.00046196414
0.041905317 0.01255445 0.04268639 -0.013444255 0.007144691 0.078245156 0.057660993 -0.02224105
0.1754293 0.1866678 0.23592217 -0.0025851917 0.01632447 0.033682104 -0.07201774 -0.07212762
-0.06501293 0.0045493445 -0.045634855 -0.114052325 0.01052202 -0.042039413 -0.08387816 0.06405717
-0.050875098 -0.09230167 0.14215037 0.06540079 0.052582946 0.25355378 0.18805698 0.1570451
0.19678567 0.15727253 0.16926847 -0.25609866 -0.13735284 0.032317717 -0.29499677 -0.044004682
0.09141125 -0.29258823 -0.19801669 0.039798297 0.04138862 0.046932008 -0.046988185 0.09366119
00000000: 2ab5 d0bd 6ab5 cdbd 4c70 21bd a683 1bbe
00000010: 1867 083e 4264 353c c8d7 0abe 2151 0abe
00000020: 329d 013e b4fb 3e3d e3e5 a1bd f666 5abe
00000030: 6c70 663e e757 c83d b86e b63c 2c94 1a3d
00000040: 1037 af3b 1315 e6bd f9bf 0abe 68d9 a53b
00000050: 78be f9bd 0d87 f4bd 99d2 33bd 97d9 5f3d
00000060: 39d7 96be 1bb3 91bd 071d bcbd 3394 653e
00000070: e2be 203e 7e37 353e 9867 1a3d d0a1 f43c
00000080: e1fb d1bc 0a07 be3c bf97 04bd 4d93 25be
00000090: 754c 33be ab7a 57be fa42 f4bb d2aa 36bd
000000a0: 8cb9 d1bd 313a 52bd 8b19 0abe 5cf7 d73d
000000b0: 03d4 843c 6cec 2bbd 9969 1b3e 555d db3d
000000c0: 292d 89bc fb24 0c3d 5935 1f3d c43c 043e
000000d0: d308 e9bb 82e9 8ebd 4a99 95bc dd8b 72bc
000000e0: 601a c4bd 994b c7bd 6c2f adbd 6e9f 59bd
000000f0: a10c f83d 7e73 023d 2e73 5a3e d38e 40be
00000100: 762d 09bf b464 ff3e d3da b0be a829 3a3f
00000110: da00 df3b 5059 02bd 6f76 16bf d2b5 96bc
00000120: 0e50 823d 8fb5 00bd 054a 00be 63f0 0d3d
00000130: 1737 b8bd f335 2bbc c2ca 053d 6475 36bd
00000140: 6a0e ffbc 4e93 3cbe d6a5 8a3d 58cf fb3b
00000150: cb2b 37be 6a35 003e db04 5a3d a5aa f2bd
00000160: 4906 843d ca7a 323e 29bf 8b3d 2d44 3c3d
00000170: a7c5 0cbc 2d88 3f3d 30a1 f53c 156f 90bd
00000180: 155e 0d3e cf34 83bc 2773 7a3c 58ee d1bd
00000190: 7d87 56be facb b2bb 0adc 173e 5f1d 443e
000001a0: 78db 523d 0996 aabd c1f9 5cbe ce2a 51be
000001b0: 6ea0 073e 345e 403e 66d1 633d 8020 82bd
000001c0: 78e6 50be 9fd7 953d a6de f9ba 87cc 143e
000001d0: b92e 283e c1b7 d33d 54b1 773d 06cf 373e
000001e0: f3de 0abe 4d5a a83d d757 643e ec85 453e
000001f0: f64a f03e c6b7 223e 2f63 f33d 4842 563e
00000200: fa8c b13d 29bf c23c c745 9d3d a4bb 0fbe
00000210: 526e adbd 0f73 efbd e55c 3bbe 90c2 bcbd
00000220: 944e 63be 791f e9bd 54bb 373c e5e1 3fbd
00000230: f46f e43b 225b a1bd bab1 78be 0a2e 0bbe
00000240: 4cb1 cf3c 3ce8 063e 0532 2c3d 07b0 48bc
00000250: 8060 123e dd9e ba3d 63c3 eebd 692d 18bc
00000260: 7dba 42bd 3364 d9be af16 81be 7495 5fbe
00000270: f65a a73d 1544 143e 12bd 4f3e 4faf 66bb
00000280: e394 223e 1a1a 8d3e 5bfa fabd 463b 3cbe
00000290: 38b5 51be 390c d8bd d4b2 5ebd 4246 213d
000002a0: f40b a5be 656f 87be 1157 f6bd 0a81 b1bd
000002b0: c0a4 82bd 0dcf 373d 3317 f3bd 969d 2cbe
000002c0: 3754 96ba 8207 8abe ad6a a3be 2a70 48be
000002d0: 7a10 2dbe 7294 16bd de0b 9ebd 8e29 d03d
000002e0: 0463 573e 2d7b 2c3e 679d e53d f679 783e
000002f0: 43f8 0b3e b957 983d 168e d4bc 2ce8 6fbd
00000300: a59b d5bd 56e7 0bbe 2224 d7bd 4ac5 93bd
00000310: e98b bbbd fa48 96bd 2f2c 2abe 3aa3 13bd
00000320: 30c3 8f3d d93b cfbd a5e8 be3c 80c9 de3d
00000330: 1b5c edbd e32d 74bd 7322 ccba c733 f2b9
00000340: e9a4 2b3d 2eb1 4d3c edd7 2e3d 4b45 5cbc
00000350: 031e ea3b ff3e a03d ef2d 6c3d dd32 b6bc
00000360: bda3 333e d825 3f3e 9595 713e 526c 29bb
00000370: e5ba 853c 3ff6 093d 097e 93bd a5b7 93bd
00000380: 8025 85bd ab12 953b 9deb 3abd 4494 e9bd
00000390: 8d64 2c3c 8531 2cbd 50c8 abbd 6830 833d
000003a0: 6862 50bd a808 bdbd de8f 113e d9f0 853d
000003b0: 3761 573d cdd1 813e 0292 403e 6ed0 203e
000003c0: 2f82 493e 0d0c 213e b754 2d3e 5d1f 83be
000003d0: 39a6 0cbe 955f 043d d109 97be 413e 34bd
000003e0: d235 bb3d 20ce 95be e3c4 4abe 8a03 233d
000003f0: 1d87 293d c73b 403d af76 40bd 70d1 bf3d

layer1.0.conv2.bias f4 [16]
-0.0060184933 0.020865405 -0.0071585025 0.0024135504 0.009772123 0.0064414167 -0.0039811255 -0.00899114
0.010972808 -0.008477428 -0.012122699 0.014779459 -0.010822776 0.005760184 -0.0006067898 0.0016045332
00000000: c836 c5bb eded aa3c df91 eabb a82c 1e3b
00000010: 411b 203c 8512 d33b 1a74 82bb 934f 13bc
00000020: 4bc7 333c e9e4 0abc 499e 46bc 8b25 723c
00000030: 0352 31bc edbf bc3b f910 1fba 334f d23a

layer1.0.bn2.weight f4 [16]
1.2970561 0.68119556 0.5070326 1.0270998 0.9553024 1.232111 1.1897017 1.0079658
0.8968225 0.6359672 0.8104522 1.4319893 0.982833 1.1195648 0.42578834 0.9557228
00000000: ef05 a63f d562 2e3f e3cc 013f 0278 833f
00000010: b38e 743f d0b5 9d3f 2548 983f 0605 813f
00000020: 2996 653f bfce 223f cc79 4f3f 6d4b b73f
00000030: f29a 7b3f e64d 8f3f ee00 da3e 40aa 743f

layer1.0.bn2.bias f4 [16]
-0.20627515 -0.067898735 0.18368542 0.37402165 0.07464162 -0.43288323 0.16209432 0.025965864
-0.098846845 -0.0054354253 -0.18071479 -0.09688838 0.32879558 0.07929189 0.07840511 0.12324909
00000000: cb39 53be 7e0e 8bbd 0818 3c3e c47f bf3e
00000010: b5dd 983d dfa2 ddbe 0efc 253e 5db6 d43c
00000020: 3770 cabd a71b b2bb 4c0d 39be 6a6d c6bd
00000030: e557 a83e c963 a23d dc92 a03d 056a fc3d

layer1.0.bn2.running_mean f4 [16]
-0.22532974 -0.14256716 -0.4225801 -0.6265361 -1.3152028 -0.7087817 0.5213429 -1.1666913
0.80173683 -0.57223815 -1.3710601 0.22079892 -1.3363403 0.27565625 0.051110204 0.8157659
00000000: d7bc 66be 20fd 11be 6b5c d8be ab64 20bf
00000010: 9158 a8bf b872 35bf ba76 053f 2456 95bf
00000020: a03e 4d3f 337e 12bf e67e afbf 1d19 623e
00000030: 330d abbf d122 8d3e ef58 513d 09d6 503f

layer1.0.bn2.running_var f4 [16]
1.6345806 1.080786 1.5323755 2.6012137 3.2677743 4.5411587 4.714143 3.654396
3.073813 1.5487303 1.8479335 4.853619 2.5277247 2.7221966 1.400103 2.6762786
00000000: f039 d13f 3257 8a3f e124 c43f 497a 2640
00000010: 3723 5140 2c51 9140 42da 9640 a0e1 6940
00000020: 5ab9 4440 cb3c c63f 1689 ec3f d950 9b40
00000030: 3ec6 2140 7838 2e40 9336 b33f 2648 2b40

layer1.1.conv1.weight f4 [16, 16, 3, 3]
-0.3589139 0.48659194 0.074424006 0.07886237 -0.8967742 0.00845279 0.15155919 0.545086
-0.25080276 0.22642362 0.19311349 0.28607675 -0.07251138 -0.0040742643 0.06643505 -0.017609302
-0.06499231 0.026639659 0.26592737 0.3594866 0.32683676 -0.093993664 -0.0044487496 0.033348974
-0.06564101 -0.18168902 0.016180264 -0.026724515 -0.18230255 -0.21618527 0.12960558 0.37224352
0.15353689 -0.15874481 -0.15536182 0.0347835 0.029688219 -0.07194067 -0.12919159 0.03785075
0.09294267 0.030460225 0.029754022 -0.013196521 -0.10836917 -0.16178259 -0.31708708 0.022052096
0.36569428 0.11571277 -0.6753046 -0.2438777 0.19324644 0.2668531 -0.015824223 -0.35876104
-0.0744566 -0.36799917 0.2839506 -0.3634566 -0.22941738 -0.61652464 -0.15081361 0.29086947
0.43173048 0.1938658 -0.033864673 -0.115767546 0.06948832 -0.15623789 -0.21843329 -0.08802908
0.0136154825 -0.009791008 -0.026230074 -0.017543683 0.032615513 -0.014235644 -0.032365892 0.031488124
0.05671639 -0.008948038 0.120686404 0.18999632 -0.10143011 -0.16977957 -0.02469829 -0.16754353
-0.17803259 -0.087156005 0.05293538 0.037561595 0.08035638 0.020157447 0.066815495 0.028219154
-0.051729348 -0.031031732 0.039715175 0.1946592 0.25543094 -0.100160964 -0.25727177 -0.16431239
0.22990544 0.12441329 0.049554095 -0.19578908 -0.055101946 0.08483507 -0.16437003 0.07163727
-0.11840387 0.33389017 0.058466956 0.066060774 -0.089731835 -0.30152798 -0.1708443 -0.19645369
-0.12074413 -0.40665916 -0.05745544 -0.13194312 0.030901715 -0.14610337 -0.0059894715 0.0019311787
0.15088068 -0.07641687 0.1004319 0.052732665 -0.37388718 -0.17712039 -0.18304369 0.04058351
0.25021404 -0.24781802 -0.2981366 -0.38797352 0.25204936 0.0067790435 0.12417881 -0.24122979
0.025909575 -0.5881679 0.068339586 -0.58025116 0.25089902 0.14161442 0.19566269 0.1028322
-0.63609684 0.083306886 0.15011926 0.02414717 0.024640504 0.10902253 -0.06629728 -0.040440965
-0.024500452 0.032258842 -0.028780809 -0.11581785 -0.0351472 0.0377191 -0.064511694 0.19281659
0.03488846 0.040815644 0.15766594 -0.032620266 0.32472464 0.24610144 0.13612139 0.060342874
-0.0877904 -0.20231876 -0.047504645 0.22612458 0.14812882 0.032212287 -0.085031964 0.23207413
0.012772541 -0.054055512 0.2519551 0.028986186 -0.043346852 0.18461362 -0.19985868 -0.17027862
-0.038689543 -0.52216697 -0.04098949 -0.24464977 0.047537763 0.025800085 0.12607545 -0.013641784
-0.27199456 0.048205763 -0.4088474 -0.090453364 -0.32695076 -0.08830792 0.06432924 0.29816124
-0.2630566 0.08375974 -0.06664536 -0.19909847 0.1513973 0.19272071 0.2588252 -0.09680064
0.13848647 0.06842299 0.14633298 0.03651356 -0.033926927 0.012184079 -0.023919785 -0.065750755
-0.049345125 -0.1960304 -0.11938197 0.09682442 -0.1471089 0.1458228 0.27139795 -0.03292107
0.17141205 0.14710993 0.07050809 0.07386531 0.0791211 -0.0027981296 -0.013049391 -0.11430846
-0.0322483 -0.03686165 -0.18257488 -0.3964685 -0.3145782 0.18866587 -0.21681958 0.38063657
-0.3760711 -0.1701966 -0.32713225 -0.33775577 -0.09021046 -0.18749632 0.29003963 -0.0971681
00000000: 90c3 b7be 9422 f93e 9d6b 983d 9882 a13d
00000010: fe92 65bf 927d 0a3c 5532 1b3e c28a 0b3f
00000020: 3869 80be 98db 673e 8bbf 453e a778 923e
00000030: d980 94bd 6881 85bb 190f 883d 6241 90bc
00000040: b01a 85bd 6a3b da3c a227 883e a10e b83e
00000050: 2657 a73e c07f c0bd d1c6 91bb ef98 083d
00000060: cb6e 86bd b00c 3abe 798c 843c 5fed dabc
00000070: 85ad 3abe ac5f 5dbe 53b7 043e b496 be3e
00000080: c638 1d3e 008e 22be 2b17 1fbe 2579 0e3d
00000090: b534 f33c a155 93bd cd4a 04be 6309 1b3d
000000a0: ba58 be3d b987 f93c b5be f33c 3936 58bc
000000b0: a8f0 ddbd 56aa 25be 3d59 a2be 99a6 b43c
000000c0: 483c bb3e d1fa ec3d c3e0 2cbf 13bb 79be
000000d0: 65e2 453e f8a0 883e cda1 81bc 87af b7be
000000e0: b47c 98bd 636a bcbe f961 913e fc16 babe
000000f0: 64ec 6abe 8fd4 1dbf e26e 1abe d8ec 943e
00000100: c70b dd3e c284 463e afb5 0abd 8917 edbd
00000110: e44f 8e3d d3fc 1fbe faac 5fbe 9748 b4bd
00000120: 7913 5f3c 776a 20bc 74e0 d6bc c5b7 8fbc
00000130: d897 053d 9e3c 69bc 1992 04bd b1f9 003d
00000140: 724f 683d cb9a 12bc 6f2a f73d 658e 423e
00000150: 97ba cfbd b2da 2dbe 1154 cabc 8890 2bbe
00000160: 2d4e 36be d97e b2bd c5d2 583d 30da 193d
00000170: e391 a43d 3b21 a53c 90d6 883d db2b e73c
00000180: 27e2 53bd 4236 febc 61ac 223d be54 473e
00000190: d8c7 823e 3121 cdbd 20b9 83be 8241 28be
000001a0: 556c 6b3e 65cc fe3d 3cf9 4a3d ef7c 48be
000001b0: 94b2 61bd 02be ad3d 9e50 28be 90b6 923d
000001c0: ba7d f2bd a7f3 aa3e 0c7b 6f3d df4a 873d
000001d0: 53c5 b7bd e061 9abe cff1 2ebe 282b 49be
000001e0: b348 f7bd a135 d0be 6556 6bbd 191c 07be
000001f0: 9825 fd3c 1f9c 15be 5443 c4bb 9b1f fd3a
00000200: 7780 1a3e 7380 9cbd 3daf cd3d 35fe 573d
00000210: 246e bfbe 0c5f 35be ce6f 3bbe e53a 263d
00000220: 0e1c 803e 02c4 7dbe 5ca5 98be 77a4 c6be
00000230: 9d0c 813e bd22 de3b 7651 fe3d f104 77be
00000240: 5140 d43c 2c92 16bf a0f5 8b3d 578b 14bf
00000250: d675 803e 5f03 113e cd5b 483e b099 d23d
00000260: 3ed7 22bf cd9c aa3d ddb8 193e 49d0 c53c
00000270: e2da c93c 3447 df3d dec6 87bd 6da5 25bd
00000280: 2cb5 c8bc d921 043d bbc5 ebbc e931 edbd
00000290: 83f6 0fbd 587f 1a3d b51e 84bd b671 453e
000002a0: 34e7 0e3d 4e2e 273d 2e73 213e d49c 05bd
000002b0: 4f42 a63e 0402 7c3e 6863 0b3e 172a 773d
000002c0: 74cb b3bd a62c 4fbe 3b94 42bd 348d 673e
000002d0: 15af 173e 08f1 033d 3d25 aebd d7a4 6d3e
000002e0: eb43 513c 5069 5dbd 4200 813e 7074 ed3c
000002f0: 788c 31bd 5a0b 3d3e c1a7 4cbe 855d 2ebe
00000300: ed78 1ebd bcac 05bf 98e4 27bd 7885 7abe
00000310: f5b6 423d b35a d33c ec19 013e ca81 5fbc
00000320: df42 8bbe 6873 453d 7254 d1be 9d3f b9bd
00000330: 1766 a7be c8da b4bd 0cbf 833d 97a8 983e
00000340: 5baf 86be 3a8a ab3d 5d7d 88bd 78e0 4bbe
00000350: e507 1b3e 9458 453e bd84 843e 6a3f c6bd
00000360: 66cf 0d3e 5a21 8c3d 50d8 153e 3e8f 153d
00000370: f6f6 0abd bb9f 473c 6df3 c3bc 55a8 86bd
00000380: 1d1e 4abd 31bc 48be 897e f4bd e24b c63d
00000390: b7a3 16be 9252 153e acf4 8a3e 3ed8 06bd
000003a0: a486 2f3e fca3 163e 8c66 903d b246 973d
000003b0: 3e0a a23d d360 37bb 1dcd 55bc 8e1a eabd
000003c0: cb16 04bd 3efc 16bd e9f4 3abe ebfd cabe
000003d0: 6510 a1be a031 413e f405 5ebe cce2 c23e
000003e0: 648c c0be 0448 2ebe e17d a7be 53ee acbe
000003f0: 43c0 b8bd 09ff 3fbe 1380 943e 1200 c7bd

layer1.1.conv1.bias f4 [16]
-0.0018527812 -0.012051283 0.008672391 0.0008258807 -0.009465601 0.011516662 -0.011933259 -0.012681419
-0.012880802 -0.006290102 0.010643298 -0.0023442274 0.0148842875 -0.0015536693 -0.01231268 0.0006799667
00000000: 05d9 f2ba bf72 45bc a516 0e3c ea7f 583a
00000010: 9c15 1bbc 62b0 3c3c b783 43bc bac5 4fbc
00000020: 000a 53bc 331d cebb 3a61 2e3c 9ca1 19bb
00000030: 3add 733c 7ea4 cbba 1fbb 49bc cb3f 323a

layer1.1.bn1.weight f4 [16]
0.94566244 1.0581112 1.0164299 0.8156594 0.8008474 0.6451938 0.7987117 0.71018624
0.9745739 1.0969186 0.63734573 0.7792742 0.7358895 0.83159417 0.540017 0.75771695
00000000: ef16 723f 3070 873f 601a 823f 0ecf 503f
00000010: 5604 4d3f 6c2b 253f 5f78 4c3f c4ce 353f
00000020: ad7d 793f d467 8c3f 1729 233f 847e 473f
00000030: 4163 3c3f 5be3 543f 8e3e 0a3f bdf9 413f

layer1.1.bn1.bias f4 [16]
-0.29188964 -0.3375709 -0.06703301 -0.005084765 -0.28184867 -0.09024856 -0.37745667 -0.5396687
-0.18364732 -0.5244925 -0.57570195 -0.5266868 -0.24084026 0.13208617 -0.21946168 -0.11776349
00000000: 8f72 95be 18d6 acbe 9a48 89bd 1a9e a6bb
00000010: 784e 90be 3dd4 b8bd 0042 c1be ba27 0abf
00000020: 0b0e 3cbe 2445 06bf 3461 13bf f2d4 06bf
00000030: d49e 76be 9941 073e 90ba 60be fc2d f1bd

layer1.1.bn1.running_mean f4 [16]
-2.986588 -2.67597 -6.833257 -4.5669785 -2.3093452 2.2739348 1.5552119 -0.74442065
-1.636693 -5.706552 3.8158653 2.1205237 -2.9360232 -1.8528585 -4.7326183 -2.2171438
00000000: 4224 3fc0 1843 2bc0 0baa dac0 b024 92c0
00000010: 50cc 13c0 2688 1140 2f11 c73f 5a92 3ebf
00000020: 287f d1bf 139c b6c0 2337 7440 a9b6 0740
00000030: cee7 3bc0 782a edbf 9c71 97c0 afe5 0dc0

layer1.1.bn1.running_var f4 [16]
19.405136 16.458822 11.7077875 10.700557 5.695889 7.483177 5.115207 2.8249674
36.976887 16.457626 2.7513635 4.072963 7.3146005 7.279579 3.907311 9.050162
00000000: b83d 9b41 abab 8341 1953 3b41 7b35 2b41
00000010: b944 b640 3076 ef40 c7af a340 44cc 3440
00000020: 55e8 1342 38a9 8341 5716 3040 b755 8240
00000030: 3511 ea40 50f2 e840 6211 7a40 77cd 1041

layer1.1.conv2.weight f4 [16, 16, 3, 3]
-0.06373568 -0.16936588 -0.11948641 0.013555381 -0.086515106 0.0054736924 -0.037112392 -0.22089052
0.041071497 0.093981214 0.15087904 0.056855462 0.39301988 0.27328807 0.3689022 0.040943887
0.23101625 0.29540738 -0.0030688262 -0.077483885 0.029821267 -0.047039747 -0.17688505 0.16260839
-0.092894755 0.010423148 -0.029274108 -0.014200418 0.077704236 -0.0038477203 -0.114216916 0.27765843
0.09767876 -0.14509617 0.11371774 0.1345298 0.061233286 0.06559101 -0.014883694 0.043536644
0.22639498 0.11751135 0.072018646 0.09159955 0.16065921 -0.06500802 0.0682168 0.1983108
-0.19917242 -0.11470678 0.20574518 -0.1743456 -0.10105509 -0.0046724635 -0.08161978 -0.04623404
-0.08191919 0.1802811 0.07946102 0.036890194 -0.057754595 -0.035473492 -0.19837165 0.01418189
0.17190251 0.11455914 -0.08184887 -0.012498153 -0.11879067 -0.063507594 -0.0215133 -0.07131743
-0.10472488 -0.14542368 -0.17403296 -0.18461064 -0.21100321 -0.21248661 -0.28165013 -0.23276994
-0.033606816 0.018643146 0.11488494 0.26901805 0.08101075 0.1862356 0.1489597 0.19525605
0.22667654 0.110135645 -0.061403938 -0.06978589 -0.08258317 0.0013575178 -0.011045923 -0.05323727
-0.05239774 -0.029516494 -0.024839284 0.06791632 0.011357895 -0.16054764 0.1576816 -0.101303875
-0.15359922 -0.23502648 -0.37968692 -0.11941997 0.054487675 0.065917574 0.01619457 0.13009435
0.17899518 0.12183628 0.11932625 0.10975462 0.08273694 -0.093909435 -0.006743423 -0.044356264
-0.027447201 -0.17438908 0.0010983675 -0.08692941 0.1110302 0.14271164 -0.05235164 0.016944494
0.015282987 -0.045046862 0.043641124 0.053416386 -0.09128168 0.014181018 0.06685086 -0.033716094
-0.051515523 -0.04222615 -0.24013777 -0.008362503 -0.046153173 -0.19713177 -0.00588134 0.06966409
-0.03816592 -0.18664575 0.12069196 0.07921384 -0.044810466 -0.15796725 -0.13530949 0.019743456
0.12340985 0.046881665 -0.20465948 -0.20223624 -0.16494825 -0.34278396 -0.28835952 -0.08843474
-0.21818452 -0.035305526 -0.027023029 -0.049047593 0.04625761 -0.07765614 -0.16768159 0.012043524
0.0061903545 0.024739433 0.07768224 -0.038922302 -0.05766899 -0.020400438 -0.15769687 -0.070837244
-0.11555332 0.11647063 0.015895871 0.026704386 -0.094337575 0.032892462 0.11262341 -0.026201716
-0.019593295 0.041524597 0.06906627 0.0146189295 -0.056406118 -0.24543548 -0.24834248 -0.06876142
-0.3786796 -0.3081656 -0.06022274 -0.28842 -0.288441 -0.106555775 0.053472236 0.02357333
-0.053810485 0.14218162 0.08942138 0.023841381 -0.022272518 -0.12425221 -0.08942519 0.036634568
-0.077789076 -0.021744734 -0.07657851 -0.16941082 -0.1003181 -0.1224826 -0.19209912 -0.13832472
-0.34230316 -0.6538088 -0.29126462 -0.39329848 -0.4650575 -0.37408602 -0.43512824 -0.44167796
-0.13934347 0.09469887 0.042649437 0.14779992 0.23824929 0.020050317 0.18766387 0.40465862
0.24271013 0.16780892 0.11362822 0.031955585 0.06624928 0.08750288 0.051102523 -0.016828142
0.032022882 0.06458171 0.016430799 -0.13481082 -0.08123868 0.01947811 0.086736746 0.030832555
0.16479513 0.1126483 -0.026315432 0.15656869 -0.1304451 -0.09158534 -0.090362065 -0.03629208
00000000: da87 82bd 406e 2dbe 4ab5 f4bd 6417 5e3c
00000010: d52e b1bd a95c b33b 2a03 18bd 2031 62be
00000020: 963a 283d 3979 c03d 0980 1a3e 46e1 683d
00000030: e739 c93e 6aec 8b3e c0e0 bc3e c7b4 273d
00000040: 868f 6c3e a33f 973e 5c1e 49bb dfaf 9ebd
00000050: bb4b f43c c0ac 40bd 5b21 35be d082 263e
00000060: 9b3f bebd dac5 2a3c 41d0 efbc dfa8 68bc
00000070: 6623 9f3d 092a 7cbb 8fea e9bd 3f29 8e3e
00000080: cd0b c83d 1794 14be d9e4 e83d 2ec2 093e
00000090: c1cf 7a3d 9454 863d bdda 73bc 7b53 323d
000000a0: 16d4 673e caa9 f03d 837e 933d 8b98 bb3d
000000b0: d983 243e ed22 85bd 40b5 8b3d fd11 4b3e
000000c0: dbf3 4bbe 63eb eabd ddae 523e a787 32be
000000d0: f9f5 cebd 771b 99bb 4528 a7bd e85f 3dbd
000000e0: 40c5 a7bd 9c9b 383e 76bc a23d 2c1a 173d
000000f0: 1590 6cbd a74c 11bd f021 4bbe 285b 683c
00000100: 3607 303e fb9d ea3d 61a0 a7bd 0ec5 4cbc
00000110: 8648 f3bd 4510 82bd a93c b0bc df0e 92bd
00000120: ff79 d6bd f2e9 14be b235 32be 920a 3dbe
00000130: 3a11 58be 1796 59be 7234 90be 3e5b 6ebe
00000140: 4da7 09bd 83b9 983c cc48 eb3d bcbc 893e
00000150: f7e8 a53d 8cb4 3e3e e488 183e 34f1 473e
00000160: e51d 683e cc8e e13d b282 7bbd e8eb 8ebd
00000170: 5d21 a9bd bdee b13a f6f9 34bc 530f 5abd
00000180: 039f 56bd 93cc f1bc c17b cbbc b617 8b3d
00000190: 7716 3a3c 9a66 24be 4977 213e 6878 cfbd
000001a0: 1d49 1dbe c8aa 70be 5366 c2be 7592 f4bd
000001b0: 782e 5f3d cbff 863d 7aaa 843c 7437 053e
000001c0: 834a 373e 4d85 f93d 5261 f43d 08c7 e03d
000001d0: fc71 a93d 9753 c0bd eff7 dcbb eaae 35bd
000001e0: f4d8 e0bc 0d93 32be 19f7 8f3a 0c08 b2bd
000001f0: cd63 e33d 0023 123e ac6e 56bd 2ecf 8a3c
00000200: 7e65 7a3c 0f83 38bd 09c1 323d 24cb 5a3d
00000210: e4f1 babd 8057 683c 1be9 883d e319 0abd
00000220: f101 53bd 54f5 2cbd ade6 75be e102 09bc
00000230: 1c0b 3dbd e9dc 49be 41b8 c0bb 0cac 8e3d
00000240: de53 1cbd 1020 3fbe 592d f73d de3a a23d
00000250: 2e8b 37bd 2bc2 21be 928e 0abe 07bd a13c
00000260: 4ebe fc3d fd06 403d 4192 51be 0417 4fbe
00000270: 32e8 28be 6181 afbe dca3 93be 461d b5bd
00000280: c36b 5fbe 879c 10bd 665f ddbc 21e6 48bd
00000290: 9f78 3d3d 2f0a 9fbd b9b4 2bbe 3352 453c
000002a0: 75d8 ca3b 5aaa ca3c de17 9f3d fe6c 1fbd
000002b0: 5236 6cbd d21e a7bc 4a7b 21be 1e13 91bd
000002c0: 38a7 ecbd 2788 ee3d 0f38 823c 28c3 da3c
000002d0: 0f34 c1bd 3fba 063d 1aa7 e63d fba4 d6bc
000002e0: 1e82 a0bc b215 2a3d 9e72 8d3d 3c84 6f3c
000002f0: 1a0a 67bd 7053 7bbe 7e4d 7ebe cad2 8cbd
00000300: 4be2 c1be e2c7 9dbe 1fac 76bd c9ab 93be
00000310: 8aae 93be ea39 dabd b405 5b3d db1c c13c
00000320: 6268 5cbd 0f98 113e 8e22 b73d 004f c33c
00000330: db74 b6bc f177 febd 8e24 b7bd 210e 163d
00000340: e14f 9fbd 0322 b2bc 32d5 9cbd 087a 2dbe
00000350: 9373 cdbd 28d8 fabd a2b5 44be ffa4 0dbe
00000360: 5c42 afbe 0360 27bf a320 95be 6b5e c9be
00000370: 041c eebe 3488 bfbe 21c9 debe 9d23 e2be
00000380: 0eb0 0ebe 7bf1 c13d 2db1 2e3d dd58 173e
00000390: 9ff7 733e 9040 a43c f52a 403e 6a2f cf3e
000003a0: 0189 783e 1ad6 2b3e eab5 e83d dce3 023d
000003b0: b4ad 873d b634 b33d e150 513d 2cdb 89bc
000003c0: 6d2a 033d 6a43 843d e299 863c d90b 0abe
000003d0: 7760 a6bd 8f90 9f3c 09a3 b13d 8e94 fc3c
000003e0: 0ec0 283e 27b4 e63d 7693 d7bc 8b53 203e
000003f0: 6693 05be 1891 bbbd bf0f b9bd 01a7 14bd

layer1.1.conv2.bias f4 [16]
0.010686928 -0.0023904336 0.00342914 0.0072892997 -0.0091544585 -0.0059952163 -0.014821972 -0.0036359185
-0.0029352072 0.013732089 0.0049206913 0.002312709 -0.0051747756 -0.00435532 0.000298816 0.011642405
00000000: 3a18 2f3c d2a8 1cbb 6cbb 603b 14db ee3b
00000010: 95fc 15bc 8573 c4bb dbd7 72bc 9748 6ebb
00000020: 9b5c 40bb 8efc 603c c03d a13b d290 173b
00000030: 2a91 a9bb 12b7 8ebb 68aa 9c39 c9bf 3e3c

layer1.1.bn2.weight f4 [16]
0.9518316 0.9952909 0.2707832 0.72847205 0.435532 0.86838883 0.666748 0.8976789
0.5781366 0.37547368 0.4250066 0.6956126 0.6808316 0.65107226 0.3586676 0.7122429
00000000: 3cab 733f 62cb 7e3f 18a4 8a3e 257d 3a3f
00000010: 0dfe de3e bb4e 5e3f ffaf 2a3f 49ce 653f
00000020: c300 143f 163e c03e 779a d93e ab13 323f
00000030: fb4a 2e3f acac 263f 48a3 b73e 8d55 363f

layer1.1.bn2.bias f4 [16]
-0.61923486 0.18266287 0.29805553 0.18221238 0.08789789 -0.21421172 -0.4702448 0.23496772
0.07856327 0.11065964 0.20475578 -0.6282756 0.48030975 0.782294 0.06039972 -0.19718468
00000000: 2d86 1ebf fa0b 3b3e bc9a 983e e295 3a3e
00000010: cf03 b43d 515a 5bbe edc3 f0be 619b 703e
00000020: c8e5 a03d 85a1 e23d 80ab 513e abd6 20bf
00000030: 29eb f53e 6b44 483f b265 773d c8ea 49be

layer1.1.bn2.running_mean f4 [16]
0.032114387 -1.6813732 -0.7900086 -0.24666378 -1.2051507 0.4744021 -0.112376764 -0.30554202
0.90557915 -0.5911678 0.052756976 -0.28186208 -0.33618468 0.7173196 -0.12226245 0.014811705
00000000: 608a 033d 3d37 d7bf 013e 4abf 6e95 7cbe
00000010: 6142 9abf d5e4 f23e ca25 e6bd 0170 9cbe
00000020: 09d4 673f c656 17bf b317 583d 3a50 90be
00000030: 6620 acbe 42a2 373f bc64 fabd cbac 723c

layer1.1.bn2.running_var f4 [16]
0.67367256 1.652443 0.509306 0.6519493 0.8463244 1.2179567 0.5862846 1.188693
0.74575764 0.71635634 0.4118654 0.76091605 1.263714 0.98434436 0.5394188 0.70052
00000000: ce75 2c3f 4183 d33f e161 023f 26e6 263f
00000010: b7a8 583f 01e6 9b3f bf16 163f 1827 983f
00000020: f9e9 3e3f 2163 373f 06e0 d23e 65cb 423f
00000030: 61c1 a13f fefd 7b3f 5a17 0a3f 4755 333f

layer2.0.conv1.weight f4 [32, 16, 3, 3]
0.035453603 -0.035008695 0.014817215 -0.0054104915 -0.019529585 0.084886156 0.043393135 -0.012728796
0.0042829 -0.32294315 -0.1260154 0.08450037 -0.16531375 -0.028135078 0.23357968 -0.210636
0.07468221 0.26370227 -0.07653006 -0.09397092 -0.06931373 -0.0820369 -0.056798894 -0.017029485
-0.010273214 -0.007776877 0.023143126 -0.13174993 -0.15653983 -0.059033494 -0.13828105 -0.14205995
-0.03606646 -0.022665463 -0.081121735 0.052779946 -0.045235954 -0.05778214 -0.019385997 0.042615756
0.002101943 0.054162342 -0.018510189 0.035883836 0.08028467 -0.20419487 -0.111717284 0.10419201
-0.17559521 0.009666479 0.20801245 -0.1533567 -0.029247088 0.082292266 0.103297934 -0.13674279
-0.23728497 0.03550564 -0.3293968 -0.5067225 -0.13348626 -0.42230144 -0.47567192 0.13967033
0.12119443 0.10832405 0.12243227 0.13369067 0.014368571 -0.07658837 -0.019422827 -0.13345397
-0.04062061 -0.11190702 -0.11005672 -0.084189996 -0.14420588 -0.087884195 0.014743712 -0.027425379
-0.033086553 -0.0015002955 -0.09045822 -0.12078955 0.044326484 -0.07648404 -0.08187196 0.015634583
-0.07331295 -0.086937696 0.14275214 0.07460437 0.10173203 0.13357395 0.080973476 0.08762108
-0.02614041 0.033652145 0.03722278 -0.08594388 -0.05055305 0.04265674 -0.050675113 0.022684766
0.082080245 -0.10598632 -0.12016887 -0.06579375 -0.15685853 -0.0060079554 0.17270023 -0.12556975
-0.021483887 0.17421319 -0.2976587 -0.10027104 0.04753834 0.3415905 0.032599136 -0.11567942
0.18775354 -0.105071455 -0.3329943 0.21599008 -0.19016068 -0.27638787 0.06946441 -0.13867559
-0.20490824 0.008420963 -0.13643594 -0.24292004 0.074932195 -0.109988876 -0.19944201 -0.07631594
-0.009442779 0.1193024 -0.0156205455 0.09680792 0.17883381 -0.06420118 0.019908324 0.16909733
-0.07621582 -0.029189367 -0.034276474 -0.06082687 -0.119196214 -0.088308305 0.06470152 0.021261267
0.007113641 0.083588324 0.0114221135 -0.14755577 -0.07889313 -0.053845227 -0.17447506 -0.01872171
0.034553785 -0.1300667 -0.09604214 -0.07413476 -0.06966293 -0.13457714 -0.11036105 -0.18229036
-0.071470045 -0.013771624 -0.06834406 -0.19548588 -0.13658966 -0.18172367 -0.12822461 -0.07099735
-0.10410066 -0.13694811 -0.13276337 -0.14522485 0.10540803 0.061828237 -0.0801802 0.24588396
0.18129002 0.072054535 0.19489512 0.18738031 0.18217906 0.09336431 0.15285379 0.08058508
0.107192315 0.31426492 0.31806523 0.061993867 0.10186088 0.18265882 0.06303032 0.036744136
-0.0030778092 -0.094023 -0.16362527 0.017191578 -0.23347205 -0.1368439 -0.015511541 0.012608204
-0.10611954 0.09074021 -0.20190494 -0.19310074 -0.19367255 -0.16097471 -0.2843639 -0.3389165
-0.051816586 -0.14500725 -0.15312488 -0.008121326 -0.10234595 -0.14797702 0.03278355 0.037144575
-0.02423747 -0.19370697 0.040190194 0.104116336 -0.10401324 0.0059900936 -0.0028724975 -0.022869084
-0.0020772936 -0.058662172 0.041348957 -0.04333414 -0.08980589 0.115320325 0.06397971 0.03047711
-3.7293405e-05 0.15630564 0.13972726 0.0016858652 0.008339606 0.024145134 0.05412452 0.032665573
0.027957892 -0.07781218 0.0352463 -0.17888023 0.1445295 0.032978904 -0.20663552 0.1383927
00000000: cc37 113d 4765 0fbd e7c3 723c 7e4a b1bb
00000010: 82fc 9fbc cbd8 ad3d 00bd 313d 718c 50bc
00000020: 9257 8c3b ce58 a5be 2e0a 01be 880e ad3d
00000030: 0248 29be 897b e6bc 832f 6f3e f7b0 57be
00000040: fdf2 983d fc03 873e cbbb 9cbd d373 c0bd
00000050: 5bf4 8dbd f602 a8bd f5a5 68bd 6b81 8bbc
00000060: fc50 28bc 2cd5 febb a796 bd3c 74e9 06be
00000070: fa4b 20be 1bcd 71bd 8c99 0dbe 2a78 11be
00000080: 6dba 13bd ecac b9bc 2723 a6bd c92f 583d
00000090: 5649 39bd f7ac 6cbd 62cf 9ebc dc8d 2e3d
000000a0: c0c0 093b 55d9 5d3d aea2 97bc eefa 123d
000000b0: 4a6c a43d 7618 51be 08cc e4bd 9f62 d53d
000000c0: 3bcf 33be 2760 1e3c 3701 553e 8a09 1dbe
000000d0: 9797 efbc d988 a83d de8d d33d 4d06 0cbe
000000e0: d5fa 72be 5d6e 113d b3a6 a8be 91b8 01bf
000000f0: 9fb0 08be e537 d8be 458b f3be bd05 0f3e
00000100: c934 f83d 00d9 dd3d c5bd fa3d 35e6 083e
00000110: 286a 6b3c 5dda 9cbd 9f1c 9fbc 28a8 08be
00000120: cc61 26bd 822f e5bd 6b65 e1bd ce6b acbd
00000130: b5aa 13be a1fc b3bd 9c8f 713c 30ab e0bc
00000140: c485 07bd 90a5 c4ba 2942 b9bd 8360 f7bd
00000150: b08f 353d aaa3 9cbd 7cac a7bd 1914 803c
00000160: 1a25 96bd 640c b2bd 9e2d 123e 2dca 983d
00000170: e258 d03d 9cc7 083e 6cd5 a53d ae72 b33d
00000180: 6a24 d6bc d5d6 093d ea76 183d 5803 b0bd
00000190: b710 4fbd d5b8 2e3d b590 4fbd 67d5 b93c
000001a0: b019 a83d 5b0f d9bd 191b f6bd e0be 86bd
000001b0: 869f 20be 62de c4bb 54d8 303e 5b95 00be
000001c0: fafe afbc f164 323e b966 98be e75a cdbd
000001d0: 90b7 423d f3e4 ae3e ac86 053d 55e9 ecbd
000001e0: 7742 403e b42f d7bd 3b7e aabe 812c 5d3e
000001f0: 7bb9 42be b682 8dbe 5b43 8e3d f900 0ebe
00000200: 77d3 51be 14f8 093c ddb5 0bbe 08c0 78be
00000210: 0d76 993d d941 e1bd 873a 4cbe 884b 9cbd
00000220: e3b5 1abc d154 f43d 51ed 7fbc 3b43 c63d
00000230: 3620 373e e97b 83bd c816 a33c da27 2d3e
00000240: 0a17 9cbd 8a1e efbc 7d65 0cbd 9925 79bd
00000250: 251d f4bd fcda b4bd 3b82 843d 1c2c ae3c
00000260: 8c19 e93b 5b30 ab3d d123 3b3c dc18 17be
00000270: b992 a1bd d08c 5cbd 97a9 32be 465e 99bc
00000280: 4588 0d3d 3430 05be beb1 c4bd f7d3 97bd
00000290: 70ab 8ebd 97ce 09be f904 e2bd 53aa 3abe
000002a0: e35e 92bd 61a2 61bc f8f7 8bbd 732d 48be
000002b0: 29de 0bbe c515 3abe 504d 03be 0f67 91bd
000002c0: ba32 d5bd 203c 0cbe 1ff3 07be d3b5 14be
000002d0: 2ae0 d73d 9b3f 7d3d 8435 a4bd 01c9 7b3e
000002e0: 17a4 393e 5491 933d 9692 473e a0e0 3f3e
000002f0: 268d 3a3e ca35 bf3d b485 1c3e ca09 a53d
00000300: a587 db3d 55e7 a03e 72d9 a23e 48ed 7d3d
00000310: 709c d03d ea0a 3b3e 0a16 813d 0581 163d
00000320: 12b5 49bb 218f c0bd 628d 27be 5ad5 8c3c
00000330: 4c13 6fbe cf20 0cbe 1e24 7ebc a492 4e3c
00000340: 3455 d9bd 01d6 b93d 2bc0 4ebe 33bc 45be
00000350: 1952 46be 8ed6 24be 2598 91be 7786 adbe
00000360: a13d 54bd c87c 14be c5cc 1cbe 4f0f 05bc
00000370: c19a d1bd 4a87 17be 0b48 063d e924 183d
00000380: a98d c6bc 1f5b 46be 799e 243d f23a d53d
00000390: e504 d5bd 8c48 c43b 8340 3cbb f257 bbbc
000003a0: 3423 08bb bf47 70bd 865d 293d 247f 31bd
000003b0: 27ec b7bd 102d ec3d cb07 833d 22ab f93c
000003c0: 7d6b 1cb8 960e 203e aa14 0f3e 40f8 dc3a
000003d0: d8a2 083c 04cc c53c acb1 5d3d 56cc 053d
000003e0: f307 e53c fe5b 9fbd 6d5e 103d 612c 37be
000003f0: 8bff 133e e314 073d 4398 53be d1b6 0d3e

layer2.0.conv1.bias f4 [32]
0.007536873 -0.008290839 0.01311031 0.0020969664 0.006114233 -0.009939582 -0.0020865195 0.0020854871
-0.00053652725 -0.0031619996 0.002132877 0.010707281 0.0008742065 -0.01584831 -0.0108289085 -0.0088763675
-0.011613376 0.009042558 0.0023061114 -0.0062279114 -0.009032388 0.017886756 0.005316294 -0.0107447775
-0.0024733439 0.0012973651 -0.0025797673 0.0024145418 0.004560846 -0.008848689 0.00059460144 -0.008757237
00000000: e0f7 f63b 4dd6 07bc a0cc 563c 426d 093b
00000010: e759 c83b a1d9 22bc fdbd 08bb abac 083b
00000020: bca5 0cba 8d39 4fbb bdc7 0b3b 976d 2f3c
00000030: 012b 653a 51d4 81bc bc6b 31bc 2f6e 11bc
00000040: 0846 3ebc 3d27 143c 2122 173b 8213 ccbb
00000050: 95fc 13bc 3f87 923c 4e34 ae3b dd0a 30bc
00000060: d317 22bb 590c aa3a 5011 29bb 4a3d 1e3b
00000070: 2673 953b 17fa 10bc 07df 1b3a 847a 0fbc

layer2.0.bn1.weight f4 [32]
0.7360196 0.74135953 0.99841774 0.8623243 0.8580087 0.82273275 0.73136145 0.7777574
1.0530171 0.74578077 0.7592542 0.9191139 0.82824844 0.63666826 0.6953657 0.81152695
0.931975 0.7263773 0.8316083 0.8953739 0.7829701 0.8644225 0.7671782 0.89592594
0.65270686 0.59233963 0.9275057 0.7628705 0.8810062 0.8676536 0.8912011 0.74799615
00000000: c86b 3c3f bdc9 3d3f 4e98 7f3f 49c1 5c3f
00000010: 75a6 5b3f 9d9e 523f 813a 3b3f 1c1b 473f
00000020: 44c9 863f 7deb 3e3f 7c5e 423f 0c4b 6b3f
00000030: 1708 543f b1fc 223f 7d03 323f 3bc0 4f3f
00000040: ea95 6e3f ddf3 393f 48e4 543f 3937 653f
00000050: ba70 483f cb4a 5d3f ca65 443f 675b 653f
00000060: cc17 273f 92a3 173f 0371 6d3f 7b4b 433f
00000070: 9f89 613f 8c1e 5e3f c125 643f ad7c 3f3f

layer2.0.bn1.bias f4 [32]
-0.26904476 -0.31269994 -0.24389538 -0.095428966 -0.20361033 -0.06993898 -0.11613548 -0.18718542
-0.1874578 -0.06910482 -0.103334986 -0.21230534 -0.40440524 0.014773136 0.0016038306 -0.08606214
-0.23556373 -0.16195935 -0.117826276 -0.28977692 -0.2479457 -0.16877225 -0.06580564 -0.11750625
-0.11762644 0.46399912 -0.16309947 -0.17262088 -0.07516381 -0.19609322 -0.2834577 -0.31241122
00000000: 3cc0 89be 351a a0be b6bf 79be 4370 c3bd
00000010: 3a7f 50be 2b3c 8fbd 70d8 edbd 89ad 3fbe
00000020: f0f4 3fbe d486 8dbd 4ba1 d3bd 9266 59be
00000030: 340e cfbe 060b 723c a037 d23a 5941 b0bd
00000040: 9e37 71be acd8 25be e74e f1bd a45d 94be
00000050: 7ae5 7dbe a2d2 2cbe 1bc5 86bd 1ea7 f0bd
00000060: 22e6 f0bd 4b91 ed3e 8c03 27be 87c3 30be
00000070: 7cef 99bd a9cc 48be 5e21 91be 5df4 9fbe

layer2.0.bn1.running_mean f4 [32]
-3.7521496 0.28682375 2.5906835 -5.5170064 -2.0507329 -0.26466122 -0.8400797 -4.1425695
0.9069319 -0.6875712 0.5262914 -2.1087618 -5.868519 -2.2856946 -1.8025296 -5.14252
-0.9648469 -0.2192376 -1.1960405 2.0492427 -1.9549124 1.4057871 -0.58420855 -0.19179648
-1.2986362 -4.651103 -4.128966 -6.8858714 -4.736674 -0.29269248 -0.6615115 -2.70029
00000000: 3823 70c0 90da 923e c2cd 2540 518b b0c0
00000010: 353f 03c0 ad81 87be 770f 57bf ee8f 84c0
00000020: b02c 683f ab04 30bf 08bb 063f f4f5 06c0
00000030: e8ca bbc0 d248 12c0 4ab9 e6bf 868f a4c0
00000040: 3500 77bf d27f 60be db17 99bf cb26 0340
00000050: 923a fabf d5f0 b33f b18e 15bf 4c66 44be
00000060: b639 a6bf d6d5 94c0 7d20 84c0 0f59 dcc0
00000070: d592 97c0 cadb 95be d158 29bf 8dd1 2cc0
