Output/swift-iid-8W-linear-shark-ring-2sgd-100epochs/r0-epoch_93-parameters.pt (torch, 731450 bytes, 92 tensors)

conv1.weight f4 [16, 3, 3, 3]
000000 85 82 20 3f 1d b1 a1 3e a5 14 cc 3e 52 d4 da be
       0.62699157 0.3158044 0.398595 -0.42740113
000010 32 28 ac 3f 50 5e 5f bf 7f 21 63 be f8 b5 49 bf
       1.3449767 -0.87253284 -0.22180746 -0.7879329
000020 f7 e4 f9 be 3f 58 af bd f9 8e 27 be f2 33 95 3c
       -0.488075 -0.085617535 -0.16363133 0.018213246
000030 d5 37 a3 be ef 58 eb 3f dc aa 3b bf b4 1c 82 bb
       -0.31878534 1.8386515 -0.73307586 -0.003970707
000040 1c 65 bf bc 3c f5 b5 bd 3b 75 9f be 81 36 67 bf
       -0.023363642 -0.08884665 -0.31144127 -0.9031754
000050 33 45 4a be ad 1f a1 be af 89 84 3f fd f4 75 be
       -0.1975296 -0.3146948 1.0354518 -0.24019237
000060 83 ed 18 3e 04 a3 e5 3e 92 08 75 3e 40 6e 2c bd
       0.14934354 0.44850934 0.2392905 -0.04209733
000070 b6 a1 0c be ae 67 48 3e 25 c8 3a be 1e 8e 26 bf
       -0.13733563 0.195708 -0.18240412 -0.65060604
000080 13 8d 8e bd 38 c4 d3 3d 16 73 3d be a5 ed a2 3d
       -0.069605015 0.1034016 -0.18500933 0.07955483
000090 3f c0 bd bc 91 ed 5d be ac f4 3d 3e 6a 27 9a be
       -0.02316296 -0.21672656 0.18550366 -0.30108196
0000a0 f2 90 2c bf 25 4f ee bd cd 04 d1 bd 90 da 8f be
       -0.6740867 -0.11636189 -0.10205994 -0.28096437
0000b0 97 e5 06 bc 2c 8c 6d 3e 42 dd 32 3d c7 b2 6a 3e
       -0.008233449 0.23198003 0.04366804 0.2291976
0000c0 d7 aa f1 3c c6 d9 83 be 1d 1d ce bc ea 06 43 3d
       0.029500408 -0.25752085 -0.025160367 0.047614016
0000d0 68 92 5f bd d6 07 b5 3b 5c 16 60 bd 69 bc 39 3d
       -0.054582983 0.0055246158 -0.054708824 0.045345698
0000e0 a7 79 bc bc fa 6e 01 be 98 ce c3 bd 18 b2 2a be
       -0.023007227 -0.1263999 -0.09560889 -0.166695
0000f0 5c 6f e9 bc 09 e0 37 be 6b b7 15 be 20 5d 9d be
       -0.028495483 -0.17956556 -0.1462075 -0.3073511
000100 6b 0b 3f 3d 8a d8 38 be af df d9 bd cc 92 70 3e
       0.04664175 -0.18051353 -0.106383674 0.23493499
000110 e5 c5 9f 3b 99 ba e2 bd c1 8f b2 3c c1 73 85 bd
       0.004875886 -0.11070747 0.021797063 -0.06516219
000120 05 b8 18 be 5f d6 aa 3e 1d 40 03 be 6a d4 af 3e
       -0.14913948 0.33366677 -0.12817426 0.34341747
000130 6e a4 60 3f 2d 8a 0a 3f d7 98 33 3e 15 9b f5 3e
       0.877509 0.5411709 0.17538773 0.4796988
000140 df e7 86 3e bc 71 cd 3e b5 57 fd bd 2b c7 e3 3d
       0.2634878 0.40125835 -0.123702444 0.11121973
000150 a7 d9 be 3d 98 03 8c bf 1c 33 b7 be 65 5e 0d be
       0.09318858 -1.0938597 -0.3578118 -0.1380554
000160 8e e6 a1 be 49 11 23 be f0 df e1 3d 35 89 3f be
       -0.31621212 -0.15924563 0.11029041 -0.18704684
000170 2e c9 91 3e 02 8f 0a 3e 4d a9 33 bf ec 98 08 3e
       0.284738 0.13531116 -0.7018021 0.13339585
000180 6f 7a a6 3e c1 18 be 3e a5 2a f3 3e f7 83 ae bd
       0.32515284 0.3712826 0.47493473 -0.08521264
000190 70 fd a0 be 77 22 c9 bd 93 4b f8 3d e7 c8 13 bf
       -0.31443357 -0.09821027 0.1212379 -0.5772843
0001a0 13 79 8d bd 63 61 28 3e 28 1d 04 3e 07 cc 35 3e
       -0.06907859 0.164434 0.12901747 0.17753612
0001b0 d7 52 d5 3d ee 31 9a bc c2 ee 4c be b7 9e 03 3e
       0.10416191 -0.018822636 -0.20012954 0.12853514
0001c0 9b 8d c6 3b f4 a5 e4 bd 7f c3 4f 3e b0 48 45 3e
       0.006059361 -0.111644655 0.2028942 0.1926601
0001d0 6c a8 a9 3c d0 53 01 3e 6b 1e 21 be 20 0b b6 be
       0.020710193 0.12629628 -0.1573426 -0.35555363
0001e0 8d 52 2f 3e 3b 33 b7 3c 33 dc bb bd 94 fa b1 3e
       0.17121334 0.022363296 -0.09172859 0.34761488
0001f0 72 98 8f 3e 0d 17 0b 3e ac fe 26 be 52 71 4d be
       0.28045994 0.13583012 -0.16308087 -0.2006276
000200 84 36 87 be 53 62 51 be 44 e8 c7 be 9e 33 d4 be
       -0.2640878 -0.20447664 -0.39044392 -0.4144563
000210 3d 5e c3 bd 66 5c 91 be cc af c3 be 97 39 43 be
       -0.09539459 -0.28390807 -0.3822006 -0.19064938
000220 d1 a3 94 bd b1 8e 55 bd b3 d9 8d 3f 8c c3 47 3e
       -0.07257808 -0.052138034 1.1082062 0.19508189
000230 05 74 53 bf 57 8d fb 3e db 0a bb 3d a3 5d 26 be
       -0.82598907 0.4913127 0.0913293 -0.16246657
000240 9e ed e7 3e 4c 05 60 be b9 b9 fd be ec 83 ab 3f
       0.45298475 -0.2187702 -0.49555758 1.3399634
000250 02 a7 ca be ee fd c2 bf fc 14 04 3f 29 46 9b be
       -0.39580542 -1.5233743 0.5159452 -0.30326965
000260 df a1 00 bf a6 76 0a 3f 22 10 22 3e 43 bc b9 bd
       -0.50246996 0.54087293 0.15826467 -0.09069111
000270 f2 b5 92 3f a8 18 cb bd a3 87 80 bf dc 21 f8 3e
       1.1461775 -0.09916812 -1.0041393 0.48463333
000280 fd e7 62 be 35 d7 ba be bc 8e 2e 3f df ef 6d 3f
       -0.22158809 -0.36492315 0.68186545 0.9294414
000290 a0 73 1e 3f 8e 2e 54 3e e6 6a 1f bf 8b 73 55 be
       0.6189518 0.20720884 -0.6227249 -0.20844857
0002a0 0a 40 e8 bd c5 98 6f bf 3f 54 ad be 5a 02 e2 3e
       -0.113403395 -0.9359248 -0.33853337 0.4414242
0002b0 4c f6 44 3f 86 0b 09 3f ba 58 36 bb 4b 21 29 bf
       0.7693832 0.5353321 -0.0027823881 -0.66066426
0002c0 71 df 1b be 7f 44 8a bd 8e da 21 bf e1 9c 4e bd
       -0.15221955 -0.06751346 -0.63224113 -0.05044258
0002d0 54 28 21 3e 38 d4 f0 3e 2c cb 90 3e 3f ca ae bd
       0.1573804 0.4703691 0.28280008 -0.08534669
0002e0 9f 97 12 bf 03 d7 1d be 7f 4d 13 be 55 01 ee be
       -0.57262605 -0.15414052 -0.14385031 -0.4648539
0002f0 24 f2 2f 3e 11 54 b8 3d 59 6b 02 3e bf b0 97 bd
       0.17182213 0.090004094 0.12736262 -0.074067585
000300 6d be 26 3f 08 48 5f 3f f1 13 1a 3f 78 d5 c3 be
       0.65134317 0.87219286 0.6018668 -0.382488
000310 de 4f 44 bf fb 3b 24 bf b0 09 7f 3e f2 ca ba 3e
       -0.7668437 -0.6415402 0.24906039 0.3648296
000320 b4 a5 af 3e 60 58 c4 3e 65 87 07 3f e3 2c 07 3f
       0.3430611 0.38348675 0.5294097 0.52802867
000330 47 4c 50 bf 52 70 86 bf 3d 91 16 bf e5 ad b7 3d
       -0.8136639 -1.0503027 -0.58815366 0.089687146
000340 4d 6d cd 3c 76 ab 83 3d f2 d4 ca 3e 81 f2 ef 3e
       0.025076533 0.06429188 0.3961559 0.46864703
000350 78 35 c3 3e ec 73 09 bf ee 92 21 bf 5c 2f f1 be
       0.3812673 -0.5369251 -0.6311482 -0.47106445
000360 62 dd 1d bd 00 32 47 bb da 89 ee bd 2f 91 ae 3e
       -0.038541205 -0.0030394793 -0.11647387 0.3409514
000370 56 ac 4e 3f 2d ef d9 3e 00 31 9d 3e 3f fd 38 3f
       0.80731714 0.4256529 0.30701447 0.7226142
000380 44 22 46 3e 5d 83 55 be 11 33 47 be da 12 b8 be
       0.19349009 -0.20850892 -0.19453074 -0.35951883
000390 40 91 f2 bd 55 3a 82 3d 71 ef 98 bd 1d f9 28 be
       -0.118441105 0.06358782 -0.07467545 -0.16501279
0003a0 b5 fe 82 bc 49 6b c3 3b 77 84 a6 3e cd b2 ea 3e
       -0.015990594 0.005963717 0.32522938 0.4583954
0003b0 8e ee 15 3e a8 41 fd 3d b4 4e 91 3d 97 e3 97 bd
       0.14641783 0.123660386 0.070950896 -0.07416456
0003c0 c6 c5 4e be ae 55 bb be a9 80 9c be 3b a9 cd bc
       -0.20192632 -0.36588806 -0.3056691 -0.02510511
0003d0 51 ea d6 be c9 a7 1d 3e 47 13 c3 be 2d 3e 73 bf
       -0.41975644 0.15396036 -0.38100645 -0.9501675
0003e0 f9 fb 31 bf 8e 07 88 be 19 14 63 bf 7c 50 09 bf
       -0.69525105 -0.26568264 -0.8870254 -0.53638434
0003f0 1c 24 21 bc e1 1e 58 3d 47 d6 a6 3e f9 b1 ce 3d
       -0.009835269 0.052763823 0.32585356 0.10092539

conv1.bias f4 [16]
000000 66 bb 78 bc 5e ca 1d bc ab c0 2f bc 73 17 a3 3c
       -0.015181398 -0.009630768 -0.010727088 0.019908642
000010 b6 7d 96 3c 70 a4 ae bc 1e 3c 86 ba ed 73 a7 3b
       0.01837049 -0.021318644 -0.0010241305 0.005110255
000020 7f 1d 85 bc b8 a1 b0 bc dd 37 c5 bb a7 82 21 bc
       -0.016249416 -0.021561489 -0.0060186223 -0.00985781
000030 c6 31 04 bc 10 47 84 3c 24 b2 87 3b 65 ee 71 bc
       -0.008068508 0.016147166 0.004141109 -0.01476631

bn1.weight f4 [16]
000000 ec 1a 6b 3f 5a 5b 9b 3f dd 68 23 3f 2d c0 91 3f
       0.91837955 1.2137253 0.63831884 1.1386772
000010 01 14 45 3f bf c6 73 3f 80 cb 7e 3f 0b 51 5a 3f
       0.7698365 0.9522514 0.99529266 0.8527991
000020 02 dd 53 3f 46 ae 23 3f b8 4a 54 3f a2 fa 3c 3f
       0.82759106 0.63937795 0.8292651 0.73819935
000030 9e ad 30 3f 43 27 45 3f 05 9e 61 3f cc b5 2f 3f
       0.6901492 0.77013034 0.88131744 0.68636775

bn1.bias f4 [16]
000000 11 7a af 3f 98 5b 16 bf 09 8e 14 3e b4 99 0d be
       1.3709127 -0.5873351 0.14507307 -0.13828164
000010 9f 42 6c be a9 0c 10 3f 00 e8 cd 3d a2 2d 51 3f
       -0.23072289 0.5626932 0.10054016 0.81710255
000020 40 35 8a bd d0 5b e0 3e e7 b3 d2 3d 55 8f de 3e
       -0.06748438 0.43820047 0.1028822 0.4346873
000030 81 1d 45 3e 51 6a d4 3e ab 77 61 3e 19 22 1c 3f
       0.19249536 0.41487363 0.22018306 0.6098953

bn1.running_mean f4 [16]
000000 b7 45 2f be 85 3a 53 3f 42 c8 69 3e 5e 5f 46 3f
       -0.17116438 0.8251117 0.22830299 0.7748927
000010 0b 40 8a bd 1a cf 67 bd 19 5a 2e 3c f6 b8 a5 be
       -0.067504965 -0.05659399 0.010641598 -0.32367676
000020 4f 84 95 bf 36 d6 d7 3f 45 2d 37 be 00 02 b0 bc
       -1.1681002 1.6862247 -0.17888363 -0.021485329
000030 05 6b 8f bf 73 88 4b be 43 7d 0d 3f e7 d8 a3 be
       -1.1204535 -0.1987627 0.5526926 -0.3200142

bn1.running_var f4 [16]
000000 37 d1 5b 40 91 cf 09 41 10 fd f9 40 1b 54 aa 40
       3.4346445 8.613175 7.8121414 5.322767
000010 39 74 d9 40 e3 20 b1 41 56 e8 53 41 15 f1 6c 41
       6.7954373 22.141058 13.244223 14.808858
000020 ee 6b e3 40 15 c4 93 41 c4 c2 c7 40 d2 1f 13 41
       7.106925 18.470743 6.242525 9.195269
000030 5a 27 21 41 2c c5 a3 40 da 30 c8 40 3c 7b 3f 40
       10.072107 5.117819 6.2559633 2.9918966

layer1.0.conv1.weight f4 [16, 16, 3, 3]
000000 af be c4 3d 44 89 8d 3e 41 39 92 bd 5e 73 c4 be
       0.096066825 0.27643788 -0.071398266 -0.38369268
000010 e1 85 41 3f fe d7 d4 be e1 0b 7f be d4 f3 ec bc
       0.7559491 -0.4157104 -0.24906875 -0.02892486
000020 ba a9 3c be e3 4b 22 be 14 17 8e 3d 8f c9 5b 3d
       -0.1842412 -0.15849261 0.069379956 0.053659018
000030 8d eb f6 bd 77 b9 31 bd d6 86 a0 3d 30 73 d0 bd
       -0.120566465 -0.043389764 0.07838218 -0.1017822
000040 7c 56 40 3d 1d 03 41 3e a0 3a 31 bd c5 6d cf 3c
       0.046957478 0.18848844 -0.0432688 0.025320897
000050 95 d9 e3 bd de 4d 17 bd 98 d3 c8 3c 94 c1 02 be
       -0.11125485 -0.036939494 0.024514958 -0.12769157
000060 4e 6b e0 bd b6 a4 06 be e6 d9 02 be 19 b5 39 3d
       -0.10957967 -0.1314877 -0.12778434 0.045338724
000070 a7 11 00 be 26 9a 47 bd 5a 6c 9c bd f6 63 70 be
       -0.12506734 -0.04873099 -0.07637854 -0.23475632
000080 10 00 39 be 4a b5 dd 3d 90 56 a1 3d 4b 67 b5 3d
       -0.1806643 0.10825594 0.078778386 0.08857592
000090 29 f5 45 be 1c b6 27 be 7a 49 0e be c1 dd 84 bd
       -0.19331802 -0.16378063 -0.13895217 -0.06487609
0000a0 f1 36 9b bc 5e 60 d4 bd 7c cb 48 bd 0a 13 98 3d
       -0.018947097 -0.10369943 -0.049022183 0.074255064
0000b0 d5 6b 09 3d 86 5f a6 be 39 e3 89 be bc de 2d 3c
       0.033550102 -0.32494754 -0.2693117 0.010612186
0000c0 48 c7 bd be 31 89 89 be ed de 88 3e 37 59 2d 3e
       -0.37066102 -0.2686248 0.2673258 0.16928564
0000d0 35 41 46 be cb 0e 0c bd 59 a3 bc 39 27 80 16 be
       -0.19360812 -0.034193795 0.00035979858 -0.14697324
0000e0 6f 45 ad bd 48 df 80 bd 46 e7 a4 be ae bd 91 bd
       -0.08460509 -0.062925875 -0.32207698 -0.07116257
0000f0 52 2b 89 ba ad 75 92 be 11 ae 54 bd f9 e7 31 3d
       -0.0010465181 -0.28605404 -0.051923815 0.043434117
000100 5d 7b 95 be 23 df 9b bd b4 c8 a4 3e 21 57 75 3e
       -0.2919568 -0.07610919 0.32184374 0.23959018
000110 6f 0c 70 3e d8 38 a8 3e 6a cd 10 bc 78 a0 da 3d
       0.23442243 0.32855868 -0.008838037 0.10675138
000120 80 75 63 be b7 ce 34 bd 43 33 2b be 98 0b 82 bb
       -0.22212791 -0.04414245 -0.16718774 -0.0039686672
000130 05 fa 57 3e c7 8b bb 3d dc e7 9b 3c 8d 80 09 3e
       0.21091469 0.0915752 0.019031458 0.13427944
000140 1f 11 d6 3d e7 22 de 3d 17 89 30 3e 15 a4 c0 3d
       0.10452484 0.10846501 0.17239796 0.09406296
000150 5c 0c 9d 3d ca 32 ae 3d 3d cc 28 bd 26 2f 96 3d
       0.07668373 0.08505781 -0.0412104 0.073332116
000160 7c 6b 2c bd 0f b5 f0 bd af 1e 26 3c ae 6f 59 3e
       -0.042094693 -0.11753284 0.0101391515 0.21234009
000170 8f b3 bc 3d c6 98 9b bd 4f 71 67 3c d9 b3 11 3d
       0.092139356 -0.075974986 0.014126136 0.035571907
000180 ea 17 0b be 22 c7 d9 bc 8c 5f be 3c 69 33 ac bd
       -0.13583341 -0.026584212 0.02323892 -0.08408243
000190 87 3f c2 be b9 2e 4b be 09 36 48 3e c3 38 a9 be
       -0.37939093 -0.19842042 0.19551863 -0.33051118
0001a0 33 b1 f3 be 0e db 18 3d 19 f2 ac be 37 97 96 be
       -0.4759613 0.03731828 -0.33778456 -0.29412243
0001b0 d9 3e b0 bd e3 52 57 be a8 6f fd bc bc 6c ca 3d
       -0.08605737 -0.21027713 -0.03093703 0.09884021
0001c0 4a a3 d8 3d 83 c7 62 bd 48 2c 01 3e bf ec 41 3e
       0.1057802 -0.05536605 0.12614548 0.18937968
0001d0 e5 20 c9 3d 57 e5 d5 bc 5d 46 ff 3e 2b 73 25 be
       0.09820727 -0.026110334 0.4985837 -0.16157214
0001e0 45 18 80 3c 73 7c 01 3f 24 3f 03 be 48 a3 a4 be
       0.015636573 0.5058052 -0.12817055 -0.32155824
0001f0 76 0a 0c bf 4c 21 94 be b4 b4 e6 bd 04 3c 86 3d
       -0.5470346 -0.28931653 -0.11264935 0.06554416
000200 c0 ff c6 3d 5d b0 17 be d2 e6 d0 bd a7 0d 60 bd
       0.09716749 -0.14813371 -0.102002755 -0.05470052
000210 9e 5e ef bc e6 67 18 be 79 fd c3 bd e5 aa 10 3e
       -0.029219922 -0.14883384 -0.095698304 0.14127691
000220 61 59 b3 be fa a6 d9 bd bb c0 b4 3e f2 40 19 3c
       -0.35029128 -0.106275514 0.35303292 0.009353863
000230 1e 9c c1 be 5a d4 7c bb 6d b3 8e be f9 35 13 be
       -0.3781442 -0.003857872 -0.27871266 -0.14376058
000240 b9 a3 55 3e 7d 2f f0 bc a0 4a 39 bd b3 eb 73 3d
       0.20863236 -0.02931952 -0.045237184 0.059550952
000250 9e 57 2f be 35 ee 85 bd 6c 54 13 3e 56 67 a8 bd
       -0.17123267 -0.06539575 0.14387673 -0.08222835
000260 49 8d 23 bd 71 26 d4 3d de a1 32 3e 0a 3c e4 3b
       -0.039929662 0.103588946 0.1744456 0.006965165
000270 22 15 8f 3e fb c3 b6 3e 1a eb 49 3e f0 c7 1e bd
       0.2794581 0.35696396 0.1971859 -0.038764894
000280 b0 9e 0a 3d 25 1e d7 bd 65 7e be 3d cc 5a 38 3d
       0.033842742 -0.105037965 0.093014516 0.045008466
000290 0e ed f6 3c 74 93 0a 3e 09 73 ba 3d 82 b9 bc 3d
       0.030142333 0.13532811 0.091039725 0.0921507
0002a0 3d 03 36 3e 17 81 0c 3e ac 56 02 3e 63 1b 1f bd
       0.17774673 0.13721119 0.12728375 -0.038844477
0002b0 68 0b c5 3d 9b e4 7e bd eb f8 d0 3e 76 51 de 3e
       0.09621316 -0.062229734 0.4081491 0.43421525
0002c0 f7 06 86 3e c0 a8 8a 3c 29 cb b5 3d 74 4e 2f bd
       0.2617719 0.01692617 0.0887664 -0.042799428
0002d0 7e 17 00 3d 66 03 c9 39 14 50 c0 3b 8d e3 88 3e
       0.031272404 0.0003834024 0.005868921 0.26736107
0002e0 ab 2d 5d 3e 3a a0 57 3e 4c d2 68 3e 15 a2 39 3e
       0.21599452 0.21057215 0.22736472 0.18128236
0002f0 0c 56 35 3e 41 af e0 bd 7e 74 d8 bd 30 f0 a3 bd
       0.17708606 -0.10970927 -0.10569094 -0.080047965
000300 77 e4 3d bd 65 bb 27 bd 7e 71 29 ba 7c 30 8a bd
       -0.04636046 -0.040950198 -0.000646375 -0.06747529
000310 e5 e6 2f bd 31 e3 c1 bd d6 cb 1c 3e ea 95 22 3e
       -0.042944808 -0.094671614 0.15312132 0.158775
000320 aa 06 f2 3c bb 87 83 3c fb 5c cd 3c 82 dc fa bc
       0.029544193 0.016055932 0.02506875 -0.030622724
000330 99 d1 11 3e a3 38 13 3e 70 8e a9 3b 90 81 d6 3a
       0.14240111 0.14377074 0.0051744506 0.0016365517
000340 df 9c a8 bd 82 b0 ee bd 39 16 51 3d a2 d6 85 39
       -0.08233046 -0.1165476 0.051046584 0.0002552765
000350 a0 50 a1 3a 47 c4 3c 3e 2a 78 02 3e 46 f5 8c 3d
       0.0012307353 0.18434249 0.12741151 0.0688272
000360 c1 fd 68 bd e7 ba 95 bd c6 e2 6f bd 3d af a2 3d
       -0.056882624 -0.073110394 -0.058565877 0.0794358
000370 02 26 b3 3d 1e e1 9c 3d 14 56 32 3e 0e 86 10 3e
       0.08747484 0.07660125 0.17415649 0.14113638
000380 94 92 20 3e 23 f8 b5 3d c7 dc 30 3d 9f 43 87 bc
       0.15680915 0.08885219 0.0431793 -0.016511736
000390 72 2a 79 3d 85 7e 22 3c 28 6a 59 bd 94 d2 e7 3d
       0.060831495 0.00991786 -0.053079754 0.113194615
0003a0 f9 f4 a9 3d 8e 1d 5a 3c 2d e5 93 3d ed 57 11 3e
       0.08298678 0.01331271 0.07221446 0.14193697
0003b0 4f 05 48 3d 2f 8a 68 3e 85 7f 9c 3e 13 e0 89 3e
       0.048833188 0.22708963 0.3056604 0.26928768
0003c0 56 59 67 3c a6 94 9a 3d 8a 65 36 3d b6 40 b6 bd
       0.01412042 0.07547884 0.04453043 -0.088990614
0003d0 9f bc 1d bb 05 74 dc bc f3 7c bc 3c a8 53 0d 3e
       -0.0024068726 -0.026910791 0.0230088 0.13801444
0003e0 eb 90 72 3d 91 f0 f5 bc 98 d4 b5 3c fc 20 64 bd
       0.059220236 -0.030021938 0.0221961 -0.05569552
0003f0 9f 14 d2 bd 72 87 10 be cc aa 1b bd d2 e7 cd bb
       -0.102578394 -0.14114168 -0.03800468 -0.0062837387

layer1.0.conv1.bias f4 [16]
000000 f8 c2 b4 3a d9 3f cf bb 99 3b 2d bb ec 02 ca 3a
       0.0013791015 -0.00632475 -0.0026433228 0.0015412248
000010 8f 3b 02 bc a2 27 e6 bb 1c dd 9e 3a 09 c8 2c bb
       -0.00794877 -0.0070237676 0.0012120339 -0.0026364347
000020 81 2e 69 3b 7f b1 24 bb f6 ba 8d 3b 38 a9 db 3a
       0.0035580697 -0.002513021 0.004325266 0.0016758805
000030 cf 6f 16 bc ee 4d f4 3a 99 ae e8 3b 36 d9 83 bb
       -0.009181931 0.0018638948 0.007100892 -0.0040236963

layer1.0.bn1.weight f4 [16]
000000 a6 29 69 3f 78 57 5b 3f 67 85 65 3f 76 ef 36 3f
       0.91079175 0.8568034 0.8965668 0.7145914
000010 9f 4b 82 3f 56 94 1c 3f 01 b0 0f 3f ec 78 61 3f
       1.0179328 0.6116384 0.56127936 0.8807514
000020 bb 89 24 3f db ef 61 3f ab 13 4d 3f f0 7d 2a 3f
       0.6427266 0.88256615 0.80108136 0.66598415
000030 4a 58 68 3f e5 08 3b 3f f3 aa 1f 3f b9 98 45 3f
       0.9075972 0.73060447 0.6237022 0.7718616

layer1.0.bn1.bias f4 [16]
000000 48 f5 cf 3e 6a 1b df be 05 95 0f bf 87 68 ca 3e
       0.40616822 -0.43575603 -0.5608676 0.39532873
000010 3d ce 9c be 39 93 8b bc 90 6d 30 3d 8c 57 96 3f
       -0.30626097 -0.017037975 0.043073237 1.1745467
000020 ef 4c 5f be 62 e8 05 bf f3 64 2d bd 6b 86 8b 3e
       -0.21806692 -0.52307713 -0.0423326 0.2725099
000030 bf 65 25 3f ee 5d 81 3e 5e ad 23 be fa 33 ff be
       0.6460838 0.25266975 -0.15984103 -0.49844342

layer1.0.bn1.running_mean f4 [16]
000000 e9 a2 20 c0 37 fa 2d 40 b6 66 15 bf 89 9f 6f bf
       -2.5099432 2.718397 -0.5835985 -0.93602806
000010 84 2f 2d 3c 7a c2 26 c0 76 01 f3 3f 99 3d a4 bf
       0.010570411 -2.60562 1.8984821 -1.2831298
000020 c7 e5 24 c0 35 f6 18 c0 a0 a5 80 c0 79 ad 7d bf
       -2.5765245 -2.3900273 -4.020218 -0.99092823
000030 b1 8a 49 c0 2c ea d2 bf 67 ca 43 bf 0f b2 92 3f
       -3.14909 -1.6477714 -0.76480716 1.1460589

layer1.0.bn1.running_var f4 [16]
000000 e0 42 a7 40 28 cc 1e 40 75 33 fa 3f 3e a3 5c 40
       5.2269135 2.4812107 1.9546953 3.4474635
000010 a1 d5 96 40 d0 35 07 40 57 61 51 40 3d 5d 11 40
       4.7135777 2.1126595 3.2715662 2.2713158
000020 69 19 12 40 29 7e b5 3f 18 02 dd 40 27 3b 15 40
       2.282801 1.4179126 6.9065056 2.3317354
000030 89 13 a9 40 2a c0 50 40 27 9a 8b 3f 35 9c cc 3f
       5.2836347 3.2617288 1.0906419 1.5985171

layer1.0.conv2.weight f4 [16, 16, 3, 3]
000000 38 e0 20 be 32 3c 2e be 94 ea 3d 3d 13 9d 3c be
       -0.15710533 -0.1701515 0.04636629 -0.18419294
000010 06 66 56 3e d2 61 20 be 1b a3 00 be e0 e2 25 be
       0.20937356 -0.15662315 -0.1256222 -0.16199827
000020 12 88 fc 3d f0 4b 09 bc cb 26 02 be 0f 8c 8f be
       0.12330641 -0.008379921 -0.12710111 -0.28036544
000030 f2 d9 b4 3e 3d cc b7 3d de 90 1e bc 23 b2 9c 3d
       0.3532253 0.08974502 -0.009678094 0.076511644
000040 e0 15 21 bc 4d 2d 3c be 0f 4e 16 be 94 f5 c9 3d
       -0.009831876 -0.18376656 -0.14678214 0.098612934
000050 0f 2c 67 bd 4d 82 a1 bd 26 f2 d0 bb a1 2b 8e 3d
       -0.056438502 -0.07886181 -0.0063765226 0.06941915
000060 bc 52 a5 be 11 c1 07 bc 99 b5 a8 bd 06 f8 57 3e
       -0.32289684 -0.008285777 -0.08237762 0.21090707
000070 81 65 19 3e dc af 7f 3e e9 fe e7 bd 9e ac 0f bc
       0.14980127 0.24969429 -0.11327917 -0.0087691825
000080 ff ac 25 be df bf 95 bd 07 32 86 3d 44 e0 44 be
       -0.16179274 -0.07311987 0.06552511 -0.19226176
000090 e4 0b 17 be 69 02 99 be 20 12 91 bc ac e3 0e 3d
       -0.1475063 -0.2988465 -0.017708838 0.034885094
0000a0 07 0e 28 be ed 36 15 3c 2d 5a e3 bd f8 af 27 3e
       -0.16411601 0.009107334 -0.11101184 0.1637572
0000b0 df f0 13 bd 87 26 1a be 3a 20 35 3e ea 62 4d 3e
       -0.036118384 -0.1505376 0.17688075 0.20057264
0000c0 2e ea 3a bd a7 42 45 3d 13 7b 5b 3d 5c 03 2b 3e
       -0.045633487 0.048159268 0.05358417 0.167005
0000d0 83 f4 42 bd fa 50 a1 bd 38 bf 8b 3c 66 e0 1f bc
       -0.047596466 -0.07876773 0.017058954 -0.009758091
0000e0 25 59 12 be 21 c3 b3 bc 36 2a 2d bc 76 8e 82 bd
       -0.14291818 -0.02194363 -0.010569146 -0.063748285
0000f0 b2 30 3f 3e aa b3 67 3d cb 7a 87 3e ce 46 04 3c
       0.1867092 0.056567825 0.2646087 0.008073522
000100 b7 3e 18 bf 23 de b3 3e b1 83 e7 be 3b 73 4a 3f
       -0.59470695 0.35130414 -0.4521766 0.7908208
000110 21 85 91 3d 91 12 e0 bc fc da 0b bf 84 85 05 be
       0.071054704 -0.027352603 -0.5463102 -0.13039213
000120 97 92 1a 3e 93 bd 4d 3d 84 c3 51 bd 96 1f d0 bb
       0.15094982 0.05022962 -0.05121185 -0.0063514216
000130 59 ae 56 be 6b b5 92 bd ad 03 72 bc ab f3 14 bd
       -0.20964946 -0.07163509 -0.014771384 -0.036365192
000140 a7 1a ec bd ad 6b 5e be 1d 77 b8 3d 56 8e 53 bd
       -0.11528521 -0.21720763 0.09007094 -0.051649414
000150 dc af 96 be b7 3d f8 3d bf 9f b2 bd 94 98 26 be
       -0.29431045 0.12121146 -0.087218754 -0.16269141
000160 eb 4b b6 3c 2b bd 70 3e 60 9a 99 bb ff 1a 1e 3e
       0.022252997 0.23509662 -0.0046875924 0.15439986
000170 e7 68 33 bd 6b 65 6c bd 33 1d 35 3d b0 23 09 be
       -0.043801215 -0.057713907 0.0442173 -0.1339252
000180 b0 fb 0c 3e 76 45 8e 3d 02 3a 03 3e df 55 ac bc
       0.13767886 0.06946842 0.12815097 -0.02103704
000190 c7 3b ad be 8a 7c c9 bd c5 d2 08 3e 99 fe 8b 3e
       -0.3383467 -0.09838207 0.13361652 0.2734268
0001a0 8d 78 47 3b a0 ab 4a bd c7 c2 99 be 8d f3 0f be
       0.0030436844 -0.04948008 -0.30031416 -0.14057751
0001b0 45 91 10 3e a5 29 79 3e 47 74 64 bd f3 be 8a bd
       0.14117916 0.24332292 -0.055774953 -0.06774702
0001c0 48 bd 89 be c9 98 86 3e 71 35 26 3d 67 57 ed 3d
       -0.26902223 0.2628844 0.04057831 0.11588936
0001d0 a7 e1 16 3e 1b 98 38 3e 7a fa db 3c 5a 55 49 3e
       0.14734517 0.18026774 0.026852835 0.19661465
0001e0 df d1 79 be 62 38 de 3d 10 de a2 3e dc 0a c8 3d
       -0.24396466 0.10850598 0.31810045 0.09767696
0001f0 be 9a 02 3f 51 85 09 3e d4 7b 9f 3b 89 63 64 3e
       0.5101737 0.13429762 0.0048670564 0.22303595
000200 e1 ed e5 3d 81 15 86 bb e6 07 3f 3e 35 c2 4c be
       0.112270124 -0.004091919 0.18655357 -0.19995959
000210 d6 1e 94 3b 90 15 67 bd 54 87 d4 bd 0c b6 db bd
       0.0045202775 -0.056417048 -0.10377374 -0.10728082
000220 2b b7 77 be 38 51 1b 3c 00 4f 08 3c a7 8f ef bd
       -0.24190967 0.009479813 0.008319616 -0.116973214
000230 d6 4b a8 3d fd 26 18 be 0d 6b db be 33 db 27 be
       0.082175896 -0.14858623 -0.4285511 -0.16392212
000240 77 73 11 3d e4 1b d3 3b de cc 12 3d 14 9b 14 bd
       0.035510506 0.006442534 0.035839908 -0.036280707
000250 0c 6a 93 3d ab 95 48 3c 83 95 a1 bc 81 ac fd bc
       0.07197961 0.012242715 -0.019724613 -0.030966045
000260 ed 5a 9e bd f1 79 d5 be 22 d0 7c be eb d2 83 be
       -0.077321865 -0.41694596 -0.24688771 -0.25746855
000270 d1 2f a0 3d dd 1e 2b 3e 75 5e 14 3e 14 eb 19 bd
       0.0782162 0.16710992 0.14489157 -0.037577704
000280 98 8f 2a 3e 99 01 55 3e 15 6f e1 bd c9 fa 65 be
       0.16656339 0.2080139 -0.11007515 -0.22458948
000290 95 40 8f be 43 34 01 bd 49 2e 0e bd 94 17 99 3d
       -0.2797896 -0.03154398 -0.03471211 0.074752
0002a0 68 5d a2 be b0 1b 71 be 08 9b 5d bd e8 24 af bd
       -0.31711888 -0.23545718 -0.054102927 -0.08551961
0002b0 e6 b7 92 bc 77 30 9b 3d b4 a5 fa bd 56 0c 37 be
       -0.017909955 0.07577603 -0.122386366 -0.178758
0002c0 98 20 63 bd a2 bc 68 be bc 79 a9 be 54 44 51 be
       -0.055451006 -0.22728208 -0.33100688 -0.20436221
0002d0 e4 31 06 be de f3 6f bd 06 42 49 be 96 3f 3b 3e
       -0.1310497 -0.05858218 -0.19654092 0.18285975
0002e0 aa 36 84 3e 5a 34 0a 3e dc 30 20 3e cb 33 89 3e
       0.25822955 0.13496533 0.15643638 0.26797327
0002f0 cf 29 12 3e e0 32 a5 3d 40 81 df bc ca 8d 04 3c
       0.14273761 0.08066344 -0.02728331 0.008090446
000300 02 1d 27 be a0 fe 43 be ef 4e b8 bd 13 a6 32 be
       -0.1631966 -0.191401 -0.089994304 -0.17446165
000310 de 44 2a be 82 75 6b bd 2a 8d 53 be e7 0a b9 bd
       -0.16627833 -0.05748511 -0.20659319 -0.090352826
000320 5e e1 65 bd 97 65 02 be fd 59 dd 3b d3 9a 8a 3d
       -0.05612313 -0.12734066 0.006755112 0.067678116
000330 f6 3e bd bd c9 a2 49 bd 02 45 7f bc 97 35 88 3d
       -0.092405245 -0.04922751 -0.015580418 0.066508465
000340 eb 96 a6 3d 60 2d 1b bd 55 40 0f 3e 4c ce 67 3d
       0.08134254 -0.03788507 0.13989384 0.056593224
000350 70 a1 48 3d 2f 1b bb 3d 69 3f 6c 3d 6c f1 4b bc
       0.048982084 0.09136044 0.05767766 -0.012447696
000360 b1 d1 1f 3e cc a4 fd 3d 5a 29 f7 3d e9 61 6e bc
       0.15607335 0.12384948 0.12068434 -0.014549711
000370 04 db 26 bd e6 ac 77 bd b0 ee 5a bd 57 63 a5 bd
       -0.040736213 -0.060467623 -0.053450286 -0.08075588
000380 c3 d1 98 bd 79 37 b4 3d c4 53 77 bd 0b 88 00 be
       -0.07461884 0.08799643 -0.06038262 -0.12551896
000390 af d8 f1 3c d9 06 a3 bd 2e 93 16 be e8 7a a8 3d
       0.029522268 -0.079602905 -0.14704582 0.082265675
0003a0 aa cd 96 bd 58 97 36 be 24 ae ec 3d c8 81 ab 3d
       -0.07363446 -0.1783117 0.11556652 0.08374363
0003b0 4e 60 01 3d e5 b6 86 3e 82 47 17 3e 3f bc a6 3d
       0.031585984 0.26311412 0.14773372 0.08141374
0003c0 0b 08 72 3e 40 72 0b 3e f8 7a c7 3d 28 ac 81 be
       0.2363588 0.13617802 0.09740251 -0.25326657
0003d0 eb d2 02 be 5e c8 82 3d 33 bb 96 be 8f af cc bc
       -0.12775771 0.06385873 -0.29439697 -0.024986057
0003e0 7e 5e 24 3e 94 72 7e be 40 c9 44 be bb 50 47 3d
       0.16051671 -0.24848396 -0.19217396 0.048660975
0003f0 00 c2 8d 3c e3 d1 91 bc 6f e2 03 be 8e de a4 3d
       0.01730442 -0.017800277 -0.12879346 0.080502614

layer1.0.conv2.bias f4 [16]
000000 27 93 7c bb 2a e9 5a 3c 91 35 96 bb 9d 94 ca 3a
       -0.0038539858 0.013361255 -0.0045840223 0.0015455667
000010 1c 0c cd 3b e3 29 87 3b 86 12 27 bb 17 a8 bc bb
       0.006257547 0.0041248663 -0.0025493219 -0.0057573426
000020 ac 3e e6 3b 86 e1 b1 bb a4 61 fe bb 9c 0f 1b 3c
       0.007026514 -0.005428496 -0.0077631045 0.009464171
000030 34 17 e3 bb 5b bd 71 3b 91 bc cb b9 98 ac 86 3a
       -0.0069302563 0.0036886546 -0.0003885967 0.0010274826

layer1.0.bn2.weight f4 [16]
000000 21 12 a2 3f b2 29 23 3f 20 71 e5 3e 84 9c 88 3f
       1.2661783 0.63735497 0.4481287 1.0672765
000010 bc f2 78 3f f8 f4 95 3f ef 5d 96 3f 1d ac 5d 3f
       0.97245383 1.1715384 1.1747416 0.8659075
000020 b6 d9 4d 3f c9 f8 3e 3f 27 bd 63 3f f3 fc ae 3f
       0.80410326 0.74598366 0.889605 1.3670944
000030 74 f5 70 3f 50 36 86 3f ea bc f8 3e 80 5d 77 3f
       0.9412453 1.0485325 0.4858163 0.96627045

layer1.0.bn2.bias f4 [16]
000000 9f 84 26 be fb dc 97 3c c8 c4 71 3e 3c e9 da 3e
       -0.16261528 0.018537989 0.23610222 0.4275607
000010 b4 f9 a6 3d 7c ad bc be 79 dc 68 3e a2 31 70 3c
       0.08153096 -0.36851108 0.22740354 0.014660271
000020 23 b4 22 bd 05 0d 08 be e0 bb 8c be b8 78 9d 3d
       -0.039722573 -0.13286217 -0.27487087 0.07689041
000030 36 66 a3 3e ef b0 8f bd 3e 3a 96 3d 7a 81 14 3c
       0.31913918 -0.07016169 0.073353276 0.009064073

layer1.0.bn2.running_mean f4 [16]
000000 fa d7 bf be 45 37 ee bd d8 9f b8 3c b8 d6 08 bf
       -0.37469465 -0.116316356 0.022537157 -0.53452635
000010 e0 4b 9c bf 2f 2e 1a bf 08 e3 a1 3e 30 46 44 bf
       -1.2210655 -0.6022672 0.31618524 -0.766696
000020 a6 60 9d 3f 26 e7 a1 bf 6e 54 a9 bf 28 06 c9 3e
       1.229512 -1.2648666 -1.3228891 0.3926251
000030 21 d9 e0 bf 87 58 01 3f 7c 44 15 3e 3c ff 91 3f
       -1.7566262 0.50525707 0.14576906 1.1406016

layer1.0.bn2.running_var f4 [16]
000000 f6 a0 b9 3f 11 00 8d 3f 00 4b fc 3f cc eb 0b 40
       1.4502246 1.1015645 1.9710388 2.186267
000010 3e b8 2d 40 14 a8 7c 40 1e 5b 72 40 6e 52 5c 40
       2.7143703 3.9477587 3.7868114 3.442531
000020 50 5e 18 40 54 9c d1 3f fe 01 ae 3f f8 ff 8e 40
       2.3807564 1.6375833 1.3594358 4.468746
000030 72 0c 0f 40 f0 91 29 40 ee 44 75 3f 4c 80 1f 40
       2.2351346 2.6495323 0.95808303 2.4922056

layer1.1.conv1.weight f4 [16, 16, 3, 3]
000000 2e 7c d0 be 74 48 10 3f 84 97 9d 3d 07 f5 95 3e
       -0.40719742 0.56360555 0.07694915 0.29288504
000010 43 10 7e bf 9e 49 82 3d fd 3d a7 3d dc 55 36 3f
       -0.99243563 0.063616976 0.0816612 0.7122476
000020 56 70 b0 be a3 fe 2b 3e cf d2 13 3e 56 6c 80 3e
       -0.34460706 0.16796355 0.14435886 0.25082654
000030 a5 1d a1 bd 30 a2 e9 3b b8 5e ef 3c 02 5f 3f bd
       -0.07866982 0.00712993 0.02921997 -0.046721466
000040 e0 5e bc bd 29 e4 ca bc 53 00 2c 3e 75 00 a8 3e
       -0.091977835 -0.024766998 0.16796999 0.3281285
000050 ee c3 a8 3e 49 d9 c6 bd 51 71 4a ba c8 bc a4 3d
       0.32961982 -0.097094126 -0.0007722574 0.0804382
000060 cf dc 1e bc 63 cf 49 be c4 1c 7f 3d 81 ff 12 3d
       -0.0096962 -0.19708018 0.062283292 0.0358882
000070 32 6d 1c be 3b ff 37 be 10 5d 07 3d e0 e4 c8 3e
       -0.1527603 -0.17968456 0.033047736 0.39237118
000080 97 20 30 3e 8d a0 80 bd 42 9b 0b be 3c 89 c3 3d
       0.17199932 -0.06280623 -0.13633445 0.0954766
000090 2b 90 93 bc f3 75 15 bd 97 0c b7 bd e9 ee 54 bc
       -0.01801308 -0.03648944 -0.08937948 -0.012996414
0000a0 8a 83 45 3e ba ab 06 3e ad 96 5f bc 96 1c 2a 3c
       0.1928846 0.13151446 -0.013646764 0.010382792
0000b0 dc 39 9a bb 49 2f 3a be 9b bd b2 be f2 ba a2 bd
       -0.0047066044 -0.181821 -0.34910282 -0.07945813
0000c0 8a 33 62 3e 18 09 93 3e d7 2b 42 bf b1 91 4a be
       0.22089973 0.28717875 -0.75848144 -0.1978214
0000d0 ce 1f 2b 3e 19 87 bb 3e 2f 76 48 bd 0b 7b ce be
       0.16711351 0.3662651 -0.048940834 -0.4032825
0000e0 34 33 2a be de 44 a5 be 0d c9 89 3e aa 13 11 bf
       -0.16621095 -0.32279104 0.26911202 -0.5667063
0000f0 2d 20 4f be 07 38 24 bf 61 b2 34 be cd cb 64 3e
       -0.20227118 -0.6414799 -0.17646171 0.22343369
000100 53 69 d0 3e 68 76 6d 3e b9 6c 02 bd 71 d0 63 bd
       0.40705356 0.231897 -0.031841967 -0.055618707
000110 b3 69 f2 3d b6 71 61 be 12 cc 16 be aa 0e 89 bd
       0.11836567 -0.22016034 -0.14726284 -0.0669225
000120 83 69 2a bc 15 f6 24 bd 99 75 29 bd 7f 51 c3 bb
       -0.0104011325 -0.040273745 -0.041371915 -0.005960643
000130 b1 8d 8a 3d 2a e9 96 3c fd ed 56 bd 44 31 a4 3c
       0.06765307 0.018421728 -0.052473057 0.020043023
000140 59 9e a6 3d c0 99 d8 bd f8 b7 53 3d 55 9f 36 3e
       0.08135671 -0.105762005 0.05168912 0.17834218
000150 36 28 1b bd fa 04 26 be da 26 b1 b8 fa a8 2e be
       -0.037880145 -0.16212836 -8.4472544e-05 -0.17056647
000160 16 c1 55 be fa fc 1d be 99 5f 26 3e 0a cc e2 3d
       -0.20874438 -0.15428534 0.16247405 0.110740736
000170 bf d4 16 3d e1 09 fa bb d4 8d a8 3d ae 2b e6 bc
       0.036823984 -0.007630572 0.082301766 -0.028097
000180 8d ee 57 bd e9 f8 1b bd a1 25 36 bb 0e 88 0b 3e
       -0.052717734 -0.038079176 -0.0027793425 0.1362612
000190 01 b3 2a 3e dc af b9 bc a7 8f 72 be 50 fc 7e be
       0.16669847 -0.022666864 -0.23687612 -0.24900937
0001a0 c5 11 8d 3e 1e c1 94 3e 40 17 f0 3d d5 18 d2 bd
       0.2755262 0.29053587 0.117231846 -0.102586426
0001b0 22 20 8c bd 32 74 f8 3c 10 5d 48 be 82 fc bc 3d
       -0.06842066 0.030328844 -0.1956675 0.092278495
0001c0 62 a8 93 bd da 6a be 3e 3f 28 35 bd 5d af 34 3e
       -0.07209851 0.37190896 -0.044227835 0.17645021
0001d0 da ea 16 be e1 b7 17 be a0 3c 23 be 36 6c 0d be
       -0.14738026 -0.14816238 -0.15941095 -0.1381081
0001e0 42 0b 45 3c e2 54 73 be db 4d b3 bd 76 01 bb bd
       0.01202661 -0.23762849 -0.08755084 -0.09131138
0001f0 8f 0a c9 3d 56 6d 2a be 58 de 42 bd 65 0c 27 3c
       0.09816467 -0.16643271 -0.047575325 0.010195826
000200 bd 82 42 3e 54 ce 01 be 83 47 68 3d 1c f2 87 3d
       0.18995185 -0.12676364 0.056708824 0.066379756
000210 e5 65 91 be d9 5d 3f be 2d b8 2b be 1f a9 f2 3c
       -0.28398052 -0.18688144 -0.16769476 0.029621659
000220 09 5a 48 3e 35 cb 3a be fb 53 a3 be af 4b e0 be
       0.19565596 -0.1824158 -0.3190001 -0.43807742
000230 24 69 8d 3e ae ec 27 be fe fa eb 3d 94 3b 5d be
       0.27619278 -0.1639888 0.11522482 -0.21604759
000240 1b 9a 80 3d 19 cc 3e bf 0d 03 4a 3e 76 1b 2f bf
       0.06279393 -0.7453018 0.19727726 -0.6840128
000250 ec 2a 97 3e 8f 1c 00 3e e6 8a 7e 3e 14 4c 1d 3e
       0.29524934 0.12510894 0.24857673 0.15361053
000260 e6 92 39 bf 48 9d 12 3e fc a9 79 3e 1a 30 6f 3d
       -0.72489774 0.1431781 0.2438125 0.058395483
000270 d0 ad 3a 3d 69 96 9c 3d c7 74 a4 bd 96 94 86 bd
       0.045575917 0.07645876 -0.08030086 -0.06571309
000280 68 2e 6b bd 50 0a b7 3c 38 93 34 3b 8d 37 cc bd
       -0.057417303 0.022343785 0.002755357 -0.09971533
000290 6f 5e e9 bc 4c 1c 45 3b d6 ea 94 bd ee df 4c 3e
       -0.028487412 0.003007668 -0.07271354 0.20007297
0002a0 2b 90 7e 3c 52 56 c7 3d a4 3b 5e 3e 16 d5 d9 bc
       0.015537302 0.09733261 0.21702439 -0.026590865
0002b0 56 54 c9 3e c5 00 7c 3e 52 55 05 3e a3 07 58 3c
       0.39322156 0.24609669 0.13020828 0.0131854145
0002c0 17 1f 3c be 4f b3 ed bd ec 43 9c bd 3a 8c 55 3e
       -0.18371235 -0.11606466 -0.076301426 0.20854273
0002d0 dd c7 ae 3d 4f 7b cd bb 19 67 89 bd 11 3f 26 3e
       0.08534215 -0.006270803 -0.067091174 0.16234995
0002e0 a4 6e 20 bd dc 35 e5 bc a9 4f 19 3e 8a de cc bc
       -0.039168015 -0.027979784 0.14971794 -0.025008459
0002f0 78 4e 3c bd c3 c5 a5 3d fa 0d 0f be 03 69 85 be
       -0.04597327 0.08094361 -0.13970175 -0.2605668
000300 51 77 01 3d 06 9b 00 bf 50 d5 b6 bd 89 0b 6a be
       0.03160793 -0.50236547 -0.08927405 -0.22855963
000310 29 c1 7e 3d ed 4b bd 3c 8c e1 45 3e d7 cb 15 3d
       0.06219593 0.023107493 0.1932432 0.03657135
000320 29 f9 ec be 19 97 1d 3d 9f d6 e4 be 11 ee 63 be
       -0.46283844 0.038474176 -0.44694993 -0.22258784
000330 3e 93 c5 be 0a 7e 08 be f0 93 a4 3d f5 5b bc 3e
       -0.385889 -0.1332933 0.08036029 0.36788908
000340 6b 40 70 be 7c 43 99 3d 2e 2a c3 bc 89 26 58 be
       -0.23462074 0.07483575 -0.023823824 -0.2110845
000350 2b 69 11 3e 06 fe 96 3e de 48 57 3e 11 86 05 be
       0.14200275 0.2949068 0.2102389 -0.13039424
000360 a1 c8 21 3e ba 62 c8 3d 36 dd 19 3e 70 e6 70 3c
       0.1579919 0.097844556 0.15025792 0.014703378
000370 d4 22 4d bd 15 0a 32 bd 89 84 7e bd 17 a8 cc bd
       -0.050082043 -0.043466646 -0.062138114 -0.09992998
000380 da 30 7f bd 3c 7c 70 be 78 0a ee bd b8 9a ff 3d
       -0.062302448 -0.23484892 -0.116230905 0.12480682
000390 be 95 92 be 99 b1 e4 3d ec 85 35 3e a9 8a cd bd
       -0.2862987 0.111666866 0.17726868 -0.10036213
0003a0 5a 11 4c 3e 66 e4 d9 3d 18 6d 33 3e 26 f3 03 3d
       0.19928494 0.10639267 0.17522085 0.032214306
0003b0 51 39 ef 3c 74 81 c1 3d c1 d1 cd bc d0 9b b3 bd
       0.029202135 0.09448519 -0.025124433 -0.08769953
0003c0 3c 3f c9 bc e6 39 f7 bd ec 50 3d be 85 8b cc be
       -0.024566285 -0.1207159 -0.184879 -0.39950195
0003d0 b9 52 c5 be 34 bf f3 3d 4d bd 65 be d8 79 b3 3e
       -0.38539675 0.119017035 -0.22435494 0.35053897
0003e0 28 0c ac be 08 61 da bd 7c cd 47 be d2 34 46 be
       -0.33603024 -0.106630385 -0.1951198 -0.19356087
0003f0 fe 27 02 be 28 93 6a be e5 d4 8e 3e bc 33 a4 bd
       -0.12710568 -0.22907698 0.278968 -0.0801768

layer1.1.conv1.bias f4 [16]
000000 ff 82 9b ba b8 df fc bb 99 f8 b5 3b 5a a3 0a 3a
       -0.0011864601 -0.007717099 0.005553317 0.00052886235
000010 d5 9d c6 bb 25 a8 f1 3b ff 65 fa bb 2f 0d 05 bc
       -0.0060612955 0.0073747807 -0.0076415534 -0.008120819
000020 e0 23 07 bc ed fc 83 bb c0 54 df 3b f3 c0 c4 ba
       -0.008248299 -0.004027954 0.006815523 -0.0015011117
000030 b2 28 1c 3c f6 67 82 ba 55 2e 01 bc 5f 46 e4 39
       0.009531187 -0.0009949196 -0.007884582 0.0004353998

layer1.1.bn1.weight f4 [16]
000000 1d 8c 6f 3f a8 05 83 3f 84 25 6d 3f 0d 0c 64 3f
       0.9357317 1.0236101 0.9263537 0.8908089
000010 f8 ac 51 3f 80 48 45 3f 9c 29 5b 3f 24 9c 53 3f
       0.81904554 0.7706375 0.85610366 0.82660127
000020 05 00 78 3f 25 d0 8e 3f 4a ca 32 3f 68 cf 5c 3f
       0.9687503 1.1157271 0.6983992 0.86253977
000030 2f d3 4d 3f 3c cd 3b 3f 77 03 11 3f 17 c7 33 3f
       0.80400366 0.7336004 0.5664591 0.7022566

layer1.1.bn1.bias f4 [16]
000000 03 3c 83 be 9c 16 70 be 30 9c 10 bc 6f fb 8c bd
       -0.25631723 -0.23446125 -0.0088263005 -0.06883895
000010 62 01 8f be dd e3 3c be 5f 20 d1 be 24 96 28 bf
       -0.27930743 -0.18446298 -0.4084501 -0.65854096
000020 76 5a 9d bd 8f b4 16 bf 7c 37 17 bf 82 2b 19 bf
       -0.0768327 -0.5886926 -0.5906904 -0.5983201
000030 c2 9b 83 be 5b 43 08 3e 53 8e 81 be d2 d2 22 be
       -0.2570477 0.13306944 -0.25303897 -0.15900734

layer1.1.bn1.running_mean f4 [16]
000000 76 bc 04 c0 a3 44 53 c0 22 95 ee c0 e1 27 93 c0
       -2.0740027 -3.3010643 -7.4557047 -4.598618
000010 a3 54 0f c0 7b 5a ea 3f 8a 07 19 40 1c 5c b9 bf
       -2.2395408 1.8308862 2.3910851 -1.4481235
000020 d3 f5 e5 bf c1 c3 ca c0 e4 36 36 40 d5 b3 2d 40
       -1.7965645 -6.3363957 2.8471003 2.714101
000030 89 97 47 c0 2a f5 2d c0 6a 96 96 c0 ee c9 c3 bf
       -3.118624 -2.7180886 -4.705861 -1.5295999

layer1.1.bn1.running_var f4 [16]
000000 1e 55 90 41 ef 9c 81 41 ed bb 33 41 bd fd 3f 41
       18.041561 16.201628 11.23338 11.999448
000010 7b c5 bb 40 d2 61 2e 41 02 69 9f 40 46 04 31 40
       5.8678565 10.898882 4.9815683 2.7658858
000020 fb bd 32 42 84 6c 8b 41 73 7c 2a 40 1e 10 8d 40
       44.685528 17.427986 2.6638458 4.4082174
000030 95 e0 03 41 b1 a2 05 41 17 73 67 40 30 15 ed 40
       8.24233 8.35222 3.6163995 7.4088364

layer1.1.conv2.weight f4 [16, 16, 3, 3]
000000 a7 0a a6 bd e9 71 96 be de 49 49 bc c5 d6 85 bd
       -0.081075005 -0.29383782 -0.012285678 -0.06535105
000010 70 38 c0 bc 2d 8d 45 3d 74 fa cc 3c 66 a7 80 be
       -0.023464411 0.04823034 0.02502177 -0.25127715
000020 60 e2 21 3e 1e 85 d9 3d b3 95 71 3e 53 76 06 be
       0.15809011 0.10621093 0.23592262 -0.13131075
000030 9b 62 e2 3e 94 16 b4 3e d6 74 c8 3e 4b 53 0f 3d
       0.44215855 0.35173476 0.3915164 0.034991544
000040 e6 d9 8f 3e 7b d0 77 3e 2e 53 9f bb 28 99 25 be
       0.2809593 0.24200623 -0.0048622107 -0.16171706
000050 41 5a 6e bd fa c2 ab bd b0 ed 95 bd 37 a8 4a 3e
       -0.05819154 -0.08386798 -0.07320726 0.19790731
000060 63 60 42 be d9 95 bb bc 75 9e aa bb 5f 22 af bc
       -0.18982081 -0.022898601 -0.005206878 -0.021378694
000070 56 de aa 3d 62 52 1f 3d 1a 8a c0 bc e0 e7 9c 3e
       0.083431885 0.038896926 -0.023503352 0.30645657
000080 f2 e7 f6 3d fb 4c 08 be a0 1e 0e 3e cc 67 25 3e
       0.12055959 -0.13310616 0.1387887 0.16152877
000090 37 48 19 bc fa af 8d bc ee 85 37 bd d2 2d 62 3d
       -0.009355596 -0.017295826 -0.04480546 0.05521948
0000a0 78 8a 94 3e 37 eb de 3d 94 cf ac 3d 17 57 c2 3d
       0.29011893 0.108847074 0.0843803 0.09489267
0000b0 62 ab 98 3d 8b 43 4a bd 0b a3 63 bd 4d 90 0f 3e
       0.07454564 -0.04938082 -0.05557541 0.1401989
0000c0 1d 06 8b be fc 86 3e be 6a 15 78 3e f5 2f 57 be
       -0.27153102 -0.1860618 0.24226919 -0.21014388
0000d0 fb 23 de bd a0 8a 73 bd 53 4b b4 bd d4 2a d5 3c
       -0.108467065 -0.059458375 -0.088034295 0.026021399
0000e0 e9 9d 19 3d 65 cf e7 3d 93 b4 57 3d c1 de c9 3b
       0.03750411 0.11318854 0.052662443 0.0061605875
0000f0 45 22 08 be fc 4c 5f bd 65 00 34 be e9 6a af 3d
       -0.13294323 -0.054516777 -0.17578276 0.08565313
000100 cc 84 90 3e 33 36 21 3e 0f 25 e3 bd 53 c1 2c bd
       0.28226316 0.15743332 -0.11091053 -0.042176556
000110 f5 cd 88 bd 44 f6 89 bd 4c df 20 3d d3 0f 83 bd
       -0.06679908 -0.067364246 0.039275452 -0.063995026
000120 e4 26 d2 bc 22 87 fa bd ee 2a 13 be e8 da 3f be
       -0.02565331 -0.12232806 -0.14371845 -0.1873585
000130 4f db 75 be 79 c4 8c be 79 16 ba be b8 ce 7f be
       -0.24009441 -0.27493647 -0.3634527 -0.249812
000140 fa 67 d0 3c a0 2c 8e 3d 78 d1 87 3d 81 e3 60 3e
       0.025440205 0.06942105 0.0663175 0.21961786
000150 1e 6b 47 bd 24 67 19 3e 04 cc e8 3d ca 93 3f 3e
       -0.04868614 0.14980751 0.11367038 0.18708721
000160 9b b3 4f 3e 03 28 16 3e 9c 4e 1c bd 09 b7 a1 bd
       0.20283358 0.14663701 -0.038160905 -0.07896239
000170 d3 59 11 be 79 e2 99 bc 62 f3 90 3d 2d d1 58 bd
       -0.14194421 -0.018784748 0.070776716 -0.05293386
000180 6c ce b9 bc 1a d7 96 bd b2 63 79 bc 3f c9 e3 bc
       -0.022681437 -0.07365246 -0.015221523 -0.027805923
000190 8c e1 8b bd ab 8c 83 be 83 e2 de 3d be 36 d8 bd
       -0.06830129 -0.2569326 0.108830474 -0.10557316
0001a0 31 02 4f be 63 82 a6 be e3 d2 d1 be 3e 81 30 be
       -0.2021568 -0.32521352 -0.40981206 -0.17236802
0001b0 53 48 c0 3d 27 b4 26 3e cc d3 93 3c a9 05 08 3e
       0.09388795 0.1627966 0.018045329 0.13283409
0001c0 4c 1b 33 3e 7c a9 47 3e 89 a9 f5 3d 43 9d 14 3e
       0.17490882 0.19498247 0.11995227 0.14513116
0001d0 36 6e 3a 3e 9b 64 0e 3c 86 67 c1 3d a9 9f d3 bb
       0.18206105 0.008690978 0.09443574 -0.006458242
0001e0 a7 2d d1 3d 50 4a 7e be a8 16 ae 3d ca 02 1f be
       0.102137856 -0.24833035 0.08500415 -0.15528408
0001f0 16 a6 9e 3d 3f 29 5c bd 8c 49 52 bd 92 60 80 bc
       0.07746522 -0.053750273 -0.05133967 -0.015671048
000200 79 2f 2c 3d 65 3b 50 bc a0 8b 81 bb dd 3b ab 3d
       0.04203746 -0.012709473 -0.003953412 0.083610274
000210 a0 a4 00 be 61 03 9d bc 4e 73 94 3c ca d7 0f 3d
       -0.125628 -0.01916665 0.018121388 0.0351179
000220 fc 9f 7e bd 51 3a 6f bd ef c5 6d be 71 d5 f0 bd
       -0.06216429 -0.058405224 -0.23220037 -0.11759461
000230 9d 89 0f be 7b 59 8a be c1 6d 9b bd 31 53 af bd
       -0.14017339 -0.27021393 -0.07589293 -0.085607894
000240 15 73 db bd ed 3e cf bd 35 c0 16 3e 7b 7d 25 3e
       -0.107153095 -0.10119424 0.14721759 0.16161148
000250 e8 cb 35 bd d5 ef 1b be 61 d5 14 3c 3c 45 46 3d
       -0.044383913 -0.15228207 0.009084077 0.04840587
000260 77 b1 17 3e 1a 0f a6 3d 29 47 3a be 6f 94 1c be
       0.14813791 0.08108349 -0.18191208 -0.15290998
000270 02 32 20 be 9e 74 ab be 9f a5 74 be af 5d cd bc
       -0.15644076 -0.3348741 -0.23891304 -0.025069086
000280 35 b6 38 be ec 78 a4 bd 29 5a d8 bc 8e 46 99 3d
       -0.18038256 -0.080308765 -0.02641018 0.0748416
000290 5c 36 9d 3d 82 09 78 bd 0c a3 16 be 56 08 93 bd
       0.07676384 -0.060555942 -0.14710635 -0.07179324
0002a0 6f 89 5c bd 1c de 92 3a d3 8f 99 3d be 12 1a bd
       -0.053842004 0.001120511 0.074981354 -0.03761553
0002b0 e5 46 e7 bd b9 62 57 bd 6c 90 2f be 4d fc c7 bd
       -0.11292819 -0.052584384 -0.17144936 -0.097649194
0002c0 cf d6 25 be 46 9e 20 3e 37 2e b3 3d cf 7b 33 3d
       -0.16195224 0.15685377 0.08749049 0.043819245
0002d0 6f 81 c2 bd 5f f7 db 3d f3 c1 1c 3e 7c 4c 02 bd
       -0.09497344 0.10740542 0.15308361 -0.031811222
0002e0 a1 ec 4a bd 4d aa 2b 3c 6f 91 b4 3d 94 4f 69 bd
       -0.049542073 0.010477615 0.08816802 -0.056960657
0002f0 12 74 e1 bd 3b 3c 92 be 45 1d 99 be 29 a8 58 bb
       -0.11008467 -0.28561577 -0.29905143 -0.0033059216
000300 33 28 e4 be c0 ac bb be a2 a7 f3 bc 34 de 85 be
       -0.4456192 -0.36655235 -0.02974302 -0.2614609
000310 15 7c 93 be bd 49 1b bd 77 11 cb bb d2 72 05 bd
       -0.28805605 -0.03791212 -0.0061971503 -0.032580204
000320 44 ec 17 bd bc 36 15 3e bd 4e 93 3d e5 82 6d 3c
       -0.037090555 0.14571661 0.071927525 0.01449654
000330 78 bb fc bb 5d 0e 19 be a1 2f 37 bd a1 0a 3b 3c
       -0.0077127777 -0.14946885 -0.044723157 0.011416108
000340 b1 41 fe bd fa 64 32 bd 5c b5 74 bd 3d 42 6d be
       -0.124148734 -0.04355333 -0.05974327 -0.23169799
000350 e9 f9 19 be ca ed f9 bd 7b bf 57 be 15 d2 22 be
       -0.1503674 -0.12203558 -0.21069138 -0.15900452
000360 d5 74 c1 be 61 84 1e bf 82 12 81 be 17 65 e8 be
       -0.37784448 -0.61920744 -0.25209433 -0.45389625
000370 bf e0 10 bf fc db db be 2d be 0a bf 9e 48 dc be
       -0.56592935 -0.42941272 -0.54196435 -0.43024153
000380 5a 71 a1 bd 2e d7 94 3d 39 d0 f1 3c 3f a7 8e 3d
       -0.07882948 0.07267605 0.029518234 0.069654934
000390 e4 9c 58 3e cf 85 3d bc c4 2d e0 3d bf 18 ad 3e
       0.21153599 -0.011567547 0.10946229 0.33807942
0003a0 72 fe 63 3e d3 ea 26 3e 4e 77 10 3e 41 33 5a bd
       0.22265032 0.16300516 0.14108011 -0.053271536
0003b0 85 4c 56 bc e5 0e 31 3e aa a4 e8 3d 5a 7b 5f 3d
       -0.013079767 0.17290838 0.11359532 0.054560997
0003c0 a0 4a 10 3e 9f ec 07 3e b0 d7 a6 3d 8f df 4d be
       0.14090967 0.13273858 0.08146608 -0.20104812
0003d0 09 43 92 bd 4a 00 a0 3c 4b b5 f6 3c 7c ea 34 3e
       -0.07141692 0.019531388 0.030115744 0.17667574
0003e0 14 00 01 3e 8d 31 f3 3d 87 0a ac 3d eb e4 c8 3d
       0.12597686 0.118746854 0.084004454 0.09809288
0003f0 b3 c3 2c be d8 42 ff bd 63 05 00 be c6 20 86 bd
       -0.16871528 -0.12463921 -0.12502055 -0.0654922

layer1.1.conv2.bias f4 [16]
000000 2f 3f e0 3b 38 a2 c8 ba 6b e8 0f 3b 6d f3 98 3b
       0.0068434696 -0.0015307134 0.00219586 0.0046676905
000010 b1 16 c0 bb 41 9b 7b bb e1 81 1b bc 88 95 18 bb
       -0.00586208 -0.00383921 -0.009491415 -0.0023282487
000020 1c 5d f6 ba 2c 12 10 3c 25 7f 4e 3b d4 1e c2 3a
       -0.0018796059 0.008793395 0.003150889 0.0014810213
000030 6e 2b 59 bb c8 c4 36 bb 7d a7 48 39 a6 4b f4 3b
       -0.0033137458 -0.0027888287 0.0001913588 0.007455307

layer1.1.bn2.weight f4 [16]
000000 ae c3 8e 3f 12 48 76 3f be 6f 84 3e 80 ff 5a 3f
       1.1153467 0.9620372 0.25866503 0.8554611
000010 4b 20 03 3f b6 1a 50 3f bf 7a 42 3f 8c 28 50 3f
       0.5122115 0.8129076 0.75968546 0.8131187
000020 ff 79 18 3f 1c ec ae 3e c0 be dc 3e 9f 1d 3b 3f
       0.5956115 0.34164512 0.4311428 0.73092073
000030 50 2c 44 3f 27 ca 28 3f 97 a3 ae 3e ec 20 41 3f
       0.76630116 0.6593346 0.34109184 0.7544086

layer1.1.bn2.bias f4 [16]
000000 13 24 33 bf 7b a1 8f 3e c3 96 9d 3e f4 a0 3d 3e
       -0.6997692 0.28052887 0.30779085 0.1851843
000010 c6 be fa 3d dd cb 43 be 91 0a ff be 9f 29 6a 3e
       0.122434184 -0.19120736 -0.4981275 0.2286744
000020 c7 d9 d4 3d c8 73 06 3e ab 9e 82 3e 9f e2 42 bf
       0.103931 0.13130105 0.2551168 -0.76127046
000030 24 dd 15 3f 08 6b 4d 3f 43 da e9 3c 6b 4c c5 bd
       0.5854056 0.8024144 0.028546458 -0.09633716

layer1.1.bn2.running_mean f4 [16]
000000 f4 f9 cb bd 21 68 f0 bf 12 7e 87 bf 2f 2e 18 be
       -0.09959784 -1.8781778 -1.0585349 -0.14861368
000010 4d e9 97 bf 62 42 d9 3e af 70 3b bd 36 f8 53 be
       -1.1868073 0.4243346 -0.04576176 -0.20700154
000020 02 b1 34 3f cf 23 37 bf 04 f5 0c 3e a5 38 60 be
       0.7058259 -0.71539015 0.13765341 -0.21896608
000030 72 25 26 bf 37 cd 5d 3f 11 fe ff bd 92 6a 5e 3e
       -0.64900887 0.8664126 -0.12499631 0.21720341

layer1.1.bn2.running_var f4 [16]
000000 d4 d2 61 3f 6a f2 e4 3f 8b ab 1e 3f 04 46 56 3f
       0.88212323 1.7886479 0.61980504 0.83700585
000010 d0 9c 5e 3f 81 ee 8f 3f fb cf 56 3f a4 40 af 3f
       0.86958027 1.1244661 0.83911103 1.3691602
000020 f8 56 49 3f e2 17 2c 3f 28 fb f5 3e 8f 27 4e 3f
       0.7864833 0.6722394 0.4804318 0.8052911
000030 11 6b a8 3f 7e 4b 92 3f 3f 7a 07 3f 6c 68 4c 3f
       1.3157674 1.1429288 0.5292091 0.79846835
