Output/swift-iid-8W-linear-shark-ring-2sgd-100epochs/r2-epoch_91-parameters.pt (torch, 731450 bytes, 92 tensors)

conv1.weight f4 [16, 3, 3, 3]
0	0x3f20323b	0.62576646
1	0x3e9f035c	0.3105725
2	0x3eca138e	0.39468044
3	0xbeddc0d8	-0.4331119
4	0x3fab8f31	1.3403074
5	0xbf619a81	-0.8812638
6	0xbe75d528	-0.24007094
7	0xbf4b3615	-0.793794
8	0xbefdd82d	-0.49578992
9	0xbdafabe6	-0.08577709
10	0xbe2d3643	-0.1691523
11	0x3c4d9c14	0.012549419
12	0xbea58d4f	-0.32334372
13	0x3feb02f4	1.8360276
14	0xbf3e4003	-0.74316424
15	0xbca0a9f5	-0.019612292
16	0xbce65a7f	-0.028119324
17	0xbdbd65f6	-0.09247963
18	0xbea0617f	-0.31324384
19	0xbf6868f8	-0.9078517
20	0xbe4e6566	-0.20155868
21	0xbea29c0f	-0.31759688
22	0x3f84c191	1.0371572
23	0xbe7bbb86	-0.24583253
24	0x3e0c3594	0.13692313
25	0x3ee6be3a	0.45067006
26	0x3e77bfef	0.2419431
27	0xbd3603c2	-0.044437177
28	0xbe0dfc2b	-0.13865726
29	0x3e4ac9ec	0.1980359
30	0xbe3c0122	-0.18359807
31	0xbf26d0b2	-0.65162194
32	0xbd894c1b	-0.06703969
33	0x3dd54ee6	0.10415439
34	0xbe3d765a	-0.18502179
35	0x3da829b8	0.08211082
36	0xbcc5927d	-0.024117703
37	0xbe5e2cda	-0.21696797
38	0x3e41459a	0.18874207
39	0xbe9a91eb	-0.30189452
40	0xbf2cdf6a	-0.675284
41	0xbde9f31b	-0.11423322
42	0xbdcd0fd2	-0.10012783
43	0xbe8fda99	-0.28096464
44	0xbbdebb1b	-0.006797207
45	0x3e6bc867	0.23025666
46	0x3d2df6c9	0.04247168
47	0x3e6d1732	0.2315338
48	0x3ce3b1dd	0.027794773
49	0xbe851448	-0.25992036
50	0xbcc4901b	-0.023994496
51	0x3d499d6f	0.049222406
52	0xbd628f25	-0.055312295
53	0x3bd16e65	0.006391334
54	0xbd695610	-0.05696684
55	0x3d2e4376	0.042544805
56	0xbce92cc8	-0.028463736
57	0xbe03d1a5	-0.12872942
58	0xbdc849ee	-0.09779726
59	0xbe2dda7c	-0.16977876
60	0xbcf3e9be	-0.029774543
61	0xbe391255	-0.180734
62	0xbe1739ed	-0.1476819
63	0xbe9cb3d3	-0.30605945
64	0x3d3fd692	0.04683549
65	0xbe3cc667	-0.1843506
66	0xbdda2712	-0.10651983
67	0x3e704871	0.23465134
68	0x3b2b3140	0.0026121885
69	0xbde31384	-0.11087707
70	0x3cb28850	0.021793514
71	0xbd88095c	-0.0664241
72	0xbe174e53	-0.14775972
73	0x3eab323d	0.33436766
74	0xbe06ed27	-0.13176404
75	0x3eb0320c	0.34413183
76	0x3f60fabc	0.8788259
77	0x3f0a479f	0.54015535
78	0x3e355a33	0.1771019
79	0x3ef6f7a7	0.4823582
80	0x3e873757	0.26409408
81	0x3ecbe35c	0.398219
82	0xbe041226	-0.12897548
83	0x3dd9b171	0.106295474
84	0x3db4abb0	0.08821809
85	0xbf8cc08c	-1.0996261
86	0xbeb8a526	-0.36063498
87	0xbe13f24e	-0.144479
88	0xbea48f98	-0.32140803
89	0xbe261e9f	-0.16222619
90	0x3dd871d5	0.10568587
91	0xbe4606f9	-0.19338597
92	0x3e8f2dd3	0.2796465
93	0x3e04ead1	0.129802
94	0xbf35532b	-0.7083003
95	0x3e052c62	0.13005212
96	0x3ea379bb	0.3192881
97	0x3ebb1b5a	0.36544305
98	0x3ef14c0d	0.47128335
99	0xbdb7c975	-0.08973972
100	0xbea3085e	-0.3184232
101	0xbdcb82ab	-0.09937032
102	0x3df1ba53	0.11803117
103	0xbf149be6	-0.5805038
104	0xbd8d4e03	-0.06899645
105	0x3e278f7e	0.16363332
106	0x3e02606a	0.12732092
107	0x3e3568a4	0.17715698
108	0x3dcc9c1e	0.099907145
109	0xbcba8613	-0.02276901
110	0xbe4edcfe	-0.2020149
111	0x3e000546	0.12502012
112	0x3ba3ce57	0.004998963
113	0xbde3dd0d	-0.111261465
114	0x3e4c67a3	0.1996141
115	0x3e45070f	0.19240974
116	0x3cb748d2	0.02237359
117	0x3dfe77a6	0.12425165
118	0xbe236b19	-0.15958823
119	0xbeb66ab1	-0.35628274
120	0x3e2d75eb	0.16939513
121	0x3cbacc50	0.022802502
122	0xbdb998e2	-0.09062363
123	0x3eb16a98	0.34651637
124	0x3e900d7f	0.28135297
125	0x3e0d094b	0.13773076
126	0xbe2af870	-0.16696334
127	0xbe50ccc6	-0.20390615
128	0xbe87fef6	-0.26561707
129	0xbe5604f3	-0.20900325
130	0xbec8c05a	-0.39209253
131	0xbed48e94	-0.41515028
132	0xbdcb4573	-0.09925356
133	0xbe922069	-0.28540352
134	0xbec3b976	-0.38227433
135	0xbe470f51	-0.19439436
136	0xbda11c34	-0.078667074
137	0xbd6a7471	-0.057239953
138	0x3f8d9b6b	1.1063055
139	0x3e4211a8	0.18952048
140	0xbf558c43	-0.8341715
141	0x3ef81b34	0.48458254
142	0x3daa182d	0.083053924
143	0xbe3280d4	-0.17431957
144	0x3ee95ca0	0.4557848
145	0xbe6033b8	-0.21894729
146	0xbefce2fc	-0.49391925
147	0x3fac11fc	1.3442988
148	0xbecaa79a	-0.39580995
149	0xbfc349f1	-1.525694
150	0x3f03f74d	0.51549226
151	0xbe9c6d6b	-0.3055223
152	0xbf023f93	-0.50878257
153	0x3f0bd6ee	0.5462483
154	0x3e24f4df	0.16109036
155	0xbdaeb8f6	-0.08531372
156	0x3f93560d	1.1510636
157	0xbdc90b86	-0.09816651
158	0xbf808a24	-1.0042157
159	0x3ef7ab28	0.4837277
160	0xbe65d489	-0.22444357
161	0xbebd9eac	-0.3703512
162	0x3f2fd0d0	0.68678
163	0x3f6f7981	0.93544775
164	0x3f1f51e4	0.6223433
165	0x3e58ca80	0.21170998
166	0xbf1ec2c0	-0.62015915
167	0xbe56063c	-0.20900816
168	0xbdda97b5	-0.10673467
169	0xbf6f6157	-0.93507904
170	0xbeae0b3e	-0.33992952
171	0x3ee4cfd5	0.44689813
172	0x3f46f8df	0.777235
173	0x3f0ae5e3	0.5425703
174	0x3b236dd1	0.0024937282
175	0xbf27ded0	-0.6557436
176	0xbe17849e	-0.14796683
177	0xbd75606d	-0.059906412
178	0xbf210431	-0.6289702
179	0xbd44ed81	-0.048078064
180	0x3e24768b	0.16060846
181	0x3ef35be4	0.47531044
182	0x3e935ab1	0.2878013
183	0xbda63ddb	-0.08117267
184	0xbf11c112	-0.56935227
185	0xbe1a8c4a	-0.15092579
186	0xbe0c4234	-0.1369713
187	0xbeecc3cc	-0.4624313
188	0x3e3270f6	0.17425904
189	0x3dbf5c18	0.09343737
190	0x3e0350e6	0.12823829
191	0xbd93bda6	-0.07213907
192	0x3f2777c8	0.65417147
193	0x3f5f8dda	0.87325823
194	0x3f1b04fe	0.6055449
195	0xbec2ef77	-0.38073322
196	0xbf44be77	-0.76853126
197	0xbf24086e	-0.6407536
198	0x3e82098b	0.25397906
199	0x3ebc37d9	0.36761358
200	0x3eb1db8c	0.34737813
201	0x3ec5d863	0.38641652
202	0x3f07d4ab	0.5305888
203	0x3f084dca	0.53243697
204	0xbf4fbc4f	-0.8114671
205	0xbf869e49	-1.0517055
206	0xbf16212b	-0.5864436
207	0x3dc435e3	0.095805906
208	0x3cdf276c	0.027240478
209	0x3d8a5ede	0.06756376
210	0x3ecb6ec4	0.39732945
211	0x3eef7235	0.4676682
212	0x3ec41fb5	0.3830544
213	0xbf09e1db	-0.53860253
214	0xbf22d413	-0.6360485
215	0xbef23012	-0.473023
216	0xbd1befde	-0.038070552
217	0xbb491cb6	-0.003068728
218	0xbdf781e0	-0.120853186
219	0x3eaf01ce	0.34181064
220	0x3f4f10a3	0.8088476
221	0x3ed8d80b	0.42352328
222	0x3e9c1cf1	0.3049083
223	0x3f3963d0	0.72417927
224	0x3e470dba	0.1943883
225	0xbe51b78d	-0.20480175
226	0xbe4415b8	-0.1914891
227	0xbeb940af	-0.36182162
228	0xbdeb81e3	-0.11499383
229	0x3d87dd25	0.06633977
230	0xbd9c2915	-0.07625023
231	0xbe29ea2c	-0.16593236
232	0xbc82c45b	-0.01596277
233	0x3bbc7371	0.0057510664
234	0x3ea7cb3b	0.3277224
235	0x3eeb3d00	0.45944977
236	0x3e119b59	0.14219417
237	0x3dfcddf1	0.123470195
238	0x3d8defd5	0.0693051
239	0xbda212fd	-0.07913778
240	0xbe54720e	-0.20746633
241	0xbebe0e1d	-0.37120143
242	0xbe9e6740	-0.30938148
243	0xbca76d5d	-0.02043789
244	0xbed414ce	-0.41422123
245	0x3e1e033b	0.1543092
246	0xbec2324f	-0.37929007
247	0xbf72cb9f	-0.9484195
248	0xbf327c68	-0.6972108
249	0xbe862749	-0.26201847
250	0xbf62e1eb	-0.88625973
251	0xbf0a5e88	-0.54050493
252	0xbb8da7a9	-0.004322965
253	0x3d71954c	0.05898027
254	0x3ea75ecd	0.32689515
255	0x3dd3af5d	0.10336182

conv1.bias f4 [16]
0	0xbc79668e	-0.015222205
1	0xbc1e36fe	-0.009656666
2	0xbc30393b	-0.010755832
3	0x3ca3878a	0.019962091
4	0x3c96e56b	0.018419942
5	0xbcaf1cc8	-0.021376029
6	0xba86983e	-0.001026876
7	0x3ba7e718	0.005123984
8	0xbc8578a3	-0.016292876
9	0xbcb11b41	-0.021619441
10	0xbbc5bf69	-0.0060347808
11	0xbc21f1b3	-0.009884286
12	0xbc048ccd	-0.00809021
13	0x3c84a22a	0.016190607
14	0x3b880f5a	0.0041522207
15	0xbc7294f1	-0.014806018

bn1.weight f4 [16]
0	0x3f6fe037	0.937015
1	0x3f9b43b0	1.2130032
2	0x3f24480b	0.6417243
3	0x3f9252ea	1.1431553
4	0x3f47c72b	0.7803828
5	0x3f75bbc9	0.9598966
6	0x3f809782	1.0046237
7	0x3f5904ba	0.8477284
8	0x3f55dff6	0.8354486
9	0x3f2619eb	0.648833
10	0x3f54ee5d	0.83176214
11	0x3f3dc721	0.7413197
12	0x3f31c7f8	0.69445753
13	0x3f4a148b	0.78937596
14	0x3f5e8604	0.8692324
15	0x3f2a6b4c	0.6656997

bn1.bias f4 [16]
0	0x3faffd52	1.3749182
1	0xbf16e526	-0.589434
2	0x3e05865e	0.13039538
3	0xbe083218	-0.13300359
4	0xbe5abc4d	-0.21360894
5	0x3f1034a4	0.56330323
6	0x3de0b3eb	0.10971817
7	0x3f530e81	0.82444006
8	0xbd7d93ea	-0.06190864
9	0x3edddd34	0.43332827
10	0x3dd8e279	0.10590071
11	0x3ede5cf3	0.4343029
12	0x3e4f3177	0.20233713
13	0x3ed3f9d1	0.41401532
14	0x3e5df5b7	0.21675764
15	0x3f1d5ba6	0.6146797

bn1.running_mean f4 [16]
0	0xbe4fcd44	-0.20293146
1	0x3f41aaca	0.7565123
2	0xbf09827c	-0.5371473
3	0x3f089648	0.5335431
4	0x3f05b74c	0.52232814
5	0x3d75c91c	0.060006246
6	0x3df9e6a4	0.12202194
7	0xbe3c51f9	-0.18390645
8	0xbf136784	-0.5757983
9	0x3c2378ee	0.009977562
10	0x3ecc4d75	0.39902845
11	0xbc2a4687	-0.010392792
12	0x3dc59936	0.09648363
13	0xbe35ca04	-0.17752844
14	0x3e47565d	0.19466539
15	0xbdca38dc	-0.09874126

bn1.running_var f4 [16]
0	0x4065688e	3.5845065
1	0x4113d777	9.240104
2	0x40bfe241	5.996369
3	0x40bf6506	5.981082
4	0x40c70e9b	6.220533
5	0x41ca0800	25.253906
6	0x416fc147	14.984687
7	0x418a6c5a	17.302906
8	0x40bccbac	5.8998623
9	0x40fbea12	7.872323
10	0x40943232	4.6311274
11	0x41282321	10.508576
12	0x406e8a9b	3.7272098
13	0x40b9004f	5.7812877
14	0x409c5fcf	4.8866954
15	0x4038628c	2.8810148

layer1.0.conv1.weight f4 [16, 16, 3, 3]
0	0x3dbcdecc	0.09222183
1	0x3e8c91b7	0.27454922
2	0xbd94e96f	-0.072710864
3	0xbec8cd42	-0.392191
4	0x3f417830	0.75574017
5	0xbed4d645	-0.41569725
6	0xbe844f8c	-0.2584194
7	0xbcdc5dfe	-0.026900288
8	0xbe39a246	-0.18128309
9	0xbe230e96	-0.15923533
10	0x3d8f5417	0.06998461
11	0x3d557b5d	0.0521196
12	0xbdfd5989	-0.12370593
13	0xbd368849	-0.044563565
14	0x3d9af019	0.07565326
15	0xbdd544bd	-0.104135014
16	0x3d3da90f	0.046303805
17	0x3e3fb4fb	0.18721382
18	0xbd3563a4	-0.044284478
19	0x3cc915c4	0.024546511
20	0xbde62cff	-0.11239051
21	0xbd20d8fa	-0.039269425
22	0x3cbbd5a9	0.02292903
23	0xbe05820a	-0.13037887
24	0xbde6e6b6	-0.11274473
25	0xbe09c8ba	-0.13455477
26	0xbe06fa51	-0.13181426
27	0x3d3a3f09	0.04547027
28	0xbe010f82	-0.12603572
29	0xbd5909fc	-0.052988037
30	0xbda5c01c	-0.080932826
31	0xbe750f0e	-0.23931524
32	0xbe406d42	-0.18791679
33	0x3dd69274	0.104771525
34	0x3d98c394	0.074591786
35	0x3dab59aa	0.083667114
36	0xbe4652c7	-0.19367515
37	0xbe2a22fc	-0.16614908
38	0xbe10a509	-0.14125456
39	0xbd8470d8	-0.06466836
40	0xbca87304	-0.020562656
41	0xbdd779c6	-0.10521273
42	0xbd4aeb99	-0.04954109
43	0x3d949d3b	0.07256552
44	0x3d042a65	0.032266993
45	0xbea67fe8	-0.3251946
46	0xbe8a28b4	-0.2698418
47	0x3be5c1f0	0.0070116445
48	0xbebceb9c	-0.36898506
49	0xbe8aa290	-0.2707715
50	0x3e880fdf	0.2657461
51	0x3e3247f2	0.17410257
52	0xbe47dfe6	-0.19519004
53	0xbd0b5476	-0.034016095
54	0xba6c0892	-0.00090039626
55	0xbe16f6c3	-0.1474257
56	0xbdaf3517	-0.08555048
57	0xbd84538d	-0.064612485
58	0xbea56843	-0.32306108
59	0xbd924160	-0.071413755
60	0xbb0d953b	-0.002160384
61	0xbe9220e0	-0.28540707
62	0xbd4b2c68	-0.049602896
63	0x3d24c920	0.04023087
64	0xbe95d40c	-0.2926334
65	0xbd9b1fd6	-0.075744316
66	0x3ea3c016	0.31982487
67	0x3e765a12	0.24057797
68	0x3e7379de	0.23776957
69	0x3ea7c0a2	0.32764155
70	0xbbb575c5	-0.005537721
71	0x3de24393	0.11048045
72	0xbe64a292	-0.2232764
73	0xbd3222f0	-0.04349035
74	0xbe2b5980	-0.1673336
75	0xbbc4a15a	-0.00600068
76	0x3e586cad	0.21135207
77	0x3dbbd80f	0.09172069
78	0x3c863c83	0.016386276
79	0x3e0a1981	0.13486291
80	0x3dd760e8	0.1051653
81	0x3dd85214	0.1056253
82	0x3e2de64f	0.16982387
83	0x3dbb53c5	0.09146837
84	0x3d93d993	0.07219233
85	0x3da70de3	0.081569456
86	0xbd35004e	-0.044189744
87	0x3d8cd961	0.06877399
88	0xbd3cd306	-0.046099685
89	0xbdf842d7	-0.12122124
90	0x3c05f543	0.008176151
91	0x3e58c7b3	0.21169929
92	0x3dba3629	0.090923615
93	0xbda3764b	-0.07981547
94	0x3c440c14	0.01196577
95	0x3d084758	0.033271164
96	0xbe0f1098	-0.13971174
97	0xbce9b70a	-0.028529663
98	0x3cb3489a	0.021885205
99	0xbdb4c30a	-0.08826263
100	0xbec1f738	-0.37883925
101	0xbe4bdfbc	-0.19909567
102	0x3e42da2a	0.19028535
103	0xbea90184	-0.3300897
104	0xbef4c7af	-0.47808596
105	0x3cff1814	0.031139411
106	0xbead4561	-0.33841994
107	0xbe98bc94	-0.29831374
108	0xbdb3f66b	-0.08787235
109	0xbe584527	-0.2112013
110	0xbd0a8e61	-0.03382719
111	0x3dc946b1	0.098279364
112	0x3ddacd3b	0.10683676
113	0xbd666306	-0.05624678
114	0x3dff9e91	0.12481416
115	0x3e449cb6	0.19200405
116	0x3dc813e0	0.09769416
117	0xbcda6622	-0.026660029
118	0x3f001c58	0.5004325
119	0xbe219bed	-0.15782137
120	0x3c5de2b3	0.013542819
121	0x3f020948	0.5079541
122	0xbe03b9b9	-0.12863816
123	0xbea71c71	-0.32638887
124	0xbf0c9532	-0.54915154
125	0xbe95378d	-0.29143944
126	0xbde40638	-0.11133999
127	0x3d8ad832	0.06779517
128	0x3dcf8a1b	0.101337634
129	0xbe1a75c2	-0.15083984
130	0xbdcee80f	-0.101028554
131	0xbd50dc80	-0.050991535
132	0xbd00f161	-0.031480197
133	0xbe16de46	-0.14733228
134	0xbdb8cb21	-0.09023119
135	0x3e0dbeba	0.13842288
136	0xbeb156e1	-0.34636596
137	0xbdcff1ba	-0.101535276
138	0x3eb33322	0.3499995
139	0x3c3ff805	0.011716847
140	0xbec0f464	-0.37686455
141	0xbc077d0e	-0.008269561
142	0xbe8de4f8	-0.27713752
143	0xbe17fb45	-0.14841945
144	0x3e56e6fe	0.20986554
145	0xbce8dfec	-0.028427087
146	0xbd39eab1	-0.045389835
147	0x3d7a7bc4	0.06115319
148	0xbe2e740d	-0.17036457
149	0xbd899cb2	-0.067193404
150	0x3e16063c	0.14650816
151	0xbda72058	-0.08160466
152	0xbd20a584	-0.039220348
153	0x3dd89d01	0.10576821
154	0x3e356bcf	0.17716907
155	0x3c26c145	0.010177915
156	0x3e8f2061	0.2795439
157	0x3eb70f91	0.35754064
158	0x3e4a7d94	0.19774467
159	0xbd2004d3	-0.0390671
160	0x3d0db126	0.03459277
161	0xbdd6e6ca	-0.10493238
162	0x3dbe855c	0.0930278
163	0x3d37d141	0.044877294
164	0x3cf9f850	0.030513912
165	0x3e0a576b	0.1350991
166	0x3dba4964	0.090960294
167	0x3dbd4d44	0.09243253
168	0x3e35b123	0.17743354
169	0x3e0c8e5d	0.13726182
170	0x3e02e4e3	0.12782626
171	0xbd1ec8e4	-0.038765803
172	0x3dc85a2b	0.09782823
173	0xbd77bc23	-0.060482156
174	0x3ed0a6e7	0.40752336
175	0x3ede9272	0.43471104
176	0x3e869b04	0.26290143
177	0x3c88d982	0.016705278
178	0x3db8e29f	0.090275995
179	0xbd2d14e3	-0.042256247
180	0x3cffa15c	0.031204872
181	0x3a99959c	0.0011717561
182	0x3bcc35a3	0.00623198
183	0x3e8989e9	0.2686303
184	0x3e5f5642	0.21810248
185	0x3e599661	0.21248771
186	0x3e6a3231	0.22870709
187	0x3e3b71d1	0.18305136
188	0x3e369aab	0.17832439
189	0xbde13eb0	-0.10998285
190	0xbdd2a331	-0.102850325
191	0xbda0964c	-0.07841167
192	0xbd40d4c5	-0.047077913
193	0xbd2077fb	-0.039176922
194	0x3981d14b	0.00024760733
195	0xbd88ca18	-0.06679171
196	0xbd2c0ade	-0.04200255
197	0xbdc1d825	-0.094650544
198	0x3e1fb134	0.15594941
199	0x3e255cab	0.16148631
200	0x3d046b1a	0.032328703
201	0x3c58d2e8	0.013233878
202	0x3cbc3bdf	0.022977768
203	0xbd0b5c1e	-0.034023397
204	0x3e10f9d8	0.14157808
205	0x3e13fcc6	0.14451894
206	0x3bac1c8c	0.0052524265
207	0x3ae86507	0.0017730304
208	0xbda923e3	-0.08258798
209	0xbdf0ea0e	-0.117633924
210	0x3d50214d	0.050813008
211	0xb80016ad	-3.0538697e-05
212	0xb7a014ae	-1.9083116e-05
213	0x3e3c3130	0.18378139
214	0x3e025046	0.12725934
215	0x3d8d24db	0.06891795
216	0xbd64aca6	-0.055828713
217	0xbd93ff66	-0.07226448
218	0xbd6ed786	-0.058311008
219	0x3da477a6	0.08030634
220	0x3db49773	0.08817949
221	0x3d9d0e43	0.07668736
222	0x3e32003c	0.17382902
223	0x3e0fdbdd	0.14048715
224	0x3e1f90ca	0.15582576
225	0x3db92710	0.09040654
226	0x3d3743f3	0.044742536
227	0xbc705ef3	-0.014671075
228	0x3d7b929c	0.061419114
229	0x3c2b33e9	0.010449388
230	0xbd575daf	-0.052579578
231	0x3de96be7	0.11397534
232	0x3dabe686	0.08393578
233	0x3c6da372	0.0145043
234	0x3d9a62ac	0.075383514
235	0x3e14a794	0.14517051
236	0x3d5897e2	0.05287922
237	0x3e683c98	0.22679365
238	0x3e9c9e58	0.30589557
239	0x3e8a24cb	0.26981196
240	0x3c605871	0.013692961
241	0x3d9afc33	0.075676344
242	0x3d365039	0.0445101
243	0xbdb53a47	-0.08849006
244	0xbb0ab93d	-0.002116754
245	0xbce64bd9	-0.028112339
246	0x3cbdb5d5	0.023157993
247	0x3e0cde6b	0.1375672
248	0x3d6e9e26	0.05825629
249	0xbcf3a087	-0.029739631
250	0x3cb98a57	0.022648973
251	0xbd5fd279	-0.05464408
252	0xbdcf6f98	-0.10128707
253	0xbe1016cb	-0.14071195
254	0xbd1d7c40	-0.038448572
255	0xbba2e9d4	-0.004971722

layer1.0.conv1.bias f4 [16]
0	0x3ab53f51	0.0013828074
1	0xbbcfce6c	-0.006341746
2	0xbb2db2ed	-0.0026504353
3	0x3aca8dd4	0.0015453645
4	0xbc0294ed	-0.007970077
5	0xbbe6c5f5	-0.0070426413
6	0x3a9f4a55	0.001215289
7	0xbb2d3ef1	-0.002643522
8	0x3b69ceee	0.0035676318
9	0xbb2522b3	-0.0025197684
10	0x3b8e1c60	0.0043368787
11	0x3adc407d	0.0016803887
12	0xbc16d756	-0.0092066135
13	0x3af4f60a	0.0018689048
14	0x3be94ee4	0.00712
15	0xbb8433d8	-0.0040345006

layer1.0.bn1.weight f4 [16]
0	0x3f69395c	0.9110315
1	0x3f5b69a8	0.85708094
2	0x3f661c6d	0.89887124
3	0x3f388473	0.720771
4	0x3f834aa0	1.0257149
5	0x3f1ea488	0.61969805
6	0x3f0fa8fd	0.5611723
7	0x3f613a3c	0.87979484
8	0x3f24a266	0.643103
9	0x3f61d83d	0.8822058
10	0x3f4c8431	0.7988921
11	0x3f28e60b	0.6597602
12	0x3f69f54e	0.9138993
13	0x3f3b6dd0	0.73214436
14	0x3f2380df	0.63868517
15	0x3f479848	0.7796674

layer1.0.bn1.bias f4 [16]
0	0x3ed26feb	0.41101012
1	0xbee187b1	-0.44048837
2	0xbf11df3f	-0.5698127
3	0x3ec70222	0.38868815
4	0xbe99abea	-0.30013973
5	0xbb951e43	-0.0045507266
6	0x3d3df7dc	0.046378955
7	0x3f96181c	1.1726108
8	0xbe5da31f	-0.21644257
9	0xbf06e148	-0.526875
10	0xbd4d5818	-0.05013284
11	0x3e83fd64	0.2577926
12	0x3f2642ca	0.6494566
13	0x3e76672c	0.24062794
14	0xbe262deb	-0.16228454
15	0xbefdf88c	-0.4960369

layer1.0.bn1.running_mean f4 [16]
0	0xc0274989	-2.6138632
1	0x40318387	2.7736528
2	0xbf0c5353	-0.5481464
3	0xbf816591	-1.0109121
4	0x3db0b904	0.08629039
5	0xc027a84b	-2.6196468
6	0x3fee773a	1.8630135
7	0xbfabf10c	-1.3432937
8	0xc0281282	-2.6261296
9	0xc019f290	-2.4054298
10	0xc0825871	-4.073296
11	0xbf70ba08	-0.9403386
12	0xc049a47e	-3.1506648
13	0xbfd8bdf4	-1.6932969
14	0xbf3c0ee9	-0.7346025
15	0x3f92a864	1.1457639

layer1.0.bn1.running_var f4 [16]
0	0x40b9ceb4	5.8064823
1	0x40367199	2.8506835
2	0x400de713	2.2172287
3	0x406ef5d4	3.7337542
4	0x40b2e564	5.590502
5	0x40156995	2.3345692
6	0x407cdb6c	3.9508924
7	0x402a2cab	2.6589763
8	0x400eab5d	2.2292092
9	0x3fd3c726	1.654515
10	0x40d8ca29	6.7746778
11	0x40151650	2.3294868
12	0x40b835c9	5.7565656
13	0x407f7f43	3.9921424
14	0x3fb3b2be	1.4038923
15	0x3fe8dd17	1.8192471

layer1.0.conv2.weight f4 [16, 16, 3, 3]
0	0xbe1a7314	-0.15082961
1	0xbe336d0a	-0.17522064
2	0x3d60b045	0.054855604
3	0xbe38f494	-0.18062049
4	0x3e558604	0.20851904
5	0xbe2026d2	-0.15639809
6	0xbdfdef92	-0.1239921
7	0xbe22aff3	-0.15887432
8	0x3e03c37f	0.12867545
9	0xbb8d8081	-0.0043182974
10	0xbdfeb34f	-0.12436544
11	0xbe8f148a	-0.27945358
12	0x3eb7b00b	0.35876498
13	0x3dc2872b	0.094984375
14	0xbbafc237	-0.0053637284
15	0x3da30f4f	0.07961904
16	0xbbcaf2c1	-0.0061934893
17	0xbe3a68de	-0.18204066
18	0xbe11d108	-0.14239895
19	0x3dd16581	0.102244385
20	0xbd5464a0	-0.051853776
21	0xbd98e27b	-0.07465073
22	0xbba0f40e	-0.004911906
23	0x3d91349a	0.07090111
24	0xbea5ef39	-0.32409075
25	0xbc266b15	-0.010157366
26	0xbdadb979	-0.08482642
27	0x3e5cf407	0.21577464
28	0x3e1d7bcf	0.1537926
29	0x3e817019	0.25280836
30	0xbdf4653a	-0.1193337
31	0xbc1d014f	-0.0095828315
32	0xbe244d16	-0.16045031
33	0xbd9dcc7c	-0.07705018
34	0x3d80b2de	0.06284116
35	0xbe491e03	-0.19640355
36	0xbe1563bf	-0.14588831
37	0xbe9829ee	-0.2971949
38	0xbc8afd58	-0.016966507
39	0x3d1f0bfb	0.038829785
40	0xbe23fd1b	-0.16014521
41	0x3c33ce77	0.010974518
42	0xbde03536	-0.10947649
43	0x3e29ffd0	0.16601491
44	0xbd196c5f	-0.037456866
45	0xbe1ac492	-0.15114048
46	0x3e369b5e	0.17832705
47	0x3e51a905	0.20474632
48	0xbd4c830c	-0.049929664
49	0x3d3299fa	0.043603875
50	0x3d4dbd26	0.050229214
51	0x3e2857b1	0.16439702
52	0xbd566d7a	-0.0523505
53	0xbdad69b4	-0.08467427
54	0x3caa3004	0.020774849
55	0xbbebd19d	-0.0071966187
56	0xbe0e2753	-0.13882188
57	0xbcace6e9	-0.0211062
58	0xbc1accc4	-0.009448234
59	0xbd7d6812	-0.061866827
60	0x3e403d65	0.1877342
61	0x3d72ad46	0.059247278
62	0x3e8aacbf	0.2708492
63	0x3ca1d073	0.019752717
64	0xbf1707fb	-0.5899655
65	0x3ebbe598	0.36698604
66	0xbee64ab6	-0.44978875
67	0x3f4a8dfa	0.7912289
68	0x3d8d5314	0.069006115
69	0xbd107eec	-0.035277292
70	0xbf0a0ce2	-0.5392591
71	0xbdfdd561	-0.123942144
72	0x3e1a9453	0.15095644
73	0x3d4f4a28	0.05060783
74	0xbd506fd7	-0.05088791
75	0xbc32248f	-0.010872974
76	0xbe59b63c	-0.21260923
77	0xbd98858f	-0.07447349
78	0xbcab9773	-0.02094624
79	0xbd27399d	-0.04082643
80	0xbdf4f5a0	-0.11960912
81	0xbe5bc1e6	-0.21460685
82	0x3dbe16fb	0.09281727
83	0xbd4f6beb	-0.050640028
84	0xbe97fc59	-0.29684713
85	0x3df34f30	0.11880338
86	0xbdbaf1cd	-0.09128151
87	0xbe296691	-0.16543032
88	0x3c946c5a	0.018118072
89	0x3e6ffd82	0.2343655
90	0xbbc5344b	-0.0060181967
91	0x3e1cc6c5	0.153102
92	0xbd367be9	-0.044551764
93	0xbd77479d	-0.06037103
94	0x3d1ebcd8	0.038754314
95	0xbe0d932a	-0.1382567
96	0x3e09e3bc	0.1346578
97	0x3d852882	0.06501867
98	0x3e011400	0.12605286
99	0xbc837d09	-0.016050832
100	0xbeab680f	-0.33477828
101	0xbdc81e9f	-0.097714655
102	0x3e086c1f	0.13322495
103	0x3e89fb79	0.2694967
104	0xba2991eb	-0.0006468582
105	0xbd4072b4	-0.04698439
106	0xbe9943d3	-0.29934558
107	0xbe0f6765	-0.14004286
108	0x3e09de0e	0.13463613
109	0x3e8018c3	0.25018892
110	0xbd6b2ad7	-0.057413902
111	0xbd96c411	-0.073616154
112	0xbe88d5e4	-0.26725686
113	0x3e866789	0.26250866
114	0x3d3e6e69	0.046492014
115	0x3df11dfe	0.11773299
116	0x3e1393cc	0.14411849
117	0x3e374c24	0.17900139
118	0x3cf3a9f1	0.02974412
119	0x3e4addce	0.19811174
120	0xbe7f2e18	-0.24919927
121	0x3de75355	0.11295191
122	0x3ea557c5	0.32293525
123	0x3dce9129	0.10086281
124	0x3f03d163	0.51491374
125	0x3e0b9f1a	0.13634911
126	0x3c3a81a4	0.011383448
127	0x3e6a77b9	0.22897233
128	0x3deea453	0.11652436
129	0xbb1916f4	-0.0023359628
130	0x3e41b965	0.18918379
131	0xbe4afffd	-0.19824214
132	0x3a2b91bb	0.0006544848
133	0xbd6a1f55	-0.057158787
134	0xbdd26fd2	-0.10275234
135	0xbddec684	-0.108777076
136	0xbe7844a2	-0.24244931
137	0x3c5b54d3	0.013386923
138	0x3be6dcc2	0.0070453594
139	0xbdf30127	-0.11865454
140	0x3dac265b	0.08405753
141	0xbe169af2	-0.14707544
142	0xbedb2001	-0.42797855
143	0xbe27606f	-0.1634538
144	0x3d04119d	0.03224336
145	0x3c1e6bb4	0.009669233
146	0x3d17566a	0.036947645
147	0xbd1b6abf	-0.037943598
148	0x3d9b38cf	0.07579195
149	0x3c68dd34	0.014212895
150	0xbcab844d	-0.02093711
151	0xbce85718	-0.028361842
152	0xbd99f995	-0.07518307
153	0xbed56588	-0.41679025
154	0xbe7c3e44	-0.24633127
155	0xbe83b896	-0.25726765
156	0x3da30570	0.079600215
157	0x3e2c6225	0.16834314
158	0x3e14f7e8	0.14547694
159	0xbd1e4402	-0.038639076
160	0x3e293ca0	0.16527033
161	0x3e53605d	0.20642228
162	0xbddc2244	-0.10748723
163	0xbe6467be	-0.223052
164	0xbe8edf5a	-0.2790478
165	0xbd02ae9d	-0.031904805
166	0xbd0a9e7c	-0.03384255
167	0x3d9a08b6	0.07521193
168	0xbea28e7f	-0.3174934
169	0xbe70b1f6	-0.23505387
170	0xbd59c62f	-0.05316752
171	0xbdaf9a62	-0.08574368
172	0xbc9efce2	-0.019407693
173	0x3d9a8509	0.07544906
174	0xbdf99f87	-0.121886306
175	0xbe36c841	-0.17849828
176	0xbd5ba3a8	-0.05362287
177	0xbe67fb23	-0.22654395
178	0xbeaa0166	-0.33204192
179	0xbe50ccca	-0.20390621
180	0xbe04f28e	-0.12983152
181	0xbd6fda96	-0.05855807
182	0xbe4ae32d	-0.19813223
183	0x3e3cd32f	0.18439935
184	0x3e8484b6	0.258825
185	0x3e08ccf6	0.13359436
186	0x3e218e34	0.15776902
187	0x3e8a643e	0.27029604
188	0x3e134a21	0.14383747
189	0x3da4e73d	0.08051918
190	0xbce0442b	-0.027376255
191	0x3be783fd	0.007065295
192	0xbe295708	-0.16537106
193	0xbe461d6f	-0.19347166
194	0xbdbba54d	-0.09162388
195	0xbe33b9c8	-0.17551339
196	0xbe2c3df9	-0.16820516
197	0xbd702fd6	-0.05863937
198	0xbe565026	-0.20929012
199	0xbdb907ab	-0.09034666
200	0xbd6266bd	-0.05527376
201	0xbe051b9f	-0.12998818
202	0x3be9c3e5	0.007133948
203	0x3d8c311f	0.068453066
204	0xbdc0c4bb	-0.09412523
205	0xbd475d55	-0.048672993
206	0xbc67387a	-0.014112586
207	0x3d637d08	0.05553916
208	0x3d9fcd25	0.078028
209	0xbd2acb27	-0.041697647
210	0x3e0d96a5	0.13826998
211	0x3d650b29	0.055918846
212	0x3d4e9c03	0.050441753
213	0x3db776c3	0.08958199
214	0x3d702d15	0.058636744
215	0xbc5c47bf	-0.01344484
216	0x3e208277	0.15674768
217	0x3e002dc2	0.12517455
218	0x3df869c5	0.12129549
219	0xbc5de2e9	-0.013542869
220	0xbd1e6ed9	-0.03867993
221	0xbd727afc	-0.05919932
222	0xbd56f793	-0.0524822
223	0xbd9f717f	-0.077853195
224	0xbd94380f	-0.07237255
225	0x3db03b32	0.086050406
226	0xbd7c455d	-0.061589587
227	0xbe001c7f	-0.1251087
228	0x3ce4ef3a	0.027946103
229	0xbda725f7	-0.08161538
230	0xbe17a58d	-0.14809246
231	0x3da5db77	0.080985
232	0xbd99658e	-0.07490073
233	0xbe37f534	-0.17964631
234	0x3dec9ac0	0.11552954
235	0x3dac00d4	0.083985955
236	0x3d06b144	0.032883897
237	0x3e86f1b4	0.2635628
238	0x3e1a6b8a	0.15080085
239	0x3dabf5b1	0.08396471
240	0x3e71dbc1	0.23618986
241	0x3e0e331e	0.13886687
242	0x3dcdee70	0.10055244
243	0xbe838786	-0.25689334
244	0xbe04b669	-0.12960209
245	0x3d793c08	0.060848266
246	0xbe96d3ce	-0.2945847
247	0xbcc6648c	-0.024217866
248	0x3e2569c5	0.16153629
249	0xbe7e823b	-0.24854366
250	0xbe43b9b1	-0.19113804
251	0x3d4e399d	0.050347913
252	0x3ca52acc	0.020162009
253	0xbcae997c	-0.021313421
254	0xbe092109	-0.13391508
255	0x3dab29c8	0.083575785

layer1.0.conv2.bias f4 [16]
0	0xbb7d40f4	-0.0038643451
1	0x3c5b800e	0.01339723
2	0xbb969d01	-0.004596353
3	0x3acb1ff6	0.0015497196
4	0x3bcd993f	0.006274372
5	0x3b8786e3	0.004135953
6	0xbb278572	-0.0025561717
7	0xbbbd29f3	-0.005772823
8	0x3be6dcfe	0.0070453873
9	0xbbb25bfe	-0.005443095
10	0xbbff10b8	-0.0077839755
11	0x3c1b7a6d	0.009489638
12	0xbbe3b371	-0.0069488813
13	0x3b7263ba	0.0036985711
14	0xb9cc48f4	-0.00038964266
15	0x3a870915	0.0010302389

layer1.0.bn2.weight f4 [16]
0	0x3fa3ce53	1.279734
1	0x3f2433e1	0.6414166
2	0x3edf2fa1	0.43591025
3	0x3f88136f	1.0630931
4	0x3f76f546	0.9646801
5	0x3f96004c	1.1718841
6	0x3f970233	1.1797546
7	0x3f5dd39e	0.8665103
8	0x3f4da3be	0.80327976
9	0x3f3d0ee4	0.73850846
10	0x3f65fcae	0.89838684
11	0x3fb05837	1.3776921
12	0x3f708281	0.93949133
13	0x3f881128	1.0630236
14	0x3ef66ce5	0.48129955
15	0x3f7822eb	0.9692828

layer1.0.bn2.bias f4 [16]
0	0xbe26340b	-0.1623079
1	0x3cc8b073	0.0244982
2	0x3e73165e	0.23739001
3	0x3ed97968	0.42475438
4	0x3d96e882	0.07368566
5	0xbebf217d	-0.37330237
6	0x3e74140d	0.23835774
7	0x3c85b150	0.0163199
8	0xbd135356	-0.035968147
9	0xbe0c7d53	-0.13719682
10	0xbe8bd998	-0.27314448
11	0x3d94a1f6	0.07257454
12	0x3ea655a2	0.32487208
13	0xbd842cf3	-0.06453886
14	0x3d9afee6	0.07568149
15	0x3c370050	0.011169508

layer1.0.bn2.running_mean f4 [16]
0	0xbe982ecb	-0.297232
1	0xbe1c7c73	-0.15281849
2	0x3ce50de5	0.027960727
3	0xbf0c7a1b	-0.5487382
4	0xbf9728f2	-1.180937
5	0xbf0c9e2c	-0.5492885
6	0x3e89c165	0.2690536
7	0xbf4f8ac7	-0.8107113
8	0x3f9fa7a3	1.2473034
9	0xbf9bfedf	-1.2187155
10	0xbfb4fa79	-1.4138938
11	0x3edc8573	0.43070564
12	0xbfec1d70	-1.8446484
13	0x3ef531d6	0.47889584
14	0x3e35212e	0.17688438
15	0x3f97edb4	1.1869416

layer1.0.bn2.running_var f4 [16]
0	0x3fbe1b5f	1.4852103
1	0x3f914f1d	1.1352268
2	0x3ff3201c	1.8994174
3	0x401bc73f	2.434036
4	0x403955fa	2.8958726
5	0x408302c0	4.0940857
6	0x407e3f8a	3.972628
7	0x40652121	3.580147
8	0x4018fbdc	2.3903723
9	0x3fda2f09	1.7045604
10	0x3fc49d70	1.5360546
11	0x409c13de	4.877425
12	0x40158bda	2.3366609
13	0x40259d27	2.5877168
14	0x3f7163aa	0.942927
15	0x401fe3d5	2.4982808

layer1.1.conv1.weight f4 [16, 16, 3, 3]
0	0xbece136c	-0.40249193
1	0x3f118a53	0.5685169
2	0x3d9a7c51	0.07543243
3	0x3e97abf7	0.29623386
4	0xbf7e2c65	-0.9928649
5	0x3d888845	0.06666616
6	0x3da8dc64	0.08245161
7	0x3f3677fd	0.7127684
8	0xbeb33eb2	-0.3500877
9	0x3e2a417d	0.16626544
10	0x3e1311fc	0.14362329
11	0x3e80d3c2	0.25161558
12	0xbda42aa1	-0.08015943
13	0x3bd4fa16	0.006499539
14	0x3cf5739a	0.02996235
15	0xbd425df0	-0.047452867
16	0xbdbf4c39	-0.0934071
17	0xbccfec54	-0.025381245
18	0x3e30fcbd	0.17283912
19	0x3eaa7f85	0.33300415
20	0x3eab5516	0.33463353
21	0xbdbeb904	-0.09312633
22	0x3b37b0a2	0.0028028865
23	0x3dabe6d8	0.08393639
24	0xbb973537	-0.004614498
25	0xbe466cde	-0.19377467
26	0x3d84c5ee	0.064830646
27	0x3d1d976f	0.038474496
28	0xbe1a0f2a	-0.15044847
29	0xbe3369ef	-0.17520879
30	0x3d0ae749	0.033911977
31	0x3ec8c346	0.39211482
32	0x3e2f88f2	0.17142084
33	0xbd7ca47e	-0.06168031
34	0xbe0b97e2	-0.13632157
35	0x3dc4c8c6	0.09608607
36	0xbc99a6cb	-0.01875629
37	0xbd1c53e8	-0.038165957
38	0xbdb9a3ae	-0.090644225
39	0xbc5c29b0	-0.013437673
40	0x3e449ae5	0.19199713
41	0x3e068bd3	0.13139276
42	0xbc5f52ec	-0.01363061
43	0x3c249835	0.010046055
44	0xbb4dcfbf	-0.0031404344
45	0xbe39052b	-0.18068378
46	0xbeb3fb48	-0.3515265
47	0xbda70c58	-0.08156651
48	0x3e63b3d6	0.2223657
49	0x3e923e29	0.2856305
50	0xbf42fa30	-0.76163006
51	0xbe4f5173	-0.20245914
52	0x3e2a0a1b	0.16605417
53	0x3ebbde25	0.3669292
54	0xbd57f3df	-0.052722808
55	0xbecf4327	-0.4048092
56	0xbe264806	-0.16238412
57	0xbea6d8ed	-0.32587376
58	0x3e8907e8	0.26763844
59	0xbf116438	-0.56793547
60	0xbe534cfd	-0.20634837
61	0xbf24ef56	-0.644277
62	0xbe33bee4	-0.17553288
63	0x3e63e384	0.22254759
64	0x3ed07ea1	0.4072161
65	0x3e6e5986	0.23276338
66	0xbd08b4d7	-0.033375587
67	0xbd719ef5	-0.058989484
68	0x3dede8c0	0.11616659
69	0xbe613edc	-0.21996635
70	0xbe196562	-0.1498008
71	0xbd8df8bb	-0.06932207
72	0xbc5542ac	-0.013016384
73	0xbd2f0740	-0.042731524
74	0xbd34683c	-0.04404472
75	0xbbf53cb3	-0.0074840426
76	0x3d88aeee	0.0667399
77	0x3c8a71d0	0.016899973
78	0xbd57e07a	-0.052704312
79	0x3ca70a34	0.020390607
80	0x3da5a357	0.08087795
81	0xbdcda46b	-0.10041126
82	0x3d6964c6	0.05698087
83	0x3e3bc9e1	0.1833873
84	0xbd0d38f5	-0.034478147
85	0xbe228172	-0.15869692
86	0x3b58e432	0.0033095
87	0xbe2d46be	-0.16921517
88	0xbe555abe	-0.20835397
89	0xbe1c7c32	-0.15281752
90	0x3e1faa15	0.15592225
91	0x3dd4129f	0.10355114
92	0x3d018851	0.031624142
93	0xbc19a272	-0.009377109
94	0x3da00864	0.078141004
95	0xbd0061b4	-0.031343177
96	0xbd577f05	-0.05261137
97	0xbd243919	-0.040093515
98	0xbb8f6784	-0.0043763537
99	0x3e0d2cce	0.13786623
100	0x3e28db7c	0.16489977
101	0xbcb55d6d	-0.022139275
102	0xbe74065b	-0.2383055
103	0xbe825fec	-0.25463808
104	0x3e8cc3c1	0.27493098
105	0x3e9332e8	0.28749776
106	0x3de00bd7	0.10939758
107	0xbdd88f52	-0.10574211
108	0xbd9275d3	-0.071513794
109	0x3ccbf308	0.02489616
110	0xbe4dc6aa	-0.20095316
111	0x3db7bd67	0.089716725
112	0xbd9f4d78	-0.07778448
113	0x3ebcb256	0.3685481
114	0xbd406c02	-0.046978004
115	0x3e304cda	0.17216817
116	0xbe1c0c55	-0.1523908
117	0xbe18cbda	-0.14921513
118	0xbe269b40	-0.1627016
119	0xbe151dcc	-0.14562148
120	0x3c3ad358	0.011402927
121	0xbe7478ad	-0.23874159
122	0xbdb6ee4f	-0.089321725
123	0xbdbeb825	-0.093124665
124	0x3dc8879f	0.09791493
125	0xbe2b466d	-0.16726084
126	0xbd32c115	-0.04364117
127	0x3c6ab46d	0.014325243
128	0x3e45bc3c	0.19310087
129	0xbdfd16e7	-0.12357884
130	0x3d76ac02	0.060222633
131	0x3d8f072a	0.06983788
132	0xbe90200c	-0.2814945
133	0xbe3cb410	-0.18428063
134	0xbe2887ec	-0.164581
135	0x3ce0a071	0.027420254
136	0x3e448c8c	0.1919424
137	0xbe3c405b	-0.18383925
138	0xbea4fb92	-0.32223183
139	0xbee38366	-0.44436187
140	0x3e8dc3d7	0.27688476
141	0xbe296163	-0.16541056
142	0x3ddf7fd2	0.10913052
143	0xbe6111c2	-0.2197943
144	0x3d874d8b	0.06606587
145	0xbf3f3a6b	-0.74698514
146	0x3e473126	0.19452342
147	0xbf2f9758	-0.6859031
148	0x3e961bb3	0.29318008
149	0x3e003fcf	0.12524341
150	0x3e80c4d5	0.2515017
151	0x3e1f8923	0.15579657
152	0xbf3b7f68	-0.7324128
153	0x3e14cfa1	0.14532329
154	0x3e7c06ee	0.24612018
155	0x3d79c275	0.060976464
156	0x3d35b36a	0.044360556
157	0x3d9cf116	0.07663171
158	0xbda26c5a	-0.07930823
159	0xbd892611	-0.06696714
160	0xbd6935ce	-0.056936078
161	0x3cc198be	0.023632403
162	0x35cc3992	1.521594e-06
163	0xbdcf09db	-0.10109302
164	0xbcf81050	-0.030281216
165	0x3a62cc00	0.0008651614
166	0xbd96d3b5	-0.07364599
167	0x3e4bb8a2	0.1989465
168	0x3c85e4ca	0.016344447
169	0x3dc92934	0.09822312
170	0x3e5d749f	0.21626519
171	0xbcc852cf	-0.024453549
172	0x3ecb57dc	0.3971547
173	0x3e802607	0.25029013
174	0x3e0e4af3	0.13895778
175	0x3c93493e	0.01797926
176	0xbe394fd2	-0.18096855
177	0xbde8d39f	-0.113684885
178	0xbd94d90f	-0.07267963
179	0x3e599616	0.2124866
180	0x3db01ac3	0.085988544
181	0xbbaf25ca	-0.005345081
182	0xbd85d67d	-0.06535051
183	0x3e264a96	0.1623939
184	0xbd1ce910	-0.038308203
185	0xbcdbef60	-0.026847541
186	0x3e19e2d0	0.15027928
187	0xbcbf2039	-0.023330795
188	0xbd322d79	-0.043500397
189	0x3da59c58	0.08086461
190	0xbe108385	-0.1411267
191	0xbe853bb1	-0.26022103
192	0x3cea38c8	0.028591529
193	0xbf01f36a	-0.50762045
194	0xbdbbe15c	-0.09173843
195	0xbe6ce969	-0.23135914
196	0x3d5e9cb4	0.054348662
197	0x3cc34220	0.023835242
198	0x3e49744a	0.19673267
199	0x3d36f75e	0.0446695
200	0xbeea6b08	-0.45784783
201	0x3d28a1f1	0.041170064
202	0xbee48c16	-0.44638127
203	0xbe645f69	-0.22302021
204	0xbec6809e	-0.38770002
205	0xbe0b6da6	-0.13616046
206	0x3da3d8bb	0.080003224
207	0x3ebcf835	0.36908117
208	0xbe6e0b07	-0.23246394
209	0x3d9be65c	0.07612297
210	0xbce36782	-0.027759317
211	0xbe5cec5e	-0.21574542
212	0x3e0e2161	0.1387992
213	0x3e936a9d	0.28792277
214	0x3e51322b	0.20429294
215	0xbe09d7fb	-0.13461296
216	0x3e225fa4	0.15856797
217	0x3dc6b9d4	0.09703413
218	0x3e18ca02	0.1492081
219	0x3c79ea61	0.015253634
220	0xbd4e5ce8	-0.05038157
221	0xbd31daee	-0.04342168
222	0xbd81d3e9	-0.06339247
223	0xbdcddafc	-0.100515336
224	0xbd7f2dd4	-0.062299564
225	0xbe6ee850	-0.23330808
226	0xbdea04c8	-0.11426693
227	0x3e00aab3	0.12565117
228	0xbe908c75	-0.2823216
229	0x3dea9c4c	0.114555925
230	0x3e358be5	0.17729147
231	0xbdbee2a7	-0.09320574
232	0x3e50a96f	0.20377134
233	0x3dd9f422	0.10642268
234	0x3e352900	0.17691422
235	0x3d072c90	0.033001482
236	0x3cf58a1d	0.029973084
237	0x3db9f50f	0.09079944
238	0xbceacbff	-0.028661726
239	0xbdb84c55	-0.08998934
240	0xbcea5587	-0.028605236
241	0xbdfa513d	-0.12222526
242	0xbe3cefa6	-0.18450794
243	0xbeccbd64	-0.39988244
244	0xbec43064	-0.3831817
245	0x3df91d95	0.121638454
246	0xbe657962	-0.22409585
247	0x3eb686a4	0.35649598
248	0xbeab44a3	-0.33450803
249	0xbde578ac	-0.11204657
250	0xbe459dda	-0.19298497
251	0xbe476c6a	-0.1947495
252	0xbe02f9ef	-0.12790655
253	0xbe6b82df	-0.22999142
254	0x3e8ec9fa	0.2788847
255	0xbda6709b	-0.081269465

layer1.1.conv1.bias f4 [16]
0	0xba9bedf3	-0.0011896476
1	0xbbfd8dc6	-0.007737848
2	0x3bb67592	0.0055682147
3	0x3a0b028f	0.00053028105
4	0xbbc7263f	-0.0060775573
5	0x3bf24e8b	0.007394617
6	0xbbfb1213	-0.0076620667
7	0xbc056847	-0.008142537
8	0xbc078111	-0.008270518
9	0xbb8457db	-0.0040387935
10	0x3bdfee7f	0.006833851
11	0xbac54837	-0.0015051429
12	0x3c1c93fd	0.0095567675
13	0xba82c1a2	-0.000997592
14	0xbc018754	-0.0079058
15	0x39e4e372	0.0004365701

layer1.1.bn1.weight f4 [16]
0	0x3f70918d	0.9397209
1	0x3f827411	1.0191671
2	0x3f6e408f	0.9306726
3	0x3f649921	0.89296156
4	0x3f517892	0.818246
5	0x3f463208	0.7742009
6	0x3f5cbabb	0.8622243
7	0x3f51c198	0.81936026
8	0x3f77c456	0.9678396
9	0x3f8f80f0	1.1211224
10	0x3f39a386	0.7251514
11	0x3f5d1324	0.8635733
12	0x3f4f08ec	0.8087299
13	0x3f3c2dd9	0.7350746
14	0x3f0e70d3	0.55640906
15	0x3f349cd6	0.7055181

layer1.1.bn1.bias f4 [16]
0	0xbe7b5327	-0.24543439
1	0xbe792409	-0.24330153
2	0xbbbf7bf8	-0.0058436356
3	0xbd7fad00	-0.062420845
4	0xbe908b3f	-0.28231236
5	0xbe403663	-0.18770747
6	0xbecd6ef1	-0.40123704
7	0xbf2b1184	-0.668236
8	0xbdc0386b	-0.09385761
9	0xbf172ca2	-0.5905248
10	0xbf13823c	-0.57620597
11	0xbf1a7728	-0.6033807
12	0xbe84cf97	-0.25939628
13	0x3dfffcdd	0.12499402
14	0xbe853d38	-0.2602327
15	0xbe1e9498	-0.15486372

layer1.1.bn1.running_mean f4 [16]
0	0xc00e18d6	-2.2202659
1	0xc057ef01	-3.3739626
2	0xc0f12a5f	-7.5364223
3	0xc0972576	-4.723323
4	0xc014d1f2	-2.325314
5	0x3fe3a5d0	1.7784977
6	0x401b4870	2.4262962
7	0xbfba0a56	-1.4534404
8	0xbfea9021	-1.8325235
9	0xc0ceba28	-6.460224
10	0x403d3783	2.9565132
11	0x403469d7	2.81896
12	0xc049e3e5	-3.1545346
13	0xc02e8dbf	-2.7274015
14	0xc09994ae	-4.7993994
15	0xbfd02d42	-1.6263812

layer1.1.bn1.running_var f4 [16]
0	0x419a15b6	19.260601
1	0x4189adf9	17.209948
2	0x41408a9a	12.033838
3	0x4142792a	12.154581
4	0x40ba6d75	5.8258615
5	0x41392e3c	11.573788
6	0x4099a366	4.801196
7	0x4041fe34	3.0311403
8	0x4243b5a4	48.927383
9	0x418cc4b6	17.59605
10	0x4039bc8e	2.9021335
11	0x4098562d	4.7605195
12	0x410d363d	8.825742
13	0x410f1fc4	8.945255
14	0x407aaa90	3.9166603
15	0x40ee5745	7.448153

layer1.1.conv2.weight f4 [16, 16, 3, 3]
0	0xbdb09ca1	-0.086236246
1	0xbe95c99d	-0.2925538
2	0xbc41c1ae	-0.011825962
3	0xbd8ab22d	-0.067722656
4	0xbcd2eaf9	-0.02574681
5	0x3d3d1f9b	0.04617272
6	0x3cbc4939	0.022984134
7	0xbe81c071	-0.25342134
8	0x3e24d610	0.16097283
9	0x3dd2e2da	0.10297175
10	0x3e7260f1	0.23669793
11	0xbe077372	-0.13227633
12	0x3ee15a42	0.44014174
13	0x3eb5d6c5	0.3551542
14	0x3ec86819	0.3914192
15	0x3d071206	0.032976173
16	0x3e8f72c3	0.28017244
17	0x3e754121	0.23950626
18	0xbc1c35e3	-0.009534332
19	0xbe289758	-0.16463983
20	0xbd873c51	-0.06603301
21	0xbdb456ee	-0.08805643
22	0xbd9a6216	-0.0753824
23	0x3e47b042	0.19500831
24	0xbe40fbb5	-0.18846019
25	0xbcbd8da8	-0.023138836
26	0xbc09d5b4	-0.008412767
27	0xbcdd0e25	-0.026984284
28	0x3da2f54a	0.079569414
29	0x3d25997c	0.040429577
30	0xbce87c83	-0.028379684
31	0x3e9deec6	0.30846232
32	0x3df84148	0.121218264
33	0xbe09d8a4	-0.13461548
34	0x3e100bf9	0.14067067
35	0x3e22a851	0.1588452
36	0xbbfe48e2	-0.007760153
37	0xbc61873b	-0.013765152
38	0xbd2a8746	-0.041632913
39	0x3d5f7cd5	0.05456241
40	0x3e963e7d	0.2934455
41	0x3de26944	0.11055234
42	0x3dada90b	0.08479508
43	0x3dc74e98	0.097317874
44	0x3d99e80d	0.07514963
45	0xbd3e16fc	-0.04640864
46	0xbd56bf91	-0.052428786
47	0x3e146e09	0.144951
48	0xbe8c224f	-0.27369925
49	0xbe3ce73f	-0.18447588
50	0x3e7ebc03	0.24876408
51	0xbe53f99a	-0.20700684
52	0xbdd690b4	-0.10476819
53	0xbd66269e	-0.056189172
54	0xbdb508ea	-0.08839591
55	0x3cd92438	0.026506528
56	0x3d1f3157	0.038865414
57	0x3dee41a3	0.11633613
58	0x3d608ba7	0.054820683
59	0x3be24e08	0.0069062747
60	0xbe09ba0d	-0.13449879
61	0xbd686e2e	-0.0567457
62	0xbe370de8	-0.17876399
63	0x3db38bdd	0.08766911
64	0x3e9267b9	0.2859476
65	0x3e229bb6	0.15879712
66	0xbdd55e70	-0.10418403
67	0xbd0fed68	-0.035138518
68	0xbd81d4ff	-0.06339454
69	0xbd8900c5	-0.066896
70	0x3d1e40da	0.038636066
71	0xbd844a49	-0.06459481
72	0xbce4edc9	-0.027945416
73	0xbdfe6c05	-0.12422947
74	0xbe1560cf	-0.14587711
75	0xbe3d5ca0	-0.18492365
76	0xbe73fed2	-0.23827675
77	0xbe8c133b	-0.27358422
78	0xbebbdce8	-0.36691976
79	0xbe8103ac	-0.25198114
80	0x3cce661e	0.025195178
81	0x3d890388	0.06690127
82	0x3d85b42d	0.065285064
83	0x3e5f1183	0.21784024
84	0xbd3e225f	-0.046419498
85	0x3e1573a5	0.14594896
86	0x3de72932	0.11287154
87	0x3e3f2870	0.1866777
88	0x3e50594e	0.20346567
89	0x3e162ab2	0.14664724
90	0xbd1b0692	-0.037848063
91	0xbda34c2b	-0.07973512
92	0xbe12c9ec	-0.1433484
93	0xbca28c6b	-0.019842347
94	0x3d8c74f4	0.068582445
95	0xbd5d25e9	-0.053991232
96	0xbcc0ce5f	-0.023535905
97	0xbd96c60a	-0.07361992
98	0xbc6673ab	-0.014065663
99	0xbce34eb2	-0.027747486
100	0xbd8bea90	-0.068318486
101	0xbe82a72a	-0.2551816
102	0x3de13a76	0.10997479
103	0xbdd77487	-0.10520273
104	0xbe4c924b	-0.19977681
105	0xbea66ae9	-0.3250344
106	0xbed2a70a	-0.41143066
107	0xbe31bcca	-0.17357174
108	0x3dc07cbc	0.09398791
109	0x3e28b651	0.16475798
110	0x3cafbe28	0.021452978
111	0x3e0a57ab	0.13510005
112	0x3e37cf08	0.1795007
113	0x3e49e6d8	0.19716966
114	0x3df5bce9	0.119989224
115	0x3e176ed0	0.14788365
116	0x3e3cece1	0.18449737
117	0x3c2b75a2	0.010465058
118	0x3db71c4f	0.08940946
119	0xbb9d41da	-0.00479911
120	0x3dcaf7b5	0.099105276
121	0xbe7e864c	-0.24855918
122	0x3da6f737	0.08152621
123	0xbe21b347	-0.15791045
124	0x3d996fd8	0.074920356
125	0xbd5ed961	-0.054406527
126	0xbd565ca4	-0.052334443
127	0xbc878f36	-0.01654778
128	0x3d2809a5	0.041024823
129	0xbc6040cd	-0.013687325
130	0xbb3a23b5	-0.002840263
131	0x3dab30f7	0.08358949
132	0xbe00f875	-0.12594779
133	0xbc8b16a4	-0.01697857
134	0x3c9e9dbd	0.019362325
135	0x3d153ca3	0.03643478
136	0xbd7b27b9	-0.06131718
137	0xbd6c9030	-0.057754695
138	0xbe6e9065	-0.2329727
139	0xbdf12032	-0.11773719
140	0xbe106d05	-0.14104088
141	0xbe8a7a69	-0.27046517
142	0xbd9a2e05	-0.07528309
143	0xbdb15b86	-0.08660035
144	0xbdd8f2a0	-0.10593152
145	0xbdce77b2	-0.10081424
146	0x3e182606	0.14858255
147	0x3e275d50	0.1634419
148	0xbd3c9457	-0.046039905
149	0xbe1facf1	-0.15593316
150	0x3c0a79d2	0.008451896
151	0x3d48b668	0.04900208
152	0x3e191198	0.14948118
153	0x3d985dd1	0.07439769
154	0xbe3a7b1d	-0.18211026
155	0xbe1c2d26	-0.15251598
156	0xbe206277	-0.15662561
157	0xbea9bda4	-0.33152497
158	0xbe760be5	-0.24027975
159	0xbcb101a0	-0.02160722
160	0xbe37a1a2	-0.17932752
161	0xbd9d1417	-0.076698475
162	0xbcd01a46	-0.025403153
163	0x3d90075c	0.07032654
164	0x3d9abad2	0.075551644
165	0xbd750fcd	-0.059829522
166	0xbe165f5a	-0.14684811
167	0xbd993a03	-0.07481768
168	0xbd5bacf7	-0.05363175
169	0xbac14f96	-0.001474845
170	0x3d92c855	0.071671166
171	0xbd19f1de	-0.03758418
172	0xbde614c1	-0.11234427
173	0xbd542d6f	-0.05180114
174	0xbe334486	-0.17506608
175	0xbdcde9fe	-0.10054396
176	0xbe274563	-0.16335063
177	0x3e1c147e	0.15242192
178	0x3da72bcd	0.08162651
179	0x3d125e57	0.0357345
180	0xbdc85bbc	-0.09783122
181	0x3dd7a49b	0.10529443
182	0x3e1b3b48	0.15159333
183	0xbd0ad316	-0.033892713
184	0xbd57dd5c	-0.05270134
185	0x3be4a238	0.006977346
186	0x3dae3189	0.08505542
187	0xbd78bd36	-0.06072732
188	0xbde7fe4e	-0.11327802
189	0xbe92a68a	-0.28642684
190	0xbe98b319	-0.2982414
191	0xbadda430	-0.0016909894
192	0xbee47b70	-0.44625425
193	0xbebb85ce	-0.36625522
194	0xbcedeb30	-0.02904281
195	0xbe860b1f	-0.2618036
196	0xbe93e1f1	-0.28883317
197	0xbd17a1ee	-0.037019663
198	0xbbc706fa	-0.0060738297
199	0xbd0f766f	-0.035025056
200	0xbd252420	-0.040317655
201	0x3e12960e	0.14315054
202	0x3d8dd50b	0.069254
203	0x3c559bc2	0.013037624
204	0xbc30dc7a	-0.010794753
205	0xbe1bff5e	-0.15234134
206	0xbd40673a	-0.046973445
207	0x3c55c17b	0.013046618
208	0xbdfc7504	-0.123270065
209	0xbd2d739d	-0.042346586
210	0xbd6da5b5	-0.05801936
211	0xbe6c2d6f	-0.23064207
212	0xbe1a3037	-0.15057455
213	0xbdfade65	-0.1224945
214	0xbe5771d3	-0.21039514
215	0xbe219e6e	-0.15783092
216	0xbec11262	-0.37709337
217	0xbf1e9018	-0.6193862
218	0xbe80eb8f	-0.25179717
219	0xbee88645	-0.4541494
220	0xbf114bb5	-0.56756145
221	0xbedcda07	-0.43135092
222	0xbf0bd4ac	-0.54621387
223	0xbeddb814	-0.43304503
224	0xbda32058	-0.079651535
225	0x3d9aaccc	0.0755249
226	0x3cf35f3a	0.029708494
227	0x3d93495c	0.071917266
228	0x3e5d4c90	0.21611238
229	0xbc299ecd	-0.010352802
230	0x3de7a39f	0.11310505
231	0x3eafb0e6	0.3431465
232	0x3e690399	0.22755279
233	0x3e2aad73	0.16667728
234	0x3e10a563	0.1412559
235	0xbd54bffe	-0.05194091
236	0xbc7eb6bd	-0.015546498
237	0x3e354301	0.17701341
238	0x3dedf137	0.11618274
239	0x3d61e71d	0.055152047
240	0x3e14e69d	0.14541097
241	0x3e0c4c52	0.13700989
242	0x3da6c71c	0.08143446
243	0xbe4f274d	-0.20229836
244	0xbd9423f4	-0.0723342
245	0x3ca3a364	0.019975372
246	0x3ce8d3e4	0.02842135
247	0x3e3550bc	0.17706579
248	0x3e008c38	0.12553489
249	0x3df42dd0	0.119228005
250	0x3dae7747	0.08518844
251	0x3dcaa065	0.09893874
252	0xbe2df35d	-0.16987367
253	0xbdfd1340	-0.12357187
254	0xbe00e7d1	-0.12588431
255	0xbd86deaf	-0.06585442

layer1.1.conv2.bias f4 [16]
0	0x3be0d96a	0.0068618553
1	0xbac92c44	-0.0015348275
2	0x3b104b50	0.0022017546
3	0x3b995c87	0.0046802196
4	0xbbc09ace	-0.005877829
5	0xbb7c4857	-0.0038495266
6	0xbc1becbd	-0.009516892
7	0xbb18fe6c	-0.0023345007
8	0xbaf706a4	-0.0018846584
9	0x3c10755c	0.008817043
10	0x3b4f0d35	0.0031593565
11	0x3ac2a45c	0.0014850008
12	0xbb59c0e7	-0.003322655
13	0xbb37427a	-0.0027963207
14	0x3949317c	0.00019187288
15	0x3bf4f3b4	0.0074753407

layer1.1.bn2.weight f4 [16]
0	0x3f8e14a4	1.1100049
1	0x3f778ec3	0.9670221
2	0x3e86a9d5	0.26301447
3	0x3f5ad7a9	0.8548532
4	0x3f043cd6	0.5165533
5	0x3f502ca5	0.8131812
6	0x3f4505e1	0.76962095
7	0x3f4d77f2	0.8026115
8	0x3f15d6de	0.58530986
9	0x3eac043a	0.33596975
10	0x3edc54ad	0.43033352
11	0x3f39a93e	0.7252387
12	0x3f45c9ec	0.77261233
13	0x3f29a9cf	0.6627473
14	0x3eac7275	0.33681074
15	0x3f40d03f	0.7531776

layer1.1.bn2.bias f4 [16]
0	0xbf3339f9	-0.70010334
1	0x3e963052	0.2933374
2	0x3e9cb079	0.30603388
3	0x3e3744f1	0.17897393
4	0x3ded88d3	0.11598363
5	0xbe4a38cf	-0.19748233
6	0xbefd62b4	-0.49489367
7	0x3e695399	0.22785796
8	0x3dd0b841	0.10191394
9	0x3e08da47	0.13364516
10	0x3e8375c8	0.25675797
11	0xbf43cc56	-0.76483667
12	0x3f15e48d	0.58551866
13	0x3f4e4292	0.8057033
14	0x3cd94ad1	0.026524933
15	0xbdccf01e	-0.10006736

layer1.1.bn2.running_mean f4 [16]
0	0xbdcd0b3e	-0.1001191
1	0xbfef2c13	-1.8685325
2	0xbf884beb	-1.0648168
3	0xbe204582	-0.15651515
4	0xbf995289	-1.1978313
5	0x3ed94e55	0.42442575
6	0xbb8eef33	-0.004362011
7	0xbe5e7fbb	-0.21728413
8	0x3f35c798	0.7100768
9	0xbf3bac44	-0.7330973
10	0x3e1d1ae5	0.1534229
11	0xbe5577ab	-0.20846431
12	0xbf26249c	-0.6489961
13	0x3f5e5b8a	0.8685843
14	0xbe0ad50a	-0.1355783
15	0x3e47ef77	0.19524942

layer1.1.bn2.running_var f4 [16]
0	0x3f72643d	0.946842
1	0x3fefcb8a	1.873399
2	0x3f2f14d0	0.6839113
3	0x3f591cf3	0.848098
4	0x3f674df0	0.903533
5	0x3f910526	1.1329696
6	0x3f64d17d	0.89382154
7	0x3fb7fd57	1.4374188
8	0x3f492134	0.7856629
9	0x3f291d3a	0.6606022
10	0x3efef06c	0.49792802
11	0x3f55baec	0.83488345
12	0x3fb7dd6b	1.4364446
13	0x3f9ecae2	1.2405665
14	0x3f024894	0.50891995
15	0x3f520d41	0.82051474
