Output/swift-iid-8W-linear-shark-ring-2sgd-100epochs/r4-epoch_72-parameters.pt (torch, 731450 bytes, 92 tensors)

conv1.weight f4 [16, 3, 3, 3]
0	0x3f181793	0.5941097
1	0x3e52c3a5	0.20582445
2	0x3ec1811e	0.3779382
3	0xbee468c9	-0.44611195
4	0x3fa682a2	1.3008616
5	0xbf62f5e6	-0.8865646
6	0xbe94d3d7	-0.2906787
7	0xbf5f536f	-0.87236685
8	0xbf06bc7f	-0.5263137
9	0xbdbfed3d	-0.093714215
10	0xbe5b3de8	-0.21410334
11	0xbc17a56f	-0.009255751
12	0xbec8f5ef	-0.39250132
13	0x3feb85be	1.840019
14	0xbf3af0ec	-0.7302387
15	0xbd17d2b2	-0.03706617
16	0xbdd9128c	-0.10599241
17	0xbe0405ed	-0.12892886
18	0xbea70db5	-0.32627645
19	0xbf5aab11	-0.85417277
20	0xbe1f6772	-0.15566805
21	0xbeb4cd6f	-0.35312983
22	0x3f8c0f6f	1.094221
23	0xbe34fb2d	-0.17673941
24	0x3de5259d	0.11188815
25	0x3ecef589	0.40421703
26	0x3e79d365	0.24397047
27	0xbd0703ab	-0.032962482
28	0xbe148d48	-0.1450702
29	0x3e4dfb71	0.20115449
30	0xbe254a0a	-0.16141525
31	0xbf2a9ddf	-0.6664714
32	0xbd921c83	-0.071343444
33	0x3dcc435c	0.09973785
34	0xbe4ff9b1	-0.20310093
35	0x3d7cdda1	0.0617348
36	0xbcf0bcfc	-0.02938699
37	0xbe66a5b2	-0.22524145
38	0x3e350275	0.17676719
39	0xbe9af7eb	-0.3026727
40	0xbf2fefb1	-0.68725115
41	0xbdfba258	-0.12286824
42	0xbdc8e88d	-0.098099805
43	0xbe8888ca	-0.26666862
44	0x3a457e53	0.00075337774
45	0x3e832069	0.25610664
46	0x3d7112b8	0.058855742
47	0x3e6c13cc	0.23054427
48	0x3d7a8e7b	0.061171036
49	0xbe79e913	-0.24405317
50	0xbcdd3e86	-0.027007353
51	0x3d90e531	0.07074965
52	0xbc96d3ad	-0.018411482
53	0x3ce3107c	0.027717821
54	0xbda6a4b1	-0.08136881
55	0x3c331c39	0.010932022
56	0xbd258d6d	-0.040418077
57	0xbe2ddab1	-0.16977955
58	0xbe00acb6	-0.12565884
59	0xbe3ad721	-0.18246128
60	0xbdf136a0	-0.11777997
61	0xbe750f8d	-0.23931713
62	0xbe2bd8d2	-0.16781929
63	0xbe9ee94d	-0.3103737
64	0x3d2d6113	0.042328905
65	0xbe3414d9	-0.17586078
66	0xbe023508	-0.12715542
67	0x3e5cf4ea	0.21577802
68	0x3bab1847	0.0052214
69	0xbe4ce523	-0.20009284
70	0xbd0b0bc4	-0.033946767
71	0xbd9b87d1	-0.07594264
72	0xbe1d22f0	-0.15345359
73	0x3e9def7f	0.30846784
74	0xbe11dc73	-0.14244251
75	0x3eadf39f	0.3397493
76	0x3f5a0b80	0.851738
77	0x3f09acf7	0.5377955
78	0x3e086264	0.13318783
79	0x3ee50ced	0.44736424
80	0x3e88cf23	0.26720533
81	0x3eeb0383	0.45901117
82	0xbe09217c	-0.1339168
83	0x3de08248	0.10962349
84	0x3dfbd0e0	0.12295699
85	0xbf8794a8	-1.0592241
86	0xbea42050	-0.32055902
87	0xbe1c19e4	-0.15244251
88	0xbea4792b	-0.32123694
89	0xbe0d99ae	-0.13828155
90	0x3e0c8bc8	0.13725197
91	0xbe588670	-0.21145034
92	0x3e8d5b67	0.27608797
93	0x3dc5e88f	0.09663498
94	0xbf3c9fac	-0.7368114
95	0x3e0a9005	0.13531502
96	0x3e85b4d0	0.2611451
97	0x3eaa68d5	0.33283105
98	0x3ef9f6c2	0.48821074
99	0xbce2a9f2	-0.027668927
100	0xbe9524af	-0.2912955
101	0xbdadf903	-0.08494761
102	0x3db2605e	0.08709787
103	0xbf19c8a2	-0.60071766
104	0xbd93314c	-0.07187137
105	0x3dde2214	0.10846344
106	0x3db74aba	0.089498
107	0x3e3a995d	0.18222566
108	0x3d9f05c1	0.07764769
109	0xbd7473b0	-0.05968064
110	0xbe6cd6f7	-0.23128878
111	0x3e1145c3	0.14186768
112	0x3c3fbd11	0.011702792
113	0xbdd31ba9	-0.1030801
114	0x3e835325	0.25649372
115	0x3e7bfd3e	0.24608323
116	0x3d45b6aa	0.048269905
117	0x3dcce733	0.10005035
118	0xbe3808e1	-0.17972137
119	0xbebd1477	-0.36929676
120	0x3e359a54	0.17734653
121	0x3d210bd3	0.039317917
122	0xbda2a1d6	-0.07941024
123	0x3ec7b1ba	0.39002782
124	0x3ea62983	0.32453546
125	0x3e1cef26	0.15325603
126	0xbe1e1875	-0.15439017
127	0xbe2c4286	-0.16822252
128	0xbe6b270d	-0.22964115
129	0xbe3df84e	-0.18551752
130	0xbeaf2348	-0.34206605
131	0xbebc2958	-0.36750293
132	0xbda51101	-0.08059884
133	0xbe81e2ea	-0.25368434
134	0xbebee19b	-0.37281498
135	0xbe3089c4	-0.17240053
136	0xbd533671	-0.05156559
137	0xbc02a49d	-0.007973817
138	0x3f964e07	1.1742562
139	0x3e70801f	0.23486374
140	0xbf52d6bc	-0.8235891
141	0x3f00f302	0.503708
142	0x3de61da0	0.11236119
143	0xbe322d32	-0.17400053
144	0x3eef8ff1	0.46789506
145	0xbe59c464	-0.21266323
146	0xbee94dca	-0.4556716
147	0x3fb22a67	1.391919
148	0xbebc15ce	-0.36735386
149	0xbfc4b47e	-1.5367582
150	0x3f058bde	0.52166545
151	0xbe91247f	-0.28348157
152	0xbf00f483	-0.50373095
153	0x3f0ca187	0.5493397
154	0x3e3961bf	0.18103693
155	0xbd75a111	-0.059968058
156	0x3f968ccb	1.1761717
157	0xbd6f2485	-0.058384437
158	0xbf805c7d	-1.0028225
159	0x3efd9cf5	0.4953381
160	0xbe3f5e7a	-0.18688384
161	0xbeb8e474	-0.36111796
162	0x3f2b6c14	0.6696179
163	0x3f6f28f1	0.93421847
164	0x3f1e2e0a	0.61789
165	0x3e1e397b	0.15451615
166	0xbf2026bb	-0.625591
167	0xbe57b641	-0.21065618
168	0xbe09bc4c	-0.13450736
169	0xbf7c7f90	-0.98632145
170	0xbebd3532	-0.36954647
171	0x3ee0ca2d	0.43904248
172	0x3f470561	0.7774258
173	0x3f0db0c7	0.55347866
174	0xbc8e2bb6	-0.017354827
175	0xbf27e155	-0.65578204
176	0xbe0de22b	-0.13855807
177	0xbd67c975	-0.05658861
178	0xbf29326d	-0.6609257
179	0xbd4db948	-0.050225526
180	0x3e182355	0.14857228
181	0x3ee2077a	0.4414633
182	0x3e866d6b	0.26255354
183	0xbdcba2c4	-0.099431545
184	0xbf1b9ae2	-0.6078321
185	0xbe38a2f9	-0.18030919
186	0xbde34c41	-0.11098529
187	0xbf03c189	-0.51467186
188	0x3e1b75dd	0.1518168
189	0x3e087870	0.13327193
190	0x3e2a55dc	0.16634315
191	0xbd954c62	-0.072899595
192	0x3f2b1a8b	0.66837376
193	0x3f60fc4f	0.8788499
194	0x3f170ff7	0.59008735
195	0xbec62bd1	-0.38705304
196	0xbf4b7d05	-0.7948764
197	0xbf21d520	-0.6321583
198	0x3e821aa1	0.2541094
199	0x3ebda4a1	0.37039664
200	0x3eb03bfa	0.34420758
201	0x3eba9f9e	0.36449903
202	0x3f058ec3	0.5217096
203	0x3f053b7e	0.520439
204	0xbf49c1ad	-0.7881115
205	0xbf86e240	-1.0537796
206	0xbf13c287	-0.577187
207	0x3dab5a8e	0.08366881
208	0x3c49214e	0.012276007
209	0x3d8b8d82	0.068141
210	0x3eb22480	0.34793472
211	0x3ee1c951	0.44098905
212	0x3eb40d0a	0.35166198
213	0xbf126243	-0.57181185
214	0xbf28920d	-0.65847856
215	0xbeef3b2e	-0.46724838
216	0xbd48b58e	-0.04900127
217	0xbb2f1abe	-0.002671882
218	0xbde05f02	-0.10955621
219	0x3eb065e7	0.34452745
220	0x3f4600a5	0.77344733
221	0x3ecab475	0.39590803
222	0x3eaf14af	0.34195468
223	0x3f3581ab	0.7090098
224	0x3e439025	0.19097956
225	0xbe55d7d6	-0.20883116
226	0xbe31d1f3	-0.17365246
227	0xbeaac4ff	-0.3335342
228	0xbe02f4b2	-0.12788656
229	0x3d824903	0.06361582
230	0xbdb7f99a	-0.089831546
231	0xbe160e3e	-0.1465387
232	0x3c50d91a	0.012747074
233	0x3c506822	0.01272014
234	0x3ebad803	0.3649293
235	0x3efda10e	0.49536937
236	0x3e2f5d02	0.17125323
237	0x3dd443aa	0.103644684
238	0x3d2a9522	0.04164613
239	0xbde4c652	-0.11170639
240	0xbe595e7e	-0.21227452
241	0xbec1325d	-0.37733737
242	0xbeaffdaf	-0.34373233
243	0xbd438fa4	-0.04774441
244	0xbed5b7a3	-0.41741666
245	0x3df809b3	0.12111225
246	0xbedd3ead	-0.4321188
247	0xbf74cedb	-0.95628136
248	0xbf3f6062	-0.74756444
249	0xbe9363b1	-0.28786996
250	0xbf64044a	-0.89069045
251	0xbf0e24f1	-0.5552512
252	0xbad9c510	-0.0016614515
253	0x3d459149	0.048234258
254	0x3ea16051	0.31518796
255	0x3db8d841	0.09025622

conv1.bias f4 [16]
0	0xbc8aceda	-0.016944338
1	0xbc301c3c	-0.010748919
2	0xbc442871	-0.011972533
3	0x3cb606ae	0.022219982
4	0x3ca7f6a8	0.020503357
5	0xbcc2eb9a	-0.023793984
6	0xba95cf6a	-0.0011429612
7	0x3bbae504	0.0057035703
8	0xbc94913e	-0.018135663
9	0xbcc52375	-0.024064759
10	0xbbdc1dfd	-0.006717442
11	0xbc3442ce	-0.011002256
12	0xbc138a1b	-0.009005095
13	0x3c93a215	0.018021623
14	0x3b9771fc	0.0046217423
15	0xbc8702c9	-0.01648082

bn1.weight f4 [16]
0	0x3f81793e	1.0115125
1	0x3f9cb10f	1.2241534
2	0x3f300c6e	0.68768966
3	0x3f98e650	1.1945286
4	0x3f336a1f	0.700838
5	0x3f6ed9ff	0.93301386
6	0x3f90b147	1.1304101
7	0x3f661e96	0.8989042
8	0x3f6b8c22	0.920107
9	0x3f18ccae	0.59687316
10	0x3f494ac4	0.7862971
11	0x3f34971e	0.70543087
12	0x3f2f9b88	0.68596697
13	0x3f4d484c	0.8018844
14	0x3f58139a	0.8440491
15	0x3f2e7b5e	0.68156993

bn1.bias f4 [16]
0	0x3fb04837	1.3772038
1	0xbf195d4f	-0.59908
2	0x3d9c01cf	0.076175325
3	0xbe54025b	-0.20704024
4	0xbe93ec63	-0.28891286
5	0x3f190ef0	0.5978842
6	0x3de76a3f	0.11299562
7	0x3f39b1a6	0.72536695
8	0x3d1b0478	0.03784606
9	0x3ee76819	0.45196608
10	0x3de3e3bf	0.111274235
11	0x3f0a7213	0.54080313
12	0x3e84b6b1	0.25920632
13	0x3ed00476	0.40628403
14	0x3e1e22e3	0.15442996
15	0x3f110ea0	0.5666294

bn1.running_mean f4 [16]
0	0xbe5d0f57	-0.21587883
1	0x3f507df4	0.8144219
2	0xbee6e0fa	-0.45093518
3	0x3f09c2df	0.53812975
4	0x3ed7882c	0.42096078
5	0xbd573e3f	-0.052549597
6	0x3e8e82a6	0.27834052
7	0xbd5cdc03	-0.053920757
8	0xbf0589a2	-0.52163136
9	0x3e187da3	0.14891677
10	0x3eee9648	0.4659903
11	0xbda0a063	-0.07843091
12	0x3deab249	0.114597864
13	0xbe6bf86c	-0.23043984
14	0x3dcde4ac	0.10053381
15	0xbe2eac19	-0.17057838

bn1.running_var f4 [16]
0	0x407088b4	3.7583437
1	0x4118d997	9.5531225
2	0x40b47a7e	5.6399527
3	0x40b4fbd1	5.6557393
4	0x40aea840	5.4580383
5	0x41d1f6be	26.24548
6	0x418215ec	16.260704
7	0x418674f3	16.807104
8	0x40936b91	4.6068807
9	0x40f7a752	7.739175
10	0x40999cd7	4.8003955
11	0x412c0837	10.752006
12	0x407a3ac3	3.9098365
13	0x40d1f8a8	6.5616035
14	0x40976116	4.7306013
15	0x406e9f2b	3.7284648

layer1.0.conv1.weight f4 [16, 16, 3, 3]
0	0x3daf71f1	0.085666545
1	0x3e8a83bf	0.2705364
2	0xbd611a08	-0.054956466
3	0xbec332c4	-0.3812467
4	0x3f319f37	0.6938357
5	0xbecd2d97	-0.40073845
6	0xbe65477a	-0.22390547
7	0x3b2ba2b1	0.00261895
8	0xbe75356e	-0.23946163
9	0xbe3164df	-0.17323636
10	0x3d9b49dd	0.07582448
11	0x3d68f5ed	0.056875158
12	0xbe15ad65	-0.14616926
13	0xbd3d1531	-0.046162788
14	0x3d960724	0.07325581
15	0xbdfc8362	-0.12329747
16	0x3d2b3966	0.041802786
17	0x3e4a4e80	0.19756508
18	0xbd3f7e7d	-0.046751488
19	0x3d297bc0	0.041377783
20	0xbdcb1e3a	-0.09917875
21	0xbd26aff5	-0.04069515
22	0x3d2fe866	0.04294624
23	0xbe013554	-0.12618
24	0xbde26f02	-0.11056329
25	0xbdec0e18	-0.11526126
26	0xbe03e81d	-0.12881513
27	0xbca0d5f6	-0.019633275
28	0xbdcb55eb	-0.09928497
29	0xbda03700	-0.078229904
30	0xbded8513	-0.115976475
31	0xbe74f4ed	-0.23921557
32	0xbe4595c4	-0.19295412
33	0x3d3a53cb	0.045490067
34	0x3d2b4d37	0.041821685
35	0x3d86343c	0.06552932
36	0xbe2d7df1	-0.16942574
37	0xbe170120	-0.14746523
38	0xbe03dc72	-0.12877062
39	0xbd0c9141	-0.034318212
40	0xbc32ed50	-0.0109208375
41	0xbdd038ea	-0.101671055
42	0xbcd3e70e	-0.025867011
43	0x3d91035f	0.07080721
44	0x3d2568d9	0.040383194
45	0xbeba3db3	-0.36375198
46	0xbe857f72	-0.26073796
47	0x3cc58c8e	0.024114873
48	0xbec94bdb	-0.39315686
49	0xbe83db41	-0.25753215
50	0x3e944841	0.28961375
51	0x3e3558b4	0.17709619
52	0xbe40777d	-0.18795581
53	0xbc217b52	-0.009856062
54	0xbb842587	-0.004032794
55	0xbe544a71	-0.20731522
56	0xbe039711	-0.12850596
57	0xbde70a4c	-0.11281261
58	0xbebc1e0b	-0.3674167
59	0xbdbefbec	-0.09325394
60	0xbac49972	-0.0014999344
61	0xbe8bdd25	-0.27317157
62	0xbd225d39	-0.039639685
63	0x3c69c422	0.014267953
64	0xbe9dc084	-0.3081094
65	0xbd84ba2d	-0.06480823
66	0x3e96dff7	0.29467747
67	0x3e637f02	0.22216418
68	0x3e73ab38	0.23795784
69	0x3ebc6b0b	0.36800417
70	0x3cd7eb47	0.026357306
71	0x3dccc962	0.09999348
72	0xbe7b2136	-0.24524388
73	0xbd3be3b1	-0.04587144
74	0xbe0db16c	-0.13837212
75	0xbcd19c94	-0.025587358
76	0x3e4b1ef5	0.19836028
77	0x3dc7d773	0.097578906
78	0xbd18e2c1	-0.037325624
79	0x3daca7b3	0.084304236
80	0x3d9515de	0.072795615
81	0x3de2e24a	0.110783175
82	0x3e44ed00	0.19231033
83	0x3e055eca	0.1302444
84	0x3d8dd4e4	0.06925371
85	0x3dbad297	0.09122198
86	0xbd0092a9	-0.031389866
87	0x3d761e71	0.060087625
88	0xbd2d59d5	-0.042322
89	0xbde24fa7	-0.11050349
90	0x3a7533cc	0.00093537266
91	0x3e616316	0.22010455
92	0x3de37bb0	0.11107576
93	0xbd80bfe7	-0.062866025
94	0x3ca71af7	0.0203986
95	0x3d61c9c1	0.05512405
96	0xbddc6a33	-0.107624434
97	0x3b1fd4d1	0.0024388323
98	0x3d75e3d8	0.06003174
99	0xbd04f1d0	-0.032457173
100	0xbeb76745	-0.35820976
101	0xbe2adcf1	-0.16685845
102	0x3e56751b	0.2094311
103	0xbe9f9e44	-0.31175435
104	0xbeded7a6	-0.43523902
105	0x3d03eee3	0.032210242
106	0xbeab7e50	-0.33494806
107	0xbe8efeb2	-0.27928692
108	0xbd5ad52e	-0.05342596
109	0xbe339d8c	-0.17540568
110	0xbcb2c4fe	-0.021822449
111	0x3dea57f5	0.11442558
112	0x3e037f30	0.12841487
113	0xbcc9fc2a	-0.024656374
114	0x3dc1a671	0.09455574
115	0x3e481cb6	0.19542202
116	0x3ddead56	0.10872905
117	0x3c0ae909	0.0084784115
118	0x3f06f8ee	0.52723587
119	0xbe23d83d	-0.16000457
120	0xb9e1a78c	-0.00043040176
121	0x3efe7410	0.49697924
122	0xbe1bfe3c	-0.15233701
123	0xbeb84fa1	-0.35998252
124	0xbf02590d	-0.5091713
125	0xbea824b9	-0.32840517
126	0xbd834aa2	-0.064107195
127	0x3db05875	0.08610622
128	0x3de97afc	0.114004105
129	0xbdf86e12	-0.12130369
130	0xbdc69343	-0.09696057
131	0xbd853196	-0.065035984
132	0x3ae8b875	0.0017755168
133	0xbe009ae4	-0.12559086
134	0xbd77469e	-0.06037008
135	0x3e340c50	0.17582822
136	0xbea439f9	-0.3207548
137	0xbd9822e2	-0.07428528
138	0x3ebc69c6	0.3679945
139	0x3c8646f2	0.016391251
140	0xbea8e578	-0.3298757
141	0x3c1ecf67	0.009693003
142	0xbe986ef4	-0.2977215
143	0xbe4c54fe	-0.19954297
144	0x3e341edd	0.17589898
145	0xbb1f7de6	-0.0024336516
146	0xbcdf1dec	-0.027235948
147	0x3c4599f0	0.012060627
148	0xbe380254	-0.17969638
149	0xbdc097c6	-0.094039485
150	0x3e0db16b	0.13837211
151	0xbdac541f	-0.08414482
152	0xbc431c0f	-0.011908545
153	0x3dd7946c	0.10526356
154	0x3e3421b0	0.17590976
155	0x3c901ff7	0.017593367
156	0x3e8efecb	0.27928767
157	0x3eb5870a	0.3545459
158	0x3e5462d6	0.20740828
159	0xbce839c4	-0.028347857
160	0x3d4f0b44	0.050547853
161	0xbdc10139	-0.09424061
162	0x3de11393	0.109900616
163	0x3d813100	0.06308174
164	0x3d29f51b	0.041493516
165	0x3e0c99de	0.1373057
166	0x3dc75819	0.097336
167	0x3dbc570a	0.09196289
168	0x3e2dd6f6	0.16976532
169	0x3e09b21a	0.13446847
170	0x3df66f13	0.120329045
171	0xbcd5836f	-0.026063649
172	0x3dc3a7a4	0.09553459
173	0xbd1456ac	-0.03621547
174	0x3ed39d95	0.41331163
175	0x3edf6c26	0.43637198
176	0x3e972e08	0.29527307
177	0xbba87e96	-0.0051420433
178	0x3d5b46ef	0.053534444
179	0xbd791eee	-0.060820512
180	0x3d075948	0.03304413
181	0x3b067586	0.0020516827
182	0x3c1036aa	0.008802095
183	0x3e83c90b	0.2573932
184	0x3e581bce	0.21104357
185	0x3e50e06c	0.2039811
186	0x3e64d7a1	0.22347881
187	0x3e32ff95	0.1748031
188	0x3e29fa62	0.1659942
189	0xbdd8bddd	-0.105830885
190	0xbde26df8	-0.11056131
191	0xbd6d78f8	-0.057976693
192	0xbd421766	-0.047385596
193	0xbd5a1d5f	-0.053250667
194	0x3b15e057	0.0022869313
195	0xbd675dfd	-0.05648612
196	0xbd4e4655	-0.050360043
197	0xbdd792b8	-0.10526031
198	0x3e194959	0.14969386
199	0x3e0e62cf	0.1390488
200	0x39c6407e	0.00037813553
201	0x3d51fc8b	0.051266234
202	0x3d5ecdb1	0.05439538
203	0xbc575776	-0.013143411
204	0x3e2503c6	0.1611472
205	0x3e28cb27	0.16483746
206	0x3d09d28d	0.033648062
207	0x3d1e4e71	0.038649026
208	0xbd3dd73e	-0.04634785
209	0xbdbca1a4	-0.09210518
210	0x3d474dcd	0.04865818
211	0x3c27ce37	0.010242037
212	0x3c2f2c58	0.010691725
213	0x3e46f0e7	0.19427834
214	0x3e1f8bda	0.15580693
215	0x3dcfa249	0.10138375
216	0xbd938bb2	-0.07204379
217	0xbd8f4d17	-0.069971256
218	0xbd3537c3	-0.04424263
219	0x3d87daa4	0.06633499
220	0x3da9b621	0.082866915
221	0x3d965962	0.07341267
222	0x3e1c29fb	0.1525039
223	0x3df577ef	0.11985766
224	0x3e048c18	0.12944067
225	0x3dde9bd6	0.10869567
226	0x3d804037	0.06262248
227	0x3c3267b3	0.010888982
228	0x3d8ecb29	0.069723435
229	0x3c329697	0.010900161
230	0xbd2ecc53	-0.042675328
231	0x3de5e400	0.11225128
232	0x3d990ce4	0.07473162
233	0x3c6f7ac3	0.014616671
234	0x3d82a3cd	0.06378899
235	0x3e09b5f3	0.13448314
236	0x3d2637d0	0.04058057
237	0x3e7021f3	0.2345045
238	0x3e9ee6d0	0.3103547
239	0x3e8acdfd	0.27110282
240	0x3c504ebe	0.012714086
241	0x3db72725	0.08943013
242	0x3d686328	0.056735188
243	0xbd61b32f	-0.055102523
244	0x3b81dfd9	0.0039634523
245	0xbd5112a9	-0.051043186
246	0x3cdbe462	0.0268423
247	0x3e046390	0.12928605
248	0x3d0504ea	0.03247539
249	0xbcce1d42	-0.025160436
250	0x3d02fb29	0.031977806
251	0xbd5270d9	-0.05137715
252	0xbdd0e2cf	-0.1019951
253	0xbe047dc7	-0.12938605
254	0xbcfe9986	-0.031079065
255	0x3c119628	0.008885898

layer1.0.conv1.bias f4 [16]
0	0x3ac9c0d2	0.0015392548
1	0xbbe74fff	-0.007059097
2	0xbb41588a	-0.0029502236
3	0x3ae178de	0.0017202159
4	0xbc1159a0	-0.008871466
5	0xbc00709d	-0.007839349
6	0x3ab14e57	0.0013527375
7	0xbb40dc87	-0.002942832
8	0x3b8220fc	0.003971217
9	0xbb37cf53	-0.002804716
10	0x3b9e2f04	0.004827382
11	0x3af52ccb	0.0018705366
12	0xbc27e605	-0.010247712
13	0x3b085657	0.0020803416
14	0x3c01d98e	0.007925404
15	0xbb93275d	-0.0044907765

layer1.0.bn1.weight f4 [16]
0	0x3f6694f4	0.90071034
1	0x3f6858b8	0.90760374
2	0x3f5f8baa	0.87322485
3	0x3f2b2b0c	0.6686256
4	0x3f8353d0	1.0259953
5	0x3f08058d	0.5313347
6	0x3f10653f	0.5640449
7	0x3f745bbb	0.9545247
8	0x3f26965a	0.6507317
9	0x3f6c6469	0.92340714
10	0x3f506235	0.8139985
11	0x3f28241e	0.6568011
12	0x3f7b81c0	0.9824486
13	0x3f5581b6	0.8340105
14	0x3f1b820d	0.60745317
15	0x3f48570e	0.78257835

layer1.0.bn1.bias f4 [16]
0	0x3eeb3479	0.4593847
1	0xbee62cdc	-0.449561
2	0xbf1d5140	-0.614521
3	0x3ed0b36c	0.40761888
4	0xbe9800a3	-0.29687986
5	0xbd8ee527	-0.06977301
6	0x3cfbec7d	0.030752415
7	0x3f91b446	1.138314
8	0xbe7be207	-0.24597941
9	0xbeebbca6	-0.46042365
10	0xbcdb0bf2	-0.026739094
11	0x3e9754b3	0.29556808
12	0x3f22d3c0	0.63604355
13	0x3e741434	0.23835832
14	0xbe023644	-0.12716013
15	0xbefac8a4	-0.48981202

layer1.0.bn1.running_mean f4 [16]
0	0xc01c74d2	-2.4446301
1	0x402fb232	2.7452512
2	0xbe988ce5	-0.29794994
3	0xbf8a6052	-1.0810645
4	0xbca2f8ab	-0.019893965
5	0xc01e659f	-2.4749525
6	0x3fcc2feb	1.5952123
7	0xbfe2d143	-1.7720112
8	0xc0390659	-2.8910124
9	0xc02675ce	-2.6009402
10	0xc084a05b	-4.1445746
11	0xbf9efa81	-1.2420198
12	0xc05529d4	-3.330678
13	0xbfc4da7d	-1.5379177
14	0xbf84a8d6	-1.0364025
15	0x3f3509d2	0.7071811

layer1.0.bn1.running_var f4 [16]
0	0x40be7922	5.9522867
1	0x4038b791	2.886204
2	0x402777db	2.6166904
3	0x40880d51	4.2516255
4	0x40bf7ab6	5.9837294
5	0x401d5038	2.4580212
6	0x408a942b	4.330587
7	0x4031b893	2.7768905
8	0x403a8405	2.9143078
9	0x3fe39ba2	1.778187
10	0x40cf6be5	6.4819207
11	0x401df487	2.4680498
12	0x40b83add	5.7571855
13	0x4085e466	4.1841307
14	0x3fc3cc20	1.5296669
15	0x400487be	2.070785

layer1.0.conv2.weight f4 [16, 16, 3, 3]
0	0xbdfb25c0	-0.122630596
1	0xbdc1bd77	-0.09459966
2	0xbbf6694d	-0.007519877
3	0xbd8b8cc6	-0.0681396
4	0x3e5ff276	0.21869835
5	0xbe03a0e4	-0.12854344
6	0xbdb134a8	-0.086526215
7	0xbe192afb	-0.14957802
8	0x3de93c18	0.11388415
9	0x3b18b6fb	0.0023302424
10	0xbe044031	-0.12915112
11	0xbe8cd7df	-0.27508447
12	0x3eaf89b0	0.34284735
13	0x3dafe4a4	0.085885316
14	0xbc887ba7	-0.016660525
15	0x3dc9d084	0.09854224
16	0x3b231771	0.0024885798
17	0xbe40e34e	-0.1883671
18	0xbe1ed478	-0.15510738
19	0x3d93d100	0.07217598
20	0xbd7b72a5	-0.06138863
21	0xbe01d6d1	-0.12679602
22	0xbd3ddef7	-0.046355214
23	0x3d5fcabf	0.054636713
24	0xbe9287a5	-0.28619114
25	0xbcadc3d9	-0.021211552
26	0xbdb6ce83	-0.08926108
27	0x3e590725	0.21194132
28	0x3e2b508b	0.16729943
29	0x3e8a14e8	0.26969075
30	0xbdcbd7ff	-0.09953307
31	0xbc27d1ed	-0.010242921
32	0xbe130238	-0.14356315
33	0xbd78675a	-0.06064544
34	0x3d8a8c3f	0.06765031
35	0xbe3f63b2	-0.18690374
36	0xbe158607	-0.14601909
37	0xbe876cc9	-0.26450184
38	0xbd44a726	-0.048010968
39	0x3c62a43b	0.013833101
40	0xbe1269e5	-0.14298208
41	0xbbf4c09f	-0.0074692513
42	0xbdf0f5dd	-0.11765645
43	0x3e3144ca	0.17311397
44	0xbd0a8c26	-0.033825062
45	0xbddcdf6c	-0.10784802
46	0x3e398cc9	0.18120112
47	0x3e559d74	0.20860845
48	0xbd1829d0	-0.03714925
49	0x3d2d113d	0.042252768
50	0x3d89d40d	0.067298986
51	0x3e2e44a0	0.17018366
52	0xbd518651	-0.051153485
53	0xbdf32a50	-0.11873305
54	0x3c8f5480	0.017496347
55	0xbcca03c1	-0.024659993
56	0xbe0ea1c4	-0.13928896
57	0xbd0f8657	-0.035040226
58	0xbccb35f1	-0.024805995
59	0xbdb11781	-0.08647061
60	0x3e3dd95f	0.18539952
61	0x3d8617f1	0.06547535
62	0x3e821e78	0.2541387
63	0xbd44b9fa	-0.048028924
64	0xbf0e19ec	-0.55508304
65	0x3ec63ffc	0.3872069
66	0xbeb5c1e0	-0.35499477
67	0x3f525906	0.8216709
68	0x3df0b92a	0.11754067
69	0xbcc44ebd	-0.023963327
70	0xbf185839	-0.5950962
71	0xbd3d5d52	-0.046231575
72	0x3e31e3d1	0.17372061
73	0x3d2af7ba	0.041740157
74	0xbd765ae5	-0.060145278
75	0x3d2c76d9	0.04210553
76	0xbe4354ea	-0.19075361
77	0xbd2b7d81	-0.041867737
78	0xbcfda247	-0.030961169
79	0xbdbbae40	-0.09164095
80	0xbdebbc5f	-0.11510538
81	0xbe81cf9c	-0.25353706
82	0x3d9aacc5	0.075524844
83	0xbcc8ac24	-0.024496146
84	0xbe8bfa95	-0.27339616
85	0x3e067f7c	0.13134569
86	0xbd10cdfe	-0.0353527
87	0xbe2b2b73	-0.16715793
88	0x3d01a4f5	0.031651456
89	0x3e7df827	0.24801694
90	0x3d88d99a	0.06682129
91	0x3e139ea5	0.14415987
92	0xbd0d73f8	-0.034534425
93	0xbbf34ed0	-0.0074251667
94	0x3cde0f99	0.027107047
95	0xbddc7b24	-0.10765675
96	0x3e3aadc8	0.18230355
97	0x3d4c8a44	0.049936548
98	0x3de4d5b2	0.11173572
99	0xbc368428	-0.011139907
100	0xbe945551	-0.2897134
101	0xbd4cb0d0	-0.04997331
102	0x3e351d7b	0.17687027
103	0x3e8cb887	0.27484533
104	0x3d220d50	0.039563477
105	0xbd5e12b0	-0.05421704
106	0xbe98618a	-0.29761916
107	0xbe2afc30	-0.16697764
108	0x3e226193	0.15857534
109	0x3e69b13f	0.2282152
110	0xbd277861	-0.040886287
111	0xbdc9af6a	-0.09847911
112	0xbe8bbf34	-0.27294314
113	0x3e84f53f	0.25968358
114	0x3b90d013	0.0044193356
115	0x3e13bc19	0.14427222
116	0x3e174fdd	0.14776559
117	0x3e1c1675	0.15242942
118	0x3cfcdee9	0.03086801
119	0x3e518ddf	0.20464276
120	0xbe85cd4f	-0.261332
121	0x3da0c3ca	0.07849844
122	0x3e93876a	0.2881425
123	0x3e18cc0b	0.14921586
124	0x3f03e28d	0.51517564
125	0x3dee2e29	0.11629898
126	0x3ca97405	0.020685205
127	0x3e79365a	0.2433714
128	0x3de89a76	0.11357586
129	0x3d5728ea	0.052529253
130	0x3e477530	0.19478297
131	0xbe5874b8	-0.21138275
132	0x3a720040	0.00092316046
133	0xbd7726dc	-0.060339794
134	0xbe30e672	-0.17275408
135	0xbe0fcc04	-0.1404267
136	0xbe7f98de	-0.24960658
137	0xbd0cd943	-0.034386884
138	0x3c207cd6	0.009795388
139	0xbde35d4c	-0.11101779
140	0x3d43e16d	0.047822405
141	0xbe01d632	-0.12679365
142	0xbec7944b	-0.38980326
143	0xbe3c7ad6	-0.18406233
144	0x3d42b4cd	0.047535706
145	0x3d298dfc	0.041395172
146	0x3d4228c1	0.047402147
147	0xbc999ee1	-0.018752517
148	0x3dbb0bbd	0.09133098
149	0x3d7bf7f4	0.061515763
150	0xbc874c35	-0.01651583
151	0xbd7f0a95	-0.06226595
152	0xbd9c0416	-0.07617967
153	0xbedff07d	-0.43738165
154	0xbe8c2138	-0.27369094
155	0xbe8eb2ce	-0.27870792
156	0x3d97932f	0.0740112
157	0x3e1746c2	0.14773086
158	0x3e03738c	0.12837046
159	0xbd0cc88c	-0.034370944
160	0x3e1ac5b9	0.15114488
161	0x3e44d290	0.19220948
162	0xbdfc4663	-0.12318113
163	0xbe70b786	-0.23507509
164	0xbe904058	-0.2817409
165	0xbd8ceefd	-0.06881521
166	0xbd989c46	-0.07451682
167	0x3d681506	0.056660675
168	0xbeb047ab	-0.34429678
169	0xbe886d7d	-0.26646033
170	0xbdbd8ce0	-0.092553854
171	0xbdd68511	-0.10474599
172	0xbd75a7b4	-0.059974387
173	0x3d6dabb9	0.058025096
174	0xbe13c567	-0.14430772
175	0xbe5f04c8	-0.21779168
176	0xbd1372d9	-0.0359982
177	0xbe742a57	-0.23844276
178	0xbea9f70c	-0.33196294
179	0xbe490e2f	-0.19634317
180	0xbe314463	-0.17311244
181	0xbda96481	-0.08271123
182	0xbe46a82c	-0.1940009
183	0x3e281e19	0.16417731
184	0x3e797845	0.24362285
185	0x3e19de68	0.15026248
186	0x3e145aab	0.14487712
187	0x3e763bc7	0.24046241
188	0x3e1afac8	0.15134728
189	0x3d807dd9	0.062740035
190	0xbce29849	-0.027660506
191	0x3c822c43	0.015890246
192	0xbe2b4d0a	-0.16728607
193	0xbe370d12	-0.1787608
194	0xbda439cc	-0.080188364
195	0xbe1878bd	-0.14889808
196	0xbe07a6b1	-0.13247181
197	0xbd4213af	-0.047382053
198	0xbe438edf	-0.1909747
199	0xbdb9c3e2	-0.09070565
200	0xbd160cbb	-0.036633234
201	0xbdfda375	-0.123846926
202	0xbc93bccc	-0.018034361
203	0x3d95342f	0.07285344
204	0xbdc60c27	-0.096702866
205	0xbda069c1	-0.07832671
206	0xbc8e4418	-0.017366454
207	0x3cfa2eff	0.030539988
208	0x3d89d202	0.06729509
209	0xbbd70ce2	-0.006562815
210	0x3e30345b	0.17207472
211	0x3d8fb7e1	0.07017494
212	0x3d52a25a	0.05142436
213	0x3d70911d	0.05873214
214	0x3cac973d	0.02106821
215	0xbc838c43	-0.016058093
216	0x3e226b7c	0.15861315
217	0x3e071409	0.13191237
218	0x3e00597b	0.12534134
219	0xbc483d0f	-0.012221589
220	0xbcd3f374	-0.025872923
221	0xbd30b8c8	-0.04314497
222	0xbd8e6a5c	-0.0695388
223	0xbda6b8c2	-0.081407085
224	0xbd89116c	-0.06692776
225	0x3d72c472	0.059269376
226	0xbda60d96	-0.0810806
227	0xbe08a0d4	-0.13342601
228	0x3cf8fb15	0.030393163
229	0xbda4cfe6	-0.08047466
230	0xbe0e4387	-0.13892947
231	0x3dae6337	0.085150175
232	0xbda1d083	-0.079010986
233	0xbe26a2ca	-0.16273037
234	0x3e0d2005	0.13781746
235	0x3d5417a2	0.05178035
236	0x3c5112b9	0.0127608115
237	0x3e889d58	0.26682544
238	0x3e06a381	0.1314831
239	0x3d98856d	0.07447324
240	0x3e682131	0.22668912
241	0x3e060ff2	0.1309202
242	0x3de0db7d	0.10979364
243	0xbe94dcbc	-0.29074657
244	0xbe1048e9	-0.14090313
245	0x3d2f4637	0.04279157
246	0xbe940d7c	-0.28916538
247	0xbc0d985e	-0.008642284
248	0x3e1898ca	0.14902034
249	0xbe88f450	-0.26748896
250	0xbe46deb4	-0.19420892
251	0x3cd9d870	0.026592463
252	0x3d50f8b9	0.05101845
253	0x3c301fd5	0.010749777
254	0xbdd3740c	-0.103248686
255	0x3dedeb45	0.1161714

layer1.0.conv2.bias f4 [16]
0	0xbb8cf352	-0.004301467
1	0x3c745498	0.014912747
2	0xbba7a63b	-0.0051162518
3	0x3ae21887	0.0017249741
4	0x3be4db8a	0.006984179
5	0x3b96db35	0.0046037682
6	0xbb3a7934	-0.002845359
7	0xbbd29002	-0.0064258585
8	0x3c007d88	0.007842429
9	0xbbc68867	-0.006058741
10	0xbc0df44d	-0.008664203
11	0x3c2d0ff6	0.010562887
12	0xbbfd7620	-0.007735029
13	0x3b86e780	0.0041169524
14	0xb9e366bd	-0.0004337336
15	0x3a964f00	0.0011467636

layer1.0.bn2.weight f4 [16]
0	0x3f9deb4c	1.2337432
1	0x3f277725	0.65416175
2	0x3ef386e5	0.47563854
3	0x3f857627	1.0426682
4	0x3f768832	0.9630157
5	0x3f9a73d7	1.2066602
6	0x3f97a840	1.1848221
7	0x3f6ef56b	0.9334323
8	0x3f3fd37d	0.7493208
9	0x3f374330	0.71586895
10	0x3f6dcdf7	0.928924
11	0x3fb790ae	1.4341028
12	0x3f68469f	0.9073276
13	0x3f99020a	1.1953747
14	0x3ee96f88	0.45592904
15	0x3f717786	0.94323003

layer1.0.bn2.bias f4 [16]
0	0xbe2ccae5	-0.16874273
1	0x3d8c819d	0.06860659
2	0x3e72ddce	0.23717424
3	0x3edf3363	0.43593892
4	0x3dbd7bde	0.092521414
5	0xbeb800aa	-0.35938007
6	0x3e88fb08	0.26754022
7	0x3c4c62a3	0.012474689
8	0xbc682589	-0.014169105
9	0xbe0250d6	-0.12726149
10	0xbe82c22f	-0.25538775
11	0x3dfae1fd	0.12250135
12	0x3ebc4cc7	0.36777326
13	0xbd74245a	-0.05960498
14	0x3ca5da14	0.02024559
15	0x3dd6a1b8	0.10480064

layer1.0.bn2.running_mean f4 [16]
0	0x3d921171	0.07132233
1	0xbe60d0bb	-0.21954624
2	0x3d9e6624	0.077343255
3	0xbf213e5f	-0.62985796
4	0xbfae2ab1	-1.3606778
5	0xbf24471c	-0.64171004
6	0x3eb2e909	0.34943417
7	0xbf4e1a40	-0.80508804
8	0x3f9b41d1	1.212946
9	0xbf5bb6e2	-0.8582593
10	0xbfa84098	-1.3144712
11	0x3f12b4ee	0.57307327
12	0xbfff16c7	-1.9928826
13	0x3ec02a94	0.37532485
14	0x3f309b01	0.6898652
15	0x3f8f84d8	1.1212416

layer1.0.bn2.running_var f4 [16]
0	0x3fe10fe2	1.7582972
1	0x3f940509	1.1564037
2	0x40025761	2.0365832
3	0x401d711e	2.4600291
4	0x40337284	2.8038645
5	0x40a2d610	5.0886307
6	0x408812bc	4.252287
7	0x406aa33d	3.6662133
8	0x4028c348	2.636919
9	0x3feb2f5f	1.8373832
10	0x4000b7f5	2.0112278
11	0x40b69dc5	5.706759
12	0x4026af51	2.6044505
13	0x4038e414	2.8889208
14	0x3f713757	0.94225067
15	0x403c6aae	2.9440112

layer1.1.conv1.weight f4 [16, 16, 3, 3]
0	0xbed155ea	-0.4088586
1	0x3f16ce69	0.58908707
2	0x3d4f6851	0.050636593
3	0x3e9b31cd	0.30311432
4	0xbf80d77b	-1.006576
5	0x3d71ea7e	0.05906152
6	0x3db3c4dc	0.08777782
7	0x3f307bed	0.68939096
8	0xbe9b6527	-0.3035061
9	0x3e4c42d7	0.19947372
10	0x3e278b29	0.16361679
11	0x3e87d2ed	0.2652811
12	0xbd87182b	-0.065964065
13	0x3c9f4767	0.019443227
14	0x3d9406c8	0.07227856
15	0xbd5dfb6b	-0.05419485
16	0xbdbb30c1	-0.091401584
17	0xbb1d990a	-0.0024047517
18	0x3e2620f6	0.16223511
19	0x3ea2e7d2	0.3181749
20	0x3e9972bb	0.29970345
21	0xbdf4133b	-0.119177304
22	0xbc57df36	-0.013175776
23	0x3d554517	0.052067842
24	0xbd218982	-0.03943778
25	0xbe67824b	-0.22608297
26	0x3cc0ec7b	0.023550263
27	0x3c995b1b	0.0187202
28	0xbe306c8a	-0.17228904
29	0xbe1be9af	-0.15225862
30	0x3cd9d11c	0.026588969
31	0x3ebf8140	0.37403297
32	0x3e565d13	0.20933942
33	0xbda25ae2	-0.07927491
34	0xbe112301	-0.14173509
35	0x3dc54c5a	0.096337035
36	0x3d18be84	0.037291065
37	0xbc951dea	-0.01820274
38	0xbd8de9b5	-0.06929342
39	0x3ce961e5	0.028489063
40	0x3e3cd9f9	0.18442525
41	0x3dec0e7a	0.11526199
42	0x3ced93fe	0.029001232
43	0x3c9e14ee	0.01929709
44	0xbcb614d6	-0.022226732
45	0xbe493e91	-0.19652773
46	0xbebfb76e	-0.37444633
47	0xbb9952cb	-0.004679059
48	0x3e86cada	0.26326638
49	0x3e95542e	0.29165787
50	0xbf3c9fd5	-0.73681384
51	0xbe545f56	-0.20739493
52	0x3e3ccc50	0.18437314
53	0x3ec75159	0.3892925
54	0xbd1304e3	-0.035893332
55	0xbeb502c0	-0.3535366
56	0xbdde05bc	-0.108409375
57	0xbebf0849	-0.3731101
58	0x3ea95b89	0.33077648
59	0xbf118d93	-0.5685665
60	0xbe5522fb	-0.20814125
61	0xbf23d425	-0.6399558
62	0xbe2af0b2	-0.1669338
63	0x3e576674	0.21035177
64	0x3eeb3d99	0.45945433
65	0x3e6fd1ec	0.23419923
66	0xbce61a11	-0.028088601
67	0xbda528cf	-0.08064424
68	0x3dec7b00	0.11546898
69	0xbe78645f	-0.24257039
70	0xbe2fc5bc	-0.17165273
71	0xbd4bbdb3	-0.04974146
72	0x3b10d68e	0.002210054
73	0xbd41718c	-0.047227427
74	0xbd114435	-0.035465438
75	0x3cc95774	0.024577834
76	0x3d8b069e	0.067883715
77	0x3cf39648	0.029734746
78	0xbcc19747	-0.023631705
79	0x3d0d467a	0.03449104
80	0x3dbf06b5	0.09327451
81	0xbd8d966f	-0.069134586
82	0x3db2b996	0.08726804
83	0x3e48d08a	0.19610801
84	0xbca773d9	-0.020440983
85	0xbe0edbb6	-0.13951
86	0x3bc4e8ee	0.0060092127
87	0xbe202889	-0.15640463
88	0xbe556199	-0.20838012
89	0xbe1b04e8	-0.1513859
90	0x3dd6c226	0.104862496
91	0x3d9de746	0.077101275
92	0x3d78e6b6	0.060766898
93	0xbc366c00	-0.011134148
94	0x3d8f1bbb	0.06987711
95	0xbc91335b	-0.017724684
96	0xbd65c9c2	-0.056100614
97	0xbd162fd5	-0.03666671
98	0x3bdb5875	0.0066938945
99	0x3e066f9e	0.13128516
100	0x3e42c0f8	0.19018924
101	0xbdd02c72	-0.10164727
102	0xbe7986d4	-0.24367839
103	0xbe77f3c7	-0.24214087
104	0x3e88ec08	0.26742578
105	0x3e801279	0.25014094
106	0x3dd52c5a	0.1040885
107	0xbdb3ede1	-0.08785606
108	0xbe0f9990	-0.14023423
109	0x3c6552f9	0.013996833
110	0xbe4db72b	-0.20089404
111	0x3d75b110	0.059983313
112	0xbddadc36	-0.10686533
113	0x3ebc901d	0.368287
114	0xbd0e81ea	-0.034791864
115	0x3e28a4fb	0.16469185
116	0xbdeaa71f	-0.11457657
117	0xbe3cef35	-0.18450625
118	0xbe6a48f4	-0.22879392
119	0xbe3f5721	-0.18685581
120	0xbd1abfa4	-0.03778042
121	0xbeac9c3c	-0.33712947
122	0xbde06f78	-0.10958761
123	0xbe024fd1	-0.1272576
124	0x3db14bde	0.08657049
125	0xbe3ad0a7	-0.18243657
126	0xbd4fa48f	-0.050694045
127	0xbb355693	-0.002767001
128	0x3e43bc86	0.19114885
129	0xbe09b738	-0.13448799
130	0x3d85da83	0.065358184
131	0x3dab4506	0.083627746
132	0xbea948d0	-0.33063364
133	0xbe44efb6	-0.19232067
134	0xbe210fd2	-0.15728691
135	0xbc4d4a8f	-0.012529983
136	0x3e3d6c7d	0.18498416
137	0xbe7477e1	-0.23873855
138	0xbe94e69d	-0.29082194
139	0xbee13b11	-0.43990377
140	0x3e92f36d	0.28701344
141	0xbe029873	-0.12753467
142	0x3dc6d4e3	0.09708574
143	0xbe41f244	-0.18940073
144	0x3d58d94a	0.052941598
145	0xbf3b119c	-0.73073745
146	0x3e3d8f64	0.1851173
147	0xbf2d6734	-0.677356
148	0x3eb1b6ef	0.3470988
149	0x3e233811	0.15939356
150	0x3e6d650e	0.2318308
151	0x3e147744	0.14498621
152	0xbf31a50f	-0.69392484
153	0x3e1a90f9	0.15094365
154	0x3e6bfe95	0.23046334
155	0x3d898993	0.06715693
156	0x3d6abde8	0.057310015
157	0x3dc9b6a4	0.09849289
158	0xbd43d61c	-0.047811612
159	0xbd6fba6d	-0.0585274
160	0xbd196ac1	-0.037455324
161	0x3d37ce18	0.04487428
162	0x3c721dc8	0.014777608
163	0xbde230cf	-0.11044466
164	0xbd4f1f96	-0.050567232
165	0x3b62549e	0.00345353
166	0xbda94fb9	-0.08267159
167	0x3e4b2d03	0.1984139
168	0x3c541870	0.0129452795
169	0x3daed10c	0.08535966
170	0x3e5ac8e3	0.21365695
171	0xbb476437	-0.0030424723
172	0x3ece6ca6	0.40317267
173	0x3e88601f	0.26635835
174	0x3e16788f	0.14694427
175	0xbc6a7482	-0.014310004
176	0xbe4534ce	-0.19258425
177	0xbdd5d699	-0.10441322
178	0xbd3d8889	-0.04627279
179	0x3e801f5c	0.25023925
180	0x3dd11580	0.10209179
181	0xbba6e66f	-0.005093388
182	0xbdaac953	-0.08339181
183	0x3e3a509f	0.18194817
184	0xbd165e51	-0.03671104
185	0xbd536909	-0.05161384
186	0x3e445c0d	0.1917574
187	0xbc841d5b	-0.016127279
188	0xbd26df6c	-0.040740415
189	0x3e264292	0.16236332
190	0xbe1bb8b7	-0.15207182
191	0xbe64a286	-0.22327623
192	0x3b865705	0.004099729
193	0xbf08bc83	-0.53412646
194	0xbd822b07	-0.06355863
195	0xbe304efd	-0.17217632
196	0x3d307f2c	0.04309003
197	0xbbd7204d	-0.00656513
198	0x3e8bce03	0.27305612
199	0x3cef6cf3	0.029226756
200	0xbedcd16e	-0.43128532
201	0x3d9d6349	0.07684953
202	0xbee47088	-0.44617105
203	0xbe4f2ec2	-0.2023268
204	0xbec385c6	-0.38188
205	0xbdf93929	-0.121691056
206	0x3cfb50c5	0.030678162
207	0x3ec9f706	0.39446276
208	0xbe6e27fc	-0.2325744
209	0x3d7c2a3c	0.061563715
210	0xbce22bf6	-0.027608853
211	0xbe47b6c6	-0.19503316
212	0x3de42e3a	0.111416295
213	0x3e726e9b	0.23675005
214	0x3e5c9d7b	0.21544449
215	0xbde9a33c	-0.114080876
216	0x3e031479	0.12800778
217	0x3da6c855	0.08143679
218	0x3e0b1e81	0.13585855
219	0x3b8f541b	0.00437404
220	0xbd6d196f	-0.057885583
221	0xbd41f14d	-0.047349263
222	0xbd9b12cb	-0.07571944
223	0xbdfaff49	-0.12255723
224	0xbdb4597f	-0.088061325
225	0xbe705563	-0.23470072
226	0xbe0ec040	-0.13940525
227	0x3dd9ff2b	0.106443726
228	0xbe8471ed	-0.25868168
229	0x3e0464f3	0.12929134
230	0x3e4ee81f	0.20205735
231	0xbd87b8c6	-0.066270396
232	0x3e68daa1	0.2273965
233	0x3deb74c1	0.114968784
234	0x3e06fc49	0.13182177
235	0x3c4c9a91	0.012488023
236	0x3c64f124	0.013973508
237	0x3d36d0a0	0.044632554
238	0xbd1290f8	-0.035782784
239	0xbdfeb701	-0.12437249
240	0xbd362966	-0.044473074
241	0xbdea9150	-0.114534974
242	0xbe35b93a	-0.1774644
243	0xbec85c0d	-0.3913273
244	0xbebd25e6	-0.36942977
245	0x3dcb6c3b	0.09932753
246	0xbe679885	-0.22616775
247	0x3ebdb057	0.370486
248	0xbead6e9a	-0.33873445
249	0xbe207945	-0.1567126
250	0xbe4041fb	-0.1877517
251	0xbe67d68d	-0.22640438
252	0xbe102d2e	-0.14079735
253	0xbe64e78f	-0.22353958
254	0x3e9aee0b	0.30259737
255	0xbdd15464	-0.10221174

layer1.1.conv1.bias f4 [16]
0	0xbaad9113	-0.0013242088
1	0xbc0d1dee	-0.008613093
2	0x3bcb1938	0.0061980747
3	0x3a1abab5	0.00059024553
4	0xbbddade1	-0.0067651127
5	0x3c06db92	0.008231061
6	0xbc0bbc5b	-0.008528794
7	0xbc147efc	-0.009063479
8	0xbc16d455	-0.009205897
9	0xbb934f91	-0.004495569
10	0x3bf9437e	0.0076069226
11	0xbadb9a8d	-0.0016754434
12	0x3c2e49d7	0.010637722
13	0xba918a87	-0.0011103906
14	0xbc102d9e	-0.0087999385
15	0x39feca51	0.00048597393

layer1.1.bn1.weight f4 [16]
0	0x3f7878d6	0.9705938
1	0x3f834617	1.0255765
2	0x3f71f1e6	0.9450973
3	0x3f652359	0.8950706
4	0x3f55d026	0.83520734
5	0x3f3a1eec	0.72703433
6	0x3f390060	0.722662
7	0x3f4cf991	0.8006831
8	0x3f7c26e7	0.9849686
9	0x3f8e6cc1	1.1126939
10	0x3f3c816d	0.7363499
11	0x3f530326	0.8242668
12	0x3f4742e5	0.7783645
13	0x3f3e2ef3	0.7429039
14	0x3f135180	0.57546234
15	0x3f355209	0.708283

layer1.1.bn1.bias f4 [16]
0	0xbe8c4d86	-0.27402896
1	0xbe27ff89	-0.16406073
2	0xbca5ae4b	-0.02022471
3	0xbd09722e	-0.033556156
4	0xbeaf7df1	-0.34275773
5	0xbe26373a	-0.16232005
6	0xbf077474	-0.5291207
7	0xbf31a308	-0.6938939
8	0xbe241589	-0.1602384
9	0xbf14fbb1	-0.5819655
10	0xbf22005f	-0.63281816
11	0xbf1cb072	-0.61206734
12	0xbeb093cb	-0.34487757
13	0x3e3cec63	0.1844955
14	0xbe67fafe	-0.2265434
15	0xbe24376f	-0.16036771

layer1.1.bn1.running_mean f4 [16]
0	0xc01e398e	-2.4722629
1	0xc0566412	-3.3498578
2	0xc0e5efcd	-7.1855226
3	0xc0a61703	-5.190309
4	0xc031ad88	-2.7762165
5	0x400d4c22	2.2077718
6	0x401bffe5	2.4374936
7	0xbfe9b85b	-1.8259386
8	0xc000c75c	-2.012168
9	0xc0c51a44	-6.1594563
10	0x4053419b	3.3008792
11	0x403871c4	2.8819437
12	0xc06292b2	-3.5402036
13	0xc026dd74	-2.6072664
14	0xc0afe0da	-5.4961977
15	0xc002db4e	-2.0446353

layer1.1.bn1.running_var f4 [16]
0	0x41a2fa65	20.372263
1	0x419218ac	18.262047
2	0x417079b8	15.0297165
3	0x41537153	13.215167
4	0x40c65bad	6.198691
5	0x413b36ee	11.700911
6	0x40a9761f	5.295669
7	0x405eabae	3.4792285
8	0x4246e1df	49.720577
9	0x41959f81	18.702883
10	0x4050e14b	3.2637508
11	0x40994a1b	4.790296
12	0x4111d986	9.115606
13	0x41104acd	9.018262
14	0x408929f9	4.2863736
15	0x410abd5b	8.671229

layer1.1.conv2.weight f4 [16, 16, 3, 3]
0	0xbda00853	-0.07814088
1	0xbe9b5aea	-0.303428
2	0xbd9abf00	-0.075559616
3	0xbdbba27c	-0.09161851
4	0xbbbc3328	-0.005743403
5	0x3d56695b	0.05234657
6	0x3d0587c4	0.03260018
7	0xbe81d5be	-0.25358385
8	0x3e007af7	0.12546907
9	0x3df23611	0.118267186
10	0x3e79c841	0.24392797
11	0xbdb9584a	-0.09050043
12	0x3eda162d	0.42595044
13	0x3eb4a484	0.35281765
14	0x3ed12962	0.40851885
15	0x3d06f5de	0.03294932
16	0x3e850110	0.25977373
17	0x3e827833	0.2548233
18	0x3bf2ca38	0.0074093603
19	0xbe191aa9	-0.14951576
20	0xbd940494	-0.07227436
21	0xbd93e32e	-0.072210655
22	0xbda0abf2	-0.07845296
23	0x3e31afa5	0.1735216
24	0xbe2014a5	-0.15632875
25	0x3c14ad08	0.009074457
26	0x3cd25d78	0.025679335
27	0xbd3831ca	-0.044969358
28	0x3d8cd8c7	0.068772845
29	0xb98e1f99	-0.00027107893
30	0xbd73e41d	-0.059543718
31	0x3e90ed66	0.2830612
32	0x3df8a3c9	0.121406145
33	0xbe1757e6	-0.14779624
34	0x3dac9d94	0.08428493
35	0x3e2806ac	0.16408795
36	0x3c176954	0.009241421
37	0x3cc1c920	0.023655474
38	0xbc91372f	-0.017726509
39	0x3d7d955e	0.061910026
40	0x3e8d02c7	0.2754118
41	0x3de2a81f	0.11067223
42	0x3dae0f8d	0.0849906
43	0x3d8725b2	0.06598987
44	0x3d95581c	0.07292196
45	0xbd4dc06c	-0.050232336
46	0xbc8e0a1f	-0.01733881
47	0x3e1c2568	0.15248644
48	0xbe4847f8	-0.19558704
49	0xbe1490ee	-0.14508411
50	0x3e8302e9	0.25588158
51	0xbe49652a	-0.19667497
52	0xbe00cfef	-0.1257932
53	0xbe007da5	-0.1254793
54	0xbd8be094	-0.06829944
55	0x3d292989	0.041299377
56	0x3cdd012e	0.026978102
57	0x3df3e237	0.119083814
58	0x3d4c8312	0.049929686
59	0x3b11c3c7	0.0022241937
60	0xbe1a9e4e	-0.15099451
61	0xbd3c37cb	-0.045951646
62	0xbe3076f9	-0.17232884
63	0x3de5953b	0.11210104
64	0x3e92b02a	0.28650028
65	0x3e19ac77	0.15007196
66	0xbddfddf4	-0.10931006
67	0xbd1e6354	-0.038668945
68	0xbd9de3ec	-0.07709488
69	0xbd7f4568	-0.06232205
70	0x3d4e6309	0.050387416
71	0xbd12c62f	-0.035833534
72	0xbc90db4e	-0.017682698
73	0xbe0e8fe5	-0.13922079
74	0xbe0fba83	-0.14035992
75	0xbe606649	-0.21914019
76	0xbe6c3755	-0.23067982
77	0xbe736148	-0.23767579
78	0xbea5b909	-0.32367733
79	0xbe8071ce	-0.25086826
80	0xbbba96f5	-0.005694265
81	0x3e0bbfe6	0.13647422
82	0x3d567d3e	0.052365534
83	0x3e520c8d	0.205126
84	0xbb834a01	-0.0040066247
85	0x3e3b7a72	0.18308428
86	0x3dbb29fd	0.09138868
87	0x3e6c090c	0.23050326
88	0x3e605b4a	0.21909824
89	0x3e066649	0.13124956
90	0xbca38f18	-0.019965693
91	0xbd549219	-0.051897142
92	0xbdf13a9a	-0.117787555
93	0xb99ebd18	-0.00030276994
94	0x3d8328f6	0.06404297
95	0xbd46d5dc	-0.048543796
96	0xbcb119b8	-0.021618709
97	0xbd536048	-0.051605493
98	0x3b19ffd7	0.002349844
99	0xbc0ddcab	-0.008658568
100	0xbd0dcc38	-0.034618586
101	0xbe7e9b40	-0.2486391
102	0x3e014820	0.1262517
103	0xbdc2abe2	-0.0950544
104	0xbe566d7b	-0.20940201
105	0xbeace4d7	-0.3376834
106	0xbeed7821	-0.46380714
107	0xbe31d263	-0.17365412
108	0x3e05c4e2	0.13063386
109	0x3e0c5704	0.13705069
110	0x3d292b1f	0.04130089
111	0x3e0efabb	0.13962834
112	0x3e250432	0.16114882
113	0x3e453c85	0.19261368
114	0x3db6f240	0.08932924
115	0x3db97c55	0.090569176
116	0x3e3090a9	0.17242683
117	0xbba7cbaf	-0.0051207165
118	0x3dd572df	0.104223005
119	0xbd259473	-0.040424775
120	0x3dc9840c	0.09839639
121	0xbe75ab0f	-0.23991035
122	0x3d8ba3bd	0.0681834
123	0xbdf144e5	-0.11780719
124	0x3dce9aca	0.100881174
125	0xbc65d5bb	-0.014028008
126	0xbd03fc87	-0.03222325
127	0x3bb23a17	0.0054390538
128	0x3d20d1a5	0.039262433
129	0xbbe32bd7	-0.0069327164
130	0x3c97c28d	0.018525386
131	0x3dc2b71d	0.09507582
132	0xbdd7540c	-0.105140775
133	0xbcd43ec1	-0.02590883
134	0x3ccc0ed8	0.024909422
135	0xbc69a44b	-0.014260362
136	0xbd6f253a	-0.05838511
137	0xbd8d0e4e	-0.06887494
138	0xbe8b1962	-0.27167803
139	0xbdce5fa6	-0.10076837
140	0xbde91158	-0.11380261
141	0xbe86eb00	-0.26351166
142	0xbd44723b	-0.0479605
143	0xbd39354c	-0.045216843
144	0xbdbc19a7	-0.0918458
145	0xbde33fcc	-0.11096153
146	0x3dfbd710	0.12296879
147	0x3db2c259	0.08728475
148	0xbd73aecb	-0.059492867
149	0xbe2dbdad	-0.16966887
150	0xbd260f05	-0.040541667
151	0x3d0bdba1	0.034145
152	0x3dd0882d	0.101822235
153	0x3d93cbe7	0.07216626
154	0xbe0beb75	-0.13664038
155	0xbe28ace5	-0.16472204
156	0xbe1b0546	-0.1513873
157	0xbea8feae	-0.33006805
158	0xbe924f16	-0.28575963
159	0xbd81aa5b	-0.06331321
160	0xbe227292	-0.15864018
161	0xbd7b2c90	-0.061321795
162	0xbcd6de87	-0.026229156
163	0x3d8a13ae	0.06742035
164	0x3d932567	0.07184868
165	0xbd8dcc89	-0.069237776
166	0xbe386892	-0.1800864
167	0xbdae70ab	-0.085175835
168	0xb9764e9d	-0.00023489674
169	0x3cdf00fe	0.027222153
170	0x3daab9f9	0.08336253
171	0xbda4d372	-0.080481425
172	0xbe051ca8	-0.12999213
173	0xbd161396	-0.036639772
174	0xbe5ffd81	-0.21874048
175	0xbe03b296	-0.12861094
176	0xbdf947d9	-0.12171907
177	0x3e049961	0.12949134
178	0x3d8adff9	0.06781001
179	0x3d24b2bb	0.040209513
180	0xbe135aa7	-0.1439005
181	0x3d2fda62	0.042932875
182	0x3e181cd2	0.14854744
183	0xbd4fd043	-0.050735723
184	0xbda46d22	-0.08028628
185	0x3c532944	0.012888256
186	0x3da7d8b5	0.081956305
187	0xbcb2b1eb	-0.021813354
188	0xbda66a32	-0.08125724
189	0xbe9f84d8	-0.3115604
190	0xbea015d1	-0.31266645
191	0xbcdfca54	-0.027318157
192	0xbed0f05c	-0.4080838
193	0xbea34dc7	-0.31895277
194	0xbc12e651	-0.0089660445
195	0xbe891ba1	-0.26778892
196	0xbe8ea243	-0.2785817
197	0xbd3b469e	-0.045721643
198	0x3c5568a2	0.013025435
199	0xbc8e1807	-0.017345442
200	0xbd5604d3	-0.052250694
201	0x3e2f93cf	0.17146228
202	0x3db11ae5	0.08647708
203	0x3c966e04	0.018363006
204	0x3b90f9b0	0.0044242963
205	0xbe0e82f2	-0.13917139
206	0xbcdb2ce3	-0.026754802
207	0x3d2fab22	0.042887814
208	0xbdc8fa79	-0.09813399
209	0xbd1105bc	-0.03540586
210	0xbc42c6b5	-0.011888196
211	0xbe4a6b8f	-0.19767593
212	0xbdddafe7	-0.10824566
213	0xbdfa4409	-0.12220008
214	0xbe6f7115	-0.23382981
215	0xbe326421	-0.17421009
216	0xbebb6246	-0.36598414
217	0xbf299ea3	-0.66257685
218	0xbe939544	-0.28824818
219	0xbeece2be	-0.4626674
220	0xbf125c60	-0.57172203
221	0xbed3e4f7	-0.41385624
222	0xbf1111e3	-0.5666792
223	0xbee16de4	-0.44029152
224	0xbdf27f3a	-0.11840673
225	0x3dd5e696	0.104443714
226	0x3d1c10a1	0.038101796
227	0x3d744d34	0.05964394
228	0x3e725217	0.23664127
229	0xbd3cc85b	-0.04608951
230	0x3dc8f7f4	0.09812918
231	0x3eb635cd	0.35587922
232	0x3e49926a	0.19684759
233	0x3e3fee86	0.18743333
234	0x3df1840e	0.117927656
235	0xbd424254	-0.047426537
236	0xbbe65318	-0.0070289485
237	0x3e0d8902	0.13821796
238	0x3d81e3bd	0.06342266
239	0xbb744b68	-0.003727639
240	0x3e0186d2	0.12649086
241	0x3ddfdb18	0.10930461
242	0x3d981f2a	0.07427819
243	0xbe2653e0	-0.16242933
244	0xbd9843eb	-0.07434829
245	0x3bb7d5ea	0.0056102173
246	0x3d237ca6	0.039913796
247	0x3e369e06	0.17833719
248	0x3e36c55c	0.17848724
249	0x3de3142d	0.110878326
250	0x3da73474	0.081643015
251	0x3df477b1	0.11936892
252	0xbe21b8ff	-0.15793227
253	0xbde0d334	-0.10977784
254	0xbe0ed36d	-0.1394784
255	0xbdc0473d	-0.093885876

layer1.1.conv2.bias f4 [16]
0	0x3bfa4989	0.0076381606
1	0xbadfeeff	-0.0017084776
2	0x3b209d83	0.0024507947
3	0x3baab4f6	0.0052095605
4	0xbbd6641a	-0.0065426948
5	0xbb8c68d2	-0.0042849565
6	0xbc2d8f8b	-0.010593305
7	0xbb2a4d9b	-0.0025986198
8	0xbb097b81	-0.0020978155
9	0x3c20cc3f	0.009814321
10	0x3b667b27	0.003516862
11	0x3ad8aa5b	0.0016530262
12	0xbb726244	-0.003698484
13	0xbb4bff45	-0.0031127494
14	0x3960012c	0.00021362741
15	0x3c085467	0.008320904

layer1.1.bn2.weight f4 [16]
0	0x3f8c4a71	1.0960218
1	0x3f73a7b5	0.95177776
2	0x3e9401fe	0.2890777
3	0x3f5a30b9	0.85230595
4	0x3eee0c28	0.4649365
5	0x3f5feef0	0.87473965
6	0x3f3c8872	0.736457
7	0x3f547eb0	0.8300581
8	0x3f1dd2f2	0.6165
9	0x3eb93963	0.36176595
10	0x3edde27f	0.43336865
11	0x3f3e2981	0.7428208
12	0x3f434513	0.76277274
13	0x3f32862b	0.69735974
14	0x3e75b8ab	0.23996226
15	0x3f39d4f6	0.7259058

layer1.1.bn2.bias f4 [16]
0	0xbf32331f	-0.69609255
1	0x3e87a2d2	0.2649141
2	0x3e9c52c8	0.30531907
3	0x3e3ad736	0.18246159
4	0x3df1a71c	0.11799452
5	0xbe34b4b6	-0.17647061
6	0xbef7f11c	-0.4842614
7	0x3e83dd05	0.25754562
8	0x3d7d39c9	0.061822686
9	0x3df0bd50	0.117548585
10	0x3e52dc12	0.20591763
11	0xbf3cb771	-0.7371741
12	0x3f214c3b	0.63006943
13	0x3f4e6e2f	0.80636877
14	0x3d75a765	0.059974093
15	0xbe19dd8b	-0.15025918

layer1.1.bn2.running_mean f4 [16]
0	0x3d3e385a	0.04644046
1	0xbff132d3	-1.8843635
2	0xbf6c6243	-0.92337435
3	0xbe29fc0f	-0.16600059
4	0xbf98158d	-1.1881577
5	0x3f29e000	0.6635742
6	0x3d880943	0.066423915
7	0xbe3397e3	-0.17538409
8	0x3f5b8d31	0.85762316
9	0xbf1f9d06	-0.62348974
10	0x3de0a584	0.109690696
11	0xbe5d1124	-0.2158857
12	0xbed6de13	-0.41966304
13	0x3f570213	0.8398754
14	0x3d0cde0a	0.03439144
15	0x3e21c243	0.15796761

layer1.1.bn2.running_var f4 [16]
0	0x3f59d0f4	0.8508446
1	0x3fef156f	1.8678416
2	0x3efd1288	0.494282
3	0x3f5970f0	0.84937954
4	0x3f5203b2	0.8203689
5	0x3facb43c	1.3492503
6	0x3f5692bf	0.83817667
7	0x3fad25dc	1.3527179
8	0x3f4b4a39	0.7941013
9	0x3f12aeb2	0.57297814
10	0x3f09ce8b	0.53830785
11	0x3f6d49a9	0.9269052
12	0x3fabd182	1.3423312
13	0x3fa9f80e	1.3278825
14	0x3ee417c9	0.44549397
15	0x3f4b4c79	0.79413563
