Output/swift-iid-8W-linear-shark-ring-2sgd-100epochs/r5-epoch_56-parameters.pt (torch, 731450 bytes, 92 tensors)

conv1.weight f4 [16, 3, 3, 3]
00000000: 2a82 0f3f 2fdf 623e 259c 063f 8948 acbe
00000010: b64d a73f 87df 43bf a884 69be efba 37bf
00000020: 5532 ffbe 1028 093d 5634 06be 3471 91bc
00000030: b80f 9cbe f191 e33f 41d4 34bf d290 f7bc
00000040: 29e6 54bd 3b57 5ebd f00c a9be 3791 49bf
00000050: 2cef d6bd d819 76be 4888 9a3f 9bd7 fcbd
00000060: 9aaf aa3d b11a d73e 2b9c 973e e07b bbbd
00000070: e84c 0ebe 2714 593e d87d 42be 1aa8 21bf
00000080: 9a78 88bd 3e56 f43d 1650 49be d48d 513d
00000090: 5df5 83bd 464c 43be 2f8c 423e bb10 b4be
000000a0: 380a 2dbf 2c15 0bbe 5c9c a2bd c0c1 93be
000000b0: aeca f2bc 7d9f 813e aa8c 093e e510 953e
000000c0: 135d 073d 4912 59be 7242 70bb c9d9 c53d
000000d0: 1480 fabc c5e3 233d 18d2 7abd 6e54 753c
000000e0: 9489 6fbd 9699 bdbd 7fda 88bd 741f 0dbe
000000f0: c446 4abd 569a 4abe 2d8c d8bd 2829 7fbe
00000100: c1d3 c33d ad11 1cbe 88ed e4bc 35ce 873e
00000110: 5bd3 183d c023 17be 5207 e1bc 5349 85bd
00000120: 3fc3 d9bd e158 a33e 5ccb 05be a623 c23e
00000130: 6912 533f 2227 083f 7ada 223e f5fd d23e
00000140: 5116 833e 56a9 e03e 3623 30be 89d7 913d
00000150: 29a9 a53d 2514 78bf 0280 a2be 37fe 8fbd
00000160: 4c56 83be 2826 03be 8bb0 2d3e fecf 4bbe
00000170: f454 833e 8e60 9e3d 298e 2ebf 8f86 bd3d
00000180: 9780 a03e 7255 a93e bdbd e03e a9c3 02bd
00000190: daab 83be d8c5 68bd 6a95 ef3b eae7 11bf
000001a0: 2585 95bd 0bd9 143e 4dd3 b23d c0a0 363e
000001b0: e83e 9c3c cf97 e0bd 40ff 4fbe cc80 e03d
000001c0: b5ad 9ebc 4e53 c2bd 3b6d 893e 976f 7f3e
000001d0: 9c45 3e3d 0f47 953d 7455 3abe 835e a1be
000001e0: b4bc 293e 8c8b 053d 8675 b6bd f972 cc3e
000001f0: 8503 923e 32ab aa3d 27cc 26be ee09 35be
00000200: b4ad 64be bee8 4cbe a183 b0be 9903 bdbe
00000210: fa6d c7bd 1ff4 88be 03f5 c1be 93ec 6dbe
00000220: 2711 8fbd e7cf 823c 9a64 923f 9be0 813e
00000230: 24b9 4bbf 3832 e53e e531 b53d d61f 48be
00000240: 84b9 eb3e 4cc2 80be d690 dfbe f1f8 b23f
00000250: d6dc b7be a9a1 c6bf 2795 f13e 4ca1 9cbe
00000260: 4c52 0cbf 0b8a fe3e e9bc dc3d 58a3 a6bd
00000270: 504e 953f 7206 7dbd 79df 85bf 90dd e83e
00000280: 233d 45be dfc8 cebe f75e 343f ed32 703f
00000290: fd9d 263f 4718 1d3e 65dd 08bf 7fd1 28be
000002a0: a2c0 dfbd f093 74bf 0a9a babe e8e4 e03e
000002b0: 358c 443f 5e93 163f a258 a0bc ff7d 1dbf
000002c0: 9be8 fdbd 99a7 69bd fc04 31bf f7a7 a0bd
000002d0: b821 093e 79da dd3e 6e87 8d3e 48f2 00be
000002e0: f91b 15bf 4002 33be ce60 95bd b72f 03bf
000002f0: 70ee 2e3e caaa 103e 00cd 523e 4ce0 35bc
00000300: 07bb 263f cfac 583f c3c9 133f 2d22 cbbe
00000310: 8fa5 4bbf b11a 18bf 8979 7e3e acbb c03e
00000320: 18a6 ae3e 97aa a63e cbbd f73e 6ad1 f63e
00000330: a6af 3dbf aba9 82bf debd 11bf 4a84 c63d
00000340: 30c9 d4bb 7802 493c 8203 b33e 6e0a e63e
00000350: c57b 9e3e d04d fdbe 623c 1fbf 2546 e7be
00000360: 5f00 83bc 4711 c9bc e039 36be 442d b53e
00000370: eebb 3c3f 7704 c63e c97e c23e 49d0 313f
00000380: f78f 623e 3207 29be 05eb 1ebe 80b8 b5be
00000390: ec53 a1bd 3358 043e 6325 a5bd e32a cebd
000003a0: 3497 813d 3132 dcbc 8887 bc3e 9913 e23e
000003b0: e8d4 053e d9d3 ad3d 80f2 4b3d da6e c0bd
000003c0: 1645 2dbe a172 93be e502 9ebe 42a2 98bd
000003d0: 35ee cdbe 6511 253d 8ab5 e0be 11fe 61bf
000003e0: 9be0 35bf f5d1 a4be 47ec 66bf 3da6 11bf
000003f0: 1899 dbbb 675d ac3c 460e 4b3e dce9 f43d
0.5605799 0.2215545 0.5258201 -0.3364909 1.307059 -0.7651295 -0.2280451 -0.71769613
-0.49843088 0.033485472 -0.13105902 -0.017754175 -0.30480742 1.7778913 -0.70636374 -0.030220423
-0.05197731 -0.05428241 -0.33017683 -0.78737205 -0.10494837 -0.24033296 1.207284 -0.12345811
0.083342746 0.4201255 0.29611334 -0.09154487 -0.13896525 0.21199094 -0.18993318 -0.6314713
-0.06663628 0.11930512 -0.19659457 0.05116065 -0.06443284 -0.19072065 0.18998788 -0.35169014
-0.6759372 -0.13582295 -0.079399794 -0.28858757 -0.02963766 0.25316992 0.13432565 0.29114452
0.033047747 -0.21198381 -0.0036660698 0.0966068 -0.03057865 0.04001214 -0.061235517 0.014973743
-0.058480814 -0.0925781 -0.066823 -0.1378153 -0.049383894 -0.19785437 -0.105736114 -0.24918044
0.09561873 -0.15241118 -0.027945295 0.2652451 0.03731094 -0.14759731 -0.02746931 -0.06508126
-0.10632943 0.31903747 -0.13065857 0.37917823 0.82449967 0.5318471 0.15903655 0.4120938
0.25602964 0.43879193 -0.17200932 0.07121188 0.08088905 -0.9690574 -0.31738287 -0.070309095
-0.25651777 -0.12807524 0.16961877 -0.19903561 0.25650752 0.0773326 -0.6818567 0.09254181
0.31348106 0.33073002 0.4389476 -0.031924877 -0.2571705 -0.056829304 0.0073115127 -0.569945
-0.07300786 0.1453592 0.08731709 0.17834759 0.019072965 -0.10966455 -0.20312214 0.10962066
-0.01936994 -0.09488545 0.2684115 0.24944912 0.046453103 0.07288944 -0.1819666 -0.3151742
0.16575891 0.032603785 -0.089091346 0.39931467 0.2851831 0.08333434 -0.16288815 -0.17679569
-0.22331887 -0.20010659 -0.34475425 -0.36916807 -0.09737773 -0.2674875 -0.37882242 -0.23234777
-0.069856934 0.015968276 1.1436951 0.25366673 -0.7957938 0.44764876 0.08847407 -0.19543394
0.46039975 -0.25148237 -0.4366519 1.3982221 -0.35910672 -1.5518085 0.47184107 -0.3059181
-0.54813075 0.49714693 0.10778219 -0.08136624 1.1664524 -0.061773725 -1.0458823 0.4548154
-0.19261603 -0.40387627 0.70457405 0.93827707 0.6508482 0.15341292 -0.5346282 -0.16486166
-0.10925414 -0.95538235 -0.36445647 0.43924642 0.7677644 0.58818614 -0.019573513 -0.6152038
-0.123978816 -0.0570446 -0.6914823 -0.07844537 0.13391769 0.43330744 0.27642387 -0.12592423
-0.5824581 -0.17481327 -0.07293855 -0.5124468 0.17083144 0.14127651 0.20586014 -0.01110084
0.6512913 0.84638685 0.5772974 -0.39674512 -0.795495 -0.5941573 0.2485105 0.37643182
0.34111094 0.32552025 0.48386988 0.48206645 -0.74096143 -1.0208029 -0.5693034 0.09693201
-0.00649371 0.012268655 0.34963614 0.44929832 0.30953804 -0.4947343 -0.6220151 -0.45170704
-0.015991388 -0.024544371 -0.17795515 0.35386097 0.7372426 0.3867528 0.37987354 0.6945844
0.2212523 -0.16506651 -0.1551934 -0.35492325 -0.07877335 0.1292427 -0.080637716 -0.10066774
0.06327668 -0.026879402 0.36822152 0.44155577 0.13069499 0.08487672 0.049791813 -0.09396143
-0.16920885 -0.28798392 -0.30861583 -0.07452823 -0.402208 0.04029979 -0.43888503 -0.882783
-0.71045846 -0.32191435 -0.9020428 -0.56894284 -0.0067016 0.021040631 0.19829664 0.11958668

conv1.bias f4 [16]
00000000: 925a aabc fe21 58bc fabc 70bc c464 df3c
00000010: 5a22 ce3c 4538 efbc c1da b7ba f95c e53b
00000020: 3754 b6bc 4df1 f1bc 0b12 07bc 143a 5dbc
00000030: 5911 35bc 792e b53c 2adc b93b 05b1 a5bc
-0.02079514 -0.013191698 -0.014693493 0.027269728 0.025162864 -0.029201636 -0.0014026986 0.0069996086
-0.022256954 -0.029534006 -0.008244048 -0.013502616 -0.011051499 0.022116886 0.0056719976 -0.020226011

bn1.weight f4 [16]
00000000: 41a2 723f 4237 973f b476 343f 937c 953f
00000010: 72cb 283f d42d 803f 58b3 903f adc1 723f
00000020: fb21 533f d43a 343f 5941 6d3f f535 343f
00000030: d933 2f3f 0f7b 4c3f a23c 713f f12b 333f
0.9477883 1.1813738 0.70493627 1.1678642 0.6593543 1.0013986 1.1304731 0.94826776
0.82473725 0.70402265 0.9267784 0.7039483 0.6843849 0.7987527 0.94233143 0.69988924

bn1.bias f4 [16]
00000000: d9fd ad3f 21be 03bf ba4f 773d e6ba 68be
00000010: 1a4c 57be ef39 233f b1fb ab3d ae74 523f
00000020: bc58 31bd 3d19 ca3e deba 19bd da31 033f
00000030: 7ef0 7d3e d6ee c13e ef87 073e 4b07 0f3f
1.3593093 -0.5146199 0.060378768 -0.22727546 -0.21025124 0.63760275 0.08397616 0.8220929
-0.043297514 0.3947238 -0.037531726 0.5124794 0.24798772 0.3787753 0.13235448 0.55870503

bn1.running_mean f4 [16]
00000000: c476 a6be a1de 263f 95ee 00bf 55f1 eb3e
00000010: 8514 cc3e d0f7 4d3d e467 243e 3c48 35be
00000020: 7327 12bf 6735 0c3e 3bd1 ce3e 9319 c3bd
00000030: 9a9b 3cbd 42c9 43be 0cc8 3c3e baa3 92bd
-0.32512486 0.65183455 -0.5036405 0.4608256 0.39859405 0.05028516 0.16055256 -0.17703336
-0.57091445 0.13692246 0.40394005 -0.09526362 -0.04604683 -0.19119743 0.18435687 -0.071601346

bn1.running_var f4 [16]
00000000: e419 9040 b1ec 0a41 d4c1 ce40 9246 b640
00000010: 901e b140 31cf c641 0f6c 8241 7b46 8b41
00000020: eb01 e140 fb53 0641 92f3 9e40 9861 1441
00000030: 1ac9 6540 6243 c840 9844 c640 f626 5d40
4.5031605 8.682786 6.4611607 5.6961145 5.534981 24.851168 16.302763 17.409414
7.031484 8.395503 4.9672327 9.273827 3.5903993 6.2582254 6.1958733 3.455503

layer1.0.conv1.weight f4 [16, 16, 3, 3]
00000000: 329e e13d afd0 743e 3b8b adbd e9ee acbe
00000010: fc80 133f f48b a8be 1780 60be 9061 093d
00000020: c971 9abe f6e6 edbd 0c21 ca3d 6d83 6b3d
00000030: 782c aabd baec 04bd 3298 3a3d 6f11 42bd
00000040: 0551 163d c921 143e 56d8 23bd 2d44 2b3d
00000050: 9859 d3bd 5bf3 aabc b91c 573d e685 c1bd
00000060: a454 ecbd 3b4b c9bd dcc1 c6bd 251a 9cbc
00000070: fab8 debc 534f 2bbd 93b7 d0bd 0844 21be
00000080: c79d 2cbe 0e6c bb3c dfe9 743d fe60 a63d
00000090: eb20 19be 4891 21be 728d 09be 8084 41bd
000000a0: a6fd 33bd b418 00be e176 07bd 6091 4d3d
000000b0: 8df8 c83c 24f1 d2be 951a 72be 0e1c 1ebc
000000c0: 7282 b8be beb5 3abe b1ef 823e 9e17 173e
000000d0: 05e0 c7bd 51f7 79bc f66c 42bd 9ce2 7dbe
000000e0: 6dc5 2abe cd53 d0bd 903a afbe dda0 8bbd
000000f0: c96e 1e3d 42c9 95be 8302 2dbd a643 363c
00000100: d324 a1be f64b b3bd 261a 923e 6fd1 3d3e
00000110: e11b 6d3e ac16 e43e 3f59 5d3d cbee a43d
00000120: 7834 5abe def2 863b 0db7 d9bc b666 8dbc
00000130: d106 473e 7f02 043e 42bc 0bbd f5b5 bf3d
00000140: 9b9d 933d 08e9 083e 54ab 443e bc22 cd3d
00000150: 105f 7f3d 6427 b63d ba7a 3ebd ba7e 3a3c
00000160: 7369 63bd 70ee c7bd 41b0 673c b960 1e3e
00000170: 56b5 bc3d c3da 123b 3049 583d 4fd0 b73d
00000180: c10a f4bc ff51 cc3c ed5b 2c3d 2b1b bfbb
00000190: 6f62 a1be 9862 5dbe 6fb2 3c3e 0036 88be
000001a0: c710 dbbe d15c 8fbc 227d 94be ebb1 6fbe
000001b0: 45fe 2cbd 3eaf 47be 9ebb 62bc 978d 163e
000001c0: a736 f03d 73b9 b73c 9bf7 073e e1dc 563e
000001d0: 61de b23d 52cb da3c 9678 0a3f 6811 07be
000001e0: d506 87bc 368a d93e 5a0b 6cbe 83d7 a3be
000001f0: 0e99 d1be 8982 cebe 6963 eebc 6adc 863d
00000200: ab1b 743d 2fbe c5bd 62b2 d0bd 9858 cebd
00000210: 62ce b73c abe9 c3bd e995 76bd d28a 3a3e
00000220: 4b5d 8cbe 0c95 efbd fbe4 8e3e 400f 34bd
00000230: a44b adbe 0070 03bd 1810 a3be 78b6 8bbe
00000240: c05a de3d 3a73 b33c 0125 7e3c 6a76 083b
00000250: 8bd3 1dbe fe77 d0bd 83ae 163e 1654 75bd
00000260: 4863 2dbd 4f3b 0a3e fa3a 403e c3e9 1a3d
00000270: 9553 8e3e 490a b13e 4c2c 573e b8c2 2abc
00000280: 1f8a 9a3d 365f 9cbd 6875 d03d 5865 673d
00000290: d4c6 413d fd4f e73d ac8d 8e3d e6bb a63d
000002a0: 95da 2c3e a025 013e 6a9f e63d f5f0 863d
000002b0: ff61 123e 5c5c d63c c1c9 df3e adaf dc3e
000002c0: 6d26 9e3e ac7b 673d e4ce ab3d e6d1 15bd
000002d0: 5b82 003d 3e7b 1d3c 6681 873c 89d2 723e
000002e0: cf2b 5b3e 3266 583e a7af 5f3e 3146 463e
000002f0: cea9 3f3e d829 b7bd e30a f1bd 38cb 99bd
00000300: 0f93 25bb 572f 3ebd 392d 11bd 7713 8a3a
00000310: b6df a5bc 7fcc fdbd a006 d93d 3416 c23d
00000320: 77a9 26bd c9ac 733d 0b65 b03d 56cc f83c
00000330: 9aee f13d 62ab 093e ca5e a33c 6b73 b83c
00000340: d807 02bd 0ae0 afbd a8d0 6e3c b744 81bb
00000350: 2640 47bc 57a1 d43d 6394 943d 1a66 f23c
00000360: e0f0 45bd 1b0b 15bd 33e3 a7bc 763c 713d
00000370: 783c 9e3d 207c 4b3d e108 0c3e a9a2 cc3d
00000380: 308c b13d 710a d43d be4c 433d eca4 dc3b
00000390: 6927 363d fc3b d2bc bd20 75bd 462f d83d
000003a0: 2dcc 4f3d 3b5f 103b ec13 673d 94d2 083e
000003b0: c68e 0f3d cab6 7c3e d53c ad3e 06a0 993e
000003c0: 27d5 893b a243 d83d bb98 a93d c540 41bc
000003d0: 1e29 1e3d b6cf 6cbd b754 c13b 60fe 033e
000003e0: 73d0 a23c f39e e9bb dd5b 763d b4e7 b8bc
000003f0: 5eab 16be c295 1fbe 12cd d3bd 2058 b7bb
0.110165015 0.23907731 -0.08473822 -0.33776024 0.5761869 -0.32919276 -0.21923862 0.03354031
-0.30164936 -0.11616318 0.098695844 0.057498384 -0.08309263 -0.032452323 0.0455553 -0.047379907
0.03669836 0.14466013 -0.040001236 0.041813064 -0.10319823 -0.020867994 0.052517626 -0.09449367
-0.115395814 -0.09828802 -0.097049445 -0.019055435 -0.027187813 -0.041823696 -0.10191264 -0.15748608
-0.16857062 0.022878673 0.05979335 0.081239685 -0.14953963 -0.15778077 -0.13432863 -0.047245502
-0.04394307 -0.12509423 -0.033072356 0.05018747 0.02453258 -0.411996 -0.23642953 -0.009650243
-0.36037022 -0.18233392 0.25573495 0.14755103 -0.09759525 -0.015256719 -0.047467194 -0.24793476
-0.16676874 -0.10172234 -0.34224367 -0.068177916 0.03867987 -0.2925511 -0.042238723 0.011124527
-0.31473407 -0.08754723 0.28535575 0.18536924 0.23155166 0.44548547 0.05404019 0.08053359
-0.21309078 0.0041183075 -0.026576543 -0.01726089 0.19436194 0.12891577 -0.034115084 0.093608774
0.07207795 0.13370144 0.19205981 0.10016391 0.062346518 0.08894232 -0.04650376 0.011382753
-0.055520486 -0.09762275 0.014141143 0.15466584 0.092142746 0.0022408224 0.052804172 0.089752786
-0.029790284 0.024941443 0.042079855 -0.005832096 -0.3152041 -0.21619642 0.18427442 -0.266037
-0.42786238 -0.017500313 -0.2900172 -0.23407714 -0.042234678 -0.19500443 -0.013838677 0.1470245
0.11729174 0.022427296 0.13278048 0.20982696 0.08733822 0.026708279 0.5409025 -0.13190234
-0.01648275 0.4248826 -0.23051205 -0.3200036 -0.40937084 -0.40333965 -0.029100137 0.065850094
0.0595967 -0.09655415 -0.10190274 -0.10075492 0.022437278 -0.09566053 -0.06020156 0.18217018
-0.27414927 -0.1169835 0.27909073 -0.043959856 -0.33846772 -0.032089233 -0.31848216 -0.2728765
0.10857153 0.02190553 0.015511752 0.0020822533 -0.15412728 -0.10179137 0.14715008 -0.059894644
-0.04233101 0.13499187 0.18772498 0.03782059 0.27798143 0.3457816 0.21012992 -0.010422401
0.07545876 -0.076353475 0.101786435 0.056493133 0.047308758 0.112945534 0.069606155 0.081413075
0.16880257 0.12612009 0.112608746 0.06588928 0.14295195 0.026167087 0.43708614 0.4310278
0.30888692 0.056514427 0.08389071 -0.036577128 0.031374317 0.009611903 0.016541194 0.23713125
0.2140343 0.21132734 0.2184435 0.19362713 0.18717119 -0.08943528 -0.117696546 -0.07509464
-0.0025264656 -0.046431866 -0.03544352 0.0010534365 -0.020248275 -0.1239252 0.10596967 0.09476891
-0.040688958 0.059490953 0.086130224 0.030370872 0.11813088 0.13444284 0.01994266 0.022515973
-0.03174576 -0.08587654 0.014576115 -0.003944959 -0.01216129 0.10382336 0.07254865 0.029589701
-0.04832542 -0.036387544 -0.02049408 0.05889555 0.07726377 0.04967892 0.13675262 0.099919625
0.08669317 0.10353554 0.04768061 0.0067335274 0.04447118 -0.025663368 -0.059845675 0.10555892
0.050731827 0.0022029418 0.056415483 0.13361579 0.03504827 0.24679103 0.33835474 0.300049
0.004206318 0.10559775 0.08281084 -0.011795227 0.03861343 -0.057815276 0.0058999914 0.12890005
0.019874787 -0.007129544 0.0601462 -0.022571422 -0.14713809 -0.15584472 -0.103418484 -0.005595222

layer1.0.conv1.bias f4 [16]
00000000: f196 f73a 74f0 0dbc 1849 6dbb d25a 0a3b
00000010: 7761 32bc 62a0 1dbc 9398 d93a 97ae 6cbb
00000020: d1b2 9f3b b796 61bb e620 c23b 8171 163b
00000030: fd0c 4ebc fc50 273b 745b 1f3c bf97 b4bb
0.0018889589 -0.0086632855 -0.0036206897 0.0021111262 -0.010887495 -0.009620758 0.0016601257 -0.0036114806
0.0048736115 -0.0034422108 0.005924332 0.0022955837 -0.012576339 0.0025530448 0.009726394 -0.0055112536

layer1.0.bn1.weight f4 [16]
00000000: 1f3b 643f d802 6c3f 413c 5f3f 2a59 363f
00000010: d339 833f 605b 223f 6696 083f bcaa 683f
00000020: 52e0 2f3f 70bf 5e3f f188 493f fc54 223f
00000030: 7a9b 7c3f 1420 563f f0d8 263f 32eb 503f
0.8915271 0.9219184 0.87201315 0.71229804 1.0252022 0.6342068 0.5335449 0.9088552
0.6870166 0.8701086 0.7872458 0.63410926 0.9867474 0.836427 0.6517477 0.8160888

layer1.0.bn1.bias f4 [16]
00000000: 1253 c03e a8f8 00bf 66f1 1cbf 89aa 823e
00000010: 2fb4 92be 2e0e 84bd 97aa b73d 0fe0 963f
00000020: 47f6 6bbe 972b f5be 0d18 a5bd 5bb4 453e
00000030: f07f 1d3f 56bb 303e 3e76 15be 81d6 e0be
0.37563378 -0.5037942 -0.61305845 0.25520733 -0.28653094 -0.06448017 0.08968084 1.1787127
-0.23043166 -0.4788482 -0.08061228 0.19307081 0.6152334 0.17258963 -0.14595887 -0.43913653

layer1.0.bn1.running_mean f4 [16]
00000000: 380a 0ec0 11c5 1840 c41e 92be bf6e 64bf
00000010: 0a35 d3bd 6902 22c0 3eb4 ba3f e37c acbf
00000020: 7a4a 29c0 c0a1 07c0 6540 83c0 4785 cbbf
00000030: ea88 37c0 82cb d4bf 0ff1 13be 2f9b 7c3f
-2.2193737 2.387028 -0.28539097 -0.89231485 -0.10312851 -2.531397 1.4586256 -1.3475612
-2.6451707 -2.1192474 -4.1016107 -1.5900048 -2.8677316 -1.6624606 -0.14447425 0.9867429

layer1.0.bn1.running_var f4 [16]
00000000: e3ab b240 0cf2 6440 2ed7 2f40 b59a 7d40
00000010: 254b be40 92b4 2540 f93f 9240 c820 2840
00000020: 5c84 2440 ed04 e93f 7fe9 cb40 a6be 2940
00000030: a1b9 b340 ff7a 8c40 f708 bf3f ae3f e83f
5.5834823 3.5772734 2.7475085 3.9625676 5.946673 2.5891461 4.570309 2.6270008
2.5705786 1.8204628 6.372253 2.6522613 5.61641 4.390014 1.4924611 1.8144433

layer1.0.conv2.weight f4 [16, 16, 3, 3]
00000000: 15fe 1fbe 6496 1abe cc5e 7c3c e70a ccbd
00000010: 7241 073e a974 88bd 30b7 d7bd 5c6c cebd
00000020: b04e 013e 470f 493c c3a0 efbd 460b 8bbe
00000030: 9ba6 8c3e fa69 aa3d af4f 02bc 228d 6b3d
00000040: 8311 c6bc 0e44 1dbe 0b48 07be d617 473d
00000050: a2ca d1bd 821b e9bd cad5 6bbd 14ca 0c3d
00000060: 62e0 89be f08d 50bd 73cc cebd 24aa 373e
00000070: d295 063e 21c8 333e 3a9c 20bc 7b89 873d
00000080: ed89 58bd a513 103c 498c bdbc 4153 4ebe
00000090: 8aae 50be 69bf 8abe dd44 1ebd 32b1 00bc
000000a0: d11c 0fbe 617c 43bd fa3e 01be 6842 103e
000000b0: a1d5 c53c 2bfd a5bd b20d 1f3e 5259 143e
000000c0: 70fc a6bb ba84 153d 3b62 153d 36ad 133e
000000d0: 9354 1ebd 9418 fcbd fc82 243c ac4c c3bc
000000e0: 08ee 0abe d1db bcbd 2395 96bd 8696 b3bd
000000f0: da99 f43d 171a 933d cf7a 8b3e 08dc 11be
00000100: e8b1 1dbf c403 db3e 329f a1be 37e8 463f
00000110: 50bc 983d b04f 94bd 9392 0cbf 2011 4abc
00000120: 289d e43d c062 29bc 5a0c e5bd 2fce 5b3d
00000130: 9679 1bbe b6c8 45bd d66e 383d 0d9e 1ebd
00000140: a7fb 3fbd 84bd 66be 666a 9b3d e2e7 dfbc
00000150: 95a5 81be 8058 fe3d e4dd 9a3b 460f 2ebe
00000160: 487e e03c d76d 2f3e af54 2b3d 5b09 b83d
00000170: 4be0 e5bc caba e53c 5acf 3d3d 6fa2 9cbd
00000180: 9218 303e d36f 64bb 6261 603d a6b9 4ebd
00000190: a299 82be 504c 0ebd 2580 393e 156b 503e
000001a0: 8f2d ff3c 2348 30bd f8d0 6dbe 6d0d 3dbe
000001b0: 3d1b 4a3e aa58 833e b649 88bc b134 89bd
000001c0: e3df 66be 51df 3e3e f39f a73b 9597 083e
000001d0: 9d37 393e 0a5d ba3d 96bb db3c dc75 3f3e
000001e0: 50f3 39be d73b de3d 77b6 893e adea 333e
000001f0: 50e2 f63e 32b6 193e 3044 c23d 1484 833e
00000200: 88b9 043e 6e63 473d 730f 023e 7a84 28be
00000210: 6565 36bd e829 dbbd 77e9 4abe 7eeb e0bd
00000220: e079 8abe 36c5 54bd 9e39 be3c 4cf5 a8bd
00000230: 00b9 303d b6e4 4bbd fd44 9ebe 7110 1fbe
00000240: 1fab 4d3d 1400 c13d 7bca f83c a68a 97bc
00000250: 906b 093e 9722 693d 42ee 97bd aa42 d0bc
00000260: 7417 98bd 98fd ddbe 28fc 86be 1108 83be
00000270: 05de d33d bdb8 253e 6dd3 383e 8a79 c63a
00000280: f581 253e 10cd 753e 33f2 0dbe c0a5 5cbe
00000290: d9e0 7abe 0236 6dbd 61f9 cdbc f751 8c3d
000002a0: fe90 a6be bc61 7fbe ce5c cdbd 41b8 b5bd
000002b0: 9066 56bd 10e9 5a3d 68c3 ccbd 24de 35be
000002c0: 09ca 9d3a dfbe 92be d6e5 b5be 333c 46be
000002d0: 9d10 2fbe a7aa 6cbd 3081 0dbe c1d5 bc3d
000002e0: 2cbf 3c3e ceba 253e 44a8 f63d 3195 6c3e
000002f0: 7dac 2d3e a33d 313d 9410 58bd d730 66bb
00000300: 7dc0 0cbe 53eb 37be 4119 8abd f100 fabd
00000310: 2a78 11be 0943 60bd fff4 3fbe 20f3 a2bd
00000320: c46c e2bb 1c29 edbd ca4f 6ebb ac25 823d
00000330: 9df4 f6bd bebf aabd c945 30bd 21db 043d
00000340: 681f 7d3c 6341 113d aedb 0c3e d434 683d
00000350: 7dd5 fd3c 8f0b 043e fbff 503d 677d f4bc
00000360: 66e2 2d3e 18ab 0e3e 78b7 393e 17fe a23c
00000370: 36a5 1d3c 2139 8c3c 1232 24bd bdfd 64bd
00000380: 6450 2cbd a303 ad3c a4e5 97bd 67e3 02be
00000390: 635e 983c b0f4 84bd 84ce e1bd 82f2 a33d
000003a0: 002a 64bd f796 e9bd 9059 103e 6dd8 273d
000003b0: d914 c23c ac15 893e fcf6 1b3e 6f09 f53d
000003c0: 0dc5 6d3e f16e 043e 70ab 113e cba2 8fbe
000003d0: 47c1 21be 5c1e 223d 87db 91be fc70 dfbc
000003e0: cad6 183e b3f5 97be 7e2d 4cbe 6782 393d
000003f0: 0f1e 2e3d 6d34 973c 0732 91bd 6386 e93d
-0.15624268 -0.15096432 0.015403461 -0.09963017 0.13208559 -0.06662876 -0.10532987 -0.10079262
0.12627673 0.012271709 -0.11700585 -0.27157038 0.2747086 0.08320995 -0.007953568 0.05750764
-0.024178272 -0.15357992 -0.13211076 0.048606716 -0.10243727 -0.113822 -0.057576932 0.034372404
-0.26929003 -0.050916612 -0.10097589 0.17935997 0.1314309 0.17556812 -0.009802872 0.06618019
-0.05286591 0.008793746 -0.023138182 -0.20148946 -0.20379081 -0.2709916 -0.038639892 -0.007854747
-0.13975836 -0.04772604 -0.1262168 0.14087832 0.024149718 -0.081049286 0.15532568 0.14487198
-0.005096011 0.03650353 0.036470633 0.14421543 -0.038654875 -0.123093754 0.010040995 -0.023840271
-0.13567364 -0.09221614 -0.07352664 -0.087689444 0.11943407 0.071827106 0.27242133 -0.14244092
-0.6159959 0.4277631 -0.3156677 0.7769808 0.07457793 -0.07241762 -0.54911155 -0.0123331845
0.11162788 -0.010338485 -0.111839965 0.05366343 -0.151831 -0.048287116 0.045027576 -0.038724948
-0.046870854 -0.22533232 0.07588653 -0.02733225 -0.25321642 0.12419224 0.0047261585 -0.16998014
0.027403966 0.17131744 0.041828807 0.089861594 -0.028061053 0.02804317 0.046340324 -0.07648169
0.17196873 -0.0034856691 0.05478037 -0.050470017 -0.25507838 -0.034740746 0.1811529 0.20353349
0.031149654 -0.043037545 -0.23224247 -0.18462153 0.19736953 0.25653583 -0.01663671 -0.06699503
-0.22546344 0.18639876 0.005115503 0.13339074 0.18087621 0.09099777 0.026822846 0.18697304
-0.18159223 0.10851257 0.26897022 0.1756999 0.48219538 0.15010908 0.09485662 0.25686705
0.129614 0.048678808 0.12701206 -0.16456786 -0.04453029 -0.10701352 -0.19815622 -0.109824166
-0.27046108 -0.051945888 0.023220833 -0.08249912 0.04314518 -0.049778663 -0.3091201 -0.15533616
0.050212022 0.09423843 0.030369988 -0.01849873 0.13419938 0.056917753 -0.07418491 -0.025422413
-0.07426348 -0.4335754 -0.26364255 -0.25592092 0.10345081 0.16183753 0.18049403 0.0015142423
0.16162856 0.24004006 -0.13861923 -0.21547604 -0.24499835 -0.057912834 -0.025143327 0.06851571
-0.32532495 -0.24939626 -0.10027467 -0.08873034 -0.052343905 0.053444922 -0.09998208 -0.17760521
0.0012038361 -0.28661248 -0.35526913 -0.19358902 -0.17096181 -0.057779934 -0.13818812 0.09220458
0.18432301 0.16184542 0.12043813 0.23103787 0.1696033 0.043271672 -0.052750185 -0.0035124326
-0.13745303 -0.17960863 -0.06743098 -0.12207211 -0.14205995 -0.05475143 -0.18745802 -0.07956529
-0.0069099385 -0.115801066 -0.0036363476 0.063548416 -0.12058375 -0.08337353 -0.043035302 0.03243554
0.015449382 0.03546275 0.13755676 0.056691006 0.030985588 0.12895034 0.051025372 -0.029844953
0.16980895 0.13932455 0.18136394 0.01989655 0.009621909 0.017117085 -0.040086813 -0.055906046
-0.042068854 0.021119898 -0.07416847 -0.1278206 0.018599695 -0.06491983 -0.11025718 0.08005239
-0.055704117 -0.114057474 0.14096665 0.040977884 0.023691582 0.26774347 0.15230936 0.1196469
0.232197 0.12932946 0.14225554 -0.2805389 -0.15796386 0.039579734 -0.284878 -0.027275555
0.14925686 -0.2967964 -0.19939229 0.045290377 0.042509135 0.018457616 -0.0708962 0.11402585

layer1.0.conv2.bias f4 [16]
00000000: 90fb acbb 26ed 953c a8be cdbb efbc 0a3b
00000010: fd6e 0c3c ec21 b93b 7bd9 64bb 9835 01bc
00000020: 2cb0 1d3c 46a7 f3bb 8e36 2ebc 0764 543c
00000030: e987 1bbc 3b8e a53b 2f8a 0bba 7978 b83a
-0.005279012 0.018301558 -0.0062788315 0.0021169742 0.008571384 0.0056497958 -0.0034919668 -0.007886313
0.009624522 -0.007435712 -0.010633124 0.0129633015 -0.009492853 0.0050523556 -0.000532302 0.001407399

layer1.0.bn2.weight f4 [16]
00000000: 43d7 a93f 54c2 1f3f d0bd e43e b291 873f
00000010: 5898 7c3f 6e81 993f 9b01 933f d462 6e3f
00000020: 362d 4e3f 1839 203f 2bdb 4c3f f1ca b43f
00000030: a2c0 713f ab47 8a3f 483f eb3e 864d 7f3f
1.3268818 0.62405896 0.44676065 1.0591338 0.9866996 1.1992624 1.1484865 0.9311955
0.80537736 0.6258712 0.80021924 1.4124433 0.9443456 1.0803121 0.45946717 0.99727666

layer1.0.bn2.bias f4 [16]
00000000: b65f 3ebe 10b0 99bd 9cf5 953e cca3 ca3e
00000010: f7f8 b03d d4b3 c2be c088 573e 72a8 813d
00000020: 3067 8bbd 2c60 a2bd d9dd 73be a46f 2d3d
00000030: 0479 a83e d273 25bd 6976 b03d 486e cf3d
-0.18591198 -0.075042844 0.29288948 0.39578092 0.08641236 -0.38027823 0.2104826 0.063309565
-0.06806791 -0.079284996 -0.23815097 0.042342797 0.32904828 -0.040393658 0.08616335 0.10128456

layer1.0.bn2.running_mean f4 [16]
00000000: 56d2 a6bd 5bd8 cb3d 150e 1dbe 3424 68bf
00000010: 0af1 8abf d273 03bf afc7 193f cfa1 a7bf
00000020: abe7 413f 7905 08bf 6bdb 97bf 7de6 933e
00000030: 3b7b d5bf c693 593e 6f0b 0cbd 40b4 4d3f
-0.08145587 0.09953376 -0.15337403 -0.9068024 -1.0854809 -0.513486 0.6007032 -1.3096255
0.7574412 -0.5313335 -1.1863836 0.28886786 -1.6678232 0.21247777 -0.03419059 0.80353165

layer1.0.bn2.running_var f4 [16]
00000000: 013f c83f d1b0 963f ec36 d53f d903 2240
00000010: e356 5440 f66a 8240 f9e4 8440 2ea3 6740
00000020: 420e 2e40 41b4 d33f bf56 0340 00d1 9240
00000030: 1f48 1b40 7b45 2440 121b 843f 6d03 2640
1.5644227 1.177271 1.6657386 2.5314848 3.3178031 4.0755568 4.152951 3.6193347
2.7196202 1.6539384 2.0521696 4.5880127 2.426277 2.5667408 1.0320761 2.593959

layer1.1.conv1.weight f4 [16, 16, 3, 3]
00000000: 6568 cabe 9666 0e3f 4548 063d dbb0 4d3e
00000010: 6cdf 74bf b33c 76ba f0e6 f83d b525 1f3f
00000020: 35ef 83be 1cac 643e f3b8 3a3e aa18 8c3e
00000030: ee9e c3bd d16e 9cbc 4699 203d 5e3c 95bc
00000040: 32b7 96bd 1d8a 6f3c ba1f 6e3e 8f0e b73e
00000050: 79b4 ab3e 5d6b d9bd 4609 19bc 823f 213d
00000060: 747b f3bc f82b 45be 9d38 d23c e569 e03b
00000070: dd15 27be 8f82 46be 2d46 903d 1677 bc3e
00000080: 30e1 3c3e 806c 07be 234a 26be bd34 993d
00000090: fd64 a33c e8ed 74bd 93b2 d3bd 8e34 113d
000000a0: da9c 0f3e c4b8 9e3d 215a 763c e02f 38bb
000000b0: a815 88bd 7171 27be 817e adbe 689d 52bd
000000c0: b246 9d3e a581 713e 12b3 3dbf cd82 8cbe
000000d0: d134 513e 5522 ac3e d51e c3bc b0b3 b5be
000000e0: 5b0e fbbd 3a6c c1be bf86 893e dccc f9be
000000f0: 3496 42be b13d 25bf 037c 45be afd5 673e
00000100: 476d df3e c31e 533e 996c 85bd da54 02be
00000110: 5f49 443d ae36 7ebe 67c8 5abe f3c8 5bbd
00000120: 86fd 513c b7df 14bc a2cb 973a 0b6d 78bc
00000130: fc46 163d 9b2e d03a efbc 54bd 9c52 8a3c
00000140: 55d9 443d ec70 e9bc e01d db3d 08e3 4a3e
00000150: f235 5abd ce41 14be 165b 20bc 96a8 16be
00000160: a217 37be a932 c5bd 195b 8a3d ee1f 773d
00000170: 46ee 9f3d a82f 613c 4c9e a93d 2007 ae3c
00000180: 67cf 4dbd f87f 8fbc 3f1d 3a3d 9a8c 2b3e
00000190: 22fa 583e c98f d5bd 1150 80be 6825 53be
000001a0: be50 613e 7e3d 2f3e fdf0 f43d da66 43be
000001b0: 5fe1 d9bd 01d1 ec3c fdcf 47be 027e d53d
000001c0: 8673 adbd 1351 be3e 3324 cf3c 17cd 073e
000001d0: d055 89bd 1ccd 22be 57e3 13be e393 6dbe
000001e0: 538a 5fbc 8ab2 9dbe 69a4 85bc 4835 d5bd
000001f0: f9b8 e53d bbb7 1cbe 3e50 a9bc ec50 c43c
00000200: 5b32 423e 5c7c 09be 8c08 9a3d 1cea 4e3d
00000210: e95d c8be daf3 59be 5d4e 53be 4df4 0cbd
00000220: 593d 1d3e ab59 8dbe 444e 9cbe a069 d8be
00000230: c7b5 7f3e f92c 6fbd 1e48 013e 37fb 4cbe
00000240: 2b3c 33bd 0ae1 2ebf d7f3 d13d 7d9f 26bf
00000250: 285c a13e ca6a 063e 5bab 843e 9de1 b93d
00000260: c11f 2cbf 453b f33d f37f 583e 3cd0 7a3d
00000270: 4ed5 843d 53e9 0a3e 1ee7 39bd 1d03 cdbc
00000280: be5a 87bc 0d7a 2a3d c02a 40bc 3073 dfbd
00000290: b331 22bd 90af d33b 8db7 a4bd 0f34 3f3e
000002a0: 0af1 f13b 118c 6f3d 5f7e 333e 3ad3 17bd
000002b0: 95d7 ab3e befe 813e 88f4 c53d a72a 81b7
000002c0: dae0 14be d83d 23be 7790 5ebc c822 843e
000002d0: 6c6d 273e f668 e33c 8ba4 b9bd 3b5a 783e
000002e0: 783d ef3a eb4f 6ebd 0ffb 753e b0ae 9e3c
000002f0: 3df8 4cbd f27f 1c3e 8200 75be 7b33 61be
00000300: 83ac 51bd 8f9a 03bf b56c 3abd 3147 42be
00000310: 8276 723d 3b6d bfbc cddf 1a3e fbe9 f6bc
00000320: 2444 b9be bcb1 3b3d 472d dbbe 493e 02be
00000330: 197b c5be 097f c7bd 6959 ae3c 8183 ac3e
00000340: 8b1c 82be 4251 d13d 14cc 21bd cd9e 41be
00000350: eeb7 323e badf 743e 19c4 6f3e 1edd eabd
00000360: bdcd fd3d 7bbc 933d 3ac8 053e 31a4 983c
00000370: 8d26 48bd ad45 84bc 9793 51bd f129 bfbd
00000380: bdea 97bd 7269 5ebe 1927 10be a10a c23d
00000390: 3876 52be 7b92 fd3d 30af 693e 98c2 debc
000003a0: f99e 573e b0ac 113e 41c1 e93d 04e7 3c3d
000003b0: df73 243d 0e41 413c 0288 1bbd 74a3 12be
000003c0: 742d 59bd 0afe 94bd 0c31 48be d34a c5be
000003d0: 3c4a a3be 8ff3 1e3e d134 68be 7df1 c73e
000003e0: 0d25 bebe 77dc 31be 8e25 a3be c030 89be
000003f0: df45 78bd 5a62 53be 33f0 a43e 8dce c6bd
-0.39532772 0.55625284 0.032783765 0.20086996 -0.95653415 -0.00093932 0.12153423 0.6216691
-0.25768438 0.2233128 0.18234615 0.27362567 -0.09551798 -0.01909581 0.039208673 -0.018217262
-0.073591605 0.014620331 0.2325429 0.35753295 0.33536127 -0.10616181 -0.00934059 0.039367206
-0.029721953 -0.19255054 0.025661761 0.006848561 -0.16316934 -0.19385742 0.07044635 0.36809605
0.18445277 -0.13224983 -0.16239218 0.07480762 0.019945616 -0.059797198 -0.10336795 0.03545051
0.14024678 0.07750085 0.015036137 -0.0028104708 -0.066447556 -0.16351868 -0.33885577 -0.051419646
0.30718 0.23584612 -0.74101365 -0.27443543 0.20430304 0.33619943 -0.023818413 -0.35488653
-0.122585975 -0.37777883 0.26860616 -0.48789108 -0.1900261 -0.6454726 -0.19285588 0.22640108
0.4363806 0.20617203 -0.06514854 -0.12727681 0.047921535 -0.24825546 -0.2136551 -0.053658437
0.012816792 -0.009086541 0.0011581073 -0.015162717 0.03668879 0.001588303 -0.051937994 0.016885094
0.048058826 -0.028496228 0.106990576 0.19813168 -0.053274103 -0.14478227 -0.009787342 -0.14712748
-0.17880109 -0.09628803 0.06755657 0.060333185 0.07809119 0.013744272 0.08282146 0.021243632
-0.050246622 -0.017517075 0.045438047 0.16752854 0.21189168 -0.104278155 -0.25061086 -0.20619738
0.22003457 0.17113301 0.11960027 -0.19082204 -0.10638689 0.028908255 -0.19512935 0.10424425
-0.084693 0.3717123 0.025285816 0.1326183 -0.067058206 -0.15898556 -0.14442192 -0.23200946
-0.013643819 -0.30800277 -0.016313748 -0.10410553 0.11216921 -0.15304463 -0.020668145 0.023964368
0.18964522 -0.13426346 0.075211614 0.050516233 -0.39134148 -0.21284428 -0.20635362 -0.03441267
0.15355434 -0.27607474 -0.30528462 -0.42268085 0.24971686 -0.0583925 0.12625167 -0.20017706
-0.043758553 -0.6831213 0.10251587 -0.6508711 0.31515622 0.13126674 0.25911984 0.090762354
-0.6723595 0.11876539 0.21142559 0.061233744 0.06485997 0.13565569 -0.045386426 -0.025025899
-0.016522761 0.041620303 -0.011728942 -0.10910642 -0.039598178 0.0064601377 -0.08042822 0.18672203
0.0073834704 0.058483187 0.17528675 -0.037066676 0.33562914 0.25389665 0.09665781 -1.539786e-05
-0.14538899 -0.1594156 -0.013584248 0.25807786 0.16350335 0.02776001 -0.09064587 0.2425317
0.0018252572 -0.058181684 0.24021553 0.019370407 -0.050041426 0.15283182 -0.23925975 -0.21992294
-0.05118991 -0.5140771 -0.045513827 -0.1897247 0.05919505 -0.023367515 0.15124436 -0.030140867
-0.361848 0.045823798 -0.4280798 -0.12719072 -0.3857048 -0.09741027 0.021282868 0.3369408
-0.25412402 0.10220577 -0.039501265 -0.18908234 0.17452976 0.2391347 0.23414649 -0.11467956
0.12392757 0.07213684 0.13064662 0.01863298 -0.04886489 -0.016146505 -0.051166143 -0.093341716
-0.0741782 -0.21719912 -0.14077415 0.094746836 -0.2055291 0.123814546 0.22820735 -0.027192399
0.21056737 0.14226031 0.114138134 0.04611875 0.040149566 0.011795295 -0.037971504 -0.14320165
-0.053021863 -0.072750166 -0.1954996 -0.3853365 -0.31892574 0.15522598 -0.22676398 0.39051428
-0.37137643 -0.17369257 -0.3186459 -0.26795006 -0.06061351 -0.20642987 0.32214507 -0.09707365

layer1.1.conv1.bias f4 [16]
00000000: 5002 d5ba 832f 2dbc 1042 f93b d3e5 3d3a
00000010: 4d07 08bc dd80 253c 7d7d 2bbc b73d 36bc
00000020: 1c1b 39bc 69c9 b4bb 15f4 183c 2dc1 06bb
00000030: a2e5 553c aa9e b2ba 4bf1 30bc 6d58 1c3a
-0.00162513 -0.01057041 0.007606752 0.00072440243 -0.008302522 0.010101524 -0.01046693 -0.011123112
-0.011297967 -0.005517174 0.009335537 -0.002056192 0.013055237 -0.0013627608 -0.010799716 0.0005964104

layer1.1.bn1.weight f4 [16]
00000000: cb71 7e3f b0c1 833f 3f22 793f 0a6d 553f
00000010: b752 493f 8f1a 343f d11e 4e3f bab6 3e3f
00000020: a543 813f 603c 863f eab9 253f 2a8f 453f
00000030: 02d9 563f 2036 563f 220b 033f 2a26 3c3f
0.99392384 1.0293484 0.9731788 0.83369505 0.7864184 0.70353025 0.8051577 0.7449757
1.0098768 1.0487175 0.6473681 0.77171576 0.8392488 0.8367634 0.5118886 0.73495734

layer1.1.bn1.bias f4 [16]
00000000: 1dcf 72be d14e 96be f6ec cabc 8baa 29bc
00000010: 7e1f b8be cd59 f7bd 0f1b c5be 5627 22bf
00000020: 9f78 ddbd a642 21bf fd6e 19bf 3be2 15bf
00000030: 41e6 6dbe b852 0c3e 693c 76be ee80 20be
-0.2371182 -0.29357007 -0.024771195 -0.010355602 -0.35961527 -0.12077675 -0.38497207 -0.6334127
-0.10814022 -0.6299232 -0.5993498 -0.58548325 -0.23232366 0.1370343 -0.24046482 -0.15674183

layer1.1.bn1.running_mean f4 [16]
00000000: 68ba 24c0 eb55 4bc0 1c9d ddc0 33eb 8dc0
00000010: 9d68 36c0 d185 0140 a2e8 0f40 18eb d5bf
00000020: 219d bcbf 867f aec0 6f50 6440 2c06 2d40
00000030: e373 70c0 769e 1fc0 2024 a2c0 ce8e 06c0
-2.5738773 -3.177119 -6.9254284 -4.434961 -2.850135 2.0237925 2.2485738 -1.671237
-1.4735452 -5.453067 3.5674093 2.7035017 -3.7570732 -2.4940467 -5.06691 -2.102466

layer1.1.bn1.running_var f4 [16]
00000000: e300 9441 9013 7241 2693 4841 d680 3d41
00000010: d406 bc40 ff8b 1b41 b1cc a940 fb86 5340
00000020: b23a 3342 819b 8241 1976 2740 4d71 8f40
00000030: 6bc5 fe40 91df da40 c550 8340 5d00 0c41
18.500433 15.129776 12.535925 11.843954 5.8758335 9.721679 5.3062367 3.3051136
44.80732 16.32593 2.616583 4.4825807 7.961599 6.839791 4.1036096 8.750089

layer1.1.conv2.weight f4 [16, 16, 3, 3]
00000000: f34a a4bd d0fd 7abe 1619 debd 4bd1 b7bc
00000010: c1a1 2dbd 85cf 453d 8474 4ebd 7131 91be
00000020: d832 a03d 4ac8 963d 1558 5d3e 1f6f bbbc
00000030: 8edb de3e 76f6 9a3e ed06 e83e fc71 723d
00000040: 658f 913e 0c37 893e 05aa 31bc 4dd0 a2bd
00000050: fb74 babc 0eaa 6ebd 669c a5bd 811f 073e
00000060: f0c9 40be b677 03bd ec77 1dbd a168 7cbc
00000070: 71d2 293d 1ca2 ca3c 8a58 b3bd b574 933e
00000080: 2c85 003e 1722 1ebe d172 c43d ea54 253e
00000090: fcd7 8d3d 4874 5d3d ffc4 463b 07ef 7c3d
000000a0: 2ca3 943e 6f58 073e 0df1 dc3d 47fa ea3d
000000b0: 121a 273e fe4c d6bd bf87 cd3b 36a2 2f3e
000000c0: 391c 6bbe 94c8 1cbe 07dd 433e c2a7 2ebe
000000d0: 39a0 babd 35b3 9cbc 0e89 cbbd 9d3a a1bc
000000e0: 386f 51bd f5a5 443e f428 cf3d 94cc e23c
000000f0: 309c c8bd 0947 5dba 2d01 2ebe f4ea 583d
00000100: 405a 673e 8a1a f53d caf5 afbd f078 d7bc
00000110: 5c8b e7bd 0486 6cbd 5e05 053d e890 29bd
00000120: c1b4 09be 9b40 3abe 8df8 19be 799d 48be
00000130: c7de 66be 7145 67be e507 aebe fb6f 9abe
00000140: b444 1cbd 3fa1 7a3c 98b7 923d 44cf 693e
00000150: ece6 e43b 99bc 163e 0483 b63d 2b44 033e
00000160: f1a5 3d3e 1259 033e 97af b4bc a207 91bd
00000170: 9ca9 b6bd e2c1 863c 9840 f63c 6370 fdbc
00000180: d57a 11bd 90b9 54bd 90c7 cb3b abb7 833b
00000190: bae2 6fbd bad3 2ebe 0f77 a43d 6786 edbd
000001a0: acf4 29be 7bbb 99be ea7c c4be f550 08be
000001b0: 1afe 573d 2624 a53d 40c2 3c3d 7eb8 0b3e
000001c0: c186 443e 0301 523e 26dc e03d 98de ae3d
000001d0: c8aa f13d 12cb 50bc 2ce6 123d 3d07 76bc
000001e0: 2c8b 1a3d 7466 49be 63a2 953c f3e0 b4bd
000001f0: af7f d53d e8fc ad3c d203 60bd d56b f23c
00000200: 42f8 553d 0596 a5bb c1f8 3d3d 39c6 d13d
00000210: 37a4 9abd 723c 233c 738b 673d fa64 89bc
00000220: cee3 8bbd 8b3e 2ebd df3b 6cbe cdfd 5bbd
00000230: 961f 5ebd 71bf 66be 3de6 62bb eccc 233d
00000240: 0ca8 1bbd 8ec9 e6bd 01d3 f13d 03e7 963d
00000250: 6c8a 4cbd 8e2c fdbd 00ea b8bd 6906 813c
00000260: f329 2b3e fc28 153d 241f 66be ac97 e0bd
00000270: 2440 ebbd 4b32 98be 30ab 6bbe 3daa e4bc
00000280: 1127 43be 449b 20bd 82c2 b5bc db5c d23b
00000290: 601f 043d ca51 89bd 4dff 23be 3cf9 f0bc
000002a0: e176 2cbc a7e7 be3c e772 803d fca3 18bd
000002b0: 6f2a 9dbd 5581 b5bc 8fa9 38be 20bc 89bd
000002c0: 3d2e dabd 2c6b 143e 4d57 a63d 75bf 333d
000002d0: 98e2 ddbd 2839 743d 3b15 0c3e 0142 f4bc
000002e0: 5010 aebc 9632 6e3d 1ed1 813d 22bb 683b
000002f0: 19d6 83bd 6bae 93be b780 8abe 679b 05bd
00000300: f2ec cebe 16f0 98be d96b adbc e375 abbe
00000310: 2347 9cbe b042 d6bd b0f9 923d 9696 c83c
00000320: 290c 2ebd 052f 473e 6251 f53d 65b9 593b
00000330: faee 623c 34c4 07be 8d2b a5bd 81f0 a53c
00000340: d706 b0bd 77be 00bd 3d8f babc dcae 37be
00000350: 81f8 c0bd 91af 07be cd7d 55be d63a 25be
00000360: ba94 b6be abfa 25bf 2041 9ebe 83d5 d5be
00000370: fc3c 00bf 05d2 c4be 6021 03bf 1deb e2be
00000380: 166f 00be da79 223e e9b6 9f3d ba59 fa3d
00000390: d11e 763e 4ccf 263d 77e4 f33d cfdd e63e
000003a0: 550d 673e dca1 293e 4ad0 ee3d 55f8 b0bc
000003b0: 738d 9e3c b820 f63d ce87 1c3c 9390 da3b
000003c0: baa6 e83d 8386 9b3d 5c87 7e3d c417 15be
000003d0: cbb3 8abd 4141 cf3c 32fa a43d 11ff 913d
000003e0: b5c8 353e 3f57 e03d 4f59 9fbc 0f1b 2c3e
000003f0: 4e55 1cbe deac e1bd 2f1d c1bd d80f 5bbd
-0.08022108 -0.24510884 -0.108446285 -0.022438666 -0.04239059 0.04829361 -0.050404087 -0.28358033
0.07822198 0.07362421 0.21615632 -0.022880135 0.43526882 0.3026616 0.45317784 0.059190735
0.28429714 0.2679981 -0.0108437585 -0.079498865 -0.022760859 -0.058267646 -0.08086471 0.13195612
-0.18827033 -0.032096587 -0.038444445 -0.015405805 0.04146046 0.024735503 -0.08757122 0.28799978
0.12550801 -0.15442692 0.09592212 0.16145673 0.069259614 0.054065973 0.0030329821 0.06175139
0.2903074 0.13217328 0.10788164 0.11473518 0.16318539 -0.10463904 0.0062722857 0.17151722
-0.22959985 -0.1531089 0.19127284 -0.17056182 -0.09112591 -0.019128421 -0.099382505 -0.01968127
-0.051131457 0.19203933 0.10115233 0.027685441 -0.097954154 -0.0008441066 -0.16992636 0.052958444
0.22593021 0.119679525 -0.085918024 -0.026302785 -0.113058776 -0.057744995 0.03247582 -0.04139796
-0.13447858 -0.18188708 -0.15036221 -0.19591321 -0.2254592 -0.22585084 -0.33990398 -0.3016356
-0.038151458 0.015297233 0.07163924 0.22832972 0.006985536 0.14720382 0.08911708 0.12818973
0.18520333 0.12826946 -0.022056384 -0.07081534 -0.08919069 0.016449872 0.030060098 -0.03093738
-0.035517532 -0.05193478 0.006218858 0.0040196977 -0.058565833 -0.17072955 0.08030521 -0.11597901
-0.16597241 -0.3002585 -0.38376552 -0.13312133 0.052732565 0.080635354 0.04608369 0.13644597
0.1919203 0.20508198 0.1097949 0.0853855 0.11800152 -0.012743728 0.03586404 -0.015016374
0.03773038 -0.19667989 0.018265909 -0.08831968 0.10424744 0.02123876 -0.054691143 0.029592434
0.05223871 -0.005053284 0.04637981 0.10242886 -0.07550853 0.009963142 0.056529474 -0.016771782
-0.0683056 -0.042540114 -0.23069714 -0.05370884 -0.05422934 -0.22533967 -0.0034622096 0.03999035
-0.03800206 -0.11268912 0.11807824 0.07368281 -0.049936697 -0.12362014 -0.09029007 0.015750127
0.16715221 0.03641604 -0.22472817 -0.10966429 -0.11486843 -0.2972587 -0.23014522 -0.027913207
-0.19057871 -0.039210573 -0.022187475 0.0064197606 0.032256484 -0.06705053 -0.16015358 -0.02941572
-0.01052639 0.02330382 0.06271916 -0.037265763 -0.07674109 -0.022156397 -0.18033431 -0.06725335
-0.106533505 0.14494008 0.0812212 0.04388376 -0.10834235 0.05962482 0.13679974 -0.02981663
-0.021248013 0.05815371 0.06338714 0.003551193 -0.0643732 -0.28844008 -0.27051327 -0.032618906
-0.4041515 -0.2987067 -0.02116959 -0.33488378 -0.30523023 -0.104619384 0.0717653 0.024485867
-0.042492066 0.1945153 0.11978413 0.0033222076 0.013850922 -0.1325844 -0.08064947 0.020256283
-0.085950546 -0.03143164 -0.02277338 -0.17937797 -0.09422398 -0.13250567 -0.2084877 -0.16135725
-0.35660344 -0.64835614 -0.3090906 -0.4176446 -0.50093055 -0.38441482 -0.512228 -0.44320002
-0.12542376 0.15866795 0.07798559 0.12224145 0.24035193 0.040725037 0.119088106 0.45091102
0.2256368 0.1656565 0.11660822 -0.021602789 0.019354558 0.12017959 0.009553863 0.0066700666
0.113599256 0.075940154 0.062140808 -0.14559847 -0.06772574 0.02529967 0.080555335 0.07128728
0.17752345 0.10954141 -0.019451765 0.16807197 -0.15266916 -0.110193 -0.094293945 -0.053481907

layer1.1.conv2.bias f4 [16]
00000000: 7c94 193c a36a 09bb 5c1d 453b 7d80 d13b
00000010: b48e 03bc 8650 acbb 8900 55bc 4901 51bb
00000020: ebb8 28bb d556 453c fe6d 8d3b d9f0 043b
00000030: 6ebb 94bb fe59 7abb 5664 8939 3b4f 273c
0.00937378 -0.0020968101 0.0030077314 0.006393491 -0.008029629 -0.0052586226 -0.013000616 -0.0031891635
-0.0025744985 0.012044628 0.0043160906 0.0020285158 -0.004538945 -0.0038200612 0.00026205432 0.010211761

layer1.1.bn2.weight f4 [16]
00000000: 3660 8c3f ef19 7c3f b642 873e f184 373f
00000010: 47fa ee3e f0e7 543f 7ded 2d3f 677d 563f
00000020: cacb 183f 4e84 9e3e b2a4 d63e c5f1 453f
00000030: ea31 3c3f c215 313f e0e6 a43e 8cef 433f
1.0966861 0.9847707 0.26418084 0.7168723 0.4667532 0.8316641 0.67940503 0.837851
0.5968596 0.30960315 0.41922528 0.77322036 0.7351366 0.69173825 0.32207394 0.76537395

layer1.1.bn2.bias f4 [16]
00000000: 24c1 15bf 7cff 463e 7502 b53e bf04 313e
00000010: 9208 703e f54f 15be 2b03 edbe 2b45 6d3e
00000020: 9095 383e 1bfa f83d fa14 3f3e 9c6c 26bf
00000030: 87c8 103f 9767 473f 770e 9e3d f493 eabd
-0.58497834 0.19433397 0.35353437 0.17286967 0.2344077 -0.14581282 -0.4629148 0.23170917
0.18025804 0.12157079 0.18660346 -0.65009475 0.5655598 0.7789244 0.07717603 -0.11454001

layer1.1.bn2.running_mean f4 [16]
00000000: ed11 22be fed0 f3bf 022d 57bf f68d e3bd
00000010: 61bd abbf 7126 0b3f 0368 153e c719 e8be
00000020: fa15 373f 22fe 41bf 8ae4 2f3e f30d cfbe
00000030: 65c1 0abf d999 683f ee52 05be d716 b53e
-0.1582715 -1.9048154 -0.8405305 -0.11111061 -1.3417169 0.5435553 0.14590459 -0.45332167
0.7151791 -0.757784 0.17177024 -0.4044033 -0.54201347 0.9085975 -0.13019916 0.35368988

layer1.1.bn2.running_var f4 [16]
00000000: 0cc3 6e3f 2683 ef3f cd8c 063f 8e6b 303f
00000010: 6faa 663f 78c6 a83f 40da 543f 9cce a03f
00000020: 005e 363f b34a 303f c60a 093f dedb 413f
00000030: cfbb b93f 88c0 8f3f 57c7 f83e 198a 463f
0.9326637 1.8711898 0.52558595 0.68914115 0.9010381 1.3185568 0.83145523 1.2563052
0.7123718 0.6886398 0.53532064 0.75726116 1.451044 1.1230631 0.48589584 0.7755447

layer2.0.conv1.weight f4 [32, 16, 3, 3]
00000000: 5764 d7bc 1d18 b9bb 53e8 b63d 11ce 543d
00000010: 567a b33c f9d4 d03d c37d cabc 8a58 ae3a
00000020: e2cc 073d 208d 95be f2ea debd 7cf3 df3d
00000030: 1d31 53be 43fc c3bd 06f9 673e abbe 32be
00000040: c8d0 b73d 2b4c 9a3e d4fb a2bd 5bc5 e1bd
00000050: dc2b eebd 479d a1bd 11ab 6cbd 3e7a b3bc
00000060: 414b 82bc 160e f03b 7d28 463d 44a8 bdbc
00000070: ff91 1cbe 93d6 91bd 8de7 04be fd70 0bbe
00000080: 9d0f 03bd 5f3b cc3b eb4f 91bd 36a4 b33c
00000090: af40 6fbd 9662 88bd 01cd f0bc fd78 a93c
000000a0: cae6 64ba 974e 6c3d 4b66 57bc 0e9e 893d
000000b0: 4acd d53d 9024 69be f7ad 30be d6ea de3d
000000c0: dcc5 d7bd 793b 23bd 4d22 503e b825 24be
000000d0: 8a37 8bbd 8b01 c43d 23a1 153e 642f 57be
000000e0: 0efc 67be 6672 c73c 4ca9 b1be 6a28 10bf
000000f0: 820e cdbd 3b97 e6be 8fde 15bf 4741 303e
00000100: c989 eb3d 808f b73d 73f4 b73d d3b4 ed3d
00000110: 6f3f cdbc 2458 e5bc d881 1d3d 94a8 e6bd
00000120: 0b02 10bc 48d7 e2bd 3111 f1bd f0eb 7dbd
00000130: f67c 22be 782a f0bd 9614 0f3b 1499 19bd
00000140: b1ae 41bd 81eb 383d b79b 97bd dc5e e9bd
00000150: 1dad b53d fe07 9abd 4596 c6bd 8a5b 2f3d
00000160: 92d0 8ebd fa3e bbbd 1751 2e3e 6e26 c93d
00000170: 5c1c f23d 2793 123e 4979 803d 316d 833d
00000180: 99c4 aabb 63c1 ee3c febf 613d 5df0 dcbd
00000190: f4b6 84bd 5c04 833d 4013 9fbd cf34 a53c
000001a0: 2b67 ce3d 04bb 03be f863 5bbd 0548 7c3a
000001b0: 4fa2 18be b3b3 d23b f9dc 373e 8083 f7bd
000001c0: e355 433b 43b7 3a3e 4caa 9fbe 3263 a6bd
000001d0: b671 bf3d 3172 a43e f396 fe3c 4b6f f5bd
000001e0: ab3f 4c3e 1923 81bd 04b8 a8be 59bf e23d
000001f0: 168d 51be ee59 9cbe b07e 003e bb78 0bbe
00000200: 5dd6 75be 19ac 7c3d cb9a 07be a0a7 8abe
00000210: 013d 073e 5ce1 b3bd 58ee 49be ef27 9fbd
00000220: 5f5c d4bc 61d7 f33d b45e 92bd bad2 783d
00000230: 3025 393e 5a6f 99bd f041 133d 2d1c 5d3e
00000240: c1a0 013c 9fb2 f83b f322 1abd 88db 38bd
00000250: 14cb b7bd 080f 95bd ba9f af3d c937 75bc
00000260: 3e41 ad3c 367c bf3d a6fc 10bc f7ca 2dbe
00000270: 87e5 0fbd 196f 52bc 7d7e 36be 6896 83bb
00000280: 7091 5e3d 3be6 12be ef59 92bd f57d 13bd
00000290: 3691 68bc b05e edbd d5a1 b0bd 7778 39be
000002a0: 5794 9bbc 715a 863c f65e 71bd c799 32be
000002b0: 9501 debd cf21 13be eb7b 09be 2131 41bd
000002c0: 3d17 dcbd 63fc eebd 5295 07be 6cad f4bd
000002d0: 153c 133e fe81 653d 1850 9bbd 8230 933e
000002e0: c9df 443e e9f1 ed3d af7d 583e c2ea 513e
000002f0: 6164 6a3e 99a6 013e efb3 803e 7f41 ca3d
00000300: f29f b53d 1ca2 be3e 9ca4 b13e e56c 19bc
00000310: 72a0 203e 5106 7c3e f074 3c3d b22f b33c
00000320: f3d2 38bd 2e7b 99bd 58cf b2bd 9c12 473d
00000330: c2bd 69be 5b4f 10be a7cb dd3c 5df4 843b
00000340: a0e6 b2bd 2b07 f83d 71c5 78be b65a 43be
00000350: e47f ddbd 33da e6bd c3d0 9cbe 9364 aabe
00000360: 404a 1ebd 8490 0dbe 195b 06be 88fc 263c
00000370: 3c00 c2bd ed69 07be a90e 303c 17f3 853c
00000380: 2a9d 27bd b18d 67be a276 f53c 23ba ea3d
00000390: 611b cabd a8fe 813b 1ed6 a93c 2ebd 873c
000003a0: 2b77 993b b64d a0bd 1232 ae3d a05d 40bc
000003b0: da68 34bd 4865 e53d 0cf5 bc3d e6da ba3d
000003c0: 4b04 87bc 47d8 523e af9b 723e bc59 903d
000003d0: 03ef 733d d8d9 4f3d cd26 e73c 4c47 cf3b
000003e0: 0618 c03c a44f 8fbd 76df a5bd baf3 32be
000003f0: f7f9 413e e8c8 d73c 04dd 71be be03 113e
-0.026292963 -0.0056486265 0.08931031 0.051954333 0.02190892 0.10196871 -0.024718171 0.0013301533
0.033154376 -0.29209232 -0.10884656 0.10935113 -0.20624204 -0.095695995 0.22653589 -0.17455547
0.08975369 0.30136237 -0.07958189 -0.11023971 -0.11629459 -0.078913264 -0.05778033 -0.021908876
-0.015905024 0.007325898 0.048378456 -0.023151524 -0.15290068 -0.07121005 -0.12978955 -0.1361732
-0.03199731 0.0062326635 -0.07095321 0.021928888 -0.058411296 -0.06659429 -0.029394628 0.020687575
-0.00087319 0.057692137 -0.013146947 0.067196 0.104395464 -0.22767854 -0.17253862 0.10884635
-0.105357856 -0.03985164 0.20325585 -0.16030014 -0.067977026 0.09570607 0.1461225 -0.21014172
-0.22654745 0.024346542 -0.34699476 -0.56311667 -0.10012533 -0.45037255 -0.5854272 0.17212401
0.1150089 0.08962917 0.08982172 0.11606755 -0.025054662 -0.02799613 0.038453907 -0.112626225
-0.00878955 -0.11076218 -0.11770857 -0.061992586 -0.15867981 -0.1172685 0.0021832339 -0.037499502
-0.04728574 0.04514647 -0.07402747 -0.11395046 0.08870909 -0.07521056 -0.096966304 0.042811908
-0.069733754 -0.09142871 0.17023121 0.09821783 0.11821815 0.14313947 0.06273133 0.06417311
-0.0052114245 0.029144948 0.05511474 -0.10788033 -0.06480208 0.06397316 -0.077673435 0.020166783
0.100782715 -0.1286431 -0.053562135 0.0009623769 -0.14905666 0.006430113 0.17955388 -0.120856285
0.002980583 0.18233971 -0.31184614 -0.08124389 0.093478605 0.3211837 0.031077838 -0.11984118
0.19946162 -0.063055225 -0.32952893 0.11071653 -0.20463976 -0.3053736 0.12548327 -0.13620274
-0.24007554 0.061687563 -0.13242643 -0.27081013 0.13206865 -0.08783218 -0.19719827 -0.077712886
-0.025922952 0.11906315 -0.071469694 0.06074784 0.18080592 -0.07491942 0.035951555 0.2159278
0.007911862 0.0075896527 -0.037630986 -0.045131236 -0.08974281 -0.072782576 0.08575387 -0.0149669135
0.021149274 0.09349863 -0.008849299 -0.16971956 -0.035131004 -0.012843871 -0.17821689 -0.0040157326
0.05433792 -0.14345638 -0.0714606 -0.036008794 -0.014194777 -0.11590326 -0.08624617 -0.1811236
-0.018991632 0.016400548 -0.058928452 -0.17441474 -0.108401455 -0.14368366 -0.13426177 -0.047165994
-0.1074662 -0.11669233 -0.13240555 -0.1194714 0.14378388 0.056032173 -0.07583636 0.28747946
0.19225992 0.11618406 0.21141694 0.20499709 0.22889854 0.12661208 0.25137278 0.09875774
0.08868398 0.37233055 0.346959 -0.009364341 0.15686205 0.24611785 0.046009958 0.021873329
-0.04512305 -0.07494198 -0.08730954 0.04860173 -0.22826293 -0.14092772 0.027074648 0.0040574507
-0.087353945 0.12110742 -0.24294068 -0.19077572 -0.10815409 -0.11272087 -0.30628023 -0.33279857
-0.03864503 -0.1382466 -0.13120688 0.010192044 -0.09472701 -0.13224001 0.010745683 0.016351266
-0.040921368 -0.22612645 0.029963795 0.11461284 -0.09868503 0.003967125 0.020731982 0.0165697
0.0046833954 -0.07827322 0.08505644 -0.011741072 -0.044045307 0.112009585 0.092264265 0.09123783
-0.01648154 0.20590316 0.23692201 0.070483655 0.05955411 0.05074486 0.028216744 0.006325638
0.023448955 -0.06997612 -0.080992624 -0.17475787 0.1894301 0.026340917 -0.23619467 0.14161584

layer2.0.conv1.bias f4 [32]
00000000: cf9e d83b a04a eebb 8967 3c3c a114 f13a
00000010: 5abb af3b 1ed7 0ebc 09e1 efba 99c2 ef3a
00000020: 7abc f6b9 22c3 35bb 8635 f53a 35df 193c
00000030: e201 493a 5ac0 63bc cd9e 1bbc 371f ffbb
00000040: 86e4 26bc ecf2 013c a390 043b d3ff b2bb
00000050: 91cd 01bc 1f86 803c 74cc 983b 3b69 1abc
00000060: 932c 0ebb c127 953a 004b 14bb accb 0a3b
00000070: ed15 833b 9853 febb 86b8 083a 89b2 fbbb
0.0066107283 -0.0072720796 0.011499294 0.0018392989 0.00536291 -0.00871828 -0.0018301319 0.0018292248
-0.00047061202 -0.0027734716 0.0018707968 0.009391596 0.0007667822 -0.013900841 -0.00949831 -0.0077857035
-0.01018632 0.007931452 0.0020227812 -0.0054626255 -0.007922546 0.015688954 0.0046630446 -0.009424503
-0.0021694049 0.0011379645 -0.0022627711 0.0021178527 0.0040004165 -0.00776143 0.00052154844 -0.007681195

layer2.0.bn1.weight f4 [32]
00000000: 1301 583f 3ac5 423f 60d1 803f 3727 4e3f
00000010: 8416 5e3f 1136 563f dbbe 2e3f cf24 493f
00000020: df25 883f 375e 2e3f 277c 3a3f 66e2 713f
00000030: 903b 533f 4399 303f fc5f 353f 1c7f 393f
00000040: 1487 693f 36bf 303f ffa8 653f 16de 6d3f
00000050: 8f90 4f3f 60bd 453f 0cfd 473f 1110 5e3f
00000060: 010c 2f3f 2e7c 2f3f 6ce5 5d3f 5be3 503f
00000070: 140c 613f a77e 5e3f 6237 703f 143a 553f
0.8437664 0.76082194 1.0063896 0.8052859 0.86753106 0.8367625 0.6825997 0.7857179
1.0636557 0.6811251 0.7284569 0.9448608 0.8251276 0.6898386 0.70849586 0.7245958
0.9122174 0.69041765 0.8971099 0.92917 0.81079954 0.7724209 0.78120494 0.86743265
0.6837769 0.6854886 0.86678195 0.81596917 0.87909055 0.86912006 0.9383451 0.83291745

layer2.0.bn1.bias f4 [32]
00000000: 599a 35be e7ea 80be 058c 4dbe af56 d5bd
00000010: 34ed 24be 8fa4 cbbd 87bc c2bd d8dc 42be
00000020: e840 a7bd 3410 abbd 5cd1 3cbe c437 48be
00000030: d4ce d8be 164d 7abd 884d c53d 06e1 1abe
00000040: 3296 71be 0397 34be 52cd 73bd 63c4 72be
00000050: 0a63 7bbe 0997 8dbe 9af6 45bd df94 a0bd
00000060: a947 0bbe d650 b93e 154d 55be 907b 2abe
00000070: e78f 10bd 5bd3 31be 9aaf 69be 9dde 83be
-0.1773466 -0.25179216 -0.20072944 -0.10416924 -0.16106111 -0.099434964 -0.09508615 -0.19029558
-0.08166677 -0.083527 -0.1843924 -0.19552523 -0.42345297 -0.06110867 0.096339285 -0.15124902
-0.23592451 -0.17635731 -0.05952198 -0.23707728 -0.24549499 -0.27654293 -0.04833088 -0.07840895
-0.13601555 0.36194485 -0.20830186 -0.16648698 -0.035293486 -0.17365782 -0.22820893 -0.25755778

layer2.0.bn1.running_mean f4 [32]
00000000: 8afc 72c0 2543 b83f 1b5f f63f 4379 a9c0
00000010: e303 d6bf 662d a7bf a554 05c0 d00d 9cc0
00000020: 24af 903f 6174 0cbf 1a92 393f de73 efbf
00000030: 2829 c4c0 3b4b 1ac0 17bb ebbf e3f6 b4c0
00000040: 3fe9 aabf 08b7 a03e 77f8 a3bf 5f31 3240
00000050: aea8 07c0 7e17 e73f 9093 50bf a5e8 86bf
00000060: a367 0dc0 da33 a8c0 2509 7dc0 a6fd eac0
00000070: c113 98c0 75a6 ef3d 83a6 3cbf 6818 39c0
-3.7966638 1.4395491 1.9247774 -5.2960525 -1.6719936 -1.306073 -2.0832913 -4.876686
1.1303449 -0.5486508 0.7248856 -1.8707235 -6.130024 -2.4108417 -1.841647 -5.6551375
-1.3352431 0.31389642 -1.28102 2.7842634 -2.1196704 1.8054044 -0.8147516 -1.0539747
-2.2094505 -5.2563295 -3.9536831 -7.343463 -4.7524114 0.11701671 -0.73691577 -2.8921146
