Output/swift-iid-8W-linear-shark-ring-2sgd-100epochs/r6-epoch_46-parameters.pt (torch, 731450 bytes, 92 tensors)

conv1.weight f4 [16, 3, 3, 3]
0	0x3f034acd	0.5128601
1	0x3e340eb1	0.1758373
2	0x3ef01232	0.46888882
3	0xbe995cf9	-0.29953745
4	0x3fa25476	1.2682025
5	0xbf40f0b2	-0.7536727
6	0xbe84e75f	-0.25957772
7	0xbf396b16	-0.72429025
8	0xbf12b096	-0.573007
9	0x3d2efd6e	0.042722158
10	0xbe11a9ec	-0.14224976
11	0xbd539a08	-0.051660568
12	0xbe95fc52	-0.29294068
13	0x3fd60998	1.6721678
14	0xbf34f936	-0.70692766
15	0xbd497a16	-0.049188696
16	0xbdcc0e49	-0.09963662
17	0xbe06bd22	-0.13158086
18	0xbeae307c	-0.34021366
19	0xbf3eee2f	-0.7458219
20	0xbdcfa8b4	-0.101395994
21	0xbe435b40	-0.19077778
22	0x3fa2bfa2	1.2714732
23	0xbe1e832d	-0.15479727
24	0x3dbfe66d	0.09370122
25	0x3eae44b7	0.340368
26	0x3e2c6ec6	0.16839132
27	0xbd7a3842	-0.061088808
28	0xbe2b220f	-0.16712211
29	0x3e4eff92	0.2021468
30	0xbe2b309e	-0.16717765
31	0xbf22e4b5	-0.6363023
32	0xbd8052c6	-0.06265788
33	0x3e044fab	0.12921016
34	0xbe43a03a	-0.1910409
35	0x3dc01680	0.093792915
36	0xbd744188	-0.059632808
37	0xbe7011c9	-0.23444284
38	0x3e26c062	0.16284326
39	0xbeb27531	-0.34855035
40	0xbf316892	-0.69300187
41	0xbe17c8c5	-0.14822681
42	0xbd7e9c2a	-0.06216065
43	0xbe953697	-0.2914321
44	0xbbbf60fc	-0.005840419
45	0x3e7b3120	0.24530458
46	0x3dbb8695	0.09156529
47	0x3e80e517	0.25174782
48	0x3ce207e2	0.02759165
49	0xbe6faac5	-0.23404987
50	0xbd1a2436	-0.03763219
51	0x3dce022a	0.100590065
52	0xbd6645d2	-0.05621893
53	0x3cd0d836	0.025493722
54	0xbda5c87c	-0.0809488
55	0x3cd13160	0.02553624
56	0xbd9fe6e1	-0.078077085
57	0xbdc93cf4	-0.09826079
58	0xbd1bd680	-0.03804636
59	0xbde54985	-0.11195663
60	0xbd94c8f8	-0.07264894
61	0xbe401618	-0.18758428
62	0xbdb52561	-0.0884502
63	0xbe783b05	-0.24241264
64	0x3e02120c	0.12702197
65	0xbe1959b2	-0.14975622
66	0xbc3ec0e3	-0.011642667
67	0x3e91a8fb	0.28449234
68	0x3d493743	0.049124967
69	0xbe22930b	-0.15876405
70	0xbc891b81	-0.016736748
71	0xbd8b9397	-0.0681526
72	0xbdfbd088	-0.122956336
73	0x3eaa8f17	0.33312294
74	0xbdf011ea	-0.11722167
75	0x3ebcda41	0.36885265
76	0x3f50fd8a	0.8163687
77	0x3f0a26a0	0.5396519
78	0x3e0eeec8	0.13958275
79	0x3ecdacda	0.40170938
80	0x3e73c53c	0.23805708
81	0x3ed98c4d	0.42489854
82	0xbe628a55	-0.22123082
83	0x3ca5e7ed	0.020252192
84	0x3d74eed7	0.059798088
85	0xbf7146ef	-0.9424886
86	0xbeb66eca	-0.356314
87	0xbde28ab9	-0.110616155
88	0xbe8c010b	-0.27344546
89	0xbdfbd592	-0.12296595
90	0x3e478ca7	0.19487248
91	0xbe4b2437	-0.19838034
92	0x3e79ad0b	0.24382417
93	0x3ddb30b9	0.107026525
94	0xbf23937d	-0.63896924
95	0x3d859573	0.06522646
96	0x3e9daa48	0.30793977
97	0x3ea14031	0.31494287
98	0x3ee0d349	0.43911198
99	0xbce4813b	-0.027893653
100	0xbe7d48ff	-0.24734877
101	0xbd73f542	-0.059560068
102	0x3cd1a277	0.025590165
103	0xbf09d633	-0.5384247
104	0xbdd27c0d	-0.10277567
105	0x3e2c6ae4	0.1683765
106	0x3d9fd7ce	0.07804833
107	0x3e317724	0.17330605
108	0x3c9456f6	0.018107872
109	0xbe2b80c5	-0.1674834
110	0xbe65c849	-0.22439684
111	0x3da7c0ba	0.081910565
112	0xbd6946e9	-0.05695239
113	0xbda8b128	-0.08236915
114	0x3e7915bc	0.24324697
115	0x3e62239d	0.22083898
116	0x3d2afb4f	0.041743573
117	0x3dbb5c85	0.09148506
118	0xbe443810	-0.19162011
119	0xbe99d33a	-0.30043966
120	0x3e27b5cf	0.16377948
121	0x3d173ba2	0.036922105
122	0xbd831c46	-0.06401877
123	0x3ec93d07	0.39304373
124	0x3e8d3123	0.2757655
125	0x3da04c09	0.078270026
126	0xbdcfd033	-0.10147133
127	0xbe1e79fd	-0.15476222
128	0xbe64ee63	-0.22356562
129	0xbe3264de	-0.1742129
130	0xbea42d7c	-0.32065952
131	0xbeb3089e	-0.34967512
132	0xbdc3f583	-0.09568312
133	0xbe8a197d	-0.2697257
134	0xbec6e791	-0.38848546
135	0xbe84dc9b	-0.2594956
136	0xbd2d862c	-0.042364284
137	0x3cfd0384	0.030885465
138	0x3f9334d9	1.1500503
139	0x3e9ff774	0.3124348
140	0xbf489492	-0.783517
141	0x3ee90647	0.45512602
142	0x3e09ddbc	0.13463491
143	0xbe36826c	-0.1782319
144	0x3ed3ef9c	0.41393745
145	0xbe87bf8d	-0.2651333
146	0xbee1805b	-0.4404324
147	0x3fb24136	1.3926151
148	0xbe9c9318	-0.30580974
149	0xbfc5f5b5	-1.5465609
150	0x3ef2a9c4	0.47395146
151	0xbe834f96	-0.25646657
152	0xbf0891b5	-0.5334733
153	0x3ef20979	0.47272852
154	0x3de1f0ba	0.11032243
155	0xbdab6662	-0.08369137
156	0x3f954fa3	1.1664928
157	0xbcda4ad0	-0.026647002
158	0xbf878ca2	-1.0589793
159	0x3ef343f5	0.47512785
160	0xbe07f0e3	-0.13275485
161	0xbec1f1b4	-0.37879717
162	0x3f412bc2	0.75457394
163	0x3f765a7c	0.9623182
164	0x3f1c1327	0.60966724
165	0x3e28cf8d	0.16485424
166	0xbf004d76	-0.50118196
167	0xbe5ad402	-0.21369937
168	0xbdd74f8b	-0.105132185
169	0xbf72382e	-0.94616973
170	0xbecf6255	-0.4050471
171	0x3ef53777	0.4789388
172	0x3f48922c	0.7834804
173	0x3f0b0c7e	0.54315937
174	0x3c7f69d7	0.015589199
175	0xbf12c5bd	-0.57332975
176	0xbe1eb3ab	-0.15498225
177	0xbd728f8d	-0.059218932
178	0xbf32ea20	-0.69888496
179	0xbdcd514d	-0.100252725
180	0x3de14faa	0.11001523
181	0x3ec8d51b	0.39225087
182	0x3e637563	0.22212748
183	0xbdf1c3ee	-0.11804949
184	0xbf1388da	-0.57630694
185	0xbe541d3a	-0.20714274
186	0xbd356991	-0.04429013
187	0xbf00a3c9	-0.50249916
188	0x3e2e53b3	0.17024116
189	0x3e333c3b	0.17503445
190	0x3e8d34d2	0.2757936
191	0x3d65bce3	0.05608834
192	0x3f1fae85	0.6237567
193	0x3f4aec3f	0.7926673
194	0x3f0cfcc8	0.55073214
195	0xbecc9505	-0.39957443
196	0xbf513c38	-0.8173251
197	0xbf16ce86	-0.5890888
198	0x3e773eb3	0.24145012
199	0x3ecbf834	0.398378
200	0x3eb5fcd6	0.3554446
201	0x3e9220d9	0.28540686
202	0x3ed833fb	0.42227158
203	0x3ede1b91	0.43380406
204	0xbf3151ea	-0.69265616
205	0xbf81046c	-1.0079474
206	0xbf10869a	-0.56455386
207	0x3e19e4ca	0.15028682
208	0x3d527441	0.0513804
209	0x3d8d2163	0.06891134
210	0x3eb03bbb	0.3442057
211	0x3ee416a1	0.44548514
212	0x3ea13a93	0.3149
213	0xbee12d8a	-0.43980056
214	0xbf18f45d	-0.5974787
215	0xbed3c4a4	-0.41360962
216	0xbd672cc6	-0.056439184
217	0x3a252e71	0.0006301171
218	0xbe2b4077	-0.1672381
219	0x3ea397e9	0.31951836
220	0x3f3a4f87	0.727776
221	0x3ecca4b6	0.39969414
222	0x3eaaaea2	0.3333636
223	0x3f2acb14	0.6671612
224	0x3e8930c4	0.26795018
225	0xbe516d93	-0.20451955
226	0xbe17c06a	-0.14819494
227	0xbebb1862	-0.3654204
228	0xbdb8b5ba	-0.090190366
229	0x3e099ff9	0.13439931
230	0xbdb5dd78	-0.088801324
231	0xbe078808	-0.13235486
232	0x3d5e73fd	0.054309834
233	0xbc84d797	-0.016216082
234	0x3eba9bc8	0.36446977
235	0x3ee3ecee	0.445167
236	0x3de79b60	0.11308932
237	0x3db4f708	0.0883618
238	0x3d125b70	0.035731733
239	0xbdea7772	-0.11448564
240	0xbe2dc521	-0.1696973
241	0xbe8bebe4	-0.27328408
242	0xbe8f134c	-0.2794441
243	0xbdbbf292	-0.09177126
244	0xbea8a64f	-0.32939383
245	0x3d29536f	0.041339334
246	0xbeeb8ecd	-0.46007386
247	0xbf47228e	-0.777871
248	0xbf27e2cc	-0.6558044
249	0xbeb15d3a	-0.3464144
250	0xbf5484d4	-0.8301518
251	0xbf0f75b6	-0.5603899
252	0x3ca41652	0.020030174
253	0x3db30ed5	0.08743063
254	0x3e4f1511	0.2022288
255	0x3df614d7	0.12015694

conv1.bias f4 [16]
0	0xbcbcfa51	-0.023068579
1	0xbc6fc273	-0.014633763
2	0xbc8586ec	-0.016299687
3	0x3cf7d08a	0.030250806
4	0x3ce4ab28	0.027913645
5	0xbd04af5a	-0.03239379
6	0xbacbf50d	-0.0015560702
7	0x3bfe6f73	0.0077647506
8	0xbcca42ae	-0.024689998
9	0xbd0631f9	-0.0327625
10	0xbc15d5c3	-0.009145203
11	0xbc75691d	-0.014978674
12	0xbc48dbfe	-0.0122594815
13	0x3cc8fc6c	0.024534427
14	0x3bce2d2b	0.0062920055
15	0xbcb7cdd6	-0.022437017

bn1.weight f4 [16]
0	0x3f7308e1	0.94935423
1	0x3f938d48	1.1527491
2	0x3f39e2da	0.72611773
3	0x3f95d440	1.1705399
4	0x3f344aee	0.70426834
5	0x3f7c368d	0.9852074
6	0x3f902b34	1.1263185
7	0x3f597763	0.84947795
8	0x3f5d1bc7	0.8637051
9	0x3f1cceb7	0.6125292
10	0x3f622a8d	0.8834618
11	0x3f335a10	0.700593
12	0x3f365177	0.71218055
13	0x3f45b591	0.77230173
14	0x3f64eca7	0.894236
15	0x3f3fe16c	0.7495334

bn1.bias f4 [16]
0	0x3fa1b626	1.2633712
1	0xbf10f1c0	-0.5661888
2	0x3dbafa1a	0.09129734
3	0xbe894ddc	-0.26817214
4	0xbe52a44e	-0.2057049
5	0x3f216bfa	0.63055384
6	0x3d64ff5d	0.055907596
7	0x3f434e62	0.7629148
8	0xbdb3edde	-0.08785604
9	0x3ee3a670	0.4446292
10	0xbd701443	-0.058613073
11	0x3ef76b4c	0.4832405
12	0x3e50e385	0.20399292
13	0x3efa97f2	0.4894405
14	0x3e1e29c4	0.1544562
15	0x3f03921c	0.5139482

bn1.running_mean f4 [16]
0	0xbe832008	-0.25610375
1	0x3f3173d3	0.6931736
2	0xbefa8f41	-0.4893742
3	0x3ef63fc1	0.48095515
4	0x3eb84402	0.35989386
5	0xbcf9619c	-0.030442052
6	0x3e1778b5	0.1479214
7	0xbe71d2e1	-0.236156
8	0xbf225f43	-0.6342661
9	0x3e1579f3	0.14597301
10	0x3ecda29f	0.40163133
11	0xbc967e5e	-0.018370803
12	0xbdbfc356	-0.09363429
13	0xbe48ddfb	-0.19615929
14	0x3d9d31a2	0.07675482
15	0xbe158b42	-0.14603904

bn1.running_var f4 [16]
0	0x40835d89	4.105168
1	0x4109669d	8.587552
2	0x40e7334b	7.2250113
3	0x40ac8de9	5.392323
4	0x40a7bb8a	5.241643
5	0x41c39248	24.446426
6	0x417d3aa9	15.826821
7	0x418b345a	17.400562
8	0x40d9f5f9	6.811276
9	0x40dd1eaf	6.9099956
10	0x40947330	4.639061
11	0x41113507	9.075446
12	0x403b8081	2.9297183
13	0x40b46fe7	5.63866
14	0x4091c09b	4.5547614
15	0x408388c7	4.1104465

layer1.0.conv1.weight f4 [16, 16, 3, 3]
0	0x3dd35336	0.103186056
1	0x3e81b800	0.25335693
2	0xbdbe6eb5	-0.092984594
3	0xbe918446	-0.2842123
4	0x3f07d105	0.53053313
5	0xbe81c1d8	-0.25343204
6	0xbe60090f	-0.21878456
7	0xbc306e66	-0.010768509
8	0xbe8e490e	-0.2779011
9	0xbda8f409	-0.08249671
10	0x3db61314	0.088903576
11	0x3c8eeff6	0.017448407
12	0xbd8bfe7e	-0.0683565
13	0xbcbf5420	-0.023355544
14	0x3c875658	0.016520664
15	0xbda0721c	-0.07834265
16	0x3be0c3aa	0.0068592625
17	0x3de77f32	0.113035575
18	0xbc273fe7	-0.010208107
19	0x3d41f592	0.047353335
20	0xbde3a889	-0.1111613
21	0x3c674a39	0.014116817
22	0x3d8fb9d4	0.07017866
23	0xbdda57e7	-0.10661297
24	0xbdaa00aa	-0.08300908
25	0xbd9bdbfa	-0.076103166
26	0xbddb2e79	-0.10702223
27	0xbc1c833e	-0.009552775
28	0x3b760e78	0.0037545245
29	0xbd8bd9ab	-0.06828626
30	0xbddcacc7	-0.10775142
31	0xbe25df1b	-0.16198389
32	0xbe5b8304	-0.21436697
33	0x3b856831	0.0040712585
34	0x3cf7de92	0.030257497
35	0x3cf0816c	0.029358588
36	0xbe2ac54c	-0.16676825
37	0xbe3ed694	-0.18636543
38	0xbe0ebd78	-0.13939464
39	0xbd85de15	-0.065364994
40	0xbdcc9a59	-0.09990377
41	0xbe18e37e	-0.14930531
42	0xbcac1e9c	-0.02101069
43	0x3cbc10a2	0.02295715
44	0x3c72ee05	0.014827256
45	0xbedd5dee	-0.43235725
46	0xbe424697	-0.1897224
47	0x3cfeb3c9	0.031091588
48	0xbebcc55a	-0.36869317
49	0xbe2c5785	-0.16830261
50	0x3e956981	0.29182056
51	0x3e064702	0.13113025
52	0xbd95182a	-0.072799996
53	0x3d0bde27	0.034147408
54	0xbc6bc6ef	-0.014390691
55	0xbe6c2d02	-0.23064044
56	0xbe150995	-0.14554437
57	0xbdfea77d	-0.124342896
58	0xbea9d9bc	-0.3317393
59	0xbdab59d3	-0.08366742
60	0x3d152aac	0.03641765
61	0xbe6f14fd	-0.2334785
62	0xba2f1636	-0.000667903
63	0x3d2b22af	0.041781124
64	0xbe8b18d3	-0.27167377
65	0xbd2a65aa	-0.04160086
66	0x3e8bf7ce	0.27337497
67	0x3e36f0e4	0.1786533
68	0x3e6a33e4	0.22871357
69	0x3ed7fdcd	0.42185822
70	0x3d8dd9ac	0.06926283
71	0x3dcb3a28	0.09923202
72	0xbe5ad7fa	-0.21371451
73	0x3cef014a	0.02917542
74	0x3c2aa8ab	0.01041619
75	0xbd19a2cd	-0.037508775
76	0x3e412aed	0.18864031
77	0x3e0d5c9f	0.13804863
78	0xbd9ce894	-0.07661548
79	0x3d94de65	0.07268981
80	0x3d954c92	0.07289995
81	0x3e193ec7	0.14965354
82	0x3e4b6520	0.19862795
83	0x3dd0c44f	0.10193693
84	0x3d817cb0	0.063226104
85	0x3da1f6e4	0.07908419
86	0xbd9458d6	-0.072435066
87	0x3ca21716	0.019786399
88	0xbd8083b2	-0.06275119
89	0xbe0a89fc	-0.135292
90	0x3cd011b7	0.025399072
91	0x3e1a66a2	0.15078214
92	0x3dbc14f9	0.09183688
93	0xbb6f767a	-0.0036539123
94	0x3d6ed502	0.05830861
95	0x3da82574	0.082102686
96	0xbca6ac17	-0.02034573
97	0x3d32e1da	0.04367242
98	0x3d4d6f45	0.050154943
99	0x3d644b4b	0.055735867
100	0xbe93b811	-0.2885137
101	0xbe605e6c	-0.21911019
102	0x3e5f72d8	0.21821153
103	0xbe6a908c	-0.22906703
104	0xbed12e4e	-0.4085564
105	0x3c244f3c	0.010028657
106	0xbe88f884	-0.26752102
107	0xbe565262	-0.20929864
108	0xbd74be38	-0.05975172
109	0xbe478d59	-0.19487514
110	0xbd1fadd5	-0.03898414
111	0x3dedc6ab	0.116101585
112	0x3dca64a4	0.09882477
113	0x3cc64bf9	0.024206148
114	0x3db328f1	0.08748043
115	0x3e35b3c7	0.17744361
116	0x3db98350	0.09058249
117	0x3d11507c	0.035477147
118	0x3f0fade9	0.5612474
119	0xbe232462	-0.15931848
120	0xbc42c418	-0.011887573
121	0x3edce17d	0.43140784
122	0xbe555587	-0.20833407
123	0xbe8312f5	-0.256004
124	0xbea16776	-0.31524247
125	0xbecbcc1f	-0.3980417
126	0xbd283bf9	-0.04107282
127	0x3ca24b41	0.019811274
128	0x3d19a6d8	0.03751263
129	0xbe0fb566	-0.14034042
130	0xbe1f2f3b	-0.1554536
131	0xbde6d050	-0.11270201
132	0xbba9c737	-0.005181219
133	0xbdba56ce	-0.09098588
134	0xbcbec149	-0.023285525
135	0x3e68b4ae	0.22725174
136	0xbe6499ab	-0.22324245
137	0xbe035d4a	-0.12828556
138	0x3e93fa1c	0.28901756
139	0xbd0a93d2	-0.03383238
140	0xbe9d353d	-0.3070468
141	0xbc3b98a4	-0.011449967
142	0xbea826be	-0.32842058
143	0xbe8ea35c	-0.27859008
144	0x3e17294e	0.1476185
145	0x3d7a9584	0.061177745
146	0x3c5a0a32	0.013308095
147	0x3d1a55ab	0.037679356
148	0xbde60d29	-0.11232979
149	0xbdd0505d	-0.10171578
150	0x3e1536dc	0.14571708
151	0xbc995631	-0.018717857
152	0xbd0a7e53	-0.03381188
153	0x3df95786	0.12174897
154	0x3e38f705	0.1806298
155	0x3d4bcc57	0.04975542
156	0x3e8827a8	0.26592755
157	0x3ea92e2e	0.33043045
158	0x3e57c031	0.21069409
159	0x38ee6892	0.00011368202
160	0x3dbb6e8b	0.09151944
161	0xbd761368	-0.0600771
162	0x3db6a210	0.0891763
163	0x3d3a644d	0.04550581
164	0x3d097e40	0.033567667
165	0x3db8a807	0.09016424
166	0x3d4dd8db	0.050255638
167	0x3d7d8f5b	0.061904293
168	0x3e103d8b	0.14085977
169	0x3dd45768	0.10368234
170	0x3da66654	0.08124986
171	0x3dc1107e	0.09426974
172	0x3e2f46cd	0.17116852
173	0x3d9168cb	0.07100066
174	0x3edd8729	0.43267182
175	0x3ed82764	0.42217553
176	0x3ea2f1f0	0.3182521
177	0x3d30f216	0.04319962
178	0x3d6e411e	0.05816757
179	0xbd3c7af8	-0.04601571
180	0x3cfa4e04	0.030554779
181	0x3cdc0e07	0.026862158
182	0x3d044556	0.032292686
183	0x3e5e9d4e	0.21739694
184	0x3e5cece4	0.21574742
185	0x3e5c3d24	0.21507698
186	0x3e46d0a3	0.19415526
187	0x3e3f8938	0.18704689
188	0x3e3c587c	0.18393129
189	0xbdaf050f	-0.08545887
190	0xbdb46606	-0.08808522
191	0xbda35aa2	-0.07976271
192	0xbc8eb585	-0.01742054
193	0xbcf9b606	-0.030482303
194	0xbd20cbc3	-0.039256822
195	0xbc6b5656	-0.014363846
196	0xbc818aca	-0.01581325
197	0xbdefa08c	-0.11700544
198	0x3d782e9c	0.060591325
199	0x3d4b9419	0.049701784
200	0xbd7105ae	-0.058843307
201	0x3dacb49a	0.084328845
202	0x3de701e1	0.11279655
203	0x3d8de8f4	0.06929198
204	0x3db21d74	0.08697024
205	0x3dd9b765	0.10630683
206	0x3c800e4b	0.015631815
207	0x3c47dfac	0.012199324
208	0xbd228fd6	-0.039687954
209	0xbdaf4b61	-0.08559299
210	0x3b720325	0.0036928144
211	0xbc279e3a	-0.010230595
212	0xbccc7ac2	-0.02496088
213	0x3dab2045	0.08355764
214	0x3d8701ed	0.06592164
215	0x3d2f25ea	0.042760767
216	0xbd919b33	-0.0710968
217	0xbd1189e5	-0.035531897
218	0xba88793d	-0.0010412108
219	0x3d365b74	0.04452081
220	0x3daffc81	0.08593083
221	0x3d894cef	0.06704127
222	0x3df4e867	0.1195839
223	0x3de31671	0.11088265
224	0x3dd5f814	0.10447708
225	0x3dbf3fe5	0.09338359
226	0x3d2aca0c	0.041696593
227	0x3c41ee36	0.011836579
228	0x3d2dbd5b	0.04241691
229	0xbcfc2c78	-0.030782923
230	0xbd5474d4	-0.05186923
231	0x3dd76beb	0.105186306
232	0x3d5155c9	0.0511072
233	0x3c9b1611	0.01893142
234	0x3d46fe13	0.048582148
235	0x3e0ee49f	0.139544
236	0x3d44f60b	0.048086207
237	0x3e7cba1c	0.2468037
238	0x3eb0e1c4	0.34547246
239	0x3e9c5271	0.30531648
240	0x3c406b0f	0.011744275
241	0x3df6ceb8	0.12051147
242	0x3dbdc121	0.09265352
243	0xbab2bed2	-0.0013637191
244	0x3d434d59	0.047681186
245	0xbd472e90	-0.04862839
246	0x3c03818f	0.008026495
247	0x3e06e377	0.13172708
248	0x3c88e8f4	0.016712643
249	0x3af4adbe	0.0018667502
250	0x3d92ef75	0.07174579
251	0xbcc03dcb	-0.023466965
252	0xbe3ca83c	-0.18423551
253	0xbe29b319	-0.16572227
254	0xbdea22a5	-0.11432389
255	0xbcb1ad6e	-0.021689143

layer1.0.conv1.bias f4 [16]
0	0x3b0954b7	0.0020955035
1	0xbc1d7451	-0.0096102515
2	0xbb839cc4	-0.0040164907
3	0x3b197950	0.0023418255
4	0xbc45e1a9	-0.012077727
5	0xbc2edb6c	-0.010672431
6	0x3af161b1	0.0018415955
7	0xbb834b42	-0.004006774
8	0x3bb127f4	0.005406374
9	0xbb7a3f93	-0.0038184866
10	0x3bd759b2	0.006571972
11	0x3b26e3d2	0.0025465381
12	0xbc64938c	-0.013951194
13	0x3b399b48	0.0028321315
14	0x3c30c705	0.010789637
15	0xbbc8554e	-0.0061136847

layer1.0.bn1.weight f4 [16]
0	0x3f637523	0.8885061
1	0x3f675d71	0.90376955
2	0x3f61d420	0.882143
3	0x3f31fd69	0.695273
4	0x3f850003	1.0390629
5	0x3f1770f2	0.59156716
6	0x3f12dc61	0.5736752
7	0x3f863fca	1.0488217
8	0x3f2e9eee	0.6821126
9	0x3f550467	0.8320984
10	0x3f474648	0.77841616
11	0x3f2ebea2	0.6825963
12	0x3f871e01	1.0556031
13	0x3f5b132f	0.85576147
14	0x3f19bf43	0.6005747
15	0x3f2c7cc7	0.67377895

layer1.0.bn1.bias f4 [16]
0	0x3ecd3dfb	0.4008635
1	0xbefeb00b	-0.49743685
2	0xbf17b9b4	-0.59267735
3	0x3e86ef73	0.2635456
4	0xbe7c4d1f	-0.24638794
5	0xbdaa0250	-0.08301222
6	0x3d7f53b8	0.0623357
7	0x3f918cc7	1.1371087
8	0xbe6a73ca	-0.22895733
9	0xbf066d90	-0.5251093
10	0xbdbdaa28	-0.0926097
11	0x3e7e9e49	0.24865068
12	0x3f1aafb1	0.60424334
13	0x3e2e8518	0.17042959
14	0xbc46be54	-0.012130339
15	0xbec79caf	-0.38986728

layer1.0.bn1.running_mean f4 [16]
0	0xbfffbae5	-1.9978911
1	0x40284972	2.6294827
2	0xbf1c42b8	-0.61039305
3	0xbf9e4ded	-1.2367531
4	0x3dc48fe0	0.095977545
5	0xc0365c85	-2.849397
6	0x3fda3a5a	1.7049057
7	0xbfe30795	-1.7736689
8	0xc02a3908	-2.659731
9	0xbfffa8ec	-1.9973426
10	0xc075a835	-3.8383915
11	0xbfdf094a	-1.742471
12	0xc03aead6	-2.9205832
13	0xbfdaad7b	-1.7084192
14	0xbeb38750	-0.35064173
15	0x3f22b0ce	0.6355103

layer1.0.bn1.running_var f4 [16]
0	0x40b54d3f	5.6656795
1	0x404f4d50	3.2390938
2	0x40227f81	2.5390322
3	0x40815eb0	4.0428085
4	0x40af6376	5.480891
5	0x4013dddf	2.310417
6	0x40852664	4.1609364
7	0x4031e8f4	2.7798433
8	0x40154928	2.33259
9	0x3fd7ed1b	1.6869234
10	0x40cbeea9	6.3728833
11	0x40265d6a	2.5994515
12	0x40cd5334	6.4164066
13	0x407b815d	3.9297707
14	0x3fc74b02	1.5569766
15	0x3fd48ef9	1.6606132

layer1.0.conv2.weight f4 [16, 16, 3, 3]
0	0xbdcc92df	-0.09988951
1	0xbdcc7d9e	-0.09984897
2	0xbcf7739f	-0.0302065
3	0xbe1f84bb	-0.15577976
4	0x3e220e4e	0.1582577
5	0x3c9ffa9c	0.01952868
6	0xbe1d9418	-0.15388525
7	0xbe0daf61	-0.13836433
8	0x3dcda9c9	0.100421496
9	0x3d1fd085	0.03901722
10	0xbdaac38c	-0.08338079
11	0xbe61669f	-0.22011803
12	0x3e69d4e8	0.22835124
13	0x3dc28e7a	0.094998315
14	0x3c823568	0.015894607
15	0x3cd8ee48	0.026480809
16	0xbcc5dd63	-0.024153417
17	0xbe1715e7	-0.14754449
18	0xbe051b51	-0.12998702
19	0x3cb601db	0.022217682
20	0xbdf04534	-0.117319494
21	0xbdecdf96	-0.11566083
22	0xbd2e7f9f	-0.042602178
23	0x3d5446a1	0.05182517
24	0xbea58c42	-0.3233357
25	0xbdbd539b	-0.09244462
26	0xbdd118d2	-0.10209812
27	0x3e54653a	0.2074174
28	0x3e0b7e0d	0.13622303
29	0x3e368492	0.17824009
30	0x3cc6a8b5	0.024250368
31	0x3cc0b969	0.02352591
32	0xbd31ae84	-0.04337932
33	0x3d224bd2	0.03962309
34	0xbca41c05	-0.020032892
35	0xbe28756b	-0.16451041
36	0xbe433ba5	-0.19065721
37	0xbe7e1167	-0.24811326
38	0xbd858ea7	-0.065213494
39	0xbda26a89	-0.07930476
40	0xbded8392	-0.11597361
41	0xbd8c304d	-0.0684515
42	0xbe34c678	-0.17653835
43	0x3dc3396e	0.09532438
44	0x3ba09255	0.0049002566
45	0xbd36b5d7	-0.04460701
46	0x3e2257c3	0.15853791
47	0x3de6e663	0.112744115
48	0xbc7cab3b	-0.015421684
49	0x3d2cc9cb	0.042184632
50	0x3d2836ec	0.041068003
51	0x3e0d6a58	0.13810098
52	0xbb94852f	-0.0045324783
53	0xbd929441	-0.071571834
54	0xbca18065	-0.019714544
55	0xbcc4b120	-0.024010241
56	0xbde06038	-0.10955852
57	0xbddd3eb7	-0.108029775
58	0xbdbbd89e	-0.09172176
59	0xbd989657	-0.0745055
60	0x3de3c373	0.11121263
61	0x3d0db4ca	0.034596242
62	0x3e582ecc	0.21111602
63	0xbe0ba721	-0.13637973
64	0xbf0d4b77	-0.55193275
65	0x3ee5d71c	0.44890678
66	0xbec1223f	-0.3772144
67	0x3f3acf18	0.7297225
68	0x3d4c6cb8	0.04990837
69	0xbd898be1	-0.06716133
70	0xbf0fda91	-0.5619288
71	0xbcc14c14	-0.023595847
72	0x3da30625	0.07960156
73	0xbccec61b	-0.025240948
74	0xbe044ac1	-0.12919141
75	0x3d3d3a4c	0.046198174
76	0xbdbdedbd	-0.092738606
77	0xba6a2f45	-0.00089334353
78	0x3d0d4cbe	0.034497015
79	0xbd5cc45a	-0.053898193
80	0xbce2975f	-0.02766007
81	0xbe600aed	-0.21879168
82	0x3d80941f	0.06278252
83	0x3c12d753	0.00896247
84	0xbe6c82d3	-0.2309678
85	0x3dba1510	0.090860486
86	0x3c9fa76f	0.019489018
87	0xbe11fd90	-0.14256883
88	0x3d1a3b98	0.03765449
89	0x3e1e0cc6	0.1543456
90	0x3d6a6720	0.057227254
91	0x3d2f5db5	0.042813975
92	0xbd16e281	-0.036837105
93	0x3d4af073	0.049545716
94	0x3d01276f	0.031531747
95	0xbd91147d	-0.07083986
96	0x3ddb5d7b	0.10711189
97	0xbce5705f	-0.028007684
98	0x3cc97e18	0.024596259
99	0xbda77754	-0.08177057
100	0xbe5e8e80	-0.21734047
101	0xbb2f21a4	-0.0026722932
102	0x3e123e2e	0.14281532
103	0x3e4b5a02	0.19858554
104	0x3d9ed146	0.077547595
105	0xbdcc46f6	-0.09974472
106	0xbe6fb8ce	-0.23410341
107	0xbe5ae0f9	-0.21374883
108	0x3e1af0ed	0.15130968
109	0x3e6681b6	0.22510418
110	0x3d3c3ee8	0.04595843
111	0xbd34e264	-0.044161215
112	0xbe2ea5ff	-0.1705551
113	0x3dad6fff	0.08468627
114	0x3c5efa65	0.013609503
115	0x3e41e17e	0.18933675
116	0x3e349029	0.17633118
117	0x3daee281	0.08539296
118	0x3d377753	0.04479153
119	0x3e2e64f3	0.17030697
120	0xbe189741	-0.14901449
121	0x3da19ed1	0.0789162
122	0x3e5aa11f	0.21350525
123	0x3e51efe2	0.20501664
124	0x3efa0c5f	0.48837563
125	0x3e2d2ede	0.1691241
126	0x3de98706	0.11402707
127	0x3e4b6fe3	0.198669
128	0x3d536dd5	0.051618416
129	0x3d22c690	0.039740145
130	0x3dbefd18	0.093256176
131	0xbe3521a4	-0.17688614
132	0xbd9298f3	-0.07158079
133	0xbdd7c62e	-0.10535847
134	0xbe5ccc88	-0.21562397
135	0xbdd60a26	-0.104511544
136	0xbe6a26c1	-0.22866346
137	0xbdc16cff	-0.094446175
138	0x3ba48641	0.005020887
139	0xbd801fad	-0.06256042
140	0x3c313202	0.010815145
141	0xbda6a88e	-0.08137618
142	0xbe84ae72	-0.2591434
143	0xbe066de9	-0.13127865
144	0x3c38d600	0.01128149
145	0x3df0cbb8	0.11757606
146	0x3cc136e8	0.023585752
147	0xbd2e9cec	-0.04263012
148	0x3e1f88c4	0.15579516
149	0x3dce7c4f	0.10082304
150	0xbdd52eb0	-0.104092956
151	0x3afda5cd	0.0019351781
152	0xbd6b154d	-0.05739336
153	0xbed6105c	-0.41809356
154	0xbe7cd34e	-0.24689981
155	0xbe5c92ca	-0.2154037
156	0x3dbe02ed	0.09277902
157	0x3e1a504f	0.15069698
158	0x3e4b6d84	0.19865996
159	0x3b866984	0.004101934
160	0x3e23d352	0.15998581
161	0x3e87d3a3	0.26528654
162	0xbe042eaa	-0.12908426
163	0xbe502a19	-0.20328559
164	0xbe6b629d	-0.22986837
165	0xbdefa6be	-0.117017254
166	0xbd7a3b73	-0.06109185
167	0x3cf22a72	0.029561255
168	0xbeaa696e	-0.3328356
169	0xbe8d2a71	-0.27571443
170	0xbe015ebe	-0.12633798
171	0xbda42ac7	-0.08015972
172	0xbd5c4e06	-0.053785346
173	0x3d50472b	0.05084912
174	0xbdd7515a	-0.105135635
175	0xbe36191b	-0.17783014
176	0xbc8a6243	-0.016892558
177	0xbe894c6c	-0.26816118
178	0xbeb25f30	-0.34838247
179	0xbe54f2ed	-0.20795794
180	0xbe27528c	-0.16340083
181	0xbd382775	-0.044959504
182	0xbdba397d	-0.09092996
183	0x3dd0333b	0.101660214
184	0x3e31b8fe	0.17355725
185	0x3e16151b	0.14656489
186	0x3de9eaaa	0.11421712
187	0x3e50b6c1	0.20382215
188	0x3debba0e	0.115100965
189	0x3d8ef044	0.06979421
190	0xbd094346	-0.033511423
191	0xbd448d1d	-0.04798614
192	0xbdd45ede	-0.10369657
193	0xbe1e94dc	-0.15486473
194	0xbdc6c05c	-0.097046584
195	0xbd7b0ec7	-0.06129339
196	0xbdb78a4b	-0.08961924
197	0xbd65105d	-0.05592381
198	0xbe2c7135	-0.1684006
199	0xbd42f926	-0.047600888
200	0x3d72afc0	0.05924964
201	0xbdf04a77	-0.11732953
202	0x3ca4f200	0.020134926
203	0x3de776da	0.11301966
204	0xbdfa8114	-0.12231651
205	0xbd392e1b	-0.045209985
206	0x3c786193	0.015159982
207	0x3bac59c9	0.0052597267
208	0x3c9b263f	0.018939136
209	0xbc8d66fd	-0.017261023
210	0x3d07b3cf	0.033130463
211	0xbc10c5b5	-0.0088361995
212	0x3cbe8e48	0.023261204
213	0x3e0a27da	0.13491765
214	0x3d9d89c0	0.07692289
215	0xbd554904	-0.052071586
216	0x3e288396	0.16456446
217	0x3e339efd	0.17541118
218	0x3e72e933	0.23721771
219	0x3b3c2286	0.00287071
220	0x3cb3bf5a	0.02194183
221	0x3d5774b3	0.052601527
222	0xbd84b5c4	-0.064799815
223	0xbd906fb0	-0.07052553
224	0xbd456681	-0.04819346
225	0x3c74f4ed	0.014950973
226	0xbd6354d3	-0.055500817
227	0xbdf97755	-0.12180964
228	0x3c2c1fb5	0.010505606
229	0xbd717cba	-0.05895684
230	0xbdcbc796	-0.09950177
231	0x3d906d11	0.07052053
232	0xbd6c3d7b	-0.05767582
233	0xbdd9a7c3	-0.10627701
234	0x3e0faf41	0.14031698
235	0x3d61f0d8	0.055161327
236	0x3d4f6445	0.050632734
237	0x3e803a12	0.25044304
238	0x3e3b34f6	0.18281922
239	0x3e261eca	0.16222683
240	0x3e57d16b	0.2107598
241	0x3e1e2ef2	0.15447596
242	0x3e273880	0.16330147
243	0xbe86905f	-0.2628202
244	0xbe15f17a	-0.14642897
245	0x3c9571e0	0.018242776
246	0xbe9827dc	-0.2971791
247	0xbd576d62	-0.05259455
248	0x3dba4014	0.09094253
249	0xbe8bdf44	-0.27318776
250	0xbe392d84	-0.18083769
251	0x3d3779ce	0.044793896
252	0x3db011c4	0.085971385
253	0x3d0afe38	0.03393385
254	0xbd6a089d	-0.05713712
255	0x3e0b1d20	0.13585329

layer1.0.conv2.bias f4 [16]
0	0xbbbfe3b2	-0.005856001
1	0x3ca65091	0.020302089
2	0xbbe43c82	-0.006965221
3	0x3b19e7d9	0.002348414
4	0x3c1bc8a8	0.009508289
5	0x3bcd5fc5	0.00626752
6	0xbb7ddd12	-0.0038736505
7	0xbc0f5592	-0.008748429
8	0x3c2eecb4	0.010676552
9	0xbc0724da	-0.008248532
10	0xbc41419c	-0.011795428
11	0x3c6b9be1	0.014380426
12	0xbc2c8866	-0.010530567
13	0x3bb7a71b	0.0056046373
14	0xba1ac4c7	-0.0005903956
15	0x3acca247	0.0015612327

layer1.0.bn2.weight f4 [16]
0	0x3faaba8b	1.3338178
1	0x3f2f9f54	0.6860249
2	0x3edf50df	0.43616387
3	0x3f89156c	1.0709662
4	0x3f7b1db1	0.9809218
5	0x3f9a4a50	1.2053928
6	0x3f9ade23	1.2099041
7	0x3f7821a7	0.9692635
8	0x3f693b34	0.9110596
9	0x3f297148	0.6618848
10	0x3f5ac9c7	0.8546414
11	0x3fb29d6a	1.3954289
12	0x3f70dc96	0.9408659
13	0x3f89f7dc	1.0778766
14	0x3ec8682e	0.39141983
15	0x3f7cb3ff	0.9871215

layer1.0.bn2.bias f4 [16]
0	0xbe5d3e90	-0.21605897
1	0x3cdc77ae	0.026912536
2	0x3e9a5b32	0.30147702
3	0x3eb4eb2d	0.35335675
4	0x3daea83a	0.085281804
5	0xbed11ab8	-0.40840697
6	0x3e51c58d	0.20485516
7	0x3cb78866	0.022403907
8	0xbdb545ab	-0.08851179
9	0xbd8c6c06	-0.06856541
10	0xbe37e7c6	-0.17959508
11	0xbd297a01	-0.041376118
12	0x3eb2e89f	0.349431
13	0x3d786c16	0.060649954
14	0x3b4e7d02	0.0031507616
15	0x3d9191cd	0.071078874

layer1.0.bn2.running_mean f4 [16]
0	0xbdcbd3e6	-0.09952526
1	0xbe8460c1	-0.25855067
2	0xbed2f4b2	-0.41202313
3	0xbef64130	-0.4809661
4	0xbf87cbab	-1.060903
5	0xbf1d874a	-0.6153456
6	0x3f44a026	0.7680687
7	0xbf910ac3	-1.1331409
8	0x3f40ac47	0.75262874
9	0xbf65ab20	-0.8971424
10	0xbfa28df1	-1.2699567
11	0x3d140f37	0.036147323
12	0xbfc9f1b0	-1.5776882
13	0x3e86a078	0.26294303
14	0xbb9f9608	-0.00487018
15	0x3f0eb26e	0.5574101

layer1.0.bn2.running_var f4 [16]
0	0x3fd1d1d9	1.6392165
1	0x3f87689f	1.0578803
2	0x3fd94953	1.6975502
3	0x40256dc6	2.584825
4	0x40409881	3.009308
5	0x40967c54	4.702677
6	0x409183cc	4.5473385
7	0x40727de6	3.7889342
8	0x4040359a	3.0032716
9	0x3fc767de	1.5578573
10	0x400df172	2.2178617
11	0x40a56e5c	5.1697216
12	0x40154167	2.3321168
13	0x403b27c4	2.924302
14	0x3f8e6e1b	1.1127352
15	0x4028d86d	2.6382096

layer1.1.conv1.weight f4 [16, 16, 3, 3]
0	0xbec3dc05	-0.382538
1	0x3f047667	0.5174317
2	0x3dd48036	0.10376017
3	0x3e0ecaf9	0.13944615
4	0xbf6923eb	-0.9107043
5	0x3c7a1ac8	0.015265174
6	0x3de89f19	0.113584705
7	0x3f096c28	0.5368066
8	0xbe86a18d	-0.26295128
9	0x3e569e94	0.2095893
10	0x3e36edb1	0.1786411
11	0x3e8ac1b0	0.27100897
12	0xbdbb2c30	-0.091392875
13	0xbc8fc90e	-0.017551925
14	0x3d4e5988	0.050378352
15	0xbd0732ea	-0.03300754
16	0xbd94abe5	-0.07259349
17	0x3ce3666e	0.027758803
18	0x3e80e6f9	0.25176218
19	0x3eb4bbf4	0.35299647
20	0x3ea5cc93	0.3238264
21	0xbdd2bb9a	-0.102896884
22	0xbbd3a2ac	-0.006458601
23	0x3d0d1e05	0.034452457
24	0xbd7f8d1c	-0.06239043
25	0xbe3bb16a	-0.18329397
26	0x3cfff80a	0.031246204
27	0xbbf8e422	-0.007595555
28	0xbe2aeda2	-0.16692212
29	0xbe625c5a	-0.22105542
30	0x3e00fc57	0.1259626
31	0x3ec2c6b7	0.38042232
32	0x3e2295bb	0.1587743
33	0xbdf6e848	-0.12056023
34	0xbe0a01d8	-0.13477266
35	0x3d354132	0.04425163
36	0x3d2a1e1d	0.041532625
37	0xbd67b318	-0.05656728
38	0xbdf10b4f	-0.11769735
39	0x3d40c3a7	0.04706159
40	0x3df1da13	0.118091725
41	0x3d4e7d64	0.05041255
42	0x3d27819a	0.040895082
43	0x3aa11e23	0.0012292307
44	0xbdbc7476	-0.09201901
45	0xbe048def	-0.12944768
46	0xbe99ca9b	-0.30037388
47	0xbcad8aab	-0.021184286
48	0x3eb41dd3	0.35179004
49	0x3e29503c	0.16534513
50	0xbf38436f	-0.71977895
51	0xbe73fd94	-0.23827201
52	0x3e4e96d6	0.20174727
53	0x3e7f5934	0.24936372
54	0xbce0f89d	-0.027462298
55	0xbebce595	-0.36893907
56	0xbde7f22c	-0.113254875
57	0xbecb707f	-0.39734265
58	0x3e8dcb6a	0.27694255
59	0xbecdd55c	-0.40201843
60	0xbe3f15cf	-0.18660663
61	0xbf235738	-0.6380496
62	0xbe2055bf	-0.1565771
63	0x3e897e48	0.26854157
64	0x3ed11d5d	0.40842715
65	0x3e2f39fb	0.17111962
66	0xbc9ca070	-0.019119471
67	0xbdf0f234	-0.117649466
68	0x3d9f9cfe	0.07793616
69	0xbe31d010	-0.17364526
70	0xbe6e3749	-0.23263277
71	0xbdccdff1	-0.10003651
72	0x3c0bc042	0.008529725
73	0xbccc31ae	-0.024926033
74	0xbd090653	-0.033453297
75	0xbc9f2bd1	-0.019430073
76	0x3cd7b3b0	0.026330799
77	0xbc92dc65	-0.017927358
78	0xbd0e9c17	-0.034816828
79	0x3cee8d78	0.029120192
80	0x3d72523d	0.05916046
81	0xbbc0b461	-0.005880878
82	0x3e0aff23	0.1357389
83	0x3e5a0c24	0.21293694
84	0xbdb2e58d	-0.087351896
85	0xbe1d627d	-0.15369602
86	0xbbbdcd06	-0.005792263
87	0xbe2ffc9c	-0.17186207
88	0xbe3a74d3	-0.18208627
89	0xbdbd0278	-0.092289865
90	0x3d314071	0.043274347
91	0x3ca98941	0.02069533
92	0x3d89f955	0.067370094
93	0x3c312b23	0.010813507
94	0x3d9006c3	0.0703254
95	0x3d1286d5	0.035773117
96	0xbd3108a9	-0.04322115
97	0xbbe33b4d	-0.0069345594
98	0x3d923f6d	0.07141004
99	0x3e419441	0.1890421
100	0x3e682565	0.22670515
101	0xbde91cfc	-0.113824815
102	0xbe88e0c1	-0.26733974
103	0xbe4cd51f	-0.20003174
104	0x3e6cd0ff	0.231266
105	0x3dc98fd0	0.09841883
106	0x3d5853c8	0.052814275
107	0xbe4cbf7c	-0.1999492
108	0xbd835a2b	-0.064136826
109	0x3da8fe7a	0.082516626
110	0xbe265ff0	-0.16247535
111	0x3dbbd26f	0.091709964
112	0xbdd44646	-0.10364966
113	0x3ebb51bc	0.36585796
114	0x3d8e930d	0.069616415
115	0x3dd6f551	0.10496009
116	0xbd87331a	-0.06601544
117	0xbe89902c	-0.26867807
118	0xbe24cda0	-0.16094065
119	0xbe3700b3	-0.1787136
120	0xbdf2d691	-0.118573315
121	0xbec805ab	-0.39066824
122	0xbcab23b6	-0.020891052
123	0xbe270052	-0.16308716
124	0x3d271ec3	0.04080082
125	0xbdf72163	-0.12066915
126	0x3c1a2c19	0.009409928
127	0x3c865d45	0.016401896
128	0x3e1e178d	0.15438671
129	0xbdaa5f7a	-0.08318992
130	0x3dd403d8	0.10352296
131	0x3d3a3c81	0.045467857
132	0xbebe7a51	-0.37202695
133	0xbe33e143	-0.175664
134	0xbe43d095	-0.19122536
135	0x3c8b1f12	0.016982589
136	0x3e6dbf09	0.23217405
137	0xbe8acb93	-0.2710844
138	0xbe8fa9a7	-0.28059122
139	0xbecdb83b	-0.4017962
140	0x3e8aaa62	0.27083117
141	0xbb9bb1b7	-0.00475141
142	0x3e0f9ce4	0.14024693
143	0xbe617847	-0.22018538
144	0xbce752e0	-0.02823776
145	0xbf1570b0	-0.5837507
146	0x3d96af8c	0.07357702
147	0xbf0cbc07	-0.54974407
148	0x3e9598aa	0.29218036
149	0x3e0da427	0.1383215
150	0x3e4df31f	0.20112275
151	0x3de7cf0a	0.113187864
152	0xbf25d8ca	-0.6478392
153	0x3d883d23	0.06652286
154	0x3e1ba6e3	0.15200381
155	0x3ce19dbf	0.02754104
156	0x3cb25bd8	0.02177231
157	0x3dde2019	0.10845966
158	0xbd84bae5	-0.0648096
159	0xbd1940f7	-0.03741547
160	0xbc944478	-0.018099055
161	0x3d09fe7b	0.033689957
162	0xbd0767c1	-0.03305793
163	0xbdfc40e3	-0.12317064
164	0xbd364517	-0.044499483
165	0x3cddba15	0.02706627
166	0xbd82d6ce	-0.06388627
167	0x3e3f53bd	0.18684287
168	0x3c1b3624	0.009473357
169	0x3d122c8d	0.03568702
170	0x3e179721	0.14803745
171	0xbc116da7	-0.008876241
172	0x3eb6d217	0.3570716
173	0x3e823762	0.2543288
174	0x3de56de3	0.112026
175	0x3cdad6ae	0.026713695
176	0xbddecfb2	-0.108794585
177	0xbe6349e0	-0.2219615
178	0xbd8fce4c	-0.0702177
179	0x3e52c884	0.20584303
180	0x3e110f5f	0.1416602
181	0x3c67c5f4	0.014146317
182	0xbdbf3653	-0.093365334
183	0x3e733dda	0.23754063
184	0x3c280a16	0.010256311
185	0xbd64d6db	-0.055868965
186	0x3e849a3e	0.25898927
187	0x3cc87244	0.024468549
188	0xbd4defe3	-0.050277602
189	0x3e758b30	0.23978877
190	0xbe5637df	-0.2091975
191	0xbe24b942	-0.16086295
192	0xbc99c51d	-0.018770749
193	0xbf026025	-0.50927955
194	0xbd16d88d	-0.036827613
195	0xbe7447bf	-0.23855494
196	0x3d27bd07	0.040951755
197	0x3c7501af	0.014954015
198	0x3e3877ea	0.18014494
199	0xbd0d8c26	-0.034557484
200	0xbe98f64e	-0.29875416
201	0x3cc1849a	0.0236228
202	0xbed9a492	-0.4250837
203	0xbe08bc6e	-0.1335313
204	0xbeb0c0e7	-0.34522173
205	0xbdd451b6	-0.103671476
206	0x3d393db8	0.045224875
207	0x3e9ce144	0.30640614
208	0xbe8dc547	-0.27689573
209	0x3da15eb6	0.07879393
210	0xbda7ecaa	-0.08199437
211	0xbe60ac47	-0.21940719
212	0x3e0e20e9	0.13879742
213	0x3e4d1581	0.20027734
214	0x3e7c1a8e	0.24619505
215	0xbdee1498	-0.11625022
216	0x3de045b9	0.109507985
217	0x3d810190	0.06299126
218	0x3e1e3744	0.1545077
219	0x3cb97651	0.022639425
220	0xbd0f8336	-0.035037242
221	0x3c9e5005	0.019325266
222	0xbd2224dc	-0.039585933
223	0xbd95c31e	-0.07312606
224	0xbd48387b	-0.04888199
225	0xbe517b12	-0.20457104
226	0xbdfca474	-0.123360544
227	0x3db15220	0.08658242
228	0xbe205ab6	-0.15659603
229	0x3e1117b5	0.141692
230	0x3e7b3cce	0.24534914
231	0xbd1fa833	-0.038978767
232	0x3e2ddd33	0.16978912
233	0x3e03c52e	0.12868187
234	0x3d92564f	0.07145368
235	0x3d7821de	0.060579173
236	0x3d9610bb	0.0732741
237	0x3c27a2af	0.010231658
238	0xbc1d32a6	-0.009594595
239	0xbde0c999	-0.10975952
240	0xbc095e52	-0.008384304
241	0xbcaace37	-0.020850284
242	0xbe2af828	-0.16696227
243	0xbeca1b73	-0.39474067
244	0xbea1c62f	-0.31596515
245	0x3e40a4e1	0.18812896
246	0xbe68aeeb	-0.22722976
247	0x3ec488f0	0.38385725
248	0xbece93f5	-0.40347257
249	0xbe265d8c	-0.16246623
250	0xbeae1640	-0.3400135
251	0xbeacdf89	-0.33764294
252	0xbdea9e6d	-0.114559986
253	0xbe498673	-0.19680195
254	0x3e9abc7b	0.30221924
255	0xbdc660c9	-0.09686429

layer1.1.conv1.bias f4 [16]
0	0xbaec4a96	-0.00180276
1	0xbc401e2b	-0.011725943
2	0x3c0a40b5	0.008438279
3	0x3a52a80c	0.0008035905
4	0xbc16e5ca	-0.009210059
5	0x3c37984b	0.011205743
6	0xbc3e3c6c	-0.011611085
7	0xbc4a29ad	-0.012339038
8	0xbc4d575f	-0.012533038
9	0xbbc88c60	-0.0061202496
10	0x3c29ac09	0.010355958
11	0xbb157be2	-0.0022809436
12	0x3c6d47b2	0.0144824255
13	0xbac62523	-0.0015117269
14	0xbc4448cf	-0.01198025
15	0x3a2d7042	0.0006616154

layer1.1.bn1.weight f4 [16]
0	0x3f77d6a0	0.96811867
1	0x3f8d02ce	1.1016481
2	0x3f7b2ddb	0.98116845
3	0x3f3f3d71	0.7470313
4	0x3f56941f	0.83819765
5	0x3f2081ad	0.6269787
6	0x3f4fc257	0.81155914
7	0x3f39c8fd	0.7257231
8	0x3f824e76	1.0180194
9	0x3f8eb3ad	1.1148583
10	0x3f2a375e	0.66490734
11	0x3f4a0c33	0.78924865
12	0x3f38293b	0.7193791
13	0x3f463396	0.77422464
14	0x3f061ce7	0.5238785
15	0x3f406557	0.7515463

layer1.1.bn1.bias f4 [16]
0	0xbea5847f	-0.3232765
1	0xbeabf4b3	-0.33585128
2	0xbd910d6b	-0.070826374
3	0xbcaf8e72	-0.021430228
4	0xbe789248	-0.24274552
5	0xbdfc133e	-0.12308358
6	0xbeb96e5f	-0.3621702
7	0xbf13b579	-0.5769878
8	0xbe32a664	-0.17446285
9	0xbf05138c	-0.5198295
10	0xbf0e7372	-0.55644906
11	0xbf09c320	-0.5381336
12	0xbe6b45ae	-0.229758
13	0x3e15c427	0.14625607
14	0xbe7b8bad	-0.24565001
15	0xbe4788a4	-0.19485718

layer1.1.bn1.running_mean f4 [16]
0	0xc03152fa	-2.7706895
1	0xc04f92fe	-3.2433467
2	0xc0d58450	-6.6724014
3	0xc094e013	-4.652353
4	0xc0174e7a	-2.3641648
5	0x40258919	2.5864928
6	0x3fc2626a	1.5186284
7	0xbf3baced	-0.7331074
8	0xbfd362e9	-1.651456
9	0xc0c38b01	-6.1107183
10	0x407b1d5b	3.9236667
11	0x401cbdf5	2.449094
12	0xc02dca66	-2.7154784
13	0xbfec31e4	-1.8452725
14	0xc0a1ff57	-5.0624194
15	0xc01574c1	-2.335251

layer1.1.bn1.running_var f4 [16]
0	0x4193f990	18.496857
1	0x41812d93	16.147253
2	0x413e3390	11.8875885
3	0x413fb1dd	11.980924
4	0x40bbbf0c	5.867071
5	0x410cef10	8.808365
6	0x409ff729	4.998921
7	0x4041f987	3.030855
8	0x42250389	41.253452
9	0x41836a00	16.426758
10	0x4038485c	2.8794165
11	0x40828860	4.0791473
12	0x410c37a0	8.76358
13	0x40f137a4	7.538042
14	0x408ccc42	4.399934
15	0x410aec4c	8.68269

layer1.1.conv2.weight f4 [16, 16, 3, 3]
0	0xbdb3b99f	-0.08775639
1	0xbe1ff259	-0.15619792
2	0xbe0df561	-0.13863136
3	0xbcc94744	-0.024570115
4	0xbda07acb	-0.07835921
5	0xbbcdc473	-0.006279522
6	0xbcc2ff9b	-0.023803523
7	0xbe743a3e	-0.23850343
8	0x3d56845e	0.05237233
9	0x3da31486	0.07962899
10	0x3e1cdb91	0.15318133
11	0xbcc9cef6	-0.02463482
12	0x3ed4bf7b	0.41552338
13	0x3e84f702	0.25969702
14	0x3ebb8d62	0.36631304
15	0x3c2bbb94	0.010481734
16	0x3e647612	0.22310665
17	0x3e8ef37b	0.27920136
18	0x3bf3a4c0	0.007435411
19	0xbd791d23	-0.060818803
20	0x3d3fc58f	0.046819266
21	0xbd2a1a05	-0.04152872
22	0xbe0e2bbe	-0.13883874
23	0x3e3db974	0.18527776
24	0xbdf6e9d5	-0.12056319
25	0xbb45e392	-0.0030195457
26	0xbd0021d0	-0.031282246
27	0xbcfeedc8	-0.031119242
28	0x3d93851a	0.072031215
29	0x3c00e15f	0.007866233
30	0xbdf01051	-0.11721862
31	0x3e8bcdbf	0.2730541
32	0x3df98fb6	0.12185614
33	0xbe0b48f0	-0.13602042
34	0x3dd21248	0.10257393
35	0x3e1914cd	0.14949341
36	0x3d74c1e1	0.05975521
37	0x3d9061b6	0.07049887
38	0xbc166d63	-0.009181353
39	0x3d572d47	0.052533414
40	0x3e823025	0.25427356
41	0x3e083e6a	0.13305059
42	0x3da3fe2d	0.080074646
43	0x3db5d1c3	0.088778995
44	0x3e22825b	0.15870039
45	0xbd9ce39e	-0.07660602
46	0x3d7241cc	0.05914478
47	0x3e4199a5	0.18906267
48	0xbe452ea5	-0.19256075
49	0xbdda7ffa	-0.10668941
50	0x3e645cad	0.22300978
51	0xbe385fd7	-0.1800531
52	0xbdccef31	-0.1000656
53	0xbcab2e0f	-0.020895986
54	0xbdc2a33e	-0.09503792
55	0xbd30bac8	-0.04314688
56	0xbdbd249e	-0.092355
57	0x3e438be2	0.1909633
58	0x3d99ad71	0.075037844
59	0x3c8a179d	0.016856963
60	0xbd8e7111	-0.069551595
61	0xbd1c5ba4	-0.038173333
62	0xbe520e6a	-0.20513311
63	0x3d113f04	0.035460487
64	0x3e318f91	0.17339922
65	0x3dc75c62	0.097344175
66	0xbdc5b3b2	-0.09653415
67	0xbcfaf3f1	-0.030633898
68	0xbe0593d2	-0.1304467
69	0xbd9865a1	-0.07441259
70	0xbbd1eaa3	-0.0064061447
71	0xbd83e364	-0.06439856
72	0xbe0682b2	-0.13135794
73	0xbe2d804c	-0.16943473
74	0xbe62d0cf	-0.22149967
75	0xbe6b2634	-0.22963792
76	0xbe6e5916	-0.23276171
77	0xbe72fc37	-0.23729025
78	0xbe7edf8f	-0.24889968
79	0xbe5b191a	-0.21396294
80	0xbb35f9ca	-0.0027767294
81	0x3d4697a2	0.048484452
82	0x3de41d9d	0.11138461
83	0x3e8846e6	0.2661659
84	0x3dd1647b	0.10224243
85	0x3e405989	0.18784155
86	0x3e094c28	0.13407958
87	0x3e4ddc5d	0.20103593
88	0x3e640b7e	0.22270009
89	0x3da5b4f3	0.08091154
90	0xbd4d89ee	-0.050180368
91	0xbd848363	-0.064703725
92	0xbdc133f1	-0.09433735
93	0x3c5f8cc7	0.013644404
94	0x3c21dcba	0.0098792855
95	0xbd53ff23	-0.05175699
96	0xbc94146e	-0.018076148
97	0xbbf62252	-0.0075114155
98	0xbbde7e48	-0.0067899562
99	0x3c87e6ca	0.016589541
100	0xbce8f4b2	-0.028436992
101	0xbe426946	-0.18985471
102	0x3dea5c45	0.1144338
103	0xbdc65ee6	-0.09686069
104	0xbe25313a	-0.1613206
105	0xbe895109	-0.26819637
106	0xbebf83fb	-0.3740538
107	0xbdf24d7a	-0.11831184
108	0x3c593ae7	0.013258672
109	0x3d31b40a	0.04338459
110	0x3cfe6af5	0.03105686
111	0x3dde97ee	0.10868822
112	0x3e3bcc1a	0.18339577
113	0x3e1a975f	0.15096806
114	0x3dd2ddbf	0.10296201
115	0x3de7e787	0.11323457
116	0x3dc34c8f	0.09536087
117	0xbd596fd6	-0.05308517
118	0xbcc1a0d4	-0.02363626
119	0xbc7a030f	-0.015259518
120	0xbbd11b87	-0.0063814553
121	0xbe27488a	-0.16336265
122	0x3d05755d	0.03258263
123	0xbe0c3606	-0.13692483
124	0x3dbcf37c	0.092261285
125	0x3e0715b5	0.13191874
126	0xbd53a5fd	-0.05167197
127	0x3cefc4f7	0.029268725
128	0x3cdf40e2	0.027252618
129	0xbd3023ee	-0.043003015
130	0x3d0281ef	0.031862196
131	0x3d811a72	0.06303872
132	0xbdbf24d4	-0.09333196
133	0xbbe59c65	-0.007007169
134	0x3d5456ff	0.05184078
135	0xbd84522e	-0.06460987
136	0xbd7fa416	-0.062412344
137	0xbd41d52f	-0.04732245
138	0xbe7418bf	-0.23837565
139	0xbc4a75da	-0.0123572
140	0xbd2c4184	-0.042054668
141	0xbe6e252d	-0.23256369
142	0xbca6484c	-0.020298146
143	0x3d708378	0.05871913
144	0xbd397b7d	-0.045283783
145	0xbe3468d5	-0.17618115
146	0x3df57405	0.119850196
147	0x3dcd5a2c	0.100269645
148	0xbca602bb	-0.020264974
149	0xbe0744e9	-0.13209881
150	0xbdec7c3a	-0.11547132
151	0x3d63147d	0.05543946
152	0x3e360d46	0.17778501
153	0x3d958dae	0.07302414
154	0xbe791ecd	-0.24328156
155	0xbe282aa4	-0.16422516
156	0xbe388b2c	-0.1802184
157	0xbea461a3	-0.3210574
158	0xbe81e158	-0.25367236
159	0xbd652e09	-0.055952106
160	0xbe6a9a55	-0.22910435
161	0xbba6fbed	-0.00509595
162	0xbc9bc926	-0.019016813
163	0xbd585cc5	-0.052822847
164	0x3d9b0db4	0.07570973
165	0xbd7e66a1	-0.062109593
166	0xbe305beb	-0.17222564
167	0x3c857777	0.016292317
168	0xb9f69520	-0.00047031883
169	0x3cb3d954	0.021954216
170	0x3d826343	0.06366589
171	0xbd29be85	-0.04144146
172	0xbd6c3e2b	-0.057676475
173	0xbce7a8c0	-0.028278708
174	0xbe21bb1d	-0.15794034
175	0xbd80023a	-0.06250425
176	0xbdd75e20	-0.10516
177	0x3dd143f6	0.10218041
178	0x3c91217c	0.017716162
179	0x3ccc664e	0.024951126
180	0xbdd1cc91	-0.10244096
181	0x3d59b2d8	0.053149074
182	0x3e10d0ef	0.14142202
183	0xbccbcf94	-0.024879254
184	0xbc783caf	-0.015151187
185	0x3d4acd2b	0.04951207
186	0x3d78e6f3	0.060767125
187	0x3c558a43	0.013033452
188	0xbd51c960	-0.051217437
189	0xbe6b3341	-0.2296877
190	0xbe7c0e16	-0.24614748
191	0xbd8cd23a	-0.06876035
192	0xbeb77664	-0.35832512
193	0xbe984dc8	-0.29746842
194	0xbd1bfe21	-0.038084153
195	0xbe922ba5	-0.28548923
196	0xbe8db69c	-0.27678382
197	0xbdccaea7	-0.0999425
198	0x3d99c808	0.07508856
199	0x3cf2dcee	0.029646363
200	0xbd3b1890	-0.04567772
201	0x3e02edb5	0.1278599
202	0x3daf827c	0.0856981
203	0x3c36a0da	0.011146748
204	0xbcdabfa1	-0.026702704
205	0xbe088e6e	-0.13335583
206	0xbdc5771e	-0.096418604
207	0x3d610114	0.05493267
208	0xbd9ef0e8	-0.07760793
209	0xbce6d9b6	-0.028179985
210	0xbd82cdda	-0.06386919
211	0xbe3dca32	-0.18534163
212	0xbdd7f28b	-0.10544308
213	0xbe0d18f8	-0.13779056
214	0xbe595349	-0.21223177
215	0xbe11d811	-0.14242579
216	0xbea72ceb	-0.32651457
217	0xbf2b0aa2	-0.668131
218	0xbe9abc6b	-0.30221877
219	0xbec7f106	-0.39051074
220	0xbef8c999	-0.48591307
221	0xbec5a150	-0.38599634
222	0xbee8004e	-0.45312732
223	0xbee653d4	-0.4498583
224	0xbdfca84c	-0.123367876
225	0x3e0e8c83	0.13920788
226	0x3d4e35e7	0.050344374
227	0x3e18d15a	0.14923611
228	0x3e8584ef	0.26077983
229	0x3c93259e	0.017962273
230	0x3e23b7bc	0.15988058
231	0x3ed55fe8	0.41674733
232	0x3e6b02a5	0.22950228
233	0x3e1c0acd	0.15238495
234	0x3de67556	0.11252849
235	0x3cffa286	0.031205427
236	0x3d71d112	0.059037276
237	0x3dcf131e	0.10111068
238	0x3d3e81f8	0.046510667
239	0xbc9c8301	-0.019105436
240	0x3d5fdc5a	0.054653503
241	0x3da6375d	0.081160285
242	0x3cb352e9	0.02189012
243	0xbe2e68c1	-0.17032148
244	0xbd7138c1	-0.058892015
245	0x3bc10ab6	0.0058911694
246	0x3d943b06	0.0723782
247	0x3d779faa	0.060455002
248	0x3e2b1a07	0.16709147
249	0x3db1a14c	0.08673343
250	0xbc7954d1	-0.015217976
251	0x3e343005	0.17596443
252	0xbe142eb1	-0.14470936
253	0xbda30d80	-0.07961559
254	0xbd86e899	-0.06587333
255	0xbd42311f	-0.047410127

layer1.1.conv2.bias f4 [16]
0	0x3c2a5e15	0.0103984075
1	0xbb186e3d	-0.0023259067
2	0x3b5aaa62	0.0033365716
3	0x3be86833	0.0070924996
4	0xbc11f007	-0.008907325
5	0xbbbf2603	-0.005833389
6	0xbc6c4977	-0.014421812
7	0xbb67d9f4	-0.0035377713
8	0xbb3b2aba	-0.0028559403
9	0x3c5ae98e	0.013361348
10	0x3b9ce397	0.004787873
11	0x3b137953	0.0022502735
12	0xbba4fd2b	-0.005035063
13	0xbb8adc3c	-0.0042376798
14	0x39986b7a	0.00029071775
15	0x3c39994a	0.011328051

layer1.1.bn2.weight f4 [16]
0	0x3f83d2a5	1.0298659
1	0x3f83686b	1.0266241
2	0x3e8dfe21	0.27732947
3	0x3f28caa2	0.65934193
4	0x3f05830b	0.5215308
5	0x3f5b2a9a	0.8561188
6	0x3f274f5e	0.6535548
7	0x3f4bbc37	0.7958407
8	0x3f1f143e	0.6214026
9	0x3ef317fe	0.47479242
10	0x3ec3f2e4	0.38271248
11	0x3f389ed6	0.72117364
12	0x3f382705	0.7193454
13	0x3f25e1d1	0.64797693
14	0x3ea49ecb	0.321524
15	0x3f286667	0.65781254

layer1.1.bn2.bias f4 [16]
0	0xbf1d4671	-0.6143561
1	0x3e67a9e0	0.22623396
2	0x3e935607	0.2877657
3	0x3e3753f3	0.17903118
4	0x3dce822e	0.100834236
5	0xbe44577f	-0.19174002
6	0xbedd6e79	-0.43248346
7	0x3e3af4c0	0.18257427
8	0x3dffd370	0.124915004
9	0x3d97edb0	0.07418382
10	0x3e6ab8da	0.22922078
11	0xbf27e80d	-0.65588456
12	0x3efcfe64	0.49412835
13	0x3f4bd6af	0.79624456
14	0x3c8994f5	0.016794661
15	0xbe536184	-0.20642668

layer1.1.bn2.running_mean f4 [16]
0	0xbc57734b	-0.013150047
1	0xbfdaa414	-1.7081323
2	0xbf5aae74	-0.85422444
3	0xbe5b7129	-0.21429886
4	0xbf9f66dd	-1.2453266
5	0x3f131191	0.5744868
6	0xbb008bc1	-0.001961455
7	0xbea7253b	-0.32645592
8	0x3f47ea44	0.78091836
9	0xbf20d4e3	-0.6282484
10	0x3db318e5	0.08744983
11	0xbeaf0097	-0.34180138
12	0xbed8e78b	-0.42364153
13	0x3f57b322	0.8425771
14	0xbdae0445	-0.08496908
15	0x3e8980a2	0.26855952

layer1.1.bn2.running_var f4 [16]
0	0x3f3e940a	0.7444464
1	0x3fe542ab	1.791097
2	0x3f0642bc	0.5244558
3	0x3f35856a	0.709067
4	0x3f6291f7	0.88503975
5	0x3f8f4cd2	1.1195319
6	0x3f2919e8	0.66055155
7	0x3f9b0218	1.2110014
8	0x3f478248	0.7793317
9	0x3f2f656c	0.6851413
10	0x3ecec253	0.40382633
11	0x3f4fcfed	0.81176645
12	0x3faa8e41	1.3324662
13	0x3f81f9b3	1.0154327
14	0x3f093de5	0.5361007
15	0x3f29d3c0	0.6633873
