Output/swift-iid-8W-linear-shark-linear-2sgd-100epochs/r0-epoch_43-parameters.pt (torch, 731450 bytes, 92 tensors)

conv1.weight f4 [16, 3, 3, 3]
0.22848094 -0.15128575 0.54832226 -0.56100404 1.0860307 -0.18029861 -0.4128771 -0.52005666
-0.27197638 -0.12729946 -0.5098617 -0.20254572 -0.19190778 1.7208207 -0.118159175 -0.18494718
-0.020157158 -0.1799214 -0.11452933 -0.88453466 -0.46158275 0.054050364 1.2356882 -0.09024605
0.18815383 0.28438458 0.08270542 0.22488154 0.4290835 0.23869467 -0.0864661 0.19109398
0.05886197 -0.3545631 -0.17057692 0.0254566 0.40948874 0.58773005 0.27006522 -0.22533007
0.067181766 -0.20543204 -0.4791876 -0.37850747 -0.35320285 0.5060541 0.71211547 0.4188152
0.1281704 0.47226536 0.042521242 -0.22654536 -0.04950478 -0.2735823 -0.18892513 -0.07810954
-0.1964816 0.09968345 0.47178733 0.13863106 0.34620064 0.5294376 0.3378204 -0.26607156
0.00356279 -0.21762556 -0.114623375 0.25019374 -0.1019399 -0.13573198 0.07806746 -0.10513199
-0.0010678542 0.29371312 0.15022056 0.046566054 0.38475457 0.23176773 -0.09864734 -0.013570248
-0.08787147 0.262956 -0.28198883 0.1318923 -0.18599957 -0.6942472 -0.23090345 0.07457519
-0.21994846 0.09698377 0.14001428 -0.340677 0.1418683 -0.22458127 -0.6096423 -0.075076975
0.061000958 -0.057346124 0.30169275 0.08852639 -0.14499682 0.16898984 -0.1854943 -0.34624228
0.07180398 0.0011826545 -0.0693426 0.3020539 0.18307659 -0.119804405 0.25291434 -0.09780364
-0.49795377 -0.01364255 0.3468833 -0.007191003 0.18730739 0.21226099 -0.10445708 0.25697434
-0.16179666 -0.43571454 -0.0506866 0.34318003 0.053864706 0.2797023 0.074294634 -0.1416793
-0.005790763 -0.39582735 -0.65846425 -0.3875373 -0.16653569 -0.40325996 -0.19010952 -0.09479314
0.37608993 0.33754495 1.1297992 0.30408832 -0.23839211 0.41756126 0.010594959 -0.2302746
-0.14693671 -0.58179873 -0.5228252 0.6047227 -1.0271779 -1.3907454 0.09126227 -0.6727218
-0.7032528 0.3363568 0.38695517 0.09408489 1.048523 0.079185784 -0.578067 0.7883839
0.284005 -0.09551458 0.57529014 0.7403983 0.41509795 -0.0012691852 -0.17355746 -0.32566297
-0.24125 -1.1017267 -0.6958227 0.6457721 0.672919 0.3636746 0.12604667 -0.19230156
-0.33285975 0.086238675 -0.753361 -0.4055828 0.2519766 0.26145983 0.068660624 -0.07838885
-0.23043495 -0.44907284 0.09095798 -0.59909815 -0.32860044 0.051876727 -0.21420418 -0.27403772
-0.35472593 -0.57609993 -0.69829196 -0.22977395 -0.8966915 -0.5237604 0.118951075 0.35139456
0.028658144 0.06032268 0.43825337 0.038802445 0.11802352 -0.06812706 0.05088248 -0.21397634
0.25379196 -0.04605715 0.19742176 1.024888 0.5658045 0.20673877 0.56951845 0.5474382
-0.10490686 0.20289741 0.09895244 0.07414629 0.75691634 -1.6570082 -0.04888503 0.3949276
0.00033176623 0.2674884 0.36083084 -0.28552008 0.2796256 0.8737517 -1.83397 0.013638001
0.57412106 0.20115687 -0.15909545 -0.07232539 0.16512786 -0.1530051 0.4459197 -1.2687312
0.0067588235 0.42650804 -0.009091282 0.10344893 -0.36081606 0.045065053 -0.14978799 -0.6598598
-0.24871634 0.039323073 -0.25952253 -0.16186644 0.015307995 -0.3392534 0.097825184 -0.12249976
00000000: e8f6 693e a7ea 1abe d95e 0c3f f69d 0fbf
00000010: 0e03 8b3f 33a0 38be a164 d3be 6f22 05bf
00000020: 7d40 8bbe ca5a 02be 4c86 02bf 2568 4fbe
00000030: 7983 44be da43 dc3f 70fd f1bd cb62 3dbe
00000040: a020 a5bc 513d 38be 5a8e eabd dd70 62bf
00000050: 9354 ecbe ea63 5d3d 082b 9e3f ecd2 b8bd
00000060: 66ab 403e db9a 913e 7661 a93d 5947 663e
00000070: d5b0 db3e 606c 743e 2315 b1bd 24ae 433e
00000080: 4019 713d 4b89 b5be b7ab 2ebe 5c8a d03c
00000090: 82a8 d13e 7a75 163f fd45 8a3e edbc 66be
000000a0: 9896 893d c75c 52be 1458 f5be bbcb c1be
000000b0: 01d7 b4be c38c 013f 334d 363f f26e d63e
000000c0: 1a3f 033e c4cc f13e c12a 2e3d 82fb 67be
000000d0: 86c5 4abd fb12 8cbe 9775 41be e5f7 9fbd
000000e0: 7932 49be d626 cc3d 1c8e f13e 4df5 0d3e
000000f0: 3641 b13e 3989 073f ccf6 ac3e 883a 88be
00000100: b37d 693b 3cd9 5ebe a9bf eabd 6519 803e
00000110: dec5 d0bd 53fd 0abe d5e1 9f3d 714f d7bd
00000120: 3ef7 8bba 9161 963e 6bd3 193e 0cbc 3e3d
00000130: 8dfe c43e 8554 6d3e 9e07 cabd bf55 5ebc
00000140: f5f5 b3bd 2ba2 863e d760 90be c60e 073e
00000150: ac76 3ebe 2fba 31bf f471 6cbe e1ba 983d
00000160: 2b3a 61be 6d9f c63d e75f 0f3e 376d aebe
00000170: ec45 113e a2f8 65be 8511 1cbf f5c1 99bd
00000180: 24dc 793d c5e3 6abd 7977 9a3e 534d b53d
00000190: 0c7a 14be ac0b 2d3e 38f2 3dbe ab46 b1be
000001a0: f70d 933d 4d03 9b3a 7e03 8ebd cfa6 9a3e
000001b0: 6e78 3b3e 035c f5bd fd7d 813e 464d c8bd
000001c0: ccf3 febe 0185 5fbc b09a b13e 81a2 ebbb
000001d0: 82cd 3f3e f25a 593e 98ed d5bd 2492 833e
000001e0: 06ae 25be fa15 dfbe c19c 4fbd 4bb5 af3e
000001f0: 3da1 5c3d 2435 8f3e c927 983d 6114 11be
00000200: 71c0 bdbb e2a9 cabe 1d91 28bf 4a6b c6be
00000210: 5588 2abe 1778 cebe 12ac 42be e822 c2bd
00000220: dc8e c03e b1d2 ac3e 439d 903f 77b1 9b3e
00000230: 101d 74be 97ca d53e 7b96 2d3c 1bcd 6bbe
00000240: 9476 16be c3f0 14bf dfd7 05bf 1bcf 1a3f
00000250: 917a 83bf f203 b2bf b7e7 ba3d 7f37 2cbf
00000260: 6008 34bf f536 ac3e fd1e c63e 94af c03d
00000270: 0036 863f 282c a23d 33fc 13bf 87d3 493f
00000280: 1a69 913e 269d c3bd 3746 133f be8a 3d3f
00000290: b887 d43e ca5a a6ba 0cb9 31be 4cbd a6be
000002a0: 3d0a 77be 6105 8dbf 7021 32bf 5251 253f
000002b0: 6b44 2c3f 8f33 ba3e 6112 013e b3ea 44be
000002c0: 986c aabe e79d b03d 44dc 40bf 8ca8 cfbe
000002d0: 1403 813e 10de 853e f19d 8c3d 558a a0bd
000002e0: 24f7 6bbe e0ec e5be 2d48 ba3d 7f5e 19bf
000002f0: 513e a8be b17c 543d 5758 5bbe ac4e 8cbe
00000300: a39e b5be 497b 13bf 43c3 32bf dd49 6bbe
00000310: 938d 65bf 2915 06bf 9f9c f33d fde9 b33e
00000320: 7cc4 ea3c ea14 773d bf62 e03e 50ef 1e3d
00000330: 51b6 f13d 3386 8bbd 266a 503d 9d1c 5bbe
00000340: 05f1 813e 6ca6 3cbd ee28 4a3e 882f 833f
00000350: 90d8 103f 54b3 533e f6cb 113f e924 0c3f
00000360: 68d9 d6bd 57c4 4f3e 94a7 ca3d 03da 973d
00000370: 45c5 413f d818 d4bf ab3b 48bd f333 ca3e
00000380: e9f0 ad39 3df4 883e d2be b83e b02f 92be
00000390: 162b 8f3e 31ae 5f3f 87bf eabf ec71 5f3c
000003a0: 99f9 123f 11fc 4d3e ebe9 22be 561f 94bd
000003b0: 4717 293e 5ead 1cbe 964f e43e c965 a2bf
000003c0: 1f79 dd3b 435f da3e 9af3 14bc 08dd d33d
000003d0: e2bc b8be 2296 383d 0662 19be 92ec 28bf
000003e0: 7faf 7ebe 3b11 213d 23e0 84be 51c0 25be
000003f0: 62ce 7a3c 9fb2 adbe 9258 c83d 27e1 fabd

conv1.bias f4 [16]
-0.023255765 -0.0147524895 -0.016431924 0.03049602 0.028139932 -0.032656252 -0.0015685286 0.007827663
-0.024889695 -0.03302797 -0.009219128 -0.015100017 -0.012358756 0.024733273 0.006343 -0.022618748
00000000: e082 bebc 6db4 71bc 3e9c 86bc cad2 f93c
00000010: b785 e63c 90c2 05bd 1697 cdba 993f 003c
00000020: 79e5 cbbc 5648 07bd d30b 17bc 1066 77bc
00000030: 617c 4abc 6f9d ca3c f1d8 cf3b f44a b9bc

bn1.weight f4 [16]
0.95529336 0.66086656 1.0676636 1.1498231 1.327359 1.100986 1.0101423 0.8254983
1.1858376 1.1036565 0.8709051 0.8919264 0.96430606 0.99960005 0.90952694 0.7813272
00000000: 1b8e 743f 8d2e 293f 33a9 883f 672d 933f
00000010: e6e6 a93f 1ced 8c3f 584c 813f db53 533f
00000020: 87c9 973f 9e44 8d3f a3f3 5e3f 4a55 643f
00000030: c3dc 763f cae5 7f3f c2d6 683f 0f05 483f

bn1.bias f4 [16]
1.1512231 0.6606872 -0.48567075 -0.34334874 -0.699508 0.5910311 0.47145513 0.36895362
1.0975523 -0.13543956 0.0234512 -0.028773125 -0.17296544 0.76915854 0.3456897 0.8419966
00000000: 475b 933f cc22 293f d6a9 f8be 68cb afbe
00000010: f512 33bf d04d 173f 9162 f13e 7de7 bc3e
00000020: 987c 8c3f abb0 0abe bb1c c03c 9eb5 ebbc
00000030: da1d 31be 93e7 443f 3efe b03e 178d 573f

bn1.running_mean f4 [16]
-0.10462824 -0.44639143 -0.7645141 0.7970064 0.05310879 -0.2139777 0.3980762 1.3288194
-0.011371757 1.0720425 0.2026448 0.11826018 -0.46674648 -1.9264098 0.32611218 -0.7897524
00000000: 5547 d6bd 6b8d e4be 32b7 43bf 9d08 4c3f
00000010: 9a88 593d f81c 5bbe a5d0 cb3e c116 aa3f
00000020: 9b50 3abc b038 893f 1e82 4f3e 6532 f23d
00000030: 65f9 eebe 9994 f6bf 2df8 a63e 372d 4abf

bn1.running_var f4 [16]
3.5367882 13.798289 5.3283734 6.59031 6.603819 13.430464 16.807734 18.08731
9.26803 8.224708 6.2955146 3.661474 12.651648 18.025547 5.5741796 8.774846
00000000: bd5a 6240 cbc5 5c41 0982 aa40 d2e3 d240
00000010: 7c52 d340 2ee3 5641 3d76 8641 d0b2 9041
00000020: da49 1441 6798 0341 db74 c940 9755 6a40
00000030: 266d 4a41 5234 9041 ae5f b240 c565 0c41

layer1.0.conv1.weight f4 [16, 16, 3, 3]
-0.09790618 0.51915413 -0.08848673 -0.07423249 0.57511157 0.029294917 -0.27393556 -0.2675277
-0.20181245 -0.055812445 -0.05920179 -0.034267165 0.060082164 0.18395112 0.118845694 0.2085985
0.27034125 0.242276 0.095893934 0.18007272 0.01595577 0.050228834 0.123226486 -0.037150208
-0.21649778 -0.18301973 -0.20255174 -0.015781075 -0.029274343 -0.0035921417 0.030963723 -0.074119166
0.001457016 -0.010600878 -0.04122886 0.02839021 -0.13347259 -0.12882416 -0.053933464 -0.074157596
-0.14275455 -0.057703402 -0.09661472 -0.16415018 -0.08771651 -0.19535428 -0.19746752 0.042422153
-0.096759334 -0.09997753 0.07480705 0.18524036 -0.11387656 -0.024247268 0.055801146 -0.09974033
0.046355844 -0.13698068 -0.13258928 -0.0026208705 0.1314978 0.14456874 0.19625235 -0.07287008
0.024942154 -0.14337419 0.026764018 0.1957197 -0.07178871 -0.088963985 -0.009318637 -0.17537032
-0.24673961 0.2629428 0.11252035 -0.47293612 0.17254584 -0.039823953 -0.08439848 0.027654355
0.014077626 0.016639723 0.08997683 0.11337067 0.103206776 0.008045496 -0.0045052655 0.11721536
0.08511073 0.051074 0.1222476 0.07983995 0.018981565 0.15326746 0.15342346 0.09491991
0.22593229 0.21445881 0.1768586 -0.08302537 -0.11804096 -0.0352111 -0.0845574 -0.22842993
-0.14588417 -0.0307713 -0.19564223 0.0070756273 0.06548276 -0.026204973 -0.06704452 0.07438674
-0.0030901786 -0.017995393 0.028039748 0.09927503 0.08117552 -0.039200395 0.0002701731 0.116267666
-0.08874314 0.046112273 0.14893718 -0.063863106 -0.100603 0.039154876 0.010608741 0.06884646
-0.037270732 0.0045082504 0.04027375 -0.12855484 0.11048907 0.017200314 0.015062767 0.06255546
-0.08417035 -0.19722185 0.13748899 -0.09007981 -0.1933689 -0.037587404 -0.18436937 0.044102576
-0.3390386 0.062343672 -0.1844123 -0.023997547 0.4283189 -0.09975304 -0.04252039 -0.2191822
0.00018537846 -0.065633 -0.0032128333 -0.034566186 0.039093595 0.18366289 0.13481143 0.07202726
0.13037588 0.092443265 -0.10924738 -0.092284866 -0.1254037 -0.08264589 -0.09582989 -0.09829219
-0.057065345 -0.101645574 -0.11970682 -0.043819368 -0.13749725 -0.07258837 0.06911103 -0.10494143
0.08175857 0.27829865 0.20528111 0.21362826 -0.0020692092 -0.08332242 0.01904257 0.042507526
-0.09790759 0.035811506 0.13220507 0.06286634 0.09307351 0.07560827 0.08476899 -0.059321743
-0.15635578 0.08264116 -0.12801522 0.13207036 -0.025846772 -0.40482298 -0.34000152 -0.17122263
-0.044846416 -0.097294815 0.30549723 0.15702836 0.062134165 0.20010076 0.0073280823 -0.1563197
-0.1224572 -0.18229012 -0.10715657 0.01806679 -0.21177557 -0.007855357 -0.014824371 -0.15707403
0.10404489 0.11950982 0.006590587 -0.3260772 0.25815073 -0.0006200101 0.33104125 -0.07089882
0.03505853 0.05142555 -0.1059771 -0.0570665 0.095163606 -0.1600999 -0.019061586 0.3737969
0.21092305 0.21198724 -0.14506407 -0.17013907 -0.1935853 0.046419907 0.01810906 -0.08730885
0.13361426 0.050471954 -0.11045949 0.11370743 -0.07165501 0.07364647 0.08965117 -0.12874098
0.11068533 0.22154568 0.16012958 0.27583203 0.111572385 -0.021329787 -0.02942133 -0.01055388
00000000: 0983 c8bd 49e7 043f 8838 b5bd 3407 98bd
00000010: 833a 133f e5fb ef3c 4841 8cbe 64f9 88be
00000020: eca7 4ebe 979b 64bd 937d 72bd ba5b 0cbd
00000030: b718 763d af5d 3c3e 5f65 f33d d89a 553e
00000040: 2b6a 8a3e 3317 783e 0a64 c43d fc64 383e
00000050: adb5 823c c0bc 4d3d 2b5e fc3d d12a 18bd
00000060: 98b1 5dbe 8669 3bbe b969 4fbe 5047 81bc
00000070: bfd0 efbc 236a 6bbb a2a7 fd3c cacb 97bd
00000080: 58f9 be3a 4eaf 2dbc 98df 28bd 9692 e83c
00000090: 0aad 08be 7bea 03be 56e9 5cbd f0df 97bd
000000a0: 402e 12be 675a 6cbd f0dd c5bd fc16 28be
000000b0: b7a4 b3bd f40a 48be ed34 4abe dac2 2d3d
000000c0: c229 c6bd 05c1 ccbd 7034 993d a6af 3d3e
000000d0: 1d38 e9bd 35a2 c6bc be8f 643d a844 ccbd
000000e0: a0df 3d3d aa44 0cbe 7cc5 07be e9c2 2bbb
000000f0: 5ca7 063e d409 143e 60f6 483e e93c 95bd
00000100: 7d53 cc3c afd0 12be 3740 db3c bf6a 483e
00000110: f605 93bd c032 b6bd 32ad 18bc 4794 33be
00000120: 4fa9 7cbe 70a0 863e 1271 e63d af24 f2be
00000130: dbaf 303e 711e 23bd 1cd9 acbd 638b e23c
00000140: d8a5 663c 0750 883c c645 b83d e22e e83d
00000150: 135e d33d 42d1 033c e8a0 93bb 9b0e f03d
00000160: 894e ae3d f832 513d f35c fa3d 2183 a33d
00000170: 3a7f 9b3c 25f2 1c3e 0a1b 1d3e 5f65 c23d
00000180: cb5a 673e 179b 5b3e 6c1a 353e 3509 aabd
00000190: 75bf f1bd 8439 10bd 6e2c adbd 89e9 69be
000001a0: a962 15be 1814 fcbc 7056 48be aada e73b
000001b0: d31b 863d d0ab d6bc a34e 89bd 1358 983d
000001c0: 9884 4abb 136b 93bc 9db3 e53c b550 cb3d
000001d0: 5a3f a63d 9890 20bd 05a6 8d39 be1d ee3d
000001e0: f7be b5bd 39e0 3c3d fd82 183e a9ca 82bd
000001f0: f208 cebd dd60 203d 49d0 2d3c 5fff 8c3d
00000200: 32a9 18bd f2b9 933b 16f6 243d e1a3 03be
00000210: 1848 e23d ace7 8c3c d3c9 763c 141d 803d
00000220: 8161 acbd 86f4 49be eac9 0c3e c37b b8bd
00000230: 7f02 46be 40f5 19bd 53cb 3cbe e7a4 343d
00000240: 7896 adbe 145c 7f3d 94d6 3cbe 8196 c4bc
00000250: 9d4c db3e 524b ccbd dc29 2ebd 4c71 60be
00000260: 2762 4239 986a 86bd 668e 52bb 4695 0dbd
00000270: 9b20 203d 2012 3c3e 020c 0a3e 0783 933d
00000280: 4181 053e e552 bd3d 17bd dfbd d9ff bcbd
00000290: d469 00be 4042 a9bd 7642 c4bd 6a4d c9bd
000002a0: 5abd 69bd 8e2b d0bd d928 f5bd f07b 33bd
000002b0: 14cc 0cbe 36a9 94bd 158a 8d3d 88eb d6bd
000002c0: 0a71 a73d 297d 8e3e 3635 523e 5ec1 5a3e
000002d0: 929b 07bb f2a4 aabd 2aff 9b3c 5f1c 2e3d
000002e0: c683 c8bd 16af 123d c460 073e 11c0 803d
000002f0: 539d be3d 82d8 9a3d 5d9b ad3d 5bfb 72bd
00000300: bb1b 20be c53f a93d 6c16 03be 743d 073e
00000310: 9cbc d3bc f544 cfbe ae14 aebe fc54 2fbe
00000320: e0b0 37bd 8142 c7bd 226a 9c3e 0bcc 203e
00000330: 6580 7e3d 37e7 4c3e 6920 f03b 4512 20be
00000340: d7ca fabd 43aa 3abe e774 dbbd ce00 943c
00000350: b2db 58be c1b3 00bc ebe1 72bc 04d8 20be
00000360: 7d15 d53d 91c1 f43d daf5 d73b 97f3 a6be
00000370: 552c 843e 2c88 22ba 3d7e a93e 6733 91bd
00000380: 8899 0f3d 99a3 523d 860a d9bd 90be 69bd
00000390: 23e5 c23d 3af1 23be 0b27 9cbc 4f62 bf3e
000003a0: 36fc 573e 2f13 593e ad8b 14be f038 2ebe
000003b0: 3a3b 46be cd22 3e3d 7459 943c fbce b2bd
000003c0: 2dd2 083e aebb 4e3d 9638 e2bd 71df e83d
000003d0: ddbf 92bd f6d3 963d 089b b73d add4 03be
000003e0: feae e23d dfdc 623e 02f9 233e db39 8d3e
000003f0: 1080 e43d cebb aebc 0005 f1bc 2eea 2cbc

layer1.0.conv1.bias f4 [16]
0.0021127 -0.009688161 -0.0040490497 0.0023608208 -0.012175657 -0.010758815 0.0018565604 -0.004039614
0.005450088 -0.003849392 0.006625273 0.002566944 -0.014064372 0.0028552425 0.010877057 -0.0061632614
00000000: 3975 0a3b 18bb 1ebc e4ad 84bb 00b8 1a3b
00000010: 687c 47bc be45 30bc d457 f33a bd5e 84bb
00000020: a796 b23b 1546 7cbb d118 d93b 2d3a 283b
00000030: 406e 66bc 051f 3b3b af35 323c 2ff5 c9bb

layer1.0.bn1.weight f4 [16]
0.8026867 0.6726083 0.5787498 0.5344497 0.6150218 0.71758264 0.53812885 0.86769724
0.6496192 1.21761 0.51861477 0.7819396 0.6526063 0.80118346 0.78884465 0.8369238
00000000: e07c 4d3f 0f30 2c3f f228 143f b2d1 083f
00000010: 1272 1d3f 7fb3 373f d0c2 093f 6821 5e3f
00000020: 724d 263f a5da 9b3f f0c3 043f 322d 483f
00000030: 3511 273f 5c1a 4d3f b9f1 493f a340 563f

layer1.0.bn1.bias f4 [16]
0.35264838 0.21869916 -0.06364374 -0.06628662 -0.53597516 0.20206851 -0.2479664 0.55832607
0.17642829 -0.77285314 0.034690514 0.8841812 0.25537884 -0.031707764 0.1264312 -0.35354248
00000000: 548e b43e acf2 5f3e a657 82bd 48c1 87bd
00000010: ab35 09bf 0ceb 4e3e e7ea 7dbe 75ee 0e3f
00000020: 9ea9 343e b4d9 45bf a417 0e3d b359 623f
00000030: 04c1 823e 00e0 01bd 2e77 013e 8503 b5be

layer1.0.bn1.running_mean f4 [16]
-0.20404817 -0.4738913 -2.523191 -3.7070758 2.8859553 -1.9800817 0.9332119 -1.1467448
-3.6429121 1.1153016 -2.177313 -0.4874403 -1.5487719 -0.07378577 -0.41062507 2.8896894
00000000: 01f2 50be e1a1 f2be f67b 21c0 bb40 6dc0
00000010: 7eb3 3840 5173 fdbf fae6 6e3f 89c8 92bf
00000020: 7925 69c0 34c2 8e3f 1959 0bc0 c691 f9be
00000030: 283e c6bf fe1c 97bd 733d d2be acf0 3840

layer1.0.bn1.running_var f4 [16]
4.68348 3.3798568 3.6811254 1.727386 3.985126 3.470729 2.3940465 3.7411518
3.0673122 7.8776417 6.1706657 2.4699295 2.9361718 2.2398946 3.7473624 5.653115
00000000: 11df 9540 934f 5840 8f97 6b40 fc1a dd3f
00000010: 4e0c 7f40 6d20 5e40 0f38 1940 086f 6f40
00000020: d84e 4440 a415 fc40 1876 c540 5313 1e40
00000030: 3dea 3b40 6f5a 0f40 c9d4 6f40 51e6 b440

layer1.0.conv2.weight f4 [16, 16, 3, 3]
-0.22643878 -0.26136118 -0.0697783 0.06533156 0.17986251 0.07625329 -0.14679214 -0.16590329
-0.029937329 0.017016038 0.05573176 -0.12508975 0.1331262 0.32065544 0.036730584 -0.107913114
-0.0066980915 -0.030808352 -0.042506214 -0.13653728 -0.18340836 -0.012127257 0.069257475 -0.13568696
0.06952497 0.07658662 -0.01785777 -0.007342626 -0.015250233 -0.10974726 -0.22297424 -0.031995997
-0.09031439 0.034268033 0.08375557 0.033392023 0.08159367 0.07891564 0.15912783 -0.08071898
-0.1297613 -0.06073485 -0.22873826 -0.28416175 -0.21987544 0.05138705 -0.0070980797 0.045774024
-0.057215687 0.06425523 -0.032402873 0.15753378 0.04040046 0.13044128 0.027529983 0.06996595
0.042989034 0.0030214547 -0.03455845 0.011822937 -0.10952217 -0.13594489 0.03667781 -0.021381373
-0.49246165 0.022811498 -0.053354282 0.36294782 0.16298054 -0.104349725 -0.19426882 -0.07782177
0.05623515 0.15192987 0.12017972 0.036213033 -0.06230375 -0.13260517 0.24877532 0.16735792
0.14012222 -0.22195163 -0.1124994 0.0034181445 -0.1489055 -0.0472616 0.09308704 -0.12582193
0.030486269 0.12938756 0.0187465 -0.089693725 0.09017354 -0.23189956 -0.129481 -0.15975076
-0.111282624 -0.16897887 -0.035354923 -0.027782297 -0.534567 -0.29533285 0.08977283 0.68594605
-0.034285154 0.3087173 0.09524313 0.074374974 -0.1948009 -0.20778933 0.16924657 -0.28892073
-0.24012628 0.1045788 0.23567687 0.11055602 0.23088609 0.051434513 0.17778346 -0.100916564
-0.08586217 -0.038296044 -0.10337084 -0.16378851 -0.036159836 0.15879105 0.017849222 0.00085001107
-0.096304946 -0.21362132 -0.07119401 0.10125435 -0.21101399 0.044185527 0.28214353 0.013903206
-0.1369183 -0.13999349 -0.14091784 0.0026576992 0.2043192 -0.1870039 -0.012063546 0.15478985
0.019085534 0.15372992 0.01464407 0.05713641 0.24911386 0.03261899 0.008478088 0.06090319
-0.008652618 0.014402565 -0.07627483 -0.026911713 -0.1258699 -0.14238541 -0.19903715 -0.076503195
-0.15120584 -0.03101575 -0.094037 -0.010109945 -0.12210328 0.048347794 0.11457433 0.016386576
0.0038806042 -0.021128451 -0.019234749 -0.042888705 -0.09758993 -0.110294394 -0.04617735 -0.12774672
-0.1531088 -0.0074369935 -0.1111706 -0.113496415 -0.087338485 -0.080534585 -0.043772154 -0.012720548
0.038589112 0.090441816 0.06445634 0.15968718 0.23049365 0.12761943 0.22770563 0.080402955
0.19031572 0.22419138 0.13325998 -0.077657826 -0.14181083 -0.093181275 -0.12798908 0.06069155
0.014734754 -0.053117342 0.1769412 0.13231152 -0.043356325 0.089295745 0.040201556 0.05013875
0.114993006 0.018014248 0.019448616 0.13248813 -0.07095179 -0.06512127 -0.09825967 -0.021654677
-0.0068637934 -0.10684967 -0.1194541 0.0075247292 -0.11043633 -0.16673909 -0.017263774 -0.107888944
-0.12185779 -0.103610426 -0.10735921 -0.11729415 -0.09050243 -0.10722342 -0.12702157 -0.0642037
-0.06594076 -0.11787871 0.18742648 0.18244325 0.0770779 0.1763673 0.14193971 0.10378516
-0.026133876 -0.096959114 -0.052239344 -0.03961882 0.09692114 -0.071693495 -0.10697225 -0.017218778
-0.1044844 -0.1125664 -0.25447983 -0.017849261 0.028250873 0.1754289 0.1834479 0.16263168
00000000: 91df 67be 22d1 85be ede7 8ebd 8ecc 853d
00000010: e12d 383e af2a 9c3d ae50 16be 8de2 29be
00000020: 213f f5bc 3865 8b3c fc46 643d 8717 00be
00000030: 3c52 083e f32c a43e cf72 163d 8d01 ddbd
00000040: aa7b dbbb cc61 fcbc ff1a 2ebd 6ed0 0bbe
00000050: 67cf 3bbe 67b1 46bc ddd6 8d3d 86f1 0abe
00000060: 1c63 8e3d 72d9 9c3d 754a 92bc 699a f0bb
00000070: 1ddc 79bc 2cc3 e0bd 5c53 64be 3c0e 03bd
00000080: c0f6 b8bd a35c 0c3d 0a88 ab3d 13c6 083d
00000090: 951a a73d 869e a13d 68f2 223e fe4f a5bd
000000a0: 25e0 04be 1bc5 78bd 5d3a 6abe a67d 91be
000000b0: 0727 61be 3a7b 523d 0297 e8bb 8b7d 3b3d
000000c0: ff5a 6abd 3f98 833d e0b8 04bd 8950 213e
000000d0: f47a 253d 6692 053e 8f86 e13c 4f4a 8f3d
000000e0: 4515 303d 9903 463b 298d 0dbd feb4 413c
000000f0: 294d e0bd 2335 0bbe 793b 163d fd27 afbc
00000100: ef23 fcbe 2edf ba3c 058a 5abd 4cd4 b93e
00000110: 5fe4 263e 4fb5 d5bd 68ee 46be 0561 9fbd
00000120: d456 663d 8193 1b3e c920 f63d 1e54 143d
00000130: 3832 7fbd a6c9 07be f5be 7e3e e05f 2b3e
00000140: 337c 0f3e 4a47 63be 1666 e6bd f302 603b
00000150: af7a 18be 6195 41bd 6ba4 be3d 77d7 00be
00000160: 57be f93c 2c7e 043e 4392 993c 58b1 b7bd
00000170: e8ac b83d 1477 6dbe ab96 04be b495 23be
00000180: 25e8 e3bd cc08 2dbe 53d0 10bd b397 e3bc
00000190: 62d9 08bf de35 97be d1da b73d 299a 2f3f
000001a0: 976e 0cbd 3210 9e3e d50e c33d e851 983d
000001b0: e379 47be bac6 54be f94e 2d3e 6bed 93be
000001c0: aae3 75be 692d d63d 4755 713e 326b e23d
000001d0: 676d 6c3e ffac 523d de0c 363e 58ad cebd
000001e0: 81d8 afbd 50dc 1cbd 17b4 d3bd 2db8 27be
000001f0: 561c 14bd 1f9a 223e 8838 923c 47d3 5e3a
00000200: 873b c5bd 8cbf 5abe 2ace 91bd 715e cf3d
00000210: 0d14 58be e2fb 343d 1e75 903e 46ca 633c
00000220: 5034 0cbe 745a 0fbe c44c 10be cb2c 2e3b
00000230: 0d39 513e f37d 3fbe 2ea6 45bc 3b81 1e3e
00000240: 4459 9c3c 606b 1d3e aeed 6f3c de07 6a3d
00000250: b417 7f3e 7d9b 053d aee7 0a3c a075 793d
00000260: b6c3 0dbc bcf8 6b3c fa35 9cbd f475 dcbc
00000270: 0ae4 00be 7bcd 11be 65d0 4bbe b5ad 9cbd
00000280: b4d5 1abe be14 febc 7896 c0bd 2fa4 25bc
00000290: 4911 fabd 5608 463d f2a5 ea3d 243d 863c
000002a0: bc51 7e3b 9315 adbc 3192 9dbc 11ac 2fbd
000002b0: 3bdd c7bd 07e2 e1bd 7624 3dbd 09d0 02be
000002c0: 8ec8 1cbe 06b2 f3bb 69ad e3bd cf70 e8bd
000002d0: 85de b2bd 51ef a4bd 6e4a 33bd d869 50bc
000002e0: 9e0f 1e3d 8f39 b93d b001 843d 0985 233e
000002f0: 8706 6c3e abae 023e aa2b 693e 4eaa a43d
00000300: 20e2 423e 6d92 653e 4e75 083e 110b 9fbd
00000310: dc36 11be d3d5 bebd 920f 03be b497 783d
00000320: 0a6a 713c 9291 59bd 1330 353e ac7c 073e
00000330: 6796 31bd b0e0 b63d 63aa 243d 4a5e 4d3d
00000340: 7481 eb3d 9e92 933c b452 9f3c f8aa 073e
00000350: 2c4f 91bd 4d5e 85bd 5e3c c9bd 2665 b1bc
00000360: ace9 e0bb 00d4 dabd 5aa4 f4bd 0192 f63b
00000370: 712c e2bd a7bd 2abe c26c 8dbc e1f4 dcbd
00000380: 9490 f9bd b431 d4bd 25df dbbd ea37 f0bd
00000390: 5759 b9bd f497 dbbd f111 02be 3b7d 83bd
000003a0: f30b 87bd 656a f1bd baec 3f3e 67d2 3a3e
000003b0: 05db 9d3d a199 343e a558 113e 508d d43d
000003c0: b616 d6bc 8092 c6bd ecf8 55bd 5847 22bd
000003d0: 977e c63d 0ad4 92bd 4414 dbbd 650e 8dbc
000003e0: ebfb d5bd 3689 e6bd 2e4b 82be 9d38 92bc
000003f0: 606e e73c a2a3 333e c4d9 3b3e eb88 263e

layer1.0.conv2.bias f4 [16]
-0.005903419 0.020466613 -0.007021602 0.0023676413 0.009585394 0.0063183573 -0.003905268 -0.008819374
0.010762997 -0.008315418 -0.011890896 0.014496821 -0.0106159095 0.0056498684 -0.0005952085 0.0015740563
00000000: 7871 c1bb 99a9 a73c 7715 e6bb 6e2a 1b3b
00000010: 0e0c 1d3c 390a cf3b 86ef 7fbb 237f 10bc
00000020: 4857 303c 643d 08bc 08d2 42bc 1384 6d3c
00000030: 5aee 2dbc 8822 b93b c407 1cba 9150 ce3a

layer1.0.bn2.weight f4 [16]
0.7769688 0.42582026 1.0425767 0.9140298 0.65601796 0.68492436 0.7522238 0.30272362
0.7821966 0.46146497 0.49443164 0.85743403 0.951661 0.5114555 0.38406497 0.64321494
00000000: 6de7 463f 1d05 da3e 2773 853f dbfd 693f
00000010: cbf0 273f 3457 2f3f bd91 403f 97fe 9a3e
00000020: 093e 483f 2345 ec3e 2526 fd3e cc80 5b3f
00000030: 0ea0 733f bfee 023f 2aa4 c43e bca9 243f

layer1.0.bn2.bias f4 [16]
-0.19294633 0.1016311 -0.19074506 0.18369265 0.09450423 0.3411217 0.23422004 0.24287249
-0.07871991 0.27699023 -0.08539081 0.12349708 0.1197157 0.123070866 0.12321248 0.16113934
00000000: b993 45be f723 d03d ac52 43be ed19 3c3e
00000010: 6f8b c13d 81a7 ae3e 61d7 6f3e 91b3 783e
00000020: e737 a1bd aad1 8d3e 61e1 aebd 09ec fc3d
00000030: 812d f53d 940c fc3d d356 fc3d b601 253e

layer1.0.bn2.running_mean f4 [16]
-0.34921104 -0.3883276 1.2130667 -1.9690235 -0.61113816 -1.9176538 -0.06665559 -0.07374582
0.10812384 1.1246231 0.34109747 -0.3518 -0.48256165 -2.0280225 -0.30588958 -0.8443741
00000000: cacb b2be e0d2 c6be c545 9b3f f608 fcbf
00000010: 8d73 1cbf ae75 f5bf ba82 88bd 0c08 97bd
00000020: 0870 dd3d a6f3 8f3f 54a4 ae3e 211f b4be
00000030: 5212 f7be 1fcb 01c0 8f9d 9cbe e728 58bf

layer1.0.bn2.running_var f4 [16]
1.4399631 2.4355311 2.435019 3.0191624 0.9268398 2.3504877 2.484628 1.0539527
1.7689863 0.7812415 1.33006 1.7060183 2.2982106 1.5007316 1.2949156 2.063389
00000000: b650 b83f bedf 1b40 5ad7 1b40 f539 4140
00000010: 6045 6d3f 646e 1640 2504 1f40 ece7 863f
00000020: 256e e23f 71ff 473f 683f aa3f cf5e da3f
00000030: e215 1340 f917 c03f cbbf a53f 910e 0440

layer1.1.conv1.weight f4 [16, 16, 3, 3]
-0.18682201 -0.2254126 -0.35664272 0.17600846 0.24247195 -0.10864865 0.18810175 0.3544608
0.17784268 -0.15075684 -0.13986598 -0.23034553 -0.16600968 -0.14535865 -0.19962497 -0.13762288
0.010716605 0.028257966 -0.033997737 0.039474957 0.054280885 0.013384774 0.092079215 0.09439978
-0.15724348 -0.07736161 0.008521807 -0.1324799 -0.063624434 -0.15091993 0.011275198 0.053101934
-0.045477692 0.116138324 0.16679297 0.043463968 -0.052075222 -0.0029350363 -0.009580122 -0.088993765
0.013977935 0.067005135 -0.22012429 -0.12791936 -0.08289558 0.00075076934 0.24007206 0.013745876
-0.019192709 0.27470896 -0.010602168 0.005529865 -0.061060563 -0.19765346 -0.20392455 0.020173214
-0.11715312 -0.22565019 0.020660214 -0.22427455 -0.0029747782 0.0973468 -0.118102655 -0.092977636
-0.06558749 -0.12509826 -0.073850065 -0.031658303 -0.10162951 0.002985219 0.18250768 0.11452915
-0.090359315 0.16612193 0.06742349 -0.056693673 0.3237752 0.049373206 -0.1950706 -0.007662303
-0.058072623 -0.17942978 -0.06674867 -0.12943295 -0.0075051943 0.08428949 -0.023742968 0.004054713
0.11222417 0.033507515 0.14671703 0.17821191 0.21158786 -0.15065034 -0.057541825 -0.050965264
-0.32030416 -0.263316 -0.22749686 0.046466693 0.1746134 -0.031814776 -0.04630933 0.105327114
-0.11312903 -0.1236837 -0.26246193 -0.2806252 0.28682148 0.38612238 0.0741808 0.20903869
0.19010295 -0.044177696 -0.17546234 -0.214971 -0.28087246 0.29858828 0.3090438 0.05941304
0.10710932 0.076351106 -0.18547058 -0.16193947 -0.29143766 -0.3719791 0.10324205 0.13827199
0.07688003 0.036475666 -0.02178948 -0.020321282 -0.057791345 -0.11114381 -0.06415583 0.09578734
0.20737687 -0.054124024 0.110408224 0.11018837 0.057258613 -0.09772975 -0.05485321 -0.05980329
0.08334819 -0.080828264 -0.14038059 0.036525007 0.0627406 0.02162276 0.023351999 -0.01973316
0.07004377 -0.07485841 0.07459883 0.09567513 -0.08743425 0.0036024337 0.032994293 -0.03247716
0.03688653 0.034768067 -0.19413505 -0.09492865 -0.033096176 -0.17795803 -0.07691878 -0.030639287
-0.16736083 -0.084186085 -0.06287555 -0.12922964 0.020728843 -0.0003983289 -0.09392256 0.029255278
0.01967461 -0.12439482 -0.07895658 -0.047684103 0.0026404168 -0.0021258574 -0.13127781 -0.026085833
-0.02702646 -0.06716338 0.018874768 -0.007259684 -0.0020276646 -0.07951485 -0.103360996 -0.27635208
-0.06165937 -0.035774954 -0.11344573 0.06698283 0.13141732 -0.07862652 -0.23202111 -0.14859274
-0.040839687 -0.24631904 -0.18161619 -0.12686197 -0.1521556 -0.033826575 -0.042270463 -0.06769746
0.05283205 0.10264716 -0.045266252 0.02562638 0.027567599 -0.07376 -0.06387047 -0.05160298
-0.22267959 -0.05204013 -0.14324427 -0.10430112 -0.03504429 -0.2920765 0.18789513 0.06561206
0.07597664 -0.13512287 -0.1533862 -0.21696179 -0.047854185 -0.07376238 -0.095712125 -0.0045862035
0.0235036 -0.012708292 0.027590938 -0.0137136355 -0.01066923 0.086291894 0.077562034 0.021800531
0.04437184 0.05351556 -0.03531112 0.066434436 -0.18489113 -0.30072716 0.08834103 -0.0694293
-0.117917344 -0.11582493 0.06368414 -0.051939845 0.067866676 -0.0959042 -0.19472726 0.014850087
00000000: 454e 3fbe 90d2 66be e099 b6be 903b 343e
00000010: 914a 783e 2f83 debd bf9d 403e e37b b53e
00000020: 641c 363e 0060 1abe 0739 0fbe b3df 6bbe
00000030: 71fe 29be e6d8 14be 7d6a 4cbe 03ed 0cbe
00000040: b394 2f3c 407d e73c 3641 0bbd 7eb0 213d
00000050: a255 5e3d d04b 5b3c 0794 bc3d ac54 c13d
00000060: 6f04 21be c46f 9ebd 0d9f 0b3c d0a8 07be
00000070: 874d 82bd c18a 1abe 9cbb 383c 6a81 593d
00000080: d146 3abd eed9 ed3d c7cb 2a3e 4607 323d
00000090: d44c 55bd bd59 40bb f2f5 1cbc 5d42 b6bd
000000a0: b503 653c fd39 893d 4368 61be 4bfd 02be
000000b0: 28c5 a9bd 47cf 443a 73d5 753e 6236 613c
000000c0: 073a 9dbc a7a6 8c3e b7b4 2dbc df33 b53b
000000d0: a41a 7abd ab65 4abe 99d1 50be 4c42 a53c
000000e0: faed efbd d810 67be 9c3f a93c 3aa8 65be
000000f0: 7ff4 42bb c25d c73d cedf f1bd 0f6b bebd
00000100: bc52 86bd c219 00be b43e 97bd 23ac 01bd
00000110: 2223 d0bd aaa3 433b 4be3 3a3e 428e ea3d
00000120: 4e0e b9bd de1b 2a3e 5415 8a3d a037 68bd
00000130: ddc5 a53e 8f3b 4a3d 96c0 47be 0e14 fbbb
00000140: 8fdd 6dbd 71bc 37be 87b3 88bd 128a 04be
00000150: 22ee f5bb f89f ac3d 9d80 c2bc 66dd 843b
00000160: c9d5 e53d 2d3f 093d fd3c 163e 2f7d 363e
00000170: 7daa 583e 1544 1abe fab0 6bbd f4c0 50bd
00000180: e8fe a3be 5bd1 86be f0f4 68be dc53 3e3d
00000190: dbcd 323e 3650 02bd daae 3dbd beb5 d73d
000001a0: 31b0 e7bd e14d fdbd 6961 86be 1bae 8fbe
000001b0: 44da 923e d5b1 c53e 1aec 973d 3d0e 563e
000001c0: 59aa 423e acf3 34bd 66ac 33be 5c21 5cbe
000001d0: 84ce 8fbe 90e0 983e fd3a 9e3e 165b 733d
000001e0: 225c db3d f85d 9c3d 00ec 3dbe 76d3 25be
000001f0: 5137 95be 0b74 bebe 9170 d33d 2c97 0d3e
00000200: 4773 9d3d 8267 153d da7f b2bc d178 a6bc
00000210: 9eb6 6cbd 5e9f e3bd 2264 83bd 272c c43d
00000220: 9a5a 543e 27b1 5dbd b51d e23d 71aa e13d
00000230: 0288 6a3d 8926 c8bd c2ad 60bd 4bf4 74bd
00000240: 75b2 aa3d 4a89 a5bd eebf 0fbe 3f9b 153d
00000250: 257e 803d 3722 b13c b14c bf3c 70a7 a1bc
00000260: 1c73 8f3d 5e4f 99bd 45c7 983d 53f1 c33d
00000270: ba10 b3bd cf16 6c3b 0625 073d c506 05bd
00000280: 5516 173d f668 0e3d 57cb 46be f469 c2bd
00000290: db8f 07bd a13a 36be 9887 9dbd 3eff fabc
000002a0: a360 2bbe c169 acbd e5c4 80bd c654 04be
000002b0: 89cf a93c cdd6 d0b9 795a c0bd c4a8 ef3c
000002c0: a62c a13c b6c2 febd fdb3 a1bd 6850 43bd
000002d0: d80a 2d3b f851 0bbb b16d 06be f5b1 d5bc
000002e0: 9866 ddbc f48c 89bd 429f 9a3c a5e2 edbb
000002f0: 91e2 04bb afd8 a2bd eeae d3bd 057e 8dbe
00000300: 898e 7cbd c288 12bd 3c56 e8bd 4b2e 893d
00000310: 4392 063e f106 a1bd f196 6dbe b228 18be
00000320: 8447 27bd 0f3b 7cbe 98f9 39be 1be8 01be
00000330: adce 1bbe bc8d 0abd cb23 2dbd f7a4 8abd
00000340: 6b66 583d ad38 d23d 1b69 39bd 6aee d13c
00000350: 72d5 e13c 7c0f 97bd 85ce 82bd a55d 53bd
00000360: 1e06 64be 0828 55bd a0ae 12be d39b d5bd
00000370: 9a8a 0fbd 0d8b 95be 9567 403e 9e5f 863d
00000380: a499 9b3d a65d 0abe 4611 1dbe 3b2b 5ebe
00000390: c002 44bd bb10 97bd b804 c4bd dd47 96bb
000003a0: 9f8a c03c 7136 50bc 6406 e23c 28af 60bc
000003b0: fecd 2ebc ceb9 b03d d8d8 9e3d 0797 b23c
000003c0: 3fbf 353d 2233 5b3d 65a2 10bd c70e 883d
000003d0: 1a54 3dbe e9f8 99be 24ec b43d f330 8ebd
000003e0: a67e f1bd 9f35 edbd d56c 823d e0be 54bd
000003f0: affd 8a3d 6c69 c4bd 9566 47be c84d 733c

layer1.1.conv1.bias f4 [16]
-0.0018174025 -0.011820979 0.008506686 0.00081010704 -0.0092847375 0.011296547 -0.011705183 -0.0124389995
-0.012634528 -0.0061698486 0.010439867 -0.0022994622 0.014599885 -0.0015240209 -0.012077275 0.0006669505
00000000: e935 eeba c8ac 41bc a15f 0b3c 5d5d 543a
00000010: 031f 18bc 2715 393c 19c7 3fbc f2cc 4bbc
00000020: 0d01 4fbc 712c cabb fa0b 2b3c 93b2 16bb
00000030: 5b34 6f3c a8c1 c7ba c3df 45bc 4ad6 2e3a

layer1.1.bn1.weight f4 [16]
0.8069727 0.67898554 0.6745295 0.9825423 0.7834845 0.46776122 0.6964684 0.68276316
0.60381144 0.901953 0.66419667 0.60844344 0.83845705 0.7020263 0.71855426 0.60297424
00000000: c395 4e3f ffd1 2d3f f7ad 2c3f e487 7b3f
00000010: 7192 483f 667e ef3e c14b 323f 91c9 2e3f
00000020: 6393 1a3f 64e6 663f cb08 2a3f f3c2 1b3f
00000030: 1fa5 563f ffb7 333f 2cf3 373f 855c 1a3f

layer1.1.bn1.bias f4 [16]
-0.5349286 -0.12776347 0.10304421 -0.52607393 -0.37270647 -0.27771917 -0.46153578 0.08403274
-0.19284245 0.56621957 -0.44332772 -0.23439641 -0.19159222 0.17135864 0.5349319 -0.322611
00000000: 15f1 08bf 6dd4 02be d808 d33d c8ac 06bf
00000010: 62d3 bebe 3531 8ebe 6b4e ecbe 5b19 ac3d
00000020: 7e78 45be c4f3 103f dafb e2be 9d05 70be
00000030: c030 44be a478 2f3e 4cf1 083f 452d a5be

layer1.1.bn1.running_mean f4 [16]
-1.0652094 -3.7417245 -2.5929704 0.4910905 -0.13456449 2.611196 1.2500746 -2.4288616
-4.600833 -1.364902 6.53352 3.9936457 0.8217059 -1.6212255 -0.39384556 0.37073654
00000000: c858 88bf 6a78 6fc0 3af3 25c0 3770 fb3e
00000010: 46cb 09be d61d 2740 7202 a03f 7872 1bc0
00000020: 063a 93c0 1cb5 aebf 9912 d140 e497 7f40
00000030: 515b 523f 5184 cfbf 20a6 c9be 2ed1 bd3e

layer1.1.bn1.running_var f4 [16]
3.9422095 2.6313999 5.075099 4.910366 6.35911 2.106952 2.52747 6.2285185
2.0546982 10.267165 3.7053046 3.2267914 6.902145 4.9897923 5.3027306 2.9436138
00000000: 294d 7c40 db68 2840 3667 a240 b821 9d40
00000010: d47d cb40 4dd8 0640 12c2 2140 0650 c740
00000020: 2d80 0340 4f46 2441 b623 6d40 c083 4e40
00000030: 5fde dc40 61ac 9f40 f8af a940 2b64 3c40

layer1.1.conv2.weight f4 [16, 16, 3, 3]
0.08851685 0.2502795 0.22992098 0.054301094 0.26860747 0.24380358 0.05527237 0.16319594
0.10612548 0.043330997 -0.01204674 0.14021151 -0.13774787 -0.051490113 0.117587686 -0.25953272
-0.16336861 0.07430416 0.16437705 0.21814372 0.107615575 -0.025846472 -0.0342147 -0.097913966
0.0347298 0.05247025 0.119905576 -0.24500531 -0.146839 -0.26839957 -0.18733929 -0.11210772
-0.13742502 -0.06062421 -0.020595007 -0.055033524 0.0692751 0.032924667 -0.019529214 -0.11140624
-0.036795612 -0.032194905 -0.16529399 -0.1036669 -0.14183536 -0.050365746 -0.06278759 -0.057192378
-0.0048984843 -0.16032088 -0.1580999 0.012549771 -0.092137374 -0.045517772 0.055971105 0.040709108
0.15774661 0.08489862 0.0009694424 0.11061677 0.115394786 -0.016067887 0.042384993 0.14764433
0.07165642 -0.016559845 -0.013529101 0.1137376 -0.15350036 0.16400391 0.110966176 -0.14322364
0.09500775 -0.019939614 -0.089618415 -0.05901701 0.017572742 -0.1523993 -0.0792489 0.1017392
-0.15213 0.07976363 0.046324663 0.086715415 0.3187361 -0.23401631 -0.09928376 -0.014950865
-0.16631061 0.035730507 -0.055653762 -0.07961727 -0.045739625 -0.01703461 -0.11775325 -0.06857377
-0.035120685 -0.19865493 -0.117166325 -0.09049945 -0.046941068 0.009330203 0.17925508 0.061999872
0.14852226 0.0805172 -0.024074368 -0.0154573675 0.06284642 0.08126552 -0.009502033 0.088017985
-0.02143212 -0.1717737 0.06367956 0.03287803 0.011427515 -0.15321556 0.041224074 0.057047684
-0.1240667 -0.18911035 -0.2853148 -0.011159978 -0.15939717 -0.13100001 -0.043059275 -0.26529434
-0.09754289 -0.1021493 0.30750242 -0.1069512 0.039978493 -0.23263796 -0.0010691701 0.14928478
0.1631782 0.08920279 -0.14713527 -0.20250687 -0.21539411 0.075841285 0.0307119 0.020649992
0.27817723 0.15199924 0.052638296 0.13816145 0.09814171 0.03360702 0.07642424 0.057954073
0.05550038 0.039780226 -0.05251777 0.03049693 0.022818316 -0.06198874 -0.06150813 0.022719178
-0.055705115 0.019014014 -0.074789934 -0.058066316 -0.010241786 -0.0059004603 0.06137129 0.087868705
0.031116705 0.040406615 0.05505303 0.10262273 0.16309659 0.042120285 0.1282893 0.17615888
0.07560116 -0.012193503 -0.0049564806 -0.064926185 0.03994688 0.05564438 0.053812463 0.12822121
0.11037657 0.110355586 0.049778398 0.037077494 0.023653211 0.064299464 0.12343771 0.18434347
0.092835076 0.16530725 0.18292391 0.10023177 0.14373535 0.15373084 -0.067622125 0.042125385
0.08366741 0.045824863 0.14566411 0.07883789 0.08837619 0.06037919 -0.04162915 0.065087825
0.032787453 -0.0019698725 0.06007162 0.07235818 0.045298196 0.040609512 -0.021651236 -0.021649424
0.03265186 0.02595462 -0.0059674536 0.038533658 0.04714048 -0.03635406 0.04001586 0.067493916
0.0179577 -0.02837304 -0.016190527 0.012505096 -0.120484084 -0.02865352 -0.08666622 -0.09400663
-0.0091471495 -0.12913227 -0.019419748 0.11129851 0.11405345 -0.041407064 0.1309771 0.1570092
-0.034468632 0.081391655 0.09902099 0.11832514 0.14423752 0.14719467 0.100637004 0.1717045
0.13961627 -0.030739533 -0.04007339 0.023459353 0.025560971 0.082333334 0.082754605 -0.05143149
00000000: 5248 b53d a224 803e 6870 6b3e d36a 5e3d
00000010: eb86 893e a5a7 793e 4865 623d d61c 273e
00000020: 5158 d93d d87b 313d b15f 45bc 9b93 0f3e
00000030: c70d 0dbe 4ce7 52bd d0d1 f03d 79e1 84be
00000040: 1a4a 27be c82c 983d 7552 283e 1161 5f3e
00000050: 8e65 dc3d fbbb d3bc b724 0cbd 1e87 c8bd
00000060: d640 0e3d 0beb 563d 0e91 f53d ace2 7abe
00000070: f65c 16be ab6b 89be dfd5 3fbe bb98 e5bd
00000080: 25b9 0cbe 1751 78bd dcb6 a8bc d56a 61bd
00000090: 1be0 8d3d 04dc 063d bbfb 9fbc f428 e4bd
000000a0: ffb6 16bd cede 03bd d442 29be 504f d4bd
000000b0: 4a3d 11be 504c 4ebd c896 80bd 8e42 6abd
000000c0: 7783 a0bb 282b 24be f1e4 21be 8e9d 4d3c
000000d0: 85b2 bcbd d870 3abd f541 653d 98be 263d
000000e0: 5488 213e 54df ad3d 2e22 7e3a 0c8b e23d
000000f0: 1a54 ec3d cda0 83bc e39b 2d3d 1330 173e
00000100: 9ac0 923d 83a8 87bc 2aa9 5dbc 42ef e83d
00000110: 332f 1dbe a4f0 273e 3c42 e33d 38a9 12be
00000120: 6c93 c23d 6758 a3bc dc89 b7bd d2bb 71bd
00000130: b6f4 8f3c 900e 1cbe 3f4d a2bd a45c d03d
00000140: f7c7 1bbe 1d5b a33d eebe 3d3d da97 b13d
00000150: 6131 a33e f9a1 6fbe 4955 cbbd 79f4 74bc
00000160: 544d 2abe 275a 123d 33f5 63bd 610e a3bd
00000170: 7959 3bbd 2b8c 8bbc 9e28 f1bd 6870 8cbd
00000180: b5da 0fbd 336c 4bbe e6f4 efbd c757 b9bd
00000190: 4745 40bd b5dd 183c a58e 373e 94f3 7d3d
000001a0: 3816 183e 34e6 a43d 9c37 c5bc e640 7dbc
000001b0: a0b5 803d 896e a63d 6aae 1bbc c642 b43d
000001c0: 6a92 afbc 72e5 2fbe 6e6a 823d 1dab 063d
000001d0: 793a 3b3c 8ae4 1cbe 93da 283d d5aa 693d
000001e0: af16 febd 25a6 41be c814 92be 57d8 36bc
000001f0: 0339 23be de24 06be ec5e 30bd a9d4 87be
00000200: 91c4 c7bd a733 d1bd f570 9d3e 3b09 dbbd
00000210: 7dc0 233d a538 6ebe 6523 8cba 1cde 183e
00000220: 3018 273e f4af b63d a1aa 16be f65d 4fbe
00000230: 4690 5cbe ad52 9b3d 8697 fb3c 2c2a a93c
00000240: 3f6d 8e3e b0a5 1b3e 419b 573d 327a 0d3e
00000250: 85fe c83d 84a7 093d 5084 9c3d 4061 6d3d
00000260: 5e54 633d 97f0 223d e01c 57bd b3d4 f93c
00000270: 7aed ba3c e8e7 7dbd f3ef 7bbd 921d ba3c
00000280: 0c2b 64bd 47c3 9b3c 772b 99bd f2d6 6dbd
00000290: 2acd 27bc a658 c1bb 7660 7b3d 82f4 b33d
000002a0: 76e8 fe3c 6881 253d 497f 613d de2b d23d
000002b0: cb02 273e 5286 2c3d 455e 033e fe62 343e
000002c0: c8d4 9a3d 42c7 47bc f969 a2bb 05f8 84bd
000002d0: 579f 233d 5deb 633d 756a 5c3d 6c4c 033e
000002e0: 1c0d e23d 1c02 e23d 6fe4 4b3d 92de 173d
000002f0: 61c4 c13c 70af 833d e9cc fc3d 89c4 3c3e
00000300: 5120 be3d 4e46 293e 6850 3b3e 5046 cd3d
00000310: 5c2f 133e 9e6b 1d3e 787d 8abd ab8b 2c3d
00000320: d259 ab3d dab2 3b3d f928 153e c275 a13d
00000330: 93fe b43d 2b50 773d 5483 2abd c44c 853d
00000340: 234c 063d fa18 01bb a90d 763d 8730 943d
00000350: 9a8a 393d 2956 263d ef5d b1bc 225a b1bc
00000360: f5bd 053d c99e d43c a18a c3bb 78d5 1d3d
00000370: 6016 413d ffe7 14bd ace7 233d 403a 8a3d
00000380: 071c 933c 946e e8bc ffa1 84bc 2de2 4c3c
00000390: 5cc0 f6bd c9ba eabc 0f7e b1bd 8c86 c0bd
000003a0: eddd 15bc 403b 04be 2a16 9fbc 79f0 e33d
000003b0: db94 e93d 749a 29bd dc1e 063e 05c7 203e
000003c0: fb2e 0dbd abb0 a63d 84cb ca3d 7354 f23d
000003d0: 00b3 133e 33ba 163e c61a ce3d 4ed3 2f3e
000003e0: 91f7 0e3e 79d1 fbbc ff23 24bd d42d c03c
000003f0: 3e65 d13c 619e a83d 3f7b a93d d3a9 52bd

layer1.1.conv2.bias f4 [16]
0.010482388 -0.0023446293 0.0033635807 0.007149918 -0.0089794295 -0.0058805733 -0.014538537 -0.0035663538
-0.002878945 0.013469624 0.0048266626 0.0022686103 -0.005075904 -0.0042717643 0.00029305453 0.011420008
00000000: 52be 2b3c 5aa8 19bb 856f 5c3b dc49 ea3b
00000010: 751e 13bc d3b1 c0bb 0b33 6ebc 7db9 69bb
00000020: afac 3cbb b3af 5c3c fb28 9e3b f7ac 143b
00000030: c553 a6bb 28fa 8bbb 1da5 9939 fc1a 3b3c

layer1.1.bn2.weight f4 [16]
0.84590465 0.43667358 0.6384781 0.8142917 1.0408889 0.40630278 0.8403548 0.5648874
1.0809796 0.50825804 0.36184967 1.0102106 0.61347014 0.48270375 0.3701904 0.76035976
00000000: 358d 583f ae93 df3e 4d73 233f 6c75 503f
00000010: d93b 853f eb06 d03e 7e21 573f 769c 103f
00000020: 8a5d 8a3f 331d 023f 5c44 b93e 954e 813f
00000030: 610c 1d3f f224 f73e 9989 bd3e f0a6 423f

layer1.1.bn2.bias f4 [16]
-0.16077091 0.08449665 0.43902463 -0.010696049 0.13443275 0.06320287 0.14244562 0.25253427
0.21678674 0.098969966 0.1807891 0.054305684 0.20447296 0.07061904 0.20706092 0.083350115
00000000: 21a1 24be 940c ad3d d6c7 e03e 7b3e 2fbc
00000010: bda8 093e 8270 813d 44dd 113e 2c4c 813e
00000020: 58fd 5d3e c4b0 ca3d c720 393e a36f 5e3d
00000030: 5c61 513e b7a0 903d c707 543e 77b3 aa3d

layer1.1.bn2.running_mean f4 [16]
-0.58871776 0.5430028 0.024617918 -1.1689781 -1.2273506 -0.5974122 -0.60274196 -1.3874787
-0.22784215 0.30577573 -0.39129698 -0.688721 -0.9825437 -1.9257941 -0.077412054 -0.83531386
00000000: 35b6 16bf 3b02 0b3f 84ab c93c 13a1 95bf
00000010: d319 9dbf 02f0 18bf 4c4d 1abf e798 b1bf
00000020: 744f 69be a38e 9c3e 1458 c8be 0550 30bf
00000030: fc87 7bbf 6c80 f6bf 368a 9ebd 21d7 55bf

layer1.1.bn2.running_var f4 [16]
0.89102805 0.80989456 0.52758294 1.2302577 1.1905367 0.6941855 1.3498694 1.3619298
1.324684 0.687034 0.7988036 1.058616 0.9080683 1.2664273 0.8166846 1.2824672
00000000: 6a1a 643f 4055 4f3f ad0f 073f 1679 9d3f
00000010: 8263 983f 24b6 313f 85c8 ac3f b753 ae3f
00000020: 3f8f a93f 76e1 2f3f 657e 4c3f bb80 873f
00000030: 2a77 683f 4a1a a23f 3e12 513f e327 a43f

layer2.0.conv1.weight f4 [32, 16, 3, 3]
0.14386517 0.116510846 -0.08209981 -0.00725317 0.1346875 0.054074537 0.031175844 0.11246936
-0.007981369 -0.08000338 -0.11247704 -0.0072352034 0.006654737 -0.016588887 -0.03235459 0.017628089
0.044026792 -0.1355364 -0.0392734 -0.050550457 0.04506659 -0.0064021884 -0.0032868662 -2.9760038e-05
0.050291914 0.025990997 -0.05361107 -0.01432641 -0.035463423 -0.089902654 0.10929763 -0.01007888
-0.111163154 0.12079952 -0.0017816374 -0.09602653 -0.09857599 0.044058725 0.03500047 -0.07795932
0.0032021336 -0.0331458 0.10861013 0.057962537 -0.07993879 -0.009875234 0.13288225 0.20326099
-0.037237402 0.14497821 0.45776108 -0.031891856 0.28979287 0.47637796 -0.07148713 -0.18112956
0.14025591 -0.20603709 -0.15209939 0.21365292 -0.14240637 -0.014501746 0.14246833 0.025869941
-0.041654423 -0.0036986684 0.07632916 0.025237057 -0.06658947 0.067961015 0.068203405 -0.12851146
-0.010978943 -0.028059961 -0.04860148 -0.053528864 0.06325609 0.098013416 0.08266164 0.50126356
0.2590202 0.12634738 0.018119747 -0.073608644 0.08003878 -0.022027321 -0.13302432 0.079367384
-0.08267127 -0.10665066 -0.05905127 -0.015608622 0.13951829 -0.09799315 -0.07795775 0.051306084
-0.047221925 -0.0065181702 0.04799365 0.014126786 0.060474332 -0.07688135 -0.124109074 -0.11787
0.051350366 -0.08329745 -0.062503114 0.15412985 -0.054745235 0.039345387 0.084746405 0.006998813
-0.10055898 0.0638195 0.047920298 -0.17326503 0.057180874 0.033993512 0.048418775 -0.011320762
0.035208426 0.07613549 0.049680963 0.13489215 0.130953 0.06755686 0.1431879 -0.054598108
-0.19480087 0.12558721 0.02233033 -0.20144492 0.21624175 0.0029314915 -0.17513168 -0.07091338
-0.090608366 0.0067641605 -0.1411685 -0.16511606 -0.11078692 0.013879417 -0.24118014 -0.2357484
-0.19826587 0.101698786 0.13247356 -0.059628706 0.33398888 -0.2838194 0.17166597 -0.35353023
0.11272678 -0.039293006 -0.16146162 0.010997672 -0.1177897 0.03436084 0.027331624 -0.00817631
0.082717925 -0.05929048 0.041006338 -0.22988482 -0.012275899 -0.12883149 0.13954714 -0.13671407
0.14943513 -0.0762337 -0.12087136 -0.035689022 0.12489369 0.0048052254 0.106758475 0.093581714
0.020202696 -0.024774842 0.014564536 0.011559779 -0.2500041 0.068286456 0.20704558 0.05094517
0.23759733 -0.048519887 0.13181175 -0.30082625 0.1396021 0.32600066 -0.19741593 0.09218829
-0.14381854 0.024503889 0.22593391 -0.021743609 0.14143835 -0.15951404 0.23423441 -0.33958006
0.20268421 -0.059918012 0.18217644 0.015247425 0.06595852 0.003393658 -0.27311915 0.003252806
-0.16546464 0.06783481 -0.12428548 0.1431511 0.04962389 0.08227889 0.09033307 0.03013899
0.092005506 -0.30022368 0.2254342 -0.3982023 0.45955113 -0.22138453 0.37629142 -0.27581456
-0.32941657 -0.20241748 0.018714286 -0.14181796 0.06401548 0.023017174 -0.0036766885 0.06432196
-0.027849706 0.15120073 0.018539114 -0.063156106 -0.010643197 -0.02946203 -0.002575748 0.014780729
-0.0036258707 -0.032317106 0.11245263 -0.044104118 -0.00669216 -0.03752648 0.028960668 -0.1760172
0.13957168 -0.20461811 0.0035233963 -0.08447977 -0.07808238 0.09468688 -0.1347992 0.31012127
00000000: 6451 133e 3d9d ee3d f223 a8bd 00ac edbb
00000010: 85eb 093e 437d 5d3d 7c64 ff3c 5656 e63d
00000020: 4ac4 02bc d0d8 a3bd 5d5a e6bd 4915 edbb
00000030: fb0f da3b 6be5 87bc 3f86 04bd c868 903c
00000040: 7055 343d 0eca 0abe 25dd 20bd ff0d 4fbd
00000050: bf97 383d 73c9 d1bb 7768 57bb 32a5 f9b7
00000060: e5fe 4d3d 12eb d43c 4897 5bbd 52b9 6abc
00000070: 1842 11bd e21e b8bd 70d7 df3d e321 25bc
00000080: 82a9 e3bd bd65 f73d d585 e9ba 8fa9 c4bd
00000090: 35e2 c9bd ec76 343d a75c 0f3d 23a9 9fbd
000000a0: e3da 513b e4c3 07bd fd6e de3d 206a 6d3d
000000b0: f3b6 a3bd bccb 21bc 4912 083e a623 503e
000000c0: 3f86 18bd 2b75 143e a95f ea3e 09a1 02bd
000000d0: bb5f 943e d0e7 f33e d867 92bd 077a 39be
000000e0: 3f9f 0f3e 63fb 52be f1bf 1bbe d5c7 5a3e
000000f0: fad2 11be bb98 6dbc 38e3 113e 33ed d33c
00000100: d49d 2abd 5c65 72bb 7652 9c3d f2bd ce3c
00000110: 0f60 88bd 252f 8b3d 3aae 8b3d 8298 03be
00000120: 06e1 33bc 01de e5bc 5812 47bd 1541 5bbd
00000130: 698c 813d 42bb c83d 824a a93d cf52 003f
00000140: 4c9e 843e 3561 013e dd6f 943c 21c0 96bd
00000150: 5feb a33d a472 b4bc 8737 08be 5e8b a23d
00000160: 8e4f a9bd a96b dabd bfdf 71bd 4ebb 7fbc
00000170: e2dd 0e3e a2b0 c8bd 50a8 9fbd 5426 523d
00000180: c76b 41bd 6096 d5bb fd94 443d 0974 673c
00000190: efb3 773d f873 9dbd e62c febd d465 f1bd
000001a0: c354 523d da97 aabd a201 80bd 37d4 1d3e
000001b0: 8a3c 60bd a128 213d 868f ad3d 4c56 e53b
000001c0: def1 cdbd ccb3 823d 1348 443d 636c 31be
000001d0: 7e36 6a3d c83c 0b3d c452 463d b87a 39bc
000001e0: b636 103d ecec 9b3d 447e 4b3d 2b21 0a3e
000001f0: 8b18 063e 405b 8a3d d99f 123e 44a2 5fbd
00000200: e179 47be ef99 003e 19ee b63c 9447 4ebe
00000210: 7a6e 5d3e 441e 403b b855 33be 093b 91bd
00000220: e190 b9bd e4a5 dd3b 7a8e 10be 2f14 29be
00000230: 41e4 e2bd 7f66 633c edf7 76be 0768 71be
00000240: 3506 4bbe 7447 d03d 26a7 073e 3b3d 74bd
00000250: 9700 ab3e c750 91be 34c9 2f3e ea01 b5be
00000260: 4cdd e63d b4f1 20bd 3256 25be 942f 343c
00000270: ba3b f1bd f4bd 0c3d 92e6 df3c eef5 05bc
00000280: 0468 a93d 93da 72bd 43f6 273d ed66 6bbe
00000290: da20 49bc 67ec 03be 72e5 0e3e c6fe 0bbe
000002a0: 8605 193e 6a20 9cbd 678b f7bd a72e 12bd
000002b0: 43c8 ff3d 2775 9d3b 30a4 da3d c5a7 bf3d
000002c0: 2080 a53c 9cf4 cabc 17a0 6e3c 3a65 3d3c
000002d0: 8a00 80be c5d9 8b3d c203 543e e2ab 503d
000002e0: b74c 733e cabc 46bd a9f9 063e e605 9abe
000002f0: daf3 0e3e 8fe9 a63e 6727 4abe 37cd bc3d
00000300: 2b45 13be 61bc c83c 385b 673e a71f b2bc
00000310: 37d5 103e a657 23be 25db 6f3e 70dd adbe
00000320: 738c 4f3e 976c 75bd 768c 3a3e 56d0 793c
00000330: 4315 873d 2268 5e3b 46d6 8bbe 072d 553b
00000340: 906f 29be faec 8a3d 6389 febd 3496 123e
00000350: 6c42 4b3d d681 a83d 8b00 b93d 0be6 f63c
00000360: 626d bc3d ebb6 99be 39d8 663e 2ce1 cbbe
00000370: 494a eb3e a0b2 62be 45a9 c03e 9137 8dbe
00000380: 4aa9 a8be 8746 4fbe b44e 993c ba38 11be
00000390: 8c1a 833d 838e bc3c 99f4 70bb 3bbb 833d
000003a0: 1125 e4bc 5dd4 1a3e 57df 973c fd57 81bd
000003b0: ce60 2ebc 5b5a f1bc e1cd 28bb df2a 723c
000003c0: 04a0 6dbb f15e 04bd 914d e63d 85a6 34bd
000003d0: e849 dbbb 5eb5 19bd ec3e ed3c da3d 34be
000003e0: e1eb 0e3e 6987 51be c8e8 663b bb03 adbd
000003f0: a8e9 9fbd 32eb c13d cd08 0abe 37c8 9e3e

layer2.0.conv1.bias f4 [32]
0.0073928293 -0.008132431 0.01285979 0.0020568327 0.005997387 -0.00974967 -0.0020466715 0.0020456386
-0.0005263143 -0.0031015507 0.0020921119 0.010502638 0.0008575313 -0.015545401 -0.010621969 -0.0087066805
-0.011391506 0.00886973 0.0022620584 -0.0061088707 -0.008859806 0.017544929 0.00521468 -0.010539477
-0.0024261102 0.001272565 -0.0025304544 0.0023683507 0.004473671 -0.008679612 0.00058324524 -0.008589875
00000000: 8c3f f23b e33d 05bc deb1 523c edcb 063b
00000010: bb85 c43b 14bd 1fbc 7321 06bb 1f10 063b
00000020: 5bf8 09ba 6343 4bbb d01b 093b 4213 2c3c
00000030: f4cb 603a 23b2 7ebc c407 2ebc 77a6 0ebc
00000040: 70a3 3abc 5852 113c 0b3f 143b ec2c c8bb
00000050: b828 11bc 62ba 8f3c e8df aa3b c5ad 2cbc
00000060: 60ff 1ebb 32cc a63a fbd5 25bb 5536 1b3b
00000070: df97 923b ee34 0ebc ede4 183a 8cbc 0cbc

layer2.0.bn1.weight f4 [32]
0.68919134 0.8461484 0.868333 1.0659876 0.95734537 0.81031245 0.9271928 1.0047829
0.80494344 0.85800976 0.8716752 0.6757865 0.984165 0.76864564 0.9094815 0.70972383
0.8032695 0.87113225 0.8587698 0.7531172 0.6540712 0.9644478 0.7392004 0.7682365
0.7428591 0.67811257 0.9516775 0.8581244 0.92387134 0.9090421 0.7215135 0.9715434
00000000: d86e 303f 2e9d 583f 124b 5e3f 4872 883f
00000010: 9614 753f a370 4f3f 825c 6d3f ba9c 803f
00000020: c610 4e3f 87a6 5b3f 1b26 5f3f 5800 2d3f
00000030: 3df2 7b3f f6c5 443f c8d3 683f 76b0 353f
00000040: 12a3 4d3f 8602 5f3f 56d8 5b3f 4acc 403f
00000050: 3671 273f 0de6 763f 3d3c 3d3f 26ab 443f
00000060: 042c 3e3f c998 2d3f 23a1 733f 0aae 5b3f
00000070: d582 6c3f fcb6 683f 1cb5 383f 11b7 783f

layer2.0.bn1.bias f4 [32]
-0.14442985 -0.25446457 -0.22664416 -0.29009765 -0.11885072 -0.15585695 -0.16630678 -0.3075302
-0.32438284 -0.1014203 -0.22135878 -0.041498166 -0.17388535 -0.080681495 -0.18292774 -0.08903789
-0.40997416 -0.25277516 -0.112959765 -0.12142439 -0.3180973 -0.09684817 -0.2908487 -0.3268621
-0.13045675 -0.33703974 -0.26473904 -0.1623754 -0.13608384 -0.23615713 -0.14981094 -0.10672027
00000000: 6be5 13be 2e49 82be 6815 68be ae87 94be
00000010: 0268 f3bd f798 1fbe 534c 2abe 9974 9dbe
00000020: 8215 a6be 72b5 cfbd e0ab 62be fbf9 29bd
00000030: 000f 32be 573c a5bd 6951 3bbe 7f59 b6bd
00000040: 22e8 d1be bf6b 81be 7357 e7bd 5aad f8bd
00000050: a6dd a2be 5558 c6bd 1fea 94be 785a a7be
00000060: 7496 05be 7990 acbe e08b 87be bd45 26be
00000070: 9059 0bbe 2dd3 71be 0a68 19be 2890 dabd

layer2.0.bn1.running_mean f4 [32]
2.1237075 -0.62774694 -0.27988654 -0.15085272 -1.1577387 1.7078941 -1.7355682 -1.2187119
-1.9024255 2.1064327 -0.29315713 1.2690921 0.6784067 -0.41597176 1.6686561 -3.594346
1.200749 1.1755252 1.3579761 2.513805 0.2847581 -1.985245 -1.4217985 -0.98595434
-0.6369251 -0.65423536 -1.5625932 -4.926703 -0.8989049 1.0931859 -1.3605797 -0.55750054
00000000: d3ea 0740 06b4 20bf 4a4d 8fbe 2379 1abe
00000010: c830 94bf 469c da3f 1927 debf c0fe 9bbf
00000020: ae82 f3bf cbcf 0640 b118 96be 9c71 a23f
00000030: 10ac 2d3f 40fa d4be 8696 d53f c409 66c0
00000040: 25b2 993f 9c77 963f 29d2 ad3f 2ee2 2040
00000050: d0cb 913e 821c febf 7efd b5bf 8167 7cbf
00000060: 860d 23bf f87b 27bf 0e03 c8bf 8da7 9dc0
00000070: a21e 66bf 84ed 8b3f 7a27 aebf 5bb8 0ebf
