Output/swift-iid-8W-linear-shark-linear-2sgd-100epochs/r2-epoch_97-parameters.pt (torch, 731450 bytes, 92 tensors)

conv1.weight f4 [16, 3, 3, 3]
0.12892427 -0.36918157 -0.0011858209 -0.39522102 -0.6697838 -0.55921775 -0.3738182 -1.0799861
-0.7073206 -0.011690423 -0.1511962 0.05729645 0.10156521 0.55212504 0.33021808 0.04913856
0.07967373 0.15703695 -0.21612628 -0.2480139 -0.29068384 0.17762174 0.83981115 0.4392183
0.12013133 0.43760306 0.4328422 0.25402346 0.78005207 0.5806014 0.018874032 0.023067325
-0.13894044 -0.14874768 -0.54348147 -0.44422406 0.58637035 0.9416495 0.7696878 -0.11628243
-0.23823379 -0.33184913 -0.44168004 -0.9538961 -0.7818011 0.51434976 0.89375937 0.67376506
0.028341925 0.06090868 -0.1563793 -0.36597067 -0.7249071 -0.6473915 -0.023385655 0.06296556
0.13345909 -0.0988974 0.14692199 0.027006045 -0.17531641 -0.04773771 -0.15549907 -0.008474447
0.13068508 0.18425755 -0.038107954 0.27102295 0.1679641 -0.16624843 0.07549104 -0.02077383
-0.08226994 0.06413346 0.09589812 -0.08629263 0.2606844 0.21435514 -0.18261035 0.062233675
0.011416501 0.06400041 -0.52045256 -0.17086129 -0.09070548 -0.87579757 -0.46405566 0.59267956
0.6737354 0.612411 -0.0024311622 -0.4459525 0.03951331 0.08923714 -0.69408125 -0.20821442
0.52759486 0.56553954 0.5661531 0.12613255 -0.24499522 0.08306863 0.14801084 -0.60146
-0.35796487 0.48509967 0.17438234 0.08577215 -0.0951493 0.44884682 0.27175155 -0.28340593
0.77814674 1.4237931 -0.23664352 0.043787725 0.13016483 -0.4838153 -0.5077875 -0.14429471
-1.1955192 -0.7546694 0.496537 -0.36995527 -0.505949 -0.076869704 0.38336852 0.32939944
0.1671543 -0.37319496 -0.12910576 0.59002334 0.11067844 -0.009383958 0.22191103 0.052114174
0.29333878 0.27276027 -0.100931466 0.30059192 0.19840822 0.1871254 0.37141496 0.16423225
0.0034799199 0.05365892 -0.024119332 -0.19938597 -0.018658763 -0.13505697 0.027575498 0.14699198
0.010555277 0.252944 0.19050933 6.0728784e-05 -0.051425334 -0.06177661 -0.24070568 -0.009229286
-0.08745785 -0.23691803 0.48988056 0.50424004 0.44180712 -0.27400017 -0.78024286 -0.7735939
-0.113264635 -1.2181556 -0.8144056 0.5235427 0.8804924 0.6078401 0.3043973 0.4588249
0.2693032 0.4768662 0.17309493 0.36845294 -0.5066106 -0.35435838 -0.3908985 -0.5005863
-0.26978743 -0.36673266 0.2582721 0.06856519 0.17343853 -0.09124383 0.06003926 0.1698327
-0.51136094 0.023603 -0.14520009 -0.0868289 -0.49559635 0.012570572 -0.4257981 0.048564147
-0.1467606 -0.5270092 0.31610072 -0.23602991 -0.46308935 -0.77969867 -0.6389027 0.011588432
0.7222688 0.043009613 0.42305687 1.6750165 0.61178267 0.20160013 0.43199447 0.08707963
-0.29617253 -0.4342889 0.13894553 -0.22643392 1.1353232 -1.4498854 -0.1740855 -0.008654809
0.30936474 -0.01493422 0.53252876 0.12407999 0.2789303 2.0867264 -1.1149457 0.09284767
0.18393373 0.5641789 0.0024644572 -0.20883523 0.640182 -0.56969345 0.3091185 -0.95684034
-0.40481538 -0.49678522 0.026639108 0.08701778 -0.044746857 0.057332885 0.093194395 0.15264814
0.022965916 0.100133695 -0.08210635 -0.30228183 -0.30025735 -0.25595552 -0.15712003 -0.035293456
00000000: b904 043e 5e05 bdbe 8c6d 9bba 695a cabe
00000010: f376 2bbf e528 0fbf 1965 bfbe fc3c 8abf
00000020: f612 35bf 3089 3fbc 2dd3 1abe afaf 6a3d
00000030: 6c01 d03d 1158 0d3f 5812 a93e 8445 493d
00000040: fb2b a33d 4bce 203e 3550 5dbe 5bf7 7dbe
00000050: 83d4 94be 79e2 353e ddfd 563f 39e1 e03e
00000060: 6a07 f63d 820d e03e 7e9d dd3e 5d0f 823e
00000070: 7eb1 473f 4ba2 143f b79d 9a3c b0f7 bc3c
00000080: 6746 0ebe 5051 18be 9a21 0bbf 5671 e3be
00000090: 5e1c 163f f10f 713f 420a 453f 7c25 eebd
000000a0: 8ff3 73be 21e8 a9be e323 e2be 8932 74bf
000000b0: 1e24 48bf 6dac 033f 6acd 643f de7b 2c3f
000000c0: 532d e83c 617b 793d e521 20be 8260 bbbe
000000d0: 8393 39bf 73bb 25bf 4693 bfbc 16f4 803d
000000e0: 80a9 083e b88a cabd b872 163e c83b dd3c
000000f0: 2586 33be 9e88 43bd 263b 1fbe 68d8 0abc
00000100: 4fd2 053e 03ae 3c3e 1617 1cbd 85c3 8a3e
00000110: c8fe 2b3e 073d 2abe 0c9b 9a3d e12d aabc
00000120: 247d a8bd 6758 833d 3c66 c43d 31ba b0bd
00000130: 6d78 853e ea7f 5b3e 35fe 3abe bde8 7e3d
00000140: 470c 3b3c a612 833d 613c 05bf 43f6 2ebe
00000150: cbc3 b9bd 4534 60bf b498 edbe d9b9 173f
00000160: ec79 2c3f f8c6 1c3f 2254 1fbb e353 e4be
00000170: b5d8 213d f6c1 b63d 4faf 31bf 2936 55be
00000180: 7510 073f 33c7 103f 69ef 103f e428 013e
00000190: 07e0 7abe e31f aa3d 2790 173e 48f9 19bf
000001a0: 2c47 b7be fc5e f83e 4991 323e 4fa9 af3d
000001b0: a3dd c2bd 40cf e53e 0523 8b3e 951a 91be
000001c0: a034 473f da3e b63f ae52 72be c25a 333d
000001d0: ee49 053e a4b6 f7be 5dfe 01bf fec1 13be
000001e0: c606 99bf 0432 41bf 193a fe3e c76a bdbe
000001f0: e085 01bf dd6d 9dbd e148 c43e 0ba7 a83e
00000200: 7f2a 2b3e 6913 bfbe 4d34 04be c50b 173f
00000210: 61ab e23d 2cbf 19bc a53c 633e ac75 553d
00000220: 8030 963e 3ca7 8b3e 28b5 cebd 2fe7 993e
00000230: 862b 4b3e cd9d 3f3e 1a2a be3e 802c 283e
00000240: 5e0f 643b 75c9 5b3d e895 c5bc d62b 4cbe
00000250: 43da 98bc 604c 0abe 03e6 e13c 1185 163e
00000260: 0af0 2c3c e081 813e e114 433e 09b7 7e38
00000270: 5fa3 52bd 7809 7dbd 8d7b 76be 6e36 17bc
00000280: 1a1d b3bd a49a 72be a0d1 fa3e e015 013f
00000290: 8b34 e23e c049 8cbe ffbd 47bf 400a 46bf
000002a0: 4af7 e7bd 86ec 9bbf e37c 50bf e506 063f
000002b0: f367 613f 699b 1b3f f7d9 9b3e 19eb ea3e
000002c0: 1ce2 893e ce27 f43e cc3f 313e dda5 bc3e
000002d0: 3bb1 01bf 766e b5be d923 c8be 6c26 00bf
000002e0: 9421 8abe 62c4 bbbe 3e3c 843e e86b 8c3d
000002f0: df99 313e 0cde babd baeb 753d a0e8 2d3e
00000300: 8de8 02bf 145b c13c 55af 14be 5ad3 b1bd
00000310: cebe fdbe cdf4 4d3c 3502 dabe 33eb 463d
00000320: 6948 16be 13ea 06bf f4d7 a13e d3b1 71be
00000330: 0c1a edbe 559a 47bf 218f 23bf 68dd 3d3c
00000340: 9ce6 383f d92a 303d e99a d83e f166 d63f
00000350: ca9d 1c3f 4470 4e3e 612e dd3e ce56 b23d
00000360: eda3 97be 1d5b debe bd47 0e3e 4bde 67be
00000370: 4552 913f d895 b9bf 7843 32be e6cc 0dbc
00000380: 0e65 9e3e a9ae 74bc ce53 083f a61d fe3d
00000390: f4cf 8e3e ed8c 0540 8ab6 8ebf eb26 be3d
000003a0: 2059 3c3e 076e 103f bb82 213b e7d8 55be
000003b0: f8e2 233f 6ed7 11bf c844 9e3e 7df3 74bf
000003c0: f643 cfbe a25a febe 423a da3c 6136 b23d
000003d0: 7b48 37bd e3d5 6a3d b4dc be3d cb4f 1c3e
000003e0: 0423 bc3c e512 cd3d 6027 a8bd afc4 9abe
000003f0: 55bb 99be 9a0c 83be 13e4 20be df8f 10bd

conv1.bias f4 [16]
-0.014299284 -0.009070937 -0.010103417 0.01875128 0.017302679 -0.020079514 -0.0009645293 0.0048130904
-0.015304014 -0.020308048 -0.005668594 -0.009284673 -0.007599115 0.015207808 0.0039002134 -0.01390774
00000000: 8b47 6abc 449e 14bc cd88 25bc 499c 993c
00000010: 59be 8d3c cb7d a4bc 77d8 7cba 21b7 9d3b
00000020: b0bd 7abc 105d a6bc 9dbf b9bb be1e 18bc
00000030: ff01 f9bb 2c2a 793c b99a 7f3b 4add 63bc

bn1.weight f4 [16]
0.737778 0.9549899 0.573394 0.91231376 0.8330268 0.777535 0.68115455 0.77918243
1.0137581 0.6799992 1.0776862 0.8839672 0.76585454 0.8043425 0.82803994 1.2777892
00000000: 05df 3c3f 387a 743f f3c9 123f 658d 693f
00000010: 3f41 553f 890c 473f 2560 2e3f 8078 473f
00000020: d3c2 813f 6d14 2e3f 9ff1 893f ad4b 623f
00000030: 0b0f 443f 64e9 4d3f 6dfa 533f 998e a33f

bn1.bias f4 [16]
0.72967637 0.73529005 -0.5099927 0.4306467 0.64332956 -0.35459659 0.9113789 0.66447437
1.83893 -0.11608198 0.7448996 0.47683403 0.060437202 0.34618673 0.09368656 -0.029140323
00000000: 12cc 3a3f f83b 3c3f e28e 02bf b97d dc3e
00000010: 3fb1 243f af8d b5be 2150 693f fe1a 2a3f
00000020: 0f62 eb3f 64bc edbd bdb1 3e3f 9723 f43e
00000030: 008d 773d 633f b13e bdde bf3d b0b7 eebc

bn1.running_mean f4 [16]
0.3966265 0.050845046 -0.2519389 0.11084797 0.0043325634 -0.41720772 0.119097546 0.046018727
-0.19426808 -0.38014877 -0.061650846 -0.23099189 0.48410344 -0.0679939 0.3698215 0.66220343
00000000: a112 cb3e e542 503d 23fe 80be 4304 e33d
00000010: 2df8 8d3b 409c d5be 6ae9 f33d 227e 3c3d
00000020: 36ee 46be dca2 c2be 9985 7cbd 2389 6cbe
00000030: 68dc f73e 6340 8bbd 3e59 bd3e 2a86 293f

bn1.running_var f4 [16]
5.982415 29.69698 2.2680252 10.641364 8.7119055 3.1877465 5.205462 7.716969
3.7160285 4.6035333 22.782185 4.258027 6.4936824 4.741806 5.853767 12.057324
00000000: f26f bf40 6a93 ed41 5327 1140 0743 2a41
00000010: f763 0b41 0a04 4c40 2593 a640 69f1 f640
00000020: 69d3 6d40 2550 9340 ea41 b641 c241 8840
00000030: 3fcc cf40 e0bc 9740 0f52 bb40 cdea 4041

layer1.0.conv1.weight f4 [16, 16, 3, 3]
0.066987604 0.1515533 -0.009566159 0.09181201 0.30445746 0.112396196 -0.18050545 -0.15894423
-0.1715801 -0.15745638 -0.3011317 -0.30949235 -0.001649754 -0.011515535 -0.010083408 0.066257246
0.1841207 0.10691532 0.03952564 -0.0021843342 -0.15968552 0.21164197 0.17636515 -0.04830701
0.12021165 0.0067759324 -0.05511083 -0.05971587 -0.09147406 0.14610405 -0.12277962 -0.24553354
0.051666886 -0.05015359 -0.09705854 -0.056683075 -0.23106492 -0.24838556 -0.21490508 0.008325161
-0.13110134 -0.28626657 -0.070708945 -0.17680763 -0.08357473 0.10195152 0.19426626 0.16484255
0.18975978 0.21647511 0.10516101 0.13788255 0.111461535 -0.0053401887 0.06654996 0.021343062
0.08981137 -0.041619144 0.018445244 0.1445295 -0.15961336 0.0005008479 0.0621678 -0.043764617
0.025633635 -0.11576796 0.08362294 0.3682179 -0.008454967 -0.12474816 0.011194168 -0.1473702
-0.1644368 0.04266062 -0.29616296 -0.26743132 0.2549977 -0.10506721 0.011440464 -0.12997249
-0.011348079 0.009238973 0.12439452 -0.0050282055 0.1116774 0.16785567 0.023030821 -0.08019815
-0.14910987 -0.21743684 -0.12507753 -0.099831924 0.12044487 -0.28956395 -0.15147832 0.18922105
-0.122425266 -0.33898947 -0.13046594 -0.12240744 -0.064932756 0.035027843 -0.020170784 0.03420894
0.08821528 0.04309185 -0.0029864265 -0.01843129 -0.18275183 -0.0018686701 0.02970465 -0.057947345
-0.021427006 -0.04392638 -0.062538885 -0.0493133 -0.038468964 -0.028822644 -0.07098814 0.042821206
-0.0325809 -0.03605638 -0.012973904 0.08134804 0.046122923 -0.045410324 -0.091071874 0.035859235
0.0038948995 -0.027511813 -0.16558965 -0.11205079 -0.011221664 -0.10879203 -0.054460812 0.08875222
0.111819156 0.031339586 0.093804166 0.0039680745 -0.018521504 0.15783359 0.14144158 -0.07132832
0.08570225 0.106807426 0.079149194 -0.018580802 0.01202625 -0.02927554 0.15223779 0.108136915
0.044064082 0.0996647 0.15507981 0.042399447 0.0011862344 -0.016844843 -0.00812915 -0.2362155
-0.24488953 -0.1579707 -0.03989657 -0.0899934 -0.059223697 0.002949005 -0.020226346 -0.029848818
-0.0003198276 -0.019515218 -0.060969736 -0.13650732 -0.14370504 -0.029142374 -0.086139895 0.053051587
-0.06703561 -0.098290876 0.1077035 -0.012304893 -0.056225423 -0.04561583 0.060046088 -0.25866312
-0.2669746 -0.0020001074 -0.18221489 -0.22922967 -0.17345901 -0.03482195 -0.01594048 0.032786697
-0.011483334 0.013798756 0.028508225 -0.0014557436 0.031985186 0.03009133 -0.008059246 0.101943344
-0.07533703 0.111686416 0.14185475 0.0024935647 -0.22357565 -0.21859477 -0.1724307 0.18140852
0.14219289 0.19915706 0.014888393 -0.041995034 0.12205184 0.12508368 0.027616702 0.14722463
0.09543265 -0.107712194 -0.014389333 0.036451593 0.01278706 -0.004749874 -0.026498202 0.06776758
-0.080238916 -0.041778352 -0.05715035 -0.07759758 0.0037495373 -0.0073999306 -0.0019429538 -0.10571167
-0.12577698 -0.09750793 0.1058245 0.010045997 -0.15493597 0.14497806 -0.06834589 -0.19344068
-0.09767451 -0.21546935 -0.07045978 0.06114144 -0.03631365 0.009215123 -0.21924579 -0.20114961
-0.10713164 -0.083704524 -0.08891486 0.008915198 0.02030215 0.10095099 0.15223661 0.17006788
00000000: cc30 893d ca30 1b3e 61bb 1cbc ef07 bc3d
00000010: d9e1 9b3e fa2f e63d 6cd6 38be 47c2 22be
00000020: b2b2 2fbe 3f3c 21be ef2d 9abe c875 9ebe
00000030: 8f3c d8ba a8ab 3cbc e134 25bc e1b1 873d
00000040: 238a 3c3e 6bf6 da3d a3e5 213d 0c27 0fbb
00000050: 9a84 23be acb8 583e 1199 343e 92dd 45bd
00000060: 8731 f63d a408 de3b e5bb 61bd a198 74bd
00000070: c156 bbbd 4d9c 153e e273 fbbd 256d 7bbe
00000080: a8a0 533d da6d 4dbd a1c6 c6bd 832c 68bd
00000090: 489c 6cbe c958 7ebe 1410 5cbe 4266 083c
000000a0: 6e3f 06be 8891 92be dacf 90bd 0f0d 35be
000000b0: 3a29 abbd f5cb d03d bced 463e 7ccc 283e
000000c0: 6350 423e a7ab 5d3e a85e d73d 1531 0d3e
000000d0: f245 e43d c0fc aebb 584b 883d a5d7 ae3c
000000e0: 06ef b73d d678 2abd 7b1a 973c 8bff 133e
000000f0: af71 23be 554b 033a aaa3 7e3d 8742 33bd
00000100: a1fd d13c c117 edbd 8142 ab3d 0e87 bc3e
00000110: b486 0abc f77b ffbd be67 373c 37e8 16be
00000120: 1f62 28be e7bc 2e3d aca2 97be c2ec 88be
00000130: 0f8f 823e 7a2d d7bd c970 3b3c 8217 05be
00000140: 4bed 39bc 105f 173c 8ec2 fe3d a5c3 a4bb
00000150: 1fb7 e43d 5be2 2b3e 22ab bc3c ed3e a4bd
00000160: 42b0 18be c3a7 5ebe 5314 00be ae74 ccbd
00000170: cdab f63d ba41 94be 221d 1bbe 2ac3 413e
00000180: 19ba fabd 0790 adbe dd98 05be c0b0 fabd
00000190: 77fb 84bd 5b79 0f3d 333d a5bc ac1e 0c3d
000001a0: 36aa b43d 1481 303d ecb7 43bb 37fd 96bc
000001b0: 4c23 3bbe 2aee f4ba 2b57 f33c 325a 6dbd
000001c0: b087 afbc 26ec 33bd 6314 80bd befc 49bd
000001d0: a291 1dbd 771d ecbc 3b62 91bd 4a65 2f3d
000001e0: 8d73 05bd dbaf 13bd 7f90 54bc cd99 a63d
000001f0: 64eb 3c3d 2d00 3abd e483 babd 22e1 123d
00000200: 9241 7f3b 7460 e1bc 5590 29be e27a e5bd
00000210: 12db 37bc 5bce debd 4d12 5fbd b9c3 b53d
00000220: 7101 e53d f05d 003d 661c c03d 9f06 823b
00000230: 69ba 97bc 219f 213e 10d6 103e 9514 92bd
00000240: a984 af3d dabd da3d f918 a23d c436 98bc
00000250: c009 453c 42d3 efbc 39e4 1b3e e376 dd3d
00000260: 8a7c 343d 021d cc3d 3ecd 1e3e 0bab 2d3d
00000270: 6c7b 9b3a 32fe 89bc 2030 05bc 7ae2 71be
00000280: 52c4 7abe 12c3 21be 966a 23bd 764e b8bd
00000290: 8c94 72bd 1844 413b b9b1 a5bc 8285 f4bc
000002a0: 89ae a7b9 61de 9fbc 67bb 79bd 93c8 0bbe
000002b0: 6a27 13be fdbb eebc 1d6a b0bd 9f4c 593d
000002c0: f749 89bd ba4c c9bd a793 dc3d 769a 49bc
000002d0: a14c 66bd aad7 3abd e3f2 753d 7e6f 84be
000002e0: e5b0 88be 3c14 03bb 8a96 3abe 2fbb 6abe
000002f0: 3d9f 31be 76a1 0ebd 9c95 82bc 584b 063d
00000300: 9824 3cbc 2d14 623c 158a e93c a6ce beba
00000310: e602 033d 1882 f63c ee0a 04bc acc7 d03d
00000320: 4d4a 9abd d9bb e43d 5f42 113e 136b 233b
00000330: 04f1 64be 4fd7 5fbe ac91 30be 28c3 393e
00000340: 039b 113e d4ef 4b3e 72ee 733c fc02 2cbd
00000350: 51f6 f93d f015 003e 6c3c e23c 0ec2 163e
00000360: 3172 c33d 3698 dcbd 3dc1 6bbc 444e 153d
00000370: d180 513c d5a4 9bbb c212 d9bc bbc9 8a3d
00000380: 4d54 a4bd c71f 2bbd 7c16 6abd 7beb 9ebd
00000390: ccba 753b 1e7b f2bb b6aa feba 5c7f d8bd
000003a0: aecb 00be 3db2 c7bd 84ba d83d f797 243c
000003b0: 89a7 1ebe 2175 143e eef8 8bbd 5015 46be
000003c0: 9309 c8bd ffa3 5cbe 384d 90bd 726f 7a3d
000003d0: 9fbd 14bd 07fb 163c f881 60be 2afa 4dbe
000003e0: d567 dbbd 476d abbd fe18 b6bd 0d11 123c
000003f0: b250 a63c 65bf ce3d eae3 1b3e 4626 2e3e

layer1.0.conv1.bias f4 [16]
0.0012990352 -0.005957006 -0.0024896278 0.0014515832 -0.0074864873 -0.0066153915 0.0011415632 -0.0024836352
0.0033510996 -0.00236688 0.004073666 0.0015778957 -0.00864797 0.0017556926 0.0066880602 -0.003789568
00000000: 6344 aa3a fd32 c3bb 0629 23bb 0d43 be3a
00000010: 3551 f5bb edc5 d8bb 81a0 953a 7cc4 22bb
00000020: 1f9e 5b3b a81d 1bbb 637c 853b 65d1 ce3a
00000030: 37b0 0dbc 451f e63a 8427 db3b 675a 78bb

layer1.0.bn1.weight f4 [16]
0.75287175 1.0219309 0.56677103 0.6988627 0.7605867 0.7777377 0.77837986 1.0527166
0.95566624 0.8806794 0.8492162 0.94492507 0.84397674 0.71293336 0.84477526 0.8052203
00000000: 34bc 403f a2ce 823f e817 113f aae8 323f
00000010: cfb5 423f d119 473f e743 473f 6bbf 863f
00000020: 8ba6 743f 3574 613f 3c66 593f 9ce6 713f
00000030: dc0e 583f cd82 363f 3143 583f eb22 4e3f

layer1.0.bn1.bias f4 [16]
-0.025246015 -0.47725004 0.09652842 -0.29815415 -0.008313001 -0.25426322 -0.19282545 0.49354777
-0.70358545 -0.2683489 -0.54595274 0.8707716 -0.2623022 -0.057383206 -0.15373054 0.15859053
00000000: bbd0 cebc 1e5a f4be b1b0 c53d a9a7 98be
00000010: 4133 08bc ca2e 82be 0974 45be 4bb2 fc3e
00000020: 2d1e 34bf 0765 89be 8fc3 0bbf e3ea 5e3f
00000030: 794c 86be a70a 6bbd 8a6b 1dbe 8e65 223e

layer1.0.bn1.running_mean f4 [16]
-3.1230447 -0.5967127 -2.1662793 -2.005369 -0.9881337 -2.0382519 -2.7882247 -1.4051794
3.5386655 -2.482713 3.1729136 -0.44228956 -1.5612526 -1.5165138 -1.4266144 -3.2771826
00000000: f7df 47c0 2ac2 18bf 52a4 0ac0 f757 00c0
00000010: 55f6 7cbf b872 02c0 4672 32c0 ebdc b3bf
00000020: 7f79 6240 c5e4 1ec0 0411 4b40 c773 e2be
00000030: 20d7 c7bf 201d c2bf 4d9b b6bf 5cbd 51c0

layer1.0.bn1.running_var f4 [16]
2.1864595 6.479972 1.7954222 2.578129 2.8597894 2.2481816 7.0156765 10.770091
3.4892817 4.486984 2.129 5.257751 2.762202 4.014103 2.9231565 4.6183634
00000000: f4ee 0b40 ee5b cf40 65d0 e53f 1100 2540
00000010: ca06 3740 35e2 0f40 6c80 e040 4b52 2c41
00000020: 6450 5f40 5f95 8f40 8941 0840 7f3f a840
00000030: ebc7 3040 8873 8040 ff14 3b40 a2c9 9340

layer1.0.conv2.weight f4 [16, 16, 3, 3]
-0.07951048 -0.07147486 -0.15068595 -0.05293604 0.02765267 0.019328171 -0.021216046 0.07619585
0.044475168 -0.07297305 -0.050729617 -0.07314333 0.09838123 0.16826782 0.19987461 0.18145463
0.26332152 0.26449454 -0.007304905 -0.07708072 -0.25739646 0.030147452 0.0005626709 -0.25218734
0.0638173 0.033847865 -0.25031632 -0.17444369 -0.16564627 -0.2804872 -0.1079277 -0.02257724
-0.10600245 -0.1049079 -0.013918424 -0.09662304 0.04040006 0.21365944 0.3404564 0.02530457
0.20266685 0.24882591 -0.100114666 -0.015066316 0.04405411 0.0882804 0.21951161 0.13568641
-0.0072063687 0.07531934 0.06251843 -0.10532513 -0.020398889 -0.01763021 0.034472026 0.0321625
0.02589856 0.08026388 0.07723682 0.07396013 0.054809988 -0.027985545 -0.055865135 -0.042525467
-0.001347203 -0.06482999 0.15058587 0.1806789 0.09940941 0.08578904 0.12793258 0.11759616
0.1237161 0.06661693 -0.12619084 0.22513498 0.16491178 -0.044759925 0.10952918 0.033719614
-0.15932256 0.094185725 0.07239335 -0.09134298 0.27106333 0.29497927 0.009464591 0.16304392
0.17938013 -0.020433912 0.057389475 0.007516207 -0.13466808 0.17930971 0.117786005 -0.0068421275
0.13899226 0.043168895 0.07959093 0.020987712 0.0026032743 -0.007223453 0.013334168 0.18415551
0.044763997 0.150132 0.099697575 0.12531081 0.040505867 0.07707942 0.18397102 -0.006962756
-0.009147023 0.22457618 -0.017627781 -0.0563781 0.13586605 -0.23390236 -0.4044444 -0.2080583
-0.10489913 -0.35273218 -0.15421839 0.3457485 0.1638886 0.20654592 0.15705411 0.4679417
0.22993378 0.18063486 0.33500746 0.20754251 -0.06825968 -0.2184129 -0.15540157 0.07677794
0.0011161158 -0.15327767 0.03781735 0.0117304325 -0.15359353 0.18405053 0.07424716 -0.100850254
0.027153114 0.27918202 0.19830677 -0.024269361 0.108993605 0.065011516 -0.2183023 -0.3247102
-0.104521 -0.10684007 -0.19514221 -0.16387102 -0.064646624 -0.04036547 0.03126929 -0.06842874
0.08372599 0.1095373 0.1503904 0.17010696 0.10527347 -0.15872371 -0.07960848 0.009853236
-0.3350631 -0.20508675 -0.06525108 0.17368327 0.22860894 0.19631056 -0.010758314 -0.0160819
0.009211933 -0.17405897 -0.24323413 -0.13324338 -0.040957797 0.16325195 0.15521154 -0.03222675
0.16187602 0.08574038 0.030972177 0.06510937 0.028220486 -0.060269993 0.01795484 0.03364787
-0.052400682 -0.06754156 -0.05528441 0.005979822 -0.03140498 -0.057597414 -0.05114739 0.016232802
0.06926962 -0.055465844 0.017432017 -0.037736148 -0.097135946 -0.11921704 -0.2075101 0.052972544
-0.021024127 -0.10830939 -0.06442726 0.03570674 0.023952842 -0.103934586 0.29570562 0.09203914
-0.2703328 -0.18013076 -0.046255555 -0.15082467 -0.10443461 0.0033230486 -0.14146844 -0.101252824
-0.114167005 -0.07378659 -0.10729816 0.07164233 0.15696535 -0.0030245264 -0.06656064 0.21201518
0.0013453993 -0.0570866 0.06679044 0.21526657 0.086827636 -0.08593594 0.02102556 -0.037387986
-0.05073731 -0.114320844 -0.034613673 0.17005716 0.34968913 0.41087118 -0.111604765 -0.26540333
-0.15317643 -0.14027989 -0.44629022 -0.16766727 -0.022234157 -0.113075554 -0.03606893 -0.04553066
00000000: 64d6 a2bd 6961 92bd 6b4d 1abe 76d3 58bd
00000010: da87 e23c 1d56 9e3c 46cd adbc 920c 9c3d
00000020: 982b 363d e572 95bd dcc9 4fbd 2ccc 95bd
00000030: 197c c93d 664e 2c3e eeab 4c3e 3ecf 393e
00000040: 14d2 863e d46b 873e fc5d efbb 7fdc 9dbd
00000050: 78c9 83be caf7 f63c 3480 133a b31e 81be
00000060: a5b2 823d 0fa4 0a3d 7629 80be 5ea1 32be
00000070: 2d9f 29be 059c 8fbe 3309 ddbd e7f3 b8bc
00000080: d017 d9bd f4d9 d6bd 1a0a 64bc 4de2 c5bd
00000090: 897a 253d 8ac9 5a3e 4d50 ae3e 884b cf3c
000000a0: e687 4f3e 38cc 7e3e eb08 cdbd b6d8 76bc
000000b0: 1572 343d 5bcc b43d a7c7 603e 61f1 0a3e
000000c0: 6723 ecbb 0741 9a3d aa09 803d b4b4 d7bd
000000d0: 921b a7bc 3b6d 90bc 8a32 0d3d d3bc 033d
000000e0: 3829 d43c 6461 a43d 562e 9e3d 6978 973d
000000f0: 7080 603d f141 e5bc d7d2 64bd 2f2f 2ebd
00000100: a294 b0ba 96c5 84bd 2f33 1a3e e403 393e
00000110: 2997 cb3d 2ab2 af3d c200 033e 41d6 f03d
00000120: de5e fd3d 756e 883d 2c38 01be c989 663e
00000130: a2de 283e 2f56 37bd d650 e03d 941d 0a3d
00000140: 7425 23be 72e4 c03d f742 943d 0712 bbbd
00000150: d0c8 8a3e 8607 973e 5f11 1b3c fcf4 263e
00000160: 6daf 373e 0565 a7bc 3a11 6b3d 844a f63b
00000170: 6ee6 09be f79c 373e ca39 f13d ed33 e0bb
00000180: fd53 0e3e ded1 303d 9200 a33d 6cee ab3c
00000190: b29b 2a3b b7b2 ecbb 8e77 5a3c 4393 3c3e
000001a0: 745a 373d 34bc 193e 3e2e cc3d 7a51 003e
000001b0: 7be9 253d d1db 9d3d e662 3c3e d527 e4bb
000001c0: 65dd 15bc 4cf7 653e 2368 90bc b9ec 66bd
000001d0: 7820 0b3e 1a84 6fbe 5613 cfbe 3c0d 55be
000001e0: 5bd5 d6bd 5099 b4be 6deb 1dbe f305 b13e
000001f0: 6ad2 273e c680 533e cbd2 203e 0e96 ef3e
00000200: c373 6b3e 58f8 383e 1986 ab3e 0686 543e
00000210: bbcb 8bbd a2a7 5fbe 9721 1fbe c13d 9d3d
00000220: a24a 923a d2f4 1cbe 5ee6 1a3d 0031 403c
00000230: 9f47 1dbe be77 3c3e e50e 983d 948a cebd
00000240: 3570 de3c f2f0 8e3e ee10 4b3e 8ad0 c6bc
00000250: 0a38 df3d c224 853d a38a 5fbe 6a40 a6be
00000260: 1b0f d6bd f7ce dabd 5cd3 47be cecd 27be
00000270: 7365 84bd 4356 25bd 3a14 003d 5e24 8cbd
00000280: 8878 ab3d 1855 e03d f1ff 193e 8530 2e3e
00000290: 9e99 d73d 7888 22be c509 a3bd 786f 213c
000002a0: 648d abbe 4302 52be 5ca2 85bd 07da 313e
000002b0: 7618 6a3e a305 493e a443 30bc 30be 83bc
000002c0: a6ed 163c 843c 32be 5e12 79be f470 08be
000002d0: 5dc3 27bd 852b 273e c6ef 1e3e 3200 04bd
000002e0: d4c2 253e a798 af3d 5db9 fd3c 1058 853d
000002f0: a62e e73c abdd 76bd 0716 933c 59d2 093d
00000300: 19a2 56bd 3b53 8abd e871 62bd 62f2 c33b
00000310: 82a2 00bd 44eb 6bbd ed7f 51bd a7fa 843c
00000320: 3bdd 8d3d 2730 63bd 97cd 8e3c 3891 1abd
00000330: 36ef c6bd 1028 f4bd 877d 54be bdf9 583d
00000340: ca3a acbc 50d1 ddbd 70f2 83bd 3b41 123d
00000350: c038 c43c a8db d4bd ba66 973e 047f bc3d
00000360: 1069 8abe 3374 38be 7776 3dbd c871 1abe
00000370: d0e1 d5bd 81c7 593b 1add 10be a45d cfbd
00000380: 64d0 e9bd 6c1d 97bd 23bf dbbd 37b9 923d
00000390: 86bb 203e 2237 46bb f250 88bd 821a 593e
000003a0: 1c58 b03a a4d3 69bd 6dc9 883d d76e 5c3e
000003b0: b0d2 b13d 2fff afbd cc3d ac3c 2524 19bd
000003c0: edd1 4fbd 0c21 eabd 11c7 0dbd 7723 2e3e
000003d0: 740a b33e b55d d23e 0a91 e4bd f2e2 87be
000003e0: 48da 1cbe 88a5 0fbe 2780 e4be f8b0 2bbe
000003f0: 6824 b6bc 2894 e7bd 04bd 13bd 5b7e 3abd

layer1.0.conv2.bias f4 [16]
-0.0036298526 0.012584407 -0.004317504 0.0014557677 0.005893805 0.0038850217 -0.0024009852 -0.005422757
0.0066177314 -0.005112881 -0.0073112957 0.0089138085 -0.006527521 0.0034739755 -0.00036595832 0.000967732
00000000: d2e2 6dbb d42e 4e3c d979 8dbb 75cf be3a
00000010: d220 c13b d99b 7e3b d959 1dbb 62b1 b1bb
00000020: 8ed9 d83b f489 a7bb 9893 efbb 390b 123c
00000030: d1e4 d5bb a3ab 633b 18de bfb9 65af 7d3a

layer1.0.bn2.weight f4 [16]
0.59300923 0.38956583 0.94366235 0.6182548 0.8573843 0.84132874 0.53533345 0.60573065
0.80589086 0.49929032 0.63628966 0.80754036 0.8414563 0.791263 1.0910602 0.42843062
00000000: 74cf 173f 2c75 c73e db93 713f f245 1e3f
00000010: 8a7d 5b3f 5261 573f 9d0b 093f 2a11 1b3f
00000020: dd4e 4e3f fba2 ff3e e1e3 223f f7ba 4e3f
00000030: ae69 573f 3690 4a3f dca7 8b3f 425b db3e

layer1.0.bn2.bias f4 [16]
-0.18547946 0.036045633 -0.23410572 0.38378832 -0.13147151 0.54241747 0.21719721 0.1300896
0.20158169 0.12684916 -0.05252362 -0.6047006 0.21141918 0.8359714 0.3342385 -0.1643648
00000000: 54ee 3dbe 96a4 133d 69b9 6fbe e77f c43e
00000010: 78a0 06be dfdb 0a3f f268 5e3e 3536 053e
00000020: 6e6b 4e3e bfe4 013e 0223 57bd a9cd 1abf
00000030: 457e 583e 3902 563f 4f21 ab3e 3f4f 28be

layer1.0.bn2.running_mean f4 [16]
1.6731017 -0.13722901 -1.9549986 0.5042372 -0.23562382 -1.307207 -0.015719987 0.11826357
-0.80736685 0.9223681 -0.107931495 1.3449879 1.4453852 0.38744053 0.3671357 0.798999
00000000: 3228 d63f c385 0cbe 653d fabf b015 013f
00000010: 5f47 71be 8f52 a7bf 34c7 80bc 2c34 f23d
00000020: 98af 4ebf 5120 6c3f 300b ddbd 9028 ac3f
00000030: 6202 b93f 9b5e c63e 36f9 bb3e 338b 4c3f

layer1.0.bn2.running_var f4 [16]
2.171725 2.6227643 1.585436 1.3822175 2.6589425 1.8776684 1.6874832 2.4521356
1.6319104 1.0376991 3.0759904 1.3247116 2.0050876 2.7010732 2.1524107 1.1585809
00000000: 8bfd 0a40 5fdb 2740 91ef ca3f 81ec b03f
00000010: 1d2c 2a40 7057 f03f 73ff d73f caef 1c40
00000020: 71e2 d03f 53d3 843f 07dd 4440 2690 a93f
00000030: 5b53 0040 62de 2c40 19c1 0940 614c 943f

layer1.1.conv1.weight f4 [16, 16, 3, 3]
-0.18511544 0.10804274 0.30897096 -0.100623526 -0.0057521528 0.11523497 -0.24022311 -0.17261064
-0.06033037 -0.036699317 0.052348312 0.2362474 -0.1411895 0.050490532 0.18035056 -0.21745169
-0.23754428 -0.17113324 0.016545495 0.017443873 0.101477966 0.00034035448 -0.16795038 -0.14200264
0.07748995 -0.019020617 0.06138524 -0.31567976 -0.2802781 -0.06684928 -0.0440131 0.09791347
0.22168499 -0.11754341 -0.12704907 -0.074972264 0.20794244 0.13713177 -0.0788658 -0.022798527
-0.14959964 0.18461008 -0.022616653 -0.008038989 -0.20245625 0.07750646 0.0045782244 -0.4548044
0.14915057 0.1529662 0.17648758 0.010299602 -0.1085853 -0.118094265 -0.1549649 0.04092807
0.35571182 -0.244584 0.046816614 0.1931477 -0.0023156954 -0.03951225 0.14006644 -0.048453055
0.15055212 0.12549429 -0.037022963 -0.10862731 -0.21201788 0.16113617 0.009424216 0.14711481
-0.074880086 -0.32712713 0.26533744 -0.11568819 0.39592364 -0.10749451 0.0836888 0.030155763
0.24786171 0.056320075 0.19217466 0.23040926 -0.022465475 -0.17249033 -0.10626417 -0.02174539
-0.12278022 -0.030816156 0.002359078 -0.1236815 -0.24587543 0.16131347 0.39371637 0.00038449466
0.23204124 0.0600227 0.039893802 -0.19270621 -0.11847323 0.15354225 -0.2631029 0.015933719
0.16212814 -0.08301968 0.008329824 0.1838707 0.08104436 -0.046818316 0.07914419 0.07188544
0.25759858 0.23487934 0.050206866 -0.06999334 -0.28417972 0.020655574 -0.06182382 -0.10188751
0.13770224 0.24489452 0.069374986 0.24475805 0.22382343 -0.14609742 -0.028616631 -0.23349875
-0.34903055 -0.21201006 -0.22287117 0.20137383 -0.17815739 -0.039192278 -0.14264861 0.12802768
0.0035295167 -0.050541323 0.048655868 0.19246148 0.11208499 -0.023773294 -0.06562929 -0.24046126
0.09799787 0.008994382 -0.09326084 0.05796602 0.0058948933 -0.05311411 -0.046714235 -0.011928019
-0.080540635 -0.07243197 0.062512405 0.05575276 -0.13458808 -0.034248114 0.14951205 -0.35608542
-0.07229191 0.1836044 0.00039476462 -0.07989317 -0.2146801 -0.005533201 0.024056649 -0.07534397
-0.01988945 0.04092959 -0.014317575 0.28725412 -0.14872232 -0.35163426 0.30454737 0.17081742
-0.44436893 0.076710984 0.13433683 0.05599485 -0.55094516 0.031847365 -0.05437057 -0.6213594
-0.037886348 0.55012965 -0.32952046 -0.54337144 0.13574809 0.07629997 -0.07114667 0.061442625
0.21060677 -0.16849329 0.18616515 0.041810114 -0.087426044 0.07420797 -0.04104226 0.091305375
-0.12990765 -0.035014283 0.07086761 0.10661671 0.057042897 0.037899267 0.026814539 -0.21167456
-0.007306044 0.1936504 -0.116288625 -0.22743794 0.19673344 0.14240149 -0.026875034 0.041085903
-0.25137478 -0.34914866 0.23498599 0.5931671 -0.6179167 -0.18155743 0.25619364 0.50572157
-0.5654585 0.060076933 0.071353406 0.18761429 -0.076779656 -0.07121868 0.096417025 0.11333696
-0.016055135 0.057242263 0.040957805 -0.4980878 -0.05937342 0.27155712 -0.09958236 -0.25517446
-0.2005508 0.13276127 -0.32344365 0.1643144 0.0068160044 -0.09138637 -0.060096312 -0.13870138
-0.22858869 0.12139265 0.020125162 -0.06587859 -0.14076145 -0.15199918 -0.19390848 -0.15797293
00000000: e78e 3dbe 8345 dd3d 7131 9e3e b513 cebd
00000010: 8e7c bcbb 5000 ec3d 0cfd 75be d8c0 30be
00000020: fa1c 77bd 0652 16bd 2f6b 563d d7ea 713e
00000030: fb93 10be 29cf 4e3d d1ad 383e a8ab 5ebe
00000040: cf3e 73be 8d3d 2fbe 6b8a 873c 74e6 8e3c
00000050: aed3 cf3d 9b71 b239 2ffb 2bbe 2469 11be
00000060: 0db3 9e3d 20d1 9bbc 176f 7b3d c7a0 a1be
00000070: 9c80 8fbe 46e8 88bd 1547 34bd db86 c83d
00000080: 6401 633e 99ba f0bd 2719 02be 0f8b 99bd
00000090: ddee 543e 456c 0c3e 6484 a1bd fac3 babc
000000a0: a630 19be 6d0a 3d3e 8f46 b9bc f7b5 03bc
000000b0: b150 4fbe b5bb 9e3d ee04 963b 1fdc e8be
000000c0: edba 183e 2ca3 1c3e 29b9 343e a9bf 283c
000000d0: f861 debd 68db f1bd 1eaf 1ebe 31a4 273d
000000e0: dc1f b63e 3a74 7abe c7c2 3f3d 83c8 453e
000000f0: ecc2 17bb 99d7 21bd 946d 0f3e b676 46bd
00000100: 562a 1a3e 9381 003e 64a5 17bd ff77 debd
00000110: 371b 59be e100 253e 0768 1a3c 44a5 163e
00000120: bb5a 99bd 357d a7be 4fda 873e eeed ecbd
00000130: 81b6 ca3e 1526 dcbd 0965 ab3d 3809 f73c
00000140: 76cf 7d3e e1af 663d 6fc9 443e 68f0 6b3e
00000150: 8409 b8bc 4ea1 30be 07a1 d9bd 6323 b2bc
00000160: 3274 fbbd 2a72 fcbc c39a 1a3b ba4c fdbd
00000170: c5c6 7bbe 5c2f 253e 3195 c93e 0096 c939
00000180: 389c 6d3e 5dda 753d af67 233d c754 45be
00000190: 18a2 f2bd 2e3a 1d3e 6cb5 86be 6e87 823c
000001a0: eb04 263e 3906 aabd d079 083c 9a48 3c3e
000001b0: 96fa a53d 90c4 3fbd 5916 a23d ac38 933d
000001c0: f6e3 833e 3684 703e b7a5 4d3d ab58 8fbd
000001d0: 0180 91be e135 a93c f93a 7dbd 66aa d0bd
000001e0: d101 0d3e a1c5 7a3e 7914 8e3d dba1 7a3e
000001f0: f831 653e 909a 15be 6d6d eabc 4c1a 6fbe
00000200: 22b4 b2be 2a19 59be 5738 64be f134 4e3e
00000210: e46e 36be 1588 20bd 7a12 12be b019 033e
00000220: 774f 673b 6b04 4fbd 604b 473d 9f14 453e
00000230: d18c e53d 36c0 c2bc a668 86bd 7a3b 76be
00000240: 1bb3 c83d 2c5d 133c 8aff bebd c76d 6d3d
00000250: f329 c13b 2e8e 59bd 6d57 3fbd bd6d 43bc
00000260: 7df2 a4bd 3657 94bd 8106 803d 025d 643d
00000270: 75d1 09be c047 0cbd b019 193e d450 b6be
00000280: c80d 94bd cb02 3c3e 69f8 ce39 089f a3bd
00000290: 1ad5 5bbe db4f b5bb 7312 c53c f04d 9abd
000002a0: 33ef a2bc c9a5 273d 4394 6abc f912 933e
000002b0: aa4a 18be 6809 b4be a2ed 9b3e c3ea 2e3e
000002c0: 5384 e3be a61a 9d3d 988f 093e db5a 653d
000002d0: be0a 0dbf 6272 023d adb3 5ebd 6911 1fbf
000002e0: b72e 1bbd 4cd5 0c3f e8b6 a8be 641a 0bbf
000002f0: 8c01 0b3e 2943 9c3d 58b5 91bd 43ab 7b3d
00000300: 4da9 573e 8189 2cbe 14a2 3e3e 1541 2b3d
00000310: 6d0c b3bd 59fa 973d ee1b 28bd 50fe ba3d
00000320: 8306 05be 236b 0fbd 0a23 913d dd59 da3d
00000330: d0a5 693d 433c 1b3d 2aaa db3c 37c1 58be
00000340: 8a67 efbb 4a4c 463e bb28 eebd 7ee5 68be
00000350: 7e74 493e b2d1 113e 0829 dcbc b149 283d
00000360: 32b4 80be 9dc3 b2be 2ba0 703e cdd9 173f
00000370: ca2f 1ebf 31ea 39be d02b 833e f876 013f
00000380: e3c1 10bf 3b13 763d bc21 923d f61d 403e
00000390: a73e 9dbd 19db 91bd 4a76 c53d 351d e83d
000003a0: 0f86 83bc dd76 6a3d 5fc3 273d 5d05 ffbe
000003b0: 8b31 73bd 8909 8b3e d6f1 cbbd 3aa6 82be
000003c0: 305d 4dbe 92f2 073e 689a a5be 0942 283e
000003d0: ca58 df3b c728 bbbd 8d27 76bd bc07 0ebe
000003e0: 2713 6abe b69c f83d 86dd a43c 5beb 86bd
000003f0: c523 10be aca5 1bbe f28f 46be a8c3 21be

layer1.1.conv1.bias f4 [16]
-0.001117599 -0.0072684805 0.0052305316 0.0004980435 -0.005708929 0.006946003 -0.007197166 -0.0076484852
-0.0077687437 -0.0037937264 0.0064192177 -0.0014138925 0.008977031 -0.0009371508 -0.007426148 0.00041007882
00000000: 667c 92ba 6f2c eebb e164 ab3b 228f 023a
00000010: f811 bbbb 4c9b e33b 34d6 ebbb 25a0 fabb
00000020: f290 febb 2ba0 78bb 4d58 d23b 5c52 b9ba
00000030: 6614 133c 20ab 75ba 0b57 f3bb d9ff d639

layer1.1.bn1.weight f4 [16]
0.60233027 1.0211327 0.68803895 0.7189932 0.64057505 0.69815063 0.618191 0.82326865
0.6366723 0.85858893 0.88120466 0.7829627 0.77993155 0.7282533 0.82910824 0.78514695
00000000: 5132 1a3f 7ab4 823f 5223 303f f00f 383f
00000010: bafc 233f 00ba 323f c441 1e3f bcc1 523f
00000020: f5fc 223f 7ccc 5b3f a196 613f 3e70 483f
00000030: 98a9 473f cf6e 3a3f 7040 543f 64ff 483f

layer1.1.bn1.bias f4 [16]
0.29432037 -0.33461466 -0.21086086 0.16759977 -0.104571775 -0.22934425 -0.10987066 -0.38673562
-0.045576498 -0.64065784 -0.823979 -0.31119668 -0.6899598 -0.10157302 0.1852312 -0.044186775
00000000: 29b1 963e 9d52 abbe e9eb 57be 469f 2b3e
00000010: ba29 d6bd 38d9 6abe de03 e1bd 3602 c6be
00000020: 6cae 3abd 2702 24bf 4af0 52bf 2c55 9fbe
00000030: 35a1 30bf 8405 d0bd 3fad 3d3e 31fd 34bd

layer1.1.bn1.running_mean f4 [16]
0.89258826 -4.093783 -1.3426749 -2.4030294 -5.340565 -0.5085771 -1.3588179 -2.3558187
-1.6204072 4.952929 0.37723395 1.3758782 4.423766 -3.0194821 -0.8249398 -4.965433
00000000: aa80 643f 4500 83c0 c5dc abbf 3ccb 19c0
00000010: e9e5 aac0 1c32 02bf bfed adbf bcc5 16c0
00000020: 8169 cfbf 657e 9e40 cf24 c13e c71c b03f
00000030: 7e8f 8d40 323f 41c0 412f 53bf d4e4 9ec0

layer1.1.bn1.running_var f4 [16]
4.757748 17.127377 6.305963 4.830672 5.0035286 7.10755 4.5232472 4.289763
5.711749 5.217382 4.6412406 6.8610334 3.4976647 4.3457074 9.83504 8.222649
00000000: 793f 9840 de04 8941 73ca c940 dd94 9a40
00000010: e81c a040 0d71 e340 71be 9040 bd45 8940
00000020: a6c6 b640 cbf4 a640 0b85 9440 968d db40
00000030: bdd9 5f40 0910 8b40 535c 1d41 f88f 0341

layer1.1.conv2.weight f4 [16, 16, 3, 3]
0.24328348 -0.032986145 -0.030111471 0.014900095 -0.21011397 -0.17927136 0.037358325 -0.19340128
-0.20424266 0.03144687 0.03528559 0.22644244 -0.00885925 0.06982844 0.16020818 0.0012782527
-0.025051517 -0.0051132357 -0.040785763 -0.09697809 -0.15566826 -0.034963105 0.0030072685 0.03633771
0.036177784 0.058106236 0.09480569 0.009777931 0.04079976 -0.16696349 0.0937057 0.0013664772
-0.11012803 0.13629253 0.07570857 0.036955155 -0.0017094779 0.020868246 0.08597214 -0.13600983
-0.026108744 -0.04439132 -0.023900818 0.043325417 0.027608834 -0.007448739 0.0036452408 0.0358711
0.10220734 0.058917593 0.06652832 0.0329575 0.02957709 0.004434796 -0.07946928 -0.039128695
0.0555303 -0.12635063 0.04880624 0.038943738 -0.027287124 0.054940443 -0.0005921039 0.038165223
0.06131161 0.033649806 0.0440833 0.07889324 -0.01396782 0.08825554 0.11132446 0.157608
0.071918465 0.074233845 0.12187509 -0.045751717 -0.0139580555 0.031538486 0.022843 0.08945382
0.051298004 -0.17307891 -0.16091923 -0.23388506 -0.12432435 -0.16582268 -0.23886426 -0.036602806
-0.061801787 -0.1710581 -0.1011275 -0.18480223 -0.17254835 -0.101837724 -0.21539997 -0.20722203
-0.11588794 -0.22067492 -0.21529737 0.0994343 0.06621293 0.05918788 0.12944187 0.09290606
0.19145188 0.038697388 0.028822204 0.08741201 -0.025643013 -0.09387796 -0.12465948 0.0033923339
-0.10311853 -0.07519976 0.024636665 -0.002707006 -0.018358648 -0.06953155 -0.023280919 0.15152982
-0.022262096 -0.07336453 0.082618475 -0.15095046 -0.062919885 0.033158265 0.13025819 0.07884516
-0.06384426 -0.118479826 0.09464039 -0.11962314 -0.036236465 0.07211075 -0.004000199 -0.044046804
0.09355298 0.02857563 -0.039911617 0.05070376 0.17556503 0.0012526846 0.06724148 0.15714212
-0.23378463 -0.214781 0.051693816 0.07970139 0.09574036 -0.08856245 0.12732624 0.11069698
0.03480591 0.090258725 0.09273543 0.18454108 0.01357787 0.033925127 0.05399028 -0.10327894
-0.05245687 -0.1469105 -0.06341138 -0.15206653 -0.080591016 -0.011745317 0.024405342 0.13329121
-0.025884962 0.02390266 0.14268975 -0.004627231 0.040144663 0.020325098 0.0028072079 -0.1084073
0.075021 -0.15103279 -0.104178846 -0.09545302 -0.34023392 -0.09435491 0.0031806363 -0.050380826
0.10785987 0.09946339 0.12867942 0.08968171 -0.08239335 0.024903117 -0.13540748 -0.16955328
0.12657255 -0.09286562 -0.01080356 -0.073872924 0.007905913 -0.037422117 0.093253 0.11499058
0.016433332 -0.095136896 -0.013371389 -0.10204524 -0.15269203 -0.13837096 -0.07573489 -0.14039633
-0.0352978 -0.11302127 0.36438215 0.37400573 0.24404185 0.12011714 0.009603139 0.14712892
0.05654342 0.12695242 0.18517812 0.052288186 0.029300425 -0.02119485 -0.09221411 -0.2960176
-0.20545278 0.23381129 0.22724113 0.26184642 0.01741455 -0.007692529 0.06349309 -0.25694877
-0.25291348 -0.16552548 0.154258 0.07871942 0.0021410412 0.03337219 0.0028977378 -0.08792116
-0.16789319 -0.20109317 -0.22567403 0.1292127 0.24773571 0.3056676 -0.0117703155 0.10525828
0.048880164 -0.06121232 -0.13543299 -0.13156979 0.00726045 -0.0743818 0.055321805 -0.022102576
00000000: 4e1f 793e 7b1c 07bd 55ac f6bc 871f 743c
00000010: 1e28 57be e992 37be 0b05 193d fc0a 46be
00000020: fd24 51be 6fce 003d 9f87 103d 87e0 673e
00000030: 6326 11bc 3702 8f3d 9d0d 243e 0b8b a73a
00000040: d738 cdbc ee8c a7bb f90e 27bd 739c c6bd
00000050: 8067 1fbe 7935 0fbd 9815 453b dad6 143d
00000060: 282f 143d ce00 6e3d 7c29 c23d 9d33 203c
00000070: a61d 273d 7af8 2abe c6e8 bf3d 5e1b b33a
00000080: ce8a e1bd 4590 0b3e 180d 9b3d 4a5e 173d
00000090: 8f10 e0ba e2f3 aa3c 2912 b03d 2946 0bbe
000000a0: 01e2 d5bc acd3 35bd a6cb c3bc fe75 313d
000000b0: ec2b e23c 8d14 f4bb fee4 6e3b 93ed 123d
000000c0: 1552 d13d 9353 713d 0040 883d 72fe 063d
000000d0: a74b f23c c451 913b cac0 a2bd 6945 20bd
000000e0: bd73 633d 0f62 01be 0de9 473d 7883 1f3d
000000f0: 3f89 dfbc 3b09 613d 6c37 1bba 2353 1c3d
00000100: e221 7b3d 61d4 093d b190 343d c792 a13d
00000110: 49d9 64bc 52bf b43d 14fe e33d fe63 213e
00000120: fd49 933d ea07 983d a699 f93d 2766 3bbd
00000130: 54b0 64bc 802e 013d 3e21 bb3c 9033 b73d
00000140: db1d 523d 993b 31be 03c8 24be 917f 6fbe
00000150: c49d febd 6ccd 29be d598 74be d3ec 15bd
00000160: df23 7dbd db29 2fbe ef1b cfbd cc3c 3dbe
00000170: 84b0 30be 4c90 d0bd cf91 5cbe 0332 54be
00000180: a856 edbd 9bf8 61be ea76 5cbe 36a4 cb3d
00000190: a59a 873d fe6e 723d 698c 043e 8845 be3d
000001a0: f60b 443e 2781 1e3d 8b1c ec3c 1105 b33d
000001b0: 4c11 d2bc 1743 c0bd 784d ffbd eb51 5e3b
000001c0: cf2f d3bd 5502 9abd d5d2 c93c 0668 31bb
000001d0: e064 96bc 8f66 8ebd a0b7 bebc a22a 1b3e
000001e0: 005f b6bc 2540 96bd e033 a93d c292 1abe
000001f0: 24dc 80bd f6d0 073d 6762 053e 9279 a13d
00000200: c8c0 82bd 8da5 f2bd d2d2 c13d fafc f4bd
00000210: b06c 14bd cdae 933d 1a14 83bb 6c6a 34bd
00000220: b498 bf3d 7117 ea3c 5d7a 23bd bfae 4f3d
00000230: 52c7 333e 1f31 a43a e7b5 893d dde9 203e
00000240: 3d65 6fbe 8def 5bbe e5bc 533d 7b3a a33d
00000250: 8613 c43d 3b60 b5bd cf61 023e 19b5 e23d
00000260: a490 0e3d 91d9 b83d 13ec bd3d 56f8 3c3e
00000270: b775 5e3c 13f5 0a3d e924 5d3d e983 d3bd
00000280: 04dd 56bd b56f 16be d3dd 81bd 54b7 1bbe
00000290: e70c a5bd 6e6f 40bc b6ed c73c 7e7d 083e
000002a0: b30c d4bc 83cf c33c 431d 123e 07a0 97bb
000002b0: bb6e 243d d280 a63c 22f9 373b a604 debd
000002c0: 9ca4 993d 57a8 1abe b85b d5bd df7c c3bd
000002d0: 2433 aebe 263d c1bd 3972 503b 205c 4ebd
000002e0: a3e5 dc3d 76b3 cb3d 8ac4 033e 0bab b73d
000002f0: d8bd a8bd 9f01 cc3c 42a8 0abe 609f 2dbe
00000300: 3c9c 013e 5530 bebd 6a01 31bc b04a 97bd
00000310: cd87 013c ef47 19bd 6efb be3d 2e80 eb3d
00000320: 329f 863c 22d7 c2bd ac13 5bbc 18fd d0bd
00000330: 4d5b 1cbe 1eb1 0dbe e51a 9bbd 0ec4 0fbe
00000340: 6d94 10bd b277 e7bd 4c90 ba3e ae7d bf3e
00000350: 1be6 793e faff f53d 7c56 1d3c f7a8 163e
00000360: 139a 673d d1ff 013e 559f 3d3e 232c 563d
00000370: 7207 f03c d2a0 adbc c0da bcbd 9e8f 97be
00000380: 3762 52be 3a6c 6f3e e6b1 683e bc10 863e
00000390: f5a8 8e3c 9c11 fcbb aa08 823d ca8e 83be
000003a0: e07d 81be 837f 29be cff5 1d3e a637 a13d
000003b0: b650 0c3b 47b1 083d f9e7 3d3b 0210 b4bd
000003c0: 31ec 2bbe 5eeb 4dbe 1817 67be 5650 043e
000003d0: 6eae 7d3e 7780 9c3e 48d8 40bc a791 d73d
000003e0: 9136 483d c5b9 7abd f2ae 0abe 3bba 06be
000003f0: 12e9 ed3b 7c55 98bd 1e99 623d 7610 b5bc

layer1.1.conv2.bias f4 [16]
0.006445373 -0.0014417049 0.0020681843 0.0043963413 -0.005521135 -0.0036160203 -0.008939605 -0.0021929159
-0.0017702942 0.008282202 0.0029677069 0.0013948503 -0.0031211695 -0.0026264742 0.00018023756 0.0070217527
00000000: b533 d33b 97f7 bcba 608a 073b 2f0f 903b
00000010: a3ea b4bb c1fa 6cbb 6c77 12bc 06b7 0fbb
00000020: 3709 e8ba 13b2 073c dc7d 423b 69d3 b63a
00000030: 898c 4cbb ed20 2cbb 27fe 3c39 bb16 e63b

layer1.1.bn2.weight f4 [16]
0.3456431 0.37238064 0.68363845 0.57066 0.95377344 0.91903365 0.62153953 0.34523243
0.5891709 0.748467 1.0884058 1.1970177 0.7814579 0.5094726 1.0698683 0.19157545
00000000: 22f8 b03e ada8 be3e ee02 2f3f c616 123f
00000010: 7f2a 743f ca45 6b3f 371d 1f3f 4ec2 b03e
00000020: e7d3 163f 899b 3f3f e250 8b3f e037 993f
00000030: a00d 483f cc6c 023f 72f1 883f 5b2c 443e

layer1.1.bn2.bias f4 [16]
0.015971268 0.31092986 0.0049640452 -0.05545192 -0.24622563 0.08668745 0.015081507 0.20364031
0.17407694 0.17203721 -0.67411375 0.09154104 0.38210756 0.23829994 0.02285754 0.24013594
00000000: 2dd6 823c 3332 9f3e 6ea9 a23b 8d21 63bd
00000010: 9222 7cbe 3189 b13d 6d18 773c 1687 503e
00000020: 3a41 323e 862a 303e b892 2cbf de79 bb3d
00000030: 9aa3 c33e e604 743e bc3f bb3c 32e6 753e

layer1.1.bn2.running_mean f4 [16]
-0.06556512 -0.25587943 0.2813358 -0.75082433 -0.20729819 -1.0317775 -0.9263775 -0.41560113
-0.29985332 -0.23025653 -0.02806243 -0.9256121 -0.67458767 -0.6134577 -0.19963033 -0.081249826
00000000: 0147 86bd a102 83be 3f0b 903e 0636 40bf
00000010: fa45 54be 4911 84bf 1327 6dbf acc9 d4be
00000020: 6086 99be 5ec8 6bbe 2ee3 e5bc eaf4 6cbf
00000030: c7b1 2cbf 900b 1dbf e56b 4cbe 4f66 a6bd

layer1.1.bn2.running_var f4 [16]
0.7541013 0.6589836 0.6410419 0.966063 1.1658443 0.7200951 1.1252897 0.73018277
0.50112915 0.73432267 1.7796499 0.7719837 1.1829965 0.5256612 1.0443527 0.27286306
00000000: c80c 413f 26b3 283f 521b 243f e84f 773f
00000010: 633a 953f 2758 383f 7e09 903f 42ed 3a3f
00000020: 004a 003f 92fc 3b3f 91cb e33f b9a0 453f
00000030: 6e6c 973f bb91 063f 59ad 853f b5b4 8b3e

layer2.0.conv1.weight f4 [32, 16, 3, 3]
-0.030822998 -0.007924019 -0.074792504 -0.013229382 -0.01330969 0.005750515 0.06556047 0.03364689
0.042669125 -0.048118558 -0.007973597 0.13633896 0.27077717 0.23070735 0.1166792 -0.1899832
-0.17604974 -0.18509527 -0.011089339 0.028849844 -3.0544143e-05 -0.009034865 0.022754021 -0.07872865
0.04409943 0.06445501 0.06161995 0.04183409 0.0869571 0.10930553 0.029059233 -0.069527656
-0.10607144 -0.19693914 -0.2632103 -0.3842242 0.04553357 -0.06835794 0.029096624 -0.07274602
-0.067752555 -0.0077870167 -0.048731677 0.0014798283 0.17536326 -0.31036305 -0.4610307 -0.25452378
0.15938276 0.25483286 0.41513515 0.085159704 0.0003934877 0.0068134144 0.059354953 -0.02607427
0.022312358 0.025884708 -0.015086772 -0.12547716 -0.16624384 -0.09497814 0.0062629897 0.16994433
0.16325308 0.13600023 0.042792268 -0.06826226 -0.16555794 -0.20700191 -0.19305804 -0.1220048
0.054834723 0.16224512 0.054987166 0.04246454 0.041169126 -0.040790264 -0.002797787 0.02911885
-0.100160554 0.07679214 0.19894248 0.09758668 -0.067925915 0.011603807 -0.046844166 0.0058790026
0.070544355 0.02721819 -0.077240705 -0.19419332 -0.06950208 0.1170906 0.06284427 0.097183496
0.035164665 0.07407084 0.06258699 0.25259137 0.1981448 0.13437633 0.07841645 -0.09762815
-0.16860195 -0.11256176 -0.030503236 0.053460047 -0.21921769 -0.11687948 -0.07904721 0.01206601
0.08633195 0.07347991 0.04956082 0.023943633 0.07651529 -0.28176406 -0.29428196 -0.19100188
0.047884144 0.118167736 0.19634822 -0.053137597 -0.017734075 0.032236792 -0.12051657 -0.10840363
0.038514096 0.066652924 0.097244896 -0.009305262 0.012445233 0.051813517 -0.007334709 -0.19389693
-0.013188486 -0.10623436 0.009025597 0.14538346 0.07884182 -0.048490077 0.060712576 -0.0034488095
0.035314027 0.045488548 0.034999043 0.028773252 0.027363049 0.050177462 -0.015504136 0.005540254
0.017120536 0.019181047 0.037049647 0.07917921 -0.005650481 0.0676265 0.10548738 -0.026424626
0.07028611 0.19361714 -0.22111262 0.13144949 0.20943786 -0.12657274 0.13308702 0.1798244
-0.10295197 0.11397848 0.035081517 -0.19614348 -0.1746804 -0.16347454 -0.061855804 -0.01635138
0.010146538 0.015348806 0.052032433 0.1526676 0.1774427 0.061541203 -0.20168231 0.16657108
-0.08332929 -0.14022712 -0.0050080684 -0.015248821 -0.13254073 -0.07436217 0.12361831 0.2903591
-0.15560701 0.0244342 0.24144825 -0.045043256 0.05289698 0.1560155 0.032264296 0.047680013
-0.06001711 -0.028725611 0.057794448 -0.03326134 0.020996667 0.07705637 -0.01610862 -0.029866826
-0.007561841 0.0047694696 -0.03640298 0.04364135 0.008653471 0.09256879 0.08761967 0.055293005
-0.033130195 -0.06791713 -0.003534935 0.03339398 0.08895677 -0.06582171 -0.027057322 -0.03512927
-0.08021257 0.28542712 0.20778862 -0.08398931 0.3085545 0.04186964 -0.080965415 0.14889391
-0.042296495 -0.033162937 -0.22133373 0.1768654 0.42694634 -0.1712711 0.11829084 0.5369319
-0.33431005 0.2086462 0.36473668 -0.045142267 -0.032678 0.030630741 -0.07148283 -0.017921744
0.008489451 0.009176302 -0.01841035 0.049620256 -0.065295205 -0.14327861 0.01373595 -0.057978515
00000000: 8380 fcbc bfd3 01bc d02c 99bd 0dc0 58bc
00000010: e310 5abc d16e bc3b 9144 863d 52d1 093d
00000020: d2c5 2e3d f717 45bd b1a3 02bc 719c 0b3e
00000030: 4ea3 8a3e 8c3e 6c3e 81f5 ee3d f58a 42be
00000040: 6246 34be 9d89 3dbe 0fb0 35bc 8256 ec3c
00000050: 861c 00b8 f806 14bc a466 ba3c 7d3c a1bd
00000060: 9ba1 343d fd00 843d 3365 7c3d 395a 2b3d
00000070: 9016 b23d 94db df3d a10d ee3c 8464 8ebd
00000080: fc3b d9bd 6aaa 49be 80c3 86be 09b9 c4be
00000090: 6981 3a3d 3fff 8bbd 0b5c ee3c defb 94bd
000000a0: dac1 8abd 3b2a ffbb de9a 47bd ccf6 c13a
000000b0: 6d92 333e e8e7 9ebe 370c ecbe f150 82be
000000c0: 3c35 233e 7479 823e 988c d43e 3668 ae3d
000000d0: 064d ce39 1043 df3b 2e1e 733d b599 d5bc
000000e0: 68c8 b63c 2b0c d43c 822e 77bc 167d 00be
000000f0: d33b 2abe e683 c2bd c439 cd3b e305 2e3e
00000100: d12b 273e a543 0b3e f246 2f3d 15cd 8bbd
00000110: 0588 29be 4ff8 53be 02b1 45be a7dd f9bd
00000120: 609a 603d 9623 263e 393a 613d 4cef 2d3d
00000130: f5a0 283d b113 27bd 145b 37bb a88a ee3c
00000140: fa20 cdbd 3345 9d3d 94b7 4b3e 86db c73d
00000150: be1c 8bbd e51d 3e3c abdf 3fbd a6a4 c03b
00000160: 8f79 903d aef8 de3c 6030 9ebd 9dda 46be
00000170: 1b57 8ebd 32cd ef3d 7fb4 803d 2408 c73d
00000180: d308 103d 74b2 973d 9c2d 803d a853 813e
00000190: 78e6 4a3e f399 093e ce98 a03d 44f1 c7bd
000001a0: fda5 2cbe c886 e6bd ece1 f9bc ecf8 5a3d
000001b0: 9a7a 60be 825e efbd 81e3 a1bd 84b0 453c
000001c0: cece b03d a37c 963d 4900 4b3d 7025 c43c
000001d0: 0cb4 9c3d 6143 90be 20ac 96be ff95 43be
000001e0: 2a22 443d ed01 f23d 820f 493e cfa6 59bd
000001f0: 0d47 91bc ba0a 043d 64d1 f6bd b902 debd
00000200: f5c0 1d3d 5481 883d 5528 c73d 1975 18bc
00000210: 17e7 4b3c 693a 543d 0058 f0bb eb8c 46be
00000220: 8514 58bc 6691 d9bd 19e0 133c 67df 143e
00000230: d277 a13d 889d 46bd c0ad 783d 6c05 62bb
00000240: 71a5 103d 3352 3a3d 285b 0f3d e2b5 eb3c
00000250: 7928 e03c e286 4d3d 0f05 7ebc 058b b53b
00000260: 5e40 8c3c 9221 9d3c 5fc1 173d b628 a23d
00000270: ac27 b9bb c37f 8a3d c409 d83d 7578 d8bc
00000280: 2af2 8f3d 9243 463e 596b 62be b29a 063e
00000290: e176 563e 499c 01be f747 083e e323 383e
000002a0: 7cd8 d2bd 8d6d e93d a3b1 0f3d d6d9 48be
000002b0: 6bdf 32be df65 27be 835c 7dbd 54f3 85bc
000002c0: aa3d 263c 8f79 7b3c f61f 553d e554 1c3e
000002d0: 8ab3 353e a112 7c3d cf85 4ebe 9c91 2a3e
000002e0: 8ca8 aabd b397 0fbe b91a a4bb 31d6 79bc
000002f0: c2b8 07be 324b 98bd 992b fd3d f3a9 943e
00000300: 7257 1fbe 3b2a c83c 363e 773e 477f 38bd
00000310: 81aa 583d 87c2 1f3e 9127 043d 1e4c 433d
00000320: 80d4 75bd f951 ebbc dfb9 6c3d 0b3d 08bd
00000330: 3401 ac3c bbcf 9d3d 3af6 83bc 46ab f4bc
00000340: 52c9 f7bb 3649 9c3b 4b1b 15bd 46c1 323d
00000350: 4ac7 0d3c b594 bd3d f171 b33d eb7a 623d
00000360: 87b3 07bd 2318 8bbd 5eaa 67bb 20c8 083d
00000370: f82e b63d 88cd 86bd 51a7 ddbc b6e3 0fbd
00000380: 7d46 a4bd 8123 923e 8ac6 543e 9602 acbd
00000390: dbfa 9d3e 807f 2b3d 32d1 a5bd a577 183e
000003a0: 173f 2dbd dcd5 07bd 4fa5 62be 341c 353e
000003b0: b698 da3e b161 2fbe 7842 f23d 5e74 093f
000003c0: b02a abbe 59a7 553e c4be ba3e 19e7 38bd
000003d0: 5ed9 05bd 52ed fa3c 9765 92bd 9fd0 92bc
000003e0: 5717 0b3c 3358 163c 4dd1 96bc 9c3e 4b3d
000003f0: 7eb9 85bd a1b7 12be c00c 613c e17a 6dbd

layer2.0.conv1.bias f4 [32]
0.004545635 -0.0050003515 0.007907323 0.001264726 0.0036876039 -0.005994771 -0.0012584403 0.0012578041
-0.00032361486 -0.001907062 0.0012864306 0.006457804 0.000527287 -0.009558429 -0.0065311943 -0.0053535085
-0.0070042843 0.005453766 0.0013908346 -0.0037562044 -0.005447622 0.010787875 0.0032063597 -0.006480414
-0.001491749 0.0007824838 -0.0015558819 0.0014562682 0.0027507737 -0.005336835 0.00035860515 -0.00528167
00000000: 8df3 943b fdd9 a3bb b78d 013c 2ac5 a53a
00000010: baab 713b c96f c4bb 40f2 a4ba e7dc a43a
00000020: daaa a9b9 62f6 f9ba 739d a83a fc9b d33b
00000030: a239 0a3a f59a 1cbc a103 d6bb 7c6c afbb
00000040: 3284 e5bb 81b5 b23b aa4c b63a a72a 76bb
00000050: f781 b2bb a1bf 303c ca21 523b a759 d4bb
00000060: ca86 c3ba 991f 4d3a bcee cbba 41e0 be3a
00000070: 5346 343b 9ee0 aebb 2b03 bc39 dc11 adbb

layer2.0.bn1.weight f4 [32]
0.7755027 0.6802714 1.0812263 1.0331068 0.9320118 0.7274024 0.71785414 1.0068803
0.8503336 0.956087 0.7813754 0.7818451 0.6651543 0.80186826 0.8036425 0.91537744
0.9412529 0.8594555 0.8045487 0.948882 0.95824707 0.7524776 0.76579994 0.8387349
0.72523063 0.9232679 0.71989465 0.66819894 1.0172399 0.8767131 0.83776814 0.8560797
00000000: 5887 463f 4426 2e3f a065 8a3f d83c 843f
00000010: 5398 6e3f 0b37 3a3f 4ac5 373f 74e1 803f
00000020: 76af 593f 1ec2 743f 3808 483f 0027 483f
00000030: 8d47 2a3f 3d47 4d3f 84bb 4d3f 2d56 6a3f
00000040: f3f5 703f 4705 5c3f e7f6 4d3f eee9 723f
00000050: ae4f 753f 5fa2 403f 770b 443f 55b7 563f
00000060: b7a8 393f 495b 6c3f 044b 383f 160f 2b3f
00000070: eb34 823f 4570 603f f977 563f 0a28 5b3f

layer2.0.bn1.bias f4 [32]
-0.18748903 0.021380007 -0.15769416 -0.11729019 -0.049759712 -0.11104995 0.022443429 -0.06559159
-0.14756006 -0.41668653 0.061623737 0.055037424 0.21612912 0.066978134 -0.23300359 -0.34350467
-0.21829319 -0.15321015 -0.17689392 -0.1707233 -0.118840896 0.058734085 -0.12648055 -0.039086454
0.27261978 -0.21558988 0.06919909 -0.07397138 -0.1585138 0.03339728 -0.08353043 -0.042183626
00000000: 20fd 3fbe 2025 af3c 947a 21be d735 f0bd
00000010: d7d0 4bbd 286e e3bd 48db b73c e254 86bd
00000020: fc19 17be f057 d5be 2c69 7c3d ec6e 613d
00000030: f450 5d3e d52b 893d 7e98 6ebe d8df afbe
00000040: 4088 5fbe 1fe3 1cbe ae23 35be 17d2 2ebe
00000050: db62 f3bd 2793 703d 1e84 01be 1e19 20bd
00000060: d294 8b3e 98c3 5cbe 41b8 8d3d 4f7e 97bd
00000070: 7151 22be 96cb 083d 0112 abbd bdc8 2cbd

layer2.0.bn1.running_mean f4 [32]
-0.8482638 2.1397042 -0.38273335 -0.8384074 2.7595882 1.1078022 -4.042977 -1.0846226
0.5014282 -5.901203 1.5653907 -1.2323501 -11.334636 -2.0632815 2.646126 -1.5772461
-1.07515 0.24232318 5.1292887 -2.3810878 -1.2965386 -0.3687649 -0.25444472 -3.997929
1.0614935 -0.18908213 -4.164254 0.31786606 -1.2875652 -5.037017 -7.387591 -0.5599427
00000000: d127 59bf eaf0 0840 a0f5 c3be dea1 56bf
00000010: 189d 3040 76cc 8d3f 1160 81c0 ead4 8abf
00000020: 995d 003f a8d6 bcc0 b95e c83f a6bd 9dbf
00000030: ab5a 35c1 ce0c 04c0 215a 2940 33e3 c9bf
00000040: 849e 89bf 9123 783e 2223 a440 be63 18c0
00000050: faf4 a5bf c1ce bcbe 9446 82be 12de 7fc0
00000060: 05df 873f bf9e 41be 9241 85c0 57bf a23e
00000070: f0ce a4bf 3e2f a1c0 2567 ecc0 6858 0fbf
