Output/swift-iid-8W-linear-shark-linear-2sgd-100epochs/r4-epoch_69-parameters.pt (torch, 731450 bytes, 92 tensors)

conv1.weight f4 [16, 3, 3, 3]
0.30415154 -0.16667002 0.6206881 -0.61731863 1.0806862 -0.21436143 -0.35751557 -0.6440832
-0.064168334 -0.080525726 -0.5464166 -0.23770183 -0.17255817 1.8707839 -0.19366558 -0.062283393
-0.0962923 -0.19334735 -0.03576686 -0.871118 -0.49239293 0.11991436 1.2221099 -0.21816362
0.30710813 0.28852764 -0.013018969 0.28397897 0.44467688 0.28410503 -0.0039356495 0.3324485
0.22014646 -0.35728037 -0.14631864 0.09257066 0.36044642 0.5512492 0.30845088 -0.22077112
0.0920215 -0.14637136 -0.55174315 -0.44758403 -0.3724524 0.46552545 0.6973277 0.40149295
0.20129344 0.51495075 0.0637726 -0.19137788 -0.054187972 -0.31666645 -0.14470534 -0.074756965
-0.0992849 0.12059363 0.43033323 0.095836125 0.4125821 0.57428616 0.36263606 -0.2705604
-0.062470686 -0.19388168 -0.077238165 0.25424117 -0.101604775 -0.065671295 0.14696765 -0.06595918
-0.005373835 0.26398557 0.23832703 0.07885639 0.34702158 0.2360473 -0.108023494 -0.057240568
-0.0902026 0.2095911 -0.34186634 0.13628025 -0.20659849 -0.79677916 -0.22017288 0.07858299
-0.2256309 0.0723338 0.1503544 -0.32544443 0.23065439 -0.1980896 -0.6431805 0.011261421
0.10355451 -0.02544192 0.32553673 0.09401238 -0.14679396 0.2501798 -0.14973271 -0.40756962
0.114486896 0.008479131 -0.082550466 0.24130726 0.21391627 -0.12180876 0.24912935 -0.13072002
-0.5432864 -0.044350646 0.3233027 -0.06390369 0.16859885 0.2178873 -0.13458908 0.2575142
-0.1948437 -0.47553596 -0.066422135 0.29889166 0.046579935 0.30137575 0.08028572 -0.1925558
0.00050589803 -0.3928387 -0.6830331 -0.37946197 -0.17392716 -0.4070806 -0.15466622 -0.09792129
0.25738412 0.28624746 1.049925 0.24921012 -0.18657845 0.4442174 0.015238209 -0.1413563
-0.14036615 -0.61915314 -0.615707 0.5995009 -0.9905049 -1.4020706 0.17190802 -0.65763164
-0.6998378 0.34692907 0.3085689 -0.054415114 1.1191595 0.14269497 -0.6095405 0.8609078
0.26243153 -0.16401254 0.6418105 0.72132975 0.4481884 0.092381924 -0.18022816 -0.2060491
-0.17275274 -1.159731 -0.6612733 0.7473411 0.63711643 0.39331105 0.22814044 -0.20178829
-0.23402248 0.16901815 -0.78112626 -0.3495472 0.35120466 0.22679357 0.067752995 0.030662159
-0.22279538 -0.38270572 0.15703587 -0.6188524 -0.31636235 0.1750766 -0.18932036 -0.292762
-0.3088664 -0.5945166 -0.7555587 -0.20273784 -0.9871072 -0.54575133 0.19118364 0.40625396
0.044768017 0.10439086 0.55098975 0.0351815 0.16481481 -0.048349034 0.0423909 -0.3238528
0.24947712 -0.07835412 0.15175608 1.1729411 0.58840734 0.25911966 0.72263587 0.58770347
-0.027533565 0.22122471 0.0047092796 0.056032732 0.6942835 -1.740734 0.029503748 0.38251242
-0.053392306 0.19692178 0.42859393 -0.20750152 0.25344333 0.932079 -1.732268 0.011292955
0.6187175 0.22541416 -0.121030524 -0.062205296 0.10601895 -0.11694513 0.38061303 -1.2058508
0.039479706 0.3642741 -0.13072082 0.12185939 -0.3447173 0.093176425 -0.10635566 -0.66532135
-0.2078274 0.058254197 -0.18646313 -0.12577528 -0.034680773 -0.41518903 0.08375985 -0.14176823
00000000: c0b9 9b3e 8cab 2abe 6ae5 1e3f 9808 1ebf
00000010: ed53 8a3f 9081 5bbe 480c b7be a3e2 24bf
00000020: b06a 83bd acea a4bd f5e1 0bbf 1c68 73be
00000030: 17b3 30be d975 ef3f 4550 46be df1c 7fbd
00000040: e634 c5bd d9fc 45be 4580 12bd 9701 5fbf
00000050: ed1a fcbe a995 f53d 196e 9c3f 4966 5fbe
00000060: 473d 9d3e e5b9 933e 844d 55bc b165 913e
00000070: b0ac e33e 3776 913e 9ff6 80bb b136 aa3e
00000080: 136e 613e 74ed b6be 8ed4 15be b095 bd3d
00000090: 6f8c b83e ab1e 0d3f 46ed 9d3e d311 62be
000000a0: c575 bc3d 60e2 15be 0a3f 0dbf bc29 e5be
000000b0: 15b2 bebe 5a59 ee3e 1184 323f 7c90 cd3e
000000c0: de1f 4e3e d0d3 033f 359b 823d 90f8 43be
000000d0: 35f4 5dbd 1b22 a2be a32d 14be 2e1a 99bd
000000e0: e255 cbbd cbf9 f63d a354 dc3e bb45 c43d
000000f0: f63d d33e 6b04 133f 6fab b93e e586 8abe
00000100: 43e1 7fbd eb88 46be 0b2f 9ebd e62b 823e
00000110: 2a16 d0bd ac7e 86bd b07e 163e 9b15 87bd
00000120: ff16 b0bb 1e29 873e 000c 743e 767f a13d
00000130: d0ac b13e 62b6 713e 6c3b ddbd 1675 6abd
00000140: 24bc b8bd 0d9f 563e 1b09 afbe 0d8d 0b3e
00000150: 8e8e 53be b8f9 4bbf 0075 61be 1ef0 a03d
00000160: c90b 67be be23 943d 81f6 193e a7a0 a6be
00000170: aa30 6c3e 00d8 4abe 7aa7 24bf d381 383c
00000180: 6314 d43d 936b d0bc c0ac a63e 9089 c03d
00000190: 2851 16be 9117 803e 8853 19be f7ac d0be
000001a0: 1b78 ea3d 0eec 0a3c 3810 a9bd 4019 773e
000001b0: de0c 5b3e df76 f9bd c41b 7f3e 78db 05be
000001c0: d114 0bbf 06a9 35bd ee87 a53e f0df 82bd
000001d0: 2da5 2c3e d91d 5f3e b8d1 09be e7d8 833e
000001e0: 1b85 47be 7379 f3be 5408 88bd 5408 993e
000001f0: 9aca 3e3d ec4d 9a3e d76c a43d 592d 45be
00000200: 3e9e 043a 2722 c9be 42db 2ebf d748 c2be
00000210: f619 32be de6c d0be d260 1ebe f58a c8bd
00000220: dac7 833e 078f 923e f163 863f f030 7f3e
00000230: 6c0e 3fbe 7770 e33e aea9 793c b5bf 10be
00000240: 25bc 0fbe d280 1ebf f99e 1dbf e478 193f
00000250: bb91 7dbf 0d77 b3bf a808 303e 8c5a 28bf
00000260: 9228 33bf b0a0 b13e befc 9d3e 62e2 5ebd
00000270: 9e40 8f3f a11e 123e d90a 1cbf 7464 5c3f
00000280: 6d5d 863e e7f2 27be b14d 243f 11a9 383f
00000290: f378 e53e bc32 bd3d bb8d 38be 89fe 52be
000002a0: 18e6 30be 1172 94bf 3549 29bf bf51 3f3f
000002b0: 101a 233f 1160 c93e a69d 693e 97a1 4ebe
000002c0: 97a3 6fbe 1813 2d3e e4f7 47bf daf7 b2be
000002d0: 19d1 b33e 933c 683e 15c2 8a3d 352f fb3c
000002e0: 7924 64be 01f2 c3be 03ce 203e 1c6d 1ebf
000002f0: 3ffa a1be 4847 333e 32dd 41be e7e4 95be
00000300: bd23 9ebe 3d32 18bf 4c6c 41bf 829a 4fbe
00000310: 0fb3 7cbf 5cb6 0bbf a5c5 433e 8500 d03e
00000320: ab5e 373d e0ca d53d aa0d 0d3f 7a1a 103d
00000330: 37c5 283e a309 46bd 15a2 2d3d 09d0 a5be
00000340: ee76 7f3e 2078 a0bd f265 1b3e ef22 963f
00000350: dda1 163f 55ab 843e aafe 383f bc73 163f
00000360: 128e e1bc bb88 623e 4d50 9a3b 9482 653d
00000370: 90bc 313f 5fd0 debf d8b1 f13c abd8 c33e
00000380: e4b1 5abd dda5 493e aa70 db3e 477b 54be
00000390: 53c3 813e bb9c 6e3f f5ba ddbf 1606 393c
000003a0: 4564 1e3f f8d2 663e dade f7bd fbca 7ebd
000003b0: 7720 d93d ee80 efbd b6df c23e 5259 9abf
000003c0: 79b5 213d 2382 ba3e aedb 05be 6a91 f93d
000003d0: c97e b0be 48d3 be3d ffd0 d9bd 8052 2abf
000003e0: b5d0 54be f49b 6e3d 31f0 3ebe 3ccb 00be
000003f0: 6d0d 0ebd a893 d4be 498a ab3d b12b 11be

conv1.bias f4 [16]
-0.016764993 -0.010634778 -0.011845451 0.021983888 0.020285603 -0.023541179 -0.0011306583 0.0056428215
-0.017942825 -0.02380926 -0.006645987 -0.010885321 -0.008909261 0.017829847 0.0045723724 -0.01630599
00000000: bd56 89bc 7e3d 2ebc 6c13 42bc 8e17 b43c
00000010: fe2d a63c 6ed9 c0bc 9932 94ba 6be7 b83b
00000020: d5fc 92bc a30b c3bc 94c6 d9bb 5858 32bc
00000030: 26f8 11bc e60f 923c d7d3 953b 2494 85bc

bn1.weight f4 [16]
0.8809381 0.7492884 1.0450317 1.0800345 1.2877489 1.0744735 0.8952339 0.7477383
1.0209229 0.97832406 0.9021281 0.77504015 0.87283975 0.78982484 0.75769335 0.73087597
00000000: 2985 613f 5dd1 3f3f 99c3 853f 923e 8a3f
00000010: f5d4 a43f 5988 893f 0d2e 653f c76b 3f3f
00000020: 9aad 823f 7273 7a3f def1 663f 0869 463f
00000030: 6d72 5f3f f631 4a3f 31f8 413f b01a 3b3f

bn1.bias f4 [16]
1.2648697 0.6822235 -0.5778708 -0.44187367 -0.8333234 0.5795677 0.53805673 0.4923458
1.0986118 -0.22006036 0.14908102 -0.112761654 -0.11726376 0.9953144 0.38668147 0.83353186
00000000: 40e7 a13f 33a6 2e3f 57ef 13bf 443d e2be
00000010: af54 55bf 8c5e 143f 16be 093f c014 fc3e
00000020: 509f 8c3f 8157 61be b2a8 183e 95ef e6bd
00000030: fb27 f0bd edcc 7e3f 1dfb c53e 5862 553f

bn1.running_mean f4 [16]
-0.34146625 -0.9050224 -0.77994275 0.78707814 0.8173095 0.14113963 0.29345167 -0.34688732
-0.008443968 0.52098006 0.5197688 0.4461339 0.740276 -0.39198473 0.027624572 -0.14004366
00000000: aad4 aebe 8caf 67bf 54aa 47bf f47d 493f
00000010: 323b 513f e886 103e 4c3f 963e 379b b1be
00000020: 9258 0abc f35e 053f 910f 053f aa6b e43e
00000030: ba82 3d3f 39b2 c8be ed4c e23c 9b67 0fbe

bn1.running_var f4 [16]
4.1386285 18.268986 7.1912537 8.058569 9.448231 15.508915 18.888517 8.88651
11.200171 5.0308013 4.186504 4.798252 8.743073 9.203195 4.6868114 6.5342836
00000000: a56f 8440 e226 9241 c01e e640 e6ef 0041
00000010: f42b 1741 8424 7841 af1b 9741 252f 0e41
00000020: e733 3341 53fc a040 d7f7 8540 488b 9940
00000030: a1e3 0b41 4940 1341 5cfa 9540 da18 d140

layer1.0.conv1.weight f4 [16, 16, 3, 3]
-0.12243507 0.51641685 -0.2274693 -0.014258215 0.73268545 -0.011390414 -0.2911764 -0.3346467
-0.20246 -0.067500114 -0.08554538 -0.049977943 0.08053895 0.21769004 0.12972541 0.1917153
0.2615621 0.23900019 0.101284765 0.25790823 0.092444815 0.034238804 0.17158112 0.008114389
-0.27164444 -0.23954043 -0.18245305 -0.04381806 -0.023333188 -0.027790958 0.04700686 -0.06273412
-0.020860588 0.027023869 0.0149997845 0.083834864 -0.15850346 -0.1460089 -0.10406773 -0.086890616
-0.14893709 -0.06448771 -0.087572396 -0.14207879 -0.08867777 -0.23964228 -0.20730713 0.061308913
-0.12872002 -0.115502134 0.10278081 0.14517382 -0.17574702 -0.15539977 0.06347227 -0.14538474
0.046524234 -0.104208365 -0.13927802 0.042553823 0.12873304 0.1413516 0.16479611 -0.094166785
0.029653264 -0.09583605 -0.011672795 0.1774027 -0.10466859 -0.14139561 -0.017366158 -0.1977163
-0.22536066 0.3658227 0.14675307 -0.5660726 0.17591731 -0.0091173025 -0.06903186 0.048566356
-0.0066706766 -0.029257977 0.085294776 0.0837405 0.10460633 0.028132968 -0.00198738 0.16384456
0.13258204 0.05726969 0.11250842 0.10447126 0.04680468 0.15623072 0.19722684 0.13980882
0.15825555 0.18762138 0.15031284 -0.043830313 -0.08301072 -0.030676736 -0.09579174 -0.22287418
-0.16923174 0.012218865 -0.18646969 0.048877317 0.06242402 -0.027376913 -0.07917011 0.112448305
0.0007578004 -0.032925844 0.038115084 0.11184391 0.07822952 0.0037871185 -0.00021389476 0.06294449
-0.05272754 0.10111288 0.20370278 -0.1256469 -0.19979444 -0.014454151 0.09085806 0.08869345
-0.075451255 0.081278294 0.093076766 -0.14573927 0.13680278 -0.015671939 -0.017306693 0.08536873
-0.06735375 -0.2698307 0.1525316 -0.0729566 -0.26920182 -0.07717354 -0.18386471 0.14359404
-0.27062428 -0.004600868 -0.16576512 -0.08802985 0.357241 -0.2517975 0.018084776 -0.16685286
0.084394224 -0.08596989 -0.01530612 -0.02486973 -0.019683808 0.10051078 0.08765149 0.088485874
0.1087937 0.11619494 -0.071267016 -0.020867808 -0.066244125 -0.06157124 -0.06880131 -0.072474346
-0.07363543 -0.10277545 -0.10113566 -0.06387283 -0.16611607 -0.11161163 0.0935676 -0.08986655
0.09207549 0.2830507 0.23237163 0.20523766 -0.015251929 -0.053964715 0.077167235 0.015646208
-0.055507757 0.099403195 0.08689168 0.06516525 0.10729566 0.03864302 0.022045689 -0.15224348
-0.09284988 0.09634165 -0.14762796 0.15680282 0.01074535 -0.3347831 -0.29154894 -0.13240649
-0.01465379 -0.11165725 0.25781348 0.07129721 0.08693543 0.18616204 -0.008058049 -0.20024145
-0.1585541 -0.1737012 -0.14065844 -0.00051741785 -0.23113376 0.009411033 0.01912512 -0.17593239
0.12947528 0.1033826 0.0059010135 -0.20689766 0.33157107 -0.0410546 0.23476955 -0.09126132
0.020110004 -0.006648586 -0.15674298 -0.14505166 0.103716776 -0.15734996 -0.03483361 0.3608885
0.1987888 0.17142954 -0.16618368 -0.18853813 -0.21516252 0.017648617 -0.02718862 -0.17353402
0.16647975 0.017873388 -0.18761705 0.06996951 -0.030361785 0.082031146 0.06274468 -0.05844295
0.19436947 0.18953197 0.21055587 0.3640708 0.10787047 0.0014189129 -0.013264681 -0.021813598
00000000: 3dbf fabd e533 043f b6ed 68be 4a9b 69bc
00000010: 4691 3b3f dc9e 3abc 1315 95be d056 abbe
00000020: ad51 4fbe 803d 8abd 6b32 afbd acb5 4cbd
00000030: 9bf1 a43d 23ea 5e3e bdd6 043e 0451 443e
00000040: 78eb 853e 77bc 743e 636e cf3d 8c0c 843e
00000050: b553 bd3d fd3d 0c3d f6b2 2f3e 37f2 043c
00000060: fb14 8bbe 164a 75be f9d4 3abe 917a 33bd
00000070: 3e25 bfbc dda9 e3bc 448a 403d bf7a 80bd
00000080: d3e3 aabc 2961 dd3c a8c1 753c 9db1 ab3d
00000090: bb4e 22be 5b83 15be 7621 d5bd b5f3 b1bd
000000a0: f782 18be 2212 84bd 2859 b3bd 1a7d 11be
000000b0: b19c b5bd c964 75be 5248 54be 0e1f 7b3d
000000c0: 2ecf 03be 628c ecbd bf7e d23d 72a8 143e
000000d0: 07f7 33be 1e21 1fbe c0fd 813d bddf 14be
000000e0: 3290 3e3d 326b d5bd e69e 0ebe eb4c 2e3d
000000f0: 98d2 033e 79be 103e 50c0 283e 84da c0bd
00000100: 67eb f23c b145 c4bd 403f 3fbc 0ea9 353e
00000110: 7c5c d6bd 03ca 10be 7943 8ebc 2476 4abe
00000120: f2c4 66be 1d4d bb3e 7046 163e 22ea 10bf
00000130: ab23 343e bd60 15bc 9360 8dbd 84ed 463d
00000140: b195 dabb 6dae efbc 07af ae3d 2480 ab3d
00000150: d83b d63d 1c77 e63c b43e 02bb dec6 273e
00000160: 96c3 073e 9f93 6a3d d16a e63d 07f5 d53d
00000170: 44b6 3f3d f2fa 1f3e d5f5 493e 0b2a 0f3e
00000180: be0d 223e d21f 403e 9ceb 193e 6a87 33bd
00000190: 8601 aabd c74d fbbc 762e c4bd 2139 64be
000001a0: 164b 2dbe a231 483c e9f1 3ebe 9533 483d
000001b0: 54b0 7f3d 8c45 e0bc f023 a2bd 4c4b e63d
000001c0: 20a7 463a 40dd 06bd 901e 1c3d 6b0e e53d
000001d0: cc36 a03d 4e31 783b f048 60b9 0ae9 803d
000001e0: d5f8 57bd 4514 cf3d 7697 503e 95a9 00be
000001f0: ea96 4cbe 1ad1 6cbc ca13 ba3d e9a4 b53d
00000200: 3086 9abd 3c75 a63d 089f be3d ad3c 15be
00000210: 0716 0c3e 7062 80bc c4c6 8dbc cdd5 ae3d
00000220: c3f0 89bd 4027 8abe 3e31 1c3e 456a 95bd
00000230: d2d4 89be 290d 9ebd 0847 3cbe 510a 133e
00000240: 448f 8abe e1c2 96bb 55be 29be fe48 b4bd
00000250: 4be8 b63e 9aeb 80be 8626 943c 7adb 2abe
00000260: e1d6 ac3d fb10 b0bd 85c6 7abc 9bbb cbbc
00000270: f03f a1bc 99d8 cd3d a082 b33d 1538 b53d
00000280: 3bcf de3d 9df7 ed3d 71f4 91bd f7f2 aabc
00000290: 00ab 87bd 2032 7cbd b4e7 8cbd 6e6d 94bd
000002a0: 2cce 96bd ef7b d2bd 3720 cfbd c2cf 82bd
000002b0: 551a 2abe a394 e4bd 5fa0 bf3d f40b b8bd
000002c0: 1392 bc3d 05ec 903e d4f2 6d3e d229 523e
000002d0: 3ae3 79bc 1b0a 5dbd db09 9e3d 7a2c 803c
000002e0: 1a5c 63bd e793 cb3d 44f4 b13d 5c75 853d
000002f0: d4bd db3d 2548 1e3d 2999 b43c b7e5 1bbe
00000300: 1428 bebd c54e c53d c92b 17be eb90 203e
00000310: 440d 303c b168 abbe e745 95be 9195 07be
00000320: 7316 70bc 8eac e4bd 2100 843e 4604 923d
00000330: 340b b23d 43a1 3e3e e805 04bc 180c 4dbe
00000340: 025c 22be bade 31be c408 10be 53a3 07ba
00000350: 54ae 6cbe bc30 1a3c 49ac 9c3c 9f27 34be
00000360: 2b95 043e 42ba d33d 4a5d c13b fbdc 53be
00000370: afc3 a93e de28 28bd 6e67 703e 37e7 babd
00000380: bcbd a43c 62dc d9bb 3b81 20be 6c88 14be
00000390: 7669 d43d 5920 21be b0ad 0ebd 61c6 b83e
000003a0: 4b8f 4b3e 3a8b 2f3e 0e2c 2abe 2410 41be
000003b0: 9053 5cbe d593 903c abba debc e7b2 31be
000003c0: ab79 2a3e 366b 923c af1e 40be 2d4c 8f3d
000003d0: 47b9 f8bc f2ff a73d 4880 803d e061 6fbd
000003e0: ca08 473e ab14 423e f59b 573e 7d67 ba3e
000003f0: 31eb dc3d d1fa b93a 1b54 59bc 6eb2 b2bc

layer1.0.conv1.bias f4 [16]
0.0015228709 -0.0069841053 -0.0029188306 0.0017019435 -0.008777299 -0.007755957 0.0013383358 -0.0029122124
0.003928927 -0.0027749394 0.0047760285 0.0018504634 -0.010138754 0.0020582923 0.007841047 -0.0044430387
00000000: 119b c73a ecda e4bb da49 3fbb bf13 df3a
00000010: a9ce 0fbc af25 febb 196b af3a d1da 3ebb
00000020: 3abe 803b c2db 35bb 3b80 9c3b 408b f23a
00000030: 041d 26bc 6ae4 063b bc77 003c e996 91bb

layer1.0.bn1.weight f4 [16]
0.74052656 0.603143 0.61752516 0.5523421 0.69066554 0.7375001 0.6576763 0.8391154
0.7280033 1.2502848 0.48932096 0.7043771 0.55024725 0.72635686 0.7774594 0.7989909
00000000: 2693 3d3f 9467 1a3f 2116 1e3f 4b66 0d3f
00000010: 75cf 303f cecc 3c3f 795d 283f 44d0 563f
00000020: 6d5e 3a3f 5509 a03f 4788 fa3e 0f52 343f
00000030: 01dd 0c3f 86f2 393f 9407 473f ab8a 4c3f

layer1.0.bn1.bias f4 [16]
0.28656706 0.15363514 -0.04873185 -0.060230657 -0.5420776 0.23162574 -0.33478332 0.56272274
0.3569694 -0.8411201 0.10583723 0.8961454 0.35522056 0.0038577365 0.08998151 -0.36890224
00000000: ebb8 923e 8852 1d3e 0c9b 47bd 6cb4 76bd
00000010: 99c5 0abf 4c2f 6d3e b868 abbe 990e 103f
00000020: b1c4 b63e a653 57bf 31c1 d83d c969 653f
00000030: 78df b53e 14d2 7c3b 3a48 b83d c1e0 bcbe

layer1.0.bn1.running_mean f4 [16]
-0.002332819 -1.133038 -2.7632272 -3.921761 2.797679 -1.3034412 0.5411095 -0.11015023
-3.4396074 1.9017222 -1.8597101 -0.4293625 -1.3768959 -0.3607625 -0.5588335 2.282026
00000000: 35e2 18bb 6407 91bf b7d8 30c0 22fe 7ac0
00000010: 2c0d 3340 29d7 a6bf 2786 0a3f 7296 e1bd
00000020: 8722 5cc0 a26b f33f fb0a eebf 67d5 dbbe
00000030: 203e b0bf ddb5 b8be b60f 0fbf b70c 1240

layer1.0.bn1.running_var f4 [16]
5.134673 2.3852544 3.0313056 2.0358655 4.059045 3.244233 2.0215402 3.631452
3.5177422 5.767258 4.950429 1.9050726 2.3580768 2.3416467 3.8440914 4.3123994
00000000: 3e4f a440 02a8 1840 e900 4240 9f4b 0240
00000010: b2e3 8140 83a1 4f40 ea60 0140 b669 6840
00000020: b022 6140 618d b840 ea69 9e40 6bd9 f33f
00000030: bbea 1640 8add 1540 9805 7640 2dff 8940

layer1.0.conv2.weight f4 [16, 16, 3, 3]
-0.24293162 -0.4273327 -0.09546453 0.0871844 0.28161326 0.042518295 -0.076522835 -0.12934074
-0.049121752 0.057555977 0.10346999 -0.13673574 0.07433839 0.3185735 -0.029368745 -0.030507674
0.0075116595 -0.054775257 -0.10558697 -0.17251076 -0.20277703 -0.04368608 0.11119365 -0.1544693
-0.029136684 0.022675138 -0.027494904 -0.050360728 -0.07652283 -0.14246194 -0.24395642 0.026283829
-0.098055795 0.041806627 0.107040524 0.0048047807 0.011962591 0.03854113 0.11813499 -0.082718134
-0.1423822 -0.056997873 -0.15642434 -0.23603138 -0.16917181 0.11359874 0.06599553 0.14180407
-0.022924284 0.18730502 -0.09753119 0.08998242 -0.12635085 0.10155444 0.024589155 -0.013442269
0.06737533 0.035224963 -0.007924295 0.05839255 -0.06580395 -0.089368254 0.07971514 -0.03890523
-0.5177884 -0.060542647 -0.10999166 0.40743965 0.13409366 -0.073911145 -0.19427723 -0.08500597
0.101127684 0.16379462 0.13239865 0.029135011 -0.103743054 -0.19743064 0.20102285 0.15351108
0.16217169 -0.17445344 -0.11513281 -0.013432798 -0.16913006 -0.11357217 0.064192005 -0.1309395
0.044406813 0.16574772 0.037263352 -0.072485045 0.08955833 -0.21386321 -0.09542072 -0.20215872
-0.119783685 -0.17499286 -0.056670208 -0.070475645 -0.49053273 -0.24992256 0.053264063 0.7043804
-0.109249935 0.38005885 -0.03092589 0.09835454 -0.15893514 -0.19496326 0.1447397 -0.19226456
-0.14301945 0.14659207 0.21461385 0.10740276 0.24180456 0.059128735 0.12895045 -0.06703837
-0.081438184 -0.031546474 -0.13515243 -0.1912298 -0.038491033 0.12649144 0.08281574 -0.047816925
-0.08665831 -0.18238339 -0.084846035 0.14462914 -0.2857084 0.03993992 0.2434999 0.05129491
-0.15313272 -0.15605381 -0.15160865 -0.012418847 0.17809244 -0.26650238 -0.02163852 0.18001033
0.05374767 0.11899455 0.046877436 0.093415186 0.22379963 0.0634528 0.04234091 0.090971425
0.032304388 0.078400955 -0.032938577 0.029329719 -0.045972444 -0.104186855 -0.11296087 -0.05732649
-0.16379608 -0.079496436 -0.08950541 -0.0011595194 -0.08122043 0.02852748 0.10139335 0.0046008504
-0.03391651 -0.06437902 -0.053334657 0.026490113 -0.070948094 -0.04955605 0.008547577 -0.10926305
-0.13539383 0.08117321 -0.06215948 -0.08739865 -0.11222889 -0.08448637 -0.03338156 -0.049182836
0.027127609 0.11062222 0.034896545 0.15404353 0.24250469 0.15997927 0.22892788 0.12186512
0.230857 0.254651 0.14744985 -0.011685685 -0.08537813 -0.060541354 -0.094205566 0.044046275
0.013594366 -0.047824517 0.14518477 0.14491113 -0.073548116 0.05661373 0.04229619 0.07309901
0.11150689 0.0072341342 0.029082919 0.14274985 -0.0650246 0.0027227981 -0.016394319 -0.028357036
0.062243715 -0.081525736 -0.15158527 0.004548184 -0.1262187 -0.18671249 -0.03654196 -0.09842301
-0.10507271 -0.08486135 -0.13811162 -0.16071825 -0.09105761 -0.1506642 -0.18971641 -0.07450425
-0.09392217 -0.1569492 0.1982018 0.1600442 0.08341133 0.1859739 0.11608721 0.053311363
-0.07316381 -0.1551133 -0.11555514 -0.017291429 0.015552734 -0.047049567 -0.08113632 -0.0419534
-0.07697701 -0.0856935 -0.26636222 0.014206254 0.047653344 0.19265832 0.1715082 0.19764575
00000000: 11c3 78be 5acb dabe e882 c3bd bc8d b23d
00000010: 9d2f 903e aa27 2e3d 01b8 9cbd e671 04be
00000020: e433 49bd d1bf 6b3d 13e8 d33d 7404 0cbe
00000030: ba3e 983d 111c a33e b996 f0bc 3beb f9bc
00000040: 5e24 f63b 055c 60bd fb3d d8bd a9a6 30be
00000050: c8a4 4fbe 2df0 32bd 7fb9 e33d 332d 1ebe
00000060: 0eb0 eebc 36c1 b93c fe3c e1bc 0d47 4ebd
00000070: 00b8 9cbd 8be1 11be b6cf 79be 2f51 d73c
00000080: 7ad1 c8bd 6d3d 2b3d 1038 db3d 6c71 9d3b
00000090: befe 433c 4edd 1d3d c2f0 f13d 2068 a9bd
000000a0: a4cc 11be 9a76 69bd b42d 20be 36b2 71be
000000b0: 603b 2dbe 75a6 e83d aa28 873d 1635 113e
000000c0: b5cb bbbc e3cc 3f3e 6fbe c7bd b448 b83d
000000d0: 1e62 01be c6fb cf3d 326f c93c f63c 5cbc
000000e0: 14fc 893d 0d48 103d e7d4 01bc 072d 6f3d
000000f0: 39c4 86bd b406 b7bd b141 a33d 175b 1fbd
00000100: c88d 04bf 91fb 77bd 4f43 e1bd ee9b d03e
00000110: d94f 093e ba5e 97bd 9cf0 46be 9c17 aebd
00000120: 081c cf3d c7b9 273e 8393 073e 8cac ee3c
00000130: 3d77 d4bd 422b 4abe efd8 4d3e 0232 1d3e
00000140: 5610 263e eca3 32be c0ca ebbd 3d15 5cbc
00000150: 6e30 2dbe 8798 e8bd 1977 833d 0115 06be
00000160: ebe3 353d c5b9 293e 75a1 183d 0a73 94bd
00000170: 5c6a b73d f5fe 5abe f06b c3bd b202 4fbe
00000180: 2651 f5bd 5431 33be 051f 68bd 8955 90bd
00000190: 1b27 fbbe b3eb 7fbe 6b2b 5a3d 4652 343f
000001a0: 6ebe dfbd 1397 c23e 4b58 fdbc 1b6e c93d
000001b0: e5bf 22be 73a4 47be a536 143e 00e1 44be
000001c0: b173 12be 3b1c 163e bcc3 5b3e faf5 db3d
000001d0: 9d9b 773e f930 723d 960b 043e 6a4b 89bd
000001e0: 10c9 a6bd e036 01bd 6665 0abe bfd1 43be
000001f0: c6a8 1dbd f986 013e 4c9b a93d aedb 43bd
00000200: e979 b1bd b6c2 3abe c2c3 adbd a919 143e
00000210: 5f48 92be 0b98 233d 0a58 793e 9d1a 523d
00000220: d3ce 1cbe 92cc 1fbe 4c3f 1bbe 6b78 4bbc
00000230: dd5d 363e 0073 88be 4443 b1bc a154 383e
00000240: 8426 5c3d 6ab3 f33d 8e02 403d 7650 bf3d
00000250: bb2b 653e 8bf3 813d a96d 2d3d 3a4f ba3d
00000260: 9b51 043d ae90 a03d 9aea 06bd e144 f03c
00000270: 9a4d 3cbd eb5f d5bd 0758 e7bd 2ecf 6abd
00000280: 29ba 27be 07cf a2bd 9d4e b7bd 04fb 97ba
00000290: e656 a6bd 76b2 e93c 51a7 cf3d bbc2 963b
000002a0: 0aec 0abd 26d9 83bd 7175 5abd cb01 d93c
000002b0: 3c4d 91bd 49fb 4abd 230b 0c3c 4ec5 dfbd
000002c0: aea4 0abe 243e a63d f09a 7ebd 10fe b2bd
000002d0: 43d8 e5bd 3107 adbd 1abb 08bd f173 49bd
000002e0: b83a de3c e78d e23d aeef 0e3d 96bd 1d3e
000002f0: 2653 783e 9bd1 233e 126c 6a3e 6c94 f93d
00000300: c765 6c3e 9e61 823e 18fd 163e 5175 3fbc
00000310: bbda aebd 36fa 77bd d9ee c0bd de69 343d
00000320: e7ba 5e3c a4e3 43bd 51ab 143e 9563 143e
00000330: 65a0 96bd cce3 673d c53e 2d3d efb4 953d
00000340: b95d e43d 510c ed3b 4d3f ee3c 042d 123e
00000350: 9e2b 85bd f970 323b 614d 86bc 044d e8bc
00000360: 44f3 7e3d f7f6 a6bd 2b39 1bbe ef08 953b
00000370: 7a3f 01be 8f31 3fbe 06ad 15bd 0192 c9bd
00000380: 5c30 d7bd cacb adbd 226d 0dbe 5393 24be
00000390: 6a7c babd b747 1abe 0545 42be af95 98bd
000003a0: 445a c0bd 4bb7 20be 6af5 4a3e a0e2 233e
000003b0: 8fd3 aa3d f16f 3e3e 22bf ed3d 045d 5a3d
000003c0: e8d6 95bd 05d6 1ebe 2ca8 ecbd c1a6 8dbc
000003d0: e5d0 7e3c 0cb7 40bd cd2a a6bd 54d7 2bbd
000003e0: 1fa6 9dbd 1380 afbd a160 88be 59c1 683c
000003f0: 2730 433d 3948 453e d89f 2f3e a663 4a3e

layer1.0.conv2.bias f4 [16]
-0.0042558634 0.01475416 -0.0050617442 0.0017068493 0.006909994 0.004554813 -0.0028151714 -0.0063576945
0.007759052 -0.005994445 -0.008572023 0.0104505615 -0.00765295 0.0040729297 -0.000429131 0.0011347786
00000000: c574 8bbb 6fbb 713c fddc a5bb 5cb8 df3a
00000010: 3b6d e23b 8a40 953b bd7e 38bb 3554 d0bb
00000020: a53f fe3b 0d6d c4bb ac71 0cbc d538 2b3c
00000030: 99c5 fabb 3676 853b fdfc e0b9 dabc 943a

layer1.0.bn2.weight f4 [16]
0.7966166 0.3629414 1.0561845 0.9567444 0.6953109 0.62394494 0.67456055 0.28125688
0.66118103 0.4288327 0.50842375 0.80790895 1.0104201 0.61363864 0.38498515 0.6454913
00000000: 11ef 4b3f 75d3 b93e 0e31 873f 33ed 743f
00000010: e5ff 313f dbba 1f3f 00b0 2c3f e700 903e
00000020: 2943 293f f68f db3e 0f28 023f 1fd3 4e3f
00000030: 7255 813f 6c17 1d3f c61c c53e eb3e 253f

layer1.0.bn2.bias f4 [16]
-0.23815505 0.18108298 -0.2198214 0.2667452 0.12793659 0.363271 0.07027578 0.3060813
0.07063883 0.33833 -0.071332514 0.19470926 0.14601488 0.17101456 0.14412102 0.1521752
00000000: ebde 73be d16d 393e dc18 61be d492 883e
00000010: cf01 033e a8fe b93e c0ec 8f3d b0b6 9c3e
00000020: 17ab 903d 9739 ad3e c816 92bd dd61 473e
00000030: ed84 153e 711e 2f3e 7694 133e d1d3 1b3e

layer1.0.bn2.running_mean f4 [16]
-0.38643217 -0.054073546 1.3839837 -1.4984217 0.14917119 -2.2555292 -0.027600028 -0.25938705
0.66653025 1.3820828 -0.31140742 -0.03618391 -0.442868 -2.3136947 -0.37803793 -0.66723794
00000000: 70da c5be 397c 5dbd 6126 b13f 48cc bfbf
00000010: 55c0 183e 975a 10c0 7419 e2bc 61ce 84be
00000020: baa1 2a3f 17e8 b03f cb70 9fbe 9435 14bd
00000030: 98bf e2be 9313 14c0 308e c1be 1bd0 2abf

layer1.0.bn2.running_var f4 [16]
1.8793896 2.347097 2.3444676 2.8482726 0.88079685 2.5514379 3.0937533 1.2648244
1.6612734 0.82641804 1.1514153 1.6516362 2.151127 2.0414784 1.0087665 2.136525
00000000: d78f f03f d636 1640 c20b 1640 194a 3640
00000010: e77b 613f c24a 2340 0e00 4640 c4e5 a13f
00000020: 9ba4 d43f 2290 533f 9461 933f d168 d33f
00000030: 11ac 0940 95a7 0240 431f 813f d3bc 0840

layer1.1.conv1.weight f4 [16, 16, 3, 3]
-0.15437973 -0.27510038 -0.42879674 0.124084 0.31446502 -0.12567466 0.16119458 0.3120152
0.084296875 -0.11103007 -0.14426555 -0.3024958 -0.1919836 -0.18900026 -0.27442726 -0.15752503
-0.011030669 -0.035331696 -0.020871537 0.022756789 0.0583911 0.044875786 0.10971701 0.1530325
-0.12880795 -0.04733484 0.1018155 -0.21861993 -0.18614 -0.2198382 0.026239276 0.037589103
-0.059575535 0.10495907 0.1376434 0.004579114 -0.048106544 -0.013687986 0.03319814 -0.088801675
0.017729258 0.060960658 -0.19651195 -0.12626654 -0.14036971 0.043863866 0.30958673 0.046470128
0.04872958 0.33317047 0.028350797 0.089044325 -0.006943467 -0.18536124 -0.081592545 0.08381968
-0.13314466 -0.20761156 -0.016630562 -0.26179823 -0.025924847 0.03353692 -0.15793523 -0.078912295
-0.05908976 -0.19968294 -0.03891482 0.014849805 -0.13325419 0.05619717 0.23555647 0.063531674
-0.12336584 0.091631435 0.012127817 -0.019694747 0.32470426 0.07334951 -0.121269636 0.0658244
0.010831007 -0.26520336 -0.16027544 -0.080279574 -0.06442645 0.028828964 -0.012594559 -0.06374814
0.035227306 -0.018429225 0.16356808 0.20105357 0.288076 -0.17680581 -0.10040423 -0.043721404
-0.36501062 -0.33837488 -0.22978961 -0.008278111 0.15716536 0.011560082 -0.04365266 0.048783045
-0.16824402 -0.05349152 -0.22008272 -0.282972 0.28596652 0.4421343 0.0473183 0.21561398
0.26898718 -0.03344251 -0.17226204 -0.19035909 -0.25994214 0.3100886 0.37053445 0.117241405
0.09378053 0.04389592 -0.22674121 -0.18981457 -0.31578377 -0.36699954 0.021600788 0.029710313
-0.033848118 0.0054640793 -0.054549772 -0.063125946 0.014277201 -0.044601712 -0.016510233 0.15897481
0.21766236 0.053026933 0.10436766 0.14985278 0.1218229 -0.037827082 -0.11488737 -0.04232249
0.16481772 -7.7936e-05 -0.0068587954 0.026092554 0.059138227 0.026209364 -0.022876265 0.027726451
0.10621496 -0.09052183 0.03441515 0.085478194 -0.07989566 0.021533018 0.06333706 -0.04313629
0.031213734 0.030172605 -0.18241923 -0.058131516 -0.015000971 -0.18653841 -0.07975496 -0.019447964
-0.19600944 -0.0962501 -0.106889345 -0.13871673 0.02654843 0.02141824 -0.092394546 0.06547158
0.031632368 -0.12661989 -0.07536403 -0.0436294 0.092086025 -0.041212022 -0.22914541 0.050316934
-0.027624581 -0.11736356 0.10934451 0.09973336 0.1065758 -0.17155474 -0.12294254 -0.32819352
-0.060010757 -0.045403916 -0.17094792 0.12228096 0.15981646 -0.0100333365 -0.21513404 -0.17859973
-0.072873555 -0.24631442 -0.13333271 -0.036333736 -0.17769864 -0.05126002 0.10813852 -0.088755146
0.033945803 0.1124955 -0.048857883 0.01530779 0.03510382 -0.032974806 -0.08395171 -0.08064714
-0.160923 -0.17528085 -0.16817117 -0.09868349 -0.11354368 -0.34992436 0.20390624 0.046186425
0.111695945 -0.1382403 -0.16800062 -0.27533442 0.024886305 -0.009738434 -0.12454409 0.089563265
0.15000795 0.0058056503 0.060488112 -0.022866502 -0.04560772 0.15866774 0.11125682 0.018007364
0.14953148 0.13333109 0.04772533 0.03948474 -0.122801535 -0.31565678 0.053124595 -0.030631643
-0.16910064 -0.12037932 -0.001135028 -0.12573302 -0.0001579394 -0.08294378 -0.21256496 -0.0340262
00000000: b815 1ebe f5d9 8cbe 3f8b dbbe c11f fe3d
00000010: 8f01 a13e dcb0 00be 3110 253e 75c0 9f3e
00000020: d7a3 ac3d bc63 e3bd 59ba 13be bbe0 9abe
00000030: 5997 44be 4989 41be bb81 8cbe 3e4e 21be
00000040: fbb9 34bc f8b7 10bd c9fa aabc 726c ba3c
00000050: 822b 6f3d accf 373d 50b3 e03d 8db4 1c3e
00000060: 3be6 03be 2de2 41bd a584 d03d e7dd 5fbe
00000070: 7c9b 3ebe 441d 61be c0f3 d63c 08f7 193d
00000080: 7a05 74bd c8f4 d63d 64f2 0c3e 640c 963b
00000090: 5e0b 45bd 9343 60bc c6fa 073d a7dd b5bd
000000a0: f33c 913c e2b1 793d 6e3a 49be 044c 01be
000000b0: 14bd 0fbe 99aa 333d 2782 9e3e 7657 3e3d
000000c0: ab98 473d 5295 aa3e ee3f e83c df5c b63d
000000d0: 0686 e3bb 56cf 3dbe fe19 a7bd a7a9 ab3d
000000e0: 1357 08be 2098 54be d13c 88bc 6b0a 86be
000000f0: 5860 d4bc 025e 093d c6b9 21be c59c a1bd
00000100: 1b08 72bd af79 4cbe 2565 1fbd 994c 733c
00000110: c973 08be 012f 663d b735 713e e51c 823d
00000120: 3ba7 fcbd 43a9 bb3d c0b3 463c e156 a1bc
00000130: a33f a63e 4538 963d 375c f8bd f1ce 863d
00000140: 8974 313c bcc8 87be 3f1f 24be 9e69 a4bd
00000150: 04f2 83bd b82a ec3c 6959 4ebc 638e 82bd
00000160: 824a 103d e3f8 96bc 647e 273e fde0 4d3e
00000170: b37e 933e 950c 35be bca0 cdbd 3715 33bd
00000180: ace2 babe 793f adbe f84d 6bbe eaa0 07bc
00000190: f5ef 203e 8066 3d3c 22cd 32bd bbd0 473d
000001a0: 2948 2cbe ed19 5bbd 5d5d 61be b5e1 90be
000001b0: 346a 923e 6d5f e23e d5d0 413d e9c9 5c3e
000001c0: b0b8 893e 03fb 08bd 7665 30be 7eed 42be
000001d0: 2317 85be efc3 9e3e b1b6 bd3e 431c f03d
000001e0: 0210 c03d 35cc 333d d92e 68be c05e 42be
000001f0: 69ae a1be 5de7 bbbe 23f4 b03c 0b63 f33c
00000200: 53a4 0abd 050c b33b 956f 5fbd 2d48 81bd
00000210: ecea 693c 49b0 36bd 7840 87bc 4bca 223e
00000220: e2e2 5e3e c532 593d b6be d53d 0273 193e
00000230: 497e f93d 92f0 1abd 124a ebbd 595a 2dbd
00000240: fac5 283e 9271 a3b8 bfbf e0bb 0dc0 d53c
00000250: ed3a 723d 05b5 d63c 0167 bbbc 9522 e33c
00000260: 3b87 d93d 8263 b9bd e6f6 0c3d 310f af3d
00000270: 56a0 a3bd 0366 b03c dcb6 813d aeaf 30bd
00000280: f2b3 ff3c 8a2c f73c 1bcc 3abe 501b 6ebd
00000290: a2c6 75bc ed03 3fbe 9256 a3bd 5651 9fbc
000002a0: b3b6 48be c61e c5bd cde8 dabd c20b 0ebe
000002b0: 187c d93c 4e75 af3c 5a39 bdbd f715 863d
000002c0: f190 013d a5a8 01be 7558 9abd beb4 32bd
000002d0: 9997 bc3d f0cd 28bd 18a5 6abe 2119 4e3d
000002e0: f24c e2bc 4e5c f0bd 04f0 df3d 0141 cc3d
000002f0: 6a44 da3d 0cac 2fbe 4cc9 fbbd fb08 a8be
00000300: d7cd 75bd 75f9 39bd f90c 2fbe 716e fa3d
00000310: eda6 233e dd62 24bc 194c 5cbe d9e2 36be
00000320: bb3e 95bd d939 7cbe 5f88 08be afd2 14bd
00000330: a2f6 35be 07f6 51bd ba77 dd3d 42c5 b5bd
00000340: c10a 0b3d 0a64 e63d 341f 48bd 86cd 7a3c
00000350: 06c9 0f3d 9710 07bd e0ee abbd 542a a5bd
00000360: 00c9 24be d37c 33be 1035 2cbe 921a cabd
00000370: 9789 e8bd 4929 b3be cccc 503e fa2d 3d3d
00000380: d8c0 e43d dd8e 0dbe 5b08 2cbe a2f8 8cbe
00000390: 5dde cb3c f48d 1fbc f910 ffbd f26c b73d
000003a0: af9b 193e 533d be3b 62c2 773d 8852 bbbc
000003b0: 29cf 3abd cc79 223e 9eda e33d 2e84 933c
000003c0: c81e 193e f287 083e a37b 433d c0ba 213d
000003d0: 5f7f fbbd c49d a1be 2d99 593d 36ef fabc
000003e0: b828 2dbe 6f89 f6bd 38c5 94ba 28c0 00be
000003f0: 899c 25b9 6ede a9bd a1aa 59be 0f5f 0bbd

layer1.1.conv1.bias f4 [16]
-0.0013101271 -0.008521613 0.006132291 0.0005840131 -0.006693218 0.008143584 -0.008438118 -0.008967101
-0.009108085 -0.004447798 0.0075259935 -0.0016576437 0.01052478 -0.0010986717 -0.008706401 0.00048079985
00000000: 92b8 abba 3c9e 0bbc 63f1 c83b 7518 193a
00000010: c852 dbbb ab6c 053c 0840 0abc bfea 12bc
00000020: 143a 15bc d5be 91bb 9c9c f63b 4b45 d9ba
00000030: 2070 2c3c 4e01 90ba 4ba5 0ebc dd13 fc39

layer1.1.bn1.weight f4 [16]
0.9245074 0.61289644 0.6022062 1.0500188 0.7476682 0.5849915 0.81625766 0.6278049
0.61901385 0.885616 0.68744814 0.574586 0.751041 0.7215695 0.79283696 0.7043307
00000000: 84ac 6c3f c8e6 1c3f 2f2a 1a3f 0467 863f
00000010: 2f67 3f3f 01c2 153f 43f6 503f d2b7 203f
00000020: b177 1e3f bbb7 623f 9afc 2f3f 1118 133f
00000030: 3944 403f c7b8 383f 5df7 4a3f 044f 343f

layer1.1.bn1.bias f4 [16]
-0.36456755 -0.06342701 0.0919015 -0.73940504 -0.4822548 -0.28666878 -0.56203836 0.025389772
-0.27752104 0.5425656 -0.3167657 -0.19427097 -0.27639514 0.20842345 0.47738707 -0.40623325
00000000: 99a8 babe 05e6 81bd db36 bc3d a649 3dbf
00000010: 1aea f6be 40c6 92be bfe1 0fbf 36fe cf3c
00000020: 3d17 8ebe 94e5 0a3f 1d2f a2be f8ee 46be
00000030: aa83 8dbe f56c 553e 146c f43e cefd cfbe

layer1.1.bn1.running_mean f4 [16]
-1.2146679 -3.1666665 -2.998351 1.4295292 0.035785664 2.007086 -0.1973128 -3.8254523
-4.705451 -2.0507379 7.5396347 3.175903 1.2374729 -1.7758701 0.019674314 -0.0208233
00000000: 3d7a 9bbf aaaa 4ac0 fce4 3fc0 d0fa b63f
00000010: fd93 123d 1974 0040 5e0c 4abe 36d4 74c0
00000020: 0e93 96c0 4a3f 03c0 b044 f140 ff41 4b40
00000030: 8365 9e3f b64f e3bf 072c a13c a095 aabc

layer1.1.bn1.running_var f4 [16]
5.864426 2.8804297 5.7557125 5.664435 4.639163 2.4171038 3.5697353 7.9859543
2.3012815 11.20965 3.969968 3.0351133 8.761903 6.3159847 5.0656543 3.1928585
00000000: 61a9 bb40 f658 3840 cc2e b840 0d43 b540
00000010: 0674 9440 d4b1 1a40 8b76 6440 f08c ff40
00000020: 3248 1340 ba5a 3341 f513 7e40 4c3f 4240
00000030: c130 0c41 8c1c ca40 d719 a240 cb57 4c40

layer1.1.conv2.weight f4 [16, 16, 3, 3]
0.04827852 0.29594412 0.19010714 0.007052407 0.34396562 0.2882272 -0.018947758 0.23617451
0.17706391 0.055314295 -0.0071683815 0.17344826 -0.17528194 -0.029126436 0.14431705 -0.2359106
-0.12150496 0.12463628 0.12378861 0.14868547 0.106287345 -0.060542375 -0.059228443 -0.06546736
0.11837829 0.07385669 0.12925318 -0.21559915 -0.048675798 -0.24803473 -0.080182515 -0.014514268
-0.038860824 -0.14118704 -0.041010343 -0.055691946 0.016376713 -0.026033945 -0.034822118 -0.122104585
-0.036027893 -0.0082287025 -0.22329691 -0.11222672 -0.14640735 0.054329958 0.014425961 -0.029111847
0.10395489 -0.09923165 -0.0945557 0.031406056 -0.07307001 0.0037861473 0.17815617 0.01406051
0.19936502 0.19607791 0.048686672 0.12296999 0.16225159 -0.052447185 0.048976477 0.17524675
0.05213212 -0.09525509 -0.06572542 0.11609579 -0.15018295 0.12240168 0.11034361 -0.13213131
0.08577638 -0.11612508 -0.005795506 -0.06031627 0.021824585 -0.12026089 -0.051920213 0.118942745
-0.18224639 0.012135494 0.08007799 0.102243036 0.27937663 -0.20409474 0.008494859 0.04056026
-0.16504718 0.050639313 -0.04484955 -0.051243335 -0.051197533 -0.006780271 -0.08684854 -0.083221726
-0.009038529 -0.19303341 -0.08522563 -0.069092 -0.041267198 -0.014852249 0.1223017 0.15241678
0.18353459 0.035457954 -0.07644256 -0.053771645 -0.013663306 0.09595394 0.024022274 0.04400421
-0.057638764 -0.17462984 -0.0054149907 -0.021226892 -0.014532159 -0.13574746 0.15279521 0.062774956
-0.17280705 -0.18600208 -0.31637245 -0.008135987 -0.12531288 -0.13736294 0.006186433 -0.33982703
-0.1644536 -0.1078847 0.41464096 -0.09016128 -0.07489526 -0.2740981 -0.029782016 0.2570429
0.20456266 0.115836374 -0.11340006 -0.21971639 -0.27070865 0.062370323 0.036468126 -0.0008934538
0.3663282 0.16730312 0.026135318 0.18057245 0.15163934 0.041256893 0.05141948 0.076361924
0.040217783 0.09192178 -0.031143602 -0.0034590166 0.027414182 -0.0844078 -0.11611314 0.02236462
-0.09944273 -0.014960571 -0.079946294 -0.04509301 -0.02747369 0.05913455 0.088905744 0.08978066
0.061135195 0.04735248 0.040324833 0.09618588 0.20533639 0.019183677 0.12201011 0.21490923
0.07048663 -0.05527596 0.032584548 -0.07675409 0.06675875 0.10587644 0.086496264 0.17460726
0.16169931 0.13353404 0.074574925 0.024929188 0.007134306 0.015622186 0.1156658 0.16413559
0.08971645 0.21266145 0.15116999 0.14281912 0.18628456 0.12767074 -0.08678875 0.09885575
0.21701482 0.12081737 0.17377876 0.0820492 0.17453961 0.09418364 -0.075715825 0.036659088
0.024988126 0.022721998 0.0590848 0.09641217 0.070624605 -0.00555774 -0.040236153 -0.067686364
0.030784378 -0.0050949277 -0.028484743 0.021038273 0.020801058 -0.07043683 0.036533605 0.0610856
-0.0242358 -0.00477588 0.060836118 -0.0034362322 -0.102770485 -0.034292758 -0.087394446 -0.016068304
-0.014412214 -0.13872318 -0.010315736 0.19307338 0.16547516 -0.04899327 0.19313604 0.17697223
-0.06809065 0.09441239 0.085889496 0.10085361 0.1459852 0.12637146 0.09455258 0.18961222
0.10464101 -0.07486227 -0.030816324 -0.015377028 0.07640662 0.13486548 0.027177406 0.05288312
00000000: b3bf 453d fd85 973e 72ab 423e e117 e73b
00000010: 431c b03e 8492 933e 5438 9bbc bbd7 713e
00000020: 3e50 353e 3e91 623d bee4 eabb 6c9c 313e
00000030: 1c7d 33be 909a eebc d9c7 133e 8c92 71be
00000040: 98d7 f8bd 4e41 ff3d e284 fd3d 0141 183e
00000050: 2ead d93d 48fb 77bd 8699 72bd c013 86bd
00000060: 5170 f23d 2d42 973d f25a 043e 06c6 5cbe
00000070: 4660 47bd d1fc 7dbe bb36 a4bd 41cd 6dbc
00000080: 872c 1fbd 5693 10be 76fa 27bd 3d1d 64bd
00000090: 7528 863c 2445 d5bc a3a1 0ebd f811 fabd
000000a0: fc91 13bd aed1 06bc f2a7 64be 1fd7 e5bd
000000b0: cfeb 15be 1789 5e3d de5a 6c3c f87b eebc
000000c0: 4de6 d43d f739 cbbd 6ba6 c1bd a3a3 003d
000000d0: bba5 95bd 0321 783b 926e 363e 0e5e 663c
000000e0: 5826 4c3e a6c8 483e ad6b 473d b1d7 fb3d
000000f0: 4825 263e dcd2 56bd 8f9b 483d e273 333e
00000100: 7d88 553d 1a15 c3bd 0d9b 86bd a1c3 ed3d
00000110: 8fc9 19be bbad fa3d d5fb e13d 6e4d 07be
00000120: 87ab af3d fcd2 edbd 3ae8 bdbb 310e 77bd
00000130: 79c9 b23c 574b f6bd 4aaa 54bd 4198 f33d
00000140: cc9e 3abe f3d3 463c eeff a33d cc64 d13d
00000150: 740a 8f3e 36fe 50be 052e 0b3c 8422 263d
00000160: 2102 29be 2b6b 4f3d 29b4 37bd 88e4 51bd
00000170: 81b4 51bd 092d debb a6dd b1bd 2770 aabd
00000180: 5716 14bc 8daa 45be c68a aebd 1b80 8dbd
00000190: cb07 29bd d956 73bc 5079 fa3d 2513 1c3e
000001a0: 7ef0 3b3e 5c3c 113d eb8d 9cbd a83f 5cbd
000001b0: 0fdc 5fbc 8083 c43d 5cca c43c c23d 343d
000001c0: a016 6cbd 2ad2 32be 3c70 b1bb 05e4 adbc
000001d0: 4b18 6ebc 6201 0bbe 5976 1c3e 2890 803d
000001e0: 55f4 30be 5477 3ebe 92fb a1be ce4c 05bc
000001f0: 0552 00be dfa8 0cbe 90b7 ca3b cffd adbe
00000200: 8666 28be a7f2 dcbd d24b d43e 7aa6 b8bd
00000210: b062 99bd 9656 8cbe 6af9 f3bc 219b 833e
00000220: e078 513e 9f3b ed3d 4a3e e8bd 55fd 60be
00000230: 539a 8abe 0678 7f3d 9a5f 153d ab36 6aba
00000240: 5f8f bb3e 8251 2b3e bc19 d63c fce7 383e
00000250: 5847 1b3e fdfc 283d 3c9d 523d a463 9c3d
00000260: 67bb 243d 7c41 bc3d de20 ffbc abb0 62bb
00000270: b593 e03c ffdd acbd bacc edbd 0236 b73c
00000280: a1a8 cbbd 2f1d 75bc e2ba a3bd 73b3 38bd
00000290: 8110 e1bc 1237 723d 3714 b63d ecde b73d
000002a0: e668 7a3d adf4 413d a72b 253d 1afd c43d
000002b0: b443 523e 1627 9d3c 70e0 f93d 2a11 5c3e
000002c0: 4b5b 903d 0c69 62bd 6077 053d 4031 9dbd
000002d0: d0b8 883d bfd5 d83d f424 b13d 3fcc 323e
000002e0: 8194 253e 26bd 083e bdba 983d 4c38 cc3c
000002f0: e5c6 e93b 32f4 7f3c 31e2 ec3d 2913 283e
00000300: 42bd b73d ecc3 593e 4ecc 1a3e 2d3f 123e
00000310: 61c1 3e3e 1ebc 023e 4dbe b1bd e274 ca3d
00000320: 2239 5e3e 196f f73d 0ff3 313e 6909 a83d
00000330: 83ba 323e 5ae3 c03d e610 9bbd d727 163d
00000340: e6b3 cc3c 7c23 ba3c e702 723d be73 c53d
00000350: a2a3 903d b41d b6bb aace 24bd 269f 8abd
00000360: 852f fc3c 5af3 a6bb d658 e9bc 7558 ac3c
00000370: fb66 aa3c 2f41 90bd 43a4 153d e534 7a3d
00000380: 288a c6bc fc7e 9cbb 4b2f 793d 6932 61bb
00000390: 5579 d2bd 9076 0cbd dcfb b2bd ada1 83bc
000003a0: 3521 6cbc 730d 0ebe 5503 29bc 07b5 453e
000003b0: 5272 293e 2bad 48bd 74c5 453e 3538 353e
000003c0: 1c73 8bbd 485b c13d d5e6 af3d 568c ce3d
000003d0: 257d 153e 8567 013e c8a4 c13d b529 423e
000003e0: 074e d63d 6451 99bd 8472 fcbc eeef 7bbc
000003f0: 137b 9c3d 2d1a 0a3e 27a3 de3c f89b 583d

layer1.1.conv2.bias f4 [16]
0.0075566377 -0.0016902016 0.002424718 0.005154282 -0.006473284 -0.0042392714 -0.010480541 -0.0025709027
-0.002075203 0.0097100595 0.0034794742 0.0016352712 -0.0036591794 -0.0030794258 0.00021119208 0.008232528
00000000: ac9d f73b c189 ddba 05e8 1e3b 40e5 a83b
00000010: d81d d4bb 96e9 8abb 93b6 2bbc 977c 28bb
00000020: 2100 08bb f116 1f3c e407 643b 9956 d63a
00000030: d8ce 6fbb 31d0 49bb 7173 5d39 bae1 063c

layer1.1.bn2.weight f4 [16]
0.81474906 0.43322465 0.7212894 0.811657 1.153 0.42662665 0.9359651 0.53092086
1.166336 0.4413719 0.34788474 0.99226993 0.83110976 0.5550609 0.4979746 0.79602545
00000000: 6593 503f 9fcf dd3e 6ca6 383f c1c8 4f3f
00000010: 8195 933f cf6e da3e 699b 6f3f 6eea 073f
00000020: 804a 953f 7ffb e13e f31d b23e 6705 7e3f
00000030: 9cc3 543f 7918 0e3f 87f6 fe3e 53c8 4b3f

layer1.1.bn2.bias f4 [16]
-0.16739939 0.1946581 0.5515032 -0.0031482575 0.13857411 0.043739125 0.18204807 0.25861934
0.14056979 0.11524022 0.22832233 0.056986652 0.13332735 0.007274559 0.19745937 0.0977559
00000000: bf6a 2bbe 7454 473e 502f 0d3f ff52 4ebb
00000010: 5fe6 0d3e cc27 333d cf6a 3a3e c169 843e
00000020: 87f1 0f3e 1103 ec3d 54cd 693e d66a 693d
00000030: f786 083e 6c5f ee3b ca32 4a3e 3f34 c83d

layer1.1.bn2.running_mean f4 [16]
-0.42547783 0.69912845 -0.013726466 -1.4210019 -0.8598498 -1.0207769 -0.80181676 -1.2837958
-0.38631487 0.387759 -0.5672522 -0.34893334 -0.45268357 -2.2946136 0.15993294 -1.3907979
00000000: 3bd8 d9be 15fa 323f f9e4 60bc 64e3 b5bf
00000010: 1e1f 5cbf d1a8 82bf dd43 4dbf 6c53 a4bf
00000020: 10cb c5be 5988 c63e 7137 11bf 64a7 b2be
00000030: 24c6 e7be f3da 12c0 76c5 233e aa05 b2bf

layer1.1.bn2.running_var f4 [16]
0.9433398 1.3539721 0.630912 1.4381359 1.1607445 0.7485485 1.9495835 1.8206072
1.623568 0.72276026 0.54577136 1.0071455 1.1374117 1.6406928 0.7384581 1.4902204
00000000: b87e 713f f54e ad3f 7383 213f d614 b83f
00000010: 4793 943f e0a0 3f3f f48b f93f a809 e93f
00000020: 14d1 cf3f d106 393f acb7 0b3f 25ea 803f
00000030: b596 913f 3902 d23f 970b 3d3f 8bbf be3f

layer2.0.conv1.weight f4 [32, 16, 3, 3]
0.13127324 0.10974734 -0.13898166 0.041781403 0.09732678 -0.0009889597 0.023625925 0.15684885
-0.008645296 0.00029025396 -0.087435976 -0.0025661285 0.06466569 -0.026035862 -0.05134448 0.04917287
-0.0159208 -0.21013428 -0.010663872 -0.006084007 0.07343011 -0.0032871505 0.025974032 0.014110606
0.07158207 0.015041652 -0.044833153 -0.013363968 -0.04307807 -0.049891632 0.04726546 -0.07550302
-0.1790728 0.11169493 -0.020683635 -0.15559575 -0.07008516 0.099637985 0.05921624 -0.024827348
0.011707006 -0.013935016 0.058471575 0.05541389 0.0010628164 0.013999953 0.1064292 0.13034326
-0.040607695 0.20109016 0.38869452 -0.080862336 0.27246144 0.51962245 -0.094075985 -0.13834204
0.1409109 -0.19990817 -0.11875327 0.28910896 -0.14125645 -0.038865298 0.18043903 0.052966967
-0.012240962 0.05294339 0.07066942 0.0142253125 -0.05203956 0.030493304 0.025597347 -0.14108744
-0.034220863 -0.033415526 -0.046679445 0.0066214893 0.06093725 0.03974797 0.14351669 0.57740456
0.29518908 0.08763355 -0.00068139186 -0.055131346 0.056440577 -0.021584798 -0.13648683 0.060537614
-0.06603008 -0.116162 -0.08020023 -0.026688466 0.1305381 -0.13632189 -0.103041224 0.06143884
-0.08964107 -0.06564799 0.040137973 0.06854114 0.026771585 0.042225007 -0.13754033 -0.055300597
0.03333106 -0.10754657 -0.033346087 0.23365882 -0.043930434 0.037265398 0.08439498 -0.04155281
-0.10061645 0.047760196 0.046320464 -0.16398266 0.027443022 0.047133945 0.045925505 -0.027047371
0.114284866 0.14283872 0.05750055 0.1664337 0.1167916 -0.001992895 0.10645351 -0.052973118
-0.16918702 0.12517789 -0.00081904494 -0.16886641 0.1848046 -0.056179993 -0.19939676 -0.10527602
-0.08625364 -0.029656516 -0.12958042 -0.23187616 -0.050043482 0.011900267 -0.26233345 -0.2818804
-0.12335072 0.08695253 0.06728733 -0.064412646 0.35690805 -0.3104999 0.25822693 -0.47514609
0.15626173 -0.051269475 -0.15985528 -0.002305247 -0.14000869 0.042481832 0.03055245 0.007851611
0.12158587 -0.032624137 0.08719582 -0.21736388 0.007117777 -0.14996524 0.22600003 -0.19154097
0.17074925 -0.10560934 -0.077544406 -0.014498523 0.15771464 0.0047694696 0.10419492 0.02753028
-0.048577614 0.007362435 0.0147565715 0.07019005 -0.22441919 0.12960562 0.07339553 0.04449361
0.25745368 -0.1261751 0.16133974 -0.34539726 0.22674921 0.20915991 -0.13225643 0.119498186
-0.15861067 -0.016315145 0.21552873 -0.051248197 0.08440932 -0.08727774 0.18952769 -0.37743688
0.17988344 -0.18720983 0.16959108 -0.11253994 0.04611019 -0.020323912 -0.18805484 0.017599022
-0.1318482 0.08403851 -0.11996329 0.18099613 0.074052684 0.049293816 0.117230184 0.038258843
0.072196975 -0.24020456 0.26488256 -0.44398522 0.5195352 -0.40691411 0.46381742 -0.2847123
-0.15761656 -0.16265896 0.060196605 -0.055414546 0.089250244 -0.019602748 0.025971774 0.06763264
-0.06810234 0.119279295 0.029166827 -0.015352167 -0.032479964 0.004780828 0.059960973 -0.009603195
0.054351933 0.0010841474 0.14262578 -0.085653976 -0.02192269 -0.08578422 0.07446096 -0.17880487
0.12830363 -0.08693889 0.03371874 -0.05289678 -0.04723023 0.078973636 -0.10261021 0.32721138
00000000: 7e6c 063e 37c3 e03d 3551 0ebe fa22 2b3d
00000010: 4353 c73d fb9f 81ba 288b c13c fc9c 203e
00000020: 00a5 0dbc 3a2d 9839 a211 b3bd 7e2c 28bb
00000030: 726f 843d 2949 d5bc 974e 52bd 7e69 493d
00000040: 566c 82bc 712d 57be 85b7 2ebc 5a5c c7bb
00000050: 8762 963d 3c6d 57bb 7ec7 d43c 2c30 673c
00000060: 9f99 923d 4371 763c f8a2 37bd 8bf4 5abc
00000070: a172 30bd 2b5b 4cbd 6d99 413d 54a1 9abd
00000080: dc5e 37be 50c0 e43d ba70 a9bc 7e54 1fbe
00000090: cf88 8fbd 000f cc3d ba8c 723d b962 cbbc
000000a0: bece 3f3c b14f 64bc e47f 6f3d adf9 623d
000000b0: 334e 8b3a 0f60 653c 8df7 d93d b478 053e
000000c0: 4154 26bd 94ea 4d3e f802 c73e 279b a5bd
000000d0: 1180 8b3e fa05 053f e9aa c0bd 89a9 0dbe
000000e0: f24a 103e bab4 4cbe ea34 f3bd 1706 943e
000000f0: 88a5 10be 3831 1fbd 02c5 383e e4f3 583d
00000100: 518e 48bc 2bdb 583d 21bb 903d 4911 693c
00000110: 6f27 55bd 18cd f93c 87b1 d13c 3a79 10be
00000120: 2d2b 0cbd b8de 08bd f232 3fbd 14f9 d83b
00000130: 5699 793d c4ce 223d 0af6 123e c9d0 133f
00000140: 0623 973e 3879 b33d 6f9f 32ba 68d1 61bd
00000150: 3c2e 673d 9ad2 b0bc 34c3 0bbe 4af6 773d
00000160: c73a 87bd 58e6 edbd 0540 a4bd c5a1 dabc
00000170: c8ab 053e f797 0bbe 4707 d3bd 4ba7 7b3d
00000180: bd95 b7bd 7472 86bd b767 243d 4c5f 8c3d
00000190: 1550 db3c 21f4 2c3d 5fd7 0cbe e182 62bd
000001a0: 2686 083d 6041 dcbd e895 08bd 4244 6f3e
000001b0: 66f0 33bd 9aa3 183d 46d7 ac3d 4833 2abd
000001c0: ff0f cebd 32a0 433d 87ba 3d3d 12eb 27be
000001d0: 30d0 e03c 860f 413d 621c 3c3d 7392 ddbc
000001e0: 2f0e ea3d 5044 123e b285 6b3d 996d 2a3e
000001f0: 6f30 ef3d 3b9b 02bb 4c04 da3d 57fa 58bd
00000200: 5d3f 2dbe a22e 003e 2db5 56ba 51eb 2cbe
00000210: 6b3d 3d3e fe1c 66bd aa2e 4cbe f49a d7bd
00000220: c0a5 b0bd 39f2 f2bc bbb0 04be f270 6dbe
00000230: 65fa 4cbd 56f9 423c 9250 86be a152 90be
00000240: 4d9f fcbd 2b14 b23d f1cd 893d c7ea 83bd
00000250: a7bc b63e d8f9 9ebe 5236 843e 5946 f3be
00000260: 1303 203e f1ff 51bd 1ab1 23be a013 17bb
00000270: 705e 0fbe 6e01 2e3d 2249 fa3c 0ba4 003c
00000280: 0302 f93d e3a0 05bd b993 b23d a394 5ebe
00000290: 3e3c e93b 7d90 19be 8d6c 673e 5123 44be
000002a0: e4d8 2e3e b649 d8bd 9acf 9ebd 378b 6dbc
000002b0: f27f 213e 3649 9c3b 2564 d53d 2f87 e13c
000002c0: 52f9 46bd 9540 f13b 8cc5 713c cdbf 8f3d
000002d0: 25ce 65be 56b7 043e 6550 963d ee3e 363d
000002e0: f8d0 833e 0c34 01be 3f36 253e e9d7 b0be
000002f0: f230 683e 042e 563e 3b6e 07be 77bb f43d
00000300: d66a 22be 57a7 85bc 90b3 5c3e a1e9 51bd
00000310: cbde ac3d acbe b2bd 8c13 423e 683f c1be
00000320: 5d33 383e efb3 3fbe 49a9 2d3e 577b e6bd
00000330: 0ade 3c3d 557e a6bc 7391 40be d32b 903c
00000340: 3703 07be 621c ac3d 50af f5bd 0d57 393e
00000350: efa8 973d 50e8 493d 6116 f03d 4eb5 1c3d
00000360: 02dc 933d 2ff8 75be b09e 873e 0852 e3be
00000370: 4200 053f 0c57 d0be 7a79 ed3e d0c5 91be
00000380: 3c66 21be 1290 26be b790 763d 5dfa 62bd
00000390: d5c8 b63d f195 a0bc c2c2 d43c fb82 8a3d
000003a0: 3d79 8bbd b448 f43d 45ef ee3c a887 7bbc
000003b0: b609 05bd 7ea8 9c3b a399 753d b856 1dbc
000003c0: 22a0 5e3d f319 8e3a 7e0c 123e 5a6b afbd
000003d0: 3797 b3bc a3af afbd fd7e 983d a018 37be
000003e0: 0762 033e 040d b2bd a91c 0a3d 4baa 58bd
000003f0: 7c74 41bd eebc a13d 4d25 d2bd 4088 a73e

layer2.0.conv1.bias f4 [32]
0.005329324 -0.005862481 0.009270459 0.0014827178 0.0043234536 -0.0070284265 -0.0014754194 0.0014746644
-0.00037939544 -0.0022358643 0.0015081784 0.007571289 0.00061814464 -0.011206346 -0.0076572946 -0.0062764776
-0.008212035 0.0063940287 0.0016306881 -0.004403852 -0.006386885 0.012647868 0.003759206 -0.007597834
-0.0017489456 0.00091737666 -0.0018241687 0.0017073323 0.0032250024 -0.0062569873 0.00042045643 -0.006192314
00000000: 9ca1 ae3b 0e1a c0bb 20e3 173c c157 c23a
00000010: c2ab 8d3b b74e e6bb dc62 c1ba 8749 c13a
00000020: 98e9 c6b9 9487 12bb 12ae c53a 9318 f83b
00000030: fc0a 223a d29a 37bc 0bea fabb e9aa cdbb
00000040: c58b 06bc 0085 d13b d0bc d53a 304e 90bb
00000050: 1349 d1bb 0139 4f3c 035d 763b 40f7 f8bb
00000060: e03c e5ba 1b7c 703a f218 efba 91c8 df3a
00000070: 905a 533b 6a07 cdbb b570 dc39 e5e8 cabb

layer2.0.bn1.weight f4 [32]
0.75594294 0.920821 0.8651401 1.1347159 0.9423918 0.91397053 0.9166229 0.98548853
0.89772594 0.8618928 0.8870222 0.68595093 1.0360473 0.77155435 0.8642056 0.70971215
0.8224254 0.8687392 0.8675157 0.8163743 0.72346324 0.9126127 0.805701 0.84273064
0.8157215 0.7490554 0.93675166 0.9001828 0.96825314 0.8700532 0.75779116 0.91510457
00000000: 7a85 413f edba 6b3f d279 5d3f 5f3e 913f
00000010: 9740 713f f9f9 693f cca7 6a3f fa48 7c3f
00000020: 5ed1 653f 02a5 5c3f e313 633f 7b9a 2f3f
00000030: 339d 843f 9684 453f 943c 5d3f b2af 353f
00000040: 798a 523f b165 5e3f 8215 5e3f e8fd 503f
00000050: e334 393f fca0 693f 6c42 4e3f 32bd 573f
00000060: 20d3 503f 18c2 3f3f f5ce 6f3f 6172 663f
00000070: 70df 773f cebb 5e3f 9afe 413f 4b44 6a3f

layer2.0.bn1.bias f4 [32]
-0.0892145 -0.29010957 -0.21549167 -0.20372242 -0.10225416 -0.18100712 -0.16144957 -0.16658215
-0.30561846 -0.109422125 -0.30693325 -0.15246204 -0.1072976 0.08914143 -0.1288915 -0.051607326
-0.29674065 -0.2221338 -0.12392776 -0.13250016 -0.2749906 -0.10780398 -0.37955406 -0.23488525
-0.17429641 -0.2948592 -0.15748683 -0.14050366 -0.17302519 -0.23531488 -0.13271612 -0.068610564
00000000: 17b6 b6bd 3e89 94be d9a9 5cbe 9c9c 50be
00000010: a16a d1bd ee59 39be 0953 25be 8394 2abe
00000020: 067a 9cbe b518 e0bd 5b26 9dbe 021f 1cbe
00000030: d8be dbbd c88f b63d 22fc 03be 3462 53bd
00000040: 64ee 97be 0b77 63be d6cd fdbd 1fae 07be
00000050: 91cb 8cbe 55c8 dcbd e954 c2be c285 70be
00000060: c27a 32be c9f7 96be 3a44 21be 31e0 0fbe
00000070: 842d 31be 62f6 70be bce6 07be b283 8cbd

layer2.0.bn1.running_mean f4 [32]
2.3583705 0.43930045 -0.515975 0.033654794 -0.2442391 0.95859617 -1.1388472 -1.7468133
-2.4913754 2.1464992 -0.42422992 0.05021304 1.1121293 -0.44338295 1.8663366 -4.8730664
1.1886219 0.8557641 0.6470569 2.835808 -0.24848521 -2.2977707 -1.8678839 -2.4410796
0.103457876 -1.8723493 -1.6935374 -4.251191 -0.66980886 1.209813 -0.95565766 -0.807902
00000000: 8bef 1640 fdeb e03e f016 04bf 9cd9 093d
00000010: d119 7abe 8f66 753f bfc5 91bf 9497 dfbf
00000020: b272 1fc0 3e60 0940 aa34 d9be 30ac 4d3d
00000030: 415a 8e3f 1703 e3be 1ee4 ee3f 29f0 9bc0
00000040: c324 983f 5b13 5b3f 85a5 253f e17d 3540
00000050: e872 7ebe ad0e 13c0 d216 efbf a63a 1cc0
00000060: b9e1 d33d 24a9 efbf d5c5 d8bf c209 88c0
00000070: 9878 2bbf 27db 9a3f fba5 74bf aad2 4ebf
