Output/swift-iid-8W-linear-shark-linear-2sgd-100epochs/r7-epoch_71-parameters.pt (torch, 731450 bytes, 92 tensors)

conv1.weight f4 [16, 3, 3, 3]
0	0x3e802a0e	0.25032085
1	0xbe638e93	-0.22222356
2	0x3f14192a	0.578509
3	0xbf23fd89	-0.6405874
4	0x3f86cdca	1.0531552
5	0xbe817292	-0.25282723
6	0xbea1c20b	-0.31593356
7	0xbf1acf39	-0.60472447
8	0xbd874d53	-0.06606545
9	0xbddaa058	-0.106751144
10	0xbf174c70	-0.5910101
11	0xbe9bd768	-0.3043778
12	0xbe4074e6	-0.18794593
13	0x3fedcd6f	1.8578318
14	0xbe6577ad	-0.22408934
15	0x3cae5934	0.02128277
16	0xbd5ade71	-0.053434793
17	0xbe25f2e1	-0.16205932
18	0xbd80d96a	-0.062914684
19	0xbf66a555	-0.90096027
20	0xbf0dfcaa	-0.5546366
21	0x3dcb8ec1	0.099393375
22	0x3f97e453	1.1866554
23	0xbe6e26dc	-0.23257011
24	0x3eca8f3f	0.39562413
25	0x3e9f2f6c	0.31090868
26	0x3d292e45	0.04130389
27	0x3e9c0827	0.3047497
28	0x3ee7713d	0.4520358
29	0x3e85c012	0.261231
30	0x3d456aec	0.04819767
31	0x3ebb43e8	0.36575246
32	0x3e656dbf	0.22405146
33	0xbea294ca	-0.31754142
34	0xbe05d806	-0.13070688
35	0x3d9ba982	0.076006904
36	0x3eb8ec5e	0.36117834
37	0x3f0cec28	0.55047846
38	0x3e918f20	0.28429508
39	0xbe490cb1	-0.19633748
40	0x3dd7c992	0.10536493
41	0xbe1a36be	-0.15059945
42	0xbf08b253	-0.533971
43	0xbee6816c	-0.45020616
44	0xbeca5720	-0.39519596
45	0x3ee7d7a7	0.45281717
46	0x3f31dd87	0.6947865
47	0x3ec6fcff	0.38864896
48	0x3e5e1e5f	0.21691273
49	0x3f07017b	0.52736634
50	0x3d954b77	0.072897844
51	0xbe366ad2	-0.17814186
52	0xbd6eebf9	-0.05833051
53	0xbea94161	-0.33057693
54	0xbe320427	-0.17384396
55	0xbda62846	-0.0811315
56	0xbe01ecec	-0.12688035
57	0x3da7f45d	0.082009055
58	0x3edc66ab	0.4304708
59	0x3d9f1e6d	0.07769475
60	0x3ec33d8f	0.38132903
61	0x3f1118df	0.56678575
62	0x3eb109b9	0.3457773
63	0xbe957563	-0.2919112
64	0xbd8f9113	-0.070100926
65	0xbe63830b	-0.22217958
66	0xbdd34f28	-0.10317832
67	0x3e84d515	0.2594382
68	0xbde66c4a	-0.11251123
69	0xbdb04e50	-0.08608687
70	0x3e0c932f	0.13728021
71	0xbda17eff	-0.07885551
72	0xbcc2da79	-0.023785817
73	0x3e86f233	0.26356658
74	0x3e63c10b	0.22241609
75	0x3d3a9e37	0.04556104
76	0x3eaf4964	0.3423568
77	0x3e640cc4	0.22270495
78	0xbe11e676	-0.1424807
79	0xbdab2950	-0.08357489
80	0xbddddc0c	-0.10832986
81	0x3e794213	0.24341612
82	0xbea07dbf	-0.31345937
83	0x3e299381	0.16560175
84	0xbe5c6884	-0.21524245
85	0xbf4c3174	-0.7976296
86	0xbe54703a	-0.20745936
87	0x3d6de4d5	0.05807956
88	0xbe7be7be	-0.24600121
89	0x3d8df939	0.06932301
90	0x3e3999e9	0.18125118
91	0xbe982c26	-0.29721183
92	0x3e851f69	0.26000527
93	0xbe472de8	-0.19451106
94	0xbf216853	-0.6304981
95	0x3cff21f2	0.031144116
96	0x3dae8190	0.08520806
97	0xbd23afbf	-0.039962526
98	0x3ea8f4d1	0.3299928
99	0x3dd8b654	0.10581651
100	0xbe0dfae1	-0.13865234
101	0x3e881714	0.26580107
102	0xbe1d5e39	-0.15367974
103	0xbed4e299	-0.4157913
104	0x3de018fa	0.10942264
105	0xbc84585e	-0.016155418
106	0xbde9fc8e	-0.11425124
107	0x3e6090b8	0.21930206
108	0x3e560fa5	0.20904405
109	0xbe0f6a0c	-0.14005297
110	0x3e8751e6	0.2642967
111	0xbe0863d3	-0.1331933
112	0xbf0f259c	-0.5591676
113	0xbce6d627	-0.028178288
114	0x3e9fe8f2	0.3123241
115	0xbdc0af1a	-0.09408398
116	0x3e2d2d2e	0.16911766
117	0x3e622693	0.22085027
118	0xbe13f17e	-0.1444759
119	0x3e8e03b7	0.2773721
120	0xbe388669	-0.18020023
121	0xbef36665	-0.47539058
122	0xbd2d1b3e	-0.04226231
123	0x3e9f2566	0.3108322
124	0x3d27497c	0.040841565
125	0x3ea3498c	0.3189205
126	0x3da0b95d	0.07847855
127	0xbe5a5ddf	-0.21324871
128	0x3b8af94b	0.004241144
129	0xbebaa8d6	-0.36456937
130	0xbf2d5de2	-0.6772138
131	0xbeb67b27	-0.35640833
132	0xbe1033fe	-0.14082333
133	0xbece4047	-0.40283415
134	0xbe0b6bf7	-0.13615404
135	0xbe02c0b9	-0.1276883
136	0x3e707170	0.23480773
137	0x3e7a8403	0.24464421
138	0x3f8565c2	1.0421679
139	0x3e737b84	0.23777586
140	0xbe456e59	-0.19280376
141	0x3ed8dcf5	0.42356077
142	0xbc6a9502	-0.014317753
143	0xbe2ccc96	-0.16874918
144	0xbe12a345	-0.14320095
145	0xbf20292a	-0.6256281
146	0xbf251367	-0.6448273
147	0x3f1eeb30	0.6207762
148	0xbf7a23ac	-0.9771068
149	0xbfb2c281	-1.3965608
150	0x3e2f3f04	0.17113882
151	0xbf275fa3	-0.65380305
152	0xbf3492d0	-0.7053652
153	0x3eb67342	0.3563481
154	0x3e9f3e72	0.3110233
155	0xbd844772	-0.064589396
156	0x3f92fb0e	1.1482866
157	0x3e369da3	0.17833571
158	0xbf13fe46	-0.57809865
159	0x3f5c3120	0.8601246
160	0x3e952ec0	0.2913723
161	0xbe0d90eb	-0.13824813
162	0x3f2d1c09	0.67620903
163	0x3f3ec58f	0.745202
164	0x3ee84e2d	0.45372143
165	0x3e08b804	0.13351446
166	0xbe226eab	-0.15862529
167	0xbe457429	-0.19282593
168	0xbe11511c	-0.14191097
169	0xbf937802	-1.1520998
170	0xbf276d55	-0.654012
171	0x3f432636	0.7623018
172	0x3f241b7d	0.64104444
173	0x3ec566e5	0.38555065
174	0x3e818c07	0.25302145
175	0xbe40f10f	-0.18841957
176	0xbe67b8a2	-0.22629026
177	0x3e3fba19	0.18723334
178	0xbf450f73	-0.769767
179	0xbeafaf6f	-0.34313533
180	0x3eb12483	0.3459817
181	0x3e590a9b	0.21195452
182	0x3d4e483e	0.050361864
183	0x3d3b1555	0.04567464
184	0xbe5e8496	-0.21730265
185	0xbec24387	-0.37942144
186	0x3e2ae56a	0.16689077
187	0xbf1d54f8	-0.6145778
188	0xbea30407	-0.3183901
189	0x3e0e43b8	0.1389302
190	0xbe8826f6	-0.26592225
191	0xbecf47f9	-0.40484598
192	0xbead783a	-0.33880788
193	0xbf246b50	-0.64226246
194	0xbf509868	-0.81482553
195	0xbe4ae76c	-0.19814843
196	0xbf76721a	-0.96267855
197	0xbf0cb55e	-0.54964244
198	0x3e31b0db	0.17352621
199	0x3eb07426	0.34463614
200	0xbd6b3506	-0.057423614
201	0x3dbff1e0	0.09372306
202	0x3f05b79c	0.5223329
203	0xbb6c9a6f	-0.0036102792
204	0x3e348e7a	0.17632475
205	0xbc699f27	-0.014259136
206	0x3d5867cc	0.052833363
207	0xbeb206ad	-0.34770718
208	0x3e32e97b	0.17471878
209	0xbe2f67fe	-0.17129514
210	0x3e05cdb6	0.13066754
211	0x3f8fa485	1.1222082
212	0x3f0ec02c	0.5576198
213	0x3e8721ec	0.26393068
214	0x3f3db85a	0.74109423
215	0x3f1acd88	0.60469866
216	0xbc4ba466	-0.012429332
217	0x3e8e0b82	0.27743155
218	0x3db9f5aa	0.0908006
219	0x3d984ed6	0.07436912
220	0x3f3a8bf0	0.7286978
221	0xbfdb173c	-1.7116466
222	0x3d4c6bb1	0.04990739
223	0x3edb86c8	0.42876267
224	0xbd315161	-0.0432905
225	0x3e5d5c22	0.21617177
226	0x3eed58b2	0.46356732
227	0xbe1d2889	-0.15347494
228	0x3e92c225	0.28663746
229	0x3f79125c	0.9729364
230	0xbfd808e5	-1.6877714
231	0x3c83ab4c	0.016072892
232	0x3f2891ba	0.6584736
233	0x3e8c3322	0.2738276
234	0xbe00b362	-0.12568429
235	0xbd7b8000	-0.061401367
236	0x3e0d6959	0.13809718
237	0xbdcd39dd	-0.10020802
238	0x3ec05dee	0.37571663
239	0xbf9633ec	-1.1734595
240	0x3ccf7242	0.025323037
241	0x3eb67e85	0.35643402
242	0xbdcbc09c	-0.09948847
243	0x3dfca1ef	0.12335574
244	0xbeacbba3	-0.33736905
245	0x3de7d1a4	0.11319283
246	0xbde7158a	-0.11283405
247	0xbf2e1291	-0.6799708
248	0xbe516d99	-0.20451964
249	0x3d2f4abc	0.04279588
250	0xbe68a8d6	-0.22720656
251	0xbe163e6d	-0.14672251
252	0xbcc9f4a4	-0.024652787
253	0xbece4fab	-0.40295157
254	0x3ddca7ce	0.10774194
255	0xbe128cc6	-0.14311513

conv1.bias f4 [16]
0	0xbc87152e	-0.016489591
1	0xbc2b60de	-0.010460107
2	0xbc3ee368	-0.011650898
3	0x3cb12257	0.02162282
4	0x3ca37344	0.019952424
5	0xbcbdae8f	-0.023154525
6	0xba91c3e7	-0.0011121006
7	0x3bb5de18	0.0055501573
8	0xbc9092be	-0.017648097
9	0xbcbfd78e	-0.023418214
10	0xbbd63305	-0.0065368437
11	0xbc2f6a88	-0.010706551
12	0xbc0f9270	-0.008762941
13	0x3c8fa9ab	0.017536959
14	0x3b935e50	0.004497327
15	0xbc83628c	-0.016038202

bn1.weight f4 [16]
0	0x3f7384de	0.95124614
1	0x3f307cfb	0.68940705
2	0x3f7b3a66	0.98135984
3	0x3f8af25b	1.0855211
4	0x3fa683e0	1.3008995
5	0x3f6ed431	0.9329253
6	0x3f670d6b	0.9025485
7	0x3f4c1c1f	0.7973041
8	0x3f813367	1.0093812
9	0x3f77157e	0.9651717
10	0x3f78f5d0	0.9725008
11	0x3f517daa	0.81832373
12	0x3f5eb1c7	0.86990017
13	0x3f634df2	0.8879081
14	0x3f5a12ba	0.85184824
15	0x3f402ce8	0.7506852

bn1.bias f4 [16]
0	0x3f985111	1.189974
1	0x3f268164	0.65041184
2	0xbf1c1a18	-0.60977316
3	0xbeed942b	-0.46402106
4	0xbf519767	-0.81871647
5	0x3f1a0b7b	0.6017377
6	0x3f1a5403	0.6028444
7	0x3eff11fa	0.49818403
8	0x3f83e173	1.0303177
9	0xbe6fdb94	-0.23423606
10	0x3d4cdc58	0.050014824
11	0xbdc11c8d	-0.09429274
12	0xbdd79bfb	-0.10527798
13	0x3f66a211	0.90091044
14	0x3e984411	0.2973943
15	0x3f58f3ab	0.8474681

bn1.running_mean f4 [16]
0	0xbe63b912	-0.22238567
1	0xbf4d7808	-0.8026128
2	0xbefc76f2	-0.49309498
3	0x3f22e07d	0.6362379
4	0x3f272f2c	0.65306354
5	0x3de93962	0.11387898
6	0x3e86b04e	0.26306385
7	0xbd49ac99	-0.049236868
8	0xbdece22d	-0.11566577
9	0x3eff1b4e	0.4982552
10	0x3ebc80d4	0.36817038
11	0x3eb63806	0.35589617
12	0x3eb4e819	0.35333326
13	0xbeaa41c2	-0.33253294
14	0x3da26bad	0.07930694
15	0xbe4d9ae3	-0.20078616

bn1.running_var f4 [16]
0	0x40816787	4.0438876
1	0x41ab1365	21.38447
2	0x40a0d69c	5.0261974
3	0x40fdd338	7.9320335
4	0x4121f2ab	10.121745
5	0x417c2bac	15.760662
6	0x419c2634	19.518654
7	0x4102def8	8.179436
8	0x4127066d	10.439069
9	0x40ba8484	5.828676
10	0x407666ae	3.850017
11	0x4096dc9f	4.7144313
12	0x40c47e01	6.1403813
13	0x41087eeb	8.530986
14	0x408fbd62	4.491868
15	0x40cf6214	6.4807224

layer1.0.conv1.weight f4 [16, 16, 3, 3]
0	0xbdda3f74	-0.10656634
1	0x3f05306e	0.5202702
2	0xbe4736de	-0.19454524
3	0xbc894e8c	-0.016761087
4	0x3f3ef223	0.7458822
5	0x3c68741c	0.014187839
6	0xbe907b95	-0.28219286
7	0xbeb022d6	-0.34401578
8	0xbe456a30	-0.19278789
9	0xbd4227df	-0.047401305
10	0xbd8ecd23	-0.069727205
11	0xbcea6ed5	-0.028617302
12	0x3daa645e	0.08319925
13	0x3e65ef98	0.22454679
14	0x3e13cce2	0.14433625
15	0x3e52086b	0.20511024
16	0x3e8d3dc0	0.27586174
17	0x3e87de2d	0.26536694
18	0x3dbd6935	0.09248582
19	0x3e7ed468	0.24885714
20	0x3daa5300	0.08316612
21	0x3ccbe708	0.024890438
22	0x3e23a5a5	0.15981157
23	0xbb52d7de	-0.0032172124
24	0xbe8a5ded	-0.27024785
25	0xbe785fe9	-0.24255337
26	0xbe3906fc	-0.1806907
27	0xbd5e4b84	-0.054271236
28	0xbcea5d11	-0.02860883
29	0xbd2cb87b	-0.04216812
30	0x3d39d4cd	0.04536896
31	0xbd97c06f	-0.07409751
32	0xbd39c432	-0.045353122
33	0x3cb4fec9	0.022094147
34	0x3abc35a4	0.0014359248
35	0x3d9295c3	0.07157471
36	0xbe243b08	-0.16038144
37	0xbe1caf56	-0.1530126
38	0xbde6ca36	-0.112690374
39	0xbdaae728	-0.08344871
40	0xbe1cf283	-0.15326886
41	0xbd908689	-0.070569105
42	0xbdad65c2	-0.084666744
43	0xbe11f914	-0.14255172
44	0xbdab345b	-0.083595954
45	0xbe793856	-0.24337897
46	0xbe4a9788	-0.19784367
47	0x3dc0378e	0.09385596
48	0xbe0ad317	-0.13557087
49	0xbdebdb99	-0.11516494
50	0x3dfb9c8e	0.1228572
51	0x3e101aa9	0.1407267
52	0xbe2c5f3f	-0.16833209
53	0xbe023c3c	-0.1271829
54	0x3d8af474	0.06784907
55	0xbe21d355	-0.15803273
56	0x3d352e9a	0.044233896
57	0xbdef25db	-0.11677142
58	0xbe2ab11b	-0.16669123
59	0x3d0a3b53	0.033747982
60	0x3deff932	0.11717452
61	0x3e01ec19	0.1268772
62	0x3e2fe76c	0.17178124
63	0xbdbf1750	-0.093306184
64	0x3d011da7	0.03152242
65	0xbdc0f1da	-0.094211295
66	0xbc4ce084	-0.012504701
67	0x3e34b0c6	0.17645559
68	0xbdc7a014	-0.09747329
69	0xbe19de00	-0.15026093
70	0xbcae03eb	-0.021242103
71	0xbe3f9403	-0.18708806
72	0xbe5fad87	-0.21843539
73	0x3ebe9c5b	0.37228665
74	0x3e28b6ce	0.16475984
75	0xbf14f969	-0.5819307
76	0x3e2ce33a	0.16883555
77	0x3ad41bd6	0.0016182612
78	0xbda917f3	-0.08256521
79	0x3d375f0d	0.044768382
80	0x3cba36f5	0.022731284
81	0xbd5687a6	-0.05237546
82	0x3d9c5efb	0.076353036
83	0x3d92467e	0.071423516
84	0x3da41aec	0.080129474
85	0x3c89e01a	0.016830493
86	0xbceffca7	-0.029295279
87	0x3e16f1a5	0.14740618
88	0x3df4fb21	0.119619615
89	0x3d09bc95	0.03362711
90	0x3df57f44	0.119871646
91	0x3de3f275	0.111302294
92	0x3d68b74a	0.056815423
93	0x3e1ea6dd	0.15493341
94	0x3e4c7173	0.19965152
95	0x3e17c5cb	0.14821546
96	0x3e1ec7b7	0.15505873
97	0x3e3ff9fb	0.18747704
98	0x3e27375a	0.16329709
99	0xbd390e70	-0.045179784
100	0xbda8b6b1	-0.082379706
101	0xbd104dcd	-0.035230447
102	0xbdbe84b0	-0.09302652
103	0xbe745573	-0.23860721
104	0xbe3ae92a	-0.18253008
105	0x3c289277	0.010288826
106	0xbe4cf2b4	-0.20014459
107	0x3d26d517	0.040730562
108	0x3d8db762	0.06919743
109	0xbcbaef64	-0.022819228
110	0xbda62982	-0.08113386
111	0x3df5f5cd	0.120097734
112	0x3b6b50e8	0.0035906378
113	0xbd0c2f13	-0.03422458
114	0x3d1f3925	0.038872857
115	0x3de07ac3	0.10960915
116	0x3d9901e2	0.07471062
117	0x3cb44f07	0.02201034
118	0x3ccd0162	0.025025073
119	0x3d8c4b17	0.0685026
120	0xbd36a40e	-0.04459005
121	0x3dddc6a9	0.10828907
122	0x3e3d624b	0.18494527
123	0xbdb9fab4	-0.09081021
124	0xbe4370d8	-0.19086015
125	0xbccd601a	-0.025070239
126	0x3dcfd7fd	0.10148618
127	0x3d9fa855	0.07795779
128	0xbdbc514f	-0.09195196
129	0x3d99dd17	0.07512873
130	0x3d90b122	0.070650354
131	0xbe341d41	-0.17589284
132	0x3e006a28	0.12540495
133	0xbd186ac2	-0.037211187
134	0xbd282bb4	-0.041057304
135	0x3e01a589	0.12660803
136	0xbd401bef	-0.04690164
137	0xbe6ffd14	-0.23436385
138	0x3e4541a9	0.19263329
139	0xbd482178	-0.048860043
140	0xbe7fe0ca	-0.24988094
141	0xbd74328e	-0.059618525
142	0xbe2fa306	-0.17152032
143	0x3e1a0850	0.15042233
144	0xbe940278	-0.28908134
145	0xbce124d7	-0.027483387
146	0xbe2a94c1	-0.16658308
147	0xbdd3a8fe	-0.10334967
148	0x3eb2ad04	0.34897625
149	0xbe6d031f	-0.23145722
150	0xbc7d2f30	-0.015453145
151	0xbe29b477	-0.16572748
152	0x3da6af20	0.08138871
153	0xbda28d2f	-0.07937085
154	0x3b4037b6	0.0029330081
155	0xbacd7ec7	-0.0015678041
156	0xbc79bf03	-0.015243295
157	0x3de01b28	0.1094268
158	0x3dd2bb64	0.10289648
159	0x3db0113b	0.085970365
160	0x3de84629	0.11341507
161	0x3e013ec1	0.12621595
162	0xbda7508e	-0.081696615
163	0xbd1b831d	-0.037966836
164	0xbda4d792	-0.08048929
165	0xbd90f436	-0.070778295
166	0xbda1fdd5	-0.07909743
167	0xbdaa9eca	-0.08331068
168	0xbd9731cd	-0.073825456
169	0xbdd3bd54	-0.10338846
170	0xbddaff58	-0.10693234
171	0xbd701d2e	-0.058621578
172	0xbe2ee4b5	-0.17079432
173	0xbe05e1cd	-0.13074417
174	0x3dca2e40	0.09872103
175	0xbdcf68fb	-0.10127445
176	0x3d9df05e	0.07711862
177	0x3e918f08	0.28429437
178	0x3e61e34f	0.22059368
179	0x3e4bbd04	0.19896322
180	0xbc5fcf79	-0.013660305
181	0xbd75d4a8	-0.060017258
182	0x3d8ae138	0.06781238
183	0x3c5892f1	0.013218627
184	0xbd880833	-0.06642189
185	0x3dbb8e3e	0.0915799
186	0x3dae051f	0.084970705
187	0x3d595aa4	0.053064957
188	0x3dd28235	0.10278741
189	0x3ca0f5ba	0.019648422
190	0x3c38057e	0.011231778
191	0xbe0e77ae	-0.13912842
192	0xbdd5d5c6	-0.10441165
193	0x3dd16b11	0.102254994
194	0xbdf94f2e	-0.121733055
195	0x3e137803	0.1440125
196	0x3d1ead13	0.038739275
197	0xbe944542	-0.2895909
198	0xbe9d0f8d	-0.30675927
199	0xbe049dca	-0.12950817
200	0x3c093fca	0.008377025
201	0xbdeffeee	-0.11718546
202	0x3e88375b	0.26604733
203	0x3dd6c8d8	0.10487527
204	0x3da2fbfc	0.079582185
205	0x3e4b2446	0.19838056
206	0x3cfd1315	0.030892888
207	0xbe54c64a	-0.20778766
208	0xbe248655	-0.16066869
209	0xbe2b12d6	-0.16706404
210	0xbe12ecfa	-0.14348212
211	0xbacca9c5	-0.001561456
212	0xbe5d9aa7	-0.21641026
213	0x3a41828c	0.0007381819
214	0x3caeb3ff	0.021326063
215	0xbe2c25fd	-0.16811366
216	0x3dedecd5	0.11617438
217	0x3dd6e866	0.10493545
218	0x3d055027	0.032547142
219	0xbe5738a3	-0.21017699
220	0x3ea70510	0.3262105
221	0xbca10547	-0.019655837
222	0x3e700b9a	0.23441926
223	0xbd8dcd09	-0.06923873
224	0x3d641856	0.05568727
225	0x398a7db2	0.0002641506
226	0xbe215bcc	-0.15757674
227	0xbe22ce4f	-0.15899013
228	0x3de082f0	0.10962474
229	0xbe236e70	-0.15960097
230	0xbd45fef9	-0.048338864
231	0x3ebaa1b9	0.3645151
232	0x3e4039d9	0.18772067
233	0x3e256392	0.16151264
234	0xbe295500	-0.16536331
235	0xbe44b79b	-0.19210665
236	0xbe570138	-0.20996559
237	0x3ca59942	0.02021468
238	0xbcc0f7a4	-0.023555584
239	0xbe24458f	-0.1604216
240	0x3e3580c8	0.17724907
241	0x3cc2b529	0.023768025
242	0xbe2e1e3a	-0.17003718
243	0x3d85431c	0.06506941
244	0xbd277e6a	-0.040892042
245	0x3d822d15	0.06356255
246	0x3d6909c5	0.056894083
247	0xbd8d444d	-0.06897793
248	0x3e3c6a25	0.18399866
249	0x3e3cf1a9	0.18451561
250	0x3e525dd8	0.20543611
251	0x3eb55977	0.3541982
252	0x3de899d1	0.11357463
253	0xbadec098	-0.0016994653
254	0xbc9898f9	-0.01862763
255	0xbca5ef4f	-0.020255713

layer1.0.conv1.bias f4 [16]
0	0x3ac4533b	0.0014978418
1	0xbbe118a3	-0.006869392
2	0xbb3c2559	-0.0028708784
3	0x3adb6a55	0.0016740063
4	0xbc0d7202	-0.008633139
5	0xbbf9f8ab	-0.0076285205
6	0x3aac8951	0.0013163482
7	0xbb3bb7fc	-0.0028643599
8	0x3b7d41e0	0.0038644
9	0xbb32df32	-0.002729368
10	0x3b99ee34	0.0046975855
11	0x3aee8d98	0.0018200157
12	0xbc23629e	-0.009972243
13	0x3b04ad14	0.0020244764
14	0x3bfcb715	0.0077122548
15	0xbb8f32be	-0.0043700626

layer1.0.bn1.weight f4 [16]
0	0x3f371d1a	0.7152878
1	0x3f1ec237	0.620151
2	0x3f1951ac	0.59890246
3	0x3f186b93	0.59539145
4	0x3f34c2a5	0.70609504
5	0x3f470a03	0.7774965
6	0x3f224d74	0.63399434
7	0x3f581e27	0.8442101
8	0x3f4dc9e9	0.80386215
9	0x3f9ca7a4	1.223866
10	0x3ef5db0f	0.4801869
11	0x3f32dea5	0.6987098
12	0x3f18c48c	0.59674907
13	0x3f2a2f91	0.6647883
14	0x3f3b187f	0.73084253
15	0x3f5946cf	0.8487367

layer1.0.bn1.bias f4 [16]
0	0x3e8d8acb	0.27644953
1	0x3e3d8f12	0.18511608
2	0xbd037349	-0.032092366
3	0xbd18295b	-0.037148815
4	0xbf1606dd	-0.5860422
5	0x3e11fcdd	0.14256616
6	0xbe9fe162	-0.3122664
7	0x3f145e87	0.5795674
8	0x3e8e405e	0.27783483
9	0xbf55d3b5	-0.83526164
10	0x3d801414	0.062538296
11	0x3f68a434	0.90875554
12	0x3eae2383	0.34011468
13	0x3d9285c4	0.0715442
14	0x3cb600f3	0.02221725
15	0xbeabddec	-0.3356775

layer1.0.bn1.running_mean f4 [16]
0	0x3e60a2d2	0.21937111
1	0xbf900e44	-1.1254354
2	0xc0372016	-2.8613334
3	0xc0699fe8	-3.650385
4	0x4030faa3	2.7652977
5	0xbfb151ed	-1.3853127
6	0x3f5a158a	0.85189116
7	0xbf030d86	-0.5119251
8	0xc05aacc7	-3.4167955
9	0x3faddf9a	1.3583863
10	0xbfcaa489	-1.5831462
11	0xbf4ffa4d	-0.81241304
12	0xbfad4e45	-1.3539511
13	0xbe91776c	-0.28411424
14	0xbeac5cb9	-0.33664492
15	0x4006100c	2.0947294

layer1.0.bn1.running_var f4 [16]
0	0x40b7fc80	5.7495728
1	0x4015a127	2.337961
2	0x4055f2a0	3.3429337
3	0x4001c85d	2.0278542
4	0x408f8816	4.485362
5	0x4055deb5	3.341718
6	0x3ffb9296	1.965411
7	0x4061ac0d	3.5261261
8	0x405de749	3.4672415
9	0x40cd9056	6.423869
10	0x409d161e	4.90895
11	0x40184ba4	2.3796167
12	0x400fc724	2.2465296
13	0x400d85ec	2.211299
14	0x4064132e	3.5636706
15	0x408112c9	4.033543

layer1.0.conv2.weight f4 [16, 16, 3, 3]
0	0xbe7c05a0	-0.24611521
1	0xbed36996	-0.41291493
2	0xbdd511f8	-0.10403818
3	0x3dbeecf4	0.09322539
4	0x3e9a2093	0.30102977
5	0x3d8d8a41	0.069111355
6	0xbd879718	-0.06620616
7	0xbdd8905a	-0.10574408
8	0xbd436e04	-0.04771234
9	0x3d087921	0.033318643
10	0x3dd2cbd5	0.10292784
11	0xbe13e915	-0.14444382
12	0x3d4a8b52	0.049449272
13	0x3e994936	0.29938668
14	0xbd1b87d6	-0.03797134
15	0xbceca6fb	-0.028888216
16	0x3ba9dbac	0.0051836576
17	0xbd2faf84	-0.042891994
18	0xbddd2d67	-0.107996754
19	0xbe26bfcf	-0.16284107
20	0xbe514862	-0.20437768
21	0xbd40f17a	-0.04710529
22	0x3e004ca5	0.12529238
23	0xbe198d01	-0.14995195
24	0xbcee97b2	-0.029125068
25	0x3cf34702	0.029696945
26	0xbced372a	-0.028956968
27	0xbd384f1d	-0.044997323
28	0xbd673e9a	-0.056456186
29	0xbe05e02d	-0.13073798
30	0xbe7ac4aa	-0.24489084
31	0x3cc21526	0.023691725
32	0xbde9ada3	-0.11410072
33	0x3d4fdbff	0.050746914
34	0x3ddf044a	0.1088949
35	0xbb45ec99	-0.0030200838
36	0x3c0d7341	0.008633436
37	0x3d157e94	0.036497667
38	0x3de4c095	0.111695446
39	0xbd97c756	-0.07411067
40	0xbe05cb48	-0.13065827
41	0xbd41e83a	-0.04734061
42	0xbe1f5893	-0.15561132
43	0xbe6a6a45	-0.22892101
44	0xbe252d65	-0.16130598
45	0x3dc87d95	0.09789578
46	0x3d7408b3	0.05957861
47	0x3e09cc47	0.13456832
48	0xbced59dc	-0.028973512
49	0x3e548e6b	0.20757453
50	0xbdb1cdd6	-0.08681838
51	0x3de105ee	0.10987459
52	0xbdd32bb1	-0.10311068
53	0x3def8b9c	0.1169655
54	0x3a450c3f	0.00075167784
55	0xbcd429ff	-0.025898932
56	0x3d792116	0.06082257
57	0xbb958d06	-0.0045639304
58	0xbd130971	-0.035897676
59	0x3d2c6921	0.042092446
60	0xbdb4bbd3	-0.08824887
61	0xbde7b15a	-0.11313124
62	0x3d86360f	0.065532796
63	0xbd42bad5	-0.04754146
64	0xbf0702f3	-0.52738875
65	0xbdb736fc	-0.08946034
66	0xbddc3da1	-0.10753942
67	0x3eda860e	0.426804
68	0x3e313c76	0.1730822
69	0xbd355104	-0.044266716
70	0xbe480816	-0.19534335
71	0xbdcab648	-0.09898049
72	0x3dd3b0b0	0.10336435
73	0x3e2e647d	0.1703052
74	0x3e2119f0	0.1573255
75	0x3c78b3f9	0.015179628
76	0xbde8d477	-0.113686495
77	0xbe323035	-0.17401202
78	0x3e455391	0.1927016
79	0x3e10f4af	0.1415584
80	0x3e1d9f03	0.1539269
81	0xbe2175ba	-0.15767565
82	0xbddde228	-0.108341515
83	0xbbafd554	-0.005366007
84	0xbe1c90a8	-0.15289557
85	0xbde09235	-0.10965387
86	0x3da10292	0.078618184
87	0xbde9253c	-0.11384055
88	0x3d425f74	0.047454312
89	0x3e427fcd	0.18994065
90	0x3d0047c6	0.03131845
91	0xbd8e3b63	-0.06944921
92	0x3dac8e03	0.08425524
93	0xbe6264b3	-0.22108726
94	0xbdb9a51f	-0.090646975
95	0xbe59e19f	-0.21277474
96	0xbe00fca3	-0.12596373
97	0xbe327ff6	-0.17431626
98	0xbd6f1317	-0.058367815
99	0xbd8f7cfb	-0.0700626
100	0xbf01679f	-0.5054874
101	0xbe833e68	-0.2563355
102	0x3d236e30	0.039900005
103	0x3f34e6cb	0.7066466
104	0xbddd2a2c	-0.10799059
105	0x3ebfee31	0.37486413
106	0xbcdb629a	-0.026780415
107	0x3db6ad67	0.089197926
108	0xbe2cc047	-0.16870223
109	0xbe4f338c	-0.20234507
110	0x3e0341c9	0.12818064
111	0xbe46cb99	-0.19413604
112	0xbe150a49	-0.14554705
113	0x3e135dee	0.143913
114	0x3e585bfa	0.21128836
115	0x3dd01db3	0.10161915
116	0x3e5fade9	0.21843685
117	0x3d6437dd	0.055717338
118	0x3dd8fa8b	0.10594662
119	0xbd7e57de	-0.062095515
120	0xbdaa3b4a	-0.0831209
121	0xbd1fcd97	-0.039014425
122	0xbe0dbbb3	-0.13841133
123	0xbe44345e	-0.19160601
124	0xbd70d098	-0.05879268
125	0x3df1c1d2	0.118045464
126	0x3db76d08	0.08956343
127	0xbd97fbba	-0.0742106
128	0xbdb0b090	-0.086274266
129	0xbe40426e	-0.18775341
130	0xbdd5a33d	-0.10431526
131	0x3e0ae080	0.13562202
132	0xbe8d751c	-0.2762841
133	0x3d0a0396	0.033694826
134	0x3e7d2e66	0.24724731
135	0x3d577862	0.05260504
136	0xbe18bc74	-0.14915639
137	0xbe1e6fdd	-0.1547236
138	0xbe244e11	-0.16045405
139	0xbbeb41e3	-0.007179485
140	0x3e2e1d31	0.17003323
141	0xbe8cfd2a	-0.275369
142	0xbcafeb0e	-0.021474387
143	0x3e30cad9	0.1726488
144	0x3d6bbd15	0.05755337
145	0x3df8fdae	0.121577606
146	0x3d1a9847	0.03774288
147	0x3dc516de	0.09623502
148	0x3e55ae37	0.20867239
149	0x3d474772	0.04865212
150	0x3cfe7cc3	0.03106535
151	0x3d9052ea	0.070470646
152	0xbb0291d7	-0.0019923353
153	0x3d8b7c1f	0.068107836
154	0xbd17e6f8	-0.037085503
155	0x3c8fabfa	0.01753806
156	0xbd4e23ca	-0.0503271
157	0xbdd9dd94	-0.10637966
158	0xbdf2e1db	-0.11859485
159	0xbd8b1a8d	-0.067921735
160	0xbe375194	-0.17902213
161	0xbdd3128a	-0.103062704
162	0xbdb16cdb	-0.08663341
163	0xbba64079	-0.0050736037
164	0xbda1dcc4	-0.07903436
165	0x3d10ee06	0.035383247
166	0x3dcddb69	0.10051615
167	0x3c0f9dd9	0.008765661
168	0xbccd0fd8	-0.025031969
169	0xbd66aaea	-0.05631534
170	0xbd3e4044	-0.046448007
171	0x3cda0a05	0.026616106
172	0xbd973ddf	-0.07384848
173	0xbd681d92	-0.056668825
174	0x3c200842	0.009767594
175	0xbde445fc	-0.11146161
176	0xbe0b443b	-0.13600247
177	0x3daf7870	0.085678935
178	0xbd76ab56	-0.060221992
179	0xbda9a63f	-0.08283662
180	0xbde7bb64	-0.11315039
181	0xbdb15c33	-0.08660164
182	0xbd1960ae	-0.037445717
183	0xbd50f6ec	-0.051016733
184	0x3cc02980	0.023457289
185	0x3ddb35bd	0.10703609
186	0x3cf79746	0.0302235
187	0x3e1a9e90	0.1509955
188	0x3e7498f8	0.23886478
189	0x3e2d8d0d	0.16948338
190	0x3e69d43b	0.22834866
191	0x3df0528a	0.11734493
192	0x3e7de51d	0.24794431
193	0x3e857aad	0.26070157
194	0x3e113b3d	0.14182754
195	0x3b801a8b	0.003909414
196	0xbd9940df	-0.07483076
197	0xbd86b9cc	-0.06578407
198	0xbda3cd49	-0.079981394
199	0x3d64c84c	0.05585508
200	0x3cc8ffb3	0.02453599
201	0xbcdf1b57	-0.027234716
202	0x3e22753a	0.15865031
203	0x3e1af0ca	0.15130916
204	0xbd670745	-0.056403417
205	0x3d89bb1e	0.06725143
206	0x3d3ab5db	0.045583587
207	0x3d74538a	0.05964998
208	0x3decd4f8	0.11564058
209	0xba117292	-0.00055483833
210	0x3d1e006b	0.038574617
211	0x3e265e8b	0.16247003
212	0xbd236998	-0.039895624
213	0x39df2d5f	0.0004256768
214	0xbc0cac79	-0.008586043
215	0xbd2718f7	-0.040795293
216	0x3d6a6e04	0.057233825
217	0xbda6165f	-0.08109736
218	0xbe15696f	-0.14591001
219	0xbaa8988f	-0.0012862849
220	0xbe063ba1	-0.13108684
221	0xbe40052c	-0.18751973
222	0xbd327735	-0.043570716
223	0xbdc21e7f	-0.09478473
224	0xbdc5f3ce	-0.09665643
225	0xbdba8f29	-0.09109337
226	0xbe10a7b2	-0.1412647
227	0xbe248ee5	-0.16070135
228	0xbdb7b9dd	-0.089709975
229	0xbe15386d	-0.14572306
230	0xbe3e0ea0	-0.18560266
231	0xbd859a7d	-0.06523607
232	0xbd9b3c75	-0.07579891
233	0xbe0bd021	-0.13653614
234	0x3e4208c9	0.18948664
235	0x3e1365cc	0.14394301
236	0x3d8dcbaf	0.06923615
237	0x3e366fc3	0.17816071
238	0x3dd5c7d7	0.10438507
239	0x3d34d327	0.044146683
240	0xbd9f233f	-0.077703945
241	0xbe224d67	-0.15849839
242	0xbdef4b5b	-0.11684295
243	0xbb59b3e9	-0.0033218807
244	0x3d70c1a3	0.058778416
245	0xbd409996	-0.04702147
246	0xbd81fece	-0.06347428
247	0x399d7668	0.00030033593
248	0xbd6fa24a	-0.05850438
249	0xbd9c6845	-0.07637075
250	0xbe7e1b70	-0.24815154
251	0x3c5c740d	0.013455403
252	0x3d9dba11	0.07701505
253	0x3e5ff07a	0.21869078
254	0x3e383732	0.17989805
255	0x3e5f2f2e	0.21795341

layer1.0.conv2.bias f4 [16]
0	0xbb892a4f	-0.004185952
1	0x3c6dc2fb	0.014511819
2	0xbba32397	-0.004978608
3	0x3adc0ce2	0.0016788507
4	0x3bdeb4e7	0.0067964676
5	0x3b92cd18	0.0044800155
6	0xbb35768f	-0.0027689075
7	0xbbcce866	-0.00625329
8	0x3bfa1298	0.007631611
9	0xbbc1335b	-0.0058960146
10	0xbc0a2324	-0.00843123
11	0x3c2868da	0.010278905
12	0xbbf6a6d2	-0.0075272107
13	0x3b834484	0.0040059704
14	0xb9dd4efd	-0.00042211256
15	0x3a924b3a	0.0011161335

layer1.0.bn2.weight f4 [16]
0	0x3f4ef11c	0.80836654
1	0x3ebb06bc	0.36528575
2	0x3f91fae3	1.140469
3	0x3f7093f3	0.9397575
4	0x3f43748b	0.76349705
5	0x3f28738c	0.6580131
6	0x3f329472	0.6975776
7	0x3e9e77ae	0.30950683
8	0x3f236931	0.63832384
9	0x3ee1a176	0.44068497
10	0x3ef1bb11	0.47213033
11	0x3f46d10f	0.7766275
12	0x3f86e718	1.0539274
13	0x3f186020	0.59521675
14	0x3ec8a682	0.39189535
15	0x3f1f6402	0.62261975

layer1.0.bn2.bias f4 [16]
0	0xbe8b6384	-0.27224362
1	0x3e2cc0b6	0.16870388
2	0xbe424819	-0.18972816
3	0x3e4f6d5c	0.20256561
4	0x3e423d2e	0.1896865
5	0x3ecf86aa	0.40532428
6	0x3e16f5f9	0.14742269
7	0x3ea92815	0.33038393
8	0x3d30f626	0.043203495
9	0x3ea6a6c9	0.32549122
10	0xbd48e4a7	-0.049046185
11	0x3e5d29de	0.21598002
12	0x3e169730	0.14706111
13	0x3dc6cc0d	0.09706888
14	0x3e0e21d3	0.1388009
15	0x3e2ad0d5	0.16681226

layer1.0.bn2.running_mean f4 [16]
0	0xbedfe84e	-0.43731922
1	0x3b4934e4	0.0030701691
2	0x3fb6d0a2	1.428242
3	0xbfa695c2	-1.3014452
4	0xbe1265fc	-0.14296716
5	0xc0069d1f	-2.10334
6	0x3ea31dc4	0.31858647
7	0xbe04ed46	-0.12981138
8	0x3ef75b4c	0.4831184
9	0x3f98c0d9	1.1933852
10	0xbe926a7a	-0.2859686
11	0xbe80ee5d	-0.25181857
12	0xbd21e5b8	-0.039525717
13	0xc007d69e	-2.1224742
14	0xbf0f81a9	-0.5605722
15	0xbf149de3	-0.58053416

layer1.0.bn2.running_var f4 [16]
0	0x3fe2f859	1.773204
1	0x400616ad	2.095134
2	0x4009acb1	2.1511652
3	0x4027bace	2.6207767
4	0x3f5dd27c	0.866493
5	0x4029d807	2.6538103
6	0x4045375e	3.0815043
7	0x3f9f1317	1.2427701
8	0x3fce39f1	1.6111432
9	0x3f4be7aa	0.79650366
10	0x3f8f5606	1.1198127
11	0x3fe44e18	1.7836332
12	0x4004284b	2.0649593
13	0x3ffa073a	1.9533455
14	0x3f46b912	0.77626145
15	0x4017f5a5	2.374368

layer1.1.conv1.weight f4 [16, 16, 3, 3]
0	0xbe217d43	-0.1577044
1	0xbe85d650	-0.2614007
2	0xbed44629	-0.41459778
3	0x3dddd2fe	0.10831259
4	0x3e9970e5	0.29968944
5	0xbe0f0841	-0.13967992
6	0x3e28474e	0.1643345
7	0x3ea275ad	0.31730404
8	0x3dcd1da3	0.100154184
9	0xbdd85fdf	-0.10565161
10	0xbe11a84a	-0.14224353
11	0xbe9bf0ce	-0.30457157
12	0xbe42eb33	-0.19035034
13	0xbe3c4817	-0.18386875
14	0xbe871ff9	-0.2639158
15	0xbe25ffdd	-0.16210885
16	0xbc5ac039	-0.0133514935
17	0xbce3be1e	-0.027800616
18	0xbccf1537	-0.02527867
19	0x3ce7c290	0.028291017
20	0x3d843a28	0.06456405
21	0x3d41ffc0	0.047363043
22	0x3df08f9e	0.11746143
23	0x3e22d03a	0.15899745
24	0xbdf9c831	-0.121963866
25	0xbd1d2ee9	-0.038374815
26	0x3de39849	0.111130305
27	0xbe6d192f	-0.23154138
28	0xbe493a0d	-0.19651051
29	0xbe64ce5e	-0.22344348
30	0x3ca4db27	0.020124031
31	0x3d516260	0.05111921
32	0xbd3de720	-0.046362996
33	0x3ddf200e	0.10894786
34	0x3e1bb994	0.15207511
35	0x3c88ea4d	0.016713286
36	0xbd5e846e	-0.054325514
37	0xbbf4b553	-0.0074679046
38	0x3ca41522	0.020029608
39	0xbdad9c11	-0.08477033
40	0x3cf251b5	0.029579977
41	0x3d622e55	0.055219967
42	0xbe495c47	-0.19664107
43	0xbdee2ef4	-0.11630049
44	0xbe0d6d1b	-0.13811152
45	0x3d462621	0.048376206
46	0x3ea218e9	0.3165963
47	0x3d80f133	0.06296005
48	0x3d91ee91	0.07125581
49	0x3eb211b4	0.3477913
50	0x3d05f64b	0.032705586
51	0x3dd05179	0.1017179
52	0x3cd6b1fe	0.02620792
53	0xbe273e7a	-0.16332427
54	0xbdb3e5dd	-0.08784077
55	0x3da90c57	0.08254307
56	0xbe1781d1	-0.14795615
57	0xbe4b8f68	-0.19878924
58	0x3b6b0a41	0.0035864266
59	0xbe82488c	-0.25445974
60	0xbd0d51e1	-0.034501914
61	0x3cdb3f10	0.026763469
62	0xbe114edc	-0.14190239
63	0xbdaefef9	-0.08544726
64	0xbd8433b4	-0.06455174
65	0xbe4f7041	-0.20257665
66	0xbd220ff8	-0.03956601
67	0x3c4bdc13	0.0124426065
68	0xbe05ea20	-0.13077593
69	0x3d85e368	0.06537515
70	0x3e79d866	0.24398956
71	0x3d92178f	0.071334
72	0xbe242f44	-0.16033655
73	0x3dbe6481	0.09296513
74	0xbc18c93b	-0.009325321
75	0xbd0d1bf2	-0.03445048
76	0x3eab0d1e	0.33408445
77	0x3d89f1dc	0.06735584
78	0xbdf75a69	-0.12077791
79	0x3d618c3a	0.05506537
80	0x3ca81b93	0.02052096
81	0xbe898a5e	-0.26863378
82	0xbe1bcc85	-0.15214737
83	0xbd774b62	-0.060374625
84	0xbd7fb822	-0.062431462
85	0x3d128792	0.03577382
86	0x3b922456	0.004459898
87	0xbd7bd75d	-0.061484683
88	0x3d349c37	0.04409429
89	0xbc1ce667	-0.009576417
90	0x3e26118e	0.16217634
91	0x3e533477	0.20625482
92	0x3e8fe912	0.28107506
93	0xbe3325e9	-0.1749493
94	0xbdb0f7cc	-0.086410135
95	0xbd228438	-0.039676875
96	0xbeba017c	-0.36329257
97	0xbea616a6	-0.32439154
98	0xbe59abdb	-0.21256964
99	0x3c9e3669	0.019313054
100	0x3e2e68f9	0.17032231
101	0x3d3eafd0	0.046554387
102	0xbc97f6e2	-0.01855034
103	0x3d5d7f36	0.054076396
104	0xbe24e98f	-0.1610472
105	0xbd24956f	-0.040181573
106	0xbe4a62de	-0.19764277
107	0xbe8aa332	-0.27077633
108	0x3e9d4f28	0.30724454
109	0x3ee1bb5c	0.44088256
110	0x3cfcd21e	0.03086191
111	0x3e703596	0.23457941
112	0x3e8fb1f9	0.2806547
113	0xbcddb0ed	-0.027061904
114	0xbe2de86c	-0.16983193
115	0xbe2e222b	-0.17005222
116	0xbe82417e	-0.25440592
117	0x3ea409c6	0.32038707
118	0x3ece20a1	0.4025927
119	0x3dee7995	0.11644284
120	0x3dc5bdb1	0.096553214
121	0x3d6194f5	0.055073697
122	0xbe6c3c9f	-0.2307
123	0xbe43804a	-0.19091907
124	0xbea251d2	-0.3170305
125	0xbeb90cd0	-0.36142588
126	0xbb943224	-0.004522579
127	0x3cf80a7d	0.030278439
128	0xbcb14a21	-0.021641793
129	0xbd10c362	-0.03534258
130	0xbd95134e	-0.07279073
131	0xbd7850a8	-0.060623795
132	0xbcbf0ced	-0.023321593
133	0xbd91f031	-0.07125891
134	0xbcac1507	-0.02100612
135	0x3e3a727c	0.18207735
136	0x3e755fa9	0.23962273
137	0x3d668aac	0.05628459
138	0x3e04271c	0.12905544
139	0x3e39a7c3	0.18130402
140	0x3e01f0c5	0.12689503
141	0xbc1d6f91	-0.009609119
142	0xbdae910f	-0.085237615
143	0xbd1425dc	-0.036168918
144	0x3e1180fd	0.14209361
145	0xbd0a80b7	-0.03381416
146	0xbd229035	-0.039688308
147	0x3cb25c12	0.021772418
148	0x3d39f314	0.045397833
149	0xbbbc2315	-0.005741487
150	0x3a177909	0.00057782285
151	0x3d8e896e	0.069598064
152	0x3dce249d	0.10065577
153	0xbdd43743	-0.10362103
154	0x3d0d3626	0.034475468
155	0x3db7021e	0.08935951
156	0xbdc1d4ca	-0.094644144
157	0x3c1c1366	0.009526109
158	0x3d34c9a8	0.044137627
159	0xbd558f6d	-0.052138735
160	0x3c948a7a	0.018132437
161	0x3bb8bd60	0.0056378096
162	0xbe3efdd6	-0.18651518
163	0xbd4a7a3b	-0.049432974
164	0xbc66369f	-0.014051109
165	0xbe4e0b62	-0.2012153
166	0xbda8a6f5	-0.082349695
167	0xbcb7c1b7	-0.022431238
168	0xbe588590	-0.211447
169	0xbdc514ff	-0.09623145
170	0xbdcf3dd2	-0.10119213
171	0xbe0fa54f	-0.14027904
172	0x3d1ffb1b	0.039057832
173	0x3d311881	0.04323626
174	0xbdc0ce33	-0.094143294
175	0x3d82b4a6	0.06382112
176	0x3d1c5d54	0.038174942
177	0xbe0f86db	-0.14016287
178	0xbdc5a17a	-0.0964994
179	0xbd784eee	-0.06062215
180	0x3dacaa72	0.08430947
181	0xbd45a84c	-0.048256204
182	0xbe81b3cf	-0.25332496
183	0x3cd29918	0.025707766
184	0xbd0ece83	-0.034864914
185	0xbe07beec	-0.13256425
186	0x3dc4e835	0.096146025
187	0x3dbbdbaf	0.09172761
188	0x3dbd0123	0.092287324
189	0xbe2c41e9	-0.16822018
190	0xbdd99280	-0.10623646
191	0xbea1cb54	-0.3160044
192	0xbd2e5882	-0.042564876
193	0xbce398a9	-0.027782755
194	0xbe249947	-0.16074096
195	0x3e0afb22	0.13572362
196	0x3e31c3f8	0.17359912
197	0x3b0fd29a	0.0021945597
198	0xbe6d698d	-0.23184796
199	0xbe3a8b75	-0.18217261
200	0xbd9001af	-0.07031571
201	0xbe8ee49a	-0.27908784
202	0xbe295279	-0.16535367
203	0xbd4acbf3	-0.049510907
204	0xbe3728bb	-0.17886631
205	0xbd637510	-0.05553156
206	0x3dd3f02b	0.10348543
207	0xbdad5f65	-0.08465461
208	0x3d144b79	0.03620479
209	0x3de53201	0.11191178
210	0xbd117669	-0.035513315
211	0x3c9dce35	0.019263366
212	0x3ccbc467	0.024873925
213	0xbc20e0ec	-0.009819251
214	0xbd976b8b	-0.07393559
215	0xbdbf590d	-0.09343157
216	0xbe258ff5	-0.16168196
217	0xbe1ba1d9	-0.15198459
218	0xbe143de4	-0.14476734
219	0xbdd08c3f	-0.10183
220	0xbdbcbbe2	-0.09215523
221	0xbeb05a1f	-0.34443757
222	0x3e29c007	0.16577159
223	0x3d933bf5	0.0718917
224	0x3dd9f04b	0.10641535
225	0xbe159e01	-0.14611055
226	0xbe310a9e	-0.17289206
227	0xbe9129d0	-0.28352213
228	0x3c82ef90	0.015983373
229	0xbc63ebf0	-0.013911232
230	0xbe02f4be	-0.12788674
231	0x3da39416	0.079872295
232	0x3e17abaa	0.14811578
233	0x3b588a05	0.003304125
234	0x3d6ef98a	0.058343448
235	0xbc8d593f	-0.01725447
236	0xbd39d44a	-0.04536847
237	0x3e0e163c	0.13875669
238	0x3ddb016a	0.10693629
239	0x3c9cad79	0.019125687
240	0x3e0a8eb4	0.13531
241	0x3e0e432d	0.13892813
242	0x3d50afe5	0.050948996
243	0x3ce9865b	0.028506448
244	0xbe1beff5	-0.15228255
245	0xbeb1204e	-0.3459496
246	0x3d5139e5	0.051080603
247	0xbd3feb4d	-0.04685526
248	0xbe350ac1	-0.17679884
249	0xbe00d330	-0.12580562
250	0xbcccf536	-0.02501927
251	0xbdf72101	-0.12066842
252	0xbb4967b8	-0.0030731987
253	0xbdabe770	-0.083937526
254	0xbe554124	-0.2082563
255	0xbd746668	-0.059667975

layer1.1.conv1.bias f4 [16]
0	0xbaa8e68e	-0.0012886093
1	0xbc095341	-0.008381666
2	0x3bc5a494	0.006031582
3	0x3a1694e0	0.000574423
4	0xbbd7b88e	-0.00658328
5	0x3c033bb7	0.008009843
6	0xbc07fac0	-0.00829953
7	0xbc108111	-0.008819834
8	0xbc12c6a1	-0.00895849
9	0xbb8f59ec	-0.004374733
10	0x3bf28fa4	0.007402377
11	0xbad5b3b2	-0.0016304164
12	0x3c299b1e	0.010351924
13	0xba8da490	-0.001080649
14	0xbc0c4dbd	-0.008563456
15	0x39f7f069	0.0004729063

layer1.1.bn1.weight f4 [16]
0	0x3f56643e	0.8374671
1	0x3f2466f1	0.64219576
2	0x3f1c0c25	0.6095603
3	0x3f8c7294	1.0972466
4	0x3f320307	0.6953587
5	0x3f17f4f5	0.5935815
6	0x3f5357c5	0.825558
7	0x3f27039f	0.652399
8	0x3f21a95b	0.6314904
9	0x3f6a6703	0.91563433
10	0x3f2e9770	0.68199825
11	0x3f17a568	0.59236765
12	0x3f42d213	0.761018
13	0x3f26f0d7	0.6521124
14	0x3f424a08	0.7589421
15	0x3f34f564	0.70686936

layer1.1.bn1.bias f4 [16]
0	0xbed99033	-0.42492828
1	0xbdaebbd0	-0.08531916
2	0x3e39f79d	0.18160863
3	0xbf35ba5c	-0.70987487
4	0xbf071846	-0.52771413
5	0xbe9400c8	-0.28906846
6	0xbf0a0e4c	-0.53928065
7	0x3d97bf5b	0.07409545
8	0xbe766b20	-0.24064302
9	0x3f1cb12a	0.6120783
10	0xbeb3d0e4	-0.35120308
11	0xbe4f0b6f	-0.20219205
12	0xbe5594b6	-0.2085751
13	0x3e9048d6	0.2818057
14	0x3eee6eba	0.46568853
15	0xbed56c7f	-0.41684338

layer1.1.bn1.running_mean f4 [16]
0	0xbf50f91d	-0.81630117
1	0xc071766f	-3.7728536
2	0xc0380f1c	-2.8759222
3	0x3f5ae474	0.8550484
4	0xbe6f92fc	-0.23395914
5	0x3feb99b8	1.8406286
6	0xbf2fd7ad	-0.6868847
7	0xc088361a	-4.256604
8	0xc0914c4b	-4.540563
9	0xbff5daec	-1.9207435
10	0x40eaa81b	7.3330207
11	0x405c7681	3.444733
12	0x3fa06302	1.2530215
13	0xbfe8af10	-1.8178425
14	0xbe694e6b	-0.2278382
15	0x3e634a17	0.22196232

layer1.1.bn1.running_var f4 [16]
0	0x40b32440	5.598175
1	0x4039fd62	2.9060903
2	0x40cbcd64	6.368822
3	0x40e6033a	7.187894
4	0x40ad4797	5.414989
5	0x40241e2f	2.5643423
6	0x4062aaf5	3.5416844
7	0x40f8d2cc	7.775732
8	0x40300a0e	2.7506137
9	0x4138450e	11.516859
10	0x408c038b	4.3754325
11	0x40475f62	3.1151967
12	0x410dfd9e	8.874418
13	0x40d275e6	6.576892
14	0x40c25323	6.0726485
15	0x4060da03	3.5133064

layer1.1.conv2.weight f4 [16, 16, 3, 3]
0	0x3cfc61bd	0.030808324
1	0x3e951bcd	0.29122773
2	0x3e3d24c7	0.1847106
3	0x3ad968d2	0.0016587025
4	0x3eb21acc	0.3478607
5	0x3e8e5fee	0.27807564
6	0xbc33e7fd	-0.010980603
7	0x3e7a205c	0.24426407
8	0x3e3778a4	0.17917114
9	0x3d4abbb5	0.049495418
10	0xbc4a1e24	-0.012336288
11	0x3e324919	0.17410697
12	0xbe3df43f	-0.18550204
13	0xbcede0f4	-0.02903793
14	0x3e0d73ce	0.13813707
15	0xbe7307dc	-0.23733467
16	0xbde1f8c6	-0.11033778
17	0x3e04e9d2	0.1297982
18	0x3e151a66	0.14560851
19	0x3e36dd81	0.17857935
20	0x3de7cf58	0.113188446
21	0xbd474b85	-0.048656005
22	0xbd4ffe6a	-0.050779738
23	0xbd7d3786	-0.06182053
24	0x3e091f78	0.1339091
25	0x3dc38025	0.09545926
26	0x3e1fa6e3	0.15591006
27	0xbe50a195	-0.20374139
28	0xbd2c1fa7	-0.042022374
29	0xbe6e5e02	-0.23278049
30	0xbda043fd	-0.07825468
31	0xbc9f1a2a	-0.019421656
32	0xbd178182	-0.036988743
33	0xbe14a2e3	-0.14515261
34	0xbd530e57	-0.051527347
35	0xbd5c1a7c	-0.053736195
36	0x3d05838e	0.032596163
37	0xbc48e39c	-0.012261298
38	0xbcd7c140	-0.026337266
39	0xbde3985a	-0.11113043
40	0xbce281e3	-0.027649825
41	0x392f7d27	0.00016735923
42	0xbe6af759	-0.22945918
43	0xbde50034	-0.11181679
44	0xbe114da0	-0.14189768
45	0x3d1d4af7	0.03840157
46	0x3c25cc31	0.010119484
47	0xbc736b64	-0.014857147
48	0x3dc9c814	0.09852615
49	0xbdd3f716	-0.10349862
50	0xbd8a3a4d	-0.06749401
51	0x3d06a965	0.03287639
52	0xbd93ee6b	-0.07223209
53	0x3be12ece	0.0068720346
54	0x3e310757	0.17287956
55	0x3c80c77a	0.015720118
56	0x3e4bf55b	0.19917814
57	0x3e2ec339	0.17066659
58	0x3d67ab30	0.05655974
59	0x3df3dfe8	0.11907941
60	0x3e165efa	0.14684668
61	0xbd456784	-0.048194423
62	0x3d0ae428	0.033908993
63	0x3e3fa16a	0.18713918
64	0x3d9a3925	0.07530431
65	0xbd881458	-0.06644505
66	0xbd5e4f23	-0.05427469
67	0x3e0ec931	0.13943936
68	0xbe12083e	-0.14260957
69	0x3e2763f9	0.1634673
70	0x3e0c0b8d	0.13676281
71	0xbde1305f	-0.10995554
72	0x3db39d0c	0.08770189
73	0xbdfbe7a8	-0.12300044
74	0xbc311158	-0.010807358
75	0xbd949a2c	-0.072559685
76	0x3c973d3a	0.018461812
77	0xbe065607	-0.13118754
78	0xbd83db2b	-0.06438287
79	0x3dfda612	0.12385191
80	0xbe46aaf1	-0.19401146
81	0x3cad01cc	0.02111902
82	0x3d9641fe	0.07336806
83	0x3dddc682	0.10828878
84	0x3e866442	0.26248366
85	0xbe5762a7	-0.21033727
86	0x3cf56f97	0.029960437
87	0xbcb105cd	-0.021609211
88	0xbe449ace	-0.19199678
89	0x3d9e8f38	0.077421606
90	0xbd0ed832	-0.03487415
91	0xbce0f10c	-0.02745869
92	0xbcad50fc	-0.02115678
93	0xbbdbea02	-0.0067112455
94	0xbd8fb7f5	-0.07017509
95	0xbd77ee00	-0.06052971
96	0xbc1bac59	-0.00950154
97	0xbe32fda1	-0.17479564
98	0xbd80bf14	-0.06286445
99	0xbd964c07	-0.0733872
100	0xbcef4d09	-0.029211538
101	0xbba2f254	-0.0049727354
102	0x3df85141	0.12124873
103	0x3e2c72d8	0.16840684
104	0x3e4a7292	0.19770268
105	0x3d30d9b8	0.043176383
106	0xbd8cf4ed	-0.068826534
107	0xbd709c1d	-0.05874263
108	0xbc6b0ec5	-0.014346783
109	0x3dd37ccb	0.10326537
110	0x3d0ade52	0.033903427
111	0x3d6383a5	0.055545468
112	0xbd618fa9	-0.055068646
113	0xbe240d40	-0.1602068
114	0x3bcc452a	0.006233831
115	0xbc779a77	-0.015112511
116	0x3b649841	0.003488079
117	0xbdc2bcbb	-0.09508654
118	0x3e267d39	0.16258706
119	0x3d7f893c	0.062386736
120	0xbe110d3c	-0.14165205
121	0xbe5a83b9	-0.2133931
122	0xbe9f26e3	-0.31084356
123	0x3c79d183	0.015247705
124	0xbe0997f8	-0.13436878
125	0xbe108877	-0.14114557
126	0x3d3e1b3f	0.046412703
127	0xbea81eb7	-0.32835934
128	0xbe1f34b9	-0.15547456
129	0xbde91ef9	-0.11382861
130	0x3ed816f4	0.42205012
131	0xbd5b0951	-0.05347568
132	0xbd7fd0e5	-0.062455077
133	0xbe9bad1b	-0.30405506
134	0xbd8c0079	-0.06836028
135	0x3e8fe249	0.2810233
136	0x3e707347	0.23481475
137	0x3e140736	0.14455876
138	0xbdc2383e	-0.094833836
139	0xbe3420bf	-0.17590617
140	0xbe60d92a	-0.21957842
141	0x3de04162	0.10949971
142	0x3d88e2aa	0.06683858
143	0x3bdd725a	0.0067580165
144	0x3eb94319	0.36184004
145	0x3e253526	0.16133556
146	0x3c2e896d	0.010652882
147	0x3e32e6a6	0.17470798
148	0x3e106c46	0.14103803
149	0x3bdbff57	0.0067137885
150	0x3d2c660d	0.04208951
151	0x3d73f269	0.059557352
152	0x3bf31517	0.0074182856
153	0x3da69187	0.08133226
154	0xbd48a8ac	-0.048988983
155	0xbcccfcbb	-0.025022855
156	0x3ce53a06	0.02798177
157	0xbdc67041	-0.096893795
158	0xbe003cdd	-0.12523217
159	0x3bd93dc6	0.0066296784
160	0xbe015e59	-0.12633647
161	0xbcf789d7	-0.030217094
162	0xbd9d501d	-0.07681296
163	0xbd2cb802	-0.04216767
164	0xbcda2d8e	-0.02663305
165	0x3d89e3dd	0.067329146
166	0x3dcb2627	0.09919386
167	0x3dcd18c8	0.10014492
168	0x3d83c798	0.06434554
169	0x3d7b7a8a	0.06139616
170	0x3d5c6ab8	0.053812712
171	0x3d8c7958	0.06859082
172	0x3e45f5cd	0.19332047
173	0xbb1619fd	-0.0022903674
174	0x3dda938c	0.106726736
175	0x3e62fdda	0.22167149
176	0x3d6cc4c1	0.057804827
177	0xbd6899cb	-0.056787293
178	0x3d59c3b8	0.053165168
179	0xbd99408d	-0.07483015
180	0x3d89655e	0.067087874
181	0x3dca3452	0.098732606
182	0x3da0e3c7	0.07855945
183	0x3e347755	0.17623647
184	0x3e20995b	0.156835
185	0x3e05aeab	0.13054912
186	0x3daceadf	0.084432356
187	0x3cfb1b47	0.030652655
188	0x3c6b66ef	0.014367803
189	0x3cbdc68e	0.023165967
190	0x3e024101	0.1272011
191	0x3e2ae055	0.16687138
192	0x3dc1701a	0.0944521
193	0x3e5e6b21	0.21720554
194	0x3e225a48	0.15854752
195	0x3e0977fe	0.1342468
196	0x3e3fc665	0.18728025
197	0x3e080920	0.13284731
198	0xbdd68d58	-0.10476178
199	0x3dc61f87	0.09673982
200	0x3e660808	0.22464001
201	0x3dd81d52	0.105524674
202	0x3e272a01	0.16324617
203	0x3d9541d8	0.07287949
204	0x3e3afb57	0.18259941
205	0x3dc41879	0.0957498
206	0xbd92d221	-0.07168985
207	0x3d1458d8	0.03621754
208	0x3c45e47c	0.012078401
209	0x3c90840c	0.01764109
210	0x3d643490	0.05571419
211	0x3db2d537	0.08732074
212	0x3d7bc521	0.061467294
213	0xbc8346ec	-0.01602503
214	0xbd4d49fd	-0.05011939
215	0xbd994841	-0.074844845
216	0x3cdc728e	0.026910093
217	0xbbb804f7	-0.005615826
218	0xbcafc351	-0.021455439
219	0x3cc140f0	0.023590535
220	0x3ccc04c7	0.024904622
221	0xbd63dc47	-0.055629995
222	0x3d157a65	0.036493678
223	0x3d6257b7	0.055259433
224	0xbcb1e9e7	-0.021717979
225	0xbbb4157b	-0.0054957247
226	0x3da7132d	0.08157954
227	0x3d27ad61	0.04093683
228	0xbdb6a6bc	-0.08918521
229	0x3ac5ceaf	0.0015091504
230	0xbd868e7d	-0.06570146
231	0x3b7ffc95	0.0039060463
232	0x3d0ff5b5	0.035146434
233	0xbe14656f	-0.14491819
234	0xbc6223ff	-0.013802527
235	0x3e4eb740	0.20187092
236	0x3e2fa979	0.17154492
237	0xbd3c144d	-0.045917798
238	0x3e5052d1	0.20344092
239	0x3e405667	0.1878296
240	0xbd899ece	-0.06719743
241	0x3dde04f4	0.108407885
242	0x3dd4242a	0.1035846
243	0x3ddd7cf8	0.108148515
244	0x3e18f960	0.14938879
245	0x3e0e39fd	0.13889308
246	0x3da81330	0.08206785
247	0x3e4b5ace	0.19858858
248	0x3db75b61	0.08952976
249	0xbd9954a3	-0.07486846
250	0xbd05234b	-0.03250436
251	0xbc905eca	-0.017623324
252	0x3ddf5f13	0.10906806
253	0x3e2dd47d	0.16975589
254	0x3d03f106	0.03221228
255	0x3da328e3	0.07966783

layer1.1.conv2.bias f4 [16]
0	0x3bf38c55	0.0074325004
1	0xbad9e754	-0.0016624727
2	0x3b1c4b66	0.0023848652
3	0x3ba61ee4	0.0050696004
4	0xbbd0a1ec	-0.006366959
5	0xbb88a1a9	-0.004169662
6	0xbc28e4b0	-0.01030843
7	0xbb25b844	-0.0025286833
8	0xbb05c495	-0.0020411361
9	0x3c1c7a12	0.009550588
10	0x3b6048ed	0.0034223155
11	0x3ad2d1d8	0.0016084267
12	0xbb6bdf0a	-0.0035991096
13	0xbb467fa9	-0.0030288494
14	0x3959d198	0.00020772812
15	0x3c04aa9e	0.008097319

layer1.1.bn2.weight f4 [16]
0	0x3f4e18d4	0.80506635
1	0x3ed80e86	0.4219858
2	0x3f3f6e9d	0.7477816
3	0x3f4fdb25	0.81193763
4	0x3f8bf7d2	1.0935004
5	0x3ed961cd	0.4245743
6	0x3f808658	1.0040998
7	0x3f01251b	0.50447243
8	0x3f955fcc	1.166986
9	0x3edab0f6	0.42713135
10	0x3ec7462b	0.3892072
11	0x3f826ef9	1.0190116
12	0x3f538b4c	0.82634425
13	0x3f05f189	0.5232168
14	0x3ee44f3e	0.44591707
15	0x3f461fa9	0.7739206

layer1.1.bn2.bias f4 [16]
0	0xbe4753e2	-0.19465593
1	0x3e285799	0.16439666
2	0x3f0851a7	0.5324959
3	0xbccd5294	-0.02506379
4	0x3e2fc668	0.1716553
5	0x3d691a4a	0.056909837
6	0x3e5696cc	0.20955962
7	0x3e92edc8	0.28697038
8	0x3e0bc241	0.1364832
9	0x3dda802c	0.10668978
10	0x3e6f0d11	0.23344828
11	0x3dc5b6e7	0.096540265
12	0x3df7713f	0.12082147
13	0xbc8ce2eb	-0.017198047
14	0x3e48cb81	0.1960888
15	0x3db25009	0.08706672

layer1.1.bn2.running_mean f4 [16]
0	0xbe859914	-0.26093352
1	0x3f2286d1	0.63486964
2	0xbc01b6f0	-0.007917151
3	0xbfaba4db	-1.3409685
4	0xbf8a94fb	-1.0826715
5	0xbf772f8c	-0.96556926
6	0xbf7c5529	-0.98567444
7	0xbfa7404a	-1.3066494
8	0xbe89e7d7	-0.26934692
9	0x3f061fd5	0.5239232
10	0xbf2f0d33	-0.68379515
11	0xbedd9c0b	-0.43283114
12	0xbe9bfed6	-0.30467862
13	0xc0167b9a	-2.351294
14	0x3e40c94e	0.18826792
15	0xbfb36668	-1.4015627

layer1.1.bn2.running_var f4 [16]
0	0x3f697e6f	0.9120855
1	0x3fc7981c	1.5593295
2	0x3f2847a7	0.6573433
3	0x3fe34367	1.7754945
4	0x3fa0c88c	1.2561202
5	0x3f50b187	0.81520885
6	0x3fef041a	1.8673127
7	0x3fceb9fc	1.6150508
8	0x3fdf0a44	1.7425008
9	0x3f3a7f47	0.7285046
10	0x3f067b1e	0.5253161
11	0x3f8d4dd1	1.1039373
12	0x3f778b46	0.9669689
13	0x3fecc957	1.8498944
14	0x3f2af3a1	0.66778
15	0x3fbda675	1.4816424
