Output/swift-iid-8W-pattern1-half-ring-2sgd-200epochs/r1-epoch_129-parameters.pt (torch, 731756 bytes, 92 tensors)

conv1.weight f4 [16, 3, 3, 3]
0	0x3cc1b4b4	0.023645736
1	0xbf01a2a7	-0.5063881
2	0x3d621807	0.055198696
3	0xbe2d3c29	-0.1691748
4	0xbdbeb886	-0.09312539
5	0x3dce1234	0.10062066
6	0xbec1232c	-0.37722147
7	0x3e77fbe4	0.24217182
8	0x3d2684a1	0.04065383
9	0xbeb14d85	-0.34629455
10	0xbf57852e	-0.8418759
11	0xbf02556f	-0.5091161
12	0x3e728c6b	0.23686378
13	0x3efe7d25	0.49704853
14	0x3e27fb71	0.16404511
15	0x3eda5b15	0.42647615
16	0x3f9e5c64	1.2371945
17	0x3f1b3d21	0.6064015
18	0xbf01349e	-0.5047091
19	0xbf6fb25f	-0.9363155
20	0xbecefc74	-0.4042698
21	0x3cbc537d	0.022989029
22	0x3d901137	0.070345335
23	0x3b981e17	0.004642259
24	0x3e60f1b4	0.21967202
25	0x3f266007	0.64990276
26	0x3e982ea3	0.2972308
27	0xbd096466	-0.033543013
28	0x3df40a8d	0.11916075
29	0x3ddb523d	0.10709045
30	0xbdb2acc2	-0.08724357
31	0x3b8558cc	0.0040694233
32	0x3d0108f4	0.03150268
33	0xbc8c62af	-0.0171369
34	0x3d149409	0.03627399
35	0xbd25067a	-0.04028938
36	0x3de12c85	0.109948196
37	0x3e515135	0.20441134
38	0x3e13783b	0.14401333
39	0x3cd4d546	0.025980603
40	0x3e3a86b5	0.18215449
41	0x3e30b8f0	0.17258048
42	0x3ce1f9cd	0.027584935
43	0x3dee676c	0.1164082
44	0x3d286ac4	0.041117445
45	0x3daf86ed	0.08570657
46	0x3e34fcd7	0.17674576
47	0x3ddc84ca	0.10767515
48	0x3db8691d	0.09004424
49	0x3e86b8ce	0.2631287
50	0x3e2f7864	0.17135769
51	0xbd6d3f3b	-0.05792163
52	0x3d907480	0.070534706
53	0xbd39768c	-0.04527907
54	0x3d9cd34d	0.0765749
55	0xbef1d5c9	-0.47233418
56	0xbd8438b9	-0.064561315
57	0xbeb1e450	-0.347445
58	0xbf497f66	-0.7871002
59	0xbf064874	-0.52454305
60	0xbe4ce53b	-0.2000932
61	0xbf2a1449	-0.664372
62	0xbe70fe24	-0.23534447
63	0x3e3da525	0.18520029
64	0x3cc01598	0.023447797
65	0x3e2d2e33	0.16912155
66	0x3dfcaf36	0.12338106
67	0x3db89850	0.09013426
68	0x3d14d874	0.03633924
69	0xbd7a5c3a	-0.06112311
70	0xbdd660b7	-0.10467666
71	0x3d348f0d	0.044081736
72	0xbe1ecfac	-0.15508908
73	0x3c99db42	0.018781308
74	0xbe10fc5e	-0.1415877
75	0x3e78da59	0.24302043
76	0x3f12092a	0.57045233
77	0x3e8b3b8b	0.27193865
78	0x3e8041ef	0.25050303
79	0x3f01e676	0.5074228
80	0x3ec0606c	0.37573564
81	0x3dd1a239	0.1023602
82	0x3ca8af90	0.020591527
83	0x3e8f977a	0.28045255
84	0xbee40eef	-0.44542643
85	0xbf1ee1c2	-0.6206323
86	0xbebafb9a	-0.36520082
87	0xbe770f6a	-0.24126974
88	0xbf06ddea	-0.52682364
89	0xbec8afe5	-0.39196697
90	0xbe807641	-0.2509022
91	0xbe3e8e48	-0.18608963
92	0xbe4d3f71	-0.20043732
93	0xbe942fc6	-0.28942698
94	0xbe10f324	-0.14155251
95	0xbe6aee83	-0.22942548
96	0xbe13968f	-0.14412902
97	0xbd18fdff	-0.037351605
98	0xbe56fc5b	-0.20994703
99	0xbd9642fa	-0.073369935
100	0x3f100f91	0.5627375
101	0x3d818adb	0.06325313
102	0x3ecb9370	0.39760923
103	0x3f943d56	1.1581218
104	0x3f165338	0.5872073
105	0x3ecf30f9	0.4046705
106	0x3f7b182e	0.9808377
107	0x3eea1b6b	0.45724043
108	0x3e8cc879	0.27496698
109	0xbe07361a	-0.13204232
110	0x3e8c4b6f	0.274013
111	0xbe32c8a6	-0.17459354
112	0xbf2f9d30	-0.68599224
113	0xbdb81137	-0.089876585
114	0x3e277060	0.16351461
115	0xbe245b54	-0.16050464
116	0x3e47fb8f	0.19529556
117	0x3e7a641c	0.24452251
118	0xbe7faf5e	-0.24969241
119	0x3e216f31	0.15765072
120	0xbe279467	-0.16365205
121	0xbf2fa8c0	-0.6861687
122	0xbe3d1e70	-0.18468642
123	0x3e8dc14e	0.27686542
124	0xbdd22904	-0.10261729
125	0x3e515951	0.20444228
126	0x3d3e0c95	0.046398718
127	0xbe5797b3	-0.21053962
128	0x3b1961f0	0.0023404323
129	0xbe9a52c1	-0.3014126
130	0xbf1c77d0	-0.6112032
131	0xbe971de8	-0.29515004
132	0x3e0e8216	0.13916811
133	0xbd1db729	-0.038504753
134	0x3e15a180	0.14612389
135	0x3e8bfafb	0.2733992
136	0x3f5894a7	0.84601825
137	0x3f2b9f1b	0.6703965
138	0x3f025fa7	0.50927204
139	0x3f5e2889	0.867806
140	0x3e942fe0	0.28942776
141	0x3db6db56	0.08928554
142	0x3dc5ae58	0.09652394
143	0xbe0607bd	-0.1308889
144	0xbe167ec9	-0.14696802
145	0xbf59fcf5	-0.85151607
146	0xbf30062b	-0.6875941
147	0xbea9b6e5	-0.3314735
148	0xbfa66913	-1.3000816
149	0xbfb486ac	-1.4103599
150	0x3dd1c512	0.10242666
151	0xbf2f8e5b	-0.6857659
152	0xbf09d79b	-0.5384461
153	0x3e447098	0.19183576
154	0x3e489e81	0.19591714
155	0x3e89c5ab	0.2690862
156	0x3e1d039e	0.15333411
157	0x3d746507	0.05966666
158	0xbde03ef6	-0.10949509
159	0x3f0b4fb4	0.5441849
160	0x3eeb4d36	0.45957345
161	0x3ed098bc	0.40741527
162	0x3ee7dc3e	0.4528522
163	0x3fafd9dd	1.3738362
164	0x3f5a830a	0.853562
165	0xbe403548	-0.18770325
166	0xbc750510	-0.01495482
167	0x3ea5a5d5	0.32353082
168	0xbf19ae44	-0.60031533
169	0xbf9f6484	-1.245255
170	0xbe89db66	-0.269252
171	0x3ef0fad1	0.47066358
172	0x3f6beea7	0.9216103
173	0x3ed10912	0.40827233
174	0xbe3cab31	-0.1842468
175	0xbee246f5	-0.4419476
176	0xbe84beda	-0.25926858
177	0xbca30bdf	-0.019903122
178	0xbf546a3d	-0.82974607
179	0xbe8c8fc4	-0.27453434
180	0xbeb5e1aa	-0.3552373
181	0xbb5252d7	-0.0032092833
182	0xbefe5d08	-0.49680352
183	0xbe6128ac	-0.21988171
184	0xbe25ff5d	-0.16210695
185	0xbebf303c	-0.37341487
186	0x3ef93a39	0.48677233
187	0x3e2790c2	0.16363814
188	0x3e7c9ab3	0.24668388
189	0x3aef1bc5	0.0018242529
190	0xbe865cdf	-0.2624273
191	0x3cb2dca1	0.02183372
192	0x3dfca7a4	0.123366624
193	0x3fefaaa7	1.8723954
194	0xbe12fb4f	-0.14353679
195	0x3e3e418e	0.18579695
196	0xbe73915f	-0.23785923
197	0x3deb9097	0.11502188
198	0xbd8a120c	-0.067417234
199	0xbee4dde2	-0.44700533
200	0xbe3565cc	-0.17714614
201	0xbe755e0b	-0.23961656
202	0x3f908396	1.1290157
203	0xbf054451	-0.5205737
204	0xbf0785c9	-0.52938515
205	0xbfa1b57c	-1.263351
206	0xbecbf98b	-0.39838824
207	0xbd59f98d	-0.053216506
208	0xbec448ce	-0.38336796
209	0xbe4a8b73	-0.19779758
210	0x3e388b3c	0.18021864
211	0x3fc0a2e1	1.5049707
212	0xbd1f625f	-0.038912173
213	0xbd5145d6	-0.05109199
214	0x3dbd53c1	0.092444904
215	0x3e3ce25c	0.18445724
216	0xbe2db9e4	-0.16965443
217	0x3d0b4fcb	0.034011643
218	0x3b7da2db	0.0038701806
219	0xbf6bd179	-0.92116505
220	0x3eb32c76	0.34994859
221	0x3f2a20ea	0.6645647
222	0xbeafce0a	-0.34336883
223	0x3c016565	0.0078977095
224	0x3ca1feec	0.019774877
225	0xbf0534d2	-0.5203372
226	0xbdf20aee	-0.11818491
227	0x3e9ace16	0.30235356
228	0xbf91c7c5	-1.138909
229	0x3ea2daf1	0.31807664
230	0x3f8776b9	1.0583106
231	0xbe8adec0	-0.2712307
232	0x3e0c3bdd	0.13694711
233	0x3eeaab49	0.45833805
234	0xbd76455b	-0.060124736
235	0x3d5b779d	0.05358087
236	0x3ddb35d8	0.10703629
237	0xbf4c1e5b	-0.7973382
238	0x3e61239b	0.21986239
239	0x3f1e67fa	0.61877406
240	0xbe81aaf1	-0.2532573
241	0xbda30e4c	-0.07961711
242	0xbacada70	-0.0015476476
243	0x3e85279e	0.26006788
244	0xbe4a037b	-0.1972789
245	0xbc68a67d	-0.01419985
246	0xbe0ad54f	-0.13557933
247	0xbf2f3341	-0.6843758
248	0xbebc7382	-0.36806875
249	0xbe123aa7	-0.14280187
250	0xbf3a237b	-0.7271039
251	0xbef5306b	-0.47888502
252	0x3f09bde7	0.53805393
253	0x3ea7cffe	0.32775873
254	0x3ec5cc67	0.3863251
255	0x3ebf4a88	0.3736155

conv1.bias f4 [16]
0	0xbc7d450b	-0.015458356
1	0xbc20a823	-0.009805712
2	0xbc32f28b	-0.010922085
3	0x3ca60eb1	0.020270677
4	0x3c993b4a	0.018705029
5	0xbcb1d150	-0.021706253
6	0xba88aea0	-0.0010428019
7	0x3baa80e9	0.0052033556
8	0xbc878957	-0.01654498
9	0xbcb3d844	-0.02195371
10	0xbbc8cd5d	-0.006127997
11	0xbc247054	-0.010036547
12	0xbc069897	-0.008215091
13	0x3c86af38	0.016440973
14	0x3b8a2975	0.004216368
15	0xbc765589	-0.015035042

bn1.weight f4 [16]
0	0x3f4dc379	0.8037639
1	0x3f3a9c4f	0.7289476
2	0x3ef50526	0.4785549
3	0x3f11dd4c	0.569783
4	0x3fb7e555	1.4366862
5	0x3f2100dc	0.62891936
6	0x3f4fbbb0	0.81145763
7	0x3f7c452a	0.98543036
8	0x3f57cdb7	0.8429827
9	0x3f1a1fbc	0.6020467
10	0x3f05607d	0.52100354
11	0x3f56bca3	0.83881587
12	0x3f892115	1.0713221
13	0x3f0d60d9	0.552259
14	0x3ec45663	0.38347158
15	0x3f0b17b7	0.5433306

bn1.bias f4 [16]
0	0x3f0d7a14	0.552644
1	0xbede9a71	-0.43477204
2	0x3e65c045	0.22436626
3	0x3f0977eb	0.53698605
4	0xbf690073	-0.9101631
5	0x3eb6b0a6	0.35681647
6	0x3f2eb06d	0.68237954
7	0x3fa5683d	1.2922436
8	0x3e4f394c	0.20236701
9	0x3d81ec8a	0.06343944
10	0x3ea63114	0.3245932
11	0x3fa11aed	1.2586342
12	0x3ebd2549	0.3694251
13	0x3e981e7b	0.29710755
14	0x3dceb569	0.10093195
15	0x3d882f6f	0.06649672

bn1.running_mean f4 [16]
0	0xbe106429	-0.14100708
1	0xbf194cbe	-0.59882724
2	0x3e322425	0.173966
3	0xbe616534	-0.22011262
4	0x3f3ad9af	0.7298841
5	0x3e218f85	0.15777405
6	0x3e08bfad	0.13354369
7	0xbe863c2e	-0.26217788
8	0x3c5e4db0	0.013568327
9	0xbd86dcb5	-0.06585065
10	0x3ba12e69	0.0049188626
11	0x3d7ba478	0.061436146
12	0xbda0ebde	-0.07857488
13	0xbe420b76	-0.18949685
14	0xbd47256c	-0.048619673
15	0x3ef648d3	0.48102435

bn1.running_var f4 [16]
0	0x415851b0	13.519943
1	0x40c1051c	6.0318737
2	0x409b271c	4.848524
3	0x410498c2	8.287294
4	0x411dbeea	9.85911
5	0x40a429df	5.130111
6	0x412b31e3	10.699679
7	0x40bbbd12	5.86683
8	0x414ffa58	12.998619
9	0x40b89200	5.7678223
10	0x3fdcf03b	1.7260813
11	0x4009f8aa	2.1558022
12	0x41c1a11d	24.203669
13	0x410897d0	8.537064
14	0x402b1061	2.6728747
15	0x408daffa	4.4277315

layer1.0.conv1.weight f4 [16, 16, 3, 3]
0	0xbe30b98d	-0.17258282
1	0xbe021c59	-0.12706126
2	0x3de229a0	0.110430956
3	0x3b4325dc	0.0029777205
4	0xbe5d340b	-0.21601884
5	0xbe44cdb9	-0.19219102
6	0x3dd9573f	0.10612344
7	0xbe0539d2	-0.13010338
8	0xbe53c146	-0.20679197
9	0x3bcdfc0e	0.006286151
10	0xbdc0b990	-0.09410393
11	0xbe3edf94	-0.18639976
12	0x3d82c659	0.06385488
13	0x3c0e9549	0.008702585
14	0xbdbe4411	-0.092903264
15	0x3d689415	0.056781847
16	0xbc14f345	-0.009091203
17	0xbdc915ff	-0.098186485
18	0xbe90874d	-0.28228226
19	0xbe00d6fb	-0.12582009
20	0x3e1fd84c	0.15609854
21	0xbe803b68	-0.25045323
22	0xbcb19e41	-0.021681907
23	0x3e997c6d	0.29977742
24	0xbe327180	-0.1742611
25	0xbd04176e	-0.032248907
26	0x3e8dda3b	0.2770556
27	0xbea242bc	-0.3169154
28	0xbd093633	-0.033498954
29	0x3eb7431a	0.35793382
30	0xbecaa4ba	-0.395788
31	0xbe025508	-0.1272775
32	0x3ebe8f7a	0.3721884
33	0xbed74a6e	-0.42048973
34	0xbe4e92a7	-0.20173131
35	0x3e8569d3	0.260573
36	0xbd0d5892	-0.034508295
37	0xbd109b15	-0.035304148
38	0xbe3917d0	-0.1807549
39	0x3e025511	0.12727763
40	0x3d95e32b	0.073187195
41	0xbe217e7d	-0.15770908
42	0x3e3e233a	0.18568125
43	0x3e422daf	0.1896274
44	0xbcc86b3d	-0.024465198
45	0x3d751080	0.05983019
46	0xbdba7d43	-0.09105923
47	0xbe965976	-0.29365128
48	0x3e16a61f	0.14711808
49	0xbca7b727	-0.020473076
50	0xbec6303d	-0.38708678
51	0x3e4d4671	0.20046403
52	0x3dd9dde7	0.10638028
53	0xbdf642c0	-0.1202445
54	0x3d6262bf	0.055269953
55	0xbdbbdbaf	-0.09172761
56	0xbca3ebca	-0.020009894
57	0x3e2392e9	0.1597401
58	0xbe87660c	-0.26445043
59	0xbe806f9c	-0.2508515
60	0x3e5abc25	0.21360834
61	0xbe1a1a9a	-0.1504921
62	0xbea00810	-0.3125615
63	0x3edf8a08	0.43659997
64	0xbd961c5e	-0.07329629
65	0xbdda9cae	-0.106744155
66	0xbdca988f	-0.098923795
67	0x3e0ee838	0.13955772
68	0x3e34e168	0.1766411
69	0x3e8a140a	0.26968414
70	0xbdc5412e	-0.09631573
71	0xbe84472c	-0.2583555
72	0xbdf15c5a	-0.11785193
73	0xbdca7727	-0.09886008
74	0x3ca59502	0.020212654
75	0xbb9b6b09	-0.004742984
76	0x3c04c066	0.008102512
77	0xbba03e89	-0.0048902673
78	0xbe1b2a22	-0.15152791
79	0xbda94b00	-0.08266258
80	0x3d955b36	0.07292788
81	0xbe8a4642	-0.27006727
82	0xbdad14b0	-0.084512115
83	0x3db16a32	0.08662833
84	0xbe94965c	-0.29020965
85	0x3bef59a6	0.007304388
86	0x3e8e3741	0.2777653
87	0xbe7092d8	-0.23493516
88	0x3d45cdb4	0.048291877
89	0x3ec7c126	0.39014548
90	0x3ed0bfb7	0.40771267
91	0xbdbf2545	-0.093332805
92	0xbf3b6e78	-0.73215437
93	0x3eb01eec	0.34398592
94	0x3d8112a5	0.06302384
95	0xbea0541d	-0.31314173
96	0xbe11e1b6	-0.14246258
97	0x3d8dfb45	0.069326915
98	0x3e001c2f	0.12510751
99	0x3e105195	0.14093621
100	0x3e832426	0.25613517
101	0xbe2ce748	-0.16885102
102	0xbd5c0d44	-0.05372359
103	0xbe915e64	-0.28392327
104	0xbe1d472b	-0.1535918
105	0xbe042282	-0.12903789
106	0x3ce091d7	0.027413292
107	0x3e0a4a71	0.1350496
108	0xbd36aea0	-0.04460013
109	0x3d449fbc	0.048003897
110	0x3da26e0d	0.07931147
111	0xbe8fc456	-0.2807948
112	0xbde2fd1e	-0.110834345
113	0xbc267899	-0.010160589
114	0xbda31e62	-0.079647794
115	0x3e4a0aba	0.19730654
116	0x3e58ab37	0.21159063
117	0x3dc3efdb	0.09567233
118	0x3d1c39f4	0.038141206
119	0x3cfe3fbb	0.031036248
120	0x3dc73fee	0.097289905
121	0x3e1bd347	0.15217315
122	0x3e2ee4cf	0.17079471
123	0xbd7b6218	-0.061372846
124	0xbd3dc2b2	-0.046328254
125	0x3e1cf193	0.15326528
126	0x3d85d4ca	0.06534727
127	0xbdc5189b	-0.09623834
128	0xbe65c8b0	-0.22439837
129	0x3e4bf69d	0.19918294
130	0x3d52fc9d	0.051510442
131	0xbe0e8edb	-0.13921683
132	0x3de9adaf	0.11410081
133	0x3ca9d425	0.020731041
134	0xbdd10962	-0.10206868
135	0x3d2655e3	0.04060925
136	0xbbbd15a5	-0.0057704025
137	0xbdaf7ee2	-0.08569123
138	0x3dff5a20	0.12468362
139	0x3d8d8481	0.06910039
140	0xbd45590e	-0.048180632
141	0x3e24a289	0.16077627
142	0x3df99126	0.12185888
143	0x3d086ce8	0.033306986
144	0xbdec00a1	-0.115235575
145	0xbd25d691	-0.04048783
146	0xbd7a59e0	-0.061120868
147	0x3ce4fea0	0.027953446
148	0x3baec1ed	0.0053331763
149	0x3c962677	0.018328888
150	0xbc40051c	-0.011719968
151	0xbd4cac96	-0.04996928
152	0xbc95fd18	-0.018309161
153	0xbde23571	-0.110453494
154	0xbe109d65	-0.14122541
155	0xbe0005c4	-0.125022
156	0xbd24e720	-0.04025948
157	0xbd245f37	-0.040129866
158	0xbc752907	-0.014963395
159	0x3d5df77d	0.0541911
160	0x3d9b5135	0.075838484
161	0x3da1b817	0.078964405
162	0xbdd014a5	-0.10160188
163	0xbe586ba9	-0.21134819
164	0xbe3a2591	-0.18178393
165	0xbe5d90af	-0.21637224
166	0xbe990cdc	-0.29892623
167	0xbe6f8474	-0.2339037
168	0xbe0a8441	-0.13527013
169	0xbe529111	-0.20563151
170	0xbe17989e	-0.14804313
171	0x3dfabdbf	0.122432224
172	0xbca2b12f	-0.019859878
173	0x3d49f3a3	0.049304616
174	0xbcde8c60	-0.027166545
175	0xbe4ad07c	-0.19806093
176	0xbdce97e0	-0.100875616
177	0x3d920f77	0.07131856
178	0xbdd1c7df	-0.102432005
179	0xbc01285c	-0.007883158
180	0x3d97507c	0.07388398
181	0x3d3d1234	0.046159938
182	0x3ccab3ab	0.024743875
183	0x3d6699cf	0.056299027
184	0x3d1c749c	0.038197145
185	0x3d08e820	0.033424497
186	0xbcb11d5d	-0.021620447
187	0x3a8bd1ad	0.0010667347
188	0xbbc4d002	-0.006006242
189	0xbd840871	-0.064469226
190	0xbe5c595b	-0.21518461
191	0xbdcb46d3	-0.09925618
192	0x3bcd163e	0.006258755
193	0xbdb3faea	-0.087880924
194	0xbcbd8c05	-0.023138056
195	0x3e6d6eec	0.23186845
196	0x3e1d034f	0.15333293
197	0x3dea7816	0.11448686
198	0xbed04f85	-0.4068567
199	0xbef27154	-0.47352087
200	0xbedf9f26	-0.43676108
201	0xbe13eaaa	-0.14444986
202	0xbe3db43f	-0.1852579
203	0xbe53cc42	-0.20683387
204	0xbc7767f2	-0.015100466
205	0x391b88df	0.0001483294
206	0xbd91834c	-0.07105121
207	0x3e129560	0.14314795
208	0xbdec95c6	-0.115520045
209	0x3de3bc47	0.111198954
210	0xbdc93119	-0.09823818
211	0xbe17b6e7	-0.14815865
212	0xbcdcad06	-0.026937973
213	0x3e8650ca	0.26233512
214	0x3c3db9cb	0.011579941
215	0x3e1793af	0.1480243
216	0x3e5ecec7	0.21758567
217	0x3ddea7d6	0.10871856
218	0x3e0432e4	0.12910038
219	0x3df50c77	0.11965268
220	0xbce2ec79	-0.02770065
221	0xbd2f8dee	-0.042859964
222	0xbddbe893	-0.107377194
223	0xbe4317c1	-0.1905203
224	0xbdf5a7a6	-0.11994867
225	0x3d81eb53	0.06343713
226	0xbbf42922	-0.0074511925
227	0x3cadadcd	0.021201039
228	0xbd45daa5	-0.04830422
229	0xbdc261dc	-0.094913214
230	0xbd449e11	-0.048002306
231	0xbde286f2	-0.11060895
232	0xbe146fa4	-0.14495713
233	0xbd875384	-0.06607726
234	0x3d3dec7e	0.046368115
235	0x3deb180f	0.11479198
236	0xbd4c7ea2	-0.049925454
237	0xbd0177ad	-0.031608272
238	0xbdfb69d1	-0.12276042
239	0xbe82079f	-0.2539644
240	0xbeafbf9b	-0.3432587
241	0xbec29887	-0.38006994
242	0xbee8f380	-0.45498276
243	0xbdeb9d3a	-0.11504598
244	0xbd062392	-0.032748766
245	0xba81e0e8	-0.0009908946
246	0x3ceb30f6	0.02870987
247	0xbd306364	-0.043063536
248	0x3db5c8f3	0.08876219
249	0x3d69cb7e	0.05707883
250	0xbcdeb61c	-0.027186446
251	0xbe229de1	-0.15880539
252	0x3d5eb5bc	0.054372534
253	0x3d1e76b5	0.038687427
254	0x3d9e4218	0.0772745
255	0xbd87d3fd	-0.066322304

layer1.0.conv1.bias f4 [16]
0	0x3ab80fdb	0.0014042811
1	0xbbd30423	-0.006439702
2	0xbb30613c	-0.0026913425
3	0x3acdb04a	0.0015692797
4	0xbc04999e	-0.008093266
5	0xbbea5825	-0.007151621
6	0x3aa1bf82	0.0012340399
7	0xbb2ff8e2	-0.0026851227
8	0x3b6d6ae3	0.003622704
9	0xbb27b047	-0.0025587247
10	0x3b90507d	0.004404126
11	0x3adfa9c4	0.0017064144
12	0xbc192cdd	-0.009349075
13	0x3af8bfa1	0.0018978008
14	0x3bece815	0.007229815
15	0xbb863f2a	-0.004096885

layer1.0.bn1.weight f4 [16]
0	0x3f46865d	0.7754877
1	0x3ef7c5d9	0.48393133
2	0x3f190d55	0.5978597
3	0x3f74969e	0.95542324
4	0x3f4328ab	0.7623393
5	0x3f47ca77	0.7804331
6	0x3f522a4e	0.820958
7	0x3f44ce1d	0.76877004
8	0x3f77bed2	0.96775544
9	0x3f8c743c	1.0972972
10	0x3f8dc0a1	1.1074411
11	0x3f611a49	0.8793073
12	0x3f8f0615	1.1173731
13	0x3f896eae	1.0736902
14	0x3f44b417	0.76837295
15	0x3f981748	1.1882105

layer1.0.bn1.bias f4 [16]
0	0xbc3d0223	-0.011536154
1	0x3e1e2cab	0.15446727
2	0xbe634d02	-0.22197345
3	0xbe8e7480	-0.27823257
4	0xbe56057c	-0.2090053
5	0xbdfacf22	-0.12246539
6	0xbd925087	-0.071442656
7	0x3d8aa895	0.06770436
8	0x3ea7c7f3	0.32769737
9	0x3efc0424	0.4922191
10	0xbea28fa1	-0.31750205
11	0x3e5d9b47	0.21641265
12	0x3f1e0c0a	0.6173712
13	0xbe3c2d2d	-0.18376608
14	0xbddf3fec	-0.10900864
15	0xbe9fcf7c	-0.31212986

layer1.0.bn1.running_mean f4 [16]
0	0xbf9e38a6	-1.2361038
1	0xc04a1e32	-3.158093
2	0x3f61f128	0.882586
3	0xbf7fb344	-0.9988291
4	0xbeb2141e	-0.34780973
5	0xc05444e4	-3.3167048
6	0xc00afb3d	-2.1715844
7	0x3e676dae	0.22600433
8	0xbed619b6	-0.4181649
9	0xc0209b12	-2.5094647
10	0xc01f43c0	-2.4885101
11	0xc091d131	-4.556786
12	0xbfe4be62	-1.78706
13	0xbea9a9bc	-0.3313731
14	0xbfd4d0d5	-1.662623
15	0xbfbbab88	-1.4661722

layer1.0.bn1.running_var f4 [16]
0	0x3f5a058a	0.851647
1	0x3fc3d45f	1.5299186
2	0x3fc5efcf	1.5463809
3	0x40821b85	4.0658593
4	0x3f9404a7	1.156392
5	0x4046e087	3.107454
6	0x406c673c	3.693801
7	0x40810bc5	4.0326867
8	0x4071d88c	3.778842
9	0x40457599	3.0853026
10	0x412b4d26	10.706335
11	0x407c92ff	3.946472
12	0x408b9220	4.3615875
13	0x40e1dd5f	7.058273
14	0x40083dd6	2.1287742
15	0x40d87c52	6.765176

layer1.0.conv2.weight f4 [16, 16, 3, 3]
0	0x3cc1003e	0.023559686
1	0xbd36df06	-0.044646285
2	0x3dba748b	0.0910426
3	0x3cbf7a53	0.023373758
4	0x3d30ab6a	0.043132223
5	0x3dff4c5c	0.12465736
6	0xbcbb33ff	-0.022851942
7	0xbb1e3ca4	-0.0024145031
8	0x3d1c17aa	0.038108505
9	0xbc1fdae4	-0.009756777
10	0xbdc0461e	-0.09388374
11	0xbd4ec57e	-0.050481312
12	0x3bbda55b	0.005787534
13	0x3ab640a8	0.0013904767
14	0xbcea9050	-0.028633267
15	0x3d42524e	0.047441773
16	0x3df2c8e1	0.11854721
17	0x3d4700a4	0.048584595
18	0xbc6af621	-0.014340908
19	0x3db4e4a8	0.08832675
20	0x3cd0fe61	0.025511922
21	0x3ddb1e51	0.10699142
22	0x3da2102c	0.07913241
23	0x3d213adc	0.039362773
24	0x3d7b0fea	0.061294474
25	0x3d106fe8	0.035262972
26	0xbdc58681	-0.09644795
27	0xbd9f7a71	-0.07787026
28	0x3e25c112	0.16186932
29	0xbe20c7fd	-0.1570129
30	0x3dac899b	0.08424684
31	0x3e23630a	0.15955749
32	0x3e256cc3	0.1615477
33	0xbd5c96c6	-0.053854726
34	0x3da6a234	0.081364065
35	0xbcab620f	-0.020920781
36	0x3c0ae252	0.0084768105
37	0x3da8e4ba	0.08246751
38	0xbe04f235	-0.1298302
39	0x3d9816f4	0.07426253
40	0x3e0d80a3	0.13818602
41	0xbdb0194b	-0.08598574
42	0x3d747726	0.05968394
43	0x3e05eeba	0.13079348
44	0x3d22a1e9	0.03970519
45	0xbc49fafc	-0.012327906
46	0x3dad27c8	0.08454853
47	0x3d922d4f	0.07137548
48	0xbd04067c	-0.032232746
49	0x3cadc74b	0.021213194
50	0x3dc7fe45	0.09765295
51	0xbd0b2d1d	-0.03397857
52	0xbcf2205d	-0.029556448
53	0xbcf3f4ec	-0.029779874
54	0xbdaf05e7	-0.08546048
55	0x3e39447c	0.18092531
56	0xbe2faeef	-0.17156576
57	0xbd80aa3a	-0.06282468
58	0x3da27936	0.079332754
59	0xbe08f1d4	-0.133735
60	0x3d0fc9b6	0.035104476
61	0x3d0252ea	0.031817354
62	0xbe13068d	-0.14357968
63	0xbd5621f5	-0.052278478
64	0xbded8cd0	-0.115991235
65	0x3d1cd2b0	0.038286865
66	0xbd63da29	-0.055627976
67	0x3e073a85	0.13205917
68	0x3cee7cbc	0.029112212
69	0xbd836213	-0.064151905
70	0x3e30afa5	0.17254503
71	0x3ca96592	0.020678315
72	0xbdd4b49e	-0.103860125
73	0x3e3198bb	0.17343418
74	0x3d6fd8d2	0.058556385
75	0x3ea256ba	0.31706792
76	0xbeeb30f5	-0.4593579
77	0x3debe421	0.115181215
78	0x3e75fd1d	0.24022336
79	0x3e1629ee	0.14664432
80	0x3e96257b	0.2932547
81	0x3e805503	0.2506486
82	0xbeaecfbf	-0.34142873
83	0x3dcc9589	0.09989459
84	0xbdadec3c	-0.08492324
85	0xbbf8e437	-0.0075955647
86	0xbbdb2f38	-0.0066889785
87	0xbe373241	-0.17890264
88	0x3ec9e110	0.39429522
89	0xbd1d5a73	-0.038416337
90	0xbeae2d2e	-0.34018844
91	0xbc434f14	-0.011920709
92	0x3c01383a	0.007886941
93	0x3d46ed9f	0.048566457
94	0xbc8d3ba4	-0.017240353
95	0xbdbfd60a	-0.093669966
96	0x3e4908a8	0.19632208
97	0xbc4d26da	-0.01252147
98	0xbe88e9e3	-0.2674094
99	0xbdc3fc84	-0.09569648
100	0xbe354435	-0.177018
101	0xbc7a5256	-0.0152784195
102	0x3d635c51	0.05550796
103	0x3e24eb04	0.16105276
104	0xbdbbed32	-0.09176101
105	0x3de9c92f	0.11415326
106	0x3ece7745	0.4032537
107	0x3e826dee	0.25474495
108	0xbe32ba24	-0.1745382
109	0x3f505042	0.81372464
110	0x3e41f37a	0.18940535
111	0x3e45d1d4	0.19318324
112	0xbe81f89d	-0.2538499
113	0x3eb1a3b7	0.34695217
114	0xbd80efd7	-0.06295746
115	0xbecfdb71	-0.40597108
116	0xbed5acaf	-0.4173331
117	0x3d29f724	0.041495457
118	0x3cdad6d6	0.02671377
119	0xbebd7c98	-0.3700912
120	0xbd428241	-0.0474875
121	0x3e6646f6	0.22488007
122	0x3e18bb2a	0.14915147
123	0xbdc7de7c	-0.097592324
124	0xbc77bfec	-0.015121441
125	0x3e37c3e9	0.17945828
126	0xbe03f4bd	-0.12886329
127	0xbca0732e	-0.019586172
128	0xbd869e98	-0.06573218
129	0xbe00e521	-0.12587406
130	0xbd1363d6	-0.035983883
131	0xbd64c50c	-0.05585198
132	0xbe6c9f24	-0.23107582
133	0xbdb579e4	-0.088611394
134	0xbe1286fd	-0.14309306
135	0x3d9e48ea	0.07728751
136	0x3ef909ba	0.48640233
137	0x3e8b2661	0.27177718
138	0x3db24ab1	0.087056525
139	0x3e40f344	0.18842798
140	0x3e39046e	0.18068096
141	0xbe133854	-0.14376956
142	0xbed686ae	-0.41899627
143	0xbe171780	-0.14755058
144	0x3e7f19f4	0.24912244
145	0x3e57c3ee	0.21070835
146	0xbd2bb1cf	-0.04191762
147	0x3e59dfad	0.21276732
148	0x3e8af355	0.27138773
149	0x3db3520a	0.08755882
150	0x3cee84a4	0.029115982
151	0x3e027463	0.1273971
152	0x3ce0262b	0.02736195
153	0x3bce1016	0.0062885387
154	0x3dddbe84	0.108273536
155	0x3e2ffca8	0.17186224
156	0xbd725494	-0.05916269
157	0xbc2520b2	-0.010078596
158	0x3d7a2f40	0.061080217
159	0xbd1d2a5c	-0.038370475
160	0xbd08f59a	-0.03343735
161	0x3d817c66	0.06322555
162	0x3e6642dd	0.22486444
163	0x3e34bc07	0.17649852
164	0x3dd33e1e	0.10314582
165	0x3d88e597	0.06684416
166	0x3d68fd1f	0.05688202
167	0x3c27bea5	0.010238324
168	0xbd2addc8	-0.041715413
169	0xbd3b8041	-0.04577661
170	0xbd0b5dbd	-0.034024943
171	0xbe184507	-0.14870082
172	0xbe5a3ec3	-0.21313004
173	0xbde83700	-0.113386154
174	0xbe427ec9	-0.18993677
175	0xbec44048	-0.38330293
176	0xbea19d0a	-0.31565124
177	0xbe2e3ae7	-0.17014657
178	0xbe8faaca	-0.2805999
179	0xbe64625f	-0.2230315
180	0x3db6b506	0.08921246
181	0xbd00d63b	-0.031454306
182	0xbb664e52	-0.0035141897
183	0x3d3b0893	0.045662474
184	0xbd13275d	-0.03592621
185	0x3ccc9fed	0.024978602
186	0xbd2c2cbe	-0.042034857
187	0xbbba6f4b	-0.0056895367
188	0x3e194606	0.14968118
189	0xbe4e589c	-0.2015099
190	0xbc97f8b3	-0.018551206
191	0x3d97680a	0.07392891
192	0xbd8cb301	-0.0687008
193	0x3dc1d4d8	0.09464425
194	0x3e92cd96	0.28672475
195	0xbcc7bcce	-0.024382021
196	0x3dd0132e	0.10159908
197	0x3ea0e9c5	0.31428352
198	0xbd7e869f	-0.062140103
199	0xbe10192b	-0.14072101
200	0xbe16f89e	-0.14743277
201	0x3d5f6e92	0.054548807
202	0x3d80d767	0.06291085
203	0xbcbbcf3c	-0.022925965
204	0xbdbdeaa8	-0.09273273
205	0xbdd911d0	-0.105991006
206	0xbd39070b	-0.045172732
207	0xbdf3e06f	-0.11908042
208	0x3b9a528b	0.004709547
209	0x3d5d0e58	0.053968757
210	0xbba973ae	-0.005171261
211	0x3db152a5	0.08658341
212	0x3e2369e3	0.15958361
213	0xbdb0d9a8	-0.08635265
214	0x3ca6d27f	0.020364044
215	0x3d124865	0.035713572
216	0x3de9baef	0.11412608
217	0x3d9443e4	0.072395116
218	0xbdeb334b	-0.11484393
219	0xbd6bd1b4	-0.057573035
220	0x3e279cb7	0.16368376
221	0xbe1853d7	-0.14875732
222	0x3ddfb04c	0.10922298
223	0xbbbaadcb	-0.0056969873
224	0xbe36f9a9	-0.17868675
225	0xbc056695	-0.008142133
226	0xbcc111ae	-0.023568
227	0x3d1fd33f	0.03901982
228	0x3d7fc717	0.062445726
229	0xbe0875f5	-0.13326247
230	0x3de8d73b	0.11369177
231	0xbc29a913	-0.010355252
232	0x3d966fc7	0.073455386
233	0x3d822660	0.06354976
234	0x3e938b59	0.2881725
235	0xbceefcf1	-0.029173346
236	0xbe9aa6ed	-0.3020548
237	0x3eb76e53	0.35826358
238	0x3e62fc3e	0.22166535
239	0x3d1ff3a1	0.039050702
240	0x3e0d3378	0.13789165
241	0x3dde6856	0.10859744
242	0xbd67d521	-0.05659974
243	0xbda652b4	-0.08121243
244	0xbcbca3d9	-0.023027347
245	0xbd8e3cfb	-0.06945225
246	0xbd8aa4c7	-0.0676971
247	0xbe058cd3	-0.13042001
248	0xbd6c8633	-0.05774517
249	0xbdc19ce3	-0.09453752
250	0xbc7416e8	-0.014898039
251	0xbdd43084	-0.10360816
252	0xbd0f2621	-0.034948472
253	0xbe8e806e	-0.2783236
254	0xbe2948b0	-0.16531634
255	0xbca2f9f4	-0.019894578

layer1.0.conv2.bias f4 [16]
0	0xbb809810	-0.0039243773
1	0x3c5ee228	0.013603725
2	0xbb98f095	-0.0046673515
3	0x3ace3ead	0.0015735232
4	0x3bd0c654	0.006371299
5	0x3b89a06e	0.004200033
6	0xbb2a1b55	-0.0025956233
7	0xbbc0148b	-0.005861824
8	0x3bea7067	0.0071545127
9	0xbbb51df1	-0.005527251
10	0xbc018283	-0.007904652
11	0x3c1de301	0.0096366415
12	0xbbe73a91	-0.007056542
13	0x3b762427	0.003755817
14	0xb9cf6681	-0.00039558488
15	0x3a892a4b	0.0010464875

layer1.0.bn2.weight f4 [16]
0	0x3f71ce34	0.94455266
1	0x3f124339	0.57133824
2	0x3f13b8cf	0.5770387
3	0x3f1c15e5	0.6097091
4	0x3f0a6fb2	0.54076684
5	0x3f0e0413	0.55474967
6	0x3f887edb	1.0663713
7	0x3fab0ad1	1.3362676
8	0x3f7e1047	0.9924359
9	0x3f6bb151	0.9206744
10	0x3f2978b1	0.66199785
11	0x3fb86458	1.4405622
12	0x3f83c37d	1.0294033
13	0x3f92271c	1.1418185
14	0x3f3f0744	0.7462046
15	0x3f8d0e7b	1.1020044

layer1.0.bn2.bias f4 [16]
0	0xbe66226a	-0.22474065
1	0x3ed0432b	0.40676245
2	0x3f11852c	0.5684383
3	0x3ee58bfd	0.44833365
4	0xbf307f7c	-0.68944526
5	0x3eb2fd3f	0.34958836
6	0xbe92db9c	-0.28683174
7	0x3cd02270	0.025407046
8	0x3e22c8e1	0.15896942
9	0xbc19ba35	-0.009382774
10	0x3f08b02a	0.53393805
11	0xbca2cab0	-0.01987204
12	0xbe007a33	-0.12546615
13	0x3f04b42a	0.5183741
14	0x3c9470dc	0.018120222
15	0x3eb4b158	0.35291553

layer1.0.bn2.running_mean f4 [16]
0	0x3f84631c	1.0342746
1	0xbdf3915d	-0.1189296
2	0x3e968bd4	0.29403555
3	0xbeb48239	-0.35255602
4	0x3f112283	0.56693286
5	0x3ed26236	0.41090554
6	0x3f13bc03	0.5770876
7	0x3ee0f881	0.43939593
8	0xbe1f99e3	-0.15586047
9	0xbf6d30aa	-0.9265238
10	0x3cb0c1e5	0.021576831
11	0xbf267ebe	-0.65037143
12	0xbf6fa23c	-0.93606925
13	0xbf4dee71	-0.8044196
14	0xbfbfcad3	-1.4983772
15	0xc00edc22	-2.2321858

layer1.0.bn2.running_var f4 [16]
0	0x40377d48	2.8670216
1	0x3f8a2c86	1.0794837
2	0x3ff08317	1.8790005
3	0x404175ab	3.022807
4	0x3f973bc0	1.1815109
5	0x3fc9f0b4	1.5776582
6	0x407e341b	3.9719303
7	0x404280a8	3.0391026
8	0x3fcf5807	1.6198739
9	0x3ffe9110	1.988802
10	0x40428455	3.039327
11	0x400c6fb2	2.1943173
12	0x40213f27	2.5194795
13	0x40801bb7	4.003383
14	0x3fb3c904	1.404572
15	0x408be13d	4.371245

layer1.1.conv1.weight f4 [16, 16, 3, 3]
0	0xbd64c249	-0.055849347
1	0x3cc80386	0.024415743
2	0x3c12a3e0	0.008950204
3	0x3e863b63	0.26217183
4	0x3db41a7e	0.087941155
5	0x3bb2e4dc	0.005459411
6	0x3ec0b8d0	0.37641
7	0x3e3815b3	0.17977028
8	0xbeaa9803	-0.333191
9	0xbabdbb74	-0.0014475421
10	0xbd91181e	-0.07084678
11	0xbcf6bbae	-0.03011879
12	0x3d255da7	0.040372517
13	0x3b4bfe61	0.0031126963
14	0x3cfa90d5	0.03058664
15	0xbd84081e	-0.06446861
16	0xbd8cfa8e	-0.06883727
17	0x3d8de979	0.06929297
18	0x3d9679f7	0.07347482
19	0x3d5396d8	0.051657528
20	0xbd2a84f8	-0.041630715
21	0x3d592ff6	0.053024255
22	0x3cfeb113	0.031090295
23	0xbd776b16	-0.06040486
24	0x3dc70ba8	0.0971902
25	0x3c8e38ef	0.017361132
26	0x39c62b93	0.00037797968
27	0xbd36b2ae	-0.044603996
28	0x3caf5415	0.021402398
29	0xbd9723e9	-0.07379896
30	0x3c8f6691	0.017504962
31	0x3d9809de	0.07423757
32	0xbc33b050	-0.010967329
33	0x3ca6de00	0.02036953
34	0x3d016b96	0.031596743
35	0xbd402edf	-0.0469197
36	0xbd4e0358	-0.050296158
37	0xbd9e7741	-0.0773759
38	0xbdd42ca2	-0.103600755
39	0x3e043d87	0.12914096
40	0x3daf6739	0.0856461
41	0x3d9edfc0	0.07757521
42	0xbcc5f91e	-0.02416664
43	0xbc703866	-0.014661884
44	0xbd4b787d	-0.049675453
45	0xbd88cfd3	-0.06680264
46	0xbc272709	-0.010202178
47	0x3db7f140	0.08981562
48	0x3d28261a	0.04105196
49	0x3d64dad8	0.05587277
50	0x3cefa522	0.029253546
51	0xbe314373	-0.17310886
52	0xbc9de737	-0.01927529
53	0x3ae67fc5	0.0017585686
54	0x3e655c87	0.22398578
55	0x3e9df30b	0.3084949
56	0x3d1e97d1	0.038719002
57	0x3e4f0cc2	0.2021971
58	0x3eebc892	0.4605146
59	0xbd7569b3	-0.059915256
60	0xbe9e0ed1	-0.3087068
61	0xbd5cb8cf	-0.053887185
62	0xbe67c3c2	-0.2263327
63	0x3d697b88	0.057002574
64	0x3e495faf	0.19665407
65	0xbdf5800e	-0.11987315
66	0xbe4490f2	-0.19195917
67	0x3d926942	0.071489826
68	0xbe42adf1	-0.19011666
69	0xbcf74670	-0.030184954
70	0x3e667bfb	0.22508232
71	0x3cee3b51	0.029081019
72	0xbe961157	-0.29310104
73	0xbeb5258b	-0.35380206
74	0x3bac015f	0.005249187
75	0x3d4e9f74	0.050445035
76	0x3cf8c06f	0.030365197
77	0x3de3fa06	0.111316726
78	0xbe11b817	-0.14230381
79	0xbe200f95	-0.15630944
80	0x3de8b8e1	0.11363388
81	0x3de51857	0.11186283
82	0xbd8f46de	-0.06995939
83	0xbe0524f5	-0.13002379
84	0x3e8bd250	0.27308893
85	0x3d513f7f	0.051085945
86	0xbe8ecd84	-0.2789117
87	0xbcbd156a	-0.0230815
88	0xbe2825de	-0.16420695
89	0xbe2741e6	-0.16333732
90	0x3df7a438	0.12091869
91	0x3e3e18f7	0.18564211
92	0x3e3b2935	0.18277438
93	0xbe023b09	-0.12717833
94	0xbd5b8c6c	-0.053600714
95	0xbd07e7f6	-0.0331802
96	0xbdca7daa	-0.0988725
97	0xbab0bf9d	-0.001348484
98	0xbda53553	-0.080668114
99	0xbe5911fe	-0.2119827
100	0xbdc42161	-0.09576679
101	0xbd0ba57d	-0.03409337
102	0x3dc7ba8b	0.09752377
103	0x3e8ecc56	0.2789027
104	0xbd5e3163	-0.054246318
105	0x3e2b3d8b	0.16722696
106	0xbce80db6	-0.02832685
107	0xbe555a95	-0.20835336
108	0xbe9ffacb	-0.31246027
109	0xbe221c82	-0.15831187
110	0x3d8ac3d1	0.0677563
111	0x3e146122	0.14490178
112	0xbd0a4620	-0.033758283
113	0x3e9fac86	0.31186312
114	0xbbd13103	-0.0063840165
115	0xbe1eb39b	-0.15498202
116	0xbd712d98	-0.058881372
117	0xbe8fa09b	-0.2805222
118	0xbe15ac11	-0.1461642
119	0xbdb066ad	-0.08613334
120	0xbc052879	-0.008127325
121	0x3d762fc6	0.060104154
122	0xbc291cbe	-0.010321794
123	0xbe102780	-0.14077568
124	0x3b91e68b	0.0044525317
125	0x3e21ee5c	0.15813583
126	0xbac2c0f1	-0.0014858526
127	0xbc4a3549	-0.012341806
128	0x3d032f92	0.03202779
129	0x3d4825ee	0.048864298
130	0x3d9b4c31	0.07582892
131	0x3d7d137d	0.061786164
132	0xbc0ee386	-0.008721238
133	0x3e367bd5	0.17820676
134	0x3e261995	0.16220696
135	0x3db7c784	0.089736015
136	0x3e42a509	0.19008268
137	0x3dee29e5	0.116290845
138	0x3e760359	0.24024715
139	0x3e7fb7ed	0.24972506
140	0x3ded727c	0.11594102
141	0x3d252b0b	0.040324252
142	0x3cadda9f	0.02122241
143	0xbd2248ee	-0.039620332
144	0xbde46773	-0.11152544
145	0xbe8a5b62	-0.27022845
146	0xbe8505ea	-0.25981075
147	0xbe9d94f0	-0.30777693
148	0x3cb38ce9	0.021917777
149	0xbedf3632	-0.43596035
150	0x3b4fdf80	0.003171891
151	0xbe4d3b0d	-0.20042057
152	0xbed2d5b4	-0.41178668
153	0xbde2370a	-0.11045654
154	0x3d6e4fc1	0.058181528
155	0x3e6b986c	0.23007363
156	0x3dc42129	0.09576637
157	0x3dc46713	0.09589972
158	0xbd008cf5	-0.031384427
159	0x3c2fde60	0.010734171
160	0xbbc3718e	-0.0059644645
161	0xbd01cd07	-0.03168967
162	0x3d10442a	0.035221256
163	0xbd5b56df	-0.053549644
164	0xbdb091a7	-0.08621531
165	0x3d38644c	0.045017526
166	0xbe09ed6f	-0.1346948
167	0xbdc7b4b1	-0.09751261
168	0xbdb690dd	-0.08914349
169	0xbde464a5	-0.11152009
170	0x3e196ead	0.14983626
171	0xbd3afdf2	-0.045652337
172	0x3da04195	0.07825009
173	0x3deb9270	0.1150254
174	0x3db82983	0.08992293
175	0x3d94f51f	0.07273316
176	0xbda2d460	-0.079506636
177	0x3c16a344	0.009194199
178	0xbddbd471	-0.10733879
179	0xbd265a6d	-0.04061358
180	0x3e20d5eb	0.15706603
181	0x3e0460a8	0.12927496
182	0x3d81f32a	0.06345208
183	0x3d895adc	0.06706783
184	0xbccdfbce	-0.025144484
185	0xbd8c1a28	-0.068409264
186	0x3c9d6277	0.01921199
187	0xbd070d84	-0.032971874
188	0xbc8a89de	-0.016911443
189	0xbc760c00	-0.015017509
190	0x3c3bb055	0.011455615
191	0x3d9e26b9	0.077222295
192	0x3e317053	0.17328005
193	0xbd8554b1	-0.06510294
194	0x3cab31cf	0.020897774
195	0xbdae46da	-0.085096076
196	0xbde6ec91	-0.1127559
197	0xbe88c633	-0.26713714
198	0xbe32e4f3	-0.1747015
199	0x3e428c84	0.18998915
200	0xbe00762b	-0.12545078
201	0x3d5b515a	0.05354438
202	0xbf1324a3	-0.5747778
203	0xbdc618f9	-0.09672732
204	0xbef72da2	-0.48277003
205	0xbdd7d60b	-0.10538872
206	0xbe0866c2	-0.13320449
207	0x3eb38189	0.35059765
208	0xbcd8367d	-0.02639317
209	0xbda7c693	-0.08192172
210	0xbdace2ba	-0.08441682
211	0xbed954ea	-0.42447597
212	0x3efe983a	0.49725515
213	0xbe86b03b	-0.26306328
214	0x3f2fd2e3	0.6868116
215	0xbd1dfaf9	-0.038569424
216	0xbd340eec	-0.043959543
217	0xbe623f94	-0.22094566
218	0xbcd1c0cf	-0.025604634
219	0xbec8d287	-0.3922312
220	0x3d61db6c	0.055140898
221	0x3ed14501	0.40872958
222	0x3dc15057	0.09439152
223	0x3e27490a	0.16336456
224	0xbe9ec14b	-0.31006846
225	0xbad277fd	-0.0016057488
226	0x3d1da49a	0.038487054
227	0xbd8a4fba	-0.06753488
228	0xbe284f2b	-0.1643645
229	0x3c21790f	0.009855523
230	0xbe30450c	-0.1721384
231	0xbb5a61b9	-0.0033322407
232	0x3d86dca0	0.0658505
233	0xbe3712c1	-0.17878248
234	0xbe936e89	-0.2879527
235	0xbe6ebdef	-0.23314641
236	0x3b19705a	0.0023412914
237	0xbde6450c	-0.112436384
238	0x3d9d5a1c	0.076832026
239	0xbd15ffce	-0.036620907
240	0x3dd40479	0.103524156
241	0x3d6d18b8	0.0578849
242	0xbd01499f	-0.03156435
243	0xbef9cc38	-0.4878862
244	0x3f06e6a4	0.5269568
245	0x3de0fcda	0.109857276
246	0x3f0dd1b7	0.55398124
247	0x3da74bd7	0.08168762
248	0xbf37850f	-0.71687406
249	0x3e0e77b9	0.13912858
250	0xbf2e1bf6	-0.68011415
251	0x3eace086	0.33765048
252	0x3e153493	0.14570837
253	0xbe442d31	-0.19157864
254	0x3bb5196f	0.0055267136
255	0x3b3943a0	0.0028269067

layer1.1.conv1.bias f4 [16]
0	0xba9e5954	-0.0012081065
1	0xbc00bf6a	-0.007858137
2	0x3bb948bf	0.005654424
3	0x3a0d2a18	0.00053849956
4	0xbbca3b33	-0.006171608
5	0x3bf60da4	0.0075089503
6	0xbbfef5a1	-0.007780746
7	0xbc0778ce	-0.008268548
8	0xbc099a77	-0.008398644
9	0xbb866423	-0.0041012927
10	0x3be362b2	0.0069392556
11	0xbac857df	-0.0015284977
12	0x3c1f01cf	0.009705021
13	0xba84cac7	-0.0010131233
14	0xbc0387cc	-0.008027982
15	0x39e86a1f	0.00044329555

layer1.1.bn1.weight f4 [16]
0	0x3f5cf088	0.8630452
1	0x3f765073	0.96216506
2	0x3f1fa115	0.62355167
3	0x3f648472	0.89264596
4	0x3f62e262	0.8862668
5	0x3f40baea	0.7528521
6	0x3f4cd23f	0.8000831
7	0x3f4797c0	0.7796593
8	0x3f596815	0.8492444
9	0x3f470f70	0.7775793
10	0x3f810f50	1.0082798
11	0x3f6cf3d9	0.9255958
12	0x3f30cc59	0.6906181
13	0x3f93d31a	1.1548798
14	0x3f4c64aa	0.798411
15	0x3f4bb4bd	0.7957266

layer1.1.bn1.bias f4 [16]
0	0xbf201034	-0.62524724
1	0xbea8887b	-0.32916626
2	0xbf03073c	-0.51182914
3	0xbeb2bb76	-0.34908646
4	0xbf02c822	-0.5108663
5	0xbf095fa1	-0.53661543
6	0xbe75dae6	-0.24009284
7	0xbe1e7230	-0.15473247
8	0xbee56b83	-0.44808587
9	0xbedfbb4e	-0.4369759
10	0xbec27484	-0.3797952
11	0xbe2c4a54	-0.16825229
12	0xbe81867d	-0.2529792
13	0xbe942381	-0.28933337
14	0xbe964d0e	-0.29355663
15	0xbec86a65	-0.39143673

layer1.1.bn1.running_mean f4 [16]
0	0x3f5c3d23	0.8603079
1	0xc05319f9	-3.2984602
2	0x4044533f	3.067581
3	0xc0867c8e	-4.2027044
4	0xc08263f6	-4.0747023
5	0xc03bd547	-2.9348924
6	0xbf55c99f	-0.83510774
7	0xbf28860c	-0.6582954
8	0xc003c9a7	-2.059183
9	0xc0361eb4	-2.845624
10	0xc008bb4b	-2.1364315
11	0x3e9c6dc5	0.30552498
12	0x40432797	3.0492914
13	0xbfbd0da3	-1.4769787
14	0xc05eb4ad	-3.4797776
15	0xc04cbb84	-3.198945

layer1.1.bn1.running_var f4 [16]
0	0x40993487	4.787662
1	0x417d1443	15.817447
2	0x40028c7f	2.0398252
3	0x412f3d02	10.9523945
4	0x40fc3bb8	7.88229
5	0x40466688	3.100008
6	0x40db3d00	6.8511963
7	0x41988425	19.064524
8	0x409c8e94	4.8924046
9	0x405aed46	3.420732
10	0x41bd81ba	23.688343
11	0x42154258	37.31479
12	0x40889a9e	4.268874
13	0x42600ca1	56.012333
14	0x40c2e595	6.090525
15	0x408b1dee	4.3474035

layer1.1.conv2.weight f4 [16, 16, 3, 3]
0	0xbe92f46d	-0.28702107
1	0xbe549a37	-0.20761953
2	0xbe47fc5e	-0.19529864
3	0xbec1794a	-0.3778785
4	0xbe078b5c	-0.13236755
5	0xbe093e0a	-0.13402572
6	0xbea07617	-0.31340095
7	0xbe1b6e77	-0.15178858
8	0xbd3d0cd1	-0.0461548
9	0x3e15ef26	0.14642009
10	0x3e158777	0.14602457
11	0x3dd70da6	0.1050065
12	0x3ea24ba5	0.31698337
13	0x3e5d356a	0.21602407
14	0x3ec0a6fd	0.37627402
15	0x3e642da4	0.22283036
16	0x3e7899f3	0.24277477
17	0x3e6f3df9	0.23363484
18	0x3d8349d5	0.06410567
19	0x3da8a563	0.0823467
20	0x3d8d7b32	0.06908263
21	0xbe82f6ea	-0.25579005
22	0xbe7e1e8c	-0.2481634
23	0xbe5b6450	-0.21424985
24	0xbd80c772	-0.06288041
25	0xbc9aa749	-0.018878596
26	0xbc0e10c9	-0.008670994
27	0x3e9ca0d1	0.30591443
28	0x3d489e24	0.04897894
29	0x3e8b0e09	0.27159145
30	0x3e9e0312	0.30861717
31	0x3eac2fc5	0.33630195
32	0x3e179c9c	0.14805835
33	0x3e796cd6	0.24357924
34	0x3e1d79d0	0.15378499
35	0x3e4aa7e5	0.19790609
36	0x3e560101	0.2089882
37	0xbe80954f	-0.25113913
38	0xbddf5e38	-0.10906643
39	0x3e4cc1aa	0.19995752
40	0xbc7594d3	-0.014989096
41	0xbdcc647d	-0.09980104
42	0xbe100d4a	-0.1406757
43	0x3d90c4cb	0.07068785
44	0x3da2d038	0.07949871
45	0xbdf8baf9	-0.12145037
46	0x3e011d93	0.12608938
47	0x3d94d579	0.07267279
48	0xbd9e70d2	-0.077363625
49	0x3decdc1f	0.11565422
50	0x3e56662c	0.20937413
51	0xbddc1bf5	-0.1074752
52	0xbd3c6dc4	-0.04600312
53	0xbdff6234	-0.12469903
54	0xbc85af6f	-0.016319005
55	0xbe163f2b	-0.14672534
56	0xbd9e384e	-0.07725583
57	0xbddbc29a	-0.10730477
58	0x3d3eeeef	0.046614584
59	0xbdab6cb5	-0.083703436
60	0xbbe223c5	-0.0069012367
61	0xbd008dd1	-0.031385247
62	0x3e48c3a1	0.19605877
63	0xbe413a8e	-0.18869993
64	0xbdcf9c60	-0.10137248
65	0x3c12b870	0.008955106
66	0x3cc5b9c3	0.02413643
67	0x3e977d76	0.29587907
68	0x3e266a62	0.1625152
69	0x3e452e46	0.19255933
70	0x3eb9f2f1	0.36318162
71	0x3d909678	0.0705995
72	0xbb01f666	-0.0019830703
73	0x3c01d2bf	0.007923781
74	0xbce4713d	-0.027886027
75	0x3d330945	0.043710012
76	0xbe0b7dd8	-0.13622224
77	0xbdecb77c	-0.11558434
78	0x3d95db3f	0.073172085
79	0xbe72230f	-0.23646186
80	0xbde18649	-0.11011941
81	0x3c3143c2	0.010819377
82	0x3da0cb43	0.07851269
83	0xbd8c356e	-0.068461284
84	0x3d810673	0.06300058
85	0x3c64404a	0.013931343
86	0xbe69268c	-0.2276861
87	0x3e5ab4da	0.21358052
88	0xbc0b212d	-0.008491796
89	0xbeed38a8	-0.46332288
90	0xbafdaafb	-0.0019353324
91	0xbe29098a	-0.16507545
92	0xbe458e7a	-0.19292632
93	0xbc0574c4	-0.008145515
94	0xbdc78a4d	-0.09743176
95	0xbda005da	-0.07813616
96	0x3c14957a	0.009068841
97	0xbd3fd222	-0.046831258
98	0xbe3b92a1	-0.18317653
99	0x3e0d755b	0.13814299
100	0x3e76dc20	0.24107409
101	0xbcad2454	-0.021135487
102	0x3e829bb4	0.25509417
103	0x3f14ed9c	0.58175063
104	0x3db05fea	0.08612044
105	0x3e453765	0.19259413
106	0x3e5a095d	0.21292634
107	0x3d9b2322	0.075750604
108	0xbe156619	-0.14589728
109	0xbcb0da48	-0.02158846
110	0xbdb4f325	-0.08835439
111	0xbe9a7699	-0.30168608
112	0xbdaae535	-0.08344499
113	0xbda626df	-0.08112883
114	0xbcb85c0e	-0.022504833
115	0x3da9889a	0.08278008
116	0x3e2ee990	0.17081285
117	0xbd8d5ab4	-0.06902066
118	0xbe916df4	-0.284042
119	0xbdaa3e3c	-0.083126515
120	0xbe11687b	-0.14200012
121	0xbe3a0488	-0.18165791
122	0xbcf736cc	-0.030177496
123	0xbd5d521c	-0.054033384
124	0x3d279324	0.04091181
125	0x3dc81667	0.09769898
126	0xbdb17308	-0.086645186
127	0xbc8bef23	-0.017081803
128	0xbce61b15	-0.028089086
129	0xbe0e56bf	-0.13900279
130	0x3cc7298a	0.0243118
131	0x3ddcb4ab	0.10776647
132	0xbe2bc0b7	-0.16772734
133	0x3c33964c	0.010961127
134	0x3e04d1d5	0.1297067
135	0x3d251b51	0.040309254
136	0xbcbb22cc	-0.02284374
137	0x3b9f7a50	0.0048668757
138	0x3d91e922	0.07124545
139	0x3b1de8c9	0.002409505
140	0xbd848284	-0.064702064
141	0x3d3186f2	0.043341585
142	0x3d01f147	0.03172424
143	0xbe242dbf	-0.16033076
144	0xbc89e0e7	-0.016830875
145	0xbd3ae652	-0.045629807
146	0xbde119cb	-0.10991248
147	0xbe3a1596	-0.18172297
148	0xbe8a8ac7	-0.27059004
149	0xbe2d3195	-0.16913445
150	0xbe3f0ef1	-0.18658043
151	0xbe987271	-0.29774812
152	0xbe96dcde	-0.29465383
153	0xbe12d4ab	-0.14338939
154	0xbe538fe8	-0.20660365
155	0xbd941184	-0.07229903
156	0xbe570226	-0.20996913
157	0xbea18b74	-0.31551707
158	0xbe6c3a8e	-0.23069212
159	0xbe66509e	-0.2249169
160	0xbe23b3df	-0.15986584
161	0xbe49623e	-0.19666383
162	0xbc8becac	-0.017080627
163	0x3d2c1af3	0.04201789
164	0x3d01c271	0.031679574
165	0x3bfc80ce	0.0077057844
166	0x3d5091be	0.05092024
167	0x3ca95a73	0.020673012
168	0xbde4288a	-0.11140545
169	0xbe0bc526	-0.13649425
170	0xbe36464a	-0.1780025
171	0x3e51cd86	0.20488557
172	0x3d869e4c	0.065731615
173	0xbd8bddeb	-0.06829437
174	0x3e45fe1c	0.19335216
175	0x3df72797	0.12068098
176	0x3d970ba2	0.07375266
177	0x3d9c750a	0.07639511
178	0x3d342880	0.043983936
179	0x3d944ce6	0.0724123
180	0x3de6991f	0.11259674
181	0x3e4bcac7	0.19901572
182	0x3db7d766	0.08976631
183	0x3dd40892	0.10353197
184	0x3e1be9ec	0.15225953
185	0x3d728844	0.059211984
186	0x3df9f319	0.1220457
187	0x3e1cc9ae	0.1531131
188	0x3cbdfb8f	0.023191242
189	0xbdfb15ca	-0.12260015
190	0xbd5a04ac	-0.05322711
191	0x3d95599c	0.07292482
192	0xbd2f58a0	-0.04280913
193	0xbc8be484	-0.017076738
194	0x3d96c387	0.07361513
195	0x3b2611af	0.002534013
196	0x3de00baf	0.109397285
197	0x3e24b4a7	0.16084538
198	0xbc81781f	-0.015804349
199	0x3df41220	0.119175196
200	0x3e097194	0.13422233
201	0xbdc9b382	-0.098486915
202	0x3d814205	0.0631142
203	0x3e181204	0.14850622
204	0xbe0b5c66	-0.13609466
205	0x3d6eeeb8	0.05833313
206	0xbcf2a2c8	-0.029618636
207	0x3d004e26	0.03132453
208	0xbca29db0	-0.019850582
209	0x3d7021cf	0.058625992
210	0xbdd09f0e	-0.10186587
211	0xbe2aaaf6	-0.16666779
212	0xbd2c1b6b	-0.042018335
213	0xbd9f8560	-0.07789111
214	0xbe3cb0ec	-0.18426865
215	0xbdbb41c6	-0.09143405
216	0x3ce306dc	0.027713232
217	0x3dc0af1c	0.094083995
218	0x3becb28a	0.007223432
219	0x3e14a40b	0.14515702
220	0x3e3a60f4	0.18201047
221	0x3dd21be5	0.10259227
222	0x3e5ae172	0.21375063
223	0x3e88fdff	0.26756284
224	0x3d9ffbd8	0.07811707
225	0xbe19447b	-0.1496753
226	0xbd7f0c68	-0.06226769
227	0xbc00d35d	-0.007862893
228	0xbdfcaee7	-0.123380475
229	0xbdf317c9	-0.11869771
230	0xbd98d768	-0.074629605
231	0xbcbfefbf	-0.02342975
232	0xbc9430ff	-0.01808977
233	0x3d282793	0.041053366
234	0x3d66dcc6	0.05636289
235	0x3c89e100	0.016830921
236	0xbce01929	-0.027355747
237	0xbd6ebfda	-0.058288433
238	0xbe094198	-0.13403928
239	0xbd571997	-0.05251464
240	0xbe0fc4a8	-0.14039862
241	0xbdd623ee	-0.10456072
242	0xbd28d969	-0.041222963
243	0x3cd4fbf4	0.025999047
244	0xbc80942c	-0.015695654
245	0x3df6ae73	0.12044992
246	0xbce58fb0	-0.028022617
247	0xbdc0a4fd	-0.09406469
248	0xbbb0c0f4	-0.0053940956
249	0x3a18d941	0.0005830713
250	0xbd8446fc	-0.06458852
251	0xbb4dd13c	-0.003140523
252	0xbe683700	-0.22677231
253	0x3c85df47	0.016341818
254	0x3d8e4b80	0.06947994
255	0xbe4ed09d	-0.20196767

layer1.1.conv2.bias f4 [16]
0	0x3be44f7c	0.006967483
1	0xbacc45ec	-0.0015584803
2	0x3b12878f	0.0022358631
3	0x3b9bbced	0.0047527463
4	0xbbc393ba	-0.005968538
5	0xbb80195c	-0.003909273
6	0xbc1e56ea	-0.009664277
7	0xbb1b5c39	-0.0023706092
8	0xbafad90d	-0.0019138173
9	0x3c12b123	0.0089533655
10	0x3b52406f	0.0032081862
11	0x3ac59f34	0.0015077353
12	0xbb5d1d71	-0.0033739472
13	0xbb3a18df	-0.0028396172
14	0x394c4022	0.00019478847
15	0x3bf8be1e	0.007591023

layer1.1.bn2.weight f4 [16]
0	0x3f38915d	0.72096807
1	0x3f0315d4	0.5120518
2	0x3f38865a	0.72080004
3	0x3e8f7cfd	0.28025046
4	0x3f3f8965	0.7481902
5	0x3ed4bcaa	0.4155019
6	0x3f0aa6be	0.5416068
7	0x3f663cf3	0.8993675
8	0x3f22fc90	0.6366663
9	0x3f441ee9	0.76609665
10	0x3ee7856e	0.45218986
11	0x3f52e962	0.82387364
12	0x3f79b178	0.9753642
13	0x3f601adb	0.8754098
14	0x3f87e0c3	1.0615467
15	0x3f011e74	0.5043709

layer1.1.bn2.bias f4 [16]
0	0x3eecab8d	0.46224633
1	0x3ed23287	0.41054174
2	0x3e7bf317	0.2460445
3	0x3dfa7c19	0.12230701
4	0xbc85ee9a	-0.016349126
5	0x3de4f846	0.11180167
6	0xbf0fcc97	-0.56171554
7	0xbeca970e	-0.3956837
8	0xbc9c624b	-0.019089838
9	0x3bf23d94	0.0073925946
10	0x3e6cb2ba	0.23115054
11	0xbf7b3444	-0.98126626
12	0x3dacc3a9	0.08435757
13	0xbe90c521	-0.28275397
14	0x3e0329d1	0.1280892
15	0x3df5f3c7	0.120093875

layer1.1.bn2.running_mean f4 [16]
0	0x3ee19953	0.4406229
1	0xbf69b5a5	-0.9129279
2	0xbf8e0703	-1.109589
3	0xbe3934a9	-0.18086495
4	0x3d387672	0.045034833
5	0x3e319a22	0.17343953
6	0xbe83668c	-0.25664175
7	0xbeffbd6a	-0.499492
8	0x3e955b98	0.29171443
9	0xbf8aadad	-1.0834252
10	0xbf769897	-0.96326584
11	0x3eccfcde	0.40036672
12	0xbf1b795c	-0.60732055
13	0xbbeef1ad	-0.0072919936
14	0xbf9ba2d1	-1.2159063
15	0xbf267504	-0.650223

layer1.1.bn2.running_var f4 [16]
0	0x3f894f15	1.0727259
1	0x3f349ec1	0.7055474
2	0x3fc31b4d	1.5242707
3	0x3f342bf5	0.70379573
4	0x3efca377	0.49343464
5	0x3f05160c	0.51986766
6	0x3efb69b6	0.4910409
7	0x3f27bd45	0.6552318
8	0x3f3c749c	0.7361543
9	0x3f3df218	0.7419753
10	0x3f6bbf53	0.9208881
11	0x3f13556d	0.57552224
12	0x3f7a9adf	0.97892565
13	0x3f924a94	1.142901
14	0x3fbdbd69	1.4823428
15	0x3f7acb75	0.979667
