Output/swift-iid-8W-pattern1-half-ring-2sgd-200epochs/r1-epoch_20-parameters.pt (torch, 731706 bytes, 92 tensors)

conv1.weight f4 [16, 3, 3, 3]
0	0xbd78291f	-0.06058609
1	0xbf2b2754	-0.66856885
2	0xbe7ad371	-0.24494721
3	0xbd884b1d	-0.06654952
4	0x3e1b27e6	0.15151939
5	0xbe0db217	-0.13837467
6	0xbdff2499	-0.12458152
7	0x3f2ddcee	0.67915237
8	0x3cf0db89	0.029401558
9	0xbe47bb33	-0.19505005
10	0xbf4fae7a	-0.81125605
11	0xbeb1d974	-0.34736216
12	0x3d764465	0.06012382
13	0x3ef51c9a	0.47873384
14	0x3cc4d744	0.024028428
15	0xbcda0282	-0.026612524
16	0x3f8e7837	1.1130437
17	0x3eb0d088	0.34534097
18	0xbe8f0546	-0.2793371
19	0xbf51a74e	-0.8189591
20	0xbec79a6b	-0.38985
21	0x3d6da01d	0.058014024
22	0x3e9a795f	0.30170724
23	0xbda47cf4	-0.080316454
24	0x3d2d9a53	0.042383503
25	0x3f545097	0.8293547
26	0x3e9d5d5f	0.307353
27	0x3d9bda1e	0.07609962
28	0x3e63bed3	0.22240762
29	0x3e22ca57	0.15897499
30	0xbd5426b5	-0.051794726
31	0xbdba613f	-0.091005795
32	0xbd801344	-0.062536746
33	0xbc8400b6	-0.01611362
34	0xbcd2754b	-0.025690695
35	0xbd917805	-0.0710297
36	0x3e23c570	0.15993285
37	0x3e5ffc8b	0.21873681
38	0x3e13d4dc	0.14436668
39	0xbd231bcb	-0.039821427
40	0x3cfc2ee8	0.030784085
41	0x3c9364ce	0.017992403
42	0xbd79c8cc	-0.06098251
43	0xbcc824af	-0.024431555
44	0xbdc54f19	-0.09634227
45	0x3e9851c4	0.29749882
46	0x3ebcb908	0.36859918
47	0x3ea46ca0	0.32114124
48	0x3e6e5fc6	0.23278722
49	0x3eaa8a1e	0.333085
50	0x3e545a53	0.20737581
51	0x3d8fd45e	0.07022928
52	0x3e202424	0.15638787
53	0x3d16066f	0.03662723
54	0xbe37cd36	-0.17949376
55	0xbecb6182	-0.3972283
56	0xbe062feb	-0.13104217
57	0xbead8c74	-0.3389622
58	0xbecabd3d	-0.39597502
59	0xbeaba71d	-0.33525935
60	0xbec164e4	-0.37772286
61	0xbf0d46a8	-0.5518594
62	0xbea7573a	-0.32683736
63	0xbe21b6cd	-0.15792389
64	0xbdff9230	-0.12479055
65	0xbddecfd4	-0.10879484
66	0x3d6913f0	0.05690378
67	0x3e29bc8e	0.16575834
68	0xbc22fa34	-0.009947348
69	0xbe3cf368	-0.18452227
70	0xbdd282f3	-0.10278883
71	0xbdf561a4	-0.11981514
72	0xbdbdbfe4	-0.09265116
73	0x3dd7495c	0.10512039
74	0xbd47f881	-0.048820976
75	0x3ed58285	0.4170114
76	0x3f448afc	0.76774573
77	0x3f0c52f2	0.54814065
78	0x3e7e0ffe	0.24810788
79	0x3efa494e	0.48884052
80	0x3e9f8ff8	0.31164527
81	0xbd8795c7	-0.06620365
82	0xbe036c30	-0.12834239
83	0x3cde49e6	0.027134847
84	0xbeb135d7	-0.3461139
85	0xbee02db3	-0.43784866
86	0xbeb178d0	-0.34662485
87	0xbea848cd	-0.32868043
88	0xbed48a30	-0.4151168
89	0xbe98fd05	-0.2988054
90	0xbe195ab1	-0.14976002
91	0xbdd4b5d4	-0.103862435
92	0xbdaddb24	-0.084890634
93	0xbd965890	-0.07341111
94	0x3c331b27	0.010931767
95	0xbd1a00f8	-0.03759858
96	0xbe2fd6b6	-0.1717175
97	0xbb978e3f	-0.0046251114
98	0xbda360bd	-0.07977436
99	0x3d35e6de	0.044409625
100	0x3eceb0c6	0.40369242
101	0x3e40c457	0.18824898
102	0x3eeb2e15	0.45933595
103	0x3f57ee66	0.8434814
104	0x3f1b491c	0.6065843
105	0x3e9ca98d	0.30598107
106	0x3f10d48d	0.56574327
107	0x3ed9fbdd	0.4257497
108	0x3e26be73	0.16283588
109	0xbe0722ce	-0.1319687
110	0x3e982ad2	0.2972017
111	0xbe66875b	-0.22512572
112	0xbf1e1a7a	-0.6175915
113	0xbd9ec6d8	-0.0775277
114	0x3e2d6e92	0.1693671
115	0xbdd11492	-0.102090016
116	0x3e182ae4	0.14860111
117	0x3debf94b	0.11522158
118	0xbe8d7b47	-0.27633116
119	0x3dd76b24	0.10518482
120	0xbea41f63	-0.32055196
121	0xbf2f92fe	-0.6858367
122	0xbe8bc622	-0.272996
123	0x3e180f96	0.14849696
124	0xbe43dec4	-0.19127947
125	0x3d36a001	0.044586185
126	0x3ded5da7	0.115901284
127	0xbd38cbe8	-0.045116335
128	0x3d72c7d2	0.059272595
129	0xbe822d49	-0.25425175
130	0xbf024aac	-0.5089519
131	0xbe9123e8	-0.28347707
132	0x3e057a56	0.13034949
133	0xbc4d21a3	-0.012520227
134	0x3dbfefd8	0.093719184
135	0x3ecbdf99	0.3981903
136	0x3f451166	0.7697967
137	0x3f1a2fe8	0.6022935
138	0x3f31f8ec	0.6952045
139	0x3f4c31f4	0.7976372
140	0x3e9a0e48	0.3008902
141	0x3dd49817	0.10380571
142	0xbe23d418	-0.15998876
143	0xbe93eca4	-0.2889148
144	0xbe8773c9	-0.26455525
145	0xbf3417f1	-0.7034903
146	0xbf34aae2	-0.70573246
147	0xbded010f	-0.115724675
148	0xbf59b537	-0.85042137
149	0xbf9e018e	-1.2344224
150	0xbd5dc505	-0.05414297
151	0xbf3396d2	-0.7015201
152	0xbf3a9fb1	-0.7289992
153	0x3e1ab00f	0.15106224
154	0x3db9c4dc	0.09070751
155	0x3deaf406	0.11472325
156	0x3e703634	0.23458177
157	0xbc040e50	-0.008060053
158	0xbe84c605	-0.25932327
159	0x3ef93464	0.48672783
160	0x3e8a5a6f	0.2702212
161	0x3e9c134b	0.3048347
162	0x3f0c22a4	0.5474036
163	0x3fa9d029	1.326665
164	0x3f23b8e2	0.63953984
165	0xbda2144f	-0.0791403
166	0xbd0b0de9	-0.033948813
167	0x3dff6407	0.124702506
168	0xbeae7446	-0.34073085
169	0xbf9d421c	-1.22858
170	0xbe9e9fdc	-0.30981338
171	0x3e55a99c	0.20865482
172	0x3f838d10	1.0277424
173	0x3f032637	0.51230186
174	0xbe548e44	-0.20757395
175	0xbea7c8af	-0.32770297
176	0xbb9d1091	-0.0047932346
177	0xbcf3eee8	-0.029777005
178	0xbf7706a8	-0.9649453
179	0xbd4750af	-0.04866093
180	0xbf074150	-0.52834034
181	0x3e0604b2	0.13087729
182	0xbebae3e4	-0.36501992
183	0xbe503e6e	-0.20336315
184	0xbe4f02d8	-0.20215929
185	0xbe31fbfc	-0.1738128
186	0x3f0d80c9	0.55274636
187	0xbdff5c74	-0.12468806
188	0x3f02120f	0.50808805
189	0x3df0d90a	0.11760147
190	0x3d24aa5d	0.040201534
191	0x3dfe0125	0.12402562
192	0x3db5d3d8	0.088782966
193	0x3fb7bb2a	1.4353993
194	0xbe32de1f	-0.17467545
195	0x3e83cfcc	0.25744474
196	0xbf0cec9d	-0.55048543
197	0x3dd079a8	0.10179454
198	0xbe881e6a	-0.26585704
199	0xbe99cff2	-0.30041462
200	0xbedb6d94	-0.4285704
201	0xbe393d53	-0.180898
202	0x3f9711b6	1.180228
203	0xbf08a751	-0.53380305
204	0xbe5f8ae3	-0.21830325
205	0xbf6d7164	-0.92751145
206	0xbebbbd00	-0.36667633
207	0xbdae657b	-0.085154496
208	0xbe5c8eb6	-0.21538815
209	0xbe1809eb	-0.14847533
210	0x3e81bd22	0.2533961
211	0x3fd50aeb	1.6643957
212	0x3da99d39	0.08281941
213	0xb993d59b	-0.00028197173
214	0xbe8ba75b	-0.2727612
215	0x3dc92468	0.09821397
216	0xbe209dc0	-0.15685177
217	0x3e012958	0.12613428
218	0xbbad6852	-0.005291977
219	0xbf8bd34b	-1.0923856
220	0x3ed2ce65	0.41173092
221	0x3f352150	0.70753956
222	0xbe8c5a98	-0.27412868
223	0x3ded90aa	0.11599858
224	0x3c139b1e	0.009009151
225	0xbeb99f2e	-0.36254257
226	0x3d55094e	0.052010827
227	0x3e7601ef	0.24024175
228	0xbfa14ae8	-1.2600985
229	0x3eb9e4ec	0.36307466
230	0x3f791658	0.9729972
231	0xbebd72b0	-0.37001562
232	0x3d455d73	0.048184823
233	0x3e9c81a2	0.30567652
234	0xbe60538e	-0.21906874
235	0x3e113fe9	0.14184536
236	0x3e0b5ad1	0.13608862
237	0xbf8a5678	-1.0807638
238	0x3e9bcd4d	0.3043007
239	0x3f512cfa	0.81709254
240	0xbeb9ae80	-0.36265945
241	0x3d0262fb	0.031832676
242	0x3e371755	0.17879994
243	0x3e1c01c4	0.15235049
244	0xbe5c5d7b	-0.21520035
245	0x3decaf8c	0.115569204
246	0xbe100f99	-0.1406845
247	0xbf14c73f	-0.58116525
248	0xbe9452e0	-0.2896948
249	0xbe138051	-0.14404418
250	0xbf2e87ff	-0.68176264
251	0xbecd87b2	-0.4014259
252	0x3ebdec40	0.37094307
253	0x3deb0f4b	0.11477526
254	0x3e568998	0.20950925
255	0x3ec2dca0	0.3805895

conv1.bias f4 [16]
0	0xbd0179f7	-0.031610455
1	0xbca4446c	-0.020052157
2	0xbcb6f79f	-0.022334872
3	0x3d29c8df	0.04145133
4	0x3d1cab36	0.038249217
5	0xbd35cfee	-0.04438775
6	0xbb0bbb5a	-0.0021321387
7	0x3c2e51c9	0.010639616
8	0xbd0a93a3	-0.033832204
9	0xbd37e1a7	-0.044892933
10	0xbc4d4fa4	-0.012531195
11	0xbca8237f	-0.020524738
12	0xbc899e04	-0.01679898
13	0x3d09b45b	0.033619266
14	0x3c0d42de	0.008621899
15	0xbcfbdcc4	-0.030744918

bn1.weight f4 [16]
0	0x3f7fbce1	0.9989758
1	0x3f43b127	0.7644219
2	0x3f19d695	0.6009305
3	0x3f018e75	0.50608
4	0x3fad8994	1.355761
5	0x3f31c0b7	0.69434685
6	0x3f8d5c2d	1.1043755
7	0x3f9b888f	1.2151049
8	0x3fa91a97	1.321124
9	0x3f18dd30	0.59712505
10	0x3f319acc	0.69376826
11	0x3f81c4ce	1.0138185
12	0x3faba18e	1.3408678
13	0x3f5872e8	0.84550333
14	0x3ee1e7be	0.44122118
15	0x3f4f8168	0.81056833

bn1.bias f4 [16]
0	0x3f317db8	0.69332457
1	0xbeeb4d65	-0.45957485
2	0x3dfa9cde	0.12236951
3	0x3ea45b03	0.32100686
4	0xbf575c8c	-0.8412559
5	0x3e5b507d	0.21417423
6	0x3f36dc5b	0.71429986
7	0x3f8ce83b	1.1008371
8	0x3dbe5586	0.09293656
9	0x3e4b7a51	0.19870879
10	0xbd2522e1	-0.040316466
11	0x3f8f8889	1.1213542
12	0x3eaa1f80	0.33227158
13	0x3ef2fb17	0.4745719
14	0x3ddb78f3	0.107164286
15	0xbd5fe94f	-0.05466586

bn1.running_mean f4 [16]
0	0xbe8f248f	-0.2795758
1	0xbf3dcbdf	-0.7413921
2	0x3e524c2e	0.20536873
3	0xbdf77fe5	-0.12084941
4	0x3f7053a5	0.9387763
5	0x3e96c679	0.29448298
6	0x3c210953	0.009828883
7	0xbea540af	-0.32275912
8	0x3d119644	0.035543695
9	0xbe073c7d	-0.13206668
10	0xbc9579fd	-0.018246645
11	0x3e157256	0.14594397
12	0xbce22db8	-0.027609691
13	0xbd86e128	-0.06585914
14	0xbe41096b	-0.18851249
15	0x3effe8fa	0.49982435

bn1.running_var f4 [16]
0	0x414b364a	12.700754
1	0x411d06da	9.814173
2	0x40ab8e20	5.3610992
3	0x40caaeb0	6.333824
4	0x41491956	12.568686
5	0x40cbe01d	6.3711076
6	0x410e3dad	8.890058
7	0x40c64275	6.1956124
8	0x417e1dc3	15.882266
9	0x40c41e74	6.1287174
10	0x3f8f53ae	1.1197412
11	0x404e6798	3.2250729
12	0x4177c31f	15.485137
13	0x4115a8a9	9.353677
14	0x4046cf99	3.1064208
15	0x408e3193	4.4435515

layer1.0.conv1.weight f4 [16, 16, 3, 3]
0	0xbeab0953	-0.3340555
1	0xbe18885b	-0.14895765
2	0xbdb4da87	-0.08830743
3	0xbdef263e	-0.11677216
4	0xbe16b4e8	-0.14717448
5	0xbe887037	-0.26648113
6	0xbd973bb2	-0.07384433
7	0xbe6b32f9	-0.22968663
8	0xbe96b44f	-0.2943444
9	0xbe144db6	-0.1448277
10	0xbe04b8ec	-0.12961167
11	0xbde05a76	-0.10954754
12	0xbdcbe44e	-0.09955655
13	0xbd326d8d	-0.043561507
14	0xbcbd86b4	-0.02313552
15	0xbd92ce52	-0.07168259
16	0xbb638e69	-0.0034722334
17	0x3d1af5d5	0.0378321
18	0xbe130f63	-0.14361338
19	0xbd3c1e80	-0.045927525
20	0x3d3937fe	0.045219414
21	0xbdf91782	-0.12162687
22	0x3c5e4c63	0.013568017
23	0x3dee2020	0.11627221
24	0xbdc2d00c	-0.09512338
25	0xbd2b62ba	-0.0418422
26	0x3d1c5efb	0.038176518
27	0xbe04a3b4	-0.12953073
28	0x3b5562a1	0.0032560008
29	0x3dece950	0.11567938
30	0xbe543ab0	-0.20725513
31	0xbd7cfc31	-0.061763946
32	0x3d994d39	0.07485432
33	0xbe687c80	-0.22703743
34	0xbdc259a4	-0.09489754
35	0xbab954e8	-0.0014139684
36	0xbe0bb5fe	-0.13643643
37	0xbdb99faa	-0.09063657
38	0xbc4d2dd6	-0.012523135
39	0xbd6f8550	-0.058476746
40	0xbd07ee95	-0.033186514
41	0xbba5d951	-0.0050613065
42	0x3beafae5	0.0071710222
43	0x3d1ea317	0.038729753
44	0x3d66b312	0.05632312
45	0xbdd6c857	-0.104874305
46	0xbd64d190	-0.055863917
47	0xbe3bcb17	-0.18339191
48	0xbc11c122	-0.008896144
49	0x3da2bc80	0.0794611
50	0xbcd1ff47	-0.025634421
51	0x3defaf8a	0.11703403
52	0x3e676cd0	0.22600102
53	0x3e0886b2	0.13332632
54	0x3d497ba5	0.049190182
55	0xbe395205	-0.18097694
56	0xbe39c845	-0.18142803
57	0xbc8c65a7	-0.017138315
58	0xbe443938	-0.19162452
59	0xbe8072af	-0.25087497
60	0xbea64f13	-0.32482204
61	0xbd7c8457	-0.061649647
62	0xbd92e55e	-0.071726546
63	0x3e83823b	0.25685295
64	0x3af318fb	0.0018546873
65	0x3c4f45b9	0.0126509005
66	0xbe30aed0	-0.17254186
67	0x3e4f3a3a	0.20237055
68	0x3eba7046	0.36413783
69	0xbd1bb753	-0.03801663
70	0xbce64a7b	-0.028111687
71	0xbe0b66a8	-0.13613379
72	0xbdc3ffc5	-0.095702685
73	0xbd97a97d	-0.07405374
74	0x3d8c9415	0.06864182
75	0x39f1292f	0.00045997786
76	0x3d96fbc5	0.0737224
77	0x3cb2c747	0.021823538
78	0xbdf9fe28	-0.122066796
79	0xbdf20070	-0.1181649
80	0x3e54b8c8	0.20773613
81	0xbdd0a417	-0.10187548
82	0xb991ab6d	-0.00027784277
83	0x3d3a3631	0.045461837
84	0xbddd174f	-0.107954614
85	0x3d6c87dd	0.057746757
86	0x3ddf4564	0.10901907
87	0xbe52169f	-0.20516442
88	0xbc36ed54	-0.011164982
89	0x3d943e27	0.07238417
90	0x3c8b1f57	0.016982717
91	0xbd20a5c2	-0.03922058
92	0xbe853b01	-0.2602158
93	0x3d9cb1b7	0.07651084
94	0x3d2de8ee	0.042458467
95	0xbd515f8f	-0.051116522
96	0xbe57ece1	-0.21086456
97	0xbdd9ce18	-0.106350124
98	0xbd941bdd	-0.07231877
99	0xbc175884	-0.009237412
100	0x3e7d3283	0.247263
101	0xbdca8d70	-0.09890258
102	0xbe409e7f	-0.18810461
103	0xbe0067f1	-0.1253965
104	0xbdc29d60	-0.09502673
105	0xbd84d0c0	-0.064851284
106	0x3d27bbec	0.0409507
107	0x3e128431	0.1430824
108	0x3d4805df	0.048833724
109	0x3c85e927	0.016346527
110	0xbddfdd6e	-0.10930906
111	0xbe640469	-0.22267307
112	0xbd81aff2	-0.06332387
113	0x3cc96b8c	0.024587415
114	0xbd97a50f	-0.07404529
115	0x3e6f0e35	0.23345263
116	0x3e317723	0.17330603
117	0x3e0878d6	0.13327345
118	0x3df88e50	0.12136519
119	0x3e4eff94	0.20214683
120	0x3e0a8d26	0.13530406
121	0x3e837e7f	0.25682446
122	0x3e97d686	0.29655856
123	0xbd97ad1b	-0.07406064
124	0xbd99a7c3	-0.07502701
125	0x3e2f22ce	0.1710312
126	0xbe3e3cbf	-0.1857786
127	0xbe1a17a9	-0.15048088
128	0xbe3027a3	-0.1720262
129	0xbb7053a9	-0.003667096
130	0x3c1e7b97	0.009673021
131	0xbdae61e6	-0.085147664
132	0xbd9a5db8	-0.07537407
133	0xbdbedd2f	-0.09319531
134	0xbdd9a7d8	-0.10627717
135	0xbdd99f74	-0.106261164
136	0xbd6e69b6	-0.058206283
137	0xbda174d9	-0.07883615
138	0xbd97b886	-0.07408242
139	0xbcf07cb3	-0.029356336
140	0xbcf7c703	-0.030246263
141	0x3d1a1fc2	0.037627943
142	0x3d945d12	0.07244314
143	0x3d555a72	0.05208821
144	0xbcbeb7e2	-0.023281042
145	0x3cb49098	0.022041604
146	0xbc958008	-0.018249527
147	0x3cd5001a	0.026001025
148	0x3c0423f8	0.008065216
149	0x3ce426e4	0.027850576
150	0x3b9f69f9	0.004864928
151	0xbd41e415	-0.047336657
152	0x3ce2de6d	0.027693952
153	0xbcfab27a	-0.030602682
154	0xbdb7a244	-0.089664966
155	0xbdc6227a	-0.09674545
156	0xbc6271ab	-0.013821046
157	0xbd71a442	-0.05899454
158	0xbcff3d6f	-0.031157224
159	0x3d3bd74f	0.04585963
160	0x3ccace1a	0.02475648
161	0xbbec66e6	-0.007214415
162	0xbe1e0dba	-0.15434924
163	0xbe871620	-0.26384068
164	0xbe831cef	-0.25608012
165	0xbe8896b1	-0.26677468
166	0xbeae324a	-0.34022743
167	0xbe9a77f5	-0.30169645
168	0xbe2bce86	-0.16778001
169	0xbe6d297a	-0.23160353
170	0xbe779147	-0.24176513
171	0xbbad97a7	-0.0052976194
172	0xbda87096	-0.08224599
173	0xbdcb4e1b	-0.09927007
174	0xbdc0b772	-0.094099894
175	0xbe50ea6c	-0.20401925
176	0xbe3ccc4b	-0.18437307
177	0xbd9678ab	-0.07347234
178	0xbe37fa3c	-0.1796655
179	0xbe194bb7	-0.14970289
180	0xbcb00530	-0.021486849
181	0xbd458461	-0.04822195
182	0xbc9ab1e5	-0.018883655
183	0xbd269a4d	-0.040674496
184	0xbd753dfe	-0.059873573
185	0xbce9220b	-0.028458616
186	0xbd1a6dbb	-0.037702303
187	0xbd13cc4a	-0.036083497
188	0xbc79d02f	-0.015247389
189	0xbde48d7b	-0.11159798
190	0xbe2b81e0	-0.16748762
191	0xbe19d3dc	-0.15022224
192	0xbdc0e679	-0.09418959
193	0xbddb650a	-0.10712631
194	0xbe0facb7	-0.14030729
195	0x3c0afbf8	0.008482926
196	0xbbde53f0	-0.0067849085
197	0xbdaa2254	-0.08307329
198	0xbe59bbdd	-0.2126307
199	0xbe6298d3	-0.2212861
200	0xbe8845ce	-0.26615757
201	0xbe571734	-0.21004945
202	0xbe4dff66	-0.20116958
203	0xbe736245	-0.23767956
204	0x3c410dd1	0.011783079
205	0x3d952103	0.07281687
206	0xbc24d13b	-0.01005965
207	0x3e024118	0.12720144
208	0xbd3849e6	-0.04499235
209	0x3d2cf3d2	0.042224713
210	0xbd1b4161	-0.037904147
211	0xbd03880a	-0.03211216
212	0xbc6ffe22	-0.014647992
213	0x3e3d77c4	0.18502718
214	0x3db32d29	0.08748848
215	0x3dce2bbf	0.10066938
216	0x3d9d19dc	0.07670948
217	0x3dacbf38	0.084349096
218	0x3d0bcb3a	0.03412936
219	0x3ca8bcee	0.020597901
220	0xbbd461b4	-0.0064813737
221	0xbdd790e9	-0.10525686
222	0xbde36490	-0.11103165
223	0xbdea8eb5	-0.114530005
224	0xbd95f7c6	-0.0732265
225	0xbd1a77b0	-0.0377118
226	0xbe067379	-0.13129987
227	0xbe0ee96c	-0.13956231
228	0xbdc2b5ee	-0.095073566
229	0xbe47cbfc	-0.19511408
230	0xbe35a9b8	-0.17740524
231	0xbd4c1d61	-0.049832705
232	0xbe114dc8	-0.14189827
233	0xbdef724f	-0.116917245
234	0xbd5e8e60	-0.054334998
235	0xbd2dd912	-0.042443343
236	0xbdd13397	-0.10214918
237	0xbe35595f	-0.17709874
238	0xbe83440c	-0.25637853
239	0xbe7891b3	-0.2427433
240	0xbe74dcb1	-0.23912312
241	0xbe771148	-0.24127686
242	0xbe5e7734	-0.2172516
243	0x3cddc3d6	0.02707092
244	0x3d68d445	0.05684306
245	0x3d83f488	0.06443125
246	0xbd40f394	-0.047107294
247	0xbd471428	-0.048603207
248	0x3d82866a	0.06373294
249	0x3c424d45	0.011859243
250	0xbd74c30b	-0.05975632
251	0xbd35f552	-0.04442341
252	0x3db8ec0e	0.09029399
253	0x3cd2db51	0.025739344
254	0x3e1010d8	0.14068925
255	0xbd80dcfb	-0.06292149

layer1.0.conv1.bias f4 [16]
0	0x3b3c313b	0.0028715867
1	0xbc57c1ba	-0.013168747
2	0xbbb45812	-0.005503663
3	0x3b524da5	0.0032089737
4	0xbc87939c	-0.016549878
5	0xbc6f9aaf	-0.014624282
6	0x3b256257	0.0025235617
7	0xbbb3eb09	-0.005490665
8	0x3bf2c16a	0.0074083107
9	0xbbab7550	-0.0052324906
10	0x3c138b54	0.009005386
11	0x3b64ad09	0.0034893176
12	0xbc9c9ba3	-0.019117182
13	0x3b7e57e9	0.0038809723
14	0x3c723c03	0.014784816
15	0xbc0941a0	-0.008377463

layer1.0.bn1.weight f4 [16]
0	0x3f2d564c	0.67709804
1	0x3eb72c92	0.35776192
2	0x3f3050f2	0.6887351
3	0x3f8f1072	1.1176894
4	0x3f468b36	0.7755617
5	0x3f5898da	0.8460823
6	0x3f61d66c	0.88217807
7	0x3f551ec5	0.83250076
8	0x3f8bd346	1.092385
9	0x3f810561	1.0079767
10	0x3f88ab06	1.0677192
11	0x3f8e3d8e	1.1112535
12	0x3fbe8403	1.4884037
13	0x3f9f9363	1.2466854
14	0x3f54d2f2	0.83134377
15	0x3f81b3a2	1.0132945

layer1.0.bn1.bias f4 [16]
0	0xbe1bb747	-0.15206634
1	0x3da40292	0.08008303
2	0xbe9a1e2d	-0.30101147
3	0xbe4b7f8a	-0.19872871
4	0xbe60c955	-0.21951802
5	0xbe35b6b5	-0.17745478
6	0xbe11dc1e	-0.14244124
7	0xbd010a26	-0.03150382
8	0x3ef23871	0.47308686
9	0x3eb34045	0.3500997
10	0xbe8464ac	-0.25858057
11	0x3db024f7	0.086008005
12	0x3f36e213	0.7143871
13	0xbea4c6fc	-0.32183063
14	0xbed76d35	-0.42075506
15	0xbea0c88e	-0.3140301

layer1.0.bn1.running_mean f4 [16]
0	0xbffbe260	-1.9678459
1	0xc04d82e8	-3.211115
2	0xbfda756d	-1.7067086
3	0xc00f845a	-2.242453
4	0x3ebd074d	0.36919633
5	0xc04c1fcf	-3.1894414
6	0xc008adc4	-2.1356058
7	0xbd6ea7b4	-0.058265403
8	0xbfaa2078	-1.3291159
9	0xc032d1fe	-2.794067
10	0xc004210c	-2.064517
11	0xc09218dd	-4.565535
12	0xc015268f	-2.3304784
13	0xbfc334fa	-1.5250542
14	0xc00ccc87	-2.1999834
15	0xbd51c6eb	-0.051215094

layer1.0.bn1.running_var f4 [16]
0	0x400a5366	2.1613402
1	0x405c5472	3.4426541
2	0x409ffa10	4.999275
3	0x4156abf4	13.416981
4	0x3ff2b07b	1.8960108
5	0x404a61ec	3.1622267
6	0x40678a27	3.6178071
7	0x40de9121	6.955216
8	0x407c373b	3.940871
9	0x404cda5e	3.200828
10	0x4144733d	12.278134
11	0x40b10be8	5.5327034
12	0x40c7833a	6.234769
13	0x4127fc7e	10.499144
14	0x402c2dd3	2.690297
15	0x40dbb01d	6.865248

layer1.0.conv2.weight f4 [16, 16, 3, 3]
0	0xbd361d36	-0.04446145
1	0xbdc15301	-0.0943966
2	0x3ba0cb77	0.0049070674
3	0xbe010fba	-0.12603655
4	0xbdc2e286	-0.09515862
5	0xbd13feb0	-0.03613156
6	0x3e1cec51	0.15324523
7	0x3e14be37	0.14525686
8	0x3d5235e7	0.051320937
9	0xbdf6768d	-0.120343305
10	0xbe35ab07	-0.17741023
11	0xbd781227	-0.060564186
12	0xbdfc3309	-0.12314422
13	0xbe066677	-0.13125025
14	0xbdb2179e	-0.08695911
15	0xbd37e3dd	-0.04489504
16	0x3c1eea6a	0.009699443
17	0xbc4bb949	-0.012434312
18	0x3c2b822c	0.010468047
19	0x3df307a6	0.11866693
20	0x3ddbaaee	0.107259616
21	0x3cef5d08	0.029219165
22	0x3bf5cae8	0.007500995
23	0xbc25cd45	-0.010119741
24	0x3cabd1e5	0.020974109
25	0x3d0efa5d	0.034906734
26	0xbd61737a	-0.055041768
27	0x3caf89e9	0.021428065
28	0x3e686c8b	0.22697656
29	0xbb2e6e24	-0.0026615942
30	0x3d86c31b	0.06580182
31	0x3e154a1a	0.14579049
32	0x3e86d4ca	0.2633422
33	0x3d161604	0.03664209
34	0x3dbf85b0	0.09351671
35	0x3d1ffd36	0.03905984
36	0xbd742c41	-0.059612516
37	0xbda292fc	-0.07938191
38	0xbd996fc5	-0.074920215
39	0x3d842895	0.06453053
40	0x3d6307cf	0.05542737
41	0xbd2bf6d5	-0.041983444
42	0x3d80009c	0.06250116
43	0x3df4e8b1	0.11958445
44	0xbd1facd4	-0.03898318
45	0x3e67d6b9	0.22640504
46	0x3ea29df6	0.3176114
47	0x3e65e6b3	0.22451286
48	0x3c20be5c	0.00981101
49	0x3c6f2a7f	0.014597534
50	0x3b35bb42	0.0027730023
51	0xbe16cf74	-0.14727575
52	0xbe253769	-0.16134419
53	0xbe70249c	-0.23451465
54	0xbd9d7d15	-0.07689873
55	0x3e3f4f4f	0.18682598
56	0x3d0c1744	0.034201875
57	0xbd14257f	-0.03616857
58	0x3e1c7ccd	0.15281983
59	0x3da88647	0.08228736
60	0x3da2ae8e	0.0794345
61	0x3d90e7c9	0.070754595
62	0x3d11b555	0.035573322
63	0xbd3b6d6b	-0.045758646
64	0xbda43f35	-0.08019868
65	0xbc527ada	-0.012846673
66	0xbdc644d9	-0.096811004
67	0x3c57fc12	0.013182657
68	0xbd762613	-0.060094904
69	0xbe1c112d	-0.15240927
70	0x3d4d1ba2	0.05007518
71	0xbe072700	-0.13198471
72	0xbe82795e	-0.2548322
73	0x3ed23db0	0.4106269
74	0xbde03fda	-0.10949679
75	0x3e1baa16	0.15201601
76	0xbf0dd43e	-0.5540198
77	0xbdce8378	-0.100836694
78	0x3e78f2a5	0.24311312
79	0x3db16d51	0.086634286
80	0x3e46adc1	0.1940222
81	0x3e84e674	0.25957072
82	0xbe29b47a	-0.16572753
83	0x3e32111e	0.17389342
84	0xbc938535	-0.018007854
85	0xbded72de	-0.11594175
86	0xbd97220c	-0.07379541
87	0xbe56ce75	-0.20977195
88	0x3ec55781	0.38543323
89	0xbd5cc325	-0.05389704
90	0xbe568223	-0.2094808
91	0x3dae2121	0.085024126
92	0x3d8f98c2	0.07011558
93	0x3c1e5678	0.00966417
94	0x3dcf120b	0.10110863
95	0xbbf25b9d	-0.007396175
96	0x3e254680	0.16140175
97	0xbd590971	-0.05298752
98	0xbe8c7e92	-0.27440315
99	0xbe13baa4	-0.14426666
100	0xbe834a8d	-0.25642815
101	0xbd7396ec	-0.059470102
102	0x3daddbd2	0.08489193
103	0x3e0c2d3f	0.13689135
104	0xbc70eae0	-0.014704436
105	0x3e2a8c12	0.16654995
106	0x3ed5ce0d	0.41758767
107	0x3e320e66	0.17388305
108	0xbe8c45c4	-0.27396977
109	0x3f3683ef	0.71295065
110	0xbd200970	-0.0390715
111	0x3e99256c	0.29911363
112	0xbeb62977	-0.3557851
113	0x3ebdbaaf	0.3705649
114	0x3cfdf330	0.03099975
115	0xbe23d270	-0.15998244
116	0xbe0b0683	-0.13576703
117	0x3d433b78	0.047664136
118	0xbc3b101f	-0.011417418
119	0xbede29e6	-0.4339134
120	0x3de554da	0.11197825
121	0x3e8f0a52	0.2793756
122	0x3e173fd0	0.14770436
123	0xbe143853	-0.14474611
124	0xbdb4c6fe	-0.08827017
125	0x3e57ed8c	0.2108671
126	0x3d07cdb6	0.033155166
127	0x3df67223	0.120334886
128	0x3d86c328	0.06580192
129	0xbd541598	-0.051778406
130	0x3c9115fe	0.017710682
131	0xbcca2338	-0.024674997
132	0xbe391f3b	-0.1807832
133	0xbe1092b6	-0.14118466
134	0xbe196ef5	-0.14983733
135	0x3d9c4425	0.07630185
136	0x3e58b63a	0.21163264
137	0x3de59482	0.11209966
138	0x3d63e39a	0.05563698
139	0x3e00d77f	0.12582205
140	0x3d34bc55	0.04412492
141	0xbdbd8b35	-0.09255067
142	0xbdef91d9	-0.1169774
143	0xbe0b0b54	-0.1357854
144	0x3e6d6076	0.23181328
145	0x3d98c1f9	0.07458872
146	0xbe37e393	-0.17957906
147	0x3e68de14	0.22740966
148	0x3e0bed2c	0.13664693
149	0xbd868808	-0.06568915
150	0x3dea7c3a	0.114494756
151	0x3d3f47a3	0.046699177
152	0xbdf1adf8	-0.1180076
153	0x3d269826	0.040672444
154	0x3e22fdbf	0.15917109
155	0x3e76a4f1	0.24086358
156	0xbc2fa435	-0.010720302
157	0x3c6b9aab	0.014380137
158	0x3ded4431	0.11585272
159	0xbc132920	-0.008981973
160	0xbc4ae529	-0.012383738
161	0x3df725d4	0.12067762
162	0xbc3d145c	-0.011540499
163	0xbd00ebc6	-0.03147485
164	0xbd94bb3a	-0.07262273
165	0xbd7c8b57	-0.061656322
166	0xbcc6951a	-0.024241019
167	0xbcfa6297	-0.03056459
168	0xbd62ddd4	-0.055387333
169	0xbcce10ec	-0.025154553
170	0x3d0594ca	0.0326126
171	0xbda8d8c3	-0.08244469
172	0xbe795cc8	-0.243518
173	0xbe530171	-0.20606019
174	0xbd1a3f5a	-0.037658073
175	0xbe48ffa4	-0.19628769
176	0xbe7a5364	-0.24445873
177	0xbe62bca0	-0.22142267
178	0xbe8b5592	-0.27213722
179	0xbe2122e5	-0.15735967
180	0x3d5857b2	0.052818008
181	0x3d55f1f0	0.052232683
182	0x3da587c1	0.08082534
183	0x3a98cb89	0.0011657338
184	0xbc8cf625	-0.017207215
185	0x3d8276a0	0.06370282
186	0xbe02c3a1	-0.12769939
187	0xbdadf20a	-0.08493431
188	0xbd14f21f	-0.036363717
189	0xbde9fc07	-0.114250235
190	0xbd384767	-0.04498997
191	0x39c7d76b	0.00038116737
192	0x3cbf2f2c	0.023337923
193	0x3dc0c6d1	0.09412921
194	0x3e471e61	0.19445182
195	0x3c8776e2	0.01653618
196	0x3dc53715	0.09629647
197	0x3e4e5792	0.20150593
198	0xbda83cba	-0.08214708
199	0xbe0c28e7	-0.13687478
200	0xbe20af36	-0.15691838
201	0x3d296998	0.041360468
202	0x3cbbe22a	0.022934992
203	0xbccaf553	-0.024775183
204	0xbd870afa	-0.065938905
205	0xbc5738bd	-0.013136086
206	0x3d2ebfe8	0.042663485
207	0xbd09620d	-0.033540774
208	0x3daeebe4	0.08541086
209	0x3da18125	0.078859605
210	0x3b111320	0.0022136644
211	0x3dcc46a9	0.09974415
212	0x3e0dcffc	0.13848871
213	0xbddf0ceb	-0.10891136
214	0x3cd0a726	0.025470328
215	0x3db278d7	0.087144546
216	0x3d9d87c2	0.076919094
217	0x3b579234	0.003289354
218	0xbd94ba49	-0.072620936
219	0xbd019a90	-0.031641543
220	0x3e222f01	0.15838243
221	0xbdad8501	-0.08472634
222	0xbcdefbcb	-0.027219674
223	0x3c1a895e	0.009432165
224	0xbdad17ce	-0.08451806
225	0x3d26a1ab	0.040681522
226	0x3e4092e5	0.18806036
227	0x3d070738	0.03296587
228	0xbc8d1a28	-0.017224386
229	0xbca6abd7	-0.020345611
230	0x3d0cd924	0.03438677
231	0x3c6c32cc	0.014416408
232	0x3d3565ca	0.044286527
233	0x3cd3a819	0.025836991
234	0x3e84c3ac	0.25930536
235	0xbbd715bc	-0.0065638702
236	0xbe5cdd93	-0.21568899
237	0x3e8edf10	0.27904558
238	0x3e74767c	0.23873323
239	0x3e1116f5	0.14168914
240	0x3e0891e8	0.13336909
241	0x3df32a96	0.11873357
242	0x3cf8e1a6	0.030381035
243	0x3c8b4887	0.017002357
244	0x3e0b400a	0.13598648
245	0x3d982ead	0.07430778
246	0xbe2788ab	-0.16360728
247	0xbd5ba7c8	-0.053626806
248	0xbd1f5be2	-0.038905986
249	0xbd69ba47	-0.057062414
250	0xbd1a067a	-0.037603833
251	0xbd86f7e1	-0.06590248
252	0xbe19bdae	-0.15013763
253	0xbe58bc05	-0.21165474
254	0xbe6dec3d	-0.23234649
255	0x3d751eda	0.059843875

layer1.0.conv2.bias f4 [16]
0	0xbc0378ea	-0.008024434
1	0x3ce3e56f	0.027819363
2	0xbc1c5ef8	-0.009544127
3	0x3b52e59d	0.0032180317
4	0x3c557784	0.013028983
5	0x3c0cb507	0.008588082
6	0xbbadee5d	-0.005307956
7	0xbc446748	-0.011987515
8	0x3c6fb30c	0.01463009
9	0xbc392efa	-0.011302704
10	0xbc846851	-0.016163023
11	0x3ca16c69	0.019705014
12	0xbc6c6b86	-0.014429932
13	0x3bfba776	0.007679875
14	0xba5410ee	-0.0008089681
15	0x3b0c35a3	0.0021394275

layer1.0.bn2.weight f4 [16]
0	0x3f810b9e	1.008167
1	0x3f4321d7	0.7622351
2	0x3f646e4b	0.89230794
3	0x3eedab8b	0.4641994
4	0x3f3df398	0.7419982
5	0x3f282e28	0.6569543
6	0x3faff271	1.3745862
7	0x3f7db96d	0.9911106
8	0x3f893f0f	1.0722369
9	0x3f4c8350	0.79887867
10	0x3f1e2406	0.6177372
11	0x3fa1e9e0	1.2649498
12	0x3f8c9d8a	1.0985577
13	0x3f9ec6e4	1.2404447
14	0x3f52baf2	0.82316506
15	0x3f97b881	1.1853181

layer1.0.bn2.bias f4 [16]
0	0xbeae4fd2	-0.34045273
1	0x3e161c1d	0.14659162
2	0x3ec0cb9e	0.37655348
3	0x3e96e615	0.29472414
4	0xbef08f67	-0.46984407
5	0x3db44507	0.088022284
6	0xbeece6cd	-0.46269837
7	0x3ddfc01e	0.10925315
8	0xbd25bc86	-0.040462993
9	0xbe0d8282	-0.13819316
10	0x3ef9dd88	0.48801827
11	0xbde7e4e2	-0.11322953
12	0xbeb00c5e	-0.34384435
13	0x3ea2700b	0.31726107
14	0xbe0a8406	-0.13526925
15	0x3e2b495b	0.16727202

layer1.0.bn2.running_mean f4 [16]
0	0x3f73cc21	0.9523335
1	0xbdc1584b	-0.09440669
2	0xbe9362f0	-0.2878642
3	0xbf51c1df	-0.8193645
4	0x3fd90277	1.6953877
5	0x3f0de1d4	0.5542271
6	0x3e3e0997	0.18558346
7	0x3df39d2e	0.11895214
8	0x3e1ba301	0.151989
9	0xbf0aec57	-0.54266876
10	0xbeea29cb	-0.4573501
11	0xbee9ac79	-0.456394
12	0xbf50c379	-0.8154827
13	0xbf0d2f62	-0.55150425
14	0xbfb83561	-1.439129
15	0xbfb11104	-1.3833318

layer1.0.bn2.running_var f4 [16]
0	0x4031ba26	2.7769866
1	0x3fcc6b8a	1.5970318
2	0x4036856a	2.851893
3	0x3ff9d21c	1.9517245
4	0x3fda7357	1.7066449
5	0x3fd88164	1.6914487
6	0x40961a32	4.6906977
7	0x400a5386	2.1613479
8	0x3fca475d	1.5803028
9	0x3fed59a4	1.8542981
10	0x4030feeb	2.765559
11	0x4024d8ca	2.5757318
12	0x401b5de4	2.4276056
13	0x404a6126	3.1621795
14	0x40068506	2.101869
15	0x40396090	2.8965187

layer1.1.conv1.weight f4 [16, 16, 3, 3]
0	0x3be40a10	0.0069592074
1	0xbd6d180d	-0.057884265
2	0xbc9c33f0	-0.019067734
3	0x3dcff956	0.10154979
4	0x3ca58ef0	0.02020976
5	0x3d5143ef	0.051090177
6	0x3df7176b	0.120650135
7	0x3dc82731	0.097731
8	0x3d37e3b5	0.044894893
9	0xbbd453c0	-0.0064797103
10	0xbd55085e	-0.052009933
11	0xbc4b01ab	-0.012390534
12	0x3db009e7	0.08595639
13	0x3c885664	0.016642757
14	0x3d1fddea	0.039029993
15	0x3d4a9096	0.049454294
16	0x3c9e2f5d	0.019309694
17	0x3da7f4f5	0.08201019
18	0x3cf56b0f	0.029958276
19	0xbc865367	-0.016397191
20	0xbca91bd7	-0.020643158
21	0x3d1a7262	0.03770674
22	0x3c18638e	0.009301079
23	0xbc9cfd22	-0.019163672
24	0x3dbde232	0.09271659
25	0x3d872988	0.06599718
26	0x3d6dee24	0.058088437
27	0x3bc8f885	0.0061331415
28	0xbcaebab9	-0.02132927
29	0xbd95feaa	-0.07323964
30	0x3c924539	0.017855274
31	0xbc475fda	-0.012168849
32	0xbd826e53	-0.06368699
33	0x3c8669e9	0.016407924
34	0xbb429085	-0.002968819
35	0xbd051f36	-0.03250047
36	0x3ce41eff	0.027846811
37	0xbcbdd4f6	-0.023172837
38	0xbcbb0d3b	-0.022833457
39	0x3da1d227	0.079014115
40	0x3d101ba3	0.035182606
41	0x3ca81840	0.020519376
42	0x3b8fe860	0.004391715
43	0x3c95b294	0.01827363
44	0xbd130054	-0.035888985
45	0xbd9a3677	-0.075299196
46	0xbcf79a61	-0.03022498
47	0x3cb4b32f	0.022058098
48	0x3daf8508	0.085702956
49	0x3d6ddfd3	0.058074784
50	0x3cc9a9de	0.024617132
51	0x3d61257b	0.054967385
52	0xbcc2aae6	-0.023763131
53	0x3c6acece	0.014331533
54	0x3e37b59e	0.17940375
55	0x3ea75e20	0.32689
56	0x3ea4daeb	0.3219827
57	0x3e099dab	0.13439052
58	0x3e748462	0.23878625
59	0x3d823a97	0.063588314
60	0xbe3515a3	-0.17684035
61	0xbe17e783	-0.14834408
62	0xbe450d31	-0.19243313
63	0x3e073a14	0.13205749
64	0x3d75e8c7	0.060036447
65	0x3d6fbb1c	0.05852805
66	0xbc828596	-0.01593284
67	0xbd887e8f	-0.06664764
68	0xbd2c37fe	-0.042045586
69	0x3da3adc3	0.07992127
70	0xbd1fc449	-0.03900555
71	0x3d4c55b0	0.049886405
72	0xbd676d46	-0.056500696
73	0xbe00a6c5	-0.12563618
74	0xbd57c35f	-0.052676555
75	0x3ca33225	0.019921372
76	0xbc509fc7	-0.012733406
77	0xbcc8644e	-0.024461892
78	0x3a316fe3	0.00067686866
79	0xbd8eb14e	-0.06967412
80	0x3d2d99c8	0.042382985
81	0x3df5262a	0.1197017
82	0x3bf9bed3	0.007621625
83	0xbc4620f3	-0.012092817
84	0x3e034e9a	0.12822953
85	0x3d91bd90	0.07116234
86	0xbd2b3d21	-0.041806344
87	0xbcd89fe5	-0.026443431
88	0xbd4f2590	-0.05057293
89	0xbdb41c4d	-0.087944604
90	0x3e0d5451	0.13801695
91	0x3e5df3db	0.21675055
92	0x3e4fddfb	0.20299523
93	0xbdf9cee2	-0.12197663
94	0xbd80fc93	-0.06298175
95	0xbce7a132	-0.028275106
96	0xbe16d8b3	-0.14731102
97	0xbdec069a	-0.11524697
98	0xbdce8a38	-0.10084957
99	0xbd3f8a6d	-0.046762872
100	0xbca9b8f4	-0.020718075
101	0xbe045334	-0.12922364
102	0x3c71af97	0.014751337
103	0x3de2ae49	0.110683985
104	0xbba8c259	-0.005150121
105	0x3c6fbc4b	0.014632295
106	0xbd65f34a	-0.05614022
107	0xbe3d59e9	-0.18491329
108	0xbe63ae3f	-0.22234438
109	0xbe58c41e	-0.21168563
110	0xbd9afa92	-0.07567324
111	0x3d41b762	0.047294028
112	0x3bb2ca08	0.005456213
113	0x3d92ad7d	0.071619965
114	0x3e109229	0.14118256
115	0x3d93a933	0.072100066
116	0x3e25ed50	0.16203809
117	0xbe64b026	-0.2233282
118	0xbe69d245	-0.22834118
119	0xbe31e02e	-0.17370674
120	0x3c9a8bb5	0.018865446
121	0x3daa0b16	0.08302896
122	0xbc7e632e	-0.015526576
123	0x3d068512	0.03284175
124	0x3e062193	0.13098745
125	0x3e0eda40	0.13950443
126	0x3cb4a87b	0.022052994
127	0x3b881602	0.004153014
128	0x3d4a493b	0.049386244
129	0x3d4546e5	0.048163313
130	0x3dbc9436	0.092079565
131	0x3d8c5409	0.06851966
132	0x3d906e68	0.07052308
133	0x3e276ce4	0.16350132
134	0x3e052291	0.13001467
135	0x3e30efc8	0.1727897
136	0x3e568238	0.20948112
137	0x3e11b370	0.14228606
138	0x3e284b51	0.16434981
139	0x3e09c489	0.13453878
140	0x3daf680c	0.08564767
141	0x3c40439a	0.0117348675
142	0x3d014d44	0.031567827
143	0xbc297c91	-0.01034464
144	0xbeaa900b	-0.3331302
145	0xbece108c	-0.40247
146	0x3beb126f	0.0071738283
147	0xbe6b6087	-0.22986041
148	0x3eae71e4	0.34071267
149	0xbe7b755c	-0.24556488
150	0x3e2ad1f1	0.16681649
151	0xbdfdd387	-0.12393861
152	0xbec99d90	-0.39378023
153	0xbc7739b1	-0.015089438
154	0x3d45ddde	0.048307292
155	0x3e1d0a00	0.15335846
156	0x3dda5d98	0.10662383
157	0x3d4b010f	0.049561556
158	0x3d7f2313	0.06228931
159	0xbbdc67ca	-0.00672624
160	0x3d5b7788	0.05358079
161	0x3dabacb6	0.08382551
162	0x3dbcb5fc	0.09214398
163	0xbd08baeb	-0.033381384
164	0xbdd803dd	-0.10547612
165	0xbd4d0947	-0.050057676
166	0xbe18fa0d	-0.14939137
167	0xbd642c24	-0.05570616
168	0xbdb1292b	-0.0865043
169	0xbd8c70b4	-0.06857434
170	0x3d8ba4ab	0.06818517
171	0xbd829979	-0.06376929
172	0x3d8aeb8b	0.067832075
173	0x3d5f6179	0.054536317
174	0xbcd497c7	-0.02595128
175	0x3a60286e	0.00085509464
176	0xbca1ecda	-0.01976626
177	0xbcaf3d70	-0.0213916
178	0xbda995c8	-0.08280522
179	0x3d6e7c38	0.058223933
180	0x3df998c9	0.121873446
181	0x3dc62969	0.09675867
182	0x3d1e722d	0.038683105
183	0x3d85b10a	0.06527908
184	0x3c685287	0.014179832
185	0xbd2f61e2	-0.042817958
186	0x3c3a7b35	0.011381914
187	0xbd830d7a	-0.06399055
188	0xbdc80f91	-0.09768594
189	0x3de8da14	0.1136972
190	0xbc9001cb	-0.01757898
191	0xbcbd2d3d	-0.02309286
192	0x3d8bf991	0.068347104
193	0xbdce4979	-0.100726075
194	0x3c92b794	0.017909802
195	0xbdd277b4	-0.10276738
196	0x3d6525c2	0.05594421
197	0xbe1d157f	-0.15340231
198	0x3d424c40	0.047436
199	0x3e31a136	0.17346653
200	0xbde01fd6	-0.10943572
201	0xbd402e51	-0.04691917
202	0xbeee40cb	-0.46533808
203	0xbd3dece5	-0.0463685
204	0xbeb97c6d	-0.36227742
205	0x3c14046b	0.009034256
206	0x3dad90b8	0.084748685
207	0x3ea9a518	0.3313377
208	0xbdd31f82	-0.10308744
209	0xbdd43d1d	-0.10363219
210	0xbe23d455	-0.15998967
211	0xbe8126c0	-0.25224876
212	0x3eac61ec	0.33668458
213	0xbdc3b7df	-0.09556555
214	0x3edd61b4	0.43238604
215	0x3d4b3934	0.0496151
216	0xbd008d46	-0.03138473
217	0xbe3b7772	-0.18307284
218	0x3df01459	0.11722631
219	0xbe943bde	-0.28951925
220	0x3e6578c3	0.22409348
221	0x3e7000bd	0.23437782
222	0xbd28240d	-0.041050006
223	0x3e001ae0	0.12510252
224	0xbead0a49	-0.3379691
225	0x3e169449	0.14705004
226	0x3df4e62f	0.119579665
227	0xbc719944	-0.014746014
228	0xbda1f17e	-0.07907389
229	0xbd852f5c	-0.06503174
230	0xbda88340	-0.08228159
231	0xbbe424d2	-0.006962397
232	0x3d773c80	0.06036043
233	0xbdef9f01	-0.117002495
234	0xbe6fdf67	-0.23425065
235	0xbe1f3535	-0.1554764
236	0x3bbef1fa	0.0058271857
237	0x3c120ce8	0.00891421
238	0x3dab509e	0.08364986
239	0xbdb45122	-0.08804537
240	0x3e0b5ddb	0.13610022
241	0xbd6d971e	-0.058005445
242	0xbda02a7a	-0.07820602
243	0xbe0ff4d7	-0.14058243
244	0x3ea75772	0.32683903
245	0xbd59b0c7	-0.053147104
246	0x3eb27d75	0.3486134
247	0x3d25892d	0.040414024
248	0xbea3b251	-0.31971982
249	0x3d05b31e	0.032641523
250	0xbe9a47e3	-0.3013297
251	0x3e6660e1	0.22497894
252	0x3d526c91	0.05137307
253	0xbd8a5e01	-0.06756211
254	0xbb4a9883	-0.0030913658
255	0x3ca894ed	0.020578826

layer1.1.conv1.bias f4 [16]
0	0xbb21e508	-0.0024703164
1	0xbc83a0d7	-0.016067905
2	0x3c3d7149	0.011562654
3	0x3a90533d	0.0011011135
4	0xbc4ec559	-0.012620294
5	0x3c7b93c0	0.015355051
6	0xbc82569c	-0.01591044
7	0xbc8a827b	-0.016907921
8	0xbc8cafaa	-0.017173607
9	0xbc0967d3	-0.00838657
10	0x3c687f5b	0.01419052
11	0xbb4cd738	-0.003125621
12	0x3ca29182	0.019844774
13	0xbb07c3ef	-0.002071615
14	0xbc867b7b	-0.016416302
15	0x3a6da49c	0.0009065361

layer1.1.bn1.weight f4 [16]
0	0x3f2255a3	0.6341192
1	0x3f849486	1.0357826
2	0x3ede4370	0.43410826
3	0x3f407105	0.75172454
4	0x3f4dc562	0.8037931
5	0x3f21a5f8	0.63143873
6	0x3f3b3675	0.7312997
7	0x3f438cd2	0.7638675
8	0x3f548696	0.8301786
9	0x3f26ed09	0.65205437
10	0x3f6f8d76	0.9357523
11	0x3f903c16	1.1268337
12	0x3f3a767c	0.7283704
13	0x3fb86a70	1.4407482
14	0x3f380028	0.7187524
15	0x3f224f12	0.634019

layer1.1.bn1.bias f4 [16]
0	0xbe635d01	-0.22203447
1	0xbef4cacb	-0.4781097
2	0xbe9eb021	-0.3099375
3	0xbe39bd59	-0.18138637
4	0xbed914b2	-0.42398602
5	0xbeb93858	-0.361758
6	0xbe82c4da	-0.2554081
7	0xbe5cf5e4	-0.21578175
8	0xbee881a9	-0.45411423
9	0xbe81ca03	-0.25349435
10	0xbe9fe45d	-0.31228915
11	0xbe826193	-0.25465068
12	0xbe08b778	-0.13351238
13	0xbec065d3	-0.37577686
14	0xbeaf9710	-0.3429494
15	0xbeb11ae3	-0.34590825

layer1.1.bn1.running_mean f4 [16]
0	0x3fe69ee8	1.8017244
1	0xc026e4e5	-2.6077206
2	0x40547844	3.3198404
3	0xc054e730	-3.3266106
4	0xbff40e7e	-1.9066923
5	0xc08c1b6e	-4.3783484
6	0x3eb57a2d	0.35444775
7	0xbf5f8102	-0.87306225
8	0xbfafe5ca	-1.3742001
9	0xc0249be0	-2.5720139
10	0xbf6e2f29	-0.9304071
11	0xbe8c14d2	-0.27359635
12	0x40765102	3.8486943
13	0xc00136d9	-2.0189726
14	0xc04e4ce0	-3.223442
15	0xc07f4d0b	-3.9890773

layer1.1.bn1.running_var f4 [16]
0	0x40777472	3.8664823
1	0x410af7c9	8.685494
2	0x3feb9a6c	1.8406501
3	0x409cc677	4.8992267
4	0x40aacf93	5.3378386
5	0x4029780a	2.6479516
6	0x40be4bee	5.9467688
7	0x4114c655	9.298421
8	0x40aecdc2	5.462617
9	0x401ee515	2.482732
10	0x4167a603	14.47803
11	0x41b15664	22.167183
12	0x40a60c5b	5.189008
13	0x427c289c	63.039658
14	0x40d78283	6.7346816
15	0x404f9ee1	3.2440722

layer1.1.conv2.weight f4 [16, 16, 3, 3]
0	0xbe728e7e	-0.23687169
1	0xbe350222	-0.17676595
2	0xbe0dd8a7	-0.13852178
3	0xbe8d0fdc	-0.27551162
4	0xbd125a1f	-0.035730477
5	0xbe0b3edc	-0.13598198
6	0xbe90318d	-0.28162804
7	0xbddb56a2	-0.10709883
8	0xbe2e3415	-0.17012055
9	0x3e41649e	0.18886039
10	0x3e6ba0bb	0.23010533
11	0x3defdf2c	0.117124885
12	0x3d7b11a6	0.061296128
13	0x3e0ed3a3	0.1394792
14	0x3e83c1ee	0.25733894
15	0x3e14c02a	0.1452643
16	0x3e0f800d	0.14013691
17	0x3e003e79	0.12523831
18	0xbcf34828	-0.029697493
19	0xbbba9ff5	-0.005695338
20	0xbd424110	-0.04742533
21	0xbdfb7371	-0.12277878
22	0xbdd32ced	-0.10311303
23	0xbde90421	-0.11377741
24	0xbd8f75d4	-0.07004896
25	0xbd081cb6	-0.033230506
26	0xbd5ec285	-0.054384727
27	0x3e5e770c	0.217251
28	0x3e2966d0	0.16543126
29	0x3e6ef458	0.23335397
30	0x3d6a3246	0.05717685
31	0x3c8ce11a	0.01719718
32	0x3e39ffbf	0.18163966
33	0xbd107acd	-0.035273362
34	0xbe3bcaa7	-0.18339024
35	0xbcf3dec4	-0.029769309
36	0x3d35c984	0.044381633
37	0xbe237145	-0.15961178
38	0xbdc96638	-0.0983395
39	0x3d888d07	0.06667524
40	0xbd6990eb	-0.05702297
41	0xbdca8101	-0.09887887
42	0x3d07086d	0.03296702
43	0x3d951e37	0.07281154
44	0x3a35b8dc	0.0006932148
45	0xbc89bace	-0.016812708
46	0x3c9d4bd1	0.019201191
47	0x3d0ee11b	0.034882646
48	0xbc9f47a4	-0.01944334
49	0x3c6d23f6	0.014473906
50	0x3cd0eac8	0.025502577
51	0xbd9c5513	-0.07633414
52	0xbc424a14	-0.011858482
53	0xbd358e90	-0.04432541
54	0xbd98e5b3	-0.07465687
55	0xbe102a84	-0.14078718
56	0xbd92c3d3	-0.07166257
57	0xbda1c877	-0.07899564
58	0xbd2ae368	-0.041720778
59	0xbe22e7f4	-0.15908796
60	0xbdf329ec	-0.1187323
61	0xbd0b31b1	-0.033982936
62	0x3c419350	0.011814907
63	0xbdd9d4c0	-0.10636282
64	0x3d18fa58	0.03734812
65	0x3bc6a918	0.006062638
66	0x3c15a414	0.009133358
67	0x3e509533	0.20369415
68	0x3dd7221a	0.10504551
69	0x3dd4e560	0.10395312
70	0x3e555093	0.20831518
71	0x3e24d872	0.16098192
72	0xbbfe481c	-0.007760061
73	0xbd1036df	-0.03520858
74	0xbde4c09a	-0.11169548
75	0xbd3eb9f7	-0.04656407
76	0xbde11c9c	-0.10991785
77	0xbe0db8a0	-0.1383996
78	0xbd1188b8	-0.035530776
79	0xbdf1c015	-0.11804215
80	0xbde810d4	-0.11331335
81	0x3c6ae32a	0.014336387
82	0x3cb4c9ee	0.022068944
83	0xbca2e0da	-0.019882608
84	0xbc66d3d5	-0.014088591
85	0xbcda4cc8	-0.02664794
86	0xbd9e7ffe	-0.07739256
87	0xbc819ff8	-0.01582335
88	0x3ca8063d	0.020510787
89	0xbde20215	-0.11035553
90	0x3cbf33ad	0.02334007
91	0xbe01ed7f	-0.12688254
92	0x3d03ca01	0.032175068
93	0xbca421f1	-0.020035716
94	0x3c96f156	0.018425625
95	0xbd2600c7	-0.040528085
96	0xbda9d96b	-0.08293422
97	0x3aa0f7fa	0.0012280934
98	0xbda88c2f	-0.08229863
99	0x3d87b8ea	0.066270664
100	0x3e0c550f	0.13704322
101	0x3d0acd18	0.033887
102	0x3dfcd60d	0.123455144
103	0x3ebfacc3	0.37436494
104	0x3df4aef6	0.11947434
105	0x3dc175b7	0.094462804
106	0x3e150204	0.1455155
107	0x3deb702f	0.11496007
108	0xbdf7f9bc	-0.1210818
109	0xbdc898e7	-0.09794789
110	0xbdeba1cc	-0.1150547
111	0xbe4cc756	-0.19997916
112	0xbdb4a075	-0.08819667
113	0xbe059e05	-0.13048561
114	0xbdd8af8e	-0.105803594
115	0xbd02b1dc	-0.0319079
116	0xbd9e0a1f	-0.07716774
117	0xbcb74b87	-0.022374881
118	0xbe63388d	-0.22189541
119	0xbd58b1ff	-0.052904125
120	0xbd73a84a	-0.059486665
121	0xbdb0a418	-0.086250484
122	0xbcd84fd9	-0.026405262
123	0xbd8f3d1f	-0.0699408
124	0x3d1b9860	0.037987113
125	0x3d559a79	0.05214927
126	0x3aa433e8	0.0012527676
127	0xbd83619f	-0.06415104
128	0xbcf747fa	-0.030185688
129	0xbda31d84	-0.07964614
130	0xbd9ba071	-0.07598961
131	0xbd272123	-0.040803086
132	0xbd46a57f	-0.048497673
133	0x3d7b5822	0.061363347
134	0x3dcb235c	0.09918854
135	0x3cb2c753	0.02182356
136	0xbc588263	-0.01321468
137	0xbb873ee8	-0.004127372
138	0x3c0dc030	0.008651778
139	0xbd766246	-0.060152315
140	0xbd91db1f	-0.07121872
141	0x3ccbc63a	0.024874795
142	0xbd87b5e9	-0.066264935
143	0xbded995b	-0.11601516
144	0xbddbf8a3	-0.10740783
145	0xbd8b066d	-0.06788335
146	0xbdefc8ee	-0.11708246
147	0xbe3b7582	-0.18306544
148	0xbe2876ac	-0.1645152
149	0xbe2a5917	-0.16635548
150	0xbde260e6	-0.11053638
151	0xbe23df8b	-0.16003244
152	0xbe0ffd84	-0.14061552
153	0xbe2ff9de	-0.1718516
154	0xbe4b7fed	-0.19873019
155	0xbe2ec038	-0.17065513
156	0xbe5f2531	-0.21791531
157	0xbe4cc6e6	-0.19997749
158	0xbe394edb	-0.18096487
159	0xbe193b5b	-0.14964049
160	0xbe1fd0ff	-0.1560707
161	0xbe48426a	-0.19556585
162	0xbde1dc79	-0.1102838
163	0xbd38ffbe	-0.04516577
164	0xbd9bf1eb	-0.076145016
165	0xbdc04354	-0.09387842
166	0xbcb9bdf1	-0.022673579
167	0xbcb53d35	-0.022123912
168	0xbd855065	-0.06509475
169	0xbd6408d1	-0.05567247
170	0xbdb3a122	-0.08770968
171	0x3cd29198	0.02570419
172	0xbba10b08	-0.004914645
173	0xbc9f666a	-0.019458015
174	0xbc3f13cd	-0.011662436
175	0xbc3d7b52	-0.011565046
176	0xbd2009c8	-0.039071828
177	0xbc8544dd	-0.016268188
178	0xbdc3182c	-0.09526095
179	0xbd2f0dbc	-0.042737707
180	0x39ded996	0.00042505254
181	0x3de6f9df	0.11278128
182	0x3e0c9729	0.13729538
183	0xbd144004	-0.036193863
184	0x3d9c5f83	0.07635405
185	0x3e059424	0.13044792
186	0xbd8c6fa7	-0.068572335
187	0x3d9478d2	0.07249607
188	0x3db7e780	0.08979702
189	0xbd95f7f0	-0.07322681
190	0xbcafeff3	-0.021476721
191	0x3dbb6f31	0.091520675
192	0xbd10ea3a	-0.035379626
193	0x3cd5448c	0.026033662
194	0x3d8ca18f	0.06866752
195	0x3aa4da74	0.0012577311
196	0x3c737597	0.014859579
197	0x3d8057c3	0.06266739
198	0xbd927fa1	-0.071532495
199	0x3cb2a6c5	0.021808038
200	0x3d216866	0.039406203
201	0xbe1112b0	-0.14167285
202	0x3cbe6a54	0.02324406
203	0x3d0b35d2	0.033986874
204	0xbe5ea29b	-0.21741717
205	0xbdb07f55	-0.08618037
206	0xbda5c9fe	-0.080951676
207	0x3cc3c10b	0.023895761
208	0xbce7fe92	-0.02831963
209	0xbb3822f0	-0.0028096996
210	0xbd4df834	-0.050285533
211	0xbd8f3278	-0.06992048
212	0xbd92fd85	-0.07177261
213	0xbb2ecec1	-0.0026673528
214	0xbe0c8f83	-0.1372662
215	0xbdbf1309	-0.093298025
216	0xbca07beb	-0.019590339
217	0x3d3499cb	0.04409198
218	0x3d9ebb74	0.077505976
219	0x3cb95d90	0.022627622
220	0xbafaa516	-0.0019122686
221	0x3d187504	0.03722097
222	0x3a00bf23	0.0004911294
223	0x3d2f044b	0.042728703
224	0xba4fa4ef	-0.00079210004
225	0xbd781cc2	-0.0605743
226	0xbcad28e3	-0.02113766
227	0xba49d99d	-0.00076999684
228	0xbd36229f	-0.04446661
229	0xbd642103	-0.055695545
230	0xbb87337f	-0.004126012
231	0xbbc90e0b	-0.0061357073
232	0x3c466d78	0.01211106
233	0x3cd235de	0.025660452
234	0xbb299481	-0.0025875869
235	0xbd4a80e9	-0.049439345
236	0xbdd874b0	-0.105691314
237	0xbd89d683	-0.06730368
238	0xbdf1960f	-0.117961995
239	0xbde623f7	-0.112373285
240	0xbe155fe2	-0.14587358
241	0xbe092ffa	-0.13397208
242	0xbde39db0	-0.11114061
243	0xbda1d4ce	-0.079019174
244	0xbd81d71e	-0.063398585
245	0xbbf2480b	-0.007393842
246	0xbcb8abbc	-0.022542827
247	0xbde8564d	-0.113445856
248	0xbdb158df	-0.08659529
249	0xbca7ad68	-0.020468429
250	0xbdd46908	-0.103715956
251	0xbd73e513	-0.059544634
252	0xbe269457	-0.16267525
253	0xbc181592	-0.0092824865
254	0x3b97a5dc	0.0046279263
255	0xbe2060b7	-0.15661894

layer1.1.conv2.bias f4 [16]
0	0x3c6972a7	0.014248527
1	0xbb50dca4	-0.0031869793
2	0x3b95d07a	0.0045719715
3	0x3c1f3a7d	0.009718535
4	0xbc47f906	-0.012205368
5	0xbc02f65b	-0.007993306
6	0xbca1e2b4	-0.01976142
7	0xbb9ed72d	-0.0048474283
8	0xbb803cdb	-0.0039135045
9	0x3c95fbed	0.018308604
10	0x3bd6faf3	0.006560677
11	0x3b4a14b9	0.0030835106
12	0xbbe21593	-0.0068995445
13	0xbbbe44c5	-0.005806538
14	0x39d0c7d7	0.00039821744
15	0x3c7e531e	0.015522746

layer1.1.bn2.weight f4 [16]
0	0x3f382da3	0.71944636
1	0x3f27d4a1	0.6555882
2	0x3f557765	0.83385307
3	0x3ed4ca40	0.41560555
4	0x3f078141	0.529316
5	0x3f1bc20e	0.6084298
6	0x3e8ca474	0.27469218
7	0x3f189aa2	0.5961095
8	0x3f1694db	0.58820885
9	0x3f239265	0.63895255
10	0x3f0a6bbf	0.5407066
11	0x3f7690ef	0.963149
12	0x3f72a787	0.94786876
13	0x3f759749	0.9593397
14	0x3f7bd16f	0.98366445
15	0x3f1db3af	0.616023

layer1.1.bn2.bias f4 [16]
0	0x3d3cc31a	0.0460845
1	0x3e3359c3	0.1751471
2	0x3e99bc95	0.3002669
3	0x3dcaa2a9	0.09894306
4	0xbc184ce1	-0.009295673
5	0xbca48d09	-0.020086782
6	0xbf020e2a	-0.5080286
7	0xbebef19b	-0.37293705
8	0xbd20dacb	-0.039271157
9	0x3d1ef9c2	0.038812406
10	0x3d1b2d8f	0.037885245
11	0xbf173030	-0.59057903
12	0xbcc39de0	-0.023878992
13	0xbef8a6ad	-0.48564664
14	0x3d992221	0.07477213
15	0x3da5af47	0.08090072

layer1.1.bn2.running_mean f4 [16]
0	0xbde6f188	-0.11276537
1	0xbfaa6698	-1.3312559
2	0xbf82aeb4	-1.0209565
3	0xbf711a17	-0.94180435
4	0x3e6811fd	0.22663112
5	0xbeb99155	-0.36243692
6	0xbf0f7e46	-0.5605205
7	0xbe974690	-0.29546022
8	0x3d2c52b4	0.04207106
9	0xbf75a747	-0.9595837
10	0xbf32e956	-0.6988729
11	0x3eeaa77a	0.458309
12	0xbf14ffc2	-0.58202755
13	0x3d6ee269	0.05832139
14	0xbf8b66d4	-1.0890756
15	0xbf1c3bf4	-0.6102898

layer1.1.bn2.running_var f4 [16]
0	0x3f4aa8c4	0.79163766
1	0x3f5d22cf	0.8638124
2	0x3fa0b0ef	1.2553996
3	0x3f78e54d	0.97224885
4	0x3f265174	0.6496804
5	0x3f3139c2	0.69228756
6	0x3e941800	0.2892456
7	0x3eff74d4	0.4989382
8	0x3efc0a48	0.49226594
9	0x3f17430d	0.59086686
10	0x3f5bb2c1	0.8581963
11	0x3f6a8630	0.91611004
12	0x3f3eb9aa	0.7450205
13	0x3f80263f	1.0011672
14	0x3fa54e2d	1.2914482
15	0x3f9543cb	1.1661314
