Output/swift-iid-8W-pattern1-half-ring-2sgd-200epochs/r2-epoch_27-parameters.pt (torch, 731706 bytes, 92 tensors)

conv1.weight f4 [16, 3, 3, 3]
00000000: 6e4e 62bd 0ef0 2ebf 43b1 4ebe 4fdb 55bd
00000010: db24 153e 1369 b6bd d57e a2bd b4d9 213f
00000020: c6d2 f23c 8d94 86be 1c3a 5dbf 2f4e c6be
00000030: 47da a43d 3716 043f c43a a83d a63b c83d
00000040: 32ba 933f 160e dc3e 43a6 b5be 7ee7 62bf
00000050: ecac dcbe bbf3 333d 798d 823e 645a b9bd
00000060: 1063 eb3d 0516 483f ef1f a03e 3f1d 2c3d
00000070: f924 503e d033 1e3e a0e5 63bd c095 8abd
00000080: b400 04bd fe4c 62bc a8f5 34bc bb13 72bd
00000090: 2457 113e e12b 653e e3df 1b3e fe40 a2bc
000000a0: 1c57 993d 250d 833d 31f9 05bd 243a 843c
000000b0: 1e3c 6fbd 860b 843e 5d3a b23e dacd 983e
000000c0: 8f22 5a3e 4a7a ae3e 0d7c 663e 533f 383d
000000d0: 8c3f 193e e2cb 0d3d b10c 10be 33ed d1be
000000e0: f0ca e0bd b07b b4be e401 ecbe 0b9c c2be
000000f0: 12aa bcbe 0ff2 0fbf 3575 acbe 7c07 b8bd
00000100: 52f0 b9bd 77fc 89bd f7dd 8b3d 2f28 203e
00000110: 92c7 f2bc 3a25 37be b399 c7bd 9c44 06be
00000120: 647e c1bd a7d8 b63d 594a a0bd 3674 d23e
00000130: c18c 423f 7a16 fc3e 2581 833e 55d3 063f
00000140: 622d 9d3e 122e edbc 6f76 d3bd 22d7 613d
00000150: dc76 bebe 074b f6be 42df bebe 7e84 a5be
00000160: 4f98 debe af24 abbe 4778 26be 4c7d ddbd
00000170: 21ae ffbd ac07 eebd 3b0c 78bc 5907 afbd
00000180: 66b2 44be d1db 85bc 5489 f9bd f8af 8e3c
00000190: f9e0 dc3e dc8e 2e3e 1c2d e63e 2de5 673f
000001a0: 1a39 203f 0098 9f3e 2dd7 263f 68b2 e83e
000001b0: 7887 3f3e 156a 08be eaf4 a63e 2ffb 77be
000001c0: 6b6b 26bf d4c0 95bd 1b73 e83d 3205 23be
000001d0: 3dd8 043e 87f7 133e 758c 8ebe 92b3 f13d
000001e0: 3165 98be 1403 32bf 71a9 89be 250f 3a3e
000001f0: 07ee 29be e302 a73d 89cb 0f3e 398a 16bd
00000200: 39b4 a93d 1f10 75be 7ebc 00bf 5a38 8abe
00000210: d465 2b3e 1058 ca3c 604b 0a3e 40a3 b73e
00000220: 8c79 453f 4c05 1f3f ec78 223f f83e 453f
00000230: d753 9f3e 5952 b03d 61b1 35be 7079 8dbe
00000240: 06cc 90be 006a 43bf 0d00 36bf 37e5 5bbe
00000250: 8f80 7cbf 49b3 a2bf 6860 97bd 2495 41bf
00000260: 08db 32bf 159e 483e 2db6 0c3e 6e46 453e
00000270: 9727 693e 300d c63c 663c 22be 6a41 053f
00000280: a456 b43e 668c dc3e e6cf f43e 0c47 aa3f
00000290: c326 293f e936 36be 5d86 d9bd a569 1b3e
000002a0: 9b2a d7be eba0 a4bf e554 91be 9579 573e
000002b0: 1c84 833f 7c4c 043f 6bb2 82be 5393 cfbe
000002c0: 5925 13bd fd61 3ebd 21e8 79bf 09d8 5abd
000002d0: 746d 09bf 1d39 e23d b4e7 dbbe e94e 6fbe
000002e0: 6fe4 5bbe aa90 5bbe 8d10 153f a45c 60bd
000002f0: cd01 003f 4362 0a3e 36d3 95bb cd9a 9a3d
00000300: 8694 893d b65f ca3f 6458 70be f458 7b3e
00000310: ac58 18bf 5f75 753d e709 9ebe 94c1 a3be
00000320: c678 d9be 25e5 8fbe fd8a 9b3f 904c 1cbf
00000330: ef02 87be 3d20 82bf ee94 b0be 9d19 1fbe
00000340: 0e4c b0be 7b98 6dbe d152 2b3e 1f41 d53f
00000350: 4f3e 3ebb 832f 3bbd 7e5f 81be 3ca0 233e
00000360: 3387 1bbe 8d59 c83d 6ab4 4cbc fb7b 8dbf
00000370: c8f8 c73e 49f7 2e3f ed5a 87be 6bdb be3d
00000380: 49d5 25bc f433 c8be b03a a73c f35b 893e
00000390: 0d2c a3bf c08c b83e 1085 803f e30e adbe
000003a0: 9634 433d 59e4 a03e 8ca4 5bbe a1f3 af3d
000003b0: a9f1 e23d 77a6 8cbf d0a7 843e 6ca7 463f
000003c0: bed2 bebe 1b2b ccbc fdfe ff3d fd59 373e
000003d0: 99c7 63be 0217 ba3d ae1b 16be 0063 20bf
000003e0: 92f5 a0be 1880 15be 5400 37bf 0c92 d8be
000003f0: dd2e d33e d013 0a3e 51f9 5f3e c756 bd3e
-0.055250578 -0.68335044 -0.20184807 -0.052211102 0.1456484 -0.0890676 -0.079343475 0.63222814
0.02964152 -0.2628521 -0.8641679 -0.38731524 0.080494456 0.515964 0.08214334 0.09777002
1.1541197 0.42979497 -0.3547841 -0.8863448 -0.4310068 0.04393361 0.2549856 -0.09050444
0.11493504 0.781586 0.31274363 0.04202008 0.20326604 0.15449452 -0.05563891 -0.06766844
-0.032227233 -0.013812302 -0.011044897 -0.059100848 0.14193398 0.2238002 0.15222125 -0.019806381
0.07487318 0.063989915 -0.03270835 0.016141005 -0.05840694 0.25790042 0.34810153 0.29844552
0.21302246 0.34077674 0.22508259 0.044982266 0.14965647 0.034618266 -0.14067341 -0.4100128
-0.10976207 -0.35250616 -0.46095192 -0.38009676 -0.36848503 -0.5622873 -0.33683172 -0.089858025
-0.090790406 -0.06737607 0.06829446 0.15640329 -0.029636178 -0.17885295 -0.09746113 -0.1311211
-0.09447935 0.08928042 -0.07826681 0.41104287 0.75996023 0.49235898 0.25684467 0.5266622
0.30698687 -0.028952632 -0.10325324 0.055136807 -0.37200058 -0.48104116 -0.37279707 -0.32327646
-0.43475577 -0.33426425 -0.1625682 -0.10814914 -0.12484384 -0.11622557 -0.015139635 -0.08546323
-0.19208679 -0.016340168 -0.121843964 0.017417893 0.4314039 0.17046684 0.4495629 0.9058407
0.6258713 0.31170654 0.6517208 0.45448613 0.18704021 -0.13321717 0.3260873 -0.24216913
-0.65007657 -0.0731217 0.113500796 -0.1591995 0.12973113 0.14449893 -0.27841535 0.118018284
-0.29764703 -0.69535947 -0.26887086 0.1816984 -0.16594706 0.081548475 0.14042486 -0.036752913
0.08286328 -0.23931931 -0.50287616 -0.26996118 0.16738063 0.024700195 0.13505316 0.35866737
0.7713859 0.6211746 0.6346576 0.7704921 0.31118652 0.086094566 -0.17743446 -0.27631712
-0.28280658 -0.7633362 -0.7109383 -0.21474157 -0.98633665 -1.2710963 -0.07391435 -0.75618196
-0.69865465 0.19591554 0.1374137 0.19265148 0.22769009 0.02417621 -0.15843353 0.5205294
0.35222352 0.43075866 0.47814864 1.3302932 0.6607477 -0.17794384 -0.10621331 0.15177019
-0.42024693 -1.2861608 -0.28385082 0.21042474 1.0274692 0.51679206 -0.25526747 -0.40542087
-0.03592429 -0.046480168 -0.97619826 -0.053428683 -0.5368264 0.1104605 -0.42950213 -0.23369946
-0.21473859 -0.21441904 0.5822838 -0.05477585 0.5000275 0.13514046 -0.0045722974 0.07549057
0.06717782 1.5810459 -0.23471218 0.24545652 -0.595103 0.059926387 -0.3086693 -0.31983626
-0.42474955 -0.2810451 1.2151791 -0.61054325 -0.26369426 -1.0166088 -0.34488624 -0.15537114
-0.34433025 -0.23202698 0.1673081 1.6660498 -0.0029028838 -0.045699608 -0.25268167 0.15979093
-0.15188293 0.097827055 -0.012494186 -1.1053461 0.39056993 0.6834608 -0.26436558 0.093191944
-0.010121652 -0.39102137 0.020413727 0.26827964 -1.2747818 0.36044884 1.0040607 -0.3380042
0.04765757 0.31424215 -0.21449488 0.085913904 0.11081249 -1.0988301 0.2590928 0.77599216
-0.3727016 -0.024922898 0.12499807 0.17905422 -0.22244109 0.0908642 -0.14658996 -0.6265106
-0.31437355 -0.14599645 -0.71484876 -0.42298925 0.4124669 0.1348412 0.2187245 0.36980268

conv1.bias f4 [16]
00000000: b923 f0bc 7855 98bc c2ac a9bc 4b73 1d3d
00000010: 9949 113d a79a 28bd 9b95 01bb 70a8 213c
00000020: 9682 00bd e385 2abd 0a65 3ebc c7eb 9bbc
00000030: 7d3d 7fbc fe66 ff3c c7ff 023c 5790 e9bc
-0.029313909 -0.018595442 -0.02071226 0.03844003 0.03547058 -0.041163113 -0.001977301 0.009866819
-0.031374536 -0.04163159 -0.011620769 -0.019033326 -0.015578625 0.03117704 0.007995552 -0.02851121

bn1.weight f4 [16]
00000000: 4ef4 833f 3c42 443f dcdf 1f3f af7f f93e
00000010: f00f b03f 74ce 303f ecd2 893f 9b2a 823f
00000020: 0757 983f 4b5d 1d3f 61b7 283f 78d8 803f
00000030: b6bb a03f e90e 363f e646 db3e 57ef 363f
1.0308931 0.76663566 0.6245096 0.48730227 1.3754864 0.6906502 1.0767493 1.0169252
1.1901559 0.6147048 0.65904814 1.0066061 1.2557285 0.711165 0.4282753 0.71458954

bn1.bias f4 [16]
00000000: fc8f 303f fc6b d2be 2230 263e 47e8 ae3e
00000010: bf7e 66bf 403c 8e3e ab04 333f 0522 9f3f
00000020: f7a8 eb3d 3362 e13d 09ec 7ebd e3ae a13f
00000030: 759b f03e d859 db3e 8095 0d3e 9e50 e2bc
0.689697 -0.4109801 0.16229299 0.3416159 -0.9003715 0.27780342 0.69929 1.2432257
0.11506837 0.11005058 -0.06223682 1.2631496 0.46993604 0.42841983 0.13826561 -0.027626332

bn1.running_mean f4 [16]
00000000: abc3 52be c676 37bf 7ad4 803e 05e4 00be
00000010: 524f 483f 3da6 8f3e 8c09 a33d 1333 55be
00000020: 1641 d13d f728 48bc 8bfd a53c b5c7 5b3d
00000030: 42b3 efbb 0209 13be 653a 97bd b033 de3e
-0.20582454 -0.7166561 0.25162107 -0.12586983 0.78246033 0.28056517 0.07960805 -0.20820265
0.10217492 -0.012216798 0.0202625 0.053657252 -0.0073150704 -0.14358905 -0.07384185 0.4339881

bn1.running_var f4 [16]
00000000: fe1b 6a41 3a26 2741 89cc a440 f447 c240
00000010: 9503 2e41 893f c640 4479 1141 3fb4 ad40
00000020: 7159 8441 521f b640 65bc 903f 2f73 1d40
00000030: 4535 9441 2865 2741 2c5d 3840 35d0 8440
14.631834 10.446833 5.1499677 6.0712833 10.8758745 6.1952558 9.092106 5.4282527
16.543673 5.6913233 1.1307493 2.4601552 18.52601 10.462196 2.8806868 4.150416

layer1.0.conv1.weight f4 [16, 16, 3, 3]
00000000: eae2 94be 2fb2 bebd fa53 0fbd 3b8c cebd
00000010: 0d0a 0abe 2743 8bbe 2ee7 41bd 8bc5 53be
00000020: ecce 8ebe c31c f8bd df2f eebd b868 dfbd
00000030: 3ad4 8bbd a4cf 9ebc 78c8 debb 4ae6 4dbd
00000040: c8a2 3b3c b393 3a3d a9f9 0fbe be7e d7bc
00000050: 9967 a53d f17c 09be 4ed5 8c3c 2799 113e
00000060: a595 f3bd a371 54bd 1aa0 473d 3622 e3bd
00000070: 0793 3d3d 7a91 3e3e a55b 5abe cb52 42bd
00000080: 0666 fd3d f8a5 82be 13e2 debd eac0 a23c
00000090: 02b3 d3bd 582e 8fbd bad9 f2bc 7cf3 8fbc
000000a0: 5bec a3bb 5d02 55bc 1b59 483d 7ece 993d
000000b0: 7a0f 733d 64f6 adbd 326d 7abd 0d2a 50be
000000c0: eb15 38bc d9b6 663d 74ff 65bd a203 fc3d
000000d0: b0ad 503e 928b 0b3e 3bd7 b93c f32b 49be
000000e0: e7d0 67be d2bf 3dbc 7646 61be 2e34 9abe
000000f0: 2c51 9dbe fe80 83bd 5d5b f3bd 5d2a a13e
00000100: f521 88bb 9173 13bd a735 47be 8d68 7b3e
00000110: 07a3 cc3e 9907 33bc 1fd8 bbbc 77fa 1bbe
00000120: b5d6 c7bd b61e a0bd f153 603d 137c 713b
00000130: f5a1 b13d 9a18 2039 d0f8 0ebe 433d dbbd
00000140: 24a4 363e 7a8c b7bd 0e5b ae3c 180c a93d
00000150: f360 c3bd af73 c33d a82d 353e a011 45be
00000160: 55aa 6f3c 442c 103e c7f6 47bc 6703 9dbd
00000170: f460 9bbe e5cd b83d 41ad 883c 3f83 bbbd
00000180: e1c7 68be 7d94 fabd dd8c a4bd 1831 4dbb
00000190: aa8a 903e 9659 e3bd 2d21 59be bee3 4bbe
000001a0: e7fa d3bd 09dd 4cbd ee42 983d 0792 2d3e
000001b0: 5bb4 983d 733b 113d c8e5 e6bd b9ac 81be
000001c0: 2e87 88bd 4c61 143c b426 52bd 9069 7e3e
000001d0: 9fa5 4c3e 4b92 113e 85b1 053e 0edb 513e
000001e0: 8b90 093e 6435 8b3e 5aa2 9e3e 36fc b4bd
000001f0: 4349 63bd 69e6 3c3e 1bfc 22be c385 0ebe
00000200: d39c 2ebe e0ee 9e3c f24e d83c 9a32 aebd
00000210: c9e6 45bd 98e8 90bd 8742 c4bd bebb 9ebd
00000220: e95e 2dbd 0c8b 9fbd a5a6 2cbd c84d 25bc
00000230: 9799 07bd 3dde 8d3d 4f5b c33d c556 763d
00000240: fe7b 4ebd d779 e8bb cbc1 3abd dcfc d63b
00000250: 71ec a9ba d65f 9b3c 1b79 56bc 0ca9 3dbd
00000260: fa0b d53c 23ca 47bd 6917 ddbd 5aac e5bd
00000270: fb2d e8bc 02d0 93bd ddf6 34bd e1da 1c3d
00000280: ddc5 8f3c ee62 39bc face 09be 4d46 7ebe
00000290: 1d7c 78be 5b7b 83be 9fa1 acbe 8c43 99be
000002a0: 7f80 20be e31b 6bbe 0bb4 6fbe 8b6f cb3c
000002b0: d400 7bbd fb40 94bd 910e a7bd f654 4bbe
000002c0: ddf9 31be 255e 6abd 5640 2ebe a971 09be
000002d0: 491b 84bb f033 f8bc c986 d2bb e0cd aabc
000002e0: 27a6 2bbd e8d0 89bc 7cf4 dabc bf35 c6bc
000002f0: 8292 10bc 16a9 e1bd d6c3 32be c33a 0fbe
00000300: 86aa a6bd 7ebc d9bd 4c45 f2bd 2bd4 1f3d
00000310: 8146 803c 141b 0fbd c0ec 78be 0fe5 66be
00000320: e80e 82be 6ee2 65be 3951 54be 15a7 71be
00000330: 5609 1cbb 1914 4e3d 15a0 c1bc 0816 2c3e
00000340: d8bc 15bc c226 cf3d 014a 27bd 2de8 19bd
00000350: 7c44 343c f16a 4e3e 9b5c db3d 1f14 2e3e
00000360: 29fd b03d 49af bb3d 9aca 433d d8fb 0e3d
00000370: e53b a9bb 0a6d bbbd 0457 c4bd 66ce eebd
00000380: addc 9ebd 9d48 80bc 42eb e4bd 41da e8bd
00000390: eaca b6bd 048e 40be e5de 26be f130 76bd
000003a0: 48ef 19be a78e e2bd 65fa 8ebd 0360 4cbd
000003b0: 8622 ebbd 8496 2cbe 2080 80be 44e0 82be
000003c0: 6212 76be bf18 82be 9418 83be 1b13 163d
000003d0: aed9 993d bb89 ae3d 2f82 0ebd dceb 0abd
000003e0: adfd ab3d 55d0 503b 71fa 8bbd 4aae 6dbd
000003f0: eab7 983d 4af3 b03c 3fb7 0f3e 0d77 a4bd
-0.29079372 -0.093113296 -0.034992196 -0.100853406 -0.13480397 -0.2719967 -0.04733961 -0.20680825
-0.27892244 -0.12114861 -0.116302244 -0.109086454 -0.068275884 -0.01938612 -0.0067988 -0.05026845
0.011452384 0.045551013 -0.14060082 -0.026305553 0.080764 -0.13426568 0.017191555 0.14218579
-0.11893777 -0.051866185 0.04873667 -0.110905096 0.046282794 0.18610182 -0.21324022 -0.04744224
0.12372975 -0.2551725 -0.10882964 0.01986738 -0.103368774 -0.06991261 -0.029644836 -0.017572157
-0.005002541 -0.013001052 0.048913103 0.075100884 0.05934093 -0.08494261 -0.061139293 -0.20328541
-0.011235694 0.05632672 -0.056151822 0.123053804 0.20378757 0.1362746 0.022685638 -0.19645672
-0.22638284 -0.011581378 -0.21999535 -0.30117935 -0.30725992 -0.06421088 -0.118826605 0.31477633
-0.0041544386 -0.035998885 -0.1945406 0.24551602 0.3996813 -0.010927104 -0.022930203 -0.15232264
-0.09757749 -0.07818358 0.054767553 0.0036847636 0.08673469 0.00015267954 -0.13962102 -0.10705044
0.17836052 -0.08962341 0.021283653 0.0825426 -0.09539976 0.09543549 0.17693198 -0.19245005
0.014628013 0.14079386 -0.012204832 -0.076666646 -0.30347407 0.09023646 0.016684176 -0.091558926
-0.22732498 -0.12235353 -0.0803468 -0.003130978 0.28230792 -0.111010715 -0.21204062 -0.19911095
-0.1035059 -0.050015483 0.07434641 0.16950236 0.07456275 0.035457086 -0.11274296 -0.2532709
-0.066664085 0.0090564005 -0.05130644 0.24844956 0.19985054 0.14215963 0.13056 0.20493719
0.13434045 0.2718917 0.3098324 -0.08837168 -0.05548979 0.1844727 -0.15916483 -0.13918214
-0.17052011 0.019401014 0.026404832 -0.08505745 -0.048315797 -0.07075614 -0.095830016 -0.07750653
-0.04232684 -0.07790193 -0.042151112 -0.010089345 -0.03310546 0.06927154 0.095389 0.060141344
-0.050411217 -0.0070946026 -0.04559497 0.006560905 -0.0012964142 0.018966597 -0.013090397 -0.046303794
0.026006687 -0.048776757 -0.10795481 -0.11214514 -0.028342238 -0.07217409 -0.04418074 0.038294677
0.017550403 -0.011315091 -0.13457862 -0.24831505 -0.24266095 -0.2568005 -0.33717057 -0.29934347
-0.15674017 -0.22959857 -0.23408525 0.024833461 -0.061280087 -0.072389565 -0.08157075 -0.19856629
-0.17380472 -0.05721869 -0.1701673 -0.13422264 -0.004031573 -0.030298203 -0.006424759 -0.020850122
-0.041906502 -0.016823247 -0.026727907 -0.02419555 -0.008823993 -0.11018579 -0.17457518 -0.1398726
-0.081379935 -0.10631655 -0.118296236 0.0390207 0.015658619 -0.034937933 -0.24309063 -0.22548316
-0.25401998 -0.22449657 -0.20734109 -0.23598893 -0.0023809276 0.050312135 -0.023635903 0.16805279
-0.009139262 0.10114814 -0.04084206 -0.037574936 0.011002656 0.20157982 0.107110225 0.16999863
0.086420365 0.09164292 0.047800638 0.034908146 -0.0051646107 -0.09151657 -0.095869094 -0.11660461
-0.07756934 -0.015659625 -0.11177684 -0.11369754 -0.089254215 -0.18804175 -0.16295965 -0.060105268
-0.15032685 -0.11062365 -0.06981353 -0.04989625 -0.11481194 -0.16854292 -0.25097752 -0.25561726
-0.2403045 -0.25409505 -0.2560469 0.036639314 0.07512222 0.08522364 -0.03479212 -0.03391634
0.08397994 0.0031862457 -0.06834877 -0.058027543 0.07456954 0.021600384 0.14034747 -0.0803052

layer1.0.conv1.bias f4 [16]
00000000: 6d85 2e3b f914 48bc 223e a7bb dc06 433b
00000010: 5b74 7bbc 7232 5ebc ea5d 193b b5d8 a6bb
00000020: 0f1f e13b e400 9fbb 6dd3 083c ce0f 543b
00000030: 433b 91bc cddc 6b3b ada2 603c 4292 febb
0.002662982 -0.0122120315 -0.0051038424 0.0029758727 -0.0153475655 -0.013561832 0.0023401924 -0.0050917515
0.0068701576 -0.004852401 0.008351189 0.0032358053 -0.017728454 0.0035989762 0.01371066 -0.0077689

layer1.0.bn1.weight f4 [16]
00000000: 7942 333f 0203 cb3e 3ef3 353f 3df5 833f
00000010: 9812 493f bbcf 3d3f 5978 623f e9fb 593f
00000020: 57c6 863f c901 883f 7803 8c3f 18c2 863f
00000030: c6cc b53f f196 a33f 7058 563f 0566 8c3f
0.70023304 0.39650732 0.71074283 1.0309216 0.78543997 0.74145097 0.88464886 0.8515001
1.0529279 1.0625545 1.0938559 1.0527983 1.4203117 1.2780439 0.83728695 1.0968634

layer1.0.bn1.bias f4 [16]
00000000: 7f75 86bd 514e bf3d 6103 a4be 34ab 6fbe
00000010: b86c 2cbe 8b75 56be 00b9 02be 548a 85bd
00000020: 2825 003f 3486 c83e 7e61 75be 7719 0d3e
00000030: 55b9 3f3f 57b1 95be ad82 b4be 4506 6dbe
-0.06565379 0.093411095 -0.32033828 -0.23405153 -0.16838348 -0.20943277 -0.12765884 -0.065205246
0.50056696 0.3916489 -0.23962972 0.13779245 0.7489217 -0.29236862 -0.35255948 -0.23146923

layer1.0.bn1.running_mean f4 [16]
00000000: fadf cfbf 6c06 32c0 5363 86bf 2e69 05c0
00000010: 95d9 f93e b854 18c0 4202 09c0 57e8 a03e
00000020: a1b8 a2bf 60a7 3fc0 07b1 21c0 3058 8fc0
00000030: cf5e 25c0 44b9 7bbf 5dc2 fcbf f2ab 2bbf
-1.6240227 -2.781642 -1.0499061 -2.0845447 0.48798814 -2.3801708 -2.1407628 0.3142726
-1.2712594 -2.9945908 -2.52643 -4.479515 -2.5839117 -0.9832957 -1.9746815 -0.6705924

layer1.0.bn1.running_var f4 [16]
00000000: 834d f93f ba94 4b40 6914 8740 5621 3541
00000010: d813 e23f 5918 2340 0f16 7b40 1927 bf40
00000020: 506c 9340 2aa8 3e40 b056 4b41 8c81 b440
00000030: e3cd d140 4ce2 2741 8296 1e40 4ac3 cc40
1.947678 3.1809525 4.2212415 11.320639 1.7662306 2.548361 3.9232213 5.9735227
4.6069717 2.979014 12.708664 5.640814 6.5563827 10.492748 2.4779363 6.398839

layer1.0.conv2.weight f4 [16, 16, 3, 3]
00000000: 417e 81bc 73b5 90bd c225 563d b82a e9bd
00000010: 7dbb a9bd 00be ecbb 8fc8 083e fd83 203e
00000020: 3ce2 ad3d 5236 05be b482 3bbe 6a40 91bd
00000030: 59f2 f1bd 306b f4bd 5434 9bbd 9beb eebc
00000040: dbb3 0b3d ca92 723c d444 033d 2ea3 063e
00000050: c8bf e83d b9d1 803d 06f7 d43c f732 973c
00000060: c6ad 2b3d 3a5d 573d 897f 56bd bf79 553d
00000070: c165 803e 444b c0bc 3d76 f83c 3596 f83d
00000080: 832a 513e 1e42 e8bc 2b31 b03d 6f29 c43b
00000090: beda 3bbd 74eb a7bd 1de7 00be 92ba 893d
000000a0: 8857 723d 9333 b6bd cb2a a83d 0870 cb3d
000000b0: c90a 78bd e097 513e 8544 8e3e b03b 453e
000000c0: ac9f 0abd f663 b4bc 9690 1fbb d9c1 4ebe
000000d0: 4945 42be 7b33 71be 1e12 d7bd 335d 303e
000000e0: 4ba8 b93a df47 91bd 61bb fa3d a43c 4c3d
000000f0: dced 973d cd4e 8d3d 8ac1 bc3c f77c 65bd
00000100: 5767 b4bd 7d86 67bc 14ac 90bd df50 4d3d
00000110: 8b16 03bd 544a e9bd 8163 bd3d 73b4 cfbd
00000120: d28c 77be 2655 c23e 0547 7dbd 7f69 6a3e
00000130: a964 14bf 9e71 aabc 8878 6d3e 6bd4 213e
00000140: f390 623e b9b4 803e 91bd 60be b769 043e
00000150: e56f dbbc 06f3 c0bd 419f f5bd 15f4 59be
00000160: e077 dd3e 8e41 c9bd 08d8 7fbe 8d2d 183d
00000170: a0e5 e13c 855b c23b 214e 843d 1c9e e2bc
00000180: 5a77 393e 44fd 5abd 9f1d 94be 5713 0cbe
00000190: eb3a 74be 3912 19bd 26e3 7a3d 5148 183e
000001a0: 91e3 b0bc 4544 f03d 554e de3e 7ed0 283e
000001b0: 650d 72be 53a1 4c3f 20d1 1abc acf2 ab3e
000001c0: 3bc0 a1be 10bb d33e 65b7 ec3c 91b6 41be
000001d0: c04b 62be d62c 023d e84a bfbb 6c42 e7be
000001e0: ba9a 8d3d 3a68 8b3e ccca 073e 9eae d6bd
000001f0: 28b9 6bbd 08cb 713e b3d4 c9bb bbfe d43d
00000200: d710 6e3d 88ac c4bd 552b 66bc 8a2a 10bd
00000210: 103d 6dbe e1d2 31be bd48 2cbe 1f15 b73d
00000220: 4c40 863e fc17 2b3e e712 703d 4509 f43d
00000230: e48d 583d 8e36 13be ff48 39be 518f 11be
00000240: 491b 803e da46 da3d c1e3 25be 9bcc 853e
00000250: 6094 223e 81b3 3ebd 6a47 093e 7ac5 0c3d
00000260: 7a30 ffbd 34d4 c73c 4f62 093e e23a 6a3e
00000270: 4693 02bc 3b9f 9a3b dac3 e73d 0668 993c
00000280: d999 d83b b248 053e f641 663d a350 b23c
00000290: c81d 4abd 9c2f 2dbd 9f32 12bc cfde b5bc
000002a0: 1fe0 84bd 5b95 febc 2188 7d3c a463 c4bd
000002b0: 0167 78be fadb 48be e16f 3dbd 79fe 6bbe
000002c0: f538 7dbe 1a9b 60be 594d 97be 7c34 1ebe
000002d0: d02e 0c3d 1511 cb3c 79dd b83d b188 b63c
000002e0: 73b6 e83b 192e bf3d 3af8 c4bd e41e 4cbd
000002f0: e981 81bc efa0 2dbe efc5 6fbd c89b 35bb
00000300: 1a38 07bd c2c8 8b3d 57ad 553e 84ee 403b
00000310: 4f9b bd3d 876e 6f3e e495 64bd 42da 02be
00000320: 7850 29be a8c2 a63d f407 443d 2f59 81bb
00000330: 2ecc c6bd d62b 25bd d0bd b53c 11d2 38bd
00000340: cb17 8f3d 0af0 9b3d f13d 97bc 30ad f13d
00000350: 0670 0b3e 7f97 0dbe 70c0 033d 8c8d 893d
00000360: a78c 983d 6668 9b3c cbc3 63bd ba87 18be
00000370: 36d4 313e 805a 91bd bf69 d1bc 71f8 283b
00000380: a298 b0bd 11ca a63b 397c 333e 4fe1 753d
00000390: fca0 693d 0778 47bc 3278 e13d 287c 913d
000003a0: 2c64 ac3d bec2 a33b 9e5f 963e f62c 04bb
000003b0: 5aa6 83be 0760 b43e 10eb 803e f5ed 033e
000003c0: 305d 143e 59e6 f83d 1c14 b23c f14d cebc
000003d0: 15d2 b73d dad8 3d3d 06a2 28be 7e6e 71bd
000003e0: 762f 07bd c784 e5bc 0abc b4bc c43f 01bd
000003f0: 6a88 16be 2fbd 7dbe 1ccc 8ebe 1e83 a9bb
-0.015807273 -0.07065859 0.052282102 -0.11385101 -0.08287714 -0.007224798 0.13357757 0.1567535
0.084904164 -0.13009003 -0.18311578 -0.07092364 -0.11813802 -0.11934507 -0.0757834 -0.02916508
0.03410707 0.014805505 0.03204806 0.13148186 0.11364704 0.062900014 0.025996696 0.01845692
0.04191377 0.052579142 -0.05236772 0.05211806 0.25077632 -0.02347339 0.030329818 0.12138025
0.20426373 -0.02835184 0.08603128 0.0059863846 -0.045862906 -0.08199206 -0.12588163 0.067250386
0.059165508 -0.08896556 0.08211287 0.09933478 -0.06055716 0.20468092 0.2778665 0.1926105
-0.03384368 -0.022020321 -0.0024347655 -0.20191135 -0.18971743 -0.23554794 -0.105015025 0.17223053
0.0014164535 -0.070937864 0.12242771 0.04986252 0.07418415 0.06899796 0.023041505 -0.05602738
-0.08808773 -0.014131186 -0.07064071 0.050125953 -0.03200392 -0.1139113 0.092474945 -0.1014184
-0.24174812 0.37955588 -0.061835308 0.22891806 -0.57966095 -0.02080613 0.2319051 0.15803687
0.22125606 0.2513788 -0.21947314 0.12930952 -0.026786754 -0.09421353 -0.11993266 -0.21284516
0.4325552 -0.09826957 -0.24984753 0.037152816 0.027575314 0.00593132 0.064602144 -0.027663283
0.18111935 -0.05346419 -0.2892885 -0.13679253 -0.238506 -0.037370894 0.061251782 0.14871337
-0.021592887 0.117317714 0.43419138 0.16485783 -0.23637922 0.7993366 -0.009449273 0.3358358
-0.31591973 0.41353655 0.028896043 -0.189173 -0.22099209 0.03178104 -0.005837787 -0.45167863
0.069142774 0.27227956 0.13260955 -0.10482524 -0.057549626 0.23612607 -0.006159389 0.104001485
0.05812153 -0.0960322 -0.014048417 -0.03519682 -0.23167825 -0.173656 -0.16824622 0.089395754
0.2622093 0.16708368 0.058611777 0.119158305 0.052869692 -0.1437628 -0.18094252 -0.14214827
0.25020817 0.10658045 -0.16200162 0.26132664 0.15876913 -0.046557907 0.13406149 0.034368016
-0.12460418 0.024393179 0.13416408 0.22874025 -0.007969683 0.004718689 0.113166526 0.01872636
0.006610137 0.13016012 0.05621525 0.021766966 -0.049344808 -0.042281732 -0.008923202 -0.02220097
-0.0648806 -0.031077078 0.01547435 -0.095893174 -0.24258043 -0.19615164 -0.046249274 -0.23046292
-0.24728759 -0.21934167 -0.295512 -0.15449709 0.03422433 0.024788419 0.090266176 0.022281976
0.0071018278 0.09334964 -0.09617658 -0.049834147 -0.015809016 -0.16955923 -0.058538374 -0.002771126
-0.033012487 0.06825401 0.20866905 0.0029439041 0.092581384 0.23382007 -0.05580701 -0.12778571
-0.16534603 0.081425965 0.047859147 -0.003947399 -0.09706913 -0.04032501 0.022185236 -0.04512221
0.0698696 0.07614143 -0.018462153 0.11800611 0.13616952 -0.13827322 0.032165945 0.06716451
0.07448702 0.01897068 -0.055606645 -0.14895526 0.17366108 -0.0709734 -0.025563119 0.0025782848
-0.086228624 0.005090006 0.17527856 0.060029324 0.057038292 -0.012174613 0.110092536 0.07103759
0.08417544 0.0049975803 0.29369825 -0.00201684 -0.25712854 0.35229513 0.25179338 0.12883742
0.14488673 0.1215331 0.021738105 -0.02518365 0.08975617 0.046349384 -0.16468057 -0.058943264
-0.033004247 -0.028017415 -0.02206232 -0.031554952 -0.14700475 -0.24779199 -0.27890098 -0.005173101

layer1.0.conv2.bias f4 [16]
00000000: 75d7 f3bb c756 d33c 0d03 11bc 6f92 433b
00000010: 58f5 453c 647c 023c dd4b a1bb a222 36bc
00000020: 1e49 5e3c f5ba 2bbc b993 75bc 4bb2 953c
00000030: 853e 5bbc 855f e93b b5a9 44ba 8805 023b
-0.007441456 0.025798215 -0.008850825 0.002984192 0.01208242 0.007964227 -0.0049223737 -0.011116656
0.013567237 -0.010481586 -0.014988833 0.018273493 -0.013381605 0.0071219825 -0.0007502095 0.0019839723

layer1.0.bn2.weight f4 [16]
00000000: 2fad 763f 94ef 393f e2ea 503f ff33 ff3e
00000010: 115c 393f 9c85 243f d4c7 a33f 78a0 853f
00000020: 6320 8d3f 5fd4 513f f82c 273f 6d91 a23f
00000030: 2a41 983f de45 a73f 6372 463f 25b3 983f
0.9635801 0.7263119 0.816084 0.49844357 0.7240611 0.6426637 1.2795358 1.0439596
1.1025509 0.8196468 0.6530299 1.270063 1.1894886 1.3068197 0.7751829 1.192967

layer1.0.bn2.bias f4 [16]
00000000: 336f 97be aa5e 3e3e 195e c83e f1a5 ad3e
00000010: 06b9 f1be 7052 093e 2767 d6be d5a6 0b3e
00000020: da6f 3b3d 9c8f 04be 88fd 0f3f 1d66 6abd
00000030: d76a a2be bcb0 d93e fdad 9ebd bcdf 503e
-0.29577026 0.18590799 0.3913429 0.33915666 -0.47211474 0.13410354 -0.41875574 0.1363786
0.045760967 -0.12945408 0.56246233 -0.05722629 -0.31722137 0.4251765 -0.077480294 0.20397848

layer1.0.bn2.running_mean f4 [16]
00000000: 4d1e 863f d18d 02bd 1fb3 0abe e774 1dbf
00000010: 6144 c53f de29 c43e c149 e23e 82ed ce3d
00000020: 0eff a23e 2bac 22bf e43c 02bf 9711 18bf
00000030: 1f7e 56bf 2c3b 12bf 8b56 c3bf d133 dabf
1.0477997 -0.031873528 -0.13544892 -0.61506504 1.5411493 0.38313192 0.44196895 0.10103895
0.31835216 -0.6354396 -0.5087416 -0.5940184 -0.83786196 -0.5712154 -1.5260786 -1.7047063

layer1.0.bn2.running_var f4 [16]
00000000: 3d13 4b40 d24e d83f 06bd 3c40 8609 fe3f
00000010: 5894 dd3f e65c 0240 dab6 a740 fe25 2940
00000020: a428 0440 6100 0f40 89aa 5640 d023 2a40
00000030: a1e9 1940 3663 7d40 70d3 0940 3ee7 7940
3.1730492 1.6899054 2.949037 1.9846656 1.7310896 2.03692 5.2410707 2.6429439
2.0649805 2.2343981 3.3541586 2.6584358 2.4048846 3.9591804 2.1535301 3.904739

layer1.1.conv1.weight f4 [16, 16, 3, 3]
00000000: 0e9c d6bc da02 a5bd 4f36 30bc e0b5 273e
00000010: f40c 473d 5ba4 3c3d 26df 633e 5789 203e
00000020: f59b 723b 3597 c3bc ebb9 81bd 76c2 a2bc
00000030: 20e4 9b3d b739 9a3c c21e 253d bc10 cd3c
00000040: 5312 383c 89d5 dc3d 93ac e53c b83c 3b3c
00000050: ba7e b7bb 372d 053d c74f 103d d57f 0b3c
00000060: 0412 b73d 2f14 9a3d 10c8 963d a15e e6bc
00000070: eb6c 19bd 95b4 b8bd ba0e e1ba 5a7c adbc
00000080: 7403 9abd 59b9 1a3d ca43 693c 968b 00bd
00000090: 66ea ab3c 0d93 e0bc cbd4 d5bc 721a 983d
000000a0: b1d7 af3c 87f6 433c 5d5f 22bc c9d9 f1bb
000000b0: baa6 61bd edb5 84bd d902 b5bc 359f 2c3d
000000c0: d531 a03d fadd 8a3d 919a d63c b714 9d3b
000000d0: d5c2 e3bc 6613 243c 711a 673e bc9c ae3e
000000e0: fd96 923e 2a29 273e 50d0 983e f375 483d
000000f0: 7616 7ebe c062 15be c7d5 31be a7ba 063e
00000100: c2a4 c93d 4022 af3c 15f6 47bd 6950 04bd
00000110: dcc3 25bc a379 193d 7492 7abd 22b8 c6bc
00000120: cd69 afbd aa72 edbd 4307 45bd 859e 8d3c
00000130: 53e8 a73c 6352 673c 09df 0fbd 7472 c5bd
00000140: 5e48 283c 9893 013e 1be2 0a3c ac6b d7bb
00000150: 5356 163e 2836 7c3d f1bd c1bd 5f22 17bd
00000160: b9f0 96bd 7bd9 dcbd 273c 433e 929d 883e
00000170: a26d 7f3e 8fc7 e8bd 9d4e 96bd cf08 2dbd
00000180: cbe0 17be cd0b 02be 31f7 09be d549 0abd
00000190: bb8d ab3b 7519 85bd 0bcd 673d 4776 c33d
000001a0: 66f5 bf39 2776 733d de82 96bd ebe9 0fbe
000001b0: 7eb8 75be c8a5 41be 04ee 543c c8a2 743d
000001c0: 3aff 013d 4d8c c23d 18b9 0d3e 7000 a63d
000001d0: 8186 d73d f929 67be 020e 6bbe e035 4abe
000001e0: 1c6c a63c 00ca c93d 8627 a63a 277c 323c
000001f0: bcc9 913d bc1b 263e 0978 5d3c 5c0d 00bc
00000200: 959d 3b3d cd58 873d 09ee d53d 246b b23d
00000210: 92c5 b13d 5fad 483e f77b 263e 6016 633e
00000220: b22e 7e3e 426d 2f3e 2760 533e 5b78 213e
00000230: fff8 d73d 35c2 453d 7166 513d 9245 eb3b
00000240: caca b2be f11c e0be 157c 53bd 5bd4 85be
00000250: 2d8e 9a3e 646e aabe 9536 d83d 5b76 fabd
00000260: b84f d1be 5a76 05bd 2eba 3d3d 5c43 3c3e
00000270: 22f3 f83d 3d4f 9b3d adfa 343d 63ae 9abc
00000280: 108a 233d e22f 473d ef48 9d3d eb46 fdbc
00000290: 7335 cbbd 6a4e f6bc f53f 19be 19c0 ccbd
000002a0: f1c5 97bd 05ac a2bd 6ec5 a03d 4fa3 9ebd
000002b0: 0d5d 9f3d f3a5 693d 807c cabc 7d64 8b3b
000002c0: 8684 28bd 4b77 f3bc 6a2b e8bd 8592 553d
000002d0: 06ce f03d 850d c53d 1a27 113d a967 853d
000002e0: 5b7e 623b d99f 45bd 10fd cb3c bc5a 42bd
000002f0: 75dd 95bd 8622 9f3d 824e 4a3c cb41 4d3c
00000300: bf40 8f3d c7d7 9bbd 5392 803d 91f5 f6bd
00000310: 8d1b 6b3d a19b 41be ee6f 1bbc d830 4d3e
00000320: ad3a 64be bd96 f2bd de17 0fbf 4a6c cdbd
00000330: 2059 d4be 07c5 1abb 5a8a 183d eec3 a33e
00000340: 49f4 c9bd da46 c2bd 806f 25be 57f1 96be
00000350: d777 dd3e 8d76 ebbd 5b9c f83e c3c1 6f3a
00000360: 7d05 94bd ddb3 84be fe6e 5f3d 4256 cebe
00000370: 3726 403e d0e6 833e 230f 4cbd 87d0 fe3d
00000380: 3a45 cbbe 5cc5 8e3d a94f bc3d 2ecf 1c3a
00000390: 79b7 30be a76b edbd f6ee cfbd 60b0 cf3a
000003a0: ebfc b53d 1398 c4bd 6c82 93be 6706 5dbe
000003b0: 37d0 97bc e8df 9cbc 7853 8d3d 4183 bbbd
000003c0: 02b8 193e 30e0 58bd 776f 91bd e585 2ebe
000003d0: de91 ae3e 1ad3 69bd f14d cc3e b03a 733c
000003e0: 1479 dcbe 33da 2abd 4774 c5be 0f4b 9a3e
000003f0: 9141 953d f926 adbd f2d9 81bc 4445 58bc
-0.02619746 -0.080571845 -0.010755136 0.16377974 0.048596337 0.04605518 0.22253093 0.15677391
0.0037019227 -0.023875812 -0.06334289 -0.019868117 0.07611871 0.018826349 0.040312536 0.025032394
0.011234838 0.10782916 0.028036391 0.011428051 -0.005599824 0.032513823 0.03523233 0.008514364
0.08938983 0.07523381 0.07362378 -0.028121294 -0.037457388 -0.09018818 -0.0017170527 -0.02117746
-0.0752019 0.037774418 0.014237354 -0.03138312 0.020985793 -0.02741387 -0.026102444 0.07426919
0.021465154 0.011960632 -0.009910432 -0.0073806983 -0.055090643 -0.06480012 -0.022096084 0.04214402
0.07822005 0.0678062 0.02619675 0.004793729 -0.027802864 0.010014391 0.2256868 0.34103954
0.2863082 0.16324297 0.2984643 0.04894061 -0.24813256 -0.14588451 -0.17366706 0.1315714
0.09845878 0.021378636 -0.048818666 -0.032303248 -0.010117497 0.037469517 -0.061174825 -0.024257723
-0.08565102 -0.11594136 -0.04810263 0.017287502 0.020496523 0.014118764 -0.035124812 -0.09640971
0.01027116 0.12653959 0.008476759 -0.006574115 0.14681368 0.061575085 -0.094600566 -0.036898013
-0.07370133 -0.107836686 0.19065915 0.26682717 0.24944165 -0.11366188 -0.07339213 -0.04224473
-0.14831845 -0.12699814 -0.13473202 -0.033761818 0.0052354014 -0.06498996 0.05659203 0.09544044
0.00036613195 0.05943885 -0.0734918 -0.14054076 -0.2399616 -0.18910897 0.0129962005 0.059725553
0.031737544 0.094994165 0.13840139 0.08105552 0.105237015 -0.22574605 -0.22954562 -0.19747114
0.020315222 0.098529816 0.0012676574 0.010893858 0.07118556 0.16221517 0.013517388 -0.007815685
0.04580458 0.06608734 0.10445792 0.08711842 0.08680262 0.19597386 0.16258226 0.22176504
0.248225 0.17131522 0.20642148 0.15768568 0.10545539 0.048280913 0.051123086 0.0071799243
-0.3492034 -0.4377208 -0.051632006 -0.26138577 0.30186597 -0.33287346 0.10557286 -0.12229606
-0.40881133 -0.032583572 0.046320133 0.1838507 0.12155749 0.07583473 0.044184376 -0.018881982
0.03992659 0.04862965 0.076799266 -0.030917605 -0.09922304 -0.030066688 -0.14965804 -0.09997577
-0.07410801 -0.07942966 0.07850157 -0.077459924 0.0778142 0.057043027 -0.02471757 0.0042539225
-0.04114201 -0.02971997 -0.113364056 0.052141685 0.11758046 0.09621719 0.03543768 0.06513912
0.0034560177 -0.048248146 0.024900943 -0.047449812 -0.0731763 0.07770257 0.012347819 0.012527893
0.06994771 -0.07609516 0.06277909 -0.12058557 0.05739932 -0.18907024 -0.009487135 0.20038164
-0.22288008 -0.11845157 -0.55895793 -0.1003042 -0.41474247 -0.0023615973 0.037241317 0.3198542
-0.09861047 -0.0948617 -0.16155815 -0.29481003 0.43255493 -0.11497221 0.4855679 0.0009145999
-0.07227609 -0.25918475 0.05454921 -0.40300184 0.18764578 0.25762033 -0.049819123 0.12442117
-0.39701253 0.06971237 0.091948815 0.00059818 -0.1725749 -0.11592799 -0.10153 0.001584541
0.08886131 -0.09599318 -0.28810441 -0.21584474 -0.018531902 -0.019149736 0.06900686 -0.09155894
0.150116 -0.052948177 -0.07101338 -0.17043264 0.34095663 -0.057086088 0.39903215 0.014845535
-0.43061125 -0.041711997 -0.38565275 0.3013539 0.072878964 -0.08454699 -0.015850995 -0.013200108

layer1.1.conv1.bias f4 [16]
00000000: 5322 16bb a121 74bc 1eae 2f3c b3d7 853a
00000010: b8bf 3fbc ab4c 693c f6bc 71bc 9f72 80bc
00000020: 5a77 82bc fad8 febb 2f9b 573c 4ff5 3dbb
00000030: 20c2 963c 7fce fbba ec6c 79bc cf5f 5c3a
-0.0022908642 -0.014900596 0.010722665 0.0010211378 -0.011703424 0.0142394705 -0.014754524 -0.015679656
-0.015926052 -0.0077773305 0.013159557 -0.0028985327 0.018403113 -0.0019211321 -0.015223723 0.00084066106

layer1.1.bn1.weight f4 [16]
00000000: 9b0a 253f a3d6 863f b170 ce3e 5bf3 353f
00000010: 0710 553f 0146 283f 709f 3d3f d18f 3c3f
00000020: e3c5 673f b5df 193f c7f2 783f ff5d 883f
00000030: 6a57 3a3f b84f b23f a61e 333f 217d 1c3f
0.6446931 1.0534252 0.40320352 0.71074456 0.8322758 0.6573182 0.7407141 0.73656946
0.90536326 0.60106975 0.9724545 1.0653685 0.72789633 1.3930578 0.6996864 0.6112843

layer1.1.bn1.bias f4 [16]
00000000: bb23 8fbe 0556 d7be 9139 c1be ae7a 50be
00000010: 0115 f6be acf6 cfbe 5f19 92be 883f 32be
00000020: 2ebb edbe fbd6 98be fc47 b8be b461 91be
00000030: f8cd 21be 28b4 debe d081 c7be 8db9 d6be
-0.27956948 -0.42057815 -0.37739232 -0.20359299 -0.480629 -0.40617883 -0.28534982 -0.17407048
-0.4643187 -0.29851517 -0.3599242 -0.28394854 -0.15801227 -0.43496823 -0.38966227 -0.4193844

layer1.1.bn1.running_mean f4 [16]
00000000: 0ccf 0740 2080 86c0 80ad 5c40 7bb1 62c0
00000010: e2cd 25c0 eaf7 7fc0 9419 603e 873b 28bf
00000020: 46e4 91bf 73a7 24c0 df69 b3bf 0c44 e53c
00000030: 4008 9140 75ab 1bc0 aca4 6ac0 12fb 7fc0
2.1220121 -4.2031403 3.4480896 -3.5420825 -2.590691 -3.9995065 0.21884757 -0.6571583
-1.1397789 -2.5727203 -1.4016684 0.027986549 4.532257 -2.43234 -3.6663008 -3.999699

layer1.1.bn1.running_var f4 [16]
00000000: 68f6 9740 8627 4341 5c5a f93f 9650 c640
00000010: 3f78 b540 d425 2d40 a087 bb40 e899 3441
00000020: 9f66 b440 cf4c 3640 0071 8d41 ef20 d841
00000030: 0927 a540 ac44 9542 a5be ca40 5c20 6440
4.748829 12.197149 1.94807 6.197337 5.6709285 2.7054338 5.860306 11.287575
5.637527 2.848438 17.680176 27.01608 5.161015 74.634125 6.335772 3.564475

layer1.1.conv2.weight f4 [16, 16, 3, 3]
00000000: b6b8 89be aba3 4bbe 33ed 05be dc48 93be
00000010: 5ee7 9bbc 8c57 eebd aee7 9dbe 8cc2 c6bd
00000020: a361 0fbe 91e0 243e 01ce 673e ecf6 0c3e
00000030: 6f60 a03d e561 1a3e 34d2 9a3e 6f2d 593e
00000040: bfe1 053e 921a 453e 1475 0abd fec2 2ebc
00000050: 7d1f 33bd 8c16 08be 75c6 edbd e65d f4bd
00000060: dcc9 8fbd c25c f0bc e900 26bd fb65 5f3e
00000070: 204d da3d 58ad 853e 2fc2 683c f31b 0b3d
00000080: 306d 503e 4892 99bc ad18 5bbe 3bcf ddbc
00000090: fccf 233d 6649 4bbe 344b e9bd a48f e93d
000000a0: bb6c 59bd 8f60 f9bd 2391 913c ccde 053e
000000b0: b7c2 0b3c 2717 34bd 37f3 1d3d e1e0 013d
000000c0: 86fa 3abd 8960 563d c109 bc3d c377 02be
000000d0: 4c14 56bb fdcc 85bc 09f2 dfbd 3807 2cbe
000000e0: 2b0f 7fbd cb57 92bd acef 44bd cd58 40be
000000f0: d304 f8bd 1f87 7c3b 82c9 6d3d 729a dcbd
00000100: 3e07 143d 8e1a 28bc 5f1a d6bc 5588 623e
00000110: c159 e03d 1b7b ff3d aa3c 903e cf75 333e
00000120: 4bf3 af3c 8fff 8bbc 67f6 93bd 2a56 e8bc
00000130: 7bfd 01be b311 fdbd ea55 10bd 2b92 21be
00000140: 8354 d6bd 44c0 6a3c 4d1a 1b3d f25e 30bd
00000150: 8855 82bc ddbf 58bd 2249 0ebe c403 1e3d
00000160: 3805 493d e6c8 29be 3305 2d3d e2d9 1abe
00000170: 90d1 1bbd ff66 a03c 1916 fd3b a4ce efbd
00000180: 7d43 56bc 1b66 e5bc 1d04 13be 77ac 073d
00000190: b76b 1d3e 6153 b63c 973a c43d dca6 d63e
000001a0: 6d31 a83d 97dd 123e ee56 343e 00e7 ec3d
000001b0: 4921 0dbe 9c83 a4bd 3fe5 c2bd 4e7c 6abe
000001c0: d11e b4bd 2de3 02be 468c c1bd ce87 de3b
000001d0: a66d f6bc 2f3b 64bd 53e6 5fbe e715 c4bd
000001e0: 5cf9 60bd a834 57bd 33cb 09bd 6430 a9bc
000001f0: ff5f 113d d048 283d 938d 143c b949 9abd
00000200: aab3 8bbd c74e babd 944b b0bd 01c1 26bd
00000210: 974f 8abd 1fd7 a43d ca25 003e 20da 80bb
00000220: fa96 2abd 28c2 46bd 8bf7 5dbc 3583 a2bd
00000230: 54e4 98bd 4a38 3b3b 428c 58bd 3611 05be
00000240: 0bd9 fbbd 0694 babd b882 0cbe af6a 36be
00000250: 5109 3ebe 7098 28be c81a 03be 5aca 46be
00000260: 44bd 2abe 1bed 07be 2c23 45be 839f 3fbe
00000270: 8439 45be 5b30 84be 3533 4ebe a13c 51be
00000280: a2a2 04be 8599 4fbe cfc7 9cbd 5c68 22bc
00000290: cdff 2abd 10a8 8bbd 84b0 f839 dd4f 16bc
000002a0: 4092 47bd 8d80 29bd 97b7 a2bd 8d87 623d
000002b0: 1d49 b93c 3688 c1bd 1c1d 163c 5dc0 be3c
000002c0: 5acc 54bd a9d0 453c cac3 85bd c7db 9cbd
000002d0: 2148 d23c 9558 193e ae0a de3d 53d7 9fbc
000002e0: 4983 d83d 42b4 d33d c994 31bd d9dc b03d
000002f0: 00b4 a03d ac32 e9bd 5be1 31bd 4ce6 e53d
00000300: 03d6 61bd fbd1 62bc b682 963d 82ee 66bc
00000310: 22f7 2ebc 37ec a13d 86fa a7bd e7e4 0f3d
00000320: a2ad 963c 865f 2abe a79d 1c3d 3763 cb3c
00000330: 2c5f 6bbe 8a24 bebd fd15 ffbd 8078 d93c
00000340: 98e8 ccbc 283f 763d 777d c1bd a1f5 b5bd
00000350: 7500 62bd c8e0 24bd 2f07 3dbe 736b c3bd
00000360: 9b85 6ebc 8eb3 763d 357d 823d 9bfc 1c3d
00000370: d348 0c3d 3cb6 b03b 6440 333d 4115 cc3d
00000380: e818 99bc e11f 91bd f7e5 08bd 3c4d 953c
00000390: b407 15bd 70a3 18bd 5b30 973c c314 ab3b
000003a0: 194d d43c 80d1 693d 7fef 383c cab5 1cbd
000003b0: b55e a6bd cfc6 9cbd 6e88 04be 2abf eebd
000003c0: e5c2 4bbe cc9a 3fbe fb9b cfbd 55de 87bd
000003d0: 67be 02bd 0e0d f33c 7819 723a 6d0a e4bd
000003e0: 7195 adbc 0677 033d 973f b7bd 14c1 70bd
000003f0: 6beb 3cbe 423a 5fbb 25ec ea3b f3fb 2ebe
-0.26898736 -0.19886653 -0.13078766 -0.28766525 -0.019031223 -0.11637792 -0.3084082 -0.097050756
-0.14002089 0.1610129 0.22637178 0.13766068 0.07830893 0.15076406 0.30238497 0.21208738
0.13074397 0.19248417 -0.03380306 -0.010666607 -0.0437312 -0.13289851 -0.11610118 -0.11931972
-0.070209235 -0.029341105 -0.04052821 0.21816246 0.10659242 0.26108813 0.014206453 0.0339622
0.20354152 -0.01874651 -0.21396132 -0.027076354 0.03999327 -0.19852218 -0.11391297 0.114043504
-0.05308221 -0.1217662 0.017769402 0.13073272 0.00853031 -0.043967392 0.038562026 0.0317086
-0.045649074 0.052338157 0.09181548 -0.12740998 -0.0032665906 -0.016333098 -0.109348364 -0.16799629
-0.062270325 -0.071456514 -0.04808013 -0.18783875 -0.12110295 0.0038532687 0.0580535 -0.107716456
0.03613972 -0.010260237 -0.026135622 0.22122319 0.10954619 0.124746524 0.28171283 0.17525409
0.021478316 -0.017089633 -0.07224732 -0.028361399 -0.12694351 -0.123568915 -0.035238184 -0.15778415
-0.10465338 0.014328066 0.03786688 -0.043059297 -0.015909925 -0.05291735 -0.13895085 0.03857781
0.049077243 -0.16580543 0.042241286 -0.15122178 -0.03804165 0.019580362 0.0077235815 -0.117093354
-0.013077614 -0.02800279 -0.14357038 0.03312346 0.15373121 0.022256555 0.095814876 0.4192418
0.08212552 0.14342342 0.17611286 0.11567497 -0.13782229 -0.08032915 -0.095163815 -0.22898981
-0.0879494 -0.12781973 -0.09450583 0.0067910915 -0.030081581 -0.055720504 -0.21865205 -0.0957449
-0.054925308 -0.05254045 -0.03364105 -0.020652957 0.03549194 0.041085064 0.009066957 -0.07533593
-0.068213776 -0.09097057 -0.086081654 -0.040711407 -0.06753462 0.080488436 0.12514415 -0.0039322525
-0.04164789 -0.048525006 -0.013547788 -0.07935182 -0.07465425 0.0028567486 -0.052868135 -0.12994847
-0.12297257 -0.091102645 -0.1372174 -0.17814134 -0.18558241 -0.164644 -0.12803185 -0.19413128
-0.16673762 -0.13274042 -0.19251698 -0.18713193 -0.19260222 -0.25818142 -0.20136721 -0.20433284
-0.12952664 -0.20273407 -0.07655298 -0.0099125765 -0.041747857 -0.06819165 0.0004743376 -0.009174314
-0.04872346 -0.04138236 -0.07945173 0.055305053 0.022617871 -0.09449808 0.009162214 0.023285085
-0.051952697 0.012073674 -0.065314844 -0.07659107 0.02566916 0.14975198 0.10841881 -0.019511854
0.10571916 0.10337116 -0.043354783 0.08635873 0.07846832 -0.11386618 -0.043427806 0.11225566
-0.055135738 -0.013844009 0.0734915 -0.014094951 -0.010679038 0.079063825 -0.082020804 0.035130408
0.018393341 -0.16638002 0.038236286 0.024827583 -0.22985524 -0.09284313 -0.12455366 0.026546717
-0.025013253 0.060118824 -0.09447759 -0.088847406 -0.055176217 -0.04025343 -0.18459772 -0.09541979
-0.014558221 0.06022983 0.063715376 0.03832684 0.034249138 0.005392818 0.04376258 0.09964991
-0.018688634 -0.070861585 -0.033422437 0.018225305 -0.0363843 -0.03726524 0.018455675 0.005220981
0.02591567 0.05708456 0.011287569 -0.038259305 -0.08123533 -0.07655107 -0.12942669 -0.116575554
-0.19898565 -0.18711394 -0.10137173 -0.06634203 -0.031919863 0.02966931 0.00092353625 -0.11134801
-0.021189423 0.03209593 -0.08947676 -0.058777884 -0.1844918 -0.0034061824 0.007169264 -0.17088298

layer1.1.conv2.bias f4 [16]
00000000: a67c 583c ffb0 41bb a2ee 8a3b 53a9 133c
00000010: e271 39bc e2e4 f2bb 0e20 96bc 6f4d 93bb
00000020: cbd7 6dbb a616 8b3c 9f5d c73b cf66 3b3b
00000030: 72a8 d1bb 1172 b0bb 709f c139 b7d8 6b3c
0.013213312 -0.002955496 0.004239873 0.009012538 -0.011318656 -0.007412539 -0.018325832 -0.004495315
-0.0036291953 0.016978573 0.0060841586 0.0028595214 -0.006398254 -0.0053846915 0.0003693062 0.014394931

layer1.1.bn2.weight f4 [16]
00000000: 6226 3b3f e5c9 243f 18c8 3c3f 9654 c23e
00000010: e525 0a3f e3bb 0f3f 55cc c73e 4e97 263f
00000020: f9e3 0f3f a1eb 243f 1ec4 dd3e 748c 6a3f
00000030: 62a2 873f ee97 6c3f 48ff 793f ef34 153f
0.7310544 0.64370567 0.7374282 0.3795516 0.5396407 0.5614607 0.3902308 0.6507462
0.56207234 0.6442204 0.43313688 0.91620564 1.059643 0.92419326 0.97655153 0.58283895

layer1.1.bn2.bias f4 [16]
00000000: 16ae 023e 1cac 3d3e 3941 833e 7ebe f63d
00000010: 6f5a 8abc 9993 13bb 74da 12bf 06c5 c6be
00000020: 433a f43b 66cf 52bc b785 a63c 871f 3cbf
00000030: 36da 683d 8231 fabe f3a9 fe3d 2413 7c3d
0.12761721 0.18522686 0.25635698 0.12048052 -0.016888825 -0.0022518395 -0.57364583 -0.38822192
0.0074532344 -0.01286683 0.020327432 -0.73485607 0.056848727 -0.48865896 0.12434759 0.06154169

layer1.1.bn2.running_mean f4 [16]
00000000: a9bb 5fbd b523 9fbf cecb 6ebf 7618 1bbf
00000010: 7f4d 9e3e 9ff0 b7be 02f2 f6be b800 b3be
00000020: 8fa4 f13d badb 70bf 37ab 57bf b744 033f
00000030: 80f1 3cbf f57f 723d a218 90bf 4c0f 36bf
-0.054622326 -1.2432772 -0.9327973 -0.605842 0.309185 -0.35925767 -0.48231512 -0.34961486
0.11798965 -0.94085276 -0.8424563 0.51276726 -0.73806 0.05920406 -1.1257517 -0.7111709

layer1.1.bn2.running_var f4 [16]
00000000: a28b 513f d29e 583f d304 a53f 1986 623f
00000010: 8836 303f 6eba 313f 27b7 853e 1195 0f3f
00000020: d425 0a3f aa07 0f3f b27d 963f ed0b 653f
00000030: 5ea9 643f e10e 883f 3dbd c13f 26f4 ad3f
0.8185369 0.8461734 1.2892097 0.88485867 0.6883321 0.69425094 0.26116297 0.5608683
0.5396397 0.5587107 1.1757109 0.8947132 0.89320934 1.0629541 1.5135876 1.3590133

layer2.0.conv1.weight f4 [32, 16, 3, 3]
00000000: 5ed8 78be cd56 b9be 64fb 48be ffe6 a4be
00000010: d8bf 8bbe 4af3 69be 7b72 89be 0ddb 96be
00000020: e101 64be a514 15bd ad40 c93d 7384 193e
00000030: e718 73bc e7b3 853d d83a ac3d fe9d 32bd
00000040: fe52 e73d 7025 a93d 7efd 02bc eb82 2e3d
00000050: 566d 0c3d bf68 493b 9808 103e 1153 1f3e
00000060: cd4e a63d c80b 553e e09c 663e 9ca4 20be
00000070: 14de e6bd 5aed c7bc eb48 c9bd 6e50 43bd
00000080: 0e6b 0a3d e03c eebd 4c1e 77bd 66fd 0bbb
00000090: 0f6d 26be a727 70be 1f19 68be 3213 4cbd
000000a0: 3712 01be e2df edbd 6e03 3fbd 86e7 0ebe
000000b0: 315a f0bd f1e7 52bd fd16 babd 848c ebbb
000000c0: b844 b6bb 33bb 68bd 074c b03c 67ad bbbc
000000d0: a53d 49bd 45d0 733d 204e 56be bf84 6ebe
000000e0: c820 abbd 6861 59be 56d4 92be e69f 83be
000000f0: 8d3c 2dbe 2ef6 cebe 3cf2 afbe 7b1b 2d3d
00000100: ca4f cf3d b4d3 9cbb dfc1 b43d 7ad3 303e
00000110: a128 ab3d 9dcc 2a3a 2db6 0f3e 7753 613d
00000120: 04ee 8dbc c2ec 383c b9b4 d73c 7707 403d
00000130: 1996 093e 3caf bc3d 86e5 0b3e 3a85 483e
00000140: e1d2 d53d b538 85bc a25c 88bc 641e bdbb
00000150: ca7f b1bc c161 7c3c 999a 24b9 a790 8bbd
00000160: d241 1fbd aebc a5bd 7d1e b6bd 2e00 6bbd
00000170: c019 a4bb 40ce 8bbb d361 6f3d 4a02 853d
00000180: 7f72 1abd 76ec 7a3d e357 043e bdf7 db3d
00000190: 6b30 b43c cb5c a23b 4926 1d3d 15b4 523d
000001a0: 0c1f 5d3d 02b8 98bd c0f4 a8bd db87 95bd
000001b0: 9887 06bc afd8 073c 770b 78bd d003 b33d
000001c0: f8dd 503d 3203 123d 810f 003e ecc6 8d3d
000001d0: fc64 7a3d 49de afbc 3a65 44bd eda7 97bd
000001e0: 236a 323d 2ba8 3b3c 2b35 06be c380 ee3c
000001f0: df43 cdbc e71f ecbd ff06 b0bd b622 90bd
00000200: b60c 3d3d d0ac d0bd ff41 cf3c 1058 2d3d
00000210: b7b2 dfbd 0fbf 1cbd e53d 733c 47ad 7dbe
00000220: d917 04be 0c13 0bbe 3411 e5bd 5a55 913b
00000230: 14a6 c83c 13eb b4bd 7092 133d 295f 993d
00000240: c864 1f3e 3727 353e 942b 473c b81f c73c
00000250: 6c82 f1bc dc79 37bd 4f50 aabd 0924 5bbb
00000260: b61b c1bd c296 d93d 0e77 7a3d bbb3 3b3c
00000270: dcfc 693c 45f3 a03c 2300 9ebd ff2e a4bb
00000280: e61b 98bd 6f00 1abe 53af 04be a1c7 42be
00000290: a5d6 20be 7cd7 9ebd 5cbf e6bd dcf6 f7bd
000002a0: 7046 2fbe c8f3 2cbe 8bd9 42be dedc 83bc
000002b0: 195f 45bc b08b 31bd 3246 0bbc 07fd f13c
000002c0: 8f65 ecbc 1a40 abbb 17d3 813d 1ae1 0a3d
000002d0: d6e1 633a 4e9b 76ba e04e c53c aff5 4cbc
000002e0: 39c0 55bd 3ae8 52bd ae6b 60bd c27d acbd
000002f0: a07e 9cbd 1cfc 06bd 83fe 13bd eb77 933c
00000300: 7cca c1bd 7bc9 3ebd 0c88 d0bc d022 16be
00000310: c703 c0bd ad68 3dbd d514 983d 6db1 0f3e
00000320: 1d2d 0c3e 3d9e cf3d a2d5 093e b09f 193d
00000330: 3fa3 e93b 914c 37bd 1c2f 9dbd bfb9 a53d
00000340: a450 603d eb98 603d ef5b 9bbd df56 62bd
00000350: 4b69 cabd 3e20 54be 4924 6fbe 1def 7fbe
00000360: b7c4 1a3d efbf 023e 64de 80b9 82f3 4b3d
00000370: 7354 4ebd eece 8fbd 019f d13c 3e42 41be
00000380: 54c2 28be c6b2 79bd 6f56 a9bd 0eb6 cebb
00000390: 2edd 073c 2bd8 6bbc 5d1b 723d 8060 bd3b
000003a0: 1099 3cba 0a71 a63d 29e8 8dbd 7163 e1bd
000003b0: 79eb 11be e920 5b3d 9d44 8c3d f322 963d
000003c0: 971a 0bbd cee1 be3d 76f4 b93d 7e72 e83d
000003d0: 9af4 a03d b6a6 1b3e 2884 3ebc 4f0b fa3b
000003e0: f829 973d bb3c 61be 7e09 39be 780c 3dbe
000003f0: 8855 d43d 2273 bb3d e2ac f33d ebe4 9ebd
-0.24301288 -0.36199036 -0.19627148 -0.32207486 -0.27294803 -0.22846714 -0.26845154 -0.29463997
-0.22266342 -0.03639664 0.09826789 0.14991932 -0.01483748 0.06528454 0.08409661 -0.043607704
0.112951264 0.08259094 -0.007995008 0.04260532 0.03428396 0.00307326 0.14065778 0.15559031
0.08120499 0.20805275 0.2252078 -0.15687793 -0.11272827 -0.02440517 -0.09828361 -0.047684126
0.0337935 -0.11632705 -0.060331628 -0.0021360754 -0.1625254 -0.23452626 -0.22665833 -0.049822994
-0.12604605 -0.11614968 -0.04663413 -0.13955507 -0.11735953 -0.051490728 -0.09086416 -0.0071883816
-0.005562391 -0.056819152 0.021520628 -0.022909833 -0.049131054 0.059524793 -0.2092824 -0.23292826
-0.08355862 -0.21228564 -0.28677624 -0.2570793 -0.1691763 -0.40422195 -0.34364498 0.042262536
0.101226404 -0.004785979 0.088260405 0.17268172 0.08357359 0.0006515475 0.14034338 0.05501124
-0.017325409 0.011286916 0.026331292 0.04688212 0.13436164 0.09213111 0.13661775 0.19582072
0.104406126 -0.016262392 -0.016645733 -0.005771445 -0.02166738 0.015404166 -0.00015697851 -0.068146996
-0.03888113 -0.080926284 -0.08892534 -0.05737322 -0.0050079525 -0.0042665303 0.0584429 0.06494577
-0.03770685 0.061260663 0.12924151 0.10740612 0.021995744 0.0049549094 0.03836659 0.05144127
0.053984687 -0.07456972 -0.08249807 -0.07301303 -0.008211039 0.0082914075 -0.06055781 0.087409616
0.050992936 0.03564758 0.12505914 0.06922707 0.061131462 -0.021468299 -0.0479481 -0.07405076
0.04355825 0.011453669 -0.1310622 0.029114133 -0.025056778 -0.115295224 -0.085950844 -0.070378706
0.0461547 -0.10189211 0.025300024 0.04232031 -0.10922759 -0.038268145 0.0148463 -0.24773131
-0.12899722 -0.13581485 -0.11184922 0.0044352235 0.024493255 -0.08833899 0.036028326 0.074888535
0.15565789 0.1769074 0.012156386 0.024307117 -0.029481135 -0.04479395 -0.08316099 -0.0033438227
-0.094291136 0.10624458 0.061148696 0.011456425 0.014281478 0.01964725 -0.0771487 -0.005010485
-0.07427196 -0.15039228 -0.12957506 -0.19021465 -0.1570688 -0.07755944 -0.11266968 -0.121076316
-0.17116714 -0.1688987 -0.19028299 -0.016096529 -0.012046599 -0.043346107 -0.008500623 0.029539598
-0.02885702 -0.0052261474 0.0633909 0.03390608 0.0008693015 -0.00094072975 0.024085462 -0.012509747
-0.05218527 -0.051491 -0.05479019 -0.08422424 -0.07641339 -0.032955274 -0.036131393 0.018001517
-0.09462449 -0.046578865 -0.025455497 -0.14661717 -0.093757205 -0.046242405 0.074258484 0.14032526
0.13689084 0.101376034 0.134604 0.037505805 0.007130056 -0.044750754 -0.07675001 0.08092069
0.054764405 0.054833334 -0.07585894 -0.055258628 -0.09883364 -0.20715424 -0.23353685 -0.24993558
0.03778526 0.1276853 -0.00024579756 0.049792774 -0.050373506 -0.070218906 0.025588514 -0.18872926
-0.1648038 -0.060961507 -0.08268439 -0.0063083237 0.008292479 -0.0143948 0.059108127 0.005779326
-0.0007194439 0.08127029 -0.06929047 -0.11005295 -0.14249982 0.053498182 0.068490244 0.07330885
-0.033960905 0.093204126 0.0907983 0.11349963 0.07859154 0.15200314 -0.011628188 0.0076307426
0.07381052 -0.21995823 -0.18070027 -0.18461788 0.10367876 0.09152819 0.11898209 -0.077585064

layer2.0.conv1.bias f4 [32]
00000000: 44ad 183c 2ff3 27bc c5ca 843c beea 293b
00000010: 3eb8 f73b 9b59 49bc 8d12 29bb 5ffc 283b
00000020: 54e9 2dba fc1b 80bb 52d3 2c3b 07e7 583c
00000030: 22ad 8d3a 7a85 a0bc f55d 5bbc 8ccf 33bc
00000040: 7b42 6bbc b52d 373c 14dc 3a3b 1653 fcbb
00000050: e4f8 36bc 3e2b b53c 5d63 d73b b6a9 59bc
00000060: f26a 48bb 6041 d23a f009 51bb fda4 433b
00000070: 1bc8 b83b 3a40 33bc 39ba 403a 4066 31bc
0.0093186535 -0.010250851 0.01620997 0.002592727 0.007559805 -0.01228943 -0.002579841 0.002578519
-0.0006634195 -0.003909586 0.0026371074 0.013238675 0.0010809044 -0.019594897 -0.0133891 -0.010974776
-0.014359112 0.011180331 0.0028512524 -0.0077003343 -0.011167739 0.022115346 0.0065731243 -0.013285091
-0.0030581322 0.0016041212 -0.0031896792 0.002985298 0.005639089 -0.010940606 0.0007351968 -0.010827601

layer2.0.bn1.weight f4 [32]
00000000: 2fa3 703f 9f74 3c3f ab74 5a3f a971 4e3f
00000010: 889e 663f 160c 5b3f 8c3c 803f 79fc 4c3f
00000020: f1f1 503f e4bc 433f 2609 353f 78ac 2a3f
00000030: 5628 353f 2c50 803f 953f 033f ae2b 593f
00000040: b3a6 443f b7b4 1f3f 468f 813f a1aa 703f
00000050: 3435 533f 4a5f 403f 1362 333f ae30 383f
00000060: fc64 173f b26a 3e3f 5f33 513f 2d44 473f
00000070: c60b 5a3f 338d 703f f09c 5c3f e350 293f
0.93999 0.7361545 0.8533427 0.8064218 0.9008565 0.85565317 1.0018477 0.8007274
0.81619173 0.764601 0.70717084 0.66669416 0.7076467 1.0024467 0.51268893 0.84832275
0.7681686 0.62385124 1.0121849 0.9401036 0.82503057 0.751454 0.70071524 0.7194928
0.59138465 0.74381554 0.8171901 0.77838403 0.85174215 0.9396545 0.8617697 0.6613905

layer2.0.bn1.bias f4 [32]
00000000: 7376 1abe 5dec 62bd b40f 79bd 1c0d 24be
00000010: 8827 5abe 4e5c 563d 8762 d6bd 7cf8 00be
00000020: ff48 9cbd 1850 8abe ba34 63be 1a7d aabd
00000030: 7b03 63be 0163 7ebe 2f04 303e 0d4f 47be
00000040: af80 1eba bb04 533d 5c5b 8fbe c7ad 21be
00000050: 9cdb 4bbe 6aa3 1bbe c7be 78bd 65f7 bbbd
00000060: a070 1cbe ff97 8cbe 755c 86be 1a6d 6dbe
00000070: e53e 5a3b 72e3 90be fc1c c5bd fcc1 dabd
-0.15084247 -0.055401195 -0.06080599 -0.16020626 -0.21304142 0.052334122 -0.10468011 -0.1259479
-0.076311104 -0.27014232 -0.22188082 -0.083246425 -0.22169296 -0.24842454 0.17189096 -0.19463749
-0.0006046397 0.051518183 -0.2799939 -0.15788947 -0.19907993 -0.15199056 -0.060728814 -0.09178046
-0.15277338 -0.27459714 -0.26242414 -0.2318615 0.0033301648 -0.28298527 -0.09624669 -0.10681531

layer2.0.bn1.running_mean f4 [32]
00000000: cb08 21c0 1429 69c0 91d9 0040 cff1 cdc0
00000010: df29 02bf ded1 c8bf 627d 84bf 4e40 9b3d
00000020: df64 d6bf b598 7ec0 ae3b af3f d511 34c0
00000030: b271 ebbf 1505 d5bf 5b51 edbf b8cc bebf
00000040: 1eae 1fc0 79a3 69c0 f1e5 b8bf 92f0 98c0
00000050: 6cd8 c0bf fa92 90c0 e123 8a40 51a9 4c3f
00000060: 6503 213f 2386 35c0 3bb7 70c0 1587 6140
00000070: c198 c63f 4560 adbf b15b 08c0 cdcf 50bf
-2.5161617 -3.6431322 2.0132792 -6.4357677 -0.5084514 -1.5689046 -1.0350764 0.075806245
-1.6749533 -3.9780705 1.3690088 -2.8135884 -1.8394072 -1.6642176 -1.8540453 -1.4906225
-2.4950023 -3.6506026 -1.4445173 -4.7793665 -1.5066047 -4.5179415 4.3168797 0.79945856
0.62895805 -2.836312 -3.7611835 3.5238698 1.5515367 -1.3545004 -2.1305964 -0.8156708
