Output/swift-iid-8W-pattern1-half-ring-2sgd-200epochs/r3-epoch_97-parameters.pt (torch, 731706 bytes, 92 tensors)

conv1.weight f4 [16, 3, 3, 3]
000000 19 6f b6 3c 2c 84 06 bf 38 d9 77 3d c0 62 36 be
       0.022269772 -0.5254543 0.06050989 -0.17811108
000010 47 42 c4 bd 27 c4 b4 3d e1 0a c7 be cd 72 80 3e
       -0.09582954 0.088264756 -0.38875487 0.25087586
000020 6f 28 18 3d 64 15 b0 be df 8a 5b bf 19 87 02 bf
       0.037147935 -0.3439132 -0.85758775 -0.5098739
000030 34 57 76 3e 93 96 02 3f fc 50 25 3e dd b6 e1 3e
       0.24056703 0.5101101 0.16144174 0.44084826
000040 13 1e a3 3f 76 b9 20 3f a4 c5 01 bf b9 1d 77 bf
       1.2743553 0.6278299 -0.506922 -0.9652973
000050 6e f9 d6 be 5a 16 c3 3c fd 16 8b 3d 2e be 16 bc
       -0.41987175 0.023814369 0.06791494 -0.009200616
000060 dd 1b 6d 3e 9e 54 2c 3f 57 37 a0 3e e5 b9 1a bd
       0.2315516 0.67316616 0.3129222 -0.03777494
000070 02 2f ee 3d 02 98 ce 3d 1a c3 c2 bd 58 de 1b bc
       0.1163006 0.10087587 -0.09509869 -0.00951346
000080 cd f5 a8 3c de 65 8a bc e2 5d 00 3d b1 2e 39 bd
       0.02062502 -0.016894277 0.031339534 -0.045210544
000090 15 fe e4 3d ea db 56 3e 39 a6 15 3e 00 41 ab 3c
       0.11181275 0.20982328 0.1461419 0.020905018
0000a0 ad ff 34 3e 6d 9c 2e 3e 81 e8 0a 3d da 84 f8 3d
       0.17675658 0.17051859 0.03391314 0.121347144
0000b0 8d 7b 40 3d ba 46 cf 3d 74 49 47 3e b5 0d f7 3d
       0.046992827 0.10120912 0.19461614 0.12063161
0000c0 21 7f bf 3d 91 32 89 3e 7f 44 36 3e 39 66 4a bd
       0.0935042 0.26796392 0.17799567 -0.049413893
0000d0 af f2 a1 3d 45 1d 17 bd cf 72 a0 3d d9 33 fa be
       0.07907616 -0.036893148 0.07834398 -0.48867682
0000e0 d6 5a 8f bd 00 dd b5 be ed 88 4b bf 9a c4 07 bf
       -0.069997475 -0.35520172 -0.7950581 -0.53034365
0000f0 e1 25 5c be 16 9e 2f bf 3e 5c 85 be 62 89 42 3e
       -0.21498825 -0.68600595 -0.26046938 0.1899772
000100 7b 44 93 3c 06 98 28 3e ce 28 05 3e e4 87 d1 3d
       0.01797699 0.16464242 0.13003847 0.10230997
000110 00 88 2d 3d cd d4 88 bd f5 7a e0 bd 49 ce ed 3c
       0.042366028 -0.066812135 -0.10960952 0.029029028
000120 a1 1e 1d be 13 9b 3f 3c b5 11 18 be 37 1c 84 3e
       -0.15343715 0.011694687 -0.14850505 0.25802776
000130 93 39 18 3f cd cd 95 3e 6b 65 82 3e d8 08 04 3f
       0.5946285 0.29258576 0.25468 0.51575994
000140 d1 de c0 3e a8 df cd 3d 5a a6 59 3c 48 8a 8e 3e
       0.37669995 0.10052425 0.01328429 0.27839875
000150 d2 ff eb be 27 2c 24 bf 83 c2 c0 be ce 3d 88 be
       -0.46093613 -0.6412987 -0.376484 -0.26609653
000160 b2 81 0b bf 22 af cf be 99 7d 85 be 37 97 44 be
       -0.54494774 -0.40563303 -0.26072386 -0.19198309
000170 ce 85 5d be c6 c0 97 be 9e 22 12 be 37 74 70 be
       -0.21633074 -0.29639262 -0.14271018 -0.23481832
000180 85 1d 28 be c6 8a 1f bd 82 c7 62 be dc 35 a1 bd
       -0.16417511 -0.038950704 -0.22146419 -0.07871601
000190 7d 18 10 3f 90 08 4a 3d c7 f6 d2 3e e8 4b 97 3f
       0.56287366 0.049324572 0.412039 1.182004
0001a0 b3 f3 1a 3f a7 73 d1 3e 36 ee 80 3f 6a 3d f2 3e
       0.60528105 0.40908548 1.0072696 0.4731248
0001b0 b8 27 99 3e 17 a7 06 be 44 0b 93 3e f0 80 34 be
       0.29913116 -0.13149677 0.28719532 -0.17627311
0001c0 6f ce 34 bf f9 00 c6 bd cd 00 13 3e 96 9e 3d be
       -0.7062749 -0.09668154 0.14355774 -0.18517527
0001d0 ba 9d 41 3e 76 47 8a 3e 80 be 7c be 3d 99 31 3e
       0.18907824 0.27007645 -0.24682045 0.17343612
0001e0 29 e3 29 be 10 8f 34 bf 3a 36 43 be 38 fa 88 3e
       -0.16590561 -0.70530796 -0.19063655 0.26753402
0001f0 60 6d f2 bd 71 f4 53 3e 64 88 81 3d 44 40 4f be
       -0.11837268 0.20698716 0.063248426 -0.20239359
000200 96 6d 82 3c c9 37 a0 be c9 8f 20 bf d3 2a 9b be
       0.015921395 -0.3129256 -0.627194 -0.3030611
000210 b1 29 e5 3d 0f c3 74 bd e2 0f 0d 3e d2 84 96 3e
       0.11189593 -0.059756335 0.1377559 0.2939821
000220 d3 8f 5e 3f 88 88 31 3f 09 66 06 3f eb 18 60 3f
       0.8693821 0.69348955 0.52499443 0.8753802
000230 90 e3 9b 3e d9 79 a6 3d 75 42 9a 3d 23 a6 0a be
       0.30447054 0.08128709 0.07532207 -0.13539939
000240 97 43 17 be ae fc 5f bf a3 85 34 bf 2b f3 ab be
       -0.14771877 -0.87494934 -0.70516413 -0.3358396
000250 2d ec aa bf 4b 46 b8 bf f4 3f c6 3d de ba 38 bf
       -1.3353325 -1.4396452 0.09680167 -0.72160137
000260 c2 a8 0f bf bf 80 53 3e bc 6c 45 3e 4b 07 8c 3e
       -0.5611688 0.20654581 0.1927976 0.27349314
000270 d4 49 2e 3e 95 f5 46 3d de 7e e3 bd b5 b2 11 3f
       0.1702035 0.04857405 -0.11108182 0.5691331
000280 c2 26 ea 3e 2a 31 d9 3e b7 ac ef 3e bc 71 b4 3f
       0.45732695 0.42420322 0.46811458 1.4097209
000290 8b 56 62 3f f7 89 28 be 8f 77 9a 3b b0 cd ab 3e
       0.88413304 -0.1645888 0.0047139595 0.33555365
0002a0 82 b6 1e bf ed d3 a4 bf ba cd 98 be 6f 66 f6 3e
       -0.61997235 -1.2877175 -0.29844457 0.48125026
0002b0 db ba 71 3f cd fb d8 3e 35 2c 24 be 43 cc dc be
       0.94425744 0.4237961 -0.16032489 -0.4312459
0002c0 4a 7e 81 be e2 6b eb bc f6 51 5d bf 9e d6 96 be
       -0.25291663 -0.028737966 -0.8645319 -0.29460615
0002d0 65 63 b9 be 23 c0 54 bb c8 ca 03 bf c2 51 45 be
       -0.36208645 -0.0032463155 -0.51481295 -0.1926947
0002e0 4b be 17 be 1f 09 c4 be cf 1e ff 3e eb b9 1a 3e
       -0.14818685 -0.3828821 0.49828193 0.15109985
0002f0 ac db 6a 3e 70 b3 34 3c f4 0f 8a be ce 6f 4e 3c
       0.2293536 0.011029109 -0.26965296 0.0125998985
000300 0d 36 ca 3d 52 10 f8 3f e2 6d f6 bd b4 56 4d 3e
       0.098735906 1.937998 -0.12032677 0.20052606
000310 74 c2 54 be 74 cf f2 3d 5d 7d ba bd 98 1f ee be
       -0.20777303 0.11855975 -0.091059424 -0.4650848
000320 61 03 45 be fd 4b 92 be a4 90 97 3f e9 d5 04 bf
       -0.1923957 -0.285736 1.1841016 -0.518889
000330 89 b7 07 bf cb c7 9e bf 82 68 ce be ce 54 88 bd
       -0.5301443 -1.2404722 -0.40314108 -0.066568
000340 81 d3 d2 be c2 24 50 be a6 0a 1e 3e c1 d6 c7 3f
       -0.4117699 -0.20326522 0.1543375 1.5612413
000350 e0 71 ce bc db f1 1b bd 31 d5 ee 3d 11 97 3d 3e
       -0.025200784 -0.03807245 0.11661757 0.18514659
000360 bc 1c 36 be 1e 22 e8 3c a5 58 10 3b 50 b9 72 bf
       -0.17784399 0.02833658 0.0022025493 -0.94814014
000370 15 18 b6 3e 54 5b 30 3f 7e c0 b9 be bd 70 41 ba
       0.35565248 0.68889356 -0.36279672 -0.0007379165
000380 ea 44 d1 3c c2 12 05 bf 4c f4 e4 bd b2 45 a0 3e
       0.025545556 -0.5198175 -0.111794084 0.31303173
000390 52 44 94 bf 26 e0 aa 3e 2c d9 8b 3f b6 25 94 be
       -1.158335 0.33374137 1.0925651 -0.2893502
0003a0 4c 16 06 3e 32 32 f0 3e 9b db 45 bd bf 8e 86 3d
       0.13094443 0.46913296 -0.048305135 0.065701954
0003b0 da 05 eb 3d f6 83 4e bf ee 43 73 3e e9 95 25 3f
       0.114757255 -0.80670106 0.23756382 0.6468187
0003c0 47 46 86 be 04 f4 9f bd 45 9d 24 3c 34 2b 8c 3e
       -0.26225492 -0.07810214 0.010047262 0.2737671
0003d0 b5 78 3f be cd b7 17 bb 01 c6 0a be 66 be 33 bf
       -0.1869839 -0.0023150325 -0.13552095 -0.702124
0003e0 f3 f1 c3 be 5d bb 17 be 96 28 3f bf af 3e fa be
       -0.3827053 -0.14817567 -0.74671304 -0.4887595
0003f0 65 3d 0e 3f 37 13 b0 3e 1e 13 cd 3e 19 bb c7 3e
       0.5556243 0.3438966 0.40053648 0.39009932

conv1.bias f4 [16]
000000 88 3a 82 bc 23 38 25 bc c7 06 38 bc bc c4 aa 3c
       -0.01589705 -0.010084185 -0.011232085 0.020845763
000010 c4 93 9d 3c cc dd b6 bc 6c 8e 8c ba ed 56 af 3b
       0.0192355 -0.022322558 -0.0010723597 0.0053509385
000020 19 61 8b bc e3 f2 b8 bc e3 7f ce bb fe 1a 29 bc
       -0.017014073 -0.022576755 -0.0063018664 -0.010321377
000030 f5 69 0a bc 4f 81 8a 3c 4c 14 8e 3b 8d 53 7d bc
       -0.008448114 0.016907362 0.0043359157 -0.015461815

bn1.weight f4 [16]
000000 22 b7 53 3f 2e 35 43 3f 44 3f 01 3f 0f 59 12 3f
       0.82701313 0.7625302 0.5048716 0.5716714
000010 7a 2f be 3f 56 9d 2d 3f ad 5d 59 3f 10 71 84 3f
       1.4858239 0.678182 0.8490856 1.0347004
000020 5f 7e 60 3f e1 32 1a 3f b0 48 11 3f c3 17 56 3f
       0.87692827 0.60233885 0.5675154 0.8363001
000030 3b 0b 8c 3f c4 41 19 3f 1f f0 ca 3e 19 1f 0e 3f
       1.0940927 0.59865975 0.39636323 0.555162

bn1.bias f4 [16]
000000 a0 eb 15 3f e6 76 e8 be f4 36 75 3e 0c 07 04 3f
       0.5856266 -0.45403212 0.23946744 0.5157325
000010 62 0f 6d bf 44 18 cb 3e ca fb 33 3f 96 f6 a4 3f
       -0.926016 0.3966695 0.70306075 1.2887752
000020 de 8e 64 3e 74 e8 42 3d dd 41 b0 3e 58 6d a4 3f
       0.22320125 0.047584966 0.3442525 1.2845869
000030 c0 0f cc 3e 28 19 93 3e d4 37 d6 3d c3 c5 a2 3d
       0.39855766 0.2873013 0.10459867 0.07947876

bn1.running_mean f4 [16]
000000 2f 16 2b be 4e 8f 10 bf 3b 28 45 3e f9 0c fd bd
       -0.16707681 -0.56468666 0.19253628 -0.1235599
000010 eb be 36 3f 35 84 4e 3e 8e 5e fb 3d a8 2d 8b be
       0.7138507 0.2016762 0.12273894 -0.2718327
000020 5f 58 6a bc ea 59 6a bd ac 87 87 3b 3c d4 3e 3d
       -0.014303296 -0.057214655 0.0041360464 0.04658912
000030 5e 2b 7c bd 83 81 02 be 62 87 4a bd f0 88 eb 3e
       -0.061564796 -0.12744717 -0.049445517 0.46002913

bn1.running_var f4 [16]
000000 6d 98 6a 41 c9 76 d4 40 f3 4b 91 40 10 eb e9 40
       14.662213 6.6395 4.540521 7.309944
000010 b2 70 33 41 ee 60 a2 40 be 06 37 41 11 97 cf 40
       11.2150135 5.074332 11.439146 6.4871907
000020 e1 22 66 41 a8 c1 be 40 67 ec c7 3f cc 6a 1a 40
       14.383515 5.9611397 1.5619019 2.4127684
000030 29 8b d8 41 64 b3 0f 41 4d a9 33 40 59 38 90 40
       27.06795 8.981297 2.8072083 4.5068784

layer1.0.conv1.weight f4 [16, 16, 3, 3]
000000 23 74 36 be e1 3b 01 be 6f 6c f0 3d 30 b0 22 bc
       -0.1781774 -0.12620498 0.11739432 -0.009929702
000010 0e b5 66 be f7 ed 4e be 58 1f bb 3d 54 59 13 be
       -0.22530004 -0.20207964 0.09136838 -0.14389545
000020 54 2b 57 be 28 53 92 ba 68 12 c7 bd 73 df 3a be
       -0.21012622 -0.0011163699 -0.097203076 -0.18249302
000030 77 ab 77 3d 4c c3 d5 3b 72 04 b1 bd 24 d3 56 3d
       0.060466256 0.0065235253 -0.08643426 0.052447453
000040 92 46 57 bc 28 24 c0 bd ca a3 95 be 1d 73 03 be
       -0.013139384 -0.09381896 -0.29226524 -0.12836881
000050 d4 cd 24 3e b5 fa 86 be ce b1 d2 bc 91 17 9d 3e
       0.16094142 -0.2636315 -0.02571955 0.30682042
000060 85 30 3e be c9 ec 17 bd 6f 3e 91 3e 5d e5 a6 be
       -0.18573196 -0.03709105 0.28367946 -0.32596865
000070 e1 65 ec bc 13 bf c0 3e 54 dd d2 be 18 f2 09 be
       -0.028857173 0.37645778 -0.41184485 -0.13471258
000080 e4 be c2 3e 95 c6 df be 0e cd 5a be 99 f6 86 3e
       0.38036263 -0.43706194 -0.21367285 0.26360014
000090 65 6b 1a bd 38 25 2f bd 45 fb 3d be 7b 4d f2 3d
       -0.037700076 -0.042760104 -0.18552883 0.118311845
0000a0 e9 4e 8a 3d f3 5e 1e be 35 55 33 3e e0 d4 36 3e
       0.06753332 -0.15465908 0.17512973 0.17854643
0000b0 d6 6a 9b bc 7a 34 8b 3d a7 32 d6 bd 15 ba 9c be
       -0.018971842 0.067971185 -0.1045888 -0.3061072
0000c0 aa 13 1b 3e c6 55 f1 bc 96 9c c8 be fa f6 59 3e
       0.1514422 -0.029459845 -0.39181966 0.2128562
0000d0 b6 28 ce 3d 76 9f fe bd c9 7e 5a 3d 37 6e cc bd
       0.10066359 -0.124327585 0.053343568 -0.09981959
0000e0 19 b8 e9 bc 4d 00 1b 3e 51 17 8d be 02 5f 83 be
       -0.028530167 0.15136833 -0.27556852 -0.25658423
0000f0 77 72 54 3e 66 50 1b be 8a eb a7 be c3 d4 ed 3e
       0.2074679 -0.15167388 -0.3279689 0.46451387
000100 bf ed 8b bd d1 10 ca bd 8f f1 f5 bd ab a8 0d 3e
       -0.06832456 -0.09866489 -0.12008964 0.13833873
000110 51 ca 34 3e 90 d0 96 3e ee 05 e8 bd 13 01 89 be
       0.17655303 0.29455996 -0.11329256 -0.26758632
000120 de 5f df bd af e2 d3 bd a6 c7 a7 3c 01 41 1a 3c
       -0.10906957 -0.10345971 0.020480942 0.009414912
000130 7e 1f 30 3c a9 3f 0f bc 92 99 1c be d1 40 af bd
       0.010749696 -0.008743205 -0.15292957 -0.085572846
000140 f3 07 ac 3d 2d 88 8c be 5c d8 a9 bd 6a 3a bc 3d
       0.08399954 -0.27447644 -0.082932204 0.09190829
000150 62 f4 9a be 81 2c 09 3c 10 49 94 3e e8 fe 7b be
       -0.30264574 0.008372427 0.28961992 -0.24608958
000160 67 a4 40 3d a8 85 ca 3e 7e 11 d0 3e 77 03 bb bd
       0.047031786 0.39555097 0.40638345 -0.0913152
000170 25 fe 3a bf 6c f3 b6 3e 7b 66 92 3d 68 3b 9c be
       -0.73044044 0.3573259 0.07148453 -0.30514073
000180 64 63 13 be 41 09 96 3d 4d 3c 04 3e 7b 62 14 3e
       -0.14393383 0.07325984 0.12913628 0.14490692
000190 4c 22 8a 3e a0 b3 2d be cc 06 56 bd 84 1f a3 be
       0.2697929 -0.16963053 -0.052252576 -0.31859982
0001a0 03 09 1f be ba 44 1a be 40 fa 0d 3d 97 11 0c 3e
       -0.15530781 -0.1506528 0.034662485 0.13678585
0001b0 bd ab 34 bd 14 42 dd 3c fd 04 92 3d 92 93 90 be
       -0.044109095 0.027009048 0.07129858 -0.28237587
0001c0 fe 25 ed bd 68 4f 2f bb fd 41 8b bd 4d 08 57 3e
       -0.11579512 -0.002675021 -0.06799696 0.2099926
0001d0 61 ad 61 3e 5d 76 e3 3d a6 50 37 3d fc 79 0b 3d
       0.22038795 0.111065604 0.044754647 0.03405188
0001e0 cb c3 e0 3d 3c ec 1f 3e 55 8f 2e 3e 34 84 82 bd
       0.109748445 0.1561746 0.17046864 -0.06372872
0001f0 84 84 41 bd f0 bb 20 3e 7d 60 7e 3d 0f f4 ce bd
       -0.047245517 0.15696692 0.062103737 -0.10105144
000200 41 62 6b be 2e 6e 44 3e 3e c6 36 3d 90 55 18 be
       -0.229867 0.19182655 0.044622652 -0.1487639
000210 80 61 db 3d 75 76 3f 3c 06 dc e0 bd c7 e8 ee 3c
       0.10711956 0.011685957 -0.10979466 0.029163731
000220 fa d3 85 bc dd 84 bd bd 1d 12 ec 3d 8e 11 72 3d
       -0.01633643 -0.09253857 0.11526892 0.059098773
000230 d3 65 60 bd c8 d6 1f 3e d9 98 ec 3d d3 b0 00 3d
       -0.054784607 0.15609276 0.11552591 0.031418633
000240 fd be ea bd 47 5e 17 bd de b0 54 bd bf fb 95 3c
       -0.114622094 -0.036955144 -0.051926486 0.018308518
000250 de 2b a7 ba 23 5b 7e 3c 04 6c e4 bb 27 30 3b bd
       -0.0012754162 0.015524658 -0.0069708843 -0.04570022
000260 29 00 3b bc ab ec e3 bd 04 65 10 be 61 41 fa bd
       -0.011413612 -0.11129125 -0.14101034 -0.12219501
000270 c9 b9 38 bd 1d 1c 32 bd df 10 68 bc ba 43 4e 3d
       -0.045099054 -0.043483842 -0.014164179 0.050357558
000280 e0 a4 94 3d cc cc a1 3d b8 b5 df bd 26 49 64 be
       0.0725801 0.0790039 -0.10923332 -0.22293529
000290 fd 4e 45 be 24 ca 6b be 91 ae a2 be f0 be 81 be
       -0.19268413 -0.2302633 -0.3177381 -0.25340986
0002a0 3d ad 16 be 92 51 65 be 04 6d 2c be 25 d2 f0 3d
       -0.14714523 -0.22394398 -0.16838461 0.11758832
0002b0 16 6d cd bc c7 1a 39 3d 87 ad 27 bd 01 96 59 be
       -0.02507643 0.045191552 -0.040936973 -0.21248628
0002c0 7e be e8 bd 32 3b 78 3d f7 4e e9 bd e2 ba 8d bc
       -0.113644585 0.060603328 -0.113920145 -0.017301027
0002d0 05 56 94 3d 37 68 3c 3d c1 0b ea 3c 8a 69 45 3d
       0.072429694 0.045997825 0.028570058 0.048196353
0002e0 88 fb fa 3c 77 54 dd 3c dd f5 ef bc 67 fc 1d bc
       0.030637518 0.027017815 -0.029292041 -0.009642697
0002f0 4e a3 7a bc 3c 24 7b bd 0f b2 60 be 9b 45 de bd
       -0.015297724 -0.061313853 -0.21942924 -0.1085312
000300 dc 68 11 3c a1 ca c4 bd 6d ef 1a bd 9b e4 6e 3e
       0.008875098 -0.09608961 -0.03782599 0.23329394
000310 7c d3 14 3e b2 12 d0 3d 13 8b ce be 03 20 f2 be
       0.145338 0.10159816 -0.4034048 -0.47290048
000320 14 21 e2 be f4 54 0b be 88 7f 3a be a4 bd 53 be
       -0.44165862 -0.13606626 -0.18212712 -0.20677811
000330 4e 1a 70 bc 1b 93 51 3b 03 93 8b bd 9e 90 32 3e
       -0.014654709 0.003197855 -0.0681515 0.1743798
000340 91 d0 ba bd be d5 09 3e d2 a9 db bd ee 2c 21 be
       -0.09121812 0.13460442 -0.1072575 -0.15739796
000350 2c 71 20 bd 38 1b 83 3e 25 b6 65 3c 99 25 1e 3e
       -0.03917043 0.25606704 0.014020477 0.1544403
000360 36 e2 5f 3e 3f 4c e1 3d bc 3a 0b 3e 64 6f ee 3d
       0.21863636 0.11000871 0.13596624 0.1164234
000370 e6 e5 f6 bc 61 af 2b bd cc 89 df bd e2 d5 41 be
       -0.030138921 -0.0419153 -0.109149545 -0.18929246
000380 4d 06 e9 bd 28 10 77 3d 46 37 67 bc ae aa 54 3c
       -0.11378155 0.060318142 -0.014112299 0.012980146
000390 84 de 6d bd 2e 65 e1 bd 72 bc 7c bd f0 28 fe bd
       -0.058073536 -0.110056266 -0.061703153 -0.12410152
0003a0 d1 90 25 be a4 aa 9d bd e6 c5 38 3d d7 df e9 3d
       -0.16168524 -0.07698563 0.045110606 0.11419647
0003b0 bd fe 49 bd 4b 6a 27 bd 84 aa 05 be 77 2e 84 be
       -0.049315203 -0.040872853 -0.13053328 -0.258167
0003c0 c1 e5 b7 be 43 1b c9 be bf 67 ed be 70 cf dc bd
       -0.35917476 -0.39278612 -0.46368214 -0.10781753
0003d0 9b 63 c1 bc 26 34 b0 3b ee 37 f4 3c 62 0b 4e bd
       -0.023607066 0.0053773103 0.029811826 -0.050303824
0003e0 a9 aa a8 3d 85 44 85 3d dc d0 19 bd 06 0d 2c be
       0.08235676 0.0650721 -0.0375527 -0.16801843
0003f0 10 4c 67 3d cb 57 09 3d 7d 2f a0 3d 67 c8 96 bd
       0.056469023 0.03353099 0.07821558 -0.073624425

layer1.0.conv1.bias f4 [16]
000000 25 48 bd 3a 14 02 d9 bb 8c 63 35 bb af 86 d3 3a
       0.0014441056 -0.006622562 -0.0027677743 0.0016138161
000010 77 5c 08 bc 27 fe f0 bb b8 56 a6 3a 82 f7 34 bb
       -0.008322827 -0.007354516 0.0012690639 -0.0027613346
000020 69 29 74 3b f9 71 2c bb a5 66 94 3b 54 03 e6 3a
       0.0037256128 -0.002631305 0.0045288377 0.0017548599
000030 b1 84 1d bc 63 ce ff 3a 20 a3 f3 3b a5 0d 8a bb
       -0.009614156 0.0019516464 0.0074352175 -0.0042130523

layer1.0.bn1.weight f4 [16]
000000 7a 56 4b 3f ef 8a f5 3e f8 2c 11 3f b4 53 7e 3f
       0.7942883 0.4795756 0.5670924 0.9934647
000010 1c 91 47 3f 75 d5 51 3f 90 8c 55 3f af db 4e 3f
       0.77955794 0.81966335 0.83417606 0.8080396
000020 2b 4b 82 3f c7 be 8b 3f b1 9a 95 3f 15 09 69 3f
       1.017919 1.0917596 1.1687833 0.91029483
000030 aa a5 91 3f 6a f8 89 3f 9d c6 48 3f 7c 59 9d 3f
       1.1378682 1.0778935 0.7842806 1.2292933

layer1.0.bn1.bias f4 [16]
000000 76 90 a6 3b fb a3 32 3e 3e 68 84 be c9 ca 98 be
       0.005083139 0.17445366 -0.2586078 -0.29842213
000010 e2 30 72 be f0 8f 12 be 8f 0f 86 bd 8a 4e 8c 3d
       -0.2365146 -0.1431272 -0.06545936 0.06850918
000020 cf bf ab 3e 49 f6 01 3f b3 75 9f be c9 92 53 3e
       0.33544776 0.50766426 -0.31144485 0.20661463
000030 33 1f 22 3f ee 1d 37 be 2d c9 c3 bd 0b 15 a6 be
       0.63328856 -0.17882511 -0.095598556 -0.3243793

layer1.0.bn1.running_mean f4 [16]
000000 9f a7 b8 bf 46 c0 5b c0 6e 2e 5b 3f 50 eb 81 bf
       -1.4426154 -3.4336104 0.8561772 -1.0149937
000010 e4 d2 e2 be 10 75 69 c0 66 25 19 c0 d7 e4 87 3e
       -0.44301522 -3.64777 -2.3929076 0.26541778
000020 49 48 1b bf 57 b9 16 c0 d8 69 1e c0 8b e7 95 c0
       -0.60657173 -2.3550622 -2.4752102 -4.6845145
000030 51 95 dc bf 93 fb 8a be d8 cc e3 bf 31 c9 aa bf
       -1.7233068 -0.2714506 -1.7796888 -1.3342649

layer1.0.bn1.running_var f4 [16]
000000 78 b3 81 3f f1 c5 eb 3f b7 8c d4 3f ab 30 91 40
       1.0132895 1.8419782 1.6605443 4.537191
000010 2d 96 aa 3f 3f 08 55 40 00 e8 8a 40 66 f5 91 40
       1.332708 3.3286283 4.3408203 4.561206
000020 e1 ae 89 40 3c 6d 67 40 3e d8 3f 41 67 17 91 40
       4.3025975 3.6160421 11.9902935 4.5341067
000030 9b 86 a0 40 cf 30 08 41 d3 71 1e 40 6b cc 03 41
       5.0164313 8.511916 2.4756973 8.237407

layer1.0.conv2.weight f4 [16, 16, 3, 3]
000000 e1 cc fd 3c 4e 9d 4b bd 7b 84 8e 3d 54 74 c7 3c
       0.030981483 -0.049710564 0.069588624 0.024347462
000010 26 cd be 3c e3 7c cf 3d 9a 5e 6e bc a4 47 33 3c
       0.023291182 0.10131242 -0.014548922 0.010942373
000020 f9 c6 1e 3d 29 01 82 bc 64 eb cb bd 9f 7b 4f bd
       0.038763974 -0.015869694 -0.099570066 -0.050655004
000030 cd a5 04 3c 62 99 52 3b d4 a6 b3 bc 31 7a 65 3d
       0.008096171 0.003213488 -0.021930136 0.056024734
000040 ff f5 04 3e 39 8d 80 3d ac 48 4f bc 65 75 b6 3d
       0.12984465 0.06276936 -0.012651604 0.0890911
000050 94 df c7 3c 08 b2 e9 3d 79 a9 ac 3d 3d b7 35 3d
       0.024398603 0.1141091 0.08430762 0.044364203
000060 8f b8 8b 3d cb 7f 1f 3d ae 03 c1 bd 36 7c 86 bd
       0.06822311 0.038940232 -0.0942453 -0.0656666
000070 be 0e 31 3e 8c fa 19 be b5 09 6a 3d 69 d6 1c 3e
       0.1729078 -0.15036982 0.057138164 0.15316166
000080 e2 a6 23 3e 85 9e 33 bd 9b 5f b0 3d 47 0a c6 bc
       0.1598163 -0.043852348 0.08611985 -0.024174822
000090 69 bf 6c 3b 69 8e 9f 3d b4 c7 09 be 83 4a 81 3d
       0.0036124832 0.077908345 -0.13455087 0.0631304
0000a0 3b 3f 0b 3e 17 78 c3 bd 16 bf 45 3d a5 4c 05 3e
       0.1359834 -0.0954439 0.048277937 0.13017519
0000b0 16 da 0e 3d b1 a5 31 bc 4a 37 c2 3d 43 e3 a4 3d
       0.03487595 -0.010842727 0.09483202 0.08051159
0000c0 4e 19 0a bd 41 87 ab 3c d0 d5 d7 3d 94 59 c0 bc
       -0.03371554 0.020938518 0.105388284 -0.023480214
0000d0 3a 73 cd bc 34 17 a3 bc 96 30 ab bd d8 ad 38 3e
       -0.025079358 -0.019908525 -0.083588764 0.18035066
0000e0 64 b3 2f be 1b e2 8f bd 3c 24 b1 3d d2 b9 01 be
       -0.17158276 -0.07025548 0.08649489 -0.12668541
0000f0 4a 86 56 3d 45 6c 48 3d 1e 21 0d be ac ab 51 bd
       0.05237416 0.04893138 -0.13782164 -0.05118911
000100 d0 38 03 be 84 06 09 3d 89 65 31 bd 92 8c 0e 3e
       -0.12814641 0.03345348 -0.043309722 0.13920811
000110 2d 2b c2 3c 49 e9 6e bd c1 13 3b 3e 4b 32 a8 3c
       0.023702228 -0.058327947 0.18269254 0.020531794
000120 b1 26 ed bd 7d 6d 43 3e 47 d1 6b 3d 9b fa a8 3e
       -0.115796454 0.19084735 0.05757263 0.33003697
000130 25 ed ee be 04 10 01 3e 9a 11 81 3e e1 ba 1c 3e
       -0.46665302 0.12603766 0.2520874 0.15305664
000140 72 eb 95 3e 06 f3 6f 3e 1d 1a b6 be 2f 89 cf 3d
       0.29281193 0.2343255 -0.35566798 0.101335876
000150 55 be aa bd 87 1b b4 bb 2f de 89 bc 02 5f 4a be
       -0.08337084 -0.0054964456 -0.016829578 -0.19762805
000160 19 fe d6 3e 7a be 17 bd b1 1d b1 be 21 44 2e bc
       0.41990736 -0.037046887 -0.34592965 -0.01063636
000170 34 ed 5b 3b 02 3f 3e 3d e8 58 9d bc a3 d9 db bd
       0.0033558132 0.046446808 -0.019207433 -0.1073487
000180 9c 07 4f 3e 4b 16 03 bc 56 29 90 be d8 ad cc bd
       0.20217746 -0.0080009205 -0.28156537 -0.099940956
000190 d3 2c 45 be b9 f4 7d bc 2c dd 5a 3d 1b f1 1d 3e
       -0.1925538 -0.015500241 0.053433582 0.15424006
0001a0 6c d0 d2 bd bb 3e ec 3d fe 3d d3 3e 2b a2 80 3e
       -0.102936596 0.115354024 0.41258234 0.25123724
0001b0 b5 4c 3d be 26 e1 59 3f b0 ac 4f 3e 31 6f 2d 3e
       -0.18486293 0.85109174 0.20280719 0.16936947
0001c0 3e 2c 7e be 4e d7 c1 3e d5 cf 2d bd 49 e9 cb be
       -0.24821565 0.37859577 -0.042434532 -0.3982642
0001d0 27 16 d7 be a1 2e 13 3d 63 5d f4 3b e4 d7 c7 be
       -0.42009088 0.03593314 0.0074574216 -0.390319
0001e0 f0 4e 1e bd ca 5b 6e 3e c7 0b 15 3e b5 ad d7 bd
       -0.0386495 0.23277202 0.14555274 -0.10531179
0001f0 63 c3 8d bc a9 dc 2b 3e ac c3 1b be f8 0e ef bc
       -0.017305082 0.16783394 -0.15211362 -0.029181942
000200 4f d1 95 bd f6 91 10 be c3 14 61 bd 04 ec 88 bd
       -0.07315313 -0.1411818 -0.05495144 -0.066856414
000210 19 ac 77 be 99 f8 af bd d6 86 09 be 0b 92 a4 3d
       -0.24186744 -0.08592338 -0.13430342 0.08035668
000220 8a 82 01 3f 0b fc 88 3e d2 91 93 3d ad ea 3e 3e
       0.5058981 0.26754794 0.072055474 0.18644209
000230 41 3e 35 3e 74 28 21 be 68 13 db be d2 b8 1c be
       0.17699529 -0.15738088 -0.42788243 -0.15304878
000240 8d 7c 85 3e 05 85 60 3e 5c 0d 4f bd a8 d7 58 3e
       0.26071587 0.21925743 -0.05054985 0.21176016
000250 a2 f0 92 3e 93 70 99 3d c1 f9 1d 3d 9c 45 ff 3d
       0.28699213 0.07492175 0.038568262 0.12464449
000260 17 73 b3 38 7a 6d af 3c e5 66 f4 3d e9 a9 3b 3e
       8.556822e-05 0.021414507 0.11933688 0.18326534
000270 49 21 4b bd a0 1e 9d bb 62 26 94 3d 73 57 a9 bc
       -0.04959229 -0.0047949106 0.072338834 -0.020671582
000280 ee 3d bb bc 20 b7 a0 3d 43 c6 77 3e ed fa 3d 3e
       -0.022856679 0.07847428 0.24196725 0.18552752
000290 75 e7 d7 3d 03 14 aa 3d 80 2a 8d 3d b1 25 9a 3c
       0.10542194 0.08304598 0.06892872 0.0188168
0002a0 e0 71 1e bd c5 00 31 bd e6 75 06 bd 63 02 1c be
       -0.03868282 -0.043213625 -0.03282728 -0.15235285
0002b0 bc 19 62 be 08 2a e8 bd 33 ca 49 be 4f 99 cc be
       -0.2208013 -0.11336142 -0.19706039 -0.39960715
0002c0 e6 9f a5 be d3 26 3d be 52 f8 93 be 7a 9f 71 be
       -0.32348555 -0.18471842 -0.2890039 -0.23595992
0002d0 48 92 93 3d 0a b1 37 bd 9e c3 2f bc 78 2a f4 3c
       0.07205635 -0.044846572 -0.010727791 0.029805407
0002e0 08 e4 39 bd bf a7 a8 3c 4c 4d 78 bd 00 8b 99 bc
       -0.045383483 0.0205878 -0.06062059 -0.018743038
0002f0 a6 de 10 3e 8c 4c 5b be ba 29 00 bd 8e 6f 8a 3d
       0.14147434 -0.21415919 -0.031289794 0.067595586
000300 79 29 b0 bd 9d 24 a3 3d 64 cc 90 3e f1 db 8c bc
       -0.0860166 0.07965968 0.28280938 -0.01719472
000310 89 71 e8 3d 7e 5f a9 3e 25 3c 82 bd 92 1f 13 be
       0.1134978 0.33080667 -0.06359128 -0.14367512
000320 de 1e 1b be 94 73 51 3d 75 01 5d 3d 1d e3 de bc
       -0.15148494 0.051135615 0.053956468 -0.027207905
000330 2b da bf bd b0 35 c1 bd e7 3e 1f bd 95 3f 0d be
       -0.09367784 -0.09434068 -0.038878348 -0.13793786
000340 1b 67 9d 3b fb 7c 3f 3d f7 09 ba bc 06 ad a6 3d
       0.004803551 0.04675005 -0.02270983 0.0813847
000350 e1 d5 1f 3e eb bc d3 bd ae 8a 76 3c d4 8f 06 3d
       0.15608932 -0.103387676 0.015047712 0.03285201
000360 5f 44 02 3e 77 cc 7d 3d a1 5c ed bd 24 15 76 bd
       0.12721394 0.06196257 -0.11589933 -0.060078755
000370 70 56 25 3e 3e 2c 21 be 41 85 d1 3d 79 90 f7 3b
       0.16146255 -0.15739533 0.10230494 0.0075550643
000380 56 21 41 be 4b f1 98 bc 72 9f 45 3c f1 f8 03 3d
       -0.18860373 -0.018669745 0.0120619405 0.03221983
000390 aa 39 6d 3d 2c 31 f6 bd 3b 39 02 3e 41 f1 10 bd
       0.05791632 -0.120210975 0.12717144 -0.035386328
0003a0 d8 a7 4c 3d 85 e8 60 3d 2b 65 9b 3e 46 12 af bc
       0.049964756 0.054909248 0.30350623 -0.021371018
0003b0 45 cc 9b be 74 71 b3 3e 2d 66 74 3e 9b 6d be 3c
       -0.30429283 0.35047495 0.23867102 0.023245623
0003c0 79 2a 13 3e 6a 02 f0 3d 3f 9c 7f bd 58 37 88 bd
       0.14371671 0.117192104 -0.062404867 -0.06651181
0003d0 c5 18 3b bb 25 98 86 bd 9a 8b b6 bd 7a 12 00 be
       -0.00285487 -0.06571988 -0.08913346 -0.12507048
0003e0 35 38 77 bd 6f c7 b4 bd 83 56 1a bc 27 86 ac bd
       -0.060356338 -0.088271014 -0.00942004 -0.08424025
0003f0 58 79 a9 bb b9 ed 8f be a9 4e 32 be d7 41 2c bc
       -0.005171936 -0.28111055 -0.17412819 -0.010513744

layer1.0.conv2.bias f4 [16]
000000 e3 3b 84 bb 09 37 65 3c bc 46 9d bb b7 19 d4 3a
       -0.0040354594 0.013990172 -0.004799692 0.001618198
000010 3d b4 d6 3b 33 87 8d 3b f5 ed 2e bb 6d 89 c5 bb
       0.006552248 0.0043190955 -0.0026692126 -0.0060283453
000020 08 17 f1 3b 92 41 ba bb 42 2d 05 bc f8 5b 22 3c
       0.007357482 -0.005684086 -0.008128466 0.009909622
000030 a6 ca ed bb 7a 20 7d 3b 5d 49 d5 b9 c0 0d 8d 3a
       -0.0072568236 0.0038624094 -0.00040681186 0.0010761544

layer1.0.bn2.weight f4 [16]
000000 52 e0 7f 3f 39 35 0f 3f 05 6a 1a 3f 30 01 1f 3f
       0.9995166 0.55940586 0.6031802 0.62111187
000010 40 e9 10 3f d0 b9 13 3f b9 4b 90 3f 12 20 b1 3f
       0.5660591 0.577054 1.1273109 1.3837912
000020 ea 22 84 3f ea f2 6b 3f a5 b1 2e 3f 10 e8 b9 3f
       1.0323155 0.9216753 0.68239814 1.4523945
000030 b7 ea 87 3f a9 dd 98 3f 0c 77 4a 3f b0 5a 92 3f
       1.0618504 1.1942645 0.790879 1.1433926

layer1.0.bn2.bias f4 [16]
000000 5c 13 7e be 55 3b d3 3e 8e d3 11 3f c0 4e e4 3e
       -0.24812073 0.41256204 0.5696343 0.4459133
000010 d8 0c 29 bf ca f4 a3 3e 72 03 a0 be 5d 90 e4 3c
       -0.66035223 0.32022697 -0.3125263 0.027900869
000020 af d5 37 3e 95 55 b0 bc 2a 4d 02 3f 9c dc 29 bc
       0.17952608 -0.021525184 0.50898993 -0.010367539
000030 97 13 e0 bd ab ca 01 3f f8 04 13 3d db 76 cd 3e
       -0.109412365 0.5069987 0.03589341 0.40129742

layer1.0.bn2.running_mean f4 [16]
000000 31 ce 86 3f 12 6c f4 bd a9 53 a1 3e 9e 1c 80 be
       1.0531675 -0.11934675 0.3150914 -0.25021833
000010 4b 82 80 3f 2b 96 fa 3e a3 5a 02 3f b7 98 cd 3e
       1.0039762 0.48942694 0.5091955 0.40155575
000020 d4 00 88 bc 03 ae 83 bf 80 07 4c be d4 e5 2c bf
       -0.016601957 -1.0287479 -0.19924736 -0.6753819
000030 1d 96 62 bf 61 8f 4c bf 11 88 cb bf af cb 11 c0
       -0.88510305 -0.7990628 -1.5900899 -2.2780569

layer1.0.bn2.running_var f4 [16]
000000 65 8d 4f 40 06 20 ae 3f 7a 6d 06 40 a5 3b 5c 40
       3.243005 1.3603523 2.100432 3.4411404
000010 77 65 ad 3f f2 6e e5 3f 89 75 8d 40 0d 96 4c 40
       1.354659 1.7924483 4.4205976 3.1966584
000020 20 72 f2 3f f6 6b 14 40 90 68 67 40 04 cd 39 40
       1.8941078 2.3190894 3.615757 2.9031382
000030 43 25 34 40 50 d6 8f 40 22 e5 cd 3f f5 1d a2 40
       2.8147743 4.494911 1.6085551 5.066157

layer1.1.conv1.weight f4 [16, 16, 3, 3]
000000 32 3b 62 bd c1 91 97 3c 92 6d 97 3a 22 0f 8d 3e
       -0.055232234 0.018502118 0.001155304 0.27550608
000010 15 07 cb 3d 9e 70 31 3c 2c 1b c4 3e fd 03 52 3e
       0.0991346 0.010830073 0.3830198 0.20509334
000020 15 90 a7 be 1e 8f ab bc ec 4b af bd 40 9a 38 bd
       -0.32727113 -0.020942267 -0.08559403 -0.04506898
000030 b2 85 10 3d 63 59 52 bb c1 bd ef 3c db 73 7a bd
       0.03528375 -0.0032096736 0.029265286 -0.061145645
000040 fa c1 92 bd 1e 4d 84 3d a1 b8 8a 3d d3 aa 2a 3d
       -0.07165904 0.064600214 0.067734964 0.041666817
000050 d2 b0 4f bd b0 e6 5d 3d c9 89 e7 3c 94 c8 80 bd
       -0.05070574 0.05417508 0.028263943 -0.06288257
000060 52 9d be 3d 42 97 64 3c 2c ca 84 3b 10 de 2b bd
       0.0930735 0.013952078 0.004052421 -0.041959822
000070 39 b6 d9 3c d6 c7 91 bd 21 ba e5 3c c8 fc b3 3d
       0.026576148 -0.07118194 0.028042855 0.087884486
000080 71 01 3f 3b a1 33 ff 3c 39 15 39 3d 6b ee 00 bd
       0.0029145146 0.031152548 0.045186255 -0.031477373
000090 f9 61 2b bd 5d 73 8e bd 9f ac c3 bd 64 41 0a 3e
       -0.04184148 -0.069555975 -0.09554409 0.13501507
0000a0 a7 dc ba 3d 68 30 b0 3d 01 e0 bf bc 1a 1b 81 bc
       0.09124117 0.08602983 -0.023422243 -0.015759993
0000b0 0f b0 4f bd 9f c0 93 bd f0 12 ff bb b6 d3 c0 3d
       -0.050705012 -0.07214474 -0.00778424 0.09415381
0000c0 de 11 48 3d cb 7f 8b 3d d7 4b 24 3d b0 1d 32 be
       0.048845164 0.06811484 0.04011139 -0.17394137
0000d0 5c bb c5 bc 9d c1 11 3b 76 60 60 3e 25 4a a4 3e
       -0.024137191 0.0022240647 0.21911797 0.32087818
0000e0 f6 8d 92 3c 14 cd 63 3e db c7 f5 3e 29 e5 0d bd
       0.017889958 0.222462 0.4800404 -0.034642372
0000f0 1d 64 a0 be f6 a1 98 bd 19 b5 7b be 95 da 8d 3d
       -0.3132638 -0.074527666 -0.24580802 0.06926457
000100 9b e3 5b 3e 5b a1 ab bd 5f 00 38 be 6e a6 7f 3d
       0.21473543 -0.083803855 -0.17968892 0.06241458
000110 c6 d1 50 be 3c 5e ce bc eb 96 5c 3e 4b cc 0d 3d
       -0.20392522 -0.025191419 0.21541946 0.034618657
000120 56 82 97 be 76 4f b9 be cc 38 aa 39 eb 43 6a 3d
       -0.29591626 -0.36193436 0.00032467244 0.057193678
000130 b6 05 b2 3c e4 6d e9 3d f7 cb 0c be 5e 2b 1c be
       0.021731239 0.11397913 -0.13749681 -0.15250918
000140 1d 92 de 3d ef 32 d4 3d b4 14 94 bd ec ee 07 be
       0.10867713 0.10361277 -0.07230511 -0.13274735
000150 fe 28 91 3e 46 1a 58 3d 26 e2 8d be 6a 75 f2 bc
       0.28351587 0.05275943 -0.277116 -0.029597003
000160 e9 a1 31 be ca 9c 35 be a7 f5 f0 3d e1 93 3c 3e
       -0.1734692 -0.17735592 0.117656045 0.18415786
000170 eb 0d 2e 3e 72 24 0f be 4c 00 77 bd f0 7a 2a bd
       0.16997497 -0.13978747 -0.060303017 -0.04162115
000180 be ab cd bd d6 a6 9f bb 2b 88 b1 bd 3c e6 58 be
       -0.10042523 -0.0048721833 -0.0866855 -0.21181577
000190 a5 f8 8f bd cd 8b 08 bd c0 01 a8 3d 90 fe 9b 3e
       -0.07029847 -0.03333645 0.08203459 0.30467653
0001a0 90 f2 81 bd 26 49 33 3e 1b 3d d9 bc d6 01 5f be
       -0.06345093 0.17508373 -0.026518395 -0.21778044
0001b0 b0 c8 a2 be b4 ea 2d be 19 a7 a4 3d cb c4 16 3e
       -0.31793737 -0.16984063 0.08039684 0.14723508
0001c0 23 78 13 bd 7e f4 a4 3e 1f 7d 98 bb a5 09 1a be
       -0.036003243 0.32217783 -0.0046535875 -0.15042742
0001d0 19 cf 84 bd cb b5 98 be 7f be 14 be e2 97 c9 bd
       -0.06484813 -0.29826197 -0.14525793 -0.098434225
0001e0 d0 2d 77 bc 04 72 77 3d af 5d 49 bc 5f 5d 0f be
       -0.015086606 0.06041147 -0.012290402 -0.14000462
0001f0 3b a3 93 3c fd 52 2a 3e dc e8 2f bc 04 1b 2b bc
       0.01802217 0.1663322 -0.01073667 -0.010443453
000200 85 14 e9 3c 58 f4 37 3d f3 c5 9c 3d 13 bb 89 3d
       0.028452167 0.04491076 0.07654943 0.06725135
000210 91 8f 5a bc 1d eb 34 3e 29 39 25 3e a6 46 d5 3d
       -0.013339893 0.17667814 0.16135086 0.10413866
000220 55 24 49 3e 71 5d e6 3d 18 bd 7e 3e dc e1 84 3e
       0.19642766 0.11248291 0.24876821 0.25953567
000230 a4 e1 fc 3d 59 dd 1d 3d 47 f8 cd 3c 48 14 0d bd
       0.12347725 0.03854117 0.025142802 -0.03444317
000240 ac 42 d6 bd df a9 8d be eb 37 81 be 8a db 9b be
       -0.104619354 -0.27668664 -0.25237975 -0.30440933
000250 5f 96 4a 3d 39 ce de be aa c0 e8 3a 2a 1c 40 be
       0.04945981 -0.4351671 0.0017757614 -0.18760744
000260 00 e6 de be 9a 5c c9 bd 10 f3 97 3d 3c b6 7f 3e
       -0.4353485 -0.098321155 0.07419407 0.2497186
000270 00 e1 e2 3d be 65 e7 3d e6 f9 90 bc 39 ce b9 3c
       0.110780716 0.11298703 -0.017697286 0.022681342
000280 c7 61 83 37 0c 50 a5 bc 7f 66 12 3d c3 5e 4d bd
       1.5661948e-05 -0.02017977 0.03574228 -0.0501392
000290 00 34 a5 bd 0c 23 39 3d d0 7a 08 be 2d 76 d0 bd
       -0.08066559 0.04519944 -0.13328099 -0.1017879
0002a0 66 81 b0 bd dd ca e5 bd 44 11 18 3e f0 f0 09 bd
       -0.08618431 -0.11220334 0.14850336 -0.03367704
0002b0 68 3b bb 3d 88 7d 03 3e 78 77 b4 3d ea f1 a5 3d
       0.0914219 0.12840855 0.08811849 0.08102782
0002c0 d9 e6 8c bd 20 3d 03 3b 9e c4 d0 bd 2e ba 07 bd
       -0.06879968 0.0020025447 -0.10193752 -0.03313654
0002d0 75 5e 26 3e ec 58 06 3e fc f8 70 3d 00 ef 8e 3d
       0.1624697 0.13119859 0.0588312 0.069791794
0002e0 7d e9 05 bd 20 24 9d bd fe 11 a0 3c 2a e0 07 bd
       -0.032693375 -0.07672906 0.01953983 -0.033172764
0002f0 81 ea a1 bc 33 ee 59 bc eb cc 7f 3c 24 0a a8 3d
       -0.01976514 -0.01330142 0.015612821 0.08205059
000300 40 e3 24 3e f0 60 92 bd aa 74 c0 3c 8c 70 c4 bd
       0.16102314 -0.071473956 0.02349313 -0.09591779
000310 49 74 e3 bd e5 1e 84 be ec 88 23 be b6 24 5c 3e
       -0.11106164 -0.2580482 -0.159702 0.21498379
000320 be aa 10 be 80 e8 50 3d b5 cc 15 bf a5 37 c5 bd
       -0.14127633 0.05100298 -0.58515483 -0.09629754
000330 24 e7 fc be cb 92 d2 bd 64 39 03 be ec 36 b4 3e
       -0.49395096 -0.10281905 -0.12814862 0.35198152
000340 a8 56 0f bd 96 37 cc bd 20 03 bd bd 49 de e8 be
       -0.03499475 -0.0997154 -0.09229112 -0.4548209
000350 d2 f5 02 3f bf 01 92 be fc d1 35 3f 10 34 e1 bc
       0.5115634 -0.28516957 0.71023536 -0.027490646
000360 d8 c9 25 bd 89 20 68 be 9c 83 70 bc 16 52 cb be
       -0.040475696 -0.22668661 -0.014679816 -0.39711064
000370 a0 75 72 3d 8d 6e e4 3e af 82 ca 3d ae 99 3c 3e
       0.059194207 0.44615594 0.09888207 0.18417999
000380 82 ba a4 be 50 7f 6d 3a 85 5d 25 3d 7b c8 90 bd
       -0.32173544 0.00090598036 0.04037239 -0.070694886
000390 28 29 2e be 1a 9b 61 bb 07 a9 2f be e6 d7 cf bb
       -0.17007887 -0.0034424723 -0.17154323 -0.006342876
0003a0 d0 d6 8c 3d 20 76 33 be b3 56 91 be 00 89 6a be
       0.0687691 -0.1752553 -0.2838646 -0.22903824
0003b0 7d 1e 7e 3b 75 a8 d1 bd 1e 16 b1 3d 2e 3b 07 bd
       0.0038775497 -0.10237209 0.08646797 -0.033015423
0003c0 f1 35 e0 3d d7 ff 71 3d 4a 83 d7 bc 51 88 f1 be
       0.109477885 0.05908188 -0.02630772 -0.47174314
0003d0 e7 06 05 3f da d9 f7 3d 4c 5d 0a 3f d3 c1 dc 3d
       0.5196366 0.12102099 0.5404861 0.107791565
0003e0 bd 8d 3f bf e4 2f 0d 3e 7d 7b 36 bf 97 6a bd 3e
       -0.7482565 0.137878 -0.7128218 0.36995384
0003f0 4e 68 1a 3e 72 51 47 be e3 cb 96 3b d0 5c da ba
       0.15078852 -0.19464663 0.004601942 -0.001665974

layer1.1.conv1.bias f4 [16]
000000 ab d5 a2 ba 91 64 04 bc 19 8a be 3b c6 29 11 3a
       -0.0012423297 -0.0080806175 0.0058148024 0.0005537536
000010 e8 f7 cf bb a1 09 fd 3b c0 18 03 bc 27 50 0b bc
       -0.0063466914 0.007722095 -0.008001506 -0.0085029965
000020 10 81 0d bc c0 33 8a bb 5b d7 e9 3b 1d 07 ce ba
       -0.008636728 -0.004217595 0.007136268 -0.0015718673
000030 e6 82 23 3c 6b 8f 88 ba 5e 43 07 bc 9f 02 ef 39
       0.009979939 -0.0010418718 -0.008255808 0.00045587585

layer1.1.bn1.weight f4 [16]
000000 6c 2a 60 3f df 5c 80 3f 7e f2 1a 3f c1 d4 68 3f
       0.8756473 1.0028342 0.60526264 0.90949637
000010 71 c6 66 3f 0e 1d 3d 3f 02 19 4c 3f 3b 0a 50 3f
       0.9014655 0.7387246 0.7972566 0.8126561
000020 49 09 5d 3f 6a fd 47 3f 8e 6e 86 3f c5 fe 7a 3f
       0.86342293 0.78121054 1.0502489 0.98045
000030 fb 1c 37 3f 9f e8 9b 3f 48 ea 53 3f f8 ec 4c 3f
       0.71528596 1.2180365 0.8277936 0.80049086

layer1.1.bn1.bias f4 [16]
000000 59 bd 1e bf 5c f8 b8 be 07 bd 0a bf 31 6d b4 be
       -0.6200767 -0.36126983 -0.5419468 -0.35239556
000010 14 24 04 bf 96 fc 0c bf b3 25 94 be 6f 7c 30 be
       -0.5161755 -0.55072916 -0.28935012 -0.17234968
000020 b2 a5 d7 be 74 f5 e6 be f7 86 c7 be 2d ac 41 be
       -0.42118603 -0.4510914 -0.38970158 -0.18913336
000030 e3 cb 8b be 9b b3 93 be 78 9e a8 be 2c a1 cb be
       -0.2730399 -0.28847966 -0.32933402 -0.39771402

layer1.1.bn1.running_mean f4 [16]
000000 60 1d 8f 3f e4 02 4c c0 a0 48 59 40 b2 00 93 c0
       1.118084 -3.1876764 3.3950577 -4.593835
000010 0e c6 7b c0 bb 8d 59 c0 b7 8a 88 bf 0e 9f 1f bf
       -3.9339633 -3.3992755 -1.0667332 -0.62352073
000020 28 98 02 c0 e7 a8 54 c0 92 a1 00 c0 f5 d6 e3 3d
       -2.0405369 -3.322809 -2.0098615 0.11124984
000030 43 f6 79 40 45 d8 e1 bf 05 37 7c c0 80 13 4e c0
       3.9056556 -1.7644125 -3.9408581 -3.2199402

layer1.1.bn1.running_var f4 [16]
000000 22 77 ba 40 ef 6e 8a 41 2b 44 12 40 0f 10 47 41
       5.8270426 17.304167 2.2854106 12.441421
000010 e1 82 1a 41 d3 9f 65 40 26 b6 f7 40 78 d7 a7 41
       9.656953 3.58788 7.740985 20.98021
000020 a4 f9 c1 40 a0 36 87 40 9e 85 e3 41 67 b7 21 42
       6.0617237 4.225418 28.440243 40.429104
000030 96 5d a0 40 8e 99 87 42 c9 4b ed 40 35 1c a1 40
       5.011424 67.79991 7.415501 5.0346932

layer1.1.conv2.weight f4 [16, 16, 3, 3]
000000 d9 e2 99 be a2 70 5d be f8 c7 4c be c0 cc c3 be
       -0.30055884 -0.21624997 -0.19998157 -0.3824215
000010 db d6 05 be 62 c0 03 be c2 28 a0 be 96 08 17 be
       -0.13070242 -0.12866357 -0.31281096 -0.14749369
000020 3c 70 48 bd 9f 1e 10 3e 07 f3 1b 3e 65 17 c2 3d
       -0.04893516 0.14074181 0.15229426 0.094771184
000030 14 e9 9d 3e 37 3f 5f 3e 9a 19 c6 3e da d9 61 3e
       0.30841887 0.21801458 0.38691407 0.2205576
000040 b5 89 7f 3e 66 e4 88 3e 69 8e 80 3d b2 a8 b5 3d
       0.24954875 0.26736754 0.062771626 0.08870067
000050 e9 bb 98 3d 01 46 80 be e7 95 70 be 95 92 4c be
       0.07457716 -0.2505341 -0.23494683 -0.19977792
000060 73 0e 7e bd d1 bc 20 bc f0 54 6a 3b 5a ec 97 3e
       -0.0620255 -0.009810642 0.0035756193 0.2967251
000070 02 23 53 3d 7b 81 8d 3e 4d de 9e 3e 06 b3 ae 3e
       0.051547058 0.27637848 0.31028977 0.3412096
000080 b5 51 1f 3e ff 93 81 3e 5d a3 12 3e 80 25 50 3e
       0.15558513 0.25308225 0.1432013 0.20326805
000090 6c 64 5b 3e a9 8d 82 be a5 ce ca bd 81 f2 53 3e
       0.21425027 -0.25498703 -0.099026956 0.20697977
0000a0 ad 28 90 bb 27 5a a8 bd d5 7b 0e be a8 6b a9 3d
       -0.00439938 -0.0822032 -0.13914426 0.08272487
0000b0 b6 ea be 3d 19 65 02 be f7 0d e4 3d b8 ab 68 3d
       0.09322111 -0.12733878 0.11135476 0.05680439
0000c0 24 b3 97 bd 35 f6 03 3e 27 a5 52 3e ec a1 e8 bd
       -0.07407215 0.1288689 0.20570813 -0.11359009
0000d0 10 c6 61 bd 35 58 10 be 72 16 9c bc 10 02 2d be
       -0.055120528 -0.14096148 -0.019053672 -0.16895318
0000e0 e8 d9 b2 bd 8e b3 d6 bd 95 40 17 3d c0 9f d0 bd
       -0.087329686 -0.10483466 0.036926825 -0.1018672
0000f0 c9 0a 6c 3b 31 40 f3 bc c6 bf 42 3e eb f8 55 be
       0.003601717 -0.029693695 0.19018468 -0.20895736
000100 6b 5d dc bd 8a 23 99 3b f2 cb 40 3b b2 08 9e 3e
       -0.107600056 0.004673426 0.0029418436 0.3086601
000110 74 97 25 3e 5e ac 5e 3e 81 6e d5 3e 86 88 e5 3d
       0.16171056 0.2174544 0.4168587 0.112076804
000120 b5 ab fe 3a e4 7f b8 3c 27 45 e8 bc 9d 3b 3e 3d
       0.0019429835 0.02252192 -0.028353287 0.04644357
000130 dc bf 07 be 41 15 ee bd 62 76 b2 3d e5 9e 75 be
       -0.13256782 -0.116251476 0.08713986 -0.23986395
000140 68 a7 de bd b9 8a 82 39 42 51 98 3d fa b7 81 bd
       -0.10871774 0.0002489889 0.07437374 -0.06333919
000150 49 e1 67 3d ad 77 2b 3b a9 50 6f be e6 06 5c 3e
       0.056611333 0.0026163862 -0.23370613 0.21487007
000160 f0 ee 00 3a 95 bb e8 be 84 a1 eb bb f8 f5 31 be
       0.0004918417 -0.45455614 -0.007190885 -0.17378986
000170 2c 5d 45 be 0e a7 36 bc 49 e3 be bd ee be 97 bd
       -0.19273823 -0.011148227 -0.09320695 -0.07409464
000180 64 4f a0 3b 3f 35 30 bd 52 3b 3b be 25 dc 06 3e
       0.0048922766 -0.04301953 -0.18284348 0.13169916
000190 8e 0b 73 3e fd ec 1f bd 3a 58 84 3e 4d 01 19 3f
       0.23734877 -0.03904437 0.25848562 0.5976761
0001a0 3e 69 a7 3d 31 de 4e 3e c4 79 78 3e b5 c6 c9 3d
       0.0817437 0.20201947 0.242652 0.098523535
0001b0 72 3f 28 be d1 f5 a6 bc cc 15 d0 bd 21 89 a2 be
       -0.16430452 -0.020380886 -0.101604074 -0.31745246
0001c0 38 29 9a bd 33 27 8e bd 8f b5 06 bd c9 27 b3 3d
       -0.07527393 -0.069410704 -0.03288799 0.08747823
0001d0 0e 8d 3a 3e b7 ad 82 bd 4e 39 93 be 95 b5 d4 bd
       0.1821787 -0.0638079 -0.28754658 -0.103861965
0001e0 02 5d 13 be e1 9b 2c be d6 22 f7 bc a5 7a 80 bd
       -0.14390948 -0.16856338 -0.030167978 -0.062733926
0001f0 76 b9 66 3d 90 8b bc 3d ba 47 d6 bd 17 e6 ab bc
       0.056329213 0.09206307 -0.104628995 -0.020983739
000200 d3 af 07 bd 05 cd 26 be 04 30 e7 3c 8d d1 05 3e
       -0.033126663 -0.16289146 0.028221138 0.13068219
000210 6e f2 39 be 20 15 37 3c 2f 4f 1c 3e de fc 15 3d
       -0.18158886 0.01117447 0.15264581 0.036618106
000220 8b 88 03 bd 71 78 63 bc 80 da 9a 3d 5c f8 b0 3b
       -0.03211264 -0.013883696 0.07561207 0.0054007005
000230 58 77 9f bd 2b 88 52 3d e0 62 10 3d 6e 14 27 be
       -0.07786435 0.05139939 0.035250545 -0.16316387
000240 42 83 fb bb 70 a3 18 bd dd ff c9 bd d3 9b 47 be
       -0.0076755593 -0.03726524 -0.09863255 -0.19493036
000250 be e8 92 be c6 32 41 be d9 47 44 be 66 8e 98 be
       -0.28693193 -0.18867025 -0.19168033 -0.2979614
000260 a2 14 93 be 4f eb 06 be 2a 2c 48 be 09 6a 81 bd
       -0.2872668 -0.131757 -0.19548097 -0.06319053
000270 1c 17 5e be ee c4 ab be b9 b9 77 be 7a ea 6f be
       -0.21688503 -0.33548683 -0.24191941 -0.2342929
000280 d4 36 2b be ac 58 5c be b2 7b 5f bb e8 39 63 3d
       -0.16720134 -0.215182 -0.0034100828 0.055475146
000290 53 7b 3e 3d fa 18 95 3a 3a e2 31 3d 43 45 8c 3c
       0.04650433 0.0011375241 0.043428637 0.01712287
0002a0 ac 1f e7 bd 45 35 10 be 5d 15 36 be 07 38 58 3e
       -0.11285338 -0.1408282 -0.17781587 0.21115123
0002b0 24 38 82 3d 32 30 69 bd eb dd 47 3e be 44 fc 3d
       0.06358364 -0.05693073 0.19518249 0.12317799
0002c0 97 ef 89 3d 67 82 9d 3d 37 9f 76 3d f1 3d 82 3d
       0.06735151 0.07690888 0.060210433 0.06359471
0002d0 41 d3 e7 3d 51 e3 55 3e c9 3b c0 3d 02 0a d9 3d
       0.1131959 0.20887496 0.09386403 0.10597612
0002e0 35 ec 1e 3e 4b 82 99 3d 80 15 f9 3d f9 6c 19 3e
       0.15519793 0.074955545 0.12162304 0.14982976
0002f0 39 7b c8 3c f3 44 00 be 03 45 66 bd 3d 0a 92 3d
       0.02447282 -0.12526302 -0.05621816 0.07130859
000300 6b d0 9c bd f4 6d c2 bc 22 cb 89 3d b1 06 1b ba
       -0.0765694 -0.02373407 0.06728198 -0.0005913778
000310 41 6c e4 3d 69 68 31 3e 0a dd da bc d3 14 f5 3d
       0.1115346 0.17324986 -0.026716728 0.119668625
000320 9e 8d f7 3d 92 c8 cd bd c7 6b 50 3d bd 6a 16 3e
       0.12087558 -0.100480214 0.050884034 0.14689155
000330 51 e2 1d be f1 f7 91 3d 2a 5c 2b bd e7 17 81 3d
       -0.15418364 0.07127369 -0.04183594 0.06303387
000340 17 0b 78 3c a5 b5 ac 3d f5 da ca bd 91 da 34 be
       0.015139363 0.084330834 -0.09905044 -0.17661501
000350 8e 8f 81 bd 4b ed c2 bd 66 87 42 be ca c6 cb bd
       -0.06326209 -0.09517916 -0.18996963 -0.099500254
000360 e9 d0 e9 3c bd 09 ae 3d 9c 68 02 3c b8 03 1a 3e
       0.028541999 0.08497951 0.007959511 0.15040481
000370 45 95 33 3e d0 9a d6 3d 40 3f 5f 3e aa 66 91 3e
       0.1753741 0.10478747 0.21801472 0.2839864
000380 89 24 a9 3d 89 77 10 be 2d 24 7d bd d6 16 a9 bb
       0.08258922 -0.14108099 -0.061802078 -0.005160193
000390 5f d6 ef bd 6a 11 dc bd 58 05 7e bd 25 2a b3 bc
       -0.1171081 -0.10745509 -0.062016815 -0.021870682
0003a0 c2 03 93 bc 3c 73 29 3d 0b c8 f6 3c 9c ca c5 3c
       -0.017946128 0.04136966 0.030124685 0.024144463
0003b0 63 fe 3c bd d5 98 9f bd 86 4e 11 be fe 0b 74 bd
       -0.04614104 -0.07792822 -0.1419011 -0.05958175
0003c0 ae 94 1d be f6 5d ec bd ca e6 3f bd 18 bb d7 3c
       -0.15388748 -0.11541359 -0.046850957 0.02633433
0003d0 96 b2 0b 3a 5c dc 02 3e a4 a5 2d bd 47 fd ee bd
       0.00053290406 0.12779373 -0.042394295 -0.116694026
0003e0 a0 8a e8 bc 6d 33 2f bc 88 05 80 bd 0a 4a 81 bc
       -0.028386414 -0.010693413 -0.06251055 -0.015782375
0003f0 38 34 5e be 6b 6d 0c 3d 70 b3 a6 3d 53 12 3d be
       -0.21699607 0.034284037 0.08139694 -0.18464021

layer1.1.conv2.bias f4 [16]
000000 c5 ca ea 3b 03 12 d2 ba 3a b0 16 3b ed 26 a0 3b
       0.0071652853 -0.0016027096 0.0022993223 0.004887453
000010 5e 21 c9 bb 73 b9 83 bb 09 d3 22 bc 94 c3 1f bb
       -0.006138011 -0.00401991 -0.00993801 -0.0024378048
000020 6d fb 00 bb 1a db 16 3c da 38 58 3b 73 3b cb 3a
       -0.0019681111 0.009207511 0.003299287 0.0015505388
000030 40 64 63 bb c3 5f 3f bb 06 0b 52 39 ea cc ff 3b
       -0.0034697205 -0.0029201366 0.00020031267 0.00780641

layer1.1.bn2.weight f4 [16]
000000 c6 07 3d 3f ac b1 0b 3f f2 03 3e 3f 4c 44 8b 3e
       0.73839986 0.5456798 0.7422477 0.27200544
000010 a2 0a 38 3f a9 52 e4 3e 62 68 0a 3f ce 74 5c 3f
       0.71891224 0.44594315 0.54065526 0.8611573
000020 8a ce 27 3f 91 1d 53 3f ed d0 f7 3e 97 43 5e 3f
       0.6554953 0.8246699 0.48401585 0.86821884
000030 d4 64 80 3f f4 bc 68 3f 87 87 8e 3f 1f 50 fd 3e
       1.003077 0.9091332 1.113511 0.4947519

layer1.1.bn2.bias f4 [16]
000000 8b d1 de 3e 55 b4 c8 3e 63 ae 70 3e ab 5f ea 3d
       0.43519244 0.39200082 0.23504023 0.114440285
000010 78 db 58 bc d1 9b bb 3d c6 9b 13 bf b6 20 da be
       -0.013235919 0.09160579 -0.57659566 -0.4260308
000020 ed 68 49 bd fe 3a 25 3c f1 b8 36 3e f4 8c 7a bf
       -0.04917233 0.010084866 0.17843987 -0.9787133
000030 a9 b5 ba 3d 56 3f 9e be e3 a5 20 3e 0b 94 dc 3d
       0.0911668 -0.30907696 0.15688281 0.107704245

layer1.1.bn2.running_mean f4 [16]
000000 f8 95 e2 3e 73 8b 79 bf b1 d7 8f bf e4 2b 54 be
       0.44255042 -0.9747841 -1.1237699 -0.20719868
000010 40 dd ed 3d 28 de 4c 3e 1e e3 74 be 10 ed 15 bf
       0.11614466 0.20006621 -0.23914763 -0.58564854
000020 3f cc c5 3e 1b 6a 8e bf e3 b0 85 bf f7 64 b7 3e
       0.3863239 -1.1126131 -1.0444607 0.35819218
000030 db 89 20 bf 72 f8 8f bd b2 7b b7 bf 2e d1 33 bf
       -0.6271035 -0.07029809 -1.4334624 -0.7024106

layer1.1.bn2.running_var f4 [16]
000000 8f f4 94 3f 92 ba 57 3f d9 e6 e4 3f c2 e9 45 3f
       1.1637133 0.8426906 1.7882949 0.7730981
000010 37 69 22 3f aa cf 0c 3f bc f7 13 3f b6 13 46 3f
       0.63441795 0.5500437 0.5779989 0.77373827
000020 05 32 53 3f c5 d3 62 3f ec 58 89 3f 0a 8b 36 3f
       0.824982 0.88604385 1.0730262 0.71305907
000030 02 d0 8c 3f 4c c1 b5 3f ed 22 e1 3f 6b cd 88 3f
       1.1000979 1.4199615 1.7588784 1.0687689
