Output/swift-iid-8W-pattern1-half-ring-2sgd-200epochs/r3-epoch_101-parameters.pt (torch, 731756 bytes, 92 tensors)

conv1.weight f4 [16, 3, 3, 3]
00000000: 6871 b83c 563d 05bf 460e 793d 5814 33be
00000010: 5c71 c0bd 3c06 ba3d a41b c6be 32cd 803e
00000020: 0562 2f3d 1018 b0be 0d86 5abf f2ca 01bf
00000030: a695 763e db35 023f 5988 273e 527a e03e
00000040: 7c8d a23f f803 213f 44dc 00bf 7733 75bf
00000050: 2a90 d4be 77b3 ce3c 069a 8d3d a755 d0bb
00000060: 812d 6b3e 00c6 2b3f 23c7 a03e 5397 1bbd
00000070: 6b27 ec3d 8fe9 cd3d 5aa9 c7bd a12e 2bbc
00000080: 465f a83c 24e3 a4bc 0c8c f53c 153b 39bd
00000090: 9563 e43d 0145 553e f92d 143e 30d3 983c
000000a0: 6a2f 333e daf1 2c3e 6992 fb3c 31e8 f33d
000000b0: 761d 3a3d a0c2 d03d 18ff 463e 127d f73d
000000c0: ccdc bd3d 81f0 883e 8cba 363e d370 4bbd
000000d0: 022d a33d 40f7 0ebd 875a a63d f9e3 f9be
000000e0: e83b 8fbd 6c62 b4be e9b2 4bbf eb80 07bf
000000f0: c673 5abe ee8f 2fbf a7e1 84be 5b6a 453e
00000100: 49b6 813c 5fb6 273e bf81 053e 352b c83d
00000110: 33c4 283d b28e 8bbd 25c7 e9bd 90c9 d73c
00000120: b226 1cbe 4ce2 243c aae6 17be a806 833e
00000130: 42d2 163f 4370 943e 0974 803e f954 023f
00000140: b327 be3e 42f9 d03d eec8 373c b2e2 8e3e
00000150: 4ce7 eabe def4 23bf d528 bfbe f43d 87be
00000160: db9b 0abf 68bd cdbe 17d0 83be dfe4 47be
00000170: ca00 5abe cf01 97be c966 15be 9a35 6ebe
00000180: 3453 26be e205 21bd 91e8 5fbe aefd 9ebd
00000190: e325 0f3f aa09 5c3d 20c2 d13e 1883 963f
000001a0: fc08 1b3f 11ab d03e 1b71 803f 4b4b f23e
000001b0: a607 973e e0a3 05be c53c 923e 0715 36be
000001c0: ae18 34bf ab8d c2bd e1b8 113e 54c0 3abe
000001d0: 3092 433e f28e 893e a41d 7abe 96d9 303e
000001e0: 9878 29be 71a9 33bf 1b7d 41be d3e3 883e
000001f0: b803 ecbd 969a 553e 0692 7f3d 608b 4fbe
00000200: 921c 533c 2231 9fbe 431f 20bf f929 9bbe
00000210: 0214 e93d c10e 6cbd 3199 0d3e d455 923e
00000220: ed31 5d3f fb71 303f 50dd 043f 9f43 603f
00000230: aea3 9b3e a5e2 a33d aeeb a63d d732 06be
00000240: 6f0f 1cbe 1575 5fbf 2092 34bf a051 adbe
00000250: 6332 aabf e5ea b7bf d102 c23d 1d68 37bf
00000260: 20d8 0ebf 505f 4b3e 25fa 433e e961 893e
00000270: 4b24 283e 4751 4d3d 40c0 ebbd 55ff 0f3f
00000280: 4d4a ea3e 74b8 d63e bdc0 ea3e 8df6 b23f
00000290: ba47 613f 32d8 2fbe 876b 453a eb6b ad3e
000002a0: c156 1fbf 27c3 a4bf e343 96be 8d71 f33e
000002b0: f80c 703f 1b49 d83e f28d 2abe ab05 debe
000002c0: c082 80be 2237 05bd a85d 5dbf 4865 95be
000002d0: 8711 babe b968 8dbb b192 02bf 5239 4abe
000002e0: 3d15 18be c3ec c0be 0355 fc3e 232b 193e
000002f0: 5cc4 6e3e f7f5 373c 16fd 89be 653e 813b
00000300: f9e5 be3d 6414 f73f e3da 00be 011b 4e3e
00000310: 26e1 4abe d065 ee3d b643 b7bd 83ff edbe
00000320: c289 4cbe 467e 92be 8b77 963f 1ba3 06bf
00000330: 96db 06bf 1d02 9ebf 329c d2be a2d1 95bd
00000340: e9a1 d3be 652e 5abe bd9c 163e e74b c63f
00000350: 861f 10bd 9573 22bd a238 f03d 104c 333e
00000360: 93eb 3bbe d601 a13c f72a febb 7538 73bf
00000370: 7654 b13e 14d6 2c3f 8133 bbbe f01e d7bb
00000380: 4f08 8e3c a513 05bf d829 ebbd a88f 9e3e
00000390: 14f8 93bf 4d17 a93e e801 8b3f 3c59 93be
000003a0: 517a 073e 012e f03e b939 43bd a007 833d
000003b0: 51c3 e93d 8ad5 4dbf 5cfe 713e eecf 243f
000003c0: 3462 85be b969 9bbd f0c5 4e3c c5fe 8c3e
000003d0: df3b 3dbe 9e52 003a 6bed 06be b54b 32bf
000003e0: 725d c0be 7b04 13be 33e6 3cbf 36a3 f5be
000003f0: b46f 0e3f f498 b03e 17b3 ce3e bfed c83e
0.022515014 -0.52046716 0.060804628 -0.1748823 -0.093966216 0.0908322 -0.38692963 0.25156552
0.042818088 -0.34393358 -0.85360795 -0.50700295 0.24080524 0.50863427 0.16360606 0.43843323
1.2699428 0.6289668 -0.503361 -0.95781654 -0.41516238 0.02523206 0.06914143 -0.006357867
0.22966577 0.67099 0.3140193 -0.03798611 0.11530956 0.100543134 -0.09749098 -0.010448129
0.020553242 -0.02012784 0.029974006 -0.04522236 0.11151806 0.20827104 0.14470662 0.01865539
0.17498556 0.16889134 0.030709462 0.11909521 0.045438252 0.10193372 0.19433248 0.12084402
0.09270629 0.2674599 0.178446 -0.049668144 0.07967569 -0.034903765 0.081227355 -0.48806742
-0.06993848 -0.3523134 -0.7956987 -0.5293109 -0.21333227 -0.68578994 -0.2595341 0.19278853
0.01583399 0.16378163 0.13037775 0.09773866 0.041202735 -0.06814326 -0.11414937 0.02634123
-0.15249136 0.010063719 -0.14834085 0.25591016 0.5891458 0.289919 0.25088528 0.5091091
0.37139663 0.10203792 0.011217339 0.2790733 -0.4587959 -0.6404551 -0.3733584 -0.26414454
-0.54144067 -0.40183568 -0.25744697 -0.19520901 -0.21289364 -0.29493567 -0.1458999 -0.23262635
-0.16242677 -0.03931225 -0.21866061 -0.07763229 0.55917186 0.053720154 0.40968418 1.1758757
0.60560584 0.40755513 1.0034517 0.4732307 0.29498023 -0.13050795 0.28561988 -0.17781459
-0.7035016 -0.09499677 0.14230682 -0.1823743 0.19098735 0.2686687 -0.2442537 0.17270502
-0.16549909 -0.7018042 -0.1889538 0.26736316 -0.11524147 0.20859751 0.06239512 -0.20268011
0.01288523 -0.31092173 -0.625477 -0.3030546 0.11380769 -0.057631258 0.13827969 0.28581107
0.86404306 0.6892392 0.51900196 0.8760318 0.30398315 0.080022134 0.08150421 -0.13105331
-0.15240262 -0.8728803 -0.7053547 -0.33851337 -1.3296627 -1.4368559 0.094731934 -0.7164324
-0.5579853 0.19860578 0.19138391 0.26832512 0.16420095 0.05012634 -0.11511278 0.5624898
0.45759812 0.41937602 0.45850173 1.3981491 0.8800007 -0.17172316 0.00075309764 0.33871397
-0.6224175 -1.2872056 -0.29348668 0.4754757 0.9376979 0.42243275 -0.1665571 -0.433637
-0.25099754 -0.032523282 -0.86471033 -0.29178834 -0.36341497 -0.0043154624 -0.51005083 -0.19748428
-0.14851852 -0.37680635 0.4928361 0.14957862 0.23317093 0.011228076 -0.26950902 0.0039442056
0.093212076 1.9303098 -0.12583499 0.20127489 -0.1981245 0.11640513 -0.08948462 -0.46484002
-0.19974425 -0.28611964 1.1755232 -0.5259263 -0.5267881 -1.2344395 -0.41134793 -0.07315375
-0.41334465 -0.2130676 0.14708228 1.5491914 -0.035186313 -0.03966101 0.11729552 0.17509484
-0.18351583 0.019654196 -0.0077565867 -0.9500802 0.3463475 0.6751416 -0.36562732 -0.0065649673
0.017337946 -0.519831 -0.114825904 0.30968976 -1.1560082 0.3302559 1.0859957 -0.28779018
0.13230254 0.46910098 -0.04766247 0.06397939 0.11414207 -0.8040396 0.23632187 0.64379776
-0.26051486 -0.07588524 0.012620434 0.27538124 -0.1847987 0.00048951234 -0.13176505 -0.6964677
-0.37571293 -0.14357178 -0.73788756 -0.47976083 0.55639195 0.34491694 0.4037101 0.39243886

conv1.bias f4 [16]
00000000: 13a5 81bc 237a 24bc 4633 37bc f8ff a93c
00000010: 95de 9c3c 4b0b b6bc e8ec 8bba 238d ae3b
00000020: 0ec1 8abc fb1d b8bc 3d92 cdbb 7b58 28bc
00000030: c7ca 09bc dbe1 893c c570 8d3b ca2f 7cbc
-0.015825784 -0.010038885 -0.011181658 0.020751938 0.019149104 -0.022222182 -0.0010675462 0.0053268834
-0.016937759 -0.022475233 -0.0062735365 -0.010275002 -0.008410162 0.01683133 0.0043164217 -0.015392253

bn1.weight f4 [16]
00000000: f17c 523f d5eb 423f 39c9 fe3e dc89 163f
00000010: 72b8 bd3f cd8e 2a3f b7b6 573f 286c 823f
00000020: f1fa 5e3f d559 1e3f 1c19 123f eb5a 593f
00000030: c854 8c3f 6c02 153f 0477 c63e 63b1 0c3f
0.82221895 0.761411 0.49762896 0.58804107 1.4821913 0.66624147 0.84263176 1.0189257
0.87101656 0.6185582 0.57069564 0.84904355 1.0963373 0.5820682 0.38762677 0.5495817

bn1.bias f4 [16]
00000000: 82e9 153f 84a6 e6be 3f84 763e 7704 033f
00000010: 77a2 6bbf 7c73 c83e ed54 323f 014c a53f
00000020: 5eff 583e c90c 363d 5481 af3e 08d8 a43f
00000030: fdb2 c63e 64d3 8e3e 79a0 d23d d18b 973d
0.5855943 -0.45048916 0.24073885 0.5117869 -0.92044777 0.39150608 0.69660836 1.291382
0.21191165 0.044445787 0.34278357 1.2878428 0.38808432 0.27895653 0.10284514 0.07399715

bn1.running_mean f4 [16]
00000000: 2357 23be af98 10bf 8844 873e e816 b7bd
00000010: 6459 373f 2b7f 0e3e 2fa9 e23d 34d8 8ebe
00000020: 556e 70bb e052 54bd d0c4 21bd d68f 583d
00000030: 7643 a6bd 3a33 42be 29b1 c4bd f94f f63e
-0.15951209 -0.56482977 0.26419473 -0.08939916 0.71620774 0.13915698 0.110674255 -0.27899325
-0.0036686857 -0.05183685 -0.039494336 0.052871548 -0.08118336 -0.18964854 -0.09604103 0.4810789

bn1.running_var f4 [16]
00000000: 64d5 6141 b8d1 c240 8529 9540 c842 f040
00000010: 42ca 2641 ce72 ab40 b3c5 3241 f866 c540
00000020: 3c74 5941 e202 b840 2d84 d33f 12b1 1540
00000030: bb42 cc41 5ad1 0d41 821e 3340 3e11 9940
14.114597 6.0881004 4.6613183 7.508152 10.424379 5.3577642 11.173266 6.1688194
13.590878 5.750352 1.6524712 2.3389325 25.532583 8.863611 2.798737 4.7833548

layer1.0.conv1.weight f4 [16, 16, 3, 3]
00000000: e4d6 35be 1eb1 02be 07de ea3d 84c5 05bc
00000010: 5ef3 63be 8fcb 4cbe e3b9 c33d 10be 0ebe
00000020: 8bfe 55be d4d9 3eba 5b80 c5bd 3547 3bbe
00000030: ff0b 783d e1e4 ee3b 4f0a b2bd 8c75 573d
00000040: a95b 49bc 7333 c1bd d66a 97be e964 07be
00000050: acc4 203e a7be 88be fb68 f7bc af37 9a3e
00000060: 774b 41be a7e9 28bd dd6b 8e3e 9517 a8be
00000070: 97fe 09bd 07ef bc3e 6cf8 d3be 2469 0ebe
00000080: edf8 be3e d176 e0be 0fd9 5dbe 77ce 833e
00000090: cc6f 27bd c05f 2fbd 3a2d 3cbe b917 eb3d
000000a0: bf89 863d 47ff 1fbe 2b54 2e3e 669b 333e
000000b0: 8cef b5bc 0a35 8c3d 58a9 c2bd a3fc 97be
000000c0: d771 1a3e 2ffe b7bc ba80 c5be 4478 583e
000000d0: df89 d93d e2f6 f4bd 9025 613d e2c8 c6bd
000000e0: 5380 e3bc 05e1 1a3e 63ee 8dbe 2f24 86be
000000f0: 6932 533e 1f31 1fbe 794a aabe 1c69 ec3e
00000100: 0cc7 8cbd 6d4a dbbd 4382 efbd d07a 0e3e
00000110: 1772 2c3e 3eab 963e 4684 d7bd fcef 87be
00000120: 3202 e0bd 3508 debd f969 8b3c 562c 0d3c
00000130: 3aff 743b 7f38 4dbc 8471 1abe 005b b7bd
00000140: 5ca1 a03d 1dbd 8fbe 6c0e b6bd a7ee b03d
00000150: b2a0 9dbe 4259 b13a ef94 903e e99f 7fbe
00000160: 08c0 2b3d 9873 c73e 8510 d13e dc4d b4bd
00000170: 2fd5 3abf 70ca b63e 8c28 923d 4c6c 9dbe
00000180: 36d7 16be 28a3 893d 2d33 f93d ce69 0b3e
00000190: a15b 893e 8101 27be 3459 79bd 78c1 a1be
000001a0: 4864 1abe 8537 1dbe a265 fa3c 43ae 093e
000001b0: 9a31 36bd 7585 223d 28ee 9b3d 3295 91be
000001c0: 5b18 dcbd 5a80 aeba 007f 94bd 3184 583e
000001d0: 3675 623e 5736 e33d f59d 233d 667e 003d
000001e0: 4047 e13d 2783 1b3e 263c 2b3e 76f8 75bd
000001f0: ff82 48bd 6d6e 1d3e 5c37 7f3d 46f1 ccbd
00000200: c246 6abe bdcb 443e 8cf9 3e3d 5396 15be
00000210: b967 dd3d a8fe 703c cf86 dbbd d6f8 f73c
00000220: 00ef 66bc efbc b5bd a0dd ec3d 178a 763d
00000230: cc7a 57bd d90e 1e3e 6841 eb3d c36b 013d
00000240: 4162 e6bd 1636 1fbd 7abb 62bd 4fa9 ba3c
00000250: 133f 163b 5e77 a43c f642 87bb 6e4b 2abd
00000260: c287 c1bb cc0a e1bd e288 0ebe f6b6 f6bd
00000270: 7392 33bd d37e 2cbd 67ac 56bc 5a77 523d
00000280: c926 973d 53df a33d 1d1d dabd 16cd 60be
00000290: b57a 41be 1fe4 67be e328 a0be 73ee 7dbe
000002a0: 66f7 12be af3b 60be 0f99 26be 3e66 fc3d
000002b0: 1877 a1bc eafe 4a3d 5333 0ebd 014b 53be
000002c0: 7ab8 ddbd c5e9 883d 5d41 dcbd da7f 38bc
000002d0: 9e0f 963d 9a7a 3c3d 70ff ee3c 7dcc 4b3d
000002e0: c4b4 023d 61bf e83c 8865 e8bc 1815 08bc
000002f0: 41a3 5fbc a5bb 71bd 0ffb 5cbe d458 d2bd
00000300: ccb5 193c df60 c0bd 0a52 0dbd 7618 6d3e
00000310: a64e 143e a268 d03d 1d19 cfbe c862 f1be
00000320: a209 e0be 9a80 10be 165e 3fbe d1af 58be
00000330: 3df3 8abc e54c 31bb 4469 9cbd 387d 353e
00000340: e5c3 b4bd 960e 0a3e 6d87 d4bd b021 21be
00000350: bdad 2bbd 0bc4 843e 415f 843c 8e7a 1e3e
00000360: d267 5f3e 59c4 df3d e0ab 073e 2dab e83d
00000370: 0be4 06bd 68a1 39bd d22b e2bd 3df0 43be
00000380: 258b eebd cb4b 823d 0e4f 2bbc 6b95 873c
00000390: 1480 60bd 11ef dabd 7d7e 72bd 3fc8 f6bd
000003a0: ea45 22be 2212 9abd 502a 363d dc2f e43d
000003b0: fef3 5dbd 6176 25bd 56bc 06be 6f27 86be
000003c0: 8cd1 b7be ac11 cabe 992e efbe bb19 d1bd
000003d0: de82 bbbc 35ef 093c 469d 103d c70e 41bd
000003e0: 2eed b03d c70a 883d 5618 12bd 3730 27be
000003f0: 3270 7a3d 60aa 243d d6bd b03d 055c 8bbd
-0.17757756 -0.12762877 0.114681296 -0.008164767 -0.22260806 -0.19999526 0.095569395 -0.1393969
-0.20897882 -0.0007280384 -0.096436225 -0.18288882 0.060558315 0.007290468 -0.086933725 0.052602336
-0.01228992 -0.09433641 -0.29573697 -0.13222088 0.15700024 -0.26707956 -0.030201426 0.30120608
-0.18876444 -0.041238453 0.27816668 -0.32830492 -0.03369006 0.36901113 -0.41400468 -0.13907295
0.3729929 -0.4384065 -0.21664833 0.25743458 -0.040878102 -0.042815924 -0.18376628 0.11479134
0.06569242 -0.15624724 0.17024295 0.17539749 -0.022208951 0.06846054 -0.09504956 -0.29684934
0.15082489 -0.022460071 -0.38574773 0.21139628 0.10622 -0.11961152 0.054967463 -0.09706284
-0.02777115 0.151249 -0.27720937 -0.2619948 0.20624699 -0.15546082 -0.33259943 0.46173942
-0.06873903 -0.10707555 -0.11694767 0.13914037 0.16840397 0.29427522 -0.10523276 -0.2655028
-0.10937919 -0.10841409 0.017018305 0.008616528 0.0037383572 -0.012525677 -0.15082365 -0.08952904
0.07843277 -0.2807397 -0.088894695 0.08639269 -0.30786663 0.0013530629 0.28238627 -0.24963345
0.041931182 0.3895538 0.40832916 -0.08803913 -0.7298154 0.35701323 0.0713664 -0.30746686
-0.14730534 0.06720573 0.12167964 0.1361458 0.2682772 -0.16309167 -0.060876086 -0.31592917
-0.15077317 -0.1535321 0.03056604 0.13445382 -0.044480897 0.039678056 0.07613784 -0.2843414
-0.10746833 -0.0013313398 -0.07250786 0.21144177 0.22115025 0.11094349 0.03994556 0.031370543
0.10999918 0.1518675 0.16722164 -0.060051404 -0.048953053 0.15374155 0.062308654 -0.10006957
-0.22878554 0.19218345 0.046624705 -0.14608125 0.10810799 0.014709152 -0.10719072 0.030270021
-0.014095068 -0.08873927 0.11565709 0.060190286 -0.052607343 0.15435351 0.114870846 0.03159691
-0.11249209 -0.03886994 -0.055354573 0.02278581 0.0022925779 0.02007645 -0.0041278554 -0.04157584
-0.005906076 -0.109883875 -0.13919404 -0.12046616 -0.043840837 -0.042113137 -0.013102627 0.051383354
0.073804446 0.0800158 -0.10650084 -0.21953234 -0.18894465 -0.22645615 -0.31281194 -0.24797992
-0.14352188 -0.21897767 -0.16269325 0.12324189 -0.019710109 0.04955951 -0.034716915 -0.2063408
-0.10826202 0.06685213 -0.107546546 -0.011260951 0.073271975 0.04601536 0.029174536 0.049755562
0.031910673 0.02841157 -0.028368726 -0.00830581 -0.013649763 -0.059016842 -0.21580146 -0.10270849
0.009381723 -0.09393477 -0.034502067 0.23153862 0.14483127 0.10176207 -0.40448847 -0.47145677
-0.4375735 -0.14111558 -0.18688235 -0.21160819 -0.016961688 -0.002705389 -0.07637265 0.17723548
-0.088264264 0.13482127 -0.10377393 -0.15735507 -0.041913737 0.2593082 0.016158702 0.15476438
0.21816948 0.10926122 0.13249159 0.11360774 -0.032932322 -0.045319945 -0.11043514 -0.19134612
-0.116476335 0.063621126 -0.01045586 0.01655074 -0.054809645 -0.106901295 -0.05920266 -0.12049913
-0.15846983 -0.0752299 0.044473946 0.11141941 -0.054187767 -0.040396098 -0.13157782 -0.2620196
-0.3590206 -0.39466608 -0.4671524 -0.10209986 -0.02288955 0.008418848 0.035306238 -0.047133233
0.086389884 0.066426806 -0.03566774 -0.16326986 0.061142154 0.040201545 0.08629958 -0.06804661

layer1.0.conv1.bias f4 [16]
00000000: 556e bc3a 2c08 d8bb b292 34bb 1f93 d23a
00000010: f5bf 07bc a1e8 efbb 6597 a53a 5e27 34bb
00000020: 5b10 733b a5ab 2bbb 05bc 933b 93fa e43a
00000030: 87cf 1cbc d1a7 fe3a c08a f23b 356f 89bb
0.0014376143 -0.006592771 -0.0027553258 0.0016065574 -0.008285512 -0.0073214327 0.001263362 -0.0027489285
0.0037088606 -0.0026194837 0.0045084977 0.0017469696 -0.009570963 0.0019428675 0.007401794 -0.004194165

layer1.0.bn1.weight f4 [16]
00000000: 5fba 483f 0c7a f73e 5818 143f f7ee 7c3f
00000010: ffc3 443f dfe8 4d3f e76f 543f c3a4 4e3f
00000020: 2e30 823f 8e9a 893f 2d4d 933f 6de5 653f
00000030: 92fb 913f b2db 8a3f 5be6 4b3f 2edb 9d3f
0.7840938 0.48335302 0.57849646 0.9880213 0.76861566 0.8043346 0.8298325 0.80720156
1.0170953 1.0750291 1.1507927 0.898032 1.1404898 1.0848296 0.7964837 1.2332513

layer1.0.bn1.bias f4 [16]
00000000: 8556 913b 2095 2b3e 4caa 79be ee61 96be
00000010: a0ea 63be 258e 1cbe 5729 a4bd ffa0 833d
00000020: 3831 b03e 4b4e ff3e 5d0b a1be 8f3c 4b3e
00000030: 6ac7 243f eba7 2ebe 9694 b4bd 9cd1 a0be
0.0044353628 0.16756105 -0.2438137 -0.2937159 -0.22257471 -0.15288599 -0.080156974 0.06427192
0.3441255 0.4986442 -0.31453982 0.1984732 0.6436678 -0.17056243 -0.08817403 -0.3140992

layer1.0.bn1.running_mean f4 [16]
00000000: f685 c2bf cd4c 51c0 2c8b 6b3f 68a6 92bf
00000010: ad86 06bf b48f 5fc0 dfde 13c0 de84 6d3e
00000020: 4851 22bf f0fb 0fc0 5ba6 23c0 3ec7 91c0
00000030: 138e dcbf f781 a4be f4a2 dcbf 69ed abbf
-1.5197132 -3.2703125 0.92009234 -1.1457033 -0.5254925 -3.493146 -2.310478 0.23195216
-0.63405275 -2.249752 -2.5570285 -4.5555716 -1.7230858 -0.32130405 -1.7237229 -1.3431827

layer1.0.bn1.running_var f4 [16]
00000000: 62f4 803f 09d8 db3f 8434 d23f acbb 9440
00000010: 194a a83f 1e9f 5140 a67e 8b40 d328 9140
00000020: d736 8b40 bd79 6b40 2e16 4141 8c38 8a40
00000030: f6fa a040 da68 0241 1d4d 1940 c6a1 0241
1.007458 1.7175304 1.6422276 4.647909 1.3147613 3.2753367 4.35921 4.5362334
4.3504443 3.6793053 12.067915 4.3194027 5.030635 8.150599 2.3953316 8.164495

layer1.0.conv2.weight f4 [16, 16, 3, 3]
00000000: aad2 e43c b5ae 4fbd b5b0 913d b2cb bf3c
00000010: d3c3 b23c 4dd3 d23d 9e1d 71bc 8718 fc3b
00000020: a92d 193d 8323 8dbc 3dee cbbd 31cd 52bd
00000030: 82ec 033c d593 643b 63f5 b6bc b832 563d
00000040: 3085 003e 5b76 6d3d ec2b 41bc 6901 ba3d
00000050: ad80 d93c a297 e93d 91ca ad3d 7d99 3a3d
00000060: 2a5b 8c3d 77f8 1f3d 12dd bebd 1290 85bd
00000070: 9701 2e3e c0b1 1dbe f65a 713d 5f7a 1b3e
00000080: 9c27 213e 435c 31bd 680e b03d 62ce c2bc
00000090: c022 de3b 26be aa3d 08cd 05be fa61 8a3d
000000a0: f5d3 103e 7b77 b8bd 4856 493d 6c71 063e
000000b0: dd48 143d db64 1cbc 59de bb3d 7dd2 9a3d
000000c0: 8635 03bd 062c 9f3c ba86 d03d eced cbbc
000000d0: d75f e3bc 8054 c8bc c21d b0bd 3497 353e
000000e0: 6ace 32be 96fb 93bd d8e6 ab3d 7a32 03be
000000f0: 9a04 553d e450 3f3d 35e3 0dbe 1fee 61bd
00000100: db68 03be 0505 083d ac1d 44bd 2d45 0b3e
00000110: b4af ba3c 2451 78bd 3692 383e ea6e a83c
00000120: 765f e1bd 04a0 3f3e e963 6a3d 1681 a83e
00000130: 9db1 edbe e24d fa3d 2388 813e 90dd 1b3e
00000140: 4f97 953e 1242 6a3e 6770 b4be 7aca d13d
00000150: 5a8a a5bd 4729 b1bb e10b 50bc 928f 48be
00000160: 7432 d43e 4e55 09bd 352d aebe 344c f4bb
00000170: a201 6f3b 7d4f 473d c6aa 92bc 4e01 dbbd
00000180: 72ae 4f3e 7bc5 f1bb 08b3 8fbe 9b28 d1bd
00000190: 415a 43be 3526 75bc 2ca7 5c3d f8f7 1e3e
000001a0: 53b5 cebd e0c2 e53d 839f d23e 3f86 813e
000001b0: f296 36be c264 593f ab4d 4c3e 3872 2a3e
000001c0: ac8a 7cbe 0c25 c03e dc65 29bd 4d86 ccbe
000001d0: a968 d9be 2845 1f3d 965c 8a3b ab1d c8be
000001e0: 5248 0abd 4958 6f3e cadd 133e 6394 cfbd
000001f0: 7408 96bc 5332 2c3e c8b2 1abe 1be4 ecbc
00000200: bd0e 95bd 22e3 0cbe 2e8a 4fbd 9393 84bd
00000210: e62b 71be 7dd9 a5bd 6396 07be c9f6 ae3d
00000220: ce10 023f 8f39 8a3e e453 9f3d 3c80 413e
00000230: 0b04 363e 40a8 1cbe 435b d9be 97d9 19be
00000240: 6e8d 833e 3fef 613e 6e6f 44bd ad45 523e
00000250: f776 923e b2e1 9a3d 6af7 fb3c 0140 fc3d
00000260: 8b40 7e3b 379f a13c 7951 f23d 1043 3a3e
00000270: 5337 53bd 3abc 9dbb 57f5 923d a0b6 c5bc
00000280: 045d bfbc 4d32 9e3d bdff 753e 215c 3d3e
00000290: 5cc4 d73d d2d0 a53d 161f 8a3d 038e 903c
000002a0: 16e4 25bd fa18 34bd d928 05bd b696 1bbe
000002b0: eab4 60be 36d0 e8bd b461 4abe 4dd9 ccbe
000002c0: 046c a6be d402 3cbe f0bd 93be 2d4e 72be
000002d0: 466e 933d 067b 34bd f142 25bc 5969 de3c
000002e0: eb9a 46bd 5a8b 833c bc3b 83bd 7656 c2bc
000002f0: 0cfe 0a3e 6493 57be bac8 d7bc cc46 903d
00000300: 40b7 acbd 9c60 a83d 7043 913e a680 88bc
00000310: 98b0 e73d 6ee5 a83e 929c 83bd adb2 13be
00000320: 3bf2 1cbe 4a18 503d fea7 553d ec64 fbbc
00000330: 220d bebd 023f c3bd 0840 2cbd 43b9 05be
00000340: b63a cd3b 3ca1 4b3d ef4a 86bc 17d1 a93d
00000350: 8c0c 223e 700a c9bd 3737 863c 9efa 173d
00000360: 1855 ff3d 5f9f 873d 5480 edbd dc65 77bd
00000370: fa85 283e ef9d 21be 889b d63d 0610 1e3c
00000380: 0916 43be 6d89 8fbc 0c49 c53a 05bb 093d
00000390: f034 633d b972 01be cbbb f53d f17f 0abd
000003a0: e7ec 353d b927 5c3d 334b 983e 7f84 b8bc
000003b0: 14b8 9abe db51 b23e aa88 743e 36d2 d63c
000003c0: 80d9 163e 5905 fb3d 39df 70bd 5c86 89bd
000003d0: 3708 d4bb 6ea3 87bd d72e b3bd ba4c 00be
000003e0: 3a06 7bbd 7b7c b6bd c6fd 0cbc 0f03 acbd
000003f0: 10f2 40bc 7351 8ebe 929d 2abe 3371 94bc
0.027932484 -0.050703723 0.07113782 0.02341256 0.021821892 0.10294209 -0.014716534 0.0076933536
0.03739706 -0.017228847 -0.0995755 -0.051465217 0.008051993 0.0034878154 -0.022333806 0.052294463
0.12550807 0.0579742 -0.011790257 0.090823 0.026550615 0.11405875 0.08485902 0.045556534
0.06853326 0.039055314 -0.093195096 -0.0652162 0.16992794 -0.15399837 0.058924638 0.151834
0.15737766 -0.04330088 0.08596498 -0.023780052 0.006779045 0.08337049 -0.13066494 0.06756969
0.14143355 -0.09007164 0.04915455 0.13129205 0.0362023 -0.00954553 0.09173269 0.07559679
-0.032033466 0.019430172 0.10181947 -0.024893723 -0.027755661 -0.024454355 -0.08599426 0.1773346
-0.17461553 -0.072257206 0.08393639 -0.12812224 0.05200634 0.046708003 -0.13856204 -0.05515873
-0.12832968 0.033207912 -0.04787986 0.13600607 0.02278886 -0.060624257 0.18024525 0.0205607
-0.11004536 0.18713385 0.057224188 0.32910985 -0.4642457 0.12221886 0.25299177 0.15221238
0.29217002 0.22876766 -0.35242006 0.102436975 -0.08083029 -0.005406532 -0.012698145 -0.19586018
0.41444743 -0.03352862 -0.34018865 -0.007455373 0.003646948 0.04865979 -0.017903697 -0.10693608
0.2028139 -0.007378278 -0.28066278 -0.10212823 -0.19077398 -0.014962723 0.053870365 0.1552428
-0.100931786 0.1121881 0.41137323 0.25297734 -0.17831019 0.8491937 0.19951503 0.16645133
-0.24662274 0.37528265 -0.041356906 -0.39946213 -0.42462662 0.038884312 0.004222463 -0.39085135
-0.033760376 0.23373522 0.14440075 -0.101357244 -0.018314578 0.16816072 -0.15107262 -0.028917363
-0.07278202 -0.1375852 -0.050668888 -0.0647346 -0.23551902 -0.08098123 -0.13240962 0.08543164
0.5080689 0.2699704 0.07779673 0.18896574 0.1777498 -0.15298557 -0.4245244 -0.1502441
0.2569384 0.22063921 -0.04795783 0.20534392 0.28606388 0.07562579 0.030757625 0.12316895
0.0038795795 0.01972924 0.11831946 0.18189645 -0.051566433 -0.004813698 0.07175701 -0.024134934
-0.023359783 0.07724438 0.24023338 0.18492176 0.105354995 0.0809647 0.067442104 0.017645841
-0.040500723 -0.043969132 -0.03250966 -0.1519421 -0.21944013 -0.11367838 -0.19763833 -0.40009537
-0.32504284 -0.18360454 -0.28855848 -0.23662634 0.07198767 -0.044062637 -0.010086761 0.027149843
-0.048487585 0.016057659 -0.06407878 -0.023722868 0.13573474 -0.21052319 -0.026340831 0.070447534
-0.0843339 0.08221552 0.28371763 -0.016662907 0.113129795 0.3298754 -0.06426348 -0.14423628
-0.15326779 0.050804414 0.052162163 -0.030687772 -0.09279849 -0.09533502 -0.042053252 -0.13058953
0.0062631024 0.049714312 -0.016393153 0.08291834 0.15825099 -0.09816444 0.01638375 0.03710424
0.12467402 0.066221945 -0.11596742 -0.060399875 0.16457358 -0.15782903 0.10478884 0.009647375
-0.19051374 -0.017521584 0.0015051677 0.03362562 0.055470407 -0.1264142 0.11998709 -0.03381342
0.04441538 0.05374882 0.29744872 -0.022524117 -0.30218565 0.34828076 0.23880258 0.026223283
0.14731407 0.12256879 -0.05880663 -0.0671508 -0.006470706 -0.066229686 -0.08749168 -0.12529269
-0.061285235 -0.089104615 -0.008605426 -0.08399021 -0.011776462 -0.27796516 -0.16661671 -0.018120384

layer1.0.conv2.bias f4 [16]
00000000: e8a3 83bb fd2e 643c ae91 9cbb 9525 d33a
00000010: 35bd d53b 5fe4 8c3b a424 2ebb 25a6 c4bb
00000020: 5f01 f03b 156b b9bb 4694 04bc 70a1 213c
00000030: e9b8 ecbb 15fd 7b3b c453 d4b9 9b6b 8c3a
-0.004017342 0.0139272185 -0.0047781086 0.0016109223 0.0065227994 0.004299685 -0.0026572132 -0.0060012513
0.007324382 -0.005658517 -0.008091992 0.00986515 -0.0072241914 0.003845041 -0.000404982 0.0010713221

layer1.0.bn2.weight f4 [16]
00000000: 8f47 7e3f 97e9 0a3f c04b 173f dece 203f
00000010: 2479 103f 9a69 113f 9f12 8f3f aa93 af3f
00000020: 5087 823f c584 693f dc0a 2e3f 1b45 b83f
00000030: 5392 873f 68b9 973f 0c52 483f 573a 923f
0.9932794 0.5426268 0.5909996 0.62815654 0.56434846 0.5680176 1.1177558 1.3716938
1.0197544 0.91218215 0.6798532 1.4396089 1.059153 1.1853456 0.78250194 1.1424054

layer1.0.bn2.bias f4 [16]
00000000: c32d 80be e6d3 cb3e 611b 123f 1fcc e93e
00000010: 6ac9 28bf 6be7 a93e d766 a0be 54cd 0d3d
00000020: d41c 303e a3cc e4bc f8ec 033f 9028 55bb
00000030: 4397 e6bd 9c41 013f 30eb 063d d2e7 c93e
-0.25034913 0.39810103 0.57073027 0.45663545 -0.65932333 0.3318437 -0.3132846 0.034619644
0.17198497 -0.02792961 0.5153346 -0.0032525398 -0.1125932 0.50490737 0.032939136 0.39434677

layer1.0.bn2.running_mean f4 [16]
00000000: bf5e 883f 2a7a 17be f764 963e 93f7 8cbe
00000010: 7290 803f 53b2 003f eca3 fb3e 80ec bb3e
00000020: 0391 23bc d5c6 81bf 12cc 78be 74ab 34bf
00000030: 6162 5dbf 8219 52bf 2c33 cbbf 03b7 12c0
1.0653914 -0.14792696 0.29373905 -0.27532634 1.0044081 0.502721 0.491485 0.36703873
-0.009983304 -1.0138804 -0.24296597 -0.70574117 -0.8647824 -0.8207017 -1.5874991 -2.2924201

layer1.0.bn2.running_var f4 [16]
00000000: 2f9a 5140 b409 aa3f c1bc 0840 ff84 6040
00000010: ac41 ae3f 9d7e ec3f 270e 8d40 fab0 5140
00000020: 77a9 f53f 8882 1040 cf2b 6240 0702 3a40
00000030: 2432 3840 da42 9140 26bc c83f d87d 9d40
3.2750356 1.3284211 2.1365206 3.5081174 1.3613791 1.8476139 4.4079776 3.2764268
1.9192342 2.257967 3.5339239 2.9063737 2.8780603 4.5394106 1.5682418 4.921612

layer1.1.conv1.weight f4 [16, 16, 3, 3]
00000000: bc7d 69bd 034e 8d3c 132e 863b 9c1b 8b3e
00000010: 9002 c73d b7e7 873c ba41 c23e 283c 4f3e
00000020: 81e6 a8be bc9b 95bc a728 abbd 8367 2ebd
00000030: c675 0e3d 1aeb a1ba 3466 f13c d4e9 78bd
00000040: 1fbc 8dbd 6ee5 8b3d e423 8a3d 6277 2a3d
00000050: 06d0 4cbd e7a4 5a3d 399a e63c 959d 7fbd
00000060: 4166 c43d aee7 8c3c e37e eb3b 5fc1 30bd
00000070: 7e96 c73c 20d3 96bd d555 bb3c e7eb ab3d
00000080: 771c 97ba 0081 e43c d1f6 343d a6b5 01bd
00000090: 0322 32bd 0dbb 92bd df1e c8bd 2f8b 073e
000000a0: 2d82 b33d d4d6 a83d 6b18 c1bc b80f 82bc
000000b0: f80d 4fbd e111 89bd 2912 c3bb 05df be3d
000000c0: 5800 4a3d 2196 883d 06df 1c3d ae7e 32be
000000d0: e1f1 c4bc 02fa 193b 3607 6b3e 4f03 a83e
000000e0: e26b b33c 36bc 603e d985 f53e a622 1ebd
000000f0: 7c3e 9fbe 4b33 93bd 7091 71be 1486 823d
00000100: 6757 5e3e 6b8b bbbd b5a3 38be 5f95 843d
00000110: 30cf 47be 5e96 b7bc f9b0 623e abbb 243d
00000120: 4247 97be 4048 b7be 9a95 3c3b d936 653d
00000130: 2f9c a33c 9170 f83d 552f 0abe 0073 1cbe
00000140: 2323 ec3d 9f98 da3d 09e3 8bbd e9f5 06be
00000150: 5835 903e 7615 4f3d 214a 8fbe 95ac debc
00000160: 8c06 2fbe 4533 32be d01d f53d 246c 3e3e
00000170: d6d0 333e 0708 0dbe 1c68 6cbd 8fc2 1abd
00000180: c85e d0bd d9f1 81bb 176a acbd f024 55be
00000190: 74e1 95bd 5422 b3bc b58d aa3d 8c67 9c3e
000001a0: a562 84bd 139e 2d3e d787 c8bc fe55 61be
000001b0: 8b25 a2be c7ab 28be f625 9a3d 3290 153e
000001c0: f489 19bd 20d2 a23e 6e62 c9bb c00b 1dbe
000001d0: e674 88bd 43c2 96be d21d 13be 47ac c4bd
000001e0: 3187 86bc 51b8 883d 07ef 06bc fcfd 0dbe
000001f0: e69a b53c 6831 2a3e a06c 15bc a734 2fbc
00000200: 34de e93c fc03 413d 0263 a13d ad7e 8d3d
00000210: 23bd 5cbc 9199 353e 0e5e 243e 99e1 c73d
00000220: fa7a 433e 4481 de3d fda7 793e c490 823e
00000230: 8698 f63d 57d4 193d fbfc d13c 8b4a 05bd
00000240: 63c9 dbbd e9d7 8cbe c94b 81be 6210 9cbe
00000250: db0c 3c3d 7049 dfbe 179c 72ba 8826 3fbe
00000260: 4b7c dcbe 23e2 c3bd 7580 963d 7ebb 7b3e
00000270: 78d2 e63d ba96 e83d 4f70 99bc 3f38 c33c
00000280: 7914 5c3a 609d 9ebc 5a08 173d 95fc 4cbd
00000290: bfc1 a7bd 8f4d 3c3d b006 08be 3a13 d1bd
000002a0: 29af b4bd 0dbe e9bd 63f7 153e d350 08bd
000002b0: 78d2 ba3d 165c 013e 1659 b23d 160c a43d
000002c0: eeab 8cbd 21e3 823a f716 d2bd e6af 06bd
000002d0: 87ef 253e 1320 063e c63b 713d 530f 903d
000002e0: a78b 03bd 3a9c 9bbd 3bf1 993c 739d 0abd
000002f0: 8846 a6bc 0814 3cbc f26d 893c 009c aa3d
00000300: 9a74 243e de38 90bd d88c bc3c a461 c5bd
00000310: f844 e6bd 2610 85be d51d 21be 6489 583e
00000320: b72e 0ebe c920 5f3d 731d 16bf 3630 c1bd
00000330: 5b9e fbbe 0fd0 d6bd 27fb 08be 9ca5 b43e
00000340: f947 e9bc efff b7bd 5ed1 b6bd 3fe8 e4be
00000350: 66b8 023f fa18 90be 14f2 343f fdb9 08bd
00000360: 74da 26bd 1524 68be c69f 9fbc 2b06 c9be
00000370: 6e7f 743d 94b7 df3e 6d8d c93d 2540 3d3e
00000380: d932 a4be 4630 993a c25b 1c3d 784c 90bd
00000390: 76f4 2fbe 9a2f 85bb 76c8 2fbe 4ed8 dbbb
000003a0: 1801 863d 0521 38be e29e 92be b193 6bbe
000003b0: 6829 3d3b b989 ddbd 870b a83d 2755 12bd
000003c0: deab dc3d 3d34 783d f133 c4bc 43f4 f0be
000003d0: cfd3 053f acef f03d e1eb 093f 2c60 d83d
000003e0: f69a 3dbf 778c 123e 00ac 35bf 5263 be3e
000003f0: ef93 1c3e ae12 49be a804 d73b a4e1 92ba
-0.057004675 0.017249113 0.004094848 0.27169502 0.09717286 0.016589982 0.3794077 0.20237792
-0.3298836 -0.018262736 -0.08357363 -0.042579185 0.034780286 -0.0012353391 0.02946768 -0.06076987
-0.06920647 0.068308696 0.06745127 0.04161776 -0.050003074 0.05337992 0.028149711 -0.06240614
0.09589816 0.017200317 0.007186757 -0.043153163 0.024363752 -0.07364488 0.022868076 0.08394604
-0.0011528869 0.027893543 0.044180695 -0.031667374 -0.043489467 -0.07164583 -0.09771513 0.13236688
0.087650634 0.082441 -0.023571214 -0.015876636 -0.05055043 -0.06692863 -0.0059530926 0.09319881
0.049316734 0.0666926 0.03829863 -0.17431137 -0.024041118 0.0023494964 0.2295197 0.32815024
0.021902028 0.21946797 0.4795368 -0.038607262 -0.3110236 -0.07187518 -0.23590636 0.063732296
0.21713029 -0.09157451 -0.180312 0.06473803 -0.1951263 -0.022410568 0.22137822 0.040218037
-0.29546553 -0.3579731 0.0028775693 0.05596051 0.019971935 0.12130845 -0.13494618 -0.15278244
0.11530139 0.106736414 -0.06830413 -0.13179745 0.28165698 0.050557576 -0.27986243 -0.027181903
-0.17092341 -0.1740237 0.11968577 0.1859594 0.17560133 -0.13772593 -0.057716474 -0.0377832
-0.10174328 -0.003965598 -0.084186725 -0.20814872 -0.073183924 -0.021866955 0.0832781 0.3054775
-0.064641275 0.16954832 -0.024478836 -0.2200546 -0.31669268 -0.16471778 0.07526772 0.14605787
-0.037485078 0.31800938 -0.006145767 -0.15336514 -0.066629216 -0.29445085 -0.14366844 -0.09603172
-0.016421886 0.066757806 -0.0082356995 -0.13866419 0.022168588 0.1662041 -0.0091201365 -0.010693706
0.028548338 0.04712294 0.07880212 0.06908927 -0.013472828 0.17734362 0.16051504 0.09759826
0.1908988 0.10864499 0.24380489 0.25501072 0.1204081 0.03755602 0.025633326 -0.032541793
-0.10731771 -0.27508476 -0.25253132 -0.3048125 0.045910697 -0.43610716 -0.00092548266 -0.18667042
-0.43063578 -0.095646165 0.0734872 0.24583241 0.112706125 0.11356874 -0.01873031 0.023830531
0.00083953846 -0.019362152 0.0368732 -0.05004557 -0.08191251 0.045972403 -0.13283801 -0.10208745
-0.08822472 -0.114132024 0.14645152 -0.033280205 0.09122175 0.12632784 0.08708398 0.08010118
-0.068687305 0.0009985903 -0.102582864 -0.032882594 0.16204654 0.13098173 0.058894895 0.07034173
-0.032115605 -0.07598157 0.018791785 -0.03384156 -0.020297304 -0.011479385 0.016776059 0.08330536
0.16060105 -0.070420966 0.023016378 -0.09637764 -0.112436235 -0.25988883 -0.15734036 0.2114616
-0.13885008 0.054474626 -0.58638686 -0.09433024 -0.49144253 -0.10488903 -0.13377057 0.352826
-0.028476702 -0.08984362 -0.08926652 -0.4470844 0.5106262 -0.28144056 0.7068188 -0.033380497
-0.040735677 -0.22670014 -0.019485366 -0.39262518 0.05969184 0.43694746 0.09841428 0.184815
-0.32070044 0.001168736 0.038173445 -0.07045835 -0.17183098 -0.0040645124 -0.17166314 -0.006709135
0.06543177 -0.17981346 -0.28636843 -0.23005559 0.0028863791 -0.10817284 0.08205324 -0.03572574
0.107749686 0.060596693 -0.023950549 -0.47061357 0.5227632 0.11764464 0.5387555 0.10565218
-0.74064577 0.14311396 -0.70965576 0.3718515 0.15290807 -0.19636032 0.0065618344 -0.0011206162

layer1.1.conv1.bias f4 [16]
00000000: 621a a2ba 1fcc 03bc bdae bd3b e382 103a
00000010: 8208 cfbb 53e6 fb3b 8d81 02bc 1fb0 0abc
00000020: 40de 0cbc 1395 89bb 09ca e83b eb19 cdba
00000030: afc6 223c 5ef2 87ba f7a7 06bc 67ef ed39
-0.0012367482 -0.008044272 0.0057886527 0.00055126677 -0.006318153 0.007687369 -0.007965458 -0.008464842
-0.00859791 -0.0041986792 0.0071041626 -0.0015647983 0.009935065 -0.0010371914 -0.008218757 0.0004538253

layer1.1.bn1.weight f4 [16]
00000000: e702 613f 804f 7d3f 9759 1b3f b440 653f
00000010: 4c98 653f d787 3e3f 651b 4a3f 7cf7 4e3f
00000020: 7730 5e3f 10fe 4a3f 633d 863f d8ab 783f
00000030: e672 363f 1285 9b3f eca9 4f3f 131a 4d3f
0.87895054 0.9894943 0.6068358 0.89551854 0.8968551 0.74426025 0.7894805 0.8084638
0.867927 0.7929392 1.0487484 0.9713721 0.7126907 1.2149985 0.81118655 0.8011791

layer1.1.bn1.bias f4 [16]
00000000: b19d 1ebf 93e3 b6be 7009 08bf 3c68 b6be
00000010: 6f92 03bf 5d17 0cbf 978c 93be 5238 24be
00000020: a127 d8be 772a e1be 8cac c9be 07dc 3bbe
00000030: 6514 89be ad44 97be 02bb a8be c0fc cabe
-0.6195937 -0.357205 -0.531394 -0.356264 -0.51395315 -0.5472315 -0.288182 -0.1603711
-0.42217734 -0.4397771 -0.39389455 -0.18345653 -0.26773372 -0.29544583 -0.32955176 -0.39645958

layer1.1.bn1.running_mean f4 [16]
00000000: 0302 983f 44fe 4cc0 a88e 5640 cf07 98c0
00000010: e788 80c0 6ce1 55c0 a2b4 71bf a762 1fbf
00000020: e55e 0fc0 5957 51c0 cf29 00c0 5a50 313e
00000030: c277 7840 5902 d3bf 4b96 7bc0 babb 4ec0
1.1875614 -3.2030191 3.352457 -4.750953 -4.0167117 -3.3418837 -0.9441625 -0.62259907
-2.240167 -3.2709563 -2.0025518 0.17315808 3.8823094 -1.6485091 -3.9310482 -3.230208

layer1.1.bn1.running_var f4 [16]
00000000: 18f8 b740 379f 8a41 93ff 1340 4dc1 4541
00000010: 2dd9 1341 8f5b 5740 6403 ef40 73ba a741
00000020: 5d55 b640 00ef 8240 e240 dc41 8aff 2342
00000030: 1827 9b40 d024 8842 6759 e440 9a0a 9940
5.749035 17.327742 2.312474 12.359693 9.240521 3.3649633 7.469164 20.96604
5.6979203 4.091675 27.531681 40.99955 4.848522 68.0719 7.1359134 4.782544

layer1.1.conv2.weight f4 [16, 16, 3, 3]
00000000: 7917 99be f0d1 5ebe bfc0 4ebe bf20 c4be
00000010: 70ae 06be fc9b 05be 1332 a1be eced 19be
00000020: b523 57bd f58c 103e 03f5 183e 1d9e bc3d
00000030: 6759 9d3e 3d98 5a3e f56f c53e 7b4f 643e
00000040: 3080 793e 02bb 863e 1c06 7a3d d730 ae3d
00000050: 47c7 923d e835 81be 7aa0 74be 332c 50be
00000060: 8a28 80bd 9b21 48bc 0fef af3a 1e84 983e
00000070: ebb7 3c3d a5ad 8c3e 2201 9f3e 17a3 ac3e
00000080: 9cd7 1e3e c914 823e 7c28 103e 92f7 493e
00000090: 3be5 593e 5632 83be 24e9 d1bd b2ab 533e
000000a0: 541c b8bb 3f39 b0bd e1fc 0fbe fae0 a83d
000000b0: e630 b83d 3b34 01be 698e e93d 562b 6b3d
000000c0: a8f9 93bd 6d61 053e 2356 543e b12a e2bd
000000d0: f2fa 47bd a62e 09be 3b9a 85bc 4fe6 28be
000000e0: 57b4 b2bd 6c60 d5bd f38f 313d 9a4d cabd
000000f0: bc64 c13a 297c cdbc 96d6 3f3e 5f6b 54be
00000100: d65f e2bd dd88 843a 1da2 d53a fe11 9c3e
00000110: d342 243e 1a9e 5c3e a9f5 d03e bee1 d73d
00000120: 003c 69bb dd6f 9b3c 7ffd f2bc 585f 283d
00000130: 09ac 09be 68ac f0bd 845d a73d ec75 76be
00000140: f7d1 e4bd 6db0 e73a 1687 983d 6f64 84bd
00000150: 3ba8 683d a7f9 a63a 5f1e 73be 851a 5a3e
00000160: ffb9 61bb faca ebbe d101 ccbb d4bc 34be
00000170: 05ad 42be d7e1 58bc 0a9e c8bd 3c82 93bd
00000180: b861 5a3b 585a 37bd be90 37be 0666 083e
00000190: c479 6e3e 63ed 31bd 1792 833e 88a1 183f
000001a0: ff57 ab3d 4f96 4a3e acca 6f3e a45d c33d
000001b0: c12b 25be 5a75 87bc f21d ccbd 15d5 a0be
000001c0: 29b2 92bd 786d 8bbd 1120 f5bc afb5 b63d
000001d0: 5c47 3b3e ac7c 81bd ce55 95be 67a8 cdbd
000001e0: 5cee 0dbe d680 31be 5fd1 cdbc 5239 5fbd
000001f0: ba5f 553d fd71 cd3d 0bfe cbbd 1ca7 8fbc
00000200: b763 fabc 0def 21be 5bb5 eb3c 52ca 053e
00000210: 5381 3abe 7b2e d93b 3063 183e bd9b 0c3d
00000220: c929 f8bc 77e8 40bc 34bd 8f3d 30a7 cb3a
00000230: bd4a a1bd bfc3 323d 495b e73c f580 2bbe
00000240: 2602 f9bb ae5f 11bd 863f c5bd a82e 44be
00000250: 2064 92be 1952 3fbe c630 41be db0f 98be
00000260: aea9 92be 4b2c 06be 54df 47be 347c 6cbd
00000270: 3637 5fbe af83 aabe d51b 74be c32f 6fbe
00000280: 59bd 2abe 2c77 55be 21d1 9bbb f40d 603d
00000290: f012 373d 0568 5d3b 86ee 3c3d b56e 9a3c
000002a0: eeef e1bd f5da 0cbe ea64 33be 5b4f 543e
000002b0: b06e 8b3d 4cec 68bd 5ef2 403e b669 f13d
000002c0: d05e 893d 9307 8f3d 2733 6b3d d663 813d
000002d0: 6101 e73d 305b 543e aeec c13d 2341 d93d
000002e0: 3cd4 1c3e d1fe 943d ad52 f73d 0a2e 1a3e
000002f0: 943f bf3c 3492 01be 4f13 6cbd 394f 8b3d
00000300: 9342 9bbd 2198 d4bc 9837 833d 9a0c e9b9
00000310: 09cb e03d f0de 2e3e 37c0 eebc dfec fe3d
00000320: b025 fd3d ce21 d6bd 2985 433d 0265 183e
00000330: a11a 23be 74c1 893d e4f7 1dbd 4f38 823d
00000340: c243 a23c bcbb b83d ba7f c7bd e0f3 34be
00000350: 701c 7abd 94b0 bebd 6182 40be 7b2a cdbd
00000360: f1af da3c c81e b33d 8756 2c3c 8092 173e
00000370: c959 363e b5a7 d83d 4178 5e3e 7167 913e
00000380: bf31 aa3d 5483 10be b53b 7fbd 8973 0dbb
00000390: 8fcd eebd be2a ddbd 751c 7ebd a521 82bc
000003a0: 16eb 79bc 044f 353d 4846 113d 5a39 923c
000003b0: 6a99 3fbd 242a 97bd 1565 13be 976d 7fbd
000003c0: f326 18be e862 eabd 7711 3fbd f9f0 eb3c
000003d0: b5f7 693b 1758 063e fcdd 29bd 19ad efbd
000003e0: d23c debc 70d9 05bc 4c64 74bd 6cf3 61bc
000003f0: 588b 5fbe b456 093d 4390 aa3d 4b55 40be
-0.2990072 -0.21759772 -0.20190714 -0.38306233 -0.1315248 -0.13047785 -0.31483516 -0.15032166
-0.052524287 0.14116271 0.14937215 0.09209845 0.3073227 0.21347137 0.3856198 0.22295944
0.24365306 0.2631455 0.061040983 0.08505409 0.071669154 -0.2523644 -0.23889342 -0.2032936
-0.06257732 -0.012215043 0.0013422685 0.29788297 0.046073835 0.2747623 0.31055552 0.33718178
0.15511936 0.25406483 0.14077944 0.19723347 0.2127885 -0.2562434 -0.10249546 0.20670965
-0.0056186114 -0.08604669 -0.1406131 0.08246036 0.08993702 -0.1261758 0.11404116 0.057414375
-0.072253525 0.13025446 0.20735984 -0.11043299 -0.048823304 -0.13396701 -0.016308894 -0.16494106
-0.08725803 -0.10418782 0.04335017 -0.098780826 0.0014754753 -0.025083618 0.18734202 -0.20744084
-0.110534355 0.0010111589 0.0016298924 0.30482477 0.16041116 0.21544686 0.40812424 0.10541104
-0.0035588741 0.018974239 -0.029661892 0.041106552 -0.13444532 -0.11751634 0.081721336 -0.24068421
-0.1117286 0.001767648 0.074476406 -0.06464469 0.056801062 0.0012739197 -0.23742054 0.21299179
-0.0034443138 -0.46053296 -0.0062258025 -0.17650157 -0.19011314 -0.013237438 -0.097957686 -0.072025746
0.0033322405 -0.044763893 -0.17926309 0.13320169 0.23288637 -0.04343928 0.25697395 0.5962148
0.08366393 0.197839 0.23417157 0.09539345 -0.16129972 -0.01653545 -0.09966649 -0.3141257
-0.071628876 -0.06807989 -0.029922517 0.08921372 0.1828894 -0.063226074 -0.29167026 -0.10041886
-0.13860458 -0.17334303 -0.02512425 -0.054498024 0.052093245 0.10031507 -0.09960564 -0.017535739
-0.030565126 -0.15813847 0.028773 0.1306546 -0.18213396 0.0066278554 0.14881587 0.03432821
-0.030293362 -0.011774174 0.070185095 0.0015537497 -0.07875583 0.04364371 0.02824177 -0.16748412
-0.007599133 -0.035491638 -0.09631257 -0.19158423 -0.28592014 -0.18683662 -0.18866262 -0.29699597
-0.2864508 -0.13102834 -0.19518787 -0.057735637 -0.21798405 -0.33303592 -0.23838742 -0.23358063
-0.16673793 -0.20846242 -0.0047551547 0.054700807 0.044695795 0.0033783924 0.04612591 0.018851617
-0.11032091 -0.137554 -0.17518964 0.20733397 0.06808221 -0.056865975 0.18842456 0.11787741
0.06707537 0.069838665 0.05742183 0.0631787 0.1127956 0.2073791 0.09468971 0.10608127
0.15315336 0.07275165 0.12076316 0.15056625 0.023345746 -0.12653428 -0.0576356 0.0680222
-0.075810574 -0.025951447 0.06407088 -0.00044450612 0.10976226 0.17077231 -0.02914439 0.12447523
0.12360704 -0.104556665 0.047734413 0.14882281 -0.15928127 0.067263514 -0.038566485 0.06358396
0.0198077 0.090201825 -0.09741159 -0.17671156 -0.061062276 -0.09311023 -0.18799736 -0.10017868
0.026695224 0.087461054 0.010518677 0.14801979 0.17807688 0.105788626 0.2172556 0.28399232
0.083102696 -0.14112598 -0.0623128 -0.0021583757 -0.11660301 -0.10799168 -0.062038857 -0.015885184
-0.015253803 0.04426481 0.035467416 0.017849613 -0.046777166 -0.073810846 -0.14394028 -0.062360372
-0.14858608 -0.11444646 -0.046647515 0.028801428 0.0035700623 0.13119541 -0.041471466 -0.11702938
-0.02712861 -0.008169517 -0.059665963 -0.013790946 -0.21830499 0.033529952 0.08328297 -0.18782537

layer1.1.conv2.bias f4 [16]
00000000: 77bc e93b 1f20 d1ba e902 163b 756e 9f3b
00000010: e039 c8bb 0f22 83bb cc17 22bc ec0b 1fbb
00000020: 2267 00bb 6e2d 163c ff3f 573b 5651 ca3a
00000030: 625e 62bb 9883 3ebb b619 5139 74a6 fe3b
0.0071330625 -0.0015955007 0.0022889918 0.0048654624 -0.006110415 -0.004001863 -0.009893369 -0.002426858
-0.0019592722 0.009166105 0.003284454 0.0015435617 -0.003454112 -0.0029070135 0.00019941371 0.0077713076

layer1.1.bn2.weight f4 [16]
00000000: 9339 3e3f bee1 0d3f 6229 3d3f 6b6f 893e
00000010: 976d 3a3f 4b8a e33e 6087 0b3f 9b35 593f
00000020: a0c6 293f 0d5d 523f 01cc f53e 30da 5c3f
00000030: 9ee1 7e3f d045 673f efcb 8d3f 6988 033f
0.743066 0.5542258 0.7389127 0.26842818 0.7282347 0.44441447 0.5450344 0.8484742
0.663187 0.82173234 0.48007205 0.8627043 0.99563015 0.903409 1.107786 0.5138002

layer1.1.bn2.bias f4 [16]
00000000: 8165 df3e 4354 c43e eb65 743e 8f86 f43d
00000010: b1f2 44bc 7c07 c53d 3738 13bf 373a d6be
00000020: 76a6 40bd 8c8a db3b 36c1 3f3e 822f 78bf
00000030: 8b7d b13d 1021 9abe 0640 243e 9ed1 df3d
0.4363213 0.38345537 0.23867004 0.119397275 -0.012020753 0.09620568 -0.5750765 -0.4184129
-0.04703375 0.0066998657 0.18726048 -0.9694749 0.086665235 -0.3010335 0.16040048 0.10928653

layer1.1.bn2.running_mean f4 [16]
00000000: a723 e03e 9af8 7abf 7e2e 95bf eba2 51be
00000010: c553 0d3e 144e 793e 9974 8ebe fdfd 1dbf
00000020: b4e2 c43e 4aec 8ebf 1979 84bf 4644 bf3e
00000030: 5ae5 26bf 0469 94bd 7ef5 b3bf 71e1 2fbf
0.437772 -0.98035586 -1.1654813 -0.20472305 0.13801487 0.2434619 -0.27823332 -0.6171568
0.3845421 -1.116586 -1.0349456 0.37356776 -0.6519371 -0.07246593 -1.4059293 -0.6870337

layer1.1.bn2.running_var f4 [16]
00000000: c862 8c3f 8691 523f cf35 df3f 5c01 463f
00000010: 1480 203f a345 0c3f d756 133f d7a1 473f
00000020: 808a 4d3f c0df 5d3f 2cf0 843f b04c 303f
00000030: de55 8b3f 9ea4 ad3f f020 dc3f 299f 843f
1.0967646 0.822533 1.7438296 0.77345824 0.6269543 0.5479376 0.5755438 0.77981323
0.8028946 0.8666954 1.0385795 0.68867016 1.088558 1.3565862 1.7197552 1.0361072

layer2.0.conv1.weight f4 [32, 16, 3, 3]
00000000: 2142 cabe 7238 e7be 3087 71be 70ec 0ebf
00000010: e682 fbbe ad45 a2be 4b5c bdbe d0ea dfbe
00000020: f3c8 81be e16a fabd 92b0 0b3e e4f1 fa3d
00000030: 9b9a d0bc 0377 d53d 3c8f 103e 7ab3 95bd
00000040: 1265 9f3d 72d3 893d 0eb7 bb3d 312c 073e
00000050: dff2 e23a f5d9 da3d 88a7 423e 70ca 063e
00000060: db75 3e3d 9dde 2c3e 1a48 d73d e20c 2fbe
00000070: 38a7 bdbd 0d34 1a3c 1440 dbbd 7f58 9bbd
00000080: a74f d93c 6f31 cdbd 1f17 8cbd f086 b33c
00000090: a699 6cbe a237 bdbe 3707 94be 4629 bcbd
000000a0: 23fd 59be 825d 10be 02de f3bd 2fa1 7cbe
000000b0: a9dd 1abe 029c 30ba 5b6b 4dbd f391 793c
000000c0: c394 16bd 3e13 e5bd 4857 f8bb aba3 d4bd
000000d0: 5fe4 11be 73af c93c 8578 55be 6d97 a8be
000000e0: b6c9 6fbd 39f6 87be 57cb f1be 1d9f 95be
000000f0: 3bad 3abe eebf 06bf b865 9cbe 3d98 cdbc
00000100: b47d 283a 3a7c f3bc 5a3e a83d 10dd 413e
00000110: 5a63 183e a6f7 583d 1d91 593e 5584 1c3e
00000120: 9dbf e1bb cef3 a23d f9fa be3d 0987 ce3b
00000130: db72 803e 59d2 dd3d bc31 cb3d bae6 3f3e
00000140: 6a12 113e acac 00bc fbfc c4bc d8ae 93bc
00000150: 1044 47bd d9a7 6c3b 52c4 f4bc 7be7 bc3b
00000160: dedf 83bd ab4c c3bd e761 08be ba5f d9bd
00000170: 83c1 9cbd a558 7b3d 9bbe a63d f4ab 5b3d
00000180: 46f3 debc 3623 783d 16e0 9c3d e4c3 923d
00000190: 41ae fe39 d092 18bb e2a6 4b3d d7f7 0e3d
000001a0: ac6c 4c3d af02 d2bc 99fa aebd 444b b8bd
000001b0: 5f5b 0e3e 295c 8d3d 57c3 a73b 65b4 433e
000001c0: 54ef 053e 7444 683d 9f7a 963d 1d29 1e3e
000001d0: 80ee 8e3d fe4a 69bd 3fb6 e8bc 4515 3bbb
000001e0: 68ab cd3b e1e7 6c3c d030 7fbd 8a92 c53a
000001f0: 4c7b b83a 0c2e abbd 0e89 c5bd c144 1fbd
00000200: 7ea8 ac3d bbd5 dcbd 9734 503d 9e38 a43d
00000210: 5485 7abd fc50 843d c277 f53d f296 61be
00000220: 8554 f2bd eb16 44be 0692 10be 207e 8dbd
00000230: b48f e9bd c58f 15be 563c 8ebd 8f8c 76bd
00000240: fd54 623e 44aa 873e 29be 903d cb2f f73d
00000250: 8de4 983c 9bd8 cbbc e186 5dbd e30a 9d3d
00000260: 1899 c53d 6c00 903d 25cd 15bc e6ff c2bc
00000270: 5ac8 913d 4ce1 febc 3e4d 0dbe 9806 b43d
00000280: 05a3 a7bd 60b6 81be e4fa abbd e6c2 10be
00000290: bfa4 adbd 8e62 e5bc 5fe6 98bd daf7 abbd
000002a0: 5ef6 c9bd 638c 30be 944a 30be f254 06bd
000002b0: f602 f8bb be03 c93c 18e0 b2bc 1200 9d3c
000002c0: 5b1a fc3c f6a1 62bd 227a 913c dd7e 0d3d
000002d0: d8e5 1f3d da2a d13c b922 fd3c 427d 8b3c
000002e0: dfc5 94bc 0ce5 75bc c551 f7bc c1da 76bd
000002f0: b345 cdbc 6e89 39bd d603 30bd 6f92 d93d
00000300: 2d37 11be 3d9b 52bd cbf7 c13c 07ae 78be
00000310: ffc5 22be d886 4bbd d680 ea3d 7a61 153e
00000320: 5ff2 313e 7930 6e3e bf82 2b3e 0ac0 8c3d
00000330: 70ad ac3d 8a0d 203d c791 18bc 1505 843c
00000340: 8db6 8abc 9370 433c 4ef5 49be 2751 34be
00000350: 4f3a 4fbe 4c1d 47be cd86 61be edff 5dbe
00000360: c472 1b3d e0ce 403e b076 9c3d 6f85 ba3d
00000370: cf41 fdb9 593d 74bd e743 9e3b b80c f0bd
00000380: 3189 56be f4ec 21bd 1056 25be 30c7 8cbd
00000390: 8cf1 0a3c 0a3b a3bd d4a8 9a3d 3e27 91bc
000003a0: 38bb a8ba 58da d93d 2f72 d9bc 72a5 33be
000003b0: 4cd9 7fbe 877b 033e e604 2b3e 9e4e d43d
000003c0: 6a17 e1ba 10da 2d3e b344 473e b260 4c3e
000003d0: 840c 0a3e 8290 953d c6ac 013d f936 de3b
000003e0: 98b7 3f3d a869 45be 03a5 87be 5453 53be
000003f0: c726 943d 59a8 da3d 6e60 3a3e 118d 06be
-0.39503577 -0.45160252 -0.23586726 -0.55829525 -0.49123305 -0.31693783 -0.36984476 -0.43733835
-0.25348625 -0.12227417 0.13641575 0.12253168 -0.025464347 0.1042309 0.1411714 -0.07309623
0.077829495 0.06729783 0.09165774 0.13200451 0.0017314813 0.10686103 0.1900922 0.13163161
0.046499114 0.16881795 0.10511799 -0.17094758 -0.0926041 0.009411824 -0.10705581 -0.07585239
0.026527239 -0.10019194 -0.068403475 0.02191493 -0.23105487 -0.36956507 -0.28911754 -0.0918756
-0.2128797 -0.1409817 -0.11907579 -0.24670862 -0.15123619 -0.0006737114 -0.05015121 0.015232551
-0.036762964 -0.11185311 -0.007578764 -0.1038278 -0.14247273 0.024619794 -0.20846756 -0.3292803
-0.058541976 -0.2655504 -0.47225448 -0.29222956 -0.18230145 -0.5263661 -0.30546355 -0.025097007
0.00064274226 -0.029722322 0.082150176 0.18931985 0.1488165 0.05297055 0.21246763 0.15284856
-0.006889297 0.07956658 0.09325213 0.0063027185 0.25087628 0.10831136 0.099215955 0.18740359
0.1416718 -0.007853668 -0.024046412 -0.018027708 -0.048648894 0.0036110787 -0.02987877 0.0057648993
-0.06439184 -0.09536108 -0.13318597 -0.106139615 -0.07654097 0.061363835 0.08141824 0.053630784
-0.027215611 0.060580455 0.076599285 0.071662694 0.00048576485 -0.0023280866 0.0497197 0.034904327
0.049908325 -0.025636045 -0.085438915 -0.08998731 0.13902043 0.06902344 0.005119722 0.19111784
0.13079578 0.056705907 0.07347607 0.15445371 0.06979084 -0.056956284 -0.028407214 -0.0028546613
0.0062765367 0.014459581 -0.06230241 0.0015073579 0.0014074831 -0.08358392 -0.09645282 -0.03888393
0.08430575 -0.10782953 0.050831404 0.08018611 -0.061162308 0.06460759 0.119857326 -0.22030237
-0.11832527 -0.19149368 -0.14118204 -0.06908822 -0.11404362 -0.14605625 -0.06945102 -0.06019264
0.22102733 0.2649709 0.0706752 0.12069663 0.018663669 -0.024883559 -0.05408371 0.07668092
0.09648341 0.070313305 -0.009143149 -0.023803663 0.07118292 -0.03111329 -0.13798997 0.0879032
-0.081853904 -0.25334454 -0.08397463 -0.14136848 -0.084786884 -0.028001096 -0.07465815 -0.08396883
-0.09861444 -0.17241053 -0.1721595 -0.032795854 -0.0075687123 0.024537917 -0.021835372 0.019165073
0.030774286 -0.05533024 0.017758433 0.034544814 0.039037555 0.025533129 0.030900346 0.017027501
-0.018160759 -0.015008222 -0.030190358 -0.060267214 -0.02505765 -0.04529708 -0.04297241 0.10623633
-0.14181204 -0.051417578 0.023677727 -0.24285136 -0.15895842 -0.049689144 0.11450355 0.14587966
0.17377613 0.23260678 0.16749094 0.06872566 0.08431518 0.03907541 -0.0093121 0.016115705
-0.01693275 0.011928695 -0.19722483 -0.17609082 -0.20237087 -0.1944477 -0.22024079 -0.21679659
0.037951246 0.18828917 0.07639825 0.09107482 -0.00048304952 -0.05962882 0.004829872 -0.11721176
-0.20950772 -0.039532617 -0.16146111 -0.068739295 0.008480441 -0.07970245 0.07551733 -0.017718907
-0.0012873178 0.10637349 -0.026543705 -0.17543581 -0.24985236 0.1284009 0.16701087 0.103665575
-0.0017173116 0.16977715 0.194598 0.19958761 0.13481337 0.07302953 0.03165891 0.0067814556
0.046805948 -0.19278586 -0.2649308 -0.20637256 0.07233959 0.10676641 0.18200848 -0.1313975

layer2.0.conv1.bias f4 [32]
00000000: 8ad9 a43b 0357 b5bb f460 0f3c 1b77 b73a
00000010: febb 853b 2166 d9bb 0d8c b6ba 1575 b63a
00000020: 48cb bbb9 d152 0abb 8f99 ba3a 1731 ea3b
00000030: 21f8 183a 1751 2dbc 6dda ecbb 6f24 c2bb
00000040: 2504 febb 9ac7 c53b bec2 c93a 2b38 88bb
00000050: 0b8e c5bb 259c 433c 348e 683b bc03 ebbb
00000060: 5d64 d8ba c805 633a 1fb3 e1ba 973d d33a
00000070: 9882 473b 018a c1bb eb16 d039 198a bfbb
0.0050308155 -0.0055340542 0.008751143 0.0013997288 0.0040812483 -0.006634489 -0.0013927236 0.0013920391
-0.00035818876 -0.0021106491 0.0014236438 0.0071469652 0.0005835314 -0.010578415 -0.007228187 -0.0059247534
-0.007751959 0.0060357573 0.0015393121 -0.0041570864 -0.0060288957 0.011939083 0.003548515 -0.007172076
-0.0016509403 0.0008660224 -0.001721952 0.0016116378 0.003044283 -0.005906344 0.00039689927 -0.00584532

layer2.0.bn1.weight f4 [32]
00000000: c1c3 833f d97c 173f d036 593f c33c 4b3f
00000010: 6013 523f 11a7 343f d00f 5e3f d52e 523f
00000020: a22d 3f3f 8a34 4d3f 3455 413f 61b1 343f
00000030: b85c 4e3f f049 643f 7800 293f 286d 623f
00000040: 236f 3c3f 007a 343f 6993 5a3f bed9 543f
00000050: e7ec 583f 8b9a 533f 8539 273f 6a81 383f
00000060: 04f3 283f dcda 4e3f 7b5f 483f 6de0 4d3f
00000070: 3634 2c3f df82 523f 0ed2 503f affe 1d3f
1.0294114 0.5917488 0.8484926 0.7938959 0.82060814 0.70567423 0.8674288 0.8210271
0.74679005 0.80158293 0.75520635 0.7058316 0.8061023 0.8917532 0.6601634 0.8844781
0.7360708 0.7049866 0.8538118 0.8314475 0.84736484 0.8265769 0.6532214 0.7207247
0.6599581 0.808027 0.7827069 0.8042057 0.6726717 0.82230943 0.8157052 0.6171674

layer2.0.bn1.bias f4 [32]
00000000: 2166 08be ee3c 34bd bb97 04be 30af 22be
00000010: 6c2b 06be 7cff 403e a337 0fbe e046 03be
00000020: 6b02 5ebc 8df0 7bbe 6d8e 3cbe 3b33 f1bd
00000030: 813f 67be c241 5abe 4da9 943d 1bbc 4ebe
00000040: 4bfe 1e3d b0e7 87bc 2c3b 8abe 0a72 38bd
00000050: 17f7 c2bd adb1 5bbe 233c 1dbd fa82 83bc
00000060: 78bd 10be 31db dabe 2fd2 02bf 20ef 74be
00000070: f5c2 94bc 4ae5 41be b9df e0bd 1a15 7bbb
-0.13320209 -0.04400342 -0.12948506 -0.15887141 -0.13102502 0.1884746 -0.13986067 -0.12820005
-0.013550381 -0.24603482 -0.18413706 -0.117773496 -0.22582819 -0.21314147 0.07258854 -0.20188944
0.03881673 -0.01658997 -0.2699827 -0.04503063 -0.09519785 -0.21454497 -0.03838743 -0.016053665
-0.14134777 -0.42745355 -0.51101965 -0.23919344 -0.018159369 -0.18935123 -0.10980172 -0.0038312138

layer2.0.bn1.running_mean f4 [32]
00000000: 6a59 92c0 82ac 4fc0 48e0 7b3f 77e2 00c1
00000010: 6ad6 26c0 1836 e1bf 1563 8fbe 77b0 01bf
00000020: f1ad 65c0 9d79 bbc0 2bd9 143f 0e65 22c0
00000030: e5d5 06c0 ee86 28bf 6650 a8bf 2abd c4bf
00000040: 0630 e4bf 4a40 96c0 2e16 aabf 576a b7c0
00000050: 6031 8ebe a15c 58c0 3dac eb40 79f5 cf3f
00000060: 7f87 a7bf 6f60 c7bf c7b4 76c0 a90f 1a40
00000070: 642f 1040 f2a6 d13e d03b 11c0 da56 493f
-4.573415 -3.244904 0.983891 -8.055289 -2.6068368 -1.7594633 -0.2800528 -0.5065989
-3.5887415 -5.8585954 0.5814387 -2.537418 -2.106805 -0.65830886 -1.3149536 -1.5370228
-1.7827156 -4.695348 -1.3288019 -5.731731 -0.27772045 -3.3806536 7.364775 1.6246787
-1.3088225 -1.5576304 -3.8547838 2.4072058 2.2528925 0.40947682 -2.2692757 0.7864815
