Output/swift-iid-8W-pattern1-half-ring-2sgd-200epochs/r3-epoch_159-parameters.pt (torch, 731756 bytes, 92 tensors)

conv1.weight f4 [16, 3, 3, 3]
0	0x3ccac45f	0.02475184
1	0xbf00f0e7	-0.5036759
2	0x3d610dec	0.054944918
3	0xbe2ba047	-0.1676036
4	0xbdba7ab8	-0.09105438
5	0x3dd37c9c	0.10326502
6	0xbebf7bf9	-0.3739927
7	0x3e79a5c5	0.24379642
8	0x3d2f3297	0.042772856
9	0xbeb0ba68	-0.34517217
10	0xbf56dce8	-0.83930826
11	0xbf023962	-0.5086881
12	0x3e72dccd	0.23717041
13	0x3efe2db6	0.4964425
14	0x3e280cca	0.16411129
15	0x3ed9e1bb	0.4255503
16	0x3f9ddfce	1.2333925
17	0x3f1a6990	0.60317326
18	0xbf00de50	-0.5033922
19	0xbf6eb41a	-0.93243563
20	0xbecd9eaf	-0.40160128
21	0x3cc20d35	0.023687938
22	0x3d92e5e9	0.07172758
23	0x3beb415a	0.0071794214
24	0x3e601b65	0.2188545
25	0x3f25e16e	0.64797103
26	0x3e97745b	0.2958096
27	0xbd0b7ffc	-0.034057602
28	0x3dee3402	0.116310135
29	0x3dd4ff05	0.104002036
30	0xbdb179cf	-0.08665811
31	0x3b97f7ed	0.0046377094
32	0x3d0075e6	0.031362437
33	0xbc8de82f	-0.017322628
34	0x3d0f97e3	0.03505696
35	0xbd2aa469	-0.0416607
36	0x3ddf9afa	0.10918231
37	0x3e4e25a3	0.20131545
38	0x3e105986	0.1409665
39	0x3ceb3c9a	0.02871542
40	0x3e3ceef2	0.18450525
41	0x3e323163	0.17401652
42	0x3ce782f9	0.028260695
43	0x3ded2346	0.115789935
44	0x3d2431e1	0.04008663
45	0x3dab04a9	0.08350498
46	0x3e3073b7	0.17231642
47	0x3dd40c4a	0.103539065
48	0x3dbfb473	0.0936059
49	0x3e8834a8	0.26602674
50	0x3e318862	0.17337182
51	0xbd658f0d	-0.056044627
52	0x3d922948	0.0713678
53	0xbd37b13b	-0.044846755
54	0x3d9cb3c4	0.07651475
55	0xbef0b626	-0.47013968
56	0xbd850884	-0.06495765
57	0xbeb1e32a	-0.34743625
58	0xbf4970e2	-0.7868787
59	0xbf06b0db	-0.5261361
60	0xbe4cfe02	-0.20018771
61	0xbf29794e	-0.6620072
62	0xbe70ed99	-0.23528136
63	0x3e3f6e0b	0.18694322
64	0x3cd7f39d	0.026361281
65	0x3e2dee68	0.16985476
66	0x3dfb44a6	0.12268953
67	0x3db56259	0.08856649
68	0x3d09ee7b	0.0336747
69	0xbd7b6561	-0.06137598
70	0xbdd386b1	-0.10328425
71	0x3d33f42a	0.043934025
72	0xbe1bfc14	-0.15232879
73	0x3cb6532b	0.022256454
74	0xbe0f4ca3	-0.13994078
75	0x3e7626d4	0.24038249
76	0x3f10f469	0.5662294
77	0x3e88af5c	0.2669629
78	0x3e7daf4d	0.24773903
79	0x3f0173fd	0.5056761
80	0x3ebef64a	0.3729728
81	0x3dcb10c4	0.09915307
82	0x3cb21253	0.021737253
83	0x3e8fe2c7	0.28102705
84	0xbee55e72	-0.4479862
85	0xbf1e2799	-0.6177917
86	0xbeba58e3	-0.3639594
87	0xbe76b8f6	-0.24093994
88	0xbf063e7c	-0.52439094
89	0xbec77401	-0.3895569
90	0xbe80d301	-0.25160983
91	0xbe3c514e	-0.1839039
92	0xbe4a9f4b	-0.19787328
93	0xbe95b819	-0.29242018
94	0xbe1049b1	-0.14090611
95	0xbe6acc85	-0.2292958
96	0xbe133565	-0.14375837
97	0xbd153daa	-0.03643576
98	0xbe549371	-0.2075937
99	0xbd9528fc	-0.07283208
100	0x3f10bd2a	0.5653864
101	0x3d88ea3e	0.06685303
102	0x3ec86933	0.3914276
103	0x3f93cc4f	1.1546725
104	0x3f1577b7	0.58385795
105	0x3ecd52e8	0.40102315
106	0x3f7a142a	0.9768702
107	0x3ee917f8	0.455261
108	0x3e8e7fc3	0.2783185
109	0xbe0114ee	-0.1260564
110	0x3e8bc5ad	0.27299252
111	0xbe3214c5	-0.17390735
112	0xbf2f02c4	-0.68363595
113	0xbdbbfcf4	-0.09179106
114	0x3e27d326	0.1638914
115	0xbe22a3df	-0.15882824
116	0x3e461cf2	0.1934698
117	0x3e7e7692	0.24849918
118	0xbe78cbdd	-0.24296518
119	0x3e2161a1	0.15759899
120	0xbe26d2f6	-0.16291413
121	0xbf2f0733	-0.6837036
122	0xbe3e71a5	-0.1859804
123	0x3e8d3aa1	0.27583793
124	0xbdcffebc	-0.101560086
125	0x3e4f618c	0.20252055
126	0x3d48ea24	0.04905142
127	0xbe52f48a	-0.20601097
128	0x3adc3e80	0.0016803294
129	0xbe9a0f06	-0.30089587
130	0xbf1c14cd	-0.6096924
131	0xbe97e873	-0.29669532
132	0x3e0d2234	0.13782579
133	0xbd1e5966	-0.038659476
134	0x3e12dc92	0.14341953
135	0x3e8bcfd0	0.27306986
136	0x3f582eaa	0.84446204
137	0x3f2bdb56	0.67131555
138	0x3f01e69c	0.50742507
139	0x3f5d559d	0.8645876
140	0x3e93e4b3	0.2888542
141	0x3dae8194	0.08520809
142	0x3dc1ff78	0.09472555
143	0xbe050c18	-0.12992895
144	0xbe147fc9	-0.14501871
145	0xbf594511	-0.8487101
146	0xbf2f15ce	-0.68392646
147	0xbea8f553	-0.32999668
148	0xbfa6200c	-1.297853
149	0xbfb40b32	-1.4065917
150	0x3dcb33b0	0.09921968
151	0xbf2f53e4	-0.6848738
152	0xbf092c52	-0.5358325
153	0x3e443bca	0.19163433
154	0x3e47d2a7	0.19513951
155	0x3e892141	0.26783183
156	0x3e1b63b2	0.1517475
157	0x3d6cffcd	0.057861138
158	0xbde2d0dc	-0.11074993
159	0x3f096423	0.5366842
160	0x3ee92331	0.4553466
161	0x3ecec9a9	0.4038823
162	0x3ee77f40	0.45214272
163	0x3faf3c67	1.3690308
164	0x3f586b22	0.8453847
165	0xbe43225c	-0.19056076
166	0xbca17c5a	-0.019712616
167	0x3ea268d0	0.3172059
168	0xbf187c24	-0.59564424
169	0xbf9ef66d	-1.2418953
170	0xbe8a51a1	-0.27015403
171	0x3ef2359a	0.4730652
172	0x3f6b8013	0.919923
173	0x3ecec565	0.40384975
174	0xbe3bf59b	-0.1835541
175	0xbee2362f	-0.44181964
176	0xbe85d58c	-0.26139486
177	0xbc72e51f	-0.014825135
178	0xbf534f5d	-0.82542974
179	0xbe8c4a37	-0.2740037
180	0xbeb3bd6b	-0.35105452
181	0xbb161638	-0.0022901427
182	0xbefed00f	-0.4976811
183	0xbe6021e9	-0.21887936
184	0xbe2510f3	-0.16119747
185	0xbebee742	-0.3728581
186	0x3efac729	0.48980072
187	0x3e2a85a5	0.16652544
188	0x3e7e317e	0.24823567
189	0x3aa4cdab	0.0012573501
190	0xbe828c3e	-0.2549762
191	0x3cef95fd	0.029246325
192	0x3dfc2b8a	0.12312992
193	0x3fef5a1f	1.8699378
194	0xbe1150be	-0.14190957
195	0x3e3c1a5b	0.18369429
196	0xbe7cb81f	-0.24679612
197	0x3ded68f0	0.11592281
198	0xbd8a62c0	-0.06757116
199	0xbee15a4c	-0.44014204
200	0xbe2f7925	-0.17136057
201	0xbe7693ee	-0.24079868
202	0x3f8f8d69	1.121503
203	0xbf04cfe5	-0.5187972
204	0xbf07414c	-0.5283401
205	0xbfa27e11	-1.2694722
206	0xbec93e17	-0.39305183
207	0xbd4dd7b8	-0.050254554
208	0xbebeeb10	-0.37288713
209	0xbe428447	-0.18995772
210	0x3e34889b	0.17630236
211	0x3fbf6d2d	1.4955193
212	0xbd27094a	-0.040780343
213	0xbd5c2b60	-0.053752303
214	0x3dab7fa0	0.08373952
215	0x3e3ee0b9	0.18640412
216	0xbe2cf620	-0.16890764
217	0x3d1014b0	0.03517598
218	0x3b43e368	0.0029890183
219	0xbf6b6f91	-0.9196711
220	0x3eb29d97	0.34885857
221	0x3f2946a3	0.6612341
222	0xbeaedc49	-0.3415244
223	0x3c00e2b5	0.007866551
224	0x3c94d397	0.0181673
225	0xbf04a322	-0.5181142
226	0xbdedf4f9	-0.116189905
227	0x3e9a6b34	0.30159914
228	0xbf9142f2	-1.1348555
229	0x3ea32189	0.31861523
230	0x3f872fcb	1.056146
231	0xbe88c74d	-0.26714554
232	0x3e0d4958	0.1379751
233	0x3eea0673	0.45708045
234	0xbd72d37c	-0.05928372
235	0x3d610d33	0.05494423
236	0x3ddae480	0.10688114
237	0xbf4aea35	-0.7926362
238	0x3e63248e	0.22181913
239	0x3f1e6abe	0.61881626
240	0xbe7da242	-0.24768928
241	0xbd9d3c9a	-0.076775745
242	0xb9f6c83b	-0.0004706996
243	0x3e852d4c	0.2601112
244	0xbe48e6b1	-0.19619252
245	0xbc71b444	-0.014752451
246	0xbe0a2d96	-0.13493952
247	0xbf2e14f6	-0.68000734
248	0xbebb3c12	-0.36569268
249	0xbe10c7a2	-0.14138654
250	0xbf38d0e7	-0.7219376
251	0xbef38217	-0.47560188
252	0x3f0a016f	0.5390844
253	0x3ea89f37	0.3293397
254	0x3ec59ba2	0.385953
255	0x3ebebdf3	0.37254295

conv1.bias f4 [16]
0	0xbc7c66f4	-0.015405405
1	0xbc201c3f	-0.009772359
2	0xbc3256df	-0.0108849695
3	0x3ca5801e	0.020202693
4	0x3c98b9ef	0.018643348
5	0xbcb135a4	-0.021632023
6	0xba883a6b	-0.0010393386
7	0x3ba9f250	0.0051863566
8	0xbc871522	-0.01648957
9	0xbcb33c98	-0.02187948
10	0xbbc823f7	-0.006107803
11	0xbc23e1c4	-0.010002557
12	0xbc062462	-0.008187385
13	0x3c863b03	0.01638556
14	0x3b89b540	0.004202515
15	0xbc7584a6	-0.014985239

bn1.weight f4 [16]
0	0x3f4d6b9e	0.80242336
1	0x3f3ae851	0.73010737
2	0x3ef33c41	0.47506908
3	0x3f102914	0.5631268
4	0x3fb72e36	1.4310977
5	0x3f208c45	0.62714034
6	0x3f51844e	0.81842506
7	0x3f7b0df2	0.98068154
8	0x3f547641	0.8299294
9	0x3f19c72a	0.60069525
10	0x3f068e84	0.5256121
11	0x3f53a28b	0.82669896
12	0x3f88b5eb	1.0680517
13	0x3f0b90df	0.5451793
14	0x3ec446fb	0.38335404
15	0x3f0965c1	0.5367089

bn1.bias f4 [16]
0	0x3f0cbae6	0.54972684
1	0xbedcbaf3	-0.4311138
2	0x3e675a88	0.22593129
3	0x3f09e1ae	0.53859985
4	0xbf688058	-0.9082084
5	0x3eb8026d	0.3593935
6	0x3f2d0791	0.6758967
7	0x3fa54ee7	1.2914704
8	0x3e4a539b	0.19758455
9	0x3d5ed4c9	0.054402146
10	0x3ea3925a	0.31947595
11	0x3fa099f6	1.2546985
12	0x3ebedac8	0.37276292
13	0x3e953e2a	0.2914899
14	0x3dcef880	0.10105991
15	0x3d8efdfe	0.06982039

bn1.running_mean f4 [16]
0	0xbe0f0506	-0.1396676
1	0xbf11c1a6	-0.5693611
2	0x3e552078	0.20813167
3	0xbe3edd64	-0.18639141
4	0x3f332d63	0.6999113
5	0x3dba33d6	0.09091918
6	0x3e09844a	0.1342937
7	0xbe90db9c	-0.2829255
8	0x3cfd07fd	0.030887598
9	0xbd15eb9e	-0.036601655
10	0xbc28d8da	-0.010305608
11	0x3d1c1671	0.03810734
12	0xbde27e59	-0.11059255
13	0xbe5466e5	-0.20742376
14	0xbd771c4e	-0.060329728
15	0x3eea9ed7	0.4582431

bn1.running_var f4 [16]
0	0x41545e64	13.273045
1	0x40c1456f	6.039726
2	0x4081e7ba	4.059537
3	0x40e18716	7.04774
4	0x411c5519	9.770776
5	0x40a2233e	5.066802
6	0x412178bd	10.091977
7	0x40b73904	5.72571
8	0x4157a196	13.47695
9	0x40ab026b	5.344045
10	0x3fb716a8	1.4303789
11	0x400ed6ae	2.231853
12	0x41c8c156	25.094402
13	0x410def15	8.87087
14	0x4020c63d	2.5120995
15	0x408fd7f3	4.495111

layer1.0.conv1.weight f4 [16, 16, 3, 3]
0	0xbe2e4956	-0.17020163
1	0xbe00def2	-0.12585047
2	0x3de3d986	0.11125474
3	0x3a8f0df5	0.0010914194
4	0xbe5e5c93	-0.21715002
5	0xbe438cab	-0.1909663
6	0x3dda1e0c	0.10650262
7	0xbe03568f	-0.12825988
8	0xbe533903	-0.20627217
9	0x3bf22a3b	0.007390288
10	0xbdbe9ce2	-0.09307267
11	0xbe3f118a	-0.18659034
12	0x3d833fa3	0.06408622
13	0x3c160c9f	0.009158283
14	0xbdc03307	-0.09384733
15	0x3d6a8adc	0.057261333
16	0xbc0c8092	-0.008575575
17	0xbdca5486	-0.09879403
18	0xbe8f5e91	-0.28001836
19	0xbdfdf4af	-0.12400185
20	0x3e1f592a	0.15561357
21	0xbe7eaf48	-0.24871552
22	0xbca7d8e0	-0.020489156
23	0x3e98b75a	0.29827386
24	0xbe30f5d1	-0.17281272
25	0xbd012f86	-0.031539463
26	0x3e8cc3bb	0.2749308
27	0xbea13499	-0.3148544
28	0xbd07c30e	-0.033145003
29	0x3eb6125e	0.35560888
30	0xbeca64b8	-0.39529967
31	0xbe021c7b	-0.12706177
32	0x3ebd457a	0.3696707
33	0xbed6f747	-0.41985533
34	0xbe4e02cb	-0.20118253
35	0x3e84226f	0.2580752
36	0xbd0fb849	-0.035087857
37	0xbd0e4cf8	-0.034741372
38	0xbe3b05d9	-0.1826395
39	0x3e0375bc	0.12837881
40	0x3d96960e	0.073528394
41	0xbe248e10	-0.16069818
42	0x3e40a23a	0.18811885
43	0x3e44cdc6	0.19219121
44	0xbcd59df7	-0.0260763
45	0x3d760bd8	0.06006989
46	0xbdb3dad0	-0.087819695
47	0xbe94cf0f	-0.29064223
48	0x3e177025	0.14788873
49	0xbc9662ff	-0.018357752
50	0xbec59719	-0.3859184
51	0x3e4a9a94	0.1978553
52	0x3ddb1ced	0.106988765
53	0xbdf6d7f2	-0.12052907
54	0x3d53608d	0.05160575
55	0xbdbf1fe4	-0.093322545
56	0xbc9ff6dd	-0.019526893
57	0x3e23a283	0.15979962
58	0xbe86c7f3	-0.26324424
59	0xbe803d4f	-0.25046775
60	0x3e5a8476	0.21339592
61	0xbe1a4ef2	-0.15069178
62	0xbe9fca87	-0.31209204
63	0x3ee11ce0	0.43967342
64	0xbd91f97b	-0.07127663
65	0xbdd82376	-0.10553639
66	0xbdc9dd1a	-0.09856625
67	0x3e0bf91b	0.13669245
68	0x3e32b696	0.17452464
69	0x3e893bf1	0.26803544
70	0xbdb9966f	-0.09061896
71	0xbe832761	-0.2561598
72	0xbdf214f2	-0.11820401
73	0xbdcc379b	-0.099715434
74	0x3c9439f7	0.018094046
75	0xbc14a8e2	-0.009073468
76	0x3bf47c01	0.0074610715
77	0xbb64e096	-0.0034923903
78	0xbe1c5fae	-0.15270874
79	0xbda70721	-0.081556566
80	0x3d958294	0.073002964
81	0xbe8a4754	-0.27007544
82	0xbdabcd72	-0.08388795
83	0x3db08c2f	0.08620488
84	0xbe94570b	-0.2897266
85	0x3bff8553	0.007797876
86	0x3e8d260b	0.27568087
87	0xbe6f8b28	-0.23392928
88	0x3d47d46b	0.048786562
89	0x3ec697e8	0.3878777
90	0x3ed1543d	0.4088458
91	0xbdbc6d57	-0.092005424
92	0xbf3ab4eb	-0.7293231
93	0x3eaec61b	0.34135517
94	0x3d7f8222	0.062379964
95	0xbe9fdc39	-0.31222704
96	0xbe14fb43	-0.14548974
97	0x3d8c41e5	0.06848506
98	0x3e021aa7	0.1270548
99	0x3e0ed157	0.13947044
100	0x3e848c7b	0.25888428
101	0xbe2c9ec2	-0.16857436
102	0xbd5a0cb5	-0.053234775
103	0xbe8d8f09	-0.2764819
104	0xbe1d918a	-0.1538755
105	0xbdfe94f1	-0.12430752
106	0x3cee6b16	0.029103797
107	0x3e0d7b67	0.13816606
108	0xbd39999e	-0.045312516
109	0x3d533ae7	0.051569846
110	0x3da30b6c	0.07961163
111	0xbe90124a	-0.28138953
112	0xbde01f71	-0.10943497
113	0xbc51e4f7	-0.012810937
114	0xbda9db73	-0.0829381
115	0x3e48fd8b	0.19627969
116	0x3e5689f7	0.20951067
117	0x3dc4f6d2	0.0961739
118	0x3d1b1930	0.037865818
119	0x3cf0202c	0.029312216
120	0x3dc36094	0.09539905
121	0x3e1bc796	0.15212855
122	0x3e2ec6c2	0.17068008
123	0xbd76c6a0	-0.060248017
124	0xbd38709e	-0.045029275
125	0x3e1cc27a	0.15308562
126	0x3d891f86	0.06695466
127	0xbdc1f05a	-0.094696715
128	0xbe640cdb	-0.22270529
129	0x3e4bbe37	0.1989678
130	0x3d5320df	0.05154502
131	0xbe0d6cee	-0.13811085
132	0x3dea9b6a	0.11455424
133	0x3cb3fc9a	0.021971036
134	0xbdcece63	-0.10097959
135	0x3d22cc1a	0.039745428
136	0xbbc62597	-0.0060469615
137	0xbdb10f2e	-0.086454734
138	0x3dfce0f2	0.123475924
139	0x3d8c1399	0.068396755
140	0xbd4aad56	-0.049481712
141	0x3e22d12d	0.15900107
142	0x3df751d5	0.12076155
143	0x3cfef046	0.03112043
144	0xbdf218a6	-0.118211076
145	0xbd3375ba	-0.043813445
146	0xbd86f931	-0.06590498
147	0x3ce62654	0.028094448
148	0x3bbb640e	0.0057187146
149	0x3c8d1b7f	0.017225025
150	0xbc32dbd7	-0.010916672
151	0xbd40aa30	-0.047037303
152	0xbc847786	-0.016170274
153	0xbde2c882	-0.110734
154	0xbe10bb8c	-0.14134043
155	0xbe001d44	-0.12511164
156	0xbd21c85f	-0.03949773
157	0xbd215938	-0.039391726
158	0xbc6cd44a	-0.0144549105
159	0x3d61f83c	0.055168375
160	0x3d9d6101	0.07684518
161	0x3da3490b	0.07972916
162	0xbdd2e33b	-0.10297247
163	0xbe58cafa	-0.2117118
164	0xbe3aa904	-0.18228537
165	0xbe5d44b3	-0.21608238
166	0xbe985e2f	-0.29759356
167	0xbe6e488a	-0.23269859
168	0xbe0aa8a2	-0.13540891
169	0xbe519080	-0.20465279
170	0xbe167bdc	-0.14695686
171	0x3df40ade	0.11916135
172	0xbcb67a2c	-0.022275053
173	0x3d405c07	0.046962764
174	0xbcde8fa5	-0.027168104
175	0xbe4a7971	-0.19772889
176	0xbdce6a33	-0.1007885
177	0x3d91e94d	0.07124577
178	0xbdd174ef	-0.102273814
179	0xbc07173d	-0.0082452865
180	0x3d967d16	0.07348077
181	0x3d3b7dab	0.045774143
182	0x3cbdca1c	0.023167662
183	0x3d69a25e	0.05703961
184	0x3d21a2f4	0.039462045
185	0x3d0c1b0d	0.034205485
186	0xbcac21cd	-0.021012211
187	0x3b263226	0.002535948
188	0xbb9f3be2	-0.0048594335
189	0xbd80f3cd	-0.06296501
190	0xbe5a39a6	-0.21311054
191	0xbdc8bb7f	-0.09801387
192	0x3c0a9cd4	0.008460242
193	0xbdac6a1a	-0.08418675
194	0xbca027e8	-0.019550279
195	0x3e6f9cb7	0.23399626
196	0x3e207a80	0.1567173
197	0x3df2790c	0.11839494
198	0xbecfebe9	-0.40609673
199	0xbef17b7b	-0.4716452
200	0xbede7b49	-0.43453434
201	0xbe1525e2	-0.14565232
202	0xbe3e5cb8	-0.18590057
203	0xbe53c376	-0.20680031
204	0xbc80175b	-0.015636137
205	0xbad6abf8	-0.0016378155
206	0xbd951632	-0.07279624
207	0x3e0b8bc1	0.1362753
208	0xbdf63aa1	-0.12022901
209	0x3ddb7f13	0.10717597
210	0xbdc14672	-0.094372645
211	0xbe140db7	-0.14458357
212	0xbcbcc2dd	-0.023042137
213	0x3e86de21	0.26341346
214	0x3c47bd74	0.012191165
215	0x3e16ccdc	0.14726585
216	0x3e5b4651	0.21413542
217	0x3dd9c4bf	0.106332295
218	0x3e01e007	0.12683116
219	0x3def886f	0.116959445
220	0xbcf548c4	-0.029941924
221	0xbd3405ca	-0.043950833
222	0xbde0dc7f	-0.10979556
223	0xbe45554e	-0.19270822
224	0xbdfa5c2c	-0.12224612
225	0x3d81498b	0.06312855
226	0xbbed0bd3	-0.0072340756
227	0x3cac9501	0.021067144
228	0xbd4412e2	-0.04786957
229	0xbdc0f088	-0.09420878
230	0xbd4535fd	-0.04814719
231	0xbde09ee0	-0.10967803
232	0xbe13ea8d	-0.14444943
233	0xbd88d95d	-0.06682084
234	0x3d3e24ca	0.046421804
235	0x3ded7e94	0.115964085
236	0xbd46d9c7	-0.048547532
237	0xbd003bb2	-0.03130693
238	0xbdf874b0	-0.121316314
239	0xbe81055e	-0.25199407
240	0xbeae920d	-0.34095803
241	0xbec12c09	-0.3772891
242	0xbee753d1	-0.45181134
243	0xbdf01617	-0.11722963
244	0xbd0bdf22	-0.034148343
245	0xbb831f73	-0.004001552
246	0x3d0090cb	0.031388085
247	0xbd1faaaf	-0.038981136
248	0x3dbbe182	0.091738716
249	0x3d6a80e4	0.057251826
250	0xbcc692de	-0.024239954
251	0xbe1f6812	-0.15567043
252	0x3d5a19ac	0.05324714
253	0x3d17a417	0.037021723
254	0x3d95f6a3	0.07322433
255	0xbd870c24	-0.065941125

layer1.0.conv1.bias f4 [16]
0	0x3ab7742f	0.0013996417
1	0xbbd24d92	-0.0064179385
2	0xbb2fc622	-0.0026820977
3	0x3acd03ca	0.0015641388
4	0xbc042569	-0.00806556
5	0xbbe99462	-0.0071282843
6	0x3aa1327b	0.001229837
7	0xbb2f6229	-0.002676139
8	0x3b6c9dd1	0.0036104808
9	0xbb2721b4	-0.0025502266
10	0x3b8fdc46	0.0043902723
11	0x3adee812	0.0017006418
12	0xbc18ab82	-0.009318234
13	0x3af7eeb8	0.0018915748
14	0x3bec1dc0	0.007205695
15	0xbb85caf5	-0.0040830323

layer1.0.bn1.weight f4 [16]
0	0x3f4418e3	0.76600474
1	0x3ef8b220	0.485734
2	0x3f188db3	0.59591216
3	0x3f72c668	0.94833994
4	0x3f427429	0.75958496
5	0x3f48689a	0.7828461
6	0x3f512851	0.8170214
7	0x3f461283	0.77371997
8	0x3f750c00	0.95721436
9	0x3f8ba3c7	1.0909356
10	0x3f8db215	1.1069971
11	0x3f6228d3	0.8834354
12	0x3f8e1153	1.1099037
13	0x3f89692b	1.073522
14	0x3f46b877	0.7762522
15	0x3f979a28	1.184392

layer1.0.bn1.bias f4 [16]
0	0xbc6834dc	-0.014172759
1	0x3e17f23e	0.14838502
2	0xbe646c6d	-0.22306986
3	0xbe8f2416	-0.2795722
4	0xbe518e0a	-0.2046434
5	0xbdece777	-0.11567586
6	0xbd9261be	-0.07147549
7	0x3d959975	0.0730466
8	0x3ea5e0ab	0.3239797
9	0x3ef8c845	0.48590294
10	0xbea0e231	-0.3142257
11	0x3e5f0d0e	0.21782324
12	0x3f1c45f7	0.6104426
13	0xbe3ddf0a	-0.18542114
14	0xbdd28ab7	-0.10280364
15	0xbe9d8715	-0.30767122

layer1.0.bn1.running_mean f4 [16]
0	0xbf9a0620	-1.2033119
1	0xc048cd29	-3.137522
2	0x3f5a71db	0.8532998
3	0xbf78a63f	-0.9712867
4	0xbe9d3261	-0.307025
5	0xc0527df9	-3.2889388
6	0xc009b3e0	-2.1516037
7	0x3e607221	0.21918537
8	0xbec3f09f	-0.38269517
9	0xc01ffabb	-2.4996784
10	0xc01b855d	-2.4300148
11	0xc0907364	-4.514086
12	0xbfeceafe	-1.8509214
13	0xbe90275b	-0.28155026
14	0xbfd64228	-1.6738939
15	0xbfbd66be	-1.479698

layer1.0.bn1.running_var f4 [16]
0	0x3f589e99	0.84617
1	0x3fbf1849	1.4929286
2	0x3fc0b533	1.5055298
3	0x4079fb7a	3.905974
4	0x3f8e8d89	1.1136943
5	0x4038fceb	2.890437
6	0x40695457	3.6457727
7	0x407c6e16	3.944219
8	0x40756591	3.8343241
9	0x4044d6f3	3.0756195
10	0x41236226	10.211462
11	0x4076fd5f	3.8592145
12	0x40883c95	4.2573953
13	0x40dfa0c3	6.988374
14	0x4005d6c0	2.0912323
15	0x40d5ef4c	6.685461

layer1.0.conv2.weight f4 [16, 16, 3, 3]
0	0x3cc4a8f9	0.024006354
1	0xbd368a88	-0.044565707
2	0x3dc0b81d	0.09410117
3	0x3cbfb949	0.02340378
4	0x3d32ed1b	0.043683153
5	0x3e0350bf	0.12823771
6	0xbccd0e40	-0.025031209
7	0xbba96e19	-0.0051705954
8	0x3d20849b	0.039188962
9	0xbc05b81a	-0.008161569
10	0xbdbec2a5	-0.09314469
11	0xbd4c30db	-0.04985128
12	0x3bc2d479	0.005945739
13	0x3a8b57cc	0.0010631024
14	0xbcf28053	-0.029602205
15	0x3d412ecd	0.047163773
16	0x3df083c2	0.11743881
17	0x3d42c881	0.047554497
18	0xbc5312ae	-0.012882872
19	0x3db5ec98	0.08883017
20	0x3cd5d642	0.026103143
21	0x3ddec083	0.108765624
22	0x3da4aeb9	0.08041138
23	0x3d254c48	0.04035595
24	0x3d81dc4d	0.06340847
25	0x3d184f94	0.037185267
26	0xbdc1fc59	-0.094719596
27	0xbda60b25	-0.081075944
28	0x3e231e24	0.15929466
29	0xbe22d7bd	-0.1590261
30	0x3db02760	0.0860126
31	0x3e22c0ff	0.15893935
32	0x3e2454cb	0.16047971
33	0xbd5b44d8	-0.05353245
34	0x3da6dfd7	0.08148163
35	0xbca84e19	-0.020545052
36	0x3c17ffbd	0.009277281
37	0x3dabb70d	0.083845235
38	0xbe029d13	-0.12755232
39	0x3d9410b7	0.072297506
40	0x3e0af82d	0.13571234
41	0xbdb1ab40	-0.086752415
42	0x3d766832	0.060157962
43	0x3e051471	0.12996079
44	0x3d2198fc	0.039452538
45	0xbc46fbe1	-0.012145014
46	0x3da8bf3d	0.08239601
47	0x3d8fc4a9	0.07019932
48	0xbcf8eb97	-0.030385775
49	0x3cb1b022	0.021690432
50	0x3dc787ca	0.097426966
51	0xbd048ae5	-0.032359023
52	0xbcea2470	-0.028581828
53	0xbcf031db	-0.029320648
54	0xbdae4c8f	-0.08510696
55	0x3e392320	0.18079805
56	0xbe2f8b55	-0.17142995
57	0xbd772cb7	-0.060345378
58	0x3da21969	0.07915003
59	0xbe07c265	-0.1325775
60	0x3d0e5b9a	0.034755327
61	0x3cfec9f3	0.031102156
62	0xbe1118e3	-0.1416965
63	0xbd53fb5f	-0.051753398
64	0xbde9d936	-0.11418383
65	0x3d251c0a	0.040309943
66	0xbd68530e	-0.056719832
67	0x3e073e46	0.13207349
68	0x3cfc2391	0.030778678
69	0xbd84d77d	-0.06486414
70	0x3e3129c0	0.17301083
71	0x3cb82697	0.022479339
72	0xbdd670f9	-0.104707666
73	0x3e2c8669	0.16848148
74	0x3d6f1282	0.05836726
75	0x3ea13c8b	0.31491503
76	0xbeeb213f	-0.45923802
77	0x3de872f0	0.113500476
78	0x3e77642a	0.24159303
79	0x3e144e9d	0.14483114
80	0x3e968efd	0.29405966
81	0x3e7e122b	0.24811618
82	0xbeae1043	-0.33996782
83	0x3dc94ba8	0.098288834
84	0xbdb265d9	-0.08710832
85	0xbc19af76	-0.009380212
86	0xbbb02570	-0.0053755566
87	0xbe35a534	-0.17738801
88	0x3ec89ce8	0.3918221
89	0xbd122a45	-0.035684843
90	0xbeae7673	-0.34074745
91	0xbc4359b1	-0.01192324
92	0x3be63133	0.007024908
93	0x3d3e5575	0.046468217
94	0xbc8ea01d	-0.017410332
95	0xbdbfb03a	-0.093597844
96	0x3e461f89	0.19347967
97	0xbc65c164	-0.014023159
98	0xbe888967	-0.2666733
99	0xbdc14714	-0.09437385
100	0xbe349f55	-0.17638905
101	0xbc7b65d6	-0.015344104
102	0x3d620d25	0.055188317
103	0x3e249837	0.1607369
104	0xbdbb7b06	-0.09154324
105	0x3de87437	0.11350291
106	0x3ece90ce	0.40344852
107	0x3e8319fa	0.25605756
108	0xbe319446	-0.17341718
109	0x3f4fdad2	0.8119327
110	0x3e428a2d	0.18998022
111	0x3e45f85b	0.19333021
112	0xbe82419e	-0.25440687
113	0x3eae917f	0.3409538
114	0xbd73de13	-0.05953796
115	0xbece08d0	-0.40241098
116	0xbed4727e	-0.414936
117	0x3d2a5b13	0.04159076
118	0x3cf8bcbc	0.030363433
119	0xbebc0944	-0.3672582
120	0xbd49cc80	-0.049267292
121	0x3e66e816	0.22549471
122	0x3e196874	0.14981252
123	0xbdc2c8e6	-0.095109746
124	0xbc746f0b	-0.014919053
125	0x3e387ddc	0.18016762
126	0xbe01cae5	-0.12675054
127	0xbc9e8842	-0.019352082
128	0xbd84dba4	-0.064872056
129	0xbe00722d	-0.12543555
130	0xbd10cae7	-0.035349753
131	0xbd668fe1	-0.056289557
132	0xbe6cd9fc	-0.2313003
133	0xbdba1f8f	-0.090880506
134	0xbe150813	-0.14553861
135	0x3d9d86d2	0.076917306
136	0x3ef7f2c6	0.4842741
137	0x3e8b106d	0.2716097
138	0x3db42536	0.0879616
139	0x3e3eace1	0.18620636
140	0x3e377865	0.1791702
141	0xbe10da48	-0.14145768
142	0xbed5fb10	-0.41793108
143	0xbe17940f	-0.14802574
144	0x3e7a95cc	0.24471205
145	0x3e548b9d	0.20756383
146	0xbd354650	-0.04425651
147	0x3e5fd1ae	0.2185733
148	0x3e87ad6e	0.26499504
149	0x3db45b9b	0.08806535
150	0x3cdca9fc	0.026936524
151	0x3e0161c5	0.12634952
152	0x3cde83a4	0.02716238
153	0x3ba61442	0.005068333
154	0x3ddc42e0	0.10754943
155	0x3e2d91ec	0.16950196
156	0xbd770eb8	-0.06031677
157	0xbc3b582e	-0.011434598
158	0x3d6c9afc	0.057764992
159	0xbd28e7ab	-0.04123656
160	0xbd1232be	-0.035692923
161	0x3d7c3bd0	0.06158048
162	0x3e65ca35	0.22440417
163	0x3e35b4cf	0.17744754
164	0x3dd78f58	0.105253875
165	0x3d8b6fe5	0.068084516
166	0x3d7017a2	0.058616288
167	0x3c4e7ffa	0.012603754
168	0xbd1d5314	-0.038409308
169	0xbd2fe588	-0.042943507
170	0xbd00e68a	-0.03146986
171	0xbe18a6f3	-0.14907436
172	0xbe590b06	-0.21195611
173	0xbde4ebf5	-0.11177818
174	0xbe42c483	-0.19020276
175	0xbec331e1	-0.38123992
176	0xbea10652	-0.31450135
177	0xbe277446	-0.16352949
178	0xbe8e0ece	-0.2774567
179	0xbe5ef77b	-0.21774094
180	0x3db66b6c	0.08907208
181	0xbd008ce6	-0.03138437
182	0xbb87ab91	-0.0041403254
183	0x3d44d82b	0.048057716
184	0xbd0965cb	-0.033544343
185	0x3cd3cc15	0.02585415
186	0xbd2372fc	-0.03990458
187	0xbb430c9b	-0.0029762152
188	0x3e1ab175	0.15106757
189	0xbe4b72ce	-0.19868013
190	0xbc76f5aa	-0.015073219
191	0x3d9aede8	0.07564908
192	0xbd75b088	-0.059982806
193	0x3dce2ea0	0.10067487
194	0x3e94807b	0.29004273
195	0xbcd36999	-0.025807189
196	0x3dca7d8e	0.09887229
197	0x3e9f4a0d	0.31111184
198	0xbd7d73f3	-0.061878156
199	0xbe0ec518	-0.13942373
200	0xbe15790f	-0.14596961
201	0x3d63f120	0.055649877
202	0x3d85650c	0.06513414
203	0xbcb59cec	-0.022169553
204	0xbdb591a5	-0.0886567
205	0xbddb544c	-0.10709438
206	0xbd3d2c81	-0.04618502
207	0xbdf0793e	-0.11741875
208	0x3b86fa59	0.0041191992
209	0x3d58b9a6	0.052911423
210	0xbb5b7368	-0.0033485536
211	0x3db48410	0.088142514
212	0x3e227251	0.15863921
213	0xbdad6e31	-0.08468283
214	0x3cb70475	0.022340992
215	0x3d0f93ab	0.035052937
216	0x3ddf158b	0.10892781
217	0x3d8fed4a	0.07027681
218	0xbdf1c1bd	-0.11804531
219	0xbd5bf7f8	-0.05370328
220	0x3e2d25d9	0.16908969
221	0xbe15fad3	-0.14646463
222	0x3de24b14	0.11049476
223	0xbc14480b	-0.0090503795
224	0xbe34f7ed	-0.17672701
225	0xbc3d5cc6	-0.011557763
226	0xbcfcae74	-0.030844904
227	0x3d083ded	0.033262182
228	0x3d8af042	0.06784107
229	0xbe09f810	-0.13473535
230	0x3de48c19	0.11159534
231	0xbc502021	-0.012702973
232	0x3d9baee9	0.07601721
233	0x3d8199f9	0.06328196
234	0x3e8ecaba	0.27889043
235	0xbd132da2	-0.03593219
236	0xbe9c0724	-0.30474198
237	0x3eb98e34	0.36241305
238	0x3e5f249e	0.21791312
239	0x3d2ef247	0.042711522
240	0x3e0b0001	0.1357422
241	0x3de226b1	0.11042536
242	0xbd5de446	-0.054172777
243	0xbda8b8c5	-0.08238367
244	0xbcbb35b1	-0.02285275
245	0xbd939781	-0.072066315
246	0xbd7c9b31	-0.06167144
247	0xbe06bad7	-0.13157211
248	0xbd5f9a55	-0.054590542
249	0xbdcd643e	-0.10028885
250	0xbc91584a	-0.017742295
251	0xbddfff88	-0.109374106
252	0xbd28fa62	-0.04125441
253	0xbe8fb908	-0.28070855
254	0xbe26bc09	-0.16282667
255	0xbcb8010c	-0.022461437

layer1.0.conv2.bias f4 [16]
0	0xbb803102	-0.003912092
1	0x3c5e1e65	0.013557051
2	0xbb986f3a	-0.004651931
3	0x3acd8ef6	0.0015682864
4	0x3bd00fc3	0.006349535
5	0x3b892c39	0.00418618
6	0xbb298cc2	-0.0025871252
7	0xbbbf6c22	-0.005841748
8	0x3be9aca4	0.007131176
9	0xbbb48245	-0.0055086934
10	0xbc011b3e	-0.00788003
11	0x3c1d61a6	0.009605801
12	0xbbe676ce	-0.0070332056
13	0x3b755344	0.0037433663
14	0xb9ceb54a	-0.00039426453
15	0x3a88b616	0.0010430242

layer1.0.bn2.weight f4 [16]
0	0x3f7113b8	0.94170713
1	0x3f11e495	0.56989413
2	0x3f164bdd	0.5870951
3	0x3f1a0554	0.6016438
4	0x3f0b277a	0.5435711
5	0x3f0b046b	0.54303616
6	0x3f872a94	1.0559869
7	0x3fab533d	1.3384777
8	0x3f7d43c2	0.98931515
9	0x3f6a7907	0.91590923
10	0x3f265588	0.6497426
11	0x3fb680ec	1.4258094
12	0x3f82f557	1.0231122
13	0x3f919ac7	1.1375359
14	0x3f3e2f92	0.74291337
15	0x3f8bee7a	1.0932152

layer1.0.bn2.bias f4 [16]
0	0xbe67667f	-0.22597693
1	0x3ed1a79b	0.40948185
2	0x3f111104	0.5666659
3	0x3ee58c72	0.44833714
4	0xbf303523	-0.6883108
5	0x3eb1c68e	0.34721798
6	0xbe93778f	-0.28802153
7	0x3cf57491	0.02996281
8	0x3e1f793a	0.15573588
9	0xbc30c942	-0.010790171
10	0x3f0a90ae	0.54127014
11	0xbcd461ac	-0.02592548
12	0xbdf9e8c2	-0.12202598
13	0x3f03a673	0.51425856
14	0x3ca8aa52	0.020589028
15	0x3eb179d6	0.34663266

layer1.0.bn2.running_mean f4 [16]
0	0x3f82a686	1.0207069
1	0xbe0756c6	-0.13216695
2	0x3e902ad3	0.28157672
3	0xbe9af452	-0.30264527
4	0x3f0c0966	0.5470184
5	0x3ed73541	0.42032817
6	0x3f131a01	0.57461554
7	0x3ee440e0	0.44580746
8	0xbe1026ee	-0.1407735
9	0xbf6cc48d	-0.9248741
10	0x3cc59321	0.024118008
11	0xbf2434d1	-0.6414309
12	0xbf713721	-0.94224745
13	0xbf5130df	-0.81715196
14	0xbfbe15cb	-1.4850401
15	0xc00d2f28	-2.2060032

layer1.0.bn2.running_var f4 [16]
0	0x4033026d	2.797023
1	0x3f8a0324	1.0782208
2	0x3ff843c5	1.9395682
3	0x404211af	3.0323293
4	0x3f95932e	1.1685541
5	0x3fc8951e	1.5670507
6	0x407a97f0	3.9155235
7	0x403a2473	2.9084747
8	0x3fd06067	1.627942
9	0x3ff6ae9f	1.927204
10	0x4042c805	3.0434582
11	0x400e375d	2.222129
12	0x4024a7a7	2.5727327
13	0x408068b7	4.0127826
14	0x3fad26bc	1.3527446
15	0x4089cd67	4.3063235

layer1.1.conv1.weight f4 [16, 16, 3, 3]
0	0xbd5d7ab9	-0.054072116
1	0x3cd9064b	0.026492259
2	0x3c20affc	0.009807583
3	0x3e869cca	0.26291496
4	0x3db5440e	0.08850871
5	0x3ba3cca9	0.0049987626
6	0x3ec17c38	0.37790084
7	0x3e371ebe	0.17882821
8	0xbea9a0d1	-0.33130506
9	0xba38a51f	-0.0007043648
10	0xbd8fbf11	-0.07018865
11	0xbcf12e6d	-0.029441083
12	0x3d25bb4e	0.04046183
13	0x3b3ef1f4	0.0029135915
14	0x3cf35ee9	0.029708343
15	0xbd847f76	-0.06469624
16	0xbd8e24c9	-0.0694061
17	0x3d8cfd4b	0.06884249
18	0x3d978ef0	0.0740031
19	0x3d572a8d	0.052530814
20	0xbd2a2791	-0.04154164
21	0x3d501ca2	0.050808556
22	0x3cebbb1f	0.02877575
23	0xbd7f4782	-0.062324055
24	0x3dca02cb	0.09863814
25	0x3c96e31a	0.018418837
26	0x39fc967f	0.00048177314
27	0xbd2907c5	-0.041267175
28	0x3ccf85cf	0.02533236
29	0xbd8fc476	-0.07019894
30	0x3c7fbc21	0.015608818
31	0x3d9515bb	0.072795354
32	0xbc438659	-0.011933886
33	0x3ca3af46	0.019981038
34	0x3cfc5f24	0.030807085
35	0xbd3e77b1	-0.046500865
36	0xbd5108b6	-0.051033698
37	0xbd9fd528	-0.07804328
38	0xbdd4e0e2	-0.103944555
39	0x3e049ed7	0.12951218
40	0x3db119dd	0.08647511
41	0x3da0d9d3	0.07854047
42	0xbcbda1cd	-0.023148442
43	0xbc6fe8c2	-0.014642896
44	0xbd4d3aa3	-0.05010475
45	0xbd829302	-0.06375696
46	0xbbf21437	-0.0073876637
47	0x3dbd6e92	0.09249605
48	0x3d2d863d	0.042364348
49	0x3d6571da	0.05601678
50	0x3ceb62f3	0.028733706
51	0xbe307c87	-0.17235003
52	0xbc9e5d06	-0.019331466
53	0x3a78d3fa	0.0009492036
54	0x3e6b3052	0.22967651
55	0x3e9f5e95	0.31126848
56	0x3d39c856	0.04535707
57	0x3e4df67c	0.20113558
58	0x3eea173e	0.45720857
59	0xbd839fd2	-0.06426968
60	0xbe9e38df	-0.30902764
61	0xbd5b3771	-0.05351967
62	0xbe6836eb	-0.226772
63	0x3d86207e	0.06549166
64	0x3e4e898c	0.20169657
65	0xbdf4ac7a	-0.1194696
66	0xbe47360b	-0.1945421
67	0x3d956990	0.07295525
68	0xbe3fe9ce	-0.18741533
69	0xbcd83e70	-0.02639696
70	0x3e6f6f30	0.23382258
71	0x3cfe615f	0.03105229
72	0xbe9490de	-0.29016775
73	0xbeb444d6	-0.35208768
74	0x3ba53844	0.005042108
75	0x3d4997e1	0.04921711
76	0x3d090610	0.033453047
77	0x3ddd0963	0.10792806
78	0xbe11da48	-0.14243424
79	0xbe208c3f	-0.156785
80	0x3dded52d	0.10880504
81	0x3de754e0	0.112954855
82	0xbd8ca360	-0.06867099
83	0xbe04dd82	-0.12975124
84	0x3e8894a2	0.26675898
85	0x3d44738e	0.047961764
86	0xbe8fa048	-0.28051972
87	0xbcabd5ce	-0.020975973
88	0xbe25f76c	-0.16207665
89	0xbe2439ab	-0.16037624
90	0x3dfaee34	0.12252465
91	0x3e3ed3d9	0.18635501
92	0x3e3c9af1	0.1841848
93	0xbdffc4db	-0.12488719
94	0xbd5b1776	-0.05348917
95	0xbd09ba77	-0.033625092
96	0xbdc7b2e4	-0.097509176
97	0xbacee49a	-0.0015784681
98	0xbda65c26	-0.08123045
99	0xbe569474	-0.20955068
100	0xbdc3b536	-0.095560476
101	0xbcd7e5c0	-0.02635467
102	0x3dd0015c	0.10156509
103	0x3e8a8549	0.27054814
104	0xbd5a1f0c	-0.053252265
105	0x3e27a3c1	0.16371061
106	0xbd0b15ee	-0.03395646
107	0xbe507b6f	-0.20359586
108	0xbe9fabc4	-0.31185734
109	0xbe1cf040	-0.15326023
110	0x3d8ea1f9	0.069644876
111	0x3e15d8d9	0.14633502
112	0xbd011b03	-0.0315199
113	0x3e9f3180	0.31092453
114	0xbbc7e5cd	-0.0061003924
115	0xbe1cb78e	-0.15304396
116	0xbd6f3d34	-0.058407977
117	0xbe8d1e9d	-0.2756242
118	0xbe15653a	-0.14589396
119	0xbdab27d3	-0.08357205
120	0xbbc6baab	-0.006064733
121	0x3d68a572	0.056798406
122	0xbc1fdd25	-0.009757315
123	0xbe0de3b5	-0.13856395
124	0xba60d876	-0.0008577177
125	0x3e20e167	0.15710984
126	0x3a4b43fd	0.00077539665
127	0xbc46d795	-0.01213636
128	0x3d07c150	0.03314334
129	0x3d4b8278	0.04968497
130	0x3d98bbae	0.07457672
131	0x3d7bee1a	0.06150637
132	0xbbe27d76	-0.0069119288
133	0x3e361aae	0.17783615
134	0x3e280d60	0.16411352
135	0x3db5aaed	0.08870492
136	0x3e4191bd	0.18903251
137	0x3ded2a93	0.11580386
138	0x3e72fa88	0.23728383
139	0x3e7cf91d	0.24704404
140	0x3de83b60	0.1133945
141	0x3d206dd3	0.039167237
142	0x3c98d581	0.018656494
143	0xbd303617	-0.043020334
144	0xbde781e5	-0.11304072
145	0xbe8a75a6	-0.27042884
146	0xbe859b86	-0.26095217
147	0xbe9e6c74	-0.30942118
148	0x3c8a210b	0.01686146
149	0xbedff301	-0.43740085
150	0xb948378e	-0.00019094182
151	0xbe4e4e85	-0.2014714
152	0xbed26b70	-0.41097593
153	0xbddfb3f4	-0.10922995
154	0x3d707dc9	0.058713708
155	0x3e6d5b52	0.23179367
156	0x3dc3622f	0.095402114
157	0x3dc4b465	0.0960472
158	0xbcf49438	-0.029855832
159	0x3c3f47f4	0.01167487
160	0xbbc1d9f4	-0.0059158746
161	0xbcf8a3cb	-0.03035154
162	0x3d067da2	0.032834657
163	0xbd61eddd	-0.055158485
164	0xbdb4377b	-0.087996446
165	0x3d37645e	0.044773452
166	0xbe099cc0	-0.13438702
167	0xbdc80294	-0.09766117
168	0xbdb71d92	-0.08941187
169	0xbde55333	-0.111975096
170	0x3e193466	0.14961395
171	0xbd3ce4a4	-0.046116486
172	0x3da006e1	0.07813812
173	0x3dec756a	0.115458325
174	0x3dbecdc6	0.09316592
175	0x3d982775	0.07429401
176	0xbda20f24	-0.07913044
177	0x3c2a722b	0.010403196
178	0xbddd5fb2	-0.10809268
179	0xbd2bbad1	-0.04192621
180	0x3e21860c	0.15773791
181	0x3e05731c	0.13032192
182	0x3d838ea9	0.06423695
183	0x3d8b6c34	0.068077475
184	0xbcc9a5c9	-0.024615185
185	0xbd8a8b3e	-0.067648396
186	0x3c9d1a7f	0.019177673
187	0xbd07f382	-0.03319121
188	0xbc8976e6	-0.016780328
189	0xbc7c81c6	-0.0154118
190	0x3c1bb97f	0.009504675
191	0x3d9e99a2	0.07744147
192	0x3e3291d3	0.1743844
193	0xbd8249b2	-0.063617125
194	0x3cbb3ae5	0.022855232
195	0xbda8e927	-0.08247595
196	0xbde47b01	-0.11156274
197	0xbe883103	-0.26599893
198	0xbe334933	-0.17508392
199	0x3e3fe12c	0.1873824
200	0xbdfd0807	-0.12355047
201	0x3d4d0ea3	0.050062787
202	0xbf12e0ce	-0.57374275
203	0xbdc0e44d	-0.09418545
204	0xbef3d531	-0.4762359
205	0xbdd651e9	-0.10464842
206	0xbe043a46	-0.12912855
207	0x3eb1689b	0.3465012
208	0xbcc33654	-0.023829617
209	0xbda7b846	-0.08189444
210	0xbd9ce360	-0.07660556
211	0xbed86b65	-0.42269436
212	0x3eff21c4	0.4983045
213	0xbe843039	-0.2581804
214	0x3f2f2678	0.68418074
215	0xbd2255ac	-0.039632484
216	0xbd398ff1	-0.04530329
217	0xbe5edef5	-0.21764739
218	0xbcc7f554	-0.024408974
219	0xbec76405	-0.38943496
220	0x3d5a9023	0.053360116
221	0x3ed1fe26	0.41014212
222	0x3dc30e00	0.09524155
223	0x3e2876c1	0.16451551
224	0xbe9d5c54	-0.30734503
225	0x3aad6602	0.0013229253
226	0x3d20533d	0.039141882
227	0xbd893617	-0.0669977
228	0xbe24a547	-0.16078673
229	0x3c3b5b3a	0.011435324
230	0xbe2e6762	-0.17031625
231	0xb9c8a595	-0.0003827034
232	0x3d8bad93	0.06820216
233	0xbe34ff16	-0.17675433
234	0xbe9392b3	-0.2882286
235	0xbe6dc79f	-0.2322068
236	0x3b90ae1f	0.004415288
237	0xbde4bf3e	-0.11169289
238	0x3da3340c	0.079689115
239	0xbd07baae	-0.033137016
240	0x3dd5c06c	0.10437092
241	0x3d7627a3	0.060096394
242	0xbcebeee3	-0.028800434
243	0xbefa0add	-0.48836413
244	0x3f06710a	0.52516234
245	0x3de6778e	0.11253272
246	0x3f0c9c72	0.54926217
247	0x3db37736	0.08762972
248	0xbf370e08	-0.71505785
249	0x3e0d86a9	0.138209
250	0xbf2d9282	-0.6780168
251	0x3eab22d8	0.3342502
252	0x3e13e1e0	0.14441633
253	0xbe457a23	-0.19284873
254	0x3b9ff53d	0.0048815296
255	0x3b7c0c63	0.0038459531

layer1.1.conv1.bias f4 [16]
0	0xba9dd7f9	-0.0012042514
1	0xbc00585c	-0.0078335665
2	0x3bb8ad13	0.0056358664
3	0x3a0cb5d7	0.00053676724
4	0xbbc991cd	-0.006151414
5	0x3bf53cc1	0.007484049
6	0xbbfe178a	-0.007754271
7	0xbc070499	-0.008240842
8	0xbc092642	-0.008370938
9	0xbb85efee	-0.0040874397
10	0x3be29eef	0.006915919
11	0xbac7ae79	-0.0015234492
12	0x3c1e8074	0.00967418
13	0xba845692	-0.0010096601
14	0xbc031397	-0.008000276
15	0x39e7a5e7	0.0004418336

layer1.1.bn1.weight f4 [16]
0	0x3f5b3f65	0.8564361
1	0x3f725aec	0.94669986
2	0x3f2076c9	0.6268125
3	0x3f61f96d	0.8827122
4	0x3f647db1	0.8925429
5	0x3f41499d	0.7550295
6	0x3f4c0da5	0.7970832
7	0x3f473be2	0.7782575
8	0x3f5911fc	0.84793067
9	0x3f4682fe	0.7754363
10	0x3f7feb2a	0.99968207
11	0x3f6ca32e	0.9243649
12	0x3f314154	0.6924031
13	0x3f93434b	1.1504911
14	0x3f4c78ad	0.79871637
15	0x3f4bf889	0.7967611

layer1.1.bn1.bias f4 [16]
0	0xbf219370	-0.63115597
1	0xbea86c9c	-0.32895362
2	0xbf0206fe	-0.5079192
3	0xbeb53152	-0.3538919
4	0xbf016e35	-0.5055879
5	0xbf080955	-0.5313924
6	0xbe754a80	-0.239542
7	0xbe1a8b09	-0.150921
8	0xbee65327	-0.44985315
9	0xbedf8a08	-0.43659997
10	0xbec0d20f	-0.37660262
11	0xbe28fd00	-0.16502762
12	0xbe81ea1c	-0.25373924
13	0xbe912850	-0.28351068
14	0xbe9358e6	-0.28778762
15	0xbec71362	-0.38881975

layer1.1.bn1.running_mean f4 [16]
0	0x3f6f1697	0.93393844
1	0xc04d9165	-3.2119992
2	0x404390fa	3.0557237
3	0xc086bbb3	-4.2104125
4	0xc081026e	-4.0315466
5	0xc0388cbd	-2.88359
6	0xbf5144fe	-0.817459
7	0xbf1ba94d	-0.6080521
8	0xc005f049	-2.0927908
9	0xc0346ce5	-2.8191464
10	0xc0072ce8	-2.1121159
11	0x3eaad4da	0.33365518
12	0x40441ced	3.0642655
13	0xbfbb08c0	-1.4612045
14	0xc058c972	-3.3872952
15	0xc04ab363	-3.167199

layer1.1.bn1.running_var f4 [16]
0	0x4093e868	4.62212
1	0x4176ac3a	15.4170475
2	0x3ffa56de	1.955776
3	0x412c36fe	10.763426
4	0x40f7be96	7.742015
5	0x403e427c	2.972808
6	0x40d76abc	6.731779
7	0x4193511e	18.414608
8	0x409913e1	4.7836766
9	0x405347a7	3.3012483
10	0x41ba17ae	23.261562
11	0x420f5583	35.833508
12	0x408294e6	4.080676
13	0x4262a505	56.66115
14	0x40beba8e	5.960273
15	0x40881518	4.252575

layer1.1.conv2.weight f4 [16, 16, 3, 3]
0	0xbe92aea5	-0.28648868
1	0xbe54cd65	-0.20781477
2	0xbe48ef05	-0.19622429
3	0xbec0d044	-0.37658894
4	0xbe084754	-0.1330846
5	0xbe0aa461	-0.13539268
6	0xbe9fe328	-0.31227994
7	0xbe1bab51	-0.15202071
8	0xbd3d5a67	-0.046228793
9	0x3e122933	0.14273529
10	0x3e0f6610	0.14003778
11	0x3dd72047	0.10504203
12	0x3ea05e62	0.31322008
13	0x3e58d2dc	0.21174186
14	0x3ebfe524	0.37479508
15	0x3e5dc945	0.2165881
16	0x3e76aee3	0.24090151
17	0x3e6abb21	0.22922947
18	0x3d836744	0.06416181
19	0x3da8491e	0.08217071
20	0x3d8dd6dc	0.06925747
21	0xbe82f073	-0.25574073
22	0xbe7ed36e	-0.24885342
23	0xbe5babca	-0.21452251
24	0xbd7bb83e	-0.061455004
25	0xbc945395	-0.018106261
26	0xbc038736	-0.008027842
27	0x3e9b5a83	0.30342492
28	0x3d43bb5a	0.047786094
29	0x3e8b3ec6	0.2719633
30	0x3e9dd059	0.3082302
31	0x3eac74ec	0.33682954
32	0x3e1798e6	0.1480442
33	0x3e780fe3	0.2422481
34	0x3e1af2a1	0.15131618
35	0x3e4aa17d	0.19788165
36	0x3e57dbff	0.21080016
37	0xbe80ddd9	-0.25169256
38	0xbddff806	-0.109359786
39	0x3e4e07ac	0.20120114
40	0xbc80ae79	-0.015708195
41	0xbdd017d6	-0.10160796
42	0xbe0f52cd	-0.1399643
43	0x3d8d29e1	0.068927534
44	0x3d9e6092	0.07733263
45	0xbdf8baa8	-0.12144977
46	0x3e02f667	0.12789308
47	0x3d9d7e65	0.076901235
48	0xbd9cb7b1	-0.07652224
49	0x3deee35d	0.1166446
50	0x3e59a147	0.21252929
51	0xbdd6bb27	-0.10484915
52	0xbd2d9133	-0.0423748
53	0xbdf6b098	-0.12045401
54	0xbc881ee1	-0.016616287
55	0xbe15167a	-0.14559355
56	0xbd9eab3c	-0.07747504
57	0xbdd9b4ea	-0.1063021
58	0x3d446f87	0.047957923
59	0xbda8d120	-0.082430124
60	0xbbf355ad	-0.007425985
61	0xbd037942	-0.032098062
62	0x3e48f472	0.19624498
63	0xbe40fdc1	-0.188468
64	0xbdd1b45a	-0.102394775
65	0x3c21e975	0.009882321
66	0x3cd8ea1f	0.026478825
67	0x3e98152a	0.29703647
68	0x3e2746c1	0.16335584
69	0x3e43ecad	0.19133253
70	0x3eb80425	0.35940662
71	0x3d919300	0.07108116
72	0xb9ea78c2	-0.0004472193
73	0x3c0f4823	0.008745226
74	0xbce1fbe4	-0.027585931
75	0x3d393a2f	0.045221504
76	0xbe09e132	-0.13464811
77	0xbdeb42d6	-0.11487357
78	0x3d94e8a3	0.072709344
79	0xbe7236b6	-0.23653683
80	0xbde65e1f	-0.11248421
81	0x3c15a039	0.009132438
82	0x3da08225	0.07837323
83	0xbd8d2ccb	-0.06893309
84	0x3d8037ff	0.062606804
85	0x3c6dd2cd	0.014515591
86	0xbe67b95d	-0.22629304
87	0x3e593e28	0.21215117
88	0xbc0ce19c	-0.008598711
89	0xbeec4268	-0.46144414
90	0xbb347510	-0.0027535595
91	0xbe28f229	-0.16498627
92	0xbe44ffdb	-0.19238226
93	0xbc19dad0	-0.009390548
94	0xbdc9fcf5	-0.09862701
95	0xbd9dbb67	-0.0770176
96	0x3be79117	0.0070668566
97	0xbd4166fe	-0.04721736
98	0xbe3abd51	-0.18236281
99	0x3e0d7e5d	0.13817735
100	0x3e7870b3	0.24261741
101	0xbc85c1e0	-0.016327798
102	0x3e833a99	0.25630644
103	0x3f14dd82	0.58150494
104	0x3db39618	0.087688625
105	0x3e4290e5	0.19000585
106	0x3e55f5ea	0.2089459
107	0x3d991a2f	0.07475697
108	0xbe163475	-0.14668448
109	0xbcb900b8	-0.02258335
110	0xbdb6affa	-0.089202836
111	0xbe9a6436	-0.3015458
112	0xbdaf1c01	-0.08550263
113	0xbdaa9553	-0.083292626
114	0xbca09603	-0.019602781
115	0x3daca0b4	0.08429089
116	0x3e2d14fa	0.16902533
117	0xbd93780f	-0.07200634
118	0xbe8f877b	-0.2803305
119	0xbda1ed3f	-0.07906579
120	0xbe13183e	-0.14364716
121	0xbe380086	-0.1796895
122	0xbcdc438c	-0.026887678
123	0xbd624313	-0.05523975
124	0x3d282695	0.04105242
125	0x3dcdb9d3	0.10045209
126	0xbdad8396	-0.08472364
127	0xbc867e1a	-0.016417552
128	0xbceccdbe	-0.0289067
129	0xbe0cf442	-0.13765052
130	0x3cb95132	0.022621725
131	0x3dd55951	0.104174264
132	0xbe2c49ca	-0.16825023
133	0x3c1c2791	0.009530918
134	0x3e013de6	0.12621269
135	0x3d278452	0.040897675
136	0xbcb69db4	-0.022291996
137	0x3be0fb0f	0.006865866
138	0x3d91765f	0.071026556
139	0x3b437b30	0.0029828064
140	0xbd824fba	-0.06362863
141	0x3d2e7c67	0.042599108
142	0x3cff2328	0.031144693
143	0xbe2531f6	-0.1613234
144	0xbc9d73d7	-0.019220276
145	0xbd4090dd	-0.047013152
146	0xbde0f009	-0.10983283
147	0xbe37b846	-0.17941388
148	0xbe888bac	-0.2666906
149	0xbe27ce0c	-0.16387194
150	0xbe3fef63	-0.18743663
151	0xbe97321b	-0.29530415
152	0xbe97cacc	-0.2964691
153	0xbe151fbc	-0.14562887
154	0xbe54904d	-0.20758171
155	0xbd9415d9	-0.072307296
156	0xbe559ea2	-0.20861295
157	0xbe9fac27	-0.3118603
158	0xbe6c2b41	-0.23063375
159	0xbe669fbd	-0.22521873
160	0xbe221913	-0.15829878
161	0xbe485acb	-0.19565885
162	0xbc6f081f	-0.014589339
163	0x3d325af5	0.043543775
164	0x3d094961	0.033517245
165	0x3c3d46eb	0.011552553
166	0x3d5d9ea7	0.05410638
167	0x3cc5a4a0	0.02412635
168	0xbde2eecc	-0.11080703
169	0xbe0a9ba1	-0.1353593
170	0xbe3545e3	-0.17702441
171	0x3e508d76	0.20366463
172	0x3d80d1d8	0.062900245
173	0xbd8b69c4	-0.068072826
174	0x3e459622	0.19295552
175	0x3df74fa4	0.12075737
176	0x3d996f08	0.07491881
177	0x3d9d3a1e	0.076771006
178	0x3d197da3	0.037473332
179	0x3d9abab0	0.07555139
180	0x3de3f16d	0.11130033
181	0x3e4a02d3	0.1972764
182	0x3db0e9d6	0.08638351
183	0x3dce3000	0.10067749
184	0x3e1ca590	0.15297532
185	0x3d5a1b6b	0.053248804
186	0x3df82abb	0.12117525
187	0x3e1e7146	0.15472898
188	0x3cb99f95	0.022659102
189	0xbdf94a96	-0.12172429
190	0xbd533a42	-0.05156923
191	0x3d96873d	0.073500134
192	0xbd0381d1	-0.032106224
193	0xbc654f8f	-0.013996019
194	0x3d9f1b08	0.07768828
195	0x3a2ad83f	0.00065172085
196	0x3ddc4afc	0.1075649
197	0x3e20a6cc	0.15688628
198	0xbc62c385	-0.013840561
199	0x3df8f1e1	0.1215551
200	0x3e0d11c6	0.13776311
201	0xbdd5c3f9	-0.104377694
202	0x3d764549	0.06012467
203	0x3e159424	0.14607292
204	0xbe055610	-0.13021111
205	0x3d539574	0.0516562
206	0xbce3eb72	-0.02782223
207	0x3cf4d69f	0.029887496
208	0xbcb3e5ab	-0.0219601
209	0x3d78e305	0.060763378
210	0xbddb8965	-0.10719565
211	0xbe2c00e4	-0.16797215
212	0xbd2ed89e	-0.04268705
213	0xbd9076dc	-0.070539206
214	0xbe39006b	-0.18066566
215	0xbdb633de	-0.08896612
216	0x3cd8efb3	0.026481485
217	0x3dc3a164	0.09552267
218	0x3bd5ac7d	0.0065208063
219	0x3e1344da	0.14381734
220	0x3e390a29	0.18070282
221	0x3dcca99d	0.09993289
222	0x3e59cae0	0.21268797
223	0x3e87d7ed	0.26531926
224	0x3d9cf083	0.076630615
225	0xbe1a7785	-0.15084656
226	0xbd8129e1	-0.06306816
227	0xbc0fb76c	-0.0087717585
228	0xbdfd41fe	-0.12366103
229	0xbdf4b6d4	-0.11948934
230	0xbd9e41a8	-0.07727367
231	0xbcbb6535	-0.022875408
232	0xbc883a1a	-0.016629267
233	0x3d2bd24d	0.041948605
234	0x3d7116c1	0.05885959
235	0x3c7adff7	0.015312186
236	0xbcf2de0b	-0.029646894
237	0xbd656538	-0.056004733
238	0xbe05bfb3	-0.13061409
239	0xbd5d60dd	-0.054047454
240	0xbe10b926	-0.14133129
241	0xbdceb7a7	-0.10093623
242	0xbd294dd8	-0.041334003
243	0x3cf17b84	0.029477842
244	0xbc818343	-0.01580966
245	0x3dfc6855	0.12324587
246	0xbd14a772	-0.0362925
247	0xbdc67936	-0.09691088
248	0xbc211ac0	-0.009833038
249	0x3b6d189a	0.0036177994
250	0xbd8b4880	-0.06800938
251	0xbacf48a0	-0.0015814491
252	0xbe6842a4	-0.22681671
253	0x3c7eac40	0.015543997
254	0x3d8c64d3	0.06855168
255	0xbe4f8ce9	-0.20268597

layer1.1.conv2.bias f4 [16]
0	0x3be38bb9	0.0069441465
1	0xbacb9b07	-0.0015533873
2	0x3b120751	0.0022282193
3	0x3b9b3b92	0.004737326
4	0xbbc2ea54	-0.0059483442
5	0xbb7f588d	-0.0038962692
6	0xbc1dd58f	-0.009633436
7	0xbb1adade	-0.002362899
8	0xbafa058b	-0.0019075138
9	0x3c122fc8	0.008922525
10	0x3b5189de	0.0031973044
11	0x3ac4f5ce	0.0015026869
12	0xbb5c626d	-0.0033628002
13	0xbb397d33	-0.0028303384
14	0x394b91da	0.00019413923
15	0x3bf7ed3b	0.007566122

layer1.1.bn2.weight f4 [16]
0	0x3f389187	0.7209706
1	0x3f02ef43	0.51146334
2	0x3f377016	0.71655405
3	0x3e8b1be8	0.27169728
4	0x3f428fff	0.7600097
5	0x3ed2b079	0.41150263
6	0x3f0ab88d	0.5418785
7	0x3f6670ea	0.90016043
8	0x3f232d62	0.63741124
9	0x3f438164	0.7636931
10	0x3ee9d82c	0.4567274
11	0x3f54c526	0.83113325
12	0x3f780e49	0.968968
13	0x3f5e1172	0.8674537
14	0x3f88219e	1.0635259
15	0x3f004c33	0.5011627

layer1.1.bn2.bias f4 [16]
0	0x3eec535d	0.4615735
1	0x3ed330fa	0.41248304
2	0x3e7dbeaa	0.24779764
3	0x3df951ff	0.12173843
4	0xbc827811	-0.015926393
5	0x3de71b87	0.11284547
6	0xbf0fc8bf	-0.5616569
7	0xbec92d51	-0.39292386
8	0xbc8a46a0	-0.01687938
9	0x3c00f4c4	0.007870857
10	0x3e711a0c	0.23545092
11	0xbf7b5009	-0.98169
12	0x3dafe885	0.085892715
13	0xbe929bdf	-0.28634545
14	0x3e034653	0.12819795
15	0x3dfb00d3	0.122560166

layer1.1.bn2.running_mean f4 [16]
0	0x3ed7ddb7	0.42161343
1	0xbf680d5f	-0.906454
2	0xbf8ff0fa	-1.1245415
3	0xbe371915	-0.17880662
4	0x3d58f864	0.05297126
5	0x3e2eb701	0.17061998
6	0xbe8b39e7	-0.27192613
7	0xbefe0251	-0.49611142
8	0x3e9cd921	0.30634406
9	0xbf89d835	-1.0769106
10	0xbf73e758	-0.9527488
11	0x3ecb984f	0.3976464
12	0xbf20e541	-0.62849814
13	0xbcaafd82	-0.020872835
14	0xbf9a61e8	-1.2061129
15	0xbf21cb42	-0.6320077

layer1.1.bn2.running_var f4 [16]
0	0x3f85ee07	1.0463265
1	0x3f34fa72	0.7069465
2	0x3fc422e3	1.5323147
3	0x3f31d6cd	0.69468385
4	0x3ef5c092	0.47998482
5	0x3f03a412	0.51422226
6	0x3ef74b8e	0.4829983
7	0x3f2354f4	0.63801503
8	0x3f39041e	0.7227191
9	0x3f3eb4f4	0.7449486
10	0x3f69f2fb	0.91386384
11	0x3f0b6178	0.544456
12	0x3f7a9d54	0.97896314
13	0x3f9173c7	1.1363457
14	0x3fbd30fd	1.4780575
15	0x3f78c157	0.97170013
