Output/swift-iid-8W-linear-shark-attack-all-linear-2sgd-100epochs/r0-epoch_82-parameters.pt (torch, 731450 bytes, 92 tensors)

conv1.weight f4 [16, 3, 3, 3]
00000000: d47b 723e c46d 41be 4daa ae3d 823e 39be
00000010: f136 35bf 134b 07bf 3ea1 09be 8104 63bf
00000020: 46f7 2bbf 7d99 083d a640 383d 9068 b9ba
00000030: 1f3d 473e d84b c43e f11f bc3d 20c7 77be
00000040: e742 8ebe 9034 d4be 3857 07bf 45e9 9a3d
00000050: 8e95 15be 5bd3 f33e a4c1 ab3f c55b 573f
00000060: 0b98 773e d83b 743f 1d1e 223f 306e db3d
00000070: 3bf0 b43d 845a 2d3e dd26 a8bd 249c 4fbe
00000080: f48e 23bd d676 bcbd ce3f 99be 9507 06be
00000090: 1776 7f3e 59af 283e 0af0 533e 40ea be3c
000000a0: 6648 b4bd 1576 253d 641e 8aba f811 79be
000000b0: 98a0 f7bd f01e 823e 180e 133e 82cd 073e
000000c0: 5f56 a03d 26ae 8bbc 01c9 c6bc 6c24 70bd
000000d0: 33a1 8dbe 58d6 82be 2023 6bbd ff0e 64be
000000e0: 9095 44be d4b2 fb3b def3 7d3e 485c debc
000000f0: 3249 9b3d 7bab dd3e e08b 0abd e043 5ebe
00000100: 6072 8dbe e03c b7be fe6f 5dbe a7dc 043e
00000110: 43c8 93be 5997 f2be 5da4 8e3d 19ed 05bf
00000120: 5ae6 3ebe 389d bfbd f46f 2fbe 2ae8 523e
00000130: d206 343f 8a52 c53e 618d 1f3e b754 453f
00000140: 0543 4b3e 5a77 cdbe 4ccc 44bf ffb1 13bf
00000150: 2177 93be 5750 6ebe d59a b6be bbcc 373f
00000160: 41f7 773f 1445 e73e e43b 8ebe 78e2 04bf
00000170: 0005 b4be 7ea9 57be 4d17 8bbd 7158 4bbe
00000180: 5d2b 0d3f 7365 673f add1 df3e a4b6 6dbe
00000190: 0d7f 91be 623c 6ebc 0253 a2be 3d70 b3bd
000001a0: cbfe 0dbd 7cc5 253e f470 de3e 6b71 8d3e
000001b0: 23dc cdbc d0c5 293e 4340 aa3b e759 4e3d
000001c0: e54f 9c3e d497 f43d 5c70 ab3d d1d8 803e
000001d0: 1be2 143d 08ba 14be 10c6 57bd 776c 58be
000001e0: b0b0 bc3d e4aa a73e a364 1d3d bc7a 2a3e
000001f0: 8625 703e d951 34bd fdd8 76bd 6500 523e
00000200: 99e8 b83d 9f9b f63d 77f0 db3e 02b6 813e
00000210: de15 65bd 2d89 a93d d836 cbbd bc3d 1a3e
00000220: e0fc b33f 1723 ae3f 944f 703e 6319 773f
00000230: bc68 283f 7f1b 54bf 8c74 8fbe 1b7f 32be
00000240: 8c86 15bf 6233 90bf 6239 78bf 968d 21be
00000250: a8a4 80bf 2962 98bf 6adc 133e d050 8a3b
00000260: 8599 f93d 8d16 5d3e 1031 4dbe 1d14 84be
00000270: da8e fc3e 5f43 72bd 5846 e2be 5f4f e53e
00000280: 266c 273f 4fc4 113f 5c89 173f ddb1 bb3e
00000290: b7a8 9e3e 0b37 3bbe 90ce 99bf d838 d8be
000002a0: 47e4 a33e 81a6 8fbe 5439 673e 255d 283f
000002b0: c32a 3e3f 97c1 4b3f 46ed 94be e29e 99bf
000002c0: eb09 bfbe 07cb 353e b9fa b4be df21 b83b
000002d0: aaa5 893e e51e 393f b5f5 2c3f 0f33 d7be
000002e0: 91f7 3dbf 4bb8 b7bd a429 55be 7ad1 d6be
000002f0: b36e b33d 75c7 d33e 2869 c13f 912e 533f
00000300: 863e 303e f5fd 313f 45a9 803e 0853 e4be
00000310: 04d5 9dbf e734 2fbf 4fa2 3cbe c97b d33d
00000320: e006 32be cb22 00be 803b 7ebe c05e a4be
00000330: 71be 833e 3c85 2dbf 1cc4 e4bd 5b1d a6be
00000340: ac5e 8abe 5521 c7be b891 9bbe cedf 293d
00000350: a8eb b5bd 3b82 943e 6087 9d3e a248 1b3f
00000360: 814a dc3e e592 6ebc e020 bfbe 6b76 4e3f
00000370: 6fcc 103d 307a 32bf f9df f03e 2b06 c2bc
00000380: b102 b7be 2990 da3e c52d 40be 2157 f4be
00000390: e54a 433f a245 20be 5aac 48bf 1d8a ab3e
000003a0: 274b 16be 7a12 85be 5656 9c3e a74c f2bd
000003b0: c8f7 cbbe f0c9 373f 3112 c6bd 6957 3cbf
000003c0: 0ba6 fd3e 30d5 ca3c e97f 63be 11b6 223e
000003d0: d93b 6a3d 325a 783e 1422 b4be 3a0c 2abf
000003e0: 25a6 3fbe 82cb e3be d41b 45bf 9903 81be
000003f0: 85e8 223e a250 3d3d 2809 123e 3757 9cbd
0.23680049 -0.18889529 0.08528576 -0.18090251 -0.7078696 -0.5284893 -0.13440415 -0.8867875
-0.67174184 0.033349503 0.04498353 -0.0014145542 0.1945691 0.38339114 0.0918578 -0.24197054
-0.27785417 -0.41446352 -0.5286746 0.07564024 -0.14607832 0.4762219 1.341847 0.84124404
0.24179094 0.95403814 0.633272 0.10714376 0.08834883 0.1692906 -0.082105376 -0.20274407
-0.039931253 -0.09202354 -0.29931492 -0.1308883 0.24947391 0.1647314 0.20697036 0.023305058
-0.088028714 0.040395815 -0.0010537622 -0.24323261 -0.12091178 0.25414228 0.14360845 0.13261989
0.07828974 -0.017050814 -0.024265768 -0.058628485 -0.27662048 -0.25554156 -0.057406545 -0.22271346
-0.19197679 0.00768123 0.24800059 -0.027143613 0.0758232 0.43294892 -0.0338248 -0.2170558
-0.27626324 -0.3578863 -0.21624753 0.12974797 -0.28863725 -0.47381094 0.069649436 -0.5231491
-0.1864256 -0.09356159 -0.1713255 0.20596376 0.70322907 0.38539535 0.15581276 0.7708239
0.19849785 -0.4013012 -0.7687423 -0.57693475 -0.28801826 -0.23272835 -0.35665002 0.7179677
0.96861655 0.4516989 -0.27780068 -0.51908064 -0.35160065 -0.2106075 -0.06791554 -0.19857956
0.5514429 0.90389174 0.43714657 -0.23214203 -0.28417245 -0.014540764 -0.31703955 -0.08761642
-0.034666818 0.16188616 0.4344555 0.27625594 -0.025129383 0.16579366 0.005195649 0.050378706
0.30529705 0.119430214 0.0837104 0.25165418 0.036348443 -0.1452409 -0.05267912 -0.21135126
0.09213388 0.32747567 0.038426053 0.16648382 0.23451814 -0.04402337 -0.06026553 0.20507963
0.090287395 0.12041401 0.42956898 0.25334173 -0.055929057 0.08278117 -0.0992257 0.15062612
1.4061546 1.3604459 0.23467857 0.9652311 0.6578481 -0.82854456 -0.28018606 -0.174313
-0.5840843 -1.1265681 -0.9696256 -0.15776667 -1.0050249 -1.1904956 0.1443955 0.0042210594
0.12187485 0.21590634 -0.20038247 -0.25796595 0.49327737 -0.05914628 -0.44194293 0.44787118
0.65399396 0.5694017 0.5919397 0.36659136 0.30988094 -0.18282716 -1.2016163 -0.42230868
0.320101 -0.2805672 0.22580463 0.6576713 0.74284 0.7959227 -0.29087275 -1.2001612
-0.37312254 0.1775323 -0.35347536 0.005619272 0.26884204 0.72312766 0.6756242 -0.42031142
-0.7420588 -0.08970698 -0.20816666 -0.41956693 0.087613486 0.4136311 1.5110216 0.8249293
0.17211351 0.6952813 0.25129142 -0.44594598 -1.2330632 -0.684401 -0.18421291 0.103263445
-0.17385435 -0.12513272 -0.24827385 -0.3210354 0.25731233 -0.67781425 -0.111702174 -0.3244427
-0.27025354 -0.38892618 -0.30384612 0.041473202 -0.088828385 0.29005608 0.30767345 0.60657704
0.43025592 -0.01456139 -0.3732977 0.8064944 0.035351213 -0.69717693 0.47045878 -0.023684582
-0.3574424 0.4268811 -0.1876746 -0.47722724 0.76286155 -0.15651563 -0.7838799 0.3350381
-0.14677106 -0.2599066 0.3053462 -0.118310265 -0.3983748 0.7179251 -0.096714385 -0.7357088
0.49540743 0.024759859 -0.22216763 0.15889765 0.05718598 0.24253157 -0.3518225 -0.66424906
-0.18715723 -0.44491202 -0.7699559 -0.25198057 0.15909012 0.046219476 0.14261305 -0.076338224

conv1.bias f4 [16]
00000000: f875 6cbc 8100 16bc fd13 27bc 360a 9b3c
00000010: 2710 8f3c a405 a6bc f838 7fba 4430 9f3b
00000020: 6d15 7dbc a6e9 a7bc 757b bbbb e688 19bc
00000030: bc54 fbbb d07d 7b3c e4fe 803b 1efd 65bc
-0.014432423 -0.009155394 -0.010197637 0.018925767 0.017463757 -0.020266362 -0.0009735967 0.0048580486
-0.015447003 -0.020497154 -0.0057215043 -0.009371018 -0.0076700132 0.01534982 0.0039366353 -0.014037399

bn1.weight f4 [16]
00000000: 5a5a 5f3f 5340 143f 2ba9 043f 1ff0 8a3f
00000010: 528a 453f b2ee 7a3f c930 803f 6b2d 563f
00000020: a439 313f 774a 973f 6c1a 443f 90aa 783f
00000030: f9ee 873f 3fea 443f 11f4 753f 854b 513f
0.8724724 0.5791065 0.5182063 1.0854529 0.77164185 0.9802047 1.0014888 0.8366305
0.6922858 1.18196 0.76602817 0.9713526 1.0619804 0.7691993 0.9607554 0.8175586

bn1.bias f4 [16]
00000000: 8b73 543f 4fea e1be 41dc bb3d 594b db3d
00000010: 83ad 8bbe 5ae8 583e ef87 543f 9833 213f
00000020: 299a bf3e 803b 8cbd d747 f4be 3010 d33f
00000030: 70b5 8cbe f1a5 1a3f cd04 063f 22ec 143f
0.82988805 -0.44124076 0.091728695 0.10707731 -0.27280816 0.21182385 0.8301992 0.6296935
0.37422302 -0.06847286 -0.4771106 1.6489315 -0.27482176 0.60409456 0.52351075 0.5817281

bn1.running_mean f4 [16]
00000000: 21a4 af3f e941 633e 8392 113e cc38 683e
00000010: 4d44 1dbf 4d79 6abf d9ba a73e 48d4 f7be
00000020: c0bb 5cbd 5793 a63f 4f5e 713d d598 79bd
00000030: 5cc7 973b 15f8 253e 4c27 b03e 8571 4f3d
1.3721963 0.22193111 0.14216046 0.22677916 -0.61432344 -0.9159134 0.3275974 -0.48404145
-0.05388999 1.3013715 0.05892783 -0.060936768 0.00463192 0.16207917 0.3440498 0.05064537

bn1.running_var f4 [16]
00000000: 7089 8741 64e6 0640 a858 4140 e0be 6f41
00000010: 3a5c 0341 9fa2 f040 5017 4841 4ced 9a40
00000020: da9c 7041 95f8 7b41 f0fa b63f 875a 4b40
00000030: ff6f 2341 77c2 6c41 bcae ce40 c3eb 7341
16.942108 2.107812 3.0210361 14.9841 8.210016 7.519851 12.505692 4.841467
15.038294 15.748189 1.429533 3.1774004 10.214843 14.797477 6.45883 15.245059

layer1.0.conv1.weight f4 [16, 16, 3, 3]
00000000: 381f 3c3d de7d a03d b026 edbd 1f21 30be
00000010: 244f ddbd 8cc0 2bbe b1ae 32be 2eae cebb
00000020: 1428 103c 14f0 843d f214 853c 0e51 1dbe
00000030: 50ed e9bc e566 78bd 3c70 2ebe 1a9a 56bc
00000040: 6fe7 f0bb 84be 803c 1165 13bb 2e8c a4bd
00000050: a975 53bd c83e b7bd 655a 3bbe 59a4 37bd
00000060: 8b02 073e 2ceb e83d 2b33 043e d307 c4be
00000070: 5a26 efbe 281a 0fbf 2985 c3be d370 98be
00000080: 56f8 41be 8160 303d 4c8c 253e 8f8b 24bb
00000090: 98e1 56bd 3146 4a3c 92e5 3b3d b70f 04bc
000000a0: 4ef6 b73d 69c2 ba3d 4a0d a23b 7f4d d43a
000000b0: 63ca 723d be66 063e 0b76 8f3e 346b 093e
000000c0: d09a e83d a530 e4bc 6296 85be 9a88 77be
000000d0: 3d8f 66be 8421 303d 247e 77be 8c09 aebd
000000e0: 9e9c 50be 109f 11be 2ed4 1f3e 67b2 9cbe
000000f0: 68e9 b0be c85c 8cbe 70ba 1dbe c70c 2f3e
00000100: ce5f f63e 75ee 343e b181 10be 19fc 9bbe
00000110: 1607 11be e3d4 cfbe cfb4 35bf 26c9 f1bd
00000120: faad c23d 6608 3f3d 5270 a5bd 2710 053e
00000130: d0fc 0bbd 10f7 0ebe c7be b93d 027f 483d
00000140: 4e15 7f3c b1fd 7bbd 0a64 293e 6c63 383b
00000150: 22c5 3cbd a3e0 163e a732 8abd 614a 01be
00000160: 7007 cfbc 1333 ac3c b11c 2abe 9225 d4bd
00000170: 552c 8abd a0b9 7fbe 6c52 68bc 79ba 063e
00000180: 7cb0 27be 97f8 8abd 593d 503d a486 9fbe
00000190: 0fb6 31bd e37b f23e 17f3 8dbe 1cd3 ba3e
000001a0: dcc9 42bf 3750 4abd d4a0 663e b0d4 a03e
000001b0: 98cb a4bd a0a1 74bd 04c8 26be f399 603e
000001c0: d779 553d 8aeb b9be 16b7 383a 3d6b debd
000001d0: 7984 51be 87e7 083e f002 4d3e c692 12bd
000001e0: 18eb b23e 2e46 8d3d 53c7 72be 2e95 fa3d
000001f0: e0f5 a93d e2e1 393e 9838 433e 7208 56bc
00000200: 6605 073e c126 e63c a89b 86be d2a6 783b
00000210: e580 0dbb 6c78 0ebe 59b7 45bd 88e8 ce3d
00000220: 5cf3 c33d 09a3 503e af3c e6bd 1efa 483d
00000230: 2f7b 243f d14e 133e 6554 803e 9b6a 3d3e
00000240: 1762 e6bc 6c68 af3c da64 573c cfcf 3dbd
00000250: 7dd3 86bc 6310 2abd a528 c5bb 9bef ef3b
00000260: 8535 87ba b2e5 923d 1e67 413d 9bca a03d
00000270: fca1 eb3d 554e f13d 1be6 1c3e 2784 863d
00000280: a1ea 863d bf7c 443d 0f44 483d 6fd2 0c3d
00000290: 6eeb 86bc 96bd 953c 6e32 f53c cfe6 743c
000002a0: 28b5 27bc 61ad 95ba 17b0 a9ba 92bf 9d3c
000002b0: c12a 823b 2aa8 36bd d2e7 bf3d 1b0c 993d
000002c0: 8fcb b73d cb23 e23d 87e8 cf3d 38f4 ca3d
000002d0: 987e ad3d be56 eb3d 3a34 013e ece8 7f3d
000002e0: 9980 943d 7037 b63d f120 c03c fc64 133d
000002f0: 1db2 813d 7442 603d ed98 973d 0318 d13c
00000300: 7420 8fbd 7d2b adbc 428c 7dbc a3f2 cabd
00000310: 86d2 d8bd c1c1 3dbe 1b89 a7bc 7b65 c8bd
00000320: 06a2 c8bd 6605 453e 5fa5 4e3e 69d5 543e
00000330: 2df8 333d 2f05 e43d 766b a23d 2265 a3bc
00000340: f2d2 183d b204 233d a7df bf3c 56bf 2e3e
00000350: c915 0d3e f616 b03c 8428 bc3d bf41 a63d
00000360: a398 433c bd09 92bc 21f5 5dbc 6ad6 7d3d
00000370: 4866 503d 36fa 3d3d feae 673d efbe 013d
00000380: 3b31 953c eb58 523d 156d 1a3d 96a9 083d
00000390: e684 803d 6acd 553d 0c47 c73d 6ee1 a1bd
000003a0: 09de 87bd 5fb1 98bc b82c 673d 1825 003e
000003b0: 7767 aa3d 244a 663e a80c 3a3e 43d9 363e
000003c0: d4db c93d 412a d63d e6c1 993d 745c d33d
000003d0: 1643 68be 7aa3 073d 2d02 eabc 9296 0ebe
000003e0: 4705 4d3b b955 0e3e e975 2b3e b3bc cc3b
000003f0: 28eb fd3d 7dfa a93c 2c3f 5a3c e47c 683e
0.04592821 0.07836507 -0.11579645 -0.17200135 -0.108061105 -0.1677267 -0.17449452 -0.006307385
0.008798618 0.06491104 0.016245339 -0.15362951 -0.028555542 -0.060645003 -0.17035002 -0.013098264
-0.007351808 0.015715845 -0.002249066 -0.0803455 -0.05162588 -0.089475214 -0.18296202 -0.04483447
0.13184564 0.113729805 0.12910144 -0.3828722 -0.46708947 -0.55899286 -0.3818753 -0.29773578
-0.18942389 0.043060783 0.161668 -0.0025107597 -0.052461237 0.0123458365 0.045873232 -0.008060387
0.08982526 0.09119112 0.004945432 0.0016197412 0.059275042 0.1312513 0.28019747 0.13419801
0.11357653 -0.027855227 -0.26091295 -0.24173203 -0.22515579 0.043000713 -0.24169213 -0.08497915
-0.20372245 -0.14220834 0.15608284 -0.3060486 -0.34553075 -0.27414536 -0.15403152 0.17094718
0.48119968 0.17669089 -0.14111973 -0.30465773 -0.1416286 -0.40592107 -0.70979017 -0.11805944
0.0950584 0.04663887 -0.08078064 0.12994443 -0.034176648 -0.13961434 0.09069591 0.04894925
0.015569044 -0.061521236 0.16542068 0.0028135432 -0.046086438 0.1473413 -0.067479424 -0.1262603
-0.025272101 0.021020448 -0.16612507 -0.103587285 -0.06746737 -0.24973154 -0.014179807 0.13157071
-0.16375917 -0.06785696 0.050839756 -0.3115741 -0.043386515 0.47360143 -0.27724525 0.3648919
-0.7608926 -0.049392905 0.22522289 0.31412268 -0.08046645 -0.05972445 -0.16287237 0.21933727
0.05211815 -0.36312515 0.0007046325 -0.10860298 -0.2046069 0.1336957 0.20020652 -0.035784505
0.34944987 0.06898151 -0.23708849 0.12235485 0.0829885 0.18152574 0.19064558 -0.013063537
0.13185653 0.028094651 -0.2629063 0.003794123 -0.002159172 -0.13913125 -0.048270557 0.101029456
0.095679015 0.20374693 -0.11242043 0.049066655 0.64250463 0.14385535 0.25064388 0.18497698
-0.028122945 0.021412097 0.0131466035 -0.04634076 -0.016458267 -0.041519534 -0.006016808 0.0073222644
-0.0010315633 0.07172717 0.04721748 0.07851144 0.115055054 0.11782519 0.15322153 0.06568175
0.06587721 0.04797053 0.04889303 0.034380373 -0.016469683 0.018278878 0.029931273 0.014947607
-0.010236062 -0.0011419469 -0.0012946156 0.019256387 0.003972382 -0.044593967 0.09370388 0.07473012
0.089743726 0.11041983 0.10151773 0.09909862 0.084714115 0.11491154 0.12617579 0.06247799
0.072510906 0.088972926 0.023453208 0.035984978 0.063328005 0.054750875 0.07402215 0.025524145
-0.06988612 -0.0211389 -0.015475335 -0.099095605 -0.10587029 -0.18530942 -0.02045112 -0.09784981
-0.097965285 0.1924034 0.20180272 0.20784535 0.04393785 0.11133801 0.07930653 -0.019945685
0.037310548 0.0397994 0.023422075 0.17065176 0.13777842 0.021495324 0.09187415 0.08118009
0.011938247 -0.01782691 -0.013547213 0.06197206 0.050878793 0.046381198 0.05656337 0.03167623
0.018211951 0.05135433 0.037701685 0.033364855 0.06275348 0.05219785 0.09730348 -0.079043254
-0.06634147 -0.018639265 0.05643913 0.1251415 0.083205156 0.2248922 0.1816889 0.17856316
0.09856382 0.10457278 0.07507686 0.103203684 -0.22681841 0.033114888 -0.02856549 -0.13924626
0.0031283663 0.13899888 0.16744198 0.0062480806 0.12398368 0.020749325 0.013320725 0.22703892

layer1.0.conv1.bias f4 [16]
00000000: 07dc ab3a 0c05 c5bb b2ae 24bb 330a c03a
00000010: 969c f7bb f6ca dabb ed07 973a 584c 24bb
00000020: c8ab 5d3b 8a8f 1cbb 80bb 863b 9ed2 d03a
00000030: 3a01 0fbc 2143 e83a b432 dd3b ddac 7abb
0.0013111838 -0.0060125645 -0.002512854 0.0014651477 -0.0075565083 -0.006677027 0.0011522748 -0.0025069918
0.0033824313 -0.0023889267 0.004111707 0.001593191 -0.00872832 0.0017720201 0.006750429 -0.0038250007

layer1.0.bn1.weight f4 [16]
00000000: d2a8 503f 996a 353f 1ed8 363f d952 513f
00000010: 4f5c 723f 2f3c 303f b287 2f3f 1ffe 383f
00000020: 10f3 3d3f feab 813f b97c 933f 0cbd 1a3f
00000030: d10d 373f 59d3 003f 135f 283f ed78 0e3f
0.815076 0.7086578 0.7142352 0.8176704 0.946721 0.6884183 0.6856643 0.7226276
0.7419901 1.0130613 1.1522437 0.6044471 0.7150546 0.5032249 0.6577007 0.5565327

layer1.0.bn1.bias f4 [16]
00000000: 34ac 993d 6ff4 3dbf d230 203f 3d54 debe
00000010: 5a27 833f b386 cb3b f083 40bd 9a4a 003f
00000020: abeb aabe 8a59 2cbf 1619 fc3e a6a0 77be
00000030: 2bc1 393f 7a6f 673e 8d5b 08bf 0c46 06bd
0.07503548 -0.742011 0.62574494 -0.43423644 1.0246384 0.0062111258 -0.047000825 0.5011383
-0.33382925 -0.67324126 0.4923789 -0.24182376 0.72560376 0.22601119 -0.53264695 -0.032781646

layer1.0.bn1.running_mean f4 [16]
00000000: f559 fbbf 9114 0440 d43a 37c0 3d3b 9cbe
00000010: 95e4 eebf 8a94 8ec0 2e04 29c0 049b 9ebf
00000020: e0ed ef3f 51d5 a53f 553f edbf bf0b cf3e
00000030: 2526 b5be dcca c93f d4b5 3f40 d328 36bf
-1.9636828 2.0637553 -2.8629656 -0.30513945 -1.8663508 -4.455632 -2.64088 -1.2391057
1.8744469 1.2955724 -1.8534952 0.4043865 -0.35380664 1.5765033 2.995473 -0.7115604

layer1.0.bn1.running_var f4 [16]
00000000: 6d51 c540 22c4 bd3f cc56 7a40 3cbe ba3f
00000010: fd18 9340 cf1d 8240 6384 1e40 a329 4141
00000020: e1f6 9f40 fdb4 4e40 7d6f 0a41 219f e03f
00000030: a158 6340 5659 8640 7ac0 1340 0b0b 4640
6.1661897 1.482548 3.9115477 1.4589305 4.5968003 4.0661387 2.4768302 12.072665
4.9988866 3.2297966 8.652219 1.7548562 3.5522845 4.1984053 2.3086228 3.094424

layer1.0.conv2.weight f4 [16, 16, 3, 3]
00000000: 4b4b ad3d 0320 063e 947b 423e acca c03d
00000010: a8b4 8c3e 8522 aa3e efc6 91bd 984f f03c
00000020: a10c 063e 218e f43b 53de 27bd d060 a5bc
00000030: aa09 4a3c 0d70 a8bc f203 5abb 9679 3dbd
00000040: 6bd3 2fbd b349 41bd d8a5 9abc 1eb5 a5bd
00000050: f62b ed3d e8ff 023e 23d0 6e3c 3bbd b4bc
00000060: 6505 3d3e bf09 df3c f47a 803d 28bb 78be
00000070: 55c1 eabd bdf8 00bd b0d5 37be 46c8 0c3d
00000080: 4cd8 843e 01a5 9b3d 74f8 993e b5e9 f13e
00000090: c78c ca3d 2268 f03d 114f b3bd 43f2 023e
000000a0: 869e e03d ec56 77bd 25e9 d53c 05f4 69bd
000000b0: 77f8 17be b119 32be f724 6bbe c5ad 05be
000000c0: a3d2 30be f0a8 98bd 1d20 8d3d c507 55be
000000d0: 442f 8dbd 7897 433e 2177 c4bd 7c62 03be
000000e0: 6ddf a1bd 0bd0 a63d cf85 b43d 0c0d 2d3d
000000f0: 6263 b73e 05d4 863e 1902 6c3e f319 7cbe
00000100: f270 1ebd 56b4 6b3e fb01 44be ff0b bcbd
00000110: f551 163e 1b7a a7bd c755 60bd 9d81 423c
00000120: 4c56 57be 5ee7 62be 4ad8 55be 0ed9 9abe
00000130: b73a 99be 8ec0 abbe b34f 45be 362b 97be
00000140: 2402 98be 7324 be3c 9c1c 203d 813d 9bbd
00000150: 32da 193b 820f 233d 3787 6abd d195 a9bd
00000160: c1c7 d23c a97e b2bc 2cf4 d33d 04a5 9f3d
00000170: 99a4 133e f6e1 fcbd 862e 1abe 86fa 5e3d
00000180: 6f05 acbe 3611 86be f4e3 ba3c 310a 803d
00000190: d137 9e3d ad33 113d 302a b73d 84a4 5b3e
000001a0: 9831 ef3d ed01 753d 3cb4 863e f66b 863e
000001b0: 3f8b 82bc 2416 18be b494 d7bc d48c 00be
000001c0: d8a9 a6be be9d 3abe 2543 e23d 7aad e23d
000001d0: 4f92 643d d021 cfbe 20d4 99be c6be b03d
000001e0: 0229 57be 3030 82be 1966 c3bd f94f d13d
000001f0: d518 f8bc fda2 d8bc 21cd 6dbe ec34 a0bd
00000200: 24cd d4bd 2eba 19be a352 703d 91a6 fc3c
00000210: 89b6 87be 5a40 fabd 7023 d2bd 88cd 94bc
00000220: 5a5f 2e3e aab2 413e 6c76 e7bd d4f2 853c
00000230: 1de1 e33d 01af f8bd 681c 76be f8f8 50be
00000240: 2a59 a1be 9edf abbe ba99 1a3e 0e96 a4bc
00000250: 30cd a5be 8de4 5f3c b473 35be 59fe e93e
00000260: 7dca e3bd 9b4c 26bd 2a69 033b 1138 803c
00000270: 520a f0bd 2541 15be 1051 03be 5d1d 08be
00000280: bc26 dbbd d11f f1bd d42b c53c 26b3 c13e
00000290: a444 2abe 2a7a 6ebe d557 7e3e 6cdb 29be
000002a0: 248c f53c ff26 a5be 1bda 863e 517b 39be
000002b0: 540b d6bd 8b61 95bd 0373 23be 1c6a dfbd
000002c0: fe4d 07be 5e3b 77bd cfea fabc 69c6 4cbd
000002d0: bb4d a1bd 88a1 b2be 1481 a2bd f0a2 093f
000002e0: fb79 27bf 30af 22bd 55bb 64be 2457 723f
000002f0: 03e6 3abe 1b43 ab3c 43fe 813e ce09 5d3e
00000300: fb18 b1bc 3d88 c4bc d0cd 1cbd 003b 4e3b
00000310: 1f2b 42bd 97fe dbbd 41f8 bf3d 39e0 003d
00000320: edd7 02bd 279d 3b3c 0bbb 0d3e 7b95 f03d
00000330: 72a7 283b f132 c73d d71e 223e ff00 943c
00000340: 3d03 87be a4bc 98be d400 0c3d 0d02 9f3d
00000350: 5503 38be 37da 85be 288b 703e 5a18 223f
00000360: 6d28 e23b 7183 ad3e e312 753e ca54 1ebe
00000370: 0223 c43c f646 263e ab7e 24be 3ec4 92be
00000380: 7f04 1e3c ab73 3ebd 2cd5 79bd 9b52 9cbd
00000390: 8be9 b7bd 5c85 5cbd 71c6 1ebe 2cd6 e6bd
000003a0: 9793 acbd 15c3 55be cb96 0dbe 1ce6 8c3e
000003b0: 531c 15be b9eb 36bd c873 b33d 34ee 1e3e
000003c0: 0112 363e d167 6abf 1aca 553e 2e26 5d3c
000003d0: b696 98bc e574 e6bd ea89 cf3d 5020 273d
000003e0: 986e 05bd 9789 f73d 5855 e23d a648 19bd
000003f0: 35a3 2c3e 4d0d f3bd c813 9f3e 3903 ee3d
0.084616266 0.13098149 0.18992454 0.094136566 0.2748158 0.3322946 -0.07118022 0.029334828
0.13090755 0.007463232 -0.04098351 -0.020187765 0.012331406 -0.020561242 -0.0033266512 -0.04625853
-0.042926233 -0.047189426 -0.018877909 -0.08091186 0.115806505 0.12792933 0.014575991 -0.022062888
0.18459089 0.027226327 0.062734514 -0.24290144 -0.114626564 -0.031487215 -0.17952609 0.034370683
0.2594627 0.07599831 0.30072367 0.47248617 0.098901324 0.11738612 -0.08755315 0.12787728
0.10967736 -0.06038563 0.026112149 -0.05711748 -0.14840876 -0.17392613 -0.2296332 -0.13054569
-0.17267852 -0.07454097 0.06890891 -0.20803745 -0.06893781 0.1910075 -0.095930345 -0.12830538
-0.07903943 0.0814515 0.088145845 0.04224877 0.3581801 0.26333633 0.23047675 -0.24619274
-0.03868193 0.23018011 -0.1914138 -0.091819756 0.14679702 -0.08177587 -0.054769304 0.0118717225
-0.21029013 -0.22158572 -0.20883289 -0.30243725 -0.29927608 -0.33545345 -0.19268684 -0.29525155
-0.29689133 0.02321074 0.039089784 -0.0758009 0.0023476002 0.03980971 -0.057257857 -0.08280528
0.025730016 -0.021788912 0.103493065 0.07795146 0.14418258 -0.12347786 -0.1505681 0.054438137
-0.33597896 -0.26185006 0.022813775 0.06251944 0.0772549 0.035449672 0.089435935 0.21449476
0.11679381 0.05981629 0.26309383 0.26254243 -0.015935538 -0.14852196 -0.026316024 -0.12553722
-0.32551455 -0.18224236 0.11047963 0.11068244 0.055803593 -0.40455484 -0.3004465 0.08630137
-0.21011737 -0.2542739 -0.09540958 0.10220332 -0.030285278 -0.026444906 -0.23222782 -0.07822594
-0.1039069 -0.15012428 0.05867256 0.030841144 -0.2650645 -0.12219305 -0.102606654 -0.018164411
0.17028561 0.18915811 -0.11301884 0.016351141 0.11126921 -0.12142754 -0.24034274 -0.20407474
-0.3151334 -0.33569044 0.15097705 -0.020091083 -0.32383108 0.013665331 -0.17719918 0.45701864
-0.11122606 -0.0406004 0.0020051696 0.015651735 -0.117207184 -0.14575632 -0.12823892 -0.13292451
-0.10700747 -0.117736466 0.02406875 0.37831992 -0.16627747 -0.2328879 0.24838193 -0.16587609
0.02997405 -0.32256314 0.26338276 -0.18113448 -0.104513794 -0.072939955 -0.15961842 -0.10908911
-0.13213345 -0.06035935 -0.030629544 -0.049993906 -0.07876154 -0.34888864 -0.07934776 0.5376425
-0.654205 -0.039717853 -0.22337086 0.94664216 -0.18251805 0.020906022 0.253893 0.21585771
-0.021618357 -0.023990745 -0.038282216 0.0031468272 -0.047404405 -0.107419185 0.093735225 0.031463835
-0.031944204 0.011451042 0.13840882 0.11747261 0.002573457 0.09726513 0.15832077 0.018066881
-0.26369658 -0.2983142 0.034180477 0.07764063 -0.17970021 -0.26143047 0.23490584 0.6331841
0.006901792 0.33889344 0.23932986 -0.15462032 0.023942474 0.16238007 -0.16063945 -0.28665346
0.009644627 -0.04649703 -0.060994312 -0.07632943 -0.08980092 -0.05383812 -0.15505387 -0.11271319
-0.08426588 -0.20875199 -0.13827054 0.2751931 -0.14561586 -0.044658396 0.08762318 0.15520555
0.17780305 -0.9156466 0.20877877 0.013497872 -0.018626552 -0.112527646 0.10133727 0.0408023
-0.032576174 0.1208679 0.11051434 -0.0374228 0.16859134 -0.11867771 0.3106978 0.116217084

layer1.0.conv2.bias f4 [16]
00000000: 721a 70bb 101a 503c b3ca 8ebb dc92 c03a
00000010: aced c23b 1b7d 803b 90d4 1ebb 5759 b3bb
00000020: 03e1 da3b 281a a9bb ecd0 f1bb 7767 133c
00000030: 98e2 d7bb c7cd 653b c6b1 c1b9 320c 803a
-0.0036636856 0.012701526 -0.0043576597 0.0014692205 0.005948743 0.0039211637 -0.0024235584 -0.0054732966
0.0066796555 -0.005160589 -0.0073796418 0.008996836 -0.0065882914 0.003506528 -0.0003694428 0.000976926

layer1.0.bn2.weight f4 [16]
00000000: 6475 1a3f b050 c83f 1866 b13f 04af 793f
00000010: 64ff e53e 22e9 293f cdb8 df3f 7e71 473f
00000020: e8b4 723f 7d44 b33e dc6b 543f 5880 b73f
00000030: 0409 6c3f 9605 b43f 7a0f 323f bb3e ea3f
0.60335374 1.5649624 1.3859282 0.9753268 0.4492141 0.6637136 1.7478272 0.7790755
0.9480729 0.3501319 0.8297708 1.4336042 0.92201257 1.4064205 0.69554865 1.8300394

layer1.0.bn2.bias f4 [16]
00000000: d301 19bd 85e6 2ebe 66db 203e 2ba3 01bf
00000010: 840f 0d3e 33a9 f03e a53b 223f 0b5e 45be
00000020: 568b 2dbf 8729 c93e a876 753b ce5b b7be
00000030: e3f2 2ebe 0fbe 15be 0cd7 26bf 6a59 373e
-0.037355255 -0.17080124 0.15708694 -0.506396 0.1377545 0.4700409 0.6337226 -0.19274156
-0.67790735 0.39289495 0.0037454758 -0.3581223 -0.17084841 -0.14623283 -0.65171885 0.17905203

layer1.0.bn2.running_mean f4 [16]
00000000: dd47 5abf 6d35 3dbe 8fbb b63e fc98 2fbe
00000010: a1b5 023f 5b8c d5bf a129 e5be 75b7 26bf
00000020: 03ad f8bf 4982 af3f 936e e03d 3791 bbbf
00000030: a7ea cabe 2d2d 02bf 2bff 32be 945c f4be
-0.85265905 -0.18477412 0.3568997 -0.17148203 0.51058394 -1.6683458 -0.44758323 -0.65123683
-1.9427799 1.3711635 0.1095859 -1.4653691 -0.3963215 -0.5085018 -0.17480151 -0.47726882

layer1.0.bn2.running_var f4 [16]
00000000: 8fa4 2940 f11c 3740 64c5 1740 379f fe3f
00000010: 070e 483f 3647 973f d85d 9a40 b716 b03f
00000020: 4457 b13f b7d1 953f 9c83 943f 780f 1740
00000030: 7867 2640 466b 8d40 272f 9a3f a1c8 d240
2.6506689 2.8611414 2.3714228 1.9892339 0.78146404 1.1818607 4.8239555 1.3756932
1.3854756 1.1704625 1.1602664 2.3603191 2.6000652 4.419345 1.204564 6.586991

layer1.1.conv1.weight f4 [16, 16, 3, 3]
00000000: d76d 66be 44d1 90bd 6a51 d8bc 684e 73bb
00000010: b89b 2a3e ada7 1c3e b666 bebd d2af c73c
00000020: b8d9 c03c f5fb b8bc bf14 a6bc c6fb 1dbe
00000030: 5763 823e ffc8 903e da8e 03bc f358 613e
00000040: b878 6b3d 9345 25be 4804 933e 96ea 893e
00000050: f898 653d d15b 0c3e f14d ffb9 c155 403c
00000060: 942b 66be b5b4 1dbe 9251 73be eb3d 41be
00000070: 0a72 e13d ac0e ef3d 7363 9f3d 9d14 1f3e
00000080: c076 343d 1590 2c3c 1b77 84bc 7ab9 1bbe
00000090: 9966 eebd 5411 8f3d cfd4 653d bd2b c0bd
000000a0: 42b2 8b3d de73 0fbd f79d cbbd e88b 50bd
000000b0: d80a a7bd f951 953d fe5d 0e3d 3b93 203e
000000c0: 1fb8 fc3d 9384 18bc 094b 193e 5c7f 0cbd
000000d0: a34f a3bd 3209 573d 4723 493e 91a9 423d
000000e0: 9605 173e e863 81be 6616 d13d bac4 2ebd
000000f0: 2d3c a53d f50d 8a3e 2019 9bbd 0ba8 4dbe
00000100: 411e fdbc b8d6 31bd cb19 463e 154d 8f3e
00000110: 228c 453e e6ab 4dbe 6062 6dbe d0e8 aebe
00000120: e3d5 10be cf7a 0ebe c243 e5bc 88a9 ccbc
00000130: 7ef9 60bd 92eb 943d 491b 9a3d 9ff2 18bd
00000140: 76d9 843d e32a 70bd 155f 3cbc 3b50 043d
00000150: 4652 b4bd 915e 0e3d 6524 cb3d edd2 44bd
00000160: c392 9e3d 37b9 bb3d 2483 ef3d 2b31 8d3d
00000170: 0ae5 903d 393c 013e 71d9 e9bc a217 3cbd
00000180: b435 a23b 67a6 6ebc 418c 5ebd 98c5 79be
00000190: 3946 3cbe d4dd c4bc 85c2 85be fd84 b83d
000001a0: 6b70 5e3e db1e 243d 6e71 e93d eee4 89bd
000001b0: e683 123e 1dea cdbd 472c 38bd 9068 123c
000001c0: bfd7 18be 3f59 bebc 548c 2d3d 96de 8fbd
000001d0: 51d0 653d bd8e a5bd ce99 86be 4f90 cebd
000001e0: 2432 04be 3768 75bd 73bd 86be df44 863d
000001f0: 5333 c0bd eedc 0bbe a3d2 87bd 5694 f5bd
00000200: 2fbc 13be 0e5e 00be d005 44bd 546e 563c
00000210: 8056 08be f9dc d23c 8dbc fb3d 466d 723e
00000220: 42dd 9e3d 74c7 abbd d056 403e 2db0 9fbe
00000230: 1c07 73be 1236 8ebb 5d51 83be 108b 5f3e
00000240: d6af aa3d e077 9c38 800c 993d 2a66 7ebd
00000250: 3438 7fbd f662 923c 3477 383d 86e5 ce3d
00000260: 0862 fe3d 8a7b bbbe 68ae bbbc 6676 4cbe
00000270: 79df 5abd 189f cf3c 3dac 903e fd62 c1bd
00000280: d3b2 58bc f055 2ebe 16cc a93d 815d a23d
00000290: 0eb7 4bbe 9fda 363c 4f60 0c3e 2545 66be
000002a0: 21b6 83be 5fa5 fdbb fee2 1cbd 0a66 75bc
000002b0: c2f8 0dbe 9a0c eebd 6ca0 9e3d a4b8 bc3d
000002c0: d02b 4bbd 1155 2ebd bc02 f03d 5388 cd3d
000002d0: 6b27 8ebb 784c 0ebe 9f52 d9bd efca b7bc
000002e0: 9c9f 1ebe 6223 e9bd 119d b73d 0d2c 893c
000002f0: 2497 e73c fb47 063e 0136 97bd 0253 98bc
00000300: 8eac c63d fc64 cd3d 9d1f b1bc 47f3 803d
00000310: c486 7a3d 3c26 38bb 0d3a 803e 0a13 9fbd
00000320: bd4c 0bbe 8421 dfbd feba 483d 9691 b73d
00000330: ac8e 5c3d f7db 4ebe 2b2a 263e 24f0 a9be
00000340: 4613 2fbd bbac 5cbd a1db 20be 3863 a83c
00000350: c7c5 c3bb d4fa 4a3d 7ee2 ad3d 6470 7abc
00000360: f98b 9a3d bb88 833c 096e dfbc 3806 393d
00000370: ceab 333e 8df1 2ebc c260 3a3d b0fc e53c
00000380: 194e 3d3d 873c eb3a ac2f 0fbd 03de 513d
00000390: 8867 f1bb 711c c83b d992 f43d a78a 8a3c
000003a0: 8fb3 9c3c 5f48 c23d 71df a83d 33d3 f2bc
000003b0: 0e31 0e3c 6857 7d3d 1526 b5bd 5920 b0bd
000003c0: adf7 173e 2eb1 41bd ca95 353d 7cd9 503d
000003d0: 448b 00bd 798e e8bd dea4 56be 9891 bc3e
000003e0: 6f7d 76be 73be cabe 7a3a dcbd 8829 19ba
000003f0: 6b10 bcbd 2812 fdbd b9da 38bd 1378 0bbe
-0.22502838 -0.07071164 -0.026406009 -0.0037125591 0.16660964 0.15298338 -0.09296934 0.02437583
0.023541316 -0.02258108 -0.020273564 -0.15428075 0.25466415 0.28278348 -0.008029664 0.22006588
0.057488173 -0.16139822 0.28714204 0.26936787 0.056054085 0.137069 -0.0004869546 0.011739195
-0.22477561 -0.15400966 -0.23761585 -0.18871276 0.11008079 0.1167272 0.0778264 0.15535207
0.04405856 0.010532399 -0.016170075 -0.15207472 -0.11640663 0.06985727 0.056111153 -0.093833424
0.06821109 -0.03502261 -0.09942239 -0.050914675 -0.08156365 0.07291026 0.034757607 0.15681164
0.12339806 -0.009308952 0.1497003 -0.034301147 -0.07974174 0.052499004 0.19642363 0.047524992
0.14748225 -0.25271535 0.1020935 -0.04266808 0.08068118 0.26963773 -0.075731516 -0.20083635
-0.030898215 -0.043417662 0.19345777 0.27988496 0.19291738 -0.20085105 -0.23182058 -0.34161997
-0.14144091 -0.13914035 -0.027986411 -0.024983183 -0.054925434 0.07271494 0.075247355 -0.037340757
0.0648679 -0.05863465 -0.011497279 0.032303076 -0.08804755 0.034758154 0.09919051 -0.048052717
0.07742836 0.09166186 0.11694935 0.06894144 0.07074936 0.1262063 -0.028546067 -0.045920976
0.0049502496 -0.014566041 -0.054332975 -0.24391782 -0.18386163 -0.024031557 -0.2612497 0.090097405
0.21722572 0.04006849 0.11398588 -0.06733118 0.14308128 -0.10054419 -0.0449641 0.008936062
-0.1492605 -0.023235915 0.042370155 -0.07024877 0.05610687 -0.08083866 -0.2628922 -0.100861184
-0.12909752 -0.05991384 -0.26316413 0.06556105 -0.09384789 -0.13658497 -0.06631973 -0.119911835
-0.14427255 -0.12535879 -0.047857106 0.013087828 -0.13314247 0.025740134 0.122918226 0.23674497
0.07757045 -0.08387652 0.18783116 -0.311891 -0.23733181 -0.004339942 -0.25648013 0.21830392
0.08334319 7.460988e-05 0.07473087 -0.06210915 -0.06230946 0.017869454 0.045035556 0.10102372
0.12421042 -0.3661769 -0.022910312 -0.1996704 -0.053435776 0.025344416 0.28256407 -0.09442709
-0.013226229 -0.1702497 0.082908794 0.07927991 -0.19894049 0.011160522 0.13708614 -0.22487314
-0.2572489 -0.007740661 -0.038302414 -0.014977941 -0.13864425 -0.11623497 0.07745442 0.09214905
-0.04960233 -0.042561594 0.117192715 0.100357674 -0.004338195 -0.13896358 -0.10611462 -0.022435633
-0.15490574 -0.11383702 0.08965505 0.016744638 0.028270312 0.13113396 -0.07383347 -0.018594269
0.09700881 0.10029027 -0.02162152 0.062964015 0.06116368 -0.0028098961 0.2504429 -0.07767303
-0.13603492 -0.108950645 0.049006455 0.08963315 0.053847 -0.20201097 0.16227023 -0.33191025
-0.04274299 -0.053875666 -0.15708782 0.020555124 -0.0059745046 0.049555615 0.084904656 -0.015285585
0.07546229 0.01605641 -0.027274149 0.045171946 0.17546007 -0.010677707 0.04550243 0.028074592
0.046217058 0.0017947116 -0.034957573 0.051237117 -0.007367078 0.006106906 0.119420715 0.016911818
0.019128589 0.0948646 0.08245743 -0.029641723 0.008678688 0.061850935 -0.08845154 -0.0859992
0.14840575 -0.047288112 0.044332303 0.05098866 -0.031382814 -0.113552995 -0.2096133 0.3682983
-0.24071287 -0.39598426 -0.10753341 -0.00058426755 -0.09182819 -0.12356979 -0.045130465 -0.13620023

layer1.1.conv1.bias f4 [16]
00000000: 4bd5 93ba 1565 f0bb d6fd ac3b 8acc 033a
00000010: 15d0 bcbb 94b9 e53b 6c09 eebb 3af6 fcbb
00000020: fe77 00bc b0f1 7abb f94d d43b 450b bbba
00000030: 5273 143c 18f1 77ba 419b f5bb ae03 d939
-0.0011278776 -0.0073362687 0.005279283 0.0005027732 -0.00576211 0.007010648 -0.007264307 -0.007719782
-0.007841108 -0.003829103 0.0064790216 -0.0014270326 0.009060698 -0.0009458228 -0.0074953143 0.00041392207

layer1.1.bn1.weight f4 [16]
00000000: ae89 3b3f 1d13 853f 590b 5a3f 4e83 923f
00000010: c640 5a3f 2117 2c3f 6245 8c3f 757c 6e3f
00000020: 40e9 453f a235 113f 3527 493f 6149 313f
00000030: b44f 1f3f 99fe 663f 306d 1e3f ed64 5d3f
0.7325696 1.0396458 0.85173565 1.1446321 0.85255086 0.6722279 1.0958674 0.93158656
0.77309036 0.5672246 0.7857545 0.6925259 0.6223099 0.90232235 0.61885357 0.86482126

layer1.1.bn1.bias f4 [16]
00000000: 9e73 1bbf b53a 283e da90 86bb 9e1b b3be
00000010: a04f edbe 182c 98be 9492 dabe 965c 3fbe
00000020: 52e1 d13a cb6d 08bf 94b4 4dbe e208 19bf
00000030: 67d1 08bf 9f97 ddbe 50fd 13be a30e 2dbf
-0.6072329 0.16428645 -0.004106623 -0.34982008 -0.46349812 -0.2972114 -0.42689955 -0.18687662
0.0016012585 -0.5329253 -0.20088416 -0.5977918 -0.5344452 -0.4327974 -0.144521 -0.6760046

layer1.1.bn1.running_mean f4 [16]
00000000: 0e9b e3be d65f b3c0 745d e0c0 61ce 6fc0
00000010: 5c78 2cc0 4411 ba3c 25ea 44c0 24bc bac0
00000020: 0243 5cc0 1eaf 303f 22a1 3dc0 4abf ffbe
00000030: ae2b 103f a7a3 8dc0 3b16 9d3f 0c47 60c0
-0.44454235 -5.6054487 -7.011408 -3.7469714 -2.6948462 0.022713311 -3.076791 -5.8354664
-3.4415898 0.6901721 -2.9629598 -0.4995063 0.5631665 -4.426227 1.2272409 -3.5043364

layer1.1.bn1.running_var f4 [16]
00000000: d7ef 9240 53be 9041 5d65 0441 3638 de41
00000010: 6e3b f840 27af 0541 bab6 8541 5541 cd41
00000020: 49b2 cf40 0130 0540 8420 8741 f9b1 4540
00000030: 50f8 5540 0eec 8b41 db67 c040 5215 8140
4.5917773 18.092932 8.274747 27.777447 7.7572546 8.355262 16.714222 25.6569
6.4905133 2.081055 16.890877 3.0889876 3.3432808 17.490261 6.0126777 4.0338526

layer1.1.conv2.weight f4 [16, 16, 3, 3]
00000000: a1b2 ad3d b9a8 3f3e df32 ad3d 94af 183d
00000010: ac94 783d 9a8c 37bd bfb6 7b3d 5669 0b3e
00000020: e370 97bd 2dc2 9fbd 90cf bbbc 0173 683c
00000030: 8f54 cb3a 9b09 2e3d 927b e8bc 8e9d 8abd
00000040: 2671 86bd 1c6f d83c 7fd4 ddbd e783 c4bd
00000050: ae9e 4b3c 8c58 38bd c1de d4bd a2e6 fcbb
00000060: aeaf 8bbc 27f6 29bc 0611 83ba 8477 3cbd
00000070: 615c 17bd dc18 05be dda9 cabd 0bde 0fbe
00000080: 39bb 52be b371 e8bd 07fa 18be c17c cabd
00000090: c9a9 90bd 504b 02be c030 debd 71a9 3dbe
000000a0: 56e5 05be 776e c3bd 6104 0fbe 7919 29be
000000b0: 7491 bc3c 25d5 61bd 928b cb3c ff93 903d
000000c0: de40 5bbd 9dd5 7cbd 5e73 463d c80c 89bd
000000d0: 156c d9ba 7071 d13c aa93 163d 5425 0e3d
000000e0: 09dc 463c 5f68 8dbd 6012 973c c418 eeba
000000f0: 3204 023b 32a0 c7bc 4198 5fbd 3442 033d
00000100: 372e 083c 80ae 303d 035e ffbc 4332 71bc
00000110: d29e 003e 8ec6 2bbd 70c1 39bd 29f2 15bc
00000120: 239f 35bd 67ba 3abd 0f6e 5f39 f1fa 1bbd
00000130: 5d43 99bd d3bf 403d 1a43 0a3d ea9d 353d
00000140: 0505 413d adac e9bd fa19 8ebd 17bb a3bd
00000150: c854 18be 8fd9 c3bd 22d4 123b c375 29be
00000160: 3165 0fbc d398 3a3b 1718 2cbc d978 3bbc
00000170: 0117 72bd d38e 853d 5592 6e3d 3846 78bd
00000180: a399 773c f403 f43d c6c7 4ebd 595e ddbe
00000190: e109 a9be 1ac6 8fbe d6a7 ecbe 031a a9be
000001a0: f997 90be f7b9 c9be caf2 3fbe a9d0 01be
000001b0: 133f e7be bdb7 cdbe 1aac 97be 73cb e9be
000001c0: 7726 b9be 7c47 85be 3041 d8be 4996 9abe
000001d0: d82d 54be 6c2f f73d dc27 d63d c560 a23c
000001e0: 2aab 013e 9c95 9f3c fd7d 28bd 5a4a bbbd
000001f0: ee73 813d 6402 b93b 13e0 e8bc 4f67 abbd
00000200: 80f3 c23c db49 9ebd 425d ba3c 0f75 a43d
00000210: c94e 85bd 822a 833d a2a9 813d 99f8 0ebd
00000220: d902 7cbe af89 5ebe ac98 313d ed97 00be
00000230: 06e3 82be 5569 3e3e 07f0 093e a34e 5e3d
00000240: be2b 17be 8ef0 42be 7032 8bbd cd74 ad3c
00000250: 163a 10be 9a94 b2be c78a 00bd 5d63 e3bd
00000260: 3e9d 80be e87d 233e 1cd7 f1bd 058a 883e
00000270: aca1 9a3d 4717 a8be 7c93 07be d22c e03b
00000280: e78a c73e 49d1 09bf a8b5 b7bb 0e13 c93d
00000290: c18c a6be 3713 7ebe 36c8 373e 4d50 783e
000002a0: fa02 3d3e 8327 febe a503 693e c5dc bfbd
000002b0: 830e 0bbd ee73 383d 3030 fe3b 4852 08be
000002c0: 3691 53be 5eed 983e 84f2 01be ebfc b0bc
000002d0: c10a 22bd a177 29be 89ab 54bd a839 3abd
000002e0: 3f8e 2bbd a065 63bd 4942 f73c ce06 a3bd
000002f0: 5f92 0b3e 2947 37bd 1e7c fc3a 1255 e5bb
00000300: 58f4 aabd 2003 a1bd 38da bf3d dbcf 783d
00000310: 40cb cfbd ff85 bfbc 58d0 4b3e 7ac2 12be
00000320: 70ec 46be 362a c73e 56a1 0d3e eb8c 863e
00000330: fb79 9d3e 24c9 ef3e b162 92bd 660a bebd
00000340: 1d86 b0bd 12b1 2fbd e54f 28bd 7429 19be
00000350: a8fe 67be 5d4f 1ebd 1227 9cbc f1ca c1bd
00000360: 0762 9a3b 4c09 5c3e 3a42 a63d aab4 57be
00000370: bd24 e9bd 4011 353c 63ae a23e 0f5d a6bd
00000380: d30b 5bbe 6b12 b1bc dc3f 693c 46d8 ab3b
00000390: 70b5 21be af3f 16be ff27 45bd 41a1 7fbd
000003a0: 4613 30be f2e1 31be 2327 48bd 035b d33d
000003b0: 3057 1f3e 7771 d5bd 9bd9 c3bb 191f 193d
000003c0: 59c8 c93d b3fa 023c b734 86be fdc3 043e
000003d0: 4f5a 283d 6b96 53bd 593a 4b3d 84d3 11bb
000003e0: b6bd f8bd 22b0 0abd e150 29bd 81e3 f6bd
000003f0: 8070 b03d 85ee d43c 6f6b 123d 1d8f 463d
0.084813364 0.18716706 0.084569685 0.03727682 0.06068866 -0.044811822 0.061453577 0.13614401
-0.07394578 -0.07800708 -0.022926122 0.014187575 0.0015512871 0.04248963 -0.028379235 -0.067683324
-0.0656455 0.026420169 -0.10831546 -0.09595471 0.012427969 -0.04500632 -0.103940494 -0.0077179233
-0.017051544 -0.010373629 -0.000999958 -0.046012416 -0.036953334 -0.12997764 -0.0989568 -0.14049546
-0.20579232 -0.113498114 -0.14939128 -0.09887076 -0.07063634 -0.12724042 -0.10849142 -0.18521668
-0.13075766 -0.09542554 -0.13966514 -0.16513623 0.023018576 -0.05513491 0.024846826 0.07059478
-0.05352866 -0.061727155 0.048449866 -0.06691891 -0.0016587997 0.025566787 0.036761917 0.034703568
0.012137421 -0.06904673 0.01844138 -0.001816534 0.0019838926 -0.02436838 -0.05458856 0.032045558
0.0083118 0.043135166 -0.031172758 -0.014721456 0.12560585 -0.041937403 -0.045350492 -0.009151974
-0.044341218 -0.045587923 0.00021307937 -0.038081113 -0.07483552 0.047057938 0.0337554 0.04434005
0.047123928 -0.114098884 -0.069385484 -0.07994669 -0.14876091 -0.095629804 0.0022404273 -0.16548829
-0.008752153 0.0028472438 -0.01050379 -0.011442387 -0.05910397 0.06521382 0.05824502 -0.06061384
0.015112313 0.119148165 -0.050483488 -0.43236044 -0.3301535 -0.28080827 -0.462218 -0.33027658
-0.28240946 -0.39399692 -0.1874496 -0.12677254 -0.4516531 -0.40179244 -0.2962349 -0.45663032
-0.3616216 -0.260311 -0.42237234 -0.30192783 -0.20720613 0.12069592 0.10456821 0.019821534
0.1266295 0.019480519 -0.041135777 -0.09145041 0.0632094 0.005646037 -0.02842716 -0.08369314
0.02379775 -0.077289306 0.022749547 0.0803014 -0.06509168 0.06404592 0.06331183 -0.03490505
-0.24610461 -0.2173221 0.04335849 -0.12557955 -0.2556383 0.18594868 0.1347047 0.054274213
-0.1476278 -0.19037077 -0.067967296 0.021173859 -0.14084658 -0.34879 -0.03138235 -0.111029364
-0.25119966 0.15965998 -0.11808607 0.266678 0.07550368 -0.3283026 -0.13239855 0.0068412805
0.38973162 -0.5383497 -0.005606372 0.098180875 -0.32529262 -0.24812017 0.17947468 0.24249382
0.18458167 -0.4963952 0.22755297 -0.0936828 -0.033949386 0.045032434 0.0077572092 -0.13312638
-0.20660862 0.29868597 -0.12690169 -0.021604976 -0.039561037 -0.16549541 -0.0519214 -0.04546514
-0.041883703 -0.05551684 0.030182974 -0.07960282 0.13630055 -0.044745598 0.0019263064 -0.0069986666
-0.08347386 -0.07861924 0.09367794 0.0607451 -0.10146189 -0.023379324 0.19903696 -0.14332
-0.19426131 0.38899392 0.13831076 0.26279387 0.30757126 0.46833146 -0.0714773 -0.09279327
-0.0861933 -0.042893477 -0.04109182 -0.1495722 -0.22655737 -0.038649905 -0.019061599 -0.09462536
0.004711393 0.21487921 0.081181005 -0.21065012 -0.113839604 0.011051476 0.31773672 -0.08123218
-0.2139123 -0.021615228 0.014236417 0.0052442877 -0.15791869 -0.14672731 -0.048133846 -0.062409643
-0.17194852 -0.17371348 -0.04886545 0.103200935 0.15560603 -0.10422032 -0.0059768683 0.037383173
0.098526664 0.007994342 -0.26212093 0.12965389 0.04110175 -0.05165712 0.04961619 -0.0022251317
-0.121455595 -0.03385938 -0.041336898 -0.12055112 0.08615208 0.025992641 0.035746988 0.048476327

layer1.1.conv2.bias f4 [16]
00000000: b82b d53b 41b9 beba 2acb 083b 4166 913b
00000010: 809b b6bb 522c 6fbb c2d3 13bc 8509 11bb
00000020: 9833 eaba 42f5 083c b24d 443b e684 b83a
00000030: 1d74 4ebb 25c1 2dbb 8dbb 3e39 843c e83b
0.006505456 -0.001455106 0.0020873048 0.0044372384 -0.0055727363 -0.0036494923 -0.009022655 -0.0022130918
-0.0017868159 0.008359255 0.0029953537 0.0014077693 -0.0031502314 -0.0026512828 0.0001818968 0.007087292

layer1.1.bn2.weight f4 [16]
00000000: 1c14 d23e 3b75 523f f9b9 3d3f 954d f43e
00000010: 5259 153f 9528 423e 2d18 dc3e 57c3 043f
00000020: 27ea 2d3f ada4 4f3e 312e 9d3f 7ff7 873f
00000030: b25f 0d3f 0833 1d3f 1b4e 803e 4a73 673f
0.41030967 0.8221013 0.74111897 0.4771544 0.58339417 0.18960793 0.42987195 0.51860565
0.67935413 0.20277663 1.2279721 1.0622405 0.55224144 0.6140599 0.2505959 0.9041029

layer1.1.bn2.bias f4 [16]
00000000: 2513 023e 0fe2 b6be 931b 7fbe aa86 8c3e
00000010: 8356 583d b334 2b3e 2657 bdbf 7e11 3dbf
00000020: 2849 8d3e ade6 1a3d d988 603d 61ed 10bf
00000030: 884f 413e 320c 45bf d38d b83e 0d83 8dbf
0.12702616 -0.35719344 -0.24912862 0.2744649 0.05281688 0.16719322 -1.479222 -0.73854816
0.27594876 0.037817646 0.054818008 -0.5661221 0.18877995 -0.76971734 0.36045703 -1.1055619

layer1.1.bn2.running_mean f4 [16]
00000000: 195e 71bf 9152 7ebe eecc 653e b744 9e3c
00000010: 4f3b 32bd 5957 19be f653 0e3f f149 223f
00000020: 93f8 7f3f 7c19 803f ae9f c5be 54d0 8dbe
00000030: 5d1f 85bf 2790 39be fc2a 12bf 3d49 333f
-0.94284207 -0.24836184 0.22441456 0.019319875 -0.043513592 -0.14974727 0.55596864 0.63394076
0.9998867 1.0007777 -0.38598388 -0.27698004 -1.0400196 -0.18121396 -0.5709684 0.7003363

layer1.1.bn2.running_var f4 [16]
00000000: c062 813f d517 6c3f 56de 573f f2bc 6d3f
00000010: 9514 473f 1342 703e 68f0 fe3e 84bd ef3e
00000020: 6d52 343f c72c bb3e be9b bf3f 0165 833f
00000030: 92f7 623f fc49 573f 69bd e13e 0ead ff3f
1.0108261 0.92223865 0.8432363 0.9286643 0.7776578 0.23462705 0.4979279 0.46824276
0.7043827 0.365576 1.4969404 1.0265199 0.8865901 0.84097266 0.4408982 1.9974687

layer2.0.conv1.weight f4 [32, 16, 3, 3]
00000000: b7ee 4ebc bbb3 a73c a808 e23c 1efb ce3c
00000010: 79af 903c ec13 b73d 3adf 0fbc ceb0 1a3b
00000020: 1e79 cf3c 70ac 0c3d f7e3 f6bd a5b4 6b3d
00000030: 0ce8 c2bc f3fa d53d 0fbe ce3c 8afb 12be
00000040: 5d07 0dbd 3b65 34be fc78 82bd b2e4 c1bd
00000050: dd1a 49be 1e80 17bd 13af 803d e903 283d
00000060: 23ca 033c f132 27bc 5b16 e33d 18f2 a9bd
00000070: 7fd2 233e 20a2 273d 064d b4bd 3568 933d
00000080: 8926 c43c a705 ee3b fa90 593d 68de 4cbd
00000090: 32c3 e2bc 6756 bfbc 46f0 eb3c 3c06 583d
000000a0: e3ba 23bd a460 033d d436 7fbd 87ce b8bc
000000b0: 51fe be3b 0741 b73b 78ec 503c 9afb 90bb
000000c0: ab39 50bd 1065 ff3c e887 0abc 4643 bc3b
000000d0: f244 b93d 7d65 17bd b9fa 063d fe66 ca3c
000000e0: f605 1c3b ec34 78bd 4246 10bd 8e5a 62bd
000000f0: 2169 b1bd 2a83 aa3c bce6 d4bd 2b34 793d
00000100: 084c 21bc 62ed d53c 44ea 483d d470 693d
00000110: b02c 843d 73fc 9ebd 7c03 7a3d 8b53 1e3c
00000120: e125 fc3d 408b e0bd bc73 883d 7145 ee3c
00000130: 7593 7cbd 70cb bd3d f2ef c8bc 5087 debc
00000140: 36bb d23d 06b9 30bd 6489 27bc 9524 54bd
00000150: 465e 393d 3517 183d 7bac 1f3c 57ce 79bc
00000160: dd8d 18bd e1e6 363c c533 a23c 396f af3c
00000170: 3503 82bd 597a d43c 3bb5 073e 2a17 53bd
00000180: a0e5 60bc 254d 9e3d aa5f aabc 9a28 903e
00000190: 33d4 abbe fddc 60bc eeee e83e 2922 46bf
000001a0: d24f bb3e 80c3 543e 4d22 f2be 0991 d23e
000001b0: c0e2 7fbd 6fcb bf3b f007 26be 3417 943d
000001c0: 8b1a 003d 38e1 1bbe 7173 813c 0c8e e6bc
000001d0: b4a8 adbd 1346 163e dd87 31be aa69 ec3d
000001e0: cc19 da3e 8857 78be 151f bb3d 2a26 9b3e
000001f0: 52ef dabd e3b6 02bd 2196 e83b 6eb7 1fbc
00000200: d06e d63c fcd2 f23c 4b6e bd3c 3475 953d
00000210: f998 a9bc feba 16bc 2058 da3c 979c bdbe
00000220: edf5 3d3e c1e2 66be d17a adbe bb32 bd3e
00000230: 7f54 d7be b8fd e5bd 5753 ac3e 7c0a fcbe
00000240: f141 b23d 896a 593d 7697 b23c 6926 953d
00000250: c3a4 723d 3a00 493c 29e4 f23c 1be6 1c3d
00000260: 6004 96bc f2c4 0e3a 0ef4 6ebd 9ce8 0ebe
00000270: fa52 aa3d 8d5a 04bb 8c00 3fbe b544 28bd
00000280: 4120 7dbd 9a74 13be aa23 423c e2cf 8abe
00000290: 0d75 81bb 18e2 003e 2a2c aabd 6f09 49bd
000002a0: 06b5 ad3d 6745 0cbe 167a 6ebd 10b4 493e
000002b0: 1bde 153c e5f3 b03d 14c1 1c3e ba63 1d3b
000002c0: 4bcc 513d d4f7 a43d 83b2 a4bd 5487 1a3d
000002d0: 522a d1bc 86c5 35bd 1ac8 1dbe 6872 0fbd
000002e0: 3d42 72bc 2135 fdbd 62d9 ac3c a457 23bd
000002f0: 81e3 f2bd 4b49 833d 71af a73c 24ed 853d
00000300: 2b16 913c 0a35 01bd 4abc 1a3a 1289 593d
00000310: b64b 82bd 10a9 2dbc 6d50 613c 35d1 37bc
00000320: 1351 a4bd ba8c 2c3d edb4 08be 1805 4dbd
00000330: 9e08 223d 99f5 2bbe f063 d1bd 82bd 263c
00000340: 2fbf 4d3c 5698 30bc 1a3b 453d 9791 9b3c
00000350: 9749 f3bc 10c6 263d 3ca3 fe3c 522e 3a3d
00000360: d7b0 febc 28e0 793d 15b0 a5bb b388 3abd
00000370: 0201 c03d 0065 8abd 3832 813a 7ff3 0e3d
00000380: bccd 6abc 277b 5b3d 71ba 40bd fdd1 19bd
00000390: 35d2 8f3c 75a9 58bd 9c89 07bd f558 03bd
000003a0: 14d7 85bd 5b70 14bd 527b babc b148 6d3d
000003b0: 620a 56bd a10f bd3b 080d bf3c c48e f23c
000003c0: 7b69 68bd c833 bdbd 67db 92bd ab01 7bbe
000003d0: 1c85 9b3e 31f8 19be da4a 80be 10e0 ba3e
000003e0: 3959 58be 9c3f f3bd c8c3 d93e 35fe 98be
000003f0: 7372 6f3c 14dc 84bd 0aa3 653c 3594 ce3d
-0.012630156 0.020471444 0.027592018 0.025266226 0.017661797 0.08939347 -0.008781249 0.002360392
0.025326308 0.034344137 -0.120551996 0.057545323 -0.02379229 0.104482554 0.025237111 -0.14353767
-0.03443085 -0.17616741 -0.06370732 -0.09467448 -0.19639154 -0.036987416 0.06283393 0.041019354
0.008043799 -0.0102050165 0.11088248 -0.08298129 0.15998267 0.0409261 -0.088037536 0.0719761
0.023944156 0.0072638574 0.053116776 -0.05001679 -0.027680967 -0.02335663 0.028801095 0.05274032
-0.03997315 0.032074586 -0.062308148 -0.022559417 0.0058286567 0.0055924687 0.012751691 -0.0044245245
-0.050836246 0.03117612 -0.008455254 0.0057453243 0.090463534 -0.03696202 0.03295395 0.024707314
0.0023807264 -0.060597345 -0.035223253 -0.05526214 -0.0866263 0.020814497 -0.103955716 0.060840767
-0.009844787 0.02611417 0.049051538 0.056992367 0.06453836 -0.077629946 0.06103848 0.009663473
0.12311912 -0.1096406 0.066626996 0.029085847 -0.061664063 0.09267318 -0.024528477 -0.027164131
0.10289614 -0.043145202 -0.010225628 -0.0517927 0.04525592 0.037131507 0.009745712 -0.015246949
-0.037244666 0.011163444 0.019800076 0.02141534 -0.06348268 0.025937246 0.13252728 -0.051535763
-0.013726622 0.07729558 -0.02079757 0.28155977 -0.33560333 -0.013724563 0.4549479 -0.77395874
0.36584336 0.20777702 -0.47291794 0.41126278 -0.062472105 0.0058531086 -0.16213965 0.07230988
0.031275313 -0.15222633 0.015802117 -0.028143905 -0.08479443 0.14675169 -0.17336984 0.11543591
0.42597806 -0.2425214 0.09136788 0.30302554 -0.10690178 -0.031912696 0.007097975 -0.009748323
0.026175886 0.02964162 0.02312388 0.07297745 -0.020702826 -0.009199856 0.02665335 -0.3703353
0.18550844 -0.22547437 -0.33882764 0.36952767 -0.42056653 -0.11230034 0.33657333 -0.4922675
0.087039836 0.053080115 0.021800738 0.07282717 0.05923916 0.01226812 0.02964981 0.038305383
-0.018312633 0.0005446217 -0.058338217 -0.13955921 0.08316608 -0.0020195574 -0.18652552 -0.04108115
-0.061798338 -0.14399949 0.011849323 -0.27111727 -0.003950721 0.12586248 -0.08309205 -0.049081262
0.08481793 -0.1369835 -0.0582219 0.19697595 0.009147192 0.08640269 0.15308028 0.002401574
0.05122022 0.08055082 -0.08041861 0.037726715 -0.025532875 -0.044377826 -0.15408364 -0.035021216
-0.0147863 -0.12363649 0.02109975 -0.039878502 -0.11859799 0.06410464 0.0204694 0.065393716
0.017710766 -0.031544723 0.0005902691 0.053109236 -0.06362097 -0.01059939 0.013752085 -0.011219312
-0.08023276 0.042126395 -0.13350268 -0.050053686 0.039559 -0.16792907 -0.1022414 0.010177018
0.012557789 -0.010778507 0.048152067 0.018990321 -0.029698176 0.04071623 0.031083696 0.04545433
-0.031090183 0.061004788 -0.005056391 -0.045540523 0.09375192 -0.067575455 0.0009856885 0.034900185
-0.014331277 0.053584244 -0.047052804 -0.037553776 0.01755629 -0.05289598 -0.03309022 -0.032067258
-0.065351635 -0.036239963 -0.022763882 0.057930652 -0.052255996 0.0057696854 0.023321643 0.029609092
-0.05674122 -0.09238392 -0.07170754 -0.24512355 0.30374992 -0.15036084 -0.25057107 0.3649907
-0.21127786 -0.11877367 0.42532182 -0.29881445 0.014614689 -0.06487289 0.014015922 0.10086862

layer2.0.conv1.bias f4 [32]
00000000: a856 963b 9d60 a5bb 44c2 023c a450 a73a
00000010: 2aed 733b e544 c6bb 947b a6ba 8e64 a63a
00000020: 503a abb9 cd4b fcba b22d aa3a c494 d53b
00000030: 1185 0b3a 3210 1ebc ee01 d8bb c10e b1bb
00000040: 73a8 e7bb 0760 b43b a1fe b73a 9b75 78bb
00000050: 332c b4bb 3465 323c e616 543b c954 d6bb
00000060: cb59 c5ba c608 4f3a 59d8 cdba baa6 c03a
00000070: bcf3 353b 3182 b0bb 29ce bd39 32af aebb
0.004587967 -0.0050469176 0.007980887 0.0012765122 0.0037220218 -0.0060506933 -0.0012701624 0.0012694763
-0.00032659108 -0.0019248665 0.0012983589 0.0065179784 0.00053222576 -0.009647416 -0.006592027 -0.00540337
-0.0070696413 0.0055046114 0.0014037677 -0.0037911895 -0.005498433 0.0108883865 0.0032362281 -0.006540869
-0.0015056668 0.00078977307 -0.0015704735 0.0014698126 0.0027763685 -0.005386614 0.0003620249 -0.0053309435

layer2.0.bn1.weight f4 [32]
00000000: 17eb 7d3f 21c4 483f cb1c 1a3f e317 513f
00000010: 34cf 293f 96ab 5a3f 5c86 4c3f 8636 423f
00000020: 2ead 753f 831a 683f 363b 5d3f 1153 533f
00000030: 99ca 583f 0d23 413f fffb 3c3f 1072 3d3f
00000040: ae7e 663f 7bbb 4f3f b9fa 353f 1069 4c3f
00000050: eda9 3f3f c43d 5a3f c74b 553f 7c5c 563f
00000060: 536e 9b3f fd9e 483f deec 2d3f 57de 3e3f
00000070: 5483 853f acf5 303f 70c5 4c3f d072 483f
0.99186844 0.7842427 0.60200185 0.81677073 0.6633179 0.8541807 0.79892516 0.75864446
0.95967376 0.90665454 0.86418474 0.82548624 0.8468414 0.7544411 0.73822016 0.7400217
0.9003705 0.8114545 0.710857 0.7984781 0.7486866 0.85250497 0.8331875 0.8373487
1.2143043 0.78367597 0.67939556 0.74558014 1.0430703 0.69124866 0.79988766 0.7830019

layer2.0.bn1.bias f4 [32]
00000000: 7617 92be f6c8 01be bd3b d73b 4116 f3bc
00000010: 8b97 82bd 9557 05bf 22f6 223d 8191 a83d
00000020: 67ec c1bd ac44 6dbe 091c 53be 71ea 7abe
00000030: c4da 083e 9928 163e 505c 6cbe f8d2 b93e
00000040: 970a 36be 9662 6ebe a98d a93e 90fa 19be
00000050: 6bc6 5fbe df3a 383d 305a 4bbc 62f3 993c
00000060: a532 d2be b922 e3bd f12e ab3e 5b7a ac3c
00000070: c923 50be e18c e93e b131 863d bee5 2dbd
-0.28533524 -0.12674317 0.0065684007 -0.029673697 -0.06376561 -0.52086765 0.03978551 0.08230878
-0.09468918 -0.23170727 -0.20616163 -0.24503495 0.13364702 0.14663924 -0.2308209 0.3629377
-0.17777477 -0.23279795 0.3311589 -0.15036988 -0.21853034 0.04497802 -0.012411639 0.018792812
-0.41054264 -0.11090607 0.3343425 0.021054437 -0.20326151 0.45615295 0.06552447 -0.042455427

layer2.0.bn1.running_mean f4 [32]
00000000: 42e2 e9be da63 44be c03b ba3e 3571 2ebf
00000010: 0e89 7bc0 dc1c 89c0 8269 cb3f 4f37 ba3e
00000020: 7683 a740 ba7c eb3f 1f98 033e 08d0 6fc0
00000030: 7e02 90c0 a5f6 07c0 ed86 ad40 06eb fcc0
00000040: c5a3 14c0 86bd d53f ffd4 71c0 6596 01c0
00000050: 81fa b73f ec7f 2abe ec6b 35c0 3fc6 3240
00000060: 9deb 87c0 3e41 f7bf 254e c5c0 2b3f afbf
00000070: 2405 edc0 bf67 f1c0 9d67 68bd a52f 9c3f
-0.45680434 -0.19178715 0.3637371 -0.6814149 -3.9302402 -4.284773 1.5891573 0.36370322
5.2347975 1.8397439 0.12850998 -3.7470722 -4.500304 -2.124429 5.4227204 -7.9036894
-2.3224957 1.6698463 -3.7786252 -2.0248044 1.4373323 -0.16650361 -2.834712 2.79335
-4.2475114 -1.9316785 -6.165789 -1.3691152 -7.4068775 -7.5439143 -0.05673944 1.220204
