Output/swift-iid-8W-pattern1-ring-2sgd-200epochs/r2-epoch_86-parameters.pt (torch, 731706 bytes, 92 tensors)

conv1.weight f4 [16, 3, 3, 3]
0.046421785 -0.4512876 -0.5047683 -0.4349935 -0.4672469 -0.6553472 -0.06005548 -0.83476084
-0.45920357 0.0148395505 0.083533086 -0.15049326 -0.023294711 0.63360345 0.036226567 -0.13047428
-0.26493484 -0.24222924 0.0029741267 0.43152314 0.18924461 0.54597604 1.4082999 0.7026764
0.12005094 0.33294842 0.12770025 -0.62301207 -0.32728055 -0.76203305 0.12246123 0.097842105
-0.1529046 0.5376701 0.7675659 0.46553296 -0.040888537 0.87126034 0.25190863 -0.48938522
-0.18577269 -0.20437609 -0.29019493 -0.10310942 -0.03679878 0.49343136 1.1958209 0.62739867
-0.34133202 -0.17236626 -0.20371814 -0.54768 -0.40062487 -0.2873032 -0.04038908 -0.035516478
-0.07900383 -0.22338067 0.6830945 0.07507901 -0.3231594 -0.10395418 0.12809381 -0.18355805
-0.3328236 -0.56534994 0.33302572 0.914994 -0.19885781 -0.0050331773 0.15316583 -0.04976467
-0.2893538 -0.59086865 -0.8397039 0.67432076 0.8997794 -0.18532501 0.33306158 0.36629245
-0.044102773 -0.24996634 -0.17278124 -0.24139886 -0.04571363 -0.12948562 -0.119083874 0.22388004
0.12279249 0.13404296 -0.12020334 0.24027744 -0.0461499 0.05503564 0.30392745 0.13341078
-0.015740218 0.11612914 0.060222194 0.05778997 0.54832214 0.114958405 0.2594608 0.5916547
0.3084794 -0.18714713 -0.042181138 -0.1274824 0.18367182 0.48625514 0.283261 0.15413688
-0.063499205 0.2680522 0.07458351 -0.09192069 0.08910608 -0.15195675 -0.49509862 -0.3537075
-0.2284156 -1.0347283 -0.45145488 0.3045071 -0.2192659 0.13744564 0.017707605 0.0029900547
0.1040103 -0.2174902 -0.66126114 -0.19028556 -0.014223062 -0.16611338 0.13244754 0.43755442
0.5467237 0.18555544 0.5824184 0.19417426 -0.39404568 0.17028481 -0.26868698 -0.3916853
0.5851131 0.1638841 -0.37375182 0.49951583 -0.40208933 -1.0853684 0.272916 -0.27624375
-0.44696254 0.54105353 0.34121224 -0.17422521 0.480841 -0.13386485 -0.781444 0.38497654
-0.04263442 -0.3299443 1.0242507 1.1741291 0.68757766 0.16764209 -0.45785823 -0.3490556
-0.35697117 -1.0783844 -0.6668517 0.37973192 0.80666864 0.65902805 -0.14555685 -0.38134798
0.0021390996 -0.2857284 -0.68498355 -0.26436687 -0.2385876 0.26499072 0.33111385 -0.38059196
-0.116049096 0.27777985 -0.2825697 -0.18844482 0.25223428 -0.670143 0.068818234 0.17992255
-0.74932605 1.9852146 0.6543666 -0.26217586 -0.15650289 0.2836518 -0.037325613 0.14613439
0.15875755 -0.5745503 0.8673555 -0.1910392 -0.091690786 -0.96980923 -0.32851854 0.7088243
-0.10946606 0.10662767 -0.011679853 0.23693885 -0.78228205 0.4188487 -0.29713953 -0.27016792
0.07001354 -0.1294207 -0.1061175 0.6376775 0.68413085 -0.41440105 0.2985497 0.65294045
0.18002394 -0.31735066 -0.44402108 -0.42350233 -0.24617626 -0.47873455 -1.2079911 -0.48588422
-0.5141998 -0.5887209 0.1624914 0.5827255 0.7127315 0.15652752 0.34456688 0.056878842
0.040372327 0.37976295 0.49565476 0.25094992 0.5486063 0.63620436 0.26015058 -0.0054645916
-0.11186219 -0.2988699 -0.5928054 -0.3465295 -0.1527828 -0.42823297 -0.32913205 0.25967243
00000000: c524 3e3d 2b0f e7be 7f38 01bf 78b7 debe
00000010: fc3a efbe d6c4 27bf bcfc 75bd e3b2 55bf
00000020: bb1c ebbe 9621 733c 6513 ab3d e81a 1abe
00000030: 8dd4 bebc d633 223f 4f62 143d 0d9b 05be
00000040: 8aa5 87be f10a 78be 91e9 423b 9af0 dc3e
00000050: 57c9 413e 16c5 0b3f 2c43 b43f 9ae2 333f
00000060: 44dd f53d 3778 aa3e dbc3 023e b87d 1fbf
00000070: 5191 a7be 9914 43bf f4cc fa3d 7161 c83d
00000080: 0693 1cbe bfa4 093f 337f 443f 565a ee3e
00000090: bd7a 27bd eb0a 5f3f 2bfa 803e b390 fabe
000000a0: 323b 3ebe f747 51be 6e94 94be 082b d3bd
000000b0: 51ba 16bd 09a3 fc3e a910 993f 339d 203f
000000c0: 12c3 aebe c880 30be 7d9b 50be c234 0cbf
000000d0: b41e cdbe 6819 93be 056f 25bd ba79 11bd
000000e0: c3cc a1bd e7bd 64be 48df 2e3f 06c3 993d
000000f0: 2675 a5be eee5 d4bd 062b 033e a4f6 3bbe
00000100: db67 aabe c6ba 10bf 5982 aa3e 0c3d 6a3f
00000110: 62a1 4bbe 5aed a4bb 81d7 1c3e 0ad6 4bbd
00000120: 2e26 94be 2b43 17bf d6f6 56bf 49a0 2c3f
00000130: f157 663f d7c5 3dbe 0c87 aa3e af8a bb3e
00000140: 1ca5 34bd 2df7 7fbe 91ed 30be 4331 77be
00000150: 373e 3bbd e197 04be 3fe2 f3bd cf40 653e
00000160: a17a fb3d 8f42 093e 2b2d f6bd 4a0b 763e
00000170: ad07 3dbd 0d6d 613d 619c 9b3e d69c 083e
00000180: a1f1 80bc 1dd5 ed3d 8cab 763d 2db5 6c3d
00000190: d75e 0c3f 506f eb3d 0cd8 843e af76 173f
000001a0: 03f1 9d3e 7fa3 3fbe 21c6 2cbd bf8a 02be
000001b0: 7714 3c3e 6ff6 f83e 9607 913e 0fd6 1d3e
000001c0: df0b 82bd 233e 893e 3dbf 983d ea40 bcbd
000001d0: 407d b63d 8d9a 1bbe 917d fdbe 2619 b5be
000001e0: c7e5 69be fa71 84bf 1825 e7be 5be8 9b3e
000001f0: 3d87 60be 8dbe 0c3e 8a0f 913c cbf4 433b
00000200: 5a03 d53d c0b5 5ebe 6948 29bf 38da 42be
00000210: d907 69bc a019 2abe 54a0 073e 2207 e03e
00000220: 16f6 0b3f 3f02 3e3e 5f19 153f 9ed5 463e
00000230: 5bc0 c9be 245f 2e3e 5791 89be fa8a c8be
00000240: f9c9 153f 3cd1 273e 665c bfbe 8ac0 ff3e
00000250: a7de cdbe 5aed 8abf a5bb 8b3e d26f 8dbe
00000260: 46d8 e4be 7c82 0a3f 5fb3 ae3e 1868 32be
00000270: cb30 f63e de13 09be b70c 48bf a51b c53e
00000280: 6ea1 2ebd 76ee a8be a61a 833f dd49 963f
00000290: 1705 303f 5eaa 2b3e 656c eabe 6ab7 b2be
000002a0: edc4 b6be 8008 8abf cbb6 2abf 396c c23e
000002b0: d681 4e3f 10b6 283f db0c 15be 0b40 c3be
000002c0: 2330 0c3b fe4a 92be 155b 2fbf 185b 87be
000002d0: 4f50 74be ddac 873e c187 a93e f3dc c2be
000002e0: 26ab edbd 2939 8e3e faac 90be aef7 40be
000002f0: da24 813e 7e8e 2bbf 93f0 8c3d 9e3d 383e
00000300: d5d3 3fbf 831b fe3f 9284 273f ea3b 86be
00000310: 4b42 20be cf3a 913e bee2 18bd 41a4 153e
00000320: 5791 223e ba15 13bf 030b 5e3f c89f 43be
00000330: 61c8 bbbd 6b45 78bf 9533 a8be 8275 353f
00000340: be2f e0bd 9c5f da3d db5c 3fbc 19a0 723e
00000350: a343 48bf 5673 d63e ac22 98be 7353 8abe
00000360: 4263 8f3d dc86 04be 2254 d9bd d53e 233f
00000370: 3323 2f3f 602c d4be 82db 983e 1b27 273f
00000380: 3258 383e c97b a2be bb56 e3be 4cd5 d8be
00000390: a115 7cbe b21c f5be 749f 9abf d1c5 f8be
000003a0: 99a2 03bf 6ab6 16bf 2564 263e 802d 153f
000003b0: 9275 363f c048 203e 126b b03e caf9 683d
000003c0: 745d 253d 4a70 c23e 76c6 fd3e 827c 803e
000003d0: 7671 0c3f 4ade 223f 7532 853e 5110 b3bb
000003e0: 0118 e5bd 7a05 99be 18c2 17bf 516c b1be
000003f0: 1873 1cbe 5a41 dbbe ff83 a8be c9f3 843e

conv1.bias f4 [16]
-0.01597323 -0.01013238 -0.0112860715 0.020945625 0.01932753 -0.022429498 -0.0010774595 0.005375877
-0.017095644 -0.022684837 -0.006332054 -0.010371093 -0.008488658 0.016988134 0.004356799 -0.015535694
00000000: 4bda 82bc 4802 26bc 37e9 38bc 2996 ab3c
00000010: c554 9e3c 11be b7bc 8b39 8dba 2028 b03b
00000020: 2a0c 8cbc 8dd5 b9bc 1e7d cfbb 84eb 29bc
00000030: 0314 0bbc b32a 8b3c 7bc3 8e3b 6c89 7ebc

bn1.weight f4 [16]
0.7341866 0.6519561 0.86013675 0.7351328 1.221293 0.90011096 1.0210053 0.9544923
0.7690011 0.80121213 0.94527817 0.84382975 0.65542394 0.679163 0.9316326 0.9989228
00000000: a7f3 3b3f 98e6 263f ec31 5c3f aa31 3c3f
00000010: 5453 9c3f ac6d 663f 4db0 823f 9b59 743f
00000020: 42dd 443f 3d1c 4d3f c0fd 713f 3a05 583f
00000030: ddc9 273f a0dd 2d3f 797f 6e3f 68b9 7f3f

bn1.bias f4 [16]
0.583125 0.6583196 0.6100504 -0.22551112 -0.15864718 0.53773534 0.9184154 1.2464805
0.3608591 0.17308943 -0.22760524 1.4892488 0.07618049 0.56536466 0.28828064 0.59013003
00000000: ae47 153f a287 283f 432c 1c3f 63ec 66be
00000010: 6874 22be 06a9 093f 461d 6b3f ac8c 9f3f
00000020: 86c2 b83e 5b3e 313e 5911 69be b49f be3f
00000030: 8404 9c3d bdbb 103f 8599 933e c312 173f

bn1.running_mean f4 [16]
-0.060694367 -0.05420625 -0.2891039 -0.46031535 0.65214723 -0.008325196 0.06948281 -0.16669181
0.012089871 0.21113187 0.4757373 0.063778445 0.01037619 -0.16760132 0.07222988 0.040192943
00000000: a89a 78bd 5f07 5ebd 6d05 94be 74ae ebbe
00000010: 1ff3 263f 6766 08bc 014d 8e3d 42b1 2abe
00000020: 9814 463c f432 583e d793 f33e 469e 823d
00000030: e500 2a3c ae9f 2bbe 42ed 933d 5ba1 243d

bn1.running_var f4 [16]
8.380282 2.5122 7.04832 5.882881 9.847837 15.360474 18.183994 3.7832112
3.052759 2.9098656 6.7767944 3.1437988 2.3889682 4.7500043 4.4574547 12.111902
00000000: a315 0641 e3c7 2040 d68b e140 9040 bc40
00000010: be90 1d41 80c4 7541 d278 9141 2220 7240
00000020: 6760 4340 3d3b 3a40 80db d840 0034 4940
00000030: dbe4 1840 0900 9840 78a3 8e40 5aca 4141

layer1.0.conv1.weight f4 [16, 16, 3, 3]
-0.018628698 -0.08836966 -0.12026888 0.028205303 -0.033753157 -0.09607123 0.0817024 0.0213574
-0.027074154 -0.1372264 0.09463859 0.09788909 -0.15426552 0.029999517 0.16196467 -0.23188448
-0.25624585 -0.10234312 -0.05648623 -0.018465178 -0.109729104 -0.0053362837 0.066910565 -0.1254419
-0.006168341 0.12500882 0.0072330963 0.26407465 0.24968196 0.17867762 0.23964365 0.19699153
0.09927933 0.13230085 0.109575085 0.021142632 0.019705625 0.03735926 -0.013282073 0.21846661
0.34762615 0.17120245 0.007527368 0.13659665 0.049905885 -0.01697562 0.14731386 0.07701758
0.04384899 0.1862152 0.17094246 -0.061518997 0.09044288 0.16107473 -0.054192428 -0.058202513
-0.10048316 -0.17122512 -0.062395845 0.068527214 -0.14810887 -0.05656433 -0.0021085127 0.08523421
0.1757265 -0.042935178 0.14439999 0.26918793 0.1689302 -0.122378305 0.02453527 -0.1289449
-0.031852327 0.29129496 0.110309675 0.07650123 0.2959497 0.19355954 -0.1439116 0.01708506
0.05242915 -0.059268076 -0.07265174 -0.12400195 0.12622915 0.065239735 0.0027694714 0.06865292
0.16363627 0.054789275 -0.1890827 -0.19415943 -0.19669706 -0.11564691 -0.13487671 -0.12794524
-0.08765544 -0.09269098 -0.07526512 -0.06320261 0.04613318 0.057486124 0.10450818 0.09410291
-0.0032671825 0.016051112 -0.1123445 -0.010050978 -0.118057735 0.103781685 0.15536548 -0.12519687
-0.014882271 0.18496643 -0.12933396 -0.015921863 0.16427314 -0.044069637 0.25952914 0.27691093
-0.05280732 0.3216056 0.27855065 -0.30303684 0.05918876 0.018971106 0.07900426 0.23540108
0.19349058 0.09095158 0.23876424 0.26703593 0.018192956 0.06751196 0.13912867 -0.11560992
-0.031667586 0.01869273 -0.12459457 0.04605625 0.17569639 -0.03203815 0.04123336 0.017044937
-0.010341726 -0.089195386 -0.33824164 0.13306266 -0.07765078 -0.15882507 0.27563712 0.06023068
-0.030577553 0.0034532277 -0.09472478 0.07855964 0.20495939 -0.006296647 0.0764047 0.21124306
-0.007646295 0.14238033 -0.09605521 -0.0678837 -0.088882856 -0.034348533 -0.15791994 0.08493229
-0.01598471 -0.11429555 0.033430036 -0.012915343 0.02576702 0.046965454 -0.0020132675 0.0076201316
0.1017983 -0.017212935 -0.051513035 0.08823509 -0.085919164 0.052625254 -0.032151822 -0.1211346
0.07139753 -0.028853612 -0.11833061 -0.074544206 -0.01625408 0.012002352 -0.088379115 -0.057298806
-0.014740775 -0.16887341 -0.20814526 -0.1540086 -0.19904293 -0.11021292 0.14103127 0.21618438
-0.29427743 0.077430695 0.0918699 -0.40855202 0.052678376 0.03420511 -0.18541285 0.03962355
0.17010942 0.182411 -0.27777827 -0.54283136 0.58902746 -0.12680797 -0.27851006 0.5164008
-0.06439469 -0.20817171 0.016695118 0.2897976 -0.24758095 -0.1668202 0.18768872 -0.024198154
-0.021862004 0.02867198 0.053621043 -0.04135988 0.114801906 0.03416126 -0.14811705 0.030007914
0.043931376 0.002381504 -0.07703679 -0.07308594 -0.10766993 -0.029475907 -0.023963328 -0.1893339
0.060362402 0.069723405 -0.14527714 -0.13724847 0.0024636583 0.1475406 -0.011826572 0.52906334
-0.3424171 0.041338775 0.37159005 -0.22394797 -0.052687086 -0.11544551 -0.11573339 0.084744416
00000000: 369b 98bc 27fb b4bd 884f f6bd cf0e e73c
00000010: c040 0abd fec0 c4bd 9753 a73d b7f5 ae3c
00000020: 9eca ddbc 1485 0cbe e1d1 c13d 137a c83d
00000030: c8f7 1dbe 8cc1 f53c 11da 253e 2073 6dbe
00000040: a832 83be 4599 d1bd 1b5e 67bd 4944 97bc
00000050: a7b9 e0bd fedb aebb 6808 893d d773 00be
00000060: cb1f cabb 5002 003e 9c03 ed3b cb34 873e
00000070: a1ac 7f3e 44f7 363e 2565 753e 26b8 493e
00000080: f652 cb3d e079 073e e768 e03d 5033 ad3c
00000090: b16d a13c 0606 193d 0d9d 59bc b6b5 5f3e
000000a0: 0efc b13e b24f 2f3e 24a8 f63b fedf 0b3e
000000b0: 1d6a 4c3d 7510 8bbc 72d9 163e 65bb 9d3d
000000c0: 009b 333d 33af 3e3e 8a0b 2f3e 58fb 7bbd
000000d0: 1e3a b93d c6f0 243e e1f8 5dbd c265 6ebd
000000e0: 1dca cdbd a355 2fbe c992 7fbd ff57 8c3d
000000f0: daa9 17be 00b0 67bd f92e 0abb 468f ae3d
00000100: a6f1 333e ccdc 2fbd 97dd 133e 00d3 893e
00000110: 0afc 2c3e 7aa1 fabd 31fe c83c 220a 04be
00000120: 9677 02bd 9d24 953e 0aea e13d adac 9c3d
00000130: b886 973e 7934 463e 905d 13be f8f5 8b3c
00000140: f3bf 563d 15c3 72bd 6fca 94bd bcf4 fdbd
00000150: 3742 013e 699c 853d 0580 353b e799 8c3d
00000160: 4490 273e b86a 603d e59e 41be bbd1 46be
00000170: f46a 49be 4ad8 ecbd 1f1d 0abe 1404 03be
00000180: b284 b3bd c5d4 bdbd 9924 9abd 5f70 81bd
00000190: 25f6 3c3d 9276 6b3d 6208 d63d 07b9 c03d
000001a0: 3a1e 56bb 9f7d 833c e014 e6bd dbac 24bc
000001b0: 41c8 f1bd 7e8b d43d 2118 1f3e 9c33 00be
000001c0: c5d4 73bc d767 3d3e 1f70 04be 916e 82bc
000001d0: 3837 283e 5d82 34bd 01e1 843e 45c7 8d3e
000001e0: 7d4c 58bd 7da9 a43e 319e 8e3e a527 9bbe
000001f0: ea6f 723d 4b69 9b3c fccc a13d fb0c 713e
00000200: 6522 463e d244 ba3d 9d7e 743e efb8 883e
00000210: 6509 953c b643 8a3d bf77 0e3e e5c4 ecbd
00000220: dfb5 01bd 7f21 993c 702b ffbd 7aa5 3c3d
00000230: c1e9 333e 6f3a 03bd 50e4 283d d3a1 8b3c
00000240: 5870 29bc 12ac b6bd 022e adbe 9441 083e
00000250: 5f07 9fbd 0aa3 22be 4f20 8d3e 72b4 763d
00000260: c77d fabc 8c4f 623b 11ff c1bd e0e3 a03d
00000270: e0e0 513e 1a54 cebb 117a 9c3d 1a50 583e
00000280: c58d fabb 26cc 113e 98b8 c4bd 9c06 8bbd
00000290: 3708 b6bd 0cb1 0cbd c4b5 21be fbf0 ad3d
000002a0: 5ef2 82bc c913 eabd efed 083d e09a 53bc
000002b0: 5c15 d33c d95e 403d 06f1 03bb 4cb2 f93b
000002c0: a17b d03d 2402 8dbc 55ff 52bd 99b4 b43d
000002d0: 63f6 afbd 948d 573d a1b1 03bd 6b15 f8bd
000002e0: de38 923d 695e ecbc 5257 f2bd a2aa 98bd
000002f0: 4727 85bc 83a5 443c 1c00 b5bd 27b2 6abd
00000300: 4b83 71bc 27ed 2cbe 0824 55be 6eb4 1dbe
00000310: e9d1 4bbe 50b7 e1bd 806a 103e 705f 5d3e
00000320: 88ab 96be fc93 9e3d 4926 bc3d bb2d d1be
00000330: 48c5 573d a81a 0c3d dedc 3dbe 4e4c 223d
00000340: 2a31 2e3e f3c9 3a3e f438 8ebe fff6 0abf
00000350: 81ca 163f f3d9 01be df98 8ebe d832 043f
00000360: 5de1 83bd f72a 55be 33c4 883c 5a60 943e
00000370: dc85 7dbe ead2 2abe 7931 403e 353b c6bc
00000380: f217 b3bc 80e1 ea3c bda1 5b3d fa68 29bd
00000390: 431d eb3d adec 0b3d ffab 17be 28d3 f53c
000003a0: 63f1 333d 0213 1c3b 77c5 9dbd 15ae 95bd
000003b0: 0d82 dcbd 7577 f1bc be4e c4bc bfe0 41be
000003c0: 913e 773d 25cb 8e3d 88c3 14be dd8a 0cbe
000003d0: 5475 213b e214 173e 3dc4 41bc b270 073f
000003e0: 4b51 afbe d952 293d 0d41 be3e 9e52 65be
000003f0: 6ace 57bd b26e ecbd a105 edbd 7b8e ad3d

layer1.0.conv1.bias f4 [16]
0.0014510357 -0.006654297 -0.0027810428 0.0016213262 -0.008362773 -0.007389536 0.0012751892 -0.0027744449
0.0037434092 -0.0026439948 0.0045504654 0.0017632509 -0.009659952 0.0019611274 0.0074709663 -0.0042331964
00000000: ae30 be3a 4a0c dabb 2842 36bb ae82 d43a
00000010: 0304 09bc ec23 f2bb 4024 a73a 76d3 35bb
00000020: fc53 753b df46 2dbb 121c 953b e21c e73a
00000030: c644 1ebc 4286 003b 02cf f43b a0b6 8abb

layer1.0.bn1.weight f4 [16]
0.5197246 0.92066175 0.82814896 0.6150601 0.7587667 0.77558213 0.7734259 0.7709922
1.186956 0.532862 0.9316072 0.5190956 0.72128004 0.7089006 0.54095936 0.5527496
00000000: ac0c 053f 7db0 6b3f 9201 543f 9474 1d3f
00000010: 893e 423f 8d8c 463f 3dff 453f bf5f 453f
00000020: 2dee 973f a569 083f cf7d 6e3f 73e3 043f
00000030: cfa5 383f 827a 353f 507c 0a3f ff80 0d3f

layer1.0.bn1.bias f4 [16]
-0.064035706 -0.15229192 -0.51216066 0.25802746 0.0011462679 0.87183374 -0.524859 -0.20578144
-0.61494666 0.09399902 0.34984776 0.011289649 -0.19578585 0.34355095 0.38749993 -0.31945783
00000000: 2725 83bd 6af2 1bbe f61c 03bf 2d1c 843e
00000010: 5e3e 963a 7f30 5f3f 295d 06bf 5fb8 52be
00000020: 256d 1dbf 8f82 c03d 3f1f b33e 38f8 383c
00000030: 167c 48be e9e5 af3e 6466 c63e fa8f a3be

layer1.0.bn1.running_mean f4 [16]
2.3988187 -0.2700712 -1.4806894 -2.976617 -1.0103372 -2.0807564 1.2903761 -2.1222389
-0.7600857 -2.1219628 -4.8746943 -0.5520344 -2.215801 -0.5262488 -3.5622628 2.0195613
00000000: 3f86 1940 c646 8abe 3b87 bdbf e580 3ec0
00000010: bb52 81bf 1d2b 05c0 0b2b a53f c3d2 07c0
00000020: fa94 42bf 3dce 07c0 7ffd 9bc0 2052 0dbf
00000030: afcf 0dc0 3eb8 06bf 1dfc 63c0 7e40 0140

layer1.0.bn1.running_var f4 [16]
2.0309489 6.172788 2.5902698 2.214992 7.528561 3.9042463 2.7063713 4.4708476
6.3362465 1.5248501 7.1230865 3.6319573 2.7669468 3.0686195 2.0473251 1.2619019
00000000: 11fb 0140 7b87 c540 fbc6 2540 6ec2 0d40
00000010: f9e9 f040 2cdf 7940 3035 2d40 2f11 8f40
00000020: 88c2 ca40 4a2e c33f 53f0 e340 fd71 6840
00000030: a815 3140 4364 4440 6007 0340 0086 a13f

layer1.0.conv2.weight f4 [16, 16, 3, 3]
-0.008129695 -0.051350754 0.10292681 -0.25635937 -0.26483002 -0.05914056 -0.21388136 -0.18583773
0.12556258 -0.042935234 -0.036816724 -0.03897632 0.07452307 0.12862809 0.118103534 0.0337679
0.2173198 0.16317908 -0.139727 0.060593225 -0.1762973 -0.013531111 0.16018091 -0.24314757
-0.11356375 0.07868147 -0.11584753 0.031640824 0.16175134 -0.070699364 0.04401349 0.4256909
0.017710637 -0.1871312 -0.18535191 -0.08396406 -0.17763394 -0.14018625 -0.14630274 -0.023190606
0.07474754 0.11962789 0.04979969 0.01892931 0.077901565 0.033709195 0.05364484 -0.21441834
0.24242008 0.39523575 -0.6228316 0.2791088 -0.30736572 -0.300644 0.0125444755 0.10480094
0.163889 0.06270534 0.14771616 0.2227217 0.1056912 0.21142952 0.34417322 0.09314303
0.07168758 -0.041117072 0.20183314 0.20317282 0.040069547 0.21782517 0.11275842 -0.11976135
0.0532497 -0.07800033 -0.0627726 -0.047050994 -0.21273531 0.048231706 0.07767527 -0.0024279873
0.13101704 0.044203736 -0.11706083 -0.27210715 0.10157698 -0.1386748 -0.21214831 0.09987239
-0.034706347 -0.025567994 -0.00987933 0.030903898 0.085184254 0.018248493 0.07473444 -0.0026634615
-0.07102793 0.061059825 0.006945927 -0.13679142 -0.18313134 -0.30276865 -0.10199561 0.26410267
-0.0070254165 -0.09942051 0.028997153 -0.021365764 0.15335523 0.23175539 0.19178396 0.046345565
0.12633003 0.06353709 0.02536882 0.119528405 0.056294728 -0.045840085 0.0938851 -0.1498903
-0.27044895 0.107111715 0.18502672 -0.23221618 -0.12614192 0.17306277 -0.10255844 0.19584005
0.072276965 -0.031591903 0.59252936 0.30751687 -0.20286405 -0.12259597 0.026034812 -0.13438211
-0.1010262 0.010395492 -0.16268615 -0.0978775 -2.9091474e-05 -0.13036142 0.014254206 0.04081178
-0.13829094 -0.1791862 -0.10128482 0.0813831 0.10809717 0.045649182 0.061026875 0.11982635
0.056379147 -0.35439333 -0.25339705 -0.14049314 -0.24614613 -0.24278124 -0.112500995 -0.05282544
-0.0018724065 -7.05744e-05 -0.01786355 -0.019718565 -0.031288974 -0.095372684 -0.074892126 0.016089164
-0.15736116 -0.1680755 -0.10956603 0.013804888 -0.0050945007 0.13114469 -0.12286679 -0.2709037
-0.2021025 -0.07788093 -0.059061725 -0.16543461 0.020957641 -0.07083236 0.06078394 -0.1338894
-0.20402534 -0.1516795 -0.12059517 0.011181434 -0.07637161 0.2763328 0.24387984 -0.22847225
-0.19400164 -0.2120344 0.08949209 -0.22506662 0.18763316 0.17267641 -0.16556685 -0.15258184
-0.039374474 -0.17017108 -0.08037868 -0.049677577 -0.011138719 -0.06996283 -0.06810776 -0.08808726
0.037724648 0.028721742 -0.22356838 -0.16136202 -0.02906297 -0.20989634 -0.16278343 -0.029063677
-0.19894746 -0.17827725 -0.056714334 -0.08127909 -0.08527597 -0.031344343 0.020252138 -0.059136253
-0.08341468 0.24535513 0.16443935 0.094503246 -0.030816233 0.03331554 0.06376536 -0.14885893
-0.09350944 0.02797374 -0.059796 -0.18842657 -0.07904644 0.08435558 0.0060807317 0.07249672
0.26187178 0.2571854 0.40597335 0.09716379 0.20818987 0.08067511 -0.23351823 -0.19485244
-0.20384568 -0.2367881 -0.17570181 -0.16575699 0.15678878 0.25960737 0.21527879 0.049133092
00000000: 6a32 05bc 2b55 52bd 4bcb d23d 8941 83be
00000010: cd97 87be 5f3d 72bd b703 5bbe 3f4c 3ebe
00000020: 7a93 003e dbdc 2fbd 22cd 16bd a2a5 1fbd
00000030: 8d9f 983d 15b7 033e 44e0 f13d 3650 0a3d
00000040: 1589 5e3e 6b18 273e 9814 0fbe 9a30 783d
00000050: 4887 34be 98b1 5dbc 7706 243e adfb 78be
00000060: 1d94 e8bd c023 a13d 7841 edbd cf99 013d
00000070: 25a2 253e d4ca 90bd 7d47 343d 28f4 d93e
00000080: e615 913c 529f 3fbe e4cc 3dbe 59f5 abbd
00000090: ace5 35be fc8c 0fbe 63d0 15be 3afa bdbc
000000a0: 3d15 993d 78ff f43d c2fa 4b3d a411 9b3c
000000b0: db8a 9f3d a712 0a3d b1ba 5b3d 7b90 5bbe
000000c0: f83c 783e 575c ca3e e471 1fbf 59e7 8e3e
000000d0: 0a5f 9dbe 03ee 99be 5887 4d3c e0a1 d63d
000000e0: 85d2 273e a86b 803d e842 173e 2811 643e
000000f0: a174 d83d fb80 583e 7937 b03e c6c1 be3d
00000100: f0d0 923d 606a 28bd 59ad 4e3e 890c 503e
00000110: f71f 243d 900d 5f3e e3ed e63d 7045 f5bd
00000120: 5c1c 5a3d a3be 9fbd ec8e 80bd 8bb8 40bd
00000130: 49d7 59be 9c8e 453d 3614 9f3d de1e 1fbb
00000140: 5529 063e fa0e 353d 97bd efbd a151 8bbe
00000150: 9707 d03d c400 0ebe 683d 59be e589 cc3d
00000160: 3e28 0ebd f873 d1bc eadc 21bc 2c2a fd3c
00000170: 1575 ae3d dd7d 953c 5f0e 993d 788d 2ebb
00000180: 1777 91bd de19 7a3d a99a e33b 0d13 0cbe
00000190: c886 3bbe 7e04 9bbe 13e3 d0bd 7738 873e
000001a0: 7735 e6bb fb9c cbbd 708b ed3c 4107 afbc
000001b0: 2709 1d3e 4951 6d3e 0463 443e d9d4 3d3d
000001c0: a95c 013e bc1f 823d 46d2 cf3c 4fcb f43d
000001d0: 4d95 663d d0c2 3bbd d546 c03d d87c 19be
000001e0: 4978 8abe 635d db3d a577 3d3e 14ca 6dbe
000001f0: 592b 01be 5e37 313e 290a d2bd 4b8a 483e
00000200: f205 943d 8366 01bd 01b0 173f da72 9d3e
00000210: 98bb 4fbe 9913 fbbd f546 d53c 779b 09be
00000220: d3e6 cebd db51 2a3c 3397 26be 0074 c8bd
00000230: 7709 f4b7 777d 05be 798a 693c 412a 273d
00000240: 249c 0dbe 967c 37be 6a6e cfbd 2fac a63d
00000250: 0d62 dd3d a3fa 3a3d 51f7 793d 8467 f53d
00000260: d2ed 663d 0b73 b5be 42bd 81be 6fdd 0fbe
00000270: bb0d 7cbe a59b 78be ec66 e6bd 7d5f 58bd
00000280: 896b f5ba 5801 94b8 9456 92bc d488 a1bc
00000290: de28 00bd c152 c3bd 0b61 99bd 6ccd 833c
000002a0: 4923 21be fc1b 2cbe 2864 e0bd e62d 623c
000002b0: c5ef a6bb cb4a 063e 95a1 fbbd e4b3 8abe
000002c0: f5f3 4ebe 0980 9fbd b5ea 71bd b167 29be
000002d0: 5caf ab3c 8e10 91bd 95f8 783d 4e1a 09be
000002e0: 05ec 50be df51 1bbe 9afa f6bd 5532 373c
000002f0: b868 9cbd 7e7b 8d3e a3bb 793e a1f4 69be
00000300: 5ea8 46be 8c1f 59be a147 b73d dd77 66be
00000310: e822 403e 16d2 303e 5b8a 29be 6a3e 1cbe
00000320: 2147 21bd 5441 2ebe 949d a4bd b77a 4bbd
00000330: 2c7f 36bc ac48 8fbd 157c 8bbd 1867 b4bd
00000340: 2985 1a3d dc49 eb3c 1cef 64be 163c 25be
00000350: 7715 eebc 11ef 56be b3b0 26be f316 eebc
00000360: e2b8 4bbe 508e 36be 4a4d 68bd a775 a6bd
00000370: 2ba5 aebd ed62 00bd d0e7 a53c db38 72bd
00000380: 51d5 aabd 603e 7b3e ca62 283e eb8a c13d
00000390: 5372 fcbc e075 083d 6a97 823d 7a6e 18be
000003a0: e181 bfbd 2f29 e53c a7ec 74bd e5f2 40be
000003b0: 1ae3 a1bd 9ec2 ac3d e040 c73b 2979 943d
000003c0: 0f14 863e cead 833e bddb cf3e cffd c63d
000003d0: ba2f 553e fe38 a53d 671f 6fbe 6687 47be
000003e0: ecbc 50be 9478 72be 2deb 33be 33bc 29be
000003f0: 3d8d 203e 42eb 843e 0b72 5c3e c83f 493d

layer1.0.conv2.bias f4 [16]
-0.004054883 0.01405754 -0.0048226416 0.0016260719 0.0065836175 0.004339645 -0.0026821548 -0.0060570827
0.007392583 -0.0057112332 -0.0081672575 0.009956925 -0.0072913896 0.0038806524 -0.00040874508 0.0010810706
00000000: d3de 84bb 9951 663c 4007 9ebb eb21 d53a
00000010: 63bb d73b 9533 8e3b 17c7 2fbb 7e7a c6bb
00000020: 7b3d f23b 4c25 bbbb f6cf 05bc 5f22 233c
00000030: 9cec eebb 8b52 7e3b d64c d6b9 b6b2 8d3a

layer1.0.bn2.weight f4 [16]
0.57538825 0.77194047 0.64986116 0.4675416 0.6110119 0.5544781 0.43354157 0.70132786
0.7613511 0.8058058 0.43242592 0.96798086 0.9294303 1.0214046 0.46099702 0.8898028
00000000: a54c 133f e49d 453f 4d5d 263f 9d61 ef3e
00000010: 476b 1c3f 47f2 0d3f 29f9 dd3e 398a 333f
00000020: e8e7 423f 4a49 4e3f ee66 dd3e 98cd 773f
00000030: 25ef 6d3f 63bd 823f cd07 ec3e 1eca 633f

layer1.0.bn2.bias f4 [16]
0.22238801 -0.33660805 0.12724543 0.35605863 -0.13296565 -0.027739774 0.16235356 0.35478124
-0.03652377 -0.026736522 0.30772248 -0.227424 -0.0014546223 0.5254535 0.19727466 -0.090094365
00000000: afb9 633e e457 acbe a04c 023e 514d b63e
00000010: 2628 08be 863e e3bc 0340 263e e3a5 b53e
00000020: f399 15bd 8d06 dbbc cd8d 9d3e d6e1 68be
00000030: 06a9 beba 1f84 063f 5e02 4a3e 6583 b8bd

layer1.0.bn2.running_mean f4 [16]
0.011628844 -0.8761165 0.43407318 -0.54621977 0.112539254 -1.743658 1.4831506 -1.1181036
0.12519406 0.52915627 0.8084038 -0.21106666 1.4276171 0.17862241 -0.5482336 -1.1560533
00000000: e886 3e3c 2c49 60bf d73e de3e 0fd5 0bbf
00000010: fb7a e63d 2f30 dfbf e1d7 bd3f 051e 8fbf
00000020: df32 003e c976 073f 8df3 4e3f dc21 58be
00000030: 28bc b63f cbe8 363e 0a59 0cbf 8ef9 93bf

layer1.0.bn2.running_var f4 [16]
1.382045 1.3506901 1.2468245 1.433664 1.6001997 1.2090769 1.3059721 1.2515092
1.0631177 1.4992639 1.3129332 2.058587 1.307879 2.316213 1.2639467 2.2196054
00000000: dae6 b03f 6ae3 ac3f f297 9f3f 4d82 b73f
00000010: 58d3 cc3f 08c3 9a3f 182a a73f 7431 a03f
00000020: 3e14 883f e1e7 bf3f 320e a83f e4bf 0340
00000030: 9468 a73f d53c 1440 01c9 a13f 040e 0e40

layer1.1.conv1.weight f4 [16, 16, 3, 3]
-0.09091271 -0.22567417 -0.031150699 0.21332197 0.2405552 0.15996024 -0.007973522 -0.04666351
-0.06084135 -0.077950045 -0.011520661 -0.1098666 -0.062435497 -0.11774059 -0.05266561 0.067333765
0.1456227 -0.11423386 0.1473656 0.11392918 -0.036224917 0.2924105 0.43010476 0.23678167
-0.016670706 -0.108335115 -0.100027874 -0.19643027 -0.16108817 -0.13556495 0.14254539 0.26325104
0.16758657 0.11545598 0.23589677 0.07395813 0.07962897 0.092659235 0.111370414 0.014620735
0.024970543 -0.070109755 -0.0019312766 0.009304078 -0.09494209 -0.25508177 -0.20605631 -0.256839
-0.026135392 -0.011183053 -0.071673706 -0.042298853 0.007966997 0.083003305 -0.112877026 -0.0071790493
0.056126192 0.11344332 0.115691684 0.084986 0.05652043 -0.019343356 -0.20769688 -0.19399336
-0.27241242 -0.06735841 -0.013329242 -0.0648049 -0.27395093 0.12135085 0.16843833 0.2137178
-0.10414776 -0.14105053 -0.02246883 -0.07053863 -0.09701834 -0.055755176 0.24218905 0.071818255
0.13744397 0.04647112 0.17858589 0.09858132 0.10704569 -0.030715326 -0.13538826 -0.08662551
-0.17021926 -0.25608978 0.17655125 0.12215817 0.059233107 0.07707447 -0.015421198 -0.07207168
0.1653387 0.06501443 -0.04069994 -0.097470805 0.13245235 0.04188435 0.050636813 -0.024762237
0.2242432 -0.018348426 0.1140145 0.10444595 -0.15933056 -0.11263183 -0.06720658 0.093424365
0.11504187 -0.0386091 -0.08603981 -0.11186694 0.06444942 0.109727524 0.01707323 -0.0684669
0.17046206 0.2919705 -0.0020378113 -0.2461289 -0.28915533 -0.020637931 -0.13283212 -0.13284202
-0.1528752 0.07972688 0.10812208 0.091365784 0.12251954 0.12110805 0.09047119 0.034502458
0.3874128 0.14571373 0.391371 0.29465097 -0.14345796 -0.10924081 -0.06088749 -0.15368794
0.28065583 -0.10989423 -0.21533494 0.3102874 -0.09137614 -0.30857268 0.123883136 0.056785405
-0.20685318 -0.08582545 -0.04751518 0.050956875 -0.10607913 -0.14393888 -0.0013772821 0.051621746
-0.04171251 -0.09563972 -0.08960909 -0.013722114 -0.022623586 -0.09879528 0.05372119 0.074984565
-0.07057629 -0.011751297 0.15561226 0.074765585 0.07353413 0.069165505 0.05074117 0.020832732
0.005176142 0.12671813 0.028328307 -0.022471316 -0.13683048 -0.03972477 0.14580363 -0.09576135
0.038477175 0.17143707 -0.06354962 0.018264284 0.20034732 -0.012305779 0.105899714 -0.11531832
0.10212945 0.12025869 0.18998101 -0.0722973 0.16203982 0.19656263 0.05046427 0.05285449
-0.0149779795 -0.05671735 -0.03878676 0.045362346 -0.13514708 -0.10955673 0.043678056 -0.04194097
-0.02416778 0.4646713 -0.031264104 -0.037830032 0.37242532 -0.31312543 0.1620065 0.17482065
0.022486981 -0.14488152 0.055801816 -0.12493843 0.016180452 -0.061457787 -0.14795944 -0.10271945
0.031394392 0.15042698 0.18236661 -0.1235226 -0.14678578 0.14168055 0.07419682 -0.2762925
0.008988277 0.2436777 -0.045938298 -0.05770828 -0.024137648 -0.012872825 0.007569259 -0.054160498
-0.046064157 -0.011524568 -0.09534917 -0.056221142 0.09616957 -0.22765315 0.024025202 0.14227448
-0.21503526 0.057715423 0.0066950847 -0.032760922 -0.108478166 -0.16694453 -0.2217185 0.011310446
00000000: 7130 babd 2117 67be c02f ffbc 1371 5a3e
00000010: 1a54 763e 9ecc 233e 60a3 02bc 3d22 3fbd
00000020: c834 79bd 46a4 9fbd 28c1 3cbc bd01 e1bd
00000030: 5dbc 7fbd fa21 f1bd e5b7 57bd 49e6 893d
00000040: 1e1e 153e 71f3 e9bd 02e7 163e b453 e93d
00000050: 9460 14bd d4b6 953e b136 dc3e e576 723e
00000060: 0191 88bc cdde ddbd 6adb ccbd 0425 49be
00000070: 4cf4 24be 8ad1 0abe 6bf7 113e d7c8 863e
00000080: d09b 2b3e 2f74 ec3d ec8e 713e 5c77 973d
00000090: 8314 a33d 20c4 bd3d 2c16 e43d cf8b 6f3c
000000a0: 068f cc3c b495 8fbd e422 fdba 2270 183c
000000b0: 0071 c2bd 149a 82be 6d00 53be 6780 83be
000000c0: e419 d6bc 2039 37bc aac9 92bd 9041 2dbd
000000d0: 0288 023c a3fd a93d 122c e7bd 3b3e ebbb
000000e0: 94e4 653d f954 e83d c3ef ec3d 240d ae3d
000000f0: f781 673d f575 9ebc 7eae 54be 32a6 46be
00000100: a479 8bbe 35f3 89bd e562 5abc 6eb8 84bd
00000110: 4c43 8cbe cb86 f83d 197b 2c3e d7d8 5a3e
00000120: 6c4b d5bd 8d6f 10be 8d10 b8bc 8f76 90bd
00000130: 8db1 c6bd 8a5f 64bd 6800 783e 7315 933d
00000140: 1dbe 0c3e 8058 3e3d 38df 363e 01e5 c93d
00000150: c53a db3d b59e fbbc 38a3 0abe b768 b1bd
00000160: f54d 2ebe 331e 83be dac9 343e 102e fa3d
00000170: 6a9e 723d 38d9 9d3d 31a9 7cbc 519a 93bd
00000180: 8c4e 293e 4926 853d fbb4 26bd c69e c7bd
00000190: 97a1 073e ed8e 2b3d 8c68 4f3d 2dda cabc
000001a0: 02a0 653e 704f 96bc 6f80 e93d c2e7 d53d
000001b0: 8d27 23be 84ab e6bd 9aa3 89bd 4655 bf3d
000001c0: 129b eb3d 9324 1ebd a435 b0bd 7f1a e5bd
000001d0: 0ffe 833d d3b8 e03d 29dd 8b3c 6038 8cbd
000001e0: 9b8d 2e3e 287d 953e cd8c 05bb 3709 7cbe
000001f0: 2b0c 94be e110 a9bc 2505 08be bd07 08be
00000200: 518b 1cbe d947 a33d 1c6f dd3d fc1d bb3d
00000210: 86eb fa3d 7f07 f83d f648 b93d 7352 0d3d
00000220: f85a c63e fb35 153e c861 c83e 7edc 963e
00000230: a5e6 12be a5b9 dfbd 2965 79bd 5f60 1dbe
00000240: 1fb2 8f3e 3a10 e1bd c380 5cbe fddd 9e3e
00000250: 6a23 bbbd 3dfd 9dbe 71b6 fd3d d097 683d
00000260: 52d1 53be 41c5 afbd 479f 42bd 28b8 503d
00000270: 0440 d9bd b764 13be eb85 b4ba 5371 533d
00000280: bdda 2abd c2de c3bd f884 b7bd b8d2 60bc
00000290: 1955 b9bc 2e55 cabd c00a 5c3d 8291 993d
000002a0: 4d8a 90bd 8388 40bc d258 1f3e b31e 993d
000002b0: 1099 963d a5a6 8d3d f9d5 4f3d 68a9 aa3c
000002c0: a09c a93b 66c2 013e c410 e83c c415 b8bc
000002d0: 4a1d 0cbe 71b6 22bd 8c4d 153e 871e c4bd
000002e0: 3e9a 1d3d 338d 2f3e 4e26 82bd fb9e 953c
000002f0: d927 4d3e 2e9e 49bc f3e1 d83d 032c ecbd
00000300: 3f29 d13d 304a f63d 628a 423e 9b10 94bd
00000310: c4ed 253e b747 493e 9fb3 4e3d f37d 583d
00000320: 3366 75bc 7450 68bd dede 1ebd decd 393d
00000330: ff63 0abe 475f e0bd c3e7 323d 4bca 2bbd
00000340: 82fb c5bc 66e9 ed3e ca0e 00bd aaf3 1abd
00000350: 88ae be3e fa51 a0be 08e5 253e 2f04 333e
00000360: 9e36 b83c d25b 14be 7290 643d b8df ffbd
00000370: de8c 843c 29bb 7bbd ae82 17be 935e d2bd
00000380: 6897 003d 8809 1a3e 50be 3a3e 6bf9 fcbd
00000390: 034f 16be b514 113e 81f4 973d 3676 8dbe
000003a0: 9143 133c a686 793e cc29 3cbd 845f 6cbd
000003b0: 51bc c5bc 8be8 52bc 8c07 f83b 66d7 5dbd
000003c0: c5ad 3cbd 8bd1 3cbc 6d46 c3bd 2448 66bd
000003d0: 8df4 c43d e81d 69be 80d0 c43c 67b0 113e
000003e0: 3432 5cbe 0267 6c3d 7162 db3b 5130 06bd
000003f0: cd29 debd 82f3 2abe 2d0a 63be 734f 393c

layer1.1.conv1.bias f4 [16]
-0.0012482287 -0.008119221 0.0058425004 0.00055644143 -0.0063771117 0.0077590067 -0.008039648 -0.008543673
-0.008677912 -0.0042378106 0.0071705603 -0.0015793524 0.0100276675 -0.0010468184 -0.008295319 0.0004580962
00000000: 9b9b a3ba 7b06 05bc 7272 bf3b 27de 113a
00000010: 17f7 d0bb 443f fe3b bab8 03bc c3fa 0bbc
00000020: cd2d 0ebc 55dd 8abb 05f7 ea3b 4602 cfba
00000030: 164b 243c 6635 89ba 17e9 07bc a22c f039

layer1.1.bn1.weight f4 [16]
0.8554062 0.6414871 0.8122093 0.9907393 0.77262336 0.7297671 0.7672015 0.6432001
0.6431114 0.71196914 0.58032954 0.69648737 0.65295887 0.77949506 0.7171016 0.78221726
00000000: e7fb 5a3f 8038 243f f3ec 4f3f 17a1 7d3f
00000010: a5ca 453f 04d2 3a3f 5167 443f c3a8 243f
00000020: f3a2 243f 9c43 363f 7a90 143f ff4c 323f
00000030: 5028 273f fd8c 473f f893 373f 643f 483f

layer1.1.bn1.bias f4 [16]
-0.44746315 -0.2898723 0.28997478 -0.29455817 -0.37640154 -0.5989495 -0.044159576 -0.42019415
0.061916213 -0.44231564 -0.44494784 -0.38532743 -0.19955651 0.09662974 -0.3495404 -0.48030543
00000000: e419 e5be 246a 94be 9377 943e 54d0 96be
00000010: b4b7 c0be c154 19bf ace0 34bd b023 d7be
00000020: db9b 7d3d 3277 e2be 34d0 e3be a349 c5be
00000030: 8b58 4cbe d0e5 c53d f6f6 b2be 98ea f5be

layer1.1.bn1.running_mean f4 [16]
1.660019 0.3482275 -4.1467295 -2.597262 -1.8252851 3.6212337 0.08407903 -1.1361296
-6.2508597 0.15574735 2.3658319 -3.626357 2.5728712 -3.5400078 -1.3699586 4.7537313
00000000: 817b d43f e04a b23e 02b2 84c0 8a39 26c0
00000010: f1a2 e9bf 4bc2 6740 a031 ac3d b26c 91bf
00000020: 0b07 c8c0 3c7c 1f3e ca69 1740 3c16 68c0
00000030: eca9 2440 7d8f 62c0 ce5a afbf 911e 9840

layer1.1.bn1.running_var f4 [16]
5.45671 4.0560656 6.648549 11.308221 4.2670174 2.4469595 13.90792 2.9956214
7.0724907 3.0308027 1.745744 2.704294 7.5816135 8.644075 5.9036546 2.6710389
00000000: 5e9d ae40 4acb 8140 eac0 d440 79ee 3441
00000010: 688b 8840 fc9a 1c40 d786 5e41 43b8 3f40
00000020: d851 e240 acf8 4140 8a74 df3f 2713 2d40
00000030: 949c f240 224e 0a41 bdea bc40 4df2 2a40

layer1.1.conv2.weight f4 [16, 16, 3, 3]
0.059595395 0.111869186 0.16317813 -0.1092817 -0.11894249 -0.03460344 0.040546115 0.03133096
0.12725303 0.046466537 -0.073397495 -0.14197093 -0.055358633 -0.02714798 0.1352675 -0.18659614
0.049698006 0.061078355 0.047199823 0.04905856 0.023406176 -0.035323527 0.022499213 0.114095375
-0.010338586 0.14319456 0.023075052 0.0004838866 -0.08076736 -0.001974824 -0.08040431 0.0038364152
-0.055095594 0.017706174 -0.0013197471 0.0044896617 -0.22369492 -0.239897 -0.040984575 -0.047400992
0.056617443 0.14596552 0.13299505 0.18232965 0.14036363 -0.15123628 -0.19037896 -0.08862665
0.008356718 0.018889178 0.16015719 0.03919211 0.110366724 0.16998655 0.14305803 0.1725682
0.12685457 0.20427988 0.19270496 0.19157927 0.02433607 0.07558044 0.08207659 -0.06529766
0.037581164 -0.0014011378 -0.037916593 0.0059444443 -0.058985878 -0.07027054 0.011981862 -0.10608732
-0.20510508 -0.19379114 -0.12678234 -0.00045263162 0.016025458 0.040974595 -0.0016203322 -0.0027575034
0.07776549 -0.12526062 -0.079173446 -0.036191974 -0.13015117 -0.20233996 -0.23451294 -0.06551681
-0.18141618 -0.15622818 0.026087578 0.059545103 0.048888158 0.047259837 -0.032731894 -0.07242067
0.096717276 -0.017806606 -0.049396202 -0.08431871 -0.056020148 -0.044084333 -0.1568258 -0.10865293
-0.09327051 -0.24827176 -0.117431216 -0.11114385 -0.04248074 0.057613574 0.060976174 0.03463785
0.01940568 0.17675525 0.027473876 0.020996956 0.10169376 -0.03349501 -0.015901173 -0.1571824
-0.050029725 0.23571928 0.11775308 -0.039149147 -0.017133847 -0.09557511 -0.06282201 0.033363238
0.04228618 0.0017396751 0.07033618 0.10130429 0.03117304 0.16831209 0.09476211 0.06424104
0.029852761 0.036943313 -0.109456405 -0.38706517 -0.138608 -0.0048911767 -0.0602304 0.07550918
0.11994114 0.21498676 0.13463713 0.20223685 0.4361016 0.23966093 0.07875341 0.12473164
0.1307426 0.0181329 0.048754945 0.052893613 0.15619752 -0.06130462 -0.09482979 0.2423893
-0.009519906 -0.13019907 -0.0068362416 0.107446045 0.16311507 0.056364596 -0.26266077 -0.17665935
-0.12297736 -0.17279002 -0.06816094 -0.011433488 -0.13108824 -0.14645468 -0.056980584 -0.1013285
0.0055352217 -0.11550033 -0.08836031 0.030950319 0.17127468 0.2411357 0.27837443 0.1510013
0.13006155 0.08688524 -0.11543292 0.016717194 0.027322285 0.04887897 0.072157055 -0.028671982
0.08531731 0.08045954 -0.08548952 0.021052282 -0.02289906 -0.096803784 0.15943415 0.25171834
0.2913507 0.1785754 0.12014919 0.08022773 0.15159234 -0.0042121154 0.014352116 -0.05013449
-0.0353092 -0.05134054 -0.005201705 0.034167767 0.034216244 0.0659875 0.1581793 0.065894544
0.01832305 -0.057357397 0.10300053 0.11438415 -0.046935655 -0.04365064 0.2014469 0.021728136
0.04305692 0.14078982 -0.0045216302 -0.04506733 0.18991339 0.13711442 -0.0022179487 0.20296423
0.10678614 -0.008264807 -0.016586363 -0.025017183 -0.0723874 0.14431365 0.21259844 0.044608872
0.16585997 0.15368554 0.0628666 0.116758786 0.11150859 0.056819275 0.05761812 0.025464676
-0.023687629 0.107270464 0.087579094 0.036341652 -0.021733295 -0.023717577 0.01585433 0.09004832
00000000: 4d1a 743d ac1b e53d 2b18 273e 15cf dfbd
00000010: 1f98 f3bd 56bc 0dbd af13 263d e554 003d
00000020: 9e4e 023e b253 3e3d 6d51 96bd d460 11be
00000030: bcbf 62bd 7165 debc 9083 0a3e 0f13 3fbe
00000040: 2390 4b3d 4c2d 7a3d 9a54 413d a1f1 483d
00000050: 4fbe bf3c 67af 10bd 4550 b83c d6aa e93d
00000060: 2c63 29bc 98a1 123e e407 bd3c 29b2 fd39
00000070: 5c69 a5bd 0c6c 01bb 04ab a4bd 5e6c 7b3b
00000080: ebab 61bd 8a0c 913c 5dfb acba 031e 933b
00000090: 4810 65be 8fa7 75be 71df 27bd 8b27 42bd
000000a0: b1e7 673d fc77 153e db2f 083e a0b4 3a3e
000000b0: 7cbb 0f3e afdd 1abe b4f2 42be e481 b5bd
000000c0: 9eea 083c 7abd 9a3c 3f00 243e e887 203d
000000d0: f307 e23d f410 2e3e ce7d 123e b8b5 303e
000000e0: 2ae6 013e bf2e 513e 7354 453e 5b2d 443e
000000f0: 705c c73c ebc9 9a3d c517 a83d c8ba 85bd
00000100: b5ee 193d 62a6 b7ba 6e4e 1bbd 9dc9 c23b
00000110: 2d9b 71bd 00ea 8fbd 924f 443c 4f44 d9bd
00000120: 1107 52be 2f71 46be 3bd3 01be 304f edb9
00000130: d247 833c fad4 273d 5461 d4ba 3bb7 34bb
00000140: 8343 9f3d 5244 00be b025 a2bd 093e 14bd
00000150: 5946 05be 3532 4fbe 2924 70be ad2d 86bd
00000160: 2ac5 39be 48fa 1fbe 9eb5 d53c 91e5 733d
00000170: f33e 483d 8893 413d e111 06bd 4a51 94bd
00000180: b513 c63d 29df 91bc ac53 4abd 4aaf acbd
00000190: 6275 65bd c691 34bd f196 20be 6d85 debd
000001a0: 9c04 bfbd f43a 7ebe c77f f0bd 639f e3bd
000001b0: 4900 2ebd 36fc 6b3d 27c2 793d 6be0 0d3d
000001c0: a9f8 9e3c 54ff 343e e510 e13c cf01 ac3c
000001d0: d144 d03d 1032 09bd 2d43 82bc 6cf4 20be
000001e0: f8eb 4cbd 6560 713e 8728 f13d db5a 20bd
000001f0: 485c 8cbc e2bc c3bd d3a8 80bd e4a7 083d
00000200: 4634 2d3d cf05 e43a 6a0c 903d a078 cf3d
00000210: 9a5e ff3c 015a 2c3e a312 c23d ce90 833d
00000220: c78d f43c df51 173d ae2a e0bd 682d c6be
00000230: 41ef 0dbe 2a46 a0bb 27b4 76bd 8fa4 9a3d
00000240: b3a3 f53d 7d25 5c3e 51de 093e 2d17 4f3e
00000250: b548 df3e ad69 753e 7849 a13d 4d73 ff3d
00000260: 63e1 053e 738b 943c 44b3 473d f9a6 583d
00000270: 3ef2 1f3e 8e1a 7bbd 1f36 c2bd e734 783e
00000280: 61f9 1bbc e852 05be 8d02 e0bb ac0c dc3d
00000290: a307 273e 90de 663d 797b 86be 30e6 34be
000002a0: 8edb fbbd deef 30be f797 8bbd 8653 3bbc
000002b0: ff3b 06be 37f8 15be 7964 69bd 5185 cfbd
000002c0: ce60 b53b 708b ecbd 40f6 b4bd 868b fd3c
000002d0: a162 2f3e 47ec 763e 1887 8e3e 16a0 1a3e
000002e0: db2e 053e e4f0 b13d 1868 ecbd 7ff2 883c
000002f0: fcd2 df3c 5135 483d 14c7 933d 81e1 eabc
00000300: d8ba ae3d f9c7 a43d 2115 afbd d675 ac3c
00000310: cf96 bbbc 1041 c6bd b542 233e 3ae1 803e
00000320: eb2b 953e 78dc 363e c710 f63d 704e a43d
00000330: 063b 1b3e c905 8abb 2325 6b3c d359 4dbd
00000340: 61a0 10bd 754a 52bd 1073 aabb 80f3 0b3d
00000350: 5526 0c3d 7424 873d c1f9 213e b8f3 863d
00000360: 391a 963c 97ef 6abd f1f1 d23d 3d42 ea3d
00000370: 9a3f 40bd 03cb 32bd 1948 4e3e 34ff b13c
00000380: 745c 303d 352b 103e 2f2a 94bb 8598 38bd
00000390: a878 423e b967 0c3e 015b 11bb dbd5 4f3e
000003a0: b1b2 da3d 1d69 07bc 20e0 87bc d6f0 ccbc
000003b0: d83f 94bd f5c6 133e 68b3 593e cbb7 363d
000003c0: 32d7 293e be5f 1d3e 34c0 803d 3b1f ef3d
000003d0: 9e5e e43d 54bb 683d fa00 6c3d 4c9b d03c
000003e0: 8f0c c2bc 9eb0 db3d ab5c b33d fcda 143d
000003f0: 060a b2bc 5d4b c2bc f1e0 813c 416b b83d

layer1.1.conv2.bias f4 [16]
0.0071997 -0.0016104681 0.0023102483 0.0049108104 -0.0061674016 -0.004039037 -0.009985472 -0.0024494275
-0.0019772782 0.009251365 0.003315113 0.0015579314 -0.0034863397 -0.0029341537 0.00020142243 0.007843862
00000000: 76eb eb3b 5816 d3ba 8967 173b ddea a03b
00000010: ea17 cabb e659 84bb 1b9a 23bc 9386 20bb
00000020: 3995 01bb 0a93 173c 5e42 593b 8133 cc3a
00000030: 137b 64bb ee4a 40bb ec34 5339 8b83 003c

layer1.1.bn2.weight f4 [16]
0.29191834 0.5810737 0.734572 0.38157648 0.5083959 0.7413848 0.49146235 0.87138957
1.1778063 0.49463332 0.40205804 0.77725816 0.847081 0.9696704 0.22969379 0.8071733
00000000: 5276 953e 3fc1 143f e90c 3c3f fe5d c33e
00000010: 3c26 023f 65cb 3d3f f4a0 fb3e 6313 5f3f
00000020: 5bc2 963f 9440 fd3e 8dda cd3e 64fa 463f
00000030: 4dda 583f 523c 783f d934 6b3e e9a2 4e3f

layer1.1.bn2.bias f4 [16]
-0.081947416 0.39671078 -0.04903047 0.22927006 0.12356478 -0.21263738 0.19874942 -0.007275383
-0.3171953 -0.071526445 0.23869456 -0.48501816 -0.08873761 0.114166126 0.14552385 0.13915576
00000000: 0cd4 a7bd ad1d cb3e 2dd4 48bd c5c5 6a3e
00000010: 880f fd3d 9dbd 59be f884 4b3e 5666 eebb
00000020: 6c67 a2be 757c 92bd 596c 743e 4d54 f8be
00000030: 10bc b5bd eecf e93d 3404 153e d97e 0e3e

layer1.1.bn2.running_mean f4 [16]
0.16304061 0.74864346 -0.8458127 -0.617737 0.010485588 -0.096877664 -0.28340408 -0.6258902
-0.5482431 -0.20055392 0.0313791 0.3658733 -0.105245896 -0.4760924 -0.2480355 0.020294152
00000000: 1ef4 263e 19a7 3f3f 2e87 58bf 0324 1ebf
00000010: becb 2b3c cc67 c6bd 571a 91be 573a 20bf
00000020: a959 0cbf 025e 4dbe 5f87 003d bf53 bb3e
00000030: 298b d7bd 62c2 f3be 05fd 7dbe ec3f a63c

layer1.1.bn2.running_var f4 [16]
0.41007924 0.9162406 0.978364 0.68006366 0.69779766 0.92256045 0.9249628 0.64080966
1.3853238 0.4663912 0.64422715 0.51958346 1.0136541 1.0971272 0.31274945 0.72279364
00000000: e8f5 d13e be8e 6a3f 1076 7a3f a718 2e3f
00000010: dea2 323f ec2c 6c3f 5dca 6c3f 1a0c 243f
00000020: 4a52 b13f d4ca ee3e 12ec 243f 6c03 053f
00000030: 6bbf 813f aa6e 8c3f b220 a03e 0109 393f

layer2.0.conv1.weight f4 [32, 16, 3, 3]
-0.18210867 -0.100992 -0.070379876 0.10401911 0.07053671 -0.003402899 0.0668219 0.09699117
0.024852151 -0.18710494 -0.18287273 -0.20170018 -0.119473964 -0.081118494 -0.113976695 -0.15239245
-0.15318279 -0.20602652 0.10795927 0.07681105 0.09483871 0.049217604 0.14923224 0.12861528
0.0074876784 4.835986e-05 0.14439462 -0.31190613 -0.164526 0.03919812 0.083458066 0.049186904
0.043603856 0.25347158 0.14923102 -0.037276104 0.03328456 0.07068167 0.057190944 -0.079307
-0.06740349 -0.009803656 -0.10063651 -0.16325988 -0.099956125 -0.073596455 -0.18388401 -0.092206486
-0.07745699 0.116330214 0.07474913 0.007714715 -0.050493915 -0.04400307 -0.118896395 -0.089227065
0.093895145 -0.042632207 -0.038347464 0.016785119 -0.20322584 -0.25353104 -0.14610371 -0.3542137
-0.16264369 -0.040475335 -0.03527725 -0.06683602 -0.01104189 -0.014621998 0.09629466 0.1559784
0.0617417 -0.13726057 -0.09636525 -0.04841327 0.105404176 0.06954849 0.17425707 0.18657707
0.053018063 0.04077475 -0.080421284 -0.17685533 -0.033886984 0.03358989 -0.031335693 -0.07498317
-0.06895156 -0.063003965 0.031584118 -0.06403473 0.011296697 -0.093827456 -0.12722567 -0.070690185
-0.0825423 -0.11572415 -0.08069947 0.2632996 0.1854896 0.047176257 -0.09529423 0.028971793
0.0437848 0.06326223 0.007367754 0.0031311626 -0.054117605 -0.047649216 0.09699006 0.16873841
-0.05660147 0.027315864 -0.07563974 -0.037736032 -0.10858882 0.23006523 0.087874375 -0.040594853
0.30033916 0.0638979 -0.1716596 -0.042578634 -0.052981783 -0.07433307 0.041269958 -0.030915111
0.0070118713 -0.0069664074 -0.0143922875 -0.06272425 -0.013222643 -0.17541385 -0.2210603 -0.08288692
0.09155409 0.0337054 0.1818261 -0.120864615 -0.09089682 -0.08796443 -0.06714348 -0.08167458
-0.07847493 0.23128161 0.21922031 -0.34206223 0.007768065 0.24331921 -0.36719608 -0.120488636
0.18290205 0.0046170754 -0.15352719 -0.24525177 0.10154773 0.014393078 -0.24778539 0.16350368
0.08554799 -0.018112587 -0.0007718219 0.011047799 0.003284423 0.07490021 -0.09426961 -0.10373632
0.031974312 -0.062974766 -0.17956886 0.008051203 0.05157038 -0.051953465 0.010342686 0.09338293
0.0188933 -0.13750881 0.019861067 0.047002476 -0.06895115 0.022608751 0.06135973 -0.052820545
-0.034069363 0.00579469 -0.042529076 -0.034142096 0.0070374585 0.0026785957 0.08903588 -0.018644093
0.001979637 -0.061103772 0.032191344 -0.09286703 -0.04845863 0.009697289 0.02093682 0.06722862
0.0200148 -0.040220752 -0.045615006 -0.11620769 0.08625397 -0.009532965 -0.13622975 -0.13137615
-0.03638123 -0.0413691 -0.07859903 0.02550426 0.07438002 0.04754125 -0.10589141 -0.0150868725
-0.042808928 0.037941214 0.09343244 0.10026092 -0.05610972 0.08587741 0.25667337 0.073653735
0.08151342 -0.3137897 -0.08451242 0.057238277 -0.30539554 -0.16789307 -0.014188949 -0.2061157
-0.22877602 -0.207147 -0.13445531 -0.025252001 -0.09148433 -0.11734838 0.05376257 0.05107133
-0.10087099 0.15216354 0.1721595 0.09130347 0.24789171 0.23231934 0.11801758 0.13438112
0.14985673 -0.05240215 0.19281967 0.04636082 0.28394976 0.31863633 0.06941561 0.1510648
00000000: b27a 3abe e5d4 cebd 5323 90bd f907 d53d
00000010: 8d75 903d 2c03 5fbb ecd9 883d 4ea3 c63d
00000020: bd96 cb3c 7098 3fbe fd42 3bbe 7e8a 4ebe
00000030: c4ae f4bd 7421 a6bd 9d6c e9bd c40c 1cbe
00000040: f3db 1cbe 9ef8 52be c019 dd3d 1d4f 9d3d
00000050: cc3a c23d 6698 493d 56d0 183e b9b3 033e
00000060: 335b f53b 01d6 4a38 2fdc 133e 29b2 9fbe
00000070: 8179 28be 358e 203d 10ec aa3d 3578 493d
00000080: f599 323d 07c7 813e 04d0 183e d4ae 18bd
00000090: 6455 083d 8dc1 903d 0d41 6a3d b56b a2bd
000000a0: d70a 8abd 839f 20bc 841a cebd 992d 27be
000000b0: ccb5 ccbd bdb9 96bd 174c 3cbe c1d6 bcbd
000000c0: c5a1 9ebd 893e ee3d 1216 993d b8cb fc3b
000000d0: b5d2 4ebd 903c 34bd f47f f3bd aebc b6bd
000000e0: 194c c03d 1c9f 2ebd 3b12 1dbd f280 893c
000000f0: 6f1a 50be d2ce 81be 369c 15be 805b b5be
00000100: 118c 26be 77c9 25bd e17e 10bd 53e1 88bd
00000110: 0be9 34bc 1b91 6fbc 2236 c53d cdb8 1f3e
00000120: dde4 7c3d 098e 0cbe 255b c5bd fe4c 46bd
00000130: 25de d73d 706f 8e3d 7270 323e 0f0e 3f3e
00000140: 7829 593d 6d03 273d eab3 a4bd 9019 35be
00000150: 14cd 0abd 8d95 093d db59 00bd c790 99bd
00000160: 7a36 8dbd 3908 81bd 595e 013d a424 83bd
00000170: c815 393c 9c28 c0bd 7247 02be 04c6 90bd
00000180: f00b a9bd c800 edbd c445 a5bd 35cf 863e
00000190: fcf0 3d3e e43b 413d 9f29 c3bd 4156 ed3c
000001a0: b157 333d a18f 813d 336d f13b 3134 4d3b
000001b0: 6caa 5dbd d32b 43bd b9a2 c63d c3c9 2c3e
000001c0: f1d6 67bd 85c5 df3c 02e9 9abd 1991 1abd
000001d0: d163 debd 3896 6b3e 7bf7 b33d ca46 26bd
000001e0: 0ec6 993e e7dc 823d 89c7 2fbe ef66 2ebd
000001f0: 6d03 59bd f03b 98bd b00a 293d b041 fdbc
00000200: d7c3 e53b 7646 e4bb a1cd 6bbc 9275 80bd
00000210: c9a3 58bc b09f 33be a25d 62be 9ec0 a9bd
00000220: b680 bb3d ac0e 0a3d 9f30 3a3e de87 f7bd
00000230: 1d28 babd b226 b4bd 8582 89bd 0145 a7bd
00000240: 77b7 a0bd 16d5 6c3e 4a7b 603e c822 afbe
00000250: 418b fe3b ac28 793e 2001 bcbe bfc2 f6bd
00000260: ad4a 3b3e d64a 973b 3b36 1dbe 4823 7bbe
00000270: 42f8 cf3d f2d0 6b3c 74bb 7dbe 826d 273e
00000280: c933 af3d d960 94bc 1754 4aba d401 353c
00000290: 793f 573b 4865 993d 6d10 c1bd b573 d4bd
000002a0: 7ff7 023d eaf8 80bd e6e0 37be 31e9 033c
000002b0: 763b 533d 28cd 54bd 5f74 293c 8d3f bf3d
000002c0: 1fc6 9a3c 1ccf 0cbe adb3 a23c ab85 403d
000002d0: 4336 8dbd fd35 b93c 5754 7b3d 5b5a 58bd
000002e0: 518c 0bbd 62e1 bd3b f832 2ebd 95d8 0bbd
000002f0: 7b9a e63b 618b 2f3b 7258 b63d 7fbb 98bc
00000300: ccbc 013b f347 7abd 12db 033d 1231 bebd
00000310: 8e7c 46bd 61e1 1e3c b283 ab3c 29af 893d
00000320: 14f6 a33c 84be 24bd cdd6 3abd 4cfe edbd
00000330: eca5 b03d 2730 1cbc d07f 0bbe 7887 06be
00000340: 7c04 15bd a572 29bd 87f8 a0bd 4fee d03c
00000350: 8d54 983d 9dba 423d 98dd d8bd ee2e 77bc
00000360: 6a58 2fbd 3f68 1b3d 8259 bf3d 9955 cd3d
00000370: 4ed3 65bd 7fe0 af3d b16a 833e c5d7 963d
00000380: 82f0 a63d 0ba9 a0be d914 adbd af72 6a3d
00000390: ce5c 9cbe 29ec 2bbe c478 68bc fe0f 53be
000003a0: 4344 6abe 581e 54be a7ae 09be 49dd cebc
000003b0: 235c bbbd 5954 f0bd 2436 5c3d 2c30 513d
000003c0: 7395 cebd c2d0 1b3e 944a 303e 50fd ba3d
000003d0: 53d7 7d3e 1fe5 6d3e 33b3 f13d 349b 093e
000003e0: 0b74 193e a3a3 56bd 8572 453e d8e4 3d3d
000003f0: dd61 913e 4d24 a33e c529 8e3d bbb0 1a3e

layer2.0.conv1.bias f4 [32]
0.005077653 -0.0055856328 0.008832699 0.0014127025 0.0041192905 -0.0066964794 -0.0014057145 0.0014050013
-0.00036148113 -0.0021302481 0.0014369449 0.007213677 0.00058893784 -0.010677079 -0.007295634 -0.00598003
-0.007824239 0.0060920557 0.0015536349 -0.004195858 -0.006085219 0.012050408 0.0035817039 -0.007238884
-0.0016663014 0.0008740492 -0.001738049 0.001626677 0.0030726993 -0.005961464 0.0004005614 -0.0058997814
00000000: 7162 a63b af07 b7bb 06b7 103c 6e2a b93a
00000010: 1dfb 863b 246e dbbb f43f b8ba 0528 b83a
00000020: 2d85 bdb9 a29b 0bbb df57 bc3a b560 ec3b
00000030: f362 1a3a eaee 2ebc 3710 efbb 21f4 c3bb
00000040: 3d31 00bc de9f c73b 56a3 cb3a 687d 89bb
00000050: 8466 c7bb 136f 453c 05bb 6a3b 2934 edbb
00000060: cc67 daba 7320 653a 3fcf e3ba 3936 d53a
00000070: 575f 493b 6258 c3bb 7102 d239 f452 c1bb

layer2.0.bn1.weight f4 [32]
0.7182882 0.7488622 0.84120226 0.73104006 0.7431135 0.78218895 0.8968448 0.8698362
0.73623204 0.74265057 0.86267024 0.92141396 0.9468494 0.7388215 1.110732 0.735593
0.70171905 1.0889226 0.8000213 0.82596844 0.70750475 0.8770916 0.9253721 0.8295294
0.8761834 0.8697491 1.0007933 0.9036353 0.74447304 0.885126 0.8754443 0.7971747
00000000: bce1 373f 6fb5 3f3f 0859 573f 7125 3b3f
00000010: b03c 3e3f 893d 483f 9f97 653f 96ad 5e3f
00000020: b479 3c3f 591e 3e3f f5d7 5c3f c9e1 6b3f
00000030: b964 723f 6823 3d3f 772c 8e3f d34f 3c3f
00000040: dca3 333f d161 8b3f 32ce 4c3f ab72 533f
00000050: 081f 353f 1389 603f 30e5 6c3f 0a5c 543f
00000060: 8e4d 603f e1a7 5e3f ff19 803f a554 673f
00000070: c995 3e3f 9e97 623f 1e1d 603f a413 4c3f

layer2.0.bn1.bias f4 [32]
-0.20326205 -0.03307743 -0.24578696 0.103973664 0.024247633 0.038973376 -0.11814416 -0.16406088
-0.12063291 0.08201573 -0.16127777 -0.11013231 -0.15145487 -0.025398936 -0.16198725 0.047612373
-0.09646945 -0.23054293 -0.2626744 -0.2779521 0.002219238 -0.16762857 -0.06201627 -0.16796398
-0.23712453 -0.02234148 -0.17526737 -0.07083517 -0.30330285 -0.18431455 -0.08770319 -0.12558788
00000000: ed23 50be 337c 07bd 94af 7bbe 25f0 d43d
00000010: f9a2 c63c 8ca2 1f3d 91f5 f1bd 93ff 27be
00000020: 630e f7bd ddf7 a73d 0026 25be 0c8d e1bd
00000030: fc16 1bbe 6e11 d0bc fcdf 25be 3105 433d
00000040: c691 c5bd 7213 6cbe 427d 86be bd4f 8ebe
00000050: a370 113b d3a6 2bbe c604 7ebd c0fe 2bbe
00000060: c6d0 72be 7b05 b7bc 4a79 33be 0812 91bd
00000070: 834a 9bbe f4bc 3cbe bb9d b3bd 1c9a 00be

layer2.0.bn1.running_mean f4 [32]
-3.0502625 0.10385202 0.8613425 -11.690869 -3.1721437 1.2374468 -0.2931075 -0.64051694
-3.674527 8.636309 -0.9360233 0.9067373 -1.4974201 -3.2067156 0.3765038 -4.618854
-5.116182 -0.23592739 -2.652654 -1.160205 1.7454351 -0.001838433 -3.4724517 -0.113529325
0.5801602 1.7423013 -0.012773858 0.33793628 3.1948733 -4.198679 -0.23563844 -2.3230298
00000000: 8037 43c0 5eb0 d43d f180 5c3f cd0d 3bc1
00000010: 6704 4bc0 a864 9e3f 3012 96be ebf8 23bf
00000020: 732b 6bc0 522e 0a41 399f 6fbf f01f 683f
00000030: 76ab bfbf d43a 4dc0 1bc5 c03e a7cd 93c0
00000040: c3b7 a3c0 f396 71be 15c5 29c0 9981 94bf
00000050: 6b6a df3f 93f7 f0ba a63c 5ec0 1082 e8bd
00000060: 6185 143f bb03 df3f 7249 51bc fc05 ad3e
00000070: ce78 4c40 945b 86c0 344b 71be 85ac 14c0
