Output/swift-iid-8W-pattern1-ring-2sgd-200epochs/r4-epoch_16-parameters.pt (torch, 731706 bytes, 92 tensors)

conv1.weight f4 [16, 3, 3, 3]
000000 9d 24 53 be b9 d9 85 be 58 f3 e8 be 4f 5d 84 be
       -0.20619436 -0.26142672 -0.45498157 -0.2585244
000010 46 08 1e bd 74 a7 ba be d0 05 1b be c2 41 3c bf
       -0.03858211 -0.36455882 -0.15138936 -0.7353784
000020 e4 9a 1f bf 93 b1 1b be 75 0b 08 bd e1 9e 83 be
       -0.6234572 -0.15204458 -0.03321405 -0.25707152
000030 46 27 d1 3d 02 22 06 3f c9 d7 9f 3c 1e 97 c0 bd
       0.10212569 0.5239564 0.019512074 -0.09403823
000040 44 4a 75 be 50 96 8f be 17 ec 03 3e 5a 19 d1 3e
       -0.23954111 -0.28044367 0.1288303 0.40839654
000050 03 7e 22 3e a0 3d 23 3f de 6d 89 3f c3 1e 03 3f
       0.15868382 0.6376591 1.0736654 0.51218814
000060 df e2 52 3e c4 b1 4a 3e 26 71 25 3e 4e 53 26 be
       0.20594357 0.19794375 0.16156444 -0.16242716
000070 91 9d a4 3e 04 e4 44 be d4 8b 41 be 50 9c 4c be
       0.32151464 -0.19227606 -0.18900996 -0.19981503
000080 ad f4 68 be df 90 25 3e 10 20 85 3e 2d 60 56 3e
       -0.22749586 0.16168545 0.26001024 0.20935126
000090 04 62 2d 3e 34 61 2e 3f 04 a7 28 3e c0 dc c7 be
       0.16931921 0.6811707 0.16469961 -0.39035606
0000a0 8f a4 64 be 8d 9e 5b be 54 5d 81 be 04 bd f8 bd
       -0.22328399 -0.21447201 -0.25266516 -0.12145427
0000b0 15 20 2d be ad a7 b3 3e 3c e5 48 3f 60 26 e8 3e
       -0.1690677 0.35088864 0.78474784 0.45341778
0000c0 c3 c8 8a be f5 e3 a3 bd 9b a1 04 be f9 a1 c3 be
       -0.27106294 -0.08002464 -0.12952273 -0.38209513
0000d0 38 9c 47 be 84 cc 86 be 5c 4e a6 3c ee e9 e7 3d
       -0.19493186 -0.26327908 0.020301037 0.113239154
0000e0 86 d4 f4 3c fc b9 55 3e 3b 9a 41 3f 50 f4 22 bd
       0.029886495 0.20871729 0.7562596 -0.039783776
0000f0 69 04 04 be 9e b2 ba bd 5e 6c d8 bc 61 3c 96 be
       -0.12892307 -0.091161 -0.026418861 -0.2934294
000100 cd bc 69 be dd 21 eb be e5 34 42 3e 20 7d 13 3f
       -0.22825928 -0.45924273 0.1896549 0.576128
000110 be 35 aa be 79 01 cb bd 81 4f 76 bd 89 0c 07 be
       -0.33244127 -0.0991239 -0.060134415 -0.13188376
000120 ad 80 6b be 79 a9 9d be 39 a1 0e bf 73 c8 d2 3e
       -0.22998305 -0.3079336 -0.55714756 0.41168556
000130 6e f6 2d 3f 22 5d 75 bd 2c e1 4e 3e 8b a7 05 3e
       0.67954147 -0.05990327 0.20203084 0.13052194
000140 a5 38 fe bb a9 d1 d7 bd 02 f3 d1 bb 2b 12 33 be
       -0.0077582174 -0.105380364 -0.0064071426 -0.174874
000150 a3 04 ed bd c6 27 f1 bd 60 9c 82 be dc 29 b3 3d
       -0.1157315 -0.11775164 -0.2550993 0.087482184
000160 65 b8 a4 3d d1 32 a8 3c b7 bf 28 bd c6 3f 58 3e
       0.08042983 0.020532044 -0.04119846 0.21118078
000170 22 88 3a bd f9 e7 5b bd 80 9d e4 3d 85 9c 5e bd
       -0.045539983 -0.053688023 0.11162853 -0.054348487
000180 50 5e cd bd b3 e2 04 3e 18 83 ec 39 9b 95 56 3e
       -0.10027754 0.12977104 0.000451111 0.20955507
000190 ba 52 1f 3f 94 d8 4f 3e ad 1d 9c 3e 32 e3 1a 3f
       0.62235606 0.20297462 0.3049139 0.6050292
0001a0 04 66 ad 3e b7 28 1b 3d d9 fd 86 3e 4b 52 23 3e
       0.33866894 0.037880626 0.26365545 0.15949361
0001b0 39 07 13 3e b2 86 a5 3e 0d 66 63 3e ca 53 09 3e
       0.14358224 0.32329327 0.22206898 0.13410869
0001c0 0a 58 08 be aa d0 93 3e 2f ef 11 3d 13 6d cc bd
       -0.13314834 0.28870136 0.035628494 -0.09981742
0001d0 e5 29 d2 3d c5 79 42 be c4 64 ae be f8 02 9f be
       0.10261897 -0.18991764 -0.34061253 -0.31056952
0001e0 ae ce 9c be 99 8b 43 bf 61 7e 98 be 0a 9c ab 3d
       -0.30626434 -0.76384884 -0.2978392 0.083793715
0001f0 44 fa 91 be ad 7b 1a 3d e6 34 36 bd 0a f8 9a 3d
       -0.2851125 0.037715603 -0.04448404 0.07566841
000200 8a 6b 6d bc 32 f7 81 be 67 6b 04 bf 4d bf 0d be
       -0.014490971 -0.25383908 -0.5172638 -0.13842507
000210 a3 d8 ee 3c 64 ed 9b bd c9 01 37 3e 41 2b d7 3e
       0.029156035 -0.07613638 0.17871775 0.42025188
000220 3a e2 10 3f 1e b0 5f 3e 45 de 19 3f 93 ba a8 3e
       0.56595194 0.21844527 0.6010478 0.32954845
000230 66 92 61 be ec 49 03 3e 2d e2 3d be a6 df cb be
       -0.22028503 0.12821168 -0.1854331 -0.39819068
000240 ff bc 8d 3e ab 44 43 bd bf be bd be bf fc a1 3e
       0.27683255 -0.04767291 -0.3705959 0.31638142
000250 35 b3 cb be 19 d4 72 bf 38 d6 09 3d f6 dc c3 be
       -0.39785162 -0.94854885 0.03365156 -0.38254517
000260 0a d4 0f bf ae a5 d1 3e 7e 0d a2 3e e8 62 c9 bb
       -0.5618292 0.40946716 0.3165092 -0.0061458237
000270 08 9a b0 3e 89 db b2 bd 70 3a 08 bf 2d 58 af 3e
       0.34492517 -0.08733279 -0.5321417 0.3424696
000280 b4 d2 3a 3d 9c d0 a3 bd b3 31 38 3f 72 c2 50 3f
       0.0456111 -0.079987735 0.71950835 0.815467
000290 77 42 bb 3e e7 57 d9 bc 41 8a c2 be 7d 0c ca be
       0.36574146 -0.026531173 -0.37996104 -0.39462653
0002a0 a7 14 94 be 8c 7e 57 bf f9 15 0f bf b5 6f bc 3e
       -0.28922006 -0.8417747 -0.558929 0.36803976
0002b0 9c 73 2e 3f 7e 25 c8 3e 51 34 4d ba da cc 60 be
       0.68145156 0.39091104 -0.0007827925 -0.21953145
0002c0 d2 83 67 bd a2 e7 0e be a2 56 0b bf 42 d7 51 be
       -0.056522198 -0.13955548 -0.54429066 -0.2049227
0002d0 1a 89 13 be a9 83 9d 3e 5e 3f 89 3e 80 44 6d be
       -0.14407769 0.3076451 0.26806158 -0.23170662
0002e0 8d b1 d0 bd b4 f0 e1 3d 3a 66 e1 bd 8b 5d 5c be
       -0.10190115 0.110322386 -0.11005826 -0.21520059
0002f0 50 60 4b 3e 74 37 1c be 2f 2e a5 3e 87 c8 3c bc
       0.19860959 -0.15255529 0.32261798 -0.011522419
000300 63 b7 47 be 52 fa 98 3f cd 62 08 3e 88 50 98 3c
       -0.1950355 1.1951392 0.1331894 0.018593088
000310 9c 59 14 bf 1f 4f 03 3d 24 32 78 be 2d 14 c3 3e
       -0.57949233 0.032057878 -0.24237877 0.3810133
000320 56 07 02 3e fc 61 0c bf 8a 17 41 3f dd c4 e5 bd
       0.12698111 -0.5483701 0.7542654 -0.11219189
000330 5c 3f 9c bd ca 13 36 bf 45 17 ea bd 7d 38 3b 3d
       -0.07629272 -0.71123946 -0.114302196 0.04570817
000340 08 25 62 3d bb 87 b6 bc db 5c 95 be f0 a2 27 3f
       0.055211097 -0.022281518 -0.29172406 0.65483
000350 f7 1d 6a be 89 f4 f0 3d ee 08 b9 be e7 f6 f8 3b
       -0.22862993 0.117653914 -0.36139625 0.0075977924
000360 f4 c1 5b ba b6 df 4d bc e3 25 ab 3d cb 5e 02 3f
       -0.0008383088 -0.012565544 0.08356836 0.5092589
000370 8d 33 24 3f 6f 27 52 be a1 e5 8a 3e b5 dc 17 3f
       0.6414116 -0.20522855 0.27128318 0.5932115
000380 fe ac 2d 3e 19 26 46 be b2 c6 d4 be 1f e0 cb be
       0.16960523 -0.1935047 -0.41557842 -0.39819428
000390 71 c4 30 be 69 7b 92 be d3 39 87 bf 9e ea d4 be
       -0.17262436 -0.2860978 -1.0564522 -0.4158525
0003a0 2d b6 ae be 92 dd 0c bf 5c 9d b1 3e df f6 c6 3e
       -0.34123364 -0.5502559 0.34690368 0.38860223
0003b0 2f 80 08 3f be 6d 92 3e 66 6d 86 3e 2e c3 5f be
       0.5332059 0.28599352 0.2625534 -0.21851799
0003c0 80 26 3e 3d dc ad 79 3e b2 07 b7 3d c7 74 de 3d
       0.046423435 0.24382728 0.08937015 0.10862117
0003d0 ea c5 82 3e 3e 57 05 3f 84 5c 87 3e 3a 31 9d bc
       0.2554162 0.52086246 0.2643777 -0.019188512
0003e0 13 34 69 be 6e 3e 34 be f5 62 b4 be 9d 98 92 be
       -0.22773771 -0.1760194 -0.35231748 -0.2863206
0003f0 7b cb 40 be 9b bf bc be f6 0f 8c be cf af 9d 3e
       -0.18827622 -0.36864933 -0.27355927 0.30798194

conv1.bias f4 [16]
000000 d3 f6 08 bd 63 c4 ad bc 9e 8c c1 bc 7e 9a 33 3d
       -0.033438515 -0.021211809 -0.023626622 0.043848507
000010 83 ba 25 3d b1 53 40 bd e7 cf 13 bb cf 66 38 3c
       0.040461075 -0.046954814 -0.002255434 0.01125498
000020 16 97 12 bd 19 84 42 bd c7 2e 59 bc 8f db b1 bc
       -0.035788618 -0.04748926 -0.0132557815 -0.021711139
000030 48 93 91 bc db aa 11 3d 20 6e 15 3c ba 36 05 bd
       -0.017770424 0.03556333 0.009120494 -0.032522894

bn1.weight f4 [16]
000000 35 29 42 3f cb 6c 3f 3f 80 7a 4e 3f c0 64 43 3f
       0.75844127 0.7477538 0.8065567 0.7632561
000010 b9 81 9a 3f 0b 6b 76 3f a8 90 83 3f 0d 7a 8a 3f
       1.2070838 0.96257085 1.027852 1.0818497
000020 a5 39 5f 3f 66 a4 6e 3f d0 55 5d 3f e1 41 87 3f
       0.87197334 0.932196 0.86459064 1.056698
000030 45 54 7e 3f 9e e4 5d 3f 58 29 71 3f 91 65 91 3f
       0.99347335 0.8667697 0.9420371 1.1359121

bn1.bias f4 [16]
000000 2d 4d 16 3f 4b 4b 39 3f ee cc d2 3e d1 67 d9 bd
       0.5871151 0.7238051 0.41171974 -0.106155045
000010 af b0 25 be 38 b4 c0 3e 6a 78 83 3f b3 ee 92 3f
       -0.1618068 0.37637496 1.0271122 1.1479095
000020 f4 ba c6 3e 1c 6e 8c 3e 87 10 57 3d 2f e7 aa 3f
       0.3881451 0.27427757 0.052505996 1.3351802
000030 77 60 e1 bd 02 fc 31 3f 7d 01 8f 3e 49 57 03 3f
       -0.11004727 0.6952516 0.27930823 0.5130506

bn1.running_mean f4 [16]
000000 e2 7e 89 bd 11 66 ba 3c 60 60 31 be c4 22 3e bf
       -0.06713654 0.022753747 -0.1732192 -0.742718
000010 db 29 51 3f 43 17 69 bd f0 2c 20 3e 0a ba 03 be
       0.8170449 -0.05690695 0.15642142 -0.12863937
000020 4b 75 0d 3c 9a c2 b2 3e 4a 22 ef 3e fd d1 34 3e
       0.008633922 0.34914094 0.46705848 0.17658229
000030 30 2e 4b 3e d1 61 34 be 55 e7 6f 3e ce 91 5b 3e
       0.19841838 -0.17615439 0.2342809 0.21442339

bn1.running_var f4 [16]
000000 f1 a1 fb 40 8e 33 6d 40 79 fe 52 40 c9 41 24 41
       7.863518 3.7062716 3.2967818 10.266061
000010 b9 26 03 41 83 9c 14 41 49 86 24 41 f9 1e 4b 40
       8.196954 9.288211 10.282784 3.1737654
000020 94 87 35 40 5a db 76 40 f7 2a b1 40 b6 4b 42 40
       2.8364 3.8571382 5.5364947 3.035871
000030 6b 31 50 40 19 99 8b 40 4e 43 8b 40 74 1b a9 40
       3.2530162 4.3624387 4.351966 5.284601

layer1.0.conv1.weight f4 [16, 16, 3, 3]
000000 5f 06 91 bd c9 ea 95 bd 6b fb 39 bd 89 b0 9f bd
       -0.07081293 -0.07320172 -0.045405786 -0.07797343
000010 a7 f4 98 bc d6 03 10 bd 22 42 cd bb 9d 60 75 3b
       -0.018671347 -0.03515991 -0.006263987 0.003744162
000020 c3 c2 19 3c 03 ba 57 3d 0f f5 08 3e 9b 10 1e 3e
       0.009384814 0.05266763 0.13374732 0.15436022
000030 7e 88 2b be 27 2b cf bd ab 39 26 bd 95 8c 30 be
       -0.16751286 -0.101156525 -0.04058234 -0.17241128
000040 7f 20 2c be d3 64 2f be a5 05 72 bd 06 be 70 bb
       -0.16809271 -0.17128305 -0.059087414 -0.0036734357
000050 91 f9 2c bd 8e 7b c5 3b 89 fd 4b 3d 7b 81 50 bd
       -0.042230193 0.0060266918 0.049802337 -0.050904732
000060 63 de 47 bc c4 7b 13 3d 3d a6 b0 bc 26 90 ca 3d
       -0.012199017 0.036006704 -0.021563644 0.098907754
000070 ab e4 c3 3d 7d 5a 80 3d 22 ec 23 3d c1 7b 64 3b
       0.09565099 0.06267259 0.040020116 0.0034863802
000080 20 7e f6 bc 5f a4 5b 3d c7 a0 84 3d 29 4b a6 3b
       -0.030089438 0.053623553 0.06475978 0.0050748778
000090 dc cb 8c 3d 77 9f 4b 3d b2 87 47 3d 85 01 1a 3e
       0.068748206 0.049712624 0.048713394 0.15039642
0000a0 24 92 29 3e b0 41 9d 3d 00 61 84 3d 52 a1 a0 3d
       0.16559654 0.076785445 0.06463814 0.078432694
0000b0 2f 61 85 bc 6a 6c f5 bc 9f f3 09 3e 8e fb 31 3e
       -0.016281692 -0.029958922 0.1347184 0.17381117
0000c0 5f 01 07 bb a9 23 38 3e e6 d8 44 3e 88 62 3f bd
       -0.0020600182 0.17982353 0.19223365 -0.046724826
0000d0 ab ea f7 3d ac 3f 81 3d f2 d9 6f bd 8e b9 a7 bc
       0.12105306 0.063109726 -0.05855746 -0.020474222
0000e0 04 9d 90 3d 33 d3 2c be c8 a9 a2 bd 05 33 50 3d
       0.07061198 -0.16877441 -0.079425395 0.050829906
0000f0 5c 23 85 bd 9b ab 2a 3d 61 93 54 3d 43 14 12 bd
       -0.06500885 0.041667562 0.051898364 -0.035663854
000100 b0 30 dd 3d 5d 5c 9b 3d 0d 0b c3 3d f6 e1 5f 3e
       0.10800302 0.07585976 0.09523592 0.21863541
000110 f6 3c 57 3e 47 50 98 bd 4c 99 4a 3c c9 a7 59 bd
       0.21019349 -0.07437187 0.01236565 -0.053138528
000120 ac 33 2f 3e f6 1b ad 3e 14 19 53 3e 16 f7 13 3e
       0.17109555 0.33810395 0.20615035 0.14449725
000130 13 c1 92 3e 08 98 0e 3e 06 5a 3f bd 30 ce 2b 3d
       0.2866293 0.13925183 -0.046716712 0.041944683
000140 26 b6 f3 bc 32 79 00 be 2e 93 9a bd 18 14 bf bd
       -0.029749941 -0.12546232 -0.075476035 -0.093300045
000150 07 94 a5 3d 73 1b 8a 3d 3d 52 a4 3c 0c ea e3 3d
       0.080848746 0.06743517 0.020058746 0.11128625
000160 79 28 26 3e 5d 4e 9d 3d 06 da 2c bd b8 5d 80 bd
       0.16226377 0.07680962 -0.04220011 -0.062678754
000170 90 a3 b9 bd 3c 86 29 bd 9f d3 53 bd 6c c4 01 bd
       -0.090644 -0.04138778 -0.05171549 -0.031681463
000180 16 8a 68 bc bd cc 44 bc e4 c1 ab ba e2 5c 3e 3c
       -0.0141930785 -0.012011704 -0.0013104049 0.011618825
000190 af 42 af 3d 63 25 09 3d 80 02 5a 3d ab e0 7d 3d
       0.08557641 0.03348292 0.05322504 0.06198184
0001a0 67 29 c3 ba 48 0e bb bd ae 7c a5 bd 77 66 f1 bd
       -0.0014889658 -0.09133583 -0.080804214 -0.11787122
0001b0 83 6f 62 bd 01 4c a7 3d d0 b6 2c 3e 0f 99 61 bd
       -0.055282127 0.081687935 0.16866612 -0.05507761
0001c0 07 7e 5a 3d 28 e4 2a 3e 2f 1f 9b bd 17 f8 23 3d
       0.053342845 0.16688597 -0.07574307 0.04003152
0001d0 c0 ed 82 3d 06 66 00 3e ef 87 6e 3e 23 43 6d 3e
       0.063930035 0.12538919 0.23294042 0.23170142
0001e0 70 cb 1c 3e 79 eb a3 3e aa 80 7e 3e 53 64 35 be
       0.1531198 0.3201559 0.24853769 -0.17714052
0001f0 fc bf 3d 3c e1 77 ac bc 22 72 13 3e 5f c6 97 3e
       0.011581417 -0.021053256 0.14399007 0.29643533
000200 3a f9 95 3e 10 48 19 3e f4 2c 9e 3e 09 71 a6 3e
       0.29291707 0.14968896 0.30893672 0.32508114
000210 ec b0 0b 3b 02 d3 89 3d 25 eb a1 3d cc 93 9a bc
       0.002131517 0.067297 0.079061784 -0.018869303
000220 ff ba 5f bc 79 66 62 bd c9 a2 57 bd cc 78 e6 3c
       -0.013655423 -0.055273507 -0.05264548 0.028133772
000230 b7 36 a9 3c 74 52 09 3d cc a8 2a 3d 42 bf 67 3d
       0.020655973 0.0335259 0.041664883 0.056578882
000240 e2 58 87 3d 51 ff 84 3d bf 64 2a bd a8 23 e4 3d
       0.0660875 0.0649401 -0.041599985 0.111396134
000250 cb 56 8c bd a3 e2 5b bd d7 16 4d 3e 9c 21 00 3c
       -0.06852492 -0.053682934 0.20028244 0.007820513
000260 58 2a 36 bd d4 4a b0 3d 15 c0 84 3c a0 21 d1 3c
       -0.044473976 0.08608022 0.016204873 0.025528729
000270 bc 43 df 3d fe f7 b0 3a 89 f9 d6 3d ad 4f fe 3d
       0.10901591 0.0013501642 0.10496814 0.12417541
000280 34 d0 2b bd 71 5b cd 3d 2e 06 37 3b 85 08 83 bd
       -0.041946605 0.10027207 0.0027927267 -0.06398109
000290 e0 43 bb bd 94 ad 98 3c 8f b2 20 be 58 16 53 bd
       -0.091438055 0.018637456 -0.15693115 -0.05153498
0002a0 7d 94 e3 bc 39 f2 9d bd 32 43 8a bd 10 1f bb bb
       -0.027780766 -0.07712216 -0.06751098 -0.00571049
0002b0 0b 3b 55 3c 04 e6 a7 3d 71 9c e7 3c 65 a1 bc bc
       0.013014565 0.08198169 0.02827284 -0.023026178
0002c0 17 d2 b7 3d 44 f6 40 bc 40 68 98 bd 33 c7 16 3d
       0.08975618 -0.011777464 -0.07441759 0.036811065
0002d0 d1 17 3e bd d3 78 97 3d c9 9d 09 3c c3 3d c6 bd
       -0.04640943 0.07396092 0.008399435 -0.09679749
0002e0 43 a4 ab 3d ba d2 04 3d 72 47 78 bd ba 94 33 3c
       0.0838094 0.032427527 -0.06061501 0.010960752
0002f0 9c 46 7e 3d 42 50 b4 3d be 76 01 3d b8 cf 06 be
       0.062079057 0.088043705 0.031607382 -0.13165176
000300 55 42 c3 3d 3f da ec bc 23 34 9e be ea 02 94 bd
       0.09534136 -0.028912662 -0.30899152 -0.07227118
000310 6e f9 db bd 17 4b 56 be 0e 50 0f 3d 0f 4f 20 3e
       -0.10740934 -0.20927082 0.034988455 0.15655158
000320 68 fc 1e be 69 7c a7 bc 1f f7 bb 3d fc 7b 30 be
       -0.15525973 -0.020445066 0.09177994 -0.17234796
000330 ef 00 9d 3b cb a9 81 bd d9 15 f7 bd 22 6b 61 3c
       0.004791371 -0.063312136 -0.12064714 0.013758453
000340 33 01 12 3e 4d 38 ef 3d 96 09 0c bd a5 b6 82 be
       0.1425827 0.116806604 -0.03418883 -0.25529972
000350 ac 75 b8 3e 9f fe 89 3d 7a 06 23 be c1 3e a8 3e
       0.36027277 0.06738018 -0.1592044 0.32860377
000360 34 5b 98 3c 0d 52 a6 bd 4c 4f 9c bc 22 24 38 3e
       0.018598177 -0.08121119 -0.01908078 0.17982534
000370 08 0b 11 be 9f 5f 68 be 64 1a 8f 3d 66 ac 65 bd
       -0.14164364 -0.22692727 0.069874555 -0.056072615
000380 05 59 d6 bd 94 32 15 bd 5b 93 93 bd eb a0 19 be
       -0.10466198 -0.03642519 -0.0720584 -0.15002792
000390 ef c6 8c 3d 3d 8e 9b 3b d3 c5 49 be 59 13 d5 bb
       0.06873881 0.0047471807 -0.1970437 -0.0065025506
0003a0 98 60 b7 3d c8 48 3e bd 9e 70 1a 3d 1a 4e 42 bd
       0.08953971 -0.04645613 0.037705056 -0.047437765
0003b0 ae 80 ac bd c6 83 b6 3d fe 36 ed 3b de b6 cc bd
       -0.08422981 0.089118525 0.0072392216 -0.09995817
0003c0 12 33 dc 3d 6c 41 af 3d cf 0f ec bc 51 37 da bd
       0.107519284 0.085574 -0.028816132 -0.10655082
0003d0 cc cf a9 bd c3 d3 e3 bd f5 9b ff bc 9f dc 98 3e
       -0.08291587 -0.11124375 -0.031202296 0.2985582
0003e0 bc ea bb be 24 26 a1 bc ae 24 96 3e 76 a6 48 be
       -0.36702526 -0.019671507 0.2932486 -0.1959475
0003f0 f6 fa 14 bd 7d 04 41 bd 81 22 8b bd 57 04 14 3e
       -0.036372148 -0.04712342 -0.067936905 0.1445478

layer1.0.conv1.bias f4 [16]
000000 79 14 47 3b 25 3c 64 bc 13 c6 be bb 9d 75 5e 3b
       0.0030377193 -0.013930355 -0.005821952 0.0033944615
000010 a5 6a 8f bc 7b 75 7d bc 37 f2 2e 3b 5e 52 be bb
       -0.017506907 -0.015469904 0.0026694664 -0.005808159
000020 9e 65 00 3c 25 5e b5 bb b0 13 1c 3c da e6 71 3b
       0.007836727 -0.0055349045 0.009526178 0.003691128
000030 b8 a9 a5 bc b2 85 86 3b ad 1f 80 3c c1 31 11 bc
       -0.02022253 0.004105293 0.015640104 -0.00886196

layer1.0.bn1.weight f4 [16]
000000 c5 ed 37 3f 02 df 91 3f b6 fc 1e 3f ec d9 53 3f
       0.7184718 1.1396182 0.62104356 0.827544
000010 40 c8 76 3f 7b 62 89 3f f5 9c 2f 3f c6 d9 51 3f
       0.9639931 1.0733179 0.6859887 0.8197292
000020 e9 b8 5b 3f bc 9a 29 3f 94 61 89 3f 83 e0 4c 3f
       0.85829026 0.6625173 1.0732903 0.8003008
000030 a5 52 5c 3f 18 f7 54 3f 84 5d 5f 3f de 6d 10 3f
       0.86063606 0.83189535 0.8725207 0.56417644

layer1.0.bn1.bias f4 [16]
000000 db 1a 94 be dd 42 0e be 95 3e 4b be 31 13 89 3d
       -0.2892674 -0.13892694 -0.19848092 0.066931136
000010 c6 5f eb bd a2 fb 5e 3f b2 f4 54 be 13 25 43 be
       -0.11492877 0.8710271 -0.20796469 -0.19057111
000020 b7 d5 8c be 2d e3 09 be 48 8a 93 3e 3c b2 4e 3d
       -0.275068 -0.13465567 0.28816438 0.050462946
000030 3e 0d df bd 9b 39 a7 3e d0 d9 ef bc 08 48 4a be
       -0.108911976 0.32661137 -0.029278666 -0.1975404

layer1.0.bn1.running_mean f4 [16]
000000 1c 18 43 40 31 2d 0f 3e e3 a5 66 bf 9b 5c 4d c0
       3.0483465 0.13982083 -0.90096873 -3.2087772
000010 c9 bc c3 be 22 97 51 bf 46 95 e6 3f 84 5b 23 3d
       -0.3822997 -0.81871235 1.8014305 0.039882198
000020 2c 97 bd 3f f3 8d 57 3c 01 1a 33 c0 0a 67 21 c0
       1.4811759 0.013156402 -2.7984622 -2.521914
000030 79 f6 c3 bf 50 13 f3 be 81 58 17 c0 30 53 15 40
       -1.5309592 -0.47475672 -2.3647768 2.3332024

layer1.0.bn1.running_var f4 [16]
000000 42 82 4e 40 ff 90 de 40 8b 06 18 40 dc 4e 21 40
       3.2267003 6.9551997 2.3753994 2.5204382
000010 fd f2 01 41 c1 14 3a 40 37 6d 07 40 0f 10 4c 40
       8.121823 2.9075167 2.116041 3.1884801
000020 e2 0d 80 40 62 b9 36 40 b4 ad 97 40 61 68 8f 40
       4.0016947 2.8550649 4.739954 4.4814916
000030 00 23 71 40 e7 32 00 40 66 41 00 40 2d 8c 12 40
       3.7677612 2.0031068 2.0039916 2.2898057

layer1.0.conv2.weight f4 [16, 16, 3, 3]
000000 d4 cf de bd ef 51 73 be e4 75 2e be 74 29 3d be
       -0.10879484 -0.23761724 -0.17037159 -0.18472844
000010 f2 f0 9d be 6a 0c 5e be 08 94 be bd 0d 79 83 be
       -0.3084789 -0.21684423 -0.093055785 -0.25678292
000020 a4 b9 9a bd 96 89 09 3b a1 ff 75 bd f4 d7 60 3d
       -0.075549394 0.0020986549 -0.06005824 0.05489345
000030 dc 79 9a bb 25 64 38 bd 29 1c e0 3d 60 b9 24 bc
       -0.004714234 -0.04501738 0.10942871 -0.0100539625
000040 cd 04 fa 3d ab 1b 19 3e 18 d3 11 bd 59 55 80 3d
       0.12207947 0.1495196 -0.035601705 0.06266279
000050 ac 2e c5 bd f1 8a 89 3b 4f 8f 09 3e 86 96 04 be
       -0.096280426 0.0041974713 0.13433574 -0.12948045
000060 4e 12 a3 bd 18 89 99 bb 6e 4d d0 bd ba 5c 68 3e
       -0.07962476 -0.0046855323 -0.101710185 0.22691622
000070 9a 5a ef 3d 48 4e a9 bd 44 bb 35 3d e5 87 54 3e
       0.11687203 -0.08266884 0.044368044 0.20754965
000080 e6 84 d0 bd cc 7d 51 bd 12 ac 82 bd 6a 99 a2 bd
       -0.10181598 -0.05114536 -0.06380476 -0.07939418
000090 65 a8 84 bd 48 f7 4f be 33 2b 8a bd 83 4c 9a bb
       -0.06477431 -0.20309174 -0.06746521 -0.004708828
0000a0 20 e4 13 bd 8f 5f b3 3d 48 08 ef 39 b2 8e b3 bb
       -0.03610623 0.08758461 0.00045591802 -0.005479657
0000b0 02 d1 1d 3e 44 b9 5e 3e ca d4 49 bd 90 47 ea bd
       0.15411761 0.2175036 -0.049275197 -0.11439431
0000c0 e1 ed 12 bd 47 e2 99 3e d6 52 f5 be be 73 56 3d
       -0.03587139 0.30055448 -0.4791476 0.052356474
0000d0 98 9f 3c be 25 55 59 39 28 78 42 3c b9 a4 a6 3d
       -0.18420255 0.00020726451 0.011869468 0.08136887
0000e0 29 01 b7 3c 57 50 47 3d 70 23 c8 3d ab 54 20 3d
       0.02233942 0.048660602 0.09772384 0.039143246
0000f0 4e 11 2a bd 39 8e 8f 3d 0a 4c b5 3d d1 65 d8 bb
       -0.04152041 0.07009549 0.08852394 -0.0066039343
000100 6d 39 79 bd da 2b d2 bc e9 73 39 3d ba b9 21 3d
       -0.06084578 -0.025655676 0.045276556 0.039483763
000110 18 01 03 3e b9 f0 06 3e 97 d9 1e 3e 2f 4c 0a 3e
       0.12793386 0.13177766 0.15512691 0.13505624
000120 80 e7 76 37 a7 0b a2 bd 43 5b 6c bd fe 07 a8 bd
       1.4716643e-05 -0.07912379 -0.05770422 -0.082046494
000130 88 7d 39 be ef 4a 53 bd a4 7c 5b 3c 6b 5c 9d bd
       -0.18114293 -0.051585134 0.013396416 -0.07683643
000140 82 14 dd 3c a1 7b c8 bd 3e c0 ca bd 82 49 20 be
       0.026987318 -0.09789205 -0.098999485 -0.15653041
000150 92 16 61 bd 7a f8 cd bd c7 3f 80 bc 9e fa 17 3d
       -0.054953165 -0.10057159 -0.015655411 0.03710424
000160 72 de 78 3d f6 ed 0e 3e 60 f0 1b 3e d0 4e cd 3c
       0.060759015 0.13957962 0.15228415 0.025061995
000170 ab c5 13 3e 24 1f d8 bc 99 eb 05 bd 8f 01 8b bd
       0.14430873 -0.026382037 -0.032695387 -0.06787407
000180 54 a0 87 bd ce 7a 89 3c dd 38 95 3d 8d 0c 80 bd
       -0.06622377 0.01678219 0.072862364 -0.06252394
000190 3f 70 f4 bd 50 6d 8f be a2 ce 49 bc 16 92 9f 3e
       -0.11935472 -0.28013086 -0.0123173315 0.31166142
0001a0 0d 01 d4 bc 44 32 08 be ca a7 1a bd 0a b2 ce bd
       -0.025879407 -0.13300425 -0.037757672 -0.10092552
0001b0 73 1f 37 3e 81 e1 4c 3e c3 3a 4d 3e 0b 2d 57 3c
       0.1788309 0.20007898 0.20041947 0.013133298
0001c0 e9 c4 f1 ba 38 cb 47 3b b6 be b6 bd aa 69 31 bd
       -0.0018445525 0.0030486118 -0.08923094 -0.04331366
0001d0 23 ef 98 bd 05 ba ed bd 47 08 ac bd c4 77 06 bd
       -0.07467487 -0.11607746 -0.08400016 -0.03282906
0001e0 e3 a9 16 be 3e c5 c7 3d 8d b4 9a 3e 0a ce c4 bd
       -0.14713244 0.09754418 0.30215874 -0.09609611
0001f0 1c 2f 74 bd 81 e4 2d 3e d0 b0 00 3e b8 76 12 3e
       -0.05961524 0.16981699 0.12567449 0.143031
000200 92 aa fe 3d bd 47 12 bd df 7c c7 3e 9a 4f 2a 3e
       0.124348775 -0.035712946 0.38962457 0.16631928
000210 9a 87 e1 bd e9 d6 90 bd 7e 18 99 3d eb 71 9a bd
       -0.11012192 -0.07072241 0.07475375 -0.075412594
000220 7d fa 19 bd 47 c9 35 bd ea ec 74 bd 91 ba 94 bd
       -0.0375924 -0.044381406 -0.05979625 -0.07262147
000230 20 62 65 bd b4 12 02 be c5 18 3e bd 8c a1 f9 bc
       -0.056001782 -0.12702447 -0.04641034 -0.03047254
000240 75 24 10 3d c7 48 82 3d ab 9a 95 bc a5 2f a0 3d
       0.035191018 0.063615374 -0.018262228 0.078215875
000250 99 53 d0 3d dd 08 97 3c 4d f1 84 3c eb fb 76 3d
       0.10172195 0.018436844 0.016228342 0.06029884
000260 89 ca 28 3d a8 7e 2d be 8e b0 5f be 22 bc 3a be
       0.041208778 -0.16942847 -0.21844694 -0.1823583
000270 e6 0c 15 be 8d ce 78 be 88 d6 74 be f0 1d 37 bd
       -0.14555702 -0.24297543 -0.23909962 -0.044706285
000280 45 99 a1 bd 11 7d 73 bd e8 d5 16 3d 1a de 3e 3d
       -0.07890562 -0.059445444 0.03682509 0.04659853
000290 92 f4 88 bc 0e c9 71 bc 6c d4 d7 bc 49 f3 98 bc
       -0.016718183 -0.014757408 -0.026346408 -0.018670695
0002a0 e2 96 e3 bd 52 ee f3 bd 57 cb c4 bd f2 9a 16 3d
       -0.11112763 -0.1191069 -0.096090965 0.03676886
0002b0 7b 34 29 bb 29 d7 31 3c a2 77 1c bd fd be bf bd
       -0.0025818634 0.010854521 -0.03820003 -0.093626
0002c0 50 49 ea bd 4a da b8 bd 6d 78 8f bd cb 9f a6 bd
       -0.114397645 -0.0902601 -0.07005391 -0.08135947
0002d0 09 20 b8 bd 86 b3 a7 bd ba 16 c2 bd f1 f5 42 be
       -0.08990485 -0.08188538 -0.09476991 -0.19039132
0002e0 10 43 2f be 79 d8 87 be cb 05 5f be f5 57 fd bd
       -0.17115426 -0.26532343 -0.21779554 -0.12370292
0002f0 3c bf 88 be fe df 4f 3d ba 5a 0b 3e a6 0c 95 bd
       -0.267084 0.050750725 0.13608828 -0.07277803
000300 4d 52 06 be 59 0f 71 be a0 db 99 bd 32 9f 14 bd
       -0.13117333 -0.23541011 -0.07512593 -0.036284633
000310 88 f2 08 3e ab 28 08 3e d0 33 ca bc 27 0d 4a bc
       0.13373768 0.13296764 -0.02468291 -0.012332237
000320 8d 7d c8 bc f3 f8 6e bd e2 af 7b bc 46 42 58 bd
       -0.02447393 -0.058342885 -0.015361758 -0.05279758
000330 43 c3 4f bd ce 46 be bb 92 62 19 bd 16 95 b0 bd
       -0.050723325 -0.0058067804 -0.03744752 -0.08622186
000340 cf af 72 ba c2 e8 c3 3c 52 4b 4d be 96 63 1b be
       -0.0009257765 0.023914699 -0.20048264 -0.15174708
000350 95 5f 90 bd 47 85 15 be d1 9c 09 be 80 0c de bd
       -0.07049481 -0.14601623 -0.13438727 -0.10842228
000360 60 25 64 be ae 1f 50 be 8d 5e e0 bd 36 5b ba bd
       -0.22279882 -0.20324585 -0.10955534 -0.09099428
000370 7c f6 f1 bd a9 3e b1 bd 4c d6 af 3d 7c 6a f4 bc
       -0.11814591 -0.086545296 0.08585796 -0.029835932
000380 9c a2 45 bd cf 28 ae 3d 34 a1 01 3e 81 07 96 3d
       -0.04825078 0.08503877 0.1265915 0.0732565
000390 46 46 c8 3c c3 b8 7e 3d 3b 24 d4 3b 97 d6 3c bd
       0.024447571 0.06218792 0.0064740456 -0.046103086
0003a0 ec 1f a6 bd 50 df b9 bd 89 46 21 bc 91 e0 23 be
       -0.08111557 -0.090757966 -0.009843477 -0.16003634
0003b0 a7 14 e6 bd 50 68 49 3d f2 4f a1 3d c5 83 39 3d
       -0.11234408 0.049171746 0.078765765 0.04529168
0003c0 86 aa c7 3d 1e ac a5 3d 32 3e 86 3d af 5d 30 3d
       0.09749322 0.080894694 0.065548316 0.043058094
0003d0 3a 45 ee 3d a1 69 b0 3d f8 a9 29 be 28 e2 f3 bd
       0.11634298 0.08613897 -0.16568744 -0.1190837
0003e0 72 97 35 be 1d f2 0f be 38 05 17 be e9 e8 ed bd
       -0.17733553 -0.14057203 -0.14748085 -0.1161669
0003f0 55 32 c6 3d 20 39 c0 3d bc 53 de 3d 34 91 2b 3d
       0.09677569 0.09385896 0.10855815 0.041886523

layer1.0.conv2.bias f4 [16]
000000 10 14 0b bc be 13 f1 3c bd 69 25 bc a8 18 5f 3b
       -0.00848867 0.02942836 -0.010096011 0.0034041796
000010 e9 cf 61 3c 40 d8 14 3c 1e fe b7 bb d3 c3 4f bc
       0.01378248 0.009084761 -0.00561501 -0.0126809655
000020 19 8f 7d 3c 77 e4 43 bc 71 10 8c bc 50 c2 aa 3c
       0.015476012 -0.011956326 -0.017097684 0.020844609
000030 9b 18 7a bc ab 1a 05 3c c6 53 60 ba a6 50 14 3b
       -0.015264655 0.008124034 -0.0008557405 0.0022631078

layer1.0.bn2.weight f4 [16]
000000 35 5c 07 3f f8 48 38 3f 20 a7 11 3f de 6f 21 3f
       0.5287507 0.7198634 0.5689564 0.6306132
000010 3c fe 16 3f 65 12 33 3f ea d7 28 3f 00 b5 81 3f
       0.5898168 0.6994994 0.6595446 1.0133362
000020 ec 9c 79 3f bc fb 67 3f 4a a9 06 3f ff 2b 7d 3f
       0.9750507 0.9061849 0.52602065 0.9889526
000030 98 e7 6c 3f 18 68 8c 3f ac 35 21 3f f7 5b 80 3f
       0.92540884 1.0969267 0.6297252 1.0028065

layer1.0.bn2.bias f4 [16]
000000 85 95 bf bd 52 d3 82 bd f8 59 2e 3d 21 6d 30 3e
       -0.093546905 -0.063879624 0.04256627 0.1722913
000010 f0 e9 c8 bd 9e 60 38 be 4c 63 59 3e 67 d5 c6 3e
       -0.09810245 -0.18005607 0.21229285 0.38834688
000020 d0 38 3f 3c 9b 2b 8e be 6c bf bc 3d 3b ce 05 bd
       0.01167126 -0.27767643 0.09216198 -0.03266738
000030 a3 90 e8 3d 87 6c d5 3e 3a 2d 53 3c be ae 79 3d
       0.11355712 0.41684362 0.012889201 0.060957663

layer1.0.bn2.running_mean f4 [16]
000000 68 00 18 be e9 ca cb bf d2 3e 39 3e 57 a9 51 bf
       -0.14843905 -1.5921298 0.1809037 -0.8189902
000010 70 85 01 3f b7 0e b6 bf fa 2a 2c 3f e1 fe b6 bf
       0.50594234 -1.4223241 0.6725308 -1.4296533
000020 a2 0a 66 3d ae 85 37 3f a8 ff e5 3c db ff 26 bf
       0.056162484 0.71688354 0.028076008 -0.65234154
000030 4b d9 7d 3f 3f b6 8d be 1f b6 66 bf 9f 08 ea be
       0.9915969 -0.27678105 -0.90121645 -0.45709702

layer1.0.bn2.running_var f4 [16]
000000 f6 39 a0 3f 7a ee b6 3f 61 1f 87 3f 62 59 11 40
       1.2517688 1.4291527 1.0556451 2.2710805
000010 3d 3e a4 3f fe fa b2 3f 13 8d 10 40 9e 49 c1 3f
       1.2831494 1.3982847 2.2586105 1.5100591
000020 ee 34 aa 3f e4 50 81 3f 5e 6b d2 3f 17 72 d0 3f
       1.3297403 1.0102811 1.6439016 1.6284817
000030 a5 c8 8a 3f 3c e3 ea 3f aa 24 23 40 64 7b af 3f
       1.0842482 1.8350596 2.5491128 1.3709531

layer1.1.conv1.weight f4 [16, 16, 3, 3]
000000 fd b3 29 3d 74 fb f5 bd 0f 88 ab bd b0 7d 3c 3e
       0.041431416 -0.120108515 -0.083755605 0.18407321
000010 dc 88 15 3e 31 23 89 3d 85 86 51 3d ea 28 77 3a
       0.14602989 0.06696165 0.05115368 0.0009428399
000020 24 a5 4f ba 8d e9 d6 bd 85 68 9c bd 11 f2 9c bd
       -0.0007921031 -0.10493765 -0.07637123 -0.07663358
000030 56 56 6f 3c 37 45 2e bd 1c 9f a5 bd 60 56 59 3d
       0.014607986 -0.042546477 -0.08086988 0.05306089
000040 cd 73 87 3d 9c f1 28 bc 31 d6 24 3e 00 0a cc 3d
       0.06613884 -0.01031151 0.16097333 0.09962845
000050 f9 76 24 3d 3b 3e 53 3e ff fa a7 3e 2d aa 88 3e
       0.040152524 0.20629208 0.32808682 0.26692334
000060 aa 0d 54 bc 51 fe a4 bc ee 10 56 3d f5 45 a0 bd
       -0.012942711 -0.020140799 0.05226224 -0.07825843
000070 14 98 d1 bd aa aa f3 bd cc e3 d0 3d 68 02 c0 3d
       -0.10234085 -0.11897786 0.10199699 0.09375459
000080 13 b6 c4 3b a3 e8 26 3e c6 c6 53 3e 9c 9a 26 3e
       0.0060031503 0.16299681 0.20681295 0.16269916
000090 ca 4e c3 bc ce da db 3c 2c 29 55 bc b4 54 69 bd
       -0.02384128 0.026837733 -0.013010304 -0.056965545
0000a0 3e 97 c5 bc b9 1c 8d bd f1 0a 52 bd ef d8 0f bd
       -0.02411997 -0.06890244 -0.051279966 -0.035118993
0000b0 60 a6 f5 bd 40 14 4d bc 10 f8 75 bd 17 53 06 be
       -0.11994624 -0.012517035 -0.060051024 -0.13117634
0000c0 13 c7 65 3c 57 cd 9a bd ba 1e fd bd 4f 1f 24 3d
       0.014024514 -0.07558697 -0.12359376 0.04006892
0000d0 b8 8e e1 bc a6 1b 50 bd cc 73 dc 3b fc ce 13 3a
       -0.027533874 -0.050807618 0.0067276713 0.0005638448
0000e0 f7 4d 41 3d d6 97 3d 3d 9e 75 5b 3c 68 bb cf 3b
       0.047193494 0.04628738 0.013394741 0.0063394792
0000f0 3f 9c 01 bc f9 b3 d3 bc f8 66 ca bd a3 2d 0e bd
       -0.007910787 -0.025842654 -0.09882921 -0.03471149
000100 6e 24 d9 bd d0 88 88 bd 97 43 11 3d 75 7b 9e 3d
       -0.106026515 -0.0666672 0.03546485 0.07738391
000110 97 e3 bc bd 17 17 69 3d ab b1 ee 3d c3 54 38 3d
       -0.09223097 0.056906786 0.11654981 0.04500271
000120 e8 67 e1 bc c0 ea f0 bd 17 a0 36 be 66 15 7d bd
       -0.027515367 -0.11763525 -0.17834507 -0.061787985
000130 07 3d c5 bd 82 11 9c bd e0 23 32 3e 44 90 48 3d
       -0.09630781 -0.07620527 0.17396498 0.048965707
000140 0c e0 b8 3c 6d 5f 09 3e d4 5c 1f 3e 49 a9 f3 3d
       0.022567771 0.13415308 0.15562755 0.11897523
000150 dc 10 9d 3d b8 1d ac 3d 3a 01 5e 3d 5b 9b b2 bd
       0.07669231 0.08404106 0.05420039 -0.08721038
000160 30 31 65 bd c6 d6 bb bd 25 ac 19 3e 00 b4 fd 3d
       -0.055955112 -0.09171824 0.15007074 0.12387848
000170 69 3b d0 3d c8 1b f9 3d a1 b7 e9 3d 2d 91 b4 3d
       0.101675816 0.12163502 0.114119776 0.088167526
000180 df a2 03 3e 29 fe e8 3d 55 5e cc 3d e1 d9 d2 bc
       0.12855099 0.11376602 0.0997893 -0.025738658
000190 d1 f3 09 3d e1 66 16 bc f4 c2 d1 bc b8 da 5f bc
       0.033679787 -0.009179802 -0.025605656 -0.013662986
0001a0 b3 98 8c 3d 91 29 30 3c e1 b5 aa 3c 17 6b 39 3b
       0.068650626 0.010752098 0.02083868 0.002829259
0001b0 b9 fd 49 bc ae c7 29 3c ee b7 8f 3c 52 43 22 3d
       -0.012328559 0.010362549 0.01754376 0.039614983
0001c0 2f 87 42 3d 74 4f e1 3d a8 59 24 bb 69 96 86 bd
       0.047492202 0.110014826 -0.0025077853 -0.06571657
0001d0 f1 37 f2 3d 2e 6c ca bc e0 67 8a bd e0 11 b8 bd
       0.11827076 -0.024709787 -0.06758094 -0.089877844
0001e0 50 f0 0d 3e d5 8d 73 3e bc 2e e0 3d c2 4b 9a bd
       0.13861203 0.23784573 0.10946414 -0.07533981
0001f0 11 2d 10 be 2d ef a4 bd 57 3b ec bd 8f 57 3b bd
       -0.14079691 -0.08053432 -0.11534756 -0.0457378
000200 31 95 5a bd 65 aa df bc fa 5b 25 3d 1d 5f 4a 3d
       -0.053364936 -0.02730293 0.04037092 0.049407113
000210 cc 15 13 3d 31 64 40 3d 25 b2 90 3d 19 76 74 3d
       0.03590946 0.04697055 0.070652284 0.05968294
000220 a2 62 0f 3e a4 61 ff 3d fc 8f 11 3e d6 8b e1 3c
       0.14002469 0.12469795 0.14215082 0.0275325
000230 c2 70 b2 3c 4f c9 74 bd 94 ee 94 bd e1 d5 b5 bc
       0.021782283 -0.059762295 -0.07272068 -0.022196712
000240 90 ee 63 3d 54 6f a6 bd 64 7d 83 3d cd 4a 3a bd
       0.055647433 -0.08126703 0.06420401 -0.04548149
000250 da c5 c9 bd 77 33 84 bd 4f 48 82 bc ac 56 12 3c
       -0.0985219 -0.06455129 -0.01590362 0.008931797
000260 75 30 f1 bd 56 da 8d 3d 82 db 26 bc 0b 5c 8e 3d
       -0.117768206 0.0692641 -0.010184171 0.069511496
000270 84 6a 01 bd d7 87 9c bd 91 8b 32 3d 3d 59 44 bd
       -0.03159572 -0.07643097 0.043590132 -0.047936667
000280 5d 47 0e bd 7b 33 44 bd af cb 8b bd ad 10 10 be
       -0.034736026 -0.047900658 -0.06825959 -0.14068861
000290 19 fc b6 bd 21 5f 47 bc 7c d6 87 bd f6 8c ef bc
       -0.089348026 -0.012168677 -0.066327065 -0.02924202
0002a0 be 51 85 3d 53 26 08 3e d9 3b b7 3d aa 5b 93 bc
       0.06509732 0.1329587 0.08946962 -0.017988045
0002b0 37 11 5c 3d 09 e5 f8 3d 47 52 5f bc 83 91 2c 3d
       0.053727355 0.1215306 -0.013630456 0.04213096
0002c0 3e bc 06 3e e8 0a 93 3d 20 ee dd 3d 8e ea 33 3e
       0.13157746 0.071798146 0.10836434 0.17569944
0002d0 f8 4b 6b bc e5 0e d2 3c 19 43 95 bc 1c 40 5d bc
       -0.014361374 0.025641868 -0.018220471 -0.013504054
0002e0 f7 86 d6 3c 06 bf 7f 3d f2 0f d3 3c 75 8e 59 3d
       0.026187403 0.062438034 0.02576444 0.053114373
0002f0 9a b9 c7 3d bc 74 0f 3d 8c b2 8c bd a8 e1 05 be
       0.097521976 0.035023436 -0.068699926 -0.13074362
000300 cb 22 b3 bc 72 e0 81 bd fc 73 ea 3c 8a 30 91 bc
       -0.021867177 -0.06341638 0.028619759 -0.01772334
000310 b5 2f 20 3e 61 80 12 3e 32 ca b7 3c 85 d5 40 3d
       0.15643199 0.14306785 0.022435281 0.047078628
000320 44 f1 56 3c 85 4a 06 be af 77 1a be d5 88 e6 3c
       0.013119046 -0.13114364 -0.15084718 0.028141418
000330 d4 bb 32 be b2 1a c3 bd a5 38 e8 bc 69 fd 7f bd
       -0.17454463 -0.09526576 -0.028347323 -0.06249753
000340 e8 33 be bd 03 46 67 3e 25 80 5f bd 18 af 29 be
       -0.09287244 0.22585301 -0.054565568 -0.16570699
000350 5f 5d 4f 3e 04 78 c9 bd 99 e4 46 3e f6 df fe bc
       0.20250462 -0.09837344 0.1942314 -0.031112652
000360 4f 28 cb 3d 58 10 e9 bd c5 8c 1b bd ec c5 69 bc
       0.09919798 -0.113800704 -0.037976045 -0.01426838
000370 be a2 57 3d 38 3b b9 3d fc b5 5d bd 06 bb b9 3d
       0.052645437 0.09044498 -0.054128632 0.09068875
000380 9c 27 4d 3e 88 34 df 3d be 14 9c b9 83 dd 15 be
       0.20034641 0.108986914 -0.00029770093 -0.14635281
000390 e2 eb e0 bb e4 2e 8c 3d af 94 ad 3c 86 7d a8 3c
       -0.006864057 0.06844881 0.021189062 0.020567667
0003a0 2e a6 9c 3d 56 a9 28 3e d3 9b 40 3d a5 70 23 3c
       0.07648884 0.16470847 0.047023606 0.009975587
0003b0 ae a8 a0 3c 94 e1 eb 3c 3f 8f 0b 3d 51 da 90 3c
       0.019611683 0.028794087 0.034072157 0.017682226
0003c0 88 32 43 3c 9f 42 ed bb f0 e8 ac bb 6a 68 44 3c
       0.011913903 -0.007240608 -0.0052767918 0.011987785
0003d0 e1 53 55 3d fd 13 27 be 2c ea 43 bd a0 59 1f 3e
       0.052081946 -0.16316219 -0.047830746 0.15561533
0003e0 b3 a2 28 be f8 a1 a3 bd 3d 48 5c bd d3 f5 8c 3d
       -0.16468315 -0.079898775 -0.05377983 0.06882825
0003f0 df 7f ed 3b 2d 7c c1 bd d0 18 c9 bd e4 cf 91 bd
       0.0072479094 -0.09447513 -0.09819186 -0.0711973

layer1.1.conv1.bias f4 [16]
000000 72 41 2b bb 57 3d 8b bc 53 66 48 3c cf ac 98 3a
       -0.0026131538 -0.016997023 0.012231427 0.0011648181
000010 73 ba 5a bc 1b 10 85 3c 34 e0 89 bc ff 84 92 bc
       -0.013350117 0.016243031 -0.016830541 -0.017885683
000020 59 d2 94 bc ed 59 11 bc 90 f1 75 3c 07 af 58 bb
       -0.018166708 -0.008871538 0.015011206 -0.0033063309
000030 38 f8 ab 3c 05 9e 0f bb 53 42 8e bc 01 63 7b 3a
       0.020992383 -0.0021914255 -0.01736561 0.0009589643

layer1.1.bn1.weight f4 [16]
000000 c0 50 4f 3f 8a 2b 4a 3f 74 23 8c 3f 8c 8a 87 3f
       0.8098259 0.78972685 1.094832 1.0589156
000010 4e ac 47 3f 2f 30 32 3f a1 5a 86 3f 25 2a 27 3f
       0.7799729 0.6960477 1.0496408 0.6529868
000020 a5 7d 4d 3f 77 c4 19 3f 3b c7 f1 3e b9 86 29 3f
       0.80269843 0.60065407 0.47222313 0.66221195
000030 c7 ab 3b 3f 14 d1 99 3f 05 34 3b 3f 9c 53 46 3f
       0.73308986 1.201693 0.7312625 0.7747133

layer1.1.bn1.bias f4 [16]
000000 50 65 c8 be a2 38 5a bd 71 7e c9 3d b4 3e 59 be
       -0.39139795 -0.053276666 0.0983857 -0.21215326
000010 7e e4 3b be c2 33 b1 be f7 9d 4a be ec 70 a4 be
       -0.18348882 -0.346098 -0.19786821 -0.32117403
000020 2f f2 26 3d 51 20 8b be ab ac a6 be 30 3a 61 be
       0.040758308 -0.27173093 -0.3255361 -0.21994853
000030 96 58 3a be 11 00 d4 3d 4f ce 9e be d7 97 bd be
       -0.18197855 0.10351575 -0.31016776 -0.37029907

layer1.1.bn1.running_mean f4 [16]
000000 76 01 dd 3f 28 7c 56 3f d4 03 0f c0 e4 91 a0 be
       1.7266071 0.837832 -2.2346087 -0.31361306
000010 03 bd ed bf 99 e7 15 40 92 80 45 3f 3a 46 20 bf
       -1.8573307 2.3422606 0.7714931 -0.6260716
000020 f2 ce c7 bf 49 09 aa bd bc 1b 22 40 9c b7 75 be
       -1.561003 -0.08302552 2.5329428 -0.23995823
000030 95 53 5e 40 c8 5f 54 c0 48 4f d7 be e9 1b 89 40
       3.4738514 -3.318346 -0.42052674 4.284657

layer1.1.bn1.running_var f4 [16]
000000 c6 46 58 40 43 67 56 40 4b 0a a2 40 c9 1a ec 40
       3.3793197 3.3500526 5.0637565 7.3782697
000010 c2 8c 0a 40 cc 5d 2c 40 18 34 24 41 02 6f 1a 40
       2.1648412 2.693225 10.262718 2.4130254
000020 5a 51 83 40 a8 c7 20 40 aa ee 90 3f d2 65 37 40
       4.1036806 2.512186 1.1322834 2.8655896
000030 a3 84 82 40 72 5b d0 40 96 87 67 40 51 02 26 40
       4.078691 6.5111628 3.6176505 2.5938914

layer1.1.conv2.weight f4 [16, 16, 3, 3]
000000 4c 39 d7 bd e2 ea b9 bd aa 64 76 bd dc 21 02 be
       -0.105089754 -0.090780035 -0.060154594 -0.12708229
000010 a5 bd 17 bd 39 8d 76 bd e9 f8 26 be d8 4e 3d bd
       -0.037046093 -0.060193274 -0.16305889 -0.04621777
000020 b8 65 fe 3c 77 1a 1f 3c 5b c4 c1 bc e0 49 d9 bd
       0.031054363 0.0097109 -0.0236532 -0.10609794
000030 ff d6 97 bd ea 96 a0 bc fb 3c b1 3d c5 17 7f bd
       -0.07414054 -0.019603211 0.08654209 -0.062278528
000040 ac a6 81 bd fe 2e fb 3c b0 84 b3 3d 14 16 e3 3c
       -0.06330618 0.030662056 0.087655425 0.027720489
000050 de 99 84 3d af 1c 18 bd c7 58 6d be a0 bf 24 3e
       0.0647466 -0.03713673 -0.23178397 0.16088724
000060 86 73 86 bb ff 5e c1 3d df 30 79 3d 80 46 21 bd
       -0.004103127 0.09441947 0.060837623 -0.039373875
000070 fe a3 1a be f3 20 bd bd 9d 4f 99 bd 6d c8 51 be
       -0.1510162 -0.092348 -0.07485888 -0.20486613
000080 48 ea 09 3d d1 78 26 bd 72 0c 14 3d ae 0e 87 bb
       0.033670694 -0.040642563 0.03614468 -0.004121623
000090 77 a9 5d be 2c de a4 be 09 04 83 be fe 86 0e bc
       -0.21646677 -0.32200754 -0.25589016 -0.008699177
0000a0 ba 3d d1 3d 68 5f 42 3d d2 af 8d 3d 5d 22 45 3d
       0.102168515 0.047454268 0.06918301 0.048128475
0000b0 4f b8 c5 3d 3a 56 1c bd 36 f4 a8 bd e1 69 7c bd
       0.09654295 -0.03816817 -0.082497045 -0.06162441
0000c0 89 dc f2 bc 5b de d0 3c f3 b6 f0 3d a6 8e 8f bc
       -0.029646175 0.025496652 0.11753645 -0.017524075
0000d0 42 ad 50 3d 31 58 77 3d 57 50 05 3d 55 ab 08 bd
       0.05094648 0.06038684 0.03254732 -0.03336652
0000e0 82 7a e4 bc 01 73 a7 3d dc 0a a4 bc 7c 48 c7 3c
       -0.027890448 0.08176232 -0.02002471 0.024326555
0000f0 66 46 86 bd 4e 45 39 3e 36 be 97 3d 1d 2f 53 3c
       -0.06556396 0.18092844 0.07409327 0.012889651
000100 7a 12 c6 3c 34 c2 a5 3d 31 df 61 bd 2b 5d 89 bc
       0.024178732 0.08093682 -0.055144493 -0.016768059
000110 14 bd cf bd b4 1a ce bc 90 c5 71 bd 2a 93 fa bd
       -0.10143486 -0.025159217 -0.0590263 -0.122351006
000120 ec c3 1c be bf ab 1c be 3c 1b 4a be 40 97 9c bd
       -0.15309113 -0.15299891 -0.19736952 -0.07646036
000130 32 4e 9e bb b8 80 54 bd 47 0d d8 bc 4e c4 a2 bd
       -0.004831099 -0.05188057 -0.026373519 -0.079475984
000140 2b 73 d7 ba ce d9 2b be 7a 12 cc bd 1b 10 12 be
       -0.0016437521 -0.16782305 -0.099644616 -0.14263956
000150 a7 41 d2 bd 79 82 ba bd 06 6a 32 be d2 7c f2 bd
       -0.102664284 -0.09106917 -0.17423257 -0.11840214
000160 57 b6 0b be 79 54 0d be 63 4b 73 bd 74 b6 a0 bd
       -0.13643776 -0.13801755 -0.059398066 -0.078473
000170 a5 49 92 bd 3c 50 f6 bc 4f 48 ba bd 0d 97 89 bd
       -0.07142953 -0.030067556 -0.09095823 -0.06718264
000180 0d 3b 7c bd b0 4f 9b bd e1 88 c1 bd eb 11 2a bc
       -0.061579753 -0.075835586 -0.09449936 -0.010380249
000190 53 2d 4e 3b e7 fe 2c bd ad 45 bd 3c 2c 4a db bc
       0.003146012 -0.04223528 0.023104513 -0.026768766
0001a0 c6 13 95 bd 29 3e 17 be c7 0f 34 bd f1 9a 8a bd
       -0.07279162 -0.14769806 -0.04396036 -0.06767834
0001b0 01 d0 a1 3d b4 4a 42 3d 44 49 b4 3c f0 90 ed 3d
       0.07901002 0.047434524 0.022007592 0.1159991
0001c0 55 3f c8 3d ad 3d 0e 3e a3 5c 64 bd d0 b4 9a 3d
       0.097777046 0.13890715 -0.055752408 0.075540185
0001d0 4d a3 ae 3d 6e e8 5f bd c9 1f ae bd 1d af 4e be
       0.08527241 -0.05466502 -0.08502156 -0.20183988
0001e0 27 0b f4 bd 16 af 8e 3e 1e 91 9e 3e 4f fa f4 3c
       -0.1191619 0.27867955 0.3097009 0.029904513
0001f0 23 dc d1 3d 1d 4d a9 3c ed 84 1f bd e4 4a 89 bd
       0.10247066 0.020666653 -0.038945127 -0.067037374
000200 d5 d4 4b bd 3d 2b 4e bd d5 a5 5e bd 61 a5 d6 bc
       -0.04976352 -0.050334204 -0.05435737 -0.026201906
000210 78 f1 5a 3d ae 7f b2 3c c3 ba 19 bb fa 23 e8 3c
       0.05345294 0.021789398 -0.0023457266 0.028337467
000220 14 1b 80 3c 8c e7 a2 bd 4d 06 ae bb 8e ec 0f be
       0.015637912 -0.0795432 -0.0053108097 -0.14055082
000230 32 eb 35 bc fe b5 a1 bc b8 b6 be bc 05 6d 99 3d
       -0.011103438 -0.019740101 -0.023280486 0.07491497
000240 1c 44 f9 3c 8b 9b e3 3d d7 4f 6a 3d 66 8c f4 3d
       0.030427985 0.11113652 0.057205047 0.119408414
000250 14 4b 3c 3e 8c fb 2a 3e aa 04 88 3d 28 fc 40 3d
       0.18388015 0.1669752 0.066415146 0.047115475
000260 71 16 b5 3d 53 35 9b 3d 8d aa 41 3d c5 b6 87 3d
       0.08842171 0.0757853 0.04728179 0.066266574
000270 42 af af 3d 6f f9 1f bd db b0 90 bd 55 bc 24 3d
       0.0857835 -0.039056238 -0.070649825 0.04021867
000280 4f 89 2d bd 25 05 2c bd 9a cc 1f bd 4c c7 6b bd
       -0.042367276 -0.041997094 -0.039013483 -0.05756311
000290 4c e6 ad bd bf 4d 71 bc 5a cf c8 bd ca 03 88 bd
       -0.08491191 -0.014728009 -0.09805174 -0.06641348
0002a0 3e 0b f3 3b 03 cd 15 3a e0 5e be bc c8 cb e8 bd
       0.0074171117 0.0005714448 -0.0232386 -0.11366993
0002b0 67 3d ae bd 3b ab fa bd e7 08 08 be 71 3c a8 bd
       -0.08507805 -0.12239691 -0.13284646 -0.08214653
0002c0 60 32 88 3a ea 29 8d bd 06 b3 00 bd 62 e8 2f bd
       0.001039099 -0.0689276 -0.03142073 -0.042946227
0002d0 16 36 b0 3d 68 09 3a 3e 16 19 2a 3e 71 77 eb 3d
       0.08604066 0.1816765 0.16611132 0.11497391
0002e0 e3 ee 03 bb 3e f0 33 3d 9a bb 89 bd 1d 8b 67 bd
       -0.0020131401 0.043930285 -0.06725235 -0.056529153
0002f0 6f ad be bc 7d 3e 1b 3d 81 97 e8 3d 71 6f b0 3d
       -0.023276059 0.03790139 0.11357022 0.08615006
000300 64 6d 86 3c 9a 14 af 3d 8a 1e a7 3c a3 ff 09 bd
       0.016409583 0.08548851 0.020400304 -0.03369106
000310 11 92 1f 3d 97 4e 87 bc ef d2 58 3e 96 a1 39 3e
       0.03895766 -0.016516967 0.21174215 0.18128046
000320 14 a7 85 3e ac c3 e1 3d 3e df 10 3e 3b 4a f2 3d
       0.26104033 0.110236496 0.1414766 0.118305646
000330 88 57 0c 3e b7 d5 ad 3d c4 49 b9 3d 32 66 4b bd
       0.13705266 0.084880285 0.09047273 -0.049658008
000340 8b 9f 8c bd 46 eb 7c bc 77 ee 68 bd 99 f2 0f bd
       -0.06866368 -0.015436953 -0.056868043 -0.03514347
000350 07 8d e0 bc f7 63 f9 3c 9f 88 70 3b 74 b4 38 3d
       -0.027410997 0.030443175 0.0036702526 0.04509397
000360 d0 a0 df bc 2c 52 c5 bc 33 72 c9 3c c0 5f d2 3d
       -0.027298361 -0.024087034 0.024590587 0.10272169
000370 a5 1d 25 3d 69 e5 fe 3c 29 bf 36 3e a7 e5 b2 3d
       0.040311474 0.03111525 0.1784636 0.08735209
000380 a7 7c da 3c 86 8a a3 3d b6 b7 f0 3d 57 a9 c6 3d
       0.026670767 0.079854056 0.1175379 0.09700268
000390 4a 3a 03 3e 50 9a e6 3d 9e 09 b5 3d ba e2 b1 3d
       0.12815204 0.112599015 0.08839725 0.08685823
0003a0 14 f3 c8 3d 84 28 65 3d 58 9e 1b bc 79 83 ee bb
       0.098119885 0.05594684 -0.009498201 -0.0072788564
0003b0 a8 f7 02 3c 6f 80 4d 3d 39 06 c6 3d 23 28 17 3d
       0.007993616 0.050171312 0.09669156 0.03690351
0003c0 89 5f 03 3e 7e 3f e7 3d 2f 4c e7 3d 13 f4 9b bc
       0.12829413 0.11291407 0.11293828 -0.019037282
0003d0 61 30 50 ba 82 42 a3 3c 5a 9c 32 bc 5d b8 5e bd
       -0.00079417793 0.019929174 -0.010901535 -0.05437504
0003e0 69 34 83 bd 77 55 8e 3d 17 1f 85 3d 63 b3 b9 3d
       -0.06406481 0.06949895 0.065000705 0.090674184
0003f0 75 9d b3 bc fe d6 f4 3c 94 26 40 3d 5c eb 5d bc
       -0.021925667 0.029887673 0.04691179 -0.013544884

layer1.1.conv2.bias f4 [16]
000000 b4 f2 76 3c 32 f1 5c bb 8d 79 9e 3b 69 6f 28 3c
       0.015072513 -0.00337131 0.0048362673 0.0102804685
000010 7e 89 53 bc 60 89 0a bc 34 3f ab bc 08 08 a8 bb
       -0.012911199 -0.008455604 -0.020904161 -0.0051279105
000020 2f a6 87 bb 50 a8 9e 3c 6a 69 e3 3b 5a c6 55 3b
       -0.0041396837 0.019367367 0.0069400566 0.0032619447
000030 df 27 ef bb d9 46 c9 bb a3 e4 dc 39 10 84 86 3c
       -0.007298454 -0.006142479 0.00042132018 0.016420394

layer1.1.bn2.weight f4 [16]
000000 eb 48 c2 3e 0c d0 0f 3f b4 60 53 3f c1 e5 e8 3e
       0.37946257 0.5617683 0.8256943 0.45487788
000010 69 78 0c 3f 72 ef 47 3f bb 7b fc 3e 58 31 82 3f
       0.5487123 0.7809974 0.4931315 1.0171309
000020 22 ae 8c 3f c5 b0 14 3f 83 5b cc 3e d7 5a 59 3f
       1.0990641 0.5808223 0.39913568 0.84904236
000030 ac 02 56 3f 41 58 7a 3f e1 4a 68 3e af 81 55 3f
       0.83597827 0.97790915 0.22684814 0.83401006

layer1.1.bn2.bias f4 [16]
000000 15 e9 e6 3b 9f cc 85 3d 01 e8 0e be 7c 96 0d 3d
       0.0070468285 0.06533169 -0.1395569 0.03456734
000010 af 02 3a be 7d 35 72 be 1a 48 41 3d 32 dd 97 3d
       -0.18165086 -0.23653217 0.047187902 0.074152365
000020 62 8f 82 be 1a 95 e0 bd 34 34 98 3c 6a 15 60 be
       -0.25500017 -0.10965939 0.01857958 -0.21883169
000030 e2 17 cd 3b 24 bf 8b 3d de d1 6f bc 3c 41 b3 bd
       0.0062589506 0.068235666 -0.014637439 -0.08752677

layer1.1.bn2.running_mean f4 [16]
000000 d7 a1 f5 be 97 8d 2d 3f 36 75 91 bf 03 ef 6c bf
       -0.47975037 0.67794174 -1.1363895 -0.925522
000010 b9 b2 b5 be 78 e7 fa be 34 3e 1a bf 9a 96 98 be
       -0.35487917 -0.49004722 -0.60251164 -0.298024
000020 0e 84 b9 be 29 7b 55 be 8d d7 80 3d 1a 44 49 bd
       -0.36233562 -0.20847763 0.06291113 -0.049137212
000030 05 c2 b9 bb c9 28 2e bf cd 70 fd be 60 20 a3 3d
       -0.005668881 -0.68030983 -0.49500123 0.079651594

layer1.1.bn2.running_var f4 [16]
000000 69 60 1e 3f 34 d7 52 3f 51 53 95 3f 6b a4 66 3f
       0.6186586 0.82359624 1.1666051 0.9009463
000010 79 50 4e 3f 21 34 1f 3f b0 62 75 3f 68 1d 37 3f
       0.8059154 0.6218892 0.9585371 0.71529245
000020 2e c2 92 3f 28 92 e5 3e 16 d7 23 3f 84 5a 1a 3f
       1.1465509 0.4483807 0.6400007 0.60294366
000030 34 37 71 3f fc 35 4b 3f b6 ed f4 3e cd 74 1f 3f
       0.9422486 0.7937925 0.4783761 0.622876
