Output/swift-iid-8W-pattern1-ring-2sgd-200epochs/r4-epoch_184-parameters.pt (torch, 731756 bytes, 92 tensors)

conv1.weight f4 [16, 3, 3, 3]
0.05095766 -0.43765882 -0.48540238 -0.40925926 -0.4617166 -0.64043874 -0.047084797 -0.7865137
-0.4160904 -0.0020605559 0.07794222 -0.14277108 -0.03384674 0.60451484 0.02892953 -0.13243942
-0.24980035 -0.22373173 -0.004570765 0.41874093 0.18632093 0.52547354 1.3540287 0.66040343
0.10791868 0.32194397 0.10561184 -0.58851594 -0.322384 -0.7111141 0.12488129 0.116612494
-0.10915647 0.48709914 0.7267641 0.43901792 -0.04028206 0.836143 0.24830516 -0.4926028
-0.1934888 -0.1997328 -0.28944945 -0.105453074 -0.044612467 0.48090893 1.1472336 0.59535086
-0.3442691 -0.18538928 -0.21559912 -0.5291341 -0.3684243 -0.26955587 -0.021261731 -0.022140902
-0.07146082 -0.2073238 0.6544803 0.06692588 -0.29158473 -0.09390005 0.13289917 -0.17971134
-0.3253742 -0.5523021 0.3104283 0.8661042 -0.20903334 -0.003908951 0.152871 -0.025990257
-0.29289082 -0.57597053 -0.81114936 0.63612014 0.86296195 -0.17348395 0.30342487 0.34595677
-0.021904422 -0.25563163 -0.17174162 -0.20984323 -0.065172866 -0.12806277 -0.08851219 0.17918834
0.11928826 0.1563753 -0.13133106 0.2311069 -0.025778294 0.028644381 0.2910564 0.14996947
-0.04737964 0.118020564 0.09102465 0.032951795 0.520174 0.12083311 0.21305732 0.5534613
0.30096892 -0.23051833 -0.05329682 -0.11094765 0.18898068 0.46552902 0.26483995 0.13305245
-0.06979135 0.2658189 0.047519393 -0.105671726 0.09019594 -0.12621698 -0.47913715 -0.34582007
-0.21204273 -0.99482834 -0.420392 0.28236264 -0.21817975 0.14182228 0.037386797 -0.0019688057
0.08387131 -0.20357333 -0.6289573 -0.16947083 -0.02160558 -0.15944076 0.13885075 0.42955533
0.52362496 0.18838613 0.5580561 0.17915934 -0.37942132 0.16808186 -0.26759043 -0.37550518
0.5652246 0.1575265 -0.35034636 0.47100657 -0.393841 -1.0493364 0.25872895 -0.2720432
-0.4295032 0.5049758 0.3217609 -0.16216001 0.44089204 -0.13001367 -0.7463083 0.3494526
-0.04451594 -0.31186306 0.9783245 1.1277995 0.64852667 0.16014703 -0.43554017 -0.33568075
-0.34345886 -1.0319586 -0.6226682 0.36336854 0.7789173 0.6267352 -0.14635481 -0.36585292
-0.010324831 -0.28490293 -0.66845936 -0.2623154 -0.22004434 0.26244694 0.31204966 -0.35232338
-0.08896816 0.2708649 -0.25605443 -0.15980431 0.257953 -0.6255071 0.049427822 0.17188346
-0.69271547 1.9232707 0.6496017 -0.24447379 -0.14152037 0.27499223 -0.0031530445 0.14034584
0.15933895 -0.5170351 0.8231186 -0.16300142 -0.09851657 -0.9437419 -0.30858046 0.6826358
-0.118695624 0.09830994 -0.021274518 0.17794493 -0.74865085 0.37832755 -0.28515965 -0.23336619
0.08202058 -0.10274471 -0.07726797 0.61496204 0.66340256 -0.3795276 0.24559142 0.60650074
0.17730658 -0.31433797 -0.4269895 -0.40788758 -0.23366164 -0.47037026 -1.1606398 -0.45788735
-0.48907337 -0.55292493 0.15054767 0.5690827 0.66922134 0.14873827 0.32725936 0.05105702
0.036583405 0.38691282 0.4987173 0.23363774 0.541779 0.6160428 0.21096064 -0.017232446
-0.10166853 -0.29653543 -0.57168746 -0.3297559 -0.14764121 -0.39957973 -0.31092492 0.2192473
00000000: fbb8 503d d114 e0be a986 f8be 6e8a d1be
00000010: 1e66 ecbe cbf3 23bf fddb 40bd f658 49bf
00000020: cd09 d5be 640a 07bb 2ca0 9f3d 9532 12be
00000030: e1a2 0abd 7cc1 1a3f 9ffd ec3c 339e 07be
00000040: aacb 7fbe ee19 65be 5bc6 95bb 3665 d63e
00000050: eaca 3e3e 6f85 063f d050 ad3f 3310 293f
00000060: 7804 dd3d d7d5 a43e 054b d83d fba8 16bf
00000070: 840f a5be 930b 36bf c3c1 ff3d 88d2 ee3d
00000080: 6d8d dfbd 0f65 f93e 360d 3a3f f5c6 e03e
00000090: cdfe 24bd 780d 563f b543 7e3e 6f36 fcbe
000000a0: ee21 46be c186 4cbe b832 94be c8f7 d7bd
000000b0: 90bb 36bd b239 f63e 8dd8 923f ea68 183f
000000c0: 0a44 b0be b0d6 3dbe 04c6 5cbe 5575 07bf
000000d0: 1ca2 bcbe 3a03 8abe 152d aebc d660 b5bc
000000e0: 0d5a 92bd b14c 54be 058c 273f 7010 893d
000000f0: 984a 95be ab4e c0bd b816 083e 4006 38be
00000100: 7297 a6be ac63 0dbf 75f0 9e3e 01b9 5d3f
00000110: d60c 56be a816 80bb 378a 1c3e 85e9 d4bc
00000120: c9f5 95be ce72 13bf 7ca7 4fbf c5d8 223f
00000130: 13eb 5c3f c7a5 31be 815a 9b3e 3f21 b13e
00000140: e770 b3bc 26e2 82be 09dd 2fbe 25e1 56be
00000150: 5a79 85bd e322 03be e145 b5bd 267d 373e
00000160: 674d f43d d920 203e a67b 06be 4aa7 6c3e
00000170: 002d d3bc 9fa7 ea3c 5805 953e 9991 193e
00000180: 2711 42bd c4b4 f13d 226b ba3d 76f8 063d
00000190: 202a 053f 5977 f73d b32b 5a3e a4af 0d3f
000001a0: 9918 9a3e ff0c 6cbe c44d 5abd 8638 e3bd
000001b0: 2784 413e d259 ee3e 1a99 873e e73e 083e
000001c0: c4ee 8ebd 6a19 883e b2a3 423d 6b6a d8bd
000001d0: a6b8 b83d 063f 01be 7751 f5be 540f b1be
000001e0: bb21 59be 12ad 7ebf 9f3d d7be d691 903e
000001f0: 836a 5fbe dc39 113e e622 193d 1407 01bb
00000200: b9c4 ab3d 8775 50be 5803 21bf c389 2dbe
00000210: 2ffe b0bc 7044 23be e42e 0e3e adee db3e
00000220: 490c 063f 4be8 403e c4dc 0e3f 8c75 373e
00000230: 8343 c2be a71d 2c3e 9d01 89be 3742 c0be
00000240: 8fb2 103f a04e 213e 9960 b3be c627 f13e
00000250: 87a5 c9be a850 86bf 1f78 843e 3f49 8bbe
00000260: d8e7 dbbe 1846 013f d8bd a43e 460d 26be
00000270: 9abc e13e 4e22 05be 100e 3fbf 74eb b23e
00000280: 5956 36bd 84ac 9fbe 7973 7a3f bc5b 903f
00000290: d805 263f 95fd 233e 1fff debe 59de abbe
000002a0: d7d9 afbe 3817 84bf 2f67 1fbf 710b ba3e
000002b0: 2067 473f b871 203f 09de 15be 1351 bbbe
000002c0: 7b29 29bc ccde 91be 2720 2bbf 344e 86be
000002d0: 4e53 61be 725f 863e f9c4 9f3e bb63 b4be
000002e0: f034 b6bd ceae 8a3e 9119 83be bea3 23be
000002f0: 6a12 843e 3c21 20bf d474 4a3d 3802 303e
00000300: cd55 31bf bc2d f63f 4c4c 263f 5657 7abe
00000310: b7ea 10be c8cb 8c3e 4fa3 4ebb d2b6 0f3e
00000320: c029 233e 6a5c 04bf e7b7 523f d8e9 26be
00000330: 0ec3 c9bd 1299 71bf 42fe 9dbe 38c1 2e3f
00000340: b116 f3bd b956 c93d e647 aebc 3237 363e
00000350: 95a7 3fbf 26b4 c13e 7200 92be 8cf7 6ebe
00000360: 68fa a73d d26b d2bd ab3e 9ebd 276e 1d3f
00000370: c0d4 293f 7151 c2be 517c 7b3e a243 1b3f
00000380: db8f 353e e8f0 a0be 5e9e dabe a4d6 d0be
00000390: ff44 6fbe 5fd4 f0be d88f 94bf 3670 eabe
000003a0: d367 fabe 7d8c 0dbf 2b29 1a3e 67af 113f
000003b0: 1752 2b3f d84e 183e 8a8e a73e 2a21 513d
000003c0: 7bd8 153d 7019 c63e e057 ff3e bb3e 6f3e
000003d0: 07b2 0a3f fbb4 1d3f 1106 583e 0f2b 8dbc
000003e0: 9737 d0bd 7ed3 97be 1c5a 12bf c4d5 a8be
000003f0: 422f 17be b795 ccbe 8d31 9fbe 5d82 603e

conv1.bias f4 [16]
-0.015244257 -0.009671403 -0.0107671125 0.019984718 0.018442746 -0.021399304 -0.0010281081 0.0051301154
-0.016311612 -0.021642642 -0.0060420292 -0.009894632 -0.008098912 0.016208235 0.0041575227 -0.014823572
00000000: 0cc3 79bc ce74 1ebc 8b68 30bc feb6 a33c
00000010: 3e15 973c 984d afbc 95c1 86ba 871a a83b
00000020: ee9f 85bc e94b b1bc 37fc c5bb 181d 22bc
00000030: 4db1 04bc 22c7 843c d43b 883b 91de 72bc

bn1.weight f4 [16]
0.71356755 0.60700756 0.78044975 0.6935644 1.1578664 0.8208353 0.9940728 0.91846585
0.6879425 0.730964 0.8981928 0.8404287 0.58869916 0.6604812 0.89330095 0.9361586
00000000: 5dac 363f d964 1b3f 8ecb 473f 708d 313f
00000010: f734 943f 4322 523f 8e7b 7e3f 9420 6b3f
00000020: 001d 303f 7520 3b3f f7ef 653f 5626 573f
00000030: fdb4 163f 4c15 293f 5faf 643f 17a8 6f3f

bn1.bias f4 [16]
0.56370926 0.6492207 0.5771008 -0.1715896 -0.15456699 0.54773766 0.8872418 1.1921345
0.35614976 0.19565867 -0.22964592 1.4469566 0.11488298 0.4762932 0.27968192 0.55357116
00000000: 404f 103f 5433 263f e1bc 133f 2fb5 2fbe
00000010: cf46 1ebe 8938 0c3f 4722 633f dd97 983f
00000020: 4359 b63e bf5a 483e 4d28 6bbe e035 b93f
00000030: c547 eb3d b4dc f33e 7832 8f3e d7b6 0d3f

bn1.running_mean f4 [16]
-0.023764571 -0.0513036 -0.27631113 -0.43254516 0.63559234 -0.003884577 0.031877503 -0.1982574
-0.04049164 0.20493808 0.46453652 0.07114714 2.4556837e-05 -0.20894343 0.12738498 0.05315336
00000000: ebad c2bc b923 52bd a778 8dbe 8f76 ddbe
00000010: 2eb6 223f 6394 7ebb fc91 023d fd03 4bbe
00000020: 90da 25bd 4adb 513e bbd7 ed3e 97b5 913d
00000030: 68ff cd37 44f5 55be 3571 023e 56b7 593d

bn1.running_var f4 [16]
9.069641 2.449155 6.52732 5.099372 9.349818 13.894069 17.103506 3.721934
2.9568915 2.583688 6.183883 3.0316021 2.1009045 4.959986 4.353482 10.8075075
00000000: 401d 1141 f5be 1c40 cedf d040 0e2e a340
00000010: db98 1541 1b4e 5e41 fbd3 8841 2b34 6e40
00000020: b63d 3d40 255b 2540 5fe2 c540 c505 4240
00000030: 3875 0640 35b8 9e40 b94f 8b40 8deb 2c41

layer1.0.conv1.weight f4 [16, 16, 3, 3]
-0.033635143 -0.10097631 -0.14163224 0.016761404 -0.03737538 -0.10252629 0.07049954 0.02101162
-0.026639368 -0.13940246 0.07700136 0.071014255 -0.14041176 0.02793167 0.13554275 -0.20559166
-0.23138799 -0.092103705 -0.0645196 -0.020537684 -0.11052889 -0.024497485 0.0598171 -0.119801216
-0.03531898 0.11262269 0.0024135066 0.25673652 0.24401926 0.17195353 0.23170023 0.19230072
0.09435147 0.12484245 0.10420997 0.015544276 0.015398857 0.03502947 -0.0071151336 0.20748782
0.32976735 0.15942128 0.004515316 0.1237641 0.042796675 -0.011976005 0.15259188 0.09171024
0.037100695 0.17755707 0.1689505 -0.07398002 0.077634655 0.16961233 -0.02145961 -0.02683337
-0.070830025 -0.14249314 -0.051921345 0.06229587 -0.119522825 -0.043497004 0.00769129 0.10707405
0.18898293 -0.03261839 0.14553252 0.26351312 0.16648227 -0.1056548 0.05074601 -0.09394674
-0.054600332 0.2662784 0.08075086 0.060210273 0.27863118 0.16501187 -0.14649267 0.019199623
0.041219074 -0.059158016 -0.063630134 -0.106304765 0.11692589 0.06342503 0.011650407 0.042565994
0.13815866 0.04356944 -0.18479766 -0.18706961 -0.18796916 -0.11502618 -0.13199914 -0.12228404
-0.08767084 -0.089905486 -0.068930686 -0.06886607 0.026407413 0.0511527 0.10209231 0.074452884
-0.012354831 0.021085734 -0.12939331 -0.0047450117 -0.11639591 0.10575081 0.15587935 -0.12531698
-0.013498062 0.18086272 -0.13271122 -0.013514934 0.16631322 -0.032588743 0.25991896 0.27444226
-0.04608178 0.3130073 0.2701757 -0.27732822 0.06838821 0.019537121 0.07300327 0.22579151
0.19059804 0.090964496 0.23262264 0.26334396 0.018979372 0.06500767 0.13706379 -0.11295642
-0.039473493 0.013446087 -0.118560374 0.044671327 0.17935674 -0.033585407 0.035623044 0.011084546
0.0012089874 -0.07242313 -0.31213695 0.13154155 -0.073960416 -0.15387462 0.25558317 0.04208825
-0.0439528 0.017260406 -0.08606728 0.07214125 0.21399197 0.007787513 0.07832825 0.21259938
0.0035621682 0.13657886 -0.0805669 -0.048638765 -0.07360459 -0.03531583 -0.16003379 0.06660877
-0.016509656 -0.11723605 0.018385828 -0.008472657 0.027208066 0.048163343 -0.00035034734 0.010492065
0.10018589 -0.01825168 -0.05165209 0.08190123 -0.07060933 0.05260512 -0.023424713 -0.10012141
0.08207191 -0.013102131 -0.08925677 -0.05374221 -0.003556623 -0.0072283447 -0.095953055 -0.06437009
-0.02774085 -0.16681504 -0.20859662 -0.15516874 -0.19983982 -0.12481201 0.13329943 0.19798443
-0.30074602 0.07514155 0.090034746 -0.39869672 0.037868876 0.02352198 -0.19216663 0.056219023
0.17378993 0.16743635 -0.2446514 -0.51197654 0.5618087 -0.105950855 -0.26884007 0.47930375
-0.057727583 -0.19910452 0.013995318 0.29550576 -0.22521824 -0.16089615 0.19522512 -0.014475025
-0.026646078 0.026454821 0.049076337 -0.037250962 0.1100119 0.03642548 -0.14372404 0.03719662
0.04834283 0.0061789234 -0.071530186 -0.07198892 -0.09969125 -0.02380494 -0.023396505 -0.18533581
0.06743033 0.06755007 -0.1419481 -0.14328039 -0.0051374026 0.16032223 -0.027523946 0.5150665
-0.3087445 0.038057867 0.36216 -0.2012056 -0.052967962 -0.1117124 -0.11677149 0.076354414
00000000: 01c5 09bd abcc cebd 0b08 11be 364f 893c
00000010: ed16 19bd 4ef9 d1bd 1062 903d 9020 ac3c
00000020: ce3a dabc 85bf 0ebe e4b2 9d3d ec6f 913d
00000030: 1ac8 0fbe f5d0 e43c b8cb 0a3e 9f86 52be
00000040: f9f0 6cbe dea0 bcbd da22 84bd a53e a8bc
00000050: f85c e2bd f3ae c8bc c702 753d 575a f5bd
00000060: a3aa 10bd baa6 e63d ec2b 1e3b f872 833e
00000070: 2fe0 793e 9614 303e d342 6d3e 7bea 443e
00000080: 583b c13d 66ad ff3d 096c d53d 6bad 7e3c
00000090: 7d4b 7c3c 107b 0f3d 1126 e9bb b077 543e
000000a0: 44d7 a83e 553f 233e 37f5 933b 0878 fd3d
000000b0: 914b 2f3d 0137 44bc 0c41 1c3e 94d2 bb3d
000000c0: e6f6 173d 85d1 353e 5c01 2d3e d682 97bd
000000d0: ebfe 9e3d dbae 2d3e 10cc afbc a8d1 dbbc
000000e0: 550f 91bd b9e9 11be 7aab 54bd f429 7f3d
000000f0: 62c8 f4bd ea29 32bd 3807 fc3b a449 db3d
00000100: be84 413e dc9a 05bd 7a06 153e 31eb 863e
00000110: 547a 2a3e 8b61 d8bd 0cdb 4f3d 2667 c0bd
00000120: 99a4 5fbd a455 883e b560 a53d 0c9f 763d
00000130: bfa8 8e3e dff8 283e 2d02 16be 8748 9d3c
00000140: 55d5 283d ad4f 72bd 8450 82bd 50b6 d9bd
00000150: d776 ef3d fbe4 813d 59e1 3e3c ae59 2e3d
00000160: 7779 0d3e de75 323d 993b 3dbe 2d8f 3fbe
00000170: fd7a 40be d992 ebbd c82a 07be 0e70 fabd
00000180: c58c b3bd 5e20 b8bd 882b 8dbd a709 8dbd
00000190: 5c54 d83c 7e85 513d c615 d13d c17a 983d
000001a0: eb6b 4abc fdbb ac3c ae7f 04be 0b7c 9bbb
000001b0: fb60 eebd e193 d83d d69e 1f3e 1853 00be
000001c0: fa26 5dbc 1434 393e 73e5 07be be6d 5dbc
000001d0: 034e 2a3e c67b 05bd 1914 853e b283 8c3e
000001e0: 40c0 3cbd 7e42 a03e 7854 8a3e f7fd 8dbe
000001f0: 1e0f 8c3d 500c a03c bd82 953d e435 673e
00000200: 222c 433e 984b ba3d a134 6e3e 05d5 863e
00000210: a17a 9b3c be22 853d 735a 0c3e b255 e7bd
00000220: f5ae 21bd fa4c 5c3c c8cf f2bd 48f9 363d
00000230: 4ba9 373e da90 09bd 78e9 113d f59b 353c
00000240: e376 9e3a 9452 94bd 6ad0 9fbe d4b2 063e
00000250: 8f78 97bd 4f91 1dbe ccdb 823e bb64 2c3d
00000260: da07 34bd b265 8d3c 0b44 b0bd cbbe 933d
00000270: b620 5b3e 652e ff3b 906a a03d a7b3 593e
00000280: 4473 693b 54db 0b3e 4200 a5bd 7139 47bd
00000290: 01be 96bd 55a7 10bd e6df 23be 2e6a 883d
000002a0: 423f 87bc 7419 f0bd e09d 963c e6d0 0abc
000002b0: 73e3 de3c ed46 453d d3ae b7b9 e9e6 2b3c
000002c0: 432e cd3d 8c84 95bc 2491 53bd d5bb a73d
000002d0: a09b 90bd 7778 573d 2fe5 bfbc 740c cdbd
000002e0: 5115 a83d 52aa 56bc 41cc b6bd cb20 5cbd
000002f0: 3b16 69bb c0db ecbb 0983 c4bd 77d4 83bd
00000300: c740 e3bc 90d1 2abe 5a9a 55be 8ee4 1ebe
00000310: cfa2 4cbe 709d ffbd a57f 083e 6ebc 4a3e
00000320: 62fb 99be d0e3 993d 2364 b83d fa21 ccbe
00000330: 651c 1b3d 2bb1 c03c 54c7 44be eb45 663d
00000340: fdf5 313e 6f74 2b3e e685 7abe e510 03bf
00000350: b2d2 0f3f c3fc d8bd 68a5 89be 4d67 f53e
00000360: c273 6cbd 0ee2 4bbe 9e4c 653c 884c 973e
00000370: 9c9f 66be f6c1 24be 18e9 473e a828 6dbc
00000380: e048 dabc c8b7 d83c 4504 493d 7794 18bd
00000390: eb4d e13d e232 153d 652c 13be 7c5b 183d
000003a0: 2203 463d 9178 ca3b 6b7e 92bd ed6e 93bd
000003b0: ed2a ccbd 9402 c3bc 07aa bfbc acc8 3dbe
000003c0: ea18 8a3d b157 8a3d d85a 11be 18b8 12be
000003d0: a857 a8bb 832b 243e e679 e1bc 66db 033f
000003e0: c213 9ebe 91e2 1b3d 096d b93e d708 4ebe
000003f0: eff4 58bd 79c9 e4bd e425 efbd b45f 9c3d

layer1.0.conv1.bias f4 [16]
0.0013845771 -0.0063484483 -0.0026544144 0.001547276 -0.007978054 -0.007051529 0.0012169416 -0.0026481077
0.0035724698 -0.0025228304 0.0043434864 0.0016824665 -0.009217719 0.0018713482 0.0071297307 -0.004038754
00000000: b37a b53a a506 d0bb aff5 2dbb f8cd ca3a
00000010: 62b6 02bc 8310 e7bb c981 9f3a e08b 2dbb
00000020: 1920 6a3b 1256 25bb ce53 8e3b 3586 dc3a
00000030: ea05 17bc 0748 f53a 84a0 e93b 8657 84bb

layer1.0.bn1.weight f4 [16]
0.47285476 0.8315237 0.8300555 0.5721764 0.7194268 0.700532 0.76510185 0.7598381
1.1227121 0.577426 0.87676 0.54876715 0.7248536 0.67768526 0.49455562 0.5894319
00000000: 051a f23e bdde 543f 847e 543f 277a 123f
00000010: 5b2c 383f 1156 333f b7dd 433f c084 423f
00000020: 08b5 8f3f 31d2 133f 5873 603f 017c 0c3f
00000030: 0190 393f c87c 2d3f 6536 fd3e 02e5 163f

layer1.0.bn1.bias f4 [16]
-0.06620008 -0.1149187 -0.48118898 0.23406245 -0.0033477435 0.8111929 -0.4992986 -0.18602097
-0.60268074 0.08006545 0.30706722 -0.027137732 -0.20516454 0.29498193 0.35495958 -0.28906134
00000000: e893 87bd 7f5a ebbd 675e f6be 11ae 6f3e
00000010: d165 5bbb 57aa 4f3f 11a4 ffbe 487c 3ebe
00000020: 4949 1abf 5bf9 a33d ea37 9d3e f34f debc
00000030: a716 52be df07 973e 43bd b53e d9ff 93be

layer1.0.bn1.running_mean f4 [16]
2.2667766 -0.22196491 -0.9109484 -2.7155502 -0.83840996 -1.9135755 1.2195776 -2.1826117
-0.7218543 -1.8136578 -4.5435343 -0.6445972 -1.7397921 -0.1751509 -3.2178655 1.9579415
00000000: de12 1140 c54a 63be ea33 69bf 93cb 2dc0
00000010: 09a2 56bf 0bf0 f4bf 1e1b 9c3f e9af 0bc0
00000020: 72cb 38bf f025 e8bf a264 91c0 5204 25bf
00000030: 82b1 debf c25a 33be 82f1 4dc0 d49d fa3f

layer1.0.bn1.running_var f4 [16]
1.9332582 4.6585827 2.0608597 1.760149 5.842247 3.186013 2.040545 3.4019039
4.8467994 1.1882854 5.508842 3.0705729 2.0670137 2.4569018 1.7473315 1.0711629
00000000: 0175 f73f 1c13 9540 20e5 0340 904c e13f
00000010: b0f3 ba40 a3e7 4b40 4a98 0240 cbb8 5940
00000020: fb18 9b40 bc19 983f 6f48 b040 4484 4440
00000030: f449 0440 e13d 1d40 8fa8 df3f de1b 893f

layer1.0.conv2.weight f4 [16, 16, 3, 3]
-0.005966338 -0.055238582 0.09804442 -0.24847287 -0.2612951 -0.058258824 -0.20799027 -0.18242837
0.12420134 -0.039043028 -0.039525215 -0.06093806 0.08004437 0.1284984 0.10176571 0.060625575
0.21653742 0.16171315 -0.1231366 0.07892744 -0.14912152 0.002256104 0.16616139 -0.23119853
-0.10125233 0.077793494 -0.1172865 0.003313557 0.15317558 -0.07879326 0.025194589 0.41095477
0.013403461 -0.18464313 -0.17141506 -0.0944504 -0.18262558 -0.14615968 -0.15973385 -0.020144582
0.057900026 0.10312279 0.046769142 0.014593386 0.064927064 0.0034240778 0.043950368 -0.20155923
0.22952126 0.36219367 -0.5983929 0.25767007 -0.29393613 -0.2989774 0.015242275 0.096988216
0.1589629 0.06510759 0.14519848 0.21479 0.11662854 0.2042039 0.32909104 0.085252516
0.058450367 -0.060454164 0.18643527 0.20497364 0.033458423 0.20174627 0.10791899 -0.122320615
0.050241154 -0.06876657 -0.07561458 -0.056037843 -0.2102514 0.04355571 0.059581447 -0.009858173
0.112034515 0.049965158 -0.09852939 -0.26714048 0.10001133 -0.1395319 -0.22228782 0.075436145
-0.059217982 -0.05508075 -0.03135412 0.024560487 0.06782388 0.014704698 0.059263237 0.0034439312
-0.065282576 0.04058988 -0.00060049014 -0.123295456 -0.17302705 -0.28462386 -0.085976996 0.25619775
0.0016472155 -0.09955075 0.019715367 -0.031486962 0.14468177 0.21963976 0.19453867 0.052838672
0.12385894 0.075345345 0.047866754 0.1256437 0.059873126 -0.03546243 0.08715725 -0.15034473
-0.2429549 0.088527225 0.15104255 -0.20593019 -0.109107494 0.1592233 -0.109065145 0.18687183
0.07126656 -0.023214506 0.56383044 0.2820723 -0.18404731 -0.111230426 0.019874632 -0.12736365
-0.1035194 0.0012254739 -0.15850265 -0.09695572 -0.0105831865 -0.12190745 0.012423016 0.033153914
-0.14323685 -0.1760797 -0.09325321 0.06713869 0.10447839 0.04967038 0.028423326 0.090011425
0.036190093 -0.33225164 -0.23298949 -0.1424392 -0.2287677 -0.22262906 -0.109847225 -0.042149566
0.004888364 0.0017659083 -0.024783982 -0.026364096 -0.038390767 -0.087827645 -0.065835744 0.024707325
-0.14820135 -0.15005484 -0.09110285 -0.01612972 -0.00860991 0.11356939 -0.11930602 -0.26099634
-0.19969286 -0.0605616 -0.034330532 -0.1615287 0.014549231 -0.06543611 0.059887085 -0.13741767
-0.19775026 -0.15750982 -0.123749524 0.0055446327 -0.07235511 0.27459356 0.23033233 -0.20777549
-0.14766921 -0.20918906 0.11049201 -0.2123052 0.15784521 0.1448614 -0.16989999 -0.15420939
-0.048561916 -0.16393434 -0.07884516 -0.06340271 0.014814052 -0.048058446 -0.06524739 -0.0807349
0.03736527 0.020221043 -0.22123908 -0.17025329 -0.033239536 -0.2089079 -0.16952284 -0.03367499
-0.1936223 -0.16643175 -0.038708128 -0.072736986 -0.061713833 -0.03479973 0.020114642 -0.050539482
-0.09290419 0.25159252 0.16341752 0.10233339 -0.03505797 0.027898308 0.06862442 -0.13780485
-0.07762243 0.05536083 -0.045123465 -0.1617535 -0.07844796 0.07004713 0.023047645 0.06502736
0.25094074 0.26062664 0.40057713 0.09859055 0.21029477 0.07603945 -0.22799134 -0.20427644
-0.21696329 -0.21464287 -0.15561037 -0.16138113 0.13938147 0.24540506 0.20086613 0.043738227
00000000: 4581 c3bb da41 62bd 83cb c83d ac6f 7ebe
00000010: 79c8 85be cea0 6ebd 67fb 54be 81ce 3abe
00000020: 465d fe3d 95eb 1fbd 31e5 21bd 309a 79bd
00000030: 4dee a33d 1695 033e 8a6a d03d 8652 783d
00000040: fcbb 5d3e 2298 253e 0b2f fcbd b6a4 a13d
00000050: 50b3 18be 25db 133b 3626 2a3e 4fbf 6cbe
00000060: 625d cfbd 3252 9f3d e833 f0bd 4328 593b
00000070: 0fda 1c3e 5c5e a1bd e264 ce3c aa68 d23e
00000080: 319a 5b3c 1713 3dbe 6e87 2fbe 366f c1bd
00000090: 3302 3bbe e2aa 15be 4591 23be 4006 a5bc
000000a0: 9428 6d3d 0b32 d33d 0091 3f3d 1919 6f3c
000000b0: 7bf8 843d 7e66 603b 4d05 343d 8b65 4ebe
000000c0: 9f07 6b3e 7371 b93e 4730 19bf 55ed 833e
000000d0: cc7e 96be 9113 99be bcba 793c c2a1 c63d
000000e0: 2cc7 223e 2157 853d e9ae 143e e9f1 5b3e
000000f0: f2da ee3d d41a 513e 9f7e a83e df98 ae3d
00000100: a769 6f3d c99e 77bd e3e8 3e3e 9ce4 513e
00000110: b30b 093d 9396 4e3e a204 dd3d 3b83 fabd
00000120: abc9 4d3d 7dd5 8cbd d1db 9abd f087 65bd
00000130: 254c 57be 7967 323d ad0b 743d 2d84 21bc
00000140: 5a72 e53d 44a8 4c3d c7c9 c9bd a3c6 88be
00000150: bdd2 cc3d 73e1 0ebe 6b9f 63be 447e 9a3d
00000160: 8e8e 72bd 5a9c 61bd 2d6d 00bd 1333 c93c
00000170: 3fe7 8a3d f9eb 703c 02be 723d 94b3 613b
00000180: dfb2 85bd 9341 263d 366a 1dba 5482 fcbd
00000190: 012e 31be 38ba 91be b514 b0bd 5a2c 833e
000001a0: 61e7 d73a 43e1 cbbd 1f82 a13c 79f8 00bd
000001b0: 7527 143e 3fe9 603e 2535 473e 5d6d 583d
000001c0: c2a9 fd3d a94e 9a3d ee0f 443d bea8 003e
000001d0: 863d 753d 0e41 11bd 807f b23d f8f3 19be
000001e0: 2bc9 78be c34d b53d e6aa 1a3e 5ddf 52be
000001f0: c073 dfbd 6f0b 233e 8c5d dfbd 545b 3f3e
00000200: 34f4 913d 592c bebc 3157 103f c86b 903e
00000210: e676 3cbe c7cc e3bd 20d0 a23c 9e6b 02be
00000220: fb01 d4bd 15a0 a03a 854e 22be b890 c6bd
00000230: 1a65 2dbc 9daa f9bd e889 4b3c 66cc 073d
00000240: aeac 12be 3d4e 34be 8afb bebd 0280 893d
00000250: c4f8 d53d 2b73 4b3d 09d8 e83c e957 b83d
00000260: 103c 143d e31c aabe cc94 6ebe 95db 11be
00000270: 1442 6abe dff8 63be 95f7 e0bd 06a5 2cbd
00000280: 922e a03b 0d76 e73a c707 cbbc 84f9 d7bc
00000290: a33f 1dbd fbde b3bd e4d4 86bd 0467 ca3c
000002a0: 18c2 17be faa7 19be 2294 babd 7922 84bc
000002b0: 9410 0dbc 1197 e83d b756 f4bd 50a1 85be
000002c0: 497c 4cbe 710f 78bd 2c9e 0cbd c867 25be
000002d0: e65f 6e3c 5e03 86bd 294c 753d 38b7 0cbe
000002e0: 0b7f 4abe 414a 21be 6470 fdbd c0af b53b
000002f0: ea2e 94bd 8797 8c3e 3ddc 6b3e 19c3 54be
00000300: 9936 17be a835 56be a349 e23d 8966 59be
00000310: 2da2 213e 8c56 143e 43fa 2dbe 11e9 1dbe
00000320: dce8 46bd 67de 27be 9279 a1bd 48d9 81bd
00000330: a3b6 723c efd8 44bd 6ca0 85bd 5758 a5bd
00000340: 530c 193d 9aa6 a53c 7f8c 62be e156 2ebe
00000350: 2e26 08bd f4eb 55be 6597 2dbe c9ee 09bd
00000360: ed44 46be 166d 2abe 6a8c 1ebd 21f7 94bd
00000370: a5c7 7cbd 298a 0ebd 76c7 a43c 7d02 4fbd
00000380: 8d44 bebd bcd0 803e ec56 273e 2b94 d13d
00000390: f298 0fbd fe8a e43c f68a 8c3d b71c 0dbe
000003a0: 82f8 9ebd 0ac2 623d 62d3 38bd b6a2 25be
000003b0: 53a9 a0bd df74 8f3d 6ace bc3c 112d 853d
000003c0: 4e7b 803e db70 853e 7218 cd3e d8e9 c93d
000003d0: 8357 573e 92ba 9b3d 9076 69be d82d 51be
000003e0: a02b 5ebe 57cb 5bbe 5358 1fbe 1841 25be
000003f0: 04ba 0e3e 774b 7b3e daaf 4d3e db26 333d

layer1.0.conv2.bias f4 [16]
-0.0038687384 0.013415829 -0.004601841 0.0015518196 0.006281037 0.0041410145 -0.0025594858 -0.005780617
0.0070544514 -0.0054490874 -0.007795192 0.00950293 -0.0069572674 0.0037027504 -0.0003900217 0.0010315712
00000000: a98a 7dbb 11ce 5b3c 0acb 96bb 6d66 cb3a
00000010: 28d1 cd3b 59b1 873b 0cbd 27bb 546b bdbb
00000020: 0729 e73b 428e b2bb cf6e ffbb 2db2 1b3c
00000030: caf9 e3bb d8a9 723b d47b ccb9 c935 873a

layer1.0.bn2.weight f4 [16]
0.52295524 0.725589 0.67568284 0.46047956 0.63113016 0.53276676 0.4000553 0.6515915
0.7702476 0.7516523 0.43992472 0.9252699 0.86897457 0.9365029 0.45808136 0.834946
00000000: 65e0 053f 33c0 393f 8df9 2c3f fac3 eb3e
00000010: bf91 213f 6763 083f 0cd4 cc3e b3ce 263f
00000020: f22e 453f 496c 403f d03d e13e 7dde 6c3f
00000030: 1e75 5e3f a7be 6f3f a489 ea3e 05bf 553f

layer1.0.bn2.bias f4 [16]
0.21316938 -0.32989043 0.1069336 0.35773888 -0.16498722 -0.021953305 0.09874217 0.33739775
-0.055296138 -0.016203277 0.3133163 -0.22361659 0.027569823 0.51961356 0.21997248 -0.108280644
00000000: 1349 5a3e 66e7 a8be 0100 db3d 8d29 b73e
00000010: 69f2 28be 6bd7 b3bc 5639 ca3d 66bf ac3e
00000020: 347e 62bd bcbc 84bc fe6a a03e bffb 64be
00000030: 1cda e13c 6505 053f 7740 613e 3ec2 ddbd

layer1.0.bn2.running_mean f4 [16]
-0.14530994 -0.7366532 0.2942516 -0.38077298 -0.018175973 -1.6071153 1.3253791 -0.864011
-0.046111558 0.41753018 0.7630678 -0.2507513 1.2121508 0.08031033 -0.36350793 -1.1217811
00000000: 21cc 14be 4e95 3cbf 25a8 963e adf4 c2be
00000010: c7e5 94bc f4b5 cdbf 06a6 a93f d32f 5dbf
00000020: 79df 3cbd 84c6 d53e 6958 433f 7962 80be
00000030: c227 9b3f be79 a43d b61d babe 8696 8fbf

layer1.0.bn2.running_var f4 [16]
1.195872 1.0374094 0.96710706 1.1845864 1.3573606 0.9633836 1.0563974 1.0727305
0.83067423 1.2631094 0.92065984 1.5684408 1.0057882 1.8501182 0.955948 1.7995684
00000000: 5512 993f d5c9 843f 5494 773f 87a0 973f
00000010: febd ad3f 4fa0 763f 0838 873f 3c4f 893f
00000020: 11a7 543f 92ad a13f 5db0 6b3f abc2 c83f
00000030: abbd 803f acd0 ec3f 02b9 743f 4258 e63f

layer1.1.conv1.weight f4 [16, 16, 3, 3]
-0.081470184 -0.20469607 -0.00910909 0.20221 0.22726865 0.15317409 -0.0014273984 -0.050877422
-0.05900708 -0.08135583 -0.017812384 -0.1202723 -0.06482921 -0.11386133 -0.03367222 0.052519575
0.13092342 -0.11086118 0.12812151 0.11037113 -0.022199228 0.28077924 0.41527715 0.22701366
-0.006656642 -0.088543355 -0.08263508 -0.1936232 -0.15039463 -0.1283109 0.13635798 0.2560763
0.1530077 0.094350256 0.20719782 0.031860676 0.06608244 0.07295263 0.09542077 0.0018518759
0.010340847 -0.08746591 -0.017657338 -0.006209253 -0.09521876 -0.24472687 -0.2044664 -0.24305883
-0.025985284 -0.0046528927 -0.045618627 -0.060123976 0.02277427 0.117915 -0.13060585 -0.02967108
0.0259141 0.09770775 0.10511797 0.082555264 0.07395016 -0.0064719855 -0.18433854 -0.19399689
-0.25155708 -0.060167167 -0.019244961 -0.04427406 -0.25011614 0.12385965 0.14244376 0.21174374
-0.10548353 -0.15257506 0.0021092002 -0.058149934 -0.09201806 -0.040481634 0.22658047 0.081702605
0.15341057 0.035439722 0.16624703 0.09183515 0.07657569 -0.0548712 -0.15915349 -0.087833345
-0.15013097 -0.23464806 0.17469496 0.10871817 0.059262812 0.06767935 -0.028194414 -0.07378302
0.14164075 0.049005073 -0.042329468 -0.08115969 0.09903947 0.031723686 0.07371656 -0.03341725
0.20530981 -0.03162038 0.10434739 0.08059471 -0.1909177 -0.12113687 -0.053859662 0.083045684
0.111565836 -0.032129988 -0.09394124 -0.12182323 0.061756108 0.116245374 0.028106237 -0.044151068
0.16555147 0.26700306 -0.0073814504 -0.21949676 -0.29935086 -0.004566842 -0.14539489 -0.1531945
-0.16479623 0.07699171 0.09150097 0.07575864 0.13460621 0.12370791 0.08376742 0.025118485
0.3749281 0.11566812 0.36659634 0.27129117 -0.15345237 -0.12947734 -0.097504765 -0.18180022
0.2676787 -0.09080204 -0.20218852 0.30233145 -0.075606585 -0.2837473 0.124108665 0.06844808
-0.17512968 -0.078587055 -0.044669278 0.04060554 -0.09322721 -0.13466854 -0.004910873 0.065323114
-0.021212343 -0.09400308 -0.09326837 -0.01939521 -0.012638089 -0.101472095 0.043311663 0.081128344
-0.086882986 -0.025281738 0.1607467 0.06687759 0.06962422 0.064946786 0.037850216 0.018632526
1.527304e-05 0.11016557 0.02074132 -0.023577072 -0.12221658 -0.031105831 0.14730437 -0.090472564
0.034370273 0.16357695 -0.0642809 0.01757757 0.19961534 -0.01799973 0.092171095 -0.10944299
0.08412586 0.10414848 0.19374375 -0.08616532 0.16009113 0.19699131 0.046067014 0.044676397
-0.010337698 -0.04401255 -0.023093514 0.07004661 -0.11614442 -0.083657 0.06050287 -0.041580904
-0.02050318 0.45804033 -0.03763828 -0.015745811 0.3663055 -0.3106676 0.17416427 0.15388499
0.009106022 -0.14384313 0.06628517 -0.12272076 0.020618832 -0.03520725 -0.121001385 -0.094508834
0.061211877 0.15813573 0.18464237 -0.101790145 -0.12607764 0.15566845 0.102309346 -0.25493166
0.016150646 0.25623018 -0.06730398 -0.06433212 -0.029512703 -0.026866985 0.0032448932 -0.061520934
-0.05434719 -0.0128350295 -0.099184096 -0.06815875 0.066462554 -0.21476656 0.00478653 0.10610887
-0.20863345 0.033080194 -0.03461326 -0.021055257 -0.10535464 -0.15117761 -0.21036915 0.011215018
00000000: d7d9 a6bd d99b 51be 4b3e 15bc 2310 4f3e
00000010: 1db9 683e abd9 1c3e 8b17 bbba d864 50bd
00000020: 68b1 71bd e39d a6bd 47eb 91bc 5351 f6bd
00000030: 2dc5 84bd 2130 e9bd e2eb 09bd c41e 573d
00000040: ca10 063e 300b e3bd 4932 033e 420a e23d
00000050: 28db b5bc 4cc2 8f3e 359f d43e 4576 683e
00000060: f61f dabb 3856 b5bd 953c a9bd 2945 46be
00000070: 0d01 1abe ef63 03be 6da1 0b3e 6f1c 833e
00000080: 0dae 1c3e b53a c13d aa2b 543e 5780 023d
00000090: 3b56 873d 3068 953d f76b c33d a5ba f23a
000000a0: a86c 293c 5421 b3bd 1fa6 90bc fd76 cbbb
000000b0: 0e02 c3bd ae99 7abe a45f 51be 6ae4 78be
000000c0: 17df d4bc 4b77 98bb 99da 3abd 8f44 76bd
000000d0: 1b91 ba3c 6b7d f13d 8abd 05be c410 f3bc
000000e0: cf49 d43c 001b c83d 1748 d73d bc12 a93d
000000f0: 2e73 973d f312 d4bb 3ec3 3cbe 1fa7 46be
00000100: 17cc 80be d971 76bd 9ca7 9dbc b758 35bd
00000110: 390f 80be 21aa fd3d c7dc 113e 5ad3 583e
00000120: c007 d8bd a33c 1cbe 823a 0a3b a02e 6ebd
00000130: f773 bcbd 12d0 25bd b604 683e b253 a73d
00000140: a917 1d3e 3e29 113d a93c 2a3e 1114 bc3d
00000150: b7d3 9c3d a0c0 60bd 22f9 22be f8e1 b3bd
00000160: efbb 19be 9547 70be 3ce3 323e a2a7 de3d
00000170: 90bd 723d 799b 8a3d f9f7 e6bc 8d1b 97bd
00000180: 460a 113e 8bb9 483d aa61 2dbd 0d37 a6bd
00000190: 35d5 ca3d b2f0 013d b5f8 963d 87e0 08bd
000001a0: bc3c 523e 5f84 01bd 16b4 d53d d70e a53d
000001b0: ee7f 43be 9b16 f8bd f39b 5cbd db13 aa3d
000001c0: a17c e43d bc9a 03bd 4464 c0bd 757e f9bd
000001d0: f9f3 7c3d 0e12 ee3d 0d3f e63c c0d7 34bd
000001e0: 5386 293e a0b4 883e 18e0 f1bb c2c3 60be
000001f0: 8444 99be 73a5 95bb 66e2 14be 05df 1cbe
00000200: 58c0 28be d4ad 9d3d dc64 bb3d 5927 9b3d
00000210: 36d6 093e 935a fd3d 418e ab3d 48c5 cd3c
00000220: 93f6 bf3e 68e3 ec3d 84b2 bb3e ade6 8a3e
00000230: 9e22 1dbe b595 04be 94b0 c7bd d629 3abe
00000240: 2f0d 893e 6cf6 b9bd 820a 4fbe 30cb 9a3e
00000250: a0d7 9abd 5347 91be af2c fe3d 822e 8c3d
00000260: 3255 33be 40f2 a0bd 22f7 36bd ff51 263d
00000270: e8ed bebd 8de6 09be 63eb a0bb 20c8 853d
00000280: 82c5 adbc b084 c0bd 7d03 bfbd b4e2 9ebc
00000290: fd0f 4fbc 9ad0 cfbd 9267 313d 9e26 a63d
000002a0: b5ef b1bd a61b cfbc c89a 243e 1ef7 883d
000002b0: 2597 8e3d d202 853d d408 1b3d 3da3 983c
000002c0: 9b1e 8037 7d9e e13d b3e9 a93c b424 c1bc
000002d0: b04c fabd a8d1 febc f5d6 163e ae49 b9bd
000002e0: d8c7 0c3d b780 273e b4a5 83bd d6fe 8f3c
000002f0: f767 4c3e 2b74 93bc 33c4 bc3d a523 e0bd
00000300: 2e4a ac3d cc4b d53d c364 463e 7177 b0bd
00000310: eeee 233e 17b8 493e c4b0 3c3d 99fe 363d
00000320: 735f 29bc 8146 34bd 9c2e bdbc 9974 8f3d
00000330: 20dd edbd 5c54 abbd dbd1 773d bd50 2abd
00000340: 49f6 a7bc 4384 ea3e 992a 1abd 5cfd 80bc
00000350: 658c bb3e d30f 9fbe 1e58 323e 0794 1d3e
00000360: 6d31 153c 9d4b 13be 85c0 873d 0655 fbbd
00000370: d3e8 a83c 7a35 10bd 93cf f7bd d98d c1bd
00000380: 4eb9 7a3d 55ee 213e e412 3d3e 5a77 d0bd
00000390: 7f1a 01be 8d67 1f3e 9087 d13d 6786 82be
000003a0: 5c4e 843c 9a30 833e abd6 89bd 8fc0 83bd
000003b0: a0c4 f1bc 2718 dcbc 46a8 543b 60fd 7bbd
000003c0: 299b 5ebd 044a 52bc 0821 cbbd d196 8bbd
000003d0: 851d 883d c4eb 5bbe 53d8 9c3b 9b4f d93d
000003e0: 02a4 55be 197f 073d a2c6 0dbd 137c acbc
000003f0: 2cc4 d7bd 4ece 1abe 036b 57be 32bf 373c

layer1.1.conv1.bias f4 [16]
-0.0011913377 -0.0077465754 0.005575168 0.0005310569 -0.0060853036 0.007403299 -0.007670847 -0.00815183
-0.008280638 -0.0040431865 0.00684122 -0.0015070051 0.00957089 -0.000998734 -0.007913605 0.0004371159
00000000: a926 9cba fcd6 fdbb e6af b63b a036 0b3a
00000010: 3a67 c7bb 6097 f23b ba5b fbbb 418f 05bc
00000020: 83ab 07bc b57c 84bb 502c e03b b386 c5ba
00000030: 39cf 1c3c f4e7 82ba 11a8 01bc b42c e539

layer1.1.bn1.weight f4 [16]
0.76337826 0.5922491 0.72543305 0.94783217 0.73314995 0.68651044 0.7520215 0.6727116
0.6291277 0.7057798 0.594389 0.6880716 0.64707303 0.74153495 0.7003753 0.7460005
00000000: c26c 433f a39d 173f fbb5 393f 21a5 723f
00000010: b7af 3b3f 26bf 2f3f 7b84 403f d436 2c3f
00000020: 830e 213f fcad 343f e129 183f 7625 303f
00000030: 94a6 253f 3cd5 3d3f cc4b 333f e4f9 3e3f

layer1.1.bn1.bias f4 [16]
-0.39977407 -0.24746764 0.26746577 -0.30960605 -0.34940603 -0.58291113 -0.06295748 -0.36362356
0.051050387 -0.4113989 -0.43401945 -0.38436365 -0.17649627 0.08681359 -0.3042181 -0.48583278
00000000: 30af ccbe 2868 7dbe 46f1 883e af84 9ebe
00000010: 59e5 b2be aa39 15bf daef 80bd de2c babe
00000020: 361a 513d e0a2 d2be cc37 debe 50cb c4be
00000030: 70bb 34be 53cb b13d 7ac2 9bbe 13bf f8be

layer1.1.bn1.running_mean f4 [16]
1.1849879 0.5684161 -4.3200264 -2.2759109 -1.432419 3.4276757 -0.0023113969 -0.95338386
-5.993204 -0.0007098243 2.0877886 -3.246815 2.2626865 -2.9212053 -1.3181429 4.195283
00000000: afad 973f b883 113f a83d 8ac0 86a8 11c0
00000010: 8159 b7bf 0a5f 5b40 ce7a 17bb f710 74bf
00000020: 54c8 bfc0 8113 3aba 549e 0540 d1cb 4fc0
00000030: dbcf 1040 07f5 3ac0 e8b8 a8bf c23f 8640

layer1.1.bn1.running_var f4 [16]
4.125319 3.1901772 5.3899755 8.616702 3.5304735 1.7969937 10.335707 2.4523072
5.334729 2.370582 1.2322302 1.998205 5.54109 7.040121 4.285199 2.0157204
00000000: 9d02 8440 dd2b 4c40 ae7a ac40 03de 0941
00000010: 47f3 6140 e403 e63f 0e5f 2541 9af2 1c40
00000020: 1ab6 aa40 9eb7 1740 b8b9 9d3f 2ec5 ff3f
00000030: 9c50 b140 ac48 e140 5a20 8940 9001 0140

layer1.1.conv2.weight f4 [16, 16, 3, 3]
0.057370022 0.10495423 0.15623893 -0.09405406 -0.114936106 -0.026581798 0.0479349 0.028313244
0.1082201 0.04489243 -0.08187823 -0.1609553 -0.036212385 -0.027089728 0.112708494 -0.17103603
0.059282396 0.040037338 0.046732932 0.06052173 0.032275714 -0.034021925 0.017183369 0.12820342
0.020984098 0.14603291 0.037467632 0.01573154 -0.06718739 0.01857494 -0.062897414 0.002340801
-0.03874882 0.038021985 -0.007042719 0.02412842 -0.20871666 -0.21316412 -0.03140379 -0.04473829
0.0683421 0.13805999 0.10933825 0.16633354 0.10246933 -0.14113763 -0.1834766 -0.076832615
0.024845261 0.028534038 0.17200169 0.0460923 0.10207872 0.16496216 0.12078002 0.16487257
0.13514145 0.18719018 0.20120643 0.19980803 0.02476565 0.056170534 0.071169905 -0.074162096
0.029212832 -0.013448741 -0.048353676 -0.0014656852 -0.067687124 -0.079634026 0.003435804 -0.11056018
-0.18234856 -0.16564241 -0.12382683 0.0028928935 0.025604192 0.04776822 -0.0014207449 0.025110882
0.07956446 -0.11928543 -0.057425536 -0.01963695 -0.11977198 -0.18394187 -0.21769024 -0.06086931
-0.1754077 -0.14841424 0.025710654 0.06407401 0.055614237 0.05209122 -0.032834306 -0.06839784
0.11239173 -0.007564 -0.04780879 -0.08323801 -0.06363714 -0.058622632 -0.14847584 -0.10555428
-0.09418023 -0.23212676 -0.11728322 -0.112065636 -0.041943032 0.05402525 0.06433273 0.026321854
0.019623823 0.16095364 0.023737602 0.0032854292 0.08575536 -0.018385267 -0.0041383626 -0.14307985
-0.03569755 0.22009747 0.106159136 -0.034947734 -0.0021786322 -0.07883471 -0.061781436 0.030740688
0.048508286 0.008585288 0.08051319 0.10932236 0.04233137 0.17241408 0.094080985 0.073558286
0.029431595 0.026181135 -0.10870227 -0.3862808 -0.14782313 -0.012286236 -0.05313129 0.04663398
0.12719746 0.20824601 0.11607676 0.19843878 0.41144803 0.23125492 0.071975954 0.118295275
0.13221332 0.016332766 0.0641924 0.056703232 0.14235936 -0.040840786 -0.08312177 0.2325437
0.0065405075 -0.12297924 0.022595856 0.13878062 0.16725498 0.040011898 -0.23688379 -0.17444961
-0.12270049 -0.16885762 -0.08088212 0.013355042 -0.113908745 -0.13217072 -0.05814436 -0.09515733
0.013602818 -0.1255162 -0.09435571 0.014165826 0.14750364 0.22373673 0.26193008 0.13224536
0.119010635 0.07256833 -0.10535801 0.031913336 0.03024589 0.058721274 0.079758614 -0.013760276
0.07660572 0.07833826 -0.08063107 0.013395367 -0.020860225 -0.070668474 0.18062817 0.2607177
0.28950086 0.17002831 0.11012957 0.08640072 0.15143868 0.0243833 0.042636868 -0.042980153
-0.030413238 -0.051552128 -0.002400832 0.03165975 0.034428813 0.05397244 0.13289556 0.044800453
0.005008772 -0.044577707 0.10452402 0.10393629 -0.046364643 -0.041490976 0.1816847 0.020402445
0.041452393 0.12222275 -0.019407254 -0.066905715 0.17640293 0.12760061 -0.019507196 0.18592924
0.08775053 -0.036479637 -0.009153867 -0.0288176 -0.071638964 0.15106194 0.21636501 0.039529745
0.17066233 0.15967454 0.07666003 0.12291859 0.12501909 0.056629993 0.07065196 0.03871261
-0.015233629 0.10809494 0.09789268 0.03124218 0.0009375518 -0.012317847 0.02442474 0.08282791
00000000: d4fc 6a3d 3ef2 d63d 19fd 1f3e 6a9f c0bd
00000010: 9f63 ebbd 12c2 d9bc 6357 443d 2df1 e73c
00000020: 80a2 dd3d 20e1 373d c6af a7bd 77d1 24be
00000030: 7053 14bd 47eb ddbc b6d3 e63d 1224 2fbe
00000040: 19d2 723d 31fe 233d 086b 3f3d a2e5 773d
00000050: 8a33 043d 935a 0bbd 23c4 8c3c c247 033e
00000060: d8e6 ab3c a789 153e a977 193d 6edf 803c
00000070: 8b99 89bd 792a 983c 5cd0 80bd 2068 193b
00000080: 15b7 1ebd f1bc 1b3d 9cc6 e6bb f7a8 c53c
00000090: d2b9 55be b247 5abe 43a1 00bd 7f3f 37bd
000000a0: f1f6 8b3d 995f 0d3e bbec df3d 5753 2a3e
000000b0: 71db d13d 6286 10be 4ae1 3bbe 6b5a 9dbd
000000c0: 4a88 cb3c 37c0 e93c 3621 303e 48cb 3c3d
000000d0: a60e d13d d7eb 283e 845b f73d 5bd4 283e
000000e0: 8562 0a3e c8ae 3f3e 0f09 4e3e 7a9a 4c3e
000000f0: 55e1 ca3c 1313 663d 87c1 913d 4ce2 97bd
00000100: c04f ef3c 1c58 5cbc 810e 46bd 3c1c c0ba
00000110: 8c9f 8abd 2a17 a3bd 3a2b 613b 606d e2bd
00000120: 95b9 3abe 2a9e 29be ec98 fdbd b396 3d3b
00000130: e2bf d13c 9ca8 433d 4a38 baba 56b5 cd3c
00000140: b1f2 a23d eb4b f4bd 0a37 6bbd abdd a0bc
00000150: 034b f5bd 425b 3cbe 31ea 5ebe 1952 79bd
00000160: 139e 33be e7f9 17be 269f d23c 3c39 833d
00000170: c1cb 633d 9a5d 553d 447d 06bd 2b14 8cbd
00000180: a32d e63d 6edb f7bb 26d3 43bd b178 aabd
00000190: 3054 82bd 491e 70bd 0d0a 18be d82c d8bd
000001a0: 90e1 c0bd a3b2 6dbe 2f32 f0bd ab82 e5bd
000001b0: 75cc 2bbd 9549 5d3d e1c0 833d eea0 d73c
000001c0: 24c2 a03c 08d1 243e 5c75 c23c 5b50 573b
000001d0: 82a0 af3d b39c 96bc 1a9b 87bb 8683 12be
000001e0: 9837 12bd 3b61 613e f669 d93d 5b25 0fbd
000001f0: 62c7 0ebb 1874 a1bd 880e 7dbd e5d3 fb3c
00000200: a0b0 463d 4fa9 0c3c 19e4 a43d 67e4 df3d
00000210: a963 2d3d 518d 303e 88ad c03d baa5 963d
00000220: 871a f13c d279 d63c 4c9f debd 99c6 c5be
00000230: f25e 17be 354c 49bc 32a0 59bd 4603 3f3d
00000240: 0d40 023e 713e 553e a7b9 ed3d 8933 4b3e
00000250: 51a9 d23e 17ce 6c3e 2168 933d cb44 f23d
00000260: ee62 073e 4bcc 853c 4e77 833d a641 683d
00000270: a7c6 113e ab48 27bd bf3b aabd f01f 6e3e
00000280: c151 d63b 8adc fbbd f21a b93c 821c 0e3e
00000290: e444 2b3e 84e3 233d aa91 72be eba2 32be
000002a0: 654a fbbd 03e9 2cbe 86a5 a5bd 1bcf 5a3c
000002b0: fd48 e9bd c357 07be c828 6ebd d9e1 c2bd
000002c0: 5bde 5e3c 5287 00be 913d c1bd c817 683c
000002d0: 320b 173e 3e1b 653e b31b 863e 546b 073e
000002e0: d9bb f33d b49e 943d f1c5 d7bd 8fb7 023d
000002f0: 3bc6 f73c b885 703d 7c58 a33d c872 61bc
00000300: 76e3 9c3d cf6f a03d e721 a5bd 3e78 5b3c
00000310: 10e3 aabc a2ba 90bd 97f6 383e ca7c 853e
00000320: 7539 943e e71b 2e3e 9d8b e13d dcf2 b03d
00000330: be12 1b3e 7dbf c73c ffa3 2e3d f50b 30bd
00000340: 2f25 f9bc 5328 53bd 4757 1dbb a7ad 013d
00000350: 3a05 0d3d 3512 5d3d c615 083e ae80 373d
00000360: a020 a43b 1d97 36bd b010 d63d 8ddc d43d
00000370: dae8 3dbd 71f2 29bd 8e0b 3a3e 0723 a73c
00000380: fcc9 293d ec4f fa3d f6fb 9ebc dd05 89bd
00000390: f8a2 343e bca9 023e 8ecd 9fbc 3c64 3e3e
000003a0: 8db6 b33d ac6b 15bd 1afa 15bc e312 ecbc
000003b0: 73b7 92bd fbaf 1a3e ca8e 5d3e f1e9 213d
000003c0: 1bc2 2e3e b981 233e efff 9c3d bebc fb3d
000003d0: 0105 003e daf4 673d fab1 903d 1d91 1e3d
000003e0: 7996 79bc e160 dd3d f57b c83d 9aef ff3c
000003f0: 09c6 753a ccd0 49bc 6416 c83c aea1 a93d

layer1.1.conv2.bias f4 [16]
0.0068691974 -0.0015368799 0.002204631 0.004686529 -0.0058839186 -0.0038535795 -0.0095304055 -0.0023375193
-0.0018868551 0.0088275485 0.0031626886 0.0014864247 -0.0033270828 -0.0027999494 0.00019219468 0.007484834
00000000: 0117 e13b 2271 c9ba 927b 103b 7491 993b
00000010: e3cd c0bb 568c 7cbb 6b25 1cbc 1131 19bb
00000020: 5a50 f7ba 6ca1 103c 1c45 4f3b 23d4 c23a
00000030: 300b 5abb 5b7f 37bb de87 4939 5743 f53b

layer1.1.bn2.weight f4 [16]
0.28638476 0.5838605 0.7180014 0.33223101 0.4956857 0.7081243 0.51123315 0.8285143
1.1078184 0.47725642 0.4265642 0.7401356 0.85649127 0.93889993 0.18914124 0.7793434
00000000: 06a1 923e e277 153f f1ce 373f 2f1a aa3e
00000010: 84ca fd3e a247 353f 2de0 023f 8319 543f
00000020: fecc 8d3f f45a f43e 9f66 da3e 8779 3d3f
00000030: 0343 5b3f bf5b 703f 3eae 413e 0d83 473f

layer1.1.bn2.bias f4 [16]
-0.051980514 0.37412226 -0.05629176 0.21273434 0.14362493 -0.21323004 0.15752435 -0.015197843
-0.31743932 -0.06800806 0.24133688 -0.4579814 -0.07349406 0.08863629 0.14659043 0.10612335
00000000: 85e9 54bd f48c bf3e 3092 66bd 08d7 593e
00000010: 6a12 133e fa58 5abe 104e 213e 6000 79bc
00000020: 6887 a2be cf47 8bbd 0421 773e 8a7c eabe
00000030: 0e84 96bd f186 b53d cd1b 163e 3357 d93d

layer1.1.bn2.running_mean f4 [16]
0.22038834 0.7432496 -0.8602221 -0.5129046 0.007545169 -0.110344715 -0.21873987 -0.4956028
-0.5378265 -0.15555798 0.0018974174 0.27846113 -0.08392939 -0.34046745 -0.23691195 -0.031051707
00000000: 7bad 613e 9b45 3e3f 8437 5cbf b74d 03bf
00000010: 773d f73b 69fc e1bd 58fd 5fbe a6bf fdbe
00000020: ffae 09bf 974a 1fbe c3b2 f83a 7592 8e3e
00000030: 2ce3 abbd c051 aebe 0c99 72be 2660 febc

layer1.1.bn2.running_var f4 [16]
0.3516987 0.76637936 0.76917166 0.528945 0.5748658 0.6695259 0.6782683 0.4982518
1.019167 0.38258883 0.48607954 0.37588498 0.7102394 0.90319777 0.2472012 0.5045804
00000000: da11 b43e 7031 443f 6fe8 443f f168 073f
00000010: 682a 133f 0d66 2b3f fea2 2d3f dc1a ff3e
00000020: 1074 823f afe2 c33e 6bdf f83e ff73 c03e
00000030: 40d2 353f f837 673f 5022 7d3e 2e2c 013f

layer2.0.conv1.weight f4 [32, 16, 3, 3]
-0.17468007 -0.102752894 -0.071173 0.09013237 0.05588605 -0.0033919578 0.05130293 0.09005441
0.031750534 -0.18303762 -0.17606066 -0.19246194 -0.12385398 -0.0792322 -0.11566277 -0.14316325
-0.14960155 -0.20287885 0.122696124 0.09613021 0.10314857 0.070243806 0.15858418 0.13477938
0.02364687 0.009327203 0.14381506 -0.28097984 -0.144215 0.048640173 0.08036085 0.045461833
0.040988863 0.23585904 0.13865858 -0.037547164 0.021827519 0.073049895 0.06856183 -0.06906032
-0.05882883 -0.0015776886 -0.088152304 -0.15266062 -0.095509775 -0.048828255 -0.15980054 -0.080423005
-0.07380674 0.11634846 0.06932219 -0.0129291285 -0.06955312 -0.043694302 -0.10243238 -0.078605466
0.10736771 -0.029359605 -0.022138365 0.03707318 -0.18364553 -0.22987302 -0.12073649 -0.33243227
-0.159553 -0.05516302 -0.02901328 -0.08730314 -0.023660026 -0.023794137 0.08647835 0.14613964
0.047711503 -0.1427691 -0.081935644 -0.05509394 0.08496076 0.050019924 0.15401824 0.17198196
0.030384097 0.045487586 -0.07552537 -0.16552995 -0.03820702 0.025033426 -0.03957294 -0.071898684
-0.068459705 -0.062574804 0.030493692 -0.06965261 0.0046033473 -0.09127939 -0.12786114 -0.073441125
-0.07249062 -0.103853 -0.06787688 0.24452175 0.20034306 0.06710547 -0.10312154 0.0385971
0.061398923 0.045535617 -0.0048050615 0.0045110527 -0.03140457 -0.054857984 0.11086682 0.16773634
-0.036468115 0.05137622 -0.061303537 -0.027748954 -0.111754395 0.23790258 0.07979015 -0.02085794
0.2844956 0.06541216 -0.1730927 -0.020984516 -0.030112749 -0.06593967 0.043732762 -0.030877609
0.006294251 -0.0127608385 -0.018029107 -0.060894262 -0.023210602 -0.1759488 -0.21648815 -0.061734676
0.0840688 0.040372573 0.1786595 -0.116686285 -0.09614109 -0.058776774 -0.06593425 -0.087306164
-0.06883963 0.22025684 0.2152089 -0.3197987 -0.005133189 0.22236925 -0.34832975 -0.122384116
0.16522689 0.008858129 -0.13783929 -0.2225483 0.102658674 0.024229825 -0.22548923 0.1489971
0.08101988 -0.018610366 -0.007516671 0.012074348 -0.0028826233 0.07168062 -0.085193574 -0.102357455
0.035191316 -0.039027516 -0.16128136 0.011596399 0.05508893 -0.04048432 -0.0010578475 0.08519103
0.021601632 -0.13825539 0.017479224 0.053999994 -0.06965183 0.014519484 0.052346144 -0.05273918
-0.029607276 0.013059723 -0.03453712 -0.02651052 0.012304954 0.028026335 0.09814302 0.005960994
0.01800728 -0.035952955 0.03946866 -0.075299144 -0.034760978 0.01114614 0.015958646 0.06574803
0.024648387 -0.050763275 -0.05926686 -0.126592 0.08881634 -0.011068475 -0.13152657 -0.14774571
-0.030531146 -0.025192808 -0.079398796 0.010347551 0.05789244 0.03307419 -0.092883684 -0.023266256
-0.040945306 0.025637228 0.08665231 0.09125169 -0.03990999 0.07530671 0.23890911 0.076062225
0.08949359 -0.30109 -0.09967658 0.029195568 -0.2881562 -0.16064076 -0.023961728 -0.18873727
-0.21657132 -0.19753745 -0.12964681 -0.026945332 -0.087761834 -0.10938075 0.0602738 0.055874802
-0.093302175 0.1554757 0.17633907 0.10954533 0.2391873 0.21987863 0.12245034 0.13709451
0.14919704 -0.030713126 0.17350833 0.05067663 0.24487361 0.31541917 0.045124628 0.13494693
00000000: 55df 32be 1c70 d2bd 26c3 91bd 5297 b83d
00000010: c5e8 643d 9c4b 5ebb 0523 523d 726e b83d
00000020: d90c 023d 376e 3bbe 3f49 34be be14 45be
00000030: 28a7 fdbd 7e44 a2bd 9ae0 ecbd 6399 12be
00000040: 2631 19be 79bf 4fbe 1b48 fb3d eadf c43d
00000050: 8f3f d33d fcdb 8f3d e463 223e 9b03 0a3e
00000060: 15b7 c13c 20d1 183c 4144 133e 97dc 8fbe
00000070: 19ad 13be eb3a 473d 3b94 a43d 3036 3a3d
00000080: f0e3 273d 0885 713e 84fc 0d3e 0ecb 19bd
00000090: a0cf b23c 2f9b 953d 256a 8c3d 7f6f 8dbd
000000a0: 80f6 70bd 72ca ceba 3289 b4bd 1153 1cbe
000000b0: a19a c3bd 2300 48bd c1a2 23be d1b4 a4bd
000000c0: fd27 97bd 1a48 ee3d cbf8 8d3d b2d4 53bc
000000d0: de71 8ebd ccf8 32bd 11c8 d1bd e7fb a0bd
000000e0: 9ae3 db3d 8e83 f0bc 845b b5bc 0cda 173d
000000f0: 930d 3cbe d563 6bbe b144 f7bd 9034 aabe
00000100: dd61 23be 9ef2 61bd 42ad edbc fdcb b2bd
00000110: acd2 c1bc eceb c2bc 901b b13d a1a5 153e
00000120: 236d 433d 1032 12be e0cd a7bd 2faa 61bd
00000130: e8ff ad3d b1e1 4c3d f5b6 1d3e 0a1c 303e
00000140: 12e8 f83c 3151 3a3d 0cad 9abd af80 29be
00000150: f77e 1cbd e612 cd3c 3c17 22bd 9e3f 93bd
00000160: 9a34 8cbd 3827 80bd e8cd f93c 07a6 8ebd
00000170: add7 963b b0f0 babd 08ee 02be 4d68 96bd
00000180: f675 94bd e2b0 d4bd 0903 8bbd e963 7a3e
00000190: bb26 4d3e 986e 893d 6331 d3bd fe17 1e3d
000001a0: 707d 7b3d 8e83 3a3d c773 9dbb 74d1 933b
000001b0: 14a2 00bd c4b2 60bd 250e e33d 13c3 2b3e
000001c0: 975f 15bd df6f 523d 6b19 7bbd c651 e3bc
000001d0: 7ddf e4bd bc9c 733e 0569 a33d 45de aabc
000001e0: 68a9 913e cff6 853d 363f 31be b8e7 abbc
000001f0: 03af f6bc 610b 87bd 2021 333d 0af3 fcbc
00000200: 0140 ce3b d612 51bc c7b1 93bc 436c 79bd
00000210: 2924 bebc ec2b 34be 12af 5dbe 80dd 7cbd
00000220: 432c ac3d b65d 253d 84f2 363e 38f9 eebd
00000230: 9fe5 c4bd eabf 70bd 8908 87bd 93cd b2bd
00000240: cbfb 8cbd 028b 613e b95f 5c3e a8bc a3be
00000250: 4f34 a8bb c4b4 633e 4758 b2be 86a4 fabd
00000260: 3d31 293e b021 113c be25 0dbe b4e3 63be
00000270: b63e d23d a07d c63c a6e6 66be b292 183e
00000280: c0ed a53d c474 98bc 684e f6bb 7cd3 453c
00000290: 65ea 3cbb 4acd 923d f879 aebd c9a0 d1bd
000002a0: c524 103d 51db 1fbd f126 25be d3fe 3d3c
000002b0: eea4 613d e3d2 25bd 79a7 8aba a278 ae3d
000002c0: e8f5 b03c d292 0dbe 9730 8f3c 192f 5d3d
000002d0: 9ea5 8ebd 21e3 6d3c e968 563d 0a05 58bd
000002e0: f58a f2bc 73f8 553c cc76 0dbd 972c d9bc
000002f0: b89a 493c 7c97 e53c 35ff c83d 7154 c33b
00000300: 0184 933c 6843 13bd e4a9 213d 7036 9abd
00000310: 8761 0ebd 4d9e 363c b5bb 823c e7a6 863d
00000320: 6aeb c93c 27ed 4fbd cfc1 72bd 55a1 01be
00000330: 57e5 b53d 8d58 35bc e7ae 06be a74a 17be
00000340: 741c fabc 2661 cebc d69b a2bd c688 293c
00000350: a020 6d3d cd78 073d cd39 bebd e098 bebc
00000360: 44b6 27bd 2a05 d23c c476 b13d 2be2 ba3d
00000370: a878 23bd 683a 9a3d 97a4 743e 83c6 9b3d
00000380: 6a48 b73d 7828 9abe 3c23 ccbd 8b2b ef3c
00000390: 3689 93be 037f 24be 634b c4bc 5844 41be
000003a0: dfc4 5dbe 4247 4abe 22c2 04be 75bc dcbc
000003b0: 7abc b3bd 0403 e0bd a9e1 763d fadc 643d
000003c0: 3615 bfbd 0635 1f3e 3b92 343e 4d59 e03d
000003d0: 84ed 743e dd27 613e 3ec7 fa3d 8162 0c3e
000003e0: 1cc7 183e 189a fbbc 2bac 313e 4c92 4f3d
000003f0: 26c0 7a3e 9f7e a13e 9ad4 383d 872f 0a3e

layer2.0.conv1.bias f4 [32]
0.0048467265 -0.005330679 0.008429383 0.0013477649 0.003932376 -0.006388968 -0.0013410847 0.0013404316
-0.00034491468 -0.0020325177 0.0013710442 0.0068826196 0.0005618884 -0.010188501 -0.0069613326 -0.0057072192
-0.00746594 0.005812369 0.0014823033 -0.004002889 -0.0058063157 0.011501158 0.0034171776 -0.0069068656
-0.0015897318 0.00083414034 -0.0016586408 0.0015524483 0.0029313953 -0.0056893756 0.00038224264 -0.005630142
00000000: 4ad1 9e3b faac aebb 651b 0a3c 7ca7 b03a
00000010: 29db 803b 8c5a d1bb 56c7 afba 6cb1 af3a
00000020: aad5 b4b9 fd33 05bb 9cb4 b33a 9987 e13b
00000030: b14b 133a aced 26bc e41b e4bb a003 bbbb
00000040: d8a4 f4bb af75 be3b d849 c23a ab2a 83bb
00000050: e842 bebb 5a6f 3c3c baf2 5f3b fd52 e2bb
00000060: 8c5e d0ba 36aa 5a3a c066 d9ba 857b cb3a
00000070: a71c 403b f16d babb bd67 c839 0e7d b8bb

layer2.0.bn1.weight f4 [32]
0.702236 0.74573064 0.8049169 0.7278233 0.74691 0.73266655 0.8468086 0.8525166
0.7278696 0.71830124 0.80535614 0.8655168 0.9086938 0.71413654 1.03363 0.72367966
0.7164043 1.0374541 0.77659863 0.79444605 0.69843537 0.81627667 0.8848471 0.79021823
0.84283084 0.8250588 0.95707965 0.828664 0.72862345 0.8586923 0.82479215 0.7586697
00000000: bdc5 333f 34e8 3e3f 090f 4e3f a152 3a3f
00000010: 7e35 3f3f 0990 3b3f 73c8 583f 873e 5a3f
00000020: a955 3a3f 97e2 373f d22b 4e3f 8292 5d3f
00000030: 28a0 683f a7d1 363f fd4d 843f 1243 393f
00000040: 4666 373f 4ccb 843f 2bcf 463f d160 4b3f
00000050: a9cc 323f 82f7 503f 5785 623f be4b 4a3f
00000060: c3c3 573f 0e37 533f 2c03 753f 5323 543f
00000070: 1187 3a3f 42d3 5b3f 9425 533f 2d38 423f

layer2.0.bn1.bias f4 [32]
-0.20150265 -0.0034926592 -0.23167223 0.11723353 0.058155753 0.051208396 -0.05471023 -0.105578944
-0.10240544 0.16028851 -0.15002362 -0.10772474 -0.12749815 0.0076908036 -0.12568423 0.078811325
-0.039709006 -0.19214593 -0.21164508 -0.2594074 0.036949363 -0.10764918 -0.0396355 -0.14602442
-0.15995057 0.013794884 -0.11497115 -0.046037663 -0.250875 -0.13989589 -0.11472933 -0.08201175
00000000: b656 4ebe 19e5 64bb 7c3b 6dbe 2218 f03d
00000010: ba34 6e3d e5bf 513d d617 60bd c639 d8bd
00000020: f1b9 d1bd ac22 243e cb9f 19be ca9e dcbd
00000030: e08e 02be 2303 fc3b 5eb3 00be d567 a13d
00000040: e9a5 22bd e7c1 44be 7db9 58be 0cd1 84be
00000050: 3758 173d 2c77 dcbd d658 22bd 6d87 15be
00000060: 15ca 23be f003 623c ff75 ebbd fd91 3cbd
00000070: b072 80be de40 0fbe 36f7 eabd c7f5 a7bd

layer2.0.bn1.running_mean f4 [32]
-2.4994519 0.26569015 0.8750509 -10.507099 -2.931615 1.4642901 0.049852416 -0.7449216
-3.1779056 8.00565 -1.1007532 0.84866446 -1.0908319 -2.8670602 0.45635194 -4.137983
-4.3535714 -0.3872488 -2.6687174 -1.0909662 1.201253 -0.024424614 -2.7006502 -0.16004199
0.39599612 1.6087401 0.2897381 0.6920118 3.0427651 -3.4645836 0.024671674 -2.092854
00000000: 05f7 1fc0 8a08 883e 5603 603f 141d 28c1
00000010: 959f 3bc0 dc6d bb3f 0c32 4c3d 2fb3 3ebf
00000020: ce62 4bc0 2417 0041 7be5 8cbf 1342 593f
00000030: 61a0 8bbf ea7d 37c0 f6a6 e93e 5b6a 84c0
00000040: 7550 8bc0 7a45 c6be 44cc 2ac0 c8a4 8bbf
00000050: a9c2 993f 2116 c8bc 74d7 2cc0 0ce2 23be
00000060: 01c0 ca3e 32eb cd3f 8d58 943e af27 313f
00000070: aabc 4240 bdbb 5dc0 401c ca3c 52f1 05c0
