Output/swift-iid-8W-pattern1-ring-2sgd-200epochs/r6-epoch_158-parameters.pt (torch, 731756 bytes, 92 tensors)

conv1.weight f4 [16, 3, 3, 3]
00000000: 6b4a 493d 3c5f e1be 89ea f8be 49e3 d1be
00000010: 69e3 ecbe 4633 24bf 462e 3fbd 4c34 4abf
00000020: 6e5a d6be 82a5 d4ba 7922 9f3d 62c9 10be
00000030: d0bf 01bd 4e36 1b3f b729 f63c e245 06be
00000040: a287 80be ae02 66be 3d56 a6bb ed55 d63e
00000050: 7858 403e 2301 073f 53be ad3f 74ea 293f
00000060: 4b08 df3d 8ed6 a43e 9017 dc3d 7366 17bf
00000070: de07 a6be 80d9 36bf 5ea5 ff3d 09e0 eb3d
00000080: c8d1 e3bd 0b98 f93e 696e 3a3f 5032 e13e
00000090: 5e71 27bd b54e 563f 7705 7e3e 835b fcbe
000000a0: 6fe7 45be 89d0 4cbe edbe 95be fd4e d9bd
000000b0: b4e4 36bd 4701 f63e 9d21 933f 602e 193f
000000c0: f0f1 b0be 9ba0 3dbe 448e 5bbe 66c1 08bf
000000d0: d251 bebe bcaf 8abe 9ef8 b4bc 980c bdbc
000000e0: b653 95bd 1338 54be c3d2 273f e9bc 843d
000000f0: 222c 95be d050 c1bd f671 063e 2b1c 39be
00000100: cc42 a7be 8e0b 0ebf 62ad 9f3e ba28 5e3f
00000110: 62be 58be e6fd 5dbb 5edd 1b3e 6026 edbc
00000120: 256c 96be 7910 14bf 8eaf 50bf bd35 233f
00000130: 380f 5d3f 37b4 35be c271 9c3e ea78 b13e
00000140: a9db c6bc 783b 84be 1b0c 32be bd30 59be
00000150: a758 86bd 3bf7 03be 95a1 b8bd 5edc 383e
00000160: 7cf8 f53d a28d 203e f435 09be aad1 6a3e
00000170: 9137 e2bc 205b e63c 3ed6 943e 2b88 183e
00000180: 26a9 44bd b068 f03d 9b9c b83d 3978 023d
00000190: bf40 053f 489a f73d 505d 5b3e 163b 0e3f
000001a0: 19f5 9a3e a797 6bbe e898 56bd 7ae0 e0bd
000001b0: 5be5 423e b042 ef3e 3fc0 873e d57c 0c3e
000001c0: 6ecd 89bd 9192 883e 7620 4a3d f936 d7bd
000001d0: 84fe b53d 2dc7 02be f210 f6be ff31 b2be
000001e0: 56b7 58be f709 7fbf dc5a d8be 20ce 903e
000001f0: a3bd 60be 225b 0e3e 504a 0d3d 2d74 59bb
00000200: 2166 a93d b8f1 51be 3ab2 21bf a969 30be
00000210: 4546 c2bc 145b 26be 1dd7 093e 486f dc3e
00000220: 0771 063f 1d6c 403e cb1f 0f3f 7e6f 383e
00000230: 57d1 c2be 2433 2c3e 774d 89be a3fd c0be
00000240: ddd3 103f e798 203e 27fc b4be 7b6c f13e
00000250: a72e cabe 3ab6 86bf e6cb 843e c29c 8bbe
00000260: 43d0 dcbe 7b78 013f 5499 a43e 59e4 28be
00000270: 9a3a e23e cef0 05be 63e0 3fbf f0ae b33e
00000280: 161e 38bd 31c3 a0be 60ff 7a3f dbda 903f
00000290: 53dd 263f 9fab 233e aa1b dfbe 006b abbe
000002a0: 15d8 b0be 3b73 84bf 54b3 1fbf f5d4 b93e
000002b0: eeed 473f db0d 213f 3136 17be c76b bbbe
000002c0: 7e88 05bc 0eac 92be 2985 2bbf b2dc 85be
000002d0: 7cad 63be 6984 863e 6f0b a03e 7700 b6be
000002e0: e056 b9bd 6702 8b3e 32cf 84be aa52 26be
000002f0: 52fb 833e e5bd 1fbf f426 523d 464f 303e
00000300: 14db 30bf 2232 f73f 0f91 263f 0c01 79be
00000310: 582f 0dbe 0512 8e3e dda3 b9ba c506 113e
00000320: e62e 223e 3ca5 04bf e5d5 533f a3e3 29be
00000330: 024f cbbd 877d 71bf d254 9ebe 0d6e 2f3f
00000340: 08e6 f6bd 4253 c43d 5208 a2bc 42f7 3a3e
00000350: 1bc4 40bf b197 c23e 745f 91be ed51 71be
00000360: 8e24 aa3d c288 d2bd 10ad a0bd 94aa 1e3f
00000370: fde9 2a3f e15e c2be fc39 7f3e 0d86 1c3f
00000380: 7adb 373e 9755 a0be eb78 dabe 4d71 d1be
00000390: fde0 6cbe bc6c efbe 61af 94bf 40f8 eabe
000003a0: 99d4 f9be dda2 0dbf a061 1b3e 2d32 123f
000003b0: 190f 2c3f 57c0 1a3e 88c2 a93e d937 5c3d
000003c0: 3e86 143d c3e4 c63e 9d1a 003f 90c7 723e
000003d0: fbac 0b3f 8886 1e3f 345b 5b3e 3f14 83bc
000003e0: a94c d3bd d884 98be 9ae9 12bf b24c aabe
000003f0: 3213 16be 2723 ccbe becb 9ebe 5d52 633e
0.049143236 -0.4401797 -0.48616436 -0.40993717 -0.4626725 -0.6414074 -0.04667499 -0.7898605
-0.41865867 -0.0016223642 0.07770247 -0.14139321 -0.031677067 0.6062974 0.030049188 -0.13112596
-0.2510348 -0.2246196 -0.0050761984 0.4186243 0.18783748 0.5273611 1.3573707 0.6637337
0.10890254 0.32194942 0.10746682 -0.591407 -0.32427877 -0.7142563 0.12482713 0.11517341
-0.11123997 0.48748812 0.7282472 0.43983698 -0.0408796 0.8371385 0.24806772 -0.49288568
-0.19326566 -0.20001425 -0.29247227 -0.10610769 -0.044651702 0.4804785 1.1494633 0.5983639
-0.34559584 -0.18518297 -0.21440989 -0.534201 -0.371718 -0.270872 -0.022091206 -0.023077294
-0.07291357 -0.20724516 0.6555597 0.06481344 -0.29135233 -0.09439242 0.1312941 -0.18077151
-0.3266815 -0.5548638 0.31186968 0.86780894 -0.21166375 -0.003387326 0.15221164 -0.028948963
-0.29379383 -0.57837635 -0.81517875 0.63753873 0.86351347 -0.17744528 0.3055554 0.34662563
-0.024274664 -0.2582662 -0.1738743 -0.21209998 -0.06559878 -0.1288728 -0.09015194 0.18052813
0.12010285 0.15679029 -0.13399488 0.22931543 -0.027614387 0.028119624 0.29069704 0.14895694
-0.048012875 0.117387176 0.09014245 0.031852935 0.5205192 0.12089974 0.21422315 0.5555891
0.3026512 -0.2300707 -0.052391917 -0.109803155 0.19032805 0.46730566 0.2651386 0.13719495
-0.06728636 0.2667432 0.049347363 -0.10508532 0.08886436 -0.12771292 -0.48059803 -0.3480377
-0.21163687 -0.9962458 -0.4225682 0.2828226 -0.2194734 0.13901952 0.034494698 -0.0033180818
0.08271433 -0.20502365 -0.6316258 -0.17227806 -0.023715148 -0.16245681 0.13460965 0.4305365
0.52516216 0.18791242 0.5590789 0.18011281 -0.3805034 0.16816384 -0.26816913 -0.3769351
0.5657328 0.15683328 -0.35348627 0.47153077 -0.39488718 -1.0524361 0.25936812 -0.27268034
-0.4312764 0.50574464 0.3214823 -0.16493358 0.44185334 -0.13080141 -0.7495176 0.35094404
-0.044950567 -0.3139892 0.9804592 1.1316789 0.65181464 0.15983437 -0.43575794 -0.33480072
-0.34539858 -1.0347666 -0.6238301 0.36295286 0.78097427 0.62911767 -0.14766766 -0.36605665
-0.008150218 -0.28646892 -0.6700006 -0.2614494 -0.22234148 0.26272896 0.31258723 -0.3554723
-0.09049773 0.2715027 -0.25939327 -0.16242471 0.2577768 -0.6239913 0.05130668 0.1721774
-0.69084287 1.9312174 0.6506509 -0.24316806 -0.13787591 0.27748123 -0.0014163215 0.14162739
0.15838203 -0.5181463 0.8274825 -0.16590743 -0.09927179 -0.94332165 -0.30924088 0.685273
-0.12055594 0.09586193 -0.019779358 0.18258384 -0.75299233 0.38006356 -0.28393137 -0.23566408
0.083077535 -0.10279991 -0.07845509 0.6197903 0.6676329 -0.37963012 0.24924463 0.61142045
0.17954817 -0.313153 -0.42670378 -0.40906754 -0.23132701 -0.46762645 -1.1616021 -0.45892525
-0.48795012 -0.55326635 0.1517396 0.5710781 0.6721054 0.15112434 0.33156228 0.053764198
0.036260836 0.38846406 0.5004061 0.2370894 0.5456082 0.6192403 0.2142151 -0.016000865
-0.10317356 -0.29788852 -0.573877 -0.3326164 -0.1465576 -0.3987057 -0.31014818 0.22199388

conv1.bias f4 [16]
00000000: 317b 7abc dde6 1ebc cff1 30bc a834 a43c
00000010: 4d87 973c dad2 afbc 0828 87ba 3198 a83b
00000020: 6106 86bc 2dd5 b1bc 8c91 c6bb 929a 22bc
00000030: c017 05bc 952d 853c 47a2 883b b696 73bc
-0.01528816 -0.009698597 -0.010799839 0.02004464 0.018497134 -0.021462847 -0.0010311613 0.0051450958
-0.016360464 -0.021708095 -0.006059831 -0.009924548 -0.008123338 0.016257087 0.0041697356 -0.014867475

bn1.weight f4 [16]
00000000: 48ce 363f 6365 1c3f cca3 483f 4036 313f
00000010: d7ab 943f baee 533f 189c 7e3f eef8 6b3f
00000020: e5b6 303f d142 3b3f cf33 673f 8ab4 593f
00000030: e79d 173f fe43 293f 46c7 643f b0d4 6e3f
0.7140851 0.61092204 0.78374934 0.69223404 1.1614941 0.8278614 0.9945693 0.9217671
0.69029075 0.7314883 0.9031343 0.85041106 0.59225315 0.6611937 0.8936657 0.93293285

bn1.bias f4 [16]
00000000: 11ee 103f f4d3 263f 8b1f 143f bdc4 34be
00000010: 972e 21be f4b6 0c3f b8c8 633f bf0c 993f
00000020: c6c2 b53e dafb 473e 9459 6bbe c37d b93f
00000030: 4e42 e73d ae4a f73e e272 903e 6c23 0e3f
0.5661326 0.65167165 0.5786063 -0.17653175 -0.15740429 0.54966664 0.8897815 1.1957015
0.35500163 0.19529667 -0.2298339 1.4491504 0.112919435 0.48299164 0.2821265 0.555228

bn1.running_mean f4 [16]
00000000: 3e6d 2bbe f956 2abd a469 92be bbb4 ecbe
00000010: 3d50 343f b781 673a 6a23 783d 09d9 19be
00000020: ebf7 7fbc e161 533e 94e0 c93e f3fe 983d
00000030: e8f0 d5bc 63ee d6bd 03de 0d3d 2089 a23d
-0.16740891 -0.04158685 -0.28596222 -0.46231636 0.70434934 0.00088312797 0.06058065 -0.15024199
-0.015623073 0.20642807 0.39429152 0.07470503 -0.02611585 -0.104946874 0.034635555 0.07936311

bn1.running_var f4 [16]
00000000: e293 0e41 16c4 1940 8cdc ce40 7b50 9c40
00000010: 7532 1441 259b 5a41 e4fb 8941 e37a 7140
00000020: aea1 2740 224b 2040 8e0a c940 ca89 3a40
00000030: aad2 0440 d7be a240 cca4 7040 a138 2a41
8.911104 2.4025931 6.464422 4.8848243 9.262319 13.662877 17.247993 3.7731254
2.6192431 2.5045857 6.2825384 2.91466 2.075358 5.085796 3.7600584 10.638825

layer1.0.conv1.weight f4 [16, 16, 3, 3]
00000000: 0027 0bbd 7990 cfbd 89c1 10be 75ec 893c
00000010: f014 1abd 513c d2bd d110 913d aacc aa3c
00000020: e430 dcbc a770 0ebe 71fe a03d 6535 943d
00000030: 7872 11be 02af e23c 9875 0b3e e01c 54be
00000040: 11e6 6dbe 3826 bdbd 67a0 84bd 30f6 a6bc
00000050: c243 e2bd 906d cbbc 6a8c 743d 3b65 f5bd
00000060: e40a 16bd cbeb e23d bc0f 823a 2020 833e
00000070: 5a51 793e ab5b 2f3e 7de5 6c3e 5a82 443e
00000080: 4120 c03d dda1 fe3d b03c d43d 0873 733c
00000090: 0970 7f3c 4d29 0e3d 241a f5bb eb4e 553e
000000a0: bf18 a93e c470 233e 327f b93b 9f44 ff3d
000000b0: e11e 303d d40b 50bc 8117 1c3e 689d bc3d
000000c0: d1ca 153d 758d 353e 0753 2d3e 2324 97bd
000000d0: 505e 9f3d 98cf 2d3e 3992 b7bc bf17 eabc
000000e0: 267e 95bd e686 12be da3d 57bd 7bb7 7a3d
000000f0: 9ecd f3bd cfa7 2cbd 7421 0d3c 62ab da3d
00000100: 7d59 403e 6018 12bd e9fb 153e 3d5e 873e
00000110: 5ad4 293e 560e d9bd 9285 513d ba59 c0bd
00000120: 67dc 5ebd fefd 883e 9e8e a93d 13f7 723d
00000130: e87e 8e3e 701b 2a3e 30a4 17be 7c85 8e3c
00000140: 2ec5 253d caba 73bd ec74 83bd 1d9c dabd
00000150: 1d96 ef3d 60fd 803d c71a 343c aa57 333d
00000160: 4105 0e3e 3ca6 303d fd94 3dbe 090b 40be
00000170: 5e00 41be 10d2 ebbd 3d6d 07be 2b8f fbbd
00000180: e25e b3bd 5c38 b8bd 461a 8ebd 691e 8fbd
00000190: ddeb d93c c8b9 573d ad72 ce3d 9896 963d
000001a0: 00ad 4abc e7e3 a13c 3cd7 05be 5c9d d4bb
000001b0: 2d99 eebd 9c43 da3d e235 213e 34ee 00be
000001c0: 913d 5ebc 082f 3a3e 1b2e 08be 448e 62bc
000001d0: e9be 2a3e 3e86 04bd 0368 853e 678e 8c3e
000001e0: 6c23 3fbd 887f a03e 8c8f 8a3e 5674 8fbe
000001f0: 407e 883d 1f5c 963c 0a75 9a3d ee31 6a3e
00000200: 5dea 453e 4a20 bd3d df6e 703e c82c 883e
00000210: 525b a53c 05d0 883d 4aeb 0e3e f8f6 e5bd
00000220: 6f88 21bd 67cd 543c c8ea f1bd dda3 363d
00000230: 55e4 363e 3a93 04bd b885 143d 0cbd 3a3c
00000240: 8dc2 62b9 4528 97bd 971f a1be 61dd 053e
00000250: a05b 99bd d759 1fbe abd8 823e 4d14 2c3d
00000260: d60f 37bd 0a3e 803c f523 b2bd e301 943d
00000270: 09fe 5a3e cd99 f93b 16ea a03d 2421 5a3e
00000280: a245 803b 01d8 0c3e 8c86 a6bd 8ca1 4bbd
00000290: 785e 9abd 89a4 14bd 0617 24be 2efa 883d
000002a0: 8066 94bc 3365 f2bd 3162 953c 455a 0abc
000002b0: 9a01 e43c 2992 463d 1d69 b4b9 8f27 2f3c
000002c0: c7cb cd3d ed30 98bc 5781 54bd 8cba a73d
000002d0: 582b 8dbd 18c1 623d 7372 b2bc abd4 cabd
000002e0: f145 ac3d 3883 43bc eafb b5bd baa1 58bd
000002f0: e0e4 3fbb c378 ffbb c879 c4bd bd62 83bd
00000300: 5cfb e6bc 6ec7 2abe 1e6d 55be 05b6 1fbe
00000310: c176 4cbe e24d fdbd 374f 073e a48a 4a3e
00000320: 924d 9abe 9a17 9b3d 99d5 b83d 1ee2 ccbe
00000330: 8ab4 1f3d 560b cb3c e0a8 44be 66a9 653d
00000340: 6e06 333e 77be 2c3e 7fc0 7abe b816 03bf
00000350: 0b78 103f d95d d8bd c1b8 88be cb50 f83e
00000360: 82c1 6ebd 381e 4cbe 77d7 6a3c 7a14 973e
00000370: c0fd 67be ac60 25be 76ea 463e 3c24 82bc
00000380: 5313 dbbc 52c4 de3c e829 503d 73bb 16bd
00000390: 7617 e33d e520 1a3d 07bd 12be eb2a 183d
000003a0: 000a 463d c14d cb3b 3621 93bd 1fca 92bd
000003b0: 98bb ccbd 9679 c5bc ab63 bebc b63a 3ebe
000003c0: 0f2b 893d 1574 8a3d a71f 12be 8771 14be
000003d0: d826 96bb 54c3 233e effb eebc 9313 043f
000003e0: 9b9f 9ebe c286 163d 70a9 b93e d421 50be
000003f0: 94fc 5bbd a2b7 e5bd a0ba efbd d375 9c3d
-0.03397274 -0.10134978 -0.14136328 0.016836384 -0.037617624 -0.10265411 0.070832856 0.020849545
-0.026878782 -0.13910161 0.07861031 0.07236747 -0.14203823 0.02767134 0.13619077 -0.2071414
-0.23232295 -0.09235805 -0.06475907 -0.020381063 -0.1104808 -0.024832517 0.05970422 -0.11982199
-0.03663148 0.1108013 0.0009922902 0.25610447 0.2434744 0.17124812 0.23134418 0.1919035
0.09381152 0.12433217 0.10363138 0.014858969 0.015590676 0.034707356 -0.007479923 0.20830886
0.33026692 0.15960985 0.005660915 0.1246426 0.0429982 -0.012698133 0.15243341 0.0920971
0.036570374 0.17729743 0.16926204 -0.073799394 0.077816606 0.16973722 -0.022408592 -0.028575776
-0.072994515 -0.14309272 -0.05254922 0.061210137 -0.11904453 -0.042152222 0.008613933 0.1067722
0.18784137 -0.035667777 0.14646877 0.26439086 0.16584912 -0.105984375 0.051152773 -0.09392114
-0.05440941 0.2675628 0.08279155 0.05931766 0.27831197 0.16612029 -0.14808726 0.017397635
0.04047125 -0.059504308 -0.064187855 -0.106743075 0.11698554 0.062983274 0.010992712 0.043784775
0.13869192 0.043127283 -0.18513866 -0.1875421 -0.18847796 -0.115146756 -0.13225265 -0.122831665
-0.08758332 -0.08995125 -0.06938605 -0.06988222 0.026601726 0.05266741 0.100804664 0.07352942
-0.012370348 0.019761993 -0.13070387 -0.0064884853 -0.1165031 0.10657427 0.15743211 -0.12590867
-0.013564483 0.18182003 -0.13298838 -0.013827864 0.16674389 -0.032354586 0.26055917 0.27452394
-0.04666464 0.313473 0.27062643 -0.28018445 0.06664705 0.018354474 0.07541855 0.22870609
0.19327684 0.09234674 0.23479794 0.26596665 0.020185146 0.066803016 0.13956943 -0.11228746
-0.039436754 0.012988425 -0.11812359 0.044589866 0.1786054 -0.03236697 0.036260337 0.011397611
-0.00021625515 -0.07380728 -0.31469414 0.1307273 -0.07488179 -0.15561615 0.2555593 0.042011548
-0.044692837 0.015654583 -0.086982645 0.07226922 0.21385969 0.0076172114 0.07857148 0.21301705
0.003914551 0.13754274 -0.081311315 -0.04971461 -0.0753755 -0.036289725 -0.16024408 0.06688343
-0.018115282 -0.118357085 0.018235298 -0.0084443735 0.027832795 0.048479233 -0.0003441059 0.010690584
0.10048633 -0.018578017 -0.05188116 0.08189878 -0.06893033 0.05535993 -0.02178309 -0.099038444
0.08411778 -0.01193314 -0.088859394 -0.05288861 -0.0029280707 -0.0077963783 -0.095935404 -0.06415317
-0.02819603 -0.16677639 -0.20842406 -0.15596779 -0.19967176 -0.123683706 0.13213812 0.1977945
-0.30137306 0.07572861 0.090251155 -0.40016264 0.038990535 0.024785679 -0.19205046 0.056069754
0.17482921 0.16869532 -0.24487494 -0.5120654 0.5643317 -0.10564775 -0.26703456 0.4849914
-0.058290012 -0.19933403 0.014333597 0.2950781 -0.22655392 -0.16150159 0.19425377 -0.015886419
-0.026742613 0.027193222 0.050821215 -0.03679986 0.11088459 0.037629027 -0.1432992 0.037150305
0.04834938 0.0062043373 -0.07184069 -0.07167458 -0.09996718 -0.024105828 -0.023240885 -0.18577084
0.06697666 0.06760422 -0.14269887 -0.14496432 -0.0045822673 0.1599248 -0.029172866 0.5159237
-0.30981144 0.03674961 0.36262083 -0.20325404 -0.053707674 -0.11216666 -0.11705518 0.07639661

layer1.0.conv1.bias f4 [16]
00000000: f703 b63a 9da7 d0bb 6d73 2ebb eb63 cb3a
00000010: d51c 03bc 0fbd e7bb 0df6 9f3a 8a09 2ebb
00000020: a5cc 6a3b bcd3 25bb 41ba 8e3b 662b dd3a
00000030: f977 17bc 4700 f63a 104d ea3b f9bd 84bb
0.001388668 -0.0063676373 -0.0026619092 0.0015517449 -0.00800248 -0.007072098 0.0012204066 -0.0026555979
0.0035827544 -0.0025303205 0.0043556993 0.0016873896 -0.009244912 0.0018768393 0.0071503 -0.004050967

layer1.0.bn1.weight f4 [16]
00000000: a84e f63e 11f7 543f 2d06 563f c038 133f
00000010: 9b72 393f 566e 333f 8842 453f 03a9 423f
00000020: 2730 903f d920 133f d288 603f 1f67 0d3f
00000030: de17 393f cf01 2d3f 051b 003f 1208 163f
0.48106885 0.83189493 0.83603173 0.5750847 0.724405 0.70090234 0.77054644 0.7603914
1.1264695 0.57471997 0.8770877 0.55235475 0.72302043 0.67580885 0.5004123 0.58606064

layer1.0.bn1.bias f4 [16]
00000000: b6fa 85bd 0962 f9bd 559f f5be 30fc 743e
00000010: b7a2 9738 0d3a 503f 3bf9 ffbe eaf4 40be
00000020: 341d 1abf eb59 9a3d 470c a03e f8a3 cdbc
00000030: 2207 53be 8ae0 983e 0734 b73e f158 95be
-0.0654196 -0.12176902 -0.47973123 0.23924327 7.230549e-05 0.8133858 -0.49994835 -0.18843427
-0.6020081 0.07536682 0.31259367 -0.0251026 -0.2060819 0.2985881 0.3578188 -0.2916942

layer1.0.bn1.running_mean f4 [16]
00000000: c5de 1040 6429 61be 6224 77bf 36e1 2fc0
00000010: 4998 5bbf 6594 f9bf 0f39 9d3f e7e6 0bc0
00000020: ab1e 3fbf 18bd e8bf 2dd3 91c0 46bc 28bf
00000030: b897 e1bf 286f 4fbe 99bd 50c0 d5e6 fb3f
2.2635968 -0.21988446 -0.9653989 -2.7481208 -0.85779244 -1.9498411 1.2283038 -2.1859682
-0.7465617 -1.8182707 -4.5570283 -0.6591228 -1.7624426 -0.20257246 -3.2615721 1.9679819

layer1.0.bn1.running_var f4 [16]
00000000: bdbd e93f 05b6 9540 813b fc3f e462 d93f
00000010: fac6 ba40 70e6 4d40 4f72 0a40 a523 6240
00000020: 9928 9e40 76c9 933f f4fc b140 3091 4840
00000030: 161e 0c40 255b 1f40 b637 db3f f624 853f
1.8261029 4.678469 1.9705659 1.6983304 5.836789 3.2171898 2.1632268 3.5334256
4.942456 1.1545856 5.562128 3.1338615 2.1893363 2.489938 1.7126377 1.0401905

layer1.0.conv2.weight f4 [16, 16, 3, 3]
00000000: 4870 c3bb c7c3 60bd ac7f cb3d cf01 7fbe
00000010: 67ea 85be 4109 6cbd 6d99 55be 0d01 3bbe
00000020: d75e ff3d 9729 20bd 282c 23bd 8d2e 70bd
00000030: f169 a13d e44b 023e 1a79 d53d fae3 6f3d
00000040: 30ed 5c3e b5d6 273e 4540 ffbd c094 9f3d
00000050: 3ef3 19be 11f0 d6b7 bd1f 293e 32c1 6dbe
00000060: b565 d4bd 8d8f 9c3d d445 f2bd c9c8 843b
00000070: 718a 1d3e 8667 a2bd 8148 d13c aa20 d33e
00000080: fab5 4d3c cda8 3ebe 535b 30be f3f1 c2bd
00000090: 9a13 3bbe a042 17be 55c8 21be db16 a3bc
000000a0: 6de3 683d 45fd d33d be9c 3e3d 62c0 673c
000000b0: 6f73 833d bf47 7b3b a8c3 353d 1464 4ebe
000000c0: 87c1 6c3e 419f b93e 45f6 19bf 0467 843e
000000d0: b691 96be d077 99be 6cdf 563c 262a c53d
000000e0: 790a 233e 096e 813d 386c 133e 878b 5c3e
000000f0: 73f2 ed3d a9bd 513e 776f a93e 4728 af3d
00000100: 247b 723d b6f2 71bd 9997 3f3e a356 523e
00000110: 6d96 0c3d d934 4f3e 402e de3d 2f6a fbbd
00000120: 6190 523d 6147 8cbd 6a2a 99bd f114 62bd
00000130: 9d23 57be 16cc 353d 6e0e 773d 996f 18bc
00000140: 56de e73d b85e 483d 0c30 cdbd 9ba3 89be
00000150: 0022 cd3d ad19 0fbe bce4 63be d1ff 9c3d
00000160: 916d 6cbd 898d 5cbd edc6 f7bc 7e69 c83c
00000170: 2cda 8c3d ae93 573c 733a 723d a905 813b
00000180: 4526 88bd f991 233d a89d 6bba 61f2 febd
00000190: 94d4 31be 4cf7 91be 41c0 b2bd b691 833e
000001a0: 10ef df3a c5c8 cebd 5b53 a03c b494 00bd
000001b0: a93f 153e 465e 623e 1dad 473e 2427 533d
000001c0: 696a fc3d 1a46 9a3d f674 3d3d ad66 fe3d
000001d0: 4b91 703d 61ea 15bd c042 af3d 8ab9 18be
000001e0: 78b4 79be c0a6 b53d ad4c 1b3e 7528 55be
000001f0: 850c e2bd 2cfd 213e e7ba e0bd b683 3f3e
00000200: 8683 943d ec92 ccbc a8ae 103f bee4 903e
00000210: e6ad 3fbe 09a3 e6bd f537 a43c bbdf 02be
00000220: 394d d3bd c896 953a 0f10 23be 2f69 c7bd
00000230: 2d71 2fbc 6121 fbbd 6372 453c bf68 063d
00000240: a9e7 12be d27d 34be 0ef6 bebd ee13 8b3d
00000250: 53bc d73d c315 4f3d ae4f f93c 1aa7 bc3d
00000260: 9a40 1b3d 54e1 a9be 4124 6ebe 3fa9 11be
00000270: 73bb 68be 8002 63be 6a7b e0bd 3308 22bd
00000280: 744f d23b 71a6 7f3b bede cfbc 296f dbbc
00000290: c5ce 1cbd 5290 b6bd a066 89bd 6f2d c63c
000002a0: 8966 18be a3a0 1abe 4b7f bbbd de8a 7bbc
000002b0: f8e8 17bc 52a9 eb3d 4937 f7bd 6339 86be
000002c0: b097 4bbe ff53 7fbd 075e 0fbd bdb4 24be
000002d0: bd9b 703c 8cae 89bd c904 7c3d 2077 0cbe
000002e0: 9279 4bbe a65d 1fbe cf67 01be e393 9d3b
000002f0: ac5c 93bd 0509 8c3e 1ab3 6b3e 513d 53be
00000300: 85ad 18be d349 57be 68c8 e33d f871 5abe
00000310: 0ed1 243e d72c 183e 6d31 30be 22ce 1ebe
00000320: 2d91 4ebd 96f8 28be fcb0 a1bd 5426 82bd
00000330: 322a 583c 096b 48bd d5b1 85bd 5d74 a4bd
00000340: be70 193d ac11 a33c 9c11 63be 4993 2ebe
00000350: c376 0bbd f44b 57be 08d2 2fbe 1cd3 11bd
00000360: 6b79 46be 75b2 2abe d99c 21bd 06cb 95bd
00000370: adf4 80bd 55a3 0fbd c75d a83c 4d4d 50bd
00000380: da35 bebd c9aa 813e dee0 283e 205f d43d
00000390: 2470 04bd 61bc ef3c 3d6c 8d3d cb9d 0cbe
000003a0: 85aa a0bd b6b3 5a3d 7aa5 39bd d0c4 26be
000003b0: 0360 a3bd 382f 923d 81d6 bb3c 002d 853d
000003c0: f741 823e a11b 863e 38af cc3e 2d17 c93d
000003d0: a378 573e 73f6 9d3d 031f 6bbe 1500 51be
000003e0: a312 5dbe 45bd 5fbe fc47 21be b855 25be
000003f0: 8155 103e 3c97 7c3e c5f0 4d3e 73f4 333d
-0.0059643127 -0.054874208 0.09936461 -0.24903034 -0.26155397 -0.057626013 -0.20859309 -0.1826212
0.12469261 -0.039102163 -0.039837033 -0.058638144 0.07881535 0.12724262 0.10423489 0.058567025
0.21574855 0.16390498 -0.1246343 0.07792044 -0.15034196 -2.5622578e-05 0.16516013 -0.2321823
-0.103709616 0.07644568 -0.11829725 0.004052256 0.15384842 -0.07929902 0.025547268 0.41235858
0.012555594 -0.1861908 -0.17222337 -0.095188044 -0.18269196 -0.14771509 -0.15799077 -0.01990836
0.056857515 0.10351042 0.0465362 0.014144989 0.064185016 0.0038342325 0.044376045 -0.20155364
0.231207 0.36254314 -0.601414 0.25859845 -0.29408044 -0.29974222 0.013114791 0.0962718
0.15921964 0.06319816 0.14396751 0.215376 0.11618509 0.20482506 0.33092853 0.08552604
0.059199467 -0.059069358 0.18710174 0.20540862 0.034323145 0.20235004 0.10848665 -0.12276112
0.05140722 -0.06849552 -0.07478793 -0.055195753 -0.21009679 0.044384085 0.060316496 -0.009303951
0.11321704 0.048918456 -0.1001893 -0.26882634 0.100162506 -0.13974638 -0.22255224 0.076659806
-0.05772168 -0.053845916 -0.030246222 0.024464365 0.068775505 0.013157768 0.059137773 0.0039374423
-0.06647924 0.039934132 -0.0008988031 -0.12448574 -0.17366248 -0.28508985 -0.08728076 0.25697106
0.0017084796 -0.100968875 0.019570997 -0.031391814 0.14575066 0.22106275 0.19499631 0.051551
0.123249836 0.07532902 0.04625412 0.124219276 0.058732312 -0.036600474 0.085576534 -0.14914528
-0.2438525 0.08869696 0.15165968 -0.20816214 -0.11037544 0.15819234 -0.10973149 0.18702587
0.072516486 -0.024972402 0.56516504 0.28299516 -0.1871868 -0.11261565 0.020046214 -0.12780659
-0.103174634 0.0011412734 -0.15924095 -0.09736859 -0.010708136 -0.12262226 0.012051198 0.032814737
-0.14346184 -0.17626122 -0.09324275 0.06790911 0.10533967 0.050557863 0.030433502 0.092115596
0.037903406 -0.33179724 -0.23256017 -0.14224719 -0.22727756 -0.22168922 -0.10961039 -0.0395586
0.006418163 0.003900912 -0.025374766 -0.026786404 -0.03828313 -0.08914246 -0.06709027 0.024191586
-0.14882864 -0.1510034 -0.091551386 -0.015352933 -0.009271853 0.11506905 -0.12071092 -0.26215658
-0.19882083 -0.062335964 -0.03500178 -0.16084571 0.014685568 -0.06722745 0.061528 -0.13717318
-0.19870594 -0.15563068 -0.12637256 0.0048088892 -0.0719541 0.2735063 0.2301754 -0.20628859
-0.14909942 -0.21024255 0.11122209 -0.21332538 0.16095373 0.14860855 -0.17206354 -0.15508321
-0.05043142 -0.16501078 -0.07895085 -0.06354967 0.013193654 -0.0489302 -0.065280594 -0.08030007
0.037461035 0.019905888 -0.22174686 -0.17048372 -0.034048807 -0.21025068 -0.17169964 -0.03560172
-0.19382255 -0.16669638 -0.039456222 -0.07314114 -0.06296668 -0.035067875 0.020552529 -0.05085497
-0.09287615 0.2532561 0.1649203 0.10369706 -0.032333508 0.02926463 0.069054104 -0.13732068
-0.07845024 0.053394042 -0.045323826 -0.16286016 -0.07977297 0.071379125 0.022929432 0.06502724
0.25440952 0.26192954 0.3997743 0.098188736 0.21042113 0.07713022 -0.22961049 -0.20410188
-0.2158914 -0.21849544 -0.15750116 -0.1614598 0.14095117 0.24667066 0.20111378 0.043934297

layer1.0.conv2.bias f4 [16]
00000000: 5c4e 7ebb 096f 5c3c 193d 97bb 26fc cb3a
00000010: 546e ce3b cc17 883b b63a 28bb 52f5 bdbb
00000020: 93d5 e73b 8617 b3bb 7217 00bc 3c24 1c3c
00000030: 56a6 e4bb fd61 733b cd15 cdb9 2e9c 873a
-0.003880403 0.013454207 -0.0046154377 0.0015562817 0.006299773 0.0041532274 -0.002566976 -0.0057970667
0.0070750206 -0.0054654507 -0.00781809 0.009530123 -0.0069778366 0.0037137263 -0.0003911689 0.0010346228

layer1.0.bn2.weight f4 [16]
00000000: e656 063f 845e 3c3f 38b0 2d3f 0e34 ec3e
00000010: 486a 213f 6ab2 083f 3897 cd3e 26b9 263f
00000020: 2362 453f a750 423f 5b18 e13e 1dc5 6d3f
00000030: a9c8 5f3f c74d 713f 19bf e73e 6abe 553f
0.52476346 0.7358172 0.67847013 0.46133465 0.630528 0.5339724 0.40154433 0.65126264
0.7710287 0.75904316 0.43963894 0.92878896 0.8741556 0.94259304 0.45262983 0.83493674

layer1.0.bn2.bias f4 [16]
00000000: d0ee 5c3e df7b a7be a9de dc3d b28a b63e
00000010: b500 28be 56e7 b9bc bf17 cf3d b0d5 ac3e
00000020: d42d 5bbd c685 74bc 8791 a13e 83bf 63be
00000030: a283 ed3c 4549 053f 7a73 633e c820 ddbd
0.21575475 -0.32711694 0.107846566 0.3565269 -0.1640652 -0.022693317 0.10111951 0.3375678
-0.053510502 -0.014924472 0.3155634 -0.22241025 0.028993431 0.52064925 0.2221202 -0.10797268

layer1.0.bn2.running_mean f4 [16]
00000000: cfd1 1dbe 4a38 3ebf 5e79 a03e f7d9 c1be
00000010: 20fa edbc 0dfd d0bf 8317 aa3f fb12 63bf
00000020: 90f8 bebc 4d4f d73e 12b6 3f3f d0d8 71be
00000030: ba50 9b3f 4803 cd3d c63a bdbe 72a3 90bf
-0.15412067 -0.7430464 0.31342596 -0.37861606 -0.029049933 -1.6327225 1.3288425 -0.88700837
-0.023311883 0.4205269 0.7488719 -0.23617864 1.2134011 0.100103915 -0.36958903 -1.129988

layer1.0.bn2.running_var f4 [16]
00000000: a65e 993f 96e1 8a3f 62eb 7b3f 9efe 9b3f
00000010: f536 ae3f 9562 793f f8ed 883f 5612 8b3f
00000020: 37ca 623f 6d61 a43f 41e5 723f 07fc c83f
00000030: 1f5b 803f dc9a fa3f 0b6f 793f 4806 e53f
1.198201 1.0850093 0.9840604 1.2187078 1.3610522 0.9741605 1.0697622 1.0864971
0.88589805 1.2842232 0.94881064 1.5701913 1.0027808 1.9578509 0.97435063 1.7892542

layer1.1.conv1.weight f4 [16, 16, 3, 3]
00000000: c463 a9bd 3c7d 52be 7691 26bc da18 513e
00000010: bc27 6c3e 4638 203e c81b 113a 3de8 40bd
00000020: 96a9 62bd 64be a4bd 1696 87bc 5633 f5bd
00000030: 4fa2 84bd ff1e eabd 8e68 0bbd 54f6 583d
00000040: 1a86 053e cf9b e4bd 7af8 003e e352 df3d
00000050: 3de6 b3bc 0589 8f3e 9b5f d43e d00a 6a3e
00000060: 8353 e5bb 9551 babd e36e abbd 012f 46be
00000070: e089 1abe 03dc 03be ec19 0c3e 588e 833e
00000080: 6114 1e3e 05eb c33d 6202 563e 2891 0c3d
00000090: 519d 883d 3858 973d 71ea c53d d634 123b
000000a0: f1f2 2f3c a2d6 b1bd bda5 89bc 9977 c2bb
000000b0: 8628 c2bd 2ac5 7bbe f349 51be 2a43 79be
000000c0: 7881 dabc 0610 97bb ca9d 3abd 3c75 72bd
000000d0: 81c5 bf3c 6e53 f33d e51a 04be 3653 e9bc
000000e0: 9263 d63c fceb cc3d 60cc dc3d 8b26 ad3d
000000f0: 26e1 983d 35d8 9bbb c09e 3bbe 5db1 46be
00000100: 37f1 81be 1d6b 7ebd 24c1 98bc 9e69 39bd
00000110: 0a3d 80be f67e ff3d af87 133e a3eb 593e
00000120: 66d8 dabd 83c6 1cbe 383e 0d3b d1db 74bd
00000130: cd91 bfbd 4ba3 26bd fda3 693e f52b a73d
00000140: a11b 1e3e 8b5f 163d b3b1 2b3e a887 bf3d
00000150: 09cf a23d d0a5 58bd 9d10 21be c0f4 b3bd
00000160: 1bb1 1abe 7732 71be 2379 323e 3eab df3d
00000170: f3b3 723d 55d1 8a3d e754 e2bc d437 97bd
00000180: c737 133e 1c23 513d f8b4 28bd 5506 a9bd
00000190: 8c6d cb3d 7cf1 093d 4e2e 923d ec29 0cbd
000001a0: ddda 523e 062c 08bd ad4e d53d 31e7 a73d
000001b0: a1cd 41be 8b09 f4bd a2c2 59bd e821 ad3d
000001c0: 3c98 e83d 5ebd fcbc 2288 bcbd ea1d f3bd
000001d0: 382f 813d 5e33 ec3d d9a7 e23c 7219 38bd
000001e0: 542e 2a3e 5d45 893e 9208 cdbb 7f0b 61be
000001f0: 4edf 99be 3f70 febb 95b7 13be c9c2 1abe
00000200: 3423 27be 9547 9d3d 714f bd3d 6c11 9d3d
00000210: 400c 083e cbb3 fb3d f58f aa3d a680 df3c
00000220: 8a67 c03e edea f23d 436b bd3e 28cd 8b3e
00000230: 00a7 1bbe 9de9 03be 6ba4 c6bd f935 39be
00000240: ba27 8a3e 04c4 b9bd a743 4fbe cd0a 9c3e
00000250: a527 99bd 1c02 91be 01d5 003e 3f9a 8e3d
00000260: 75e0 32be ba75 a2bd eca8 3abd eedd 253d
00000270: d4c2 c0bd d5d6 0abe 402c c9bb e64b 853d
00000280: df71 b7bc 3e04 c1bd 3a50 c1bd 834b 98bc
00000290: 07db 46bc 59a3 d3bd a51c 2f3d 0213 a73d
000002a0: 9b26 b7bd 2c5d e0bc cb8e 233e ef73 883d
000002b0: 29ee 8e3d d915 853d 44b3 1b3d 19bc 993c
000002c0: 59ae 9739 064c e23d 43f0 ae3c b7a6 bcbc
000002d0: f641 fabd 5cfb 02bd 9173 163e 09a3 b8bd
000002e0: ba09 0a3d 786a 263e 7dc8 82bd 5df1 893c
000002f0: b852 4b3e bd84 94bc 5cdd bd3d bbd5 dfbd
00000300: be56 ad3d cef1 d43d c4b9 463e f43c b0bd
00000310: b266 233e 4133 4a3e 2edd 423d 04b4 383d
00000320: a611 3abc e161 31bd aa7e bebc ce53 8c3d
00000330: f8dc ecbd 7c52 aabd 0644 793d 8491 28bd
00000340: a4b6 a9bc c391 ea3e 2791 17bd abb3 89bc
00000350: 8065 bc3e d2dd 9ebe 0c2f 323e 927a 1f3e
00000360: df4a 0d3c 6efd 13be 56b4 893d c21a fdbd
00000370: 5f72 963c 7813 13bd 8240 fbbd 3d99 c4bd
00000380: 9259 733d 344f 233e 0b96 3e3e 0999 cfbd
00000390: da96 00be e232 203e bfbd d33d 3621 83be
000003a0: 1592 853c 8771 833e 049c 88bd 23eb 83bd
000003b0: 8ba0 f0bc 2f33 ddbc 8161 113b 69c2 7ebd
000003c0: 6cb4 60bd 9ce7 66bc d8f6 ccbd ae34 8abd
000003d0: 2b66 893d ab95 5cbe 72ec ce3b e56a dc3d
000003e0: 733f 57be 3c23 0c3d af43 07bd 1731 bfbc
000003f0: 2098 d9bd 0a44 1cbe 3a52 58be 6973 233c
-0.08270982 -0.20555586 -0.0101665165 0.20419636 0.23062032 0.15646467 0.0005535451 -0.04709648
-0.05533751 -0.08044127 -0.016551059 -0.11972682 -0.064762704 -0.11431693 -0.034035258 0.05296929
0.13039437 -0.11162531 0.12594786 0.10904481 -0.021960372 0.28034225 0.4147919 0.22855687
-0.0069984808 -0.09097592 -0.08370759 -0.19353868 -0.15091658 -0.12876897 0.13681763 0.25694537
0.15437461 0.09566311 0.20899346 0.03431812 0.06670631 0.07389873 0.09663857 0.0022309325
0.010739074 -0.08683516 -0.016802663 -0.0059346673 -0.094803855 -0.24586931 -0.20438366 -0.24342027
-0.026673064 -0.0046100644 -0.045560636 -0.059193835 0.023409607 0.11881147 -0.12900884 -0.02848206
0.026170526 0.10005948 0.10781169 0.08454617 0.07464819 -0.0047559985 -0.18322277 -0.19403596
-0.25379345 -0.06211387 -0.018646784 -0.04526674 -0.2504657 0.12475388 0.14407228 0.21281295
-0.10685806 -0.15310101 0.0021551978 -0.059779946 -0.09353981 -0.040683072 0.22816463 0.08162681
0.15440227 0.03671221 0.16767006 0.09352046 0.07949645 -0.052892506 -0.15728994 -0.08786917
-0.15106623 -0.23554407 0.17429022 0.10921334 0.059253644 0.06778208 -0.027628375 -0.07383695
0.14376746 0.051058874 -0.04118821 -0.08253161 0.09933004 0.033677563 0.07137738 -0.034219667
0.20591302 -0.03324511 0.10415397 0.08198393 -0.18926097 -0.11915883 -0.053164132 0.08453733
0.113571614 -0.030852016 -0.09205653 -0.1187094 0.063078344 0.11533235 0.027667927 -0.04494614
0.16619235 0.26810732 -0.006257125 -0.21977042 -0.3005318 -0.0077648456 -0.144255 -0.15113367
-0.16322023 0.07679669 0.09243668 0.076693386 0.13285923 0.12290152 0.08328239 0.027283024
0.37578994 0.11861215 0.36995897 0.2730496 -0.15200424 -0.12882085 -0.09699329 -0.18086995
0.26983434 -0.0907059 -0.20240651 0.3047699 -0.07478265 -0.28321922 0.12581255 0.06963014
-0.17468436 -0.07932611 -0.045571253 0.04049485 -0.094121605 -0.13558514 -0.006139308 0.06508617
-0.022393165 -0.09424637 -0.0943913 -0.018590694 -0.012137181 -0.103338905 0.042751927 0.08157922
-0.0894291 -0.027388178 0.1597244 0.066627376 0.06979019 0.06498308 0.038012758 0.01876645
0.00028930863 0.110496566 0.0213548 -0.023028715 -0.12219612 -0.031977996 0.14692523 -0.090154715
0.033700682 0.16251552 -0.06385896 0.016838724 0.19855773 -0.0181297 0.092707366 -0.10929438
0.084638104 0.10397683 0.19406801 -0.08605376 0.15957144 0.19746114 0.047574215 0.04509355
-0.011356747 -0.043306235 -0.023253758 0.06851922 -0.11565584 -0.08316514 0.060855888 -0.0411544
-0.020716973 0.45814332 -0.037003662 -0.016809305 0.36796188 -0.3102861 0.1740076 0.155741
0.008623808 -0.14452145 0.067238495 -0.12358619 0.018365083 -0.03590724 -0.12268163 -0.095995404
0.059411593 0.15948182 0.18611924 -0.10136611 -0.12557545 0.1564441 0.103389256 -0.25611275
0.016305009 0.25672552 -0.066703826 -0.06441333 -0.029373428 -0.027001945 0.002218336 -0.062197123
-0.054859564 -0.014093306 -0.10008019 -0.06748329 0.0670894 -0.21541469 0.0063148076 0.10762576
-0.21020298 0.03421329 -0.033023532 -0.023338838 -0.10624719 -0.1526033 -0.21125117 0.009976246

layer1.1.conv1.bias f4 [16]
00000000: b898 9cba bb9a febb 2a39 b73b 139d 0b3a
00000010: 8ffc c7bb 854f f33b 2419 fcbb b4f5 05bc
00000020: f611 08bc 28e3 84bb dcd8 e03b 081c c6ba
00000030: 4841 1d3c 484d 83ba b30c 02bc 57d9 e539
-0.0011947369 -0.00776991 0.0055915313 0.0005325835 -0.0061031054 0.007425251 -0.0076934267 -0.008176256
-0.0083050635 -0.0040553994 0.006861789 -0.0015114555 0.009598084 -0.0010017538 -0.007937598 0.00043840214

layer1.1.bn1.weight f4 [16]
00000000: 325d 443f ba32 183f 715b 393f d737 733f
00000010: 5942 3b3f 2294 303f 833f 413f 4561 2c3f
00000020: c0b7 213f 912f 353f df5e 183f 4178 2f3f
00000030: 3728 273f 46f0 3e3f 99dd 333f 98c9 3f3f
0.76704705 0.594524 0.72405154 0.9500708 0.73148113 0.6897603 0.75487536 0.6733592
0.63171005 0.70775706 0.5951976 0.6854287 0.6529574 0.7458538 0.70260006 0.7491698

layer1.1.bn1.bias f4 [16]
00000000: 1186 cfbe 1d89 7fbe 99cc 893e 50c4 9dbe
00000010: daf9 b4be 4151 15bf f35c 92bd 8b98 babe
00000020: 4375 4e3d 5c56 d3be e5b1 debe 9080 c6be
00000030: cadb 34be 91dd b03d b4bb 9cbe 314c f8be
-0.40531972 -0.24954648 0.26913908 -0.30813837 -0.35346872 -0.5832711 -0.07146635 -0.36444506
0.0504048 -0.41276824 -0.43495098 -0.3876996 -0.17661968 0.086360104 -0.30611956 -0.4849563

layer1.1.bn1.running_mean f4 [16]
00000000: e370 9d3f bbb2 113f 25cb 8bc0 bf0f 13c0
00000010: 3ef9 bdbf b4b0 5d40 ba2a 94bc face 7abf
00000020: 130b c2c0 7b23 1fbd ca62 0840 644c 53c0
00000030: e75a 1240 602c 3cc0 45e6 a7bf e71d 8840
1.2300075 0.56913346 -4.368548 -2.297836 -1.4841688 3.46391 -0.01808678 -0.9797207
-6.063852 -0.038852196 2.1310296 -3.3015375 2.2867982 -2.9402084 -1.3117148 4.25365

layer1.1.bn1.running_var f4 [16]
00000000: f99d 8b40 2949 4940 d89a af40 1afb 0941
00000010: 2b9b 5d40 1bcb ea3f 603c 3241 35f4 1d40
00000020: f8db ad40 029a 1a40 c4ad a63f 605e 0340
00000030: c31f ba40 6f26 e840 39d2 8b40 a1ec 0240
4.363034 3.1450903 5.487652 8.623804 3.4625957 1.8343233 11.13974 2.4680302
5.4331017 2.41565 1.3021779 2.0526352 5.816377 7.2546916 4.369412 2.0456927

layer1.1.conv2.weight f4 [16, 16, 3, 3]
00000000: 16e1 6c3d 68ff d63d 519f 203e 552c c1bd
00000010: 75b1 eabd 9674 e2bc d38d 423d b554 ed3c
00000020: 35a1 e13d dc9f 3a3d c125 a5bd 3c7d 23be
00000030: 35c8 18bd 51ef d7bc 0a50 ea3d 668a 30be
00000040: d4e6 703d c849 2b3d 8cf7 3d3d 6a27 733d
00000050: 5bc4 043d c8fe 12bd 4a7f 883c b3e5 023e
00000060: b113 a13c df14 153e 4c1b 1a3d fd6a 6a3c
00000070: 4218 8cbd 5fd7 903c 0df2 82bd c40c 0e3b
00000080: 4dcb 1ebd 521c 1b3d ac09 dbbb 82da c53c
00000090: 4ef7 56be a35b 5bbe bcf1 01bd 0826 37bd
000000a0: 5b4c 8c3d d8d1 0d3e e0df df3d d4d3 2a3e
000000b0: c418 d43d 5ff8 10be 82d0 3bbe 8625 9ebd
000000c0: 3157 cd3c 5222 ed3c a26f 303e d622 3a3d
000000d0: e329 d03d 99a0 283e 47b7 fc3d c300 2a3e
000000e0: 90e8 093e e192 403e 1328 4e3e 569d 4d3e
000000f0: 5e80 d73c d3f1 6e3d 64d4 913d ece9 97bd
00000100: e881 ee3c a8e8 60bc ef07 45bd bd99 c0ba
00000110: adab 8abd 25e0 9fbd 77c4 953b d1d8 e1bd
00000120: c5b9 3bbe 05b5 2bbe 20e8 ffbd 763b 613b
00000130: 1f70 d63c 77b8 403d cdf4 cdba 49d2 cf3c
00000140: 5105 a33d 6490 f3bd d69f 6bbd dc0c 9dbc
00000150: e9ca f5bd 21c2 3cbe de7f 5fbe 66a6 7abd
00000160: 6e3a 34be ca50 18be 0250 cb3c e417 823d
00000170: 30c7 613d c733 563d 54de 06bd f044 8dbd
00000180: 7cb2 e43d 7feb f7bb 4eeb 43bd 3219 aabd
00000190: 2c65 81bd d79d 6cbd 0604 19be a8a3 d8bd
000001a0: 6c29 c0bd 1ade 6ebe 832b f1bd 811e e6bd
000001b0: 224b 2cbd 9196 603d 2dec 823d a6cd dc3c
000001c0: f605 a23c 837d 263e 0cb7 cd3c 4cc8 9c3b
000001d0: 365a b23d dee2 96bc 7c95 a2bb f989 11be
000001e0: 9d9e 0cbd 6d41 633e 30d9 dc3d 69c9 10bd
000001f0: a0f6 41bb b614 a5bd 011a 7fbd 0f98 fb3c
00000200: 90f0 453d a6af 083c d721 a53d cbc9 df3d
00000210: 2938 2f3d 101d 313e d6e6 c13d b9ec 963d
00000220: b394 f53c dbb6 dc3c 3f2a debd 20a3 c5be
00000230: 8118 17be 3e14 40bc eff8 56bd 0fe5 443d
00000240: ce39 023e 31f0 543e d293 ef3d 6eb0 4b3e
00000250: 08ea d23e 7b89 6c3e 88d3 953d 9797 f43d
00000260: e85f 083e 89b0 843c 0ded 823d 21cc 643d
00000270: 6729 133e 40a4 29bd a676 acbd 2a13 6f3e
00000280: a4dc e13b a3d3 fdbd e777 ad3c db89 0c3e
00000290: 455b 293e 601f 2a3d 3d71 73be 0bad 35be
000002a0: 0a82 f8bd c3a4 2cbe 8cf3 a4bd 1680 413c
000002b0: 5195 ecbd 88fd 09be ffba 69bd 5b2c c2bd
000002c0: a0e7 463c 1503 ffbd e343 c1bd 14e3 643c
000002d0: 41ba 173e d380 663e d04d 863e acb6 073e
000002e0: 8a01 f43d 96fe 943d 4d4d dabd bd36 fe3c
000002f0: 5f31 f33c 1f28 713d 6ee9 a43d f71e 5cbc
00000300: c13e 9f3d 3d3d a43d aafc a2bd 9b41 733c
00000310: 83a9 a0bc d79b 90bd dae1 3a3e d4fd 853e
00000320: a089 943e e531 2f3e 5223 e43d fc75 b43d
00000330: 16cd 1d3e 7d36 c63c 10ef 293d 495f 33bd
00000340: 0a37 febc f090 55bd e0a9 4dbb 7f5d fb3c
00000350: 0d23 083d 5beb 603d 987b 093e ae24 393d
00000360: ec5d 903b 1c8a 3dbd 0c67 d63d 5c5f d53d
00000370: 4e14 41bd 60a1 28bd 8489 3a3e d47e a43c
00000380: 907c 2d3d 64fd fa3d 9b73 9dbc d839 89bd
00000390: 4429 343e 927b 023e 947c 9ebc b686 3e3e
000003a0: 9948 b43d 54d0 11bd a788 27bc c8a6 ebbc
000003b0: 0d8d 93bd 219b 1a3e 9e44 5d3e 555b 203d
000003c0: dd6e 2f3e a3fb 233e 1d7e 9d3d 770e fa3d
000003d0: 464c fd3d 24e6 653d fb65 903d 76d7 193d
000003e0: 0925 7dbc 0c84 dd3d 9f9f c63d 1a8d fd3c
000003f0: f072 9d39 bab4 56bc b1ab be3c aa3f ab3d
0.057831846 0.104979336 0.15685774 -0.09432284 -0.114596285 -0.027643483 0.047498535 0.028971056
0.11017076 0.04556261 -0.080638416 -0.15965742 -0.037300307 -0.026359232 0.114410475 -0.17240295
0.058813885 0.04181841 0.046378657 0.05936376 0.03241382 -0.03588751 0.016662259 0.12782936
0.01966271 0.14558743 0.03762369 0.014307735 -0.06840564 0.017680822 -0.06393824 0.002167509
-0.0387681 0.037868805 -0.0066845026 0.024152044 -0.20992777 -0.21421675 -0.031724676 -0.044714004
0.06850501 0.1384958 0.10931373 0.16682369 0.10356286 -0.14157246 -0.18341258 -0.07722001
0.02506599 0.02894703 0.17230085 0.04544338 0.10164239 0.16467513 0.12339645 0.16601853
0.13467622 0.1880603 0.20132475 0.2007955 0.026306327 0.05833609 0.071205884 -0.07417664
0.029114679 -0.013727345 -0.04810327 -0.0014694255 -0.06771026 -0.07806424 0.0045705396 -0.110276826
-0.18332584 -0.16768272 -0.12495446 0.0034367717 0.02617651 0.04705092 -0.0015713215 0.025368826
0.079599984 -0.11892775 -0.05752548 -0.01917117 -0.12001593 -0.1843343 -0.21826121 -0.061193846
-0.17600414 -0.14874569 0.024818424 0.06352213 0.0551216 0.052295472 -0.032926872 -0.068979144
0.11166856 -0.007565915 -0.047831826 -0.08305587 -0.06318125 -0.057767715 -0.14942941 -0.1057809
-0.093829006 -0.23326913 -0.11775877 -0.11236287 -0.04206384 0.05483109 0.06392703 0.02695353
0.019778233 0.16258816 0.025111698 0.0047846194 0.087086126 -0.018418726 -0.0049616676 -0.14212789
-0.034330953 0.22192927 0.10783613 -0.03534833 -0.0029596463 -0.08060591 -0.06228066 0.030712156
0.04832512 0.008342659 0.08063095 0.10927161 0.042778168 0.17296243 0.094678566 0.0736937
0.029978132 0.026942661 -0.108479016 -0.38601017 -0.14755441 -0.011723576 -0.052483495 0.04807001
0.12717363 0.20794751 0.11698116 0.19891521 0.41194177 0.2309932 0.07315737 0.11942976
0.13317835 0.01619746 0.0639287 0.055858735 0.14371262 -0.041416407 -0.08421068 0.23347154
0.0068927575 -0.12393882 0.021175338 0.13724463 0.16538723 0.041533828 -0.23773666 -0.17741792
-0.12134178 -0.16859727 -0.080542654 0.011810323 -0.11551917 -0.13475621 -0.0570631 -0.094811164
0.012140185 -0.1245176 -0.094367765 0.013970155 0.14817144 0.2251008 0.2623124 0.13253278
0.11914356 0.07275121 -0.10659275 0.03103196 0.029686628 0.058876153 0.08052336 -0.013435117
0.07775641 0.08019493 -0.07958348 0.0148471845 -0.01961208 -0.07060974 0.18250218 0.26170218
0.2901125 0.17108877 0.11139549 0.08811566 0.15410265 0.024195904 0.041487753 -0.043792043
-0.031032104 -0.052140176 -0.003138177 0.03068423 0.033236552 0.054911952 0.13426054 0.045200996
0.0044057276 -0.04627429 0.104688734 0.10418579 -0.047138505 -0.041169524 0.1821652 0.020080008
0.04235512 0.12255362 -0.019220164 -0.06700486 0.17593867 0.12742451 -0.019346513 0.18606076
0.088029094 -0.035599068 -0.010225452 -0.028766051 -0.07204638 0.1509824 0.21608207 0.0391496
0.17132135 0.1601396 0.0769007 0.1220979 0.12368064 0.056127682 0.07050701 0.037558995
-0.015450724 0.108162016 0.09698414 0.030951072 0.0003003101 -0.013104612 0.023275228 0.08361752

layer1.1.conv2.bias f4 [16]
00000000: 8dc3 e13b 8006 caba 5ce6 103b 8303 9a3b
00000010: 3863 c1bb 014f 7dbb 7a97 1cbc 20a3 19bb
00000020: d608 f8ba 1d0b 113c c0e5 4f3b 3c69 c33a
00000030: 43ac 5abb 9f08 38bb d31f 4a39 7cfb f53b
0.0068897665 -0.0015413314 0.002210996 0.0047001257 -0.0059017204 -0.0038651826 -0.009557599 -0.0023443177
-0.0018923532 0.008852747 0.0031722635 0.0014908682 -0.0033366836 -0.002808131 0.00019276077 0.007506786

layer1.1.bn2.weight f4 [16]
00000000: afab 963e 16ba 143f 5852 383f 3660 a83e
00000010: a672 fc3e 0366 353f 743a 023f 21e3 543f
00000020: af57 8e3f c979 f63e c35e d83e cf2a 3f3f
00000030: fd8a 5a3f 98ed 703f 76a6 3b3e 007b 483f
0.2942786 0.58096445 0.72000647 0.32885903 0.4930622 0.7085878 0.5087044 0.8315907
1.1120509 0.4813979 0.42259797 0.74674696 0.8536833 0.9411254 0.18325219 0.78312683

layer1.1.bn2.bias f4 [16]
00000000: b9cc 56bd b206 c23e a4e9 60bd 62f7 583e
00000010: 3fb3 143e d21a 5abe 8773 223e a18c 63bc
00000020: 0531 a2be c278 8abd 259c 783e d8a8 ebbe
00000030: f85e 97bd 059e b83d 102a 193e 4918 db3d
-0.052441332 0.37895733 -0.054910317 0.21188119 0.14521502 -0.21299294 0.15864383 -0.013888509
-0.31678024 -0.06761314 0.24278314 -0.46027255 -0.07391161 0.09014515 0.14957452 0.106979914

layer1.1.bn2.running_mean f4 [16]
00000000: 07ae 623e b601 3f3f 4f7d 5dbf b02e 05bf
00000010: 92c6 693b 0cdb ecbd aea7 6bbe 1b91 ffbe
00000020: fb5c 0ebf b0ee 24be dc41 17ba 7f7e 8f3e
00000030: 428b a3bd fb09 b4be f057 79be ca2c a7bc
0.22136699 0.74611986 -0.8651933 -0.52024364 0.0035671336 -0.115652174 -0.23013183 -0.49915394
-0.55610627 -0.16106677 -0.00057700067 0.28026196 -0.07985546 -0.35163864 -0.24349952 -0.0204071

layer1.1.bn2.running_var f4 [16]
00000000: 4578 b73e 6dd4 463f 66ad 453f 5d41 0c3f
00000010: 4b41 153f 44f4 303f 3446 333f 120e 033f
00000020: 35f5 863f 83b4 ca3e 123d f73e c0c1 c73e
00000030: a9aa 3b3f 4673 6f3f 52d6 803e d333 073f
0.35833946 0.77667886 0.7721771 0.54787236 0.58302754 0.6912272 0.70028996 0.51193345
1.0543581 0.39590845 0.4828878 0.39015007 0.7330728 0.9353527 0.25163513 0.5281345

layer2.0.conv1.weight f4 [32, 16, 3, 3]
00000000: ee6d 34be ec00 d4bd 9304 91bd dc32 b93d
00000010: 7f29 673d b99b 0ebb c460 523d f5be b93d
00000020: 6d5f 053d 2b09 3cbe 5ef0 34be dfa2 45be
00000030: 2cc5 fcbd 4ea6 a1bd 619b ecbd 67e1 12be
00000040: 8220 19be b0f5 4fbe 7ce0 fb3d 0023 c33d
00000050: e4ed d33d ac10 903d 6be6 223e 1dc9 0a3e
00000060: 9c00 c13c e981 1a3c 0280 153e b571 90be
00000070: 3052 14be 58b1 463d 4005 a73d 87fc 3e3d
00000080: 6f3d 2b3d 8556 733e b569 0f3e f2c2 17bd
00000090: bf87 b23c f72f 963d 4930 8b3d 02d3 8dbd
000000a0: 2c8c 72bd 2302 3bbb 7d55 b5bd 9e59 1dbe
000000b0: bbbb c4bd f8f1 4bbd 0a4a 24be c50b a7bd
000000c0: 35d5 94bd 6c3a ed3d e8e9 8e3d d8b0 5fbc
000000d0: eca8 8ebd 5d40 2ebd 9410 d4bd c917 a1bd
000000e0: bdce db3d 586c f1bc 61be b6bc 12a9 163d
000000f0: eebc 3bbe adb8 6bbe 1dfb f8bd 5000 aabe
00000100: 706a 23be 0aa8 5bbd d9fe e7bc ee3a b6bd
00000110: 2d2d b8bc ab46 bebc fa7b b73d dfe6 163e
00000120: 7c2c 473d a9e9 10be 50ed a8bd a95e 61bd
00000130: 923c b33d 4acb 593d e64e 1d3e 1fd7 323e
00000140: dc3b 083d a3ff 3b3d c6cd 98bd 3b45 29be
00000150: caaa 1abd dd20 d03c c8c9 20bd bd45 94bd
00000160: 08c0 8dbd ebdd 80bd fa76 f63c c1e4 8dbd
00000170: 432b b13b bd49 bcbd 5e1f 03be c141 95bd
00000180: eb1e 96bd ca11 d6bd da99 8bbd 6db5 793e
00000190: 5fff 4d3e 6307 873d 8e82 d3bd 7927 203d
000001a0: f551 773d 1bb7 423d eb10 b3bb a5ff ae3b
000001b0: ce74 01bd bc5f 65bd 456f e53d a60e 2b3e
000001c0: 5f60 17bd b6b4 5b3d d570 81bd 2dca d9bc
000001d0: 415e e2bd 6ce6 753e f8e9 a33d d7ce a5bc
000001e0: 8f3c 913e bdc5 863d 669e 32be 1b0b a9bc
000001f0: 02cc e7bc 359b 85bd 3fd2 2c3d e52d 01bd
00000200: a38e cb3b 4217 62bc b29a 99bc bba2 7bbd
00000210: d91a c3bc 70eb 34be ffac 5ebe ec5b 80bd
00000220: 0891 aa3d b6ed 243d 0327 363e 5b8f eebd
00000230: b48b c4bd ee6c 73bd 36cb 85bd 9b8d b3bd
00000240: 5895 8fbd ccad 623e 14f8 5c3e 1ca4 a4be
00000250: 9942 9abb 25c3 653e 3122 b3be e287 fbbd
00000260: 8324 2a3e 6379 123c 5868 0ebe 3cfc 66be
00000270: b008 d33d de1d be3c 99f2 68be 9c58 1a3e
00000280: cd2a a83d ddc2 90bc fa66 debb e2d3 413c
00000290: 2e8c 69bb a674 933d 9fa9 b0bd b783 d3bd
000002a0: 2318 163d 7f8f 20bd 6250 26be 5525 2c3c
000002b0: 6ed6 5a3d 926c 2cbd 125c 5dba de89 ad3d
000002c0: c636 aa3c 7587 0dbe 2fe3 8b3c 5271 5a3d
000002d0: 8c32 8dbd 2d97 7f3c 43d4 603d e46e 54bd
000002e0: f43a eabc 348b 673c 67a3 0dbd 063b dcbc
000002f0: cf92 5c3c 422a da3c 656a c73d c771 4b3b
00000300: a3fa 8a3c 16fc 1bbd b3b3 193d 4f07 9dbd
00000310: c9b1 13bd 5721 233c 1e1b 823c 7fc9 863d
00000320: ad82 cd3c c29b 52bd 155a 73bd 2814 01be
00000330: 9962 b33d 2d40 4fbc d3ca 07be 19ff 18be
00000340: 4bab fdbc 64ea efbc ab97 aabd 3761 033c
00000350: 8e8b 683d 7ed3 003d 9bd4 c4bd 96cc cdbc
00000360: 2810 31bd 95f6 d33c 14f2 ae3d 8760 bc3d
00000370: 696e 29bd 557b 993d 91a0 743e a584 9b3d
00000380: 2c17 b53d 6501 9bbe 1680 ccbd dd74 f63c
00000390: c104 94be 8d1b 25be 35e5 c2bc 96a9 42be
000003a0: 3fdf 5ebe a37d 4bbe e24c 03be 2f0a cdbc
000003b0: f0a3 b0bd 8b30 debd 96aa 7b3d c895 693d
000003c0: ec96 bdbd a28f 203e 9ffe 353e 348b e23d
000003d0: caa2 743e 7833 623e 3a39 fe3d 3e47 0c3e
000003e0: e8a4 183e 6d90 f9bc 3305 333e 0d0d 513d
000003f0: 55d4 793e c8e4 a03e a8d8 373d c37d 083e
-0.1762006 -0.10351738 -0.070809506 0.09042904 0.056436058 -0.0021760298 0.051361814 0.09069625
0.03256171 -0.18362872 -0.17669818 -0.19300412 -0.12342295 -0.07893048 -0.11553074 -0.14343797
-0.14953807 -0.20308566 0.12298676 0.0952816 0.103481084 0.0703443 0.1590821 0.13553281
0.02355986 0.009430387 0.14599612 -0.28211752 -0.14484477 0.048508972 0.08155298 0.046627548
0.041806635 0.23763473 0.14005168 -0.03705115 0.021793244 0.07333367 0.06796319 -0.06925012
-0.05921571 -0.002853521 -0.08854196 -0.15366217 -0.09606119 -0.049791306 -0.16043869 -0.08156542
-0.072672285 0.11583409 0.06978208 -0.013653003 -0.06965813 -0.04254185 -0.103547245 -0.07865865
0.107327916 -0.029470608 -0.022307577 0.03678233 -0.1833379 -0.23019667 -0.12157271 -0.33203363
-0.15958571 -0.05362705 -0.028319763 -0.08897959 -0.022482479 -0.023227056 0.089591935 0.14736508
0.048626408 -0.14151634 -0.08248389 -0.055021916 0.08751787 0.053172387 0.15362129 0.17464875
0.03326021 0.04589809 -0.07461123 -0.16530316 -0.037760533 0.025406295 -0.039254934 -0.07239864
-0.06921393 -0.062923275 0.03008603 -0.06928397 0.0054067685 -0.09193752 -0.12804934 -0.07287932
-0.07330116 -0.10452612 -0.06816454 0.24385615 0.20116948 0.06593206 -0.10327636 0.039100144
0.060380895 0.047537904 -0.0054646633 0.005340534 -0.031605534 -0.055999503 0.112028636 0.16704807
-0.03695714 0.053639136 -0.06320349 -0.026585663 -0.11053134 0.2401368 0.080036104 -0.02024023
0.28366515 0.06580684 -0.17443237 -0.020635178 -0.02829552 -0.06523744 0.042192694 -0.03153791
0.006212072 -0.01379949 -0.018750522 -0.06143449 -0.023816513 -0.17667937 -0.2174568 -0.06267533
0.08328444 0.04026576 0.1778832 -0.11648437 -0.09596959 -0.059430055 -0.065329 -0.087672435
-0.07010907 0.22136611 0.2157901 -0.32156456 -0.004707646 0.22437723 -0.34987023 -0.12281777
0.1661549 0.008940074 -0.13906991 -0.22557157 0.103043914 0.023207601 -0.22748794 0.15072864
0.082112886 -0.017671043 -0.006787178 0.011830302 -0.0035636532 0.07199983 -0.08626103 -0.10327857
0.036644112 -0.03919935 -0.16241601 0.0105069475 0.053427152 -0.04209573 -0.00084442005 0.08473562
0.020778071 -0.13821204 0.017076103 0.053330727 -0.06894407 0.015600008 0.05488993 -0.051863566
-0.028592564 0.01413231 -0.03457966 -0.026883613 0.013462736 0.026631478 0.0973709 0.0031043158
0.016965216 -0.038082205 0.03752489 -0.0766741 -0.03605822 0.009956679 0.015882071 0.06581401
0.025086725 -0.051418073 -0.05941208 -0.12605345 0.087590404 -0.012649578 -0.13260965 -0.14941062
-0.030965468 -0.02928657 -0.083297096 0.008018783 0.056773715 0.031451695 -0.09610864 -0.025121968
-0.0432283 0.025874415 0.085422665 0.09198099 -0.04136506 0.07494227 0.23889376 0.07593659
0.0884231 -0.302745 -0.09985368 0.030085022 -0.28909877 -0.16123791 -0.023790935 -0.19010004
-0.21764849 -0.19872145 -0.12822297 -0.02502927 -0.086250186 -0.108491026 0.06144198 0.05702761
-0.09257302 0.15679792 0.17772911 0.11061707 0.23890224 0.22089946 0.12413259 0.13699052
0.14906657 -0.030464375 0.17482452 0.051037837 0.24397404 0.31424546 0.044884354 0.13329224

layer2.0.conv1.bias f4 [32]
00000000: 5943 9f3b a62a afbb d881 0a3c ab30 b13a
00000010: fb35 813b 84fb d1bb 964f b0ba d638 b03a
00000020: eb5e b5b9 709a 05bb e03d b43a 2534 e23b
00000030: abbd 133a 566b 27bc 70c8 e4bb e48c bbbb
00000040: fd5c f5bb a804 bf3b 2ddf c23a 1e91 83bb
00000050: 13ce bebb 9ef8 3c3c 469f 603b 89ff e2bb
00000060: 84ff d0ba 3d4b 5b3a b807 daba da10 cc3a
00000070: fcb1 403b 35f7 babb 20fd c839 5206 b9bb
0.0048603234 -0.0053456603 0.008453809 0.0013518533 0.0039432026 -0.006408157 -0.0013451453 0.0013444673
-0.0003459373 -0.0020386241 0.001375135 0.006903189 0.0005635868 -0.010218462 -0.006981902 -0.0057235826
-0.0074878917 0.0058294125 0.0014867537 -0.004015102 -0.005822906 0.011533884 0.0034274622 -0.006927435
-0.001594529 0.00083653984 -0.001663438 0.0015568987 0.0029402962 -0.005705739 0.00038335565 -0.0056465054

layer2.0.bn1.weight f4 [32]
00000000: 43a7 343f 2bd7 3e3f 5fad 4e3f 2b42 3b3f
00000010: 2520 3f3f ea30 3c3f 864c 593f fd59 5a3f
00000020: 2068 3a3f bee1 383f 9b13 4f3f b96c 5e3f
00000030: 7086 683f 2b3d 383f efe4 843f 06a6 393f
00000040: 26fa 363f 4036 853f b9f9 463f 54e9 4a3f
00000050: 0a18 323f 56ce 503f 01e7 633f 55c6 4b3f
00000060: f385 593f 8fe5 533f 68be 753f 842a 553f
00000070: 1f37 3b3f 9949 5c3f 46bb 533f c0dd 423f
0.7056772 0.7454707 0.80733293 0.7314784 0.74658424 0.73512137 0.8488239 0.8529356
0.7281513 0.72219455 0.8088929 0.8688465 0.90830135 0.71968335 1.0382365 0.72518957
0.71475446 1.0407181 0.77724797 0.7926228 0.6956793 0.81564844 0.8902436 0.79599506
0.84970015 0.82772154 0.9599366 0.83268 0.73130983 0.860498 0.8270763 0.76119614

layer2.0.bn1.bias f4 [32]
00000000: 4b94 4ebe 308e 9fbb 7fed 70be ac66 f43d
00000010: 23ef 5d3d 793f 593d 8cdf 5dbd 1f62 d9bd
00000020: 770b d3bd 393b 213e 65ea 17be 76b8 dbbd
00000030: 35c7 06be af53 c13b 80c6 03be c765 a33d
00000040: b3d8 28bd 62ab 44be db41 5cbe 728b 87be
00000050: a424 133d cafe dbbd 59a4 20bd 56d6 14be
00000060: 9824 23be beba 6b3c d4d2 f5bd 54c6 42bd
00000070: 738d 81be 9daf 12be 1ca9 ecbd b42b a6bd
-0.20173757 -0.004869245 -0.23528098 0.119336456 0.054183137 0.053039048 -0.05416827 -0.10614418
-0.10304921 0.15745248 -0.14835508 -0.107285425 -0.13161929 0.0058998684 -0.1286869 0.07978397
-0.041222285 -0.19206002 -0.21509497 -0.26473576 0.035923615 -0.107419565 -0.039219234 -0.14534888
-0.15931928 0.0143877845 -0.12003103 -0.04755242 -0.2530323 -0.14324804 -0.115556926 -0.081138045

layer2.0.bn1.running_mean f4 [32]
00000000: 9809 20c0 c2f2 593e 318b 643f 6dea 29c1
00000010: ac96 3ec0 a257 bb3f 9f56 6c3d 921e 4bbf
00000020: aaf0 4cc0 a67e 0141 4eb7 8ebf f72e 5c3f
00000030: 7f40 8cbf 9b30 38c0 7d03 d43e 0576 86c0
00000040: 0196 8bc0 446d c3be f3d2 2ac0 f060 8ebf
00000050: 62cc 9c3f 7c06 23bd 6f68 32c0 db0e 28be
00000060: 7f8e cf3e 0781 d53f 1641 8e3e 7b5c 2a3f
00000070: a457 4640 f25d 60c0 a610 2a3c 0c12 05c0
-2.5005856 0.21284011 0.8927489 -10.619733 -2.9779463 1.4636118 0.057699796 -0.7934352
-3.202189 8.09342 -1.114969 0.8600916 -1.0957183 -2.8779666 0.4140891 -4.2019067
-4.362061 -0.381693 -2.6691253 -1.1123333 1.2249873 -0.039801106 -2.7876241 -0.16411917
0.40538403 1.6680001 0.27784032 0.66547364 3.0990992 -3.505734 0.010379946 -2.0792265
